flappybird_dqn_ep280.pth (torch, 561729 bytes, 32 tensors)

fc1.weight f4 [128, 7]
00000000: df73 803e ab7d f4be ab74 3b3e a141 2f3e
00000010: 4792 87be af2b 243e 0182 533e b8e8 653d
00000020: 8598 a23e c80d 893c 04f9 7c3e b482 983d
00000030: 6526 7f3d b68f 2b3e f88b b6be 8ade dd3d
00000040: f560 1fbe 1469 b6be ee36 95be 0e18 0ebd
00000050: 5936 e83c 5556 7dbe ed81 493e 114f 5b3d
00000060: 5867 b93d 2077 ae3c 7584 a83d e734 d63e
00000070: 40c1 f5bc 4800 b33e 1927 01bf deef 81bd
00000080: 8a15 bfbe e5e4 503e 3d95 ce3e 42c5 a23c
00000090: 487a 0f3e 5ddb 793e 86ff 91be f367 9e3d
000000a0: 1353 adbe 1e7d cbbd 6a78 063e 5f59 85be
000000b0: 3d31 023e 1ea0 6bbe bb1b 0cbe c3e7 babe
000000c0: 9c78 69be b507 24bc d4e9 f13d 5bf6 a2be
000000d0: 3635 a6be d642 d63d b342 403e f752 bc3e
000000e0: 1c9b 15be 1bf6 2a3e daad c93e 7b9b de3d
000000f0: e4fd 9bbe 76aa cb3e 0ae8 033e 9a79 30be
00000100: 0a05 99be 483f 913e 8f4a b1bd 6063 69be
00000110: 33bb 49be 6b18 fa3d faa8 173e 4f47 be3e
00000120: 8404 0cbd fdac b93e 8ed7 d93e a157 87bd
00000130: ba90 f4be 3c3f 243e 1d6b 74be 75d9 203d
00000140: 21ca 48be 4db6 1fbf 93ee f33e ae9e 46be
00000150: 9cb8 213e cf95 bcbe bcec b53e 17d3 36be
00000160: 113f b53e 261a 8dbe 09c7 42bd 5a45 a53e
00000170: 3b2f b03e 811c 78be b437 93be a3ca a63e
00000180: f577 1e3e 5749 6dbe 91a5 513e 8b7e 8fbe
00000190: db84 24be 03a6 19be 3e2d 693b db63 c03e
000001a0: 7a5b 29be c67c 003e 8b6f 78be f830 7f3e
000001b0: 538a 5f3e 3ecc eebd 5c0a d73e cb11 aabd
000001c0: 7708 da3c ede3 4c3e dcab ddbd de7d debe
000001d0: 6903 af3b 13f6 88be 6071 633e 38fa 013f
000001e0: d507 8b3e e672 9e3e 13f9 48be badb b9be
000001f0: 1bae 033e 2ebf 3ebe 8622 fd3d 846d 96bd
00000200: baa4 4bbf ddcf b73d df85 843b ebde bcbe
00000210: 8312 073e ea96 593c 843b 8cbe 80fd 6dbe
00000220: fcce 2f3e 980e 99be 0295 19be 7f1a 2cbe
00000230: aa2d 43be 0cdc 3abe d0d3 3e3e 1ee2 d1bd
00000240: 1616 8cbe b0d5 763e ac11 a7be cb7e 38be
00000250: 6fb2 aabd b39c 9dbe bff7 e9bc 5504 8ebe
00000260: 17b7 de3d 4e8c 06be 5a0b 4f3e 98ab ae3e
00000270: 5320 80be 19f3 17be 663f 2bbe 5a77 dabd
00000280: 77e4 a43e ea73 f4be 6051 21be 0485 b0bd
00000290: d23b 543e f8f6 ab3e cee0 913e 5e16 edbe
000002a0: 05e4 123e 4d2d b5be 30b1 c8be 23d7 083e
000002b0: 0776 fb3d c1a4 013d a25f a13d 47f0 5b3c
000002c0: 275c ba3c c815 77bf 3497 81be 7db1 b1bc
000002d0: 4b9f cabe ca8a 203e 08b8 8c3d 717c ee3d
000002e0: 06f8 89be 42dc 0a3e 479c 853e 0e15 813e
000002f0: 371a 85be 67e1 03bd a3a0 55be a31e cd3e
00000300: 14d4 9fbe f53a a6be 8fff 6f3b d8f0 11be
00000310: b4d9 813e 2e16 0f3e 7c5d 02be a9e5 81bd
00000320: 8e9c 67be 545f dd3d fd75 ee3d be1d a5be
00000330: b6e7 42be 1def 963e 9d52 f1bd daee e53e
00000340: 0761 27be 93cf 47be 73af b8be a349 ae3e
00000350: 5d1c c1be 06a1 18bd 9e71 733d ff07 d53d
00000360: 637f 54be 57df b1bd 5426 31be dfd8 52bd
00000370: 496c 18be 7761 babe 6596 3a3e 0e2e 52be
00000380: 3543 35be 6f98 9f3e 31e2 2ebf d2f6 8c3e
00000390: dbc0 933e 342f 213e f3ef 0b3e 1544 5c3e
000003a0: 7491 99bc 6855 f2be 7bfb 4cbd 538b b43e
000003b0: 9b07 5c39 3bb7 b73e 01d6 3bbd 0b72 03bd
000003c0: fa9e 48be 33ca f1bd ed7b 9bbe 000c 12be
000003d0: 1720 f73e 9c53 523e 6a77 e03e b202 4ebd
000003e0: 90be 8d3e d160 6d3e 4d98 983e 68df 903e
000003f0: e3b4 a6be c982 a83e d725 b63e 3754 973e
0.25088403 -0.47752127 0.18306224 0.17114879 -0.26478788 0.16032289 0.20655061 0.05613014
0.31756988 0.016730204 0.24704367 0.07446805 0.062292475 0.1675404 -0.35653663 0.108334616
-0.1556433 -0.35627043 -0.2914347 -0.03469091 0.028346227 -0.24739964 0.19678469 0.0535422
0.090529144 0.021297038 0.08228389 0.41837236 -0.029999375 0.34961152 -0.50450283 -0.06344579
-0.3732112 0.20399816 0.40348235 0.01986945 0.1401149 0.24400087 -0.2851526 0.077346705
-0.33852443 -0.099359736 0.13131872 -0.26044747 0.12714095 -0.23010299 -0.13682453 -0.36504945
-0.22799915 -0.010011603 0.11812177 -0.3182858 -0.32462472 0.10461967 0.18775444 0.36782047
-0.14609951 0.16695444 0.3939045 0.10869499 -0.3046714 0.3977849 0.12881485 -0.17233887
-0.29886657 0.28368592 -0.08656799 -0.22791815 -0.19700317 0.122116886 0.14810553 0.3716378
-0.034183994 0.36264792 0.42547268 -0.06608511 -0.47766668 0.16039747 -0.23868985 0.039269883
-0.19608356 -0.62387544 0.47642955 -0.19396469 0.15793079 -0.36833045 0.35532176 -0.17853962
0.35399678 -0.27559012 -0.047553096 0.32279474 0.34411034 -0.24229623 -0.28753436 0.32576475
0.15475447 -0.23172508 0.20473315 -0.28026232 -0.16066305 -0.15004735 0.0035579945 0.37576184
-0.16538802 0.12547597 -0.242613 0.24921024 0.2183011 -0.1166005 0.4200009 -0.08304175
0.026615364 0.20008822 -0.10823795 -0.43455404 0.0053409827 -0.2675024 0.22211218 0.5077243
0.27154413 0.30947036 -0.19626264 -0.3630045 0.12859385 -0.18627617 0.123601004 -0.07345107
-0.7954823 0.08975194 0.004044279 -0.36888823 0.13190655 0.01328061 -0.27389157 -0.23241234
0.17168802 -0.29893947 -0.14998248 -0.16806982 -0.19060388 -0.18248004 0.18635488 -0.102482066
-0.273606 0.24104953 -0.3263067 -0.18017118 -0.08334815 -0.30783615 -0.028560517 -0.2773768
0.10874765 -0.1313946 0.20219174 0.3411529 -0.2502466 -0.14838828 -0.16723403 -0.10667296
0.32205555 -0.47744685 -0.15753698 -0.08619121 0.20725945 0.3358686 0.28491825 -0.46306127
0.14344795 -0.35386124 -0.39197683 0.13363318 0.12278371 0.031651262 0.07879569 0.013423986
0.02274902 -0.9651761 -0.2531067 -0.021691078 -0.39574656 0.15677944 0.06871039 0.11644829
-0.2694704 0.13560584 0.26095793 0.25211376 -0.25996563 -0.032197382 -0.2086206 0.40062436
-0.3121649 -0.32466856 0.003662083 -0.14252031 0.25361407 0.13973305 -0.12730974 -0.06342632
-0.22618315 0.10809198 0.11643598 -0.32249254 -0.19033703 0.29479304 -0.11783335 0.44908792
-0.16345607 -0.19512777 -0.36071357 0.34040555 -0.37716952 -0.03726294 0.059434526 0.10401916
-0.20751719 -0.08685177 -0.17299777 -0.051476356 -0.14885058 -0.36402485 0.18221433 -0.20525381
-0.17701419 0.31170985 -0.6831389 0.2753206 0.28858075 0.15740663 0.13665752 0.21510346
-0.018746115 -0.47330785 -0.050044518 0.35262546 0.00020983668 0.3588198 -0.045858387 -0.03209118
-0.19591895 -0.118061446 -0.30367985 -0.1426239 0.4826667 0.20539707 0.43841106 -0.05029554
0.2768445 0.23181464 0.29803696 0.28295445 -0.3255988 0.3291228 0.35575745 0.29556438

fc1.bias f4 [128]
00000000: 5cb4 9ebe 05eb 053d f8ed 763e 5a9d b6bc
00000010: 992a ac3e 3307 aebe d122 5c3e b0bd 313e
00000020: 7d89 03bd 5be1 7fbd e14a 313e b07f 0c3e
00000030: 50c3 c4be 4258 32bd a841 70be b5cc 82be
00000040: 101f 1fbe 6ebd 83be e38b 8d3e 8830 473e
00000050: 2c60 5ebe 273f 9abd 6a43 7a3e 4a43 443d
00000060: c67b b9bd 85b4 753e 88c2 963e 56ae b23e
00000070: c591 323d e1ea 7a3e f74f 61be 0e75 b1be
00000080: dbc7 6abc 4b47 cb3d 09c9 413c c609 963e
00000090: f518 773e 0e63 213e 0a93 3d3d 945e 183a
000000a0: 00ef ac3e 01f0 843e d5d2 033b 213c d03e
000000b0: 3f22 02be 8f06 3f3e 6acb 553e 1048 8b3d
000000c0: 623d a9be 37fb 843e e70c c4bc 7f08 bdbe
000000d0: d2cf 51be c10d d5be 206f a0bd da8e 8e3d
000000e0: 4028 8dbe f603 a7be 90c6 c0be cd2a 943e
000000f0: fee8 fb3d 5009 48be 5707 b3bd 1ec3 a2bd
00000100: e447 ccbd bd42 323e 846e 90bd b96c 03be
00000110: 5c20 1abe 8e72 7fbd 9c3e 6a3e 1be9 cb3c
00000120: cde2 2ebe 5ea8 0ebd 1bd8 183e 0b06 a6be
00000130: 574f 3a3e a543 233d 1e32 833d b7be 1bbe
00000140: d2ef 8f3e 0949 f5bd 894a 8f3e 66a7 9ebe
00000150: 1a66 9ebd b9e7 8c3e f245 2fbe c96a 15be
00000160: e31c b73e 80b7 c43d 05f5 afbd e48a 76be
00000170: eddc 973e f858 c43e dd18 6ebd 7eec 443e
00000180: 148f babe 8686 a63e 5593 f33d b814 61bd
00000190: 9b9e 0b3e 3696 a43e fe6e 7b3e 22bd 67bd
000001a0: 0728 e93d cd3f 20be 074e 10be 20c0 8e3e
000001b0: ff66 853e 227a 8ebe ec5b 24be e3db 993e
000001c0: ce11 923e 80d5 313e 6f76 a73e cc44 a7be
000001d0: 51a6 cabc 8f36 53bd 19c9 853e 410a acbd
000001e0: 40e9 a63d f12f f33b 6b12 2bbe fcfb 003e
000001f0: 37e3 27be a2d4 19be e741 933e 19a4 94be
-0.30996978 0.032694835 0.24114215 -0.022291828 0.3362625 -0.33989868 0.21497656 0.17357516
-0.03211354 -0.062470775 0.1731372 0.13720584 -0.38430262 -0.0435412 -0.23462546 -0.25546804
-0.15539193 -0.2573046 0.27645788 0.19452107 -0.21716374 -0.075315766 0.24439779 0.047915734
-0.09056811 0.23994644 0.2944529 0.34898633 0.043596048 0.24503662 -0.2200316 -0.34659618
-0.014329876 0.099257074 0.011827716 0.29304332 0.24130614 0.15760443 0.046282806 0.0005812433
0.33776093 0.25964358 0.002011468 0.40670875 -0.12708376 0.18654846 0.20878378 0.06800854
-0.33054644 0.25972912 -0.023931934 -0.36920545 -0.20489433 -0.41612056 -0.078336954 0.069608405
-0.2756977 -0.3262021 -0.3765149 0.28938904 0.12300299 -0.19534802 -0.08741634 -0.07947372
-0.099746495 0.17408271 -0.07052329 -0.12834443 -0.15051407 -0.062365107 0.22875446 0.024891427
-0.17078705 -0.034828536 0.14926188 -0.32426485 0.18194328 0.039859433 0.064060435 -0.1520947
0.28112656 -0.11976821 0.27986553 -0.3098709 -0.07734318 0.2752054 -0.17116526 -0.14591517
0.35764226 0.09605312 -0.08591656 -0.2407642 0.2966074 0.38349128 -0.05812918 0.1923084
-0.36437285 0.32524508 0.11893336 -0.0549514 0.13634722 0.32145852 0.24554059 -0.056576855
0.11384588 -0.15649338 -0.14092265 0.27880955 0.26055142 -0.27827555 -0.1605069 0.30050573
0.2852921 0.173666 0.32707545 -0.32669675 -0.024737509 -0.051565703 0.26129988 -0.08400393
0.08149958 0.0074214865 -0.16706245 0.12596124 -0.1639527 -0.15022519 0.28761217 -0.29031447

fc2.weight f4 [128, 128]
00000000: efd6 4f3e e2be b5bc fd17 2fbd 05f9 82bb
00000010: a682 d0bc 1efd 4fbd cbe1 0bbe 3e52 84bc
00000020: 8192 c0bb 201b 3e3d a789 0fbd dfd2 643e
00000030: f4e6 f6bc 7979 243e 4e1f f03c d664 a53d
00000040: dbe6 ac3c ea1e 263e a084 193d 4f0f 94bd
00000050: 06e5 033d bfed 6b3c 703c 0d3d d17d c9bd
00000060: 9a6c 42be dfe4 0fbe 3e11 733d b72a c53d
00000070: 67ac d83d 3547 f2bd eb38 533d 61b7 e0bb
00000080: 8ed7 c0bd dc33 50bd e209 ffbd f346 74bd
00000090: 3120 8f3d 1298 88bc d4b9 853e e980 f2bc
000000a0: 1d4f 153e d4a9 5a3d a1fc 843d 3281 463e
000000b0: c0b4 973c 27f9 503c c723 34bd 3613 1cbd
000000c0: 22df ba3b daf7 b4bd 9d02 e2bd c59d 1cbd
000000d0: ceb8 a53d 92bb ed3d 3eb0 953d 8b01 72bc
000000e0: 55df c63a bd4e 3cbd 13fb 383d f8ec 0dbb
000000f0: 05d9 213e dc8b 62be 6270 8d3c cbfc d93d
00000100: eb3a 70be f869 52bc cc24 c53c c57e 213e
00000110: 96a9 b0bd ce80 083e 5e01 123b 87b6 06be
00000120: 7463 8a3c 882a 563d e706 e0bd 5c07 7e3e
00000130: 4f9d db3c 89ba 313e 2159 a53e 830c 45bd
00000140: 65e0 ed3c 8959 88be 4e9b 243b 27ba 0e3d
00000150: 6f9f ce3e b8ce babb e17e 073d 67a2 e13d
00000160: 3eb6 143e c564 683e b769 163d 5d5f 2a3c
00000170: 63d9 7d3d 7a44 88bc baaa 49bd 779f bb3c
00000180: 7762 463d 9072 2abd 790a 4abc 9eda 94bd
00000190: 28ec efbd 932a 52bd c713 753e 00a7 d3bd
000001a0: 837d 25be f1c0 56bd 491e 2f3e 0adc 7ebb
000001b0: f67e 463e 9fb6 f83d d16f fc3d fe5b 87bc
000001c0: 9c44 b5bd b8e0 323c 3b02 693e 2936 40be
000001d0: d1fe e2bc 2eb0 8a3d cebd 593d 1f2c 57bc
000001e0: bbf9 bcbd eb4c 20bd 85c9 3f3e 3404 673d
000001f0: 16a6 81be bf8a f5bd 4362 113e 0b6c 4e3d
00000200: c698 12be e191 783d d34c e6bc 2a55 6e3d
00000210: e4ca 0abe 3104 acbd 4948 26be 4e3c 30bd
00000220: e923 41bd 9ff4 b43d e51e 933d 469b edbd
00000230: e1a8 b0bd 1299 d73b 5189 29be f073 7b3d
00000240: b9f5 983d 1e9d 0bbe 6176 16bd 3842 11bc
00000250: a4c8 693d 5ca6 91bc 8bba 50be fad5 38bc
00000260: b28d e43b 29f1 90be dcaf e53c c8b5 ac3b
00000270: c8a8 b8bd 92bc 3c3e 9d2a 89bc 0223 cdbc
00000280: 4b9c d4bd 23a0 35bb 9ce9 4cbe ac5e ef3d
00000290: 931d ccba 8067 6f3e c25e c2be 6e05 b6bb
000002a0: 561c 1c3e af9c b33d 53f4 5e3c 207b 11be
000002b0: 4d9d b33d 76d3 af3d a49c 47bc 7b5c 30be
000002c0: 1944 49bd 5036 1ebe 8d1b 8bbe 661b a93d
000002d0: 31e9 a83d e1e9 99bc 9683 183d 9e5d 2d3e
000002e0: b0c9 84bd f2c3 b33d 0896 aa3d 4fee a83d
000002f0: 8125 2abd 9e92 853e da04 f53d 8dac 8f3d
00000300: 1b55 833e bccc 163d b3bc a5bd f41a fd3c
00000310: 7624 483d ecb9 043e b355 c43d 9095 31be
00000320: 98e2 af3d 437e ee3e 1a2c 5d3d ab7d 4dbe
00000330: 042b 953d 93c3 cfbd 7444 9dbe 7f94 c5bb
00000340: 08f5 aabd 5013 883e b92d e8bc bf3c 02bb
00000350: 7d62 d6be c707 493d 27d7 5abd 6873 3ebe
00000360: c141 81bd f148 98bd 9605 f53b d332 94bd
00000370: 8af5 cf3d 11d2 44bd fe8a 96bd bf24 0c3d
00000380: 13b8 dabb 6675 8d3d 1ae6 f13c 1a41 7bbd
00000390: 8db1 d5bd b650 3cbc 31f7 a9bd cf67 5b3e
000003a0: e316 1c3e c6d5 bfbc f072 433d 6538 8d3d
000003b0: 8209 3a3d 4bb5 e0be a356 5a3c e258 3bbe
000003c0: 4c68 80bc b9ab e3bd 4b98 afbc b14b 09be
000003d0: 96e2 bdba 2ac6 31bd 054b 293d f0ba 583d
000003e0: f866 cbbc 5262 4dbc 2195 59be 7d8a 96bd
000003f0: 642b 87bd 6f85 6c3d 2385 efbb bdaf 65bd
0.20296834 -0.022185747 -0.042747486 -0.0039969706 -0.025452923 -0.0507785 -0.13660352 -0.016152497
-0.0058768396 0.046412587 -0.035043385 0.22346066 -0.030139424 0.16061963 0.029311802 0.080758736
0.021106174 0.1622273 0.037479997 -0.072294824 0.032200836 0.014399945 0.034481466 -0.09838451
-0.1898674 -0.14052151 0.059342615 0.09627288 0.10579758 -0.11829988 0.051567953 -0.006857798
-0.09416114 -0.050830707 -0.12453057 -0.059637975 0.06988562 -0.016674075 0.26118338 -0.029602485
0.1458096 0.053384617 0.06493498 0.19385222 0.018518806 0.012754715 -0.043979432 -0.03810426
0.005702869 -0.088363364 -0.11035655 -0.0382364 0.08091889 0.11608042 0.07309006 -0.014770876
0.0015172759 -0.04597353 0.045161318 -0.0021656137 0.15805443 -0.22123665 0.017265502 0.106439196
-0.23459975 -0.012842648 0.024065398 0.15771015 -0.08626096 0.13330385 0.0022278647 -0.13155566
0.016893126 0.052286655 -0.109388165 0.24807495 0.026808409 0.17356314 0.32294562 -0.048107635
0.029037664 -0.2663081 0.0025116983 0.034845497 0.40356013 -0.0057009123 0.033079986 0.11017304
0.14522645 0.2269469 0.03672191 0.010398713 0.061974894 -0.016634215 -0.049235083 0.022903187
0.048433747 -0.04161316 -0.012331598 -0.072682604 -0.11714965 -0.051310133 0.23933326 -0.10334587
-0.1616116 -0.052430097 0.17101397 -0.0038888478 0.19384369 0.12144207 0.12326015 -0.016523357
-0.08850977 0.010917835 0.22754757 -0.1877066 -0.027709397 0.06771885 0.053159527 -0.013133078
-0.0922732 -0.039135855 0.18729217 0.056400493 -0.25322026 -0.11989354 0.1419764 0.050396007
-0.14316091 0.060685996 -0.028112805 0.058186688 -0.13553959 -0.08399237 -0.16238512 -0.04302626
-0.047153387 0.0883572 0.07183627 -0.11601882 -0.08625961 0.0065795267 -0.16556288 0.061389863
0.07468743 -0.13634154 -0.03673399 -0.008865885 0.05707611 -0.017779522 -0.2038366 -0.011281485
0.006974899 -0.2830899 0.028037958 0.0052706935 -0.090165675 0.18431309 -0.016743952 -0.025041107
-0.10381373 -0.0027713857 -0.2001099 0.11687979 -0.0015572779 0.23379326 -0.3796292 -0.0055548465
0.15245184 0.087701194 0.013608056 -0.14207125 0.08770237 0.08585255 -0.012183342 -0.17222778
-0.04913721 -0.15450406 -0.27169457 0.08257179 0.08247603 -0.01878828 0.037234865 0.16930243
-0.06483781 0.08777608 0.083293974 0.08248579 -0.041539673 0.26088423 0.11963816 0.07015333
0.25650868 0.036816344 -0.08092632 0.030896641 0.048862897 0.12961549 0.09586658 -0.1734221
0.08588141 0.46580705 0.053997137 -0.2006747 0.07283595 -0.10144725 -0.30716288 -0.006029665
-0.08347517 0.26577234 -0.028342115 -0.0019872633 -0.41872016 0.049079683 -0.05342784 -0.18598711
-0.0631137 -0.074357875 0.0074774725 -0.072362565 0.10154255 -0.048051897 -0.073507294 0.03421473
-0.0066747754 0.069071576 0.029528666 -0.061341383 -0.10434256 -0.011493852 -0.08299101 0.21426319
0.15243106 -0.023417365 0.047717035 0.06895522 0.045419224 -0.43888316 0.01332632 -0.18295625
-0.015674733 -0.11116738 -0.021434924 -0.1340778 -0.0014487084 -0.043401875 0.04133131 0.052912652
-0.024829373 -0.012535648 -0.21248294 -0.07350633 -0.06600073 0.05774444 -0.0073095723 -0.0560758

fc2.bias f4 [128]
00000000: 6145 c13d fe7d 4dbd f5e9 a3bd 868b 4b3b
00000010: b11d 013d a1a3 9c3c f76e f1bc a671 9ebd
00000020: 91a3 dc3b 0846 103d 1d49 97bd ab72 aeb8
00000030: 5fe2 413d 48f4 463c 28c5 30bd 1587 e53a
00000040: bf61 353d 71e6 7e3d aef8 f43b c7c3 883d
00000050: 6ceb 5a3d d6a4 b03d 7f40 c43d 350d 163c
00000060: e6e4 7bbb 27e0 c93d 46f4 e63c 420f 8ebc
00000070: fcc9 803d 45ca 9dbd 5139 f93b 4f56 b0bd
00000080: 5197 f93c 9efd f13c 34d8 5abd 681b f93c
00000090: 9d73 5f3c 5509 263d 9fed 2b3d ab75 a23d
000000a0: 5511 9c3d 11cb a7bd 1cd6 5e3c 7e15 3bbd
000000b0: 17a1 b23c 9420 d63c ecba 8b3d 6391 873d
000000c0: 55ee 013d 7ed4 063c f3a2 0b3d 0595 f5bc
000000d0: c5b2 903b eebe 1bbc 0c9d 4dbd 7488 dfbc
000000e0: c5d9 153d 127b 353d f0ef 3ebd 77ae c53d
000000f0: 58a3 f83b d47c b6bd 24cc 91bd 7552 543d
00000100: 8208 96bd ab80 163d dcaa 7a3c 4e2d ffbc
00000110: e144 733d b324 c1bc 8deb 95bd 00d5 273c
00000120: 0373 9bbd d7b4 a2bd a320 6a3d dceb 123d
00000130: bf07 6ebd ab73 8a3d c04d 983d 70e3 bf3c
00000140: 5975 953d 3144 48bd f85d 70bd ce91 663d
00000150: 235d c7bc 7a9c f7bc af0f 313d c150 4abd
00000160: fc28 debc c719 26bc e1fc d03c c416 8e3d
00000170: 2625 82bd 9bcf 6ebd 131d 6f3d 0de1 d13d
00000180: e8c6 12bd 5ffe 7cbc 158f 053e 23c3 4ebd
00000190: 81fc 613d 77a1 cc3d aeaa 58bc 9fed b5bd
000001a0: 2e8c f03b e135 833d 51de afbd 062c 813d
000001b0: 8f46 adbc 9e37 3bbd f0e9 233d 1635 70bd
000001c0: c2aa 933d a393 e93c 698f 06bd 6b99 ba3c
000001d0: df52 6f3d 301c 463c 431a 3f3d 00cb 59bd
000001e0: 6285 f93b 0603 1d3d 7072 40bd 545c a93d
000001f0: 741e 21bd 7879 32bd c589 1a3a 7405 8f3d
0.09437061 -0.050168984 -0.08003608 0.0031058504 0.031522457 0.019120993 -0.029471857 -0.077365205
0.006733366 0.035223037 -0.07386992 -8.318325e-05 0.047335025 0.012143202 -0.043156773 0.0017511571
0.04428267 0.062231485 0.007475934 0.066779666 0.053447172 0.0862519 0.09582614 0.009158422
-0.0038435995 0.09857207 0.02819265 -0.01734126 0.062885255 -0.077045955 0.0076057096 -0.08610212
0.030467661 0.02953988 -0.053428844 0.030408576 0.013638404 0.040536243 0.04197466 0.079326
0.07620493 -0.08193029 0.013600852 -0.045674793 0.02180533 0.026138581 0.06822762 0.06619527
0.03172143 0.008229373 0.034090947 -0.029978285 0.0044158422 -0.00950597 -0.0501986 -0.027286746
0.036584634 0.044306822 -0.04661554 0.09652417 0.0075878315 -0.08910528 -0.07119015 0.05183645
-0.073258415 0.0367438 0.015299525 -0.031149533 0.05939186 -0.02357707 -0.07320318 0.010243654
-0.07590296 -0.07944649 0.05716003 0.035869464 -0.058112856 0.06760343 0.07436705 0.02342388
0.07297773 -0.048893157 -0.058683366 0.056291394 -0.024336403 -0.030225981 0.043227848 -0.04939342
-0.027119152 -0.010137982 0.025511207 0.06937936 -0.06354742 -0.058303457 0.058377337 0.10248003
-0.035834223 -0.015441506 0.13042863 -0.050479066 0.055172447 0.099917345 -0.013224287 -0.08883213
0.0073409295 0.06406761 -0.08587325 0.06307225 -0.021151809 -0.045707338 0.040018022 -0.058644377
0.07210304 0.028512781 -0.03285161 0.022778234 0.05842864 0.012091681 0.046655905 -0.05317211
0.0076147774 0.03833296 -0.046984136 0.08269563 -0.039335683 -0.043572873 0.0005895163 0.06983462

fc3.weight f4 [128, 128]
00000000: 5022 893a 02b5 963c 2d09 063c c473 38bc
00000010: 16cb aabd 086a 94bd 5a6b 233c 8ff5 483c
00000020: ffb6 653d 82cd 93bc 5e39 b7bc e658 943d
00000030: a8e9 95bd a1b1 113d 5376 49bd a641 0f3d
00000040: 3135 e33d 5d03 fcbd cc0f 94bd 34c8 0fbd
00000050: 0ac9 62bd 211c 88bd b995 3fbc 4d92 21bd
00000060: bd3e 15be 402a 4c3d 40f6 013d d698 043e
00000070: 8a63 bb3a 7c9b 5f3d 480d 6e3d e8ac c23d
00000080: 4eb6 cd3d f632 513d e353 b8bb 49c1 0fbd
00000090: 238f 87bd 1a91 1e3e d93a 52bc e1d8 393d
000000a0: 8a9c 003d a3ae 54bd 772c 0f3e 1068 c8bc
000000b0: 60a0 503d 9bf5 f9bd 86b0 09bd dea8 053e
000000c0: 07dc c63c 50ca 0cbe 0446 a23d 0cd2 c1bd
000000d0: 2f0c 6c3c 38af 8abd d968 42bc 3b1e 53bd
000000e0: ac8f bebc b1ce ba3b db52 d43c a664 0bbe
000000f0: f89a d83a 4c22 31bd c419 913d 0f76 aebc
00000100: a8af 4b3d a277 3abd eb25 f83c 7e9f d73d
00000110: c20f 7dbd e893 b2bd 471c 7ebc 2a16 a9bd
00000120: 91fd 19bd 1486 f7bd dd23 abbe ecc2 893d
00000130: b433 ad3c e14e 673d d9fa d3bc 8830 c2bd
00000140: a3d9 e53c 9cfc a3bd 827c b3bc 175e dbbc
00000150: 4d2e 593c a62e 923d 93e6 de3d d37c b23d
00000160: 6a8b bc3b 044f 0f3d c513 f43d 5f46 913d
00000170: 8a30 1fbd 5a79 523d 8017 c9bc e924 1d3d
00000180: b759 27bd 249b 473d 86dd 1c3d 5c55 ec3c
00000190: 2364 193d ed5f f63c 304a 27bd 9fc6 2ebd
000001a0: d110 28bd c852 30bd 5b56 913d ce90 563d
000001b0: dd1a 733d 4c0a 2d3d f6f6 113e aca0 cf3d
000001c0: 281f 973c afc8 a63c 7fa0 21bc de19 ca3a
000001d0: 501c 6ebd 15bf 44bc c6b7 973d 680b 573d
000001e0: 294e f53d 2666 a93d 779a 013e 24ee 15bd
000001f0: 2aa5 0fbd 6177 823c 755f e23c 7b1b 963d
00000200: abd7 ac3d fc98 343e d38a 2cbc db6d b43d
00000210: 0160 973d 0eed 243e b83f 31be ce9a 8b3d
00000220: 19e8 c4bd 9328 dbbd 64b8 3d3d 24a5 85bd
00000230: 6d45 823d cd6e 16bb 6589 ba3c 839d 4a3d
00000240: 67ce 80bd 1c93 fb3d 21b7 4abd aebb 1cbd
00000250: fc58 05bd c076 4c3d 1e91 4bbe e9e9 883d
00000260: de32 0f3e d3e4 c6bd d040 833b 8e07 d1bd
00000270: 854c 07bd 2949 e43c fa37 393d fc84 8bbd
00000280: ac8c bebb 9cc8 b1ba 49d4 85bd add7 ce3d
00000290: 3ddf 08bd ec86 04be 4913 dd3d fc99 743d
000002a0: 4450 683c 0e20 bb3c 037d 7c3c f46f 443d
000002b0: 4969 cbbd 4355 14bd 88aa cd3c 74d4 7a3d
000002c0: 93c7 03be 0e80 8d3d e2d2 4fbe d96e c63d
000002d0: 2630 31bd 9505 a6bc a841 66bd ed9a 893d
000002e0: 242e 4f3d ef8b 4b3b 8472 d1bc 153e d73d
000002f0: 7d04 8e3c 5e40 4a3d 80ee d9bc 48b4 1c3b
00000300: 4933 09bd 8a78 b5bd a65c 20bd c626 43bd
00000310: a73a 10bd a66b b13d f399 983c 1eda 07bd
00000320: 98e7 b4bd bdea 81ba 9f04 003e a15f 71bc
00000330: 0d5e acbd 6e19 b23c 241a 333d 11a3 e93d
00000340: 072f 54bd 1d49 883d c5d4 c9bd 2888 f53c
00000350: 5bae 313b 9e6e a3bd a8d4 be3d 1cb0 d3bc
00000360: ac81 24bc 44df a73c 522d 693d 9707 d0bc
00000370: 5769 043d ac3c 88bc c015 7d3d 3e05 73bc
00000380: a292 a43e 18ad 1fbd 8e5d 96bd 3032 f03d
00000390: e32b 54bd f0d4 843d ac18 a53d d466 19bc
000003a0: e596 47bc a493 d3bd 9f44 673d 8c03 813d
000003b0: 23bd adbd 5346 b0bc f8de 243d 2e1d 0cbd
000003c0: 94ad 6b3e 0dc6 7bbb 2f92 8bbd 5442 f43d
000003d0: e506 063e a3ac 873d 9d4e 5b3d ac33 8cbc
000003e0: fe3e 18be d0d9 443d 84b0 503d 7ddf 85bd
000003f0: 7ebe 8ebd ad8c 963d a70f edbc 4dad c43c
0.0010462496 0.018396858 0.008180899 -0.011258069 -0.08339517 -0.07246786 0.009974325 0.012265577
0.05608272 -0.01804233 -0.022366222 0.072435185 -0.07319957 0.03556979 -0.04918511 0.034974717
0.1109413 -0.12305329 -0.072295755 -0.035103038 -0.055367507 -0.0664599 -0.0116934115 -0.039446164
-0.14574714 0.04984498 0.031728983 0.12948927 0.0014296633 0.05459164 0.058118135 0.095056355
0.100445375 0.05107399 -0.0056252345 -0.03509644 -0.06619098 0.1548504 -0.012831413 0.045372847
0.031399287 -0.05192436 0.13981806 -0.024463683 0.050934196 -0.12205049 -0.03361561 0.13052699
0.02427484 -0.13749051 0.07923511 -0.094638914 0.014407202 -0.067717016 -0.011865818 -0.051542502
-0.023261867 0.005700909 0.025918415 -0.13612613 0.0016525676 -0.0432456 0.070849925 -0.02129653
0.049728066 -0.045524247 0.030291518 0.105284676 -0.061782606 -0.08719617 -0.0155096715 -0.082561806
-0.037595335 -0.1208612 -0.334258 0.067266315 0.021142818 0.05647171 -0.02587645 -0.09481913
0.028057879 -0.08007166 -0.021909956 -0.026778264 0.013255668 0.07137804 0.10883822 0.087152146
0.005753924 0.034987465 0.11917833 0.070935 -0.03886465 0.05138526 -0.024547338 0.03836528
-0.040857043 0.048731938 0.0382972 0.028849296 0.037449013 0.030075038 -0.040842235 -0.04266989
-0.041031662 -0.043047696 0.07096549 0.05238419 0.05935179 0.042246148 0.14254364 0.101380676
0.018447474 0.020359365 -0.009864925 0.0015419086 -0.05813247 -0.012008448 0.07408099 0.052501112
0.119777985 0.082714364 0.1265658 -0.03660406 -0.035069622 0.015926065 0.027633408 0.0732946
0.08439573 0.17636484 -0.010531145 0.08810016 0.07391358 0.16106054 -0.17309463 0.06816636
-0.096145816 -0.10701098 0.046318427 -0.06525639 0.06360898 -0.0022954226 0.022770593 0.04946662
-0.06289368 0.12283918 -0.04949105 -0.038264923 -0.032555565 0.049917936 -0.19879577 0.0668524
0.13984248 -0.097116135 0.004005529 -0.10206519 -0.03303196 0.027866917 0.0452194 -0.06812474
-0.0058151092 -0.0013563815 -0.06534631 0.10099731 -0.03341602 -0.12942094 0.10794694 0.059717163
0.014179293 0.022842433 0.0154106645 0.04795833 -0.09932191 -0.036214124 0.02510573 0.061237767
-0.128691 0.0690919 -0.20295289 0.09689111 -0.04325881 -0.020266334 -0.05621496 0.06719003
0.050581113 0.0031058749 -0.0255673 0.10509888 0.017336125 0.04937779 -0.026602983 0.0023911167
-0.033496175 -0.088608816 -0.039150856 -0.0476444 -0.035212185 0.086631104 0.018628096 -0.033166997
-0.088332355 -0.0009911876 0.12501763 -0.014732272 -0.08416376 0.021740641 0.0437261 0.114080556
-0.05180266 0.0665457 -0.09855036 0.02997215 0.002711198 -0.07980083 0.09317905 -0.025840811
-0.010040682 0.020492204 0.056927986 -0.025394244 0.032327022 -0.016630493 0.06178832 -0.014832793
0.32143122 -0.038983434 -0.07342063 0.117283225 -0.051799666 0.06485927 0.080613464 -0.009362895
-0.012181972 -0.103308946 0.056461927 0.06299505 -0.084833406 -0.021517908 0.040251702 -0.034207515
0.23015434 -0.0038417608 -0.06814992 0.119267136 0.13088568 0.06624725 0.05354177 -0.017114483
-0.1486778 0.048059285 0.05094959 -0.06536768 -0.06969927 0.073510505 -0.028938128 0.024008418

fc3.bias f4 [128]
00000000: 7037 d93d 1cf2 cf3d 6a71 c8bd d425 973d
00000010: 5bf2 d33d 4ed1 a03d cbe2 85bc 683e aa3d
00000020: 7780 133e c5fe 3c3d de9a c3bb 2779 8d3d
00000030: bc01 9dbd 870c 9dbd 2c4d 9bbd 7942 ab3c
00000040: fad3 0b3b 2e9b eb3d 24c9 fabd b27c 083d
00000050: d45e 2ebd aec0 63bd 7fe9 073d c140 a7bc
00000060: 84c3 0d3e b220 5dbd f7d5 8b3b 688f 14bd
00000070: e8c3 95bd 21c9 eb3c 5f65 21bd eb5a 33bc
00000080: c814 c13d d1bb 9a3d 0b91 123d 816b 5dbd
00000090: 78ae a93c 2e11 0abd 94e3 b5bd 9b57 5c3d
000000a0: 1eb9 c23d 568c de3d a4cc 073d e302 a0bd
000000b0: a64d ed3d 3eab 173d e500 9a3d 9f08 dc3c
000000c0: 9d9b c0bd 36fc e33d abb2 093e 6c47 81bc
000000d0: ff15 4cbd bffa aebd 0005 71bb 7cb0 083e
000000e0: ad1c 77bc e1d8 68bd b643 4d3c 1389 a6bd
000000f0: 80a6 ff3c de54 b53d 5b25 093c 8aaa 08bd
00000100: deb0 b03c d0aa 923d c30a 763d 0f82 983d
00000110: 3ce4 013d 2fec 54ba 842a cf3d 8512 9d3b
00000120: d34b 81bd 651b d63c d0d4 c3bd 7eb5 e33d
00000130: 3895 213d da1d 253b 30f2 8bbd b704 37bd
00000140: 3a0e c73d b02a 823c 4848 b8bd c4d3 c83d
00000150: d392 b4bd e3b4 803b 92c5 b139 1634 183c
00000160: b9f0 ddbb 6303 c2bd 9b04 ddbc e918 4ebd
00000170: 9884 3abd 54a2 893b d65c 44bc 3c31 863d
00000180: 9622 6ebc fa8a 323c 2c5b 3bbd 718e e03d
00000190: c178 aebd 527b d73d 6926 a83d 8642 adbc
000001a0: 1cc3 d23c 788f f4bc 366e e13d df78 153e
000001b0: eed2 eb3d 827c 463d 0ceb 7abc 3df2 1e3c
000001c0: bd02 ddbd 9d7c 09bd 3de1 23bd cf19 03bc
000001d0: 5a28 4abb 31d2 40bd 820a e53d 31d4 c33d
000001e0: 6e3e b4bd 616f 873d 7872 2bbd ddf0 b9bd
000001f0: e559 283d 6b1d 943c 71bb bebc b45c b63d
0.10606277 0.101536006 -0.09787257 0.07380262 0.1034896 0.07852422 -0.016343495 0.08312684
0.14404474 0.046141405 -0.0059693893 0.069078736 -0.076663464 -0.07668405 -0.07583079 0.02090572
0.0021336065 0.115042076 -0.12245396 0.033322044 -0.042570904 -0.055603676 0.033181664 -0.02041662
0.13844115 -0.05398626 0.00426745 -0.036269575 -0.07312757 0.02878243 -0.039403316 -0.0109469695
0.09427792 0.075553544 0.035782855 -0.0540576 0.020713076 -0.03370779 -0.08881298 0.053794485
0.095079646 0.10866611 0.033154145 -0.078130506 0.11587076 0.037028544 0.07519702 0.02685958
-0.09404681 0.1113209 0.13447063 -0.015781127 -0.049825665 -0.0854392 -0.0036776662 0.13348573
-0.01508252 -0.056847457 0.012528351 -0.081316136 0.031207323 0.08854078 0.008370723 -0.033365764
0.021568712 0.07161486 0.060068857 0.07446682 0.031711802 -0.00081223523 0.10115531 0.0047934675
-0.063132904 0.02613611 -0.09562075 0.11118601 0.039448947 0.0025194795 -0.06833303 -0.04468223
0.097195104 0.015889496 -0.089981616 0.09806016 -0.08817067 0.0039278134 0.00033907272 0.009289762
-0.006773081 -0.09473302 -0.026979735 -0.050316725 -0.045536608 0.004200259 -0.011985024 0.065523595
-0.014534613 0.010897392 -0.045741245 0.109646685 -0.08519126 0.10521568 0.08210451 -0.021149885
0.025727801 -0.029853567 0.11007349 0.1459689 0.11514841 0.048458584 -0.015314829 0.009701309
-0.10791538 -0.033566106 -0.040009726 -0.008001759 -0.0030846805 -0.047075454 0.11183645 0.09561957
-0.0880097 0.06613041 -0.041857213 -0.09079144 0.041101355 0.018080434 -0.023282738 0.089044005

fc4.weight f4 [2, 128]
00000000: c37d 06be 735d 223e 651f 093c 0fd5 e13d
00000010: aee4 f4bd 441e e9bd 88cd 533d b8bc 4ebd
00000020: 9cbf 2dbe 2a78 3cbe d944 4d3e b29d 45be
00000030: dee7 17bc 40e6 733d 8227 2fbc b67d 12be
00000040: de76 033e 2f94 abbd d495 09bd d0cf 713c
00000050: 38dc ccbd 2335 c2bd 4735 dbbd c482 053e
00000060: 73b1 64be a500 f3bb 45ff 4dbe f2d1 103e
00000070: e2f0 afbd dbca 16be b7c7 c33d 0a9e 2c3e
00000080: d4cd b0bd eb44 61bc be2e 3cbd 9ed9 af3c
00000090: 3f28 5d3e c92a f43d e2e9 47bd 128a aabe
000000a0: de7d 20be 9d5a babe 463c 51bd 5a00 6e3b
000000b0: 103b db3d e521 a9bd 2525 d4bd 5407 efbd
000000c0: 2db6 6dbe 8aa5 073e aac1 33bd 9597 cfbb
000000d0: 854a 203e 09d9 813d 2bbc 013b 225a 87bd
000000e0: 01eb 52be fcbd 0abe 8281 123d 4aca 7abd
000000f0: 0027 d83d 0714 19bd 5564 91bd 81d1 4ebb
00000100: 70d0 133e d0cc 0ebe 31cd 06be 1982 03be
00000110: 11ec 3abe 98bf 133e 0f87 2bbe 75cb 4ebe
00000120: 3411 8a3d bb19 f03d dd1d 9ebd a6e1 1abe
00000130: d7e7 b3bd 4951 42be 33e6 d13c c999 3cbe
00000140: dfb2 87be 37fb 193e 1daa 3939 20e4 c0bd
00000150: 5792 75bd 6b31 2a3e ec24 46be 2b54 c9bc
00000160: e414 d03d 8875 863d 5187 d3bd 2f5a 953d
00000170: 4bb5 28be 611e 013e 4f3d f23c 3d5a 0bbe
00000180: 71b2 48bd dc2f 28be 6f8f d33c c98a 48be
00000190: 81e0 823d 29ea debd b177 e2bd 0102 4ebe
000001a0: e786 593e 30ce f83d 2937 b2be 5a81 8bbe
000001b0: e270 adbd 336c 2bbd 6fba 27bd 5ea5 52be
000001c0: 2f01 f13d b6ef 6fbe d637 abbc d31e 3abd
000001d0: 5208 213e d37f 81bd f684 b1bd 850c b93d
000001e0: 88c1 d4bd c328 14bc 03a6 5bbb eb6a 913d
000001f0: 4df2 1bbe 88b9 fc3d 08a3 19be 3d4a 31be
00000200: 20d9 e4bd e71e 493a 57ea ac3b a810 2f3c
00000210: daf9 8abd d89c bcbd 73c1 85bd a6a9 d8bd
00000220: 11fd 5cbe 7b4f 3ebe cf7f f33d 25ca ebbd
00000230: 25e3 e73d c5f1 e23c 3ebc dc3e 1a36 21be
00000240: 6bf0 47bd af02 35be 1339 a03d bef8 09be
00000250: 4156 f83d 257f 5bbd 556b e0bd 998e adbc
00000260: 8f63 d4bd 729e 92bc 3e19 eabd a3da 483d
00000270: 0113 903d 672b 2e3d 4598 5dbd b7be d33d
00000280: b813 31be c052 0abe ce88 073f a425 0f3b
00000290: a3a0 eb3e 0a60 613d 7c91 1c3d 6540 dcbd
000002a0: 96b1 87bd 0aa9 0fbd 0732 2a3d 9e1b d1bb
000002b0: 1ed3 c4bd c6d0 debd 9a80 113e c260 0cbd
000002c0: 5379 193e 6625 553e 9ffb 22be 2fe9 05be
000002d0: 51c5 f13d fb51 f43b 6e18 8bbd bd0c 7bbe
000002e0: ee16 8ebd d853 923d cb1c bbbd cd82 973d
000002f0: dd7b 5a3d 08d2 85be 63fa 9ebd 669b 113c
00000300: 56f2 263e b90e acbd 37cc 25be 2c0e 8cbd
00000310: 541e c1bd 0604 403e 3da4 5a3e 3157 2c3e
00000320: b3a3 b43c 989d 413e 0bdd 80bd cdfd 1fbe
00000330: 1cd3 b23e 1564 c3bd 4fec 6a3d ca08 0dbe
00000340: 3231 45bb 70c5 cb3d 1a9e 4c3d 8ef4 48be
00000350: b194 473e 12de 533d 046b 04bd 4f62 11bd
00000360: 9d37 243e fdbe 313c fc22 033e f44c 26bd
00000370: c9f8 e1bd 6a2c 6f3d cca1 843e a59f 90bc
00000380: 6f02 ab3d c0b8 e5bd 219c febc c602 f8bd
00000390: f2e2 94bc 83d2 04bd 2930 993e 154b 923e
000003a0: 55f8 e6be 3ebb 793e 3c18 3f3c 3c9c f4bc
000003b0: 4b30 193f cea9 49be 9dda 0abd c051 87bd
000003c0: b761 3e3e 6f1e 4b3e f8d5 37bd f92f 75ba
000003d0: da6e 5c3d 02a7 293d 353f a6bd 282e 83bc
000003e0: 9f9e a43e f265 67be 3235 9c3c 7435 503d
000003f0: fa93 a0bd a920 313e 43c7 5cbd 1048 96bd
-0.13133912 0.1585596 0.008369301 0.11026966 -0.1195768 -0.11382726 0.05170968 -0.050472945
-0.16967624 -0.18405214 0.20045795 -0.19298437 -0.00927159 0.059545755 -0.010690572 -0.14305767
0.12838313 -0.08377873 -0.033590153 0.014759019 -0.10002941 -0.09482791 -0.10703521 0.13038164
-0.22333317 -0.0074158483 -0.20116909 0.14142588 -0.085908666 -0.1472582 0.09559577 0.16857162
-0.086330086 -0.0137493415 -0.045943014 0.021466073 0.21597384 0.11922223 -0.048807032 -0.33308464
-0.15673015 -0.36397257 -0.05108287 0.0036316128 0.10704625 -0.08258418 -0.10358647 -0.116713196
-0.23214026 0.13246742 -0.043885864 -0.0063352087 0.15653427 0.06340224 0.0019795995 -0.06608988
-0.2059746 -0.13549036 0.03576804 -0.061228074 0.10554314 -0.037372615 -0.07099215 -0.003155798
0.14434981 -0.13945317 -0.13164212 -0.12842597 -0.18254115 0.14428556 -0.1675074 -0.201948
0.067415625 0.11723658 -0.0772054 -0.1512514 -0.08784454 -0.1897632 0.025622463 -0.1841804
-0.26503655 0.15037237 0.00017706347 -0.094185114 -0.059954014 0.16620414 -0.19350022 -0.024576267
0.101602346 0.06565386 -0.10328544 0.07292592 -0.16475408 0.12609245 0.02957025 -0.13608642
-0.0489983 -0.16424507 0.02582523 -0.19584192 0.06390477 -0.10884506 -0.110579856 -0.20117952
0.21242867 0.12148702 -0.3480771 -0.27247125 -0.08468796 -0.041851234 -0.04094928 -0.20570895
0.11767804 -0.23431286 -0.020900648 -0.045439553 0.1572583 -0.06323209 -0.086679384 0.09035591
-0.10388476 -0.0090429215 -0.0033515699 0.07100471 -0.15229149 0.12340075 -0.15003598 -0.17313476
-0.11174226 0.00076721463 0.005276959 0.0106851235 -0.06785937 -0.09209603 -0.06531038 -0.10579233
-0.21580912 -0.18585007 0.11889612 -0.115131654 0.11322621 0.027703175 0.43112367 -0.15743294
-0.048813265 -0.17676805 0.07823386 -0.13473794 0.121258266 -0.05358805 -0.10957972 -0.02118616
-0.10370552 -0.017897818 -0.11430596 0.049036633 0.07034875 0.04252186 -0.054100294 0.1033911
-0.17292678 -0.13508129 0.5294312 0.0021842504 0.46020994 0.05502323 0.038224682 -0.1075447
-0.06625669 -0.035073318 0.041551616 -0.006381466 -0.0961058 -0.10879664 0.14209214 -0.034271963
0.14987688 0.20815048 -0.15916298 -0.13077234 0.11805213 0.007456062 -0.06791769 -0.24516578
-0.06937967 0.07144898 -0.09136351 0.07397995 0.05334078 -0.26136804 -0.07762601 0.0088871475
0.16303381 -0.084012456 -0.16191183 -0.068386406 -0.09429613 0.18751535 0.21351714 0.16830136
0.022050714 0.18907773 -0.062921606 -0.15624161 0.3492669 -0.095405735 0.057354268 -0.13772884
-0.0030089137 0.099497676 0.049955465 -0.1962454 0.19490315 0.051725455 -0.03232862 -0.035494145
0.1603684 0.010848758 0.12806314 -0.040600732 -0.1103378 0.058391966 0.2590469 -0.01765425
0.083500735 -0.11216879 -0.031080307 -0.12109904 -0.018174622 -0.032427322 0.29919556 0.28572908
-0.45111337 0.24387833 0.011663493 -0.029859655 0.59839314 -0.19693682 -0.033899892 -0.066073895
0.18591963 0.19835828 -0.04488179 -0.0009353157 0.053816654 0.041419037 -0.081175245 -0.01601322
0.32152268 -0.22597483 0.019068334 0.050832227 -0.07840724 0.17297615 -0.05390097 -0.073379636

fc4.bias f4 [2]
00000000: 0a89 74bd 47be b03c
-0.059701003 0.021575106

fc1.weight f4 [128, 7]
00000000: 3a28 813e 7051 f3be d469 3a3e db2d 303e
00000010: 7d09 88be 366e 243e 4dfa 533e d229 613d
00000020: 7e87 a13e e125 853c 6013 7d3e 3f45 993d
00000030: db44 7d3d 8935 293e f88b b6be 8ade dd3d
00000040: f560 1fbe 1469 b6be ee36 95be 0e18 0ebd
00000050: 5936 e83c 93c5 7ebe 5aa5 4a3e 6fea 533d
00000060: 3552 b73d 894d 9a3c dda8 a43d e974 d53e
00000070: 5efe f3bc f6c7 b23e d930 01bf 1078 81bd
00000080: 6abb bebe c355 513e 33c9 d03e 42c5 a23c
00000090: 487a 0f3e 5ddb 793e 86ff 91be f367 9e3d
000000a0: 1353 adbe 1e7d cbbd 6a78 063e 5f59 85be
000000b0: 3d31 023e 1ea0 6bbe bb1b 0cbe c3e7 babe
000000c0: 9c78 69be 03f9 15bc 7548 f33d db04 a3be
000000d0: f682 a5be 94a5 d73d 192c 413e 4d52 bd3e
000000e0: eab0 15be f00c 2c3e 6239 c93e 0a26 de3d
000000f0: 32fb 9cbe b243 cb3e cd2d 033e 9a79 30be
00000100: 0a05 99be 483f 913e 8f4a b1bd 6063 69be
00000110: 33bb 49be 6b18 fa3d 3d1b 193e d425 bf3e
00000120: b5a3 0abd 60a1 ba3e 92e5 d93e a058 85bd
00000130: d622 f4be 56d7 233e 2d06 75be 9112 223d
00000140: b58e 49be 0fce 1fbf 10cc f33e ffb5 46be
00000150: 9cb8 213e cf95 bcbe bcec b53e 17d3 36be
00000160: 113f b53e 261a 8dbe 09c7 42bd 2c6a a53e
00000170: ad3d b03e 2912 78be c91d 93be 19cf a63e
00000180: 9bad 1e3e aecf 6cbe 8306 513e c660 90be
00000190: 5456 24be 3d7b 1abe 6e3b a13b 2d3a c03e
000001a0: 2820 2abe 9b60 023e 8e66 74be d43c 7c3e
000001b0: 3fd1 5f3e 68af f3bd 31d8 d63e bc4c a7bd
000001c0: 7708 da3c ede3 4c3e dcab ddbd de7d debe
000001d0: 6903 af3b 13f6 88be 6071 633e 97cf 013f
000001e0: 2331 8a3e 329e 9e3e eb78 49be 86eb b9be
000001f0: 478b 033e 9a86 3fbe 389f fb3d 2cd2 97bd
00000200: a553 4bbf bdf3 b43d 25ba 9e3b ef49 bdbe
00000210: 3055 063e 5fdf 1f3c fec5 8cbe 439a 6dbe
00000220: 8e91 2a3e c167 9abe e96f 1ebe ffa3 2fbe
00000230: aa2d 43be 0cdc 3abe d0d3 3e3e 1ee2 d1bd
00000240: 1616 8cbe b0d5 763e ac11 a7be cb7e 38be
00000250: 6fb2 aabd b39c 9dbe bff7 e9bc 5504 8ebe
00000260: 17b7 de3d 4e8c 06be 9b62 4e3e fc67 ad3e
00000270: 23ed 7fbe 796c 18be 99af 29be 0008 dabd
00000280: de10 a53e 082f f4be 7c0d 22be 6f67 afbd
00000290: e8a1 543e 456f ac3e c22e 923e 27ac ecbe
000002a0: b53b 163e bd1c b4be acef c8be 10e6 093e
000002b0: 48bc fb3d de9b 0b3d ca4f aa3d 6d67 6a3c
000002c0: b630 be3c 0dcd 76bf 635e 81be 8afd b4bc
000002d0: a319 cabe 2475 223e 4246 8e3d 1f3e ef3d
000002e0: 4f23 8abe 1783 0b3e 2fca 853e a159 813e
000002f0: 32d3 83be 9a31 0abd 22b4 57be 25f9 cc3e
00000300: 45a3 a0be abc9 a6be e80e 0e3b ae9d 17be
00000310: 144a 813e 5b4d 0e3e 34bd 02be 0d4c 84bd
00000320: 58bb 68be cf15 db3d ca4c eb3d b4ea a4be
00000330: 3b71 44be 9e27 973e d3ba f1bd 9257 e53e
00000340: 9018 27be 8e85 47be 73af b8be a349 ae3e
00000350: 5d1c c1be 06a1 18bd 9e71 733d ff07 d53d
00000360: 637f 54be 57df b1bd 5426 31be dfd8 52bd
00000370: 496c 18be 7761 babe 6596 3a3e 0e2e 52be
00000380: 6836 35be d006 9f3e b86d 2ebf 00b3 8c3e
00000390: 7e63 943e 72a6 213e 84a6 0c3e 5fe0 5d3e
000003a0: c912 a0bc acb9 f0be 12aa 46bd 96db b53e
000003b0: ca5d 453b 39df b83e 9244 36bd d5df 05bd
000003c0: 0fa2 47be b0b1 edbd c4b0 9abe 11ae 0fbe
000003d0: 5ce7 f73e c329 523e 8347 e03e cb26 51bd
000003e0: a40c 8e3e 29a7 6d3e 7784 983e 36a2 903e
000003f0: b05e a6be 1537 a93e aae8 b53e 5bcf 973e
0.25226003 -0.4752307 0.18204433 0.17204992 -0.2656974 0.16057667 0.20700951 0.054971524
0.31548685 0.016253414 0.24714422 0.07483911 0.061833244 0.16524328 -0.35653663 0.108334616
-0.1556433 -0.35627043 -0.2914347 -0.03469091 0.028346227 -0.24880056 0.19789639 0.051737245
0.089512266 0.0188358 0.080400206 0.41690758 -0.029784378 0.34918183 -0.5046516 -0.06321728
-0.3725236 0.20442872 0.40778503 0.01986945 0.1401149 0.24400087 -0.2851526 0.077346705
-0.33852443 -0.099359736 0.13131872 -0.26044747 0.12714095 -0.23010299 -0.13682453 -0.36504945
-0.22799915 -0.009153607 0.118790545 -0.31839642 -0.32326478 0.105296284 0.18864478 0.36976853
-0.14618269 0.1680181 0.39301592 0.10847099 -0.30660397 0.39700085 0.1281044 -0.17233887
-0.29886657 0.28368592 -0.08656799 -0.22791815 -0.19700317 0.122116886 0.14951797 0.37333548
-0.03384753 0.36451244 0.4255796 -0.065110445 -0.47682828 0.16000113 -0.23928137 0.039568488
-0.19683345 -0.62423795 0.47616625 -0.19405364 0.15793079 -0.36833045 0.35532176 -0.17853962
0.35399678 -0.27559012 -0.047553096 0.32307565 0.34422055 -0.24225678 -0.28733662 0.32579878
0.15495913 -0.23126099 0.2041264 -0.28198832 -0.16048557 -0.15086074 0.0049204146 0.37544385
-0.16613829 0.12732165 -0.23867247 0.24632579 0.21857165 -0.118986905 0.41961816 -0.08168933
0.026615364 0.20008822 -0.10823795 -0.43455404 0.0053409827 -0.2675024 0.22211218 0.5070738
0.26990613 0.30980068 -0.19675033 -0.36312503 0.12846099 -0.1870369 0.12286228 -0.07413134
-0.79424506 0.08835552 0.0048439675 -0.3697047 0.13118434 0.009757846 -0.27494806 -0.23203377
0.16657087 -0.30157283 -0.15472378 -0.17152403 -0.19060388 -0.18248004 0.18635488 -0.102482066
-0.273606 0.24104953 -0.3263067 -0.18017118 -0.08334815 -0.30783615 -0.028560517 -0.2773768
0.10874765 -0.1313946 0.20154803 0.33868396 -0.24992804 -0.14885129 -0.16570891 -0.10646057
0.3223943 -0.47692132 -0.15825456 -0.0856465 0.20764887 0.33678642 0.28551298 -0.46225092
0.14671214 -0.35178176 -0.39245355 0.13466668 0.12291771 0.034084193 0.08316 0.014306885
0.023216587 -0.9640663 -0.25267324 -0.022093553 -0.39472684 0.15864998 0.06946994 0.116817705
-0.26980063 0.13624226 0.26130816 0.25263694 -0.25747067 -0.03373871 -0.21064809 0.40033832
-0.31374565 -0.32575735 0.0021676365 -0.14806244 0.2525183 0.13896696 -0.12767488 -0.06459818
-0.22727716 0.10697519 0.11489256 -0.32210314 -0.19183819 0.29522413 -0.11803212 0.44793373
-0.16317964 -0.19484541 -0.36071357 0.34040555 -0.37716952 -0.03726294 0.059434526 0.10401916
-0.20751719 -0.08685177 -0.17299777 -0.051476356 -0.14885058 -0.36402485 0.18221433 -0.20525381
-0.17696536 0.31059885 -0.6813617 0.27480316 0.28982157 0.1578615 0.13735396 0.21667622
-0.019540207 -0.47016656 -0.048502035 0.35519093 0.0030115717 0.36107805 -0.044498987 -0.032684166
-0.19495414 -0.11606157 -0.30212986 -0.14031245 0.484187 0.20523743 0.4380456 -0.051062386
0.2774402 0.23208298 0.29788563 0.28248757 -0.32494116 0.33049837 0.3552907 0.29650387

fc1.bias f4 [128]
00000000: 6077 9ebe 5b6d 033d 11bc 6f3e 2b33 c5bc
00000010: be4d ac3e 3307 aebe 6b75 553e 8c8c 323e
00000020: 5dc3 06bd 5be1 7fbd 8272 323e c869 0c3e
00000030: 50c3 c4be 5e83 31bd 795c 70be 66dd 82be
00000040: 101f 1fbe 8908 84be bc4a 8d3e 62d8 413e
00000050: 2c60 5ebe 273f 9abd a42b 7a3e 6fb1 453d
00000060: ef0d b5bd b7ca 753e c21b 973e 1002 b23e
00000070: d2f1 2e3d e7a0 7a3e f74f 61be 0e75 b1be
00000080: 16d5 62bc f32e cf3d 72aa 543c 510b 963e
00000090: 2145 773e ea7a 223e 26ac 353d fa28 873a
000000a0: 4a38 ad3e fffd 843e 5fb0 af3a d3f1 cf3e
000000b0: 3f22 02be 9d9f 3f3e c3f4 553e 18e9 8b3d
000000c0: 623d a9be ef06 833e 400e bcbc 7f08 bdbe
000000d0: d2cf 51be 4ccd d5be 599b a1bd 4f37 903d
000000e0: 4028 8dbe f603 a7be 90c6 c0be ef57 943e
000000f0: 3d3e fa3d 70e5 48be e218 b3bd 7639 a4bd
00000100: 31d2 cbbd 585f 323e 846e 90bd 2b84 04be
00000110: 5c20 1abe 075c 80bd dad9 683e 5af9 ce3c
00000120: cde2 2ebe 2a96 0abd db87 193e 5935 a7be
00000130: 4f7f 3b3e 858f 203d 8a2c 823d b7be 1bbe
00000140: a127 903e 107c f4bd 165a 8f3e 66a7 9ebe
00000150: dd33 99bd 4324 8d3e f245 2fbe 12e1 16be
00000160: b9a2 b63e 88f0 c23d 462b b3bd e48a 76be
00000170: 7143 983e b760 c43e dd18 6ebd 6e72 453e
00000180: 148f babe 4fb2 a63e 1444 f23d 6eb1 6cbd
00000190: bac6 0c3e b2fd a43e f93f 7a3e b8b3 6dbd
000001a0: 4551 e83d cd3f 20be 4524 11be c3a0 8e3e
000001b0: 2f2a 863e 9a9a 8ebe c970 24be a3e0 993e
000001c0: 3835 923e acf3 313e ca00 a73e 6bea a8be
000001d0: 51a6 cabc 8f36 53bd c2cb 863e 9aeb acbd
000001e0: 1389 a83d 6925 d83b d439 2cbe dce5 003e
000001f0: 8166 25be a4b6 17be c189 923e 19a4 94be
-0.3095045 0.03208671 0.23411585 -0.02407225 0.33653063 -0.33989868 0.20845573 0.17436427
-0.032901157 -0.062470775 0.17426494 0.13712227 -0.38430262 -0.043338172 -0.23472776 -0.2555954
-0.15539193 -0.25787762 0.2759608 0.189302 -0.21716374 -0.075315766 0.2443071 0.048264917
-0.08840548 0.24003111 0.29513365 0.347672 0.042711087 0.24475442 -0.2200316 -0.34659618
-0.013844749 0.10116377 0.01298009 0.2930551 0.24147464 0.158672 0.044353627 0.0010311895
0.33832008 0.25975034 0.0013404003 0.40614185 -0.12708376 0.18713231 0.2089415 0.068315685
-0.33054644 0.25591227 -0.022956014 -0.36920545 -0.20489433 -0.41758192 -0.07890958 0.07041799
-0.2756977 -0.3262021 -0.3765149 0.28973338 0.12218902 -0.19618773 -0.087449804 -0.08018772
-0.099522 0.17419183 -0.07052329 -0.12941043 -0.15051407 -0.06267553 0.22739354 0.025265384
-0.17078705 -0.033834614 0.14993231 -0.3265789 0.18310283 0.03919937 0.063561514 -0.1520947
0.28155234 -0.119377255 0.27998418 -0.3098709 -0.07480595 0.27566728 -0.17116526 -0.14734295
0.35671023 0.09518534 -0.08748488 -0.2407642 0.29738954 0.38355038 -0.05812918 0.19281933
-0.36437285 0.32557914 0.11829391 -0.057786398 0.13747683 0.32224804 0.24438466 -0.05803272
0.11343626 -0.15649338 -0.14173992 0.27857026 0.2620406 -0.27852327 -0.16058649 0.30054197
0.28556228 0.1737811 0.3261779 -0.32991347 -0.024737509 -0.051565703 0.2632733 -0.08443375
0.0822927 0.0065962565 -0.16818935 0.12587684 -0.16152383 -0.14815766 0.28620723 -0.29031447

fc2.weight f4 [128, 128]
00000000: 703b 4f3e 5bec bfbc 94ce 10bd 582f c8bb
00000010: e67e dabc 1efd 4fbd 6a00 03be 3966 91bc
00000020: afbd dbbb 201b 3e3d e7ac 0ebd 44ff 643e
00000030: f4e6 f6bc 6f11 243e a918 f53c 0b92 a43d
00000040: dbe6 ac3c f344 273e 9b7e 183d 4d3b 84bd
00000050: 06e5 033d bfed 6b3c e381 093d af6f cbbd
00000060: 6c34 47be 064b 0fbe 288d 6f3d ab75 c53d
00000070: d96d d73d b27c f5bd eb38 533d 61b7 e0bb
00000080: 251d c3bd 760f 56bd fe4d 00be 4f37 79bd
00000090: 07d7 8d3d a923 84bc a757 863e 83e5 ffbc
000000a0: fb65 153e 3e12 613d 9e8c 843d 61c4 463e
000000b0: c0b4 973c fb1e 3c3c 9775 39bd 4920 1fbd
000000c0: 22df ba3b c005 a9bd 894d e3bd c59d 1cbd
000000d0: ceb8 a53d 9c50 e73d 7077 923d 796b 7bbc
000000e0: 55df c63a bd4e 3cbd 13fb 383d 6231 1ebb
000000f0: 65e4 213e 6710 65be 9399 853c 7981 d93d
00000100: 49e9 6fbe 89e2 6dbc cc24 c53c 8e9b 233e
00000110: 96a9 b0bd 4d7a 073e c73e fe3a 3409 08be
00000120: 7463 8a3c fe10 563d 61ef e3bd 8020 7f3e
00000130: 90c7 cd3c 7b15 313e f79c a53e 830c 45bd
00000140: 491a ef3c 8f26 88be bd0a 1d3a 27ba 0e3d
00000150: 351d cf3e b395 f3bb e17e 073d ab90 e03d
00000160: dd2b 143e 63f3 673e 041a 143d 5d5f 2a3c
00000170: f428 7e3d d289 8abc baaa 49bd e868 af3c
00000180: 7762 463d 00d0 2fbd d00b 52bc 5b95 8cbd
00000190: 55ed f1bd bcb7 57bd 22f0 743e 5e46 c7bd
000001a0: 5a0f 25be f1c0 56bd 9356 2d3e 5317 b3bb
000001b0: a42d 473e 4609 f83d 22c3 fd3d dce7 8ebc
000001c0: 8a3f b6bd 7ab7 2f3c 217a 693e cd44 3fbe
000001d0: d1fe e2bc 2eb0 8a3d 4213 5c3d b4be 72bc
000001e0: b28b c0bd 762a 1fbd ada3 3f3e fdae 643d
000001f0: 8615 83be 4d9a f9bd 8021 113e 0b6c 4e3d
00000200: 1b87 14be 3e09 733d d34c e6bc b4be 5f3d
00000210: 11d9 0abe 3104 acbd 4948 26be cbee 35bd
00000220: 1193 4cbd 9ff4 b43d 5088 933d 9c64 f0bd
00000230: e1a8 b0bd a059 e33b 25ce 29be 84a3 713d
00000240: b9f5 983d 09cd 0bbe c011 13bd 3842 11bc
00000250: a4c8 693d 5ca6 91bc 5dad 50be 4cbb 48bc
00000260: 6c05 d43b 8d8c 90be 51e0 e13c 4af0 513b
00000270: c008 b9bd cfe4 383e 9d2a 89bc 0223 cdbc
00000280: 41ee d2bd 905c 4bbb e3d3 4cbe 906a ec3d
00000290: 4b2d 6cbb 7f17 6f3e f067 c2be 3c4b c8bb
000002a0: d785 1a3e b434 b13d 20f0 413c f590 11be
000002b0: 4d9d b33d 792e ac3d ead5 40bc 5648 2fbe
000002c0: 1944 49bd 5036 1ebe 22b8 8abe 661b a93d
000002d0: 31e9 a83d 1e99 c7bc 2e0f 0d3d 4643 2b3e
000002e0: b0c9 84bd f2c3 b33d 0896 aa3d 22e0 a53d
000002f0: 79e6 2dbd baca 823e 66aa f43d 749c 8c3d
00000300: 0573 823e a312 103d b3bc a5bd 3cc2 f63c
00000310: 7624 483d ffea 023e 6d64 c23d 6ead 30be
00000320: 98e2 af3d 4b02 ee3e 8ee8 553d 4156 4dbe
00000330: 7709 923d 042a d3bd 7444 9dbe 7f94 c5bb
00000340: fc9d aabd b18b 873e 6155 f9bc bf3c 02bb
00000350: 7d62 d6be 9b20 403d 27d7 5abd 42b3 40be
00000360: d7e5 81bd 607c 9fbd ad17 b83b d332 94bd
00000370: 98b1 cd3d 5d2a 42bd fe8a 96bd 61c4 063d
00000380: 13b8 dabb fa81 8c3d c60d d93c 1a41 7bbd
00000390: 2cd0 d4bd 9d70 56bc 274e aebd c6cc 5a3e
000003a0: fde0 1c3e c6d5 bfbc 6e85 3a3d f1bb 863d
000003b0: 3aca 3a3d a33a e0be e2fb 463c 980a 3bbe
000003c0: 47e8 70bc 903f e5bd fad8 b6bc 33b0 08be
000003d0: 96e2 bdba 2ac6 31bd 7c45 273d 1bdd 4b3d
000003e0: 28a4 d5bc 5262 4dbc 57fa 58be 40bb 94bd
000003f0: 7a0a 88bd db68 673d 9120 0dbc bdaf 65bd
0.20237517 -0.023428133 -0.03535326 -0.0061091594 -0.026671838 -0.0507785 -0.12793127 -0.017748939
-0.0067059617 0.046412587 -0.03483286 0.22363001 -0.030139424 0.16022275 0.029918985 0.08035668
0.021106174 0.16334896 0.037230115 -0.06456623 0.032200836 0.014399945 0.033571135 -0.09933411
-0.19453591 -0.13993463 0.058484226 0.09641584 0.10518999 -0.11986674 0.051567953 -0.006857798
-0.09527043 -0.05226084 -0.12529752 -0.060843762 0.06925779 -0.016130285 0.26238748 -0.03123737
0.14589684 0.054949038 0.06472133 0.1941085 0.018518806 0.011481996 -0.045278158 -0.03884915
0.005702869 -0.0825305 -0.11098773 -0.0382364 0.08091889 0.11294672 0.07151687 -0.015345448
0.0015172759 -0.04597353 0.045161318 -0.0024138321 0.15809782 -0.22369538 0.016308581 0.10620398
-0.23428835 -0.014519342 0.024065398 0.15977308 -0.08626096 0.13230248 0.0019397371 -0.1328476
0.016893126 0.0522623 -0.11129642 0.24914742 0.025119573 0.1729335 0.32346317 -0.048107635
0.029187338 -0.26591918 0.0005990675 0.034845497 0.4045197 -0.007433617 0.033079986 0.10965093
0.14469858 0.22651438 0.036157623 0.010398713 0.062050775 -0.016911421 -0.049235083 0.021412328
0.048433747 -0.042922974 -0.012820199 -0.06864425 -0.118128456 -0.052665457 0.23919728 -0.09730218
-0.16119137 -0.052430097 0.16927557 -0.005465427 0.19451004 0.12111144 0.12390734 -0.017444544
-0.08898838 0.010724897 0.22800495 -0.18678589 -0.027709397 0.06771885 0.053729303 -0.014815975
-0.09401645 -0.038858853 0.18714781 0.055830944 -0.2560236 -0.12187634 0.14172935 0.050396007
-0.14504664 0.059334986 -0.028112805 0.054625228 -0.13559367 -0.08399237 -0.16238512 -0.044417184
-0.04994494 0.0883572 0.07203734 -0.1173794 -0.08625961 0.0069381744 -0.16582544 0.05899383
0.07468743 -0.13652433 -0.0359056 -0.008865885 0.05707611 -0.017779522 -0.20378633 -0.012251686
0.006470373 -0.28232232 0.027572783 0.0032034093 -0.09034872 0.18056034 -0.016743952 -0.025041107
-0.102993496 -0.0031030513 -0.20002703 0.11543763 -0.003603774 0.23348807 -0.37969923 -0.0061124843
0.15090118 0.086526304 0.011837035 -0.14215453 0.08770237 0.084073015 -0.011769751 -0.17117438
-0.04913721 -0.15450406 -0.27093607 0.08257179 0.08247603 -0.024365004 0.034438305 0.16724882
-0.06483781 0.08777608 0.083293974 0.080993906 -0.042456124 0.25545293 0.119465634 0.068657786
0.25478378 0.035174023 -0.08092632 0.030121915 0.048862897 0.12784956 0.09491811 -0.17253658
0.08588141 0.46486124 0.052223735 -0.20052435 0.071307115 -0.10310748 -0.30716288 -0.006029665
-0.083309144 0.26473764 -0.03043622 -0.0019872633 -0.41872016 0.046906095 -0.05342784 -0.18818381
-0.063426666 -0.077873945 0.0056180567 -0.072362565 0.10043639 -0.047403682 -0.073507294 0.032902125
-0.0066747754 0.068607286 0.026495825 -0.061341383 -0.10391268 -0.013088373 -0.08511 0.21367177
0.15320201 -0.023417365 0.045537405 0.06578816 0.045603015 -0.43794736 0.0121450145 -0.1826576
-0.014703817 -0.11193764 -0.02232026 -0.13348465 -0.0014487084 -0.043401875 0.04083775 0.04977141
-0.026079252 -0.012535648 -0.21189247 -0.072622776 -0.06642623 0.056496482 -0.0086137215 -0.0560758
