flappybird_dqn.pth (torch, 559405 bytes, 32 tensors)

fc1.weight f4 [128, 6]
0	0x3d7082bb	0.058718424
1	0x3e0593c0	0.13044643
2	0xbf7ad26d	-0.97977334
3	0xbe93c904	-0.288643
4	0x3ed1604f	0.4089379
5	0x3e927621	0.2860575
6	0xbe949471	-0.29019502
7	0xbe7b2f91	-0.24529864
8	0xbe2556f4	-0.16146451
9	0xbe94e71b	-0.2908257
10	0x3ed39788	0.41326547
11	0xbe85bddc	-0.26121414
12	0x3eb14852	0.3462549
13	0x3ca51010	0.02014926
14	0x3dbf5fb8	0.09344429
15	0x3e802800	0.25030518
16	0x3edcf897	0.4315841
17	0x3e3e7bf0	0.18601966
18	0x3ea58a39	0.32332018
19	0x3e98d05f	0.29846475
20	0x3e3905d4	0.1806863
21	0x3ea42e92	0.3206678
22	0xbf02e78c	-0.5113456
23	0xbce097a3	-0.027416056
24	0x3e9ffc9c	0.31247413
25	0x3d83497d	0.06410501
26	0x3e68988c	0.22714442
27	0xbe1b978d	-0.15194531
28	0xbd1db27e	-0.0385003
29	0x3e8a4217	0.27003548
30	0xbd609f5b	-0.054839473
31	0x3d6a77a0	0.05724299
32	0xbc9eb013	-0.019371068
33	0xbe581ddd	-0.21105142
34	0xbe9760dd	-0.29566088
35	0xbe80828e	-0.25099605
36	0xbe9f0c2e	-0.3106398
37	0x3dcc8725	0.09986714
38	0xbf97f2d2	-1.1870978
39	0x3e27c823	0.1638494
40	0x3eab688b	0.33478197
41	0xbe73f915	-0.23825486
42	0xbec87f18	-0.39159465
43	0xbc9a7757	-0.018855734
44	0x3d9cb499	0.07651634
45	0xbd095dd8	-0.033536762
46	0xbd6ddcf0	-0.05807203
47	0xbd975eb3	-0.07391109
48	0xbd555f44	-0.052092806
49	0xbcf68701	-0.030093672
50	0x3cfa65d2	0.03056613
51	0xbea1ccd9	-0.316016
52	0xbeace078	-0.33765006
53	0x3d7be467	0.06149712
54	0x3f0d49a0	0.5519047
55	0x3e5fc0d6	0.21850905
56	0x3e85c4f5	0.2612683
57	0xbd00e33e	-0.031466715
58	0xbd74a3df	-0.059726592
59	0xbe98019d	-0.2968873
60	0x3f19c2b8	0.6006274
61	0x3e6a8d27	0.22905408
62	0x3e698030	0.22802806
63	0x3c429906	0.011877304
64	0xbc867fb1	-0.01641831
65	0x3d7ceaa7	0.06174722
66	0x3e25d43e	0.16194245
67	0x3dc37307	0.09543424
68	0xbf851857	-1.0398053
69	0x3e5d4549	0.21608461
70	0x3ed6e002	0.4196778
71	0xbdf1ae7f	-0.118008606
72	0xbeb60b25	-0.35555378
73	0xbe6cdb95	-0.23130639
74	0x3dabda43	0.083912395
75	0x3efb9baf	0.49142215
76	0x3ed69284	0.41908658
77	0xbe8d7a48	-0.27632356
78	0x3e09d94d	0.134618
79	0x3e803ff4	0.25048792
80	0xbdbb6331	-0.09149779
81	0xbe746541	-0.2386675
82	0xbea28fb6	-0.31750268
83	0x3dde9718	0.108686626
84	0xbe2f54df	-0.1712222
85	0xbe863bb7	-0.26217434
86	0xbeb7ce58	-0.35899615
87	0x3e911746	0.2833807
88	0xbea747fe	-0.32672113
89	0xbe3f0375	-0.18653663
90	0x3e9a27bb	0.30108437
91	0x3e2da2e8	0.16956675
92	0xbec58e15	-0.38584962
93	0xbe4426bc	-0.19155401
94	0xbdec97a4	-0.11552361
95	0xbe7a578c	-0.24447459
96	0xbf001f5b	-0.50047845
97	0x3ea273f0	0.31729078
98	0x3e82e63f	0.2556629
99	0xbe267856	-0.16256842
100	0x3ed411a5	0.41419712
101	0xbd0eaadc	-0.034830913
102	0xbe9750fc	-0.29553974
103	0xbea75172	-0.32679325
104	0x3e93ff71	0.28905824
105	0xbdbf5f0b	-0.093443
106	0x3e73f6ac	0.23824567
107	0x3da0040c	0.07813272
108	0xbf078876	-0.529426
109	0xbdce3973	-0.10069551
110	0x3c8cbe3a	0.01718055
111	0x3f06380d	0.52429277
112	0x3d6c99dd	0.057763923
113	0xbdb8afae	-0.09017883
114	0x3d855df8	0.06512064
115	0x3e17edbe	0.14836785
116	0x3e5f9ce2	0.2183719
117	0xbe4ac9c6	-0.19803533
118	0x3ea228e4	0.31671822
119	0xbedaa694	-0.42705214
120	0xbe69143c	-0.22761625
121	0x3bb30177	0.005462821
122	0x3df88601	0.12134934
123	0xbe5d4089	-0.2160665
124	0x3e244d33	0.16045074
125	0xbeb0c5f8	-0.34526038
126	0xbd7e9d83	-0.062161934
127	0x3da9dea7	0.08294421
128	0xbf447245	-0.7673686
129	0x3ef1d9d2	0.47236496
130	0xbe2fa16b	-0.1715142
131	0x3e64e797	0.2235397
132	0xbda785f6	-0.08179848
133	0x3dfd3e6d	0.123654224
134	0x3d932d46	0.071863696
135	0xbe028289	-0.12745108
136	0x3e9f2500	0.31082916
137	0x3ec7e4cb	0.39041743
138	0x3e52e7f0	0.2059629
139	0xbec4635d	-0.38357058
140	0xbf856cdf	-1.042385
141	0xbdec53ed	-0.11539445
142	0xbd218dcb	-0.039441865
143	0xbe3d53ee	-0.18489048
144	0x3e0c8d69	0.13725819
145	0xbe78f1aa	-0.24310938
146	0xbdd577a2	-0.10423209
147	0xbe2b93b1	-0.16755559
148	0xbcbe40bd	-0.023224229
149	0xbe79d9e5	-0.24399526
150	0x3b900cd4	0.0043960605
151	0xbe432ea1	-0.19060756
152	0x3e7dff3a	0.24804392
153	0x3e3d84aa	0.18507639
154	0x3cf592f1	0.029977294
155	0x3e7c4175	0.24634345
156	0x3e802ddb	0.25034985
157	0x3e887b19	0.26656416
158	0xbe465d08	-0.19371426
159	0x3ec2d88e	0.38055843
160	0x3e6f25b8	0.23354232
161	0x3df7054c	0.12061557
162	0xbda5a05d	-0.080872275
163	0xbec4e8d1	-0.38458875
164	0x3e79c6a1	0.24392177
165	0xbdadb65c	-0.08482048
166	0xbe6b015c	-0.22949737
167	0xbe66067a	-0.22463408
168	0xbcd01f6a	-0.025405604
169	0xbecf08e5	-0.40436473
170	0xbe2602bd	-0.16211982
171	0x3c7b3d9a	0.015334511
172	0x3e973b33	0.29537353
173	0x3e90422b	0.28175482
174	0x3e629335	0.22126468
175	0xbe97da5b	-0.2965878
176	0x3c4ba1f9	0.012428754
177	0x3ac897cd	0.0015304029
178	0x3eb47caa	0.3525136
179	0x3dc4e77d	0.096144654
180	0xbe561f32	-0.20910338
181	0x3e3e4df4	0.18584424
182	0xbec8ea9c	-0.39241493
183	0x3e006134	0.1253708
184	0x3ea8e1cf	0.32984778
185	0x3d81bbf0	0.06334674
186	0xbf1162e7	-0.5679154
187	0xbe734716	-0.23757586
188	0x3e7ba0f9	0.24573125
189	0x3db691d2	0.08914532
190	0x3e583e08	0.21117413
191	0x3e39838c	0.18116587
192	0xbe4277ca	-0.18991008
193	0x3d8de6c2	0.06928779
194	0xbf81d400	-1.0142822
195	0xbdd60b98	-0.1045143
196	0x3db84445	0.089973964
197	0xbd2db8e8	-0.04241267
198	0xbd267861	-0.040642146
199	0x3ec24f40	0.37951088
200	0x3cedc3ae	0.029023971
201	0x3e475293	0.19465093
202	0xbe9a97f4	-0.30194056
203	0xbeb1b7fa	-0.34710675
204	0xbe3908b9	-0.18069734
205	0xbe2725cf	-0.16323017
206	0x3e402a31	0.18766095
207	0x3e8dc241	0.27687266
208	0xbee6c600	-0.45072937
209	0x3e247d0a	0.16063324
210	0x3f045056	0.5168508
211	0xbec30de8	-0.38096547
212	0xbdd76938	-0.10518116
213	0xbe5fd31c	-0.21857876
214	0xbe9b8718	-0.30376506
215	0x3eda758b	0.42667803
216	0x3ea20ef4	0.31652033
217	0x3e9a5698	0.3014419
218	0xbf656839	-0.89612156
219	0xbe98f6b7	-0.29875728
220	0x3e82535f	0.25454232
221	0xbe7e741b	-0.24848978
222	0xbecfcb58	-0.40584826
223	0xbeca3d6b	-0.39499983
224	0x3e31fa3f	0.17380618
225	0xbe38a31e	-0.18030974
226	0x3eb81470	0.35953093
227	0x3dbb6d6d	0.09151731
228	0x3d3c1d25	0.045926232
229	0x3cb12437	0.021623714
230	0xbf7d30da	-0.98902667
231	0xbebdc164	-0.37061608
232	0x3e2274fd	0.1586494
233	0xbd55aabc	-0.052164778
234	0x3ea1696b	0.3152574
235	0x3e6771ef	0.22602056
236	0xbef8ecab	-0.48618063
237	0x3d56b23d	0.052416075
238	0x3ed65dc4	0.41868412
239	0x3e8f7f3f	0.2802677
240	0xbc0fc97b	-0.008776064
241	0x3e31038b	0.17286508
242	0xbedfe4b6	-0.4372918
243	0x3ebd0412	0.36917168
244	0x3e6482b5	0.22315486
245	0x3ee47247	0.44618437
246	0xbe93a05b	-0.2883328
247	0xbd8eb447	-0.06967979
248	0x3e184a3f	0.14872073
249	0xbe59fabc	-0.21287054
250	0xbebab15b	-0.36463436
251	0x3e464f73	0.19366245
252	0xbee6e8fb	-0.45099625
253	0xbd25b12d	-0.04045217
254	0xbf43c8cd	-0.7647827
255	0xbe881a4f	-0.26582572

fc1.bias f4 [128]
0	0xbeba2fd0	-0.36364603
1	0x3e195754	0.1497472
2	0x3e67592c	0.2259261
3	0xbe6e1bc5	-0.2325278
4	0xbe63def6	-0.22253022
5	0xbe81463e	-0.25248903
6	0x3ea06c6d	0.31332722
7	0xbd3f816b	-0.046754282
8	0xbe714407	-0.23561107
9	0x3d986167	0.07440453
10	0xbe521194	-0.20514518
11	0x3addc805	0.0016920572
12	0x3ec15113	0.37757167
13	0xbeb44098	-0.3520553
14	0xbd97c7bf	-0.074111454
15	0xbe2920b9	-0.16516389
16	0x3c875063	0.016517824
17	0xbe9c2de5	-0.30503765
18	0x3e376cf7	0.1791266
19	0x3e130ec1	0.14361097
20	0xbe828eb7	-0.25499508
21	0xbcb87a61	-0.022519292
22	0x3e9f2225	0.31080738
23	0x3ea1f891	0.31634954
24	0xbe5c23a8	-0.21497977
25	0x3ec8113f	0.39075658
26	0x3e700732	0.23440245
27	0xbea1b0ed	-0.31580296
28	0x3e9b72b1	0.3036094
29	0x3e5a6178	0.21326244
30	0x3e8d71b5	0.27625814
31	0xbb009dab	-0.0019625227
32	0x3e32dee6	0.17467842
33	0xbebc35d1	-0.3675981
34	0x3e3690c9	0.17828669
35	0xbd06041b	-0.03271876
36	0x3ea76c62	0.32699877
37	0xbd495ae4	-0.049158946
38	0x3e1a3f87	0.15063296
39	0xbbb5de3c	-0.005550174
40	0x3e8cca98	0.27498317
41	0xbe2614ff	-0.16218947
42	0x3eab2ef9	0.33434275
43	0x3e2f9455	0.17146428
44	0x3e504256	0.20337805
45	0x3e26a03e	0.16272065
46	0xbec364b3	-0.38162765
47	0xbe216603	-0.1576157
48	0xbeaae11b	-0.33374867
49	0xbdd68c3a	-0.10475965
50	0x3e30fc17	0.17283665
51	0xbd88a53c	-0.06672141
52	0x3e611105	0.21979149
53	0xbe2c0f7e	-0.16802785
54	0xbda55372	-0.080725566
55	0x3e7c549d	0.24641652
56	0xbd77f1ab	-0.060533207
57	0xbe3472ba	-0.1762189
58	0x3d8e20af	0.06939828
59	0x3b9d4148	0.004799042
60	0x3d3f8838	0.046760768
61	0x3e6be734	0.23037416
62	0x3dadf352	0.08493675
63	0x3e8b7aa1	0.27241996
64	0xbe39bd41	-0.18138601
65	0x3e9460a8	0.28979993
66	0x3e57562e	0.21028969
67	0xbe2331d6	-0.1593698
68	0xbe3f1dad	-0.18663664
69	0x3ea69443	0.3253499
70	0xbe74ffcf	-0.23925708
71	0xbe3d95fd	-0.18514247
72	0xbe94af9b	-0.29040226
73	0xbe1d2a15	-0.15348084
74	0xbe95ff84	-0.29296505
75	0xbe123bbc	-0.142806
76	0x3ea58f48	0.32335877
77	0x3e025623	0.12728171
78	0x3dc120cb	0.09430083
79	0xbebb4474	-0.36575663
80	0xbec7abe1	-0.3899832
81	0xbec40b7a	-0.38290006
82	0xbe259ddb	-0.16173498
83	0x3e6b6ed7	0.22991501
84	0xbe0cb81d	-0.13742109
85	0x3dd271ea	0.10275634
86	0x3d9e1046	0.07717948
87	0x3eac8681	0.33696368
88	0x3eb18f62	0.34679705
89	0xbe9376a2	-0.28801447
90	0xbc7e4402	-0.015519144
91	0xbe024c2e	-0.12724373
92	0x3e7a2686	0.24428758
93	0xbec2f23e	-0.3807544
94	0xbbcc27f4	-0.0062303487
95	0x3d86c820	0.065811396
96	0xbe86549b	-0.26236424
97	0x3d24c137	0.040223327
98	0x3e92cef8	0.2867353
99	0x3dbcc21b	0.0921671
100	0xbeb456f5	-0.35222593
101	0x3dbe35df	0.09287619
102	0x3eaadf52	0.33373505
103	0xbdfe69b7	-0.12422507
104	0xbd967425	-0.073463716
105	0xbed08181	-0.40723804
106	0x3dd71912	0.10502829
107	0xbeb21d00	-0.3478775
108	0xbca46d73	-0.02007172
109	0xbe641064	-0.22271878
110	0x3ded93f3	0.11600485
111	0xbe9b4c85	-0.30331817
112	0x3d0e5721	0.03475106
113	0x3eb41a3e	0.3517627
114	0x3ddcefde	0.107879385
115	0xbe92e517	-0.28690407
116	0xbe338a6a	-0.1753327
117	0xbea47e2f	-0.3212752
118	0x3e753a89	0.2394811
119	0xbead0676	-0.33793992
120	0xbe6a35dc	-0.22872108
121	0xbe1309c2	-0.14359191
122	0xbe6be393	-0.23036031
123	0x3e301462	0.17195275
124	0xbe3e5abe	-0.18589303
125	0x3e95eff6	0.29284638
126	0xbec58565	-0.38578334
127	0xbda277e2	-0.07933022

fc2.weight f4 [128, 128]
0	0xbee5ac94	-0.4485823
1	0x3e3214a3	0.17390685
2	0x3df904cb	0.12159117
3	0x3e430c67	0.190477
4	0x3e81253a	0.25223714
5	0x3d76d523	0.060261857
6	0xbe29c03d	-0.1657724
7	0xbd524c91	-0.05134255
8	0xbd0866c1	-0.03330112
9	0x3eac6756	0.3367259
10	0x3e86f276	0.26356858
11	0xbd48b5f0	-0.049001634
12	0xbe04af2d	-0.1295745
13	0x3d574327	0.052554276
14	0x3d656d78	0.0560126
15	0xbd22eaac	-0.03977458
16	0x3dc6db94	0.0970985
17	0x3dcac04c	0.09899959
18	0x3e95028d	0.2910351
19	0xbcc0b337	-0.023522956
20	0x3bf0a516	0.0073438985
21	0xbe2e41f5	-0.17017348
22	0x3d96517f	0.07339763
23	0xbc14c1a9	-0.009079375
24	0xbcb75ab3	-0.022382116
25	0x3e0a653e	0.13515183
26	0x3db7e013	0.08978286
27	0x3d73340b	0.059375804
28	0x3dea3e15	0.114376225
29	0x3bf6d3aa	0.0075325565
30	0xbb100a34	-0.0021978738
31	0x3e385207	0.18000041
32	0xbe113cf5	-0.1418341
33	0x3d6b7f56	0.057494484
34	0x3e4e62cc	0.20154876
35	0x3e6221e0	0.22083235
36	0xbda5cd0a	-0.08095749
37	0x3e103c98	0.14085615
38	0xbe8cf224	-0.2752849
39	0x3bbaeac0	0.005704254
40	0x3dde3544	0.10850003
41	0xbce85b97	-0.028363986
42	0xbed8337a	-0.42226774
43	0x3d58d399	0.05293617
44	0xbdf62572	-0.12018861
45	0xbc91b382	-0.017785791
46	0x3da78749	0.081801005
47	0x3e16b8f5	0.14718993
48	0x3d796c29	0.060894165
49	0xbe7556c4	-0.2395888
50	0x3da179be	0.078845486
51	0x3dd6b4cf	0.10483705
52	0xbdacabfb	-0.0843124
53	0x3b543298	0.003237879
54	0x3e8f5ebd	0.28001967
55	0xbda7beda	-0.08190699
56	0x3e386d0a	0.18010345
57	0x3e32b3e0	0.1745143
58	0x3e6477ea	0.22311369
59	0x3a8ff077	0.0010981698
60	0xbdda9e5f	-0.10674738
61	0x3dcd45cd	0.10023079
62	0x3d7e98b8	0.062157363
63	0x3e40c811	0.1882632
64	0xbbfbd566	-0.007685351
65	0xbd73ebd6	-0.059551083
66	0x3e08ca38	0.1335839
67	0xbd1ce71a	-0.038306333
68	0x3d39334d	0.04521494
69	0xbdc1c52e	-0.09461437
70	0x3e4e06b9	0.20119752
71	0x3ea2e68d	0.3181652
72	0x3f105496	0.5637907
73	0xbd275e27	-0.040861275
74	0x3c0a092d	0.008425039
75	0xbd34ec78	-0.044170827
76	0xbd058116	-0.03259381
77	0x3eb23a29	0.34809998
78	0xbe0535c8	-0.13008797
79	0xbafdc595	-0.0019361252
80	0x3c3e175a	0.011602247
81	0x3e66b4c7	0.22529899
82	0xbebae373	-0.36501655
83	0xbd8aec89	-0.06783397
84	0x3e2e256e	0.17006466
85	0xbf2335a0	-0.637537
86	0x3e7ee59d	0.24892278
87	0x3dd69d17	0.10479181
88	0xbdd38c58	-0.10329503
89	0xbc55077a	-0.013002271
90	0xbd840826	-0.06446867
91	0xbeacc608	-0.33744836
92	0x3d147520	0.03624451
93	0xbd04f2da	-0.032458164
94	0x3da9032e	0.082525596
95	0x3eaaf815	0.33392397
96	0xbd94b00a	-0.07260139
97	0xbdbcabfa	-0.092124894
98	0xbe2d9ff8	-0.16955554
99	0x3e49f218	0.19721258
100	0xbd082329	-0.033236656
101	0x3dd51429	0.10404236
102	0xbe800ab2	-0.2500816
103	0xbd8cea8b	-0.06880673
104	0xbcbf0c45	-0.02332128
105	0xbc46f059	-0.012142264
106	0x3e27fe67	0.1640564
107	0x3dd7859b	0.1052353
108	0xbedc5436	-0.43032998
109	0x3dfef93f	0.12449884
110	0x3e31b0f2	0.17352656
111	0x3d946d1b	0.07247373
112	0xbd8b0721	-0.06788469
113	0xbe036b0f	-0.12833808
114	0x3dfc9913	0.12333884
115	0xbb3c6d0e	-0.0028751525
116	0x3e34d254	0.17658359
117	0x3ca9dcec	0.020735227
118	0x3deb0a81	0.11476613
119	0x3b693ccd	0.0035589219
120	0x3c9b8a27	0.018986775
121	0x3ecf11bc	0.40443218
122	0x3f288ecf	0.6584291
123	0x3e6a8cd5	0.22905286
124	0xbc915b2f	-0.017743675
125	0xbd9920c8	-0.07476956
126	0xbdd1be2d	-0.10241351
127	0xbd20cc41	-0.03925729
128	0x3c60ff3d	0.013732729
129	0xbdb4872e	-0.08814846
130	0x3d125ac8	0.035731107
131	0xbccd24d2	-0.025041971
132	0xbd293951	-0.041314427
133	0x3d25fe77	0.04052588
134	0x3d2ce033	0.042206
135	0x3d4cf02c	0.050033733
136	0xbc9b37bb	-0.018947473
137	0x3ce3b429	0.027795868
138	0x3d485611	0.048910204
139	0xbd80fe66	-0.06298523
140	0x3d2ea662	0.042639144
141	0x3d81db1c	0.0634062
142	0xbd4b2452	-0.049595185
143	0x3c904d17	0.017614884
144	0x3d87bd03	0.06627848
145	0x3c3a52a3	0.011372241
146	0xbd6b1a7a	-0.057398297
147	0x3d0de8e1	0.03464592
148	0x3cf5cda7	0.03000529
149	0xbd4a77ec	-0.049430773
150	0xbd2290d6	-0.039688908
151	0xbb40a6c1	-0.0029396268
152	0x3d1373cd	0.035999108
153	0xbd7d7495	-0.06187876
154	0xbd2eaf74	-0.042647794
155	0x3d83295a	0.064043716
156	0x3d0b6c65	0.03403892
157	0xbd64784b	-0.055778783
158	0x3d2d301d	0.042282213
159	0x3c573cad	0.013137025
160	0xbcd6c664	-0.026217647
161	0xbd90075f	-0.07032656
162	0xbdb05f97	-0.08611982
163	0x3d320e36	0.043470584
164	0xbad1979d	-0.0015990619
165	0xbd79b88a	-0.060967006
166	0xbd690b62	-0.05689562
167	0x3ce2cff6	0.027687054
168	0xbcdfd937	-0.027325256
169	0x3cbd1f34	0.023086168
170	0x3d51ee20	0.051252484
171	0x3b8aed43	0.0042397096
172	0x3d8824a1	0.066476114
173	0xbd87807d	-0.06616304
174	0x3d441150	0.047868073
175	0xbc2c23a5	-0.010506545
176	0xbda1b1bb	-0.078952275
177	0xbd7374b6	-0.059437476
178	0xbbad4513	-0.0052877753
179	0xbd82b6bf	-0.06382512
180	0x3d98089c	0.07423517
181	0xbd46d501	-0.04854298
182	0xbd2d4a00	-0.0423069
183	0x3d53f0e0	0.05174339
184	0x3d1a88a5	0.03772797
185	0x3cfa2654	0.030535854
186	0xbd2be303	-0.041964542
187	0xbdaa3b59	-0.08312101
188	0x3d25309c	0.04032956
189	0xbdb4ff4c	-0.088377565
190	0xbd3abfc4	-0.04559304
191	0x3d4103d6	0.0471228
192	0xbd1f72ad	-0.038927723
193	0x3d61d89e	0.055138223
194	0xbd3207cb	-0.043464463
195	0x3d921bcf	0.0713421
196	0xbd1ee484	-0.03879215
197	0xbd3f5642	-0.04671312
198	0xbd89ab31	-0.06722105
199	0xbd883305	-0.06650356
200	0x3d38fa33	0.045160484
201	0x3bda7173	0.006666356
202	0xbda080d2	-0.078370705
203	0xbd4eb735	-0.05046769
204	0xbd13db94	-0.036098078
205	0x3d0db21a	0.03459368
206	0xbd67289b	-0.05643521
207	0x3d191748	0.03737572
208	0xbda02437	-0.078194074
209	0x3d5e3323	0.054247987
210	0x3d460a10	0.04834944
211	0xbd8f5728	-0.069990456
212	0xbc8bb6e6	-0.017054986
213	0xbda49641	-0.08036471
214	0xbc08e94b	-0.008356403
215	0xbd575690	-0.052572787
216	0xbd0b06af	-0.03394192
217	0xbd86afe4	-0.06576517
218	0xbd8972d2	-0.06711353
219	0x3db0bce2	0.086297765
220	0x3c8df4de	0.017328676
221	0xba4c477f	-0.0007792636
222	0xbd706348	-0.058688432
223	0xbc1ff428	-0.009762801
224	0x3cd07126	0.025444578
225	0xbd8a3ad5	-0.067495026
226	0x3d5f806b	0.05456583
227	0x3d6285b4	0.05530329
228	0xbd4eadc3	-0.05045868
229	0x3d830132	0.06396712
230	0xbc463bdc	-0.0120992325
231	0xbd33a650	-0.04385978
232	0xbdaa111b	-0.08304044
233	0xbd4bc5c3	-0.049749147
234	0x3d7c6b02	0.061625488
235	0xbd006529	-0.031346474
236	0xbd645a95	-0.05575045
237	0x3b81eaf2	0.0039647752
238	0x3b3e64df	0.0029051823
239	0xbb1192d3	-0.0022212758
240	0x3d3288e5	0.043587584
241	0xbd9cead7	-0.0766198
242	0x3c74fa02	0.014952185
243	0x3baa6664	0.005200194
244	0xbd9d97ec	-0.076949924
245	0x3a87435f	0.0010319761
246	0xbd776804	-0.06040193
247	0x3cccad13	0.024984872
248	0xbdab589b	-0.083665095
249	0x3d4cb98f	0.04998165
250	0xbc2a66d5	-0.010400494
251	0xbd84bcfc	-0.064813584
252	0x3d8f560d	0.06998835
253	0x3da9d15f	0.082918875
254	0xbd3d8f0f	-0.04627901
255	0xbd9c6915	-0.0763723

fc2.bias f4 [128]
0	0xbd042141	-0.032258276
1	0x3c37165a	0.011174763
2	0x3d2ac95f	0.04169595
3	0x3cd5e706	0.026111137
4	0x3d419b1a	0.047267057
5	0xbd53a5ef	-0.05167192
6	0x3d988d2a	0.074488
7	0x3e073075	0.13202079
8	0x3cb175b4	0.02166257
9	0xbbdb164e	-0.0066860085
10	0xbcf43533	-0.029810524
11	0xbda4c07c	-0.08044526
12	0xbd16c632	-0.036810108
13	0x3d5e8b97	0.054332342
14	0x3dde07bc	0.10841319
15	0x3d3238eb	0.043511312
16	0xbd6a2b65	-0.05717029
17	0xbab565bc	-0.0013839523
18	0x3d71676f	0.058936533
19	0x3dafd348	0.085852206
20	0x3c7056ee	0.014669163
21	0x3c0c5073	0.008564102
22	0xbd0ddb61	-0.034633044
23	0xbd887c6e	-0.06664358
24	0x3d81044d	0.062996484
25	0x3d174e6f	0.036940034
26	0x3da8598c	0.08220205
27	0x3dc15682	0.09440328
28	0xbd8735ac	-0.06602034
29	0x3dd90c00	0.10597992
30	0xbd144d86	-0.036206745
31	0xbca7346c	-0.020410739
32	0x3dd3df2e	0.103453025
33	0xbd372fcc	-0.044723317
34	0x3d91fb56	0.07128017
35	0xbda6e696	-0.081494495
36	0x3c255166	0.010090208
37	0x3c62f05f	0.013851254
38	0x3d429a3d	0.047510374
39	0xbc260b90	-0.010134593
40	0xbd8862de	-0.066594824
41	0x3dcefd42	0.10106899
42	0x3d33c9ce	0.043893628
43	0x3ddf2502	0.108957306
44	0xbd7f4fe5	-0.062332053
45	0xbd34b235	-0.044115264
46	0xbc45e10a	-0.012077579
47	0x3dbedf8c	0.09319982
48	0x3cd563c1	0.026048543
49	0xbda8d0fb	-0.08242985
50	0x3d1d40bb	0.03839181
51	0xbd8fe6cd	-0.07026444
52	0x3d601826	0.05471053
53	0xbda0e2e8	-0.07855779
54	0xbc9aab29	-0.018880444
55	0xbc445696	-0.011983534
56	0xbb275dcb	-0.0025538083
57	0xba36d147	-0.0006973934
58	0x3ce7b585	0.028284797
59	0x3de2edcb	0.11080512
60	0x3db12cdf	0.086511366
61	0xb99dec1f	-0.00030121297
62	0x3dd9e0f2	0.10638608
63	0x3d8b9fa4	0.068175584
64	0x3dc58173	0.09643831
65	0xbd9ce48b	-0.076607786
66	0xbbcad914	-0.0061904285
67	0xbcc18ab4	-0.02362571
68	0x3e0ccd60	0.1375022
69	0x3c2c5d66	0.010520315
70	0x3d4fbab4	0.050715163
71	0x3d9c3a2c	0.07628283
72	0xbd695e45	-0.056974668
73	0x3ccb43c6	0.02481259
74	0xb953b2c4	-0.00020189123
75	0x3d21eae6	0.039530657
76	0x3e11eb78	0.1424998
77	0x3dc993d7	0.09842651
78	0x3d1fce2e	0.039014988
79	0xbd197079	-0.037460778
80	0xbd850885	-0.064957656
81	0xbd8ae6c2	-0.06782295
82	0x3d58d25e	0.052934997
83	0x3d2a686d	0.041603494
84	0xbc7553d9	-0.014973604
85	0x3d33bc1e	0.043880574
86	0x3d3dc1dc	0.046327457
87	0xbc01857b	-0.007905359
88	0x3dd3e46a	0.10346301
89	0xbdb690c7	-0.08914333
90	0xbd46c5e6	-0.048528574
91	0xbdcc5b1f	-0.099783175
92	0x3d00cc51	0.03144485
93	0x3dc66086	0.09686379
94	0xbda9f590	-0.082987905
95	0x3d8bac8f	0.06820022
96	0xbc0882f1	-0.008332
97	0xbd9f721d	-0.07785437
98	0x3dd2af85	0.10287384
99	0x3d969e6e	0.07354437
100	0x3a9a9dc5	0.0011796287
101	0x3b8e0799	0.004334402
102	0xbcad2b54	-0.021138825
103	0x3d0e3697	0.03472003
104	0x3ca4f8ae	0.020138111
105	0xbd485272	-0.04890675
106	0xbd17f2c5	-0.037096757
107	0xbd8a6953	-0.0675837
108	0x3d2eeea2	0.042708047
109	0xbd7d8fd1	-0.061904732
110	0xbd93866b	-0.072033726
111	0x3d66f485	0.056385536
112	0xba7c42a6	-0.00096229685
113	0x3d050892	0.032478876
114	0x3e173557	0.14766441
115	0xbcbef14d	-0.02330842
116	0xbd1a22da	-0.037630893
117	0x3d473eb7	0.048643794
118	0x3d96569e	0.0734074
119	0x3d123ab6	0.035700522
120	0x3d9576cd	0.0729805
121	0x3d0b2675	0.033972222
122	0xbd9a091a	-0.07521267
123	0x3b7493ac	0.0037319465
124	0xb980daaf	-0.00024576994
125	0x3dd58f30	0.104277015
126	0x396818c5	0.00022134472
127	0x3d801564	0.0625408

fc3.weight f4 [128, 128]
0	0xbcc11ced	-0.023573363
1	0xbd2f88ab	-0.042854946
2	0xbd225e85	-0.039640922
3	0xbe3d92df	-0.18513058
4	0x3e5f3444	0.21797282
5	0xbc9fbdda	-0.019499708
6	0x3d538fa8	0.051650673
7	0x3ebd95b7	0.37028286
8	0xbe057f4f	-0.13036846
9	0x3dd1fdcb	0.10253485
10	0xbd972cad	-0.07381568
11	0x3c9ba04b	0.018997332
12	0x3e08e9f0	0.1337049
13	0xbe7e906e	-0.24859783
14	0xbe277815	-0.16354401
15	0x3ddd7f6e	0.10815321
16	0x3e1326e3	0.14370303
17	0x3e03a0fe	0.12854382
18	0xbdcf7be3	-0.101310514
19	0xbd833872	-0.064072505
20	0x3d4008d3	0.046883415
21	0x3cdc9071	0.026924344
22	0x3cee911f	0.029121934
23	0xbd833fa8	-0.06408626
24	0xbc8f886f	-0.017521111
25	0xbd7dcea5	-0.06196465
26	0x3d59203f	0.053009268
27	0x3d28f737	0.041251387
28	0x3da97329	0.08273918
29	0x3e0714fa	0.13191596
30	0xbd17af03	-0.03703214
31	0x3c850a4e	0.016240265
32	0x3e724d7c	0.2366237
33	0x3dce0cb0	0.10061014
34	0xbdbb51fa	-0.09146495
35	0xb92725a9	-0.0001594039
36	0xbd46e54a	-0.04855851
37	0xbd4ec7c2	-0.050483473
38	0x3e352bca	0.17692485
39	0x3dcb6994	0.09932247
40	0xbc520373	-0.012818205
41	0x3e2c6c43	0.16838174
42	0x3d01da88	0.03170255
43	0x3c444d06	0.011981254
44	0xbdf29f9e	-0.11846851
45	0x3e398fdc	0.18121284
46	0x3c6996a6	0.014257109
47	0xbc5fef93	-0.013667959
48	0x3e52380e	0.20529196
49	0x3cb46445	0.022020468
50	0x3d84c7bf	0.06483411
51	0xbd98c72b	-0.07459863
52	0x3d6acf24	0.05732645
53	0xbb0fcb79	-0.0021941348
54	0x3e171695	0.14754708
55	0xbdfeb68c	-0.12437162
56	0x3d3f8322	0.046755917
57	0xbce4afc7	-0.027915848
58	0xbe31d5b1	-0.17366673
59	0x3d4b114b	0.04957704
60	0x3e51a5fd	0.20473476
61	0x3d999f8e	0.07501136
62	0x3d91cd2e	0.07119213
63	0x3e13b8a8	0.1442591
64	0xbafd6bf5	-0.0019334542
65	0xbd59b291	-0.05314881
66	0xbcb72d0d	-0.02236035
67	0xbc9cfacb	-0.019162556
68	0xbc99648f	-0.018724708
69	0xbd735c4c	-0.059414193
70	0x3d324163	0.04351939
71	0x3e820a83	0.25398645
72	0xbc91547d	-0.017740482
73	0x3ca2bc5f	0.019865213
74	0x3d3fabea	0.04679481
75	0xbd95407d	-0.07287691
76	0xbd6bd33b	-0.057574492
77	0xbe016ccd	-0.1263916
78	0xbde9fd90	-0.11425316
79	0xbd9e3d0e	-0.07726489
80	0x3d60ae5d	0.054853786
81	0x38b526e4	8.6379965e-05
82	0x3d926f8a	0.07150181
83	0x3e87ee25	0.26548877
84	0x3d8ce23e	0.0687909
85	0xbd3e1cba	-0.046414115
86	0x3de63a28	0.11241561
87	0xbe011b40	-0.12608051
88	0x3d88a52b	0.06672128
89	0xbb55771a	-0.003257221
90	0xbdad9a91	-0.08476747
91	0xbc1fece4	-0.009761069
92	0xbd0053d8	-0.03132996
93	0x3e18eec7	0.14934836
94	0x3d648eb9	0.055800173
95	0x3e263f0f	0.16234992
96	0xbdadbaeb	-0.084829174
97	0x3d644553	0.055730175
98	0x3da9aa70	0.082844615
99	0x3c0af374	0.008480895
100	0x3d3c6da2	0.04600299
101	0x3d5bdbf1	0.05367655
102	0x3cdeda64	0.027203746
103	0xbe2bb64c	-0.1676876
104	0xbd23f1e7	-0.040025618
105	0x3ab81945	0.0014045617
106	0x3ddd16a4	0.10795334
107	0x3eb031f6	0.34413117
108	0xbe1b23ee	-0.15150425
109	0xbc984e11	-0.018591912
110	0xbd0e31b6	-0.034715377
111	0xbbe14731	-0.0068749418
112	0xbc390ffa	-0.011295313
113	0xbd9e5859	-0.07731695
114	0x3ea8c1ab	0.32960257
115	0x3d57024e	0.052492432
116	0xbc6a24e1	-0.014291019
117	0x3ded1713	0.11576667
118	0x3d60ff9c	0.054931268
119	0x3bd813f6	0.0065941764
120	0x3d208784	0.039191738
121	0x3eb6e752	0.35723358
122	0x3c4b77d7	0.012418709
123	0x3ce2e2e7	0.027696086
124	0x3da2d2d4	0.079503685
125	0x3e14090d	0.14456578
126	0x3cbf433c	0.02334749
127	0x3c6d5d8d	0.014487636
128	0xbe08d954	-0.13364154
129	0x3d30a7f4	0.043128923
130	0x3c58acdc	0.013224807
131	0xbe2acc98	-0.16679609
132	0x3d366eb4	0.04453917
133	0xbcad04b1	-0.021120401
134	0xbdec4e2e	-0.11538349
135	0x3dac142a	0.084022835
136	0x3d33be0e	0.043882422
137	0xbc878887	-0.016544593
138	0x3cfb62ed	0.03068682
139	0xbd9194c8	-0.07108456
140	0xbdf0f318	-0.117651165
141	0x3c3de007	0.011589057
142	0xbe04ac2e	-0.12956306
143	0x3c5b59f9	0.01338815
144	0xbe0c5a12	-0.13706234
145	0x3dbd62d9	0.09247369
146	0xbe748bd7	-0.2388147
147	0xbd347746	-0.04405906
148	0xbcf6e321	-0.0301376
149	0xbd65f3b6	-0.056140624
150	0xbdb46285	-0.088078536
151	0x3d962983	0.073321365
152	0x3d0618a8	0.032738358
153	0x3cbd2780	0.023090124
154	0xbe94ce8f	-0.29063842
155	0x3d55bf6f	0.05218452
156	0x3b6bcfd4	0.003598203
157	0x3bc76c1f	0.006085887
158	0xbbbee278	-0.005825337
159	0x3b65c7dc	0.0035061752
160	0x3dc86919	0.09785671
161	0xbc3a05c3	-0.011353913
162	0xbbff864c	-0.007797992
163	0x3c1b305a	0.009471977
164	0xbe577b4d	-0.2104313
165	0xba68c7e7	-0.00088798854
166	0x3d00fa2a	0.031488575
167	0x3bd7a272	0.0065806443
168	0xbae9ca37	-0.0017836754
169	0xbd066a87	-0.032816436
170	0x3d69028f	0.056887206
171	0xbc06033f	-0.008179485
172	0xbd11c0cc	-0.035584256
173	0x3d31d53c	0.043416247
174	0xbcbbc3a3	-0.022920435
175	0x3c41099c	0.011782076
176	0xbcf86c42	-0.030325059
177	0xbcffbf97	-0.031219287
178	0x3d9cd215	0.076572575
179	0xbc484204	-0.012222771
180	0xbdb67503	-0.08909037
181	0xbd46d33b	-0.04854129
182	0xbd89fa48	-0.067371905
183	0xbd91d6c3	-0.07121041
184	0xbc7e4bef	-0.015521034
185	0x3c0ee226	0.00872091
186	0xbd6e368e	-0.058157496
187	0x3c9c85b7	0.019106729
188	0xbc4aecd1	-0.012385563
189	0x3ba08ff1	0.0048999717
190	0xbe926d31	-0.2859893
191	0xbcb14c62	-0.021642867
192	0xbe7fd0bc	-0.2498197
193	0x3d4cac12	0.049968787
194	0xbcd71790	-0.026256353
195	0xbc8adbb7	-0.016950471
196	0xbe61d997	-0.2205566
197	0x3d2b71f9	0.04185674
198	0x3b84169d	0.004031016
199	0x3e313768	0.17306292
200	0xbdf21f1e	-0.118223414
201	0xbcb174e4	-0.021662183
202	0xbcf017de	-0.029308256
203	0xbb4a8f58	-0.0030908193
204	0xbd969124	-0.07351902
205	0xb90e6e23	-0.00013583204
206	0xbdf88b03	-0.121358894
207	0x3d8eb1ca	0.06967504
208	0x3d8dc0fd	0.06921575
209	0x3da6552e	0.081217155
210	0xbc38a4c9	-0.011269757
211	0x3d0d61bb	0.03451703
212	0xba9e4be9	-0.0012077066
213	0xbdd24fc6	-0.10269122
214	0xbd1f2c0d	-0.03886037
215	0x3ce21997	0.027600093
216	0xbdcc889a	-0.09986992
217	0xbba8e956	-0.005154769
218	0x3c40e92d	0.011774343
219	0xbb853414	-0.004065046
220	0x3ca6a3ae	0.02034172
221	0x3dc0d27f	0.09415149
222	0x3bb17d9f	0.0054165865
223	0x3c69f0fb	0.014278646
224	0x3d74b192	0.059739657
225	0x3d837715	0.064191975
226	0x3d001661	0.031271342
227	0xbd9a52c9	-0.07535321
228	0xbd8ea0fd	-0.069643
229	0xbe26f2c6	-0.16303548
230	0x3ca57cbc	0.02020108
231	0xbb9ea439	-0.004841354
232	0xbc88bea0	-0.01669246
233	0xbc6f1ce4	-0.01459429
234	0xbcf1deda	-0.02952521
235	0x3e1aefc8	0.15130532
236	0xbe319c63	-0.17344813
237	0xbd6f3f8e	-0.05841022
238	0x3db3a3df	0.0877149
239	0xbe2492fa	-0.16071692
240	0x3d179f11	0.037016932
241	0xbc9082f7	-0.017640574
242	0x3c9b4657	0.01895444
243	0xbd912c17	-0.070884876
244	0xbd730a07	-0.059335735
245	0xbc54c33d	-0.012986002
246	0xbd47f3eb	-0.048816603
247	0x3b909f23	0.004413502
248	0xbe41d358	-0.18928277
249	0x3eb721f0	0.3576808
250	0xbc5e4e69	-0.013568499
251	0x3d14684f	0.03623229
252	0xbd3c52a1	-0.04597724
253	0xbdd69f99	-0.104796596
254	0xbc87614b	-0.016525885
255	0xbc9cf2dc	-0.019158773

fc3.bias f4 [128]
0	0x3dddc677	0.1082887
1	0x3d553d0b	0.05206017
2	0xbdb364d1	-0.087594636
3	0xbd932eb6	-0.07186644
4	0x3ddc13ca	0.10745962
5	0xbdcf9991	-0.10136712
6	0x3db6a54b	0.08918246
7	0xbdb3cc1b	-0.087791644
8	0xbc8bf98e	-0.01708677
9	0x3d7eb35d	0.062182773
10	0x3dac6e97	0.08419531
11	0xbd623825	-0.055229325
12	0x3e3112a3	0.17292266
13	0x3e0d4781	0.13796808
14	0xbcadd128	-0.021217898
15	0x3ce8f0b7	0.028435094
16	0x3ca8111d	0.020515973
17	0x3d40f54c	0.047108933
18	0x3e0ce462	0.13758996
19	0x3b651a9c	0.0034958487
20	0x3db0fb15	0.0864164
21	0xbc22a8ea	-0.009927968
22	0x3ddb0c6d	0.106957294
23	0xbc02d79a	-0.007985974
24	0x3cc5c257	0.02414052
25	0xbd6bf159	-0.057603214
26	0xbd24669c	-0.04013692
27	0xbbce6b2c	-0.006299397
28	0x3d4b9f2f	0.049712356
29	0x3dcd7c4d	0.10033474
30	0xbcdbe52f	-0.026842682
31	0x3dc59a0d	0.096485235
32	0x3db4e1ad	0.08832107
33	0x3b8215b7	0.003969874
34	0x3ced8753	0.028995192
35	0xbdbfce3f	-0.0936551
36	0xbd4e7a3b	-0.050409537
37	0x3d1d4d84	0.038404003
38	0xbd934cd8	-0.07192391
39	0x3bba9124	0.0056935716
40	0x3d1030a6	0.035202645
41	0x3c58f915	0.0132429795
42	0xbd2e9701	-0.042624477
43	0xbb8974ef	-0.004194848
44	0x3b418fcc	0.0029535173
45	0x3dc2450a	0.094858244
46	0x3d2c0e44	0.042005792
47	0xbd4b3c0b	-0.04961781
48	0x3ca7f985	0.020504722
49	0xbd53341d	-0.05156337
50	0x3da3cc53	0.07997956
51	0xbc9f6852	-0.019458923
52	0x3cbc39ab	0.022976717
53	0x3e0eb645	0.13936718
54	0xbc8dfbcb	-0.017331978
55	0x3de27642	0.11057712
56	0xbc451e2d	-0.01203112
57	0xbc05b902	-0.008161785
58	0x3d98ab2c	0.074545234
59	0xbc459b09	-0.012060889
60	0x3d71ec10	0.059063017
61	0xbd9f871f	-0.07789444
62	0x3d086e7a	0.033308484
63	0xbd82643e	-0.06366776
64	0xbaed8898	-0.0018122373
65	0xbca33bc7	-0.019925965
66	0xbbc89096	-0.0061207516
67	0x3d8fe51b	0.0702612
68	0xbc9a3142	-0.018822316
69	0xbd86c93a	-0.0658135
70	0x3da3cad2	0.07997669
71	0xbb80bbf9	-0.003928658
72	0xbca7034a	-0.02038731
73	0x3db6cfe8	0.08926374
74	0x3ce06881	0.027393581
75	0xbccf3798	-0.025295064
76	0x3d222ec2	0.039595373
77	0x3d1ac03c	0.037780985
78	0xba9bd03f	-0.0011887624
79	0x3d6fe4fb	0.058567982
80	0xbd87d845	-0.06633047
81	0x3e33ae03	0.17546849
82	0x3d91cd4a	0.07119234
83	0x3d2e597b	0.042565804
84	0xbd409eaa	-0.047026314
85	0x3dc1752f	0.09446179
86	0x3c70cecd	0.014697743
87	0xbd6d1fd6	-0.05789169
88	0xbc773049	-0.015087196
89	0x3d873303	0.066015266
90	0x3cd25f09	0.025680082
91	0xbd022a6b	-0.031778734
92	0x3c1e6cab	0.009669463
93	0x3d8cc84e	0.068741426
94	0x3d196ea4	0.03745903
95	0xbd2c029e	-0.041994683
96	0xbd227ae7	-0.03966799
97	0xbc0c9d11	-0.008582369
98	0xbc77fad4	-0.015135486
99	0x3d448876	0.0479817
100	0x3da45de2	0.08025719
101	0x3dba2633	0.09089317
102	0x3d21de6f	0.03951877
103	0x3c937490	0.017999917
104	0xbcd9bd0a	-0.026579399
105	0xbd91d5b4	-0.07120839
106	0xbdaa77ee	-0.08323656
107	0x3dd7b0a1	0.10531736
108	0x3d9ef728	0.07761985
109	0xb93928e1	-0.00017658203
110	0xbd9b7526	-0.07590704
111	0xbd7206fd	-0.059088696
112	0xbc23cd9b	-0.009997751
113	0x3c6e3f7e	0.014541505
114	0xbc1d140f	-0.009587302
115	0x3de4ee99	0.111783214
116	0x3db62ad3	0.08894887
117	0x3d9efa04	0.077625304
118	0x3df2570f	0.11833011
119	0x3d2ce8de	0.042214267
120	0xbd21c9f6	-0.039499246
121	0xbd2c0d26	-0.042004727
122	0x3c9df932	0.019283865
123	0x3db3053a	0.08741231
124	0x3b57bf1f	0.0032920314
125	0x3da6508b	0.08120831
126	0xbb90739a	-0.004408312
127	0x3d07cff3	0.0331573

fc4.weight f4 [2, 128]
0	0x3df48680	0.11939716
1	0xbddc8f36	-0.10769503
2	0xbb97f480	-0.004637301
3	0x3d54c4b6	0.05194541
4	0xbb93311e	-0.004491939
5	0xbcea1b95	-0.028577605
6	0xbdf4e6d5	-0.1195809
7	0xbc470815	-0.012147923
8	0x3d42a60a	0.04752163
9	0xbd96312d	-0.07333598
10	0x3d4112e4	0.047137156
11	0xbc390899	-0.011293554
12	0x3da47fce	0.08032189
13	0x3e1cf519	0.15327872
14	0x3dda2820	0.106521845
15	0x3bcd0981	0.0062572365
16	0xbd960062	-0.07324292
17	0xbde194de	-0.11014722
18	0x3deb8c29	0.11501343
19	0x3d9570b8	0.0729689
20	0xbd859230	-0.06522024
21	0xbe1ca07f	-0.152956
22	0xbdf3c645	-0.11903051
23	0xbd394f81	-0.045241836
24	0x3dcc8ef3	0.09988203
25	0xbc47e3dc	-0.012200322
26	0xbddb6ba6	-0.10713892
27	0xbd28f0c4	-0.041245237
28	0x3d526714	0.051367834
29	0xbcccfcb2	-0.025022838
30	0x3d827801	0.06370545
31	0x3e1b8e8f	0.151911
32	0xbd675d4a	-0.05648545
33	0x3ccef0b8	0.025261268
34	0xbda640a9	-0.08117802
35	0x3d13225c	0.03592144
36	0xbd8352ca	-0.06412275
37	0xbdeb7a9f	-0.114979975
38	0xbda71a8c	-0.0815936
39	0x3d667092	0.0562597
40	0xbd8ab1fc	-0.06772229
41	0x3e02e2ae	0.12781784
42	0xbc6a7a7b	-0.014311428
43	0x3ddd64d4	0.10810247
44	0x3be72b50	0.007054724
45	0x3da8729e	0.082249865
46	0x3af8ca1b	0.001898113
47	0xbe0d61e0	-0.13806868
48	0x3ce0c00f	0.02743533
49	0x3d39146a	0.045185484
50	0xbe02f5ec	-0.12789124
51	0x3e2ea645	0.17055614
52	0xbcf5ca3f	-0.030003665
53	0x3e2aaaa2	0.16666654
54	0x3dd61b20	0.104543924
55	0x3e324f70	0.17413116
56	0xbd48cbc2	-0.049022444
57	0x3d601e59	0.05471644
58	0xbd91781c	-0.07102987
59	0x3d966642	0.07343723
60	0xbe69a3dd	-0.22816415
61	0xbe0e6752	-0.13906601
62	0xbd7cf88c	-0.06176047
63	0x3d76e9e7	0.06028166
64	0x3d755d77	0.05990359
65	0x3c70a713	0.014688271
66	0xbd98dac2	-0.074636
67	0xbe16192d	-0.14658041
68	0xbda72e65	-0.08163146
69	0x3d3052c8	0.043047696
70	0x3e14bb00	0.1452446
71	0x3e9070a7	0.28210947
72	0xbd3ac3da	-0.045596935
73	0xbd76a1c5	-0.06021287
74	0x3d8cb1b4	0.06869832
75	0xbdfbb6eb	-0.12290748
76	0xbba3cd5e	-0.004998847
77	0xbd0c734e	-0.03428965
78	0xbd7692ba	-0.060198523
79	0xbd8b0ca6	-0.06789522
80	0xbd9dd780	-0.07707119
81	0x3e0e5aed	0.13901873
82	0xbd099df7	-0.033597913
83	0x3cc221ae	0.0236977
84	0xbc88d22a	-0.016701777
85	0xbdbea500	-0.09308815
86	0xbe136810	-0.14395165
87	0x3dee3526	0.11631231
88	0x3c8a8a22	0.01691157
89	0xbe09b81b	-0.13449137
90	0xb9d36ce6	-0.00040326192
91	0xbd252fd4	-0.040328816
92	0xbd4617bc	-0.04836248
93	0xbd995728	-0.07487327
94	0xbd94424e	-0.07239209
95	0xbe01654c	-0.12636298
96	0x3d9e3785	0.07725433
97	0x3d9150e1	0.070955046
98	0xbe17eb6d	-0.14835902
99	0xbdb43149	-0.08798463
100	0x3de2896f	0.1106137
101	0x3e0583d8	0.13038576
102	0x3b341a1b	0.002748138
103	0x3e8e41ce	0.2778458
104	0x3d872b10	0.066000104
105	0xbcf8c6b9	-0.030368196
106	0xbda490a4	-0.080354005
107	0xbe11b7f3	-0.14230327
108	0x3e364a55	0.17801793
109	0xbd7f60aa	-0.062348045
110	0xbca790c9	-0.020454781
111	0xbe3742f0	-0.17896628
112	0x3d4fa015	0.050689775
113	0x3dca8452	0.09888519
114	0x3dc88c2b	0.0979236
115	0xbcfa396f	-0.030544965
116	0xbdc85dce	-0.09783517
117	0xbd5ca13d	-0.053864706
118	0x3e0360c7	0.12829886
119	0xbe018c1e	-0.12651107
120	0x3e388b2f	0.18021844
121	0x3adcf00e	0.001685621
122	0xbdf97d0f	-0.12182056
123	0xbe0c120f	-0.13678764
124	0xbe3ab2e0	-0.18232298
125	0xbd483975	-0.04888292
126	0xbddbfcb7	-0.10741561
127	0x3dde0473	0.10840692
128	0x3e8148e1	0.25250915
129	0x3e688c96	0.2270988
130	0xbc237447	-0.009976453
131	0xbbf828c5	-0.0075732195
132	0xbe371fd4	-0.17883235
133	0xbd813178	-0.063082635
134	0xbe113be6	-0.14183006
135	0x3daf99ca	0.08574255
136	0x3decabe1	0.11556221
137	0xbd835223	-0.06412151
138	0x3dd4bb8a	0.10387333
139	0x3d92a097	0.07159536
140	0x3ef331ee	0.4749903
141	0x3ebda5a4	0.37040436
142	0x3dd4953e	0.10380028
143	0x3d987d52	0.07445778
144	0xbdcadfe0	-0.09905982
145	0xbe0ef624	-0.13961083
146	0x3f216df7	0.6305842
147	0xbbea901b	-0.007158292
148	0xbe077b47	-0.1323062
149	0x3e32ba18	0.17453802
150	0xbe24f180	-0.1610775
151	0x3d6eb9a5	0.058282513
152	0x3d8e19cf	0.06938516
153	0xbc02a4d3	-0.0079738675
154	0x3cddc80e	0.027072933
155	0xbe038ec1	-0.12847425
156	0x3d90e075	0.07074062
157	0xbe275020	-0.16339159
158	0x3e02aa37	0.12760244
159	0xbd83317a	-0.06405921
160	0xbe1bb28e	-0.15204832
161	0xbbb42fd1	-0.005498864
162	0xbda4be51	-0.080441125
163	0x3d81e69b	0.06342813
164	0xbd6b2953	-0.057412457
165	0xbd2f0f46	-0.042739175
166	0x3d76e0ac	0.060272858
167	0xbccf0e42	-0.025275353
168	0xbe12f2f1	-0.14350487
169	0x3dd5ecfe	0.10445593
170	0x3e322817	0.17398106
171	0x3daa47bf	0.08314466
172	0x3de6eb61	0.11275364
173	0x3eeed38e	0.46645778
174	0x3c97d873	0.018535828
175	0xbd56f9c8	-0.052484304
176	0x3d11027e	0.035402767
177	0x3df3178d	0.11869726
178	0xbe29ba05	-0.16574867
179	0x3f19670b	0.59922856
180	0xbe91b585	-0.284588
181	0x3f34f9a3	0.70693415
182	0x3d7cd7bc	0.061729178
183	0x3e8cfb61	0.27535537
184	0x3cb94596	0.022616189
185	0x3dbd1534	0.0923256
186	0xbddb3e06	-0.107051894
187	0xbd952302	-0.07282068
188	0xbe085d67	-0.1331688
189	0x3b8d21a1	0.0043069874
190	0x3da23881	0.079209335
191	0xbd7bde57	-0.061491337
192	0x3cf29216	0.029610675
193	0x3d890853	0.06691041
194	0xbd9d11fb	-0.07669445
195	0xbd6074fb	-0.05479906
196	0x3b459289	0.0030147156
197	0x3c817ffe	0.015808102
198	0x3d46fdc8	0.04858187
199	0x3f2b7fdf	0.6699199
200	0x3cdf5e30	0.027266592
201	0xbdd2ce1f	-0.10293221
202	0x3f0a1100	0.5393219
203	0xbd47ba4c	-0.04876165
204	0xbe1c1c9e	-0.15245292
205	0xbe14604d	-0.14489861
206	0xbd24e668	-0.040258795
207	0xbe297f8e	-0.16552565
208	0x3d646b88	0.055766612
209	0x3eb6e408	0.3572085
210	0x3d504eaf	0.05085629
211	0x3d9c8e8d	0.07644377
212	0x3d72e26b	0.05929796
213	0xbe1bc133	-0.15210418
214	0xbcc2cac9	-0.023778336
215	0xbda29f12	-0.079404965
216	0xbe65618d	-0.22400494
217	0xbdc688cd	-0.096940614
218	0xbc02c018	-0.007980369
219	0x3da9b997	0.082873516
220	0x3e865c6d	0.2624239
221	0xbd9996b1	-0.07499445
222	0x3d8ce671	0.06879891
223	0xbe15f94a	-0.14645877
224	0xbb196167	-0.0023404004
225	0x3da1f06c	0.07907185
226	0xbda11065	-0.07864455
227	0x3e602dcd	0.21892472
228	0x3dc4cdbc	0.09609553
229	0x3e205e31	0.15660931
230	0x3cbefdce	0.023314383
231	0x3f0d5e52	0.55222046
232	0x3dce2921	0.100664385
233	0x3e1914e3	0.14949374
234	0xbd931ed9	-0.07183618
235	0xbdf1a250	-0.11798537
236	0x3f395aa5	0.7240394
237	0xbe154098	-0.14575422
238	0xbc591d9c	-0.013251688
239	0xbe661549	-0.22469057
240	0x3ea8b802	0.32952887
241	0xbe124e25	-0.14287622
242	0x3e127e11	0.14305903
243	0xbdf3a6d8	-0.11897057
244	0xbd75b93c	-0.059991106
245	0x3f195cb5	0.59907085
246	0x3e322e5e	0.174005
247	0xbdb87bf9	-0.09008021
248	0xbd39b48d	-0.045338202
249	0x3c042301	0.008064986
250	0xbe1ab2b9	-0.1510724
251	0xbdcd891c	-0.10035917
252	0xbe001111	-0.1250651
253	0xbe439b86	-0.19102296
254	0xbd8c7fcf	-0.06860315
255	0x3f1f3006	0.6218265

fc4.bias f4 [2]
0	0x3d003342	0.031298883
1	0x3d6bf4e9	0.05760661

fc1.weight f4 [128, 6]
0	0x3d6de43a	0.058078982
1	0x3e067a81	0.13132669
2	0xbf78084e	-0.9688767
3	0xbe935173	-0.28773078
4	0x3ed24138	0.41065383
5	0x3e91fee7	0.28514788
6	0xbe946538	-0.28983474
7	0xbe79f3cc	-0.24409407
8	0xbe2da77a	-0.16958418
9	0xbe96136a	-0.29311687
10	0x3ed2ce84	0.41173184
11	0xbe860d80	-0.26182175
12	0x3eb2b626	0.34904593
13	0x3caffe01	0.021483423
14	0x3dc0bf68	0.09411508
15	0x3e7fa15b	0.24963896
16	0x3edc169f	0.4298601
17	0x3e4067e6	0.18789634
18	0x3ea43d77	0.32078144
19	0x3e97fd3f	0.296854
20	0x3e37fc66	0.17967376
21	0x3ea3ddd4	0.3200518
22	0xbf039960	-0.51405907
23	0xbcf16ff5	-0.02947233
24	0x3e9ec1d7	0.31007263
25	0x3d81d11b	0.06338712
26	0x3e6958bd	0.22787757
27	0xbe1c15ab	-0.1524264
28	0xbd1ebde3	-0.03875531
29	0x3e8968c0	0.2683773
30	0xbd609f5b	-0.054839473
31	0x3d6a77a0	0.05724299
32	0xbc9eb013	-0.019371068
33	0xbe581ddd	-0.21105142
34	0xbe9760dd	-0.29566088
35	0xbe80828e	-0.25099605
36	0xbe9f7dd1	-0.31150678
37	0x3dc82ec4	0.09774545
38	0xbf971066	-1.180188
39	0x3e28e0f5	0.16492064
40	0x3eac03b9	0.3359659
41	0xbe73ee33	-0.23821335
42	0xbec87f18	-0.39159465
43	0xbc9a7757	-0.018855734
44	0x3d9cb499	0.07651634
45	0xbd095dd8	-0.033536762
46	0xbd6ddcf0	-0.05807203
47	0xbd975eb3	-0.07391109
48	0xbd555f44	-0.052092806
49	0xbcf68701	-0.030093672
50	0x3cfa65d2	0.03056613
51	0xbea1ccd9	-0.316016
52	0xbeace078	-0.33765006
53	0x3d7be467	0.06149712
54	0x3f0d1c76	0.5512155
55	0x3e63bc43	0.22239785
56	0x3e849157	0.25892136
57	0xbd07ad9a	-0.033124544
58	0xbd801152	-0.062533036
59	0xbe98f1ad	-0.29871884
60	0x3f1959d8	0.59902716
61	0x3e6ae824	0.22940117
62	0x3e680a6c	0.22660226
63	0x3c41dc7b	0.011832352
64	0xbc791e70	-0.015205011
65	0x3d74a6dc	0.059729442
66	0x3e22e99f	0.15909432
67	0x3dbf32a7	0.09335833
68	0xbf840749	-1.0314723
69	0x3e5d4a5d	0.21610399
70	0x3ed767a4	0.4207126
71	0xbdf4b6c0	-0.11948919
72	0xbeb50ab3	-0.35359725
73	0xbe6ec022	-0.2331548
74	0x3dad0bd8	0.08449525
75	0x3efb40e1	0.49072936
76	0x3ed5d277	0.41762134
77	0xbe8c89ea	-0.2744897
78	0x3e09d94d	0.134618
79	0x3e803ff4	0.25048792
80	0xbdbb6331	-0.09149779
81	0xbe746541	-0.2386675
82	0xbea28fb6	-0.31750268
83	0x3dde9718	0.108686626
84	0xbe2f54df	-0.1712222
85	0xbe863bb7	-0.26217434
86	0xbeb7ce58	-0.35899615
87	0x3e911746	0.2833807
88	0xbea747fe	-0.32672113
89	0xbe3f0375	-0.18653663
90	0x3e9a27bb	0.30108437
91	0x3e2da2e8	0.16956675
92	0xbec58e15	-0.38584962
93	0xbe4426bc	-0.19155401
94	0xbdec97a4	-0.11552361
95	0xbe7a578c	-0.24447459
96	0xbeffff3b	-0.49999413
97	0x3ea0a429	0.31375244
98	0x3e81e504	0.25370038
99	0xbe276664	-0.16347653
100	0x3ed36bfe	0.4129333
101	0xbd0629d0	-0.03275472
102	0xbe961d26	-0.29319113
103	0xbea92027	-0.33032343
104	0x3e94ff9b	0.29101261
105	0xbdba350e	-0.09092151
106	0x3e78c76f	0.24294828
107	0x3da618cf	0.081102006
108	0xbf06b8f1	-0.5262595
109	0xbdca5d15	-0.09881035
110	0x3c4c4ac6	0.012468999
111	0x3f064f15	0.5246442
112	0x3d6b8c46	0.057506822
113	0xbdb5ab8e	-0.08870612
114	0x3d8c1719	0.06840343
115	0x3e197771	0.1498697
116	0x3e5e730e	0.21723577
117	0xbe4aa52d	-0.19789572
118	0x3ea19641	0.31559947
119	0xbed98a2d	-0.42488232
120	0xbe69143c	-0.22761625
121	0x3bb30177	0.005462821
122	0x3df88601	0.12134934
123	0xbe5d4089	-0.2160665
124	0x3e244d33	0.16045074
125	0xbeb0c5f8	-0.34526038
126	0xbd83bed8	-0.06432885
127	0x3db020eb	0.086000286
128	0xbf412102	-0.7544099
129	0x3ef1a1ca	0.47193748
130	0xbe304b27	-0.17216168
131	0x3e627e5c	0.22118515
132	0xbda3b634	-0.07993737
133	0x3dfa6382	0.12226011
134	0x3d941f6d	0.072325565
135	0xbe038ea9	-0.1284739
136	0x3e9e357a	0.30900174
137	0x3ec8c117	0.39209816
138	0x3e4f2af7	0.20231234
139	0xbec55a2d	-0.3854536
140	0xbf843bc3	-1.0330738
141	0xbded6ecb	-0.11593398
142	0xbd1d35ac	-0.038381264
143	0xbe3f8e63	-0.1870666
144	0x3e0c8d69	0.13725819
145	0xbe78f1aa	-0.24310938
146	0xbdd577a2	-0.10423209
147	0xbe2b93b1	-0.16755559
148	0xbcbe40bd	-0.023224229
149	0xbe79d9e5	-0.24399526
150	0x3bf0699e	0.0073368093
151	0xbe410d8a	-0.18852821
152	0x3e7e08d2	0.24808052
153	0x3e3c9de9	0.18419613
154	0x3ce56cd4	0.028005995
155	0x3e7e106c	0.24810952
156	0x3e8145fa	0.252487
157	0x3e889f31	0.26683953
158	0xbe45cae0	-0.19315672
159	0x3ec270e3	0.3797675
160	0x3e6cc024	0.23120171
161	0x3df9c34e	0.121954545
162	0xbda5a05d	-0.080872275
163	0xbec4e8d1	-0.38458875
164	0x3e79c6a1	0.24392177
165	0xbdadb65c	-0.08482048
166	0xbe6b015c	-0.22949737
167	0xbe66067a	-0.22463408
168	0xbcbf1576	-0.023325663
169	0xbed02be6	-0.40658492
170	0xbe24c785	-0.16091736
171	0x3c8249d8	0.015904352
172	0x3e96a13f	0.29419896
173	0x3e91583a	0.28387624
174	0x3e6500fb	0.22363655
175	0xbe97eca1	-0.2967272
176	0x3c4ed009	0.012622842
177	0x3a090366	0.00052266417
178	0x3eb39deb	0.3508142
179	0x3dc8968e	0.09794341
180	0xbe552a2f	-0.20816873
181	0x3e3d5818	0.18490636
182	0xbec78e33	-0.38975677
183	0x3e018a7e	0.12650487
184	0x3ea95b7c	0.3307761
185	0x3d846e7e	0.06466387
186	0xbf11d4ac	-0.56965137
187	0xbe724469	-0.23658909
188	0x3e7c5b01	0.2464409
189	0x3dab4100	0.08362007
190	0x3e527228	0.2055136
191	0x3e3858b3	0.18002586
192	0xbe4523be	-0.19251916
193	0x3d88564c	0.06657085
194	0xbf80ee86	-1.0072792
195	0xbdd562c2	-0.10419227
196	0x3db9d503	0.09073832
197	0xbd322409	-0.043491397
198	0xbd267861	-0.040642146
199	0x3ec24f40	0.37951088
200	0x3cedc3ae	0.029023971
201	0x3e475293	0.19465093
202	0xbe9a97f4	-0.30194056
203	0xbeb1b7fa	-0.34710675
204	0xbe35e47f	-0.17762946
205	0xbe2786d7	-0.16360031
206	0x3e3f27d7	0.18667541
207	0x3e9073bf	0.28213307
208	0xbee2e424	-0.44314682
209	0x3e2773db	0.16352789
210	0x3f03eba1	0.51531416
211	0xbec2bc09	-0.38034084
212	0xbddaffbb	-0.10693308
213	0xbe605085	-0.21905716
214	0xbe9c05bb	-0.30473122
215	0x3ed9ae1e	0.42515653
216	0x3ea0ee1d	0.31431666
217	0x3e9a622d	0.30153027
218	0xbf62ed61	-0.8864346
219	0xbe9904bc	-0.29886425
220	0x3e82d726	0.2555477
221	0xbe800dde	-0.2501058
222	0xbed294c9	-0.4112914
223	0xbec9da5d	-0.3942441
224	0x3e2e7716	0.17037615
225	0xbe3f3639	-0.18673028
226	0x3eb528e2	0.35382754
227	0x3db47087	0.088105254
228	0x3d33332a	0.043749966
229	0x3c9fda65	0.019513318
230	0xbf7b48f9	-0.9815822
231	0xbebd8281	-0.3701363
232	0x3e236162	0.15955117
233	0xbd59882d	-0.053108383
234	0x3ea13c0b	0.31491122
235	0x3e65af85	0.22430237
236	0xbef6c6c4	-0.4819852
237	0x3d5b72ac	0.053576156
238	0x3ed69e58	0.41917682
239	0x3e8fcf1a	0.28087693
240	0xbc073960	-0.008253425
241	0x3e2e6d50	0.17033887
242	0xbedecacd	-0.435141
243	0x3ebd0f46	0.36925715
244	0x3e631be8	0.22178614
245	0x3ee502c0	0.4472866
246	0xbe93a05b	-0.2883328
247	0xbd8eb447	-0.06967979
248	0x3e184a3f	0.14872073
249	0xbe59fabc	-0.21287054
250	0xbebab15b	-0.36463436
251	0x3e464f73	0.19366245
252	0xbee78aa3	-0.4522296
253	0xbd0e2b2e	-0.034709148
254	0xbf416565	-0.7554534
255	0xbe883ec8	-0.26610398

fc1.bias f4 [128]
0	0xbeb9bae4	-0.362754
1	0x3e186881	0.14883615
2	0x3e67f344	0.22651392
3	0xbe70c6bd	-0.23513313
4	0xbe658138	-0.22412574
5	0xbe81463e	-0.25248903
6	0x3ea0a006	0.31372088
7	0xbd3f816b	-0.046754282
8	0xbe714407	-0.23561107
9	0x3d94613e	0.0724511
10	0xbe5281b6	-0.20557293
11	0x3a9fac5d	0.0012182106
12	0x3ec1e864	0.37872612
13	0xbeb44098	-0.3520553
14	0xbd97c7bf	-0.074111454
15	0xbe2920b9	-0.16516389
16	0x3c8143fe	0.015779492
17	0xbe99fba8	-0.3007481
18	0x3e3864c3	0.18007188
19	0x3e139443	0.14412026
20	0xbe828eb7	-0.25499508
21	0xbcc4db00	-0.024030209
22	0x3e9f1762	0.31072527
23	0x3ea1856d	0.31547108
24	0xbe5c23a8	-0.21497977
25	0x3ec83b92	0.3910795
26	0x3e703a65	0.23459776
27	0xbea1b0ed	-0.31580296
28	0x3e9be9a1	0.30451682
29	0x3e5afa1a	0.21384469
30	0x3e8df369	0.2772477
31	0xbbcd63e1	-0.00626801
32	0x3e32581a	0.1741642
33	0xbebc35d1	-0.3675981
34	0x3e3c6a0f	0.18399833
35	0xbd0b993f	-0.034081694
36	0x3ea73c93	0.32663402
37	0xbd60af1c	-0.054854497
38	0x3e19f871	0.15036179
39	0xbbb0fde8	-0.0054013617
40	0x3e8c92cf	0.27455756
41	0xbe2614ff	-0.16218947
42	0x3eaafd5a	0.33396417
43	0x3e30a306	0.17249689
44	0x3e4f9f65	0.20275648
45	0x3e2a7951	0.16647841
46	0xbec364b3	-0.38162765
47	0xbe207ec9	-0.15673365
48	0xbeaae11b	-0.33374867
49	0xbdd856d8	-0.10563439
50	0x3e30f0de	0.17279384
51	0xbd86e4d2	-0.06586613
52	0x3e613d64	0.21996075
53	0xbe2c0f7e	-0.16802785
54	0xbdb165f5	-0.08662025
55	0x3e7d24de	0.24721095
56	0xbd76bf81	-0.060241226
57	0xbe382d75	-0.1798609
58	0x3d8c4f80	0.06851101
59	0x3bc582e6	0.006027567
60	0x3d3bd73b	0.045859557
61	0x3e6c6e58	0.23088968
62	0x3daf89e6	0.08571224
63	0x3e8b2b72	0.27181584
64	0xbe39bd41	-0.18138601
65	0x3e950033	0.29101714
66	0x3e56eb0e	0.20988104
67	0xbe2331d6	-0.1593698
68	0xbe3f1dad	-0.18663664
69	0x3ea6ccb0	0.3257804
70	0xbe755d95	-0.2396148
71	0xbe41ded1	-0.18932654
72	0xbe95a6f7	-0.29228947
73	0xbe1d2a15	-0.15348084
74	0xbe95ff84	-0.29296505
75	0xbe13e1ac	-0.14441556
76	0x3ea61ad1	0.32442334
77	0x3e029e7d	0.12755771
78	0x3dc22555	0.09479777
79	0xbebba6e3	-0.36650762
80	0xbec7abe1	-0.3899832
81	0xbec50c58	-0.3848598
82	0xbe2234fa	-0.15840521
83	0x3e6b7784	0.2299481
84	0xbe0e4ce7	-0.13896523
85	0x3dd7833c	0.10523078
86	0x3d9ef912	0.0776235
87	0x3eac1390	0.33608675
88	0x3eb08674	0.3447758
89	0xbe9376a2	-0.28801447
90	0xbc6cef6e	-0.014461381
91	0xbe025bb0	-0.12730289
92	0x3e79b9f0	0.24387336
93	0xbec2f23e	-0.3807544
94	0xbc348554	-0.011018116
95	0x3d84e235	0.06488458
96	0xbe86549b	-0.26236424
97	0x3d261748	0.040549546
98	0x3e92f9a3	0.28706083
99	0x3dbc07eb	0.09181198
100	0xbeb456f5	-0.35222593
101	0x3dbfdae4	0.09367922
102	0x3eaab987	0.3334467
103	0xbdfe69b7	-0.12422507
104	0xbd953d06	-0.0728703
105	0xbed08181	-0.40723804
106	0x3dd9ec57	0.106407814
107	0xbeb13432	-0.34610134
108	0xbca4b659	-0.020106481
109	0xbe6537e8	-0.22384608
110	0x3ded150c	0.1157628
111	0xbe9b4c85	-0.30331817
112	0x3d140c3b	0.036144476
113	0x3eb46dca	0.35240012
114	0x3dd48d40	0.10378504
115	0xbe92e517	-0.28690407
116	0xbe335c46	-0.17515668
117	0xbea336b9	-0.31877688
118	0x3e766008	0.2406007
119	0xbead0676	-0.33793992
120	0xbe68c773	-0.22732334
121	0xbe122138	-0.14270484
122	0xbe6f7a7a	-0.23386565
123	0x3e2f7126	0.17133006
124	0xbe410163	-0.18848185
125	0x3e961005	0.29309097
126	0xbec58565	-0.38578334
127	0xbda277e2	-0.07933022
