flappybird_dqn_ep50.pth (torch, 561683 bytes, 32 tensors)

fc1.weight f4 [128, 7]
00000000: 9eac 953e 0a2b adbe 1056 2e3e c3ba 713e
00000010: f798 4fbe 7605 293e c839 653e 5d85 c83d
00000020: f5c2 7a3e d00b 4fbd 5e10 9c3e 0c61 ff3d
00000030: 6a51 ea3d 0b9e 373e f88b b6be 8ade dd3d
00000040: f560 1fbe 1469 b6be ee36 95be 0e18 0ebd
00000050: 5936 e83c 09c7 8cbe d013 693e 8fdc 4d3d
00000060: c692 043d cf37 fbbd cf9a d03c 8624 c43e
00000070: e276 2fbd 3c28 ae3e cafd f6be 5d73 b8bc
00000080: e18d acbe 76ad 393e e6b7 b63e 42c5 a23c
00000090: 487a 0f3e 5ddb 793e 86ff 91be f367 9e3d
000000a0: 1353 adbe 1e7d cbbd 6a78 063e 5f59 85be
000000b0: 3d31 023e 1ea0 6bbe bb1b 0cbe c3e7 babe
000000c0: 9c78 69be 8f09 953c 15a9 bd3d a87e acbe
000000d0: 6eda 9dbe 33a7 473e a2f1 4f3e f473 b53e
000000e0: 36ee 18be 7afb 413e 737f c63e a95c 123e
000000f0: 438a 90be 376c c43e c4ed 003e 9a79 30be
00000100: 0a05 99be 483f 913e 8f4a b1bd 6063 69be
00000110: 33bb 49be 6b18 fa3d 0372 233e 0c27 bf3e
00000120: 8ab7 b5bd c952 b83e a4c8 c53e 6951 80bd
00000130: f64f d4be fd66 ad3d 4a9e 1e3d f407 873c
00000140: b61b 68be a6bf 35bf 4e49 cc3e 072d 97be
00000150: a61b 313e cf95 bcbe ea9f bd3e c070 27be
00000160: 1cf2 bc3e f866 85be 0d3a 05bd 59c4 a63e
00000170: 2685 a23e 8297 5ebe 3e3d 88be d644 973e
00000180: 9676 343e a24b 1ebe baff 353e e8e4 a6be
00000190: be27 00be eb8d 13be a08b 143d f0ca c33e
000001a0: c425 d9bd b3a1 ab3d bdfb 0abe 02c7 8e3e
000001b0: 74a5 473e a51c c4bd 2e97 ba3e b657 42be
000001c0: 62be 503d f230 623e 1f81 b4bd e061 d1be
000001d0: c9e5 013d 92e7 77be d6ca 7e3e 0800 e93e
000001e0: 3b7e 943e 01af 913e efda 64be 69a7 b1be
000001f0: e30e ce3d f714 6abe 55f5 f23d 577d e0bd
00000200: c87f 08bf 4a9d cc3d 8bdf febb 059b b8be
00000210: 74e5 f93d 0610 923b fc20 81be e7ed 0bbe
00000220: 70c0 003e 55bb 98be 2e75 3ebe 0bd3 2fbe
00000230: aa2d 43be 0cdc 3abe d0d3 3e3e 1ee2 d1bd
00000240: 1616 8cbe b0d5 763e ac11 a7be cb7e 38be
00000250: 6fb2 aabd b39c 9dbe bff7 e9bc 5504 8ebe
00000260: 17b7 de3d 4e8c 06be 9ccf 273e 583c b23e
00000270: b11e 33be 9901 11be 8ce6 14be 0fbc 00be
00000280: 1633 823e be63 d1be e173 0ebe 42fc 47be
00000290: 25b9 173e d6a3 9b3e 6cc9 8c3e fb24 cebe
000002a0: f948 f03d 2d1f b7be 9363 85be 6fdf 8d3d
000002b0: dc1f da3d 1c21 bebb a3ab 7b3d b7f3 6c3d
000002c0: 3a1a 543d 93f2 d5be 1a51 74be 34c2 1bbd
000002d0: b1ab c2be db4b 1e3e 017c f63d d1fd b73d
000002e0: dbe8 7ebe a624 2b3e 6cc1 9a3e 4f0f 993e
000002f0: aa0d dbbd 5783 a5bd d75a 8fbe b3b3 c93e
00000300: 4f88 6bbe ade4 96be 20c6 0d3d d180 4bbe
00000310: 1135 703e dfcd 493e 1539 acbd 7a75 69bc
00000320: 4cf5 41be f5ec e93d c372 163e 3a5a 8abe
00000330: 23a0 4bbe 89c7 8e3e 88e4 35be ad91 bb3e
00000340: 001b 28be ee53 17be 73af b8be a349 ae3e
00000350: 5d1c c1be 06a1 18bd 9e71 733d ff07 d53d
00000360: 637f 54be 57df b1bd 5426 31be dfd8 52bd
00000370: 496c 18be 7761 babe 6596 3a3e 0e2e 52be
00000380: 309b 39be 1ae4 8c3e 1f6c 13bf 0aac 693e
00000390: 21f0 923e 13ee 1a3e 2735 fc3d d005 673e
000003a0: 7bdd c0bc b481 00bf a703 c8bd d43e b03e
000003b0: 6526 73bb 53f9 a93e fa67 5abd 4ea0 01be
000003c0: ce25 18be e02c d5bd cbac 7fbe 1a07 e3bd
000003d0: bf2f e63e 11ee 8d3e 8514 c33e 7b6b 8fbd
000003e0: 75ac 933e 2891 9b3e 15fd b13e 50bf a23e
000003f0: 3d49 88be ebfb 993e 6f96 9e3e 1cbe 9b3e
0.2923326 -0.338219 0.17025018 0.236064 -0.20273195 0.1650599 0.22385323 0.09791062
0.24488433 -0.050548375 0.30481237 0.12469682 0.1144131 0.17931382 -0.35653663 0.108334616
-0.1556433 -0.35627043 -0.2914347 -0.03469091 0.028346227 -0.27495602 0.22761464 0.05025917
0.032366537 -0.12266504 0.025464443 0.38309115 -0.042837985 0.3401507 -0.482405 -0.022515947
-0.33701995 0.18132576 0.35687178 0.01986945 0.1401149 0.24400087 -0.2851526 0.077346705
-0.33852443 -0.099359736 0.13131872 -0.26044747 0.12714095 -0.23010299 -0.13682453 -0.36504945
-0.22799915 0.018193034 0.092607655 -0.3369038 -0.3083071 0.19497375 0.2030702 0.35440028
-0.1493462 0.18943587 0.3876911 0.1429316 -0.28230485 0.3836381 0.125907 -0.17233887
-0.29886657 0.28368592 -0.08656799 -0.22791815 -0.19700317 0.122116886 0.15961461 0.37334478
-0.08872898 0.3600066 0.3862964 -0.06265528 -0.41467255 0.08466909 0.038725175 0.016483285
-0.22666821 -0.7099556 0.39899677 -0.2952654 0.17295703 -0.36833045 0.37036067 -0.16351604
0.36903465 -0.2605512 -0.032526065 0.32571676 0.3174221 -0.21737483 -0.26609224 0.29544705
0.17623362 -0.15458539 0.17773333 -0.32596517 -0.1251516 -0.14409606 0.03626597 0.38240767
-0.10602906 0.08380451 -0.13572593 0.27886206 0.19496709 -0.09575776 0.36443466 -0.18978772
0.050962813 0.22088984 -0.088136904 -0.40894985 0.03171328 -0.24209431 0.24882063 0.45507836
0.29002556 0.2845383 -0.22349142 -0.34698036 0.10061433 -0.2285956 0.118631996 -0.10961407
-0.5331998 0.09990938 -0.0077781132 -0.3605577 0.12201968 0.0044574765 -0.25220478 -0.13664971
0.12573409 -0.29830423 -0.18599388 -0.1717035 -0.19060388 -0.18248004 0.18635488 -0.102482066
-0.273606 0.24104953 -0.3263067 -0.18017118 -0.08334815 -0.30783615 -0.028560517 -0.2773768
0.10874765 -0.1313946 0.1638779 0.34811664 -0.17492177 -0.14160766 -0.14541072 -0.12571739
0.254296 -0.4089641 -0.13911392 -0.19529822 0.14816721 0.30398434 0.27497423 -0.4026259
0.117326684 -0.35765973 -0.26052532 0.06927382 0.10650608 -0.005802287 0.061442982 0.057849612
0.051782824 -0.41786632 -0.23859063 -0.038027003 -0.38021615 0.15458624 0.120353706 0.089839585
-0.24893515 0.16713199 0.30225694 0.29894492 -0.106959656 -0.08081692 -0.27998993 0.39394912
-0.23001216 -0.2947134 0.034612775 -0.19873358 0.23457743 0.1970744 -0.08409325 -0.0142492
-0.1894123 0.11422149 0.14692216 -0.27021962 -0.19885306 0.27886608 -0.17762959 0.3663458
-0.1641655 -0.1477811 -0.36071357 0.34040555 -0.37716952 -0.03726294 0.059434526 0.10401916
-0.20751719 -0.08685177 -0.17299777 -0.051476356 -0.14885058 -0.36402485 0.18221433 -0.20525381
-0.18125606 0.27517778 -0.57586855 0.22819534 0.2869883 0.1512988 0.123148255 0.22560811
-0.02354311 -0.5019791 -0.09766322 0.34422934 -0.0037101742 0.33198032 -0.053321816 -0.12658808
-0.14858171 -0.1040895 -0.24968259 -0.11085339 0.44958302 0.27720693 0.38101593 -0.07002922
0.28842512 0.30384183 0.347634 0.31786585 -0.26618376 0.3007501 0.30974147 0.3041848

fc1.bias f4 [128]
00000000: 4246 83be b6cc b83d ad3f d33d ac4a b7bd
00000010: d53f a73e 3307 aebe 4072 203d f755 5d3e
00000020: 0438 8bbc 5be1 7fbd 3073 2f3e 6590 863d
00000030: 2210 bdbe 3285 6bbd ae7f 76be 4125 84be
00000040: 6bcb 04be 09fe 97be 4e8a 7a3e 9b05 883d
00000050: 2c60 5ebe 273f 9abd 4b2e 5f3e 1b0a 0a3d
00000060: e24f f5bd d442 603e a01f b23e 83ed b63e
00000070: 304c 693d 7090 803e f74f 61be 0e75 b1be
00000080: 7973 eabc f5fe b93d 7a4a 5a3c b71f ba3e
00000090: 4b02 943e 655d 513e ff81 4b3d 565a 573c
000000a0: bf86 af3e f61e 873e 3202 f93b 90d1 cd3e
000000b0: 9932 adbd 5595 7c3e b897 6c3e 7526 453d
000000c0: 623d a9be 5f05 053e 4a58 0d3c 7f08 bdbe
000000d0: d2cf 51be b8e5 dcbe bc63 38bd 1770 cf3d
000000e0: 4028 8dbe f603 a7be 90c6 c0be 49bd b73e
000000f0: 0f09 f43d da69 62be 3cc2 a8bd c968 5dbd
00000100: 3264 9abd 45be 523e 846e 90bd c173 26be
00000110: 5c20 1abe abe9 cabd 479f 7b3e 589b 8b3c
00000120: c136 2cbe 6e10 00bc 4a6a 0b3e bd3e b4be
00000130: 3055 4d3e 1385 513d 5727 c83d b7be 1bbe
00000140: 75ee 913e 37ea e7bd 623b 913e c5a6 9ebe
00000150: f160 03bd 8e66 a03e f245 2fbe 9379 60be
00000160: 34c9 c33e d26c 993d 1911 63bd e48a 76be
00000170: b354 ad3e 2de0 bf3e dd18 6ebd f195 513e
00000180: 148f babe 3a3c a83e 9fc7 fb3d b58c 93bd
00000190: 421c 0d3e 35f8 bc3e fa37 603e 10df 9bbd
000001a0: 7d0f 0d3e 3ad6 07be d933 4bbe 635b 933e
000001b0: 5fa8 833e b509 8fbe 932b 2abe 0288 983e
000001c0: 7aa8 993e 9688 703e 1117 b53e c743 abbe
000001d0: 886e 4e3b 8f36 53bd 03d5 8f3e 41d1 90bd
000001e0: 32db d03d a6c6 6ebc 9bb4 3fbe 8cd4 bf3d
000001f0: b831 61be 6973 4ebe 052d aa3e 19a4 94be
-0.2563954 0.090234205 0.103148796 -0.089497894 0.32665887 -0.33989868 0.039171457 0.21614824
-0.016994484 -0.062470775 0.17133784 0.0657051 -0.3692637 -0.05750007 -0.24072143 -0.25809672
-0.12968223 -0.29686 0.24466822 0.06641694 -0.21716374 -0.075315766 0.21795003 0.033701044
-0.11978127 0.21900493 0.34789753 0.35728082 0.056957424 0.25110197 -0.2200316 -0.34659618
-0.028619515 0.09081832 0.013323421 0.36352322 0.28908 0.20445783 0.04968452 0.013144096
0.3428249 0.2639081 0.0075991387 0.40198946 -0.08456916 0.2466634 0.23104751 0.04813238
-0.33054644 0.1299033 0.008627007 -0.36920545 -0.20489433 -0.43144011 -0.04501699 0.10128801
-0.2756977 -0.3262021 -0.3765149 0.358866 0.1191579 -0.22110692 -0.08240172 -0.05405501
-0.07538642 0.20580395 -0.07052329 -0.16255094 -0.15051407 -0.0990785 0.24572478 0.017041847
-0.16817762 -0.007816417 0.13614765 -0.35204116 0.20052028 0.0511523 0.097731285 -0.1520947
0.2850224 -0.1132397 0.28365618 -0.3098661 -0.032074872 0.31328243 -0.17116526 -0.21921377
0.38239443 0.07491459 -0.055436227 -0.2407642 0.33853683 0.3747572 -0.05812918 0.20467354
-0.36437285 0.3285845 0.12293934 -0.07204572 0.13780311 0.36908117 0.21896353 -0.07610905
0.1377544 -0.13265315 -0.19843997 0.2878066 0.25714394 -0.27937093 -0.16618185 0.29791266
0.3001135 0.23489603 0.3536916 -0.33450148 0.0031498987 -0.051565703 0.28092203 -0.07071162
0.10198058 -0.014573729 -0.1872124 0.09366712 -0.21991622 -0.20161213 0.33237472 -0.29031447

fc2.weight f4 [128, 128]
00000000: 7151 403e eb54 3cbc 88ad 0abb 281b 223c
00000010: ddc9 13bd 1efd 4fbd 007f 94bd d858 b33a
00000020: 2130 a53a 201b 3e3d 122c 30bd f811 fe3d
00000030: e79c 88bc d8fa 893d 259c a23b 05b2 973d
00000040: dbe6 ac3c e603 ab3d a0ec 2a3d 15e8 d3bc
00000050: 06e5 033d bfed 6b3c bcaf f1bc e58c 57bd
00000060: 0aaa cbbd e4d0 cdbd 5c52 9b3d 7a02 8b3d
00000070: d8d6 993d 119c 22bd eb38 533d 61b7 e0bb
00000080: e84a 82bd 5450 aebc 2721 d1bc 55a6 50bd
00000090: 42a2 b43d 2c24 993d 71f4 113e 6561 3abc
000000a0: bf85 f83d 8b89 fbbb 118f 3d3d 720a f43d
000000b0: 678a 313d 51e8 c43c 8c5f 31bd 7ef8 753b
000000c0: 22df ba3b 80c6 83bd 70d8 acbd c59d 1cbd
000000d0: ceb8 a53d 4821 293d 7332 c93d 02f5 e7bb
000000e0: 55df c63a bd4e 3cbd 13fb 383d 4149 c53b
000000f0: 5f63 a03d 167f d7bd 8737 43bd fe55 cd3d
00000100: 9932 a6bd cb9c ee3b cc24 c53c 40b6 333e
00000110: 96a9 b0bd e2a6 843d be36 8ebc a51d 1dbd
00000120: dcf1 7b3b 8571 5dbd f59c 6bbd 0063 2a3e
00000130: 66f4 523d ae09 143e 4c36 a23d 830c 45bd
00000140: c367 54bb ce81 18be d852 5c3d f7bd 0e3d
00000150: 935e 213e 9b29 1b3d e17e 073d 0986 1e3d
00000160: 1b23 ad3d ba3b ee3d a3e0 c23c 5d5f 2a3c
00000170: dbcd 743d 3748 58bc baaa 49bd d1e1 9e3d
00000180: 7762 463d 275b 15bd 5983 a63c 8ade 153d
00000190: 1dfc fcbd b020 0dbd 6351 363e 0ac2 8c3d
000001a0: 8e06 c2bd 8328 2bbd 12bc b73d ee8a d83c
000001b0: 82f4 023e c13d b83d 9724 cb3d d8d6 47bd
000001c0: 726d bfbd 57ff 353c bf53 3a3e bae8 b7bd
000001d0: 0adf 63bd 2eb0 8a3d 6fa2 043d 918c f43b
000001e0: f894 8bbd 08c6 a53d 1bee 183e 7ccd 8e3d
000001f0: e474 fcbd a524 fbbc 7682 df3d 0b6c 4e3d
00000200: d8d4 d8bd 4693 4d3d d144 343d 6c00 883d
00000210: e782 c0bd 3104 acbd 63a3 b4bd b9cf 20bd
00000220: 5665 5ebd 9ff4 b43d 40eb 823d 21db 92bc
00000230: 9673 93bd c471 623d ad0e f2bd b764 be3d
00000240: bcf6 ab3d c53f b4bc 2597 c13d 8e94 843d
00000250: a4c8 693d 5ca6 91bc 3ae5 01be 411e 083d
00000260: 8c6e 183c 639b 59bd 3e23 af3c b7fa 0f3d
00000270: c3e6 f2bc 5770 023e 9d2a 89bc 0223 cdbc
00000280: 0ea5 8fbd 29bb 45bc 080d e2bd e979 dd3d
00000290: 92ef debc 515f 443e 51cd f5bd 24d8 6cbc
000002a0: b2ca 283e 970b 043e ef32 c13c dcfb 9dbd
000002b0: a8ec b03d b54e 873d 48f5 653c 4247 8dbb
000002c0: 1944 49bd 4a1e a7bd cb42 08be 661b a93d
000002d0: 31e9 a83d 4ed7 a33d b785 8dbb fd73 073e
000002e0: b0c9 84bd f2c3 b33d 0896 aa3d 359c c13d
000002f0: a522 0a3d 6566 473e 93ae 1c3e 1f10 9d3d
00000300: 6dfb 0d3e 16ae 013d b3bc a5bd 3a17 e03d
00000310: 7624 483d f4a5 013e b072 bb3d d6e2 adbd
00000320: 656d 673d 8491 cd3e 7952 833c 1024 a1bd
00000330: fc83 653d b850 91bd b89c 53bd 7f94 c5bb
00000340: 2d84 4cbd 729f 563e 3b72 7fbd b485 02bb
00000350: cb93 21be 1a88 d33c 27d7 5abd bfec 8abd
00000360: 2b19 90bc 1948 1e3d f1cd 8a3c d332 94bd
00000370: 217c ba3d d286 ed3c fe8a 96bd 2be0 2abc
00000380: 13b8 dabb aebd 9b3d 453b 283d ca91 9d3a
00000390: bd7f d2bd 19a8 fcbc 544c 8a3c 54c9 e43d
000003a0: 0cc8 503e 9f47 063b 82e5 743d c372 2c3d
000003b0: afdf 953d 8718 5cbe c103 113d 7a89 02be
000003c0: 9d87 883d a8b5 82bd 3901 963b 7ce8 b2bd
000003d0: 524d cabc 2ac6 31bd 256a 443d 0758 23bb
000003e0: 0a95 1bbd 7b11 3f3d 8bba a0bc 4967 913d
000003f0: 3e12 e1bd 84c6 5e3d cc4b 163d bdaf 65bd
0.18781067 -0.011494855 -0.0021160562 0.00989417 -0.036081184 -0.0507785 -0.07250786 0.0013683094
0.0012602845 0.046412587 -0.04301078 0.12405771 -0.01667638 0.06737298 0.0049624615 0.074070014
0.021106174 0.08350353 0.04172957 -0.025867501 0.032200836 0.014399945 -0.029502742 -0.052624602
-0.09944542 -0.10049608 0.07584068 0.06787582 0.07511681 -0.039699618 0.051567953 -0.006857798
-0.063619435 -0.021278538 -0.025528504 -0.050939877 0.08820011 0.07477602 0.14253403 -0.01137576
0.12134885 -0.0076763085 0.046279017 0.11916055 0.04334488 0.024036558 -0.04330401 0.0037532146
0.005702869 -0.06434345 -0.0843972 -0.0382364 0.08091889 0.041291505 0.098240755 -0.0070787678
0.0015172759 -0.04597353 0.045161318 0.0060206954 0.078314535 -0.105222866 -0.047660377 0.10026167
-0.081151195 0.007281875 0.024065398 0.17549992 -0.08626096 0.06477143 -0.017360087 -0.03835835
0.003844372 -0.05406334 -0.057522733 0.16639328 0.051502608 0.14456818 0.079205126 -0.048107635
-0.003241048 -0.14893267 0.053789943 0.034849133 0.15758733 0.037881475 0.033079986 0.038702045
0.084539615 0.11632486 0.023788756 0.010398713 0.05976663 -0.013200811 -0.049235083 0.07757915
0.048433747 -0.036463883 0.020326303 0.036589183 -0.12352774 -0.034455 0.17804484 0.068729475
-0.094739065 -0.04178668 0.089714184 0.026433434 0.12788585 0.089961536 0.09919088 -0.048788875
-0.09347047 0.011108241 0.18196009 -0.08979936 -0.05563263 0.06771885 0.03238147 0.007463046
-0.06815523 0.08094412 0.1493458 0.06972787 -0.123269826 -0.030657122 0.10913555 0.050396007
-0.10587472 0.05018928 0.04401094 0.066407055 -0.09399968 -0.08399237 -0.08820226 -0.0392606
-0.05429586 0.0883572 0.063925266 -0.017926754 -0.07199781 0.055284277 -0.118192054 0.092965536
0.0839667 -0.022003064 0.09452657 0.06473647 0.05707611 -0.017779522 -0.12685099 0.033231977
0.0093037 -0.053126704 0.02137911 0.03515121 -0.029651051 0.12738167 -0.016743952 -0.025041107
-0.070139036 -0.012068548 -0.11037642 0.10814268 -0.027213845 0.19176985 -0.120020516 -0.014455829
0.16483572 0.12895046 0.023583857 -0.07714054 0.086388886 0.06606809 0.01403553 -0.004311473
-0.04913721 -0.08160074 -0.1330673 0.08257179 0.08247603 0.080000505 -0.0043189186 0.1322784
-0.06483781 0.08777608 0.083293974 0.09453622 0.033724446 0.19472654 0.1530097 0.076690905
0.13865443 0.031660162 -0.08092632 0.1094193 0.048862897 0.12660962 0.09152734 -0.08490531
0.05650081 0.40150082 0.016030537 -0.078682065 0.056034073 -0.07095474 -0.05166313 -0.006029665
-0.04993074 0.20959261 -0.062364798 -0.001991612 -0.15779035 0.025821734 -0.05342784 -0.06783437
-0.017590126 0.038642976 0.016943904 -0.072362565 0.09105707 0.028994951 -0.073507294 -0.010429422
-0.0066747754 0.07604538 0.04107215 0.0012021598 -0.102782704 -0.030841874 0.0168821 0.11171213
0.20388812 0.0020489467 0.05978919 0.042101633 0.07318055 -0.21493731 0.03540397 -0.12747756
0.06666491 -0.063823044 0.0045777825 -0.08735749 -0.024695072 -0.043401875 0.04795279 -0.0024924295
-0.03798393 0.04664753 -0.0196202 0.07099778 -0.109898075 0.054388538 0.03669338 -0.0560758

fc2.bias f4 [128]
00000000: 2040 c43d 2f62 4bbd f5e9 a3bd b4a8 fa3b
00000010: 91fd c93c 7261 debb 969f 5cbd 61a1 83bd
00000020: 1334 1ebd c6fd 653c 1d49 97bd 2040 813c
00000030: a007 a53d 48f4 463c 28c5 30bd ab0c 03bc
00000040: c4c9 993c d640 8b3d aef8 f43b 6c6f 773d
00000050: b769 3c3d d6a4 b03d c34c 9f3d 350d 163c
00000060: 6eb9 1e3d efb8 8c3d 05b9 303d 1293 aebc
00000070: fcc9 803d 45ca 9dbd 0f13 e03c 2cdd 85bd
00000080: 2c72 383d b19c 973b 34d8 5abd 277e 4bbc
00000090: 9d73 5f3c c22e 8f3d 0716 4d3d e664 b33d
000000a0: 0535 8d3d 11cb a7bd 0dc7 fc3b 3df0 18bd
000000b0: 6001 4cbc 2e56 f23c 422e ac3d eb49 463d
000000c0: 3040 be3c 4d1e 1d3d c1f4 0e3d 8a37 fabc
000000d0: 8575 d7bc d6bb da3b 1902 2dbd 7f36 cdbb
000000e0: c5d9 153d 127b 353d f0ef 3ebd 1631 903d
000000f0: a525 833b 29fe 90bd 71b3 8ebd 7552 543d
00000100: 8208 96bd a701 143d ad1d e33c d6ae 86bd
00000110: b66a 463d e46f c1bc 8deb 95bd 00d5 273c
00000120: 0373 9bbd 984f 54bd e17a 943d dceb 123d
00000130: bf07 6ebd bc9b 8a3d caa9 843d 231b 1c3d
00000140: b0bc 0c3d 3144 48bd 992e 4dbd ce91 663d
00000150: d5e9 0bbc 7a9c f7bc 32d8 f73c c150 4abd
00000160: 32c7 07bd 3672 29bc e5fa 683c 82f5 553d
00000170: 2625 82bd 3568 90bd 561e 463d a69b b83d
00000180: 5c3c 04bd ed0e 1e3c 9f6f c73d 9b35 63bd
00000190: 81fc 613d be3b be3d 593d e2ba 1ec6 95bd
000001a0: 65ca 013c 76a9 ce3c 00de 8fbd 062c 813d
000001b0: 8f46 adbc 9e37 3bbd 1793 223d 9a49 74bd
000001c0: 9bea 623d cca6 353d ff72 bebc 37da d93a
000001d0: ec68 ae3d 5cce e43c f226 623d 2492 02bd
000001e0: 293a 0ebd d3c6 5c3d 8291 11bd 545c a93d
000001f0: 741e 21bd 095f 27bd 4adf 8abc 01f8 d63c
0.095825434 -0.049654182 -0.08003608 0.0076495055 0.024657043 -0.0067865187 -0.05386313 -0.06427265
-0.03862388 0.014037555 -0.07386992 0.015777647 0.08058095 0.012143202 -0.043156773 -0.007998626
0.018772967 0.06799476 0.007475934 0.060408995 0.045999255 0.0862519 0.07778313 0.009158422
0.03875106 0.06871211 0.0431452 -0.021310363 0.062885255 -0.077045955 0.027352838 -0.06536326
0.045030758 0.0046268334 -0.053428844 -0.012420214 0.013638404 0.0699134 0.050069835 0.08759479
0.06894878 -0.08193029 0.0077141584 -0.037338484 -0.0124515 0.02958211 0.084072605 0.048410337
0.023223966 0.038358975 0.034901384 -0.030544061 -0.026301155 0.006675224 -0.04223833 -0.0062626
0.036584634 0.044306822 -0.04661554 0.070406124 0.0040022903 -0.07079727 -0.069678195 0.05183645
-0.073258415 0.03613439 0.027724111 -0.06576316 0.04844161 -0.023612924 -0.07320318 0.010243654
-0.07590296 -0.05183372 0.0725 0.035869464 -0.058112856 0.06767985 0.06477697 0.038111817
0.034359634 -0.048893157 -0.050093267 0.056291394 -0.008539637 -0.030225981 0.030254457 -0.04939342
-0.03314895 -0.010342171 0.014219974 0.052236088 -0.06354742 -0.07051126 0.048368774 0.090140626
-0.032284126 0.009647113 0.09738087 -0.055471044 0.055172447 0.09288739 -0.0017260715 -0.073131785
0.00792179 0.02522729 -0.07024765 0.06307225 -0.021151809 -0.045707338 0.039691057 -0.059640504
0.05539952 0.044348523 -0.023248194 0.0016620819 0.08516106 0.027930431 0.055212922 -0.03187765
-0.034723435 0.05390055 -0.035539158 0.08269563 -0.039335683 -0.040862117 -0.016952176 0.026241304

fc3.weight f4 [128, 128]
00000000: 1e6d 5a3d 5bbc 09bd 2d09 063c ac01 043b
00000010: ab5e 93bd 7fb0 52bd f9e4 b4bb ebeb 483c
00000020: 4f09 733d 358b 6c3c 5e39 b7bc 4fa0 943d
00000030: 60a6 51bd a1b1 113d 5376 49bd 1124 0fbc
00000040: f824 683d 6e6b c2bd cc0f 94bd 3645 ddb9
00000050: 4297 1bbd 211c 88bd 9151 96bd 4d92 21bd
00000060: eaf8 e6bd fa82 e3bc b81f af3d 0991 b63d
00000070: 8a63 bb3a 7c9b 5f3d c280 5d3d bddf 493d
00000080: 7179 ad3d ae73 a93c e353 b8bb 6ab4 0bbd
00000090: 238f 87bd 9610 963d 2605 36bd 23cd 5fbc
000000a0: 57e6 f13d a3ae 54bd 51d0 d53d 1670 2bbd
000000b0: 5d79 8d3d ccd4 b9bd e653 cfbc 6037 f83d
000000c0: 1bc8 a03b e5a6 e7bd e2ee 443c a11a dcbd
000000d0: 332a 6d3c 83df 3fbd 6c2e 98bc 5233 92bd
000000e0: ac8f bebc b1ce ba3b db52 d43c ece5 a6bd
000000f0: f8de 243d 0224 83bd c419 913d 0f76 aebc
00000100: a8af 4b3d ca2b 18bd eb25 f83c f69e 013d
00000110: 3ae1 75bc 42f8 5cbd 471c 7ebc 2a16 a9bd
00000120: 91fd 19bd 8db4 c1bd 4650 78ba ecc2 893d
00000130: b433 ad3c 86be cb3c 9809 acbd 9f7f c8bd
00000140: 51db 343d 9cfc a3bd e856 2dbd 175e dbbc
00000150: 4d2e 593c a62e 923d d5b3 a23d d37c b23d
00000160: e8e5 83bd d149 ca39 e98c 953d 1b83 fcba
00000170: 8a30 1fbd ec9a 223d a0b5 1ebd 9f95 f73c
00000180: e491 f6bc d3a4 a13c c769 843c d8e4 32bd
00000190: 2364 193d ebd4 5dbd 304a 27bd 9fc6 2ebd
000001a0: d110 28bd 7e81 823c 5b56 913d ce90 563d
000001b0: dd1a 733d 4c0a 2d3d 58cb ce3d e7ed a83d
000001c0: 85c5 203d afc8 a63c 10da 81bc c622 693d
000001d0: fa94 38bd 15bf 44bc c6b7 973d f12e 15bd
000001e0: 99d0 003d 12b9 af3d 3dce d93d 24ee 15bd
000001f0: 2aa5 0fbd 166a 95bc 3ed9 b53d b6c1 6e3d
00000200: 0e66 6e3d 9830 133e d38a 2cbc dc12 763d
00000210: fd94 113d c245 053e 77c3 9ebd 079c 8b3d
00000220: d8f3 0abd 4c2f a4bd 64b8 3d3d 1161 8ebd
00000230: e80e 3b3d cd6e 16bb 6589 ba3c 0f5d 103d
00000240: e2af 9b3c d199 bc3d 21b7 4abd 8402 3ebd
00000250: 2b6d 6abd c076 4c3d 7891 24be e9e9 883d
00000260: 45a3 e33d ddb8 08bd bea4 dabb b7b7 52bd
00000270: 854c 07bd 2949 e43c 9b8a b13c 3031 8abd
00000280: e9f7 d6bb 3197 b4bb 49d4 85bd 7dec a33d
00000290: 3ddf 08bd cd4d 2dbd 9ab4 f13d 730b 593d
000002a0: 25e9 02bd 0e20 bb3c a6f3 893d b406 753d
000002b0: dfd6 95bd 1302 92bd 2a6b 883c 669a 8c3d
000002c0: f118 a1bd 2838 1a3d ea14 febd b559 913d
000002d0: f44d 903b b003 06bd 987f 38bd 9bae 6a3d
000002e0: 242e 4f3d ef8b 4b3b 8472 d1bc a473 7f3d
000002f0: 9b89 84bc c9ed 653d 31eb dbbc 48b4 1c3b
00000300: 4933 09bd ef9c a9bd 5f70 c0bc 3064 ed3c
00000310: f4fe a8bd ccb0 4d3d f399 983c 1eda 07bd
00000320: 98e7 b4bd d07d c2bc 4542 8abd a15f 71bc
00000330: 0d5e acbd 82d7 a63c 7b1d 4f3d f52e d43d
00000340: b7b0 17bd 1d49 883d 25a1 aebd 2888 f53c
00000350: f979 cf3b 9e6e a3bd e440 dc3d 1cb0 d3bc
00000360: e19f 453d e403 923d 4e2a 713d 73d2 b33d
00000370: 5769 043d 021a 56bc ae45 013d 8c34 54bd
00000380: 97fc ed3d 642c 42bd aac1 0a3d 3ea9 dc3d
00000390: e32b 54bd 0a40 703d f731 873d bf39 27bc
000003a0: 919d 47bc 1925 b4bd 0e7a 823d 8c03 813d
000003b0: 23bd adbd 5346 b0bc 3491 c33d d243 1bbd
000003c0: c22f 323e 28bc 82bb 49dc 99bd aed1 813d
000003d0: d6d8 e83d 9f31 823d 0938 683d 594b 973c
000003e0: 6cc2 8ebd 4e78 3e3d dc06 323d 7ddf 85bd
000003f0: 7ebe 8ebd 1d5c 853d 87b0 91bd b541 4a3d
0.05332672 -0.033626895 0.008180899 0.0020142598 -0.07195791 -0.05143785 -0.0055204597 0.0122632785
0.05933505 0.014437486 -0.022366222 0.07257139 -0.05118406 0.03556979 -0.04918511 -0.008736626
0.05667588 -0.09493147 -0.072295755 -0.0004220397 -0.037986048 -0.0664599 -0.07339776 -0.039446164
-0.11277945 -0.027772415 0.08550972 0.08914382 0.0014296633 0.05459164 0.05407787 0.04928564
0.08470429 0.020685043 -0.0056252345 -0.034107603 -0.06619098 0.07327382 -0.044438504 -0.013659748
0.11811512 -0.05192436 0.10440124 -0.04185494 0.06907914 -0.09073791 -0.02530856 0.12119937
0.004906667 -0.113111295 0.012019845 -0.107472666 0.014475393 -0.046844017 -0.018576823 -0.07138695
-0.023261867 0.005700909 0.025918415 -0.08149323 0.040251702 -0.06403352 0.070849925 -0.02129653
0.049728066 -0.037151136 0.030291518 0.031645738 -0.0150073115 -0.053947695 -0.0155096715 -0.082561806
-0.037595335 -0.094582655 -0.0009472411 0.067266315 0.021142818 0.024871122 -0.08400267 -0.09789967
0.04415447 -0.08007166 -0.04231921 -0.026778264 0.013255668 0.07137804 0.079444565 0.087152146
-0.064403355 0.0003858344 0.07302267 -0.0019265147 -0.03886465 0.039698526 -0.03874743 0.030222712
-0.030098863 0.019731915 0.01616372 -0.043675274 0.037449013 -0.054158133 -0.040842235 -0.04266989
-0.041031662 0.015930887 0.07096549 0.05238419 0.05935179 0.042246148 0.100973785 0.08248501
0.03925087 0.020359365 -0.01585105 0.05691793 -0.04506395 -0.012008448 0.07408099 -0.03642172
0.031448934 0.08580221 0.1063504 -0.03660406 -0.035069622 -0.018239062 0.08879326 0.058290206
0.058202796 0.14374006 -0.010531145 0.06007658 0.035542477 0.13014892 -0.07752126 0.06816869
-0.033923954 -0.08016834 0.046318427 -0.06952108 0.045668513 -0.0022954226 0.022770593 0.035244998
0.019004766 0.09209026 -0.04949105 -0.046389118 -0.057233017 0.049917936 -0.16071117 0.0668524
0.111151256 -0.033379424 -0.006672471 -0.051444735 -0.03303196 0.027866917 0.021672538 -0.06747663
-0.006560315 -0.0055111875 -0.06534631 0.08004091 -0.03341602 -0.042310525 0.11802025 0.052989434
-0.031960625 0.022842433 0.067359254 0.059820846 -0.07316374 -0.07129302 0.016652662 0.06865387
-0.07866085 0.03765121 -0.12406333 0.070971884 0.004403824 -0.03271836 -0.045043558 0.057295423
0.050581113 0.0031058749 -0.0255673 0.062366143 -0.016178897 0.056134973 -0.026845546 0.0023911167
-0.033496175 -0.08281886 -0.023491083 0.028978437 -0.082517534 0.050217435 0.018628096 -0.033166997
-0.088332355 -0.023741633 -0.06750921 -0.014732272 -0.08416376 0.020366434 0.050565224 0.10360519
-0.037033763 0.0665457 -0.0852683 0.02997215 0.006331679 -0.07980083 0.107545644 -0.025840811
0.048248176 0.07129648 0.058878236 0.087803744 0.032327022 -0.013067724 0.031560592 -0.051807925
0.11620443 -0.047405615 0.0338761 0.10774468 -0.051799666 0.058654822 0.06601327 -0.010206639
-0.012183563 -0.08796138 0.06370936 0.06299505 -0.084833406 -0.021517908 0.0954918 -0.037906475
0.1740103 -0.003989715 -0.07512719 0.06338821 0.11369483 0.06357121 0.056694064 0.018468546
-0.06970677 0.04650145 0.043463573 -0.06536768 -0.06969927 0.0651171 -0.07113748 0.04937907

fc3.bias f4 [128]
00000000: 111b de3d 34db b43d 3a01 a7bd 4dbf 753d
00000010: d1e9 c63d 5fbd 613d 566b 61bb e486 b83d
00000020: 5319 c63d 5a53 2c3c f5a5 e33c 4199 483d
00000030: 68d0 28bd 870c 9dbd b73a afbd 7d50 383b
00000040: 5dde b8bc a52e c63d 0a39 cdbd 6dea fbbc
00000050: 094f ffbb 128d 46bd 2734 993c 04b0 ad3a
00000060: 335c d83d b220 5dbd 4f72 1f3c e594 6bbc
00000070: d448 ebbc 0bd7 383d 5f65 21bd c0b9 f73c
00000080: 8b11 a73d 927b 873d 95df 193a 1547 5dbd
00000090: 31c2 d2bc 660d a5bc 33ed 95bd 6be3 8ebc
000000a0: d190 b23d eb1a c73d d12d 2f3d fd2b 9cbd
000000b0: 29ed 9c3d 22e1 3f3c f8c9 9e3d 1899 463d
000000c0: 05cc b4bd daf1 1d3c 767a 913d 5ae1 a83c
000000d0: 6182 433a bffa aebd 0005 71bb 7fd7 9c3d
000000e0: f605 febc df5f cebc 7d58 8d3c 1389 a6bd
000000f0: 2e83 573d 19ea 783d 2413 9a3b 8aaa 08bd
00000100: 749c 5a3c c01c bf3c 25dd 343d b6c8 bf3d
00000110: 53a9 963c 1d41 a7bc 7d82 823d fb95 f7ba
00000120: d34b 81bd 7616 943d f561 a3bd aea8 d53d
00000130: 5e7d bdbb f0de bd3c 9b4c 80bd ee49 60bd
00000140: db58 d93d 3eca 2f3d 8dc7 9fbd feab a73d
00000150: 973a 4fbd 3882 9f39 08eb dd3c edc3 3b3d
00000160: 4638 083d b9c9 c1bd 7baf 1dbd 2bc6 4cbd
00000170: 784d 80bd 1e0c fd3c c391 113c 3ef1 b73d
00000180: f5f8 0e3d 4538 9f3c a91b f5bc 49bb cc3d
00000190: 1989 99bd 42ad c13d 1d69 393d f2f4 cebc
000001a0: de1a 3abd ddda 5c3c 99eb ea3d 7781 c93d
000001b0: 3267 293d 5ff7 cc3b 0ceb 7abc 88f6 013d
000001c0: 61a7 48bd 6f65 f8bb d8b6 c5bc cf19 03bc
000001d0: 7a78 9f3c b507 01bd e1a9 a53d 11dd 943d
000001e0: 315d 64bd 5131 2b3d 9ea7 0bbd ddf0 b9bd
000001f0: 16ef 433d 83c4 8d3d 37b8 32bb 735c d63d
0.10845006 0.08830872 -0.08154531 0.05999689 0.09712566 0.05511224 -0.0034396253 0.09010103
0.09672799 0.010517919 0.027789095 0.04897428 -0.041214377 -0.07668405 -0.08556121 0.0028124147
-0.022566969 0.096768655 -0.10020645 -0.030751431 -0.007791404 -0.04847438 0.018701626 0.0013251309
0.105644606 -0.05398626 0.009731843 -0.014378761 -0.02872125 0.045126956 -0.039403316 0.03023994
0.08157643 0.06615366 0.0005869803 -0.054022867 -0.025727363 -0.02014799 -0.07320633 -0.017442426
0.08719028 0.09721931 0.042768303 -0.076255776 0.07662422 0.011711391 0.07753366 0.048485845
-0.08827976 0.009640181 0.07103436 0.020615268 0.00074580876 -0.0854392 -0.0036776662 0.0765829
-0.031008702 -0.0251922 0.017254109 -0.081316136 0.052615337 0.060770128 0.004701989 -0.033365764
0.013342965 0.023329139 0.044156212 0.093644544 0.018391287 -0.02041679 0.06372545 -0.0018889302
-0.063132904 0.072308466 -0.07977668 0.10432564 -0.005782767 0.023177594 -0.06264611 -0.054758005
0.10612651 0.042917483 -0.07801733 0.08187102 -0.050592985 0.00030423864 0.02708961 0.045841146
0.03325679 -0.09462304 -0.03849743 -0.049993675 -0.06264776 0.030889567 0.00888485 0.0898156
0.034905393 0.019436011 -0.029920416 0.09996659 -0.074968524 0.094568744 0.04526626 -0.025263283
-0.04543578 0.013479915 0.11470718 0.098391466 0.04135818 0.006255075 -0.015314829 0.03172925
-0.04898775 -0.007580451 -0.024135038 -0.008001759 0.019466627 -0.03150149 0.080890425 0.072687276
-0.055752937 0.04179508 -0.0340954 -0.09079144 0.047835432 0.06922247 -0.0027270445 0.10466852

fc4.weight f4 [2, 128]
00000000: feb2 e5bd c12b 043e 203b 993c 06ff aa3d
00000010: 4713 c6bd d40c 68bd dae8 8b3d 50a3 2fbd
00000020: 476d b0bd 9243 77bd 9d6b 1d3e da28 e9bd
00000030: 4155 933d 40e6 733d e4b4 babd 3dd1 cbbd
00000040: 3a37 e53d 3a52 80bd c2a9 60bd d57a 183c
00000050: df78 b4bd 2b83 f0bc 88f0 67bd 4f10 f13d
00000060: f8e4 a3bd a500 f3bb a915 2cbe 7c18 d13d
00000070: fd1c a4bd 9e86 03be b7c7 c33d 6ad0 ff3d
00000080: 2256 6abd 8048 d63c 4199 d4bd 9ed9 af3c
00000090: 949c 883d ccee ad3d e201 4bbd c809 7ebe
000000a0: bee6 8ebd d277 28be b8fb 9cbd 5a00 6e3b
000000b0: 577e c93d 669b 29bd 9eb9 abbd 0712 a1bd
000000c0: 0115 c5bc 1a7d 8e3d 0116 cbbc c543 0b3c
000000d0: 3018 f03d 09d9 813d 2bbc 013b 07d7 1d3c
000000e0: 539d 2dbe 2cb9 03be 2f43 123d 4aca 7abd
000000f0: 72c6 903d ff40 c6bb 9acc 29bd 81d1 4ebb
00000100: 72b6 ea3d ae81 85bc 8847 c0bc 64d6 67bd
00000110: 6129 c4bd 07da d93d b41c d0bd 0230 b7bd
00000120: 3411 8a3d 6ce8 7a3d dd1d 9ebd d9bc fdbd
00000130: a836 08be 10b7 04be 33e6 d13c 3e52 63bd
00000140: e36e b2bd 210a d33d 6890 ebbc 1612 89bd
00000150: f682 debd 131e fe3d 1a21 e4bd ab82 1abd
00000160: d87a 593d 8875 863d a816 98bd 2f5a 953d
00000170: ad45 b1bd a818 b53d c6ae adbc b68a 82bd
00000180: cc47 82bd 7ef8 d0bd 73e1 233d 901b 99bd
00000190: 81e0 823d f53f a3bd d2e8 09be 3f16 0ebe
000001a0: 78e2 8c3d 93ab 953d 806e 15be bb57 56be
000001b0: 0767 16be e2d3 8fbc 6fba 27bd bfae 09be
000001c0: 62da 803d b243 02be d637 abbc d31e 3abd
000001d0: d54a ee3d c8ac 9fbd 1e1b 17bb c129 993d
000001e0: ed9d e2bd 3bab f23c a1aa c23b eb6a 913d
000001f0: e7a4 c0bd 13e7 a03d 0a97 febd 0e61 aebd
00000200: 77f6 bdbd d9c4 2e3d a3db 473c 7410 c63c
00000210: 720f 7cbd 92c9 6cbd 013a 5bbd 59db 8dbd
00000220: 797b 1fbe bbf0 2abe d59d e13d aca0 9ebd
00000230: 1b45 4c3d c5f1 e23c 71c9 093e 6143 15be
00000240: 2645 173a fdf4 06be e776 c53d f1b8 37bd
00000250: 4b33 b53d 76b1 7dbc 36c1 76bd 5876 9ebb
00000260: b3b1 8fbd 729e 92bc 9c17 2abe 7629 2a3d
00000270: 6dfd 713d 01f6 373d 4598 5dbd ef62 e03d
00000280: 76f6 8fbd 8dfb 95bd a91c 223e c585 583b
00000290: 2115 b03d 8a85 0c3d 7c91 1c3d c999 2dbe
000002a0: 928b f5bc 48bc 2dbe fbd9 7f3d 46f1 0c3c
000002b0: 52ce 08bd e7b0 64bd e499 4b3b 42fe 54bd
000002c0: 9d7e 13bd 1468 d03c b709 91bd b130 fcbd
000002d0: da4c cd3d fb51 f43b 6e18 8bbd 4732 d9bd
000002e0: 15ac 9abd 6717 c93d cdf2 babd cd82 973d
000002f0: 4116 163d cee7 24be cbd5 80bd 669b 113c
00000300: 0941 163e 4dd4 01bd 7f2c aebd 3bd3 bbbc
00000310: c582 59bd 7b68 753d 25fe ec3d 3311 d73c
00000320: b3a3 b43c 1f62 d13d 8f24 a0bd 4c58 dabd
00000330: ea1f ae3c d20a 8bbd 26cc 773d 9d94 18be
00000340: 0147 5cbd 1354 943d a973 823d 69c5 d0bd
00000350: 7e00 ad3d a6b4 b23d 499b 0ebc b1a5 50bc
00000360: e30e c93d 5d51 e73b 423a fc3c 4be7 54bd
00000370: 4f8a 93bd 2a0d 8b3d fc35 093e fe4b 55bc
00000380: 7000 de3d 77f7 1ebe 219c febc 54f6 04be
00000390: fda7 b6bc d2ce 66bd a429 5f3d 9703 bd3d
000003a0: ed8a c5bc 9826 193e acff 0bbe 1aeb 07be
000003b0: fcc0 2a3e a707 a1bd 9dda 0abd 6ac7 09bd
000003c0: 2e78 1a3e e88a 0c3d 933e 77bd f92f 75ba
000003d0: d7c6 803d 02a7 293d 3500 f0bc 63e5 8f3b
000003e0: 90eb 3b3e 500d 1bbe 7fd8 43bb 7435 503d
000003f0: 3df7 35bd 5412 fd3d f823 d4bc 621a e4bc
-0.11215781 0.12907316 0.01870495 0.08349423 -0.096716456 -0.05665286 0.06831522 -0.042880356
-0.08614593 -0.060367174 0.15373082 -0.11384745 0.07193995 0.059545755 -0.091165334 -0.099520184
0.11192174 -0.062656835 -0.054849394 0.009306629 -0.08812117 -0.02935942 -0.056625873 0.11770689
-0.08002657 -0.0074158483 -0.16805138 0.10209748 -0.080133416 -0.12844321 0.09559577 0.12490924
-0.05721105 0.026157618 -0.10380793 0.021466073 0.0667049 0.084928125 -0.049562342 -0.24808419
-0.06977604 -0.16451958 -0.07665199 0.0036316128 0.098385505 -0.041407965 -0.08385013 -0.078647666
-0.024057867 0.06957455 -0.024790766 0.008500044 0.117233634 0.06340224 0.0019795995 0.009633786
-0.16954546 -0.12863606 0.035708603 -0.061228074 0.070691004 -0.0060502286 -0.04145489 -0.003155798
0.1146058 -0.016297188 -0.023471609 -0.056600943 -0.09578205 0.106372885 -0.10161725 -0.08944704
0.067415625 0.06125681 -0.0772054 -0.123895355 -0.133021 -0.12960458 0.025622463 -0.055498354
-0.08712556 0.10304666 -0.028755382 -0.06692903 -0.108648226 0.1240808 -0.11139126 -0.03772227
0.05309567 0.06565386 -0.07426196 0.07292592 -0.08655868 0.088425934 -0.021201503 -0.06374113
-0.063613504 -0.10203646 0.040009927 -0.0747596 0.06390477 -0.07971183 -0.1346772 -0.13875674
0.06879133 0.07308116 -0.14592934 -0.20931904 -0.1468774 -0.017557088 -0.04094928 -0.13445567
0.06291653 -0.12721136 -0.020900648 -0.045439553 0.11635367 -0.07796627 -0.0023056935 0.07478667
-0.11065278 0.029622665 0.0059407507 0.07100471 -0.094064526 0.07856574 -0.12431152 -0.085146055
-0.09275525 0.042668197 0.012198362 0.024177767 -0.061538167 -0.05780942 -0.053522114 -0.06926603
-0.15574445 -0.16693394 0.11016432 -0.077454895 0.04987059 0.027703175 0.1345575 -0.14576484
0.0005770497 -0.13179393 0.096418194 -0.04485411 0.08847674 -0.0154842045 -0.060242854 -0.004835885
-0.07016315 -0.017897818 -0.16610569 0.041543446 0.059079576 0.044912342 -0.054100294 0.1095637
-0.070294306 -0.0732337 0.15831245 0.0033038717 0.0859778 0.03430704 0.038224682 -0.16953196
-0.029973779 -0.16966355 0.06246374 0.008602446 -0.033399887 -0.05583277 0.0031067068 -0.05200029
-0.03600942 0.025440253 -0.07081931 -0.12313975 0.10024424 0.007456062 -0.06791769 -0.10605293
-0.07552353 0.09818917 -0.09128342 0.07397995 0.036642317 -0.16104051 -0.06290778 0.0088871475
0.14673246 -0.031696606 -0.08504581 -0.022927871 -0.053103227 0.059914093 0.11571912 0.026253318
0.022050714 0.10223793 -0.07819473 -0.106613725 0.021255452 -0.06789173 0.060497425 -0.14900441
-0.053778652 0.072425984 0.06369717 -0.10193903 0.084473595 0.08725862 -0.008704015 -0.012734816
0.098172925 0.00705926 0.030789498 -0.05197839 -0.07204115 0.0678962 0.133995 -0.013018606
0.10839927 -0.15524088 -0.031080307 -0.12984592 -0.0222969 -0.056349583 0.05448307 0.092292
-0.024114097 0.14956129 -0.1367175 -0.13273278 0.1667518 -0.07862788 -0.033899892 -0.03363744
0.15084907 0.03431216 -0.06036241 -0.0009353157 0.06287926 0.041419037 -0.029296974 0.0043913587
0.18351579 -0.15141797 -0.002988368 0.050832227 -0.044425238 0.123570114 -0.025896057 -0.027844612

fc4.bias f4 [2]
00000000: 8ff9 98bd 25cc 4d3d
-0.074694745 0.050243516

fc1.weight f4 [128, 7]
00000000: dbd7 943e 0790 acbe 56da 2c3e df6f 713e
00000010: 33d9 4ebe 3da7 273e ea96 643e d51e cb3d
00000020: 3a4f 7b3e f748 4abd de7b 9b3e 4c31 fa3d
00000030: 8d82 eb3d 0a43 383e f88b b6be 8ade dd3d
00000040: f560 1fbe 1469 b6be ee36 95be 0e18 0ebd
00000050: 5936 e83c bde6 8bbe 0d80 723e 8e23 4c3d
00000060: 0aaa 093d 0590 fdbd d8a1 d13c d34c c43e
00000070: aaea 39bd 5844 ae3e dbbb f7be d0a7 c9bc
00000080: 1037 adbe 1a6a 373e 03eb b53e 42c5 a23c
00000090: 487a 0f3e 5ddb 793e 86ff 91be f367 9e3d
000000a0: 1353 adbe 1e7d cbbd 6a78 063e 5f59 85be
000000b0: 3d31 023e 1ea0 6bbe bb1b 0cbe c3e7 babe
000000c0: 9c78 69be 865f 963c 2823 bd3d f08b acbe
000000d0: 083f 9ebe 0649 463e e9ae 4f3e db59 b53e
000000e0: 43ca 19be db1f 433e 0a2c c63e 35e8 103e
000000f0: 8925 91be 319e c33e 1766 003e 9a79 30be
00000100: 0a05 99be 483f 913e 8f4a b1bd 6063 69be
00000110: 33bb 49be 6b18 fa3d 05e7 263e 4203 bf3e
00000120: 2a51 b1bd 4e23 b93e e538 c63e c40e 77bd
00000130: 7dfb d2be 1099 a83d 434a 673d e6e6 673c
00000140: fe92 69be acc2 35bf 6b2c cb3e 033c 98be
00000150: a61b 313e cf95 bcbe ea9f bd3e c070 27be
00000160: 1cf2 bc3e f866 85be 0d3a 05bd 30f8 a73e
00000170: b66e a23e 73ff 5dbe 179a 87be b59b 973e
00000180: 37d2 353e ab44 1dbe 0267 353e 0bea a7be
00000190: 110d 01be 0a08 11be 4db3 253d 730b c43e
000001a0: a3e9 d7bd 4bbf a93d 2bcb 0abe 6201 8f3e
000001b0: df5a 473e d3be c3bd e678 ba3e 22f4 41be
000001c0: 62be 503d f230 623e 1f81 b4bd e061 d1be
000001d0: c9e5 013d 92e7 77be d6ca 7e3e 04c7 e73e
000001e0: 3b7e 943e b6ab 903e 80e1 66be b9fb b0be
000001f0: b701 ca3d dc24 6cbe 8ec9 ef3d 2614 e1bd
00000200: f652 08bf 0664 cb3d cb0d 02bc 70e5 b8be
00000210: c6ae f83d 0610 923b fc20 81be e7ed 0bbe
00000220: 70c0 003e 55bb 98be 2e75 3ebe 0bd3 2fbe
00000230: aa2d 43be 0cdc 3abe d0d3 3e3e 1ee2 d1bd
00000240: 1616 8cbe b0d5 763e ac11 a7be cb7e 38be
00000250: 6fb2 aabd b39c 9dbe bff7 e9bc 5504 8ebe
00000260: 17b7 de3d 4e8c 06be b8e6 233e fee6 b13e
00000270: 3d52 35be ee4f 13be af07 16be 859d 03be
00000280: d836 813e 431b d0be 4a97 11be 100d 46be
00000290: 502f 1b3e d55c 9d3e d057 8e3e 80a7 cbbe
000002a0: ceaf ec3d 0053 b7be 3483 85be 699d 8d3d
000002b0: 15ad da3d c3d5 c4bb ef0f 7e3d 16f4 5c3d
000002c0: 8956 533d bd33 d7be 7258 77be 65f1 23bd
000002d0: 4b43 c4be 1056 1c3e ed63 f73d 2ba8 b53d
000002e0: 2b90 7fbe 4ec6 2d3e ed38 9c3e 09aa 993e
000002f0: c3e8 d7bd 26f8 a4bd fb82 8fbe df6f c93e
00000300: edcb 69be 8d0e 96be 9efb 103d 54c0 4abe
00000310: ae22 703e a82b 493e 576e aebd 8abb 4abc
00000320: ea92 3fbe c1e2 ea3d 10e8 163e 687c 89be
00000330: 5f84 4dbe 7866 8f3e b29a 35be 2a00 ba3e
00000340: 1716 27be 0e05 17be 73af b8be a349 ae3e
00000350: 5d1c c1be 06a1 18bd 9e71 733d ff07 d53d
00000360: 637f 54be 57df b1bd 5426 31be dfd8 52bd
00000370: 496c 18be 7761 babe 6596 3a3e 0e2e 52be
00000380: 6dc3 39be 1f85 8c3e bbac 12bf 6592 6a3e
00000390: a962 933e 13b2 1b3e 7dd9 fd3d b89d 663e
000003a0: 245e c4bc a219 00bf 69d9 c7bd 3b67 b03e
000003b0: d590 61bb e83b aa3e 1d1d 59bd 61d1 03be
000003c0: 5c9c 17be a2e3 d4bd abb3 7fbe a61e e2bd
000003d0: 2634 e63e 706f 8e3e 0040 c23e d532 8ebd
000003e0: a1ba 933e 2f51 9b3e 8f51 b23e d6f9 a23e
000003f0: 1c31 87be b221 9a3e 5f0d 9f3e bce5 9b3e
0.29070935 -0.33703634 0.16880164 0.23577832 -0.20200042 0.1637239 0.22323194 0.0991799
0.24541941 -0.04938599 0.3036794 0.12216434 0.1149951 0.17994323 -0.35653663 0.108334616
-0.1556433 -0.35627043 -0.2914347 -0.03469091 0.028346227 -0.27324477 0.2368166 0.049838595
0.033609428 -0.12380985 0.025589868 0.38339862 -0.04538981 0.34036517 -0.4838551 -0.024616152
-0.33831072 0.17911568 0.35530862 0.01986945 0.1401149 0.24400087 -0.2851526 0.077346705
-0.33852443 -0.099359736 0.13131872 -0.26044747 0.12714095 -0.23010299 -0.13682453 -0.36504945
-0.22799915 0.018356096 0.09235221 -0.33700514 -0.30907464 0.19363794 0.20281567 0.35420117
-0.15018563 0.1905512 0.38705474 0.1415108 -0.2834895 0.38206628 0.12538944 -0.17233887
-0.29886657 0.28368592 -0.08656799 -0.22791815 -0.19700317 0.122116886 0.16299064 0.37307173
-0.08658059 0.36159748 0.38715282 -0.060316816 -0.41207495 0.08232319 0.056467306 0.014154172
-0.2280998 -0.7100017 0.39682326 -0.29733285 0.17295703 -0.36833045 0.37036067 -0.16351604
0.36903465 -0.2605512 -0.032526065 0.3280654 0.3172509 -0.21679477 -0.2648475 0.29610983
0.17755972 -0.15358226 0.17715076 -0.32795748 -0.1260264 -0.14163223 0.040454198 0.38289985
-0.105426095 0.08288439 -0.13554065 0.27930743 0.19468258 -0.09557881 0.36420363 -0.18940786
0.050962813 0.22088984 -0.088136904 -0.40894985 0.03171328 -0.24209431 0.24882063 0.45269024
0.29002556 0.28256005 -0.22546959 -0.3456705 0.09863608 -0.23060936 0.117083654 -0.10990171
-0.5325159 0.09931187 -0.007937859 -0.36112547 0.121427104 0.0044574765 -0.25220478 -0.13664971
0.12573409 -0.29830423 -0.18599388 -0.1717035 -0.19060388 -0.18248004 0.18635488 -0.102482066
-0.273606 0.24104953 -0.3263067 -0.18017118 -0.08334815 -0.30783615 -0.028560517 -0.2773768
0.10874765 -0.1313946 0.16005981 0.34746546 -0.17707153 -0.1438596 -0.14651369 -0.12853058
0.25237155 -0.406458 -0.14217868 -0.1934092 0.15154767 0.30734888 0.2780137 -0.3977623
0.115569696 -0.3580551 -0.26076663 0.06914789 0.10677544 -0.0060069277 0.062026914 0.053943716
0.0515962 -0.4203166 -0.24154833 -0.040025134 -0.3833259 0.15267205 0.12079606 0.08869966
-0.2495734 0.16970178 0.3051218 0.3001254 -0.10542443 -0.08055143 -0.28029618 0.39343163
-0.22831698 -0.29307976 0.03539621 -0.1979993 0.23450729 0.1964556 -0.085171394 -0.012373814
-0.18708387 0.11469031 0.14736962 -0.26852727 -0.20070027 0.28007865 -0.17734793 0.3632825
-0.1631702 -0.14748022 -0.36071357 0.34040555 -0.37716952 -0.03726294 0.059434526 0.10401916
-0.20751719 -0.08685177 -0.17299777 -0.051476356 -0.14885058 -0.36402485 0.18221433 -0.20525381
-0.18140955 0.27445313 -0.57294816 0.22907408 0.2878621 0.15204649 0.12394998 0.22521102
-0.023970671 -0.5003911 -0.097582646 0.3445376 -0.0034418602 0.3324883 -0.05300628 -0.1287284
-0.1480574 -0.1039498 -0.24970882 -0.11041002 0.4496166 0.27819395 0.37939453 -0.06943289
0.28853324 0.30335376 0.3482785 0.31831235 -0.26404655 0.30103832 0.3106489 0.3044871

fc1.bias f4 [128]
00000000: 83ae 83be ea72 b83d ad3f d33d f7a5 b4bd
00000010: 2b27 a63e 3307 aebe 4072 203d 4318 5d3e
00000020: 25d2 94bc 5be1 7fbd 8f89 313e a842 823d
00000030: 2210 bdbe 2d40 66bd b89a 74be d342 84be
00000040: 6bcb 04be 5301 99be b9e3 793e 9b05 883d
00000050: 2c60 5ebe 273f 9abd e481 5c3e 4073 173d
00000060: 8f9c f5bd 683c 5d3e 8c40 b33e 729a b73e
00000070: 4b29 6f3d 90da 803e f74f 61be 0e75 b1be
00000080: 3b10 e5bc ff47 ba3d fd0a 5e3c ca75 ba3e
00000090: 7569 943e 44a3 523e 44ea 463d ea7f 593c
000000a0: 12e3 af3e 8c34 883e 3192 093c 8c7a ce3e
000000b0: ff94 a5bd 975a 7d3e 8ed5 6b3e 10ea 413d
000000c0: 623d a9be 5f05 053e 2287 a83b 7f08 bdbe
000000d0: d2cf 51be 56a1 dcbe 4aa8 39bd 0d14 d13d
000000e0: 4028 8dbe f603 a7be 90c6 c0be 59d3 b83e
000000f0: 05ba f33d 635c 62be 1844 a1bd e9c8 5abd
00000100: 54d9 9cbd cd54 523e 846e 90bd 38ec 27be
00000110: 5c20 1abe a911 cbbd d1b0 7c3e 2e30 833c
00000120: c136 2cbe 5893 cfbb 6ea1 0a3e 1d31 b5be
00000130: 0bc6 4d3e fdf3 523d 0e7a c43d b7be 1bbe
00000140: 061e 933e 8413 e7bd 77e6 903e 6420 9ebe
00000150: 60cf 08bd 842b a03e f245 2fbe 43b2 61be
00000160: da1a c33e 34bc 9a3d f5b0 61bd e48a 76be
00000170: 1ffb ad3e 5bef bf3e dd18 6ebd 9cc3 4f3e
00000180: 148f babe cdbd a73e f2b5 fa3d d638 bfbd
00000190: 647d 0a3e 4bfe bc3e 8603 5f3e 50ae 9cbd
000001a0: c6dd 0d3e 9668 08be 232c 4bbe 8409 933e
000001b0: c87f 843e 0428 8fbe 7765 2abe c50f 983e
000001c0: 4627 973e f2fe 703e 4298 b53e c743 abbe
000001d0: 886e 4e3b 8f36 53bd 47d2 903e 40d3 92bd
000001e0: 0025 d03d a6c6 6ebc a418 40be 9948 bf3d
000001f0: fafc 61be 7512 4dbe 927b a93e 19a4 94be
-0.2571908 0.09006293 0.103148796 -0.08820718 0.32451758 -0.33989868 0.039171457 0.21591286
-0.018166611 -0.062470775 0.1733763 0.0636037 -0.3692637 -0.056213547 -0.23887146 -0.25832233
-0.12968223 -0.29883823 0.24403276 0.06641694 -0.21716374 -0.075315766 0.21533924 0.036975145
-0.11992752 0.21605074 0.35010183 0.3586002 0.05838899 0.2516675 -0.2200316 -0.34659618
-0.02796184 0.090957634 0.0135524245 0.3641799 0.28986707 0.20570093 0.048563257 0.013275126
0.34352928 0.2660259 0.008396671 0.4032787 -0.080850594 0.24741589 0.23030683 0.04734236
-0.33054644 0.1299033 0.005143062 -0.36920545 -0.20489433 -0.4309184 -0.04532651 0.102089025
-0.2756977 -0.3262021 -0.3765149 0.36098745 0.11900715 -0.22105555 -0.07874316 -0.05341426
-0.076586396 0.20540161 -0.07052329 -0.16398704 -0.15051407 -0.09915478 0.24676825 0.016014185
-0.16817762 -0.0063347034 0.13538143 -0.35389033 0.20095079 0.051502217 0.095935926 -0.1520947
0.28733844 -0.11283019 0.2830083 -0.30884087 -0.033400893 0.312832 -0.17116526 -0.22040658
0.38106424 0.07555428 -0.0551004 -0.2407642 0.33980653 0.374873 -0.05812918 0.20289463
-0.36437285 0.32761994 0.122417346 -0.093370125 0.13524395 0.3691276 0.21778688 -0.07650435
0.13854131 -0.13321146 -0.19841056 0.28718197 0.2587874 -0.27960217 -0.16640268 0.2969953
0.2952215 0.23534754 0.35467726 -0.33450148 0.0031498987 -0.051565703 0.2828543 -0.07169199
0.10163307 -0.014573729 -0.187594 0.09340019 -0.22069159 -0.20026572 0.3310209 -0.29031447

fc2.weight f4 [128, 128]
00000000: 7b46 3e3e 71a2 34bc 88ad 0abb 00b3 2f3c
00000010: 2816 10bd 1efd 4fbd 007f 94bd 0cd3 163b
00000020: 9e85 7db9 201b 3e3d 465b 27bd f339 f63d
00000030: e79c 88bc 1691 8d3d 87d4 913b 895b 933d
00000040: dbe6 ac3c 2104 a33d fc6a 303d 15e8 d3bc
00000050: 06e5 033d bfed 6b3c d19f efbc e918 54bd
00000060: 2ad0 c9bd 6662 ccbd 2651 9d3d 6161 883d
00000070: 2ce4 973d 21e2 1cbd eb38 533d 61b7 e0bb
00000080: 4ffc 7fbd bd30 a2bc 1852 cebc 74f7 4ebd
00000090: e763 b53d d557 9d3d b08e 0e3e 7c46 37bc
000000a0: e131 f73d 823f d6bb a220 363d 4aff f23d
000000b0: 3293 333d 6d0a c83c 88fb 2dbd a4db ab3b
000000c0: 22df ba3b 80c6 83bd d45f a8bd c59d 1cbd
000000d0: ceb8 a53d 6b9c 303d 04c2 c93d 632a dfbb
000000e0: 55df c63a bd4e 3cbd 13fb 383d 0136 ca3b
000000f0: cde5 9c3d aa15 cebd 5b05 3bbd e842 cd3d
00000100: ebb3 a3bd 7063 fb3b cc24 c53c 2ee5 333e
00000110: 96a9 b0bd 3bfc 863d 149a 84bc be84 18bd
00000120: dcf1 7b3b 865e 5bbd 4cd7 66bd 3f6e 263e
00000130: 44ca 573d 3d79 123e 2237 9a3d 830c 45bd
00000140: d5e0 02bb c483 17be b3d1 603d 91df 113d
00000150: 0477 1d3e 7aa7 203d e17e 073d fbb6 143d
00000160: f07c ac3d 89fe ed3d 8fcc b83c 5d5f 2a3c
00000170: 1173 763d 4256 41bc baaa 49bd 3ab8 a23d
00000180: 7762 463d c317 10bd ec84 a23c 68f2 653d
00000190: a1c5 f9bd 1745 0abd 6514 343e 8a05 8e3d
000001a0: f547 babd ff10 29bd ead9 b93d b6eb df3c
000001b0: e702 053e 4971 b33d d25f c63d 0b91 46bd
000001c0: 5454 babd 2514 323c 81fa 383e bae8 b7bd
000001d0: 0adf 63bd 2eb0 8a3d 5af4 013d 59f5 0c3c
000001e0: ffb3 89bd 08c6 a53d 3ce0 153e dd8c 913d
000001f0: 6571 fbbd 285a f4bc 63c3 dd3d 0b6c 4e3d
00000200: b933 d6bd 0de9 503d d144 343d 0f53 803d
00000210: 17cc bdbd 3104 acbd 63a3 b4bd 366c 1fbd
00000220: 00a5 5abd 9ff4 b43d f921 823d 6cc0 7abc
00000230: 9673 93bd ab73 683d 3c6a edbd 7d23 c13d
00000240: bcf6 ab3d 3787 9cbc d5ba c23d 8e94 843d
00000250: a4c8 693d 5ca6 91bc acd6 febd b181 093d
00000260: e823 193c 39e4 54bd 8712 b43c b3e3 153d
00000270: 7769 e2bc b88f 013e 9d2a 89bc 0223 cdbc
00000280: 5724 90bd 62db 4bbc b9db e2bd 6e45 df3d
00000290: 0f28 dabc 7b21 443e 2a8d eebd 1a9e 5bbc
000002a0: 36eb 293e 6a69 043e 928f ca3c 7237 99bd
000002b0: 4ce3 b13d cbc0 883d effc 773c eb5e 53bb
000002c0: 1944 49bd 4a1e a7bd ec2c 07be 661b a93d
000002d0: 31e9 a83d afc1 9c3d 1dc4 7cbb c003 083e
000002e0: b0c9 84bd f2c3 b33d 0896 aa3d 15ad c33d
000002f0: f8a8 133d 44be 433e 685a 1d3e d34e 9f3d
00000300: b9af 0e3e adbb 043d b3bc a5bd 884a dc3d
00000310: 7624 483d 4cc6 013e 7d43 bc3d 9821 adbd
00000320: 656d 673d c8e6 cc3e 5491 783c 40d0 9abd
00000330: aad2 623d 612c 8ebd 9eb5 47bd 7f94 c5bb
00000340: 7f23 4bbd 1681 563e ff7d 81bd 7000 3ebb
00000350: f30c 1ebe dca7 ce3c 27d7 5abd b8f8 86bd
00000360: 186b 81bc 1121 163d bdb2 963c d332 94bd
00000370: 6320 bc3d cf81 ee3c fe8a 96bd 32a6 3ebc
00000380: 13b8 dabb 2149 9c3d 67e9 293d 2a03 9fbc
00000390: fba8 d1bd 63dd f8bc f720 993c 5aa7 dc3d
000003a0: 1221 4e3e 9805 7e3b e279 703d 328a 283d
000003b0: 7d75 963d c0c5 58be e6a9 163d 8aa1 00be
000003c0: 5f03 8c3d 78ee 7fbd f66e d03b 7ce8 b2bd
000003d0: 524d cabc 2ac6 31bd 2c8d 4a3d 8f93 8abb
000003e0: 0258 1abd 7b11 3f3d 30ed 83bc aafb 923d
000003f0: fab7 e2bd 1fc2 5e3d 508a 1c3d bdaf 65bd
0.18581574 -0.011025057 -0.0021160562 0.010723829 -0.03517738 -0.0507785 -0.07250786 0.0023013977
-0.00024177736 0.046412587 -0.04085853 0.12022772 -0.01667638 0.069124386 0.004450384 0.07195193
0.021106174 0.07959772 0.04307078 -0.025867501 0.032200836 0.014399945 -0.029251011 -0.05178157
-0.09854157 -0.099797055 0.076814935 0.066591986 0.07416567 -0.03830159 0.051567953 -0.006857798
-0.06249648 -0.01979863 -0.02518563 -0.05052896 0.088569455 0.07682768 0.13921618 -0.011186238
0.120700605 -0.0065383324 0.044464715 0.11865099 0.04384155 0.024419034 -0.042476207 0.005244689
0.005702869 -0.06434345 -0.08221403 -0.0382364 0.08091889 0.04311792 0.09851459 -0.006810473
0.0015172759 -0.04597353 0.045161318 0.0061709885 0.076610185 -0.10062726 -0.045659404 0.10022527
-0.07993301 0.007671766 0.024065398 0.17567894 -0.08626096 0.06591078 -0.016186751 -0.037235968
0.003844372 -0.05355694 -0.056357667 0.16252993 0.05268313 0.14304061 0.07530047 -0.048107635
-0.0019970436 -0.14796358 0.054887485 0.0356136 0.15377432 0.039222218 0.033079986 0.036307316
0.084222674 0.11620814 0.022558479 0.010398713 0.06016833 -0.011800351 -0.049235083 0.07945295
0.048433747 -0.03517891 0.019838773 0.05613938 -0.12195898 -0.033757295 0.17585905 0.0693465
-0.09095756 -0.041275974 0.09074767 0.027334075 0.12989388 0.08761842 0.09686245 -0.048478168
-0.090981156 0.010869061 0.1806431 -0.08979936 -0.05563263 0.06771885 0.031727172 0.008603417
-0.06723785 0.08094412 0.1463632 0.07106946 -0.12277488 -0.029828146 0.10828283 0.050396007
-0.10459084 0.051003505 0.04401094 0.06265842 -0.09267443 -0.08399237 -0.08820226 -0.038921557
-0.053380013 0.0883572 0.06354136 -0.015304666 -0.07199781 0.056750935 -0.11592528 0.09430597
0.0839667 -0.019107444 0.09508292 0.06473647 0.05707611 -0.017779522 -0.12443289 0.03357095
0.00934694 -0.051975463 0.02198149 0.036594104 -0.02763818 0.1265248 -0.016743952 -0.025041107
-0.07038181 -0.012442442 -0.11077065 0.109019145 -0.02663043 0.19153397 -0.11648019 -0.013404394
0.16593632 0.12930837 0.024726663 -0.074812785 0.086859316 0.06677397 0.015135988 -0.003225262
-0.04913721 -0.08160074 -0.1320073 0.08257179 0.08247603 0.0765413 -0.003856904 0.1328268
-0.06483781 0.08777608 0.083293974 0.09554497 0.036049813 0.1911555 0.15366518 0.077787064
0.1393422 0.032405544 -0.08092632 0.10756403 0.048862897 0.126733 0.0919256 -0.08453673
0.05650081 0.40019822 0.015171368 -0.07559252 0.055376686 -0.06942058 -0.048757188 -0.006029665
-0.0495944 0.2094768 -0.0632286 -0.002899196 -0.15434627 0.025226526 -0.05342784 -0.06590408
-0.015798137 0.03665263 0.018395776 -0.072362565 0.09185865 0.029114632 -0.073507294 -0.011636304
-0.0066747754 0.07631136 0.041482355 -0.019410688 -0.102373086 -0.030379003 0.018692477 0.10774107
0.20129803 0.0038760658 0.058709987 0.04114742 0.07346628 -0.21169186 0.03678312 -0.12561622
0.068365805 -0.06248328 0.006360884 -0.08735749 -0.024695072 -0.043401875 0.04945104 -0.004229016
-0.037681587 0.04664753 -0.01610431 0.07176907 -0.11070247 0.054384347 0.038217843 -0.0560758
