flappybird_dqn_ep120.pth (torch, 561729 bytes, 32 tensors)

fc1.weight f4 [128, 7]
000000 93 69 90 3e 4b 64 ca be 7c 74 32 3e 4e 10 6c 3e
       0.28205547 -0.39529642 0.17427248 0.23053095
000010 d3 9e 69 be df 45 2d 3e e8 5b 6c 3e 57 8b a3 3d
       -0.22814493 0.16921185 0.23081934 0.07985561
000020 97 5b 95 3e ab f7 4b bd 61 e2 82 3e f1 88 ae 3d
       0.2917144 -0.04979674 0.25563338 0.08522213
000030 fc af bd 3d 82 56 1a 3e f8 8b b6 be 8a de dd 3d
       0.09262082 0.15072063 -0.35653663 0.108334616
000040 f5 60 1f be 14 69 b6 be ee 36 95 be 0e 18 0e bd
       -0.1556433 -0.35627043 -0.2914347 -0.03469091
000050 59 36 e8 3c 53 b2 91 be 1c e9 8c 3e 27 22 47 3d
       0.028346227 -0.28456363 0.27521598 0.048616555
000060 cf 47 23 3c 05 8e 03 be 97 e8 8c 3c c9 09 c4 3e
       0.009965851 -0.12847145 0.017200751 0.38288715
000070 ea ea cc bc 72 e0 aa 3e 03 dc f0 be 84 54 da bc
       -0.02501436 0.33374363 -0.47042856 -0.026651628
000080 c8 82 b1 be 67 11 44 3e bd 54 b5 3e 42 c5 a2 3c
       -0.3467009 0.19147263 0.35416213 0.01986945
000090 48 7a 0f 3e 5d db 79 3e 86 ff 91 be f3 67 9e 3d
       0.1401149 0.24400087 -0.2851526 0.077346705
0000a0 13 53 ad be 1e 7d cb bd 6a 78 06 3e 5f 59 85 be
       -0.33852443 -0.099359736 0.13131872 -0.26044747
0000b0 3d 31 02 3e 1e a0 6b be bb 1b 0c be c3 e7 ba be
       0.12714095 -0.23010299 -0.13682453 -0.36504945
0000c0 9c 78 69 be 8e 10 96 3c d6 1c 05 3e a1 be aa be
       -0.22799915 0.01831844 0.12999281 -0.33348563
0000d0 76 66 aa be 79 30 10 3e dd 7f 4c 3e 3a 01 b5 3e
       -0.33281296 0.14080991 0.19970651 0.35352498
0000e0 35 08 04 be f5 42 29 3e 9d 2e d2 3e 3a 02 1e 3e
       -0.12893756 0.16529448 0.41051188 0.15430537
0000f0 80 82 90 be a0 b3 d2 3e b8 25 39 3e 9a 79 30 be
       -0.28224564 0.41152668 0.18080795 -0.17233887
000100 0a 05 99 be 48 3f 91 3e 8f 4a b1 bd 60 63 69 be
       -0.29886657 0.28368592 -0.08656799 -0.22791815
000110 33 bb 49 be 6b 18 fa 3d 8d 6e 27 3e 04 ec c8 3e
       -0.19700317 0.122116886 0.16350766 0.39242566
000120 42 49 59 bd 44 75 b4 3e 5f 66 c6 3e 77 25 54 bd
       -0.05304838 0.35245717 0.38749978 -0.05179354
000130 a4 68 d3 be 17 4c d2 3d 80 c6 97 bd d6 b8 0d 3d
       -0.41290772 0.10268419 -0.07410908 0.0346001
000140 fb da 61 be ce b1 39 bf fc f7 d3 3e 12 6a 8e be
       -0.2205619 -0.72536933 0.41400135 -0.278153
000150 9c b8 21 3e cf 95 bc be bc ec b5 3e 17 d3 36 be
       0.15793079 -0.36833045 0.35532176 -0.17853962
000160 11 3f b5 3e 26 1a 8d be 09 c7 42 bd 61 9c 9c 3e
       0.35399678 -0.27559012 -0.047553096 0.30588058
000170 6a 69 a4 3e c5 05 57 be 1d b0 8c be 99 10 98 3e
       0.32111675 -0.20998295 -0.27478114 0.29700163
000180 58 16 2a 3e a8 04 26 be 8c 94 3c 3e 2c 50 a7 be
       0.16610086 -0.16212714 0.18416041 -0.32678354
000190 bb 3d 03 be 03 ea 0a be 8e 3f 20 3d d0 cb c3 3e
       -0.12816517 -0.13565831 0.03912311 0.38241434
0001a0 f3 f6 f9 bd 08 fb c7 3d 9f 37 0f be a7 b7 85 3e
       -0.12205305 0.09764677 -0.13986062 0.26116678
0001b0 fc 3f 4c 3e 0d ed 03 be 50 68 bd 3e 05 11 3f be
       0.19946283 -0.12883396 0.36993647 -0.18658836
0001c0 62 be 50 3d f2 30 62 3e 1f 81 b4 bd e0 61 d1 be
       0.050962813 0.22088984 -0.088136904 -0.40894985
0001d0 c9 e5 01 3d 92 e7 77 be d6 ca 7e 3e 7d 6e f3 3e
       0.03171328 -0.24209431 0.24882063 0.47545233
0001e0 54 dd 41 3e 6a e1 98 3e 0e da 56 be 15 d6 be be
       0.18932086 0.29859477 -0.20981619 -0.37272707
0001f0 e9 b2 ea 3d cd 49 57 be 72 6e c8 3d 6b fa ec bd
       0.11459906 -0.21024247 0.09786691 -0.11571201
000200 d1 cf 1f bf 70 8d ad 3d f9 b7 08 bb 32 f3 c1 be
       -0.6242648 0.08474243 -0.002086161 -0.37880856
000210 66 4e ba 3d 06 10 92 3b fc 20 81 be e7 ed 0b be
       0.090969846 0.0044574765 -0.25220478 -0.13664971
000220 70 c0 00 3e 55 bb 98 be 2e 75 3e be 0b d3 2f be
       0.12573409 -0.29830423 -0.18599388 -0.1717035
000230 aa 2d 43 be 0c dc 3a be d0 d3 3e 3e 1e e2 d1 bd
       -0.19060388 -0.18248004 0.18635488 -0.102482066
000240 16 16 8c be b0 d5 76 3e ac 11 a7 be cb 7e 38 be
       -0.273606 0.24104953 -0.3263067 -0.18017118
000250 6f b2 aa bd b3 9c 9d be bf f7 e9 bc 55 04 8e be
       -0.08334815 -0.30783615 -0.028560517 -0.2773768
000260 17 b7 de 3d 4e 8c 06 be d1 af 40 3e 6f 66 a6 3e
       0.10874765 -0.1313946 0.18817069 0.32500026
000270 da aa 41 be be a0 02 be 88 2c 1e be fa fb f3 bd
       -0.18912831 -0.12756631 -0.15446675 -0.11913295
000280 14 53 83 3e 2b 92 f4 be 90 b8 23 be af 92 ad bd
       0.2564932 -0.47767767 -0.15988374 -0.08475243
000290 42 02 18 3e 7c 05 ad 3e 21 14 90 3e 76 48 eb be
       0.14844611 0.33793247 0.28140357 -0.4595372
0002a0 9e 1a fd 3d 11 e4 bf be 47 0d 62 be 49 1e bc 3d
       0.123585925 -0.37478688 -0.22075377 0.09185464
0002b0 79 1b 07 3e 1c 22 03 3c 6c b4 49 3d ca 52 51 3d
       0.13194074 0.008003738 0.04924433 0.051104344
0002c0 ba 80 18 3d cb b3 f2 be d6 73 6f be 99 67 ea bc
       0.03723214 -0.47402796 -0.23384032 -0.028613852
0002d0 98 ad c2 be e1 45 21 3e 83 5d df 3d 1e 54 d4 3d
       -0.38023067 0.15749313 0.10906508 0.103676066
0002e0 00 2f 76 be ac 6a 17 3e 9e a1 91 3e c5 9c 93 3e
       -0.24041367 0.14786786 0.28443617 0.28830543
0002f0 03 bf 13 be 93 b3 98 bd 84 2d 8a be 75 e4 ca 3e
       -0.14428334 -0.07456126 -0.2698785 0.39627424
000300 e5 1f 80 be be a9 a4 be de bf d0 3c 92 7f 53 be
       -0.25024334 -0.32160753 0.025482114 -0.20654133
000310 96 09 81 3e 38 98 39 3e dc f7 b1 bd d1 9e 2a bc
       0.25202626 0.18124473 -0.086898535 -0.010413841
000320 2b 6e 53 be 49 b4 f8 3d d4 db 24 3e fc 95 9b be
       -0.20647494 0.12143762 0.16099483 -0.30387866
000330 54 a7 3d be 30 10 8c 3e c9 ca 4a be 31 7c d4 3e
       -0.18520862 0.273561 -0.19803919 0.41501
000340 2e 30 32 be f8 fa 30 be 73 af b8 be a3 49 ae 3e
       -0.17401192 -0.17283237 -0.36071357 0.34040555
000350 5d 1c c1 be 06 a1 18 bd 9e 71 73 3d ff 07 d5 3d
       -0.37716952 -0.03726294 0.059434526 0.10401916
000360 63 7f 54 be 57 df b1 bd 54 26 31 be df d8 52 bd
       -0.20751719 -0.08685177 -0.17299777 -0.051476356
000370 49 6c 18 be 77 61 ba be 65 96 3a 3e 0e 2e 52 be
       -0.14885058 -0.36402485 0.18221433 -0.20525381
000380 6d 21 49 be 14 47 83 3e c1 02 16 bf 89 9e 74 3e
       -0.19641657 0.25640166 -0.5859795 0.23888601
000390 26 ae 9c 3e 46 ca 1c 3e 02 3f d7 3d 68 8a 5f 3e
       0.30601615 0.15311536 0.10510065 0.21830142
0003a0 01 23 1b bd 0a a0 04 bf 2e 7a c3 bd 65 63 b5 3e
       -0.03787518 -0.518067 -0.09544788 0.35427395
0003b0 e7 1e 23 bc 48 91 a3 3e 83 29 42 bd 79 55 c6 bd
       -0.009956098 0.31946778 -0.04740287 -0.09684271
0003c0 3d 1b 18 be 41 9a e8 bd 77 43 8b be d6 8c e8 bd
       -0.1485414 -0.113575466 -0.2719991 -0.11354987
0003d0 a2 3d ec 3e c5 b2 86 3e 81 70 e2 3e bf ed 99 bd
       0.46140772 0.26308265 0.4422646 -0.075160496
0003e0 4d 01 81 3e 05 1c 80 3e 6c 44 a9 3e f5 00 9c 3e
       0.25196305 0.25021377 0.33060014 0.3046948
0003f0 a3 fb 8e be 2b 8e a7 3e 72 0b a2 3e 2b 82 90 3e
       -0.2792636 0.32725653 0.31649357 0.2822431

fc1.bias f4 [128]
000000 56 f4 8b be d7 2d 6e 3d ad 3f d3 3d 1a 88 ca bd
       -0.2733485 0.058149185 0.103148796 -0.098892406
000010 b5 e5 a8 3e 33 07 ae be 40 72 20 3d d7 1f 51 3e
       0.32987753 -0.33989868 0.039171457 0.20422302
000020 61 08 0f bc 5b e1 7f bd a8 ec 30 3e 7b ee a1 3d
       -0.008730025 -0.062470775 0.17277777 0.07906815
000030 50 c3 c4 be db a2 85 bd ce a5 70 be 27 38 8d be
       -0.38430262 -0.06525203 -0.2350075 -0.27581903
000040 6b cb 04 be 46 ee 90 be 29 37 78 3e 9b 05 88 3d
       -0.12968223 -0.28306788 0.24239792 0.06641694
000050 2c 60 5e be 27 3f 9a bd ba 24 67 3e 03 5d 3a 3d
       -0.21716374 -0.075315766 0.22572604 0.04549886
000060 4e 6f c7 bd 90 fd 64 3e 9b ee aa 3e dc 62 b1 3e
       -0.097380266 0.22362351 0.33385167 0.34645736
000070 f6 4c 6b 3d 76 aa 75 3e f7 4f 61 be 0e 75 b1 be
       0.057446443 0.23990807 -0.2200316 -0.34659618
000080 f4 a8 8f bc 94 9a c4 3d 7c ea 32 3c 09 6e ad 3e
       -0.017536618 0.09599796 0.010920163 0.33873013
000090 14 de 8c 3e d5 04 53 3e 30 db 4c 3d e5 e3 50 3c
       0.27513182 0.20607312 0.05001372 0.012749647
0000a0 48 4a a5 3e 61 92 94 3e fd 2c 40 3c 33 c6 cd 3e
       0.32283235 0.29017928 0.011729476 0.40190277
0000b0 e6 c2 bd bd 47 6c 69 3e 89 a0 60 3e aa cb 5c 3d
       -0.092656896 0.22795211 0.2193624 0.053905167
0000c0 62 3d a9 be 5f 05 05 3e 8e f4 4b 3c 7f 08 bd be
       -0.33054644 0.1299033 0.012448443 -0.36920545
0000d0 d2 cf 51 be e2 ef da be a4 9b 7b bd 6f 09 bb 3d
       -0.20489433 -0.4276114 -0.061427727 0.09132659
0000e0 40 28 8d be f6 03 a7 be 90 c6 c0 be 92 a0 aa 3e
       -0.2756977 -0.3262021 -0.3765149 0.3332563
0000f0 14 74 e0 3d 12 87 5b be 91 18 ae bd d0 9d 8c bd
       0.1095964 -0.21438244 -0.085007794 -0.06866038
000100 c1 c4 ae bd bb f1 4f 3e 84 6e 90 bd 9e 3a 26 be
       -0.085336216 0.20307057 -0.07052329 -0.16233298
000110 5c 20 1a be 06 ff db bd 07 91 6c 3e 02 80 b4 3c
       -0.15051407 -0.10742001 0.23102199 0.022033695
000120 cd e2 2e be b5 19 2c bc 3b ae 13 3e d1 cc ad be
       -0.17078705 -0.010504176 0.14421932 -0.33945325
000130 d2 4f 4c 3e 05 d1 60 3d 5c a3 dc 3d b7 be 1b be
       0.19952324 0.054886837 0.10773346 -0.1520947
000140 dc 0a 94 3e 72 6e ea bd 73 0a 8f 3e 66 a7 9e be
       0.28914535 -0.11446847 0.2793766 -0.3098709
000150 11 85 f7 bc b3 77 9a 3e f2 45 2f be 9f 1e 5c be
       -0.030214818 0.30169448 -0.17116526 -0.21496056
000160 59 28 ba 3e ac 6b 84 3d ee c5 88 bd e4 8a 76 be
       0.36358908 0.06465849 -0.06678377 -0.2407642
000170 52 81 a8 3e ea 59 c3 3e dd 18 6e bd 22 f1 57 3e
       0.32911164 0.38154536 -0.05812918 0.21088079
000180 14 8f ba be 9d c2 a7 3e 85 ca f2 3d 22 b5 e1 bc
       -0.36437285 0.32765666 0.11855034 -0.027552191
000190 22 bf 00 3e aa a4 b9 3e 3e 92 60 3e ac d0 85 bd
       0.12572911 0.3625844 0.21930787 -0.065339416
0001a0 da 6a 11 3e a4 09 fe bd 35 eb 57 be c9 7a 95 3e
       0.14200917 -0.124041826 -0.21085818 0.2919524
0001b0 92 eb 81 3e 80 8d 8c be 43 b3 1d be 5d 5f 98 3e
       0.25375038 -0.27451706 -0.15400414 0.29760256
0001c0 c5 65 99 3e 3a ed 57 3e 58 05 b0 3e 9a 53 ad be
       0.29960456 0.21086589 0.34379077 -0.33852845
0001d0 65 5e 06 bc 8f 36 53 bd 57 38 8f 3e c2 f4 af bd
       -0.008201216 -0.051565703 0.2797267 -0.08591606
0001e0 52 c8 cb 3d a6 c6 6e bc 5e 55 3e be 1d e6 bb 3d
       0.099503174 -0.014573729 -0.18587252 0.0917475
0001f0 6d a3 4e be da f9 54 be 1f 66 9d 3e 19 a4 94 be
       -0.2017953 -0.20798436 0.30741975 -0.29031447

fc2.weight f4 [128, 128]
000000 01 90 54 3e 87 12 78 bc 88 ad 0a bb 0a 93 73 bc
       0.20758058 -0.015141136 -0.0021160562 -0.0148666
000010 70 ec 3a bd 1e fd 4f bd 00 7f 94 bd ab f9 43 bc
       -0.04563564 -0.0507785 -0.07250786 -0.011961381
000020 7a da 28 3c 20 1b 3e 3d 24 ff b4 bd 3b a9 34 3e
       0.010305995 0.046412587 -0.08837727 0.17642681
000030 f4 e6 f6 bc 55 db 66 3d f5 f1 41 3c 01 0a c0 3d
       -0.030139424 0.056361515 0.011837472 0.09376908
000040 db e6 ac 3c f6 e3 05 3e 49 47 ff 3c 15 e8 d3 bc
       0.021106174 0.13075241 0.031161921 -0.025867501
000050 06 e5 03 3d bf ed 6b 3c a4 12 13 bd 09 2b d9 bd
       0.032200836 0.014399945 -0.03590645 -0.106039114
000060 00 ed e9 bd f2 6c d0 bd 4b f6 7e 3d e3 b8 a5 3d
       -0.11422157 -0.1017703 0.062246602 0.08091905
000070 68 c9 b8 3d 03 40 c9 bd eb 38 53 3d 61 b7 e0 bb
       0.0902279 -0.098266624 0.051567953 -0.006857798
000080 02 be 99 bd 90 37 43 bd 49 33 a0 bd 6f c9 61 bd
       -0.07506944 -0.04766041 -0.07822282 -0.055123743
000090 54 5c a2 3d 49 45 5c 3c 1d ed 34 3e f0 c5 47 bc
       0.079277664 0.013444253 0.17668577 -0.012193188
0000a0 c4 52 04 3e 1a dc 3a bd cd 22 82 3d 0a 48 10 3e
       0.12922198 -0.04562006 0.06354294 0.1408998
0000b0 38 0a 91 3c 50 4a 8c 3c 4c 40 4c bd 76 0b 85 bc
       0.017705068 0.017125279 -0.049866006 -0.016240817
0000c0 22 df ba 3b 80 c6 83 bd d6 da db bd c5 9d 1c bd
       0.005702869 -0.06434345 -0.10735099 -0.0382364
0000d0 ce b8 a5 3d 6b d2 d8 3c 06 06 bc 3d 91 93 67 bc
       0.08091889 0.026467523 0.091808364 -0.014134304
0000e0 55 df c6 3a bd 4e 3c bd 13 fb 38 3d 07 b3 e9 3b
       0.0015172759 -0.04597353 0.045161318 0.0071319374
0000f0 e7 d9 d7 3d 5f 9f 4d be 18 20 ba bd 27 4d cf 3d
       0.105396084 -0.20080326 -0.09088153 0.101221375
000100 fa a5 48 be dc ad a1 3a cc 24 c5 3c 26 40 11 3e
       -0.19594565 0.0012335139 0.024065398 0.14184627
000110 96 a9 b0 bd 4e 8b 1f 3d fe a9 db bc e9 d6 5e bd
       -0.08626096 0.03895121 -0.026814457 -0.054404173
000120 74 63 8a 3c 89 d2 d6 bd 48 e0 9c bd 00 42 57 3e
       0.016893126 -0.10489375 -0.07659966 0.21021271
000130 be ea 01 3d 72 6c 27 3e b2 1f f2 3d 83 0c 45 bd
       0.03171801 0.16349962 0.11822452 -0.048107635
000140 40 f6 9a bc a4 3a 80 be 5e b8 15 3d 27 ba 0e 3d
       -0.01891625 -0.2504474 0.03655278 0.034845497
000150 df 21 46 3e 08 d2 d3 3b e1 7e 07 3d 97 eb 82 3d
       0.19348858 0.0064642467 0.033079986 0.063925914
000160 50 1d c9 3d 90 11 b3 3d 9a 45 13 3d 5d 5f 2a 3c
       0.09820044 0.08743584 0.03595505 0.010398713
000170 70 08 64 3d c5 54 ec bc ba aa 49 bd bc 00 26 3d
       0.05567211 -0.028849015 -0.049235083 0.040528044
000180 77 62 46 3d 93 ce 55 bd 2a 45 47 3a 60 a8 7b 3c
       0.048433747 -0.052198958 0.0007601554 0.015359968
000190 02 13 1f be 79 fa 3b bd 6b 4b 50 3e b5 f4 34 3d
       -0.15534595 -0.045893166 0.2034127 0.044178683
0001a0 09 2c 14 be 07 20 5a bd 94 14 51 3d 0d 86 75 3b
       -0.14469923 -0.0532532 0.051045015 0.0037463934
0001b0 75 00 e3 3d 8e 83 d7 3d 68 79 fd 3d a7 17 66 bd
       0.110840715 0.10523139 0.12376672 -0.0561749
0001c0 8d 8d 11 be 3a 23 91 3c c4 6c 4e 3e e2 49 19 be
       -0.14214154 0.017716993 0.20158678 -0.1496959
0001d0 0a 88 e2 bc 2e b0 8a 3d dc 48 3e 3d 96 f5 3b bc
       -0.02765276 0.06771885 0.046456203 -0.0114721265
0001e0 25 c5 ac bd 08 c6 a5 3d b6 a2 36 3e 96 e5 70 3d
       -0.0843604 0.08094412 0.17835507 0.0588127
0001f0 cd d5 02 be 3b da 9d bd e5 f7 f7 3d 0b 6c 4e 3d
       -0.12776871 -0.0770764 0.12107829 0.050396007
000200 08 91 f0 bd ff ed 4b 3d d1 44 34 3d 25 55 7e 3d
       -0.117464125 0.049787518 0.04401094 0.06209292
000210 fa a6 d8 bd 31 04 ac bd 63 a3 b4 bd e6 8f 1e bd
       -0.10578723 -0.08399237 -0.08820226 -0.03871145
000220 4f cc 52 bd 9f f4 b4 3d b5 b6 6f 3d d1 a9 5c bd
       -0.051464375 0.0883572 0.058523852 -0.053872887
000230 e1 a8 b0 bd 64 89 3f 3d 5e b3 0b be ed 1d b6 3d
       -0.08625961 0.046761885 -0.13642642 0.08892427
000240 bc f6 ab 3d ff b2 8d bd e1 da 8e 3d 8e 94 84 3d
       0.0839667 -0.069189064 0.069753416 0.06473647
000250 a4 c8 69 3d 5c a6 91 bc 34 8a 1a be 95 93 06 bc
       0.05707611 -0.017779522 -0.15091783 -0.008213897
000260 49 ab 6a bb 18 b6 a0 bd 37 02 9c 3c d4 78 ec 3c
       -0.003580766 -0.078472316 0.019044025 0.02886621
000270 96 c5 34 bd 79 52 11 3e 9d 2a 89 bc 02 23 cd bc
       -0.044133745 0.14191617 -0.016743952 -0.025041107
000280 7a e7 b0 bd 87 c1 8e bc 6a 03 3d be a1 b1 dc 3d
       -0.08637901 -0.017426265 -0.18458334 0.107760675
000290 93 75 a9 bc 7f e8 52 3e 89 8f 40 be 93 e6 de bc
       -0.020685947 0.20596503 -0.18804754 -0.027209556
0002a0 7f 3a 29 3e 9e 58 a4 3d 89 82 8b 3c 85 04 d1 bd
       0.1652622 0.08024715 0.017030017 -0.1020594
0002b0 4c 7e ba 3d 76 ef 8a 3d fe d5 42 3a 42 ee 60 bc
       0.091061205 0.06783955 0.00074324 -0.01372868
0002c0 19 44 49 bd 4a 1e a7 bd 61 41 0e be 66 1b a9 3d
       -0.04913721 -0.08160074 -0.13892128 0.08257179
0002d0 31 e9 a8 3d a7 4d 9c 3d de d1 4e bb 97 08 10 3e
       0.08247603 0.076319985 -0.0031558196 0.14065777
0002e0 b0 c9 84 bd f2 c3 b3 3d 08 96 aa 3d 0f 0d b7 3d
       -0.06483781 0.08777608 0.083293974 0.089380376
0002f0 fa d9 20 3c 84 2f 8e 3e 3f fd 17 3e db b2 9a 3d
       0.009817595 0.27770627 0.148427 0.07553645
000300 85 d9 3e 3e 4b cf da 3c b3 bc a5 bd 5b ba 44 3e
       0.18637665 0.026710173 -0.08092632 0.19211714
000310 76 24 48 3d aa bf f0 3d 74 b8 bd 3d 75 ae a1 bd
       0.048862897 0.11755307 0.09263697 -0.07894603
000320 98 e2 af 3d 8f ad d7 3e 25 61 22 3c ce a7 0b be
       0.08588141 0.42124602 0.009910856 -0.13638231
000330 d5 2b 39 3d d9 72 a4 bd 2c b3 d5 bd 7f 94 c5 bb
       0.045207817 -0.08029718 -0.10434565 -0.006029665
000340 44 e8 8a bd 39 31 7d 3e ca 16 8c bd bf 3c 02 bb
       -0.067825824 0.24725808 -0.06840284 -0.0019872633
000350 c0 03 73 be a7 25 34 3d 27 d7 5a bd d7 b9 df bd
       -0.237319 0.04398122 -0.05342784 -0.10924118
000360 d2 3e 02 bd 5c 78 87 bb 50 38 66 3c d3 32 94 bd
       -0.03179819 -0.004134221 0.014051512 -0.072362565
000370 78 84 b0 3d b8 81 86 3c fe 8a 96 bd e0 5b 25 3c
       0.086190164 0.016419277 -0.073507294 0.0100927055
000380 13 b8 da bb 24 07 91 3d fa 76 8d 3d 32 e4 16 3d
       -0.0066747754 0.0708144 0.069074586 0.036838718
000390 b0 29 d4 bd 7c 65 04 bd 21 85 e9 bb 1d 23 31 3e
       -0.10359514 -0.032323346 -0.007126466 0.17298551
0003a0 46 0f 65 3e 13 25 39 bc 8c 8c 1e 3d 1e d5 38 3d
       0.22369108 -0.011300343 0.038708255 0.04512512
0003b0 6e f6 4a 3d 6e d9 97 be d0 f2 d7 3c ef 6d 1d be
       0.04955142 -0.29658073 0.0263609 -0.15373968
0003c0 77 94 91 3d 58 2a 94 bd ce 06 05 bc 6f 52 82 bd
       0.071083955 -0.07234639 -0.008119298 -0.06363379
0003d0 98 33 64 bc 2a c6 31 bd fc 32 20 3d 13 1e 93 3b
       -0.0139283165 -0.043401875 0.039111122 0.004489669
0003e0 f2 ee 18 bd 7b 11 3f 3d 22 c0 c8 bd ac c9 38 3d
       -0.03733725 0.04664753 -0.098022714 0.045114204
0003f0 94 9d c6 bd b7 90 7c 3d 29 e4 dc 3c bd af 65 bd
       -0.096980244 0.06166145 0.026964264 -0.0560758

fc2.bias f4 [128]
000000 4f e8 b6 3d 7f d1 59 bd f5 e9 a3 bd f7 86 c4 3b
       0.08931028 -0.053178307 -0.08003608 0.0059975344
000010 d5 0f e0 3c 0f 01 87 bc 96 b3 16 bd 61 a1 83 bd
       0.0273513 -0.016479997 -0.03679236 -0.06427265
000020 13 34 1e bd 5a 96 b6 3c 1d 49 97 bd ab 72 ae b8
       -0.03862388 0.02228849 -0.07386992 -8.318325e-05
000030 d7 20 9c 3d 48 f4 46 3c 28 c5 30 bd f6 f3 30 bc
       0.07623451 0.012143202 -0.043156773 -0.010800352
000040 bb 9c 11 3d f0 fc 86 3d ae f8 f4 3b 6b 9d 8f 3d
       0.03554986 0.06591213 0.007475934 0.07012447
000050 94 b6 67 3d d6 a4 b0 3d df 7b 97 3d 35 0d 16 3c
       0.056570604 0.0862519 0.073966734 0.009158422
000060 2e a4 cd 3c 18 81 8c 3d b2 a3 20 3d 27 b5 89 3b
       0.025102701 0.0686056 0.039218612 0.0042025032
000070 fc c9 80 3d 45 ca 9d bd 98 76 e2 3c 2c dd 85 bd
       0.062885255 -0.077045955 0.02764444 -0.06536326
000080 82 4b 35 3d 9c 11 13 3c 34 d8 5a bd d4 78 a9 bc
       0.044261463 0.008976366 -0.053428844 -0.020687498
000090 9d 73 5f 3c 14 1c a0 3d 85 b5 5d 3d d8 85 aa 3d
       0.013638404 0.078178555 0.05412819 0.0832631
0000a0 29 5b 7d 3d 11 cb a7 bd e1 4d d7 3c 7e 15 3b bd
       0.061854515 -0.08193029 0.026282253 -0.045674793
0000b0 71 a5 f6 ba 43 7e 10 3d 42 2e ac 3d 5c 37 73 3d
       -0.0018817616 0.035276663 0.084072605 0.059378967
0000c0 01 bc f3 3c ae 9b f1 3c d9 ce fe 3c ac 0e 13 bd
       0.029752733 0.02949318 0.031104492 -0.035902664
0000d0 c5 ca 9b bc b5 52 bf 3b 19 02 2d bd 71 3d db bb
       -0.019017586 0.005838717 -0.04223833 -0.006690674
0000e0 c5 d9 15 3d 12 7b 35 3d f0 ef 3e bd c0 15 92 3d
       0.036584634 0.044306822 -0.04661554 0.07133055
0000f0 38 e3 df 3b a0 8a ab bd 24 cc 91 bd 75 52 54 3d
       0.0068325065 -0.0837605 -0.07119015 0.05183645
000100 82 08 96 bd 38 18 1a 3d dc aa 7a 3c 00 4d 3a bd
       -0.073258415 0.037620753 0.015299525 -0.04548359
000110 25 8b 62 3d e9 7e e6 bc 8d eb 95 bd 00 d5 27 3c
       0.05530848 -0.028136687 -0.07320318 0.010243654
000120 03 73 9b bd 07 21 80 bd 2c 05 7d 3d dc eb 12 3d
       -0.07590296 -0.062562995 0.06177251 0.035869464
000130 bf 07 6e bd 37 7d 84 3d c8 59 9a 3d 1c eb f8 3c
       -0.058112856 0.06469195 0.07536656 0.030385546
000140 cb 0d 49 3d 31 44 48 bd 99 2e 4d bd ce 91 66 3d
       0.04908542 -0.048893157 -0.050093267 0.056291394
000150 d5 e9 0b bc 7a 9c f7 bc 17 17 16 3d c1 50 4a bd
       -0.008539637 -0.030225981 0.036643114 -0.04939342
000160 ac 2d b3 bc 5c 54 24 3c 44 ca 80 3c be 35 94 3d
       -0.021872364 0.0100298785 0.015721448 0.07236813
000170 26 25 82 bd 76 0d 62 bd 57 d5 2c 3d 9e cc dd 3d
       -0.06354742 -0.05518862 0.042195644 0.10830043
000180 a5 f6 d8 bc a4 58 87 3c 09 bb f9 3d 48 df 3e bd
       -0.026484797 0.01652176 0.12193877 -0.046599656
000190 81 fc 61 3d cc 76 d0 3d ae aa 58 bc 1e c6 95 bd
       0.055172447 0.10178909 -0.013224287 -0.073131785
0001a0 2e 8c f0 3b 4b ef f4 3c 51 de af bd 06 2c 81 3d
       0.0073409295 0.02989926 -0.08587325 0.06307225
0001b0 8f 46 ad bc 9e 37 3b bd 0e 3d 64 3d 79 4c 4b bd
       -0.021151809 -0.045707338 0.05572229 -0.049633477
0001c0 86 ed 69 3d cc a6 35 3d 69 8f 06 bd 81 a0 d0 bb
       0.057111286 0.044348523 -0.03285161 -0.00636679
0001d0 bc dd a8 3d 5c ce e4 3c 43 1a 3f 3d 5a 5d 1f bd
       0.082454175 0.027930431 0.046655905 -0.038907386
0001e0 9d 65 4d bc 06 03 1d 3d da b3 e0 bc 54 5c a9 3d
       -0.0125364335 0.03833296 -0.02742951 0.08269563
0001f0 74 1e 21 bd 68 ed 25 bd ca 06 fd bb d2 16 24 3d
       -0.039335683 -0.04050961 -0.0077217566 0.040060826

fc3.weight f4 [128, 128]
000000 fb 2f 60 3d a7 5c a5 3c 2d 09 06 3c 65 65 50 3c
       0.054733258 0.020185782 0.008180899 0.012719487
000010 af 80 4f bd ad 8e 8c bc 8a 28 30 3c eb eb 48 3c
       -0.05065983 -0.017157877 0.010751853 0.0122632785
000020 4f 09 73 3d 1b c1 d2 3c 5e 39 b7 bc e6 58 94 3d
       0.05933505 0.025726845 -0.022366222 0.072435185
000030 a6 f2 87 bd a1 b1 11 3d 53 76 49 bd b1 50 1e 3d
       -0.066380784 0.03556979 -0.04918511 0.038651172
000040 93 29 b0 3d 8b 8c b2 bd cc 0f 94 bd 26 6e 12 3c
       0.0860168 -0.08718213 -0.072295755 0.008937394
000050 02 5c 15 bd 21 1c 88 bd d2 48 e3 bd 4d 92 21 bd
       -0.0364647 -0.0664599 -0.11097874 -0.039446164
000060 9a 46 c0 bd c0 bb 60 bc 4c 4a 63 3d 8b 67 fb 3d
       -0.09388466 -0.013716638 0.055490777 0.12275609
000070 8a 63 bb 3a 7c 9b 5f 3d 79 ed a4 3d bd df 49 3d
       0.0014296633 0.05459164 0.08053107 0.04928564
000080 71 79 ad 3d b7 fd d3 3c e3 53 b8 bb fb 8a ab b9
       0.08470429 0.025877817 -0.0056252345 -0.0003271921
000090 23 8f 87 bd f7 35 a6 3d 04 67 99 bc a8 2e 1b 3d
       -0.06619098 0.08115762 -0.01872588 0.03788629
0000a0 33 5b fa 3d a3 ae 54 bd 64 29 04 3e 10 68 c8 bc
       0.12224426 -0.05192436 0.12906414 -0.024463683
0000b0 8a f3 b0 3d 93 fc b1 bd e6 53 cf bc 4f 0f 0e 3e
       0.086402014 -0.08690753 -0.02530856 0.13873027
0000c0 75 12 6f 3c 1a 0c c5 bd dd 79 af 3c ee 01 85 bd
       0.014591803 -0.09621449 0.021420414 -0.06494509
0000d0 11 0a 8f 3c 83 df 3f bd 6c 2e 98 bc fc 11 20 bd
       0.017460855 -0.046844017 -0.018576823 -0.03907965
0000e0 ac 8f be bc b1 ce ba 3b db 52 d4 3c fc e7 a7 bd
       -0.023261867 0.005700909 0.025918415 -0.081985444
0000f0 4a c0 0a 3d d0 09 d5 bc c4 19 91 3d 0f 76 ae bc
       0.033874787 -0.026005656 0.070849925 -0.02129653
000100 a8 af 4b 3d 93 03 cc bc eb 25 f8 3c c5 5b 84 3d
       0.049728066 -0.024904048 0.030291518 0.06462816
000110 30 2e ba bc d1 8c 81 bd 47 1c 7e bc 2a 16 a9 bd
       -0.022727102 -0.06325687 -0.0155096715 -0.082561806
000120 91 fd 19 bd 3c bd 8e bd 0f ca eb bc ec c2 89 3d
       -0.037595335 -0.06969687 -0.028782872 0.067266315
000130 b4 33 ad 3c 1a 3e 2d 3d 0c 81 03 bd 2b a6 54 bd
       0.021142818 0.042295553 -0.03210549 -0.051916283
000140 f9 fa 91 3d 9c fc a3 bd e8 56 2d bd 17 5e db bc
       0.07127947 -0.08007166 -0.04231921 -0.026778264
000150 4d 2e 59 3c a6 2e 92 3d c2 e0 e0 3d d3 7c b2 3d
       0.013255668 0.07137804 0.10980369 0.087152146
000160 ee be 2d bc 87 81 08 3d 80 da e5 3d 5f 6e 45 3d
       -0.010604603 0.033326652 0.11223316 0.04820096
000170 8a 30 1f bd 23 80 57 3d 11 8d 11 bc e0 34 65 3d
       -0.03886465 0.052612435 -0.0088837305 0.05595863
000180 85 c2 d3 3c cd c6 43 3d fb d3 26 3d ca 93 fc 3b
       0.02584959 0.047797013 0.040729504 0.0077080475
000190 23 64 19 3d 28 a8 5a 3b 30 4a 27 bd 9f c6 2e bd
       0.037449013 0.003336439 -0.040842235 -0.04266989
0001a0 d1 10 28 bd 34 6e a7 3c 5b 56 91 3d ce 90 56 3d
       -0.041031662 0.020438291 0.07096549 0.05238419
0001b0 dd 1a 73 3d 4c 0a 2d 3d 4d d7 09 3e 0b 17 c0 3d
       0.05935179 0.042246148 0.13461037 0.09379395
0001c0 76 3f 6d 3d af c8 a6 3c 7f a0 21 bc 59 f8 63 3d
       0.05792185 0.020359365 -0.009864925 0.055656765
0001d0 da c7 e5 bc 15 bf 44 bc c6 b7 97 3d 9b dd 30 bd
       -0.028049398 -0.012008448 0.07408099 -0.04318009
0001e0 df f7 89 3d 26 66 a9 3d 62 23 04 3e 24 ee 15 bd
       0.06736731 0.082714364 0.12904122 -0.03660406
0001f0 2a a5 0f bd f6 d4 1a 3c 1a 90 9f 3d 9e 4e 98 3d
       -0.035069622 0.009450188 0.07791157 0.0743687
000200 d0 d0 7f 3d 01 a6 1a 3e d3 8a 2c bc 6d ce 80 3d
       0.062455 0.15102388 -0.010531145 0.062893726
000210 50 b8 0b 3d f0 ac 0f 3e 5c 8c d1 bd 07 9c 8b 3d
       0.03411132 0.14030814 -0.102318496 0.06816869
000220 d8 f3 0a bd 28 dc c5 bd 64 b8 3d 3d 24 a5 85 bd
       -0.033923954 -0.09661132 0.046318427 -0.06525639
000230 80 eb 7d 3d cd 6e 16 bb 65 89 ba 3c 12 51 1b 3d
       0.06199217 -0.0022954226 0.022770593 0.03791911
000240 8a e9 92 bc 82 f7 c2 3d 21 b7 4a bd d5 4f 62 bd
       -0.017933626 0.095198646 -0.04949105 -0.055251915
000250 ae b0 60 bd c0 76 4c 3d 0d 55 37 be e9 e9 88 3d
       -0.054855995 0.049917936 -0.17903538 0.0668524
000260 d8 92 de 3d 70 4c 3f bd 39 4b 60 3c 8f 98 c4 bd
       0.10867852 -0.046703756 0.0136898095 -0.09599411
000270 85 4c 07 bd 29 49 e4 3c fa 98 a8 3c 30 31 8a bd
       -0.03303196 0.027866917 0.020580757 -0.06747663
000280 ac 8c be bb 40 cb 39 bc 49 d4 85 bd 07 b9 97 3d
       -0.0058151092 -0.0113399625 -0.06534631 0.07408338
000290 3d df 08 bd 29 82 51 bd e5 b3 de 3d 9c 45 88 3d
       -0.03341602 -0.05114952 0.10874156 0.06653902
0002a0 8c 70 fe bc 0e 20 bb 3c bf bc f8 3c f4 6f 44 3d
       -0.031059526 0.022842433 0.030363439 0.04795833
0002b0 c7 9a bd bd 74 44 8c bd 2a 6b 88 3c af 4f 5f 3d
       -0.09258037 -0.06848994 0.016652662 0.05451935
0002c0 60 4d bb bd 32 83 3b 3d 19 85 0f be c3 8d 8a 3d
       -0.091456175 0.045779414 -0.14015616 0.0676532
0002d0 7d c7 ec 3a 0b fe 05 bd 98 7f 38 bd 28 1e 88 3d
       0.0018064823 -0.032712977 -0.045043558 0.06646377
0002e0 24 2e 4f 3d ef 8b 4b 3b 84 72 d1 bc eb ec 8a 3d
       0.050581113 0.0031058749 -0.0255673 0.0678347
0002f0 0a 64 23 bc 79 9f 67 3d 80 ee d9 bc 48 b4 1c 3b
       -0.009972582 0.05654857 -0.026602983 0.0023911167
000300 49 33 09 bd d3 e3 bd bd a6 5c 20 bd 45 e4 25 bc
       -0.033496175 -0.0927197 -0.039150856 -0.0101252245
000310 63 6c a2 bd 7b 34 71 3d f3 99 98 3c 1e da 07 bd
       -0.079308294 0.05888794 0.018628096 -0.033166997
000320 98 e7 b4 bd 73 47 a5 bc 90 46 16 bd a1 5f 71 bc
       -0.088332355 -0.020175671 -0.036688387 -0.014732272
000330 0d 5e ac bd d7 72 10 3c 22 df 10 3d 3b 4b d2 3d
       -0.08416376 0.008816442 0.035369046 0.10268255
000340 88 fa 8e bd 1d 49 88 3d 25 a1 ae bd 28 88 f5 3c
       -0.06981379 0.0665457 -0.0852683 0.02997215
000350 f9 79 cf 3b 9e 6e a3 bd 10 8e b5 3d 1c b0 d3 bc
       0.006331679 -0.07980083 0.08864987 -0.025840811
000360 5d ca 78 bc fd e0 fe 3c 75 c6 44 3d 74 94 0a 3c
       -0.015184966 0.031113142 0.048040826 0.008458246
000370 57 69 04 3d 0d 4a c5 bc b6 ec 14 3d a9 35 82 bd
       0.032327022 -0.024083162 0.036358558 -0.06357891
000380 fd f3 2d 3e fc 84 65 bd a1 c7 97 ba 1b 52 f7 3d
       0.16987605 -0.056035027 -0.001157988 0.12076207
000390 e3 2b 54 bd e7 d5 82 3d ac 18 a5 3d bf 39 27 bc
       -0.051799666 0.06388455 0.080613464 -0.010206639
0003a0 e5 96 47 bc e6 33 c6 bd 9f 44 67 3d 8c 03 81 3d
       -0.012181972 -0.096778676 0.056461927 0.06299505
0003b0 23 bd ad bd 53 46 b0 bc f5 fb 5d 3d ed cf fb bc
       -0.084833406 -0.021517908 0.054195363 -0.030738795
0003c0 a7 d5 3a 3e 28 bc 82 bb 2f 92 8b bd ce 4e 8e 3d
       0.18245564 -0.003989715 -0.06814992 0.069486246
0003d0 21 7f f1 3d 9f 31 82 3d 9d 4e 5b 3d 46 4f bd 3c
       0.11791826 0.06357121 0.05354177 0.02310909
0003e0 17 66 e8 bd d0 d9 44 3d 0c 0b e2 3c 7d df 85 bd
       -0.11347597 0.048059285 0.027593158 -0.06536768
0003f0 7e be 8e bd a9 b8 a9 3d 18 1c 8c bd 96 78 f8 3c
       -0.06969927 0.08287174 -0.06841296 0.030330937

fc3.bias f4 [128]
000000 17 fe 03 3e c4 dd a3 3d 3a 01 a7 bd 67 37 71 3d
       0.12889896 0.08001283 -0.08154531 0.058890726
000010 2c d9 e9 3d 47 e7 92 3d 56 6b 61 bb 6b a8 e1 3d
       0.114183754 0.07173019 -0.0034396253 0.11018451
000020 0f bc da 3d e5 70 8f bb 4a fb c6 3c 76 ca 88 3d
       0.106804006 -0.0043774717 0.024289746 0.06679241
000030 68 d0 28 bd 87 0c 9d bd ed 88 c1 bd bb ea f2 3c
       -0.041214377 -0.07668405 -0.09449945 0.029652944
000040 6b 4b de bc 92 b5 f4 3d 91 e4 d6 bd 79 a9 06 3d
       -0.027135571 0.11948694 -0.10492814 0.032876465
000050 cd 7c da bc 42 21 21 bd 0d ae 1a 3d e7 97 9a ba
       -0.026670838 -0.039338358 0.037763644 -0.0011794538
000060 20 f5 f6 3d b2 20 5d bd 34 6b 6c 3c 5d da c5 bc
       0.12058473 -0.05398626 0.014429856 -0.024151975
000070 4d 1b 58 bd 55 21 1b 3d 5f 65 21 bd 57 ff d3 3c
       -0.05276041 0.037873585 -0.039403316 0.025878591
000080 67 10 df 3d 19 67 9e 3d 0d 76 f9 bb 81 6b 5d bd
       0.108918004 0.07734508 -0.0076129497 -0.0540576
000090 1f ba 68 bc 44 d8 0e bd 33 ed 95 bd a4 ef 79 3b
       -0.014204531 -0.034874216 -0.07320633 0.0038137222
0000a0 4e 94 cf 3d 1a 8a eb 3d d1 2d 2f 3d fd 2b 9c bd
       0.10135709 0.1150095 0.042768303 -0.076255776
0000b0 b8 f4 a3 3d 70 15 01 3d 80 9b 9c 3d 1a fb 86 3d
       0.08005661 0.031514585 0.07646847 0.065908626
0000c0 32 71 b5 bd da f1 1d 3c c6 f6 8f 3d 17 67 12 3a
       -0.08859481 0.009640181 0.0702949 0.00055848196
0000d0 d0 1b 24 bc bf fa ae bd 00 05 71 bb b9 59 d3 3d
       -0.010016397 -0.0854392 -0.0036776662 0.103198476
0000e0 00 df dd bb 39 fe 35 bd e5 a0 75 3c 13 89 a6 bd
       -0.0067709684 -0.0444319 0.0149919735 -0.081316136
0000f0 ae c0 50 3d 36 71 38 3d c3 e1 e3 3c 8a aa 08 bd
       0.050965004 0.04502984 0.027817613 -0.033365764
000100 b9 d3 3d 3c 5f a7 37 3d 8d 4b 5a 3d 3c 11 d4 3d
       0.011586123 0.044837352 0.053294707 0.1035485
000110 92 b3 02 3d 81 04 fb bb 09 61 35 3d e5 97 00 bc
       0.031909533 -0.007660449 0.044281993 -0.0078487145
000120 d3 4b 81 bd f8 4a 61 3d f5 61 a3 bd 70 d1 00 3e
       -0.063132904 0.055003136 -0.07977668 0.12579894
000130 27 08 80 bc db 16 1e 3d 9b 4c 80 bd 39 45 94 bd
       -0.015628887 0.038596015 -0.06264611 -0.07239766
000140 86 65 02 3e 29 d6 f4 3c 1c 3a a4 bd 5d ed e0 3d
       0.1273404 0.029887276 -0.08018896 0.109827735
000150 2c 86 6e bd 7e f1 93 bb 7a c4 0f 3d 6f 5b 46 3d
       -0.058233425 -0.004514872 0.035099484 0.04842704
000160 b4 09 6b 3c b9 c9 c1 bd 7d d0 52 bd 2b c6 4c bd
       0.014345575 -0.09462304 -0.05146836 -0.049993675
000170 a5 00 32 bd 65 b8 65 3c 95 d1 f5 bb e1 77 c4 3d
       -0.043457646 0.014021014 -0.0075017908 0.095931776
000180 d1 83 8d 3c 6d d2 ee 3c a9 1b f5 bc 90 ee e7 3d
       0.017274769 0.029153073 -0.029920416 0.11324799
000190 19 89 99 bd 9f 4d fb 3d 05 65 09 3d 05 e6 3f bd
       -0.074968524 0.122706644 0.033543605 -0.046850223
0001a0 3b ee 57 bd 84 16 de 39 50 e3 0a 3e a9 6e fd 3d
       -0.05271743 0.00042359915 0.13563275 0.123746224
0001b0 41 57 94 3c a7 47 1f 3d 0c eb 7a bc da 72 28 3d
       0.018108012 0.038886692 -0.015314829 0.041125156
0001c0 f4 3b 67 bd c1 6a 1b bc d8 b6 c5 bc cf 19 03 bc
       -0.05645366 -0.009485901 -0.024135038 -0.008001759
0001d0 49 dd 82 3c 31 d2 40 bd 41 d5 c1 3d 80 8f 82 3d
       0.015974658 -0.047075454 0.09464503 0.06375027
0001e0 92 47 ab bd 1d 24 2a 3d 9e a7 0b bd dd f0 b9 bd
       -0.0836326 0.041538347 -0.0340954 -0.09079144
0001f0 32 b6 81 3d 9f 29 80 3d 4c 3d e4 3b fa fb f0 3d
       0.06333579 0.062579386 0.006965315 0.11766811

fc4.weight f4 [2, 128]
000000 db 6c f7 bd b9 87 08 3e 20 3b 99 3c 37 c0 b4 3d
       -0.120813094 0.13333024 0.01870495 0.088257246
000010 5c 39 dd bd c8 33 a2 bd da e8 8b 3d 45 19 5a bd
       -0.10801956 -0.07920033 0.06831522 -0.053246755
000020 48 81 ea bd 22 96 98 bd 20 75 28 3e 9b f1 0f be
       -0.1145044 -0.074505106 0.1645093 -0.14057009
000030 41 55 93 3d 40 e6 73 3d f1 98 90 bd a4 f5 fa bd
       0.07193995 0.059545755 -0.07060421 -0.122538835
000040 e9 19 e4 3d c2 81 b4 bd f1 32 5a bd 72 b0 18 3c
       0.111377545 -0.08813812 -0.053271238 0.009319412
000050 d5 6b d0 bd 87 ce 4e bd 85 21 af bd d5 83 e4 3d
       -0.10176817 -0.05048993 -0.08551315 0.111579575
000060 2a 99 e7 bd a5 00 f3 bb 03 a6 40 be ab 2a e3 3d
       -0.113085106 -0.0074158483 -0.18813328 0.11092123
000070 f7 0e c5 bd 7c 5f 17 be b7 c7 c3 3d e3 dc 13 3e
       -0.09621995 -0.14782518 0.09559577 0.1443973
000080 9e ce 95 bd b2 96 09 bc 41 ec 9c bd 9e d9 af 3c
       -0.073148 -0.008397745 -0.07662249 0.021466073
000090 cf f5 ae 3d 4b cf c1 3d e2 01 4b bd 1c 65 90 be
       0.08542978 0.09463366 -0.049562342 -0.2820214
0000a0 b2 48 c1 bd 4f 3d 4b be b8 fb 9c bd 5a 00 6e 3b
       -0.09437694 -0.19847606 -0.07665199 0.0036316128
0000b0 53 c7 b5 3d 04 a9 91 bd a5 02 a5 bd f0 7b c7 bd
       0.08875909 -0.07112315 -0.08057145 -0.09740436
0000c0 1e 06 c5 bc 1a 7d 8e 3d 41 f3 3a bd 0e 42 0c ba
       -0.024050768 0.06957455 -0.04564214 -0.0005350419
0000d0 06 02 03 3e 09 d9 81 3d 2b bc 01 3b f8 e1 83 bd
       0.1279374 0.06340224 0.0019795995 -0.064395845
0000e0 b3 54 43 be b1 27 0d be 30 1f 12 3d 4a ca 7a bd
       -0.19075279 -0.13784672 0.035674274 -0.061228074
0000f0 21 f7 96 3d 13 78 87 bc c0 ec 4a bd 81 d1 4e bb
       0.07371355 -0.016536748 -0.04954219 -0.003155798
000100 cf 50 03 3e 8d b5 8e bd e2 a9 c3 bd 31 11 95 bd
       0.12823795 -0.06968222 -0.09553887 -0.072786696
000110 27 7a f3 bd 0d d7 e6 3d e3 b7 00 be 1c 5f e9 bd
       -0.11888533 0.112714864 -0.12570147 -0.11395094
000120 34 11 8a 3d 1c a0 a4 3d dd 1d 9e bd 2e 6a 13 be
       0.067415625 0.08038351 -0.0772054 -0.14395973
000130 80 ad 18 be b6 a4 14 be 33 e6 d1 3c b3 74 8e bd
       -0.14909935 -0.14515957 0.025622463 -0.06955852
000140 19 df e5 bd 52 42 e3 3d aa 18 08 3c 09 e4 b3 bd
       -0.11224193 0.11096634 0.008306662 -0.08783729
000150 5b cf cd bd db a7 0d 3e 32 07 f6 bd 1d b0 3b bd
       -0.100493155 0.13833563 -0.12013091 -0.04582225
000160 58 ad 92 3d 88 75 86 3d 72 01 b5 bd 2f 5a 95 3d
       0.07161969 0.06565386 -0.08838166 0.07292592
000170 ca bf ed bd 54 24 cc 3d 59 29 8b 3c 84 fb 89 bd
       -0.116088465 0.099678665 0.01698749 -0.06737426
000180 23 45 5b bd 55 ef 08 be 73 e1 23 3d b6 a4 c2 bd
       -0.05353273 -0.13372548 0.040009927 -0.09504072
000190 81 e0 82 3d 4e 61 d1 bd 70 e2 18 be 89 08 1b be
       0.06390477 -0.102236375 -0.14930129 -0.15139975
0001a0 a9 83 7a 3d 44 ee c2 3d fb 94 37 be c7 b1 7a be
       0.061160717 0.09518102 -0.17927925 -0.24481879
0001b0 52 01 1d be fa 2d 3a bd 6f ba 27 bd b8 26 18 be
       -0.15332535 -0.045454003 -0.04094928 -0.1485852
0001c0 1d f9 a9 3d 44 a6 03 be d6 37 ab bc d3 1e 3a bd
       0.08299468 -0.12856394 -0.020900648 -0.045439553
0001d0 9d 0e 01 3e d3 7f 81 bd 42 90 a8 bd 35 1c 88 3d
       0.12603231 -0.06323209 -0.0823064 0.06646005
0001e0 d4 64 ec bd ff 14 6a 3c a1 aa c2 3b eb 6a 91 3d
       -0.11542669 0.014287232 0.0059407507 0.07100471
0001f0 c6 b0 ee bd 9f 59 c0 3d c4 7c 06 be 65 38 d5 bd
       -0.116548106 0.09392094 -0.13133532 -0.10411147
000200 0a b7 dd bd 3c 74 06 3d a3 db 47 3c 2e 36 a4 3c
       -0.108259276 0.032825693 0.012198362 0.020045366
000210 55 af 98 bd 1a 0b 92 bd 01 3a 5b bd 44 82 aa bd
       -0.07455317 -0.07131024 -0.053522114 -0.083256274
000220 16 2c 41 be 26 b2 52 be 27 26 e9 3d 84 26 de bd
       -0.18864474 -0.2057577 0.1138423 -0.1084719
000230 1b 45 4c 3d c5 f1 e2 3c e4 99 29 3e c7 0e 32 be
       0.04987059 0.027703175 0.16562611 -0.1738845
000240 a8 1b 12 bc 61 86 20 be e7 76 c5 3d 9d 55 b0 bd
       -0.008917727 -0.15676261 0.096418194 -0.086100794
000250 0f 9e fa 3d 4f ba 0f bd 00 15 c0 bd 42 0b 7c bc
       0.122371785 -0.035089787 -0.093790054 -0.015383543
000260 cb f1 e1 bd 72 9e 92 bc 33 a5 24 be 1e 8d 45 3d
       -0.110324465 -0.017897818 -0.16078644 0.048230283
000270 e9 4b a4 3d 67 2b 2e 3d 45 98 5d bd 6a 79 e1 3d
       0.08022291 0.04252186 -0.054100294 0.11009486
000280 a5 32 11 be 4f 4d b2 bd d7 07 6f 3e a4 25 0f 3b
       -0.14179476 -0.08706152 0.23342834 0.0021842504
000290 39 32 ef 3d 58 31 1a 3d 7c 91 1c 3d 0f fe 50 be
       0.11679501 0.037644714 0.038224682 -0.20409416
0002a0 f5 7b 86 bd e7 26 56 be fb d9 7f 3d 46 f1 0c 3c
       -0.06566612 -0.20913278 0.06246374 0.008602446
0002b0 32 2c 43 bd 85 cc a2 bd dc 94 3e bb 0a 27 9a bd
       -0.04764957 -0.07949165 -0.0029080426 -0.07526977
0002c0 9d 7e 13 bd 14 68 d0 3c 3a c5 ac bd e5 81 10 be
       -0.03600942 0.025440253 -0.084360555 -0.14112051
0002d0 07 76 c6 3d fb 51 f4 3b 6e 18 8b bd 6a 1f 35 be
       0.09690481 0.007456062 -0.06791769 -0.17687765
0002e0 23 42 db bd d6 1c ad 3d a7 ea ba bd cd 82 97 3d
       -0.10705974 0.08452766 -0.09126788 0.07397995
0002f0 d5 14 3f 3d 2f ca 45 be 33 4d 9d bd 66 9b 11 3c
       0.046650726 -0.19315408 -0.0768074 0.0088871475
000300 0c 1c 10 3e 85 3e 7a bd 75 6d 07 be ec af 20 bd
       0.14073199 -0.06109478 -0.13225348 -0.039230272
000310 8d f3 9e bd 94 99 dc 3d 3a 42 d8 3d d9 4d b3 3c
       -0.077612974 0.1077148 0.10559507 0.021887707
000320 b3 a3 b4 3c ac 09 fb 3d 8f 24 a0 bd 54 c4 0c be
       0.022050714 0.12257704 -0.07819473 -0.13746768
000330 d9 88 89 3c b6 a4 c5 bd 26 cc 77 3d c0 9c 3f be
       0.016788887 -0.09650557 0.060497425 -0.18712139
000340 7d f2 a8 bd 73 fa 8b 3d 79 e6 4c 3d ed 4e 27 be
       -0.08249376 0.06834879 0.050024483 -0.16338702
000350 49 5c bb 3d 6b 76 a8 3d d8 2e dd bc 44 10 97 bc
       0.09148461 0.082257114 -0.026999876 -0.018440373
000360 d7 19 e1 3d 5d 51 e7 3b d0 45 f1 3c 4b e7 54 bd
       0.10991257 0.00705926 0.029452235 -0.05197839
000370 b5 06 da bd e5 da 77 3d 08 b3 29 3e ab e3 bf bc
       -0.106458105 0.06051149 0.16572201 -0.02342399
000380 37 da a3 3d 2a e2 52 be 21 9c fe bc be ba 16 be
       0.080006056 -0.20594087 -0.031080307 -0.14719674
000390 fd a7 b6 bc 6b 92 a6 bd 6a 17 58 3d 2a 3d f3 3d
       -0.0222969 -0.08133396 0.052756704 0.118769005
0003a0 4f 7b 56 bd da b8 35 3e 57 eb 34 be 31 91 2d be
       -0.05236369 0.17746297 -0.176679 -0.16949917
0003b0 29 d1 79 3e 70 7f 13 be 9d da 0a bd d7 fe 8f bd
       0.24396195 -0.14404082 -0.033899892 -0.07031029
0003c0 6c 05 25 3e 1a 9b 6a 3d 93 3e 77 bd f9 2f 75 ba
       0.1611535 0.057276823 -0.06036241 -0.0009353157
0003d0 b3 94 6c 3d 02 a7 29 3d b5 04 56 bd 32 af 9f 3a
       0.057758998 0.041419037 -0.052250583 0.001218295
0003e0 b8 cb 72 3e 21 a2 35 be 7f d8 43 bb 74 35 50 3d
       0.23710525 -0.17737629 -0.002988368 0.050832227
0003f0 14 3d 93 bd 66 3f 06 3e a4 f4 3d bd da 4f 5e bd
       -0.07189384 0.13110122 -0.046375886 -0.05427537

fc4.bias f4 [2]
000000 27 14 a3 bd 1e f2 10 3d
       -0.07962828 0.03538715

fc1.weight f4 [128, 7]
000000 03 95 90 3e ab 8a c8 be f4 09 33 3e c6 c6 69 3e
       0.28238687 -0.39168295 0.17484266 0.22829732
000010 8b 29 68 be a3 d9 2a 3e b7 a8 67 3e 96 00 a8 3d
       -0.22672097 0.16684584 0.22622953 0.08203237
000020 94 2e 96 3e 20 a8 47 bd 50 1e 83 3e 8b 74 ac 3d
       0.2933241 -0.04874432 0.25609064 0.08420666
000030 34 df bf 3d 0e 58 19 3e f8 8b b6 be 8a de dd 3d
       0.093687445 0.14974996 -0.35653663 0.108334616
000040 f5 60 1f be 14 69 b6 be ee 36 95 be 0e 18 0e bd
       -0.1556433 -0.35627043 -0.2914347 -0.03469091
000050 59 36 e8 3c 40 a9 91 be 76 11 8b 3e df dc 41 3d
       0.028346227 -0.2844944 0.2716176 0.04732978
000060 67 46 52 3c 38 9a 05 be 4e e4 8a 3c 85 1a c4 3e
       0.012834168 -0.13047111 0.016954567 0.38301483
000070 8d 52 c7 bc 22 b1 aa 3e d1 4f f2 be ab 94 b1 bc
       -0.024331355 0.33338267 -0.4732652 -0.021677336
000080 3d 1a b1 be eb c7 43 3e d7 e5 b5 3e 42 c5 a2 3c
       -0.3459033 0.19119231 0.35526916 0.01986945
000090 48 7a 0f 3e 5d db 79 3e 86 ff 91 be f3 67 9e 3d
       0.1401149 0.24400087 -0.2851526 0.077346705
0000a0 13 53 ad be 1e 7d cb bd 6a 78 06 3e 5f 59 85 be
       -0.33852443 -0.099359736 0.13131872 -0.26044747
0000b0 3d 31 02 3e 1e a0 6b be bb 1b 0c be c3 e7 ba be
       0.12714095 -0.23010299 -0.13682453 -0.36504945
0000c0 9c 78 69 be 63 5e a6 3c 71 01 06 3e b4 c4 aa be
       -0.22799915 0.020308679 0.13086487 -0.33353198
0000d0 64 a1 a8 be 8a cd 0f 3e 8b 20 4e 3e f2 34 b5 3e
       -0.3293563 0.1404325 0.20129602 0.35391957
0000e0 65 3d 07 be af 60 2a 3e 9d 12 d5 3e e0 8e 19 3e
       -0.13207014 0.16638444 0.41615763 0.14995909
0000f0 01 bb 91 be 3a 7c d0 3e 58 98 2f 3e 9a 79 30 be
       -0.28462985 0.40719777 0.17147958 -0.17233887
000100 0a 05 99 be 48 3f 91 3e 8f 4a b1 bd 60 63 69 be
       -0.29886657 0.28368592 -0.08656799 -0.22791815
000110 33 bb 49 be 6b 18 fa 3d ad bd 28 3e 2f ac c8 3e
       -0.19700317 0.122116886 0.16478606 0.39193866
000120 b6 60 55 bd dd f8 b3 3e ae 71 c5 3e dd c7 4d bd
       -0.052094184 0.35150805 0.38563293 -0.050239433
000130 07 2f d3 be 6e 6e d0 3d 06 de 2c bd 6c 52 0f 3d
       -0.41246817 0.10177313 -0.042203926 0.034990713
000140 2e 3e 63 be b9 0e 39 bf ba d8 d3 3e b1 13 8e be
       -0.22191688 -0.7228809 0.41376287 -0.27749398
000150 9c b8 21 3e cf 95 bc be bc ec b5 3e 17 d3 36 be
       0.15793079 -0.36833045 0.35532176 -0.17853962
000160 11 3f b5 3e 26 1a 8d be 09 c7 42 bd 45 cd 9b 3e
       0.35399678 -0.27559012 -0.047553096 0.30430046
000170 7f b2 a3 3e dd 30 58 be cc 63 8e be 10 7c 97 3e
       0.3197212 -0.2111239 -0.27810514 0.2958684
000180 46 72 29 3e 23 e0 26 be 6f 1f 3e 3e 27 10 a8 be
       0.16547498 -0.16296439 0.18566678 -0.32824823
000190 e0 54 01 be 53 ee 06 be 6b c8 2e 3d 4d a0 c5 3e
       -0.12630033 -0.13176851 0.042671602 0.38598862
0001a0 f3 60 f1 bd da d8 d0 3d ac 98 0d be 5e fe 86 3e
       -0.1178607 0.10197611 -0.13827771 0.26365942
0001b0 cc 96 4b 3e dd 38 ff bd 0d 6f bd 3e 68 8d 44 be
       0.19881743 -0.12462018 0.36998788 -0.19194567
0001c0 62 be 50 3d f2 30 62 3e 1f 81 b4 bd e0 61 d1 be
       0.050962813 0.22088984 -0.088136904 -0.40894985
0001d0 c9 e5 01 3d 92 e7 77 be d6 ca 7e 3e 83 4d f3 3e
       0.03171328 -0.24209431 0.24882063 0.47520074
0001e0 54 dd 41 3e 8b 3e 99 3e c7 1f 56 be 06 1f bc be
       0.18932086 0.2993053 -0.2091056 -0.3674242
0001f0 6f 27 ec 3d 91 d3 55 be 0a 2e d0 3d 4f 8f ed bd
       0.11530959 -0.20881487 0.10165031 -0.115995996
000200 7e fc 21 bf 89 2c b7 3d 67 c1 f1 ba 1a a3 bf be
       -0.632759 0.08944041 -0.0018444479 -0.37429124
000210 2e 55 c8 3d 06 10 92 3b fc 20 81 be e7 ed 0b be
       0.09781872 0.0044574765 -0.25220478 -0.13664971
000220 70 c0 00 3e 55 bb 98 be 2e 75 3e be 0b d3 2f be
       0.12573409 -0.29830423 -0.18599388 -0.1717035
000230 aa 2d 43 be 0c dc 3a be d0 d3 3e 3e 1e e2 d1 bd
       -0.19060388 -0.18248004 0.18635488 -0.102482066
000240 16 16 8c be b0 d5 76 3e ac 11 a7 be cb 7e 38 be
       -0.273606 0.24104953 -0.3263067 -0.18017118
000250 6f b2 aa bd b3 9c 9d be bf f7 e9 bc 55 04 8e be
       -0.08334815 -0.30783615 -0.028560517 -0.2773768
000260 17 b7 de 3d 4e 8c 06 be d9 37 42 3e bd c4 a8 3e
       0.10874765 -0.1313946 0.18966617 0.329626
000270 d9 39 3e be 3b e5 00 be 31 8e 1c be 13 1d f2 bd
       -0.18576755 -0.12587444 -0.15288617 -0.11821952
000280 59 f3 84 3e d9 cd f2 be 01 ea 23 be 63 56 c0 bd
       0.2596691 -0.47422674 -0.16007234 -0.09391477
000290 08 57 1b 3e 4b 6e ac 3e b4 7e 91 3e 32 55 e6 be
       0.15169919 0.33677897 0.2841698 -0.44986874
0002a0 45 d5 fa 3d f6 01 c0 be d9 0c 75 be cf c3 bb 3d
       0.12247709 -0.37501496 -0.23930682 0.09168207
0002b0 ab 41 05 3e 53 3e 0c 3c ac 56 4f 3d 8a f3 5d 3d
       0.13013332 0.008559781 0.050619766 0.054187335
0002c0 b7 8f 21 3d 2d c1 f3 be fd fc 6d be 61 15 e7 bc
       0.039443698 -0.4760832 -0.23241039 -0.028208436
0002d0 20 bc c1 be c3 22 23 3e f8 54 e6 3d 23 0c d4 3d
       -0.3783884 0.1593123 0.11246675 0.103538774
0002e0 02 5d 75 be a0 8d 17 3e 6c 31 91 3e 52 74 95 3e
       -0.23961261 0.1480012 0.28358018 0.29190308
0002f0 a5 31 10 be 50 c8 96 bd 0a 4a 8a be ec 90 cb 3e
       -0.14081438 -0.07362425 -0.27009612 0.39759004
000300 c0 ce 7e be 82 e2 a3 be f9 e2 dd 3c 4f 31 53 be
       -0.24883556 -0.3200875 0.027085768 -0.20624278
000310 8b 8f 80 3e e2 d1 3a 3e 00 15 ad bd e6 25 3c bc
       0.25109515 0.18244126 -0.08451271 -0.011483645
000320 dc c7 51 be 53 c2 f4 3d 69 32 21 3e 2b 9d 9b be
       -0.20486397 0.11951127 0.15741886 -0.30393347
000330 47 18 3c be e5 0d 8b 3e 26 19 4d be a3 19 d1 3e
       -0.18368636 0.27159038 -0.20029125 0.40839872
000340 64 34 33 be 3f 2c 34 be 73 af b8 be a3 49 ae 3e
       -0.17500454 -0.17595004 -0.36071357 0.34040555
000350 5d 1c c1 be 06 a1 18 bd 9e 71 73 3d ff 07 d5 3d
       -0.37716952 -0.03726294 0.059434526 0.10401916
000360 63 7f 54 be 57 df b1 bd 54 26 31 be df d8 52 bd
       -0.20751719 -0.08685177 -0.17299777 -0.051476356
000370 49 6c 18 be 77 61 ba be 65 96 3a 3e 0e 2e 52 be
       -0.14885058 -0.36402485 0.18221433 -0.20525381
000380 bd 22 49 be 74 55 83 3e d2 ce 1b bf c1 a4 74 3e
       -0.19642158 0.25651133 -0.6086246 0.23890974
000390 78 f4 9b 3e ab a2 1d 3e a3 21 da 3d 33 b6 5f 3e
       0.30459952 0.15394084 0.10650947 0.21846847
0003a0 ed 9c 19 bd fa ca 05 bf e2 f1 c1 bd db 87 b4 3e
       -0.03750317 -0.5226284 -0.094699636 0.352599
0003b0 13 cb 08 bc 1e 87 a4 3e dc dc 44 bd aa b7 c6 bd
       -0.008349198 0.32134336 -0.04806219 -0.09703
0003c0 4c b2 19 be aa 88 e7 bd 97 23 8c be 80 ef ea bd
       -0.15009421 -0.113053635 -0.27370903 -0.11471462
0003d0 4d ae eb 3e 62 bc 87 3e e7 59 e2 3e 6a 5a 9a bd
       0.46031418 0.26510912 0.44209215 -0.07536776
0003e0 a5 e9 81 3e a7 39 7f 3e 37 16 aa 3e eb 9e 9b 3e
       0.2537357 0.24924336 0.33220074 0.30394682
0003f0 38 b9 8e be 64 ec a6 3e 4f cd a1 3e f2 0e 90 3e
       -0.27875686 0.32602227 0.3160195 0.28136402

fc1.bias f4 [128]
000000 a2 70 8b be 01 4a 71 3d ad 3f d3 3d 00 4d cb bd
       -0.2723437 0.058908466 0.103148796 -0.09926796
000010 8d 5b a9 3e 33 07 ae be 40 72 20 3d 8d 61 52 3e
       0.3307766 -0.33989868 0.039171457 0.20545025
000020 c4 5f 3c bc 5b e1 7f bd 5f b4 30 3e be 40 a1 3d
       -0.011497442 -0.062470775 0.17256306 0.07873677
000030 50 c3 c4 be 15 d1 88 bd 02 a1 6d be af f7 8a be
       -0.38430262 -0.06680504 -0.23205951 -0.27142093
000040 6b cb 04 be 27 91 90 be d2 c1 79 3e 9b 05 88 3d
       -0.12968223 -0.28235742 0.24390343 0.06641694
000050 2c 60 5e be 27 3f 9a bd 01 f4 68 3e 50 0d 3c 3d
       -0.21716374 -0.075315766 0.2274933 0.045911133
000060 76 de ca bd 9b 76 66 3e c3 50 ab 3e c6 1a b2 3e
       -0.09905712 0.22506182 0.33460054 0.34786052
000070 67 64 6d 3d 87 ea 72 3e f7 4f 61 be 0e 75 b1 be
       0.05795708 0.23722278 -0.2200316 -0.34659618
000080 4a f6 97 bc eb 5f c2 3d 18 9c 22 3c 50 ca ad 3e
       -0.018550057 0.09490951 0.009924911 0.33943415
000090 76 77 8c 3e 42 ad 51 3e 59 c8 51 3d 53 ec 5a 3c
       0.2743489 0.20476249 0.051216457 0.013362008
0000a0 eb 72 a7 3e 19 95 90 3e 7e b9 5d 3c 6e 29 ce 3e
       0.32704863 0.28238752 0.013532994 0.40265983
0000b0 13 92 c4 bd 95 47 6a 3e 79 39 63 3e ec 79 60 3d
       -0.09598174 0.22878869 0.22189893 0.054803774
0000c0 62 3d a9 be 5f 05 05 3e 6d 0a 8f 3c 7f 08 bd be
       -0.33054644 0.1299033 0.017461026 -0.36920545
0000d0 d2 cf 51 be fc 15 dd be d0 e8 7a bd 08 79 b9 3d
       -0.20489433 -0.43180835 -0.061257184 0.09056288
0000e0 40 28 8d be f6 03 a7 be 90 c6 c0 be c7 72 ab 3e
       -0.2756977 -0.3262021 -0.3765149 0.33486006
0000f0 ff 0b e4 3d d0 bc 5b be 99 1c b9 bd e8 5e 8d bd
       0.111351006 -0.21458745 -0.09038658 -0.069028676
000100 a6 c2 ac bd d0 50 51 3e 84 6e 90 bd e1 d6 21 be
       -0.08435564 0.20440984 -0.07052329 -0.15804626
000110 5c 20 1a be 2d 3b d4 bd 20 c3 6c 3e 03 09 c7 3c
       -0.15051407 -0.103628494 0.2312131 0.02429629
000120 cd e2 2e be 6f 84 1d bc 46 30 11 3e f1 70 ad be
       -0.17078705 -0.009614094 0.14178571 -0.3387523
000130 53 32 4b 3e 5a 18 4d 3d 94 77 dd 3d b7 be 1b be
       0.19843416 0.05007205 0.10813823 -0.1520947
000140 c0 53 93 3e 5a ef e6 bd f7 ba 8e 3e 66 a7 9e be
       0.28774834 -0.112761214 0.27877018 -0.3098709
000150 27 2a ec bc 70 1d 9a 3e f2 45 2f be 2a 36 5c be
       -0.028828694 0.30100584 -0.17116526 -0.21505037
000160 7a 05 bc 3e b1 d5 83 3d 7c af 84 bd e4 8a 76 be
       0.36722928 0.06437243 -0.064787835 -0.2407642
000170 02 33 a8 3e a8 1a c3 3e dd 18 6e bd 2f 1d 57 3e
       0.32851416 0.38106275 -0.05812918 0.21007226
000180 14 8f ba be c4 52 a8 3e 35 2a f4 3d 4e 73 07 bd
       -0.36437285 0.32875645 0.11922113 -0.033068947
000190 9b 47 05 3e 52 1e b9 3e 4a f5 63 3e 41 8c 8f bd
       0.13015597 0.36155945 0.22261539 -0.07009173
0001a0 2b 1b 11 3e 06 e4 f7 bd 33 9d 56 be 82 80 94 3e
       0.1417052 -0.12104039 -0.20958404 0.29004294
0001b0 ed fe 80 3e 7f cf 8c be 34 9d 20 be e0 e6 98 3e
       0.25194493 -0.27502057 -0.15684968 0.29863644
0001c0 c7 a9 9b 3e 26 0a 5b 3e e2 71 b0 3e 37 de a9 be
       0.30402967 0.2139059 0.34461886 -0.3317735
0001d0 6b 4a 2c bb 8f 36 53 bd d8 02 8f 3e be e6 b1 bd
       -0.0026289474 -0.051565703 0.27931857 -0.08686589
0001e0 64 dd cb 3d a6 c6 6e bc 80 d7 3d be 29 5b be 3d
       0.09954336 -0.014573729 -0.18539238 0.09294731
0001f0 d6 e9 4e be c0 ab 51 be d3 ff 9e 3e 19 a4 94 be
       -0.20206389 -0.20475674 0.31054553 -0.29031447
