flappybird_dqn_ep300.pth (torch, 561729 bytes, 32 tensors)

fc1.weight f4 [128, 7]
0.2382596 -0.4958878 0.18675417 0.15616417 -0.2689456 0.15286852 0.20269942 0.061888922
0.3271694 0.011563077 0.25122893 0.082807675 0.065507255 0.14910586 -0.35653663 0.108334616
-0.1556433 -0.35627043 -0.2914347 -0.03469091 0.028346227 -0.24705803 0.17769407 0.0486792
0.099377654 0.05352741 0.08623506 0.41780543 -0.03802257 0.34876338 -0.5109795 -0.07366998
-0.39198342 0.19522211 0.39453256 0.01986945 0.1401149 0.24400087 -0.2851526 0.077346705
-0.33852443 -0.099359736 0.11721853 -0.26044747 0.11304816 -0.24420014 -0.15086071 -0.37914205
-0.24260342 -0.01935917 0.12222378 -0.33103928 -0.33867043 0.080916375 0.1770447 0.35897544
-0.13927484 0.16356328 0.39573914 0.115357034 -0.28985134 0.4063783 0.12166783 -0.17233887
-0.29886657 0.28368592 -0.08656799 -0.22791815 -0.19700317 0.122116886 0.14994675 0.36422312
-0.0313823 0.36317235 0.42776436 -0.06300603 -0.502073 0.1635389 -0.24774972 0.043744277
-0.19832757 -0.6240118 0.47953317 -0.20369844 0.15793079 -0.36833045 0.35532176 -0.17853962
0.35399678 -0.27559012 -0.047553096 0.31185943 0.3349816 -0.25429863 -0.2966819 0.31959867
0.14295276 -0.26227275 0.19820353 -0.29693556 -0.16515762 -0.15229432 0.0018615581 0.37179035
-0.15229893 0.14193243 -0.2444414 0.26488754 0.22649115 -0.106125005 0.43653092 -0.08534063
0.026615364 0.20008822 -0.10823795 -0.43455404 0.0053409827 -0.2675024 0.22211218 0.51842046
0.28188768 0.3156964 -0.18745312 -0.3638983 0.13484704 -0.1745185 0.110747956 -0.073370904
-0.84000236 0.080524735 -0.01005792 -0.38664144 0.12962575 0.012221608 -0.28084677 -0.23340905
0.17263412 -0.30450138 -0.1483398 -0.19308476 -0.19060388 -0.18248004 0.18635488 -0.102482066
-0.273606 0.24104953 -0.3263067 -0.18017118 -0.08334815 -0.30783615 -0.028560517 -0.2773768
0.10874765 -0.1313946 0.20196831 0.34996596 -0.25303683 -0.15040073 -0.1812028 -0.11056599
0.32703444 -0.49887228 -0.13934115 -0.08965037 0.18465257 0.30659306 0.26471296 -0.49708724
0.13258708 -0.33606145 -0.37843332 0.124145426 0.09471845 0.01860414 0.10589191 0.008890192
0.024632355 -0.9732881 -0.25710356 -0.023121811 -0.40257603 0.16599785 0.06414208 0.11949167
-0.2670347 0.12904254 0.2544358 0.24963646 -0.2870958 -0.019724052 -0.20379706 0.4085307
-0.29965863 -0.30752635 0.01533262 -0.14366627 0.26276132 0.14299783 -0.1252585 -0.057832796
-0.22204185 0.11312075 0.111891374 -0.32728323 -0.1878002 0.29040885 -0.11538735 0.46378034
-0.16592087 -0.20494157 -0.36071357 0.34040555 -0.37716952 -0.03726294 0.059434526 0.10401916
-0.20751719 -0.08685177 -0.17299777 -0.051476356 -0.14885058 -0.36402485 0.18221433 -0.20525381
-0.19052027 0.32543537 -0.71457446 0.2599295 0.25414813 0.13481535 0.13292518 0.20051235
-0.013304038 -0.49000174 -0.063925244 0.33104354 -0.01811776 0.35775462 -0.042020354 -0.055365708
-0.25114733 -0.09878436 -0.2792164 -0.14256032 0.49438056 0.20162661 0.4484784 -0.0593637
0.2739415 0.23236449 0.29434967 0.25863618 -0.3240579 0.3220161 0.35320714 0.2997226
00000000: 53fa 733e 01e5 fdbe 7c3c 3f3e 80e9 1f3e
00000010: 3db3 89be 9189 1c3e 7090 4f3e 3d7f 7d3d
00000020: bf82 a73e 0f73 3d3c 14a1 803e 1297 a93d
00000030: ab28 863d 35af 183e f88b b6be 8ade dd3d
00000040: f560 1fbe 1469 b6be ee36 95be 0e18 0ebd
00000050: 5936 e83c c8fc 7cbe 6ff5 353e d763 473d
00000060: 8386 cb3d 8f3f 5b3d 029c b03d 98ea d53e
00000070: 8ebd 1bbd 1d91 b23e 8dcf 02bf 49e0 96bd
00000080: 0db2 c8be 4ee8 473e 2c00 ca3e 42c5 a23c
00000090: 487a 0f3e 5ddb 793e 86ff 91be f367 9e3d
000000a0: 1353 adbe 1e7d cbbd 4510 f03d 5f59 85be
000000b0: cb85 e73d 9a0f 7abe 3b7b 1abe e81e c2be
000000c0: 086d 78be 1f97 9ebc 7650 fa3d fb7d a9be
000000d0: 3666 adbe 7cb7 a53d 354b 353e a1cb b73e
000000e0: 109e 0ebe 227d 273e 529e ca3e 4f40 ec3d
000000f0: 6567 94be d110 d03e fc2c f93d 9a79 30be
00000100: 0a05 99be 483f 913e 8f4a b1bd 6063 69be
00000110: 33bb 49be 6b18 fa3d a48b 193e 747b ba3e
00000120: ba8a 00bd baf1 b93e ee03 db3e 4e09 81bd
00000130: db87 00bf be76 273e 1ab2 7dbe 332d 333d
00000140: 6216 4bbe 3dbf 1fbf 5f85 f53e 5396 50be
00000150: 9cb8 213e cf95 bcbe bcec b53e 17d3 36be
00000160: 113f b53e 261a 8dbe 09c7 42bd 0aac 9f3e
00000170: b582 ab3e 6e33 82be b1e6 97be 70a2 a33e
00000180: 3562 123e 9d48 86be def5 4a3e f007 98be
00000190: 141f 29be 0bf3 1bbe 86ff f33a 4e5b be3e
000001a0: 40f4 1bbe bc56 113e d94e 7abe 579f 873e
000001b0: 4ced 673e 1158 d9bd fb80 df3e 11c7 aebd
000001c0: 7708 da3c ede3 4c3e dcab ddbd de7d debe
000001d0: 6903 af3b 13f6 88be 6071 633e 34b7 043f
000001e0: 9553 903e f5a2 a13e b6f3 3fbe e150 babe
000001f0: 5815 0a3e fab4 32be d3cf e23d 7c43 96bd
00000200: 650a 57bf 27ea a43d f9c9 24bc def5 c5be
00000210: 9dbc 043e 243d 483c 26cb 8fbe c802 6fbe
00000220: 00c7 303e 9be7 9bbe 63e6 17be 03b8 45be
00000230: aa2d 43be 0cdc 3abe d0d3 3e3e 1ee2 d1bd
00000240: 1616 8cbe b0d5 763e ac11 a7be cb7e 38be
00000250: 6fb2 aabd b39c 9dbe bff7 e9bc 5504 8ebe
00000260: 17b7 de3d 4e8c 06be c8d0 4e3e bd2e b33e
00000270: 0b8e 81be a602 1abe 3a8d 39be 6c70 e2bd
00000280: 0f71 a73e 306c ffbe 72af 0ebe 9d9a b7bd
00000290: 9015 3d3e c4f9 9c3e 7588 873e 3882 febe
000002a0: e8c4 073e 3f10 acbe 03c2 c1be f53f fe3d
000002b0: bffb c13d b667 983c dcdd d83d 2ba8 113c
000002c0: cbc9 c93c 6929 79bf 14a3 83be f469 bdbc
000002d0: 721e cebe 57fb 293e ec5c 833d 0cb8 f43d
000002e0: c6b8 88be ba23 043e 6945 823e b3a0 7f3e
000002f0: 38fe 92be 5694 a1bc 2db0 50be f02a d13e
00000300: db6c 99be 1874 9dbe ab35 7b3c 401d 13be
00000310: a788 863e 066e 123e c443 00be 15e2 6cbd
00000320: f05e 63be daab e73d 4e27 e53d ab91 a7be
00000330: b24e 40be 78b0 943e 3450 ecbd 9e74 ed3e
00000340: 29e7 29be 34dc 51be 73af b8be a349 ae3e
00000350: 5d1c c1be 06a1 18bd 9e71 733d ff07 d53d
00000360: 637f 54be 57df b1bd 5426 31be dfd8 52bd
00000370: 496c 18be 7761 babe 6596 3a3e 0e2e 52be
00000380: bf17 43be 779f a63e 5aee 36bf 7b15 853e
00000390: b41f 823e 090d 0a3e 8a1d 083e 1c53 4d3e
000003a0: 2ef9 59bc 82e1 fabe 3deb 82bd 8a7e a93e
000003b0: b26b 94bc 9d2b b73e 891d 2cbd 27c7 62bd
000003c0: 6296 80be 744f cabd 74f5 8ebe 55fb 11be
000003d0: 731f fd3e 3577 4e3e f69e e53e 5a27 73bd
000003e0: 0f42 8c3e f5f0 6d3e 00b5 963e f66b 843e
000003f0: ebea a5be 4bdf a43e 91d7 b43e 3e75 993e

fc1.bias f4 [128]
-0.32061622 0.037817717 0.29171702 -0.012596052 0.3252943 -0.33989868 0.26020873 0.16052902
-0.02164693 -0.062470775 0.17488118 0.13713843 -0.38430262 -0.052428443 -0.2401627 -0.24107069
-0.15539193 -0.24876495 0.2651839 0.20694277 -0.21716374 -0.075315766 0.24023283 0.025747653
-0.10977078 0.23902762 0.28891727 0.36255342 0.04874363 0.24751559 -0.2200316 -0.34659618
-0.037111405 0.082551 0.027661404 0.28975365 0.24744275 0.16686502 0.048252054 -0.015070839
0.35412353 0.26461774 0.010797765 0.4065331 -0.12708376 0.17402716 0.18961537 0.05363559
-0.33054644 0.2938817 -0.024577117 -0.36920545 -0.20489433 -0.42154285 -0.07331903 0.08000682
-0.2756977 -0.3262021 -0.3765149 0.29406732 0.12169581 -0.19348535 -0.08682538 -0.0754321
-0.09763898 0.1596085 -0.07052329 -0.12952015 -0.15051407 -0.055196915 0.24497749 0.012417648
-0.17078705 -0.028909788 0.1333431 -0.31396863 0.17287466 0.05620444 0.05476662 -0.1520947
0.2870038 -0.11088318 0.2669948 -0.3098709 -0.08508611 0.2676586 -0.17116526 -0.15194702
0.35997382 0.09359083 -0.07422485 -0.2407642 0.30908516 0.3678887 -0.05812918 0.18638368
-0.36437285 0.32026348 0.12567967 -0.067385234 0.12803866 0.30947113 0.25897586 -0.05113182
0.11647054 -0.15649338 -0.13893457 0.2839322 0.2674202 -0.2752884 -0.1521482 0.29373956
0.27370805 0.16249292 0.3357198 -0.3346682 -0.024737509 -0.051565703 0.27363363 -0.08689564
0.07057824 -0.008217786 -0.15895993 0.11758439 -0.18921283 -0.16551596 0.30076 -0.29031447
00000000: cf27 a4be c0e6 1a3d ef5b 953e ac5f 4ebc
00000010: f98c a63e 3307 aebe 143a 853e b861 243e
00000020: e754 b1bc 5be1 7fbd 0d14 333e 046e 0c3e
00000030: 50c3 c4be 35bf 56bd 36ed 75be 3cdb 76be
00000040: 101f 1fbe 3dbc 7ebe 2fc6 873e cee8 533e
00000050: 2c60 5ebe 273f 9abd 98ff 753e beec d23c
00000060: 81cf e0bd a8c3 743e f7ec 933e 9aa0 b93e
00000070: 67a7 473d ba74 7d3e f74f 61be 0e75 b1be
00000080: 2102 18bd 8010 a93d 2b9a e23c 975a 943e
00000090: a261 7d3e aade 2a3e f2a3 453d aeeb 76bc
000000a0: ae4f b53e fa7b 873e 1ce9 303c 1b25 d03e
000000b0: 3f22 02be 2d34 323e 882a 423e feb0 5b3d
000000c0: 623d a9be aa77 963e f355 c9bc 7f08 bdbe
000000d0: d2cf 51be 77d4 d7be 4a28 96bd 9eda a33d
000000e0: 4028 8dbe f603 a7be 90c6 c0be fe8f 963e
000000f0: a73b f93d 0621 46be 81d1 b1bd 257c 9abd
00000100: f2f6 c7bd 6970 233e 846e 90bd eea0 04be
00000110: 5c20 1abe 2916 62bd 61db 7a3e 6473 4b3c
00000120: cde2 2ebe 38d4 ecbc 188b 083e 7fc0 a0be
00000130: 0e06 313e a036 663d f752 603d b7be 1bbe
00000140: 29f2 923e b816 e3bd 8bb3 883e 66a7 9ebe
00000150: a041 aebd 8c0a 893e f245 2fbe 0098 1bbe
00000160: 7d4e b83e 8dac bf3d 3303 98bd e48a 76be
00000170: 6940 9e3e e85b bc3e dd18 6ebd 5ddb 3e3e
00000180: 148f babe 93f9 a33e 2cb2 003e 4501 8abd
00000190: 911c 033e 0073 9e3e 7c98 843e 996f 51bd
000001a0: 1b88 ee3d cd3f 20be dd44 0ebe 905f 913e
000001b0: 4deb 883e 9af2 8cbe bdcc 1bbe 0865 963e
000001c0: 7623 8c3e 8b64 263e 77e3 ab3e a159 abbe
000001d0: 51a6 cabc 8f36 53bd b519 8c3e 57f6 b1bd
000001e0: 538b 903d e5a3 06bc 64c6 22be 16d0 f03d
000001f0: 02c1 41be 047d 29be 37fd 993e 19a4 94be

fc2.weight f4 [128, 128]
0.20890053 -0.013780052 -0.09124033 -0.00389202 -0.02175337 -0.0507785 -0.18940282 -0.0068277507
-0.0068946695 0.046412587 0.01231148 0.22434975 -0.030139424 0.20608196 0.024824917 0.081210084
0.021106174 0.1554319 0.03646111 -0.11674325 0.032200836 0.014399945 0.037655428 -0.06759846
-0.17892338 -0.16443887 0.07917018 0.100373395 0.105434515 -0.096995346 0.051567953 -0.006857798
-0.09036601 -0.03971937 -0.17023487 -0.048709814 0.08390126 -0.023163553 0.23599012 -0.019114109
0.15397243 0.03838834 0.06706738 0.20567924 0.018518806 0.02498685 -0.028611856 -0.05732457
0.005702869 -0.12972428 -0.112113036 -0.0382364 0.08091889 0.1594874 0.08315411 -0.003585758
0.0015172759 -0.04597353 0.045161318 0.0052395454 0.16213141 -0.21423852 0.0083835535 0.119261645
-0.23727053 -0.004595557 0.024065398 0.1600565 -0.08626096 0.13758734 0.016695375 -0.166588
0.016893126 0.036559936 -0.093211755 0.24025458 0.04659689 0.1716468 0.311568 -0.048107635
0.08232343 -0.28089416 0.016478509 0.034845497 0.39754218 0.0076095075 0.033079986 0.11569995
0.14767082 0.2585317 0.039829917 0.010398713 0.07398129 -0.015403831 -0.049235083 0.03513023
0.048433747 -0.029591246 -0.03633489 -0.06987502 -0.12054598 -0.035856284 0.23470347 -0.09865505
-0.15968576 -0.052430097 0.16942762 0.014101798 0.22949834 0.12905905 0.113636285 -0.012131582
-0.09283686 0.008135005 0.23291573 -0.13899665 -0.027709397 0.06771885 0.066039644 -0.014868856
-0.07982103 -0.037877288 0.18660691 0.054534808 -0.2716163 -0.09985209 0.14139292 0.050396007
-0.16900475 0.06129581 -0.028112805 0.053099334 -0.14449053 -0.08399237 -0.16238512 -0.03843473
-0.05486207 0.0883572 0.08913198 -0.13579845 -0.08625961 0.019582922 -0.17380273 0.051936794
0.07468743 -0.17784975 -0.03046437 -0.006760059 0.05707611 -0.017779522 -0.21652803 0.003598227
0.025268028 -0.28998795 0.044363428 0.003110856 -0.11615691 0.2329727 -0.016743952 -0.025041107
-0.09683099 0.0054895296 -0.27791005 0.121529676 0.015547123 0.24136491 -0.3791821 -0.009631639
0.15663214 0.10548933 0.0025919792 -0.143973 0.08770237 0.09440245 -0.00050835573 -0.1722387
-0.04913721 -0.15450406 -0.27428457 0.08257179 0.08247603 -0.014029444 0.041412827 0.18497233
-0.06483781 0.08777608 0.083293974 0.08983356 -0.06155939 0.2841463 0.09780685 0.08058186
0.26104504 0.035921834 -0.08092632 0.035261415 0.048862897 0.12033453 0.10459798 -0.18473084
0.08588141 0.46551436 0.06713786 -0.25349292 0.09307034 -0.12428205 -0.30716288 -0.006029665
-0.066200204 0.27078387 -0.017756952 -0.0019872633 -0.41872016 0.070533216 -0.05342784 -0.21117173
-0.08205087 -0.095037125 -0.0015995969 -0.072362565 0.118329436 -0.04100332 -0.073507294 0.048810557
-0.0066747754 0.07450025 0.050650075 -0.061341383 -0.11653052 -0.00018593289 -0.11166757 0.22388928
0.1498823 -0.023417365 0.029978903 0.087959185 0.061179496 -0.5383456 -0.002818014 -0.19780797
-0.013978952 -0.13470787 -0.031094499 -0.116954565 -0.0014487084 -0.043401875 0.04894368 0.053074185
-0.017244082 -0.012535648 -0.2954206 -0.06746948 -0.061844476 0.0790386 -0.03143091 -0.0560758
00000000: 05ea 553e bac5 61bc 36dc babd 4311 7fbb
00000010: 2034 b2bc 1efd 4fbd d0f2 41be 53bb dfbb
00000020: aeec e1bb 201b 3e3d 17b6 493c f1bb 653e
00000030: f4e6 f6bc 2607 533e a05d cb3c 7951 a63d
00000040: dbe6 ac3c 8a29 1f3e 3f58 153d 1617 efbd
00000050: 06e5 033d bfed 6b3c 943c 1a3d 1071 8abd
00000060: b137 37be aa62 28be fa23 a23d 9190 cd3d
00000070: 0dee d73d 7fa5 c6bd eb38 533d 61b7 e0bb
00000080: d111 b9bd c7b0 22bd 0d52 2ebe f183 47bd
00000090: 6cd4 ab3d 7ec1 bdbc 65a7 713e 3195 9cbc
000000a0: f3aa 1d3e 183d 1d3d 9f5a 893d 949d 523e
000000b0: c0b4 973c 39b1 cc3c 6963 eabc 2bcd 6abd
000000c0: 22df ba3b 71d6 04be 859b e5bd c59d 1cbd
000000d0: ceb8 a53d aa50 233e b44c aa3d 09ff 6abb
000000e0: 55df c63a bd4e 3cbd 13fb 383d 7eb0 ab3b
000000f0: c705 263e 5861 5bbe 2c5b 093c 733f f43d
00000100: 0cf7 72be 5496 96bb cc24 c53c dae5 233e
00000110: 96a9 b0bd b2e3 0c3e bdc4 883c 0b96 2abe
00000120: 7463 8a3c dfbf 153d cee5 bebd 4c05 763e
00000130: 61dc 3e3d 2ec4 2f3e d785 9f3e 830c 45bd
00000140: 3099 a83d 5cd1 8fbe f0fd 863c 27ba 0e3d
00000150: a68a cb3e 2d59 f93b e17e 073d 18f4 ec3d
00000160: 0537 173e 445e 843e b224 233d 5d5f 2a3c
00000170: 8183 973d 5a60 7cbc baaa 49bd b7e4 0f3d
00000180: 7762 463d 5769 f2bc e5d3 14bd a21a 8fbd
00000190: d0e0 f6bd 0ade 12bd 1b56 703e a90b cabd
000001a0: aa84 23be f1c0 56bd 6f7e 2d3e 3a0b 673c
000001b0: 9d01 6b3e 0e28 043e 24ba e83d 8bc3 46bc
000001c0: 4021 bebd af48 053c 7681 6e3e 2355 0ebe
000001d0: d1fe e2bc 2eb0 8a3d cb3f 873d 819c 73bc
000001e0: 3579 a3bd 3725 1bbd e215 3f3e e45f 5f3d
000001f0: 4b11 8bbe 417f ccbd 4ec9 103e 0b6c 4e3d
00000200: 950f 2dbe 5111 7b3d d34c e6bc b07e 593d
00000210: 53f5 13be 3104 acbd 4948 26be bc6d 1dbd
00000220: 0db7 60bd 9ff4 b43d d48a b63d c00e 0bbe
00000230: e1a8 b0bd 5d6c a03c 58f9 31be adbb 543d
00000240: b9f5 983d 3f1e 36be 6a90 f9bc 7c83 ddbb
00000250: a4c8 693d 5ca6 91bc 86b9 5dbe 3bd0 6b3b
00000260: e5fe ce3c 4d79 94be 6db6 353d 81df 4b3b
00000270: ade3 edbd 6590 6e3e 9d2a 89bc 0223 cdbc
00000280: 534f c6bd 83e1 b33b 3a4a 8ebe 8de4 f83d
00000290: 5cb9 7e3c 5d28 773e 2824 c2be 06ce 1dbc
000002a0: 2d64 203e ca0a d83d 32de 293b a86d 13be
000002b0: 4d9d b33d 1256 c13d 2d43 05ba 575f 30be
000002c0: 1944 49bd 5036 1ebe 076f 8cbe 661b a93d
000002d0: 31e9 a83d c1db 65bc 7fa0 293d 6369 3d3e
000002e0: b0c9 84bd f2c3 b33d 0896 aa3d a8fa b73d
000002f0: b325 7cbd a07b 913e f54e c83d 1a08 a53d
00000300: b2a7 853e c622 133d b3bc a5bd 466e 103d
00000310: 7624 483d f371 f63d 7737 d63d 152a 3dbe
00000320: 98e2 af3d e657 ee3e 937f 893d d3c9 81be
00000330: aa9b be3d 9687 febd 7444 9dbe 7f94 c5bb
00000340: f993 87bd 2fa4 8a3e 0777 91bc bf3c 02bb
00000350: 7d62 d6be b873 903d 27d7 5abd 673d 58be
00000360: 490a a8bd d3a2 c2bd 91a9 d1ba d332 94bd
00000370: b456 f23d 19f3 27bd fe8a 96bd 94ed 473d
00000380: 13b8 dabb 9693 983d 7476 4f3d 1a41 7bbd
00000390: 8ea7 eebd fbf6 42b9 f8b1 e4bd 3b43 653e
000003a0: bf7a 193e c6d5 bfbc 5196 f53c f223 b43d
000003b0: 5a97 7a3d 04d1 09bf 6eae 38bb 2c8e 4abe
000003c0: f907 65bc dcf0 09be e4b9 febc e085 efbd
000003d0: 96e2 bdba 2ac6 31bd 2b79 483d 5164 593d
000003e0: 7643 8dbc 5262 4dbc 5e41 97be 702d 8abd
000003f0: a250 7dbd fdde a13d b3bd 00bd bdaf 65bd

fc2.bias f4 [128]
0.1083999 -0.041302387 -0.08003608 0.02017342 0.038702358 0.026351359 -0.04712174 -0.077365205
0.004234643 0.03532621 -0.07386992 -8.318325e-05 0.04566671 0.012143202 -0.043156773 0.0068711177
0.029511694 0.07360045 0.007475934 0.06517186 0.053616934 0.0862519 0.095799975 0.009158422
0.0005610247 0.08268373 0.03857957 -0.01527838 0.062885255 -0.077045955 0.0068435725 -0.08610212
0.030467661 0.027165558 -0.053428844 0.033254318 0.013638404 0.050225396 0.040305994 0.08518084
0.08056948 -0.08193029 0.010242374 -0.045674793 0.017871799 0.040951498 0.06822762 0.060437024
0.017549902 0.009230883 0.049022898 -0.01890423 0.0045865867 -0.00950597 -0.0501986 -0.03189133
0.036584634 0.044306822 -0.04661554 0.10149743 0.01375209 -0.09422675 -0.07119015 0.05183645
-0.073258415 0.032491725 0.015299525 -0.046398252 0.05875831 -0.013321559 -0.07320318 0.010243654
-0.07590296 -0.07758758 0.034447525 0.035869464 -0.058112856 0.052866016 0.07460753 0.025650013
0.07143894 -0.048893157 -0.058683366 0.042368874 -0.024336403 -0.030225981 0.040342636 -0.06517937
-0.026411042 -0.005652363 0.020343987 0.061116472 -0.06354742 -0.06869273 0.05786206 0.10982398
-0.029049598 -0.0114741055 0.111423515 -0.046904877 0.055172447 0.10981195 -0.013224287 -0.08883213
0.0073409295 0.061981764 -0.08587325 0.06307225 -0.021151809 -0.045707338 0.04028952 -0.043001004
0.075278245 0.028512781 -0.03285161 0.027121404 0.055118732 0.012091681 0.046655905 -0.059920564
-0.012701381 0.03833296 -0.047907144 0.08269563 -0.039335683 -0.027759407 -0.0007391779 0.06971289
00000000: c400 de3d b12c 29bd f5e9 a3bd ba42 a53c
00000010: 5d86 1e3d cede d73c ba02 41bd a671 9ebd
00000020: c3c2 8a3b 37b2 103d 1d49 97bd ab72 aeb8
00000030: 040d 3b3d 48f4 463c 28c5 30bd 1d27 e13b
00000040: 82c2 f13c d5bb 963d aef8 f43b d378 853d
00000050: 6e9d 5b3d d6a4 b03d c732 c43d 350d 163c
00000060: bb11 133a 1656 a93d 9c05 1e3d 2c52 7abc
00000070: fcc9 803d 45ca 9dbd 0c40 e03b 4f56 b0bd
00000080: 5197 f93c 4e8a de3c 34d8 5abd ae35 083d
00000090: 9d73 5f3c 25b9 4d3d e617 253d 4b73 ae3d
000000a0: 9d01 a53d 11cb a7bd a1cf 273c 7e15 3bbd
000000b0: e167 923c c2bc 273d ecba 8b3d d08c 773d
000000c0: d0c4 8f3c 213d 173c 3ccc 483d 0bdd 9abc
000000d0: 144b 963b eebe 1bbc 0c9d 4dbd 7ca0 02bd
000000e0: c5d9 153d 127b 353d f0ef 3ebd e2dd cf3d
000000f0: 7250 613c f4f9 c0bd 24cc 91bd 7552 543d
00000100: 8208 96bd 0b16 053d dcaa 7a3c 180c 3ebd
00000110: 8eac 703d ab42 5abc 8deb 95bd 00d5 273c
00000120: 0373 9bbd 3de6 9ebd d918 0d3d dceb 123d
00000130: bf07 6ebd 098a 583d d5cb 983d fa1f d23c
00000140: 944e 923d 3144 48bd f85d 70bd fc8a 2d3d
00000150: 235d c7bc 7a9c f7bc 523e 253d c37c 85bd
00000160: f85b d8bc 7537 b9bb 6fa8 a63c 4455 7a3d
00000170: 2625 82bd c6ae 8cbd c400 6d3d 65eb e03d
00000180: 6cf9 edbc e3fd 3bbc 0332 e43d 541f 40bd
00000190: 81fc 613d 16e5 e03d aeaa 58bc 9fed b5bd
000001a0: 2e8c f03b 97e0 7d3d 51de afbd 062c 813d
000001b0: 8f46 adbc 9e37 3bbd a006 253d d221 30bd
000001c0: 7b2b 9a3d a393 e93c 698f 06bd b52d de3c
000001d0: 2ec4 613d 301c 463c 431a 3f3d 446f 75bd
000001e0: 7419 50bc 0603 1d3d 483a 44bd 545c a93d
000001f0: 741e 21bd b267 e3bc 64c5 41ba a2c5 8e3d

fc3.weight f4 [128, 128]
-0.008736483 -0.005716163 0.008180899 -0.012373522 -0.09488082 -0.08465998 0.012160814 0.012265577
0.060314503 -0.008725589 -0.022366222 0.072435185 -0.0751578 0.03556979 -0.04918511 0.026447985
0.10785287 -0.13200398 -0.072295755 -0.033245422 -0.057675153 -0.0664599 -0.0047544246 -0.039446164
-0.14253797 0.041960984 0.03615124 0.12671073 0.0014296633 0.05459164 0.051982142 0.095056355
0.100445375 0.05931496 -0.0056252345 -0.038813855 -0.06619098 0.18149015 -0.012052331 0.039303757
0.03718061 -0.05192436 0.1396704 -0.024463683 0.055111885 -0.13675709 -0.03361561 0.13123472
0.03718775 -0.13710646 0.10988655 -0.11516917 0.023585796 -0.067717016 -0.011865818 -0.05286208
-0.023261867 0.005700909 0.025918415 -0.1456161 -0.005251012 -0.04888914 0.070849925 -0.02129653
0.049728066 -0.042998012 0.030291518 0.10002159 -0.074368775 -0.09488029 -0.0155096715 -0.082561806
-0.037595335 -0.11967879 -0.30570394 0.067266315 0.021142818 0.06180411 -0.034387622 -0.09741297
0.016472353 -0.08007166 -0.021909956 -0.042373225 0.013255668 0.07137804 0.10751444 0.08670107
-0.0022199466 0.03355654 0.1136053 0.06272311 -0.03886465 0.054254748 -0.031930428 0.0027590112
-0.04273423 0.041935947 0.038469948 0.021360233 0.037449013 0.021658368 -0.040842235 -0.04266989
-0.041031662 -0.039369475 0.07096549 0.05238419 0.05935179 0.042246148 0.14115654 0.100311
0.022920825 0.020359365 -0.009864925 0.0057020453 -0.059273273 -0.012008448 0.07408099 0.06909793
0.11063162 0.082714364 0.120597094 -0.03660406 -0.035069622 0.012845114 0.019891635 0.07079548
0.07617537 0.23708759 -0.010531145 0.078941934 0.06698824 0.15426533 -0.17082116 0.06816636
-0.08603903 -0.11991509 0.046318427 -0.06525639 0.048445083 -0.0022954226 0.022770593 0.043290492
-0.05221665 0.11346476 -0.04949105 -0.04507413 -0.029005094 0.049917936 -0.20798938 0.0668524
0.11619709 -0.0761514 -0.0052013947 -0.10024933 -0.03303196 0.027866917 0.032540035 -0.06812474
-0.0058151092 -0.0015703673 -0.06534631 0.11001166 -0.03341602 -0.15255192 0.10486427 0.0752693
0.0066195363 0.022842433 0.015715906 0.04795833 -0.10349161 -0.04348691 0.02510573 0.06850021
-0.13815477 0.05138904 -0.23303111 0.10337877 -0.051008902 -0.020266334 -0.05621496 0.07639914
0.050581113 0.0031058749 -0.0255673 0.10197777 0.009895669 0.058688227 -0.026602983 0.0023911167
-0.033496175 -0.07913569 -0.039150856 -0.031351857 -0.037005886 0.07950083 0.018628096 -0.033166997
-0.088332355 -0.019571511 0.10987766 -0.014732272 -0.08416376 0.014818742 0.063012555 0.11068677
-0.045047954 0.0665457 -0.09855036 0.045517553 0.002711198 -0.07980083 0.09097486 -0.025837628
0.022236018 0.02063234 0.054360434 -0.007081752 0.032327022 -0.010345132 0.052639116 0.040824227
0.33520254 -0.0042574164 -0.06648508 0.13204563 -0.051799666 0.081118286 0.080613464 -0.009362895
-0.012181972 -0.108917296 0.056461927 0.06299505 -0.084833406 -0.021517908 0.04265947 -0.00069811294
0.22249 -0.0038417608 -0.06814992 0.112607256 0.115149334 0.06624725 0.05354177 -0.023367349
-0.1215391 0.048059285 0.08007005 -0.06536768 -0.06969927 0.064547315 -0.026622256 0.028652174
00000000: 7723 0fbc a74e bbbb 2d09 063c 50ba 4abc
00000010: e050 c2bd 3662 adbd 273e 473c 8ff5 483c
00000020: 570c 773d c6f5 0ebc 5e39 b7bc e658 943d
00000030: 55ec 99bd a1b1 113d 5376 49bd 72a9 d83c
00000040: f7e1 dc3d 0d2c 07be cc0f 94bd 5a2c 08bd
00000050: c83c 6cbd 211c 88bd 01cb 9bbb 4d92 21bd
00000060: 79f5 11be 48df 2b3d 5313 143d 75c0 013e
00000070: 8a63 bb3a 7c9b 5f3d 3aeb 543d e8ac c23d
00000080: 4eb6 cd3d 3ef4 723d e353 b8bb 47fb 1ebd
00000090: 238f 87bd 8ed8 393e 2477 45bc fafc 203d
000000a0: b24a 183d a3ae 54bd c205 0f3e 1068 c8bc
000000b0: 00bd 613d 0d0a 0cbe 86b0 09bd 6562 063e
000000c0: 2f52 183d a365 0cbe 330c e13d d0dd ebbd
000000d0: 0037 c13c 38af 8abd d968 42bc e985 58bd
000000e0: ac8f bebc b1ce ba3b db52 d43c 631c 15be
000000f0: ae10 acbb fb3f 48bd c419 913d 0f76 aebc
00000100: a8af 4b3d af1e 30bd eb25 f83c 1fd8 cc3d
00000110: a84e 98bd 9950 c2bd 471c 7ebc 2a16 a9bd
00000120: 91fd 19bd 271a f5bd 3a85 9cbe ecc2 893d
00000130: b433 ad3c 4e26 7d3d 09da 0cbd 7480 c7bd
00000140: 07f1 863c 9cfc a3bd 827c b3bc 8c8f 2dbd
00000150: 4d2e 593c a62e 923d 8830 dc3d 5590 b13d
00000160: 867c 11bb 9572 093d e5a9 e83d f974 803d
00000170: 8a30 1fbd 3a3a 5e3d 7bc9 02bd 87d0 343b
00000180: 170a 2fbd 07c5 2b3d aa92 1d3d a8fb ae3c
00000190: 2364 193d e46c b13c 304a 27bd 9fc6 2ebd
000001a0: d110 28bd e341 21bd 5b56 913d ce90 563d
000001b0: dd1a 733d 4c0a 2d3d 578b 103e db6f cd3d
000001c0: 74c4 bb3c afc8 a63c 7fa0 21bc 39d8 ba3b
000001d0: 88c8 72bd 15bf 44bc c6b7 973d 3783 8d3d
000001e0: d592 e23d 2666 a93d 9cfb f63d 24ee 15bd
000001f0: 2aa5 0fbd 5074 523c c8f3 a23c 38fd 903d
00000200: d501 9c3d 17c7 723e d38a 2cbc 4fac a13d
00000210: 2131 893d bbf7 1d3e beeb 2ebe ce9a 8b3d
00000220: 3b35 b0bd 0b96 f5bd 64b8 3d3d 24a5 85bd
00000230: 5a6e 463d cd6e 16bb 6589 ba3c 5f51 313d
00000240: 20e1 55bd 3660 e83d 21b7 4abd a79f 38bd
00000250: 179c edbc c076 4c3d 2bfb 54be e9e9 883d
00000260: bdf8 ed3d 44f5 9bbd 7670 aabb 854f cdbd
00000270: 854c 07bd 2949 e43c b348 053d fc84 8bbd
00000280: ac8c bebb c8d4 cdba 49d4 85bd cb4d e13d
00000290: 3ddf 08bd 9236 1cbe 14c3 d63d ca26 9a3d
000002a0: b2e8 d83b 0e20 bb3c a5be 803c f46f 443d
000002b0: 69f3 d3bd 551f 32bd 88aa cd3c d749 8c3d
000002c0: 7278 0dbe 507d 523d b59f 6ebe 40b8 d33d
000002d0: b6ee 50bd 9505 a6bc a841 66bd 2777 9c3d
000002e0: 242e 4f3d ef8b 4b3b 8472 d1bc b9d9 d03d
000002f0: 7221 223c 1163 703d 80ee d9bc 48b4 1c3b
00000300: 4933 09bd e511 a2bd a65c 20bd ce6a 00bd
00000310: 7c93 17bd 55d1 a23d f399 983c 1eda 07bd
00000320: 98e7 b4bd 6f54 a0bc 8a07 e13d a15f 71bc
00000330: 0d5e acbd 4fca 723c ba0c 813d bfaf e23d
00000340: 3484 38bd 1d49 883d c5d4 c9bd 9d70 3a3d
00000350: 5bae 313b 9e6e a3bd 0751 ba3d 6fa9 d3bc
00000360: 4f28 b63c 2705 a93c 0ca9 5e3d 0b0e e8bb
00000370: 5769 043d a17e 29bc 1d9c 573d 4e37 273d
00000380: ab9f ab3e cc81 8bbb 5429 88bd f836 073e
00000390: e32b 54bd 5821 a63d ac18 a53d d466 19bc
000003a0: e596 47bc 0810 dfbd 9f44 673d 8c03 813d
000003b0: 23bd adbd 5346 b0bc b2bb 2e3d 9101 37ba
000003c0: 6bd4 633e 0dc6 7bbb 2f92 8bbd a29e e63d
000003d0: 6ad3 eb3d a3ac 873d 9d4e 5b3d e26c bfbc
000003e0: 7ee9 f8bd d0d9 443d c4fb a33d 7ddf 85bd
000003f0: 7ebe 8ebd 6231 843d eb16 dabc f7b7 ea3c

fc3.bias f4 [128]
0.09635394 0.10725607 -0.09787257 0.07934467 0.09847372 0.063115664 -0.016343495 0.06678507
0.13278012 0.04387073 -0.009306951 0.05982944 -0.07931006 -0.07668405 -0.08086557 0.011168787
0.006934426 0.11110007 -0.12245396 0.03364261 -0.042570904 -0.06763988 0.029168375 -0.039111823
0.13638578 -0.05398626 0.0027902934 -0.041666377 -0.07312757 0.02878243 -0.039403316 -0.015724592
0.091271274 0.08107411 0.050206024 -0.06801568 0.0069453176 -0.03580087 -0.08881298 0.0669385
0.08276035 0.0970681 0.033154145 -0.078130506 0.11928776 0.015094246 0.08049819 0.029609375
-0.097749226 0.12266134 0.12907082 -0.016624223 -0.05405303 -0.0854392 -0.0036776662 0.13019654
-0.021297662 -0.056847457 0.012528351 -0.081316136 0.028339786 0.09232681 -0.0030133484 -0.033365764
0.025755595 0.07059783 0.049326323 0.08050664 0.021095019 0.002999725 0.09570753 0.007931699
-0.063132904 0.028183255 -0.09562075 0.10243767 0.031699322 -0.009367165 -0.07780335 -0.05097296
0.08224262 0.011932061 -0.089981616 0.09489027 -0.087406196 0.009644543 -0.0020204973 0.009289762
-0.0037755752 -0.09473302 -0.02193659 -0.050316725 -0.05001059 -0.0016849985 -0.017536975 0.06778482
-0.0026466183 0.0040975325 -0.045741245 0.10171639 -0.08519126 0.100599006 0.079710975 -0.03513036
0.02746353 -0.023816 0.08700086 0.15175018 0.142447 0.046234522 -0.015314829 0.00068784767
-0.10932035 -0.042279027 -0.040009726 -0.008001759 -0.010376081 -0.047075454 0.113882855 0.100726165
-0.06282086 0.07482917 -0.041857213 -0.09079144 0.027708337 0.016742766 -0.025057778 0.071915574
00000000: 3755 c53d 12a9 db3d 6a71 c8bd 757f a23d
00000010: 97ac c93d c942 813d cbe2 85bc 9cc6 883d
00000020: 83f7 073e cbb1 333d 2f7c 18bc b70f 753d
00000030: 506d a2bd 870c 9dbd d99c a5bd 4afd 363c
00000040: 2e3a e33b 6f88 e33d 24c9 fabd d5cc 093d
00000050: d45e 2ebd c786 8abd 84f2 ee3c b833 20bd
00000060: b7a8 0b3e b220 5dbd 5bdd 363b 5daa 2abd
00000070: e8c3 95bd 21c9 eb3c 5f65 21bd dcd0 80bc
00000080: 6fec ba3d 2f0a a63d d5a4 4d3d ce4b 8bbd
00000090: 8c95 e33b efa3 12bd 94e3 b5bd 0d17 893d
000000a0: 427e a93d a4cb c63d a4cc 073d e302 a0bd
000000b0: 244d f43d db4d 773c 3cdc a43d 5c8f f23c
000000c0: bf30 c8bd de35 fb3d 242b 043e 862f 88bc
000000d0: b666 5dbd bffa aebd 0005 71bb 3e52 053e
000000e0: 6f78 aebc e1d8 68bd b643 4d3c 1389 a6bd
000000f0: d728 e83c d715 bd3d 997b 45bb 8aaa 08bd
00000100: 66fd d23c 9895 903d 660a 4a3d aae0 a43d
00000110: 76cf ac3c 0997 443b 4f02 c43d f5f3 013c
00000120: d34b 81bd 92e0 e63c d0d4 c3bd d7ca d13d
00000130: 26d7 013d bd78 19bc 5d57 9fbd 06c9 50bd
00000140: d26e a83d b17e 433c 4848 b8bd d455 c23d
00000150: 0502 b3bd 2504 1e3c 526a 04bb 1634 183c
00000160: a46f 77bb 6303 c2bd 5db4 b3bc e918 4ebd
00000170: e8d7 4cbd 2bdb dcba b4a9 8fbc c5d2 8a3d
00000180: e372 2dbb 9844 863b 2c5b 3bbd af50 d03d
00000190: c178 aebd da06 ce3d 823f a33d dae4 0fbd
000001a0: 32fb e03c c619 c3bc 822d b23d 6664 1b3e
000001b0: a0dd 113e 6960 3d3d 0ceb 7abc ad50 343a
000001c0: 59e3 dfbd c62c 2dbd 3de1 23bd cf19 03bc
000001d0: 7000 2abc 31d2 40bd 6a3b e93d 8549 ce3d
000001e0: 39a8 80bd 0940 993d 7872 2bbd ddf0 b9bd
000001f0: 98fc e23c 2028 893c f845 cdbc 7948 933d

fc4.weight f4 [2, 128]
-0.13529801 0.15504177 0.008369301 0.10844852 -0.12470257 -0.1272607 0.05170968 -0.051719118
-0.13946612 -0.15588418 0.1901203 -0.20229435 -0.008968937 0.059545755 -0.017618189 -0.12579513
0.124979876 -0.063769825 -0.033590153 0.026380802 -0.10002941 -0.14018552 -0.118319884 0.1475326
-0.19107497 -0.0074158483 -0.2116618 0.13035855 -0.085908666 -0.1472582 0.09559577 0.15947607
-0.07094239 0.015622995 -0.050649744 -0.0029924822 0.20864013 0.11205796 -0.048807032 -0.35346815
-0.15264536 -0.34270266 -0.05108287 0.0036316128 0.10870016 -0.08143527 -0.14037855 -0.10429938
-0.2028332 0.113456994 -0.013336156 -0.0063352087 0.14634895 0.06340224 0.0019795995 -0.027695594
-0.21074603 -0.13549036 0.03576804 -0.061228074 0.08958524 -0.019816631 -0.06817756 -0.003155798
0.13502797 -0.13800925 -0.17936233 -0.18982902 -0.18191668 0.13435611 -0.17329648 -0.2430079
0.067415625 0.09786194 -0.0772054 -0.13804503 -0.16650242 -0.22716291 0.01198859 -0.16465297
-0.24795267 0.1394194 0.00017706347 -0.07626425 -0.075703196 0.15999259 -0.25100824 -0.024576267
0.08394227 0.06565386 -0.15492657 0.07292592 -0.16756217 0.11954267 0.011788732 -0.1925627
-0.07734147 -0.15213767 0.02582523 -0.17478953 0.06390477 -0.11827542 -0.19273409 -0.21205978
0.20920661 0.10455744 -0.32805005 -0.29159328 -0.09093022 -0.0122975195 -0.04094928 -0.2526386
0.100735255 -0.22502102 -0.020900648 -0.045439553 0.15021487 -0.06323209 -0.086403914 0.08465835
-0.15790318 0.014067722 -0.0033515699 0.07100471 -0.19050169 0.1088011 -0.1498105 -0.20877692
-0.10900203 0.014598888 0.005276959 0.021750323 -0.06040172 -0.09036996 -0.06531038 -0.109059766
-0.23328881 -0.20356068 0.13314538 -0.11596108 0.112167925 0.027703175 0.433242 -0.17709911
-0.03671025 -0.20306922 0.07823386 -0.13227125 0.121258266 -0.05305557 -0.100742936 -0.02967367
-0.1150608 -0.017897818 -0.11985506 0.06378522 0.07034875 0.04252186 -0.054100294 0.11755577
-0.19209635 -0.15968573 0.54022604 -0.004548703 0.46280405 0.06480778 0.038224682 -0.10953507
-0.066963136 -0.041700646 0.041551616 -0.006381466 -0.08230492 -0.10798332 0.15604694 -0.052804463
0.14630206 0.22117716 -0.1769897 -0.13076825 0.13537458 0.007456062 -0.06791769 -0.2786472
-0.07661964 0.07144898 -0.09136351 0.07397995 0.08165874 -0.30180934 -0.09444421 0.0088871475
0.17655377 -0.08583579 -0.15980601 -0.06503531 -0.09464827 0.20014553 0.21610877 0.17622516
0.022050714 0.20344792 -0.062921606 -0.18148254 0.3401603 -0.0946606 0.055026334 -0.15056899
-0.01005739 0.1119962 0.049955465 -0.2152145 0.1963901 0.06639497 -0.028300742 -0.035494145
0.17280054 0.010848758 0.13609472 -0.040600732 -0.11168076 0.06893263 0.26821616 -0.014603547
0.09823185 -0.12352438 -0.031080307 -0.133803 -0.018174622 -0.037415262 0.2701168 0.27613238
-0.43941242 0.25795528 0.0065269996 -0.032369073 0.6229033 -0.22333495 -0.033899892 -0.064526305
0.2039827 0.19607104 -0.04488179 -0.0009353157 0.06728389 0.041419037 -0.07926319 -0.0006775911
0.33065516 -0.2504181 0.019068334 0.050832227 -0.07641171 0.18590455 -0.05390097 -0.066476874
00000000: 908b 0abe 45c3 1e3e 651f 093c 421a de3d
00000010: 1064 ffbd a150 02be 88cd 533d 6dd7 53bd
00000020: 35d0 0ebe 1aa0 1fbe e5ae 423e 4026 4fbe
00000030: 73f2 12bc 40e6 733d 0554 90bc 70d0 00be
00000040: 73f5 ff3d c199 82bd d495 09bd 8d1c d83c
00000050: 38dc ccbd cb8c 0fbe b251 f2bd c912 173e
00000060: 28a9 43be a500 f3bb dfbd 58be b67c 053e
00000070: e2f0 afbd dbca 16be b7c7 c33d b24d 233e
00000080: 3e4a 91bd 97f7 7f3c 1b76 4fbd 851d 44bb
00000090: c2a5 553e a57e e53d e2e9 47bd c7f9 b4be
000000a0: 114f 1cbe b976 afbe 463c 51bd 5a00 6e3b
000000b0: 319e de3d 89c7 a6bd 65bf 0fbe ea9a d5bd
000000c0: 82b3 4fbe 245c e83d e47f 5abc 9597 cfbb
000000d0: 80dc 153e 09d9 813d 2bbc 013b dfe1 e2bc
000000e0: cfcd 57be fcbd 0abe 8281 123d 4aca 7abd
000000f0: 7778 b73d 7d56 a2bc ada0 8bbd 81d1 4ebb
00000100: c644 0a3e 4c52 0dbe c2aa 37be 8a62 42be
00000110: 5e48 3abe a694 093e a274 31be 10d7 78be
00000120: 3411 8a3d d76b c83d dd1d 9ebd ad5b 0dbe
00000130: 9c7f 2abe 659d 68be ca6b 443c ca9a 28be
00000140: 4ee7 7dbe f6c3 0e3e 1daa 3939 6e30 9cbd
00000150: 470a 9bbd 19d5 233e 2784 80be 2b54 c9bc
00000160: ede9 ab3d 8875 863d 12a5 1ebe 2f5a 953d
00000170: 6b95 2bbe cad2 f43d 8725 413c 282f 45be
00000180: 3465 9ebd fac9 1bbe 6f8f d33c 07fc 32be
00000190: 81e0 823d 623a f2bd 165c 45be 3326 59be
000001a0: 423a 563e 3622 d63d 2df6 a7be b74b 95be
000001b0: a039 babd 897b 49bc 6fba 27bd d959 81be
000001c0: 494e ce3d e96b 66be d637 abbc d31e 3abd
000001d0: edd1 193e d37f 81bd 89f4 b0bd 5b61 ad3d
000001e0: 5fb1 21be 4d7c 663c 03a6 5bbb eb6a 913d
000001f0: e012 43be 1cd3 de3d ec67 19be 9ec9 55be
00000200: 753c dfbd 2d30 6f3c 57ea ac3b bc2d b23c
00000210: cb67 77bd e313 b9bd 73c1 85bd ba5a dfbd
00000220: 43e3 6ebe 3672 50be 4357 083e 017d edbd
00000230: 4cb8 e53d c5f1 e23c e5d1 dd3e 7859 35be
00000240: 7d5d 16bd 61f1 4fbe 1339 a03d 1d72 07be
00000250: 4156 f83d cc50 59bd 5052 cebd 3216 f3bc
00000260: ffa4 ebbd 729e 92bc 9276 f5bd d3a1 823d
00000270: 0113 903d 672b 2e3d 4598 5dbd 14c1 f03d
00000280: e8b4 44be a884 23be 414c 0a3f 490d 95bb
00000290: a7f4 ec3e f1b9 843d 7c91 1c3d ec53 e0bd
000002a0: f823 89bd 4cce 2abd 0732 2a3d 9e1b d1bb
000002b0: 7b8f a8bd 5c26 ddbd c5ca 1f3e 7e49 58bd
000002c0: 35d0 153e 447c 623e ca3c 35be 1de8 05be
000002d0: a29f 0a3e fb51 f43b 6e18 8bbd d9aa 8ebe
000002e0: c2ea 9cbd d853 923d cb1c bbbd cd82 973d
000002f0: b33c a73d c186 9abe f76b c1bd 669b 113c
00000300: 83ca 343e adca afbd 30a4 23be 3c31 85bd
00000310: f4d6 c1bd f3f2 4c3e 9e4b 5d3e 5e74 343e
00000320: b3a3 b43c a754 503e 0bdd 80bd 8fd6 39be
00000330: 7e29 ae3e 6bdd c1bd 4b63 613d c22e 1abe
00000340: c0c7 24bc 445e e53d 1a9e 4c3d 3161 5cbe
00000350: 7d1a 493e 16fa 873d f5d6 e7bc 4f62 11bd
00000360: a0f2 303e fdbe 313c 6a5c 0b3e f44c 26bd
00000370: e2b8 e4bd 8d2c 8d3d a153 893e b743 6fbc
00000380: c82d c93d 5afa fcbd 219c febc a703 09be
00000390: f2e2 94bc bf40 19bd c04c 8a3e 3961 8d3e
000003a0: aafa e0be b712 843e 71e0 d53b 6f95 04bd
000003b0: 9776 1f3f ebb1 64be 9dda 0abd 5e26 84bd
000003c0: d7e0 503e d9c6 483e f8d5 37bd f92f 75ba
000003d0: 23cc 893d 02a7 293d bd54 a2bd 5ea0 31ba
000003e0: a24b a93e cd36 80be 3235 9c3c 7435 503d
000003f0: be7d 9cbd c35d 3e3e 43c7 5cbd 0725 88bd

fc4.bias f4 [2]
-0.053639274 0.022410834
00000000: dbb4 5bbd ed96 b73c

fc1.weight f4 [128, 7]
0.23952496 -0.4942916 0.18671003 0.15727222 -0.26869637 0.15363252 0.20384282 0.06352505
0.322538 0.011299286 0.25399658 0.08682355 0.06801391 0.15129341 -0.35653663 0.108334616
-0.1556433 -0.35627043 -0.2914347 -0.03469091 0.028346227 -0.24631184 0.17846042 0.048365705
0.10044285 0.05397858 0.08661164 0.4174144 -0.038128767 0.35112256 -0.51139706 -0.07442898
-0.3941616 0.19462383 0.3945712 0.01986945 0.1401149 0.24400087 -0.2851526 0.077346705
-0.33852443 -0.099359736 0.11721853 -0.26044747 0.11304816 -0.24420014 -0.15086071 -0.37914205
-0.24260342 -0.018818343 0.12583518 -0.33124372 -0.33843 0.07958672 0.17699857 0.35925668
-0.13938038 0.16177794 0.39536646 0.11595225 -0.28855595 0.40678686 0.1213698 -0.17233887
-0.29886657 0.28368592 -0.08656799 -0.22791815 -0.19700317 0.122116886 0.15093204 0.36371616
-0.030721446 0.36436766 0.42896467 -0.061654616 -0.5008774 0.16308352 -0.25182337 0.044034798
-0.19798279 -0.6225688 0.48031047 -0.20357426 0.15793079 -0.36833045 0.35532176 -0.17853962
0.35399678 -0.27559012 -0.047553096 0.312577 0.33267215 -0.25397646 -0.295635 0.32090288
0.14450225 -0.26161334 0.19719629 -0.28942275 -0.16535658 -0.15482956 -0.0030140465 0.3700614
-0.15663812 0.14102805 -0.24789022 0.263427 0.22667594 -0.10500072 0.43658358 -0.086228006
0.026615364 0.20008822 -0.10823795 -0.43455404 0.0053409827 -0.2675024 0.22211218 0.5170532
0.27692306 0.31588662 -0.18920754 -0.36478677 0.13454837 -0.17521825 0.11063201 -0.071058616
-0.83654416 0.07939128 -0.01267615 -0.38795266 0.12989086 0.01321675 -0.27485314 -0.23553905
0.17369236 -0.3029504 -0.14906716 -0.19121987 -0.19060388 -0.18248004 0.18635488 -0.102482066
-0.273606 0.24104953 -0.3263067 -0.18017118 -0.08334815 -0.30783615 -0.028560517 -0.2773768
0.10874765 -0.1313946 0.20136061 0.3510848 -0.25315216 -0.15166453 -0.18296574 -0.1114356
0.326958 -0.50057524 -0.13652213 -0.08954655 0.18292098 0.30474305 0.26284757 -0.49961594
0.13139142 -0.33285484 -0.38085458 0.122527495 0.09263176 0.016632328 0.10448906 0.008586039
0.025714235 -0.9728613 -0.2577833 -0.024272924 -0.40358046 0.1657697 0.06618004 0.115720555
-0.26683518 0.13153993 0.25685838 0.25237396 -0.28450352 -0.019294672 -0.2056697 0.408704
-0.29882565 -0.30633393 0.016204227 -0.14283088 0.26216274 0.13915882 -0.12504734 -0.05764961
-0.2207997 0.11369711 0.11202016 -0.32732856 -0.1891298 0.29030547 -0.11557907 0.46331352
-0.16590884 -0.20617574 -0.36071357 0.34040555 -0.37716952 -0.03726294 0.059434526 0.10401916
-0.20751719 -0.08685177 -0.17299777 -0.051476356 -0.14885058 -0.36402485 0.18221433 -0.20525381
-0.1919666 0.32622266 -0.71306396 0.25779366 0.25175 0.13278884 0.13213827 0.20101912
-0.011915223 -0.4899541 -0.06413949 0.33001885 -0.018219043 0.3579674 -0.04174641 -0.0531284
-0.25036687 -0.09910346 -0.2799803 -0.1428641 0.49463838 0.20277369 0.44344965 -0.059597187
0.2763018 0.23555274 0.29619938 0.26053432 -0.32328904 0.3211937 0.3527288 0.3009944
00000000: 0846 753e ca13 fdbe ea30 3f3e f80b 213e
00000010: 9292 89be d851 1d3e 2cbc 503e 6c19 823d
00000020: b323 a53e a420 393c d70b 823e 8cd0 b13d
00000030: e04a 8b3d a9ec 1a3e f88b b6be 8ade dd3d
00000040: f560 1fbe 1469 b6be ee36 95be 0e18 0ebd
00000050: 5936 e83c 2c39 7cbe 54be 363e 1e1b 463d
00000060: fbb4 cd3d a518 5d3d 7261 b13d 57b7 d53e
00000070: e92c 1cbd 56c6 b33e ebea 02bf 396e 98bd
00000080: 8dcf c9be 784b 473e 3c05 ca3e 42c5 a23c
00000090: 487a 0f3e 5ddb 793e 86ff 91be f367 9e3d
000000a0: 1353 adbe 1e7d cbbd 4510 f03d 5f59 85be
000000b0: cb85 e73d 9a0f 7abe 3b7b 1abe e81e c2be
000000c0: 086d 78be ed28 9abc f0da 003e c798 a9be
000000d0: b246 adbe 5dfe a23d 1d3f 353e 7ef0 b73e
000000e0: bbb9 0ebe 1ea9 253e 796d ca3e 6078 ed3d
000000f0: 9bbd 93be 5e46 d03e bb90 f83d 9a79 30be
00000100: 0a05 99be 483f 913e 8f4a b1bd 6063 69be
00000110: 33bb 49be 6b18 fa3d ee8d 1a3e 0139 ba3e
00000120: 8bab fbbc 668e ba3e 42a1 db3e 8d89 7cbd
00000130: 8039 00bf 5eff 263e feee 80be d55d 343d
00000140: 00bc 4abe ab60 1fbf 41eb f53e c575 50be
00000150: 9cb8 213e cf95 bcbe bcec b53e 17d3 36be
00000160: 113f b53e 261a 8dbe 09c7 42bd 180a a03e
00000170: 0154 aa3e 3409 82be 795d 97be 624d a43e
00000180: 66f8 133e 2ff2 85be d3ed 493e 382f 94be
00000190: 3c53 29be a48b 1ebe 4f87 45bb b078 bd3e
000001a0: be65 20be a869 103e efd6 7dbe e7df 863e
000001b0: bd1d 683e 9e0a d7bd e287 df3e 4f98 b0bd
000001c0: 7708 da3c ede3 4c3e dcab ddbd de7d debe
000001d0: 6903 af3b 13f6 88be 6071 633e 995d 043f
000001e0: dcc8 8d3e e4bb a13e 9fbf 41be 55c5 babe
000001f0: 0cc7 093e 6a6c 33be 0993 e23d 2e87 91bd
00000200: c227 56bf e597 a23d a0af 4fbc bba1 c6be
00000210: 1c02 053e 118b 583c 8db9 8cbe 2631 71be
00000220: 69dc 313e 511c 9bbe 10a5 18be 24cf 43be
00000230: aa2d 43be 0cdc 3abe d0d3 3e3e 1ee2 d1bd
00000240: 1616 8cbe b0d5 763e ac11 a7be cb7e 38be
00000250: 6fb2 aabd b39c 9dbe bff7 e9bc 5504 8ebe
00000260: 17b7 de3d 4e8c 06be 7a31 4e3e 63c1 b33e
00000270: 299d 81be f24d 1bbe 5f5b 3bbe 5938 e4bd
00000280: 0a67 a73e b325 00bf 75cc 0bbe 2e64 b7bd
00000290: a34f 3b3e 4807 9c3e f593 863e a9cd ffbe
000002a0: 798b 063e f36b aabe 5fff c2be b2ef fa3d
000002b0: b8b5 bd3d 8540 883c 5cfe d53d 75ac 0c3c
000002c0: a9a6 d23c 700d 79bf 2cfc 83be 03d8 c6bc
000002d0: 19a2 cebe 88bf 293e 6789 873d e6fe ec3d
000002e0: 9f9e 88be 67b2 063e f182 833e 2937 813e
000002f0: 72aa 91be dc0f 9ebc 149b 52be a741 d13e
00000300: adff 98be cdd7 9cbe babe 843c 4242 12be
00000310: 323a 863e a67f 0e3e 690c 00be ff21 6cbd
00000320: 5119 62be 08da e83d d36a e53d 9c97 a7be
00000330: 3eab 41be eba2 943e b8b4 ecbd 6e37 ed3e
00000340: 02e4 29be bc1f 53be 73af b8be a349 ae3e
00000350: 5d1c c1be 06a1 18bd 9e71 733d ff07 d53d
00000360: 637f 54be 57df b1bd 5426 31be dfd8 52bd
00000370: 496c 18be 7761 babe 6596 3a3e 0e2e 52be
00000380: e492 44be a806 a73e 5c8b 36bf 88fd 833e
00000390: 60e5 803e ccf9 073e 414f 073e f5d7 4d3e
000003a0: 1138 43bc 44db fabe 915b 83bd 3bf8 a83e
000003b0: 1a40 95bc 8147 b73e 49fe 2abd 2a9d 59bd
000003c0: 1630 80be c1f6 cabd 9459 8fbe f74a 12be
000003d0: 3e41 fd3e e8a3 4f3e d50b e33e 2e1c 74bd
000003e0: 6e77 8d3e bd34 713e 72a7 973e c164 853e
000003f0: 2486 a5be 8073 a43e df98 b43e f01b 9a3e

fc1.bias f4 [128]
-0.31962174 0.04052752 0.28467214 -0.011879186 0.3243341 -0.33989868 0.25360307 0.16045614
-0.021207687 -0.062470775 0.17612913 0.13789761 -0.38430262 -0.05137643 -0.24249737 -0.24103224
-0.15539193 -0.25010195 0.2636927 0.20607252 -0.21716374 -0.075315766 0.23902911 0.023415063
-0.111468315 0.23782939 0.29141727 0.3636729 0.04935423 0.24709085 -0.2200316 -0.34659618
-0.039082944 0.08210054 0.026986316 0.2917714 0.24856426 0.1674363 0.047338225 -0.014212005
0.3549354 0.2641273 0.011568894 0.40686032 -0.12708376 0.17690234 0.18970193 0.052123606
-0.33054644 0.29079357 -0.02347175 -0.36920545 -0.20489433 -0.42203984 -0.07232405 0.08128124
-0.2756977 -0.3262021 -0.3765149 0.29446775 0.12209576 -0.19394696 -0.08586558 -0.07440543
-0.09688311 0.15972075 -0.07052329 -0.13057417 -0.15051407 -0.054175247 0.24613005 0.01033779
-0.17078705 -0.028602712 0.13316788 -0.31511295 0.17276587 0.05650485 0.054297723 -0.1520947
0.28600305 -0.110345386 0.26637843 -0.3098709 -0.084252045 0.26781005 -0.17116526 -0.1537283
0.36045706 0.09295099 -0.073204026 -0.2407642 0.31015897 0.36603618 -0.05812918 0.18604767
-0.36437285 0.32032567 0.124913916 -0.06727414 0.1274071 0.30860266 0.25847682 -0.050428376
0.116260506 -0.15649338 -0.13814087 0.2834828 0.2690055 -0.27585146 -0.15269841 0.29281557
0.2726002 0.16229385 0.33692083 -0.3346682 -0.024737509 -0.051565703 0.27519402 -0.08691159
0.06981408 -0.008217786 -0.15955642 0.11595608 -0.19031821 -0.16692127 0.3004492 -0.29031447
00000000: 76a5 a3be 2f00 263d 8cc0 913e eba0 42bc
00000010: 1f0f a63e 3307 aebe 43d8 813e 9d4e 243e
00000020: bebb adbc 5be1 7fbd 325b 343e 0835 0d3e
00000030: 50c3 c4be 1770 52bd 3b51 78be 28d1 76be
00000040: 101f 1fbe 5d0d 80be bb02 873e ad04 533e
00000050: 2c60 5ebe 273f 9abd 0cc4 743e f2d0 bf3c
00000060: 8049 e4bd 8c89 733e a534 953e 5633 ba3e
00000070: a927 4a3d 6205 7d3e f74f 61be 0e75 b1be
00000080: 7015 20bd 5424 a83d 6812 dd3c 1063 953e
00000090: a187 7e3e 6c74 2b3e bae5 413d 78d9 68bc
000000a0: 18ba b53e b23b 873e 758b 3d3c ff4f d03e
000000b0: 3f22 02be e325 353e 3941 423e 907f 553d
000000c0: 623d a9be e5e2 943e d447 c0bc 7f08 bdbe
000000d0: d2cf 51be 9b15 d8be a21e 94bd c776 a63d
000000e0: 4028 8dbe f603 a7be 90c6 c0be 7ac4 963e
000000f0: 580d fa3d 089a 46be 4bda afbd e061 98bd
00000100: a76a c6bd d68d 233e 846e 90bd 3cb5 05be
00000110: 5c20 1abe dde6 5dbd 8409 7c3e d55f 293c
00000120: cde2 2ebe 3c50 eabc 295d 083e 7c56 a1be
00000130: 89e9 303e a171 673d 4a67 5e3d b7be 1bbe
00000140: fe6e 923e c3fc e1bd c162 883e 66a7 9ebe
00000150: 568c acbd 661e 893e f245 2fbe f46a 1dbe
00000160: d48d b83e 175d be3d feeb 95bd e48a 76be
00000170: 28cd 9e3e 1869 bb3e dd18 6ebd 4883 3e3e
00000180: 148f babe ba01 a43e ded2 ff3d 06c7 89bd
00000190: 0277 023e 2b01 9e3e 1357 843e fc8d 4ebd
000001a0: fd19 ee3d cd3f 20be cd74 0dbe a824 913e
000001b0: 17bb 893e 673c 8dbe f95c 1cbe eceb 953e
000001c0: 4192 8b3e 5c30 263e e380 ac3e a159 abbe
000001d0: 51a6 cabc 8f36 53bd 3be6 8c3e b4fe b1bd
000001e0: affa 8e3d e5a3 06bc c262 23be 627a ed3d
000001f0: c7e2 42be 69ed 2abe 7ad4 993e 19a4 94be

fc2.weight f4 [128, 128]
0.20918974 -0.013029049 -0.08444901 -0.002703286 -0.020987894 -0.0507785 -0.18242598 -0.005814174
-0.006223389 0.046412587 0.012826697 0.22478025 -0.030139424 0.20560354 0.024877686 0.08203474
0.021106174 0.15519549 0.0372908 -0.11038151 0.032200836 0.014399945 0.038227905 -0.06743771
-0.17775981 -0.16378142 0.08028901 0.10147747 0.105830856 -0.094720975 0.051567953 -0.006857798
-0.08974125 -0.038841326 -0.16974068 -0.047750704 0.08507908 -0.022828992 0.23486787 -0.018219575
0.15482877 0.04035716 0.067374855 0.20662528 0.018518806 0.026064044 -0.027595248 -0.05689054
0.005702869 -0.1233661 -0.11330262 -0.0382364 0.08091889 0.16003002 0.08436652 -0.0026869806
0.0015172759 -0.04597353 0.045161318 0.006778187 0.16286463 -0.21326691 0.008230851 0.119827256
-0.23778504 -0.003382466 0.024065398 0.15940692 -0.08626096 0.13818838 0.018070988 -0.16584648
0.016893126 0.036076553 -0.09194836 0.24001712 0.048020594 0.17194381 0.312078 -0.048107635
0.08373337 -0.28096166 0.017880864 0.034845497 0.39764935 0.009043059 0.033079986 0.11560128
0.14829297 0.25855535 0.040315744 0.010398713 0.075418204 -0.014252857 -0.049235083 0.03616513
0.048433747 -0.02860828 -0.03519791 -0.06986151 -0.12031489 -0.03462141 0.23543507 -0.09837942
-0.16009979 -0.052430097 0.17014326 0.01599101 0.2304031 0.12780353 0.113738514 -0.011433944
-0.09260139 0.008752238 0.23357913 -0.13899665 -0.027709397 0.06771885 0.066598326 -0.013894505
-0.07876821 -0.037877288 0.1854486 0.055045996 -0.2704104 -0.0989543 0.14229815 0.050396007
-0.16857618 0.06418162 -0.028112805 0.055506982 -0.14038911 -0.08399237 -0.16238512 -0.034410045
-0.053589556 0.0883572 0.09107742 -0.13316938 -0.08625961 0.02138057 -0.16976295 0.053907543
0.07468743 -0.1772276 -0.026747167 -0.0074128294 0.05707611 -0.017779522 -0.21321896 0.004385408
0.031389516 -0.28960958 0.048313845 0.005083739 -0.112635896 0.2362616 -0.016743952 -0.025041107
-0.093088925 0.009717246 -0.27613774 0.1249164 0.017956212 0.24013859 -0.3791821 -0.0044182898
0.15753828 0.10349054 0.0038464824 -0.13966711 0.08770237 0.097737096 0.0040362105 -0.16808318
-0.04913721 -0.15450406 -0.27428457 0.08257179 0.08247603 -0.013630651 0.044661142 0.18628916
-0.06483781 0.08777608 0.083293974 0.09302914 -0.057522 0.28467318 0.098570295 0.082593136
0.2591534 0.040768906 -0.08092632 0.039146844 0.048862897 0.12139707 0.1072339 -0.17865485
0.08588141 0.4650317 0.07111675 -0.25284302 0.09750529 -0.12293479 -0.30716288 -0.006029665
-0.061904073 0.26958874 -0.013641943 -0.0019872633 -0.41872016 0.073611625 -0.05342784 -0.21065289
-0.07905556 -0.09474925 0.000164127 -0.072362565 0.12087413 -0.037185952 -0.073507294 0.051341943
-0.0066747754 0.0786732 0.051327135 -0.061341383 -0.11585389 0.0036479444 -0.11034005 0.22475098
0.14986782 -0.023417365 0.031721376 0.09189139 0.062857226 -0.5381181 -0.002635688 -0.19361238
-0.012303802 -0.13141856 -0.029394628 -0.116954565 -0.0014487084 -0.043401875 0.05075363 0.05547436
-0.012778934 -0.012535648 -0.29478607 -0.06339356 -0.055261046 0.083240315 -0.029544817 -0.0560758
00000000: d635 563e cb77 55bc 9af3 acbd 9d29 31bb
00000010: ceee abbc 1efd 4fbd e0cd 3abe d484 bebb
00000020: 92ed cbbb 201b 3e3d 1127 523c cb2c 663e
00000030: f4e6 f6bc bc89 523e 4acc cb3c d401 a83d
00000040: dbe6 ac3c 91eb 1e3e 3dbe 183d b30f e2bd
00000050: 06e5 033d bfed 6b3c dd94 1c3d c81c 8abd
00000060: ab06 36be 51b6 27be 916e a43d 6bd3 cf3d
00000070: d9bd d83d 12fd c1bd eb38 533d 61b7 e0bb
00000080: 43ca b7bd 1518 1fbd 80d0 2dbe 3e96 43bd
00000090: f13d ae3d de03 bbbc 3481 703e 3841 95bc
000000a0: 6f8b 1e3e 8d4d 253d d4fb 893d 9495 533e
000000b0: c0b4 973c 4384 d53c 6e0f e2bc 0e06 69bd
000000c0: 22df ba3b 5ea7 fcbd 340b e8bd c59d 1cbd
000000d0: ceb8 a53d e9de 233e 5bc8 ac3d 0e18 30bb
000000e0: 55df c63a bd4e 3cbd 13fb 383d 8e1b de3b
000000f0: fcc5 263e a462 5abe b1da 063c fe67 f53d
00000100: ec7d 73be 5dac 5dbb cc24 c53c 913b 233e
00000110: 96a9 b0bd 4181 0d3e 9c09 943c a9d3 29be
00000120: 7463 8a3c 02c5 133d 6c4f bcbd 0cc7 753e
00000130: 3eb1 443d 0a12 303e b0c8 9f3e 830c 45bd
00000140: 677c ab3d 35da 8fbe e47a 923c 27ba 0e3d
00000150: b298 cb3e 5729 143c e17e 073d 5dc0 ec3d
00000160: 1dda 173e 5e61 843e 1f22 253d 5d5f 2a3c
00000170: dc74 9a3d d184 69bc baaa 49bd e321 143d
00000180: 7762 463d e95b eabc af2b 10bd 8d13 8fbd
00000190: a767 f6bd 2ecf 0dbd e415 713e 267b c9bd
000001a0: 33f1 23be f1c0 56bd 093a 2e3e 94ff 823c
000001b0: caee 6b3e eede 023e bdef e83d 7055 3bbc
000001c0: cca5 bdbd 8c65 0f3c 5e2f 6f3e 2355 0ebe
000001d0: d1fe e2bc 2eb0 8a3d b464 883d c7a5 63bc
000001e0: 3a51 a1bd 3725 1bbd 3de6 3d3e e977 613d
000001f0: 3b73 8abe 8da8 cabd 9bb6 113e 0b6c 4e3d
00000200: 3c9f 2cbe a771 833d d34c e6bc 4a5b 633d
00000210: 2ac2 0fbe 3104 acbd 4948 26be 8cf1 0cbd
00000220: b980 5bbd 9ff4 b43d cc86 ba3d 8e5d 08be
00000230: e1a8 b0bd 4e26 af3c 57d6 2dbe 28ce 5c3d
00000240: b9f5 983d 277b 35be e01c dbbc 52e7 f2bb
00000250: a4c8 693d 5ca6 91bc 1256 5abe 78b3 8f3b
00000260: 4b92 003d b547 94be bde4 453d 7e95 a63b
00000270: a6ad e6bd 90ee 713e 9d2a 89bc 0223 cdbc
00000280: 68a5 bebd 1535 1f3c ed61 8dbe 2bd4 ff3d
00000290: e818 933c e4e6 753e 2824 c2be 4dc7 90bb
000002a0: b751 213e d9f2 d33d 4415 7c3b e504 0fbe
000002b0: 4d9d b33d 632a c83d 3042 843b ff1d 2cbe
000002c0: 1944 49bd 5036 1ebe 076f 8cbe 661b a93d
000002d0: 31e9 a83d 1853 5fbc 9aee 363d 96c2 3e3e
000002e0: b0c9 84bd f2c3 b33d 0896 aa3d 1086 be3d
000002f0: 309c 6bbd afc0 913e 39df c93d 9726 a93d
00000300: c1af 843e 4cfd 263d b3bc a5bd 7158 203d
00000310: 7624 483d 079f f83d 729d db3d 4cf1 36be
00000320: 98e2 af3d a318 ee3e a9a5 913d a474 81be
00000330: dab0 c73d 3cc5 fbbd 7444 9dbe 7f94 c5bb
00000340: 208f 7dbd 8907 8a3e 7582 5fbc bf3c 02bb
00000350: 7d62 d6be b1c1 963d 27d7 5abd 64b5 57be
00000360: e2e7 a1bd e50b c2bd 8219 2c39 d332 94bd
00000370: db8c f73d 4c50 18bd fe8a 96bd ee4b 523d
00000380: 13b8 dabb 6a1f a13d 673c 523d 1a41 7bbd
00000390: ce44 edbd 5a12 6f3b f7f9 e1bd 1f25 663e
000003a0: f376 193e c6d5 bfbc 46ee 013d 8e31 bc3d
000003b0: 4abb 803d 1cc2 09bf 82bb 2cbb 5342 46be
000003c0: e395 49bc 9692 06be 01cd f0bc e085 efbd
000003d0: 96e2 bdba 2ac6 31bd 0ae3 4f3d 1539 633d
000003e0: bc5e 51bc 5262 4dbc 33ee 96be 7cd4 81bd
000003f0: 6859 62bd e679 aa3d f907 f2bc bdaf 65bd
