flappybird_dqn_ep80.pth (torch, 561683 bytes, 32 tensors)

fc1.weight f4 [128, 7]
00000000: 7562 9a3e cb13 b4be 35fa 313e 39a0 6d3e
00000010: c94a 60be bcab 2e3e 62cf 683e 9298 c13d
00000020: 6f32 8d3e a947 3dbd 189c 953e de77 d73d
00000030: fb12 df3d ece2 2a3e f88b b6be 8ade dd3d
00000040: f560 1fbe 1469 b6be ee36 95be 0e18 0ebd
00000050: 5936 e83c 3234 8fbe b8a3 783e 7653 423d
00000060: db04 f43c aec7 ffbd 044c b13c 9bda c53e
00000070: feb2 01bd 79d1 ac3e 74a9 f2be 137b b4bc
00000080: 3aff aebe 7101 413e d068 b93e 42c5 a23c
00000090: 487a 0f3e 5ddb 793e 86ff 91be f367 9e3d
000000a0: 1353 adbe 1e7d cbbd 6a78 063e 5f59 85be
000000b0: 3d31 023e 1ea0 6bbe bb1b 0cbe c3e7 babe
000000c0: 9c78 69be 5a5c a63c 2da8 f23d 9117 abbe
000000d0: 9ba8 a1be 358e 273e db85 4f3e ca0d b83e
000000e0: 5949 14be 5e54 353e bbdc d03e 400c 143e
000000f0: 1e01 91be 8cce ca3e 86cd 103e 9a79 30be
00000100: 0a05 99be 483f 913e 8f4a b1bd 6063 69be
00000110: 33bb 49be 6b18 fa3d c9a3 283e 2afa c43e
00000120: b1ac 87bd c264 b93e caa7 c53e f93f 5fbd
00000130: 24ec d4be f3b4 c73d 6de4 46bd 57ee fb3c
00000140: 5f6b 61be f67e 35bf 72a9 d23e b236 8ebe
00000150: 9cb8 213e cf95 bcbe bcec b53e 17d3 36be
00000160: 113f b53e 261a 8dbe 09c7 42bd 4e23 a53e
00000170: 9dfd a33e 9534 57be e534 88be 06fe 973e
00000180: 8ae7 333e f556 21be 40ba 383e 6fe5 abbe
00000190: c68d fdbd 6e84 0dbe 7a19 2a3d 1c86 c53e
000001a0: 6bd5 e1bd d339 dd3d 4c2b 0cbe f0a2 8f3e
000001b0: bf74 533e 8c44 c3bd 3e10 c13e e327 44be
000001c0: 62be 503d f230 623e 1f81 b4bd e061 d1be
000001d0: c9e5 013d 92e7 77be d6ca 7e3e 904e f03e
000001e0: 24c1 4d3e df64 983e 6dc5 57be 21e7 b0be
000001f0: f5c5 e83d bec9 57be afc6 ed3d 30e6 e7bd
00000200: e6e5 14bf 7338 ca3d d9c2 00bc b77d b9be
00000210: eba4 e63d 0610 923b fc20 81be e7ed 0bbe
00000220: 70c0 003e 55bb 98be 2e75 3ebe 0bd3 2fbe
00000230: aa2d 43be 0cdc 3abe d0d3 3e3e 1ee2 d1bd
00000240: 1616 8cbe b0d5 763e ac11 a7be cb7e 38be
00000250: 6fb2 aabd b39c 9dbe bff7 e9bc 5504 8ebe
00000260: 17b7 de3d 4e8c 06be 14d6 323e ec04 b43e
00000270: 91c8 32be 0c51 14be cb08 1fbe 2b35 01be
00000280: 2730 843e 8d52 debe 9184 19be dabf 1bbe
00000290: eff7 183e 5e9f a03e a94f 8f3e 6a77 debe
000002a0: c3d4 f23d 55e9 bbbe a6b3 8dbe 7684 9c3d
000002b0: f44a ea3d 60f6 12b9 d3e1 4f3d 18a0 7a3d
000002c0: 4d03 693d 992e dfbe a1fb 76be ef31 31bd
000002d0: 45f7 c3be 341d 1d3e a295 023e 6b60 ce3d
000002e0: 8d9f 74be c1e9 233e c9aa 923e 22c7 993e
000002f0: 9702 f7bd 1392 9cbd d263 8ebe 5c57 cb3e
00000300: eb65 6ebe c379 99be 0500 0c3d 7459 4ebe
00000310: b7b1 763e f3c6 413e 3742 a6bd 07f2 61bc
00000320: efd2 44be 5fbd f03d cb55 1b3e 7759 96be
00000330: 3cb8 3dbe af12 893e 3282 48be 59cb bf3e
00000340: 0956 36be b136 32be 73af b8be a349 ae3e
00000350: 5d1c c1be 06a1 18bd 9e71 733d ff07 d53d
00000360: 637f 54be 57df b1bd 5426 31be dfd8 52bd
00000370: 496c 18be 7761 babe 6596 3a3e 0e2e 52be
00000380: 8cb6 3ebe e6f3 883e 6d0e 21bf 6786 6a3e
00000390: 4fda 943e 45b7 1a3e f3e7 dd3d a38f 653e
000003a0: 3b03 e9bc a463 03bf ae1d c8bd e31c b03e
000003b0: 0e80 a0bb f614 a73e 2d95 4cbd 86a6 e6bd
000003c0: c7f0 17be 4e26 ddbd 5465 86be eb56 e5bd
000003d0: 76aa e93e 9fc9 8c3e d712 da3e 535c 8fbd
000003e0: 5083 8c3e b073 893e b7c2 ae3e beb4 9f3e
000003f0: 9f7e 8abe f44e a13e 3b98 a03e 5ecf 993e
0.30153242 -0.3517135 0.17380603 0.23205651 -0.21903528 0.17057699 0.2273536 0.094529286
0.2757754 -0.04621092 0.29220653 0.1052091 0.10892292 0.16688126 -0.35653663 0.108334616
-0.1556433 -0.35627043 -0.2914347 -0.03469091 0.028346227 -0.2796951 0.24281204 0.047442876
0.029787472 -0.12489258 0.021642692 0.38643345 -0.03166484 0.33753565 -0.47394907 -0.022031343
-0.34179097 0.18848206 0.36212778 0.01986945 0.1401149 0.24400087 -0.2851526 0.077346705
-0.33852443 -0.099359736 0.13131872 -0.26044747 0.12714095 -0.23010299 -0.13682453 -0.36504945
-0.22799915 0.020307709 0.11848483 -0.33416417 -0.31573948 0.16362841 0.20265906 0.3594802
-0.14481105 0.17707965 0.40793404 0.14457798 -0.28321165 0.39610708 0.14140901 -0.17233887
-0.29886657 0.28368592 -0.08656799 -0.22791815 -0.19700317 0.122116886 0.16468729 0.3847211
-0.06624735 0.36209685 0.38604575 -0.05450437 -0.4158641 0.0975131 -0.048557688 0.030753298
-0.22013615 -0.7089685 0.41144902 -0.27776104 0.15793079 -0.36833045 0.35532176 -0.17853962
0.35399678 -0.27559012 -0.047553096 0.32253498 0.3202943 -0.21016152 -0.26602855 0.29685992
0.17568794 -0.15755828 0.18039799 -0.3357348 -0.12380557 -0.13820049 0.041528203 0.3857888
-0.11027034 0.10802045 -0.13688391 0.28054 0.20650004 -0.09534559 0.37707704 -0.1915584
0.050962813 0.22088984 -0.088136904 -0.40894985 0.03171328 -0.24209431 0.24882063 0.46934938
0.20093209 0.2976446 -0.21071406 -0.34551337 0.11365882 -0.21073052 0.116101615 -0.11323202
-0.581633 0.09874048 -0.007858955 -0.36228725 0.11261924 0.0044574765 -0.25220478 -0.13664971
0.12573409 -0.29830423 -0.18599388 -0.1717035 -0.19060388 -0.18248004 0.18635488 -0.102482066
-0.273606 0.24104953 -0.3263067 -0.18017118 -0.08334815 -0.30783615 -0.028560517 -0.2773768
0.10874765 -0.1313946 0.17464477 0.35160005 -0.17459323 -0.14484042 -0.15530698 -0.12617938
0.25817987 -0.43422356 -0.14991976 -0.15209904 0.14938329 0.31371588 0.27990463 -0.4345048
0.11856987 -0.36701456 -0.27676123 0.076424524 0.114400774 -0.00014015427 0.050752472 0.061187834
0.056887913 -0.4359024 -0.24119426 -0.04326051 -0.3827459 0.15343171 0.12752393 0.10076984
-0.23888989 0.16007139 0.28645924 0.3003474 -0.12061041 -0.07645049 -0.27810532 0.39715087
-0.23281066 -0.2997571 0.034179706 -0.20151311 0.2409123 0.1892355 -0.08118098 -0.013790614
-0.1922109 0.1175487 0.15169446 -0.2936513 -0.18527311 0.26772067 -0.19580916 0.3745983
-0.17806257 -0.17403676 -0.36071357 0.34040555 -0.37716952 -0.03726294 0.059434526 0.10401916
-0.20751719 -0.08685177 -0.17299777 -0.051476356 -0.14885058 -0.36402485 0.18221433 -0.20525381
-0.18624324 0.2674858 -0.62912637 0.22902833 0.29072806 0.15108974 0.108352564 0.22418074
-0.028443923 -0.51323915 -0.09771286 0.3439704 -0.004898078 0.3263318 -0.049946953 -0.112622306
-0.14837943 -0.10798322 -0.26249182 -0.11198219 0.45637864 0.27497575 0.425925 -0.07000031
0.27443933 0.26846075 0.3413293 0.31192583 -0.2704973 0.3150555 0.31366143 0.3004102

fc1.bias f4 [128]
00000000: add0 83be 00f2 a03d ad3f d33d b782 c0bd
00000010: 5c86 a83e 3307 aebe 4072 203d a4fb 563e
00000020: a3f3 7bbc 5be1 7fbd bb73 313e 8233 9e3d
00000030: 50c3 c4be 8d2d 6cbd 078f 71be 4955 7dbe
00000040: 6bcb 04be 0f66 91be b49d 793e 9b05 883d
00000050: 2c60 5ebe 273f 9abd 548c 5e3e d849 153d
00000060: fc58 e7bd 0a9d 5d3e 0259 af3e 1e76 b63e
00000070: 9b74 713d 06bb 6f3e f74f 61be 0e75 b1be
00000080: 7360 ddbc 3dc9 b83d e524 383c 1d79 b33e
00000090: 4366 913e ac66 503e 0889 613d 82c0 593c
000000a0: 4c4d ae3e 7d8f 893e f28e 013c 0e16 ce3e
000000b0: 07bc cdbd d632 723e 60a7 683e 8ba5 523d
000000c0: 623d a9be 5f05 053e 0397 243c 7f08 bdbe
000000d0: d2cf 51be 6444 debe 4192 4ebd 658d c93d
000000e0: 4028 8dbe f603 a7be 90c6 c0be a73f af3e
000000f0: 4ddd f73d 9497 5fbe 8883 aabd 9ec4 73bd
00000100: 7c5e aabd 454b 4f3e 846e 90bd ac42 22be
00000110: 5c20 1abe 58d2 d0bd b93a 783e 188b 9a3c
00000120: 3a91 13be 5f72 10bc 3740 073e 721b aebe
00000130: 0edf 463e c0db 6a3d ec32 c33d b7be 1bbe
00000140: de58 903e 26e4 e0bd 7210 8f3e 66a7 9ebe
00000150: 7e8c e4bc b32e 9d3e f245 2fbe dc96 64be
00000160: bb0d c13e b27a 943d 2405 72bd e48a 76be
00000170: 036a ab3e 02a2 bf3e dd18 6ebd 0c2a 543e
00000180: 148f babe ad18 a73e 5019 f83d 002d 0bbd
00000190: 4740 0f3e f5b6 ba3e 1103 663e 3135 9ebd
000001a0: 6435 133e 5baa fcbd 7cf6 4cbe 0a9a 923e
000001b0: a7d7 823e 1da4 8ebe 0b8b 24be 9248 993e
000001c0: eb99 9c3e bb72 673e 2084 b43e 48f5 aabe
000001d0: 886e 4e3b 8f36 53bd bb6e 903e fdbf a0bd
000001e0: 0c2c cb3d a6c6 6ebc 9319 3cbe d8c3 c03d
000001f0: 7db5 61be 3910 4dbe d846 a53e 19a4 94be
-0.25745144 0.07858658 0.103148796 -0.09399932 0.32915008 -0.33989868 0.039171457 0.20994431
-0.015377912 -0.062470775 0.17329304 0.07724668 -0.38430262 -0.057660628 -0.23589717 -0.24739565
-0.12968223 -0.28398177 0.24376565 0.06641694 -0.21716374 -0.075315766 0.21733218 0.036447376
-0.11296269 0.21641937 0.34247595 0.3563699 0.058949094 0.23411188 -0.2200316 -0.34659618
-0.02702353 0.09022758 0.011239265 0.3505334 0.28398332 0.20351666 0.055062324 0.013290526
0.34043348 0.26867285 0.007907616 0.402512 -0.10045629 0.23652205 0.22720098 0.051427405
-0.33054644 0.1299033 0.01004577 -0.36920545 -0.20489433 -0.43411553 -0.050432447 0.09841422
-0.2756977 -0.3262021 -0.3765149 0.3422825 0.12102757 -0.21835166 -0.08325869 -0.05951368
-0.08318803 0.20243557 -0.07052329 -0.15845746 -0.15051407 -0.1019637 0.24241151 0.018865153
-0.14410868 -0.008816331 0.1320809 -0.34005314 0.19421026 0.057338476 0.09531197 -0.1520947
0.281928 -0.10981016 0.27942234 -0.3098709 -0.027899023 0.3069969 -0.17116526 -0.22323173
0.37705788 0.07249965 -0.059086934 -0.2407642 0.33479318 0.3742829 -0.05812918 0.20719165
-0.36437285 0.32636014 0.12114203 -0.033978462 0.13989364 0.3646771 0.22462107 -0.07724989
0.14375836 -0.1233718 -0.20015901 0.28633147 0.25555155 -0.27859583 -0.16068666 0.2993818
0.3058618 0.2260236 0.35257053 -0.3339026 0.0031498987 -0.051565703 0.2820948 -0.07849119
0.09920511 -0.014573729 -0.18369131 0.09412354 -0.22041889 -0.2002572 0.32280612 -0.29031447

fc2.weight f4 [128, 128]
00000000: 4685 4a3e 51f7 19bc 88ad 0abb f4b6 d1ba
00000010: 9a90 08bd 1efd 4fbd 007f 94bd e9d5 a03a
00000020: 8561 ec3b 201b 3e3d 63e9 64bd 0dc7 153e
00000030: f4e6 f6bc 6033 893d 88d3 f53b 5549 a73d
00000040: dbe6 ac3c 6c9b d93d 1d28 283d 15e8 d3bc
00000050: 06e5 033d bfed 6b3c 3ded cebc fa3d 5cbd
00000060: f382 cebd 334c d4bd dcb9 9a3d 6f82 993d
00000070: 4f0c ab3d f7a3 58bd eb38 533d 61b7 e0bb
00000080: 6790 82bd 5637 d1bc a133 52bd a320 47bd
00000090: 3fbf b43d 3299 4b3d 0a25 273e 3c62 02bc
000000a0: 0812 023e 71d6 51bb b8ff 5f3d d1ee 043e
000000b0: a2b1 1d3d f31b d23c bae5 29bd b1bd a9ba
000000c0: 22df ba3b 80c6 83bd 471b c0bd c59d 1cbd
000000d0: ceb8 a53d f8f5 e63c eae4 cb3d a0fa d4bb
000000e0: 55df c63a bd4e 3cbd 13fb 383d 10cb 123c
000000f0: 208f b93d 7b21 17be 8246 8dbd d4d2 d33d
00000100: 6c25 13be 27fc 193c cc24 c53c 0b32 283e
00000110: 96a9 b0bd 49be 5c3d d9bb 85bc d7d7 33bd
00000120: 1e65 643c 084b b7bd 2cfa 75bd a584 413e
00000130: ed4d 4d3d e347 1e3e 64b7 cc3d 830c 45bd
00000140: 4b5e 55bb 544e 55be b1dd 533d 27ba 0e3d
00000150: e432 383e d25c 053d e17e 073d 046e 583d
00000160: b6e6 bd3d 851b cf3d b525 fd3c 5d5f 2a3c
00000170: 84f4 7e3d 4517 6cbc baaa 49bd 8d6c 913d
00000180: 7762 463d 4a3b 16bd 943a 323c 752a 65bc
00000190: 5c10 09be db39 0abd 66fb 423e bf11 773d
000001a0: 1d95 dcbd b946 45bd ad5c 953d 4113 ca3c
000001b0: 1955 fb3d ad67 d73d f903 e03d b080 33bd
000001c0: e6e0 d9bd 345f 823c 7bdb 443e 1598 b9bd
000001d0: 0adf 63bd 2eb0 8a3d 0e22 243d 70d6 6c39
000001e0: e726 8cbd 08c6 a53d ff52 2c3e c9b9 8b3d
000001f0: 8d88 00be 74c4 31bd fb19 ef3d 0b6c 4e3d
00000200: abb4 e6bd a347 3b3d d144 343d 2a3d 5d3d
00000210: a2c2 e4bd 3104 acbd 63a3 b4bd 2f7d 49bd
00000220: f4fd 57bd 9ff4 b43d b35d 8a3d 8bba a7bc
00000230: e1a8 b0bd c3ad 683d 95f7 fabd c00e c93d
00000240: bcf6 ab3d b03c febc 5b84 a53d 8e94 843d
00000250: a4c8 693d 5ca6 91bc ee26 1abe d3e2 e13b
00000260: 5f34 7ebb a3a4 82bd 2ea6 953c 2d3f 123d
00000270: 1678 1dbd ede5 063e 9d2a 89bc 0223 cdbc
00000280: 51b5 a3bd 6868 a8bc a3ca 1dbe 3a19 d63d
00000290: 88d2 b9bc 8905 573e 366a 12be 567b dcbc
000002a0: 6fc1 2d3e d581 c83d 9723 cd3c 0bf8 adbd
000002b0: 2ac2 ae3d 64d8 803d cc92 7f3b 12a0 37bc
000002c0: 1944 49bd 4a1e a7bd 93e3 0bbe 661b a93d
000002d0: 31e9 a83d cff7 873d 00a7 11bc dae6 0e3e
000002e0: b0c9 84bd f2c3 b33d 0896 aa3d 36bf bb3d
000002f0: 5850 d13c 1f16 643e 8c5e 0c3e b7a6 a13d
00000300: 1863 363e e816 a53c b3bc a5bd 60c8 223e
00000310: 7624 483d a3ab f23d d3ba b43d c2f4 aebd
00000320: 4022 c43d 40ec de3e a9a3 d33b be32 c1bd
00000330: 8b75 333d 88b7 9ebd 1388 79bd 7f94 c5bb
00000340: 5142 84bd a9d8 7a3e d06c 97bd bf3c 02bb
00000350: b613 3fbe 176c d33c 27d7 5abd 0daf b4bd
00000360: 6820 d5bc 984e 293c dc19 883c d332 94bd
00000370: 4d31 b83d 1118 a03c fe8a 96bd bb0a 28bc
00000380: 13b8 dabb 936c 823d b1bb 813d b092 983d
00000390: 40bd e4bd 447d 15bd 593f b73b c4fb 403e
000003a0: cc14 593e 260e bebc ed22 2a3d 8222 033d
000003b0: 1944 943d 5d3b 80be bad9 203d 6de6 18be
000003c0: 70f3 833d 932e 8dbd d6fe 2b3b 9c86 babd
000003d0: 524d cabc 2ac6 31bd ec72 4f3d c203 91bb
000003e0: 50b8 44bd 7b11 3f3d 6e09 48bd ada6 663d
000003f0: 032d e4bd 1029 813d 1534 f33c bdaf 65bd
0.19777402 -0.009397344 -0.0021160562 -0.0015999959 -0.033341028 -0.0507785 -0.07250786 0.0012270781
0.0072137737 0.046412587 -0.055886637 0.14626713 -0.030139424 0.06699252 0.007502023 0.08168284
0.021106174 0.106253475 0.04105388 -0.025867501 0.032200836 0.014399945 -0.025259608 -0.053770043
-0.1008357 -0.10366096 0.07554981 0.07495581 0.08351957 -0.052890744 0.051567953 -0.006857798
-0.06375199 -0.025539082 -0.05131877 -0.04861511 0.0882554 0.049706645 0.16322723 -0.007957991
0.12702191 -0.0032018686 0.05468723 0.12981726 0.038499482 0.025648093 -0.04147885 -0.0012950209
0.005702869 -0.06434345 -0.09380203 -0.0382364 0.08091889 0.028193459 0.09955771 -0.0064996034
0.0015172759 -0.04597353 0.045161318 0.008959547 0.09060502 -0.14758866 -0.06898214 0.10342947
-0.14369744 0.009398497 0.024065398 0.1642534 -0.08626096 0.053892408 -0.016324924 -0.043907013
0.013940124 -0.08949858 -0.060053036 0.18898256 0.050123144 0.1545711 0.099959165 -0.048107635
-0.0032557424 -0.20830661 0.051725093 0.034845497 0.17988163 0.032559223 0.033079986 0.052839294
0.0927252 0.10112671 0.03090177 0.010398713 0.062244907 -0.014409845 -0.049235083 0.071007825
0.048433747 -0.036677636 0.010878224 -0.013987173 -0.13385147 -0.03374658 0.19041213 0.06031966
-0.107706286 -0.04816315 0.07293067 0.024667384 0.122720905 0.105178215 0.10938258 -0.043823898
-0.10638599 0.015914537 0.1922435 -0.090622105 -0.05563263 0.06771885 0.04007154 0.00022586598
-0.068433575 0.08094412 0.16828535 0.06822545 -0.1255209 -0.043400243 0.11674877 0.050396007
-0.112649284 0.045722615 0.04401094 0.05401341 -0.11169936 -0.08399237 -0.08820226 -0.04919165
-0.052732423 0.0883572 0.06756153 -0.020474693 -0.08625961 0.056806337 -0.12254254 0.098172665
0.0839667 -0.031034797 0.080818854 0.06473647 0.05707611 -0.017779522 -0.15053913 0.0068934946
-0.003878854 -0.06379058 0.018267717 0.03570478 -0.0384446 0.13173647 -0.016743952 -0.025041107
-0.07993568 -0.020557597 -0.15409331 0.1045403 -0.022683397 0.20998205 -0.14298329 -0.02691428
0.1696832 0.097903885 0.025041385 -0.08494576 0.085331276 0.06291273 0.003899741 -0.011207597
-0.04913721 -0.08160074 -0.13661031 0.08257179 0.08247603 0.066390626 -0.008889914 0.1395525
-0.06483781 0.08777608 0.083293974 0.0916733 0.025551006 0.22274064 0.13707942 0.078931265
0.17811239 0.020152524 -0.08092632 0.1589675 0.048862897 0.11849143 0.088246964 -0.085427776
0.09576845 0.4353962 0.006458719 -0.094335064 0.04381327 -0.077498496 -0.060920786 -0.006029665
-0.06457961 0.24496712 -0.07393801 -0.0019872633 -0.18659863 0.025808377 -0.05342784 -0.08822451
-0.026016429 0.01033368 0.016613893 -0.072362565 0.089937784 0.019542726 -0.073507294 -0.010256465
-0.0066747754 0.06368365 0.063346274 0.074498534 -0.11168909 -0.036496416 0.0055922684 0.18846041
0.2119934 -0.023200106 0.041537214 0.03201533 0.07239551 -0.2504529 0.03927014 -0.1493165
0.064429164 -0.06893649 0.0026244423 -0.09107706 -0.024695072 -0.043401875 0.050646707 -0.004425497
-0.048027337 0.04664753 -0.048837118 0.0563113 -0.11141398 0.0630666 0.02968792 -0.0560758

fc2.bias f4 [128]
00000000: b8af c83d de84 5bbd f5e9 a3bd f86d 173c
00000010: 224b d03c d7e8 0bbc 4d5d 4fbd 61a1 83bd
00000020: 1334 1ebd 8a9c 783c 1d49 97bd 1045 6d3c
00000030: 4d25 993d 48f4 463c 28c5 30bd 5c54 13bc
00000040: a73c be3c be0c 8d3d aef8 f43b 35f2 753d
00000050: 5aff 4e3d d6a4 b03d a49e 9e3d 350d 163c
00000060: 6003 133d 6a87 923d e3ab 163d 0715 96bc
00000070: fcc9 803d 45ca 9dbd ef33 e13c 2cdd 85bd
00000080: 824b 353d a88c 453b 34d8 5abd faea d1bc
00000090: 9d73 5f3c a4c1 8d3d e835 4d3d 038b a73d
000000a0: 8393 883d 11cb a7bd 8355 483c 3df0 18bd
000000b0: a816 27bc 399a 0d3d 422e ac3d 7f0a 523d
000000c0: 1646 c83c fc3d 143d b8ef 103d 8f79 09bd
000000d0: 4e0a d1bc ae8c d53b 1902 2dbd 375a b7bb
000000e0: c5d9 153d 127b 353d f0ef 3ebd abda 983d
000000f0: d5ce 013c 373a 96bd 71b3 8ebd 7552 543d
00000100: 8208 96bd 2402 243d dcaa 7a3c 4087 80bd
00000110: 0650 5b3d 054c a4bc 8deb 95bd 00d5 273c
00000120: 0373 9bbd ea33 5fbd d82c 903d dceb 123d
00000130: bf07 6ebd 00dd 873d 6d6c 863d 8b4f 153d
00000140: 5647 1f3d 3144 48bd 992e 4dbd ce91 663d
00000150: d5e9 0bbc 7a9c f7bc 8070 f43c c150 4abd
00000160: 7786 03bd b23b 01bc ab4a 7c3c c91f 623d
00000170: 2625 82bd 614e 8ebd 9033 3b3d 2756 b83d
00000180: 037e a3bc ed3f 2f3c 7423 d03d 2641 5dbd
00000190: 81fc 613d 72f6 bc3d 593d e2ba 1ec6 95bd
000001a0: 6bcb f13b 32ba de3c 00de 8fbd 062c 813d
000001b0: 8f46 adbc 9e37 3bbd 9668 2a3d 7dd7 73bd
000001c0: 3649 623d cca6 353d ff72 bebc 222b ee37
000001d0: aff9 ae3d 5cce e43c f226 623d 1784 00bd
000001e0: e608 f9bc d3c6 5c3d 43d3 11bd 545c a93d
000001f0: 741e 21bd 6092 27bd b479 3ebc f7d6 f33c
0.09799141 -0.05359351 -0.08003608 0.009242527 0.025426451 -0.0085394 -0.050626088 -0.06427265
-0.03862388 0.015174041 -0.07386992 0.014481798 0.07477818 0.012143202 -0.043156773 -0.008992281
0.02322228 0.06887196 0.007475934 0.06004544 0.05053649 0.0862519 0.07745102 0.009158422
0.03589189 0.071547344 0.036785018 -0.018320573 0.062885255 -0.077045955 0.027490584 -0.06536326
0.044261463 0.0030143652 -0.053428844 -0.02562474 0.013638404 0.069217 0.050100237 0.08180811
0.06668761 -0.08193029 0.012227419 -0.037338484 -0.010198273 0.034570906 0.084072605 0.05127954
0.024447482 0.036191925 0.035384864 -0.033563193 -0.025517609 0.0065170145 -0.04223833 -0.0055954712
0.036584634 0.044306822 -0.04661554 0.074635826 0.007922848 -0.07335322 -0.069678195 0.05183645
-0.073258415 0.040041104 0.015299525 -0.06275797 0.053543113 -0.02005578 -0.07320318 0.010243654
-0.07590296 -0.05449287 0.07039803 0.035869464 -0.058112856 0.06633949 0.06563649 0.03645281
0.03888639 -0.048893157 -0.050093267 0.056291394 -0.008539637 -0.030225981 0.0298388 -0.04939342
-0.032110658 -0.007887768 0.015398662 0.055206094 -0.06354742 -0.06948543 0.04570347 0.09000807
-0.019957548 0.010696393 0.10163012 -0.05401721 0.055172447 0.09226693 -0.0017260715 -0.073131785
0.0073789856 0.027188394 -0.07024765 0.06307225 -0.021151809 -0.045707338 0.041603647 -0.059531678
0.0552456 0.044348523 -0.023248194 2.8391896e-05 0.08543717 0.027930431 0.055212922 -0.03137597
-0.03039975 0.05390055 -0.035601866 0.08269563 -0.039335683 -0.04091108 -0.011625696 0.02976559

fc3.weight f4 [128, 128]
00000000: 2eea 6f3d 6e0d 93bc 2d09 063c f524 fd3b
00000010: a6ea 83bd 57a9 21bd d6d9 3bbb ebeb 483c
00000020: 4f09 733d a758 8e3c 5e39 b7bc 4fa0 943d
00000030: 6e9e 47bd a1b1 113d 5376 49bd 52d4 883b
00000040: 7264 813d dcc3 b4bd cc0f 94bd cd50 af3a
00000050: 37eb 10bd 211c 88bd 7361 a0bd 4d92 21bd
00000060: bf05 d4bd 121f bfbc 1896 b13d b74b c23d
00000070: 8a63 bb3a 7c9b 5f3d fd3b 833d bddf 493d
00000080: 7179 ad3d 4117 b43c e353 b8bb 4568 15bb
00000090: 238f 87bd 9dcc 9a3d 8ef2 1cbd e443 59ba
000000a0: cf03 f63d a3ae 54bd 2d61 df3d 1670 2bbd
000000b0: 85e1 953d 891d afbd e653 cfbc f080 ff3d
000000c0: 2423 ea3b 9e04 d7bd 076f 6a3c 69bb c5bd
000000d0: 1831 823c 83df 3fbd 6c2e 98bc e05b 76bd
000000e0: ac8f bebc b1ce ba3b db52 d43c 5cea 9cbd
000000f0: eca7 333d d59c 57bd c419 913d 0f76 aebc
00000100: a8af 4b3d ed72 08bd eb25 f83c 3e21 1b3d
00000110: 23da 68bc d2f3 4abd 471c 7ebc 2a16 a9bd
00000120: 91fd 19bd 08d1 adbd 4ff7 febb ecc2 893d
00000130: b433 ad3c 7ba8 e13c f88e 8dbd 1ef1 acbd
00000140: cb97 4e3d 9cfc a3bd e856 2dbd 175e dbbc
00000150: 4d2e 593c a62e 923d c07b b13d d37c b23d
00000160: b8bd 55bd 9c82 d03b c9bc a63d 68bc b43b
00000170: 8a30 1fbd 9047 2e3d dd79 e9bc 41ee 113d
00000180: 20c2 03bd 9391 e03c ac50 ab3c edf9 e1bc
00000190: 2364 193d ea1d 13bd 304a 27bd 9fc6 2ebd
000001a0: d110 28bd cf98 8a3c 5b56 913d ce90 563d
000001b0: dd1a 733d 4c0a 2d3d 6e0a dd3d 25de ad3d
000001c0: a8a2 2a3d afc8 a63c 10da 81bc 0f9a 683d
000001d0: 5df8 17bd 15bf 44bc c6b7 973d 9d71 17bd
000001e0: 2ec7 1a3d 12b9 af3d d49e e53d 24ee 15bd
000001f0: 2aa5 0fbd a874 09bc 644e b93d dd30 7b3d
00000200: 6b2f 6b3d 0ede 1b3e d38a 2cbc a189 733d
00000210: ba1e 103d cfd9 113e 7a39 a3bd 079c 8b3d
00000220: d8f3 0abd 8783 aabd 64b8 3d3d 17e0 5abd
00000230: 0235 513d cd6e 16bb 6589 ba3c 6c90 343d
00000240: 845e 483c b5bd bc3d 21b7 4abd 6262 45bd
00000250: 35eb 73bd c076 4c3d 8a2e 30be e9e9 883d
00000260: 37cb e33d 15ca 10bd bd7f 803a e59b 6ebd
00000270: 854c 07bd 2949 e43c 2f68 b33c 3031 8abd
00000280: ac8c bebb 578e d5bb 49d4 85bd 62bd 8e3d
00000290: 3ddf 08bd dab9 34bd ae47 f83d 7373 803d
000002a0: 747f b0bc 0e20 bb3c 2a0e 7c3d b406 753d
000002b0: 76fd 9cbd 0725 96bd 2a6b 883c 7bb9 8e3d
000002c0: 5e73 a4bd ed03 2d3d 2685 05be 696e 9a3d
000002d0: 6194 4b3b 9e02 06bd 987f 38bd 0763 8b3d
000002e0: 242e 4f3d ef8b 4b3b 8472 d1bc 48b0 7b3d
000002f0: 9f75 86bc 2d28 833d 31eb dbbc 48b4 1c3b
00000300: 4933 09bd 47fb b0bd a65c 20bd 504e be3c
00000310: 00da aebd 91a4 513d f399 983c 1eda 07bd
00000320: 98e7 b4bd 4c5f a3bc 2080 7abd a15f 71bc
00000330: 0d5e acbd 57be da3c e885 4c3d 0f50 e13d
00000340: 127f 35bd 1d49 883d 25a1 aebd 2888 f53c
00000350: f979 cf3b 9e6e a3bd ca51 dd3d 1cb0 d3bc
00000360: f699 153d 3cb9 853d 4e88 803d 94e2 a03d
00000370: 5769 043d 3ec8 7abc 5e5d 183d 448f 57bd
00000380: 54ce 163e c00b 3abd f430 e53c e18b f33d
00000390: e32b 54bd 462b 893d f731 873d bf39 27bc
000003a0: 5297 47bc efc9 b6bd 0e7a 823d 8c03 813d
000003b0: 23bd adbd 5346 b0bc 1d90 b33d 3ba3 0fbd
000003c0: 9a24 423e 28bc 82bb 49dc 99bd 41c0 983d
000003d0: fccf ea3d 9f31 823d 0938 683d d0ae 9a3c
000003e0: 3bc1 99bd 4e78 3e3d 0078 2a3d 7ddf 85bd
000003f0: 7ebe 8ebd 8b31 a23d f76b 98bd a567 3d3d
0.05857294 -0.01795074 0.008180899 0.007725353 -0.0644124 -0.039468136 -0.0028663776 0.0122632785
0.05933505 0.017376257 -0.022366222 0.07257139 -0.048735075 0.03556979 -0.04918511 0.004175701
0.063179865 -0.0882642 -0.072295755 0.0013375521 -0.03538057 -0.0664599 -0.07831087 -0.039446164
-0.103526585 -0.023330245 0.08671206 0.09487098 0.0014296633 0.05459164 0.06407926 0.04928564
0.08470429 0.021983745 -0.0056252345 -0.0022797745 -0.06619098 0.07558558 -0.038317256 -0.00082880096
0.12012445 -0.05192436 0.10907207 -0.04185494 0.07318405 -0.08550555 -0.02530856 0.12475765
0.0071453024 -0.104989275 0.014308698 -0.09654886 0.01589255 -0.046844017 -0.018576823 -0.060146213
-0.023261867 0.005700909 0.025918415 -0.07661888 0.043861315 -0.0526398 0.070849925 -0.02129653
0.049728066 -0.033312727 0.030291518 0.0378735 -0.014212164 -0.04954893 -0.0155096715 -0.082561806
-0.037595335 -0.08487135 -0.0077809463 0.067266315 0.021142818 0.027546158 -0.06912035 -0.08444427
0.05043773 -0.08007166 -0.04231921 -0.026778264 0.013255668 0.07137804 0.086661816 0.087152146
-0.052182883 0.006363226 0.08141477 0.005515624 -0.03886465 0.042548716 -0.028500492 0.035627607
-0.032167554 0.027413165 0.02091249 -0.027584994 0.037449013 -0.0359172 -0.040842235 -0.04266989
-0.041031662 0.016918568 0.07096549 0.05238419 0.05935179 0.042246148 0.10793005 0.08489636
0.041659027 0.020359365 -0.01585105 0.056787547 -0.037102092 -0.012008448 0.07408099 -0.036973584
0.03778761 0.08580221 0.11211935 -0.03660406 -0.035069622 -0.008389629 0.09048155 0.061325897
0.05741827 0.15221426 -0.010531145 0.059457425 0.035185553 0.14243244 -0.07969947 0.06816869
-0.033923954 -0.08325868 0.046318427 -0.053436365 0.051075943 -0.0022954226 0.022770593 0.044083044
0.0122295655 0.09215871 -0.04949105 -0.04818953 -0.059550483 0.049917936 -0.17205253 0.0668524
0.111227445 -0.03534897 0.0009803694 -0.05825414 -0.03303196 0.027866917 0.021900265 -0.06747663
-0.0058151092 -0.0065172124 -0.06534631 0.06969716 -0.03341602 -0.044122554 0.12123047 0.0627202
-0.02154515 0.022842433 0.061536945 0.059820846 -0.07665531 -0.07331281 0.016652662 0.06968971
-0.08029817 0.042240072 -0.13039073 0.0754059 0.0031063783 -0.03271734 -0.045043558 0.06805997
0.050581113 0.0031058749 -0.0255673 0.06144741 -0.016413508 0.06404147 -0.026845546 0.0023911167
-0.033496175 -0.08641677 -0.039150856 0.023230702 -0.08537674 0.051182333 0.018628096 -0.033166997
-0.088332355 -0.019942902 -0.061157346 -0.014732272 -0.08416376 0.02670209 0.04993239 0.11001598
-0.044310637 0.0665457 -0.0852683 0.02997215 0.006331679 -0.07980083 0.10806616 -0.025840811
0.03652378 0.06529471 0.06275998 0.07855716 0.032327022 -0.0153065305 0.037198417 -0.052626863
0.14727145 -0.045421362 0.027977444 0.11891914 -0.051799666 0.06697707 0.06601327 -0.010206639
-0.012182074 -0.089252345 0.06370936 0.06299505 -0.084833406 -0.021517908 0.08767722 -0.035067778
0.18959275 -0.003989715 -0.07512719 0.074585445 0.11465451 0.06357121 0.056694064 0.018882185
-0.07507559 0.04650145 0.041618347 -0.06536768 -0.06969927 0.07919606 -0.07442468 0.04624142

fc3.bias f4 [128]
00000000: 51af e83d 6ca2 b13d 3a01 a7bd 750a 6e3d
00000010: 8791 ce3d 9b98 773d 566b 61bb dea9 c63d
00000020: 096d d33d 4504 0e3c 5a90 dd3c fe79 643d
00000030: 68d0 28bd 870c 9dbd 7e41 babd dc4e 403c
00000040: 726f cabc 46c5 cf3d 0a39 cdbd 6dea fbbc
00000050: 2178 3fbc 374b 41bd e33c cd3c 566b 8639
00000060: 4a3d f23d b220 5dbd 8b74 073c ce91 8dbc
00000070: 44e1 e5bc d140 363d 5f65 21bd 9bd7 ea3c
00000080: 811d af3d 9a9b 823d f294 18bb 1547 5dbd
00000090: 31c2 d2bc d4e7 b8bc 33ed 95bd 5f9e 59bb
000000a0: 7ec0 ba3d b17a e23d d12d 2f3d fd2b 9cbd
000000b0: d978 9d3d d619 853c 0478 a03d 9b4b 503d
000000c0: 3271 b5bd daf1 1d3c 0688 863d 13ff 4c3c
000000d0: 55f4 1eba bffa aebd 0005 71bb 0178 a33d
000000e0: e329 b5bc 6844 13bd 7d58 8d3c 1389 a6bd
000000f0: e09b 4f3d 9211 683d fe4b 2a3c 8aaa 08bd
00000100: fbf0 493c 5b72 ce3c cd95 403d 917a c63d
00000110: 8e96 b53c 302c 9bbc 073b 843d 3da0 05bb
00000120: d34b 81bd 3dc4 8f3d f561 a3bd c637 e13d
00000130: fc3d dcbb b5b4 d43c 9b4c 80bd 4180 6ebd
00000140: fea1 e43d 44f2 2a3d 1c3a a4bd 5e7d b13d
00000150: a5a3 41bd d31d acba 1e03 e83c f3c8 403d
00000160: 731c 053d b9c9 c1bd f931 28bd 2bc6 4cbd
00000170: 4b70 68bd 5dac ea3c 531f 583c bc61 bb3d
00000180: 2c13 013d c238 ee3c a91b f5bc 9db2 c83d
00000190: 1989 99bd 5140 cd3d 8322 2f3d 8c72 a6bc
000001a0: fed6 45bd 5d1c 7e3c 0bbf 053e 603f ec3d
000001b0: 9a2a 2e3d 9145 4a3c 0ceb 7abc 75ad 083d
000001c0: f251 4ebd 2e6e 4dbb d8b6 c5bc cf19 03bc
000001d0: 0cf1 903c b507 01bd dd55 a63d 23de 903d
000001e0: 2683 72bd ca0a 083d 9ea7 0bbd ddf0 b9bd
000001f0: d1bd 503d 2d94 8b3d 3367 32ba d0cb dc3d
0.11361564 0.08673558 -0.08154531 0.05811544 0.10086351 0.06044827 -0.0034396253 0.09700368
0.10323531 0.00866801 0.027046371 0.055780403 -0.041214377 -0.07668405 -0.09094523 0.011737552
-0.024711344 0.10145049 -0.10020645 -0.030751431 -0.011686356 -0.04719087 0.025053447 0.00025638443
0.11828096 -0.05398626 0.008267532 -0.01728144 -0.028061517 0.044495407 -0.039403316 0.028667262
0.08550549 0.06377335 -0.0023282138 -0.054022867 -0.025727363 -0.022571482 -0.07320633 -0.0033205969
0.09118746 0.11058558 0.042768303 -0.076255776 0.076890655 0.016247671 0.07835391 0.050853353
-0.08859481 0.009640181 0.06568913 0.012511986 -0.000606363 -0.0854392 -0.0036776662 0.07981873
-0.0221147 -0.03595391 0.017254109 -0.081316136 0.050685763 0.05665738 0.0103940945 -0.033365764
0.012325521 0.025201013 0.04701786 0.096913464 0.022166517 -0.018941969 0.06456571 -0.00203897
-0.063132904 0.07019851 -0.07977668 0.10996966 -0.0067212563 0.025965074 -0.06264611 -0.05822778
0.1116371 0.04173495 -0.08018896 0.0866649 -0.047275204 -0.0013131447 0.028321799 0.04706664
0.032497834 -0.09462304 -0.041063283 -0.049993675 -0.056747716 0.028646642 0.013191062 0.09149501
0.031512424 0.029079799 -0.029920416 0.09799693 -0.074968524 0.10022033 0.042757522 -0.020318292
-0.048300736 0.015509692 0.13061158 0.11535525 0.042521097 0.0123456875 -0.015314829 0.033368547
-0.050371118 -0.003134619 -0.024135038 -0.008001759 0.017693065 -0.03150149 0.08121846 0.07073619
-0.059207104 0.033213414 -0.0340954 -0.09079144 0.050962273 0.06815372 -0.0006805539 0.10781062

fc4.weight f4 [2, 128]
00000000: 584e e4bd 4b3e 0c3e 203b 993c 0672 b73d
00000010: 1afd c1bd c08b 6cbd dae8 8b3d 425f 30bd
00000020: 5b79 dbbd 0842 a1bd 6adc 263e 651d ecbd
00000030: 4155 933d 40e6 733d f52e bbbd 6df3 f1bd
00000040: c1b2 f03d fd11 a5bd c2a9 60bd d57a 183c
00000050: fcfa b9bd 9dae eebc 2adb 6dbd 2121 f83d
00000060: 2da9 d4bd a500 f3bb 3900 3bbe 0ebf e13d
00000070: 0952 b0bd 55ed 0abe b7c7 c33d 8345 0b3e
00000080: 459b 67bd deff 8a3c 9b66 d6bd 9ed9 af3c
00000090: 949c 883d a029 bd3d e201 4bbd ce91 8cbe
000000a0: 9aba 90bd 6db4 43be b8fb 9cbd 5a00 6e3b
000000b0: 94b0 cc3d 3583 2bbd eeda a5bd 0105 c1bd
000000c0: 1e06 c5bc 1a7d 8e3d f8eb 1dbd 1f24 97bb
000000d0: 5b68 013e 09d9 813d 2bbc 013b 7716 d03a
000000e0: 712d 40be 0f1f 01be 2f43 123d 4aca 7abd
000000f0: 2c62 9f3d 9d34 afbc 3026 2dbd 81d1 4ebb
00000100: bd98 fe3d dccf 97bc d870 e5bc cf3f 68bd
00000110: c9be c4bd 905c e83d 6c60 e0bd 625a c9bd
00000120: 3411 8a3d bc6c 933d dd1d 9ebd 593e 0dbe
00000130: e864 0ebe a04a 04be 33e6 d13c c70e 95bd
00000140: f024 d9bd 1090 e13d aa18 083c 959a 8bbd
00000150: 7d57 e7bd 21ed 093e a061 e3bd 81bd 17bd
00000160: 10b5 833d 8875 863d e016 a3bd 2f5a 953d
00000170: 59e1 b4bd aa4a c73d 2c20 07ba 1212 81bd
00000180: b5cf 6ebd c03f 03be 73e1 233d 5c05 b9bd
00000190: 81e0 823d ca99 c7bd afad 0fbe 2978 13be
000001a0: 19e4 893d 858f af3d b760 30be 6a69 72be
000001b0: a88e 17be 4667 aabc 6fba 27bd 9329 07be
000001c0: adb5 983d 1c09 0fbe d637 abbc d31e 3abd
000001d0: 1a91 fd3d c8ac 9fbd 9d18 2bbc 0392 9e3d
000001e0: d437 e3bd 8959 883c a1aa c23b eb6a 913d
000001f0: c3a0 c1bd 3f24 b63d 91cf fabd 9e09 adbd
00000200: 8e27 c0bd 3333 403d a3db 473c 5b07 f63c
00000210: 5e06 7cbd ba68 72bd 013a 5bbd fd80 91bd
00000220: 0550 2bbe ead1 36be 39bd f43d daf0 a1bd
00000230: 1b45 4c3d c5f1 e23c cc74 1f3e f881 20be
00000240: 3554 b13b f1fe 10be e776 c53d f1b8 37bd
00000250: 0d1a f83d b543 90bc f1bb 88bd b712 8bba
00000260: cd35 acbd 729e 92bc 48b4 1dbe 239b 513d
00000270: d6dc 9e3d 21d1 383d 4598 5dbd 03f2 f43d
00000280: 5dc8 b7bd fdd6 90bd ca76 533e c585 583b
00000290: 2115 b03d 9058 243d 7c91 1c3d 20a9 3cbe
000002a0: 8fda 0abd f241 3fbe fbd9 7f3d 46f1 0c3c
000002b0: 3f70 f8bc 96bb 71bd e0f7 9b3b 66c0 73bd
000002c0: 9d7e 13bd 1468 d03c d922 86bd 1e96 00be
000002d0: 18af dd3d fb51 f43b 6e18 8bbd eb46 08be
000002e0: cff6 b6bd c9f1 bc3d cdf2 babd cd82 973d
000002f0: 3246 413d 127c 30be 9ce1 88bd 669b 113c
00000300: 7c78 1d3e 89ff 0ebd a063 cfbd b4fa c6bc
00000310: f74c 60bd 60fb a13d bd26 f33d c4f6 d73c
00000320: b3a3 b43c 1be6 ed3d 8f24 a0bd 84ed f4bd
00000330: e56d af3c 3792 8fbd 26cc 773d 29d6 24be
00000340: 3081 83bd 999f a33d 79e6 4c3d abf8 f6bd
00000350: 3fe7 be3d 3f61 c23d 99e1 3bbc 30d7 63bc
00000360: cdb2 dd3d 5d51 e73b 2793 ff3c 4be7 54bd
00000370: 0935 9fbd 138b 933d 082d 1b3e 7888 53bc
00000380: 71be d33d 7894 36be 219c febc 5541 08be
00000390: fda7 b6bc fd5c 86bd 078b 613d ead9 d83d
000003a0: a850 64bc d0cf 2a3e 40d7 1dbe d3f2 18be
000003b0: f09f 6d3e e708 c6bd 9dda 0abd f3fe 14bd
000003c0: 6aa4 273e c694 4b3d 933e 77bd f92f 75ba
000003d0: d023 903d 02a7 293d 1f0e 07bd d1a2 3c3c
000003e0: fa7b 673e ea12 23be 7fd8 43bb 7435 503d
000003f0: f9b4 3ebd b2b4 0a3e e940 ddbc 2fe0 e5bc
-0.111477554 0.13695638 0.01870495 0.08957295 -0.094721034 -0.057750463 0.06831522 -0.043059595
-0.10716506 -0.078739226 0.16295019 -0.11529044 0.07193995 0.059545755 -0.09139816 -0.11814008
0.117528446 -0.080600716 -0.054849394 0.009306629 -0.090810746 -0.029135996 -0.05807034 0.12115694
-0.1038383 -0.0074158483 -0.18261804 0.11022769 -0.08609397 -0.13567097 0.09559577 0.13600735
-0.05654456 0.01696771 -0.10468789 0.021466073 0.0667049 0.09236455 -0.049562342 -0.2745499
-0.070668414 -0.19111796 -0.07665199 0.0036316128 0.09994617 -0.041873176 -0.08098398 -0.094247825
-0.024050768 0.06957455 -0.038555115 -0.0046124603 0.12637465 0.06340224 0.0019795995 0.0015875836
-0.18767335 -0.12609504 0.035708603 -0.061228074 0.07782397 -0.021387393 -0.042272747 -0.003155798
0.12431476 -0.018531732 -0.02800791 -0.056701478 -0.09606702 0.1134578 -0.10955891 -0.09831692
0.067415625 0.07198474 -0.0772054 -0.13793315 -0.1390568 -0.12919092 0.025622463 -0.07278209
-0.106027484 0.11013806 0.008306662 -0.068165936 -0.11295984 0.13469364 -0.11102605 -0.03704596
0.06431019 0.06565386 -0.079633474 0.07292592 -0.08832044 0.09731038 -0.00051546353 -0.06302275
-0.058303554 -0.12817287 0.040009927 -0.09034225 0.06390477 -0.0974613 -0.14031099 -0.14401306
0.06732959 0.08572296 -0.17224394 -0.23673025 -0.14800513 -0.020801198 -0.04094928 -0.13199453
0.07456527 -0.13968319 -0.020900648 -0.045439553 0.123811916 -0.07796627 -0.01044288 0.07742693
-0.11094633 0.016644256 0.0059407507 0.07100471 -0.09454491 0.08893632 -0.122466214 -0.084491
-0.093825445 0.046923827 0.012198362 0.030032804 -0.06152951 -0.059181906 -0.053522114 -0.07104681
-0.16729744 -0.17853513 0.11950154 -0.07907267 0.04987059 0.027703175 0.15571898 -0.15674579
0.0054116496 -0.14159752 0.096418194 -0.04485411 0.12114344 -0.01761041 -0.06676472 -0.0010610436
-0.08408699 -0.017897818 -0.15400803 0.05117334 0.07756965 0.045121316 -0.054100294 0.119602226
-0.08973763 -0.07072256 0.20650783 0.0033038717 0.0859778 0.040123522 0.038224682 -0.18423891
-0.03389984 -0.186775 0.06246374 0.008602446 -0.03032696 -0.059016787 0.0047597736 -0.059509657
-0.03600942 0.025440253 -0.065496154 -0.12557265 0.10824412 0.007456062 -0.06791769 -0.13308303
-0.08933794 0.09225804 -0.09128342 0.07397995 0.047186084 -0.17234829 -0.066836566 0.0088871475
0.15377992 -0.034911666 -0.10126424 -0.024289466 -0.0547609 0.07909274 0.11872623 0.026362784
0.022050714 0.11616155 -0.07819473 -0.11959365 0.021414706 -0.0701031 0.060497425 -0.1609732
-0.06421125 0.07989425 0.050024483 -0.120591484 0.093214504 0.094912045 -0.011467361 -0.013906285
0.10825119 0.00705926 0.031198097 -0.05197839 -0.077737875 0.07204261 0.15153897 -0.012910955
0.10339058 -0.17830074 -0.031080307 -0.13306172 -0.0222969 -0.06560705 0.055064227 0.10588439
-0.013935246 0.16680837 -0.15414143 -0.1493638 0.23205543 -0.09669667 -0.033899892 -0.03637595
0.16371313 0.04970243 -0.06036241 -0.0009353157 0.07038081 0.041419037 -0.03297245 0.011513428
0.22605887 -0.15925184 -0.002988368 0.050832227 -0.046559308 0.13545492 -0.02700849 -0.028061

fc4.bias f4 [2]
00000000: 99a7 a1bd 5f10 513d
-0.07893295 0.051041003

fc1.weight f4 [128, 7]
00000000: 659c 9a3e 783f b4be 958f 313e 660d 713e
00000010: 6262 5bbe ed96 2f3e a836 6a3e fc70 c43d
00000020: 1705 8d3e ce76 38bd 26fb 953e 3fad d63d
00000030: cab9 e13d 3ba9 2b3e f88b b6be 8ade dd3d
00000040: f560 1fbe 1469 b6be ee36 95be 0e18 0ebd
00000050: 5936 e83c a6d8 8ebe 4d61 7c3e 7ec1 413d
00000060: 3faa fc3c 1727 00be 7cab b23c 358a c53e
00000070: 16ef 04bd 2fa3 ac3e f624 f3be 44a4 aebc
00000080: 566c aebe 86be 403e 8ae8 b83e 42c5 a23c
00000090: 487a 0f3e 5ddb 793e 86ff 91be f367 9e3d
000000a0: 1353 adbe 1e7d cbbd 6a78 063e 5f59 85be
000000b0: 3d31 023e 1ea0 6bbe bb1b 0cbe c3e7 babe
000000c0: 9c78 69be dd7e a63c bc56 e83d f82f abbe
000000d0: e2b7 a0be dcd7 2b3e 9af6 4f3e 5db2 b73e
000000e0: 92be 14be 2252 353e ff8e d03e ff10 153e
000000f0: 8a39 90be cca8 ca3e 1576 123e 9a79 30be
00000100: 0a05 99be 483f 913e 8f4a b1bd 6063 69be
00000110: 33bb 49be 6b18 fa3d 1be9 293e 3e97 c43e
00000120: 04a4 85bd f4a4 b93e 2997 c53e 5e23 5bbd
00000130: c7fe d3be 94fd c53d b59d 48bd eac2 f33c
00000140: c5e0 61be eb5a 35bf 2a42 d23e 7865 8ebe
00000150: 9cb8 213e cf95 bcbe bcec b53e 17d3 36be
00000160: 113f b53e 261a 8dbe 09c7 42bd 3b80 a53e
00000170: 1656 a43e 7764 56be eaa8 88be 7a5e 973e
00000180: a1cc 333e 6597 20be 0dc8 373e c5b1 aabe
00000190: 6fbe febd a557 0fbe 6f46 243d f6bf c43e
000001a0: b595 e0bd 88e6 d73d 50b8 0abe d224 903e
000001b0: 1204 513e 6930 c6bd b713 c03e b429 44be
000001c0: 62be 503d f230 623e 1f81 b4bd e061 d1be
000001d0: c9e5 013d 92e7 77be d6ca 7e3e 20d2 ef3e
000001e0: 6069 563e 6bf7 973e 9794 58be 01cd b0be
000001f0: 5115 e73d 7e34 58be a918 ed3d c6da e5bd
00000200: 7d89 14bf eb95 c93d c1cb 03bc edbe b9be
00000210: 3537 e73d 0610 923b fc20 81be e7ed 0bbe
00000220: 70c0 003e 55bb 98be 2e75 3ebe 0bd3 2fbe
00000230: aa2d 43be 0cdc 3abe d0d3 3e3e 1ee2 d1bd
00000240: 1616 8cbe b0d5 763e ac11 a7be cb7e 38be
00000250: 6fb2 aabd b39c 9dbe bff7 e9bc 5504 8ebe
00000260: 17b7 de3d 4e8c 06be b4a6 313e 24cb b23e
00000270: 7691 33be 4a2a 13be da91 1cbe 7fbf 00be
00000280: 61d6 833e b0b8 ddbe ad3d 17be eca9 1cbe
00000290: 8082 183e 7442 a03e b3b9 8e3e afda dcbe
000002a0: 94ef f33d 659d babe 3032 8ebe 4c57 9b3d
000002b0: 4bf7 e83d 9d50 a7ba b82d 573d efec 7a3d
000002c0: 24d6 5b3d c798 dfbe 6dbf 74be 1210 25bd
000002d0: 02b6 c2be cb4a 1d3e 0585 023e 24ce d23d
000002e0: 2932 74be de87 223e fde3 913e 0685 993e
000002f0: 945a f3bd 6d83 9cbd 9642 8ebe 338b cb3e
00000300: ab85 6ebe 5175 99be faff 0c3d 2550 4dbe
00000310: b6c6 743e bd70 473e 9ff3 a6bd 3760 92bc
00000320: ccad 49be 2752 eb3d 6f24 1a3e 19f9 95be
00000330: f965 40be 9e4e 893e 6d44 48be a54d bf3e
00000340: 2ede 35be 1d89 31be 73af b8be a349 ae3e
00000350: 5d1c c1be 06a1 18bd 9e71 733d ff07 d53d
00000360: 637f 54be 57df b1bd 5426 31be dfd8 52bd
00000370: 496c 18be 7761 babe 6596 3a3e 0e2e 52be
00000380: 7d40 3fbe bbfa 893e b3eb 20bf 9d78 693e
00000390: 5172 943e 8d66 193e 548b df3d 0d9a 653e
000003a0: d3d1 debc 1c46 03bf dd2d c8bd 9d28 b03e
000003b0: 31e1 a7bb c641 a73e 44ce 50bd 95c1 e9bd
000003c0: 436b 18be 8a48 dfbd b1ca 86be cdb0 e6bd
000003d0: 03cc e83e a9dd 8c3e b5f3 d73e 78f0 8ebd
000003e0: 4f30 8d3e 9bba 8a3e 8d13 af3e cabb 9f3e
000003f0: 5816 8abe 4eb0 a03e 3cca a03e 1c18 9a3e
0.30197445 -0.35204673 0.17339928 0.23540267 -0.21424249 0.17147417 0.22872412 0.095918626
0.27542946 -0.045035176 0.29293174 0.10482263 0.110217646 0.16763775 -0.35653663 0.108334616
-0.1556433 -0.35627043 -0.2914347 -0.03469091 0.028346227 -0.27899665 0.24646492 0.04730367
0.030842898 -0.12514912 0.021810286 0.38582006 -0.032454573 0.3371825 -0.47489136 -0.021318562
-0.3406703 0.18822679 0.36114913 0.01986945 0.1401149 0.24400087 -0.2851526 0.077346705
-0.33852443 -0.099359736 0.13131872 -0.26044747 0.12714095 -0.23010299 -0.13682453 -0.36504945
-0.22799915 0.020324165 0.11344668 -0.33435035 -0.3139029 0.16781563 0.20308915 0.35878268
-0.14525822 0.17707112 0.40734097 0.14557265 -0.281689 0.39581907 0.14302857 -0.17233887
-0.29886657 0.28368592 -0.08656799 -0.22791815 -0.19700317 0.122116886 0.16592829 0.3839664
-0.06525424 0.36258662 0.3859189 -0.053500526 -0.41405317 0.09667507 -0.048978526 0.029756028
-0.22058399 -0.70841855 0.41066104 -0.2781179 0.15793079 -0.36833045 0.35532176 -0.17853962
0.35399678 -0.27559012 -0.047553096 0.32324395 0.32096928 -0.20936762 -0.2669137 0.29564267
0.17558528 -0.15682752 0.17947407 -0.33338752 -0.12438666 -0.13998277 0.040106233 0.38427705
-0.10966054 0.10542017 -0.13546872 0.28153092 0.20411709 -0.09677202 0.3751504 -0.19156533
0.050962813 0.22088984 -0.088136904 -0.40894985 0.03171328 -0.24209431 0.24882063 0.4684
0.20938635 0.29680952 -0.21150433 -0.34531406 0.11283363 -0.21113774 0.11576969 -0.11223368
-0.5802229 0.09843048 -0.008044184 -0.36278477 0.11289827 0.0044574765 -0.25220478 -0.13664971
0.12573409 -0.29830423 -0.18599388 -0.1717035 -0.19060388 -0.18248004 0.18635488 -0.102482066
-0.273606 0.24104953 -0.3263067 -0.18017118 -0.08334815 -0.30783615 -0.028560517 -0.2773768
0.10874765 -0.1313946 0.17348748 0.3492061 -0.17535958 -0.14371601 -0.15290013 -0.1257305
0.25749496 -0.43304968 -0.14769621 -0.15299195 0.14893532 0.313007 0.27876052 -0.43135592
0.1191093 -0.36448207 -0.27772665 0.0758501 0.113752924 -0.0012765113 0.052533835 0.061261114
0.053671017 -0.43671247 -0.23901148 -0.04029853 -0.38029486 0.15360563 0.12746055 0.102932245
-0.2384726 0.15872142 0.28494254 0.299843 -0.11882511 -0.07642255 -0.27785176 0.39754638
-0.23293178 -0.29972318 0.034423806 -0.20050104 0.23903927 0.194766 -0.08151936 -0.017868144
-0.19695204 0.11490279 0.15052961 -0.2929161 -0.187889 0.26817793 -0.19557352 0.37363926
-0.17760536 -0.17337461 -0.36071357 0.34040555 -0.37716952 -0.03726294 0.059434526 0.10401916
-0.20751719 -0.08685177 -0.17299777 -0.051476356 -0.14885058 -0.36402485 0.18221433 -0.20525381
-0.18676944 0.26949105 -0.6285965 0.22799917 0.28993466 0.14980526 0.109152466 0.22422047
-0.027199661 -0.51278853 -0.09774373 0.34405985 -0.0051232805 0.3266737 -0.05097796 -0.11413876
-0.14884667 -0.109025076 -0.26326516 -0.11264191 0.4546815 0.27512863 0.4217812 -0.069794595
0.2757592 0.27095494 0.34194604 0.3119796 -0.26970172 0.3138451 0.31404293 0.3009652

fc1.bias f4 [128]
00000000: d47f 82be 9562 a23d ad3f d33d 0f61 bfbd
00000010: ebaf a83e 3307 aebe 4072 203d 8415 583e
00000020: d069 6fbc 5be1 7fbd 8d10 323e 56dc 9c3d
00000030: 50c3 c4be a2f7 6ebd ab0e 73be f095 7fbe
00000040: 6bcb 04be 53cf 91be fc5a 793e 9b05 883d
00000050: 2c60 5ebe 273f 9abd 6a70 5f3e 3ce7 133d
00000060: 2c34 e8bd 59dd 5f3e cade ae3e 8b7a b63e
00000070: f836 623d fb01 703e f74f 61be 0e75 b1be
00000080: e1c3 e3bc 55f5 b83d 9af0 253c bdf2 b33e
00000090: 4ea7 913e 4a2c 523e 3472 5f3d 0bb3 553c
000000a0: 1f93 ae3e 9630 893e 483f 043c b4cd cd3e
000000b0: 6d6e c9bd 2650 733e 4862 683e 0406 513d
000000c0: 623d a9be 5f05 053e b72f 3b3c 7f08 bdbe
000000d0: d2cf 51be 5f19 debe 51bd 4abd 8c09 cb3d
000000e0: 4028 8dbe f603 a7be 90c6 c0be 3fd7 af3e
000000f0: 1c15 f53d f23d 5ebe b371 acbd 53ba 70bd
00000100: e292 a3bd 2757 4f3e 846e 90bd a485 26be
00000110: 5c20 1abe 4a19 d0bd dee7 783e f766 993c
00000120: c6af 19be 3fd9 88bb ad4a 073e 8e92 aebe
00000130: 688a 473e c55c 623d 3f5b c43d b7be 1bbe
00000140: 90ff 8f3e 1a36 dcbd 2229 8f3e 66a7 9ebe
00000150: f561 e8bc b299 9d3e f245 2fbe d1f5 64be
00000160: e1fe c03e 214a 933d 6b2e 69bd e48a 76be
00000170: c9c0 ab3e 7c7b bf3e dd18 6ebd ece7 543e
00000180: 148f babe 2601 a73e 8e66 fc3d 35d8 05bd
00000190: 51cb 0d3e 88e1 ba3e dd85 653e 6cf0 9dbd
000001a0: 8273 0e3e 7be8 febd bf23 4cbe 803b 923e
000001b0: 4c13 833e b2c3 8ebe 97e1 26be a626 993e
000001c0: 758d 9c3e 21cc 673e d88a b43e 0505 abbe
000001d0: 886e 4e3b 8f36 53bd 9517 903e 4607 9fbd
000001e0: 9de7 ca3d a6c6 6ebc b4a5 3cbe 0fb8 bf3d
000001f0: cb53 61be 769c 4cbe 5828 a63e 19a4 94be
-0.2548815 0.07928959 0.103148796 -0.09344684 0.32946715 -0.33989868 0.039171457 0.21101958
-0.01461263 -0.062470775 0.17389126 0.07659213 -0.38430262 -0.05834163 -0.23736064 -0.2495954
-0.12968223 -0.28478488 0.24351114 0.06641694 -0.21716374 -0.075315766 0.21820226 0.036109194
-0.11338076 0.21861781 0.3415435 0.35640368 0.055228204 0.23438255 -0.2200316 -0.34659618
-0.027803363 0.09031168 0.010128165 0.35146132 0.28447956 0.20524707 0.054552272 0.013043175
0.3409662 0.2679488 0.008071728 0.40196002 -0.09835515 0.23761043 0.22693741 0.051031128
-0.33054644 0.1299033 0.01142495 -0.36920545 -0.20489433 -0.43378732 -0.049496952 0.0991393
-0.2756977 -0.3262021 -0.3765149 0.34343907 0.11966917 -0.21703318 -0.08420124 -0.058771443
-0.07987 0.2024809 -0.07052329 -0.16261917 -0.15051407 -0.101610735 0.243072 0.018725855
-0.15008458 -0.0041762884 0.1321208 -0.34096187 0.19486392 0.055264253 0.09587716 -0.1520947
0.28124666 -0.107525066 0.2796107 -0.3098709 -0.028367022 0.30781323 -0.17116526 -0.22359397
0.37694457 0.07191873 -0.056929033 -0.2407642 0.3354552 0.373989 -0.05812918 0.20791596
-0.36437285 0.32618064 0.12324248 -0.032676894 0.1384709 0.36500192 0.22414346 -0.077118725
0.1391125 -0.12446686 -0.19935511 0.2856102 0.2560066 -0.2788368 -0.16296993 0.299123
0.30576673 0.22636463 0.3526218 -0.33402267 0.0031498987 -0.051565703 0.28142992 -0.07765059
0.09907458 -0.014573729 -0.18422586 0.09361278 -0.2200462 -0.1998156 0.32452655 -0.29031447

fc2.weight f4 [128, 128]
00000000: c1f8 493e c12d 1fbc 88ad 0abb 39dc e3b8
00000010: ada6 07bd 1efd 4fbd 007f 94bd 6286 903a
00000020: efc3 e23b 201b 3e3d 66c3 66bd 3d78 133e
00000030: f4e6 f6bc ed29 863d fdd5 cd3b 4875 a53d
00000040: dbe6 ac3c 9767 d53d 6c65 263d 15e8 d3bc
00000050: 06e5 033d bfed 6b3c fe4c c8bc 8168 5ebd
00000060: 1d83 cfbd f420 d2bd 160f 993d 9b57 973d
00000070: 66d9 aa3d b1a1 57bd eb38 533d 61b7 e0bb
00000080: 8f06 84bd f8f6 d0bc e8a6 44bd c51a 49bd
00000090: 0f00 b33d fa40 4c3d 4c26 263e 1823 0dbc
000000a0: da2d 013e a31a b0bb a26c 5d3d 2a0d 033e
000000b0: 9366 1e3d 0088 ce3c e365 2dbd 18ba 66ba
000000c0: 22df ba3b 80c6 83bd 9232 bdbd c59d 1cbd
000000d0: ceb8 a53d 91f3 f53c 3f09 cb3d ec85 f1bb
000000e0: 55df c63a bd4e 3cbd 13fb 383d e0f2 053c
000000f0: 0d36 b73d f5b0 13be 1654 85bd 1ae5 d13d
00000100: 3c39 0ebe 62ac 143c cc24 c53c 114b 2d3e
00000110: 96a9 b0bd 9a62 673d b7a4 86bc 63b5 31bd
00000120: 557c a63c 088d b4bd d409 76bd f8b5 3f3e
00000130: 500b 4c3d 73f8 1d3e 529b c83d 830c 45bd
00000140: 3ae1 87bb 4a19 51be b0d8 533d 27ba 0e3d
00000150: 51e1 363e a2e5 053d e17e 073d 18ac 553d
00000160: 9a24 bd3d ee73 d33d 940f f93c 5d5f 2a3c
00000170: e26f 7a3d a79f 75bc baaa 49bd bd8e 923d
00000180: 7762 463d 21c2 16bd 92f0 313c 8fb7 14bc
00000190: 21e2 06be 1096 0cbd 4052 423e 1bcd 803d
000001a0: 6c52 d3bd e59b 40bd 0054 9a3d f27b c93c
000001b0: 016c f83d 2bbe d63d 4dbe dd3d 887c 33bd
000001c0: 2601 d5bd 8254 7a3c c9ba 433e 8527 b9bd
000001d0: 0adf 63bd 2eb0 8a3d f945 1d3d 1774 cd3a
000001e0: 6a8f 8cbd 08c6 a53d b691 2b3e a3e1 8a3d
000001f0: 7f2c 00be 9991 30bd aead ee3d 0b6c 4e3d
00000200: 4b02 e4bd a28d 3f3d d144 343d abbf 623d
00000210: 5ca3 e2bd 3104 acbd 63a3 b4bd 62ff 44bd
00000220: f27e 53bd 9ff4 b43d b829 8a3d ff41 9ebc
00000230: e1a8 b0bd 16f1 673d 177e f4bd df04 cb3d
00000240: bcf6 ab3d 3b3d f1bc fead a53d 8e94 843d
00000250: a4c8 693d 5ca6 91bc d30e 19be 907c 203c
00000260: d0af c7ba 7cbd 81bd aaad 9d3c 536e 173d
00000270: 80d1 18bd 40b2 073e 9d2a 89bc 0223 cdbc
00000280: 4c72 a3bd c921 a4bc 109f 18be a04f d83d
00000290: 50ae b2bc 5e49 563e e4af 0fbe 504a ccbc
000002a0: c078 2e3e a784 cc3d 1c25 d53c 6be7 aabd
000002b0: ecfd b13d 3c23 833d dc15 a73b 89b0 35bc
000002c0: 1944 49bd 4a1e a7bd 9749 0dbe 661b a93d
000002d0: 31e9 a83d c1e3 8a3d b6bb f2bb 7589 0f3e
000002e0: b0c9 84bd f2c3 b33d 0896 aa3d 7c63 be3d
000002f0: beef de3c 49e1 633e 68e0 0e3e 1194 a33d
00000300: fe99 353e 0acc b23c b3bc a5bd 9dc0 1a3e
00000310: 7624 483d c8bb fa3d 8c99 b43d d442 aebd
00000320: 2c31 b13d e990 de3e 7658 f13b 9333 bdbd
00000330: 5af3 373d 2452 9bbd 5068 73bd 7f94 c5bb
00000340: d982 82bd e247 7a3e 3603 95bd bf3c 02bb
00000350: 2c5a 3cbe a40e d73c 27d7 5abd 4276 b0bd
00000360: 4f88 ccbc 9042 523c a1e0 903c d332 94bd
00000370: c980 ba3d 9591 a13c fe8a 96bd 06c6 2cbc
00000380: 13b8 dabb f9d0 833d f1ed 813d f24e 8a3d
00000390: 80bc e3bd 0a84 10bd 0743 f03b 8735 3c3e
000003a0: bff3 563e a650 a8bc 37d9 383d 285d 073d
000003b0: 8f7e 943d 67ca 7cbe ee28 243d 7535 17be
000003c0: f18b 813d a952 8abd 5011 7b3b 99fd b9bd
000003d0: 524d cabc 2ac6 31bd 441f 533d 1661 92bb
000003e0: 8afe 3fbd 7b11 3f3d 2e52 3bbd bd2d 683d
000003f0: a995 e0bd 0416 863d 721d fd3c bdaf 65bd
0.19723798 -0.009715498 -0.0021160562 -0.00010865223 -0.03311794 -0.0507785 -0.07250786 0.0011026377
0.0069203298 0.046412587 -0.05633869 0.14401336 -0.030139424 0.065509655 0.006281613 0.0807901
0.021106174 0.10420149 0.040624067 -0.025867501 0.032200836 0.014399945 -0.024450775 -0.05429888
-0.1013243 -0.102601916 0.074735805 0.07389756 0.08342247 -0.052644435 0.051567953 -0.006857798
-0.064465635 -0.025508389 -0.048010737 -0.049097795 0.087402456 0.049866654 0.16225547 -0.008614324
0.12615147 -0.005374269 0.05405868 0.1279799 0.03867204 0.025211334 -0.042333495 -0.0008801534
0.005702869 -0.06434345 -0.09238161 -0.0382364 0.08091889 0.030023368 0.09913873 -0.007370701
0.0015172759 -0.04597353 0.045161318 0.008175582 0.08945856 -0.14422973 -0.06510179 0.10248776
-0.1388902 0.009074302 0.024065398 0.16923167 -0.08626096 0.05649052 -0.016435964 -0.043385874
0.020322958 -0.08815962 -0.060067967 0.1872176 0.049815476 0.15426807 0.0979525 -0.048107635
-0.004146722 -0.20419803 0.05172032 0.034845497 0.17859389 0.032689698 0.033079986 0.052166075
0.09235497 0.10324846 0.030402936 0.010398713 0.061141856 -0.014991677 -0.049235083 0.071561314
0.048433747 -0.03680623 0.010860579 -0.009076967 -0.13172199 -0.0343228 0.18976688 0.06289121
-0.10318455 -0.047023673 0.07535553 0.024595235 0.12129975 0.104854904 0.108273126 -0.043819934
-0.1040061 0.015278937 0.19114222 -0.09040741 -0.05563263 0.06771885 0.03839681 0.0015674856
-0.068632916 0.08094412 0.16754803 0.06781318 -0.12516974 -0.043107603 0.116542205 0.050396007
-0.1113325 0.04676593 0.04401094 0.05535857 -0.110663146 -0.08399237 -0.08820226 -0.048095115
-0.051634736 0.0883572 0.067462385 -0.019318579 -0.08625961 0.0566264 -0.11938112 0.099130385
0.0839667 -0.029448142 0.08089827 0.06473647 0.05707611 -0.017779522 -0.14947061 0.009795323
-0.0015234891 -0.063349694 0.019247849 0.036970448 -0.03730917 0.1325159 -0.016743952 -0.025041107
-0.07980785 -0.020035641 -0.14904428 0.10562062 -0.021811634 0.20926425 -0.1403194 -0.024937779
0.1703825 0.09986239 0.026018672 -0.08344921 0.0869101 0.06403205 0.0050990414 -0.011089453
-0.04913721 -0.08160074 -0.13797604 0.08257179 0.08247603 0.06781722 -0.007407631 0.1401728
-0.06483781 0.08777608 0.083293974 0.09296319 0.027213927 0.22253908 0.13952792 0.07987226
0.17734525 0.021825809 -0.08092632 0.15112539 0.048862897 0.12242848 0.08818349 -0.0850884
0.08651957 0.43469933 0.0073652817 -0.092383526 0.044909813 -0.075840265 -0.059425652 -0.006029665
-0.063726135 0.24441484 -0.07276003 -0.0019872633 -0.18393773 0.026252098 -0.05342784 -0.08616306
-0.02496734 0.012833253 0.017685236 -0.072362565 0.09106595 0.01972274 -0.073507294 -0.010545259
-0.0066747754 0.06436343 0.06344212 0.06753339 -0.11119938 -0.035282172 0.007332209 0.18379794
0.2099142 -0.020546269 0.045129027 0.033047825 0.07250702 -0.24686585 0.040078096 -0.14766486
0.0632552 -0.067540474 0.003830988 -0.09081573 -0.024695072 -0.043401875 0.05154349 -0.00446714
-0.046873607 0.04664753 -0.04573267 0.056684244 -0.109660454 0.06547168 0.03089783 -0.0560758
