flappybird_dqn_ep100.pth (torch, 561729 bytes, 32 tensors)

fc1.weight f4 [128, 7]
0.31091976 -0.39478686 0.17554934 0.24937256 -0.19557303 0.1877486 0.23694715 0.09610751
0.29703167 -0.04039052 0.27535203 0.08612942 0.10510156 0.16216303 -0.35653663 0.108334616
-0.1556433 -0.35627043 -0.2914347 -0.03469091 0.028346227 -0.282042 0.2562564 0.048232906
0.026581569 -0.122230716 0.020959204 0.3884879 -0.03153818 0.3390445 -0.47606444 -0.025230851
-0.34741583 0.18444452 0.3603748 0.01986945 0.1401149 0.24400087 -0.2851526 0.077346705
-0.33852443 -0.099359736 0.13131872 -0.26044747 0.12714095 -0.23010299 -0.13682453 -0.36504945
-0.22799915 0.019636188 0.14243016 -0.33375612 -0.32765478 0.13683243 0.19938783 0.35910004
-0.14179966 0.1557228 0.42381316 0.14147775 -0.2819945 0.40626234 0.15377747 -0.17233887
-0.29886657 0.28368592 -0.08656799 -0.22791815 -0.19700317 0.122116886 0.16859867 0.392053
-0.05704958 0.35847256 0.38130158 -0.050016016 -0.41975975 0.10031768 -0.07371954 0.03305291
-0.22177847 -0.72240627 0.41251853 -0.27588722 0.15793079 -0.36833045 0.35532176 -0.17853962
0.35399678 -0.27559012 -0.047553096 0.31911054 0.318749 -0.20628287 -0.26803616 0.29686928
0.17679544 -0.1628456 0.18005732 -0.32950544 -0.12215623 -0.13796763 0.03661443 0.38449028
-0.112506494 0.13253075 -0.143082 0.28056785 0.21031626 -0.096602626 0.3889177 -0.1830344
0.050962813 0.22088984 -0.088136904 -0.40894985 0.03171328 -0.24209431 0.24882063 0.47266918
0.19021341 0.29740968 -0.21099864 -0.3657065 0.11341416 -0.20832674 0.10780551 -0.11087498
-0.6368306 0.09746488 -0.0068434235 -0.3706864 0.1111807 0.0044574765 -0.25220478 -0.13664971
0.12573409 -0.29830423 -0.18599388 -0.1717035 -0.19060388 -0.18248004 0.18635488 -0.102482066
-0.273606 0.24104953 -0.3263067 -0.18017118 -0.08334815 -0.30783615 -0.028560517 -0.2773768
0.10874765 -0.1313946 0.17644215 0.35164922 -0.18212025 -0.14845459 -0.1634268 -0.13252544
0.25595647 -0.45044807 -0.15366481 -0.14131135 0.16170494 0.3270951 0.28450924 -0.42920256
0.116749674 -0.3690176 -0.28535768 0.08614147 0.12163172 0.0017289595 0.05251009 0.06689645
0.050178394 -0.45593962 -0.23055708 -0.031779263 -0.3744497 0.16694486 0.12423464 0.11631289
-0.2362146 0.14872348 0.27127728 0.293994 -0.1280386 -0.07317626 -0.2756009 0.39835036
-0.24006507 -0.31280646 0.03185015 -0.20540705 0.24525483 0.1750476 -0.082004644 -0.016683312
-0.19817415 0.118664786 0.15012948 -0.29428878 -0.1689482 0.2736382 -0.19502385 0.3868043
-0.1728367 -0.17343783 -0.36071357 0.34040555 -0.37716952 -0.03726294 0.059434526 0.10401916
-0.20751719 -0.08685177 -0.17299777 -0.051476356 -0.14885058 -0.36402485 0.18221433 -0.20525381
-0.1936002 0.26513854 -0.6553446 0.23563163 0.29599246 0.14960447 0.10831411 0.22259581
-0.02867703 -0.5173125 -0.09306192 0.34656072 -0.0065467106 0.32769597 -0.048082527 -0.101791546
-0.1492856 -0.107660994 -0.26619288 -0.11262857 0.46045098 0.27332744 0.4517143 -0.069966525
0.2611239 0.24364994 0.33692107 0.3101191 -0.27006438 0.3229783 0.31888646 0.29353666
00000000: e030 9f3e 8121 cabe 35c3 333e 855b 7f3e
00000010: 4c44 48be 2b41 403e 46a2 723e 04d4 c43d
00000020: 8914 983e 8870 25bd f1fa 8c3e 9f64 b03d
00000030: 7d3f d73d 110e 263e f88b b6be 8ade dd3d
00000040: f560 1fbe 1469 b6be ee36 95be 0e18 0ebd
00000050: 5936 e83c cf67 90be 0a34 833e de8f 453d
00000060: 97c1 d93c 1954 fabd a3b2 ab3c e3e7 c63e
00000070: 2e2e 01bd 3e97 ad3e b8be f3be eeb0 cebc
00000080: 7de0 b1be 06df 3c3e 0c83 b83e 42c5 a23c
00000090: 487a 0f3e 5ddb 793e 86ff 91be f367 9e3d
000000a0: 1353 adbe 1e7d cbbd 6a78 063e 5f59 85be
000000b0: 3d31 023e 1ea0 6bbe bb1b 0cbe c3e7 babe
000000c0: 9c78 69be 12dc a03c 36d9 113e 15e2 aabe
000000d0: 5ec2 a7be cd1d 0c3e 532c 4c3e f6db b73e
000000e0: ee33 11be cc75 1f3e 0afe d83e 8bdf 103e
000000f0: 9561 90be 9e01 d03e d777 1d3e 9a79 30be
00000100: 0a05 99be 483f 913e 8f4a b1bd 6063 69be
00000110: 33bb 49be 6b18 fa3d 21a5 2c3e 2cbb c83e
00000120: d2ac 69bd b789 b73e f639 c33e 98dd 4cbd
00000130: c0ea d6be 5b73 cd3d 45fa 96bd 7d62 073d
00000140: e519 63be 9eef 38bf a135 d33e 1741 8dbe
00000150: 9cb8 213e cf95 bcbe bcec b53e 17d3 36be
00000160: 113f b53e 261a 8dbe 09c7 42bd 7562 a33e
00000170: 1233 a33e d13b 53be 093c 89be 40ff 973e
00000180: dd09 353e ffc0 26be f260 383e f0b4 a8be
00000190: 0c2d fabd 6347 0dbe 03f9 153d e9db c43e
000001a0: ce69 e6bd 24b6 073e 1684 12be 97a6 8f3e
000001b0: 255d 573e 99d7 c5bd 3920 c73e 5f6d 3bbe
000001c0: 62be 503d f230 623e 1f81 b4bd e061 d1be
000001d0: c9e5 013d 92e7 77be d6ca 7e3e b201 f23e
000001e0: 4ec7 423e 1546 983e 0710 58be e23d bbbe
000001f0: af45 e83d 9b53 55be 23c9 dc3d 6c12 e3bd
00000200: 5507 23bf ab9b c73d cc3e e0bb 9cca bdbe
00000210: b5b2 e33d 0610 923b fc20 81be e7ed 0bbe
00000220: 70c0 003e 55bb 98be 2e75 3ebe 0bd3 2fbe
00000230: aa2d 43be 0cdc 3abe d0d3 3e3e 1ee2 d1bd
00000240: 1616 8cbe b0d5 763e ac11 a7be cb7e 38be
00000250: 6fb2 aabd b39c 9dbe bff7 e9bc 5504 8ebe
00000260: 17b7 de3d 4e8c 06be 40ad 343e 5e0b b43e
00000270: bb7d 3abe 7b04 18be 5b59 27be c0b4 07be
00000280: ba0c 833e 21a1 e6be 4f5a 1dbe ecb3 10be
00000290: fb95 253e 0279 a73e 32ab 913e 70c0 dbbe
000002a0: 741a ef3d e0ef bcbe 671a 92be f06a b03d
000002b0: 0d1a f93d 419e e23a d214 573d 0201 893d
000002c0: dc87 4d3d eb70 e9be 2817 6cbe f92a 02bd
000002d0: dfb7 bfbe 98f3 2a3e bb6e fe3d 7435 ee3d
000002e0: 3de2 71be f84a 183e dbe4 8a3e 6286 963e
000002f0: 8d1c 03be 6fdd 95bd 901b 8dbe 94f4 cb3e
00000300: 9ed3 75be 2b28 a0be 4e75 023d 3a56 52be
00000310: 1524 7b3e ae3f 333e 0df2 a7bd 71ab 88bc
00000320: 2aee 4abe 8606 f33d 8bbb 193e 05ad 96be
00000330: c200 2dbe 4e1a 8c3e 55b4 47be 370b c63e
00000340: 1bfc 30be b099 31be 73af b8be a349 ae3e
00000350: 5d1c c1be 06a1 18bd 9e71 733d ff07 d53d
00000360: 637f 54be 57df b1bd 5426 31be dfd8 52bd
00000370: 496c 18be 7761 babe 6596 3a3e 0e2e 52be
00000380: 213f 46be 3dc0 873e aac4 27bf 6b49 713e
00000390: 538c 973e ea31 193e cad3 dd3d 28f0 633e
000003a0: 17ec eabc 986e 04bf 3f97 bebd 6870 b13e
000003b0: ca85 d6bb c4c7 a73e 2ff2 44bd 1678 d0bd
000003c0: 53de 18be 5e7d dcbd 6f4a 88be cfa9 e6bd
000003d0: 3bc0 eb3e 93f1 8b3e 1947 e73e 9c4a 8fbd
000003e0: 08b2 853e 5f7f 793e eb80 ac3e eec7 9e3e
000003f0: e145 8abe 695d a53e 1645 a33e 704a 963e

fc1.bias f4 [128]
-0.23900256 0.06870314 0.103148796 -0.09555032 0.32561868 -0.33989868 0.039171457 0.20262955
-0.013236598 -0.062470775 0.17255753 0.07758075 -0.38430262 -0.059258055 -0.23903924 -0.23980974
-0.12968223 -0.28425136 0.24194701 0.06641694 -0.21716374 -0.075315766 0.2134822 0.04420678
-0.10738372 0.22701669 0.33123833 0.3517057 0.058405675 0.23760338 -0.2200316 -0.34659618
-0.024696376 0.0916894 0.011839543 0.34096265 0.2804614 0.20431809 0.052818052 0.0105830515
0.33924496 0.27231938 0.012040034 0.4007633 -0.10863026 0.22883427 0.22204204 0.05270803
-0.33054644 0.1299033 0.0092412 -0.36920545 -0.20489433 -0.43412465 -0.05978322 0.095896535
-0.2756977 -0.3262021 -0.3765149 0.33476612 0.114036195 -0.21583243 -0.08339686 -0.06473209
-0.07777485 0.198949 -0.07052329 -0.16245008 -0.15051407 -0.10117543 0.23602164 0.020459138
-0.17078705 -0.0076956125 0.13602088 -0.340736 0.19270036 0.050079692 0.09692622 -0.1520947
0.28265083 -0.10926299 0.2769672 -0.3098709 -0.029602727 0.30357936 -0.17116526 -0.22306614
0.3695497 0.071855344 -0.055460267 -0.2407642 0.33026394 0.37567726 -0.05812918 0.20609373
-0.36437285 0.32589453 0.12035126 -0.033301286 0.13421865 0.35989785 0.222536 -0.07790608
0.13970143 -0.116082974 -0.20114096 0.28438777 0.255002 -0.28334802 -0.15310024 0.2971159
0.30077976 0.21406148 0.34837404 -0.33007795 0.0031498987 -0.051565703 0.28103778 -0.083492674
0.096551165 -0.014573729 -0.18558854 0.09288544 -0.22500452 -0.20962672 0.31303155 -0.29031447
00000000: 16bd 74be 3bb4 8c3d ad3f d33d e3af c3bd
00000010: 7eb7 a63e 3307 aebe 4072 203d 1f7e 4f3e
00000020: 51de 58bc 5be1 7fbd ecb2 303e a8e2 9e3d
00000030: 50c3 c4be 93b8 72bd b4c6 74be af90 75be
00000040: 6bcb 04be 6589 91be f5c0 773e 9b05 883d
00000050: 2c60 5ebe 273f 9abd 149b 5a3e 2b12 353d
00000060: ffeb dbbd 1077 683e 1298 a93e c512 b43e
00000070: ca3a 6f3d 4d4e 733e f74f 61be 0e75 b1be
00000080: 0e50 cabc a7c7 bb3d a4fa 413c a892 ae3e
00000090: a398 8f3e c338 513e be57 583d 8964 2d3c
000000a0: 84b1 ad3e 726d 8b3e 9043 453c d930 cd3e
000000b0: 8b79 debd 8853 6a3e fd5e 633e 60e4 573d
000000c0: 623d a9be 5f05 053e 6768 173c 7f08 bdbe
000000d0: d2cf 51be 9645 debe 40df 74bd 6765 c43d
000000e0: 4028 8dbe f603 a7be 90c6 c0be 7766 ab3e
000000f0: cf8b e93d 2d03 5dbe f9cb aabd 4292 84bd
00000100: 6c48 9fbd 49b9 4b3e 846e 90bd 5059 26be
00000110: 5c20 1abe 1035 cfbd a8af 713e ec99 a73c
00000120: cde2 2ebe 7a2b fcbb 0f49 0b3e f374 aebe
00000130: 3e53 453e 5d20 4d3d 4181 c63d b7be 1bbe
00000140: 9cb7 903e 46c5 dfbd a5ce 8d3e 66a7 9ebe
00000150: 6b81 f2bc c16e 9b3e f245 2fbe 736b 64be
00000160: 9e35 bd3e e528 933d 4e2a 63bd e48a 76be
00000170: 5b18 a93e c558 c03e dd18 6ebd 3c0a 533e
00000180: 148f babe a6db a63e b97a f63d ee66 08bd
00000190: 9d70 093e 8844 b83e 7ae0 633e 398d 9fbd
000001a0: e40d 0f3e e9bc edbd e5f7 4dbe 469b 913e
000001b0: 9f8f 823e fe12 91be 4fc6 1cbe 931f 983e
000001c0: ceff 993e ef32 5b3e 155e b23e faff a8be
000001d0: 886e 4e3b 8f36 53bd 2fe4 8f3e 35fe aabd
000001e0: 9ebc c53d a6c6 6ebc ec0a 3ebe b93a be3d
000001f0: 9667 66be 63a8 56be ac45 a03e 19a4 94be

fc2.weight f4 [128, 128]
0.2042784 -0.010992736 -0.0021160562 -0.0044962815 -0.036967 -0.0507785 -0.07250786 -0.0034492132
0.010135489 0.046412587 -0.07002842 0.16466157 -0.030139424 0.06276433 0.012933219 0.088210456
0.021106174 0.12126797 0.0345441 -0.025867501 0.032200836 0.014399945 -0.028038872 -0.06743531
-0.10568487 -0.11400055 0.07152052 0.080053076 0.08809398 -0.07265534 0.051567953 -0.006857798
-0.06864211 -0.033105087 -0.063973464 -0.05000209 0.08544696 0.029118601 0.17031744 -0.007157462
0.1295081 -0.00544454 0.06060649 0.13919504 0.033460468 0.02341075 -0.042560484 -0.011732902
0.005702869 -0.06434345 -0.11018094 -0.0382364 0.08091889 0.025256278 0.09764954 -0.008886493
0.0015172759 -0.04597353 0.045161318 0.009801203 0.10051581 -0.18116525 -0.08456453 0.10401187
-0.18186015 0.007819327 0.024065398 0.15758769 -0.08626096 0.049736083 -0.022176046 -0.05361515
0.016893126 -0.10001128 -0.06689258 0.2004932 0.043629646 0.16021198 0.10832349 -0.048107635
-0.006827746 -0.24212268 0.045111585 0.034845497 0.18814318 0.020860266 0.033079986 0.059865877
0.09696404 0.097159244 0.034889594 0.010398713 0.06166998 -0.020557038 -0.049235083 0.056886446
0.048433747 -0.04276955 0.0024380418 -0.026895411 -0.14465743 -0.037096445 0.19865313 0.04821305
-0.13355829 -0.052149992 0.0653825 0.017423363 0.12145532 0.109416924 0.11792973 -0.04633181
-0.12772994 0.018530238 0.19937313 -0.100631736 -0.05563263 0.06771885 0.046129283 -0.006014865
-0.07369898 0.08094412 0.17427234 0.06144944 -0.13037163 -0.054505374 0.12038058 0.050396007
-0.10802474 0.05140171 0.04401094 0.06760543 -0.10561397 -0.08399237 -0.08820226 -0.04398162
-0.0448302 0.0883572 0.066178106 -0.029759297 -0.08625961 0.05994214 -0.12052811 0.10148356
0.0839667 -0.043841034 0.07311369 0.06473647 0.05707611 -0.017779522 -0.14876397 -0.007859159
-0.0071100364 -0.071643814 0.02122937 0.039781403 -0.03324802 0.13158478 -0.016743952 -0.025041107
-0.087695725 -0.021032032 -0.16580144 0.110160604 -0.016976785 0.21176751 -0.16072237 -0.024531562
0.17363545 0.08311002 0.029067792 -0.084839515 0.08871216 0.06825618 0.0052672266 -0.010432355
-0.04913721 -0.08160074 -0.13639802 0.08257179 0.08247603 0.08007156 -0.0037919949 0.14494215
-0.06483781 0.08777608 0.083293974 0.09617513 0.027158732 0.2541857 0.1422409 0.08368864
0.18891075 0.024459748 -0.08092632 0.18065049 0.048862897 0.12891486 0.08778705 -0.08447166
0.08588141 0.44455618 0.002448099 -0.11042666 0.03887723 -0.072811335 -0.076021865 -0.006029665
-0.06810442 0.2540744 -0.0759533 -0.0019872633 -0.2088294 0.032885112 -0.05342784 -0.09342033
-0.021948677 0.013390965 0.02318211 -0.072362565 0.09131519 0.015360485 -0.073507294 -0.0044271015
-0.0066747754 0.065771036 0.07433956 0.1070408 -0.10788454 -0.033484552 0.0062184394 0.15874027
0.23225248 -0.026824236 0.049085315 0.03273104 0.06748253 -0.26877704 0.041097417 -0.14850585
0.069802076 -0.06370652 0.00495612 -0.10495057 -0.024695072 -0.043401875 0.051858027 0.0017827202
-0.04406358 0.04664753 -0.06952296 0.050920915 -0.11065792 0.068601966 0.033980664 -0.0560758
00000000: 5b2e 513e e01a 34bc 88ad 0abb 8b55 93bb
00000010: b66a 17bd 1efd 4fbd 007f 94bd 320c 62bb
00000020: 520f 263c 201b 3e3d 0f6b 8fbd 0b9d 283e
00000030: f4e6 f6bc 968a 803d dae5 533c afa7 b43d
00000040: dbe6 ac3c 575b f83d 1d7e 0d3d 15e8 d3bc
00000050: 06e5 033d bfed 6b3c c7b1 e5bc 861b 8abd
00000060: 4f71 d8bd 1f79 e9bd 5a79 923d def2 a33d
00000070: 9e6a b43d 53cc 94bd eb38 533d 61b7 e0bb
00000080: 3c94 8cbd 3399 07bd 8504 83bd fece 4cbd
00000090: d1fe ae3d 228a ee3c b267 2e3e 2589 eabb
000000a0: c59d 043e 1d68 b2bb 833e 783d 2589 0e3e
000000b0: d80d 093d e7c7 bf3c e753 2ebd 5c3b 40bc
000000c0: 22df ba3b 80c6 83bd 8ba6 e1bd c59d 1cbd
000000d0: ceb8 a53d 41e6 ce3c 7bfc c73d a798 11bc
000000e0: 55df c63a bd4e 3cbd 13fb 383d 3a95 203c
000000f0: 3cdb cd3d 6283 39be 2b30 adbd 2d04 d53d
00000100: 8c39 3abe a21c 003c cc24 c53c ab5e 213e
00000110: 96a9 b0bd 10b8 4b3d 8aaa b5bc 8f9b 5bbd
00000120: 7463 8a3c b7d2 ccbd fafe 88bd 174e 4d3e
00000130: 00b5 323d 9c0e 243e b5d8 dd3d 830c 45bd
00000140: 49bb dfbb 02ef 77be edc6 383d 27ba 0e3d
00000150: 9ba8 403e 26e3 aa3c e17e 073d ec35 753d
00000160: 1595 c63d 6dfb c63d 64e8 0e3d 5d5f 2a3c
00000170: a999 7c3d 3c67 a8bc baaa 49bd c301 693d
00000180: 7762 463d 202f 2fbd 8ec7 1f3b c453 dcbc
00000190: 1421 14be 71f2 17bd ba6b 4b3e 0c7b 453d
000001a0: 81c3 08be 3b9b 55bd 43e7 853d 71bb 8e3c
000001b0: 91bd f83d fb15 e03d 2485 f13d 6dc6 3dbd
000001c0: a3cb 02be bacc 973c 7828 4c3e 0318 cebd
000001d0: 0adf 63bd 2eb0 8a3d 0ff2 3c3d 5818 c5bb
000001e0: 7eef 96bd 08c6 a53d 7374 323e 68b2 7b3d
000001f0: 2480 05be 0741 5fbd 188a f63d 0b6c 4e3d
00000200: 133c ddbd 998a 523d d144 343d b774 8a3d
00000210: 234c d8bd 3104 acbd 63a3 b4bd 1226 34bd
00000220: df9f 37bd 9ff4 b43d 6388 873d c5c9 f3bc
00000230: e1a8 b0bd e485 753d 71d7 f6bd 9dd6 cf3d
00000240: bcf6 ab3d a892 33bd a1bc 953d 8e94 843d
00000250: a4c8 693d 5ca6 91bc 9555 18be b4c3 00bc
00000260: 4ffb e8bb feb9 92bd 37e9 ad3c d3f1 223d
00000270: 132f 08bd 29be 063e 9d2a 89bc 0223 cdbc
00000280: d199 b3bd 5e4b acbc dac7 29be e29b e13d
00000290: e612 8bbc 95d9 583e 6894 24be 6af6 c8bc
000002a0: 7ecd 313e 9635 aa3d 941f ee3c 57c0 adbd
000002b0: b9ae b53d e5c9 8b3d b398 ac3b 78ec 2abc
000002c0: 1944 49bd 4a1e a7bd ecab 0bbe 661b a93d
000002d0: 31e9 a83d 8ffc a33d 1e83 78bb b76b 143e
000002e0: b0c9 84bd f2c3 b33d 0896 aa3d 77f7 c43d
000002f0: fd7b de3c a124 823e 99a7 113e f364 ab3d
00000300: d271 413e cf5f c83c b3bc a5bd 71fc 383e
00000310: 7624 483d 4202 043e b2c9 b33d 7aff acbd
00000320: 98e2 af3d de9c e33e 4970 203b 5f27 e2bd
00000330: bb3d 1f3d 1c1e 95bd 5ab1 9bbd 7f94 c5bb
00000340: 557a 8bbd 0a16 823e 678d 9bbd bf3c 02bb
00000350: 60d7 55be 8ab2 063d 27d7 5abd 2853 bfbd
00000360: b6cd b3bc c765 5b3c 69e8 bd3c d332 94bd
00000370: 7503 bb3d 8baa 7b3c fe8a 96bd 3811 91bb
00000380: 13b8 dabb f7b2 863d 573f 983d 3538 db3d
00000390: 92f2 dcbd 1927 09bd 0dc4 cb3b cf8c 223e
000003a0: 98d3 6d3e 80be dbbc af0d 493d fc10 063d
000003b0: 4834 8a3d 259d 89be c455 283d eb11 18be
000003c0: 64f4 8e3d 9078 82bd f366 a23b 53f0 d6bd
000003d0: 524d cabc 2ac6 31bd 1569 543d 2aaa e93a
000003e0: 037c 34bd 7b11 3f3d 0e62 8ebd 7392 503d
000003f0: 9fa0 e2bd 307f 8c3d 4f2f 0b3d bdaf 65bd

fc2.bias f4 [128]
0.09633766 -0.0502174 -0.08003608 0.0072361077 0.024690254 -0.009959361 -0.047081143 -0.06427265
-0.03862388 0.016340233 -0.07386992 -7.238009e-05 0.07048737 0.012143202 -0.043156773 -0.009718479
0.02608467 0.06676637 0.007475934 0.06376672 0.05294672 0.0862519 0.07447088 0.009158422
0.03392409 0.07108082 0.032812696 -0.0116858315 0.062885255 -0.077045955 0.024644034 -0.06536326
0.044261463 0.0042369766 -0.053428844 -0.02596049 0.013638404 0.070672825 0.051870883 0.083099514
0.06303085 -0.08193029 0.01628289 -0.037338484 -0.0069494117 0.033917926 0.084072605 0.052020915
0.025806518 0.03488055 0.03199667 -0.03470887 -0.022366267 0.005838717 -0.04223833 -0.007958619
0.036584634 0.044306822 -0.04661554 0.07316485 0.007192662 -0.07581441 -0.07119015 0.05183645
-0.073258415 0.036782056 0.015299525 -0.058696862 0.05399322 -0.023385905 -0.07320318 0.010243654
-0.07590296 -0.055943444 0.06533927 0.035869464 -0.058112856 0.064268924 0.069176696 0.03504837
0.04089575 -0.048893157 -0.050093267 0.056291394 -0.008539637 -0.030225981 0.03415118 -0.04939342
-0.03082911 -0.0028770017 0.014908457 0.06131316 -0.06354742 -0.06662176 0.044129904 0.096773386
-0.019815497 0.012003806 0.106915444 -0.05203092 0.055172447 0.09486529 -0.0017260715 -0.073131785
0.0073409295 0.029210517 -0.07024765 0.06307225 -0.021151809 -0.045707338 0.04537494 -0.055394597
0.05312701 0.044348523 -0.03285161 -0.0015131712 0.08333807 0.027930431 0.055212922 -0.031748332
-0.025737265 0.03833296 -0.032282773 0.08269563 -0.039335683 -0.042937573 -0.009676 0.032320153
00000000: ae4c c53d c3b0 4dbd f5e9 a3bd df1c ed3b
00000010: 3743 ca3c 962c 23bc 28d8 40bd 61a1 83bd
00000020: 1334 1ebd f4db 853c 1d49 97bd c4ca 97b8
00000030: af5b 903d 48f4 463c 28c5 30bd 413a 1fbc
00000040: 85af d53c cebc 883d aef8 f43b 2098 823d
00000050: a9de 583d d6a4 b03d 3084 983d 350d 163c
00000060: fdf3 0a3d d292 913d 9b66 063d ee75 3fbc
00000070: fcc9 803d 45ca 9dbd 49e2 c93c 2cdd 85bd
00000080: 824b 353d 56d6 8a3b 34d8 5abd 18ab d4bc
00000090: 9d73 5f3c eabc 903d 9076 543d 1430 aa3d
000000a0: 5116 813d 11cb a7bd b263 853c 3df0 18bd
000000b0: e4b7 e3bb 86ed 0a3d 422e ac3d e213 553d
000000c0: 3168 d33c e8de 0e3d f10e 033d e32a 0ebd
000000d0: 7639 b7bc b552 bf3b 1902 2dbd de64 02bc
000000e0: c5d9 153d 127b 353d f0ef 3ebd 74d7 953d
000000f0: 6cb0 eb3b 9644 9bbd 24cc 91bd 7552 543d
00000100: 8208 96bd c8a8 163d dcaa 7a3c 1f6c 70bd
00000110: ff27 5d3d cc93 bfbc 8deb 95bd 00d5 273c
00000120: 0373 9bbd f424 65bd 98d0 853d dceb 123d
00000130: bf07 6ebd 6d9f 833d 83ac 8d3d e18e 0f3d
00000140: 4d82 273d 3144 48bd 992e 4dbd ce91 663d
00000150: d5e9 0bbc 7a9c f7bc 1ce2 0b3d c150 4abd
00000160: 548d fcbc 148c 3cbb 9a42 743c 8223 7b3d
00000170: 2625 82bd fd70 88bd 8fc1 343d 2031 c63d
00000180: 1c54 a2bc 9dab 443c 7cf6 da3d 601e 55bd
00000190: 81fc 613d bc48 c23d 593d e2ba 1ec6 95bd
000001a0: 2e8c f03b e54a ef3c 00de 8fbd 062c 813d
000001b0: 8f46 adbc 9e37 3bbd 13db 393d 72e5 62bd
000001c0: b59b 593d cca6 353d 698f 06bd 9a55 c6ba
000001d0: 26ad aa3d 5cce e43c f226 623d 8a0a 02bd
000001e0: f5d6 d2bc 0603 1d3d f13a 04bd 545c a93d
000001f0: 741e 21bd 4fdf 2fbd 1688 1ebc 2362 043d

fc3.weight f4 [128, 128]
0.059375595 -0.004654245 0.008180899 0.0095007485 -0.060285997 -0.030149825 -0.0006946005 0.0122632785
0.05933505 0.023088347 -0.022366222 0.0724352 -0.04974542 0.03556979 -0.04918511 0.01787928
0.06685605 -0.08568231 -0.072295755 0.0068295016 -0.033190005 -0.0664599 -0.08698286 -0.039446164
-0.096621394 -0.025425807 0.08393241 0.10046572 0.0014296633 0.05459164 0.07012167 0.04928564
0.08470429 0.02650597 -0.0056252345 0.0040509854 -0.06619098 0.081839785 -0.029661534 0.012784994
0.12324679 -0.05192436 0.11309267 -0.04185494 0.07922852 -0.0853473 -0.02530856 0.12928283
0.010880244 -0.09769074 0.01801656 -0.08471624 0.024429172 -0.046844017 -0.018576823 -0.0501398
-0.023261867 0.005700909 0.025918415 -0.076505266 0.042746156 -0.03855737 0.070849925 -0.02129653
0.049728066 -0.029918047 0.030291518 0.040807568 -0.01665121 -0.050122622 -0.0155096715 -0.082561806
-0.037595335 -0.075015575 -0.0042976234 0.067266315 0.021142818 0.033797774 -0.059169352 -0.06601906
0.05656452 -0.08007166 -0.04231921 -0.026778264 0.013255668 0.07137804 0.09522955 0.087152146
-0.045765094 0.011176104 0.091976 0.005920717 -0.03886465 0.046156313 -0.016665548 0.041975405
-0.00030553222 0.03627027 0.026772073 -0.0150807565 0.037449013 -0.021706719 -0.040842235 -0.04266989
-0.041031662 0.020111471 0.07096549 0.05238419 0.05935179 0.042246148 0.11323031 0.09014827
0.056292884 0.020359365 -0.009864925 0.061083183 -0.030697173 -0.012008448 0.07408099 -0.033370573
0.040589746 0.082714364 0.11812919 -0.03660406 -0.035069622 0.003487967 0.08665958 0.06607166
0.061549257 0.15224144 -0.010531145 0.06325947 0.03833352 0.14803016 -0.08588307 0.06816869
-0.033923954 -0.09146743 0.046318427 -0.065249674 0.058554556 -0.0022954226 0.022770593 0.046765134
0.004628074 0.09634038 -0.04949105 -0.056040037 -0.058155324 0.049917936 -0.17810439 0.0668524
0.113406956 -0.036633864 0.00833165 -0.06873544 -0.03303196 0.027866917 0.025304306 -0.06747663
-0.0058151092 -0.01308571 -0.06534631 0.07136341 -0.03341602 -0.052349612 0.11629379 0.06612703
-0.01949235 0.022842433 0.053436518 0.059820846 -0.08530294 -0.06975458 0.016652662 0.06539329
-0.08639369 0.047921225 -0.13670933 0.07669807 -0.0062046284 -0.032712977 -0.045043558 0.07073526
0.050581113 0.0031058749 -0.0255673 0.06555119 -0.011914016 0.06258798 -0.026602983 0.0023911167
-0.033496175 -0.08965038 -0.039150856 0.016917238 -0.082195185 0.0562262 0.018628096 -0.033166997
-0.088332355 -0.016011529 -0.065693006 -0.014732272 -0.08416376 0.024495276 0.04391944 0.108818114
-0.0543216 0.0665457 -0.0852683 0.02997215 0.006331679 -0.07980083 0.10071718 -0.025840811
0.021673609 0.056299184 0.059668124 0.0585845 0.032327022 -0.021150844 0.04226583 -0.059080098
0.15709278 -0.04958664 0.017932879 0.120418034 -0.051799666 0.065543 0.06601327 -0.010206639
-0.012181972 -0.095102325 0.06370936 0.06299505 -0.084833406 -0.021517908 0.07839482 -0.03696434
0.19305259 -0.003989715 -0.06814992 0.07590852 0.11944505 0.06357121 0.056694064 0.013996436
-0.08270906 0.048059285 0.0367815 -0.06536768 -0.06969927 0.08542725 -0.07104932 0.037882995
00000000: d333 733d a382 98bb 2d09 063c 07a9 1b3c
00000010: 73ee 76bd c4fc f6bc da15 36ba ebeb 483c
00000020: 4f09 733d c623 bd3c 5e39 b7bc e858 943d
00000030: dbc1 4bbd a1b1 113d 5376 49bd 9177 923c
00000040: d3eb 883d 357a afbd cc0f 94bd 03ca df3b
00000050: 3ef2 07bd 211c 88bd 1224 b2bd 4d92 21bd
00000060: 70e1 c5bd c849 d0bc c1e4 ab3d f9c0 cd3d
00000070: 8a63 bb3a 7c9b 5f3d f39b 8f3d bddf 493d
00000080: 7179 ad3d 0c23 d93c e353 b8bb 21be 843b
00000090: 238f 87bd 9e9b a73d bffc f2bc 2778 513c
000000a0: d068 fc3d a3ae 54bd 219d e73d 1670 2bbd
000000b0: 9042 a23d 91ca aebd e653 cfbc b862 043e
000000c0: 0d43 323c 1512 c8bd 7797 933c b57f adbd
000000d0: b01f c83c 83df 3fbd 6c2e 98bc 645f 4dbd
000000e0: ac8f bebc b1ce ba3b db52 d43c cbae 9cbd
000000f0: 9816 2f3d 55ee 1dbd c419 913d 0f76 aebc
00000100: a8af 4b3d b116 f5bc eb25 f83c d625 273d
00000110: 1e68 88bc 614d 4dbd 471c 7ebc 2a16 a9bd
00000120: 91fd 19bd c4a1 99bd 14d3 8cbb ecc2 893d
00000130: b433 ad3c 896f 0a3d 905b 72bd 0035 87bd
00000140: 33b0 673d 9cfc a3bd e856 2dbd 175e dbbc
00000150: 4d2e 593c a62e 923d b607 c33d d37c b23d
00000160: 2e74 3bbd fa1b 373c ea5d bc3d 9302 c23b
00000170: 8a30 1fbd 670e 3d3d 3086 88bc 67ee 2b3d
00000180: d72f a0b9 2290 143d 1b51 db3c 4715 77bc
00000190: 2364 193d 4ad2 b1bc 304a 27bd 9fc6 2ebd
000001a0: d110 28bd d0c0 a43c 5b56 913d ce90 563d
000001b0: dd1a 733d 4c0a 2d3d 4be5 e73d a89f b83d
000001c0: 5e93 663d afc8 a63c 7fa0 21bc 5c32 7a3d
000001d0: a378 fbbc 15bf 44bc c6b7 973d 95af 08bd
000001e0: 6f41 263d 2666 a93d b7ed f13d 24ee 15bd
000001f0: 2aa5 0fbd 6096 643b 947a b13d 9450 873d
00000200: 131b 7c3d 2ee5 1b3e d38a 2cbc 2e8e 813d
00000210: 9c03 1d3d 3895 173e 77e3 afbd 079c 8b3d
00000220: d8f3 0abd 4753 bbbd 64b8 3d3d 9fa1 85bd
00000230: e7d6 6f3d cd6e 16bb 6589 ba3c cc8c 3f3d
00000240: 19a7 973b 1b4e c53d 21b7 4abd 3d8a 65bd
00000250: 4734 6ebd c076 4c3d ff60 36be e9e9 883d
00000260: e841 e83d 640d 16bd 7981 083c 2bc5 8cbd
00000270: 854c 07bd 2949 e43c fa4a cf3c 3031 8abd
00000280: ac8c bebb 7265 56bc 49d4 85bd fb26 923d
00000290: 3ddf 08bd 8c6c 56bd 702b ee3d 9c6d 873d
000002a0: 6cae 9fbc 0e20 bb3c 40e0 5a3d b406 753d
000002b0: 4fb3 aebd 7ddb 8ebd 2a6b 883c ebec 853d
000002c0: 2def b0bd 0c49 443d 88fd 0bbe e113 9d3d
000002d0: 3250 cbbb 0bfe 05bd 987f 38bd a6dd 903d
000002e0: 242e 4f3d ef8b 4b3b 8472 d1bc b43f 863d
000002f0: 0133 43bc 202e 803d 80ee d9bc 48b4 1c3b
00000300: 4933 09bd 9e9a b7bd a65c 20bd 0596 8a3c
00000310: f355 a8bd 724d 663d f399 983c 1eda 07bd
00000320: 98e7 b4bd 9c2a 83bc 0e8a 86bd a15f 71bc
00000330: 0d5e acbd 51aa c83c dfe4 333d 08dc de3d
00000340: 5380 5ebd 1d49 883d 25a1 aebd 2888 f53c
00000350: f979 cf3b 9e6e a3bd cf44 ce3d 1cb0 d3bc
00000360: da8c b13c f999 663d 9066 743d 4df6 6f3d
00000370: 5769 043d 8944 adbc ef1e 2d3d f9fd 71bd
00000380: eedc 203e 5c1b 4bbd f9e7 923c bb9d f63d
00000390: e32b 54bd 693b 863d f731 873d bf39 27bc
000003a0: e596 47bc 02c5 c2bd 0e7a 823d 8c03 813d
000003b0: 23bd adbd 5346 b0bc 778d a03d eb67 17bd
000003c0: 94af 453e 28bc 82bb 2f92 8bbd ed75 9b3d
000003d0: 9b9f f43d 9f31 823d 0938 683d 4f51 653c
000003e0: 5e63 a9bd d0d9 443d 33a8 163d 7ddf 85bd
000003f0: 7ebe 8ebd 7bf4 ae3d 4e82 91bd 332b 1b3d

fc3.bias f4 [128]
0.119657554 0.08434112 -0.08154531 0.05535358 0.107177146 0.06522942 -0.0034396253 0.100227475
0.10727656 -0.0034073696 0.02411102 0.061290823 -0.041214377 -0.07668405 -0.09471609 0.019071925
-0.026665121 0.10800099 -0.10492814 0.013920662 -0.012216511 -0.04463733 0.029903058 -0.001675212
0.12151933 -0.05398626 0.007426674 -0.021128275 -0.035067167 0.041245528 -0.039403316 0.024071695
0.09121622 0.06378924 -0.0089746 -0.0540576 -0.025727363 -0.026839873 -0.07320633 0.00083199405
0.09572198 0.11449899 0.042768303 -0.076255776 0.075779535 0.021079542 0.079266556 0.05759878
-0.08859481 0.009640181 0.06922789 0.0063432 -0.0045935567 -0.0854392 -0.0036776662 0.087020524
-0.016395997 -0.037625663 0.0149919735 -0.081316136 0.046649408 0.053466387 0.014385009 -0.033365764
0.012527504 0.028925091 0.05250121 0.100590356 0.027016416 -0.014311997 0.058148406 -0.004416162
-0.063132904 0.064721964 -0.07977668 0.11659807 -0.011861179 0.03261338 -0.06264611 -0.06604292
0.11396338 0.038365986 -0.08018896 0.09253923 -0.047880664 -0.004612058 0.031997304 0.04761554
0.02381428 -0.09462304 -0.04663975 -0.049993675 -0.052215744 0.025952786 0.00448188 0.094052054
0.028548278 0.032854367 -0.029920416 0.103452355 -0.074968524 0.107321955 0.037307426 -0.024877455
-0.050241318 0.011178898 0.13416755 0.12001312 0.0401255 0.018871393 -0.015314829 0.037905894
-0.053511094 -0.002869561 -0.024135038 -0.008001759 0.01486528 -0.047075443 0.08243029 0.06801965
-0.0621656 0.03258947 -0.0340954 -0.09079144 0.05741116 0.06660929 0.0030499212 0.11238975
00000000: 050f f53d 0abb ac3d 3a01 a7bd 6fba 623d
00000010: b17f db3d 0197 853d 566b 61bb 1044 cd3d
00000020: d0b3 db3d 2d4e 5fbb 7984 c53c 160c 7b3d
00000030: 68d0 28bd 870c 9dbd 82fa c1bd ba3c 9c3c
00000040: d070 dabc 9f2f dd3d 91e4 d6bd 7d13 643c
00000050: c327 48bc a2d5 36bd 42f7 f43c ca92 dbba
00000060: 20df f83d b220 5dbd 755b f33b 3415 adbc
00000070: 97a2 0fbd 12f1 283d 5f65 21bd 0132 c53c
00000080: 92cf ba3d efa3 823d 330a 13bc 816b 5dbd
00000090: 31c2 d2bc 4bdf dbbc 33ed 95bd 2d1a 5a3a
000000a0: e309 c43d 727e ea3d d12d 2f3d fd2b 9cbd
000000b0: 4d32 9b3d 01af ac3c 8156 a23d b3ec 6b3d
000000c0: 3271 b5bd daf1 1d3c 5ac7 8d3d 9eda cf3b
000000d0: 8c85 96bb bffa aebd 0005 71bb d137 b23d
000000e0: e650 86bc 5e1d 1abd e5a0 753c 1389 a6bd
000000f0: 7313 3f3d 92ff 5a3d 1aaf 6b3c 8aaa 08bd
00000100: 2940 4d3c 50f4 ec3c 820b 573d 5102 ce3d
00000110: 8851 dd3c de7c 6abc 062d 6e3d 74b5 90bb
00000120: d34b 81bd f38c 843d f561 a3bd f8ca ee3d
00000130: 6455 42bc 9c95 053d 9b4c 80bd 8341 87bd
00000140: a265 e93d a725 1d3d 1c3a a4bd 3585 bd3d
00000150: 841e 44bd bf20 97bb 9b0f 033d 8308 433d
00000160: 2a16 c33c b9c9 c1bd 5309 3fbd 2bc6 4cbd
00000170: 2de0 55bd f09a d43c bcdc 923b 5d9e c03d
00000180: 14de e93c 4d92 063d a91b f5bc d4de d33d
00000190: 1989 99bd 9dcb db3d accf 183d cecb cbbc
000001a0: d7c9 4dbd b227 373c 3863 093e 70c9 f53d
000001b0: a35a 243d 2e98 9a3c 0ceb 7abc 3643 1b3d
000001c0: 732e 5bbd 3f0f 3cbb d8b6 c5bc cf19 03bc
000001d0: 818d 733c 2ed2 40bd 36d1 a83d e34d 8b3d
000001e0: 5ba1 7ebd 897c 053d 9ea7 0bbd ddf0 b9bd
000001f0: f727 6b3d 746a 883d 30e1 473b 992c e63d

fc4.weight f4 [2, 128]
-0.116385765 0.13919438 0.01870495 0.09034349 -0.098310806 -0.062165026 0.06831522 -0.04683623
-0.111275606 -0.08053037 0.16688038 -0.12416333 0.07193995 0.059545755 -0.10015128 -0.121845454
0.11781524 -0.08539283 -0.053271238 0.019876307 -0.10202801 -0.034058772 -0.067381345 0.12027055
-0.108500026 -0.0074158483 -0.18410362 0.11334615 -0.097968854 -0.14492542 0.09559577 0.14216138
-0.06850442 0.009353958 -0.11528485 0.021466073 0.0667049 0.09547281 -0.049562342 -0.28186828
-0.07945287 -0.19859079 -0.07665199 0.0036316128 0.09784874 -0.04940112 -0.0821356 -0.0977932
-0.024050768 0.06957455 -0.041611332 -0.0061142244 0.13005172 0.06340224 0.0019795995 -0.023128571
-0.19043142 -0.13631955 0.035674274 -0.061228074 0.08148732 -0.023646766 -0.04663469 -0.003155798
0.12789501 -0.02955789 -0.0473347 -0.0617519 -0.10228491 0.11156275 -0.12361152 -0.10991188
0.067415625 0.07983842 -0.0772054 -0.14170605 -0.14658985 -0.1356457 0.025622463 -0.07526232
-0.10845007 0.11240793 0.008306662 -0.080042355 -0.10823822 0.1391768 -0.11619045 -0.040858354
0.07233803 0.06565386 -0.08644062 0.07292592 -0.097367875 0.10078119 0.012533745 -0.06710531
-0.056724068 -0.13519083 0.040009927 -0.09346959 0.06390477 -0.10115685 -0.14703214 -0.15457033
0.06209154 0.096183576 -0.17941716 -0.2442017 -0.15792143 -0.03535712 -0.04094928 -0.13796237
0.08072804 -0.1356715 -0.020900648 -0.045439553 0.1263441 -0.06323209 -0.017713234 0.075149745
-0.12110324 0.01473426 0.0059407507 0.07100471 -0.10172899 0.094102696 -0.12605989 -0.09075688
-0.09476973 0.044852536 0.012198362 0.030489502 -0.06257175 -0.060433313 -0.053522114 -0.0726231
-0.17302184 -0.19001247 0.12122673 -0.09348511 0.04987059 0.027703175 0.16592237 -0.16292344
0.0026978117 -0.1470375 0.096418194 -0.07014487 0.13291703 -0.023427494 -0.079473354 -0.0024192992
-0.09070436 -0.017897818 -0.1549689 0.05483773 0.08428738 0.045733232 -0.054100294 0.120099194
-0.11509913 -0.07268985 0.22125985 0.0021842504 0.0859778 0.041473486 0.038224682 -0.19705594
-0.04986722 -0.2013865 0.06246374 0.008602446 -0.032702748 -0.067002885 -0.00012459453 -0.06523912
-0.03600942 0.025440253 -0.06791511 -0.1302373 0.107088245 0.007456062 -0.06791769 -0.15941179
-0.09655742 0.09088626 -0.09126788 0.07397995 0.05109491 -0.18283178 -0.06821382 0.0088871475
0.15205364 -0.04591698 -0.11869965 -0.02666252 -0.06452352 0.10467006 0.12086998 0.026483357
0.022050714 0.12546988 -0.07819473 -0.1258454 0.021809382 -0.080767445 0.060497425 -0.17271583
-0.07143779 0.078171395 0.050024483 -0.14117578 0.09871492 0.094085515 -0.016401544 -0.014713186
0.11062754 0.00705926 0.03183328 -0.05197839 -0.09200153 0.070182 0.1596137 -0.0154203065
0.093295 -0.19646369 -0.031080307 -0.13697241 -0.0222969 -0.071642764 0.055956323 0.11717854
-0.021261428 0.17352958 -0.16870192 -0.1629999 0.24873783 -0.11902338 -0.033899892 -0.05369354
0.16879839 0.06160529 -0.06036241 -0.0009353157 0.068902075 0.041419037 -0.028668758 0.011534522
0.24120998 -0.1639866 -0.002988368 0.050832227 -0.0564105 0.13904068 -0.03442453 -0.038628817
00000000: a95b eebd f988 0e3e 203b 993c 0206 b93d
00000010: 2d57 c9bd c1a0 7ebd dae8 8b3d 59d7 3fbd
00000020: 77e4 e3bd 1bed a4bd b1e2 2a3e 5849 febd
00000030: 4155 933d 40e6 733d 1d1c cdbd 1c8a f9bd
00000040: 1e49 f13d 70e2 aebd f132 5abd a3d3 a23c
00000050: 10f4 d0bd 3681 0bbd 3bff 89bd 6850 f63d
00000060: 4335 debd a500 f3bb a985 3cbe 0722 e83d
00000070: e5a3 c8bd 5467 14be b7c7 c33d c192 113e
00000080: 0c4c 8cbd 5841 193c 771a ecbd 9ed9 af3c
00000090: 949c 883d 4087 c33d e201 4bbd 0a51 90be
000000a0: 30b8 a2bd 625b 4bbe b8fb 9cbd 5a00 6e3b
000000b0: ec64 c83d d458 4abd b636 a8bd cd47 c8bd
000000c0: 1e06 c5bc 1a7d 8e3d a570 2abd d559 c8bb
000000d0: 472c 053e 09d9 813d 2bbc 013b 2178 bdbc
000000e0: 7400 43be 5a97 0bbe 301f 123d 4aca 7abd
000000f0: d3e2 a63d ddb6 c1bc 0404 3fbd 81d1 4ebb
00000100: e9f6 023e 6323 f2bc 08e2 41bd 8fef 7cbd
00000110: c07a d1bd 037b e43d 0928 fdbd 7b19 e1bd
00000120: 3411 8a3d 5382 a33d dd1d 9ebd 641b 11be
00000130: a61b 16be b5e6 0abe 33e6 d13c 2223 9abd
00000140: 121b debd 2136 e63d aa18 083c 3fed a3bd
00000150: 00ac ddbd 5d84 0e3e 42f5 edbd 175b 27bd
00000160: f625 943d 8875 863d c807 b1bd 2f5a 953d
00000170: cf68 c7bd 5e66 ce3d 565a 4d3c 826e 89bd
00000180: 7f57 68bd 776f 0abe 73e1 233d fc6c bfbd
00000190: 81e0 823d 532b cfbd 988f 16be af47 1ebe
000001a0: b353 7e3d e5fb c43d 22b9 37be 0310 7abe
000001b0: 28b6 21be a1d2 10bd 6fba 27bd 0246 0dbe
000001c0: be54 a53d 78ed 0abe d637 abbc d31e 3abd
000001d0: 5960 013e d37f 81bd 581b 91bc 1ce8 993d
000001e0: fa04 f8bd f767 713c a1aa c23b eb6a 913d
000001f0: 4a57 d0bd eab8 c03d d815 01be bede b9bd
00000200: a216 c2bd 4bb7 373d a3db 473c 1fc5 f93c
00000210: 9e25 80bd ec88 77bd 013a 5bbd 6bbb 94bd
00000220: a32c 31be a192 42be b845 f83d 1f75 bfbd
00000230: 1b45 4c3d c5f1 e23c 8ee7 293e 67d5 26be
00000240: c5cd 303b 0091 16be e776 c53d 1da8 8fbd
00000250: 671b 083e 04eb bfbc edc2 a2bd 1b8d 1ebb
00000260: 35c3 b9bd 729e 92bc 2bb0 1ebe 879d 603d
00000270: dd9e ac3d c552 3b3d 4598 5dbd 91f6 f53d
00000280: 18b9 ebbd 6bde 94bd f191 623e a425 0f3b
00000290: 2115 b03d 1ae0 293d 7c91 1c3d 08c9 49be
000002a0: 9241 4cbd 4338 4ebe fbd9 7f3d 46f1 0c3c
000002b0: 51f3 05bd cf38 89bd 97a5 02b9 169c 85bd
000002c0: 9d7e 13bd 1468 d03c 1417 8bbd ed5c 05be
000002d0: 1551 db3d fb51 f43b 6e18 8bbd d83c 23be
000002e0: e6bf c5bd 9322 ba3d a7ea babd cd82 973d
000002f0: e548 513d 4138 3bbe b0b3 8bbd 669b 113c
00000300: f3b3 1b3e 7113 3cbd cd18 f3bd 5b6b dabc
00000310: e824 84bd 425d d63d ae8a f73d a0f3 d83c
00000320: b3a3 b43c 2d7b 003e 8f24 a0bd 9edd 00be
00000330: 97a9 b23c 6769 a5bd 26cc 773d 6bdc 30be
00000340: fa4d 92bd 5318 a03d 79e6 4c3d 6290 10be
00000350: 0c2b ca3d e8af c03d 885c 86bc 930f 71bc
00000360: b190 e23d 5d51 e73b 9d63 023d 4be7 54bd
00000370: 4c6b bcbd 95bb 8f3d c671 233e 74a5 7cbc
00000380: 7311 bf3d c72d 49be 219c febc 7f42 0cbe
00000390: fda7 b6bc 71b9 92bd 7532 653d 4dfb ef3d
000003a0: 722c aebc bdb1 313e 32c0 2cbe 72e9 26be
000003b0: 21b5 7e3e 88c2 f3bd 9dda 0abd c2ed 5bbd
000003c0: 7cd9 2c3e d455 7c3d 933e 77bd f92f 75ba
000003d0: 881c 8d3d 02a7 293d beda eabc 4bfb 3c3c
000003e0: c0ff 763e 1aec 27be 7fd8 43bb 7435 503d
000003f0: b20e 67bd ae60 0e3e bc00 0dbd 4039 1ebd

fc4.bias f4 [2]
-0.080151014 0.049774908
00000000: 3726 a4bd c6e0 4b3d

fc1.weight f4 [128, 7]
0.31125447 -0.3875165 0.17642282 0.24737175 -0.19937128 0.18504836 0.23664266 0.09625183
0.29427287 -0.04087754 0.27707666 0.08705809 0.10577848 0.162531 -0.35653663 0.108334616
-0.1556433 -0.35627043 -0.2914347 -0.03469091 0.028346227 -0.28377783 0.25471666 0.046737943
0.02520514 -0.12307074 0.019478323 0.3868813 -0.032128215 0.33783025 -0.47692564 -0.025325118
-0.34700906 0.18468902 0.35959378 0.01986945 0.1401149 0.24400087 -0.2851526 0.077346705
-0.33852443 -0.099359736 0.13131872 -0.26044747 0.12714095 -0.23010299 -0.13682453 -0.36504945
-0.22799915 0.018729838 0.13976672 -0.33494344 -0.32756993 0.13777296 0.19895129 0.35829365
-0.14443237 0.16209875 0.42171234 0.13846539 -0.28617376 0.4016799 0.15027535 -0.17233887
-0.29886657 0.28368592 -0.08656799 -0.22791815 -0.19700317 0.122116886 0.16838159 0.39209136
-0.05763929 0.3588146 0.38130614 -0.050582528 -0.41892594 0.10129157 -0.07478103 0.033966146
-0.22087371 -0.7218329 0.41344336 -0.27501497 0.15793079 -0.36833045 0.35532176 -0.17853962
0.35399678 -0.27559012 -0.047553096 0.3228856 0.32023984 -0.20179129 -0.2675516 0.2958962
0.17870247 -0.15955533 0.1816564 -0.32995975 -0.120946564 -0.13764727 0.036817465 0.38590512
-0.111467846 0.12943114 -0.13491106 0.28183138 0.2038499 -0.10399513 0.38223296 -0.18619837
0.050962813 0.22088984 -0.088136904 -0.40894985 0.03171328 -0.24209431 0.24882063 0.47360563
0.19021341 0.29839203 -0.21001634 -0.3646564 0.11439653 -0.2075701 0.10971304 -0.1116492
-0.63594717 0.09757649 -0.007368854 -0.36895984 0.110985436 0.0044574765 -0.25220478 -0.13664971
0.12573409 -0.29830423 -0.18599388 -0.1717035 -0.19060388 -0.18248004 0.18635488 -0.102482066
-0.273606 0.24104953 -0.3263067 -0.18017118 -0.08334815 -0.30783615 -0.028560517 -0.2773768
0.10874765 -0.1313946 0.17678267 0.35138264 -0.18031119 -0.14793518 -0.1623016 -0.13097282
0.25635463 -0.44813353 -0.15278983 -0.1429306 0.15922044 0.32473922 0.28407246 -0.43145218
0.11841602 -0.3683487 -0.28971508 0.08456485 0.12019572 0.0016593673 0.052047674 0.06741916
0.050896786 -0.45536065 -0.2312506 -0.032971613 -0.37433392 0.16587892 0.12671492 0.11540018
-0.23506252 0.14831041 0.26956135 0.29583544 -0.12661593 -0.072764926 -0.27550226 0.39935637
-0.23990266 -0.31300846 0.032535117 -0.20419668 0.24439268 0.18137407 -0.080944404 -0.019311765
-0.20186542 0.11708493 0.15022445 -0.29364872 -0.17041865 0.2735423 -0.19451901 0.38582054
-0.17277086 -0.17254849 -0.36071357 0.34040555 -0.37716952 -0.03726294 0.059434526 0.10401916
-0.20751719 -0.08685177 -0.17299777 -0.051476356 -0.14885058 -0.36402485 0.18221433 -0.20525381
-0.19220358 0.26529714 -0.6596291 0.23404418 0.29461992 0.14980638 0.107387505 0.22323193
-0.029630017 -0.51857865 -0.093558 0.34630623 -0.0058495514 0.32684478 -0.049645323 -0.10420024
-0.15036538 -0.10870443 -0.26535878 -0.11368744 0.45908502 0.27322412 0.4460451 -0.070669524
0.26287347 0.24677813 0.33752984 0.3100666 -0.27083528 0.32201925 0.3179074 0.2942931
00000000: bf5c 9f3e 9068 c6be 2fa8 343e 054f 7d3e
00000010: fc27 4cbe 517d 3d3e 7452 723e ae1f c53d
00000020: efaa 963e 356f 27bd fedc 8d3e 834b b23d
00000030: 63a2 d83d 876e 263e f88b b6be 8ade dd3d
00000040: f560 1fbe 1469 b6be ee36 95be 0e18 0ebd
00000050: 5936 e83c 544b 91be 396a 823e 4970 3f3d
00000060: 027b ce3c 830c fcbd 0191 9f3c 4e15 c63e
00000070: e098 03bd 16f8 ac3e 992f f4be 9f76 cfbc
00000080: 2cab b1be 1e1f 3d3e ad1c b83e 42c5 a23c
00000090: 487a 0f3e 5ddb 793e 86ff 91be f367 9e3d
000000a0: 1353 adbe 1e7d cbbd 6a78 063e 5f59 85be
000000b0: 3d31 023e 1ea0 6bbe bb1b 0cbe c3e7 babe
000000c0: 9c78 69be 516f 993c 021f 0f3e b57d abbe
000000d0: 3fb7 a7be 5b14 0d3e e3b9 4b3e 4472 b73e
000000e0: 14e6 13be 37fd 253e aeea d73e dfc9 0d3e
000000f0: 5e85 92be fda8 cd3e c8e1 193e 9a79 30be
00000100: 0a05 99be 483f 913e 8f4a b1bd 6063 69be
00000110: 33bb 49be 6b18 fa3d 396c 2c3e 33c0 c83e
00000120: 2d17 6cbd 8cb6 b73e 8f3a c33e a02f 4fbd
00000130: 767d d6be f471 cf3d cc26 99bd 1620 0b3d
00000140: b82c 62be 0aca 38bf d9ae d33e c3ce 8cbe
00000150: 9cb8 213e cf95 bcbe bcec b53e 17d3 36be
00000160: 113f b53e 261a 8dbe 09c7 42bd 4351 a53e
00000170: 7af6 a33e 60a2 4ebe 86fc 88be b57f 973e
00000180: c8fd 363e 7962 23be 2304 3a3e 7cf0 a8be
00000190: d5b2 f7bd 68f3 0cbe e9cd 163d 5b95 c53e
000001a0: 4149 e4bd 9989 043e 2026 0abe 344c 903e
000001b0: 07be 503e 66fb d4bd 0ab4 c33e c9aa 3ebe
000001c0: 62be 503d f230 623e 1f81 b4bd e061 d1be
000001d0: c9e5 013d 92e7 77be d6ca 7e3e 707c f23e
000001e0: 4ec7 423e d7c6 983e 860e 57be 3eb4 babe
000001f0: ba48 ea3d 428d 54be 3bb1 e03d 56a8 e4bd
00000200: 6fcd 22bf 2fd6 c73d 6d76 f1bb 4ee8 bcbe
00000210: 554c e33d 0610 923b fc20 81be e7ed 0bbe
00000220: 70c0 003e 55bb 98be 2e75 3ebe 0bd3 2fbe
00000230: aa2d 43be 0cdc 3abe d0d3 3e3e 1ee2 d1bd
00000240: 1616 8cbe b0d5 763e ac11 a7be cb7e 38be
00000250: 6fb2 aabd b39c 9dbe bff7 e9bc 5504 8ebe
00000260: 17b7 de3d 4e8c 06be 8406 353e 6de8 b33e
00000270: 7fa3 38be 527c 17be 6432 26be bd1d 06be
00000280: ea40 833e c271 e5be f074 1cbe 665c 12be
00000290: af0a 233e 3844 a63e f271 913e 4de7 dcbe
000002a0: 1984 f23d 3398 bcbe 8955 94be 5630 ad3d
000002b0: 2c29 f63d 217f d93a f12f 553d 0e13 8a3d
000002c0: 2679 503d 0825 e9be f5cc 6cbe 3e0d 07bd
000002d0: b2a8 bfbe 2adc 293e 8ec1 013e ee56 ec3d
000002e0: 3bb4 70be afde 173e f203 8a3e be77 973e
000002f0: 9ba7 01be c705 95bd a20e 8dbe 7078 cc3e
00000300: 0ba9 75be a542 a0be 8b43 053d ef18 51be
00000310: 1342 7a3e 20ba 393e 2ec6 a5bd b533 9ebc
00000320: cfb5 4ebe 39ca ef3d 70d4 193e 2059 96be
00000330: 3a82 2ebe bd0d 8c3e fe2f 47be 458a c53e
00000340: d8ea 30be 8db0 30be 73af b8be a349 ae3e
00000350: 5d1c c1be 06a1 18bd 9e71 733d ff07 d53d
00000360: 637f 54be 57df b1bd 5426 31be dfd8 52bd
00000370: 496c 18be 7761 babe 6596 3a3e 0e2e 52be
00000380: 04d1 44be 07d5 873e 74dd 28bf 47a9 6f3e
00000390: 6cd8 963e d866 193e fbed db3d e996 643e
000003a0: a6ba f2bc 92c1 04bf 569b bfbd 0d4f b13e
000003b0: 98ad bfbb 3358 a73e e558 4bbd ef66 d5bd
000003c0: 62f9 19be 6ea0 debd 1bdd 87be f6d4 e8bd
000003d0: 310d eb3e 08e4 8b3e 0660 e43e 2fbb 90bd
000003e0: 5a97 863e 68b3 7c3e b6d0 ac3e 0dc1 9e3e
000003f0: ecaa 8abe b5df a43e c2c4 a23e 96ad 963e

fc1.bias f4 [128]
-0.24136229 0.06932519 0.103148796 -0.09719379 0.32554662 -0.33989868 0.039171457 0.20216335
-0.017134102 -0.062470775 0.17242959 0.07851876 -0.38430262 -0.05829234 -0.23790339 -0.24677952
-0.12968223 -0.2832691 0.24211876 0.06641694 -0.21716374 -0.075315766 0.21434122 0.042748418
-0.10820951 0.22633407 0.33156055 0.35188958 0.05581351 0.23780431 -0.2200316 -0.34659618
-0.025453955 0.091705956 0.0107490085 0.3419681 0.2805372 0.20368932 0.05382034 0.010807426
0.3399676 0.27086174 0.008050669 0.40107444 -0.10959529 0.22770378 0.22321413 0.05250696
-0.33054644 0.1299033 0.008001604 -0.36920545 -0.20489433 -0.4347551 -0.058573008 0.09555452
-0.2756977 -0.3262021 -0.3765149 0.33349422 0.115790635 -0.21665293 -0.084676884 -0.06415483
-0.078060925 0.19947906 -0.07052329 -0.16585727 -0.15051407 -0.102449074 0.23619285 0.02093359
-0.17078705 -0.008446739 0.13481414 -0.3397855 0.19214585 0.049745988 0.09795701 -0.1520947
0.28161648 -0.10699023 0.27630877 -0.3098709 -0.02850613 0.30359682 -0.17116526 -0.22263223
0.37089583 0.070411116 -0.05586608 -0.2407642 0.32974645 0.3756618 -0.05812918 0.20575334
-0.36437285 0.32660043 0.121979855 -0.029440014 0.13318478 0.35984585 0.22395645 -0.07984981
0.13405979 -0.11650472 -0.20220843 0.28371948 0.2539216 -0.28199026 -0.15467303 0.29789025
0.2986213 0.21646205 0.34836388 -0.33182466 0.0031498987 -0.051565703 0.28096688 -0.0836399
0.09730917 -0.014573729 -0.18477757 0.09343276 -0.22444947 -0.20725504 0.31465024 -0.29031447
00000000: ad27 77be 5dfa 8d3d ad3f d33d 8a0d c7bd
00000010: 0cae a63e 3307 aebe 4072 203d e903 4f3e
00000020: d15c 8cbc 5be1 7fbd 6291 303e 72ce a03d
00000030: 50c3 c4be f3c3 6ebd f29c 73be c5b3 7cbe
00000040: 6bcb 04be a608 91be fbed 773e 9b05 883d
00000050: 2c60 5ebe 273f 9abd 447c 5b3e f718 2f3d
00000060: f39c ddbd 1ec4 673e 4ec2 a93e df2a b43e
00000070: b59c 643d f982 733e f74f 61be 0e75 b1be
00000080: d084 d0bc 55d0 bb3d 9c1c 303c 7116 af3e
00000090: 92a2 8f3e ef93 503e b872 5c3d a111 313c
000000a0: 3c10 ae3e 64ae 8a3e f4e6 033c a159 cd3e
000000b0: 7f73 e0bd 2e2b 693e 3f92 643e 8a11 573d
000000c0: 623d a9be 5f05 053e 2919 033c 7f08 bdbe
000000d0: d2cf 51be 3898 debe 40ea 6fbd 17b2 c33d
000000e0: 4028 8dbe f603 a7be 90c6 c0be c1bf aa3e
000000f0: a423 ed3d 44da 5dbe 136b adbd 9c63 83bd
00000100: 68de 9fbd 3d44 4c3e 846e 90bd 7dd6 29be
00000110: 5c20 1abe d2d0 d1bd 8adc 713e ec7c ab3c
00000120: cde2 2ebe 3164 0abc b80c 0a3e 5df8 adbe
00000130: e2c1 443e 73c2 4b3d af9d c83d b7be 1bbe
00000140: 0930 903e b21d dbbd 5878 8d3e 66a7 9ebe
00000150: b085 e9bc 0b71 9b3e f245 2fbe b4f9 63be
00000160: 0fe6 bd3e b433 903d d5d3 64bd e48a 76be
00000170: 87d4 a83e be56 c03e dd18 6ebd 01b1 523e
00000180: 148f babe 2c38 a73e 93d0 f93d 2f2c f1bc
00000190: 9761 083e b73d b83e d754 653e 4c88 a3bd
000001a0: f846 093e 079a eebd ba0f 4fbe ae43 913e
000001b0: 0302 823e 0761 90be 9b62 1ebe 1285 983e
000001c0: e4e4 983e 3aa8 5d3e c05c b23e ece4 a9be
000001d0: 886e 4e3b 8f36 53bd e4da 8f3e 654b abbd
000001e0: 084a c73d a6c6 6ebc 5536 3dbe ad59 bf3d
000001f0: 15d6 65be aa3a 54be d619 a13e 19a4 94be

fc2.weight f4 [128, 128]
0.2050005 -0.010208694 -0.0021160562 -0.0033880577 -0.03632126 -0.0507785 -0.07250786 -0.0024371904
0.010934031 0.046412587 -0.06870026 0.16474143 -0.030139424 0.06294948 0.013870968 0.0886725
0.021106174 0.1217874 0.034790613 -0.025867501 0.032200836 0.014399945 -0.02702913 -0.06525851
-0.10478906 -0.11323661 0.072519265 0.08065583 0.088790916 -0.07023004 0.051567953 -0.006857798
-0.0682181 -0.03228624 -0.06226003 -0.049097452 0.08648209 0.03114022 0.17143013 -0.00635067
0.13028775 -0.0036059648 0.061126295 0.13943568 0.034013256 0.024391154 -0.041911583 -0.011685416
0.005702869 -0.06434345 -0.109506026 -0.0382364 0.08091889 0.026245719 0.09866921 -0.007873134
0.0015172759 -0.04597353 0.045161318 0.010403201 0.1007315 -0.17843685 -0.08273166 0.1048046
-0.17874068 0.008759252 0.024065398 0.16247338 -0.08626096 0.05090554 -0.021130498 -0.053606804
0.016893126 -0.10025364 -0.06574426 0.20127457 0.044559184 0.16088368 0.10931531 -0.048107635
-0.006257871 -0.23978488 0.046229858 0.034845497 0.18914287 0.022338314 0.033079986 0.060473245
0.09750673 0.09818027 0.035523016 0.010398713 0.062546924 -0.020125324 -0.049235083 0.05839845
0.048433747 -0.04175846 0.0033016454 -0.030107696 -0.14347146 -0.036047142 0.19917136 0.051825926
-0.13278371 -0.05011303 0.066870004 0.018524753 0.12188249 0.11048917 0.118205965 -0.045512203
-0.12580352 0.019123303 0.19980843 -0.09659857 -0.05563263 0.06771885 0.046582617 -0.0053189145
-0.07259819 0.08094412 0.1754127 0.061688207 -0.13000156 -0.05368644 0.12105775 0.050396007
-0.10812088 0.051544555 0.04401094 0.0686928 -0.10509198 -0.08399237 -0.08820226 -0.04368499
-0.04516156 0.0883572 0.06664677 -0.029687604 -0.08625961 0.05937577 -0.12195866 0.10089588
0.0839667 -0.04350229 0.0740669 0.06473647 0.05707611 -0.017779522 -0.14741375 -0.006250754
-0.0069659734 -0.070167124 0.021191614 0.039165523 -0.03298812 0.1319642 -0.016743952 -0.025041107
-0.08679107 -0.020433215 -0.16249256 0.11016332 -0.01733868 0.21166137 -0.15946993 -0.024674287
0.17361383 0.0853983 0.02878329 -0.08537021 0.08878482 0.06824908 0.005162279 -0.010756322
-0.04913721 -0.08160074 -0.13589379 0.08257179 0.08247603 0.08110169 -0.0038066385 0.14475895
-0.06483781 0.08777608 0.083293974 0.095800735 0.026585706 0.2524434 0.14406852 0.08334125
0.18648463 0.02452523 -0.08092632 0.18085502 0.048862897 0.13150968 0.08925257 -0.08523632
0.08588141 0.44222805 0.003645921 -0.10977781 0.03970929 -0.072556205 -0.07588681 -0.006029665
-0.06765062 0.25209066 -0.074822135 -0.0019872633 -0.20750597 0.033112172 -0.05342784 -0.09270152
-0.021661304 0.015573349 0.022800274 -0.072362565 0.09136726 0.015938789 -0.073507294 -0.0033616622
-0.0066747754 0.066509545 0.07280527 0.10859585 -0.10646107 -0.03329089 0.006502801 0.1650327
0.23156418 -0.026395276 0.05152509 0.033459477 0.068243764 -0.26658556 0.040429182 -0.14789657
0.07007641 -0.06412026 0.0047725076 -0.099534184 -0.024695072 -0.043401875 0.051532988 0.002900299
-0.043766268 0.04664753 -0.06780824 0.051348787 -0.11141808 0.067779705 0.034248557 -0.0560758
00000000: a7eb 513e 5e42 27bc 88ad 0abb 2d0a 5ebb
00000010: 9ac5 14bd 1efd 4fbd 007f 94bd 45b9 1fbb
00000020: a624 333c 201b 3e3d b9b2 8cbd fab1 283e
00000030: f4e6 f6bc a8eb 803d 0e43 633c ed99 b53d
00000040: dbe6 ac3c ac6b f93d 9a80 0e3d 15e8 d3bc
00000050: 06e5 033d bfed 6b3c 326c ddbc 41a6 85bd
00000060: a69b d6bd 99e8 e7bd fb84 943d e22e a53d
00000070: 03d8 b53d c4d4 8fbd eb38 533d 61b7 e0bb
00000080: eeb5 8bbd 943e 04bd 6004 7fbd 691a 49bd
00000090: 861d b13d c619 ff3c 618b 2f3e 4819 d0bb
000000a0: 276a 053e 0d52 6cbb 915f 7a3d 3ac8 0e3e
000000b0: 7c51 0b3d f5cf c73c 7bab 2bbd 3074 3fbc
000000c0: 22df ba3b 80c6 83bd b244 e0bd c59d 1cbd
000000d0: ceb8 a53d 4301 d73c 1513 ca3d 51fe 00bc
000000e0: 55df c63a bd4e 3cbd 13fb 383d 3072 2a3c
000000f0: 514c ce3d 26b8 36be 376f a9bd cba3 d63d
00000100: cc07 37be f782 0f3c cc24 c53c 6c5f 263e
00000110: 96a9 b0bd 5482 503d de19 adbc cf92 5bbd
00000120: 7463 8a3c c851 cdbd eda4 86bd ec1a 4e3e
00000130: b183 363d b1be 243e b5e0 df3d 830c 45bd
00000140: d40e cdbb 2b8a 75be 855b 3d3d 27ba 0e3d
00000150: abae 413e d7fe b63c e17e 073d cbb2 773d
00000160: 9cb1 c73d bd12 c93d 9580 113d 5d5f 2a3c
00000170: 9a18 803d dddd a4bc baaa 49bd 3733 6f3d
00000180: 7762 463d eb0a 2bbd 6b60 583b 6aa4 f6bc
00000190: 2fea 12be 2ba6 13bd 94f3 4b3e 6c47 543d
000001a0: 74f8 07be 5243 4dbd 24f3 883d 39c1 973c
000001b0: 879d f93d 2548 e23d f815 f23d 016b 3abd
000001c0: a3d2 00be 79a8 9c3c 959a 4c3e 79d5 c5bd
000001d0: 0adf 63bd 2eb0 8a3d 6acd 3e3d 4a4a aebb
000001e0: 5cae 94bd 08c6 a53d 639f 333e c6ac 7c3d
000001f0: 211f 05be 50e6 5bbd 20ed f73d 0b6c 4e3d
00000200: 7b6e ddbd 6220 533d d144 343d d0ae 8c3d
00000210: 773a d7bd 3104 acbd 63a3 b4bd 08ef 32bd
00000220: 54fb 38bd 9ff4 b43d 1a7e 883d 6b33 f3bc
00000230: e1a8 b0bd 0234 733d 76c5 f9bd 80a2 ce3d
00000240: bcf6 ab3d 752f 32bd 63b0 973d 8e94 843d
00000250: a4c8 693d 5ca6 91bc a1f3 16be 20d3 ccbb
00000260: d242 e4bb c8b3 8fbd 099a ad3c 076c 203d
00000270: 8d1e 07bd a021 073e 9d2a 89bc 0223 cdbc
00000280: 84bf b1bd 8f63 a7bc 7364 26be 4f9d e13d
00000290: d909 8ebc c2bd 583e 164c 23be bb21 cabc
000002a0: d3c7 313e 4ee5 ae3d efca eb3c 94d6 aebd
000002b0: d1d4 b53d 2cc6 8b3d 5628 a93b 493b 30bc
000002c0: 1944 49bd 4a1e a7bd be27 0bbe 661b a93d
000002d0: 31e9 a83d a518 a63d cc78 79bb b13b 143e
000002e0: b0c9 84bd f2c3 b33d 0896 aa3d 2d33 c43d
000002f0: 44ca d93c 4340 813e b386 133e d1ae aa3d
00000300: d4f5 3e3e 23e9 c83c b3bc a5bd 0f32 393e
00000310: 7624 483d 79aa 063e 0dca b63d 6190 aebd
00000320: 98e2 af3d b76b e23e 67f0 6e3b 30d3 e0bd
00000330: 35a6 223d 5998 94bd 8b6a 9bbd 7f94 c5bb
00000340: 698c 8abd 0712 813e 593c 99bd bf3c 02bb
00000350: 727c 54be a1a0 073d 27d7 5abd 4bda bdbd
00000360: 0c73 b1bc 5c27 7f3c a4c7 ba3c d332 94bd
00000370: c21e bb3d 1092 823c fe8a 96bd 554f 5cbb
00000380: 13b8 dabb 2836 883d ee1a 953d 8067 de3d
00000390: 4308 dabd 075c 08bd 7315 d53b 55fe 283e
000003a0: 291f 6d3e e83a d8bc f90b 533d ce0c 093d
000003b0: 63c3 8b3d e77d 88be 1299 253d 3372 17be
000003c0: 3984 8f3d 7c51 83bd b262 9c3b 94d8 cbbd
000003d0: 524d cabc 2ac6 31bd 4114 533d f112 3e3b
000003e0: 4244 33bd 7b11 3f3d 0cdf 8abd 1b53 523d
000003f0: 2a2f e4bd 16d0 8a3d 3748 0c3d bdaf 65bd
