flappybird_dqn_ep320.pth (torch, 561729 bytes, 32 tensors)

fc1.weight f4 [128, 7]
0	0x3e822a04	0.2542268
1	0xbefd2778	-0.49444175
2	0x3e4637e4	0.19357258
3	0x3e30f0e3	0.17279391
4	0xbe7cc939	-0.24686135
5	0x3e2fbec0	0.17162609
6	0x3e686367	0.22694169
7	0x3d5baa83	0.05362941
8	0x3ea12275	0.314716
9	0x3c37f34f	0.011227443
10	0x3e6b247f	0.22963141
11	0x3d675242	0.05647493
12	0x3d67a6e0	0.05655563
13	0x3e0f9046	0.1401988
14	0xbeb68bf8	-0.35653663
15	0x3dddde8a	0.108334616
16	0xbe1f60f5	-0.1556433
17	0xbeb66914	-0.35627043
18	0xbe9536ee	-0.2914347
19	0xbd0e180e	-0.03469091
20	0x3ce83659	0.028346227
21	0xbe7f7cf8	-0.24950016
22	0x3e22d27d	0.15900607
23	0x3d4e36f5	0.05034538
24	0x3db15dca	0.08660467
25	0x3d5a84a0	0.053349137
26	0x3db00181	0.08594037
27	0x3ed983e2	0.4248343
28	0xbd20e583	-0.03928138
29	0x3ec908fd	0.3926467
30	0xbf003571	-0.50081545
31	0xbd985fc3	-0.0744014
32	0xbed6f93a	-0.4198702
33	0x3e420c88	0.18950093
34	0x3ec9388d	0.39300957
35	0x3ca2c542	0.01986945
36	0x3e0f7a48	0.1401149
37	0x3e79db5d	0.24400087
38	0xbe91ff86	-0.2851526
39	0x3d9e67f3	0.077346705
40	0xbead5313	-0.33852443
41	0xbdcb7d1e	-0.099359736
42	0x3dddc419	0.10828418
43	0xbe8b7845	-0.27240196
44	0x3dee3424	0.11631039
45	0xbe81f7e0	-0.25384426
46	0xbe27d795	-0.16390832
47	0xbec62eca	-0.38707572
48	0xbe827d89	-0.254864
49	0xbd02d3bb	-0.031940203
50	0x3e1f989d	0.15585561
51	0xbeab1541	-0.33414653
52	0xbebe7aaf	-0.37202975
53	0x3ce9a38d	0.02852037
54	0x3e1e290c	0.15445346
55	0x3eb36f2f	0.35045764
56	0xbe0e620a	-0.13904586
57	0x3e1fa66d	0.1559083
58	0x3ecc0b3c	0.3985232
59	0x3de0b96c	0.109728664
60	0xbe92e810	-0.28692675
61	0x3ed1781b	0.40911946
62	0x3dfa4161	0.12219501
63	0xbe30799a	-0.17233887
64	0xbe99050a	-0.29886657
65	0x3e913f48	0.28368592
66	0xbdb14a8f	-0.08656799
67	0xbe696360	-0.22791815
68	0xbe49bb33	-0.19700317
69	0x3dfa186b	0.122116886
70	0x3e0daba7	0.13835011
71	0x3eb1cd67	0.34727022
72	0xbd02e486	-0.03195622
73	0x3eb0ea70	0.34553862
74	0x3ed93229	0.42421082
75	0xbd8e3c2e	-0.06945072
76	0xbf050454	-0.5195973
77	0x3e1fb448	0.15596116
78	0xbe81bf96	-0.2534148
79	0x3d1c1f2b	0.03811566
80	0xbe484569	-0.19557728
81	0xbf1f1f4e	-0.6215714
82	0x3ef3c788	0.47613168
83	0xbe5fc166	-0.2185112
84	0x3e21b89c	0.15793079
85	0xbebc95cf	-0.36833045
86	0x3eb5ecbc	0.35532176
87	0xbe36d317	-0.17853962
88	0x3eb53f11	0.35399678
89	0xbe8d1a26	-0.27559012
90	0xbd42c709	-0.047553096
91	0x3e98ba38	0.29829574
92	0x3eadf46d	0.33975545
93	0xbe8b6768	-0.2722733
94	0xbea009c2	-0.31257445
95	0x3e9cc5aa	0.30619556
96	0x3e01cb27	0.12675153
97	0xbe903f1c	-0.2817315
98	0x3e4c13d1	0.19929434
99	0xbe9538d7	-0.29144928
100	0xbe31f75d	-0.17379518
101	0xbe118e21	-0.14214374
102	0x3a5409bd	0.00080886093
103	0x3ebd8373	0.3701435
104	0xbe3a0d4b	-0.18169133
105	0x3e1b495f	0.15164708
106	0xbe7e7e13	-0.24852781
107	0x3e92f244	0.2870046
108	0x3e6c0381	0.23048212
109	0xbdc5460e	-0.096325025
110	0x3ee5aa47	0.44856474
111	0xbda28adb	-0.07936641
112	0x3cda0877	0.026615364
113	0x3e4ce3ed	0.20008822
114	0xbdddabdc	-0.10823795
115	0xbede7dde	-0.43455404
116	0x3baf0369	0.0053409827
117	0xbe88f613	-0.2675024
118	0x3e637160	0.22211218
119	0x3f041214	0.51590085
120	0x3e960888	0.29303384
121	0x3ea0456c	0.31302965
122	0xbe3f22cd	-0.18665619
123	0xbeb6ccce	-0.3570313
124	0x3e071fe9	0.13195767
125	0xbe333b07	-0.17502986
126	0x3ddf05d6	0.10889785
127	0xbd5e1efe	-0.054228775
128	0xbf65ddf4	-0.897918
129	0x3da050b2	0.078278914
130	0xbc8b3a3e	-0.016995545
131	0xbecc85f0	-0.39945936
132	0x3df33221	0.11874796
133	0x3cf49342	0.029855374
134	0xbe5e3b93	-0.21702413
135	0xbeacc556	-0.33744305
136	0x3e39b290	0.18134522
137	0xbea092ca	-0.3136199
138	0xbe1857b5	-0.14877208
139	0xbe4ea111	-0.2017863
140	0xbe432daa	-0.19060388
141	0xbe3adc0c	-0.18248004
142	0x3e3ed3d0	0.18635488
143	0xbdd1e21e	-0.102482066
144	0xbe8c1616	-0.273606
145	0x3e76d5b0	0.24104953
146	0xbea711ac	-0.3263067
147	0xbe387ecb	-0.18017118
148	0xbdaab26f	-0.08334815
149	0xbe9d9cb3	-0.30783615
150	0xbce9f7bf	-0.028560517
151	0xbe8e0455	-0.2773768
152	0x3ddeb717	0.10874765
153	0xbe068c4e	-0.1313946
154	0x3e49d58d	0.1971037
155	0x3ecb7408	0.39736962
156	0xbe8239cf	-0.2543473
157	0xbe20ed3b	-0.15715496
158	0xbe4e99f6	-0.20175919
159	0xbe016a42	-0.1263819
160	0x3ea67386	0.32510012
161	0xbefbed3f	-0.49204442
162	0xbe31c4a0	-0.17360163
163	0xbe0cff5c	-0.13769287
164	0x3e557e7a	0.20849028
165	0x3ea62dfc	0.32456958
166	0x3e8b3a53	0.27192935
167	0xbf0288dc	-0.5099008
168	0x3e019aab	0.12656657
169	0xbeb1425e	-0.34620947
170	0xbec8d2a1	-0.39223197
171	0x3dfcbdc8	0.123408854
172	0x3db3188a	0.08744915
173	0x3c8202d2	0.015870485
174	0x3dca07f9	0.09864802
175	0x3c9e1ee3	0.019301837
176	0x3d3b56d7	0.045737114
177	0xbf82539f	-1.0181769
178	0xbe76f5fd	-0.24117275
179	0xbb8d6c86	-0.0043159155
180	0xbec9f098	-0.3944137
181	0x3e36c63c	0.17849058
182	0x3d35b425	0.044361252
183	0x3de59bcd	0.11211357
184	0xbe85c845	-0.26129356
185	0x3dc63a7f	0.09679126
186	0x3e6c5d28	0.23082411
187	0x3e6f616d	0.23377009
188	0xbe9f8804	-0.3115846
189	0xbcac47ad	-0.021030271
190	0xbe54b9d6	-0.20774016
191	0x3ecc8a2c	0.39949167
192	0xbe9a1e06	-0.3010103
193	0xbe9a5650	-0.30143976
194	0x3c470ec4	0.0121495165
195	0xbe1d9842	-0.15390113
196	0x3e836326	0.25661582
197	0x3e269e10	0.16271234
198	0xbe087d96	-0.13329157
199	0xbd8087bf	-0.062758915
200	0xbe6a87c6	-0.22903356
201	0x3dd1fbf8	0.10253137
202	0x3dd8d8d7	0.10588234
203	0xbea39f01	-0.31957248
204	0xbe643787	-0.22286807
205	0x3e9914e4	0.2989875
206	0xbdef2a20	-0.116779566
207	0x3ef50222	0.4785319
208	0xbe1ec893	-0.155062
209	0xbe3e2654	-0.18569309
210	0xbeb8af73	-0.36071357
211	0x3eae49a3	0.34040555
212	0xbec11c5d	-0.37716952
213	0xbd18a106	-0.03726294
214	0x3d73719e	0.059434526
215	0x3dd507ff	0.10401916
216	0xbe547f63	-0.20751719
217	0xbdb1df57	-0.08685177
218	0xbe312654	-0.17299777
219	0xbd52d8df	-0.051476356
220	0xbe186c49	-0.14885058
221	0xbeba6177	-0.36402485
222	0x3e3a9665	0.18221433
223	0xbe522e0e	-0.20525381
224	0xbe3b0146	-0.18262205
225	0x3eab9199	0.3350952
226	0xbf3a7231	-0.7283049
227	0x3e8f1010	0.27941942
228	0x3e805da1	0.25071433
229	0x3e0d2b61	0.13786079
230	0x3e0410bf	0.12897013
231	0x3e49d706	0.19710931
232	0xbbdb9313	-0.006700882
233	0xbef0545c	-0.4693936
234	0xbd806ef9	-0.06271166
235	0x3ea6a958	0.32551074
236	0xbc91f405	-0.017816553
237	0x3eb7e4b6	0.3591668
238	0xbd290e10	-0.041273177
239	0xbd5737dd	-0.05254351
240	0xbe8490e7	-0.25891802
241	0xbdc45193	-0.095858715
242	0xbe908732	-0.28228146
243	0xbe1282ad	-0.14307661
244	0x3efe7660	0.49699688
245	0x3e440b84	0.19145018
246	0x3ed9c930	0.42536306
247	0xbd50fca2	-0.05102218
248	0x3e7cd61f	0.24691056
249	0x3e545dc1	0.2073889
250	0x3e940f1e	0.28917783
251	0x3e83251b	0.25614247
252	0xbea94d20	-0.33066654
253	0x3e99dafb	0.3004988
254	0x3eb7ccb3	0.3589836
255	0x3e8e35a3	0.27775297

fc1.bias f4 [128]
0	0xbe9a722a	-0.30165225
1	0x3cb1a4d9	0.02168505
2	0x3ea5e01f	0.32397553
3	0xbc69cb83	-0.014269712
4	0x3ea1e1aa	0.3161748
5	0xbeae0733	-0.33989868
6	0x3e90b0ca	0.2825988
7	0x3e0794ea	0.132404
8	0xbca47bd9	-0.020078586
9	0xbd7fe15b	-0.062470775
10	0x3e28cdc6	0.16484746
11	0x3e0776d8	0.13228929
12	0xbec4c350	-0.38430262
13	0xbd88a3ef	-0.06671893
14	0xbe76b30f	-0.24091743
15	0xbe6c118e	-0.23053572
16	0xbe1f1f10	-0.15539193
17	0xbe7ed07d	-0.2488422
18	0x3e8625cf	0.2620072
19	0x3e6559e7	0.22397576
20	0xbe5e602c	-0.21716374
21	0xbd9a3f27	-0.075315766
22	0x3e6a9dcb	0.22911756
23	0x3d22612f	0.039643463
24	0xbdef8e84	-0.116971046
25	0x3e834f46	0.25646418
26	0x3e87d7b5	0.2653176
27	0x3eba26ba	0.3635767
28	0x3d265c88	0.04061559
29	0x3e8484f0	0.25882673
30	0xbe614ff7	-0.2200316
31	0xbeb1750e	-0.34659618
32	0xbd0c35c2	-0.034230955
33	0x3da0bfeb	0.078491054
34	0x3ce45b5d	0.027875597
35	0x3e8b7370	0.2723651
36	0x3e77b4f1	0.24190117
37	0x3e390e30	0.18071818
38	0x3d53d2a7	0.051714566
39	0xbd0dd556	-0.03462728
40	0x3eb5f03c	0.35534847
41	0x3e8fae3a	0.28062612
42	0x3b17a41e	0.0023138593
43	0x3ecbddc0	0.3981762
44	0xbe02223f	-0.12708376
45	0x3e21436f	0.1574838
46	0x3e26f04a	0.163026
47	0x3d6a4cf7	0.057202306
48	0xbea93d62	-0.33054644
49	0x3e9d9b41	0.30782512
50	0xbb68f4a0	-0.0035546198
51	0xbebd087f	-0.36920545
52	0xbe51cfd2	-0.20489433
53	0xbed37858	-0.41302752
54	0xbdbfeb03	-0.09370997
55	0x3da5a18c	0.08087453
56	0xbe8d2840	-0.2756977
57	0xbea703f6	-0.3262021
58	0xbec0c690	-0.3765149
59	0x3e8ed2b4	0.2789513
60	0x3dd8e352	0.10590233
61	0xbe4c230a	-0.19935241
62	0xbd407320	-0.04698479
63	0xbda25fac	-0.07928404
64	0xbdcf4c60	-0.10121989
65	0x3e0f06ef	0.13967489
66	0xbd906e84	-0.07052329
67	0xbe01c1cb	-0.12671582
68	0xbe1a205c	-0.15051407
69	0xbd6892b8	-0.056780547
70	0x3e7f858d	0.2495329
71	0x3c7d772c	0.015470307
72	0xbe2ee2cd	-0.17078705
73	0xbc8acb64	-0.016942687
74	0x3e079ed4	0.13244182
75	0xbe9cc563	-0.30619344
76	0x3e3132a7	0.17304479
77	0x3d28585c	0.04109989
78	0x3d6aa658	0.057287544
79	0xbe1bbeb7	-0.1520947
80	0x3e863d4b	0.26218638
81	0xbdebc734	-0.11512604
82	0x3e86977f	0.26287457
83	0xbe9ea766	-0.3098709
84	0xbda913ab	-0.082557045
85	0x3e878c09	0.26474026
86	0xbe2f45f2	-0.17116526
87	0xbe098ea1	-0.13433315
88	0x3eb11d17	0.34592506
89	0x3db6a31c	0.089178294
90	0xbda1f138	-0.07907337
91	0xbe768ae4	-0.2407642
92	0x3e9db8c3	0.30805025
93	0x3eb7ab9c	0.35873115
94	0xbd6e18dd	-0.05812918
95	0x3e38bae0	0.18040037
96	0xbeba8f14	-0.36437285
97	0x3ea18a74	0.31550944
98	0x3e0a8f67	0.13531266
99	0xbd8bae59	-0.068203636
100	0x3df72231	0.12067068
101	0x3e976af0	0.29573774
102	0x3e80a1c4	0.25123417
103	0xbd4239ee	-0.047418527
104	0x3e0797f1	0.13241555
105	0xbe203fcd	-0.15649338
106	0xbe1406d3	-0.14455728
107	0x3e8ed66e	0.27897972
108	0x3e869598	0.26286006
109	0xbe8e91b2	-0.27845532
110	0xbe1d85d1	-0.15383078
111	0x3e93b890	0.28851748
112	0x3e8e6ae3	0.27815923
113	0x3e1b18fc	0.1514625
114	0x3ead38e7	0.33832476
115	0xbeab59a1	-0.3346682
116	0xbccaa651	-0.024737509
117	0xbd53368f	-0.051565703
118	0x3e8b1d3d	0.27170745
119	0xbdcfab4a	-0.10140093
120	0x3d6c8728	0.057746083
121	0xbc06a3e5	-0.008217786
122	0xbe246457	-0.16053902
123	0x3decd214	0.11563507
124	0xbe4c7726	-0.19967327
125	0xbe3b96d9	-0.18319263
126	0x3ea0ceac	0.31407678
127	0xbe94a419	-0.29031447

fc2.weight f4 [128, 128]
0	0x3e58bfb0	0.21166873
1	0xbbf531f5	-0.007482762
2	0xbdf91fb1	-0.12164248
3	0x3a8da964	0.0010807929
4	0xbc825e40	-0.015914083
5	0xbd4ffd1e	-0.0507785
6	0xbe61ad4b	-0.22038762
7	0xbbb74867	-0.005593348
8	0xbc1bb853	-0.009504396
9	0x3d3e1b20	0.046412587
10	0x3cc89ff7	0.02449034
11	0x3e5c2728	0.21499312
12	0xbcf6e6f4	-0.030139424
13	0x3e69fd67	0.22850572
14	0x3cb58b63	0.022161191
15	0x3d90ad96	0.07064359
16	0x3cace6db	0.021106174
17	0x3e195fe1	0.14977981
18	0x3d1a6c64	0.037701026
19	0xbde633f3	-0.11240377
20	0x3d03e506	0.032200836
21	0x3c6bedbf	0.014399945
22	0x3d402f69	0.046920214
23	0xbd84e15e	-0.06488298
24	0xbe3d8a32	-0.18509749
25	0xbe1b408a	-0.15161338
26	0x3d9d6c51	0.07686675
27	0x3db7e230	0.08978689
28	0x3dde1ef8	0.108457506
29	0xbde035a2	-0.1094773
30	0x3d5338eb	0.051567953
31	0xbbe0b761	-0.006857798
32	0xbda7c239	-0.08191342
33	0xbd142426	-0.036167286
34	0xbe2a0cb5	-0.1660641
35	0xbd40303d	-0.046921004
36	0x3da2f028	0.079559624
37	0xbb9d05e1	-0.0047919606
38	0x3e6ffbe9	0.2343594
39	0xbcd18a42	-0.025578622
40	0x3e1e9767	0.15487443
41	0x3cfafbe9	0.030637698
42	0x3d8382d1	0.064214356
43	0x3e4870f8	0.19574344
44	0x3c97b4c0	0.018518806
45	0x3cccaed2	0.024985705
46	0xbd04eed2	-0.03245432
47	0xbd7c2b66	-0.061564825
48	0x3bbadf22	0.005702869
49	0xbe20fec5	-0.15722187
50	0xbd74c754	-0.059760407
51	0xbd1c9dc5	-0.0382364
52	0x3da5b8ce	0.08091889
53	0x3e2eb97f	0.17062949
54	0x3da8a80f	0.0823518
55	0xbba2640e	-0.004955775
56	0x3ac6df55	0.0015172759
57	0xbd3c4ebd	-0.04597353
58	0x3d38fb13	0.045161318
59	0xbb648695	-0.0034870256
60	0x3e1c1a4f	0.15244411
61	0xbe570bd5	-0.21000607
62	0x3cd46c9a	0.025930692
63	0x3dea3007	0.11434942
64	0xbe642660	-0.22280264
65	0xbbbe8716	-0.0058144433
66	0x3cc524cc	0.024065398
67	0x3e50e7c4	0.20400912
68	0xbdb0a996	-0.08626096
69	0x3e19aae8	0.15006602
70	0x3cb15272	0.021645758
71	0xbe2f2dac	-0.17107266
72	0x3c8a6374	0.016893126
73	0x3d8b01ab	0.067874275
74	0xbdb8e5ad	-0.09028182
75	0x3e6fdf0a	0.23424926
76	0x3d3a6fba	0.045516707
77	0x3e34ac42	0.17643836
78	0x3e9e3faf	0.30907962
79	0xbd450c83	-0.048107635
80	0x3da3e977	0.08003514
81	0xbe8cda3b	-0.27510247
82	0x3c9821a2	0.018570725
83	0x3d0eba27	0.034845497
84	0x3ecb5ae8	0.39717793
85	0x3c119a23	0.008886847
86	0x3d077ee1	0.033079986
87	0x3dfda080	0.123841286
88	0x3e1d4597	0.15358578
89	0x3e95bee7	0.2924721
90	0x3d2293aa	0.039691605
91	0x3c2a5f5d	0.010398713
92	0x3d859683	0.065228485
93	0xbc588bdd	-0.01321694
94	0xbd49aaba	-0.049235083
95	0x3d3392b3	0.043841075
96	0x3d466277	0.048433747
97	0xbcd78794	-0.026309766
98	0xbd6ad7af	-0.0573346
99	0xbd264822	-0.040596135
100	0xbdd6dfee	-0.1049193
101	0xbd153a0c	-0.03643231
102	0x3e72aef0	0.23699546
103	0xbc870205	-0.016480455
104	0xbdd080c9	-0.10180814
105	0xbd56c0f1	-0.052430097
106	0x3e3a42ab	0.18189494
107	0x3c27c826	0.01024059
108	0x3e735374	0.23762304
109	0x3e0f8f9d	0.14019628
110	0x3dd8dd4c	0.10589084
111	0xbbc49bfe	-0.006000041
112	0xbdad7b8c	-0.0847083
113	0x3bb78d48	0.005601559
114	0x3e69d8c7	0.228366
115	0xbe0e5523	-0.13899665
116	0xbce2fed1	-0.027709397
117	0x3d8ab02e	0.06771885
118	0x3d7db05f	0.06193578
119	0xbb98c512	-0.0046621645
120	0xbda19c80	-0.07891178
121	0xbd1b2537	-0.037877288
122	0x3e435530	0.19075465
123	0x3d693e67	0.056944277
124	0xbe8d4479	-0.27591303
125	0xbdd29411	-0.10282148
126	0x3e15d163	0.14630656
127	0x3d4e6c0b	0.050396007
128	0xbe21dc7c	-0.15806764
129	0x3d69d05f	0.057083484
130	0xbce64cd3	-0.028112805
131	0x3d821068	0.063507855
132	0xbe0c56f0	-0.13705039
133	0xbdac0431	-0.08399237
134	0xbe2638f5	-0.16232665
135	0xbce5f979	-0.02807306
136	0xbd4442da	-0.047915317
137	0x3db4f49f	0.0883572
138	0x3d91705a	0.071015075
139	0xbe0015d2	-0.12508324
140	0xbdb0a8e1	-0.08625961
141	0xbc6e5b0b	-0.0145480735
142	0xbe4e2d2f	-0.20134424
143	0x3d80f79c	0.06297228
144	0x3d98f5b9	0.07468743
145	0xbe23822f	-0.1596763
146	0xbd402f8d	-0.046920348
147	0xbd15664d	-0.036474515
148	0x3d69c8a4	0.05707611
149	0xbc91a65c	-0.017779522
150	0xbe5af538	-0.21382606
151	0xbd1c5d0b	-0.03817467
152	0x3d3ceb12	0.046122618
153	0xbeb64504	-0.3559953
154	0x3d26c1cf	0.040712174
155	0x3c58790f	0.013212456
156	0xbde2d03a	-0.11074872
157	0x3e6e4a55	0.23270543
158	0xbc892a9d	-0.016743952
159	0xbccd2302	-0.025041107
160	0xbde64ac6	-0.11244731
161	0x3c7c75b0	0.015408918
162	0xbe960d53	-0.2930704
163	0x3dfd340d	0.123634435
164	0x3c21f8ec	0.009886008
165	0x3e516e78	0.20452297
166	0xbec22428	-0.3791821
167	0x3c2104b0	0.009827778
168	0x3e16066e	0.1465089
169	0x3db8c189	0.09021289
170	0x3bbc4548	0.0057455637
171	0xbe0b218b	-0.13587014
172	0x3db39d4d	0.08770237
173	0x3dca66ff	0.09882926
174	0xbb1fd14b	-0.0024386223
175	0xbe346049	-0.17614855
176	0xbd494419	-0.04913721
177	0xbe1e3650	-0.15450406
178	0xbeb75c88	-0.35812783
179	0x3da91b66	0.08257179
180	0x3da8e931	0.08247603
181	0xbcadf5c4	-0.021235354
182	0x3d5556c8	0.052084714
183	0x3e3307d5	0.17483456
184	0xbd84c9b0	-0.06483781
185	0x3db3c3f2	0.08777608
186	0x3daa9608	0.083293974
187	0x3dbbb33a	0.09165044
188	0xbd1f6c41	-0.0389216
189	0x3e8cf492	0.27530342
190	0x3dd57ef9	0.10424609
191	0x3d947df8	0.07250589
192	0x3e9a16d7	0.3009555
193	0x3d64c717	0.05585393
194	0xbda5bcb3	-0.08092632
195	0x3d2b8292	0.04187257
196	0x3d482476	0.048862897
197	0x3df70ad7	0.120626144
198	0x3dcb4a54	0.09926286
199	0xbe3394f8	-0.17537296
200	0x3dafe298	0.08588141
201	0x3ec8ee04	0.39244092
202	0x3da03689	0.07822902
203	0xbe6f0c8d	-0.23344631
204	0x3ddbe411	0.107368596
205	0xbde33745	-0.11094526
206	0xbe9d4474	-0.30716288
207	0xbbc5947f	-0.006029665
208	0xbd9626d8	-0.073316276
209	0x3e98fd76	0.29880875
210	0xbb837601	-0.00401187
211	0xbb023cbf	-0.0019872633
212	0xbed6627d	-0.41872016
213	0x3d910ffd	0.07083128
214	0xbd5ad727	-0.05342784
215	0xbe52b6a5	-0.20577486
216	0xbd9f92c8	-0.07791668
217	0xbdd4a2c3	-0.10382607
218	0x3affebcb	0.0019525228
219	0xbd9432d3	-0.072362565
220	0x3de674db	0.11252757
221	0xbd74df44	-0.059783235
222	0xbd968afe	-0.073507294
223	0x3d2c2090	0.04202324
224	0xbbdab813	-0.0066747754
225	0x3da62390	0.08112252
226	0x3d60a6f1	0.054846708
227	0xbdedcb0f	-0.11610996
228	0xbdec3b7b	-0.115347825
229	0x3be57f16	0.007003675
230	0xbdc9e942	-0.098589435
231	0x3e541c3b	0.20713894
232	0x3daa64f0	0.083200336
233	0xbcbfd5c6	-0.023417365
234	0x3d26b18a	0.04069666
235	0x3dd4a34d	0.1038271
236	0x3d2f1593	0.042745184
237	0xbf0ac91d	-0.54213125
238	0xbb2b56f7	-0.0026144364
239	0xbe3e5098	-0.18585432
240	0xbd239c42	-0.03994394
241	0xbe15ec1d	-0.14640851
242	0xbced8934	-0.028996088
243	0xbdef85e0	-0.116954565
244	0xbabde296	-0.0014487084
245	0xbd31c62a	-0.043401875
246	0x3d1e64fd	0.03867053
247	0x3d7e7388	0.062121898
248	0xbbb83704	-0.0056217927
249	0xbc4d6252	-0.012535648
250	0xbe950250	-0.29103327
251	0xbdb5d472	-0.08878411
252	0xbd11547e	-0.03548097
253	0x3d90b68c	0.07066068
254	0xbc8f9b37	-0.017530067
255	0xbd65afbd	-0.0560758

fc2.bias f4 [128]
0	0x3ddb7bfb	0.10717007
1	0xbd18feb7	-0.03735229
2	0xbda3e9f5	-0.08003608
3	0x3c8ed647	0.01743616
4	0x3d0a2126	0.03372302
5	0x3cc6f214	0.024285354
6	0xbd4102ba	-0.04712174
7	0xbd9e71a6	-0.077365205
8	0x3c2eb094	0.010662217
9	0x3d34124e	0.04396277
10	0xbd97491d	-0.07386992
11	0xb8ae72ab	-8.318325e-05
12	0x3d67dca9	0.056606922
13	0x3c46f448	0.012143202
14	0xbd30c528	-0.043156773
15	0x3c22201f	0.009895354
16	0x3cb412a5	0.021981547
17	0x3d940fe0	0.072295904
18	0x3bf4f8ae	0.007475934
19	0x3d828861	0.063736685
20	0x3d62c911	0.055367533
21	0x3db0a4d6	0.0862519
22	0x3db0c8ce	0.086320505
23	0x3c160d35	0.009158422
24	0x3cafc35f	0.021455465
25	0x3d9e7b4a	0.07738359
26	0x3cf45b13	0.029828584
27	0x3ca4629b	0.02006655
28	0x3d80c9fc	0.062885255
29	0xbd9dca45	-0.077045955
30	0xbc06d5f9	-0.008229726
31	0xbdb0564f	-0.08610212
32	0x3cf99751	0.030467661
33	0x3c5ede92	0.01360287
34	0xbd5ad834	-0.053428844
35	0x3cbe2e01	0.023215296
36	0x3c5f739d	0.013638404
37	0x3d7aa63c	0.06119369
38	0x3d105d06	0.035244964
39	0x3db11af3	0.08647718
40	0x3d81106b	0.063019596
41	0xbda7cb11	-0.08193029
42	0x3bf2a93f	0.0074054296
43	0xbd3b157e	-0.045674793
44	0x3caa31a7	0.02077563
45	0x3d4656ba	0.048422553
46	0x3d8bbaec	0.06822762
47	0x3d1833ee	0.0371589
48	0x3bf99686	0.0076168207
49	0x3d02b9d7	0.031915512
50	0x3d5f9008	0.05458072
51	0xbc63a056	-0.013893208
52	0xbc070b90	-0.008242503
53	0xbc1bbeee	-0.00950597
54	0xbd4d9d0c	-0.0501986
55	0xbcac47ad	-0.021030271
56	0x3d15d9c5	0.036584634
57	0x3d357b12	0.044306822
58	0xbd3eeff0	-0.04661554
59	0x3dc08ef6	0.09402268
60	0x3bd66dfe	0.006543874
61	0xbdc110dd	-0.094270445
62	0xbd91cc24	-0.07119015
63	0x3d545275	0.05183645
64	0xbd960882	-0.073258415
65	0x3cd2a28e	0.025712278
66	0x3c7aaadc	0.015299525
67	0xbd6b7e7f	-0.057493683
68	0x3d6338d6	0.055474125
69	0xbc81eaae	-0.015858974
70	0xbd95eb8d	-0.07320318
71	0x3c27d500	0.010243654
72	0xbd9b7303	-0.07590296
73	0xbd73cc69	-0.059521113
74	0x3d049826	0.032371663
75	0x3d12ebdc	0.035869464
76	0xbd6e07bf	-0.058112856
77	0x3d0a11a4	0.03370823
78	0x3d8f66a6	0.070020005
79	0x3cdf8eaa	0.027289707
80	0x3db1ece2	0.0868776
81	0xbd484431	-0.048893157
82	0xbd705df8	-0.058683366
83	0x3d2d8afc	0.042368874
84	0xbcc75d23	-0.024336403
85	0xbcf79c7a	-0.030225981
86	0x3cdd40a3	0.02700836
87	0xbd857cc3	-0.06517937
88	0xbc92a902	-0.017902855
89	0xbc322a7f	-0.01087439
90	0x3ca9d2b8	0.020730361
91	0x3dacc35a	0.08435698
92	0xbd822526	-0.06354742
93	0xbdbdfc2c	-0.092766136
94	0x3d826cb2	0.06368388
95	0x3dea21bd	0.11432216
96	0xbd199dae	-0.03750389
97	0xbb794434	-0.0038035037
98	0x3dd0c2b0	0.10193384
99	0xbd3c8fd1	-0.04603559
100	0x3d61fc81	0.055172447
101	0x3dd1172e	0.10209499
102	0xbc58aaae	-0.013224287
103	0xbdb5ed9f	-0.08883213
104	0xbb93d71f	-0.0045117284
105	0x3d740cdf	0.059582587
106	0xbdafde51	-0.08587325
107	0x3d7e64b7	0.062107768
108	0xbcad468f	-0.021151809
109	0xbd79ea15	-0.061014254
110	0x3d11aa65	0.03556289
111	0xbd3616eb	-0.04445545
112	0x3d801b74	0.06255236
113	0x3ce993a3	0.028512781
114	0xbd068f69	-0.03285161
115	0xbbc00282	-0.005859674
116	0x3d88f41c	0.06687185
117	0x3c461c30	0.012091681
118	0x3d3f1a43	0.046655905
119	0xbd2b5ef5	-0.041838605
120	0xbcbf4718	-0.02334933
121	0x3d1d0306	0.03833296
122	0xbd158c1c	-0.03651057
123	0x3da95c54	0.08269563
124	0xbd502fef	-0.050826963
125	0xbd0222e4	-0.031771556
126	0x3b6b4bdc	0.003590337
127	0x3d82d672	0.063885584

fc3.weight f4 [128, 128]
0	0x3c0b8cc8	0.008517452
1	0x3cf1f109	0.02953388
2	0x3c06092d	0.008180899
3	0x3b0dcad5	0.002163579
4	0xbd9e788f	-0.077378385
5	0xbdac4ea2	-0.084134355
6	0x3c473e27	0.012160814
7	0x3c48f58f	0.012265577
8	0x3e0f1b62	0.1397529
9	0x39463d3f	0.00018905567
10	0xbcb7395e	-0.022366222
11	0x3d9458e6	0.072435185
12	0xbda1537e	-0.07877253
13	0x3d11b1a1	0.03556979
14	0xbd497653	-0.04918511
15	0x3d04505e	0.032303207
16	0x3ddcb5f2	0.10776891
17	0xbdf44d7f	-0.11928844
18	0xbd940fcc	-0.072295755
19	0xbcdb7bd0	-0.026792437
20	0xbd25a0cd	-0.040436555
21	0xbd881c21	-0.0664599
22	0x3b196c6d	0.0023410574
23	0xbd21924d	-0.039446164
24	0xbe21d6ce	-0.15804598
25	0x3d2b5fc6	0.041839384
26	0x3d296a52	0.04136116
27	0x3e4af27a	0.1981906
28	0x3abb638a	0.0014296633
29	0x3d5f9b7c	0.05459164
30	0x3d5263a6	0.051364563
31	0x3dc2ace8	0.095056355
32	0x3dcdb64e	0.100445375
33	0x3d982ddd	0.07430623
34	0xbbb853e3	-0.0056252345
35	0xbca09fd6	-0.019607466
36	0xbd878f23	-0.06619098
37	0x3e478df8	0.1948775
38	0xbbce68da	-0.0062991204
39	0x3d8c8900	0.06862068
40	0x3d2d69dc	0.042337283
41	0xbd54aea3	-0.05192436
42	0x3e0ef11e	0.13959166
43	0xbcc86810	-0.024463683
44	0x3d8c9eab	0.06866201
45	0xbddaad51	-0.10677589
46	0xbd09b086	-0.03361561
47	0x3e115b76	0.14195046
48	0x3d3b2ade	0.04569518
49	0xbe124f17	-0.14287983
50	0x3df98091	0.12182725
51	0xbdab7edc	-0.08373806
52	0x3d09ea4e	0.033670716
53	0xbd8aaf38	-0.067717016
54	0xbc4268d9	-0.011865818
55	0xbdc3c145	-0.095583476
56	0xbcbe8fac	-0.023261867
57	0x3bbaceb1	0.005700909
58	0x3cd452db	0.025918415
59	0xbe000716	-0.12502703
60	0x3c0b05a0	0.008485228
61	0xbd79067f	-0.06079721
62	0x3d9119c4	0.070849925
63	0xbcae760f	-0.02129653
64	0x3d4bafa8	0.049728066
65	0xbcfbe775	-0.030750016
66	0x3cf825eb	0.030291518
67	0x3dcbd568	0.099528134
68	0xbd538f9a	-0.05165062
69	0xbda81d9b	-0.08208772
70	0xbc7e1c47	-0.0155096715
71	0xbda9162a	-0.082561806
72	0xbd19fd91	-0.037595335
73	0xbe08d84a	-0.13363758
74	0xbe9c3012	-0.30505425
75	0x3d89c2ec	0.067266315
76	0x3cad33b4	0.021142818
77	0x3d76fe58	0.060301155
78	0x3d1ffebc	0.039061293
79	0xbe03e86f	-0.12881635
80	0x3d45ce94	0.04829271
81	0xbda3fc9c	-0.08007166
82	0xbcb37c82	-0.021909956
83	0xbd2d8f8c	-0.042373225
84	0x3c592e4d	0.013255668
85	0x3d922ea6	0.07137804
86	0x3df01878	0.11723417
87	0x3db19055	0.08670107
88	0x3da04948	0.07826477
89	0x3cb57b70	0.022153586
90	0x3df23a56	0.11827533
91	0x3dd170a5	0.10226563
92	0xbd1f308a	-0.03886465
93	0x3d808c5d	0.06276772
94	0xbccb9238	-0.024849996
95	0x3d850b94	0.06496349
96	0xbd2eea86	-0.042704128
97	0x3d692926	0.056924008
98	0x3d1e7bcc	0.03869228
99	0x3caa4c54	0.02078835
100	0x3d196423	0.037449013
101	0x3d9b7010	0.075897336
102	0xbd274a30	-0.040842235
103	0xbd2ec69f	-0.04266989
104	0xbd199ed6	-0.037504993
105	0xbcc00971	-0.023442002
106	0x3d91565b	0.07096549
107	0x3d5690ce	0.05238419
108	0x3d731add	0.05935179
109	0x3d29c6a8	0.04144922
110	0x3e08ff5c	0.13378662
111	0x3db7391d	0.0894644
112	0x3ce187b1	0.027530523
113	0x3ca6c8af	0.020359365
114	0xbc21a07f	-0.009864925
115	0x3c4a5d4d	0.012351346
116	0xbd5b432d	-0.05353086
117	0xbc44bf15	-0.012008448
118	0x3d97b7c6	0.07408099
119	0x3da27a15	0.079334415
120	0x3de1272f	0.10993802
121	0x3da96626	0.082714364
122	0x3e163267	0.14667664
123	0xbd15ee24	-0.03660406
124	0xbd0fa52a	-0.035069622
125	0x3c88bbf1	0.01669118
126	0x3d2cdcf0	0.04220289
127	0x3daef8ae	0.08543526
128	0x3d94aa98	0.07259101
129	0x3e4e8f85	0.20171936
130	0xbc2c8ad3	-0.010531145
131	0x3d99e5bc	0.075145215
132	0x3d7dfd0d	0.062008906
133	0x3e1d2a68	0.15348208
134	0xbe2eebbe	-0.17082116
135	0x3d8b9ace	0.06816636
136	0xbdfb72f5	-0.12277786
137	0xbe09a4be	-0.1344175
138	0x3d3db864	0.046318427
139	0xbd85a524	-0.06525639
140	0x3d5aa773	0.05338235
141	0xbb166ecd	-0.0022954226
142	0x3cba8965	0.022770593
143	0x3d234f57	0.039870586
144	0xbd551d49	-0.05202988
145	0x3de52849	0.111893244
146	0xbd4ab721	-0.04949105
147	0xbd66499a	-0.056222536
148	0xbd1ec83b	-0.038765173
149	0x3d4c76c0	0.049917936
150	0xbe57ac05	-0.21061714
151	0x3d88e9e9	0.0668524
152	0x3dfaa183	0.12237837
153	0xbd9b9984	-0.0759764
154	0xbbb0cc4f	-0.005395449
155	0xbe3837ca	-0.17990032
156	0xbd074c85	-0.03303196
157	0x3ce44929	0.027866917
158	0x3d229750	0.039695084
159	0xbd8b84fc	-0.06812474
160	0xbbbe8cac	-0.0058151092
161	0xbc807043	-0.01567853
162	0xbd85d449	-0.06534631
163	0x3db6b787	0.08921724
164	0xbd08df3d	-0.03341602
165	0xbe29b925	-0.16574533
166	0x3dca043d	0.0986409
167	0x3d714b93	0.058909964
168	0x3ab00e4d	0.0013431996
169	0x3cbb200e	0.022842433
170	0x3c81082b	0.015750965
171	0x3d446ff4	0.04795833
172	0xbdf9c8da	-0.121965125
173	0xbd42cd00	-0.047558784
174	0x3ccdaa88	0.02510573
175	0x3d6d4af5	0.057932813
176	0xbe15f85e	-0.14645526
177	0x3d59d8be	0.053185217
178	0xbe7ee813	-0.24893217
179	0x3db61fa7	0.08892756
180	0xbd845bbb	-0.06462809
181	0xbca60595	-0.020266334
182	0xbd6641a8	-0.05621496
183	0x3d9ca68e	0.07648955
184	0x3d4f2e24	0.050581113
185	0x3b4b8bef	0.0031058749
186	0xbcd17284	-0.0255673
187	0x3dc2832b	0.094976746
188	0x3c1c5dc8	0.009543844
189	0x3d6837ae	0.056693725
190	0xbcd9ee80	-0.026602983
191	0x3b1cb448	0.0023911167
192	0xbd093349	-0.033496175
193	0xbdb6a41d	-0.08918021
194	0xbd205ca6	-0.039150856
195	0xbcf7434c	-0.030183457
196	0xbd21aa7e	-0.039469235
197	0x3da23c3e	0.079216465
198	0x3c9899f3	0.018628096
199	0xbd07da1e	-0.033166997
200	0xbdb4e798	-0.088332355
201	0xbc883e77	-0.016631348
202	0x3de188ae	0.11012398
203	0xbc715fa1	-0.014732272
204	0xbdac5e0d	-0.08416376
205	0x3c89f4b1	0.01684031
206	0x3d202fe5	0.039108176
207	0x3deb1dcb	0.11480292
208	0xbd9cc4a9	-0.076546974
209	0x3d88491d	0.0665457
210	0xbdc9d4c5	-0.09855036
211	0x3d3a709d	0.045517553
212	0x3b31ae5b	0.002711198
213	0xbda36e9e	-0.07980083
214	0x3da6debb	0.08147951
215	0xbcd3a96f	-0.025837628
216	0xbd960005	-0.073242225
217	0x3cbea039	0.02326976
218	0x3d45bd78	0.048276395
219	0xbd8b30d5	-0.06796423
220	0x3d046957	0.032327022
221	0xbc90d2fa	-0.017678726
222	0x3d4d7402	0.05015946
223	0xbaa0c87d	-0.0012266781
224	0x3ec4d253	0.38441715
225	0xbccea441	-0.025224807
226	0xbd87fdaa	-0.066401795
227	0x3e1f749a	0.15571824
228	0xbd542be3	-0.051799666
229	0x3d9b53ff	0.0758438
230	0x3da518ac	0.080613464
231	0xbc1966d4	-0.009362895
232	0xbc0aea27	-0.008478678
233	0xbe041317	-0.12897907
234	0x3d67449f	0.056461927
235	0x3da317a4	0.079634935
236	0xbdadbd23	-0.084833406
237	0xbca8d231	-0.02060804
238	0x3d2896db	0.041159492
239	0xbc0b7923	-0.008512768
240	0x3e5e9773	0.21737461
241	0xbb7bc60d	-0.0038417608
242	0xbd8b922f	-0.06814992
243	0x3ddb9a59	0.10722799
244	0x3df8fb1c	0.1215727
245	0x3d87aca3	0.06624725
246	0x3d5b4e9d	0.05354177
247	0xbd0a8db3	-0.03382654
248	0xbdf5a522	-0.11994387
249	0x3d44d9d0	0.048059285
250	0x3d59c9b4	0.053170875
251	0xbd85df7d	-0.06536768
252	0xbd59e667	-0.053198244
253	0x3d78883f	0.06067681
254	0xbd1702b4	-0.036867812
255	0x3c7b119b	0.015324022

fc3.bias f4 [128]
0	0x3df1136a	0.11771281
1	0x3db920a7	0.09039431
2	0xbdcb308b	-0.09921368
3	0x3d860266	0.06543426
4	0x3dff52ac	0.1246694
5	0x3dc6dc5d	0.0971
6	0xbcf4bc6b	-0.029875001
7	0x3d97923e	0.0740094
8	0x3e0479e4	0.12937123
9	0x3d48ad64	0.048993483
10	0x3c376501	0.011193515
11	0x3dc3008e	0.0952159
12	0xbda26d50	-0.07931006
13	0xbd9d0c87	-0.07668405
14	0xbdae696a	-0.085162
15	0x3c96b505	0.018396864
16	0xbc390d89	-0.011294731
17	0x3de31b49	0.110891886
18	0xbdfac924	-0.12245396
19	0x3d02b0a6	0.031906746
20	0xbd2e5ed4	-0.042570904
21	0xbd75a626	-0.059972905
22	0x3d69753e	0.056996576
23	0xbd0f6795	-0.035010893
24	0x3e16cc11	0.14726283
25	0xbd5d20b2	-0.05398626
26	0x3c538bf4	0.012911785
27	0xbcd05a78	-0.025433764
28	0xbd95c3e8	-0.07312757
29	0x3cebc921	0.02878243
30	0xbd21655f	-0.039403316
31	0x3bec0c78	0.007203635
32	0x3dc3fcf3	0.095697306
33	0x3d9a10b7	0.07522719
34	0x3d65a469	0.056064997
35	0xbd8b4bce	-0.06801568
36	0x3a36fcf7	0.0006980444
37	0xbcbfcec8	-0.02341403
38	0xbdb5e394	-0.08881298
39	0x3db9adec	0.09066376
40	0x3d5d3a06	0.054010414
41	0x3dc609e7	0.096698575
42	0x3d07cca4	0.033154145
43	0xbda002e3	-0.078130506
44	0x3dcecfee	0.10098253
45	0x3d08828a	0.033327617
46	0x3df73e6d	0.12072454
47	0x3d432eb6	0.04765197
48	0xbdcce206	-0.10004048
49	0x3de3750e	0.11106311
50	0x3e03e96a	0.12882009
51	0xbbf033b8	-0.007330384
52	0xbd02872a	-0.031867184
53	0xbdaefabf	-0.0854392
54	0xbb710500	-0.0036776662
55	0x3de8f52a	0.11374886
56	0xbb6f273d	-0.0036491894
57	0xbd68d8e1	-0.056847457
58	0x3c4d43b6	0.012528351
59	0xbda68913	-0.081316136
60	0x3d37d880	0.044884205
61	0x3d9c0c8d	0.07619581
62	0x3c38df70	0.01128374
63	0xbd08aa8a	-0.033365764
64	0x3c977194	0.018486775
65	0x3dd15c0c	0.10222635
66	0x3d6deec8	0.058089048
67	0x3db6f2e2	0.08933045
68	0x3d764396	0.06012305
69	0xbb335013	-0.002736096
70	0x3dfad263	0.12247159
71	0x3b9a35be	0.0047061136
72	0xbd814bd3	-0.063132904
73	0x3cde96c8	0.027171507
74	0xbdc3d4d0	-0.09562075
75	0x3dd75290	0.105137944
76	0x3be11139	0.006868508
77	0x3b53a7ce	0.0032296064
78	0xbd9f575d	-0.07780335
79	0xbd802326	-0.06256704
80	0x3da7cf91	0.08193887
81	0x3d0491e8	0.03236571
82	0xbdb84848	-0.089981616
83	0x3dcbf02a	0.09957917
84	0xbdc0e134	-0.09417954
85	0xbb48770b	-0.0030588533
86	0x3ae2e191	0.0017309656
87	0x3c183416	0.009289762
88	0x3bbe5534	0.005808497
89	0xbd9d7aab	-0.07689413
90	0xbce7c433	-0.028291797
91	0xbd4e18e9	-0.050316725
92	0xbc76b98c	-0.015058886
93	0x3c8e5e0a	0.017378826
94	0xbc5be99c	-0.013422396
95	0x3d9370b9	0.071992345
96	0xbc1901ed	-0.009338838
97	0xba8c5e40	-0.0010709241
98	0xbd3b5b2c	-0.045741245
99	0x3da6f64e	0.08152448
100	0xbdae78c1	-0.08519126
101	0x3df7393f	0.12071466
102	0x3d916998	0.071002185
103	0xbd299590	-0.0414024
104	0x3c31bf38	0.010848813
105	0xbabf56db	-0.0014598029
106	0x3db1e410	0.086860776
107	0x3e2c3d9b	0.16820376
108	0x3e17a7ed	0.14810152
109	0x3cebae5e	0.028769668
110	0xbc7aeb0c	-0.015314829
111	0x3c38f1a8	0.011288084
112	0xbddc149a	-0.10746117
113	0xbd24a469	-0.040195856
114	0xbd23e13d	-0.040009726
115	0xbc0319cf	-0.008001759
116	0x3c4573de	0.012051551
117	0xbd40d231	-0.047075454
118	0x3dd40631	0.103527434
119	0x3da5598a	0.08073719
120	0xbdb20835	-0.086929716
121	0x3da3b5e1	0.07993675
122	0xbd2b7278	-0.041857213
123	0xbdb9f0dd	-0.09079144
124	0x3d203131	0.039109413
125	0x3d255cf8	0.040371865
126	0xbd097976	-0.0335631
127	0x3d984e8c	0.074368566

fc4.weight f4 [2, 128]
0	0xbe148d0f	-0.14506935
1	0x3e1e8dec	0.15483826
2	0x3c086b70	0.008326396
3	0x3ddaa821	0.10676599
4	0xbe0a6b4f	-0.13517497
5	0xbe28d47c	-0.16487306
6	0x3d53cd88	0.05170968
7	0xbd7cdb2b	-0.061732452
8	0xbe1e116c	-0.15436333
9	0xbe2ba0ef	-0.1676061
10	0x3e471f60	0.19445562
11	0xbe733710	-0.23751473
12	0xbc12f273	-0.008968937
13	0x3d73e640	0.059545755
14	0xbc92913b	-0.017891517
15	0xbe0c069f	-0.13674401
16	0x3df4c0a7	0.11950808
17	0xbd989732	-0.07450713
18	0xbd0995d4	-0.033590153
19	0x3d247461	0.04015005
20	0xbdccdc38	-0.10002941
21	0xbe2143c5	-0.15748508
22	0xbe04bd2b	-0.12962787
23	0x3e165d44	0.14684016
24	0xbe57e59d	-0.21083684
25	0xbbf300a5	-0.0074158483
26	0xbe579d01	-0.21055986
27	0x3e0bfca4	0.13670594
28	0xbdaff0e2	-0.085908666
29	0xbe16cadb	-0.1472582
30	0x3dc3c7b7	0.09559577
31	0x3e261d67	0.16222154
32	0xbdac46e1	-0.084119566
33	0x3b8441ce	0.004036165
34	0xbd735ade	-0.05941283
35	0xbb441d85	-0.0029924822
36	0x3e559f25	0.2086149
37	0x3df12306	0.11774258
38	0xbd47e9e2	-0.048807032
39	0xbeb05b58	-0.3444469
40	0xbe17fd00	-0.14842606
41	0xbeaf76b9	-0.34270266
42	0xbd513c46	-0.05108287
43	0x3b6e005a	0.0036316128
44	0x3dc6e826	0.097122476
45	0xbdb7cf78	-0.089751184
46	0xbe1fe1ba	-0.15613452
47	0xbdec89c2	-0.11549713
48	0xbe4fb382	-0.2028332
49	0x3dd04c62	0.10170819
50	0xbcf43117	-0.029808564
51	0x3d0cb116	0.03434857
52	0x3e18c522	0.1491895
53	0x3d81d909	0.06340224
54	0x3b01bc2b	0.0019795995
55	0xbd435d5b	-0.047696453
56	0xbe5d37e2	-0.21603349
57	0xbe0abdfc	-0.13549036
58	0x3d128182	0.03576804
59	0xbd7aca4a	-0.061228074
60	0x3dbde2df	0.09271788
61	0xbce1837d	-0.027528519
62	0xbda7c85d	-0.08192513
63	0xbb4ed181	-0.003155798
64	0x3e09c3e0	0.13453627
65	0xbe4176a0	-0.18892908
66	0xbe511baa	-0.20420709
67	0xbe588979	-0.21146192
68	0xbe60ac47	-0.21940719
69	0x3e097a77	0.13425623
70	0xbe389678	-0.1802615
71	0xbe83810f	-0.256844
72	0x3d8a1134	0.067415625
73	0x3dd0c5b7	0.10193961
74	0xbd9e1ddd	-0.0772054
75	0xbe17f589	-0.14839758
76	0xbe3faced	-0.1871831
77	0xbe78683f	-0.24258517
78	0x3c446bca	0.01198859
79	0xbe274e50	-0.16338468
80	0xbe7de74e	-0.24795267
81	0x3e149ca5	0.1451288
82	0x3939aa1d	0.00017706347
83	0xbdbe8799	-0.09303207
84	0xbd9028b6	-0.07039015
85	0x3e25b963	0.16184
86	0xbe8820b9	-0.26587465
87	0xbcc9542b	-0.024576267
88	0x3db1f345	0.08688978
89	0x3e163be5	0.14671285
90	0xbe2a6cb2	-0.16643026
91	0x3d955a2f	0.07292592
92	0xbe4d119a	-0.20026246
93	0x3dfd4b49	0.12367875
94	0x3cb03ca0	0.021513283
95	0xbe55dc31	-0.20884778
96	0xbd93ae60	-0.07210994
97	0xbe1b4792	-0.1516402
98	0x3cd38f6f	0.02582523
99	0xbe31317c	-0.17304033
100	0x3d82e081	0.06390477
101	0xbdf880bc	-0.12133929
102	0xbe6054fd	-0.2190742
103	0xbe612f8c	-0.21990794
104	0x3e4f6c87	0.20256244
105	0x3ddf65c2	0.10908081
106	0xbea7f62d	-0.32805005
107	0xbe8fb7c3	-0.28069887
108	0xbdd7348d	-0.1050807
109	0xbcbef501	-0.023310186
110	0xbd27ba6f	-0.04094928
111	0xbe8a718f	-0.27039763
112	0x3dd4f1ec	0.103977054
113	0xbe631227	-0.22174893
114	0xbcab37d6	-0.020900648
115	0xbd3a1ed3	-0.045439553
116	0x3e1d589a	0.1536583
117	0xbd817fd3	-0.06323209
118	0xbdae704b	-0.08517512
119	0x3dae3ea6	0.08508043
120	0xbe22fe37	-0.15917288
121	0xbb793cb4	-0.0038030567
122	0xbb5ba603	-0.0033515699
123	0x3d916aeb	0.07100471
124	0xbe5209ad	-0.20511504
125	0x3de605c1	0.11231566
126	0xbe1967ec	-0.1498105
127	0xbe60e19d	-0.21961065
128	0xbddcdb5d	-0.10784028
129	0x3cb6515c	0.022255592
130	0x3bacea57	0.005276959
131	0x3ce4de93	0.027938163
132	0xbd781753	-0.06056912
133	0xbdb0cef8	-0.08633226
134	0xbd859106	-0.06521802
135	0xbdf53df6	-0.11974709
136	0xbe6fcf17	-0.23418842
137	0xbe51da4c	-0.2049343
138	0x3dfdcecf	0.12392961
139	0xbded14ab	-0.11576208
140	0x3de5b84c	0.112167925
141	0x3ce2f1c5	0.027703175
142	0x3ee00e55	0.43760934
143	0xbe39a8c7	-0.1813079
144	0xbcf2dc46	-0.02964605
145	0xbe55304e	-0.20819208
146	0x3da03913	0.07823386
147	0xbe0f63f2	-0.1400297
148	0x3df85641	0.121258266
149	0xbc3bc0b5	-0.011459519
150	0xbdbf3f13	-0.09338202
151	0xbd341186	-0.043962024
152	0xbdea40d9	-0.1143815
153	0xbc929e72	-0.017897818
154	0xbdf39d63	-0.118952535
155	0x3d6559cf	0.05599385
156	0x3d901301	0.07034875
157	0x3d2e2b67	0.04252186
158	0xbd5d9845	-0.054100294
159	0x3ddeb7d7	0.108749084
160	0xbe3db7c5	-0.18527134
161	0xbe48211f	-0.19543885
162	0x3f107c0d	0.56439286
163	0xbb950d49	-0.004548703
164	0x3eee7bf6	0.4657895
165	0x3d681c4c	0.05666761
166	0x3d1c917c	0.038224682
167	0xbdd893bc	-0.10575053
168	0xbd7bf46d	-0.0615124
169	0xbd2adfd8	-0.04171738
170	0x3d2a3207	0.041551616
171	0xbbd11b9e	-0.006381466
172	0xbd983b72	-0.07433213
173	0xbddab39d	-0.1067879
174	0x3e2bc930	0.16775966
175	0xbd6c06c0	-0.057623625
176	0x3e13bd6b	0.14427726
177	0x3e6c92d4	0.23102885
178	0xbe38e93b	-0.1805772
179	0xbdf6bf76	-0.12048237
180	0x3e01fb72	0.12693575
181	0x3bf451fb	0.007456062
182	0xbd8b186e	-0.06791769
183	0xbe9a6725	-0.30156818
184	0xbd9cb53a	-0.07651754
185	0x3d9253d8	0.07144898
186	0xbdbb1ccb	-0.09136351
187	0x3d9782cd	0.07397995
188	0x3d9b2c62	0.07576825
189	0xbe9e1645	-0.30876365
190	0xbdcfffc2	-0.10156204
191	0x3c119b66	0.0088871475
192	0x3e3ccdef	0.18437932
193	0xbda09efe	-0.07842825
194	0xbe26c651	-0.16286589
195	0xbc72ffcd	-0.0148314955
196	0xbda13786	-0.078719184
197	0x3e5757fa	0.21029654
198	0x3e6e7f51	0.23290755
199	0x3e6175b1	0.22017552
200	0x3cb4a3b3	0.022050714
201	0x3e4c760e	0.1996691
202	0xbd80dd0b	-0.062921606
203	0xbe3fb7aa	-0.18722406
204	0x3e9f7b68	0.3114884
205	0xbd8d0120	-0.0688498
206	0x3d61634b	0.055026334
207	0xbe1a5ee9	-0.15075268
208	0xbc20840f	-0.00979711
209	0x3dd42aaf	0.10359704
210	0x3d4c9e1a	0.049955465
211	0xbe55d21c	-0.20880932
212	0x3e497056	0.19671759
213	0x3d93af36	0.07211153
214	0x3d196c5f	0.037456866
215	0xbd11624f	-0.035494145
216	0x3e2e8fea	0.17047086
217	0x3d6fa098	0.058502764
218	0x3e2837d7	0.16427551
219	0xbd264cf4	-0.040600732
220	0xbdde83a9	-0.10864956
221	0x3d689556	0.056783043
222	0x3e89c8ee	0.2691111
223	0x3d327045	0.0435641
224	0x3dd235e7	0.10264187
225	0xbdfe012c	-0.12402567
226	0xbcfe9c21	-0.031080307
227	0xbe094bfa	-0.13407889
228	0xbc94e2f2	-0.018174622
229	0xbd158f8a	-0.036513843
230	0x3e63f62b	0.22261874
231	0x3e8dd570	0.27701902
232	0xbedc06f7	-0.42974064
233	0x3e81fa0b	0.2538608
234	0x3bcea5c1	0.0063063805
235	0xbce6d774	-0.028178908
236	0x3f258289	0.64652306
237	0xbe76c283	-0.24097638
238	0xbd0ada9d	-0.033899892
239	0xbccb938d	-0.024850631
240	0x3e4d315f	0.20038365
241	0x3e4e4d15	0.20146592
242	0xbd37d5f8	-0.04488179
243	0xba752ff9	-0.0009353157
244	0x3d68191e	0.05666458
245	0x3d29a702	0.041419037
246	0xbd8b8da0	-0.06814122
247	0x3bd0a2b7	0.0063670534
248	0x3ea7cd41	0.32773784
249	0xbe865b84	-0.26241696
250	0x3c9c3532	0.019068334
251	0x3d503574	0.050832227
252	0xbd3fc512	-0.0468188
253	0x3e3780e5	0.17920263
254	0xbd5b45b0	-0.053533256
255	0xbcd45d73	-0.025923466

fc4.bias f4 [2]
0	0xbd905450	-0.07047331
1	0x3cf56ccd	0.029959107

fc1.weight f4 [128, 7]
0	0x3e823326	0.25429648
1	0xbefd58fb	-0.4948195
2	0x3e43e66b	0.19130866
3	0x3e312ced	0.17302294
4	0xbe7c9626	-0.24666652
5	0x3e2fa05a	0.17151013
6	0x3e6837f1	0.2267759
7	0x3d5ab162	0.05339182
8	0x3ea13d35	0.3149201
9	0x3c3ee6ea	0.011651734
10	0x3e6b12f3	0.22956447
11	0x3d688019	0.05676279
12	0x3d681a61	0.056665782
13	0x3e0f8c12	0.14018276
14	0xbeb68bf8	-0.35653663
15	0x3dddde8a	0.108334616
16	0xbe1f60f5	-0.1556433
17	0xbeb66914	-0.35627043
18	0xbe9536ee	-0.2914347
19	0xbd0e180e	-0.03469091
20	0x3ce83659	0.028346227
21	0xbe7f25ff	-0.24916838
22	0x3e233d22	0.15941289
23	0x3d478864	0.048714057
24	0x3db2707d	0.08712862
25	0x3d591238	0.05299589
26	0x3daf1f6f	0.08550917
27	0x3ed96054	0.42456305
28	0xbd2349cc	-0.0398653
29	0x3ec87489	0.3915141
30	0xbf00876c	-0.5020664
31	0xbd9a97c5	-0.07548479
32	0xbed78d3b	-0.42099938
33	0x3e40f514	0.1884349
34	0x3ec843d6	0.39114255
35	0x3ca2c542	0.01986945
36	0x3e0f7a48	0.1401149
37	0x3e79db5d	0.24400087
38	0xbe91ff86	-0.2851526
39	0x3d9e67f3	0.077346705
40	0xbead5313	-0.33852443
41	0xbdcb7d1e	-0.099359736
42	0x3dddc419	0.10828418
43	0xbe8b7845	-0.27240196
44	0x3dee3424	0.11631039
45	0xbe81f7e0	-0.25384426
46	0xbe27d795	-0.16390832
47	0xbec62eca	-0.38707572
48	0xbe827d89	-0.254864
49	0xbd0222ad	-0.03177135
50	0x3e203912	0.1564677
51	0xbeac3d45	-0.33640495
52	0xbebe7502	-0.37198645
53	0x3ce2ba93	0.027676856
54	0x3e1d2898	0.15347517
55	0x3eb2bf84	0.3491174
56	0xbe0d3162	-0.1378837
57	0x3e1e7d29	0.15477432
58	0x3ecb9d22	0.3976832
59	0x3de450fa	0.111482576
60	0xbe91fec3	-0.2851468
61	0x3ed21bb6	0.41036767
62	0x3dfc7bd4	0.12328306
63	0xbe30799a	-0.17233887
64	0xbe99050a	-0.29886657
65	0x3e913f48	0.28368592
66	0xbdb14a8f	-0.08656799
67	0xbe696360	-0.22791815
68	0xbe49bb33	-0.19700317
69	0x3dfa186b	0.122116886
70	0x3e0daf8c	0.13836497
71	0x3eb206e6	0.34770888
72	0xbd02c191	-0.03192288
73	0x3eb106fc	0.3457564
74	0x3ed9465a	0.42436486
75	0xbd8e4114	-0.069460064
76	0xbf04fabd	-0.51945096
77	0x3e203252	0.15644196
78	0xbe81e00a	-0.2536624
79	0x3d1f8bd6	0.038951717
80	0xbe47d460	-0.19514608
81	0xbf1ef44f	-0.62091535
82	0x3ef42fbc	0.47692668
83	0xbe5f0b59	-0.21781673
84	0x3e21b89c	0.15793079
85	0xbebc95cf	-0.36833045
86	0x3eb5ecbc	0.35532176
87	0xbe36d317	-0.17853962
88	0x3eb53f11	0.35399678
89	0xbe8d1a26	-0.27559012
90	0xbd42c709	-0.047553096
91	0x3e9897a4	0.29803193
92	0x3eae26de	0.34014028
93	0xbe8b3e45	-0.27195945
94	0xbea04327	-0.31301233
95	0x3e9c7d5d	0.30564395
96	0x3e015d97	0.12633358
97	0xbe9057f8	-0.28192115
98	0x3e4bb3a9	0.19892754
99	0xbe94d6bb	-0.29070076
100	0xbe317c55	-0.17332585
101	0xbe11c987	-0.14237033
102	0x3a30a1b5	0.00067379634
103	0x3ebd5681	0.3698006
104	0xbe3aa371	-0.1822641
105	0x3e1c723c	0.15277952
106	0xbe7e534e	-0.24836466
107	0x3e93b5b4	0.28849566
108	0x3e6d337b	0.2316417
109	0xbdc38b77	-0.09548085
110	0x3ee6436f	0.44973323
111	0xbd9fbf33	-0.0780014
112	0x3cda0877	0.026615364
113	0x3e4ce3ed	0.20008822
114	0xbdddabdc	-0.10823795
115	0xbede7dde	-0.43455404
116	0x3baf0369	0.0053409827
117	0xbe88f613	-0.2675024
118	0x3e637160	0.22211218
119	0x3f0429dc	0.5162637
120	0x3e9602ab	0.2929891
121	0x3ea0b8b7	0.31390926
122	0xbe3e6951	-0.18594863
123	0xbeb60b33	-0.3555542
124	0x3e07fb51	0.13279463
125	0xbe32b5be	-0.17452142
126	0x3ddd1692	0.107953206
127	0xbd5d86f0	-0.054083765
128	0xbf658424	-0.89654756
129	0x3d9d5faf	0.07684266
130	0xbc997d76	-0.018736582
131	0xbecd23fe	-0.40066522
132	0x3df19565	0.11796073
133	0x3cfbc52e	0.030733671
134	0xbe618087	-0.22021686
135	0xbea79f13	-0.32738551
136	0x3e3a41db	0.18189184
137	0xbea0533c	-0.31313503
138	0xbe172707	-0.14760982
139	0xbe4bb418	-0.19892919
140	0xbe432daa	-0.19060388
141	0xbe3adc0c	-0.18248004
142	0x3e3ed3d0	0.18635488
143	0xbdd1e21e	-0.102482066
144	0xbe8c1616	-0.273606
145	0x3e76d5b0	0.24104953
146	0xbea711ac	-0.3263067
147	0xbe387ecb	-0.18017118
148	0xbdaab26f	-0.08334815
149	0xbe9d9cb3	-0.30783615
150	0xbce9f7bf	-0.028560517
151	0xbe8e0455	-0.2773768
152	0x3ddeb717	0.10874765
153	0xbe068c4e	-0.1313946
154	0x3e49ceb1	0.19707753
155	0x3eca47a5	0.39507785
156	0xbe8290cd	-0.255011
157	0xbe210d2c	-0.15727681
158	0xbe4e28dd	-0.20132776
159	0xbe015930	-0.12631679
160	0x3ea5e747	0.32403013
161	0xbefc6710	-0.4929738
162	0xbe31a684	-0.17348677
163	0xbe0d4bcb	-0.13798444
164	0x3e5538f8	0.20822513
165	0x3ea6226b	0.32448134
166	0x3e8aff63	0.2714797
167	0xbf02d083	-0.51099414
168	0x3e007579	0.12544812
169	0xbeb1d819	-0.34735182
170	0xbec9580a	-0.3932498
171	0x3dfc7d6d	0.123286106
172	0x3db45b0d	0.08806429
173	0x3c801797	0.015636249
174	0x3dc81e42	0.09771396
175	0x3c9cda4c	0.01914706
176	0x3d2f632b	0.042819183
177	0xbf81652d	-1.0109001
178	0xbe779a0e	-0.24179861
179	0xbbac8465	-0.005264806
180	0xbec9bfd3	-0.39404163
181	0x3e36b032	0.1784065
182	0x3d3a006d	0.045410562
183	0x3de360fa	0.11102481
184	0xbe84c3ac	-0.25930536
185	0x3dc950fa	0.09829898
186	0x3e6e8304	0.23292166
187	0x3e715beb	0.2357022
188	0xbe9e7f07	-0.3095629
189	0xbca9e173	-0.020737385
190	0xbe54a42d	-0.20765753
191	0x3ecc79c2	0.39936644
192	0xbe99b053	-0.30017337
193	0xbe9a0924	-0.300851
194	0x3c4da12e	0.012550635
195	0xbe1d1c39	-0.15342797
196	0x3e83676f	0.2566485
197	0x3e25b277	0.1618136
198	0xbe09f36f	-0.13471769
199	0xbd7f4e85	-0.06233074
200	0xbe69ee71	-0.22844864
201	0x3dd19f77	0.10235494
202	0x3dd7151b	0.105020724
203	0xbea38934	-0.31940615
204	0xbe664960	-0.22488928
205	0x3e991c32	0.29904324
206	0xbdecbf35	-0.11559907
207	0x3ef60c00	0.4805603
208	0xbe1e2524	-0.15443856
209	0xbe3d1ca7	-0.18467961
210	0xbeb8af73	-0.36071357
211	0x3eae49a3	0.34040555
212	0xbec11c5d	-0.37716952
213	0xbd18a106	-0.03726294
214	0x3d73719e	0.059434526
215	0x3dd507ff	0.10401916
216	0xbe547f63	-0.20751719
217	0xbdb1df57	-0.08685177
218	0xbe312654	-0.17299777
219	0xbd52d8df	-0.051476356
220	0xbe186c49	-0.14885058
221	0xbeba6177	-0.36402485
222	0x3e3a9665	0.18221433
223	0xbe522e0e	-0.20525381
224	0xbe3c5957	-0.18393455
225	0x3eab8f2d	0.33507672
226	0xbf3aadd4	-0.7292149
227	0x3e8e3431	0.27774194
228	0x3e7f83dd	0.24952646
229	0x3e0be856	0.13662848
230	0x3e022028	0.12707579
231	0x3e492ca5	0.19645937
232	0xbbd99cd4	-0.00664101
233	0xbef040e3	-0.46924505
234	0xbd81a04e	-0.06329404
235	0x3ea6759e	0.3251161
236	0xbc95c5b3	-0.018282747
237	0x3eb7890c	0.35846746
238	0xbd2c0131	-0.041993324
239	0xbd550a40	-0.05201173
240	0xbe84e753	-0.25957736
241	0xbdc652dd	-0.09683774
242	0xbe90dc40	-0.28293037
243	0xbe137b4b	-0.14402501
244	0x3efe0402	0.49612433
245	0x3e44b345	0.19209011
246	0x3ed99337	0.4249513
247	0xbd4ebd48	-0.05047348
248	0x3e7e417b	0.24829666
249	0x3e56240f	0.20912193
250	0x3e94a6c9	0.29033497
251	0x3e83f2ef	0.2577128
252	0xbea83809	-0.3285525
253	0x3e9998d9	0.29999426
254	0x3eb80775	0.3594319
255	0x3e8fc7be	0.2808208

fc1.bias f4 [128]
0	0xbe9a60e4	-0.30152047
1	0x3cb1967a	0.021678198
2	0x3ea5e01f	0.32397553
3	0xbc69827d	-0.014252302
4	0x3ea16c2c	0.3152784
5	0xbeae0733	-0.33989868
6	0x3e90b0ca	0.2825988
7	0x3e0735a8	0.13204062
8	0xbc97cf9c	-0.018531613
9	0xbd7fe15b	-0.062470775
10	0x3e28e28a	0.16492668
11	0x3e081433	0.13288955
12	0xbec4c350	-0.38430262
13	0xbd8985f6	-0.06715004
14	0xbe76f7f8	-0.2411803
15	0xbe6af8cc	-0.22946471
16	0xbe1f1f10	-0.15539193
17	0xbe7e03d5	-0.2480615
18	0x3e856bdc	0.26058853
19	0x3e660a24	0.22464806
20	0xbe5e602c	-0.21716374
21	0xbd9a3f27	-0.075315766
22	0x3e6ad02b	0.22930972
23	0x3d2081cf	0.039186295
24	0xbdefe420	-0.11713433
25	0x3e8304f0	0.25589705
26	0x3e88b2fb	0.2669905
27	0x3eba62da	0.36403543
28	0x3d27ad81	0.04093695
29	0x3e851335	0.25991216
30	0xbe614ff7	-0.2200316
31	0xbeb1750e	-0.34659618
32	0xbd11890e	-0.035531096
33	0x3d9f9ee1	0.077939756
34	0x3cde736f	0.027154652
35	0x3e8c1a2c	0.27363718
36	0x3e7a3e08	0.24437726
37	0x3e3a0c2c	0.18168706
38	0x3d537510	0.05162531
39	0xbd1008b5	-0.035164554
40	0x3eb63c29	0.35592774
41	0x3e8f3a68	0.27974248
42	0x3b580fe5	0.0032968458
43	0x3ecb5955	0.39716592
44	0xbe02223f	-0.12708376
45	0x3e21da1e	0.15805861
46	0x3e25c468	0.16188204
47	0x3d64c4a2	0.055851586
48	0xbea93d62	-0.33054644
49	0x3e9d9b41	0.30782512
50	0xbc16dd7e	-0.009208081
51	0xbebd087f	-0.36920545
52	0xbe51cfd2	-0.20489433
53	0xbed45aa0	-0.4147539
54	0xbdbf4eef	-0.09341227
55	0x3da76ad9	0.081746764
56	0xbe8d2840	-0.2756977
57	0xbea703f6	-0.3262021
58	0xbec0c690	-0.3765149
59	0x3e900e64	0.2813598
60	0x3dd8706f	0.1056832
61	0xbe4c6f25	-0.19964273
62	0xbd37d924	-0.044884816
63	0xbda17663	-0.078839086
64	0xbdceef90	-0.10104287
65	0x3e0f6486	0.1400319
66	0xbd906e84	-0.07052329
67	0xbe04c96f	-0.12967466
68	0xbe1a205c	-0.15051407
69	0xbd6949dd	-0.056955207
70	0x3e8016a7	0.25017282
71	0x3c4fea78	0.012690179
72	0xbe2ee2cd	-0.17078705
73	0xbc91c3b1	-0.017793508
74	0x3e085f05	0.13317497
75	0xbe9c7f04	-0.30565655
76	0x3e31ba25	0.17356165
77	0x3d2ada50	0.041712105
78	0x3d6aa658	0.057287544
79	0xbe1bbeb7	-0.1520947
80	0x3e85c208	0.26124597
81	0xbdeab3cd	-0.114600755
82	0x3e867db7	0.26267788
83	0xbe9ea766	-0.3098709
84	0xbda913ab	-0.082557045
85	0x3e87eb28	0.26546597
86	0xbe2f45f2	-0.17116526
87	0xbe0b6e40	-0.13616276
88	0x3eb099c7	0.34492323
89	0x3db39417	0.0876848
90	0xbda11d86	-0.07866959
91	0xbe768ae4	-0.2407642
92	0x3e9de6cb	0.30840144
93	0x3eb7006d	0.35742512
94	0xbd6e18dd	-0.05812918
95	0x3e390e9b	0.18071978
96	0xbeba8f14	-0.36437285
97	0x3ea0e41a	0.31424028
98	0x3e0c86ac	0.13723248
99	0xbd8c11b7	-0.06839316
100	0x3df41120	0.11917329
101	0x3e96eb14	0.29476225
102	0x3e809386	0.2511255
103	0xbd43130a	-0.04762558
104	0x3e0baf83	0.13641171
105	0xbe203fcd	-0.15649338
106	0xbe14bd74	-0.14525396
107	0x3e8f26d7	0.2795932
108	0x3e867395	0.26260057
109	0xbe8f9bf2	-0.28048664
110	0xbe1d6d59	-0.15373744
111	0x3e932c9e	0.28744978
112	0x3e8ea1a6	0.27857703
113	0x3e18edb2	0.14934424
114	0x3ead1e9b	0.33812413
115	0xbeab59a1	-0.3346682
116	0xbccaa651	-0.024737509
117	0xbd53368f	-0.051565703
118	0x3e8b7c34	0.27243197
119	0xbdd08457	-0.10181492
120	0x3d6a09c4	0.05713822
121	0xbc06a3e5	-0.008217786
122	0xbe24936b	-0.1607186
123	0x3de9fd0e	0.114252195
124	0xbe4ca43e	-0.19984528
125	0xbe3960c1	-0.18103315
126	0x3ea082e5	0.31349865
127	0xbe94a419	-0.29031447
