flappybird_dqn_best.pth (torch, 561683 bytes, 32 tensors)

fc1.weight f4 [128, 7]
000000 5b c2 87 3e 5b 91 fc be 96 e6 4d 3e 02 1b 47 3e
       0.2651547 -0.49329647 0.20107493 0.19443896
000010 5c 89 86 be 86 77 38 3e 76 3c 6d 3e 7a 9c 83 3d
       -0.26276672 0.18014345 0.23167595 0.0642633
000020 c0 4c b0 3e 1c c3 5d 3c bd 78 60 3e 6d a2 88 3d
       0.34433556 0.013535287 0.21921058 0.06671605
000030 8e 98 5b 3d 9a a2 10 3e f8 8b b6 be 8a de dd 3d
       0.053612284 0.14124528 -0.35653663 0.108334616
000040 f5 60 1f be 14 69 b6 be ee 36 95 be 0e 18 0e bd
       -0.1556433 -0.35627043 -0.2914347 -0.03469091
000050 59 36 e8 3c 8c 6e 87 be ff c0 11 3e 31 f0 2d 3d
       0.028346227 -0.26451528 0.14233778 0.042465393
000060 07 a8 aa 3d 45 dc 70 3d 0d 21 a4 3d fd bd d6 3e
       0.0833283 0.058803815 0.080141164 0.41941825
000070 67 79 1f bd 87 77 c3 3e 7a 2a ff be 1f 50 93 bd
       -0.038934138 0.3817713 -0.49837095 -0.07193016
000080 58 76 dd be 13 ed 43 3e ec b6 cb 3e 42 c5 a2 3c
       -0.43254352 0.19133405 0.39787996 0.01986945
000090 48 7a 0f 3e 5d db 79 3e 86 ff 91 be f3 67 9e 3d
       0.1401149 0.24400087 -0.2851526 0.077346705
0000a0 13 53 ad be 1e 7d cb bd 19 c4 dd 3d 45 78 8b be
       -0.33852443 -0.099359736 0.10828418 -0.27240196
0000b0 24 34 ee 3d e0 f7 81 be 95 d7 27 be ca 2e c6 be
       0.11631039 -0.25384426 -0.16390832 -0.38707572
0000c0 89 7d 82 be 8c 5d 4c bd c3 bd 18 3e 86 ec bc be
       -0.254864 -0.0498939 0.14916138 -0.36899203
0000d0 36 61 c3 be ae 43 92 3c 79 38 0d 3e 7d 79 aa 3e
       -0.38160104 0.017854538 0.13791074 0.33295813
0000e0 c6 89 24 be a5 24 13 3e c8 6f cc 3e fd 58 c7 3d
       -0.16068181 0.14369448 0.39929032 0.0973377
0000f0 ae de 9b be fb 37 cb 3e 0f 1d e3 3d 9a 79 30 be
       -0.3044333 0.39691147 0.11089527 -0.17233887
000100 0a 05 99 be 48 3f 91 3e 8f 4a b1 bd 60 63 69 be
       -0.29886657 0.28368592 -0.08656799 -0.22791815
000110 33 bb 49 be 6b 18 fa 3d 2a 0a 13 3e dd fa b1 3e
       -0.19700317 0.122116886 0.14359346 0.34761706
000120 b0 bf bd bc 9a 00 ab 3e 8e 36 d5 3e 66 06 8b bd
       -0.023162693 0.33398896 0.41643184 -0.0678833
000130 de 62 06 bf 82 a2 23 3e 8b fe 88 be 07 76 0d 3d
       -0.5249461 0.1597996 -0.267567 0.034536388
000140 ea 1b 45 be c0 59 24 bf f0 f2 f1 3e 46 67 62 be
       -0.1924893 -0.6419945 0.4725566 -0.22109708
000150 9c b8 21 3e cf 95 bc be bc ec b5 3e 17 d3 36 be
       0.15793079 -0.36833045 0.35532176 -0.17853962
000160 11 3f b5 3e 26 1a 8d be 09 c7 42 bd 74 a5 96 3e
       0.35399678 -0.27559012 -0.047553096 0.29423106
000170 93 1a b2 3e ba ea 97 be e5 51 a2 be ee 86 9a 3e
       0.347859 -0.2967127 -0.31703106 0.30181068
000180 fb 18 f6 3d d4 16 96 be ee 65 42 3e 13 de ad be
       0.120164834 -0.2931429 0.18984196 -0.33958492
000190 cc c4 32 be 1f 53 12 be 72 d0 38 bc fd 60 c1 3e
       -0.17457885 -0.1428952 -0.011280166 0.3776931
0001a0 ec 12 2d be 4c a8 0e 3e 28 71 8f be 24 e4 9c 3e
       -0.1690175 0.13931388 -0.2801602 0.30642807
0001b0 b6 64 76 3e e5 9a c5 bd 67 c8 e7 3e 65 18 a5 bd
       0.24061856 -0.096486844 0.45270082 -0.080612935
0001c0 77 08 da 3c ed e3 4c 3e dc ab dd bd de 7d de be
       0.026615364 0.20008822 -0.10823795 -0.43455404
0001d0 69 03 af 3b 13 f6 88 be 60 71 63 3e ec 2e 07 3f
       0.0053409827 -0.2675024 0.22211218 0.5280597
0001e0 d6 0e 92 3e ce 67 a1 3e 4b 4d 54 be 81 07 ca be
       0.28526944 0.3152451 -0.2073261 -0.3945885
0001f0 97 0d 01 3e 04 93 35 be 0d fb 01 3e ef 89 37 bd
       0.1260284 -0.17731863 0.12693425 -0.044809278
000200 bd 32 57 bf ec 55 a6 3d 75 dc 01 bc fb 30 c6 be
       -0.84061795 0.08121857 -0.007926096 -0.38709244
000210 d3 c8 00 3e 38 43 90 3c 77 07 4d be 9c ba a3 be
       0.12576608 0.017610177 -0.20022379 -0.3197831
000220 94 a4 2b 3e b7 99 a5 be 89 d8 22 be 9a ff 58 be
       0.16762 -0.32343838 -0.15902914 -0.21191254
000230 aa 2d 43 be 0c dc 3a be d0 d3 3e 3e 1e e2 d1 bd
       -0.19060388 -0.18248004 0.18635488 -0.102482066
000240 16 16 8c be b0 d5 76 3e ac 11 a7 be cb 7e 38 be
       -0.273606 0.24104953 -0.3263067 -0.18017118
000250 6f b2 aa bd b3 9c 9d be bf f7 e9 bc 55 04 8e be
       -0.08334815 -0.30783615 -0.028560517 -0.2773768
000260 17 b7 de 3d 4e 8c 06 be 73 a4 48 3e 3e 10 cb 3e
       0.10874765 -0.1313946 0.19593982 0.3966083
000270 54 de 7c be 6a 8b 26 be d3 81 59 be dd 38 04 be
       -0.24694186 -0.1626412 -0.2124093 -0.12912317
000280 05 7a a7 3e e1 0d fa be 04 ec 21 be 3c 5b 9a bd
       0.3271028 -0.48838714 -0.15812689 -0.07536933
000290 a2 97 4b 3e 54 09 a5 3e 6f 42 8d 3e 87 4e 07 bf
       0.19882062 0.3223368 0.27589747 -0.528542
0002a0 fc a8 14 3e d3 59 b0 be 20 b3 eb be 40 19 0a 3e
       0.14517587 -0.3444353 -0.460351 0.13486195
0002b0 9b f1 b0 3d 2b 0c d1 3c c5 62 df 3d 99 ce 3a 3b
       0.086398326 0.025518497 0.10907511 0.002850449
0002c0 19 65 c0 3d eb 8c 79 bf 00 92 84 be 5a 35 b2 bc
       0.09394283 -0.9748065 -0.2589264 -0.021753956
0002d0 c2 5f d6 be 32 4f 2d 3e 1e 68 3e 3d 3b 29 13 3e
       -0.41869932 0.16924742 0.046486013 0.14371197
0002e0 51 9d 89 be ea 1a bb 3d a8 ec 66 3e b9 38 67 3e
       -0.26877835 0.09135993 0.22551215 0.22580232
0002f0 3a 87 a6 be cc f8 8f bc f7 d1 43 be cb 31 c3 3e
       -0.32525045 -0.01757469 -0.19123064 0.38123927
000300 f0 bd a7 be 88 7a 9d be 73 04 d1 bb 0e 46 2d be
       -0.32762098 -0.30757546 -0.006378704 -0.16921255
000310 f1 fd 86 3e 9b 37 29 3e 19 42 ea bd 5b a1 97 bd
       0.26365617 0.16525118 -0.114383884 -0.07403823
000320 1f 08 80 be 62 9e cf 3d 68 39 cb 3d 8a 74 a4 be
       -0.25006196 0.10137631 0.09923059 -0.32120162
000330 fb d7 65 be 01 c3 98 3e 1b 5e d5 bd 77 b4 fd 3e
       -0.22445671 0.29836276 -0.1041834 0.49551746
000340 12 1c 18 be a3 31 32 be 73 af b8 be a3 49 ae 3e
       -0.14854458 -0.17401747 -0.36071357 0.34040555
000350 5d 1c c1 be 06 a1 18 bd 9e 71 73 3d ff 07 d5 3d
       -0.37716952 -0.03726294 0.059434526 0.10401916
000360 63 7f 54 be 57 df b1 bd 54 26 31 be df d8 52 bd
       -0.20751719 -0.08685177 -0.17299777 -0.051476356
000370 49 6c 18 be 77 61 ba be 65 96 3a 3e 0e 2e 52 be
       -0.14885058 -0.36402485 0.18221433 -0.20525381
000380 a5 01 30 be c0 0a b7 3e 89 06 3e bf ca b7 8d 3e
       -0.17188127 0.3575039 -0.7422872 0.27679282
000390 1b ee 7c 3e 3a a4 0c 3e 0d e0 01 3e 48 9c 59 3e
       0.24700205 0.13734522 0.12683125 0.21251023
0003a0 aa 21 e7 3c cf c0 f5 be 9a 07 81 bd a7 87 a5 3e
       0.028214294 -0.47998664 -0.06300278 0.32330057
0003b0 2c a9 99 bc 7d bf ba 3e c9 99 2f bd 51 b3 2f bd
       -0.018757425 0.3647422 -0.04287127 -0.04289562
0003c0 88 11 91 be 9d ea b6 bd 15 76 91 be 9b ce 15 be
       -0.28333688 -0.08931468 -0.28410402 -0.14629595
0003d0 d0 03 fe 3e 13 17 4a 3e 4e 19 ec 3e 9d c3 86 bd
       0.49612284 0.19735365 0.46113056 -0.06580279
0003e0 d8 bc 73 3e 93 00 4f 3e e7 1f 8e 3e d5 47 7f 3e
       0.23802507 0.20215063 0.27758715 0.24929745
0003f0 f8 86 a9 be 9a b9 a2 3e 2e 80 b5 3e 5b ce 8b 3e
       -0.33110785 0.31782228 0.35449356 0.27305874

fc1.bias f4 [128]
000000 eb 32 9b be 08 00 06 3d 1f e0 a5 3e d5 0d 9a bc
       -0.30312285 0.032714874 0.32397553 -0.018805424
000010 b8 46 9e 3e 33 07 ae be ca b0 90 3e f1 09 f0 3d
       0.3091333 -0.33989868 0.2825988 0.11720646
000020 25 d8 25 bd 5b e1 7f bd 5f 08 28 3e 96 b7 fe 3d
       -0.040489335 -0.062470775 0.16409443 0.1243736
000030 50 c3 c4 be 9a cc 91 bd ff f5 80 be 82 1c 73 be
       -0.38430262 -0.07119103 -0.2518768 -0.23741344
000040 10 1f 1f be 9b 82 82 be 63 6c 8d 3e 3d 2b 5a 3e
       -0.15539193 -0.2549027 0.27621755 0.21305557
000050 2c 60 5e be 27 3f 9a bd cd a3 63 3e 97 fb 22 3d
       -0.21716374 -0.075315766 0.22230454 0.039790716
000060 f8 d1 e0 bd 7e 43 74 3e d2 ef 86 3e 11 55 b9 3e
       -0.10977548 0.23853871 0.26354843 0.36197713
000070 60 3d 07 3d 6f d3 88 3e f7 4f 61 be 0e 75 b1 be
       0.033017516 0.2672381 -0.2200316 -0.34659618
000080 c7 34 00 bd c6 3b ad 3d c6 b4 d5 3c d0 2e 8b 3e
       -0.031300332 0.084586665 0.026087176 0.27184153
000090 65 cb 7b 3e 47 38 3e 3e ba ba 92 3d 54 27 9e bc
       0.24589308 0.18576156 0.071645215 -0.019305862
0000a0 0a 56 ba 3e 96 a2 98 3e 41 83 88 bc f1 aa cf 3e
       0.36393768 0.29811543 -0.01666415 0.40560105
0000b0 3f 22 02 be af 3e 25 3e 5d 21 22 3e b1 74 8b 3d
       -0.12708376 0.16137193 0.1583304 0.068093665
0000c0 62 3d a9 be 9a e8 9a 3e a6 b7 14 bd 7f 08 bd be
       -0.33054644 0.30255586 -0.036307953 -0.36920545
0000d0 d2 cf 51 be 98 a7 d3 be 59 16 a8 bd 21 da b3 3d
       -0.20489433 -0.413388 -0.082073875 0.08781839
0000e0 40 28 8d be f6 03 a7 be 90 c6 c0 be 92 b8 8b 3e
       -0.2756977 -0.3262021 -0.3765149 0.27289253
0000f0 2a 1c cc 3d c1 d4 4e be 7b db 5b bd 91 eb a2 bd
       0.09966309 -0.20198347 -0.05367611 -0.07955087
000100 62 8c dc bd 78 d1 00 3e 84 6e 90 bd 87 ab 01 be
       -0.107689634 0.12579906 -0.07052329 -0.12663089
000110 5c 20 1a be 21 2d 81 bd 2a 53 83 3e 80 6e ab 3c
       -0.15051407 -0.06307436 0.25649387 0.020926714
000120 cd e2 2e be 93 c8 85 bc f9 32 0b 3e 1a b5 9b be
       -0.17078705 -0.016330993 0.13593663 -0.30411607
000130 c5 97 32 3e 91 ce 4d 3d 58 a6 6a 3d b7 be 1b be
       0.17440708 0.050245825 0.057287544 -0.1520947
000140 01 0e 84 3e 6c 87 bc bd 39 a0 85 3e 66 a7 9e be
       0.25791934 -0.09205517 0.26098803 -0.3098709
000150 c8 78 65 bd c1 0f 83 3e f2 45 2f be 73 11 f3 bd
       -0.05602339 0.25597957 -0.17116526 -0.118685625
000160 08 5f af 3e 43 98 88 3d c0 06 aa bd e4 8a 76 be
       0.3425219 0.066696666 -0.08302069 -0.2407642
000170 e0 25 9e 3e 94 b9 bd 3e dd 18 6e bd c4 37 3e 3e
       0.3088827 0.37055647 -0.05812918 0.1857596
000180 14 8f ba be 73 82 9e 3e 13 b9 04 3e 74 8c 91 bd
       -0.36437285 0.309589 0.12961225 -0.071068674
000190 e2 cd ee 3d 34 36 99 3e a2 b6 80 3e 50 d5 48 bd
       0.11660363 0.29924166 0.25139338 -0.049031556
0001a0 05 83 cb 3d cd 3f 20 be ef e5 06 be 57 5f 8a 3e
       0.09937099 -0.15649338 -0.1317365 0.27025864
0001b0 76 4a 8b 3e 77 7a 90 be 77 7b 19 be 73 3f 95 3e
       0.27205247 -0.28218433 -0.14988504 0.2914997
0001c0 53 13 83 3e 14 12 12 3e 8c 90 ae 3e 3b 10 a8 be
       0.2560068 0.14264709 0.34094656 -0.32824883
0001d0 51 a6 ca bc 8f 36 53 bd e8 0d 91 3e 56 13 cb bd
       -0.024737509 -0.051565703 0.28330922 -0.099157974
0001e0 23 3b 24 3d e5 a3 06 bc 8c ed 23 be cb 78 04 3e
       0.04009546 -0.008217786 -0.16008586 0.12936704
0001f0 39 56 55 be 90 2b 44 be 69 34 a0 3e 19 a4 94 be
       -0.20833673 -0.19157243 0.31289986 -0.29031447

fc2.weight f4 [128, 128]
000000 33 25 6d 3e 2f c0 23 bc b1 1f f9 bd 78 1a 0a bc
       0.23158722 -0.009994551 -0.12164248 -0.008429162
000010 12 5f 87 bc 1e fd 4f bd 4b ad 61 be 0d 04 9f bb
       -0.016524825 -0.0507785 -0.22038762 -0.004852778
000020 02 c6 78 bc 20 1b 3e 3d ce d2 1e 3d 28 71 76 3e
       -0.0151839275 0.046412587 0.038775258 0.24066603
000030 f4 e6 f6 bc 54 8a 6e 3e d5 b5 98 3d ad 7c 9e 3d
       -0.030139424 0.23294955 0.07456557 0.07738624
000040 db e6 ac 3c c1 b3 54 3e c0 06 4f 3d 0d 48 e9 bd
       0.021106174 0.20771696 0.050543547 -0.11390696
000050 06 e5 03 3d bf ed 6b 3c 63 c3 30 3d 82 9d 2d bd
       0.032200836 0.014399945 0.043155085 -0.04238654
000060 71 66 1f be eb df 02 be a5 e1 b2 3d b2 c0 c1 3d
       -0.15566422 -0.1278073 0.087344445 0.09460582
000070 51 97 f6 3d 6c 6b dd bd eb 38 53 3d 61 b7 e0 bb
       0.1204058 -0.10811505 0.051567953 -0.006857798
000080 5e 84 7e bd 0f bf dd bc 58 5e 33 be 77 03 31 bd
       -0.062137954 -0.027068643 -0.17516458 -0.043216195
000090 a7 a9 a0 3d 10 f5 6e 3c 2b 6a 75 3e 55 0b c9 bb
       0.078448586 0.014584795 0.23966281 -0.006135384
0000a0 cc bf 16 3e e0 ab 78 3d 38 b1 8a 3d 2a 22 64 3e
       0.14721602 0.060710788 0.06772083 0.22278658
0000b0 c0 b4 97 3c 4e 79 f7 3c 55 3f ca bc fa 1b 47 bd
       0.018518806 0.03020921 -0.024688402 -0.048610665
0000c0 22 df ba 3b 9e e0 20 be fc 3b 13 bd c5 9d 1c bd
       0.005702869 -0.15710685 -0.035945877 -0.0382364
0000d0 ce b8 a5 3d 02 82 1a 3e 75 6e b4 3d 98 51 61 bc
       0.08091889 0.15088657 0.088101305 -0.013752364
0000e0 55 df c6 3a bd 4e 3c bd 13 fb 38 3d be 09 dd 3b
       0.0015172759 -0.04597353 0.045161318 0.006745546
0000f0 32 55 3c 3e c2 21 7d be 59 e2 40 3c ff eb e8 3d
       0.18391874 -0.24719909 0.0117727155 0.11373138
000100 e4 fb 8d be 5d ec bf 3b cc 24 c5 3c 6a f0 6e 3e
       -0.2773124 0.005857034 0.024065398 0.23333898
000110 96 a9 b0 bd 30 b8 0f 3e ea 92 88 3c 8e c6 22 be
       -0.08626096 0.14035106 0.016671617 -0.15896055
000120 74 63 8a 3c 11 d7 99 3d 4f df a4 bd 4a 73 93 3e
       0.016893126 0.07511724 -0.08050405 0.28798896
000130 b9 5e 6d 3d 9d 5c 38 3e af 3f 9e 3e 83 0c 45 bd
       0.057951663 0.18004079 0.30907962 -0.048107635
000140 82 9f cc 3d ca ca 81 be 8b ef e1 3c 27 ba 0e 3d
       0.09991361 -0.25350028 0.027580043 0.034845497
000150 89 dd cc 3e 62 88 bb b8 e1 7e 07 3d 9f be 0b 3e
       0.40012768 -8.942258e-05 0.033079986 0.13646935
000160 02 03 26 3e bf 78 97 3e dc b2 1e 3d 5d 5f 2a 3c
       0.16212085 0.2958431 0.038744792 0.010398713
000170 1e 43 90 3d 55 30 88 3b ba aa 49 bd 54 5c 09 3d
       0.070440516 0.0041561523 -0.049235083 0.033535317
000180 77 62 46 3d a2 4d a4 bc ba c3 9a bd 37 df 4e bd
       0.048433747 -0.02005655 -0.07556863 -0.050505843
000190 82 65 cb bd ed 82 e2 bc 1f 3b 80 3e ae 0a 36 3c
       -0.099314705 -0.02765032 0.25045106 0.011110945
0001a0 da 84 98 bd f1 c0 56 bd 85 73 30 3e 01 68 76 3c
       -0.074472144 -0.052430097 0.17231567 0.015039445
0001b0 0a ed 80 3e ba 4c 3e 3e ba 5d f6 3d ce 93 c0 ba
       0.25180846 0.18583956 0.12029596 -0.0014692487
0001c0 70 97 b3 bd 56 97 46 3d b9 de 75 3e 14 89 0c be
       -0.08769119 0.04848417 0.24010743 -0.13724166
0001d0 d1 fe e2 bc 2e b0 8a 3d c4 c7 9d 3d e7 fd 9f bc
       -0.027709397 0.06771885 0.07704118 -0.01953025
0001e0 cc 9e 92 bd 37 25 1b bd 00 27 65 3e f2 3e 95 3d
       -0.07159194 -0.037877288 0.22378159 0.072873965
0001f0 11 20 82 be d0 af b0 bd d0 e2 15 3e 0b 6c 4e 3d
       -0.2541509 -0.086272836 0.14637303 0.050396007
000200 e8 f9 2f be 86 cf 94 3d d3 4c e6 bc d9 1f 9b 3d
       -0.17185175 0.072661445 -0.028112805 0.07574434
000210 fc e2 f3 bd 31 04 ac bd f5 38 26 be d5 f1 48 bc
       -0.11908528 -0.08399237 -0.16232665 -0.0122646885
000220 9e e2 41 bd 9f f4 b4 3d 9a 1a b0 3d 12 5c 13 be
       -0.04733526 0.0883572 0.08598824 -0.14390591
000230 e1 a8 b0 bd 18 1f 5b 3b ec a7 8a be f2 10 6f 3d
       -0.08625961 0.0033435281 -0.2708124 0.05836577
000240 b9 f5 98 3d db af 6b be eb 58 9b bc 7b e1 ac 3b
       0.07468743 -0.23016302 -0.018963298 0.005275903
000250 a4 c8 69 3d 5c a6 91 bc d0 69 45 be 6d fd 17 bd
       0.05707611 -0.017779522 -0.19278646 -0.03710692
000260 b7 97 44 3d 7d cd aa be 20 39 66 3d 2d ec 76 3c
       0.04799625 -0.333599 0.056206822 0.015070957
000270 60 b1 de bd 93 78 7f 3e 9d 2a 89 bc 02 23 cd bc
       -0.10873675 0.24948339 -0.016743952 -0.025041107
000280 b9 e7 c4 bd 4a fd 08 3d 7b 63 8d be 52 8f 0e 3e
       -0.0961451 0.03344468 -0.2761496 0.1392186
000290 5b b5 c6 3c fd d7 54 3e cc 00 c2 be 86 96 5d 3c
       0.024256399 0.20785518 -0.37891233 0.013524657
0002a0 37 84 21 3e 22 b6 af 3d de 65 b3 b8 3e 0c 03 be
       0.15773092 0.08579661 -8.5543594e-05 -0.12797639
0002b0 4d 9d b3 3d 02 a8 e8 3d 84 52 5f 3c 58 8d 0b be
       0.08770237 0.1136017 0.013630513 -0.13628137
0002c0 19 44 49 bd 39 6c 1e be 76 8c a6 be 66 1b a9 3d
       -0.04913721 -0.15470971 -0.32529038 0.08257179
0002d0 31 e9 a8 3d 36 f4 14 bc d0 03 79 3d cc 7b 42 3e
       0.08247603 -0.009091428 0.06079465 0.18992537
0002e0 b0 c9 84 bd f2 c3 b3 3d 08 96 aa 3d 16 f0 c2 3d
       -0.06483781 0.08777608 0.083293974 0.09518449
0002f0 9b 91 46 bd d9 bf 94 3e e9 7f 05 3e df 46 ad 3d
       -0.048478704 0.29052618 0.13037075 0.08460783
000300 23 fd 83 3e 52 79 81 3d b3 bc a5 bd 8c ab c6 3d
       0.25779065 0.06321968 -0.08092632 0.09700689
000310 76 24 48 3d 40 61 03 3e 97 84 f6 3d 49 7c 11 be
       0.048862897 0.12830067 0.12037008 -0.14207567
000320 98 e2 af 3d 99 1a ac 3e be fa c2 3d a5 66 9b be
       0.08588141 0.33614042 0.095204815 -0.3035175
000330 c4 40 fb 3d d6 50 e3 bd 74 44 9d be 7f 94 c5 bb
       0.122682124 -0.110994026 -0.30716288 -0.006029665
000340 95 28 6c bd 15 df 6b 3e a5 6a 48 3c bf 3c 02 bb
       -0.05765589 0.23034318 0.012232457 -0.0019872633
000350 7d 62 d6 be 40 f1 be 3d 27 d7 5a bd 5c be 59 be
       -0.41872016 0.093233585 -0.05342784 -0.21264023
000360 a8 79 89 bd 27 2d dd bd 8b 94 87 3b d3 32 94 bd
       -0.06712657 -0.10799628 0.0041375807 -0.072362565
000370 75 6e 00 3e cc 73 1b bd fe 8a 96 bd 81 ee 8b 3d
       0.12542136 -0.03795223 -0.073507294 0.068326004
000380 13 b8 da bb 39 89 ce 3d a5 6e 6f 3d 84 8c b6 bb
       -0.0066747754 0.10084767 0.05845513 -0.00557095
000390 1b a9 15 be 71 4d b5 3c ba 89 d2 bd ae 0d 8e 3e
       -0.1461529 0.022131654 -0.102801755 0.27744812
0003a0 9c 7a c9 3d c6 d5 bf bc 44 ce 49 3d 47 a7 f0 3d
       0.09837839 -0.023417365 0.049268976 0.117506556
0003b0 99 69 6e 3d d1 6b 37 bf 06 60 a5 bc d0 4e 30 be
       0.058206175 -0.7164889 -0.02018739 -0.17217565
0003c0 e7 23 a3 bc 93 93 4a be 40 0c d4 bc 67 ca 24 be
       -0.01991458 -0.19782858 -0.025884748 -0.16092835
0003d0 96 e2 bd ba 2a c6 31 bd 1d 3d 4b 3d 56 b9 a5 3d
       -0.0014487084 -0.043401875 0.04961883 0.08091991
0003e0 9e c7 27 3c 52 62 4d bc af d2 da be cb 32 6c bd
       0.010240464 -0.012535648 -0.42738864 -0.057665627
0003f0 85 5e 24 bd 38 6c a0 3d c8 96 87 bb bd af 65 bd
       -0.040129203 0.07833141 -0.0041378476 -0.0560758

fc2.bias f4 [128]
000000 c1 a3 ec 3d fa 11 ad bc f5 e9 a3 bd 95 70 f0 3b
       0.11554671 -0.021126736 -0.08003608 0.0073376396
000010 af d3 bf 3c 96 60 b0 3c ba 02 41 bd a6 71 9e bd
       0.023416368 0.02153043 -0.04712174 -0.077365205
000020 42 45 0e 3b fa 47 4d 3d 1d 49 97 bd ab 72 ae b8
       0.0021708761 0.05011747 -0.07386992 -8.318325e-05
000030 44 cf 3d 3d 48 f4 46 3c 28 c5 30 bd 9f 9e 96 3c
       0.046340242 0.012143202 -0.043156773 0.018386183
000040 18 ca 99 3c fb 7f c6 3d ae f8 f4 3b 95 85 71 3d
       0.018773124 0.09692379 0.007475934 0.058965284
000050 74 e8 7b 3d d6 a4 b0 3d 81 2c d4 3d 35 0d 16 3c
       0.06150098 0.0862519 0.10360051 0.009158422
000060 e8 43 81 3b 7b b0 9c 3d b7 b4 5e 3c f1 6b 38 3d
       0.0039448626 0.076508485 0.01359289 0.045024816
000070 fc c9 80 3d 45 ca 9d bd de e4 37 bc 4f 56 b0 bd
       0.062885255 -0.077045955 -0.011224 -0.08610212
000080 51 97 f9 3c 3e ff 5e 3c 34 d8 5a bd 90 1d 16 3c
       0.030467661 0.013610659 -0.053428844 0.009162322
000090 9d 73 5f 3c 8e 5a 92 3d af e4 1c 3d 34 ad ac 3d
       0.013638404 0.07146178 0.038304027 0.084314734
0000a0 57 a3 81 3d 11 cb a7 bd 3f a9 f2 3b 7e 15 3b bd
       0.06329983 -0.08193029 0.0074054296 -0.045674793
0000b0 b0 26 cd 3c d1 83 8a 3d ec ba 8b 3d 3c 49 2b 3d
       0.025042862 0.06763423 0.06822762 0.04181789
0000c0 6f 71 9e 3b e0 4a a3 3c 4a b5 7f 3d 97 60 a0 3b
       0.0048352997 0.019933164 0.06242875 0.004894327
0000d0 2d 3d 00 bd ee be 1b bc 0c 9d 4d bd c1 4e f0 bc
       -0.03130834 -0.00950597 -0.0501986 -0.029334428
0000e0 c5 d9 15 3d 12 7b 35 3d f0 ef 3e bd 2e 9a dd 3d
       0.036584634 0.044306822 -0.04661554 0.10820423
0000f0 bf 05 da 3b 9b 63 b2 bd 24 cc 91 bd 75 52 54 3d
       0.006653517 -0.087104045 -0.07119015 0.05183645
000100 82 08 96 bd c8 3c 0d 3d dc aa 7a 3c 7d 21 79 bd
       -0.073258415 0.034481794 0.015299525 -0.060822953
000110 1d 64 89 3d 86 06 c6 bc 8d eb 95 bd 00 d5 27 3c
       0.06708548 -0.024173032 -0.07320318 0.010243654
000120 03 73 9b bd ec 2f 9c bd 9e 18 12 3d dc eb 12 3d
       -0.07590296 -0.07626328 0.035668008 0.035869464
000130 bf 07 6e bd 42 4b f6 3c 2d 3d 5e 3d 8e c3 d4 3c
       -0.058112856 0.030065183 0.05425756 0.025972154
000140 b0 62 b0 3d 31 44 48 bd f8 5d 70 bd fc 8a 2d 3d
       0.08612573 -0.048893157 -0.058683366 0.042368874
000150 23 5d c7 bc 7a 9c f7 bc a7 27 01 3d c3 7c 85 bd
       -0.024336403 -0.030225981 0.031531956 -0.06517937
000160 6e 98 b0 3a 1b 00 b9 bc 24 4b eb 3c b1 8d d3 3d
       0.0013473162 -0.022583058 0.028722353 0.1032976
000170 26 25 82 bd 25 4f bd bd 7a 08 a7 3d d8 92 fe 3d
       -0.06354742 -0.09243611 0.08155914 0.12430352
000180 d9 6b a9 bc d7 d3 ce 39 b0 c2 d0 3d 44 8c 23 bd
       -0.020681309 0.00039449215 0.10193384 -0.03992869
000190 b9 ff 20 3d 93 3e cf 3d ae aa 58 bc 9f ed b5 bd
       0.039306376 0.10119357 -0.013224287 -0.08883213
0001a0 1f d7 93 bb 02 18 52 3d 51 de af bd b7 64 7e 3d
       -0.0045117284 0.051292427 -0.08587325 0.062107768
0001b0 8f 46 ad bc 15 ea 79 bd 41 83 03 3d de bc 1e bd
       -0.021151809 -0.061014254 0.032107595 -0.038754337
0001c0 1f b1 54 3d a3 93 e9 3c 69 8f 06 bd 06 0d ca bb
       0.05192673 0.028512781 -0.03285161 -0.0061661033
0001d0 ba 99 63 3d 30 1c 46 3c 43 1a 3f 3d 07 9d f3 bc
       0.055566527 0.012091681 0.046655905 -0.029737962
0001e0 87 8a c6 bc 06 03 1d 3d f4 db dd bc 54 5c a9 3d
       -0.024235977 0.03833296 -0.02708242 0.08269563
0001f0 ef 2f 50 bd 45 34 4c bd 64 4c 3c 3c 6c 41 8e 3d
       -0.050826963 -0.049854536 0.011492822 0.06946072

fc3.weight f4 [128, 128]
000000 8c 90 8d 3c ce d3 c6 3c 2d 09 06 3c 20 91 44 3b
       0.01728084 0.024270918 0.008180899 0.0029993728
000010 29 ac 9b bd 75 6b bb bd 27 3e 47 3c 8f f5 48 3c
       -0.07601196 -0.09151355 0.012160814 0.012265577
000020 ea ed 1b 3e f5 84 ac 3c 5e 39 b7 bc e6 58 94 3d
       0.15227476 0.021059493 -0.022366222 0.072435185
000030 f8 40 cb bd a1 b1 11 3d 53 76 49 bd b4 5c 91 3c
       -0.09924501 0.03556979 -0.04918511 0.0177444
000040 47 a6 dc 3d 01 af ea bd cc 0f 94 bd 88 f9 69 bc
       0.107739024 -0.114591606 -0.072295755 -0.014280684
000050 ac 27 1c bd 21 1c 88 bd ac 9a 17 ba 4d 92 21 bd
       -0.03812377 -0.0664599 -0.0005783241 -0.039446164
000060 a8 ce 1c be 35 54 2b 3d 4e 28 28 3d 17 10 5d 3e
       -0.15313208 0.041828353 0.041054063 0.21588169
000070 8a 63 bb 3a 7c 9b 5f 3d 28 de 35 3d e8 ac c2 3d
       0.0014296633 0.05459164 0.044401318 0.095056355
000080 4e b6 cd 3d 5a 79 9f 3d e3 53 b8 bb b7 91 03 bc
       0.100445375 0.07786818 -0.0056252345 -0.008030347
000090 23 8f 87 bd 03 03 4b 3e ba b7 c4 bc 43 bd 26 3d
       -0.06619098 0.19825368 -0.024013389 0.040707838
0000a0 61 19 bc 3c a3 ae 54 bd 1e f1 0e 3e 10 68 c8 bc
       0.02296132 -0.05192436 0.13959166 -0.024463683
0000b0 64 b3 c2 3d 7c 03 d2 bd 86 b0 09 bd 34 d0 15 3e
       0.09506872 -0.10254571 -0.03361561 0.14630204
0000c0 7d f7 42 3d 0f f8 07 be 5c 37 f8 3d 26 00 bd bd
       0.047599304 -0.1327822 0.12119934 -0.09228544
0000d0 29 41 28 3d 38 af 8a bd d9 68 42 bc eb a1 0a be
       0.041077767 -0.067717016 -0.011865818 -0.1353833
0000e0 ac 8f be bc b1 ce ba 3b db 52 d4 3c c1 af ea bd
       -0.023261867 0.005700909 0.025918415 -0.11459304
0000f0 af aa 16 3c 9a de ae bd c4 19 91 3d 0f 76 ae bc
       0.009195968 -0.08538552 0.070849925 -0.02129653
000100 a8 af 4b 3d 4d 3c cf bc eb 25 f8 3c 13 c0 cb 3d
       0.049728066 -0.025297308 0.030291518 0.099487446
000110 d6 fb 41 bd 28 0c a5 bd 47 1c 7e bc 2a 16 a9 bd
       -0.04735931 -0.08058959 -0.0155096715 -0.082561806
000120 91 fd 19 bd df 9f 0f be f7 7c e2 be ec c2 89 3d
       -0.037595335 -0.1402583 -0.44235966 0.067266315
000130 b4 33 ad 3c eb 90 5e 3d eb f7 e0 3c bb 69 58 be
       0.021142818 0.054337423 0.027461966 -0.21134083
000140 7c 64 90 3d 9c fc a3 bd 82 7c b3 bc 8c 8f 2d bd
       0.07050416 -0.08007166 -0.021909956 -0.042373225
000150 4d 2e 59 3c a6 2e 92 3d 55 54 e3 3d 55 90 b1 3d
       0.013255668 0.07137804 0.111000694 0.08670107
000160 a5 fc b2 3d 98 b3 fa 3b 8a 2c d4 3d 8c f6 ea 3d
       0.08739594 0.007650804 0.10360058 0.11472806
000170 8a 30 1f bd d9 20 7a 3d ce f6 0c bd c9 3b 94 3d
       -0.03886465 0.061066482 -0.03441506 0.072379656
000180 a4 29 fb bc c4 0b 14 3d cc 7b 1e 3d 91 3b 21 3c
       -0.030659504 0.036144033 0.03869228 0.009840862
000190 e6 b5 46 3d ea 69 80 3d 30 4a 27 bd 9f c6 2e bd
       0.048513316 0.062702015 -0.040842235 -0.04266989
0001a0 d6 9e 19 bd ef 8e c2 3a 5b 56 91 3d ce 90 56 3d
       -0.037504993 0.0014843623 0.07096549 0.05238419
0001b0 dd 1a 73 3d a8 c6 29 3d e8 0d e4 3d eb c4 0d 3d
       0.05935179 0.04144922 0.11135465 0.034611624
0001c0 00 1a d8 3c af c8 a6 3c 7f a0 21 bc 05 a0 7c 3b
       0.026379585 0.020359365 -0.009864925 0.0038547528
0001d0 1a 05 71 bd 15 bf 44 bc c6 b7 97 3d 8c 69 a2 3d
       -0.058842756 -0.012008448 0.07408099 0.07930288
0001e0 5e 26 e1 3d 26 66 a9 3d fe 71 fe 3d 24 ee 15 bd
       0.10993646 0.082714364 0.12424086 -0.03660406
0001f0 2a a5 0f bd 52 14 8f 3c 41 d9 45 3d d6 1e aa 3d
       -0.035069622 0.017465744 0.048302893 0.08306663
000200 c2 db 95 3d 0a 40 4e 3e d3 8a 2c bc 52 ca 99 3d
       0.07317306 0.20141616 -0.010531145 0.07509293
000210 4a 00 73 3d 71 84 12 3e be eb 2e be ce 9a 8b 3d
       0.059326448 0.14308335 -0.17082116 0.06816636
000220 5f 88 e0 bd 74 7b 0e be 64 b8 3d 3d 24 a5 85 bd
       -0.10963511 -0.13914281 0.046318427 -0.06525639
000230 d7 af 6e 3d cd 6e 16 bb 65 89 ba 3c 9a b9 2e 3d
       0.058273163 -0.0022954226 0.022770593 0.042657472
000240 45 1d 55 bd f1 9f e4 3d 21 b7 4a bd a1 53 37 bd
       -0.052029867 0.11163319 -0.04949105 -0.04475749
000250 29 9c e5 bc c0 76 4c 3d 45 ba 61 be e9 e9 88 3d
       -0.028028565 0.049917936 -0.22043712 0.0668524
000260 72 f7 e5 3d 78 94 9b bd 03 0d 45 bb bc b8 39 be
       0.11228837 -0.075966775 -0.003006757 -0.18136877
000270 85 4c 07 bd 29 49 e4 3c 96 3a 10 3d fc 84 8b bd
       -0.03303196 0.027866917 0.035212122 -0.06812474
000280 ac 8c be bb 36 2c aa bc 49 d4 85 bd 8e 50 c2 3d
       -0.0058151092 -0.020773035 -0.06534631 0.09488021
000290 3d df 08 bd d3 9b 2e be 73 a9 c1 3d af 3d 55 3d
       -0.03341602 -0.1705163 0.09456148 0.05206078
0002a0 36 de 4b 3c 0e 20 bb 3c 2b 08 81 3c f4 6f 44 3d
       0.012443116 0.022842433 0.015750965 0.04795833
0002b0 dd 6f 05 be f6 53 2a bd 88 aa cd 3c 3f dc 65 3d
       -0.13030954 -0.041583978 0.02510573 0.056118246
0002c0 20 31 1a be 6e 93 38 3d b3 68 82 be 75 47 c1 3d
       -0.15057802 0.045062475 -0.25470504 0.094374575
0002d0 c9 64 88 bd 95 05 a6 bc a8 41 66 bd 2a 9a 6e 3d
       -0.06659848 -0.020266334 -0.05621496 0.05825249
0002e0 24 2e 4f 3d ef 8b 4b 3b 84 72 d1 bc a7 57 c7 3d
       0.050581113 0.0031058749 -0.0255673 0.09733515
0002f0 15 6a 20 3c db bb 0b 3d 80 ee d9 bc 48 b4 1c 3b
       0.009790917 0.0341147 -0.026602983 0.0023911167
000300 49 33 09 bd 81 66 b0 bd a6 5c 20 bd 4c 43 f7 bc
       -0.033496175 -0.08613301 -0.039150856 -0.030183457
000310 c3 75 02 bd 20 c1 9f 3d f3 99 98 3c 1e da 07 bd
       -0.031850588 0.078005075 0.018628096 -0.033166997
000320 98 e7 b4 bd b1 5d dc bc ce d1 7c 3e a1 5f 71 bc
       -0.088332355 -0.026900144 0.24689409 -0.014732272
000330 0d 5e ac bd cf a9 95 3c 3a f3 e3 3b c6 f4 d5 3d
       -0.08416376 0.018269448 0.006956485 0.104470775
000340 e7 44 a0 bd 1d 49 88 3d c5 d4 c9 bd 9d 70 3a 3d
       -0.07825642 0.0665457 -0.09855036 0.045517553
000350 5b ae 31 3b 9e 6e a3 bd 49 58 9e 3d 6f a9 d3 bc
       0.002711198 -0.07980083 0.07731683 -0.025837628
000360 0b cb c0 bd 95 56 a8 3d b0 0a 48 3d ff f8 82 bd
       -0.094137274 0.08219639 0.048838317 -0.063951485
000370 57 69 04 3d b2 26 98 bc 0d 30 4b 3d 1a b8 fd b9
       0.032327022 -0.018573139 0.04960637 -0.00048393087
000380 ad 95 b0 3e 00 23 cc bc aa fd 87 bd f5 ed 07 3e
       0.34489194 -0.024919033 -0.066401795 0.13274367
000390 c7 ea 67 bd ea a2 7b 3d ac 18 a5 3d d4 66 19 bc
       -0.056620385 0.061434664 0.080613464 -0.009362895
0003a0 27 ea 0a bc 27 cc 07 be 9f 44 67 3d a4 17 a3 3d
       -0.008478678 -0.13261472 0.056461927 0.079634935
0003b0 23 bd ad bd 31 d2 a8 bc 3b 50 fd 3d 98 0d 2a bc
       -0.084833406 -0.02060804 0.12368818 -0.010379218
0003c0 c4 68 5b 3e 0d c6 7b bb 2f 92 8b bd 2e 1b e9 3d
       0.21426684 -0.0038417608 -0.06814992 0.11382137
0003d0 e4 ca f6 3d a3 ac 87 3d 9d 4e 5b 3d 53 8f 1c bd
       0.12050417 0.06624725 0.05354177 -0.038222622
0003e0 8a a3 f5 bd d0 d9 44 3d 71 f0 8e 3d 7d df 85 bd
       -0.11994083 0.048059285 0.06979454 -0.06536768
0003f0 67 e6 59 bd ff 15 55 3d e3 8b d0 bc 28 6f be 3c
       -0.053198244 0.05202293 -0.025457328 0.023246363

fc3.bias f4 [128]
000000 64 26 ff 3d 64 94 c9 3d 92 01 e7 bd 91 78 80 3d
       0.12458494 0.098427564 -0.112795964 0.06272996
000010 28 c2 01 3e fe c5 db 3d 6b bc f4 bc 75 35 c6 3d
       0.12671721 0.107311234 -0.029875001 0.09678165
000020 96 7c 1a 3e 49 83 96 3d 57 56 1b 3c 65 9a db 3d
       0.15086588 0.073492594 0.009481034 0.10722808
000030 58 c8 a5 bd 87 0c 9d bd f6 72 db bd e3 09 19 3d
       -0.08094853 -0.07668405 -0.107152864 0.037362944
000040 ed c3 3c bc 41 9f 05 3e 24 c9 fa bd d4 bd ba 3c
       -0.011521322 0.13049032 -0.12245396 0.022795595
000050 d4 5e 2e bd fd 8c 8a bd 0b 83 8a 3d d0 bc 35 bd
       -0.042570904 -0.06765173 0.06763276 -0.04436952
000060 d5 85 22 3e b2 20 5d bd a9 eb df 3c 93 69 dc bc
       0.15871365 -0.05398626 0.027334051 -0.02690581
000070 e8 c3 95 bd 21 c9 eb 3c 5f 65 21 bd 37 85 18 3c
       -0.07312757 0.02878243 -0.039403316 0.009309105
000080 72 36 e1 3d 33 50 a1 3d 59 5f 1d 3d ce 4b 8b bd
       0.10996713 0.07876625 0.03842101 -0.06801568
000090 1a 31 2b bc 68 3f fb bc 94 e3 b5 bd 1d a6 ce 3d
       -0.010448718 -0.030669883 -0.08881298 0.10090277
0000a0 57 0e 08 3d 65 bc e3 3d a4 cc 07 3d e3 02 a0 bd
       0.0332168 0.11119918 0.033154145 -0.078130506
0000b0 a0 bb de 3d 66 90 3b 3d 45 4c e4 3d c2 02 a9 3d
       0.108756304 0.045792006 0.1114736 0.08252479
0000c0 09 09 e2 bd f2 44 d6 3d 1e c5 19 3e f9 af 81 3c
       -0.110368796 0.10462369 0.150166 0.01583098
0000d0 e1 24 59 bd bf fa ae bd 00 05 71 bb fc 8c 0d 3e
       -0.053013686 -0.0854392 -0.0036776662 0.13823313
0000e0 a8 d5 b1 bb e1 d8 68 bd b6 43 4d 3c 13 89 a6 bd
       -0.005427081 -0.056847457 0.012528351 -0.081316136
0000f0 61 64 14 3d f7 98 8d 3d 6a 66 f7 3c 8a aa 08 bd
       0.03622854 0.06913941 0.030200202 -0.033365764
000100 b4 ed fe 3b 6e 81 e8 3d 9f 75 91 3d 49 e4 a1 3d
       0.0077798013 0.11352812 0.071025126 0.0790487
000110 b1 97 94 3d a9 ab e8 bb 7b 0f f2 3d ab 86 79 3c
       0.07255495 -0.0071005416 0.11819359 0.015229861
000120 d3 4b 81 bd 2e c0 9b 3c d0 d4 c3 bd 12 85 f6 3d
       -0.063132904 0.019012537 -0.09562075 0.120371
000130 1d c0 3e bb e6 44 2c bc 5d 57 9f bd 45 14 87 bd
       -0.0029106208 -0.010514474 -0.07780335 -0.06595663
000140 c0 94 fc 3d 4f 94 b5 3c 48 48 b8 bd e0 5b eb 3d
       0.12333059 0.022165446 -0.089981616 0.11492133
000150 44 cb c7 bd 22 01 ab 3b 44 2c 80 ba 62 8a 12 3c
       -0.09755567 0.005218641 -0.0009778817 0.008944126
000160 d6 9a c8 3c 13 09 bf bd 13 62 83 bc e9 18 4e bd
       0.024487894 -0.09327903 -0.016037976 -0.050316725
000170 0c b0 3a 3a 3f b0 21 3c 04 33 fe bb 42 e9 9f 3d
       0.000712157 0.0098686805 -0.0077575464 0.07808162
000180 99 74 b5 bc ad 31 04 3b 2c 5b 3b bd 85 d4 9b 3d
       -0.022150325 0.002017121 -0.045741245 0.07608894
000190 c1 78 ae bd 06 15 00 3e 29 8d 90 3d 56 ab 18 bd
       -0.08519126 0.1250802 0.07058174 -0.037272774
0001a0 2e 92 f0 38 d2 89 75 ba 41 cd ae 3d c9 2a 3c 3e
       0.0001147132 -0.0009366545 0.08535243 0.18375696
0001b0 0c 99 07 3e 92 33 46 3d 0c eb 7a bc fc 69 8e ba
       0.13241976 0.048389025 -0.015314829 -0.0010865326
0001c0 2c a8 d4 bd 3a 1a 83 bd 3d e1 23 bd bb 94 6e 3c
       -0.10383639 -0.06401487 -0.040009726 0.014561827
0001d0 7a c4 04 3b 31 d2 40 bd 3b f7 96 3d 5c 22 b2 3d
       0.002025871 -0.047075454 0.07371374 0.0869796
0001e0 bd 0c a9 bd 44 57 d6 3d 78 72 2b bd dd f0 b9 bd
       -0.08254383 0.10465863 -0.041857213 -0.09079144
0001f0 59 63 bb 3c 4d e8 fe 3c f1 ef 16 bd 3e dd 8d 3d
       0.022874521 0.031116629 -0.03684992 0.06926964

fc4.weight f4 [2, 128]
000000 07 36 1d be cc a7 1c 3e 5a c4 4a 3c ae dd e1 3d
       -0.15352641 0.15298384 0.012375915 0.1102861
000010 70 a9 13 be b3 7c 4e be 88 cd 53 3d 7f 56 91 bd
       -0.14420104 -0.20164756 0.05170968 -0.07096576
000020 00 77 1d be a8 47 2c be d9 78 44 3e b7 95 93 be
       -0.15377426 -0.1682421 0.19186725 -0.2882516
000030 73 d6 10 bc 40 e6 73 3d 3b 91 92 bc f1 3a 0e be
       -0.008840191 0.059545755 -0.017891517 -0.13889672
000040 c3 fd ec 3d f2 43 a0 bd d4 95 09 bd 08 17 bb 3c
       0.11571839 -0.078254595 -0.033590153 0.02283813
000050 38 dc cc bd 14 1f 1e be a3 0c 1f be 70 d7 01 3e
       -0.10002941 -0.15441543 -0.15532164 0.12679839
000060 fa 8a 6c be a5 00 f3 bb 17 1d 66 be 6e 95 0a 3e
       -0.2309989 -0.0074158483 -0.22472034 0.13533565
000070 e2 f0 af bd db ca 16 be b7 c7 c3 3d e8 d9 22 3e
       -0.085908666 -0.1472582 0.09559577 0.15903437
000080 17 70 c9 bd c5 00 e9 ba b9 6b 91 bd 85 1d 44 bb
       -0.098358326 -0.0017776719 -0.071006246 -0.0029924822
000090 25 9f 55 3e 80 07 f3 3d e2 e9 47 bd 2e fd ba be
       0.2086149 0.11866665 -0.048807032 -0.36521286
0000a0 dc 1d 86 be b9 76 af be 46 3c 51 bd 5a 00 6e 3b
       -0.26194656 -0.34270266 -0.05108287 0.0036316128
0000b0 7b 5d b8 3d 8e 16 f1 bd 4b ee 30 be 4a 12 f6 bd
       0.09002205 -0.1177188 -0.17278402 -0.12015207
0000c0 82 b3 4f be e7 0d df 3d 0a ed 01 bd 95 10 a6 3d
       -0.2028332 0.108913235 -0.0317202 0.081086315
0000d0 52 d1 0f 3e 09 d9 81 3d 2b bc 01 3b f4 ac 61 bd
       0.14044693 0.06340224 0.0019795995 -0.05509658
0000e0 7e 6a 65 be fc bd 0a be 82 81 12 3d 4a ca 7a bd
       -0.22403905 -0.13549036 0.03576804 -0.061228074
0000f0 2c ba b3 3d 2d a6 d3 bc cc 8d aa bd 81 d1 4e bb
       0.08775744 -0.025836075 -0.08327827 -0.003155798
000100 fa a7 0a 3e ac ad 6f be ef 93 49 be 26 3e 52 be
       0.1354064 -0.23406094 -0.19685338 -0.2053152
000110 46 ab 86 be 69 31 16 3e 86 cb 37 be cb 8a 84 be
       -0.26302546 0.14667286 -0.17948732 -0.2588714
000120 34 11 8a 3d 05 98 cb 3d dd 1d 9e bd 75 41 1b be
       0.067415625 0.09941105 -0.0772054 -0.15161689
000130 ed ac 3f be 90 89 72 be ca 6b 44 3c 11 ba 23 be
       -0.1871831 -0.23685288 0.01198859 -0.15988947
000140 b5 d8 83 be 31 f8 0d 3e 1d aa 39 39 78 7e de bd
       -0.25751272 0.13864209 0.00017706347 -0.10863966
000150 a8 5e b2 bd f4 04 23 3e f0 b1 86 be 2b 54 c9 bc
       -0.087094605 0.15919858 -0.2630763 -0.024576267
000160 36 a5 b1 3d 99 37 1c 3e 4b b9 28 be 2f 5a 95 3d
       0.086740896 0.15255584 -0.16476934 0.07292592
000170 db 69 81 be d3 bf f3 3d 61 42 93 3c 31 d2 50 be
       -0.25276074 0.11901822 0.017975988 -0.20392682
000180 b5 f1 ac bd e0 f7 15 be 6f 8f d3 3c 76 27 2f be
       -0.084445395 -0.14645338 0.02582523 -0.17104897
000190 81 e0 82 3d 5d d9 07 be 6b da 5e be 76 29 62 be
       0.06390477 -0.13266511 -0.21763007 -0.22086129
0001a0 3a 79 54 3e e0 cc cf 3d 2d f6 a7 be bd e6 99 be
       0.2074937 0.10146499 -0.32805005 -0.30058852
0001b0 9d 69 d8 bd a4 c3 04 bd 6f ba 27 bd 32 c3 86 be
       -0.10567019 -0.03241314 -0.04094928 -0.26320797
0001c0 4e bc d1 3d 60 98 62 be d6 37 ab bc 38 29 e2 bd
       0.102409944 -0.22128439 -0.020900648 -0.11043018
0001d0 97 e9 13 3e d3 7f 81 bd 2f e8 82 bd e3 a9 ab 3d
       0.14444576 -0.06323209 -0.06391942 0.08382013
0001e0 3f cd 21 be 62 1d d3 bb 03 a6 5b bb eb 6a 91 3d
       -0.15800951 -0.0064427117 -0.0033515699 0.07100471
0001f0 53 9a 4c be 5f 56 da 3d d7 63 19 be e8 a8 5f be
       -0.19980745 0.10661005 -0.14979492 -0.21841776
000200 52 d1 e4 bd 84 f5 b9 3c 1e 2e af bc 17 39 df 3c
       -0.11172737 0.022700079 -0.021384295 0.027248902
000210 64 32 85 bd 1c 51 c6 bd 06 91 85 bd 1f 96 05 be
       -0.06503752 -0.09683439 -0.06521802 -0.13045548
000220 1d 8c 8c be e7 e6 7f be df 4f fa 3d 34 e6 fb bd
       -0.27450648 -0.24990426 0.122222655 -0.12299767
000230 42 a4 e5 3d c5 f1 e2 3c c9 75 db 3e 76 1a 67 be
       0.1121297 0.027703175 0.428633 -0.22568688
000240 88 1a e4 bc c0 d8 80 be 13 39 a0 3d 64 28 02 be
       -0.027844682 -0.25165367 0.07823386 -0.1271072
000250 41 56 f8 3d 1e 6c b0 bc 4f 5c c3 bd 7f 6e 06 bd
       0.121258266 -0.02153593 -0.09539091 -0.03282022
000260 46 93 1c be 72 9e 92 bc 47 0b 0c be fa b0 6d 3d
       -0.15290555 -0.017897818 -0.13676177 0.058030106
000270 01 13 90 3d 67 2b 2e 3d 45 98 5d bd 36 16 e5 3d
       0.07034875 0.04252186 -0.054100294 0.11185877
000280 07 f6 3d be bd 29 51 be a4 2b 08 3f 49 0d 95 bb
       -0.18550883 -0.20426078 0.5319159 -0.004548703
000290 1a dd ec 3e 05 91 82 3d 7c 91 1c 3d 31 87 00 be
       0.46262437 0.063753165 0.038224682 -0.12551571
0002a0 7c 3f 44 bd de 95 70 bd 07 32 2a 3d 9e 1b d1 bb
       -0.047912106 -0.058736674 0.041551616 -0.006381466
0002b0 87 ff 92 bd a6 f8 db bd 07 d5 27 3e 5c 31 c8 bd
       -0.07177644 -0.10740785 0.16389857 -0.097750396
0002c0 eb 4b 12 3e 31 02 65 3e c4 0e 5d be a3 b8 6b be
       0.14286773 0.22364117 -0.21587664 -0.23019652
0002d0 ab c7 00 3e fb 51 f4 3b 6e 18 8b bd 5c 90 9f be
       0.12576167 0.007456062 -0.06791769 -0.31164825
0002e0 69 1a c1 bd d8 53 92 3d cb 1c bb bd cd 82 97 3d
       -0.094288655 0.07144898 -0.09136351 0.07397995
0002f0 d2 17 af 3d 61 d2 ac be f4 37 ea bd 66 9b 11 3c
       0.08549465 -0.33754256 -0.114364535 0.0088871475
000300 cb 61 3e 3e 1b cc ae bd ed 21 1b be 7f d4 dd bc
       0.18591993 -0.08535024 -0.1514966 -0.027078865
000310 68 c4 b4 bd 78 00 60 3e 7a a8 63 3e d1 35 8d 3e
       -0.08826524 0.21875179 0.22232237 0.2758012
000320 b3 a3 b4 3c 54 08 4e 3e 0b dd 80 bd 75 53 6b be
       0.022050714 0.20120364 -0.062921606 -0.22981055
000330 1e 69 9c 3e 2e cb 91 bd 4b 63 61 3d 7f 08 34 be
       0.30548948 -0.071188316 0.055026334 -0.17581366
000340 a2 ca fb bc d5 c2 d7 3d 1a 9e 4c 3d 7b 95 58 be
       -0.030736271 0.10535208 0.049955465 -0.21150772
000350 e8 cf 72 3e a3 b3 94 3d 82 38 09 3c 3c 5b 11 bd
       0.23712122 0.072608255 0.008375289 -0.0354874
000360 3b 35 2e 3e b9 9d 63 3d cc 95 55 3e f4 4c 26 bd
       0.17012493 0.055570338 0.20857924 -0.040600732
000370 c9 e9 e9 bd 72 3b 68 3d e9 d2 87 3e 97 38 5c 3d
       -0.11421544 0.056697316 0.265281 0.053764906
000380 6e 47 e9 3d 52 38 1c be 21 9c fe bc 37 10 22 be
       0.11390577 -0.1525586 -0.031080307 -0.15826498
000390 f2 e2 94 bc 7b 20 61 bd 5d ae 6b 3e d4 33 a4 3e
       -0.018174622 -0.054962616 0.23015733 0.32070792
0003a0 02 b6 de be 8a 85 81 3e dc 0b b1 ba 36 d0 10 bd
       -0.43498236 0.25297195 -0.0013507563 -0.035354815
0003b0 26 43 21 3f cd 85 78 be 9d da 0a bd 2d 39 f3 bc
       0.62993085 -0.24269791 -0.033899892 -0.02969035
0003c0 0c 4b 4b 3e ab b7 46 3e f8 d5 37 bd 2e 75 0c 3e
       0.19852847 0.19406001 -0.04488179 0.13716576
0003d0 70 9e 80 3d 02 a7 29 3d 07 db 87 bd be e8 38 3c
       0.062802196 0.041419037 -0.06633573 0.011285959
0003e0 56 f1 af 3e 4c 67 9a be 32 35 9c 3c 74 35 50 3d
       0.34363812 -0.30156934 0.019068334 0.050832227
0003f0 3d db 50 bd 3b 57 35 3e f7 44 5a bd ac 89 19 bd
       -0.050990332 0.17709057 -0.053288426 -0.03748481

fc4.bias f4 [2]
000000 68 a9 8c bd f1 46 6a 3c
       -0.06868249 0.01429914

fc1.weight f4 [128, 7]
000000 4e 91 87 3e d4 ed fc be 36 48 4e 3e 52 ed 47 3e
       0.26478046 -0.49400198 0.20144734 0.19524124
000010 ae 24 86 be cf b3 38 3e 0e 4a 6d 3e d8 45 82 3d
       -0.2619986 0.18037342 0.23172781 0.06360978
000020 7d f8 b0 3e a6 5c 39 3c bc 7e 5f 3e d7 80 87 3d
       0.34564582 0.011313593 0.21825689 0.06616371
000030 23 04 57 3d d2 f5 0f 3e f8 8b b6 be 8a de dd 3d
       0.05249418 0.14058617 -0.35653663 0.108334616
000040 f5 60 1f be 14 69 b6 be ee 36 95 be 0e 18 0e bd
       -0.1556433 -0.35627043 -0.2914347 -0.03469091
000050 59 36 e8 3c 57 de 86 be 3f e0 10 3e d2 42 2e 3d
       0.028346227 -0.26341507 0.14148043 0.042544194
000060 d2 12 ad 3d fc d7 75 3d 4e 2d a6 3d ee df d6 3e
       0.08450855 0.060020432 0.0811411 0.4196772
000070 cf 30 20 bd 51 dc c3 3e 7d ea fe be 19 3b 94 bd
       -0.039109048 0.38254026 -0.49788275 -0.072378345
000080 71 f8 dd be 87 aa 43 3e aa 23 cc 3e 42 c5 a2 3c
       -0.43353608 0.1910802 0.3987096 0.01986945
000090 48 7a 0f 3e 5d db 79 3e 86 ff 91 be f3 67 9e 3d
       0.1401149 0.24400087 -0.2851526 0.077346705
0000a0 13 53 ad be 1e 7d cb bd 19 c4 dd 3d 45 78 8b be
       -0.33852443 -0.099359736 0.10828418 -0.27240196
0000b0 24 34 ee 3d e0 f7 81 be 95 d7 27 be ca 2e c6 be
       0.11631039 -0.25384426 -0.16390832 -0.38707572
0000c0 89 7d 82 be 98 07 48 bd 77 d4 18 3e 55 af bc be
       -0.254864 -0.048835367 0.14924799 -0.36852518
0000d0 15 d9 c2 be 6f d7 9c 3c 4c 52 0e 3e 00 41 ab 3e
       -0.38056245 0.019145695 0.13898581 0.3344803
0000e0 52 b9 23 be 36 03 12 3e 86 54 cc 3e e6 1d ca 3d
       -0.15988663 0.14259037 0.39908236 0.09868984
0000f0 cf 23 9b be f4 b8 cb 3e 0e 76 e3 3d 9a 79 30 be
       -0.30300757 0.39789546 0.111065015 -0.17233887
000100 0a 05 99 be 48 3f 91 3e 8f 4a b1 bd 60 63 69 be
       -0.29886657 0.28368592 -0.08656799 -0.22791815
000110 33 bb 49 be 6b 18 fa 3d 7f 29 12 3e b8 54 b2 3e
       -0.19700317 0.122116886 0.14273642 0.3483026
000120 2d bc c6 bc 44 83 aa 3e 95 ed d4 3e 7c 5c 8d bd
       -0.024259651 0.33303273 0.4158751 -0.069024056
000130 87 88 06 bf 10 9a 23 3e f9 58 89 be 7e 47 0f 3d
       -0.52552074 0.15976739 -0.26825693 0.03498029
000140 fd 9d 44 be e9 16 24 bf 99 32 f2 3e 4a 36 62 be
       -0.19200893 -0.6409746 0.47304228 -0.22091022
000150 9c b8 21 3e cf 95 bc be bc ec b5 3e 17 d3 36 be
       0.15793079 -0.36833045 0.35532176 -0.17853962
000160 11 3f b5 3e 26 1a 8d be 09 c7 42 bd 79 09 96 3e
       0.35399678 -0.27559012 -0.047553096 0.29304102
000170 ee a1 b2 3e 1e 28 98 be 91 f9 a2 be 9e e5 99 3e
       0.34889168 -0.29718107 -0.3183103 0.30057997
000180 49 4b f3 3d 6f 52 96 be 66 d1 42 3e e0 26 ae be
       0.11879594 -0.29359767 0.19025192 -0.34014034
000190 e7 cd 32 be e4 58 11 be b6 ac 31 bc f7 a1 c1 3e
       -0.17461358 -0.14194065 -0.0108444 0.37818882
0001a0 b6 6a 2c be 38 3b 0f 3e 1d 18 90 be 06 7d 9c 3e
       -0.16837582 0.13987434 -0.28143397 0.30564135
0001b0 c8 eb 77 3e cc 03 c2 bd 23 45 e8 3e 5c 69 a5 bd
       0.24211037 -0.094733804 0.45365247 -0.08076736
0001c0 77 08 da 3c ed e3 4c 3e dc ab dd bd de 7d de be
       0.026615364 0.20008822 -0.10823795 -0.43455404
0001d0 69 03 af 3b 13 f6 88 be 60 71 63 3e bc 5a 07 3f
       0.0053409827 -0.2675024 0.22211218 0.52872825
0001e0 e0 35 92 3e e8 d7 a1 3e 72 e2 52 be ac 3c c9 be
       0.28556728 0.31610036 -0.20594195 -0.393041
0001f0 63 27 02 3e 60 4f 34 be 98 f8 00 3e 7e eb 32 bd
       0.12710337 -0.17608404 0.12594831 -0.043681614
000200 77 84 57 bf cb 81 a3 3d 43 e6 1d bc ff d3 c6 be
       -0.841865 0.079837404 -0.009637418 -0.38833615
000210 88 a1 00 3e 6f 6b 94 3c 52 81 4d be d7 96 a4 be
       0.1256162 0.018117635 -0.20068863 -0.32146332
000220 ee 64 2c 3e dd 42 a5 be 4f 3b 22 be e0 68 58 be
       0.16835377 -0.32277575 -0.15842937 -0.21133757
000230 aa 2d 43 be 0c dc 3a be d0 d3 3e 3e 1e e2 d1 bd
       -0.19060388 -0.18248004 0.18635488 -0.102482066
000240 16 16 8c be b0 d5 76 3e ac 11 a7 be cb 7e 38 be
       -0.273606 0.24104953 -0.3263067 -0.18017118
000250 6f b2 aa bd b3 9c 9d be bf f7 e9 bc 55 04 8e be
       -0.08334815 -0.30783615 -0.028560517 -0.2773768
000260 17 b7 de 3d 4e 8c 06 be 61 e7 48 3e 99 7d cb 3e
       0.10874765 -0.1313946 0.19619514 0.3974426
000270 fc 12 7c be 83 e5 26 be 51 38 5a be 9c 13 04 be
       -0.24616617 -0.1629849 -0.21310546 -0.12898105
000280 bc fb a7 3e 9b e1 fa be 96 02 21 be 29 90 9d bd
       0.32809246 -0.49000248 -0.15723643 -0.07693512
000290 b7 be 49 3e 68 48 a4 3e a8 5d 8c 3e 98 b1 07 bf
       0.19701658 0.32086492 0.27415204 -0.5300536
0002a0 32 a1 13 3e 46 4f b0 be 7d b5 ec be 47 8d 09 3e
       0.1441696 -0.3443548 -0.46232215 0.134328
0002b0 10 81 b0 3d 78 46 cb 3c a0 df dd 3d f9 31 39 3b
       0.08618367 0.024813876 0.10833669 0.0028258546
0002c0 62 0b c2 3d 20 e4 78 bf ed dd 84 be d8 40 ba bc
       0.09474827 -0.9722309 -0.25950566 -0.022735998
0002d0 07 8f d6 be ba 67 2d 3e c5 19 3a 3d 65 07 14 3e
       -0.41905996 0.169341 0.045434732 0.14455946
0002e0 43 60 8a be 9e 7b b9 3d c4 67 66 3e 4a 07 66 3e
       -0.27026567 0.09056781 0.22500521 0.22463718
0002f0 4f ee a6 be 3c 40 98 bc ab 84 43 be b6 a1 c2 3e
       -0.3260369 -0.018585317 -0.19093578 0.38014
000300 1f ee a7 be bd 7d 9d be 35 a7 ea bb 18 d3 2d be
       -0.3279886 -0.30759993 -0.007161046 -0.16975057
000310 44 42 87 3e 0f 09 29 3e 51 7b e9 bd 76 ee 95 bd
       0.26417744 0.16507362 -0.11400474 -0.073208734
000320 0f 0c 7f be 35 19 d1 3d c3 a9 cd 3d 03 58 a4 be
       -0.24906944 0.10209886 0.10042145 -0.32098398
000330 93 f6 65 be 0d 34 98 3e 97 84 d4 bd c5 0f fe 3e
       -0.22457342 0.29727212 -0.10376852 0.49621406
000340 84 57 18 be 17 0f 33 be 73 af b8 be a3 49 ae 3e
       -0.14877135 -0.17486225 -0.36071357 0.34040555
000350 5d 1c c1 be 06 a1 18 bd 9e 71 73 3d ff 07 d5 3d
       -0.37716952 -0.03726294 0.059434526 0.10401916
000360 63 7f 54 be 57 df b1 bd 54 26 31 be df d8 52 bd
       -0.20751719 -0.08685177 -0.17299777 -0.051476356
000370 49 6c 18 be 77 61 ba be 65 96 3a 3e 0e 2e 52 be
       -0.14885058 -0.36402485 0.18221433 -0.20525381
000380 6c 82 31 be 5e 8e b7 3e 6f 93 3e bf aa dd 8c 3e
       -0.17334908 0.35850805 -0.74443716 0.27512866
000390 05 46 7b 3e 8c 16 0b 3e a5 11 01 3e f1 77 58 3e
       0.24538429 0.1358282 0.12604387 0.21139504
0003a0 da b1 ee 3c 40 1e f6 be 7c d3 83 bd d5 15 a5 3e
       0.02913754 -0.48069954 -0.06436822 0.3224322
0003b0 5d cb a2 bc 10 87 ba 3e 2a f2 2c bd 95 72 2e bd
       -0.019872362 0.3643117 -0.042223133 -0.042589743
0003c0 f0 a2 90 be dc 71 b6 bd df 6d 91 be 72 4e 15 be
       -0.2824931 -0.08908436 -0.28404137 -0.14580706
0003d0 e7 49 fe 3e 89 9e 48 3e 2a a0 ec 3e 35 35 8b bd
       0.49665758 0.19591726 0.46215945 -0.06797258
0003e0 5d 4f 72 3e ac 61 4e 3e 6c 52 8d 3e 82 ea 7d 3e
       0.23663087 0.20154446 0.27601945 0.24796489
0003f0 54 cc a9 be ec ee a2 3e 85 dc b4 3e 7a 61 8b 3e
       -0.33163702 0.31822908 0.35324493 0.27222806

fc1.bias f4 [128]
000000 4f 19 9b be 06 6d 03 3d 1f e0 a5 3e 3b ff 8f bc
       -0.30292746 0.032086395 0.32397553 -0.017577758
000010 1f f4 9d 3e 33 07 ae be ca b0 90 3e f6 9e f2 3d
       0.30850312 -0.33989868 0.2825988 0.11846726
000020 10 10 21 bd 5b e1 7f bd 0c 42 27 3e 3b bb ff 3d
       -0.03932196 -0.062470775 0.16333789 0.12486883
000030 50 c3 c4 be 1d 65 94 bd 6f bd 80 be f8 d3 71 be
       -0.38430262 -0.07245848 -0.25144526 -0.23616016
000040 10 1f 1f be 59 f6 81 be df ae 8c 3e 72 c9 5a 3e
       -0.15539193 -0.2538326 0.27477166 0.21365908
000050 2c 60 5e be 27 3f 9a bd ef 62 63 3e 20 90 1c 3d
       -0.21716374 -0.075315766 0.22205709 0.038223386
000060 08 f4 e1 bd 4a aa 73 3e 86 8b 86 3e 45 14 b9 3e
       -0.110328734 0.23795429 0.26278323 0.36148277
000070 19 74 0a 3d 42 14 89 3e f7 4f 61 be 0e 75 b1 be
       0.033802126 0.26773268 -0.2200316 -0.34659618
000080 6c c3 06 bd 90 28 ab 3d a6 05 d9 3c 3a ad 8a 3e
       -0.032901213 0.08357346 0.026491951 0.27085286
000090 a4 52 7b 3e ea 20 3f 3e e1 2c 93 3d cc fa 9f bc
       0.24543244 0.186649 0.07186294 -0.019528769
0000a0 22 85 ba 3e de 0a 98 3e 57 1b 89 bc 09 2f cf 3e
       0.36429697 0.2969579 -0.01673667 0.40465572
0000b0 3f 22 02 be 6d d4 24 3e d8 a8 20 3e 2b 22 89 3d
       -0.12708376 0.16096659 0.15689409 0.0669597
0000c0 62 3d a9 be 9a e8 9a 3e 48 be 17 bd 7f 08 bd be
       -0.33054644 0.30255586 -0.0370467 -0.36920545
0000d0 d2 cf 51 be c4 cb d3 be 69 fc a5 bd 27 2a b4 3d
       -0.20489433 -0.41366398 -0.08104784 0.087971024
0000e0 40 28 8d be f6 03 a7 be 90 c6 c0 be f9 cf 8b 3e
       -0.2756977 -0.3262021 -0.3765149 0.27307108
0000f0 b7 dd ca 3d 22 69 4f be 59 34 56 bd ef ed a3 bd
       0.0990557 -0.20254949 -0.052296016 -0.080043666
000100 c8 7d dc bd 4d ab 01 3e 84 6e 90 bd ef d2 00 be
       -0.10766178 0.12663002 -0.07052329 -0.12580465
000110 5c 20 1a be 40 33 81 bd 79 ef 82 3e 8f fc a5 3c
       -0.15051407 -0.06308603 0.25573328 0.02026203
000120 cd e2 2e be cf 37 76 bc 78 84 0a 3e 8c 6f 9b be
       -0.17078705 -0.015027954 0.13527095 -0.3035854
000130 d7 ce 32 3e 5c 1a 53 3d 58 a6 6a 3d b7 be 1b be
       0.17461716 0.05153881 0.057287544 -0.1520947
000140 05 2d 83 3e 34 cd ba bd cb 6b 85 3e 66 a7 9e be
       0.25620285 -0.09121171 0.26058802 -0.3098709
000150 ae aa 68 bd 8d 43 83 3e f2 45 2f be a1 bb f0 bd
       -0.056803398 0.25637475 -0.17116526 -0.117545374
000160 7d 45 af 3e db 4e 89 3d c3 2e a9 bd e4 8a 76 be
       0.34232703 0.067044936 -0.08260872 -0.2407642
000170 ee 9f 9d 3e 56 ea bc 3e dd 18 6e bd ba f6 3c 3e
       0.3078608 0.36897534 -0.05812918 0.18453494
000180 14 8f ba be 85 34 9e 3e d5 1b 05 3e 0e 38 91 bd
       -0.36437285 0.30899444 0.12998898 -0.0709077
000190 7e 4d ee 3d f8 e9 98 3e c1 6a 81 3e 15 c2 44 bd
       0.11635874 0.29866004 0.2527676 -0.048036654
0001a0 34 d2 c8 3d cd 3f 20 be 74 86 05 be d0 60 8b 3e
       0.09805718 -0.15649338 -0.13039571 0.272223
0001b0 77 d8 8a 3e e4 59 8f be f7 b3 19 be 49 c6 94 3e
       0.27118275 -0.2799827 -0.15010057 0.2905753
0001c0 63 dc 82 3e 82 5a 13 3e 25 98 ae 3e 2b 19 a8 be
       0.25558767 0.14389995 0.34100452 -0.32831702
0001d0 51 a6 ca bc 8f 36 53 bd ce 68 90 3e 50 79 ca bd
       -0.024737509 -0.051565703 0.2820496 -0.0988642
0001e0 0e ce 22 3d e5 a3 06 bc af ad 22 be f3 0c 03 3e
       0.03974729 -0.008217786 -0.15886568 0.12797908
0001f0 9c 6a 55 be 1a f4 44 be e3 68 a0 3e 19 a4 94 be
       -0.2084145 -0.19233742 0.31330022 -0.29031447
