flappybird_dqn_ep210.pth (torch, 561729 bytes, 32 tensors)

fc1.weight f4 [128, 7]
00000000: 0e3a 8c3e c385 f4be caaa 2b3e a03b 643e
00000010: b8f8 7abe 8dd4 353e a734 643e 8672 873d
00000020: f5b3 943e a4b2 dc3c 4be3 833e 0f0e 953d
00000030: f138 a73d f073 243e f88b b6be 8ade dd3d
00000040: f560 1fbe 1469 b6be ee36 95be 0e18 0ebd
00000050: 5936 e83c 9e85 7cbe b840 653e 6159 3f3d
00000060: bdaa c63d d767 f4bc 22ec 8f3d 173c d13e
00000070: dddd 16bd e172 bf3e 8fe7 06bf e590 a8bd
00000080: 7c41 bcbe 49fa 3e3e 521a c23e 42c5 a23c
00000090: 487a 0f3e 5ddb 793e 86ff 91be f367 9e3d
000000a0: 1353 adbe 1e7d cbbd 6a78 063e 5f59 85be
000000b0: 3d31 023e 1ea0 6bbe bb1b 0cbe c3e7 babe
000000c0: 9c78 69be 8652 debc 7a70 df3d be15 a5be
000000d0: 2477 b0be 5e3c 093e 7e76 3c3e 0717 b43e
000000e0: 1b2d 0bbe 3a2c 2a3e 9322 c93e d75f 0c3e
000000f0: 10a6 9dbe d0fe ce3e bf0e 0e3e 9a79 30be
00000100: 0a05 99be 483f 913e 8f4a b1bd 6063 69be
00000110: 33bb 49be 6b18 fa3d 229b 183e 7b0b c03e
00000120: d466 8cbb 869d ba3e 3079 c83e 3423 85bd
00000130: d22c f4be ce1b 053e a6e1 72be 8633 ee3c
00000140: 9825 49be e298 25bf fb37 e83e 746e 78be
00000150: 9cb8 213e cf95 bcbe bcec b53e 17d3 36be
00000160: 113f b53e 261a 8dbe 09c7 42bd 2163 9f3e
00000170: 9ff9 a93e 5e2a 5fbe 016d 90be fc70 9c3e
00000180: 49dd 1b3e db01 6dbe 6ec4 4c3e 9714 93be
00000190: 76fb 1abe 0ca0 1abe bf63 293d 8485 c43e
000001a0: f47b 23be c640 013e 2362 5abe df79 763e
000001b0: 7fe2 6d3e 5705 fbbd 4d5b d03e 8010 d9bd
000001c0: 7708 da3c ede3 4c3e dcab ddbd de7d debe
000001d0: 6903 af3b 13f6 88be 6071 633e 1b38 f93e
000001e0: 0fd3 653e 484b 973e 78ef 46be 9c71 b7be
000001f0: eeda f63d 6e60 4ebe 770e f83d b051 67bd
00000200: 8af9 58bf 1d58 543d 117d e9bb 9be7 c5be
00000210: f0b4 f83d 0610 923b fc20 81be e7ed 0bbe
00000220: 70c0 003e 55bb 98be 2e75 3ebe 0bd3 2fbe
00000230: aa2d 43be 0cdc 3abe d0d3 3e3e 1ee2 d1bd
00000240: 1616 8cbe b0d5 763e ac11 a7be cb7e 38be
00000250: 6fb2 aabd b39c 9dbe bff7 e9bc 5504 8ebe
00000260: 17b7 de3d 4e8c 06be d4f9 443e c791 bc3e
00000270: 1072 8fbe 202c 23be 5242 22be 5b2d f5bd
00000280: 6f7d 973e 0084 efbe 4325 3bbe bdfd 62bd
00000290: 8cd6 523e 7fbe b33e 4885 9a3e dfad dabe
000002a0: 534b e23d d57b bbbe 395d b6be 38e0 af3d
000002b0: 87e9 f93d e849 c5bb ea18 723d f10c 503d
000002c0: 2eea 7f3d b90d 6bbf 7d0b 66be 559b 07bc
000002d0: 6837 bcbe 3dfa 313e 714a a43d bfdf d73d
000002e0: 920f 85be 4c93 133e 819c 8b3e f4b6 853e
000002f0: 2ec9 57be f454 f8bc fa51 83be c23a cc3e
00000300: 08e0 8dbe d0c1 b0be d489 663c 8d7c 4fbe
00000310: 5da8 853e 370e 193e 442b 11be b1cb f9bc
00000320: d084 6abe 7cb7 df3d 5899 fb3d 1052 98be
00000330: a423 44be 0ae4 a33e 4fd1 0abe 4a6f e63e
00000340: f842 17be 762f 0fbe 73af b8be a349 ae3e
00000350: 5d1c c1be 06a1 18bd 9e71 733d ff07 d53d
00000360: 637f 54be 57df b1bd 5426 31be dfd8 52bd
00000370: 496c 18be 7761 babe 6596 3a3e 0e2e 52be
00000380: 13ca 43be 0bc8 953e 01b1 3dbf 00bf 703e
00000390: bb4a 923e 3f64 113e c29b 033e baff 5e3e
000003a0: c0bd 1dbd 5905 dbbe c371 8abd 75ea c03e
000003b0: 9a20 b43c 9eb3 bd3e d26f 67bd 982c 07bd
000003c0: 122f 37be e1dc 0ebe 9373 98be 07b3 14be
000003d0: 9e11 e93e 14f9 5d3e 9825 d93e 8035 23bd
000003e0: 2f41 8b3e 746c 783e 5a08 a03e d454 9a3e
000003f0: 7321 9ebe 36e9 9d3e a856 c13e b5a9 a03e
0.27388042 -0.47758302 0.1676437 0.2228837 -0.24508941 0.17756863 0.2228571 0.066136405
0.29043546 0.026940651 0.25759348 0.07278072 0.081651576 0.16059852 -0.35653663 0.108334616
-0.1556433 -0.35627043 -0.2914347 -0.03469091 0.028346227 -0.24660346 0.2238797 0.046716098
0.097005345 -0.029834671 0.07027461 0.40866157 -0.03683268 0.37392333 -0.5269708 -0.082307614
-0.3676871 0.18650164 0.37910706 0.01986945 0.1401149 0.24400087 -0.2851526 0.077346705
-0.33852443 -0.099359736 0.13131872 -0.26044747 0.12714095 -0.23010299 -0.13682453 -0.36504945
-0.22799915 -0.02713896 0.10910125 -0.3224315 -0.34465897 0.13401935 0.18404576 0.35173818
-0.13591425 0.16618434 0.3928419 0.13708435 -0.30790758 0.40428782 0.13872813 -0.17233887
-0.29886657 0.28368592 -0.08656799 -0.22791815 -0.19700317 0.122116886 0.14902928 0.3750876
-0.004284719 0.36448306 0.3915496 -0.06500855 -0.47690445 0.12998888 -0.2371889 0.029077303
-0.19643247 -0.64686406 0.4535521 -0.24260885 0.15793079 -0.36833045 0.35532176 -0.17853962
0.35399678 -0.27559012 -0.047553096 0.31130317 0.33198258 -0.21793506 -0.28208163 0.3055495
0.15221132 -0.23145239 0.19996807 -0.28726646 -0.15134987 -0.15100116 0.04135489 0.38383114
-0.15965253 0.12622365 -0.21326499 0.24069928 0.23230933 -0.12256878 0.40694657 -0.1059885
0.026615364 0.20008822 -0.10823795 -0.43455404 0.0053409827 -0.2675024 0.22211218 0.48675618
0.22443794 0.29549623 -0.19427288 -0.35828865 0.12053476 -0.20153973 0.12112134 -0.056474388
-0.84755766 0.051841844 -0.007125505 -0.38653263 0.12143886 0.0044574765 -0.25220478 -0.13664971
0.12573409 -0.29830423 -0.18599388 -0.1717035 -0.19060388 -0.18248004 0.18635488 -0.102482066
-0.273606 0.24104953 -0.3263067 -0.18017118 -0.08334815 -0.30783615 -0.028560517 -0.2773768
0.10874765 -0.1313946 0.19235927 0.3682997 -0.2801671 -0.15934801 -0.15845612 -0.119715415
0.29587886 -0.46780396 -0.18275933 -0.055417765 0.20589656 0.35106274 0.3017981 -0.42710778
0.11049523 -0.36617914 -0.35617998 0.08587688 0.12202745 -0.006020773 0.05910579 0.050793592
0.06247919 -0.91817814 -0.2246532 -0.00827678 -0.36761022 0.17380615 0.08022011 0.10540723
-0.25988442 0.14411658 0.2726784 0.26116145 -0.21072838 -0.030313946 -0.2564848 0.3988858
-0.27709985 -0.34522867 0.014070947 -0.20262356 0.26105013 0.14946829 -0.14176661 -0.030492635
-0.22902226 0.10923669 0.122851074 -0.2975011 -0.19154221 0.32009917 -0.13556407 0.45006782
-0.1477164 -0.13982949 -0.36071357 0.34040555 -0.37716952 -0.03726294 0.059434526 0.10401916
-0.20751719 -0.08685177 -0.17299777 -0.051476356 -0.14885058 -0.36402485 0.18221433 -0.20525381
-0.19120054 0.29254183 -0.7409821 0.2351036 0.2857264 0.14198397 0.12852386 0.2177724
-0.038511038 -0.42777517 -0.067599796 0.37678877 0.021988202 0.370511 -0.056503125 -0.033001512
-0.1788905 -0.13951446 -0.29775676 -0.14521419 0.45521253 0.21677047 0.42411494 -0.039845943
0.2719817 0.24260122 0.31256372 0.30142844 -0.30884895 0.30841988 0.37761426 0.31379476

fc1.bias f4 [128]
00000000: 4033 93be bc39 343d ad3f d33d 1a82 1fbd
00000010: 36ba 9f3e 3307 aebe 4072 203d 4228 343e
00000020: 7180 debc 5be1 7fbd 585d 2a3e ec1b f43d
00000030: 50c3 c4be 1ec8 6fbd ba09 64be c422 84be
00000040: 101f 1fbe c567 8bbe 053b 813e 9b05 883d
00000050: 2c60 5ebe 273f 9abd d21c 683e 7185 6c3d
00000060: 4f44 e1bd b29d 753e 1e57 a03e e63f b63e
00000070: 6942 4a3d 8e05 863e f74f 61be 0e75 b1be
00000080: 569d cabc 1f9e e03d 2fc8 78bb 8d6b a03e
00000090: 58e8 843e 18bd 423e 9dfe 1f3d eeac b13a
000000a0: 2338 a53e e882 863e 6822 413b 2807 d13e
000000b0: 3f22 02be 59d6 583e acc1 4f3e a9db 443d
000000c0: 623d a9be 5f05 053e 8795 96bb 7f08 bdbe
000000d0: d2cf 51be e3e1 dcbe e54a 9bbd b5b6 be3d
000000e0: 4028 8dbe f603 a7be 90c6 c0be b44d a43e
000000f0: bc60 f53d 2f15 3ebe cddf abbd befc 9dbd
00000100: ada0 aebd 82e7 373e 846e 90bd dd28 08be
00000110: 5c20 1abe 8f29 74bd 8793 7a3e 9353 1c3c
00000120: cde2 2ebe 65d9 55bc c61c 133e 01bc adbe
00000130: b334 463e 7823 2b3d ba1f 583d b7be 1bbe
00000140: cdb4 903e be29 bebd a9a9 8d3e 66a7 9ebe
00000150: 4e97 7cbd cc3b 943e f245 2fbe 95fb 2abe
00000160: 0880 b93e d921 bb3d af56 a0bd e48a 76be
00000170: 6aaf a53e 2c1b bc3e dd18 6ebd a5ae 433e
00000180: 148f babe 97fc a33e 032f 013e f36b 1bbd
00000190: 3ecc ee3d 1340 b03e 9e4d 6c3e cca0 8fbd
000001a0: e3dd e93d 278c 1bbe 805d 16be f82a 933e
000001b0: ea26 883e 1d5f 98be 7beb 1bbe c1c6 923e
000001c0: c2b5 8b3e b315 3e3e 5835 b13e d2ae adbe
000001d0: ef5d 39bc 8f36 53bd b049 8e3e 7f4a c1bd
000001e0: bb95 a03d af80 6a3c 06bf 47be b23c d43d
000001f0: 77c7 42be 5a4c 46be 0d71 953e 19a4 94be
-0.28750038 0.044000372 0.103148796 -0.038942434 0.31196755 -0.33989868 0.039171457 0.17593482
-0.027160855 -0.062470775 0.1663717 0.11919388 -0.38430262 -0.058540456 -0.22269335 -0.25807774
-0.15539193 -0.27227607 0.2524034 0.06641694 -0.21716374 -0.075315766 0.22667244 0.057744447
-0.10999357 0.23985937 0.31316465 0.35595626 0.04937974 0.26176113 -0.2200316 -0.34659618
-0.024733227 0.10967659 -0.0037961116 0.31332055 0.25958514 0.19017446 0.039061178 0.0013555565
0.3226939 0.2627175 0.002946997 0.40825772 -0.12708376 0.21175517 0.20288724 0.048061047
-0.33054644 0.1299033 -0.0045954618 -0.36920545 -0.20489433 -0.43141088 -0.075826444 0.09312192
-0.2756977 -0.3262021 -0.3765149 0.32090533 0.11981341 -0.18562768 -0.08392296 -0.07714222
-0.0852674 0.17959407 -0.07052329 -0.13296838 -0.15051407 -0.059609946 0.2447034 0.00954141
-0.17078705 -0.013052319 0.14366445 -0.33932498 0.1935604 0.041781873 0.05276463 -0.1520947
0.2826294 -0.092853054 0.27668503 -0.3098709 -0.061667733 0.2895187 -0.17116526 -0.16697533
0.36230493 0.09137315 -0.078290336 -0.2407642 0.32360393 0.3673948 -0.05812918 0.1910959
-0.36437285 0.32028648 0.1261559 -0.037944745 0.1166005 0.34423885 0.23076484 -0.070130914
0.11419275 -0.15190183 -0.14684105 0.2874372 0.2659219 -0.29760066 -0.15226547 0.28667262
0.27287108 0.18562965 0.3461101 -0.3392244 -0.011313899 -0.051565703 0.27790594 -0.09438037
0.07841059 0.014312907 -0.19506463 0.10363139 -0.19021402 -0.19365063 0.29187813 -0.29031447

fc2.weight f4 [128, 128]
00000000: d058 4b3e e175 b3bc 88ad 0abb fb14 cfbb
00000010: acd1 7ebc 1efd 4fbd 007f 94bd b2b3 b4bc
00000020: f52b fdbb 201b 3e3d 4bee d5bc a9de 5c3e
00000030: f4e6 f6bc ea30 233e f346 1d3c ceca 943d
00000040: dbe6 ac3c 0b20 0a3e 5141 f53c 15e8 d3bc
00000050: 06e5 033d bfed 6b3c 9bb3 243d 2ddb ecbd
00000060: 1820 30be 5319 0fbe 43ba 7b3d e848 b03d
00000070: 6733 f63d e574 09be eb38 533d 61b7 e0bb
00000080: aeb7 cabd 18db 61bd 494e b8bd aa89 78bd
00000090: 13df 853d fdc0 633c abd5 4c3e 5790 d6bc
000000a0: 2242 143e d2c4 613d cffa 843d e4e4 473e
000000b0: c0b4 973c 8371 d23b 6e30 07bd e627 1abd
000000c0: 22df ba3b 80c6 83bd ab12 d6bd c59d 1cbd
000000d0: ceb8 a53d 1d2d 59bc c776 833d 1da2 afbc
000000e0: 55df c63a bd4e 3cbd 13fb 383d edd8 7bbb
000000f0: 5e16 1e3e a1d5 81be 7253 933c 76df d43d
00000100: 16c1 60be 8d9f 85bc cc24 c53c bf6a 103e
00000110: 96a9 b0bd 66f9 063e 4939 9abb 66b9 edbd
00000120: 7463 8a3c 0039 573d 1488 f6bd 907e 583e
00000130: 9a6c 4b3b e790 363e 2618 083e 830c 45bd
00000140: 82ee 4f3c 9ac2 81be 4bf5 fbbb 27ba 0e3d
00000150: b034 753e f423 b1bc e17e 073d 09ef df3d
00000160: 3ad5 1e3e c267 643e 9a01 1b3d 5d5f 2a3c
00000170: a105 663d 6790 c1bc baaa 49bd 78a7 823c
00000180: 7762 463d 3a9c 32bd cdd0 a4bc 1a2b 93bc
00000190: 472b e0bd 1f96 71bd c639 6c3e 6238 89bd
000001a0: 5965 ccbd f1c0 56bd 2440 2e3e 898e 03bd
000001b0: 2152 4e3e 8629 123e 732d 013e fcbd 07bc
000001c0: 275b a8bd 472d bd3c ca78 673e 4e2d 19be
000001d0: d1fe e2bc 2eb0 8a3d 7dc8 803d 9f5c 1cbd
000001e0: 9c17 cabd db39 f23c 31a0 473e 83e6 4c3d
000001f0: 7954 6abe 0d98 d6bd 34ec 103e 0b6c 4e3d
00000200: 309e ddbd c602 ac3d d144 343d 5012 863d
00000210: 7a12 d9bd 3104 acbd 63a3 b4bd 90ed c3bc
00000220: c4e4 99bc 9ff4 b43d 9952 b43d 2205 83bd
00000230: e1a8 b0bd c61a 8a3c c7bb 0fbe 8103 bb3d
00000240: b9f5 983d 8e8c 89bd 7589 0ab9 8e94 843d
00000250: a4c8 693d 5ca6 91bc e0c2 22be f814 4d3a
00000260: 0e6d 273a c99a 7dbe 4697 363d 585c 613d
00000270: 0e4b 46bd ac12 3f3e 9d2a 89bc 0223 cdbc
00000280: 0bee c9bd d8a9 073c 12a3 50be 8053 0f3e
00000290: acec 9d3c c09d 6e3e ee7d 4cbe b30a 6a39
000002a0: 0b21 573e d964 ef3d 3e63 553d 81e5 cbbd
000002b0: 4d9d b33d c77f d63d 4e1d 563b ef65 20be
000002c0: 1944 49bd 4a1e a7bd 6986 8dbe 661b a93d
000002d0: 31e9 a83d 183d 243c dac4 473d a1d4 453e
000002e0: b0c9 84bd f2c3 b33d 0896 aa3d bc5e ee3d
000002f0: 48dc ed3b 5c9a 823e 5a73 183e cbf6 ca3d
00000300: 2d98 393e 3c4f 5a3d b3bc a5bd 5339 2a3d
00000310: 7624 483d d25d 2a3e 078e 123e c87f 44be
00000320: 98e2 af3d 24d4 ef3e f672 803d 6bc7 04be
00000330: 7723 af3d db97 64bd bc30 edbd 7f94 c5bb
00000340: bf55 84bd c010 843e 6e4c 71bc bf3c 02bb
00000350: 40e2 7abe abeb 8f3d 27d7 5abd de6a 09be
00000360: cf8d 3bbc bb8d 55bd d9e6 2e3d d332 94bd
00000370: 58af 073e 4cf1 c5bb fe8a 96bd ab10 673d
00000380: 13b8 dabb 0221 b73d 7a11 813d 767b 96bd
00000390: 364b 86bd a47b dd3b dedf a2bc 2d6e 3f3e
000003a0: 3ccc 313e 40ec c5bc 8e42 943d d526 c03d
000003b0: a97c b93d 02ca a9be 94b6 493d 320f 12be
000003c0: 5bd3 183d 78f3 8cbd 9c58 053d 6f52 82bd
000003d0: a126 18bc 2ac6 31bd 370a 9d3d c8b7 9e3d
000003e0: 0891 81bc a748 b13d e78d cdbd 712b 54bd
000003f0: 7657 c4bd c675 5a3d ca48 5b3d bdaf 65bd
0.19858098 -0.021906795 -0.0021160562 -0.0063196397 -0.015552919 -0.0507785 -0.07250786 -0.022058342
-0.0077261874 0.046412587 -0.026114604 0.21569313 -0.030139424 0.15936628 0.009599435 0.072652444
0.021106174 0.13488786 0.029938372 -0.025867501 0.032200836 0.014399945 0.040210348 -0.11565242
-0.17199743 -0.13974504 0.06145693 0.08607656 0.12021523 -0.13423498 0.051567953 -0.006857798
-0.09898315 -0.055140585 -0.08999307 -0.06067816 0.06536689 0.013900992 0.20003383 -0.026191873
0.14478353 0.055119343 0.064931504 0.19520909 0.018518806 0.006422223 -0.03300517 -0.037635706
0.005702869 -0.06434345 -0.104527794 -0.0382364 0.08091889 -0.013255385 0.06419139 -0.021439606
0.0015172759 -0.04597353 0.045161318 -0.0038428858 0.1543822 -0.25358298 0.017984126 0.10394184
-0.21948656 -0.016311431 0.024065398 0.1410322 -0.08626096 0.13181075 -0.004706536 -0.116076276
0.016893126 0.052544594 -0.120376736 0.2114203 0.0031040073 0.17828713 0.13290462 -0.048107635
0.012691142 -0.25343782 -0.0076891533 0.034845497 0.2394588 -0.02162359 0.033079986 0.10934264
0.15511027 0.22305205 0.037843324 0.010398713 0.056157712 -0.023628427 -0.049235083 0.015948996
0.048433747 -0.04360602 -0.020119095 -0.017964888 -0.109457545 -0.058981057 0.23068914 -0.06700207
-0.09980268 -0.052430097 0.17016655 -0.032118354 0.20148517 0.14273652 0.12614994 -0.008285042
-0.08220511 0.023092879 0.22604671 -0.14958689 -0.027709397 0.06771885 0.0628824 -0.038174268
-0.098677844 0.029568603 0.19494702 0.05002452 -0.22883786 -0.1047822 0.14152604 0.050396007
-0.108211875 0.083989665 0.04401094 0.065464616 -0.10599227 -0.08399237 -0.08820226 -0.02391699
-0.018785842 0.0883572 0.08804817 -0.063974634 -0.08625961 0.01685847 -0.14036475 0.09131528
0.07468743 -0.06716262 -0.00013211912 0.06473647 0.05707611 -0.017779522 -0.15894651 0.0007823254
0.0006386795 -0.24766077 0.04457786 0.055019706 -0.04841142 0.18659467 -0.016743952 -0.025041107
-0.09859856 0.00828024 -0.20374706 0.13996696 0.019277893 0.23302364 -0.19969913 0.00022319965
0.21008699 0.11689157 0.052096598 -0.09955884 0.08770237 0.1047359 0.0032671276 -0.15663885
-0.04913721 -0.08160074 -0.2764161 0.08257179 0.08247603 0.0100243315 0.048771717 0.19319393
-0.06483781 0.08777608 0.083293974 0.11639163 0.0072589256 0.25508392 0.14887753 0.09910353
0.18124457 0.05329822 -0.08092632 0.041558575 0.048862897 0.16637352 0.14311992 -0.1918937
0.08588141 0.46841538 0.06271927 -0.12966697 0.08551686 -0.055808883 -0.11581561 -0.006029665
-0.06461667 0.2579403 -0.014727695 -0.0019872633 -0.2450037 0.07027372 -0.05342784 -0.13419673
-0.011447384 -0.052137118 0.042700622 -0.072362565 0.13250482 -0.0060407277 -0.073507294 0.05641238
-0.0066747754 0.089418426 0.063021615 -0.07347767 -0.06557314 0.006759124 -0.019882139 0.18694372
0.17363065 -0.024160504 0.07239257 0.093824066 0.0905698 -0.33161932 0.049246386 -0.14263609
0.03731094 -0.068823755 0.032555208 -0.06363379 -0.009286554 -0.043401875 0.07667964 0.07749897
-0.015816227 0.086564355 -0.10036831 -0.05179924 -0.09586994 0.053334974 0.053536214 -0.0560758

fc2.bias f4 [128]
00000000: 46f3 ba3d 58c9 a1bc f5e9 a3bd f097 463c
00000010: a797 123d 0a56 6a3c 12a2 98bc a671 9ebd
00000020: 2aff 5ab7 55dc fc3c 1d49 97bd ab72 aeb8
00000030: d102 873d 48f4 463c 28c5 30bd 2b59 533c
00000040: 3b84 6e3d 6fd9 873d aef8 f43b bb92 893d
00000050: 83af 743d d6a4 b03d b96f b03d 350d 163c
00000060: 18bc 943c 3252 d23d fc60 cc3c 7c32 31bc
00000070: fcc9 803d 45ca 9dbd dafd 263d 4f56 b0bd
00000080: 5197 f93c 1f1f 283c 34d8 5abd 40d9 d63b
00000090: 9d73 5f3c 3934 643d 6cc2 1c3d b003 b83d
000000a0: ed5e 623d 11cb a7bd 4533 913c 7e15 3bbd
000000b0: 9f3c 103c ab0a 453d ecba 8b3d 9be4 8b3d
000000c0: 98f4 ec3c 6a20 e23c d732 353d 7ce0 f9bb
000000d0: f2f7 7ebc eebe 1bbc 0c9d 4dbd 51d9 93bc
000000e0: c5d9 153d 127b 353d f0ef 3ebd 72c6 9b3d
000000f0: 9a02 c03a c22d a5bd 24cc 91bd 7552 543d
00000100: 8208 96bd 664f 013d dcaa 7a3c 33c5 9dbc
00000110: 3a16 8a3d 81ed 97bc 8deb 95bd 00d5 273c
00000120: 0373 9bbd 52ce 87bd fa6d 5d3d dceb 123d
00000130: bf07 6ebd e88e 653d 53c1 ae3d 8f52 323d
00000140: 62db 763d 3144 48bd f85d 70bd ce91 663d
00000150: 235d c7bc 7a9c f7bc 4d22 c73c c150 4abd
00000160: 8253 83bc 0c3b d1ba 3dd0 153d 0d33 a33d
00000170: 2625 82bd 5f4e 82bd 6072 873d 2f45 d93d
00000180: 8706 3fbd c556 103c a0a1 133e 7084 5ebd
00000190: 81fc 613d 6663 cf3d aeaa 58bc 1ec6 95bd
000001a0: 2e8c f03b a169 293d 51de afbd 062c 813d
000001b0: 8f46 adbc 9e37 3bbd 6f71 323d fde8 6abd
000001c0: 9675 573d cca6 353d 698f 06bd fe64 10bc
000001d0: e05d 9a3d 5cce e43c 431a 3f3d b8d0 58bd
000001e0: 7bc6 423c 0603 1d3d 6116 d8bc 545c a93d
000001f0: 741e 21bd c39f 2fbd dfac 853b 4698 583d
0.09128432 -0.019749328 -0.08003608 0.012121186 0.03578916 0.01430274 -0.018631969 -0.077365205
-1.3053223e-05 0.030866781 -0.07386992 -8.318325e-05 0.06592334 0.012143202 -0.043156773 0.012899677
0.058231574 0.06633269 0.007475934 0.0671744 0.059737694 0.0862519 0.086150594 0.009158422
0.018156096 0.10269584 0.02494859 -0.010815259 0.062885255 -0.077045955 0.040769435 -0.08610212
0.030467661 0.010261326 -0.053428844 0.00655666 0.013638404 0.055713866 0.038271353 0.08985078
0.05526631 -0.08193029 0.017724643 -0.045674793 0.008803516 0.048105877 0.06822762 0.068307124
0.028925225 0.027603347 0.044237938 -0.0076256376 -0.015562044 -0.00950597 -0.0501986 -0.01804796
0.036584634 0.044306822 -0.04661554 0.0760621 0.0014649213 -0.08065368 -0.07119015 0.05183645
-0.073258415 0.03156986 0.015299525 -0.019259071 0.06742521 -0.018545868 -0.07320318 0.010243654
-0.07590296 -0.06631149 0.05405996 0.035869464 -0.058112856 0.05604449 0.085329674 0.043535765
0.060267814 -0.048893157 -0.058683366 0.056291394 -0.024336403 -0.030225981 0.024308348 -0.04939342
-0.01603103 -0.0015963032 0.036575545 0.079687215 -0.06354742 -0.06362604 0.06613612 0.10608899
-0.046637084 0.00880975 0.14417124 -0.05432552 0.055172447 0.101263806 -0.013224287 -0.073131785
0.0073409295 0.0413605 -0.08587325 0.06307225 -0.021151809 -0.045707338 0.04356521 -0.0573511
0.052602373 0.044348523 -0.03285161 -0.008813141 0.075374365 0.027930431 0.046655905 -0.052933425
0.011888142 0.03833296 -0.026377859 0.08269563 -0.039335683 -0.04287697 0.0040794457 0.052879594

fc3.weight f4 [128, 128]
00000000: 22cf 143d 607b 223d 2d09 063c eee3 973b
00000010: a59e 84bd 8c35 0abd d71f 583c 8ff5 483c
00000020: 2a1a 8b3d 7a9f b1bb 5e39 b7bc e658 943d
00000030: a52a 83bd a1b1 113d 5376 49bd fa6f 3a3d
00000040: 2c81 ee3d cd5a d0bd cc0f 94bd 74b5 fabc
00000050: 298f 1dbd 211c 88bd 5688 4ab9 4d92 21bd
00000060: 7811 18be 22f4 5c3d aa34 273d 9b1b 083e
00000070: 8a63 bb3a 7c9b 5f3d 2491 9a3d e8ac c23d
00000080: 4eb6 cd3d aa58 353d e353 b8bb 5db4 acbc
00000090: 238f 87bd 53bd 143e a693 51bb 5eaa 723d
000000a0: a0d0 043d a3ae 54bd f83c 103e 1068 c8bc
000000b0: 7e3c 933d 6251 cbbd 86b0 09bd 41dd 0d3e
000000c0: efdc e33c 52af 10be 534e 493d 6a5f a6bd
000000d0: 613b d43c 38af 8abd d968 42bc 71ea a7bc
000000e0: ac8f bebc b1ce ba3b db52 d43c 35f2 c9bd
000000f0: 54a8 e93c ea7a f6bc c419 913d 0f76 aebc
00000100: a8af 4b3d af1f efbc eb25 f83c f104 e83d
00000110: 9b5c 18bd 9545 8abd 471c 7ebc 2a16 a9bd
00000120: 91fd 19bd 0f39 e5bd 3726 83be ecc2 893d
00000130: b433 ad3c 5fd8 613d cfe7 90bb 1946 9cbd
00000140: d272 a83d 9cfc a3bd 827c b3bc 175e dbbc
00000150: 4d2e 593c a62e 923d cd27 f53d d37c b23d
00000160: 62f2 9a3c ecec 183d 1963 033e ecd3 ad3d
00000170: 8a30 1fbd 9386 693d 3c0b 89bc e373 963d
00000180: 5e48 03bd f580 5b3d 8a50 203d ab42 1a3d
00000190: 2364 193d 13f7 183d 304a 27bd 9fc6 2ebd
000001a0: d110 28bd 8120 afbc 5b56 913d ce90 563d
000001b0: dd1a 733d 4c0a 2d3d 51bc 163e 2683 e23d
000001c0: 9ca1 7f3c afc8 a63c 7fa0 21bc ca93 503b
000001d0: b85b 20bd 15bf 44bc c6b7 973d 4865 223d
000001e0: 4dd1 013e 2666 a93d df77 003e 24ee 15bd
000001f0: 2aa5 0fbd c3d1 f13c 719e 523d b155 b13d
00000200: a47d 9a3d 6cc3 0e3e d38a 2cbc eaaa a53d
00000210: 7235 863d ff0b 093e a637 23be ce9a 8b3d
00000220: d3ca 9ebd 4fb5 ebbd 64b8 3d3d 24a5 85bd
00000230: d913 6d3d cd6e 16bb 6589 ba3c 482e 1c3d
00000240: fdd1 69bd e3da e73d 21b7 4abd d904 1bbd
00000250: 77c7 2fbd c076 4c3d e027 4ebe e9e9 883d
00000260: 688d 133e ff7b c0bd cc79 fd3a b189 d4bd
00000270: 854c 07bd 2949 e43c 98f6 0b3d fc84 8bbd
00000280: ac8c bebb 4b11 303c 49d4 85bd 81bd be3d
00000290: 3ddf 08bd f825 fabd ee12 be3d 0175 2c3d
000002a0: 5a22 303c 0e20 bb3c 41ff 743c f46f 443d
000002b0: 8a51 e1bd 0eed 25bd 88aa cd3c cd40 623d
000002c0: 124a 06be df29 863d 475b 30be eda8 ad3d
000002d0: 21fc 49bd 9505 a6bc a841 66bd 8763 1d3d
000002e0: 242e 4f3d ef8b 4b3b 8472 d1bc 2ee3 b53d
000002f0: b16d bd3b fd02 293d 80ee d9bc 48b4 1c3b
00000300: 4933 09bd 11eb cdbd a65c 20bd ec8f 38bd
00000310: 0e6e 3ebd 169e 9d3d f399 983c 1eda 07bd
00000320: 98e7 b4bd 056c 93bb 4f6f 423d a15f 71bc
00000330: 0d5e acbd 6ec3 993c d3a2 2e3b 1152 d53d
00000340: ab7f c6bd 1d49 883d c5d4 c9bd 2888 f53c
00000350: 5bae 313b 9e6e a3bd f37f 9c3d 1cb0 d3bc
00000360: aa74 47bc e14c 9f3c ce9d 353d 38a6 0ebd
00000370: 5769 043d 8719 b0bc 4bd3 5e3d 5e5a c4bd
00000380: 7fd2 853e f842 79bd 2d65 70bd 9216 a13d
00000390: e32b 54bd 683c b13c ac18 a53d bf39 27bc
000003a0: e596 47bc 291e e8bd 9f44 673d 8c03 813d
000003b0: 23bd adbd 5346 b0bc ec17 253d 9a26 b9bd
000003c0: 1f60 6a3e 28bc 82bb 2f92 8bbd 5eed ea3d
000003d0: 2348 003e 9f31 823d 9d4e 5b3d d3f5 e0bb
000003e0: 11f7 18be d0d9 443d 2e0c 1f3d 7ddf 85bd
000003f0: 7ebe 8ebd d3f9 703d eac2 27bd 69b8 643c
0.03633035 0.03966844 0.008180899 0.0046353256 -0.064755715 -0.033742473 0.013191185 0.012265577
0.067921 -0.0054206224 -0.022366222 0.072435185 -0.06404618 0.03556979 -0.04918511 0.045516945
0.11645731 -0.10173569 -0.072295755 -0.030604102 -0.038466606 -0.0664599 -0.0001931501 -0.039446164
-0.14850414 0.05394376 0.04082171 0.1329178 0.0014296633 0.05459164 0.075472146 0.095056355
0.100445375 0.04427401 -0.0056252345 -0.021082098 -0.06619098 0.14525346 -0.0031978874 0.059244506
0.032425523 -0.05192436 0.14085758 -0.024463683 0.07189272 -0.09927632 -0.03361561 0.13853933
0.02781531 -0.1412938 0.04914696 -0.081236675 0.02590722 -0.067717016 -0.011865818 -0.020497533
-0.023261867 0.005700909 0.025918415 -0.098606504 0.028522648 -0.030087907 0.070849925 -0.02129653
0.049728066 -0.029189913 0.030291518 0.113290675 -0.03719769 -0.06751553 -0.0155096715 -0.082561806
-0.037595335 -0.11192524 -0.25615093 0.067266315 0.021142818 0.05513799 -0.004422165 -0.076305576
0.08225025 -0.08007166 -0.021909956 -0.026778264 0.013255668 0.07137804 0.11970482 0.087152146
0.018914405 0.03733532 0.12830772 0.084876865 -0.03886465 0.057013106 -0.01672899 0.073463224
-0.032051437 0.05358978 0.039139308 0.037661236 0.037449013 0.037345003 -0.040842235 -0.04266989
-0.041031662 -0.021377804 0.07096549 0.05238419 0.05935179 0.042246148 0.14720275 0.11060171
0.0156024955 0.020359365 -0.009864925 0.003182637 -0.03914997 -0.012008448 0.07408099 0.03964737
0.12677498 0.082714364 0.12545727 -0.03660406 -0.035069622 0.029518967 0.051420633 0.086589225
0.07543495 0.13941735 -0.010531145 0.0808924 0.06553163 0.13383482 -0.15939197 0.06816636
-0.077535294 -0.11509191 0.046318427 -0.06525639 0.057880256 -0.0022954226 0.022770593 0.038130075
-0.057085026 0.11321046 -0.04949105 -0.03784642 -0.042914834 0.049917936 -0.20132399 0.0668524
0.14409411 -0.093986504 0.0019338666 -0.10377825 -0.03303196 0.027866917 0.034170717 -0.06812474
-0.0058151092 0.01074631 -0.06534631 0.09313489 -0.03341602 -0.12214273 0.09280954 0.04210377
0.010750378 0.022842433 0.014953435 0.04795833 -0.110018805 -0.040509276 0.02510573 0.05523758
-0.13114193 0.06550955 -0.1722232 0.08479486 -0.049312714 -0.020266334 -0.05621496 0.038424995
0.050581113 0.0031058749 -0.0255673 0.08881222 0.0057808985 0.041262615 -0.026602983 0.0023911167
-0.033496175 -0.10054601 -0.039150856 -0.04505913 -0.046491675 0.07696168 0.018628096 -0.033166997
-0.088332355 -0.004498961 0.047469433 -0.014732272 -0.08416376 0.018769946 0.0026647344 0.104160435
-0.096923195 0.0665457 -0.09855036 0.02997215 0.002711198 -0.07980083 0.07641592 -0.025840811
-0.012173811 0.019445838 0.044339947 -0.034826487 0.032327022 -0.021496547 0.054400723 -0.09587549
0.26137158 -0.060854882 -0.05869024 0.07865633 -0.051799666 0.02163525 0.080613464 -0.010206639
-0.012181972 -0.113338776 0.056461927 0.06299505 -0.084833406 -0.021517908 0.040306017 -0.09040566
0.2288823 -0.003989715 -0.06814992 0.114710554 0.12527518 0.06357121 0.05354177 -0.006865242
-0.14937998 0.048059285 0.038829975 -0.06536768 -0.06969927 0.058832 -0.04095737 0.013959982

fc3.bias f4 [128]
00000000: 8a59 063e a526 ae3d 6a71 c8bd 5f13 773d
00000010: d1a3 f43d ac23 c63d cbe2 85bc fe13 d83d
00000020: 8407 0e3e 1d9d 183d 48d7 283b d7cc b23d
00000030: 1c1a 1fbd 870c 9dbd 8185 a6bd d027 c53c
00000040: 2864 8dbc 059c ee3d 24c9 fabd 42ed 243d
00000050: 03e1 2bbd 1c2a 42bd 771c 573d 7868 28bb
00000060: 8e51 123e b220 5dbd 533e 353c c380 e6bc
00000070: a51f 91bd 21c9 eb3c 5f65 21bd 4a1c 1d3b
00000080: 36ac f83d 531f b03d c8bb 113b 816b 5dbd
00000090: 6510 cc3c aa73 e0bc 94e3 b5bd eea0 283d
000000a0: 7394 e93d 6b64 093e a4cc 073d e302 a0bd
000000b0: 82be c43d 1390 443d d482 573d 0093 613d
000000c0: 3271 b5bd 1d85 b33d 13cf fc3d 6548 34bc
000000d0: 8ca5 f1bc bffa aebd 0005 71bb aba6 153e
000000e0: f649 62bc a535 65bd b643 4d3c 1389 a6bd
000000f0: bff4 1e3d d791 b93d 493c bd3c 8aaa 08bd
00000100: 20bd a13c 8350 b13d a964 963d db19 b13d
00000110: 1a50 6e3d fe25 25ba 36cb e33d 339a 0abc
00000120: d34b 81bd 0717 493d f561 a3bd c4d9 f03d
00000130: 8197 fd3c 150d 353c 30f2 8bbd 5a69 05bd
00000140: acd2 f43d 5a30 ff3c 8a9c abbd 7ecf f93d
00000150: 7bcb 5ebd b26e cfbb f4b9 0d3c bfce a53c
00000160: e83e ad3c 6303 c2bd dc91 79bd e918 4ebd
00000170: 0fa1 f4bc f9ac 753c c50f 34bb a4d5 963d
00000180: b52b c3ba af30 2c3c 2c5b 3bbd 35e3 f03d
00000190: 1989 99bd 9bea df3d 1002 aa3d 25a3 51bc
000001a0: e5a0 87bc 7dcc 7fba bffe 103e c336 113e
000001b0: c63b 973d e8ad 893d 0ceb 7abc da47 7b3c
000001c0: 4932 b6bd 6140 113a d8b6 c5bc cf19 03bc
000001d0: b5bc f73b 31d2 40bd 8980 093e 8085 a63d
000001e0: ed72 d0bd dbd2 a83d 7872 2bbd ddf0 b9bd
000001f0: b88a 393d b4a2 243d 7274 75bc 1146 e23d
0.13120094 0.085034646 -0.09787257 0.060321208 0.11945308 0.096747726 -0.016343495 0.10550688
0.13870054 0.03725921 0.0025763083 0.08730476 -0.03884326 -0.07668405 -0.081309326 0.024066836
-0.017259672 0.11650852 -0.12245396 0.04026533 -0.041962635 -0.04740344 0.05251738 -0.0025697034
0.14288923 -0.05398626 0.0110622225 -0.02813757 -0.07086114 0.02878243 -0.039403316 0.002397316
0.12142222 0.085997246 0.002223717 -0.0540576 0.024910161 -0.027398903 -0.08881298 0.0411691
0.114052676 0.13417213 0.033154145 -0.078130506 0.09606649 0.047988962 0.052615 0.05507183
-0.08859481 0.08765624 0.12344184 -0.011003588 -0.029497884 -0.0854392 -0.0036776662 0.1461436
-0.013811579 -0.055959363 0.012528351 -0.081316136 0.038807627 0.0906102 0.023100035 -0.033365764
0.019743502 0.086579345 0.07343418 0.0864751 0.05818186 -0.0006299912 0.11122744 -0.0084596155
-0.063132904 0.049094226 -0.07977668 0.117602855 0.030956032 0.011050482 -0.06833303 -0.032571174
0.11954245 0.031150986 -0.08379467 0.12197779 -0.054393273 -0.0063303346 0.008650292 0.020240186
0.02114816 -0.09473302 -0.060930118 -0.050316725 -0.029861955 0.014994853 -0.002747522 0.073649675
-0.0014890345 0.010509654 -0.045741245 0.11762086 -0.074968524 0.10933419 0.08301175 -0.012795244
-0.016556213 -0.0009757949 0.14159678 0.14181046 0.07384448 0.06722623 -0.015314829 0.015336955
-0.0889631 0.0005540904 -0.024135038 -0.008001759 0.0075603374 -0.047075454 0.13427939 0.08130932
-0.1017817 0.082433425 -0.041857213 -0.09079144 0.045298308 0.04019423 -0.014981376 0.1104852

fc4.weight f4 [2, 128]
00000000: a5e4 0abe 5991 133e 651f 093c 4d96 c43d
00000010: 9b77 f9bd 3856 0fbe 88cd 533d 0e9e 5bbd
00000020: 2faf 11be fd8b f3bd a7dc 443e 5d0f 51be
00000030: b351 743c 40e6 733d 8112 bbbc 826c 18be
00000040: a7b7 ea3d efdf c1bd d495 09bd 2410 f439
00000050: 84e4 ccbd ae55 94bd 8f7e d3bd d799 e53d
00000060: 7cfa 1cbe a500 f3bb fa55 4cbe 2f78 063e
00000070: 77f6 b4bd dbca 16be b7c7 c33d 2d62 1f3e
00000080: a8e1 c3bd 4c6e 90bc 6101 90bd 9ed9 af3c
00000090: 50e0 583e 35dd dd3d e2e9 47bd 100d 94be
000000a0: a75c 1fbe 26ed 58be 463c 51bd 5a00 6e3b
000000b0: ba18 c03d 2063 c6bd a512 6dbd da44 ddbd
000000c0: 1e06 c5bc dd97 083e 4fcb 8fbd 9597 cfbb
000000d0: d0bc 153e 09d9 813d 2bbc 013b 3baa cfbd
000000e0: 5338 5abe debe 0abe 8281 123d 4aca 7abd
000000f0: 42b5 c53d 14c3 1cbd 053c 96bd 81d1 4ebb
00000100: a1f1 053e 16d1 16be feb6 03be c9d2 d7bd
00000110: ec69 3cbe 90d7 0e3e f376 2fbe 0e18 0dbe
00000120: 3411 8a3d 1dba e73d dd1d 9ebd 557b 24be
00000130: ebf6 c3bd 3a13 2fbe 33e6 d13c 5ad2 dbbd
00000140: cfa8 1cbe 5e29 0e3e 3efc f3b8 ce26 d8bd
00000150: aa9f a2bd cebf 1a3e 0b4a 24be 9af8 18bd
00000160: a662 c33d 8875 863d 4e64 a5bd 2f5a 953d
00000170: 6b66 2dbe a33e e53d 19fb cf3c 2af5 d4bd
00000180: 6fc2 74bd 73c9 11be 6f8f d33c b2f6 0abe
00000190: 81e0 823d 22f9 e6bd 665d c9bd b10f 51be
000001a0: 8dae 543e 11f8 e53d c9af 42be cdab 83be
000001b0: 17b3 02be 1702 6fbd 6fba 27bd d0bb 39be
000001c0: 160e e43d e549 49be d637 abbc d31e 3abd
000001d0: 5e86 153e d37f 81bd e1c8 c8bd 3d58 ab3d
000001e0: 6f70 d2bd 287e d5bb 03a6 5bbb eb6a 913d
000001f0: 0ddb 06be 88da ec3d 0b55 29be a572 13be
00000200: 190d f6bd b19a 1a3c 57ea ac3b 229c 953c
00000210: 6a51 94bd d8f1 c2bd 73c1 85bd cf8e dbbd
00000220: 6bae 78be 87b8 71be dffc ef3d 6cf1 f8bd
00000230: ed36 5c3d c5f1 e23c a8b8 d53e 0134 28be
00000240: 4926 1abd be26 25be 1339 a03d 8b13 f5bd
00000250: 4156 f83d bb85 89bd c79f f3bd d292 1ebd
00000260: 70c9 1dbe 729e 92bc bf57 11be 9fcb 373d
00000270: 0113 903d 672b 2e3d 4598 5dbd 92ff d13d
00000280: 9973 3bbe eced 07be 4583 fc3e a425 0f3b
00000290: c61b e73e 01b1 4d3d 7c91 1c3d a62d 15be
000002a0: 308b 9fbd 58c7 18be 0732 2a3d 9e1b d1bb
000002b0: 18e4 c0bd be59 d3bd 2105 a73d cb22 77bd
000002c0: 9d7e 13bd cdf7 613e 816f 22be 76f4 05be
000002d0: 42c1 e53d fb51 f43b 6e18 8bbd 53be 64be
000002e0: bf75 a2bd d853 923d cb1c bbbd cd82 973d
000002f0: 5eb7 233d bfe6 80be 38fb a9bd 669b 113c
00000300: 0b12 313e 636e bcbd 7d65 27be e73d 87bd
00000310: ea05 bfbd f0ac 423e 8992 703e ced8 b43d
00000320: b3a3 b43c 67c4 383e 8f24 a0bd 1f69 0cbe
00000330: 644a ac3e a977 d2bd 4fec 6a3d a066 4abe
00000340: 19b3 99bd 8b63 c63d 79e6 4c3d da75 48be
00000350: 5f09 3f3e 821c 753d cef6 43bd eb15 08bd
00000360: 8641 1f3e fdbe 313c 49d2 ca3c f44c 26bd
00000370: 4074 f4bd df8c 6b3d e9bd 843e 10b8 dfbc
00000380: 28d7 c33d 4805 26be 219c febc 7796 28be
00000390: fda7 b6bc a5ee 4dbd 5287 983e 3043 973e
000003a0: 75fe d9be 32aa 773e 9566 edbd 1888 bebd
000003b0: 45e5 0d3f 8526 45be 9dda 0abd d06b 9fbd
000003c0: f397 363e e63d 333e 933e 77bd f92f 75ba
000003d0: 6358 423d 02a7 293d ac1d c1bd 5123 95bc
000003e0: 886b 6b3e f059 76be 3235 9c3c 7435 503d
000003f0: 505d b0bd 7410 2d3e 7025 51bd 5300 a6bd
-0.13563783 0.14410914 0.008369301 0.0959898 -0.12181016 -0.13997734 0.05170968 -0.05361753
-0.14226983 -0.11891935 0.19224797 -0.20416017 0.014912057 0.059545755 -0.022835972 -0.14885142
0.1146081 -0.0946654 -0.033590153 0.00046551332 -0.100045234 -0.072429046 -0.103268735 0.11210983
-0.15329927 -0.0074158483 -0.19954672 0.13131784 -0.08836072 -0.1472582 0.09559577 0.15564795
-0.09564525 -0.017630719 -0.07031513 0.021466073 0.21179318 0.108332075 -0.048807032 -0.28916216
-0.15562688 -0.21184215 -0.05108287 0.0036316128 0.09379716 -0.09686875 -0.05787911 -0.10804148
-0.024050768 0.13339181 -0.070212 -0.0063352087 0.14622808 0.06340224 0.0019795995 -0.10139891
-0.21310548 -0.13549373 0.03576804 -0.061228074 0.09653713 -0.03827198 -0.073356666 -0.003155798
0.13080455 -0.14728197 -0.12862775 -0.10538251 -0.18399781 0.13949418 -0.1713522 -0.13778707
0.067415625 0.11314795 -0.0772054 -0.16062672 -0.0956858 -0.17097178 0.025622463 -0.10733481
-0.1529877 0.13882968 -0.00011634127 -0.105542764 -0.0794061 0.1511223 -0.1604387 -0.03734646
0.095403 0.06565386 -0.08075772 0.07292592 -0.169336 0.11193588 0.025388287 -0.10398324
-0.05975574 -0.14237003 0.02582523 -0.1357067 0.06390477 -0.11277987 -0.098322675 -0.20416142
0.20769711 0.112289555 -0.19012369 -0.2571701 -0.1276363 -0.058351602 -0.04094928 -0.18138051
0.11135499 -0.19657095 -0.020900648 -0.045439553 0.14602038 -0.06323209 -0.098039396 0.083664395
-0.10275351 -0.006515283 -0.0033515699 0.07100471 -0.13169499 0.11565119 -0.16536348 -0.14399202
-0.12014217 0.009436295 0.005276959 0.018262926 -0.07242091 -0.09518784 -0.06531038 -0.10720598
-0.24285285 -0.23605548 0.11718153 -0.121554226 0.05376332 0.027703175 0.41742444 -0.16426088
-0.037634168 -0.1612806 0.07823386 -0.11966618 0.121258266 -0.0671496 -0.118957095 -0.038714238
-0.15408874 -0.017897818 -0.14193629 0.044871923 0.07034875 0.04252186 -0.054100294 0.10253824
-0.18305816 -0.13274354 0.493189 0.0021842504 0.45138377 0.050217632 0.038224682 -0.14568195
-0.0779022 -0.14919794 0.041551616 -0.006381466 -0.094185054 -0.10319851 0.08155275 -0.060335916
-0.03600942 0.22067185 -0.15862848 -0.13081536 0.112185016 0.007456062 -0.06791769 -0.22338228
-0.079326145 0.07144898 -0.09136351 0.07397995 0.039969794 -0.25176045 -0.08299869 0.0088871475
0.17292039 -0.09200742 -0.16347308 -0.06603604 -0.093273 0.19011283 0.23493399 0.08830415
0.022050714 0.18043672 -0.07819473 -0.13711976 0.33650506 -0.102767296 0.057354268 -0.19765711
-0.07504863 0.09686955 0.050024483 -0.19576207 0.18655919 0.05984164 -0.047842793 -0.033224028
0.15552339 0.010848758 0.024758475 -0.040600732 -0.119362354 0.057507392 0.2592614 -0.027309448
0.09562522 -0.16212952 -0.031080307 -0.16463648 -0.0222969 -0.050276417 0.2979074 0.29543447
-0.42576948 0.24186018 -0.115918316 -0.093033016 0.5542796 -0.19252975 -0.033899892 -0.077842355
0.17831402 0.17504081 -0.06036241 -0.0009353157 0.047447573 0.041419037 -0.094294876 -0.018205317
0.22990239 -0.24057746 0.019068334 0.050832227 -0.08611548 0.16900808 -0.051061094 -0.081055306

fc4.bias f4 [2]
00000000: 3b9a a0bd 80ab 083d
-0.07841917 0.03336668

fc1.weight f4 [128, 7]
00000000: 7885 8c3e 0470 f4be de72 2c3e d4a4 643e
00000010: 3562 7abe ae60 363e e0a8 643e 22b9 883d
00000020: 2113 953e f98f d03c 5e23 843e 04a1 943d
00000030: 82a8 a73d 9212 263e f88b b6be 8ade dd3d
00000040: f560 1fbe 1469 b6be ee36 95be 0e18 0ebd
00000050: 5936 e83c 9249 7cbe b6da 663e f312 403d
00000060: a92d c63d 9158 f9bc 4164 8f3d 9f79 d13e
00000070: 5838 1dbd ad90 be3e 45dd 06bf fde3 aabd
00000080: a46c bcbe 1034 3e3e a097 c13e 42c5 a23c
00000090: 487a 0f3e 5ddb 793e 86ff 91be f367 9e3d
000000a0: 1353 adbe 1e7d cbbd 6a78 063e 5f59 85be
000000b0: 3d31 023e 1ea0 6bbe bb1b 0cbe c3e7 babe
000000c0: 9c78 69be e625 e9bc aa3e e03d 2a8d a5be
000000d0: dc11 b1be 4672 083e 1d18 3b3e 8b83 b33e
000000e0: 933a 0abe 6c43 2b3e 1831 c93e 5cf1 0c3e
000000f0: c070 9dbe f741 cf3e 80e7 0e3e 9a79 30be
00000100: 0a05 99be 483f 913e 8f4a b1bd 6063 69be
00000110: 33bb 49be 6b18 fa3d 49ea 1a3e 401b c13e
00000120: c9d5 63bb 7288 bb3e 1f03 c93e 1169 81bd
00000130: a421 f3be 2bda 063e decc 71be ec24 f73c
00000140: 59aa 47be 395f 25bf faf7 e83e 2343 76be
00000150: 9cb8 213e cf95 bcbe bcec b53e 17d3 36be
00000160: 113f b53e 261a 8dbe 09c7 42bd 69ad 9f3e
00000170: 5638 aa3e 63ae 5fbe 2a1c 90be b991 9c3e
00000180: fd53 1c3e 3889 6cbe 4e8b 4c3e 2231 93be
00000190: dc1b 1bbe 289d 1abe 5c9b 283d 5272 c43e
000001a0: 5662 23be f658 023e 5ee1 5abe 4cce 763e
000001b0: b788 6e3e 7b2e f9bd dacf d03e c56c d5bd
000001c0: 7708 da3c ede3 4c3e dcab ddbd de7d debe
000001d0: 6903 af3b 13f6 88be 6071 633e be82 f93e
000001e0: 08f3 653e d09b 973e da4e 46be db29 b7be
000001f0: 261d f83d b19e 4dbe 0886 f43d 579a 6fbd
00000200: 0c82 59bf 74a1 4e3d 0634 05bc 498d c6be
00000210: e9c0 f63d 0610 923b fc20 81be e7ed 0bbe
00000220: 70c0 003e 55bb 98be 2e75 3ebe 0bd3 2fbe
00000230: aa2d 43be 0cdc 3abe d0d3 3e3e 1ee2 d1bd
00000240: 1616 8cbe b0d5 763e ac11 a7be cb7e 38be
00000250: 6fb2 aabd b39c 9dbe bff7 e9bc 5504 8ebe
00000260: 17b7 de3d 4e8c 06be b7f8 433e 6393 bb3e
00000270: 681e 8fbe fcc3 23be f86b 22be 966b f5bd
00000280: 4d58 973e 0203 efbe 6f1f 3bbe 1bf3 5fbd
00000290: 6cb3 533e 9701 b43e e1f9 9a3e c850 dabe
000002a0: f7a0 e13d 94ff bbbe ee90 b5be 3ac0 af3d
000002b0: b55f fa3d e921 c5bb ed1a 6f3d 7a31 483d
000002c0: 8c89 783d 671e 6bbf 08a6 67be 9bbc 15bc
000002d0: 8106 bdbe 4aab 303e 50b1 a33d c447 d63d
000002e0: a8d5 84be 8777 133e b38e 8b3e 02ba 853e
000002f0: 4c22 58be b4be f3bc 998f 82be a1a6 cc3e
00000300: 3ab8 8dbe a2e9 b0be 1d51 6c3c 5e9e 4ebe
00000310: 9929 863e e5c1 183e 9e5d 10be f2dd f2bc
00000320: 1dce 69be a91d e23d a462 fe3d 9a03 98be
00000330: 5f0d 44be c7aa a33e 8463 0abe 5595 e63e
00000340: f715 17be 15bd 0fbe 73af b8be a349 ae3e
00000350: 5d1c c1be 06a1 18bd 9e71 733d ff07 d53d
00000360: 637f 54be 57df b1bd 5426 31be dfd8 52bd
00000370: 496c 18be 7761 babe 6596 3a3e 0e2e 52be
00000380: b24e 45be abc0 943e c3b3 3dbf 9eb9 6f3e
00000390: c2fd 913e 7283 103e 0f9c 023e ef85 5d3e
000003a0: f379 21bd f9ad dbbe a862 8cbd d28c c03e
000003b0: 49e7 a93c a236 bd3e 226c 6bbd 3b23 08bd
000003c0: 2fce 37be f8bf 0fbe 1bdb 98be 98de 15be
000003d0: 80a2 e83e 7a60 5d3e 3238 d93e 4b83 27bd
000003e0: 3400 8b3e 6a10 783e eeb8 9f3e f515 9a3e
000003f0: c748 9dbe f221 9f3e e11f c13e ea4c a13e
0.2744558 -0.4774171 0.16840693 0.22328502 -0.24451526 0.17810318 0.22330046 0.06675936
0.29116157 0.025459277 0.25808233 0.07257274 0.08186437 0.16218022 -0.35653663 0.108334616
-0.1556433 -0.35627043 -0.2914347 -0.03469091 0.028346227 -0.2463744 0.22544369 0.04689307
0.09676678 -0.03043774 0.07001544 0.40913102 -0.03838381 0.37219754 -0.5268138 -0.083442666
-0.36801636 0.18574548 0.37810993 0.01986945 0.1401149 0.24400087 -0.2851526 0.077346705
-0.33852443 -0.099359736 0.13131872 -0.26044747 0.12714095 -0.23010299 -0.13682453 -0.36504945
-0.22799915 -0.028460454 0.10949452 -0.32334262 -0.34583938 0.13324842 0.18270917 0.35061297
-0.13498907 0.16724938 0.39295268 0.13763946 -0.30750084 0.40480015 0.13955498 -0.17233887
-0.29886657 0.28368592 -0.08656799 -0.22791815 -0.19700317 0.122116886 0.15128435 0.37716103
-0.0034764877 0.36627537 0.39260194 -0.06318868 -0.47486603 0.13169162 -0.23613307 0.030168973
-0.19498576 -0.64598423 0.4550169 -0.24049048 0.15793079 -0.36833045 0.35532176 -0.17853962
0.35399678 -0.27559012 -0.047553096 0.3118699 0.33246106 -0.21843867 -0.28146487 0.30579928
0.15266414 -0.2309922 0.19975016 -0.28748423 -0.15147346 -0.15099013 0.041163787 0.3836847
-0.15955481 0.12729248 -0.21375033 0.24102134 0.2329434 -0.121670686 0.40783578 -0.10421137
0.026615364 0.20008822 -0.10823795 -0.43455404 0.0053409827 -0.2675024 0.22211218 0.4873256
0.2245599 0.29611063 -0.19366017 -0.3577412 0.121149346 -0.20080067 0.11939627 -0.0584968
-0.8496406 0.050446942 -0.008130079 -0.38779667 0.120485134 0.0044574765 -0.25220478 -0.13664971
0.12573409 -0.29830423 -0.18599388 -0.1717035 -0.19060388 -0.18248004 0.18635488 -0.102482066
-0.273606 0.24104953 -0.3263067 -0.18017118 -0.08334815 -0.30783615 -0.028560517 -0.2773768
0.10874765 -0.1313946 0.19137846 0.36635885 -0.27952886 -0.15992731 -0.158615 -0.11983411
0.29559556 -0.46681982 -0.1827371 -0.054675203 0.20673913 0.35157463 0.30268767 -0.42639756
0.1101703 -0.36718428 -0.35462135 0.08581586 0.12225286 -0.0060160053 0.058375288 0.04887531
0.06067805 -0.91843265 -0.2262193 -0.009139205 -0.36919025 0.17252842 0.07992804 0.10462907
-0.25944257 0.14401065 0.27257308 0.26118475 -0.21106833 -0.02975402 -0.2550018 0.39970878
-0.27679616 -0.34553248 0.014423636 -0.201776 0.26203611 0.14917715 -0.14098212 -0.029646847
-0.22832532 0.110408135 0.12421158 -0.29690248 -0.19145726 0.3196623 -0.13514525 0.45035806
-0.14754473 -0.14036973 -0.36071357 0.34040555 -0.37716952 -0.03726294 0.059434526 0.10401916
-0.20751719 -0.08685177 -0.17299777 -0.051476356 -0.14885058 -0.36402485 0.18221433 -0.20525381
-0.19268301 0.29053244 -0.7410242 0.23410651 0.28513914 0.14112642 0.12754844 0.21633123
-0.03942294 -0.42906168 -0.06854755 0.37607437 0.020740168 0.36955744 -0.05747617 -0.033236723
-0.17949747 -0.14038074 -0.29854664 -0.14635694 0.45436478 0.21618834 0.42425686 -0.040896695
0.27148592 0.24225011 0.31195778 0.30094877 -0.30719587 0.31080586 0.37719634 0.31503993

fc1.bias f4 [128]
00000000: 79e5 92be 6a2e 353d ad3f d33d 31a2 1fbd
00000010: d52e 9f3e 3307 aebe 4072 203d 1bfe 323e
00000020: 8ba1 d8bc 5be1 7fbd 034d 2c3e e707 f73d
00000030: 50c3 c4be 25f3 6dbd 1f42 64be d19f 83be
00000040: 101f 1fbe 8519 8bbe 0f71 803e 9b05 883d
00000050: 2c60 5ebe 273f 9abd a167 673e 3aa3 6f3d
00000060: 356d e1bd f9ff 733e d43b a03e 5b50 b63e
00000070: 53d8 4d3d d344 863e f74f 61be 0e75 b1be
00000080: c974 d4bc 8e3c de3d a1c8 9abb 432b a03e
00000090: b496 853e 5d7d 433e 795c 1a3d c03a 073a
000000a0: f2da a53e b93c 873e 6a88 7a3b 5a30 d13e
000000b0: 3f22 02be 73a3 583e a868 4e3e 723f 3d3d
000000c0: 623d a9be 5f05 053e 9823 bbbb 7f08 bdbe
000000d0: d2cf 51be f3d0 dcbe ffe3 9abd cc8f c13d
000000e0: 4028 8dbe f603 a7be 90c6 c0be f181 a43e
000000f0: 606e f53d 2cc9 3bbe f71e abbd f072 9bbd
00000100: 70fb afbd d3ea 353e 846e 90bd 674c 07be
00000110: 5c20 1abe 8477 72bd b1e6 7b3e 0cf4 003c
00000120: cde2 2ebe fd1d 3fbc 1c97 113e 386e adbe
00000130: 5206 453e e960 2e3d b5e0 5a3d b7be 1bbe
00000140: a5c4 903e 66ed bfbd f6cf 8c3e 66a7 9ebe
00000150: 6018 7bbd 0d3d 943e f245 2fbe b51e 2abe
00000160: cab3 b93e 2636 bd3d 76fe 9dbd e48a 76be
00000170: 61e8 a53e b4ac bb3e dd18 6ebd 0958 433e
00000180: 148f babe 3a22 a33e 32aa 003e f756 1bbd
00000190: 2f9c ed3d 69f9 af3e 6566 6d3e 88aa 90bd
000001a0: bb29 e83d 278c 1bbe 8a5b 15be 0a0a 933e
000001b0: 3554 883e 7b79 98be 5438 1bbe 9560 923e
000001c0: fa54 8b3e ce36 3e3e 59d7 b13e d2ae adbe
000001d0: ef5d 39bc 8f36 53bd 9143 8e3e 79fa c2bd
000001e0: 0b57 9d3d 1ef3 9c3c 1295 48be e20f d13d
000001f0: 6e3e 44be c1fe 45be e525 963e 19a4 94be
-0.286907 0.044233717 0.103148796 -0.038973037 0.31090418 -0.33989868 0.039171457 0.17479746
-0.026444217 -0.062470775 0.16826253 0.12062054 -0.38430262 -0.05809321 -0.22290848 -0.25707868
-0.15539193 -0.27167907 0.25086257 0.06641694 -0.21716374 -0.075315766 0.22598125 0.058505274
-0.11007158 0.23828115 0.31295645 0.3560818 0.05025513 0.26224384 -0.2200316 -0.34659618
-0.025934594 0.10851394 -0.004723624 0.31283006 0.2609154 0.19090791 0.037685845 0.0005158596
0.32393605 0.26413515 0.0038228282 0.40857202 -0.12708376 0.21156101 0.2015711 0.046203084
-0.33054644 0.1299033 -0.00571103 -0.36920545 -0.20489433 -0.43128166 -0.07563018 0.09451255
-0.2756977 -0.3262021 -0.3765149 0.32130387 0.11983943 -0.1833846 -0.083555155 -0.07590282
-0.0859288 0.1776536 -0.07052329 -0.13212739 -0.15051407 -0.05919601 0.2459972 0.007870685
-0.17078705 -0.011664865 0.142178 -0.33873153 0.19240692 0.04257289 0.053436954 -0.1520947
0.28275028 -0.09371452 0.27502412 -0.3098709 -0.061302543 0.28952828 -0.17116526 -0.16613276
0.3626998 0.092388436 -0.0771455 -0.2407642 0.32403854 0.366552 -0.05812918 0.19076551
-0.36437285 0.3186205 0.12564924 -0.037924733 0.11602055 0.34369972 0.23183592 -0.07063776
0.113360845 -0.15190183 -0.145857 0.28718597 0.26626745 -0.29780182 -0.15158206 0.2858931
0.2721327 0.18575594 0.3473461 -0.3392244 -0.011313899 -0.051565703 0.27785924 -0.0952043
0.07682618 0.019158896 -0.19588116 0.102081075 -0.1916444 -0.19335462 0.29325786 -0.29031447

fc2.weight f4 [128, 128]
00000000: d45c 4d3e 83ee a9bc 88ad 0abb c665 9ebb
00000010: 203d 71bc 1efd 4fbd 007f 94bd 945e abbc
00000020: 0e90 d3bb 201b 3e3d d82e d6bc 47ef 5d3e
00000030: f4e6 f6bc 2c57 233e 45cb 173c eed8 963d
00000040: dbe6 ac3c c848 0a3e 1d35 f93c 15e8 d3bc
00000050: 06e5 033d bfed 6b3c e016 273d fc6a eebd
00000060: 33b2 2fbe 33ef 0ebe 550b 803d 37f4 b13d
00000070: 966f f83d fe08 09be eb38 533d 61b7 e0bb
00000080: 9465 c9bd d559 5dbd e0dd b7bd 209b 73bd
00000090: ccbd 873d 38da 653c 2a02 4a3e 6640 c7bc
000000a0: f2bf 143e 9aa3 5d3d 1743 873d 9b4c 493e
000000b0: c0b4 973c 7fc8 f93b 93e6 01bd 0ec0 16bd
000000c0: 22df ba3b 80c6 83bd 5218 d5bd c59d 1cbd
000000d0: ceb8 a53d 3f56 40bc dc99 863d 516e aabc
000000e0: 55df c63a bd4e 3cbd 13fb 383d bf3b 1dbb
000000f0: f9cc 1f3e 2867 81be db85 953c ad5a d63d
00000100: 77a5 60be 7e72 71bc cc24 c53c 61c8 103e
00000110: 96a9 b0bd bd7b 073e feed 84bb 5f9f ebbd
00000120: 7463 8a3c a60e 563d 8413 f4bd 3cde 583e
00000130: e786 893b 8bb2 373e 01a2 073e 830c 45bd
00000140: 7714 603c 94b5 81be 6bb2 d2bb 27ba 0e3d
00000150: 3a8b 743e d02f a9bc e17e 073d 0d0e e33d
00000160: 16cb 1f3e d967 643e c3e4 1f3d 5d5f 2a3c
00000170: 7e91 683d 215a bcbc baaa 49bd b500 883c
00000180: 7762 463d 27ed 2ebd b467 a0bc 007e 85bc
00000190: f812 e0bd 567d 6cbd 168b 6d3e cc59 8abd
000001a0: b3a0 c9bd f1c0 56bd 842f 2f3e 04d7 fcbc
000001b0: ff26 4e3e c157 123e f2d9 013e 8843 f3bb
000001c0: ec13 a8bd 02a3 c83c f75d 683e 4e2d 19be
000001d0: d1fe e2bc 2eb0 8a3d fc8f 813d bb91 19bd
000001e0: aa91 c7bd 46d3 d53c 6c41 473e d320 503d
000001f0: 3684 68be 302e d6bd a7bc 113e 0b6c 4e3d
00000200: 4301 e0bd 0ddf aa3d d144 343d 6483 823d
00000210: e78f d9bd 3104 acbd 63a3 b4bd 2a1b c7bc
00000220: 4b3c a1bc 9ff4 b43d 6e7d b53d 3d96 82bd
00000230: e1a8 b0bd 9ea9 8f3c 5f2a 0fbe 409a b93d
00000240: b9f5 983d 5db9 88bd 455e af39 8e94 843d
00000250: a4c8 693d 5ca6 91bc 10eb 22be 8c6e a93a
00000260: 1e9c 1c3a f474 7dbe dec5 363d 6dd7 603d
00000270: fe63 47bd e2ea 3e3e 9d2a 89bc 0223 cdbc
00000280: 499d c9bd 2dfa 023c ea9b 4fbe 8ef0 0e3e
00000290: 0fe6 9b3c e85c 6f3e 4c24 4cbe 2dce d6b8
000002a0: 03f2 563e e1ea ef3d 3b55 533d c23f cbbd
000002b0: 4d9d b33d 39b5 d53d 7266 5f3b 5138 20be
000002c0: 1944 49bd 4a1e a7bd c75b 8dbe 661b a93d
000002d0: 31e9 a83d cac3 083c 7881 443d aa8b 453e
000002e0: b0c9 84bd f2c3 b33d 0896 aa3d f39f ed3d
000002f0: 0885 ee3b f216 823e b72e 183e 5003 cb3d
00000300: 0314 3a3e 071c 583d b3bc a5bd 0407 2e3d
00000310: 7624 483d 6487 293e af32 123e 5def 44be
00000320: 98e2 af3d 657b f03e 409e 7e3d fe74 04be
00000330: 7e90 ae3d f987 67bd b8e7 ecbd 7f94 c5bb
00000340: 02bb 83bd eb61 843e cc44 7cbc bf3c 02bb
00000350: 5bbb 7abe 6315 8f3d 27d7 5abd 7b50 0abe
00000360: 1d3b 41bc 5cd0 56bd f6ae 2c3d d332 94bd
00000370: 7bb5 073e 7667 bbbb fe8a 96bd 022a 653d
00000380: 13b8 dabb 47c1 b63d f292 803d ebb9 95bd
00000390: 8d76 86bd 00c1 d23b 52af a8bc 3eae 3f3e
000003a0: ab8f 323e 40ec c5bc 2987 913d eae2 be3d
000003b0: 2113 bb3d 73cc a9be d0df 493d 4a4a 12be
000003c0: d4fe 1a3d 554b 8dbd 47fc 043d 6f52 82bd
000003d0: a126 18bc 2ac6 31bd 8a0e 9e3d 21bd 9c3d
000003e0: 146d 84bc fb7a b23d 9996 cdbd 7c55 52bd
000003f0: 0469 c5bd 8b43 5c3d e9c6 583d bdaf 65bd
0.20054942 -0.020743614 -0.0021160562 -0.0048339097 -0.014724046 -0.0507785 -0.07250786 -0.020919122
-0.0064563816 0.046412587 -0.026145384 0.21673308 -0.030139424 0.15951222 0.009264772 0.07365595
0.021106174 0.13504326 0.030420834 -0.025867501 0.032200836 0.014399945 0.0407933 -0.116414994
-0.17157821 -0.13958435 0.062521614 0.086891584 0.12130658 -0.13382336 0.051567953 -0.006857798
-0.098338276 -0.05404075 -0.08977866 -0.05947411 0.06627998 0.014029078 0.19727388 -0.0243227
0.14526346 0.0541111 0.06604593 0.19658129 0.018518806 0.007622778 -0.031714033 -0.03680425
0.005702869 -0.06434345 -0.10405029 -0.0382364 0.08091889 -0.011739313 0.06572315 -0.020804556
0.0015172759 -0.04597353 0.045161318 -0.002399191 0.15605535 -0.25274014 0.018252304 0.10466514
-0.2193812 -0.01473677 0.024065398 0.14138938 -0.08626096 0.13230796 -0.004056691 -0.11505007
0.016893126 0.052260064 -0.11917785 0.21178526 0.00419699 0.17939202 0.13245393 -0.048107635
0.013676754 -0.25333846 -0.0064299605 0.034845497 0.23881236 -0.020652682 0.033079986 0.11086664
0.15604815 0.2230524 0.039036524 0.010398713 0.056779377 -0.022992196 -0.049235083 0.0166019
0.048433747 -0.042706635 -0.0195807 -0.016295433 -0.10941118 -0.057736717 0.23197588 -0.06755409
-0.09845104 -0.052430097 0.1710797 -0.030864246 0.20132063 0.14291288 0.12680796 -0.007423822
-0.08206925 0.02449179 0.22692095 -0.14958689 -0.027709397 0.06771885 0.06326291 -0.037492495
-0.0974458 0.02610172 0.1945855 0.050812554 -0.22706684 -0.10458028 0.14232121 0.050396007
-0.10937741 0.08343325 0.04401094 0.06372717 -0.1062315 -0.08399237 -0.08820226 -0.024304945
-0.01968207 0.0883572 0.088618144 -0.06376312 -0.08625961 0.017536934 -0.13981007 0.09062624
0.07468743 -0.0667598 0.00033448837 0.06473647 0.05707611 -0.017779522 -0.15909982 0.0012926622
0.0005974191 -0.24751645 0.044622295 0.054892946 -0.048679344 0.18644288 -0.016743952 -0.025041107
-0.09844453 0.007994217 -0.2027432 0.13958952 0.019030599 0.23375285 -0.19935721 -0.000102427184
0.20990758 0.117147215 0.051594954 -0.0992427 0.08770237 0.10434956 0.0034088162 -0.15646483
-0.04913721 -0.08160074 -0.27609083 0.08257179 0.08247603 0.008347461 0.047975034 0.19291559
-0.06483781 0.08777608 0.083293974 0.116027735 0.007279042 0.2540813 0.1486157 0.09912741
0.18171696 0.052761104 -0.08092632 0.04248716 0.048862897 0.16555554 0.14277147 -0.19231935
0.08588141 0.46969143 0.062162638 -0.12935254 0.085236534 -0.056526158 -0.11567634 -0.006029665
-0.06432153 0.25855955 -0.015397262 -0.0019872633 -0.24485533 0.06986501 -0.05342784 -0.13507263
-0.011793879 -0.0524448 0.042159043 -0.072362565 0.13252823 -0.0057191206 -0.073507294 0.055948265
-0.0066747754 0.089235835 0.062780276 -0.07310852 -0.065655805 0.006431699 -0.020591412 0.18718812
0.17437617 -0.024160504 0.07105858 0.09320624 0.09134508 -0.33163795 0.04928571 -0.14286152
0.03784068 -0.06899134 0.032467153 -0.06363379 -0.009286554 -0.043401875 0.07717617 0.07653261
-0.016165294 0.08714863 -0.1003849 -0.051351056 -0.09639171 0.05377535 0.05292407 -0.0560758
