flappybird_dqn_ep140.pth (torch, 561729 bytes, 32 tensors)

fc1.weight f4 [128, 7]
00000000: d0ff 913e 53a8 e1be febd 2b3e c5a8 6e3e
00000010: d055 70be ac5d 343e fd54 7a3e 5bdd 9b3d
00000020: a94c a23e 7533 d6bc 1487 773e b0b3 913d
00000030: 092b b33d bd10 093e f88b b6be 8ade dd3d
00000040: f560 1fbe 1469 b6be ee36 95be 0e18 0ebd
00000050: 5936 e83c 19b6 8ebe cfda 8e3e 0631 353d
00000060: b5c0 4e3c a883 0cbe a2a2 7b3c ddc7 c93e
00000070: 1b90 0cbd ad26 9e3e 3a6b ebbe 44d4 31bd
00000080: 81f8 b1be 4d21 503e 509e c43e 42c5 a23c
00000090: 487a 0f3e 5ddb 793e 86ff 91be f367 9e3d
000000a0: 1353 adbe 1e7d cbbd 6a78 063e 5f59 85be
000000b0: 3d31 023e 1ea0 6bbe bb1b 0cbe c3e7 babe
000000c0: 9c78 69be e97b 973b e6b4 fd3d eeea a8be
000000d0: eebb b0be 8030 0c3e 5133 473e fd35 b93e
000000e0: bd58 03be 0309 233e 6f5b cc3e 29bd 163e
000000f0: c569 96be 9ab1 d13e 27d1 253e 9a79 30be
00000100: 0a05 99be 483f 913e 8f4a b1bd 6063 69be
00000110: 33bb 49be 6b18 fa3d 16a3 223e 0609 d53e
00000120: 5500 38bd 2649 b13e 67ec c23e b65f 86bd
00000130: 9b38 edbe b3f5 ee3d d684 4dbe c60f 6a3d
00000140: bb7d 46be f73d 27bf a78e e43e 299e 86be
00000150: 9cb8 213e cf95 bcbe bcec b53e 17d3 36be
00000160: 113f b53e 261a 8dbe 09c7 42bd 7f4c 9d3e
00000170: c878 b43e 8e8b 40be d71b 8dbe 5bf0 983e
00000180: e3bd 203e 2e67 40be f216 4a3e 8b10 a1be
00000190: 3734 08be 07d4 fbbd ba05 323d 4cef c63e
000001a0: f82e efbd 5d9d 063e 207f 37be 8000 743e
000001b0: ff71 5f3e 763e fbbd 0e70 cb3e e399 25be
000001c0: 62be 503d f230 623e 1f81 b4bd e061 d1be
000001d0: c9e5 013d 92e7 77be d6ca 7e3e 02cd f83e
000001e0: 3c50 693e e4b3 9b3e 1f30 44be 5e2f aebe
000001f0: ee6b 003e b1fa 4bbe 0010 db3d 3968 e6bd
00000200: 0d74 26bf f0ac 9f3d 1dcb 0abc ec9b c0be
00000210: 5435 c83d 0610 923b fc20 81be e7ed 0bbe
00000220: 70c0 003e 55bb 98be 2e75 3ebe 0bd3 2fbe
00000230: aa2d 43be 0cdc 3abe d0d3 3e3e 1ee2 d1bd
00000240: 1616 8cbe b0d5 763e ac11 a7be cb7e 38be
00000250: 6fb2 aabd b39c 9dbe bff7 e9bc 5504 8ebe
00000260: 17b7 de3d 4e8c 06be a62f 353e f22b a53e
00000270: 3802 46be 7b8c 1bbe 4ba4 32be fce0 fabd
00000280: 81e9 883e eba1 f8be 3a19 27be c47e 80bd
00000290: 4f58 1d3e 68cd af3e 17a1 913e 809a dabe
000002a0: f3c1 053e 1aaf c0be 2c91 65be c7c9 cc3d
000002b0: 6a26 093e f715 543c 247c 5c3d e0f6 f03c
000002c0: 1084 943c e451 04bf 5cdc 7fbe 4241 23bd
000002d0: 9c5b c7be 584e 1e3e 9edb c73d 71bf f33d
000002e0: 5efb 7fbe 3e1e 123e 5e29 8e3e 87eb 8a3e
000002f0: 4236 2abe c98b 80bd 27e2 68be 2617 c73e
00000300: 5666 86be c528 b2be da93 143c 7a6f 7abe
00000310: d330 853e fb09 233e 055d cfbd 20c9 17bc
00000320: 7afb 5cbe 8366 f73d 1ad5 083e 3ae5 9bbe
00000330: 0e2d 31be 6112 973e e866 3dbe e1a3 df3e
00000340: 381c 26be 3709 1abe 73af b8be a349 ae3e
00000350: 5d1c c1be 06a1 18bd 9e71 733d ff07 d53d
00000360: 637f 54be 57df b1bd 5426 31be dfd8 52bd
00000370: 496c 18be 7761 babe 6596 3a3e 0e2e 52be
00000380: 3949 48be cd42 833e fa8a 18bf 7261 783e
00000390: 8fda 9b3e cbaa 1d3e 8137 cf3d 59c5 5d3e
000003a0: 3cbe 1cbd 39ca e8be c314 b1bd cb58 be3e
000003b0: 6d77 203c 5bcb b93e 2b58 5abd 5d0c c9bd
000003c0: 30b6 1cbe 3ac9 04be 6519 94be ff63 f6bd
000003d0: d2ce e73e e5b8 7e3e c6d3 ec3e cfe2 83bd
000003e0: 5456 733e e96a 723e f29e a13e 4318 993e
000003f0: a755 91be 020d b23e 71bb a93e 016d 903e
0.28515482 -0.44073734 0.16771695 0.23306568 -0.23470235 0.17613858 0.24446483 0.076105796
0.31699112 -0.026147583 0.24172622 0.07114351 0.08748443 0.13385291 -0.35653663 0.108334616
-0.1556433 -0.35627043 -0.2914347 -0.03469091 0.028346227 -0.27873304 0.27901313 0.044236206
0.012619187 -0.13722098 0.015358599 0.39410296 -0.034317117 0.30888882 -0.45980245 -0.043415323
-0.34759906 0.20325203 0.38402033 0.01986945 0.1401149 0.24400087 -0.2851526 0.077346705
-0.33852443 -0.099359736 0.13131872 -0.26044747 0.12714095 -0.23010299 -0.13682453 -0.36504945
-0.22799915 0.0046229255 0.12388019 -0.32991737 -0.3451838 0.13690376 0.1945317 0.36174002
-0.1282682 0.15921406 0.39913508 0.14720596 -0.2937757 0.40955812 0.16193067 -0.17233887
-0.29886657 0.28368592 -0.08656799 -0.22791815 -0.19700317 0.122116886 0.15882525 0.41608447
-0.04492219 0.3462612 0.38070986 -0.06561224 -0.4633225 0.11667957 -0.20070204 0.05714395
-0.193839 -0.65328926 0.44640085 -0.26292542 0.15793079 -0.36833045 0.35532176 -0.17853962
0.35399678 -0.27559012 -0.047553096 0.30722424 0.352484 -0.18803236 -0.27560303 0.29870877
0.15697436 -0.1878936 0.19735315 -0.31457934 -0.13301168 -0.122963004 0.043462493 0.38854444
-0.116788805 0.13145967 -0.17919588 0.23828316 0.2182083 -0.12267773 0.39733928 -0.16171984
0.050962813 0.22088984 -0.088136904 -0.40894985 0.03171328 -0.24209431 0.24882063 0.4859391
0.22784513 0.30410683 -0.19158982 -0.34020513 0.12541172 -0.1991985 0.10696411 -0.11250348
-0.6502083 0.07796657 -0.008471278 -0.3761896 0.097757965 0.0044574765 -0.25220478 -0.13664971
0.12573409 -0.29830423 -0.18599388 -0.1717035 -0.19060388 -0.18248004 0.18635488 -0.102482066
-0.273606 0.24104953 -0.3263067 -0.18017118 -0.08334815 -0.30783615 -0.028560517 -0.2773768
0.10874765 -0.1313946 0.17693958 0.3226009 -0.19336784 -0.15190308 -0.17445485 -0.122499436
0.2674065 -0.48561034 -0.16318217 -0.062741786 0.15365718 0.343364 0.28443214 -0.42696
0.13062267 -0.37633592 -0.2241866 0.099994235 0.1339356 0.01294469 0.053829327 0.029414594
0.018129379 -0.51687455 -0.24986404 -0.039857157 -0.3893708 0.15459573 0.097586855 0.11901749
-0.24998233 0.14269349 0.27765936 0.27132818 -0.1662226 -0.06276662 -0.2274252 0.38884848
-0.2624995 -0.3479673 0.009068454 -0.24456587 0.26013812 0.15921776 -0.10125164 -0.0092642605
-0.21580306 0.120800994 0.13362542 -0.30448323 -0.17302343 0.2950621 -0.18496287 0.43679717
-0.16221702 -0.15042578 -0.36071357 0.34040555 -0.37716952 -0.03726294 0.059434526 0.10401916
-0.20751719 -0.08685177 -0.17299777 -0.051476356 -0.14885058 -0.36402485 0.18221433 -0.20525381
-0.19559182 0.25636902 -0.5958706 0.24255922 0.30440184 0.15397184 0.101180084 0.21657313
-0.03826736 -0.45466784 -0.08646538 0.3717712 0.009794098 0.3628796 -0.05330674 -0.09816811
-0.15303874 -0.12967387 -0.28925624 -0.120307915 0.4527498 0.24875219 0.4625532 -0.06439745
0.237634 0.23673595 0.31566578 0.29901323 -0.2838566 0.3477555 0.3315082 0.28208163

fc1.bias f4 [128]
00000000: 8feb 8cbe af83 443d ad3f d33d 9300 c5bd
00000010: bf0c a63e 3307 aebe 4072 203d 175b 463e
00000020: 670a 71bc 5be1 7fbd 3357 2a3e f8de de3d
00000030: 50c3 c4be f595 82bd fcbc 65be 8cc0 82be
00000040: 6bcb 04be e744 89be 5aab 783e 9b05 883d
00000050: 2c60 5ebe 273f 9abd 69d3 553e 61cc 383d
00000060: b03c bfbd c5ae 543e 9807 a63e 36b5 ad3e
00000070: 812e 673d 331d 803e f74f 61be 0e75 b1be
00000080: f1aa 93bc f90a d83d 1978 c53a 204f a53e
00000090: 5799 8b3e 8cda 4e3e 586c 1e3d c372 d13b
000000a0: b704 a33e 3cac 8e3e 2a4f 8a39 ed91 cd3e
000000b0: 6e4d 03be 6e3f 653e 0275 593e 8950 463d
000000c0: 623d a9be 5f05 053e b8f5 5b3b 7f08 bdbe
000000d0: d2cf 51be c3b8 dabe ad4e a4bd 5810 bb3d
000000e0: 4028 8dbe f603 a7be 90c6 c0be 8bd0 a73e
000000f0: f4c9 dd3d 67d7 51be bb64 b8bd 6e18 a0bd
00000100: 42be a7bd 357b 453e 846e 90bd 6484 1ebe
00000110: 5c20 1abe 5f0a b0bd eaa6 733e e63c 793c
00000120: cde2 2ebe a417 68bc e92e 163e cf1b acbe
00000130: 7b7c 4c3e d35a 2d3d 707d a73d b7be 1bbe
00000140: 1c3f 933e 7883 debd de4d 8f3e 66a7 9ebe
00000150: cc8d 2cbd a591 9b3e f245 2fbe 0c7b 5abe
00000160: 7e59 af3e 4d4b ae3d 7b3c a0bd e48a 76be
00000170: 9ea7 a53e 9663 c23e dd18 6ebd 1617 573e
00000180: 148f babe 178b a53e 20ef 013e 7dd4 b8bc
00000190: 5d38 f33d 1a1d b53e 732a 543e b32a 76bd
000001a0: 8ee0 013e a964 04be 6c8c 40be 3a03 963e
000001b0: 6fdb 843e 773a 93be 6823 1abe 63ea 943e
000001c0: 1152 923e 8aa5 443e da18 ad3e d2ae adbe
000001d0: bdf5 09bc 8f36 53bd 37b8 8e3e fd46 b7bd
000001e0: 6534 bf3d a6c6 6ebc e76e 46be 1983 be3d
000001f0: 90e4 44be ffca 4dbe 85d3 953e 19a4 94be
-0.27523467 0.047977146 0.103148796 -0.0961925 0.324316 -0.33989868 0.039171457 0.19370686
-0.014711953 -0.062470775 0.16634826 0.10882372 -0.38430262 -0.06376258 -0.22435373 -0.25537527
-0.12968223 -0.2681038 0.24284115 0.06641694 -0.21716374 -0.075315766 0.20881428 0.045116786
-0.09337747 0.20769794 0.3242767 0.33927315 0.056440834 0.25022277 -0.2200316 -0.34659618
-0.018025847 0.10548968 0.0015065699 0.3228693 0.27265427 0.20200557 0.038677543 0.0063918545
0.31839535 0.2786578 0.00026380393 0.40150395 -0.12822506 0.22387478 0.21236041 0.048416648
-0.33054644 0.1299033 0.0033563208 -0.36920545 -0.20489433 -0.42719087 -0.08022819 0.09133977
-0.2756977 -0.3262021 -0.3765149 0.32776293 0.10829535 -0.20492326 -0.09003588 -0.078171596
-0.08190586 0.19285281 -0.07052329 -0.1548019 -0.15051407 -0.08595728 0.23794141 0.015212273
-0.17078705 -0.014165793 0.14666332 -0.33614966 0.1996936 0.042322945 0.08178222 -0.1520947
0.28759086 -0.108649194 0.27989095 -0.3098709 -0.042127416 0.30384555 -0.17116526 -0.21336001
0.34247965 0.08510456 -0.07824036 -0.2407642 0.32354444 0.37966603 -0.05812918 0.210049
-0.36437285 0.3233268 0.12688875 -0.02256226 0.11875985 0.35373765 0.20719318 -0.060099315
0.12683317 -0.12929024 -0.18803567 0.29299337 0.25948665 -0.28755543 -0.15052569 0.29085073
0.28578237 0.19203773 0.33808023 -0.3392244 -0.008420405 -0.051565703 0.2787492 -0.08949087
0.09336165 -0.014573729 -0.19378243 0.09302349 -0.19227815 -0.20096968 0.2926294 -0.29031447

fc2.weight f4 [128, 128]
00000000: b4e4 533e 3627 c3bc 88ad 0abb 3b8d 43bd
00000010: f4c3 26bd 1efd 4fbd 007f 94bd 7369 1abd
00000020: fccb 5ebb 201b 3e3d 53d5 16bd 7988 5e3e
00000030: f4e6 f6bc e2ef ef3d f449 243d 46de c93d
00000040: dbe6 ac3c 6662 163e fe7f 0a3d 15e8 d3bc
00000050: 06e5 033d bfed 6b3c bcf9 c33b 6e55 b9bd
00000060: b628 1dbe f305 cdbd 19a2 733d 8eb2 b53d
00000070: 6d8c cd3d 74cf 03be eb38 533d 61b7 e0bb
00000080: 55c1 a5bd aee5 95bd bb0d 57bd e77a 85bd
00000090: 3692 923d b3a9 f53c 36ee 353e 9f99 fcbc
000000a0: f18d 133e feb6 5bba b0dc 8e3d a105 363e
000000b0: c0b4 973c b2fb 1e3b 45a6 2ebd 209d a0bc
000000c0: 22df ba3b 80c6 83bd 974f c0bd c59d 1cbd
000000d0: ceb8 a53d aa3c b0bd 6db3 893d 9f3a 8fbc
000000e0: 55df c63a bd4e 3cbd 13fb 383d fe69 403b
000000f0: eab5 063e d30a 82be 5c4e d6bc c56f d83d
00000100: 3bc4 46be 7af5 d5bc cc24 c53c 99e1 1a3e
00000110: 96a9 b0bd aaae c33d 7933 85bc fbe9 88bd
00000120: 7463 8a3c 3834 f03c b7dd 03be f53e 653e
00000130: 0373 3ebc 2053 2c3e 35a0 f83d 830c 45bd
00000140: b4f8 adbc 08f1 6abe 6e17 74bc 27ba 0e3d
00000150: bc79 473e 5339 d6bc e17e 073d 317d b33d
00000160: f13c 023e 092b 223e 9abd 143d 5d5f 2a3c
00000170: a78b 6a3d f9e6 cebc baaa 49bd 0cbf 183c
00000180: 7762 463d 8dc1 8abd 9ef4 f8bb a015 2d3c
00000190: 47b5 cbbd 67f2 81bd 20c8 593e 3044 cd3c
000001a0: 1b89 f4bd bb4f 57bd 63fe f93d 7c49 29bd
000001b0: 2a0b 463e 8d70 ee3d cd8f 123e e97e 03bd
000001c0: 05a1 d0bd 7a26 9b3c e2b5 623e 4e2d 19be
000001d0: d1fe e2bc 2eb0 8a3d b8dc 963d ea83 94bd
000001e0: 1ae5 e6bd 08c6 a53d 99f2 343e f441 5c3d
000001f0: ca76 18be ecca 2ebd 6602 ff3d 0b6c 4e3d
00000200: 607b f5bd ffb4 693d d144 343d 4b07 b33d
00000210: c477 d7bd 3104 acbd 63a3 b4bd d719 1abd
00000220: a921 3dbd 9ff4 b43d 3859 b33d 3416 36bd
00000230: e1a8 b0bd c2aa 873d 532c 0cbe 52dd bf3d
00000240: bcf6 ab3d 7763 52bd f25c 8b3d 8e94 843d
00000250: a4c8 693d 5ca6 91bc 8988 13be d017 00bc
00000260: 683d aabc aa54 60bd 814b ea3c ec4f 253d
00000270: 41e4 24bd a328 1f3e 9d2a 89bc 0223 cdbc
00000280: 45dc b6bd 372b 45bc e758 2dbe a8dc ee3d
00000290: 1340 e3bb f03c 753e 1ac8 3dbe 8afb 04bd
000002a0: b0da 3b3e 9db9 d83d edac cf3c 08ce bfbd
000002b0: 4c6d b33d 5da2 9d3d e06f 1b3b 0503 1bbd
000002c0: 1944 49bd 4a1e a7bd 5b41 14be 661b a93d
000002d0: 31e9 a83d def0 9f3d 4cd6 473a 1f75 253e
000002e0: b0c9 84bd f2c3 b33d 0896 aa3d 1780 c13d
000002f0: b6ac 513c 9404 8c3e e810 233e eb3d b83d
00000300: 9847 463e 15eb bd3c b3bc a5bd f892 103e
00000310: 7624 483d 25c3 273e 165f ee3d 1deb f9bd
00000320: 98e2 af3d 6a11 ec3e 355a 763c ea7c f4bd
00000330: 568c 4e3d 007b 9bbd e794 c2bd 7f94 c5bb
00000340: b2b4 7bbd 8e93 843e c41c 86bd bf3c 02bb
00000350: 5718 6ebe ded3 573d 27d7 5abd bc08 d8bd
00000360: 1e72 c7bc 742b 0f3d 9989 bd3c d332 94bd
00000370: 7f48 d23d 000b 823c fe8a 96bd 0829 d63c
00000380: 13b8 dabb 5a6b 9e3d 54b1 9c3d 7a2e 353c
00000390: 5b5d c4bd 11d9 c0bc 8652 45bb e3db 5e3e
000003a0: 15b4 7d3e 4afd babc 6e40 8c3d b06b 563d
000003b0: 181a b33d fcb1 99be 760a 133d bacd 1cbe
000003c0: 5c76 b03d f6ee 90bd 427c ef3b 6f52 82bd
000003d0: fbf9 62bc 2ac6 31bd 27e6 733d 00d0 033d
000003e0: 56f2 13bd 7b11 3f3d 8f08 cdbd 8c8e 0a3d
000003f0: 9bdd 06be a87b 7d3d 3cf2 123d bdaf 65bd
0.20692712 -0.023822408 -0.0021160562 -0.04774211 -0.04071422 -0.0507785 -0.07250786 -0.03769822
-0.0033996096 0.046412587 -0.036824536 0.21731748 -0.030139424 0.11715676 0.04010959 0.098568484
0.021106174 0.14685974 0.03381347 -0.025867501 0.032200836 0.014399945 0.0059806984 -0.090494975
-0.15347561 -0.100109 0.05948076 0.08871947 0.1003655 -0.12872106 0.051567953 -0.006857798
-0.08093516 -0.073191985 -0.05250333 -0.065175824 0.07156794 0.029988145 0.17766652 -0.030834971
0.14409615 -0.0008381455 0.069756866 0.17775585 0.018518806 0.0024258909 -0.042639036 -0.019606173
0.005702869 -0.06434345 -0.093901806 -0.0382364 0.08091889 -0.08605321 0.06723676 -0.017484007
0.0015172759 -0.04597353 0.045161318 0.0029360051 0.13155332 -0.25398883 -0.026160412 0.10568193
-0.19410793 -0.026118029 0.024065398 0.15125121 -0.08626096 0.09554799 -0.016259896 -0.06685253
0.016893126 0.029321775 -0.12877546 0.22387297 -0.011624101 0.16828585 0.12139932 -0.048107635
-0.021236755 -0.22943509 -0.014898164 0.034845497 0.19480032 -0.026150381 0.033079986 0.08764113
0.1271856 0.15836729 0.03631363 0.010398713 0.05726209 -0.02525662 -0.049235083 0.009322893
0.048433747 -0.06775198 -0.00759752 0.010564238 -0.09946685 -0.06345063 0.21267748 0.025056928
-0.11940213 -0.05256627 0.122067235 -0.041329846 0.19340196 0.11642561 0.14312668 -0.032103453
-0.10186962 0.018939245 0.22139695 -0.14958689 -0.027709397 0.06771885 0.073663175 -0.07251723
-0.112741664 0.08094412 0.17670669 0.053773835 -0.14889064 -0.04267399 0.12451629 0.050396007
-0.119864225 0.057057377 0.04401094 0.087416254 -0.1052089 -0.08399237 -0.08820226 -0.0376223
-0.04617468 0.0883572 0.087572515 -0.04445477 -0.08625961 0.06624366 -0.13688783 0.093683854
0.0839667 -0.05136439 0.06804837 0.06473647 0.05707611 -0.017779522 -0.14407553 -0.007818177
-0.020781234 -0.054768242 0.028600456 0.040359423 -0.040256742 0.15542845 -0.016743952 -0.025041107
-0.08928732 -0.012034229 -0.16928445 0.116631806 -0.0069351285 0.23949027 -0.18533364 -0.03246645
0.18345141 0.10582278 0.025351012 -0.09365469 0.08761081 0.07696984 0.0023717806 -0.037844677
-0.04913721 -0.08160074 -0.14478056 0.08257179 0.08247603 0.07809614 0.000762318 0.1615796
-0.06483781 0.08777608 0.083293974 0.09448259 0.012797525 0.27347243 0.15924418 0.08996185
0.19363248 0.023183385 -0.08092632 0.14118564 0.048862897 0.16383035 0.1163923 -0.122030474
0.08588141 0.46107036 0.0150361555 -0.11937888 0.050426804 -0.0759182 -0.09501057 -0.006029665
-0.06145162 0.25893825 -0.06548455 -0.0019872633 -0.23251472 0.052692287 -0.05342784 -0.10548541
-0.024346408 0.03495355 0.0231369 -0.072362565 0.10267734 0.015874386 -0.073507294 0.026142612
-0.0066747754 0.077353194 0.0765101 0.011058444 -0.09588119 -0.023541005 -0.0030109002 0.21763568
0.24775727 -0.022825856 0.068482265 0.052348793 0.08745211 -0.30018604 0.03589865 -0.15312853
0.08616325 -0.07076828 0.007308514 -0.06363379 -0.013853545 -0.043401875 0.059545662 0.032180786
-0.03611978 0.04664753 -0.10011398 0.03382735 -0.13170473 0.061885506 0.035875544 -0.0560758

fc2.bias f4 [128]
00000000: 5f65 ac3d 2cb5 27bd f5e9 a3bd d90a 3fba
00000010: a7c6 b43c 94e8 cbbb 221e 05bd 61a1 83bd
00000020: 1292 23bd a2c4 393c 1d49 97bd ab72 aeb8
00000030: e1f0 8b3d 48f4 463c 28c5 30bd c2db c4bb
00000040: 8d54 1d3d eddf 703d aef8 f43b f46c 833d
00000050: 1678 553d d6a4 b03d 9628 973d 350d 163c
00000060: 23fe bd3c bfa5 a03d bd0e 0e3d 841c 403b
00000070: fcc9 803d 45ca 9dbd 243f 9a3c 2cdd 85bd
00000080: 824b 353d 422b 083b 34d8 5abd b4c5 e7bb
00000090: 9d73 5f3c 514f 843d 049a 5c3d 0e4c b93d
000000a0: 91b9 603d 11cb a7bd 21b5 d23c 7e15 3bbd
000000b0: f145 843a 2aaf e73c 422e ac3d 7f88 893d
000000c0: 55f7 ab3c c3cd a13c 8cda fd3c a217 17bd
000000d0: 500d d2bc b552 bf3b 497a 4dbd 637b 52bc
000000e0: c5d9 153d 127b 353d f0ef 3ebd ad0b 873d
000000f0: 53db e2bb df9b 9fbd 24cc 91bd 7552 543d
00000100: 8208 96bd 5fcc 073d dcaa 7a3c 082d 3abd
00000110: ce6d 4a3d 91c4 13bd 8deb 95bd 00d5 273c
00000120: 0373 9bbd 2c5f 84bd 44d4 803d dceb 123d
00000130: bf07 6ebd 92bb 823d 9a01 983d a419 123d
00000140: c1f6 4a3d 3144 48bd f85d 70bd ce91 663d
00000150: d5e9 0bbc 7a9c f7bc fbe3 113d c150 4abd
00000160: 5199 94bc f7ff 8c3c faf0 903c 32f7 9e3d
00000170: 2625 82bd 22fe 78bd f4e8 1f3d 54bc ea3d
00000180: a575 3cbd af98 723c 226b fd3d abcd 41bd
00000190: 81fc 613d 25d6 cc3d aeaa 58bc 1ec6 95bd
000001a0: 2e8c f03b 62db a73c 51de afbd 062c 813d
000001b0: 8f46 adbc 9e37 3bbd 1b00 613d 40f7 2abd
000001c0: 9156 353d cca6 353d 698f 06bd 0c88 57bc
000001d0: 6f57 903d 5cce e43c 431a 3f3d 534f 2abd
000001e0: 98c3 5abc 0603 1d3d 1e9a c5bc 545c a93d
000001f0: 741e 21bd 23f9 40bd eaff 28bc 0fbe 453d
0.084177725 -0.040944263 -0.08003608 -0.0007287688 0.022067381 -0.006222794 -0.03249944 -0.06427265
-0.039934225 0.011338385 -0.07386992 -8.318325e-05 0.068330534 0.012143202 -0.043156773 -0.0060076425
0.038410712 0.058807302 0.007475934 0.064172655 0.052116476 0.0862519 0.07380788 0.009158422
0.02319247 0.078441136 0.034682024 0.0029313872 0.062885255 -0.077045955 0.018828936 -0.06536326
0.044261463 0.0020777737 -0.053428844 -0.0070731286 0.013638404 0.06460441 0.05385782 0.090477094
0.05486447 -0.08193029 0.025721135 -0.045674793 0.0010091645 0.028281767 0.084072605 0.06715488
0.02099196 0.019751435 0.030988 -0.036887772 -0.025641114 0.005838717 -0.05016545 -0.0128468005
0.036584634 0.044306822 -0.04661554 0.06594024 -0.006923118 -0.07793402 -0.07119015 0.05183645
-0.073258415 0.033153888 0.015299525 -0.0454531 0.049421124 -0.036076132 -0.07320318 0.010243654
-0.07590296 -0.06463465 0.062904865 0.035869464 -0.058112856 0.063834324 0.074221805 0.035668984
0.04955173 -0.048893157 -0.058683366 0.056291394 -0.008539637 -0.030225981 0.03561781 -0.04939342
-0.018139513 0.017211897 0.017693032 0.077619925 -0.06354742 -0.060789235 0.03904052 0.11461702
-0.046010632 0.01480691 0.123739496 -0.04731528 0.055172447 0.10001782 -0.013224287 -0.073131785
0.0073409295 0.020490352 -0.08587325 0.06307225 -0.021151809 -0.045707338 0.05493174 -0.041739702
0.04427201 0.044348523 -0.03285161 -0.013154995 0.07047927 0.027930431 0.046655905 -0.041579556
-0.013352297 0.03833296 -0.02412134 0.08269563 -0.039335683 -0.047112595 -0.010314921 0.048276957

fc3.weight f4 [128, 128]
00000000: 6f7a 043d 989d 093d 2d09 063c 7438 14bc
00000010: 37ed a0bd aa49 a739 068c cd3b ebeb 483c
00000020: a98f 883d e9f9 213d 5e39 b7bc e658 943d
00000030: b6e2 7bbd a1b1 113d 5376 49bd f79f 5f3d
00000040: 21b9 a83d 114f dabd cc0f 94bd b402 a13b
00000050: c9f6 19bd 211c 88bd 3c33 c2bd 4d92 21bd
00000060: ac4b e6bd 3322 58bc 0a57 2d3d 412a f93d
00000070: 8a63 bb3a 7c9b 5f3d dfdb 983d bddf 493d
00000080: 7179 ad3d ca61 353d e353 b8bb eb6e 7bbc
00000090: 238f 87bd 53bc d13d 7b53 263b 468f 6d3d
000000a0: af85 853d a3ae 54bd c836 043e 1068 c8bc
000000b0: 7ee3 c33d 27dc c8bd e653 cfbc b262 133e
000000c0: 1698 e03c bac4 c1bd 6046 af3c f69f 58bd
000000d0: 1ea3 463d 83df 3fbd d0cf 42bc 3341 9dbc
000000e0: ac8f bebc b1ce ba3b db52 d43c 6ba5 cabd
000000f0: 6920 903c 6196 3cbc c419 913d 0f76 aebc
00000100: a8af 4b3d 9c91 c0bc eb25 f83c d1af 823d
00000110: 8aae 15bd fe90 aabd 471c 7ebc 2a16 a9bd
00000120: 91fd 19bd e2aa 93bd 69c3 9dbd ecc2 893d
00000130: b433 ad3c 4704 1c3d 8b0c abbc 0360 26bd
00000140: 4af5 a43d 9cfc a3bd 827c b3bc 175e dbbc
00000150: 4d2e 593c a62e 923d 1dca 033e d37c b23d
00000160: ebc5 e3ba d343 e03c f629 093e da20 863d
00000170: 8a30 1fbd 3158 4e3d 210c 47bc 4283 a03d
00000180: 98be 0ebd f10b 883d bfdc 2a3d 17f4 cc3c
00000190: 2364 193d d6d0 b23c 304a 27bd 9fc6 2ebd
000001a0: d110 28bd e9c6 f43c 5b56 913d ce90 563d
000001b0: dd1a 733d 4c0a 2d3d 3ca5 093e 978b f33d
000001c0: 8b06 023d afc8 a63c 7fa0 21bc cb36 413c
000001d0: 7f27 1cbd 15bf 44bc c6b7 973d 2dc1 29bd
000001e0: bc2b 943d 2666 a93d 98e5 103e 24ee 15bd
000001f0: 2aa5 0fbd c094 f93c 3a67 773d 87a4 bb3d
00000200: 85bc a13d 4e2f 163e d38a 2cbc adb5 a63d
00000210: b830 743d aa1b f83d 1323 e9bd 079c 8b3d
00000220: a2a2 afbc 601c e8bd 64b8 3d3d 24a5 85bd
00000230: 30e8 763d cd6e 16bb 6589 ba3c f68a d43c
00000240: 96da eabc bb28 eb3d 21b7 4abd e6a7 67bd
00000250: 5ce7 57bd c076 4c3d 884f 3bbe e9e9 883d
00000260: e8f0 053e b071 5cbd d55a d03c 3b3c d3bd
00000270: 854c 07bd 2949 e43c 0151 f03c 3031 8abd
00000280: ac8c bebb fb57 e8bc 49d4 85bd 5d52 e73d
00000290: 3ddf 08bd 8402 91bd 4d56 b33d e861 623d
000002a0: 5802 1a3c 0e20 bb3c 6452 a53c f46f 443d
000002b0: de99 d2bd ae4c 6ebd 2a6b 883c 1bc5 413d
000002c0: c87e d6bd 66c1 3f3d 1985 0fbe 4d81 7a3d
000002d0: bf95 c1bc 0bfe 05bd 321c 66bd af10 6b3d
000002e0: 242e 4f3d ef8b 4b3b 8472 d1bc 5ce5 ab3d
000002f0: feb0 293b 9ace 323d 80ee d9bc 48b4 1c3b
00000300: 4933 09bd 4e1e c2bd a65c 20bd 82ae a3bc
00000310: 94f6 8dbd 4848 973d f399 983c 1eda 07bd
00000320: 98e7 b4bd 7e19 73bc baa0 56bc a15f 71bc
00000330: 0d5e acbd ea29 c23b 8c34 0e3d 02fa b83d
00000340: 7726 a7bd 1d49 883d c5d4 c9bd 2888 f53c
00000350: f979 cf3b 9e6e a3bd 57c1 8d3d 1cb0 d3bc
00000360: f9d1 3cbc 6c33 bf3c 5f23 e93c 0dd8 d9bb
00000370: 5769 043d b45a b7bc 561e 383d 0119 b6bd
00000380: 8717 733e 6763 95bd 7d53 4dbc a1af e63d
00000390: e32b 54bd 87b1 5f3d ac18 a53d bf39 27bc
000003a0: e596 47bc ef1a e7bd 9f44 673d 8c03 813d
000003b0: 23bd adbd 5346 b0bc 52bd 3b3d bd17 82bd
000003c0: cc89 583e 28bc 82bb 2f92 8bbd 853d e43d
000003d0: cb0f 053e 9f31 823d 9d4e 5b3d 46a2 cd3c
000003e0: c399 ffbd d0d9 443d da3c 483c 7ddf 85bd
000003f0: 7ebe 8ebd e944 8a3d 8432 66bd 4dc8 dd3b
0.032343324 0.03359756 0.008180899 -0.009046663 -0.07857745 0.00031907606 0.0062727956 0.0122632785
0.06668026 0.039544974 -0.022366222 0.072435185 -0.061495505 0.03556979 -0.04918511 0.054595914
0.082384355 -0.10659612 -0.072295755 0.0049136523 -0.03758887 -0.0664599 -0.094824284 -0.039446164
-0.11244902 -0.0131917475 0.042319335 0.121662624 0.0014296633 0.05459164 0.07463812 0.04928564
0.08470429 0.044282712 -0.0056252345 -0.015346269 -0.06619098 0.10240998 0.0025379348 0.057997964
0.06519639 -0.05192436 0.12911522 -0.024463683 0.09564875 -0.09807616 -0.02530856 0.14393118
0.02741627 -0.09461351 0.021395862 -0.052886926 0.048495404 -0.046844017 -0.011890367 -0.019196128
-0.023261867 0.005700909 0.025918415 -0.09894832 0.01759358 -0.0115104625 0.070849925 -0.02129653
0.049728066 -0.023506932 0.030291518 0.063811906 -0.036543407 -0.08328436 -0.0155096715 -0.082561806
-0.037595335 -0.07210328 -0.07703287 0.067266315 0.021142818 0.038090017 -0.020880004 -0.040618908
0.08054598 -0.08007166 -0.021909956 -0.026778264 0.013255668 0.07137804 0.12870069 0.087152146
-0.001737771 0.027376091 0.13394913 0.06549235 -0.03886465 0.050377075 -0.012148888 0.078375354
-0.034849733 0.06642903 0.041714426 0.025018735 0.037449013 0.021828096 -0.040842235 -0.04266989
-0.041031662 0.029880004 0.07096549 0.05238419 0.05935179 0.042246148 0.13441938 0.11891859
0.03174452 0.020359365 -0.009864925 0.011792849 -0.038123604 -0.012008448 0.07408099 -0.041443992
0.07234904 0.082714364 0.14150083 -0.03660406 -0.035069622 0.030466437 0.06040118 0.091622405
0.07897285 0.14666483 -0.010531145 0.08140121 0.059616774 0.121146515 -0.11383643 0.06816869
-0.021439854 -0.11333537 0.046318427 -0.06525639 0.060280025 -0.0022954226 0.022770593 0.025945168
-0.028668683 0.11482378 -0.04949105 -0.056556605 -0.052710876 0.049917936 -0.18292058 0.0668524
0.1308018 -0.05381936 0.025433937 -0.103142224 -0.03303196 0.027866917 0.0293355 -0.06747663
-0.0058151092 -0.028362265 -0.06534631 0.112950064 -0.03341602 -0.07080558 0.08756695 0.055269152
0.009399973 0.022842433 0.020180888 0.04795833 -0.10283254 -0.058178596 0.016652662 0.047307115
-0.104734 0.0468153 -0.14015616 0.061158467 -0.023630975 -0.032712977 -0.056179233 0.057388958
0.050581113 0.0031058749 -0.0255673 0.08393356 0.002589285 0.04365406 -0.026602983 0.0023911167
-0.033496175 -0.094784364 -0.039150856 -0.019980673 -0.06931797 0.073868334 0.018628096 -0.033166997
-0.088332355 -0.014837621 -0.013099844 -0.014732272 -0.08416376 0.0059254067 0.03471808 0.0903206
-0.081616335 0.0665457 -0.09855036 0.02997215 0.006331679 -0.07980083 0.06921642 -0.025840811
-0.011524671 0.02333995 0.028459249 -0.0066480697 0.032327022 -0.022382118 0.044950806 -0.08891488
0.23739444 -0.0729435 -0.012532112 0.11263967 -0.051799666 0.054612663 0.080613464 -0.010206639
-0.012181972 -0.11284434 0.056461927 0.06299505 -0.084833406 -0.021517908 0.045834847 -0.06352184
0.21146315 -0.003989715 -0.06814992 0.111445464 0.12994306 0.06357121 0.05354177 0.025101792
-0.124804996 0.048059285 0.012221539 -0.06536768 -0.06969927 0.06751425 -0.05620052 0.0067682625

fc3.bias f4 [128]
00000000: 6f02 0f3e c810 943d 6a71 c8bd bbcc 4e3d
00000010: 1131 e93d 54ec b43d f38b 83bc 9c6c f13d
00000020: 3293 dc3d e232 88bb 6e25 483c 1cdb a73d
00000030: 68d0 28bd 870c 9dbd e007 aebd 7576 0d3d
00000040: 5c8b 11bd 407a 023e 91e4 d6bd b584 193d
00000050: 8555 03bd 5eda 1bbd f3dc 1d3d 5b47 79bb
00000060: 6dac f73d b220 5dbd 3a4b 383c 94fa e6bc
00000070: 7ce6 76bd 5521 1b3d 5f65 21bd 0ed2 b13c
00000080: 88d4 f43d cb89 ac3d a743 b1ba 816b 5dbd
00000090: f365 92bc e5cd 02bd 33ed 95bd 9b1d b13b
000000a0: 74b5 e93d 5885 e73d a4cc 073d e302 a0bd
000000b0: 7d22 a33d 83a2 393d 0768 813d 1bde 853d
000000c0: 3271 b5bd daf1 1d3c 600b 8f3d 19ed 82ba
000000d0: e234 dcbc bffa aebd 0005 71bb ddfa ea3d
000000e0: 56da 44bc 700f 49bd 9fb9 663c 1389 a6bd
000000f0: 16c6 413d 1e7c 443d d298 053d 8aaa 08bd
00000100: 0cce 233c 2630 753d c66a 433d 14e9 cd3d
00000110: c2de 3f3d 7913 e8bb 7984 033d e597 00bc
00000120: d34b 81bd ed86 3e3d f561 a3bd b6f2 033e
00000130: c943 8cbc e416 0d3d 3bda 8bbd 96f0 99bd
00000140: b2cb fc3d a6c7 b03c 1c3a a4bd 7ad0 f43d
00000150: 4ce6 78bd e64e 0ebc 0b96 b13c 738e 083d
00000160: 3f7a 213c 6303 c2bd 7dd0 52bd 2bc6 4cbd
00000170: 0a14 e7bc d586 9c3c e5e8 923c ded6 c33d
00000180: 8911 383c 91b6 bf3c a91b f5bc 20c4 dc3d
00000190: 1989 99bd 1f67 ea3d 0565 093d 554b 62bd
000001a0: adc8 1bbd 00d4 473c 9296 073e 00d0 033e
000001b0: 344a 4e3c 41da 3c3d 0ceb 7abc f681 1b3d
000001c0: 94f3 8ebd 6fd0 02bc d8b6 c5bc cf19 03bc
000001d0: ebd9 393c 31d2 40bd ecab aa3d 5690 763d
000001e0: d946 adbd 269f 3a3d 7872 2bbd ddf0 b9bd
000001f0: 213d 7a3d b21d 613d fdd0 3e3b 4e46 db3d
0.13965772 0.07229763 -0.09787257 0.050488215 0.11386312 0.088341385 -0.016057944 0.11788294
0.10770263 -0.0041564563 0.012215955 0.08196089 -0.041214377 -0.07668405 -0.08497596 0.034536798
-0.035533294 0.12741947 -0.10492814 0.037480075 -0.03206398 -0.038050048 0.03854079 -0.0038036916
0.120934345 -0.05398626 0.011248404 -0.028195657 -0.0602784 0.037873585 -0.039403316 0.021706607
0.119545996 0.084247194 -0.001352419 -0.0540576 -0.017870879 -0.031934638 -0.07320633 0.0054051406
0.114115626 0.1130473 0.033154145 -0.078130506 0.079655625 0.045321 0.0631867 0.06536504
-0.08859481 0.009640181 0.069845915 -0.0009988873 -0.026880685 -0.0854392 -0.0036776662 0.114736296
-0.012014946 -0.049086988 0.014082341 -0.081316136 0.04730805 0.04796993 0.032616444 -0.033365764
0.009997856 0.05986037 0.04770925 0.10054222 0.046843298 -0.0070823994 0.032108758 -0.0078487145
-0.063132904 0.046515394 -0.07977668 0.12885556 -0.017122166 0.03444566 -0.068287335 -0.07516591
0.12343539 0.021579575 -0.08018896 0.11953826 -0.060766503 -0.008685803 0.021677991 0.033338975
0.009855806 -0.09473302 -0.05146836 -0.049993675 -0.028207798 0.019107262 0.017933318 0.09562467
0.011234649 0.023402484 -0.029920416 0.107795954 -0.074968524 0.1144545 0.033543605 -0.055247623
-0.038033176 0.012196541 0.13241032 0.12872314 0.012590934 0.04610658 -0.015314829 0.037965737
-0.069800526 -0.007984265 -0.024135038 -0.008001759 0.01134346 -0.047075454 0.08333573 0.060196243
-0.08460779 0.045561932 -0.041857213 -0.09079144 0.061093453 0.05495996 0.0029116266 0.10706769

fc4.weight f4 [2, 128]
00000000: 7834 04be 1976 123e 651f 093c 2a58 c73d
00000010: d7c4 eabd 53f1 c0bd 9106 553d 1722 3fbd
00000020: 26ea ddbd a39d 98bd ad54 333e 5e4a 2dbe
00000030: 4155 933d 40e6 733d c4f3 b3bd e1b6 01be
00000040: 9c08 f03d 190f b5bd f132 5abd 3e4e ce3b
00000050: 915f d0bd c945 88bd 33b6 cdbd bdc0 ea3d
00000060: 47ab d7bd a500 f3bb c7e9 42be b112 f43d
00000070: 10af c4bd 7c5f 17be b7c7 c33d 71de 173e
00000080: e5a2 c2bd c291 b8bc 5ec3 c5bd 9ed9 af3c
00000090: 83b6 c83d c935 d33d e201 4bbd d910 91be
000000a0: 5f80 f7bd 15b2 4bbe 463c 51bd 5a00 6e3b
000000b0: fd59 c43d 142a b5bd 22f7 acbd a8c4 d0bd
000000c0: 1e06 c5bc 1a7d 8e3d c01d 10bd 5d5a d2b9
000000d0: 8a87 073e 09d9 813d 2bbc 013b 3726 b0bd
000000e0: 5481 47be 8b1b 0dbe 301f 123d 4aca 7abd
000000f0: f3da b13d fd52 86bc 786e 59bd 81d1 4ebb
00000100: 500c 043e c689 cebd 30bb f1bd 2be8 c6bd
00000110: 2904 12be 8ea7 0a3e 722f 00be 1c5f e9bd
00000120: 3411 8a3d 05ab b03d dd1d 9ebd b4b9 13be
00000130: 0ea6 18be 8aa7 29be 33e6 d13c 6b74 8ebd
00000140: 1882 e9bd b88b ed3d aa18 083c 69b1 d8bd
00000150: a4e1 c3bd 3876 183e 0b3c 16be fb16 3abd
00000160: 2d70 993d 8875 863d 7201 b5bd 2f5a 953d
00000170: c116 0dbe ff32 d13d 2521 193c 090c bcbd
00000180: 2a56 88bd bb0a 09be 73e1 233d 1099 c7bd
00000190: 81e0 823d eb34 ddbd 70e2 18be 22e0 1abe
000001a0: 0a2f 173e b7a5 c33d f140 38be 1c37 7cbe
000001b0: f000 1dbe 4a05 82bd 6fba 27bd 48f7 2dbe
000001c0: 14cd b63d 779b 03be d637 abbc d31e 3abd
000001d0: 52d6 083e d37f 81bd fe06 a6bd 1144 a33d
000001e0: d464 ecbd a068 c13c 03a6 5bbb eb6a 913d
000001f0: cc7e 08be 93ec ca3d 44fc 1ebe be06 03be
00000200: bf29 f5bd f5a5 093d 57ea ac3b e285 d63c
00000210: b3e0 a9bd e44d acbd f49a 85bd c4c5 c1bd
00000220: 9511 4ebe 7f78 53be 3e51 013e b706 f3bd
00000230: 1b45 4c3d c5f1 e23c e583 803e edf3 2dbe
00000240: 330c 2cbc 3353 22be e776 c53d a20f c5bd
00000250: a800 f83d f9bb 54bd f56c d8bd c51e 74bc
00000260: 0c10 01be 729e 92bc 4627 1ebe 95d0 763d
00000270: 3296 983d 672b 2e3d 4598 5dbd 2b71 f63d
00000280: 580e 22be ffd2 d4bd 4f91 a43e a425 0f3b
00000290: e774 433e 96ca 403d 7c91 1c3d 409f 4dbe
000002a0: 6d1d a2bd 35d9 54be 0732 2a3d 9e1b d1bb
000002b0: 88bb 68bd c742 bcbd ad9d adba c6bb 8ebd
000002c0: 9d7e 13bd 1468 d03c ef23 dabd 3f66 11be
000002d0: cc4a de3d fb51 f43b 6e18 8bbd 849c 42be
000002e0: 6a51 cfbd 39d2 a33d 6ede babd cd82 973d
000002f0: 39ca 6a3d eef2 47be 0015 a8bd 669b 113c
00000300: 45f2 1b3e c8c8 96bd ac16 0dbe 2ec0 4dbd
00000310: a823 b5bd a62d fe3d de5b bc3d d94d b33c
00000320: b3a3 b43c d694 223e 8f24 a0bd a37a 0ebe
00000330: d79f 5b3c 1693 dabd cb06 6b3d 1e73 40be
00000340: 0989 a6bd 4789 b83d 79e6 4c3d f721 35be
00000350: 41a0 e63d f1e4 ad3d 6781 1dbd b18d b8bc
00000360: a13f 163e fdbe 313c d045 f13c 4be7 54bd
00000370: 501e f2bd 1bbb 8a3d e95d 6d3e 1eda 02bd
00000380: d7d8 bc3d bf4b 53be 219c febc 2824 14be
00000390: fda7 b6bc 3618 95bd 6a17 583d 9ffa dd3d
000003a0: 3a69 56be 24f7 6a3e f9eb 32be 2100 29be
000003b0: a01a 763e 6cee 23be 9dda 0abd 675e a1bd
000003c0: 54e2 343e 7314 8e3d 933e 77bd f92f 75ba
000003d0: 357a 813d 02a7 293d c2f1 84bd 8f24 a43a
000003e0: 5186 723e 7a13 43be 3235 9c3c 7435 503d
000003f0: a10f a7bd de5d 233e 8512 4cbd 3b91 86bd
-0.1291064 0.14302863 0.008369301 0.09733613 -0.114633255 -0.09421029 0.052008215 -0.04666337
-0.10835676 -0.07451942 0.1751277 -0.169229 0.07193995 0.059545755 -0.08786729 -0.12667419
0.11720392 -0.0884077 -0.053271238 0.0062959483 -0.10174478 -0.066539355 -0.10044517 0.11462543
-0.105307154 -0.0074158483 -0.19034491 0.119176276 -0.09603703 -0.14782518 0.09559577 0.14830948
-0.09503726 -0.02253044 -0.09656404 0.021466073 0.09800436 0.10312993 -0.049562342 -0.28333166
-0.12085032 -0.19892152 -0.05108287 0.0036316128 0.095874764 -0.088459164 -0.08445574 -0.10193759
-0.024050768 0.06957455 -0.03518462 -0.00040121647 0.13235298 0.06340224 0.0019795995 -0.08601039
-0.19482929 -0.13780038 0.035674274 -0.061228074 0.086843394 -0.016396994 -0.053083867 -0.003155798
0.12895322 -0.10084872 -0.11803281 -0.09712251 -0.142594 0.1354048 -0.12518099 -0.11395094
0.067415625 0.086263694 -0.0772054 -0.14426309 -0.14907095 -0.16567817 0.025622463 -0.06955799
-0.114017665 0.11598915 0.008306662 -0.10580713 -0.09564522 0.14888847 -0.14671342 -0.045432072
0.07492099 0.06565386 -0.08838166 0.07292592 -0.13778211 0.10214805 0.009346281 -0.09181983
-0.066570595 -0.13383 0.040009927 -0.09745991 0.06390477 -0.10801109 -0.14930129 -0.15124562
0.14764038 0.09553092 -0.17993523 -0.24630398 -0.15332389 -0.06348665 -0.04094928 -0.16988862
0.08925834 -0.12852274 -0.020900648 -0.045439553 0.13363007 -0.06323209 -0.081068024 0.07971967
-0.11542669 0.02360946 -0.0033515699 0.07100471 -0.13329619 0.09908404 -0.15525919 -0.1279554
-0.11970853 0.033605535 0.005276959 0.026186887 -0.08294811 -0.08413294 -0.065236956 -0.09461549
-0.20123895 -0.20651434 0.12628648 -0.11866515 0.04987059 0.027703175 0.25100628 -0.16987582
-0.010500955 -0.1585205 0.096418194 -0.09622122 0.121095 -0.051937077 -0.10567657 -0.014899914
-0.12603778 -0.017897818 -0.15444669 0.060257513 0.074505225 0.04252186 -0.054100294 0.12033304
-0.15825784 -0.10391807 0.32142112 0.0021842504 0.19087563 0.0470682 0.038224682 -0.2008028
-0.07915769 -0.20785983 0.041551616 -0.006381466 -0.05681947 -0.09192424 -0.0013245844 -0.06969409
-0.03600942 0.025440253 -0.10651385 -0.1419916 0.1085411 0.007456062 -0.06791769 -0.19005018
-0.101229504 0.07999081 -0.09124456 0.07397995 0.05732176 -0.19526264 -0.082071304 0.0088871475
0.15229137 -0.07362515 -0.1377818 -0.050232105 -0.088446915 0.124110505 0.0919721 0.021887707
0.022050714 0.15877089 -0.07819473 -0.1391397 0.013404808 -0.10672586 0.057379525 -0.18793914
-0.08131606 0.090105586 0.050024483 -0.17688738 0.11261035 0.08490933 -0.038453486 -0.022528501
0.1467271 0.010848758 0.029452235 -0.05197839 -0.11822188 0.06773969 0.23180355 -0.031946294
0.092210464 -0.20634364 -0.031080307 -0.14466918 -0.0222969 -0.072800085 0.052756704 0.10838818
-0.20938578 0.22945839 -0.17472829 -0.16503955 0.24033594 -0.1600892 -0.033899892 -0.07879334
0.17664462 0.06937494 -0.06036241 -0.0009353157 0.06322137 0.041419037 -0.06491424 0.0012523102
0.2368405 -0.19050398 0.019068334 0.050832227 -0.08157278 0.15953776 -0.04982235 -0.06570669

fc4.bias f4 [2]
00000000: 8714 a7bd 06f3 e63c
-0.08158212 0.028192054

fc1.weight f4 [128, 7]
00000000: a151 913e e314 dfbe 9098 2d3e 7283 6c3e
00000010: 13be 71be 1b6f 323e 33eb 793e b6c4 963d
00000020: 5c44 a03e 154b f4bc c03a 773e bdaa 923d
00000030: 48f6 b03d 11c6 043e f88b b6be 8ade dd3d
00000040: f560 1fbe 1469 b6be ee36 95be 0e18 0ebd
00000050: 5936 e83c 58ea 8ebe c993 8f3e 6f18 333d
00000060: 7b15 4d3c 0537 0cbe c542 763c 827b c93e
00000070: b7cf f9bc fe04 a03e 5c79 e9be e901 28bd
00000080: 3cdd b0be 557b 523e 1212 c63e 42c5 a23c
00000090: 487a 0f3e 5ddb 793e 86ff 91be f367 9e3d
000000a0: 1353 adbe 1e7d cbbd 6a78 063e 5f59 85be
000000b0: 3d31 023e 1ea0 6bbe bb1b 0cbe c3e7 babe
000000c0: 9c78 69be fa22 ec3b 43c4 f73d 45d8 a8be
000000d0: d84e afbe 2722 0e3e 228e 493e 23cf b93e
000000e0: b3aa 03be d221 263e 1fb7 cc3e b9d6 153e
000000f0: f7be 96be 263a d13e c002 263e 9a79 30be
00000100: 0a05 99be 483f 913e 8f4a b1bd 6063 69be
00000110: 33bb 49be 6b18 fa3d cf6f 203e 056a d33e
00000120: f85b 40bd 4127 b13e a601 c33e 45fd 86bd
00000130: 123f eebe d943 f13d ca9c 49be fbbb 733d
00000140: f1c4 43be 0a0a 26bf eb8a e53e fbde 85be
00000150: 9cb8 213e cf95 bcbe bcec b53e 17d3 36be
00000160: 113f b53e 261a 8dbe 09c7 42bd 772e 9b3e
00000170: 9846 b33e 48c9 43be 2d25 8ebe e533 983e
00000180: 8595 1e3e bade 43be 2e35 4a3e 4980 a1be
00000190: 56ef 06be 679a fabd d31c 373d f55b c73e
000001a0: 026e edbd ec65 033e 3b22 33be 0948 743e
000001b0: 971e 5c3e 58ef ffbd 35bb c93e c1ed 28be
000001c0: 62be 503d f230 623e 1f81 b4bd e061 d1be
000001d0: c9e5 013d 92e7 77be d6ca 7e3e 9cb9 f83e
000001e0: 31dd 683e b4f6 9b3e f8fd 43be 913b adbe
000001f0: 4ad1 003e 7883 4cbe dacb da3d d1ec ecbd
00000200: c21f 26bf e7ba a23d 6c76 d2bb c601 c0be
00000210: 6a15 c73d 0610 923b fc20 81be e7ed 0bbe
00000220: 70c0 003e 55bb 98be 2e75 3ebe 0bd3 2fbe
00000230: aa2d 43be 0cdc 3abe d0d3 3e3e 1ee2 d1bd
00000240: 1616 8cbe b0d5 763e ac11 a7be cb7e 38be
00000250: 6fb2 aabd b39c 9dbe bff7 e9bc 5504 8ebe
00000260: 17b7 de3d 4e8c 06be 4dcb 373e 25f0 a13e
00000270: 6019 46be 9e2b 16be 9a6c 2cbe e025 f4bd
00000280: 4c70 8a3e dcc5 f8be 8183 29be 5551 90bd
00000290: 0a42 1d3e 2089 af3e bc0e 913e a79a dbbe
000002a0: cf39 063e f74d c1be d08a 66be ae55 ce3d
000002b0: 8a51 0a3e 64fd 5e3c 9b38 593d 61a8 f03c
000002c0: fcd8 973c 094e 04bf e85f 7fbe 783d 20bd
000002d0: ef7c c7be 59f9 1b3e 5459 c73d 9451 ed3d
000002e0: e057 80be f022 133e 7eb0 8e3e bc88 8b3e
000002f0: 4be9 29be 6c24 85bd c90c 6dbe 63d5 c63e
00000300: dc04 86be 536e b1be e8b7 1b3c 6e9d 7bbe
00000310: 3037 853e ef56 223e 02f2 ccbd 961a 03bc
00000320: 3df2 59be 6ea9 f93d 3772 0a3e 9adf 9bbe
00000330: cab7 33be 13f5 953e a76c 3dbe 102f df3e
00000340: a4a8 26be 2eb7 1abe 73af b8be a349 ae3e
00000350: 5d1c c1be 06a1 18bd 9e71 733d ff07 d53d
00000360: 637f 54be 57df b1bd 5426 31be dfd8 52bd
00000370: 496c 18be 7761 babe 6596 3a3e 0e2e 52be
00000380: 7d85 48be 935d 823e 4936 19bf 479c 783e
00000390: d341 9c3e 7fea 1d3e a66c cc3d 54ce 5f3e
000003a0: 1d2e 27bd 5bc3 e7be 19af aebd dccc be3e
000003b0: b5b0 3f3c f832 ba3e 6709 5ebd 3bb8 cbbd
000003c0: 9438 1dbe a2f7 05be 7ca7 94be 141c f8bd
000003d0: d75c e73e 3b02 7d3e 5aa0 ea3e b19b 88bd
000003e0: e811 743e f0d2 733e 3fcf a13e 4120 983e
000003f0: 8a1d 92be 931e b03e 8027 a83e 9623 903e
0.2838259 -0.43570623 0.16952729 0.23097017 -0.23607664 0.17425196 0.24406128 0.073617384
0.31302154 -0.029820958 0.24143505 0.07161472 0.086407244 0.12966181 -0.35653663 0.108334616
-0.1556433 -0.35627043 -0.2914347 -0.03469091 0.028346227 -0.27913165 0.2804244 0.043724474
0.012517328 -0.13692863 0.0150305675 0.3935204 -0.030494554 0.3125381 -0.45600402 -0.041017447
-0.34543788 0.2055486 0.38685662 0.01986945 0.1401149 0.24400087 -0.2851526 0.077346705
-0.33852443 -0.099359736 0.13131872 -0.26044747 0.12714095 -0.23010299 -0.13682453 -0.36504945
-0.22799915 0.007206318 0.12097981 -0.329775 -0.3423984 0.13880216 0.19683126 0.36290845
-0.12858085 0.16223839 0.3998346 0.14632691 -0.2944257 0.40864676 0.16211987 -0.17233887
-0.29886657 0.28368592 -0.08656799 -0.22791815 -0.19700317 0.122116886 0.15667652 0.41291824
-0.04696271 0.3460026 0.38087195 -0.06591276 -0.46532494 0.11780519 -0.19688717 0.059505444
-0.19118096 -0.6485907 0.44832548 -0.26146683 0.15793079 -0.36833045 0.35532176 -0.17853962
0.35399678 -0.27559012 -0.047553096 0.30308887 0.35014796 -0.19119751 -0.27762738 0.29727092
0.15486725 -0.19127932 0.19746849 -0.31543186 -0.13177237 -0.12236481 0.044705223 0.38937345
-0.11593248 0.12831849 -0.17493527 0.23855604 0.21496044 -0.12496823 0.3940064 -0.16496946
0.050962813 0.22088984 -0.088136904 -0.40894985 0.03171328 -0.24209431 0.24882063 0.4857911
0.22740628 0.30461657 -0.1913985 -0.33834508 0.12579837 -0.19972026 0.10683413 -0.11568607
-0.6489221 0.07945805 -0.0064228084 -0.37501353 0.09720881 0.0044574765 -0.25220478 -0.13664971
0.12573409 -0.29830423 -0.18599388 -0.1717035 -0.19060388 -0.18248004 0.18635488 -0.102482066
-0.273606 0.24104953 -0.3263067 -0.18017118 -0.08334815 -0.30783615 -0.028560517 -0.2773768
0.10874765 -0.1313946 0.17948647 0.31628528 -0.19345617 -0.14665076 -0.16838303 -0.119212866
0.270388 -0.48588455 -0.16554071 -0.07046763 0.15357223 0.34284306 0.28331554 -0.42891428
0.1310799 -0.37754795 -0.2251389 0.10074936 0.13507667 0.013610218 0.0530325 0.029377164
0.018536083 -0.5168157 -0.24938929 -0.03912112 -0.38962504 0.15231837 0.09733835 0.115878254
-0.25067043 0.14368796 0.27869028 0.27252758 -0.165929 -0.065010875 -0.23149408 0.38834676
-0.26175582 -0.34654483 0.009504296 -0.24571773 0.26018667 0.15853475 -0.10007097 -0.008001944
-0.21283813 0.12190519 0.13520132 -0.30444032 -0.17550579 0.2928854 -0.18498479 0.43590593
-0.16275269 -0.1510894 -0.36071357 0.34040555 -0.37716952 -0.03726294 0.059434526 0.10401916
-0.20751719 -0.08685177 -0.17299777 -0.051476356 -0.14885058 -0.36402485 0.18221433 -0.20525381
-0.19582172 0.25462016 -0.5984846 0.24278365 0.3051897 0.15421484 0.099816605 0.21856052
-0.04081546 -0.45266232 -0.08529491 0.3726567 0.011699845 0.3636701 -0.054208186 -0.099472485
-0.15353614 -0.13082746 -0.2903403 -0.121147305 0.4518802 0.24707882 0.45825464 -0.06670321
0.23834956 0.23810935 0.3160343 0.29712108 -0.28538162 0.34398326 0.32842636 0.2815215

fc1.bias f4 [128]
00000000: 0aa2 8dbe 729b 403d ad3f d33d 5883 c5bd
00000010: 6fb9 a73e 3307 aebe 4072 203d 6df8 483e
00000020: 9850 79bc 5be1 7fbd c94c 293e ef80 e43d
00000030: 50c3 c4be 8286 88bd ddfd 64be 232f 84be
00000040: 6bcb 04be 6020 89be 92d0 793e 9b05 883d
00000050: 2c60 5ebe 273f 9abd e868 5a3e 2a06 373d
00000060: 7d5d bdbd 9f2a 553e 2d51 a63e 1a84 ad3e
00000070: 44af 6d3d ccc0 7f3e f74f 61be 0e75 b1be
00000080: f4ca 90bc 6a06 db3d d51b f539 9567 a53e
00000090: fb0e 8b3e d627 4d3e 177c 203d f160 043c
000000a0: 3d2c a23e ae1d 8e3e 7408 1b39 082a ce3e
000000b0: 84f2 01be a56a 653e 3411 5b3e ab39 4b3d
000000c0: 623d a9be 5f05 053e badb 623b 7f08 bdbe
000000d0: d2cf 51be 1ef8 dabe 395f a2bd a181 b73d
000000e0: 4028 8dbe f603 a7be 90c6 c0be 79d9 a73e
000000f0: 7e9c df3d 9a3b 53be c551 b7bd 2ac3 a2bd
00000100: a87f a9bd 4a9a 473e 846e 90bd eeae 21be
00000110: 5c20 1abe 0c4d b5bd 0453 703e 7990 823c
00000120: cde2 2ebe 55fb 86bc beb9 163e c5f4 abbe
00000130: 3e7e 4c3e 62fd 2f3d c873 a83d b7be 1bbe
00000140: 0c9d 933e 9954 e0bd f5c9 8f3e 66a7 9ebe
00000150: cb8e 28bd 2971 9b3e f245 2fbe d276 58be
00000160: ff28 b03e 8b63 b13d a2a0 9fbd e48a 76be
00000170: fc45 a53e caa8 c23e dd18 6ebd 9722 573e
00000180: 148f babe 1245 a63e f830 003e ec8b b2bc
00000190: f738 f73d 555e b53e a906 553e 4c96 79bd
000001a0: a18b 023e d31b 06be 53ee 40be 0ad1 953e
000001b0: 19ca 833e 8d97 92be eb7e 19be 16fe 953e
000001c0: ff99 933e 7056 463e 0043 ad3e d2ae adbe
000001d0: bdf5 09bc 8f36 53bd 5272 8e3e ceb7 b8bd
000001e0: 1e39 c23d a6c6 6ebc 79a8 45be bd26 bf3d
000001f0: 6504 45be fa9b 4bbe 276e 963e 19a4 94be
-0.27662688 0.047023244 0.103148796 -0.096441925 0.32758662 -0.33989868 0.039171457 0.19626017
-0.015216969 -0.062470775 0.16533197 0.11157405 -0.38430262 -0.0666628 -0.22362466 -0.25817212
-0.12968223 -0.26782513 0.2439597 0.06641694 -0.21716374 -0.075315766 0.21329081 0.044683613
-0.09246347 0.2081704 0.32483807 0.33889848 0.058028474 0.2497589 -0.2200316 -0.34659618
-0.0176749 0.10694583 0.00046750778 0.3230559 0.27159867 0.20034727 0.03918084 0.008079753
0.31674376 0.2775702 0.00014785101 0.40266442 -0.12690169 0.22403963 0.21393281 0.049615543
-0.33054644 0.1299033 0.003461583 -0.36920545 -0.20489433 -0.42767423 -0.079283185 0.089602716
-0.2756977 -0.3262021 -0.3765149 0.32783106 0.109185204 -0.20628205 -0.08951143 -0.07947381
-0.082763016 0.1949245 -0.07052329 -0.15789387 -0.15051407 -0.08852586 0.23469168 0.01593803
-0.17078705 -0.016477266 0.14719293 -0.33585182 0.19970033 0.042966254 0.082252085 -0.1520947
0.28830755 -0.10953636 0.28083768 -0.3098709 -0.041151803 0.30359772 -0.17116526 -0.21139076
0.34406278 0.086615644 -0.0779431 -0.2407642 0.32279956 0.380194 -0.05812918 0.21009289
-0.36437285 0.3247457 0.1251868 -0.021795236 0.12071412 0.35423532 0.20803322 -0.06093435
0.12748577 -0.13096552 -0.18840913 0.29261047 0.25740126 -0.2863125 -0.14989822 0.29295415
0.28828427 0.19368911 0.3384018 -0.3392244 -0.008420405 -0.051565703 0.27821594 -0.09019433
0.094835505 -0.014573729 -0.19302548 0.093335606 -0.19239958 -0.19883719 0.29380915 -0.29031447

fc2.weight f4 [128, 128]
00000000: 30ae 513e 8dd1 c5bc 88ad 0abb b870 37bd
00000010: ecf9 2ebd 1efd 4fbd 007f 94bd cef3 1bbd
00000020: 3b7c 5abb 201b 3e3d 6b5e 15bd 13e2 5a3e
00000030: f4e6 f6bc 8f74 ee3d 58f1 1e3d 5195 c93d
00000040: dbe6 ac3c e72f 143e 7fbb 063d 15e8 d3bc
00000050: 06e5 033d bfed 6b3c 22bc 8f3b a9ad a6bd
00000060: ea1a 1dbe e521 cbbd 7485 733d 347a b53d
00000070: 9b84 c83d af06 01be eb38 533d 61b7 e0bb
00000080: fe5b a6bd 2441 97bd d408 4abd 2a14 86bd
00000090: cb1c 943d 3ed8 023d 68dc 353e 26fa 02bd
000000a0: a769 133e 4c31 5eba 4e6b 8d3d 51ab 333e
000000b0: c0b4 973c 793e 223b 817d 34bd f76e 9ebc
000000c0: 22df ba3b 80c6 83bd 54b7 c1bd c59d 1cbd
000000d0: ceb8 a53d 1a2a afbd dc54 8a3d 18ae 88bc
000000e0: 55df c63a bd4e 3cbd 13fb 383d d303 483b
000000f0: 1381 033e 5606 81be 0e0a c5bc e7c2 d83d
00000100: f5c4 42be 4b8d dbbc cc24 c53c 74dc 1a3e
00000110: 96a9 b0bd 11c7 c43d 1eb4 88bc 808a 83bd
00000120: 7463 8a3c acd5 003d 6b5e 03be ec1c 643e
00000130: f204 32bc ca84 2a3e be4f f83d 830c 45bd
00000140: 0eda babc 76ff 66be 66dd 6dbc 27ba 0e3d
00000150: d33f 473e 3651 cdbc e17e 073d 8328 ac3d
00000160: 1e27 fe3d 51b0 223e f6f8 113d 5d5f 2a3c
00000170: da9f 6b3d d8cd d4bc baaa 49bd ae93 233c
00000180: 7762 463d d0f8 8cbd f877 b1bb 9ea3 083c
00000190: 5a5f cabd 45e0 81bd 95cb 563e 23bc ea3c
000001a0: 6f77 fbbd 1657 57bd 6d46 003e ac13 25bd
000001b0: 9016 453e 1d27 f13d 15d8 113e 3c9f 08bd
000001c0: 90b4 d2bd 1382 903c 2519 613e 4e2d 19be
000001d0: d1fe e2bc 2eb0 8a3d 9de4 953d 0d0a 8ebd
000001e0: e078 e7bd 08c6 a53d 5b0f 363e 1182 583d
000001f0: 5b75 17be d8db 16bd c60c fb3d 0b6c 4e3d
00000200: 8242 f7bd 7f8d 583d d144 343d 9fcb ac3d
00000210: 6a56 e2bd 3104 acbd 63a3 b4bd 2e05 27bd
00000220: b694 49bd 9ff4 b43d 0638 ac3d 5358 3cbd
00000230: e1a8 b0bd 687f 7b3d ef96 09be 723f bf3d
00000240: bcf6 ab3d 073d 5abd cbae 853d 8e94 843d
00000250: a4c8 693d 5ca6 91bc b85c 19be cae2 d5bb
00000260: a16e 9bbc 2ce1 5fbd 2d9e d53c 0bcb 1c3d
00000270: c3fb 38bd 8423 1e3e 9d2a 89bc 0223 cdbc
00000280: 37d3 b7bd 4da1 6dbc 03c2 2ebe 3335 e73d
00000290: a908 21bc 7dc2 703e 83bc 3fbe 782a 07bd
000002a0: c8ae 383e bb3b d73d 29f6 b93c f238 c5bd
000002b0: dbef b33d f750 973d 2bfa c139 1432 26bd
000002c0: 1944 49bd 4a1e a7bd 97df 18be 661b a93d
000002d0: 31e9 a83d c189 9a3d b8b1 8aba 1075 213e
000002e0: b0c9 84bd f2c3 b33d 0896 aa3d a41b bd3d
000002f0: 7287 253c 6566 8a3e 0e61 1d3e 462b b13d
00000300: d7d2 463e 8f98 b03c b3bc a5bd 4fdc 173e
00000310: 7624 483d 3b10 243e 4677 e13d 839c f8bd
00000320: 98e2 af3d 14c0 ea3e c1b0 613c 4f69 f8bd
00000330: 9937 4c3d 8aaf a1bd fc00 c3bd 7f94 c5bb
00000340: af90 80bd cde5 833e 3662 88bd bf3c 02bb
00000350: b343 6fbe aed2 493d 27d7 5abd 053f dcbd
00000360: 362f eebc c72d ec3c 49d6 9e3c d332 94bd
00000370: 7d48 cd3d e9fd 673c fe8a 96bd 1882 ad3c
00000380: 13b8 dabb 398b 973d df3a 983d 1c8d 283c
00000390: 0d94 ccbd b75b d5bc 34ea 96bb fa7d 653e
000003a0: b2ef 783e 4893 89bc e6ed 823d 1a89 513d
000003b0: 29bf a93d b0b2 9bbe 61d6 093d 62ae 21be
000003c0: f241 a53d f508 96bd 5c3d 6c3b 6f52 82bd
000003d0: fbf9 62bc 2ac6 31bd 77cf 663d 5d14 ef3c
000003e0: b69c 1dbd 7b11 3f3d ed9c d3bd 8270 023d
000003f0: f81a 03be 6798 883d ed55 053d bdaf 65bd
0.20476604 -0.024147773 -0.0021160562 -0.04478523 -0.042718813 -0.0507785 -0.07250786 -0.038074307
-0.0033338207 0.046412587 -0.036466997 0.21375303 -0.030139424 0.116433255 0.038804382 0.09842933
0.021106174 0.14471398 0.032893654 -0.025867501 0.032200836 0.014399945 0.004386441 -0.08138592
-0.15342298 -0.09918574 0.059453443 0.08861199 0.097909175 -0.12600206 0.051567953 -0.006857798
-0.08123015 -0.073854715 -0.049324825 -0.06546815 0.07232054 0.031944506 0.1775986 -0.03197684
0.14395772 -0.0008475974 0.06905232 0.17545821 0.018518806 0.0024756475 -0.044065002 -0.019340022
0.005702869 -0.06434345 -0.09458795 -0.0382364 0.08091889 -0.08552952 0.06754467 -0.016684577
0.0015172759 -0.04597353 0.045161318 0.0030519858 0.12842207 -0.25200146 -0.024052646 0.1058405
-0.19020446 -0.026800772 0.024065398 0.15123159 -0.08626096 0.096082814 -0.016687449 -0.06422901
0.016893126 0.031453773 -0.12828986 0.22276658 -0.010865437 0.16652218 0.121245846 -0.048107635
-0.022809055 -0.22558388 -0.0145181175 0.034845497 0.19457941 -0.025063138 0.033079986 0.084061645
0.12409805 0.15887572 0.03563782 0.010398713 0.057525493 -0.02597706 -0.049235083 0.00998394
0.048433747 -0.06883395 -0.0054159127 0.008339791 -0.09881468 -0.06341604 0.20976098 0.028654164
-0.122786395 -0.052573286 0.12526865 -0.040301964 0.19246888 0.117750384 0.14242585 -0.033354983
-0.10288346 0.01764015 0.21982248 -0.14958689 -0.027709397 0.06771885 0.07318995 -0.06935511
-0.11302352 0.08094412 0.17779295 0.052858416 -0.14790861 -0.036830753 0.12258296 0.050396007
-0.12073232 0.052869316 0.04401094 0.08437275 -0.110516384 -0.08399237 -0.08820226 -0.040776424
-0.049214087 0.0883572 0.08409123 -0.04598267 -0.08625961 0.0614008 -0.13436483 0.09338273
0.0839667 -0.053280856 0.0652748 0.06473647 0.05707611 -0.017779522 -0.14976776 -0.0065272795
-0.01897365 -0.0546581 0.0260764 0.038279574 -0.045161974 0.15443236 -0.016743952 -0.025041107
-0.08975833 -0.014503789 -0.17066197 0.11289444 -0.009828725 0.23511691 -0.18724255 -0.032999486
0.18035424 0.105094396 0.022700386 -0.09630002 0.08785983 0.0738849 0.00036998218 -0.040575102
-0.04913721 -0.08160074 -0.14929043 0.08257179 0.08247603 0.07545806 -0.0010581529 0.15767312
-0.06483781 0.08777608 0.083293974 0.09233788 0.010103093 0.27031246 0.15369055 0.08650832
0.19416367 0.02155712 -0.08092632 0.14830135 0.048862897 0.16021816 0.11009078 -0.12139227
0.08588141 0.4584967 0.013775052 -0.12129461 0.04985771 -0.078948095 -0.09521672 -0.006029665
-0.06277596 0.25761262 -0.06659357 -0.0019872633 -0.23365669 0.049273185 -0.05342784 -0.107542075
-0.029075246 0.028830422 0.019389288 -0.072362565 0.10023592 0.014159658 -0.073507294 0.021180198
-0.0066747754 0.073996015 0.07433104 0.010287549 -0.09989176 -0.02604471 -0.004605556 0.22411337
0.24310187 -0.016793862 0.06393032 0.05115614 0.08288414 -0.30409765 0.033651713 -0.15789178
0.08069219 -0.07325927 0.0036047315 -0.06363379 -0.013853545 -0.043401875 0.056350198 0.029184515
-0.03847953 0.04664753 -0.103326656 0.031845577 -0.12803257 0.066696934 0.03255265 -0.0560758
