flappybird_dqn_ep270.pth (torch, 561729 bytes, 32 tensors)

fc1.weight f4 [128, 7]
000000 c1 9c 81 3e d2 0e f0 be 8a 10 36 3e 42 00 32 3e
       0.25314906 -0.46886307 0.17779747 0.17382911
000010 a3 ec 89 be 82 f6 21 3e a0 63 51 3e 79 91 55 3d
       -0.26938352 0.15816692 0.2044816 0.052140687
000020 b8 0c 99 3e 45 dc 94 3c 9c 1d 82 3e 55 33 ae 3d
       0.29892516 0.018171439 0.25413215 0.085058846
000030 09 bd 85 3d ac 4c 2f 3e f8 8b b6 be 8a de dd 3d
       0.06530196 0.17119092 -0.35653663 0.108334616
000040 f5 60 1f be 14 69 b6 be ee 36 95 be 0e 18 0e bd
       -0.1556433 -0.35627043 -0.2914347 -0.03469091
000050 59 36 e8 3c 0b 19 79 be ea 4b 51 3e 8b 70 55 3d
       0.028346227 -0.2432596 0.20439115 0.052109282
000060 9d 01 c8 3d f5 cc 92 3c a8 25 aa 3d 2e 71 d7 3e
       0.09765933 0.017919997 0.083079636 0.42078537
000070 cc 62 09 bd d8 4a b3 3e db e0 00 bf 2c 6c 95 bd
       -0.033541486 0.3501804 -0.503431 -0.07296023
000080 a7 e0 bf be cb 35 4e 3e 55 78 cc 3e 42 c5 a2 3c
       -0.37476084 0.20137708 0.39935556 0.01986945
000090 48 7a 0f 3e 5d db 79 3e 86 ff 91 be f3 67 9e 3d
       0.1401149 0.24400087 -0.2851526 0.077346705
0000a0 13 53 ad be 1e 7d cb bd 6a 78 06 3e 5f 59 85 be
       -0.33852443 -0.099359736 0.13131872 -0.26044747
0000b0 3d 31 02 3e 1e a0 6b be bb 1b 0c be c3 e7 ba be
       0.12714095 -0.23010299 -0.13682453 -0.36504945
0000c0 9c 78 69 be 4b af 26 bc 48 3d f6 3d f3 a4 a0 be
       -0.22799915 -0.010173629 0.12023407 -0.31375846
0000d0 09 ee a7 be 4d e3 db 3d 2d 05 41 3e f2 f1 bd 3e
       -0.32798794 0.107367136 0.1884963 0.37098652
0000e0 5b 2b 13 be 0e 52 31 3e 9b 9e c8 3e 7d 11 e6 3d
       -0.14372008 0.17316458 0.39183506 0.112338044
0000f0 c4 10 9e be ff 1a cb 3e 6e 07 03 3e 9a 79 30 be
       -0.30872166 0.39669034 0.12795803 -0.17233887
000100 0a 05 99 be 48 3f 91 3e 8f 4a b1 bd 60 63 69 be
       -0.29886657 0.28368592 -0.08656799 -0.22791815
000110 33 bb 49 be 6b 18 fa 3d e2 fb 22 3e 66 0e c8 3e
       -0.19700317 0.122116886 0.15916398 0.39073485
000120 c5 10 09 bd 42 fb bf 3e 2a 80 da 3e 90 02 76 bd
       -0.03346326 0.37496382 0.42675906 -0.060061038
000130 23 44 ee be 1f 09 24 3e 89 d6 71 be 30 71 17 3d
       -0.4653636 0.16019104 -0.23616995 0.03697318
000140 2c a0 46 be 3a b1 1f bf 8b 57 f3 3e 3e 4f 47 be
       -0.19397038 -0.623798 0.47527727 -0.19463822
000150 9c b8 21 3e cf 95 bc be bc ec b5 3e 17 d3 36 be
       0.15793079 -0.36833045 0.35532176 -0.17853962
000160 11 3f b5 3e 26 1a 8d be 09 c7 42 bd 71 87 a7 3e
       0.35399678 -0.27559012 -0.047553096 0.3272052
000170 52 92 b4 3e 4f 05 79 be 97 03 91 be 64 5d a6 3e
       0.35267884 -0.24318431 -0.2832305 0.32493126
000180 92 3b 20 3e 59 70 6b be 13 dd 50 3e 35 f2 8c be
       0.15647724 -0.22992076 0.20396833 -0.2752854
000190 8b 66 22 be ea ff 1f be a7 9c bd 3b c4 aa bf 3e
       -0.1585943 -0.15624967 0.0057864967 0.3743497
0001a0 f2 27 32 be 56 3e ed 3d 9f 0f 71 be 1c 93 76 3e
       -0.1739805 0.11584155 -0.23541115 0.24079555
0001b0 1f e2 56 3e e2 07 ff bd 28 0c d1 3e d9 72 d1 bd
       0.20984696 -0.124526754 0.40829587 -0.102269836
0001c0 77 08 da 3c ed e3 4c 3e dc ab dd bd de 7d de be
       0.026615364 0.20008822 -0.10823795 -0.43455404
0001d0 69 03 af 3b 13 f6 88 be 60 71 63 3e 51 2a 00 3f
       0.0053409827 -0.2675024 0.22211218 0.5006457
0001e0 c9 7e 84 3e 48 77 9d 3e 88 08 4f be 48 45 bc be
       0.2587798 0.30755067 -0.20218098 -0.36771607
0001f0 f3 21 00 3e 86 e6 41 be 49 44 f4 3d 1c c1 a0 bd
       0.1251295 -0.18935594 0.11927087 -0.07849333
000200 3c 14 48 bf 52 17 a0 3d d8 15 ce ba 0c 11 bf be
       -0.78155875 0.07816948 -0.0015723063 -0.37317693
000210 a0 fb 05 3e 40 87 3c 3c 58 7f 89 be 2b 7f 56 be
       0.13084269 0.0115068555 -0.26854968 -0.20946948
000220 75 45 20 3e e3 c1 9a be 1d d6 21 be bf e4 2d be
       0.15651496 -0.3022605 -0.15804334 -0.16981791
000230 aa 2d 43 be 0c dc 3a be d0 d3 3e 3e 1e e2 d1 bd
       -0.19060388 -0.18248004 0.18635488 -0.102482066
000240 16 16 8c be b0 d5 76 3e ac 11 a7 be cb 7e 38 be
       -0.273606 0.24104953 -0.3263067 -0.18017118
000250 6f b2 aa bd b3 9c 9d be bf f7 e9 bc 55 04 8e be
       -0.08334815 -0.30783615 -0.028560517 -0.2773768
000260 17 b7 de 3d 4e 8c 06 be ac 61 49 3e 7e d8 a6 3e
       0.10874765 -0.1313946 0.19666165 0.32587045
000270 0c 9b 7e be 20 7f 1e be 71 e6 28 be 80 69 db bd
       -0.24863833 -0.15478182 -0.16494156 -0.10713482
000280 95 73 a4 3e a5 7b f3 be 21 0e 22 be 4b 7d a2 bd
       0.32119432 -0.4755527 -0.15825702 -0.07934054
000290 d9 c4 55 3e 6b 5d ad 3e ff 69 93 3e 08 d0 ea be
       0.20875873 0.33860335 0.28791806 -0.4586184
0002a0 24 e1 08 3e 61 43 b4 be ac 97 cc be 61 ec ea 3d
       0.13367134 -0.35207656 -0.39959466 0.11470867
0002b0 d7 c0 ee 3d 1f 17 8f 3c f3 8e 97 3d 18 9c 25 3c
       0.11657875 0.01746708 0.07400312 0.010108016
0002c0 1a 98 9f 3c cc 07 77 bf 89 be 84 be d4 6b 04 bd
       0.019481707 -0.9649627 -0.25926617 -0.032329395
0002d0 ee 3a cc be 87 22 1f 3e f2 e2 87 3d 45 e1 f4 3d
       -0.3988871 0.15540515 0.06635083 0.11957029
0002e0 a8 b3 8a be ba 45 07 3e 33 61 86 3e 4d 29 7f 3e
       -0.27090192 0.13210192 0.26246032 0.24918099
0002f0 2f 87 84 be 3d 9a 0f bd f1 44 65 be b9 5b cb 3e
       -0.25884387 -0.035059202 -0.2238958 0.39718416
000300 46 f2 9e be b8 3c a8 be d4 c0 cf 3a 12 a0 1a be
       -0.31044215 -0.32858825 0.0015850314 -0.15100124
000310 96 79 80 3e df 7b 0a 3e f0 b2 06 be 47 e2 7f bd
       0.25092763 0.13523816 -0.13154197 -0.062471654
000320 8a 36 6a be 9c c7 d7 3d 21 f6 e5 3d c2 ff a8 be
       -0.22872368 0.10536119 0.11228586 -0.33007628
000330 aa bd 4d be a8 96 94 3e bf a9 01 be e1 2e e2 3e
       -0.20091882 0.29021192 -0.12662409 0.4417639
000340 b6 63 2d be 67 3c 53 be 73 af b8 be a3 49 ae 3e
       -0.16932568 -0.2062851 -0.36071357 0.34040555
000350 5d 1c c1 be 06 a1 18 bd 9e 71 73 3d ff 07 d5 3d
       -0.37716952 -0.03726294 0.059434526 0.10401916
000360 63 7f 54 be 57 df b1 bd 54 26 31 be df d8 52 bd
       -0.20751719 -0.08685177 -0.17299777 -0.051476356
000370 49 6c 18 be 77 61 ba be 65 96 3a 3e 0e 2e 52 be
       -0.14885058 -0.36402485 0.18221433 -0.20525381
000380 3e 5b 38 be 16 d9 9b 3e 45 a8 2b bf 98 07 89 3e
       -0.18003556 0.3043906 -0.67053634 0.26763606
000390 cc bc 93 3e 8f 47 20 3e b5 49 0d 3e 37 fd 5e 3e
       0.28854978 0.15652297 0.13797648 0.21776281
0003a0 67 bd c8 bc ff b1 e9 be be df 43 bd 83 72 ba 3e
       -0.024504377 -0.45643613 -0.0478208 0.3641549
0003b0 54 71 2b 3c 43 ff bb 3e 15 54 3e bd 31 b2 1a bd
       0.010464031 0.36718187 -0.046466906 -0.037767593
0003c0 51 68 40 be e4 80 f2 bd cf a3 98 be 53 c5 0e be
       -0.18789794 -0.1184099 -0.29812476 -0.1394246
0003d0 7c 38 f8 3e 58 d7 53 3e 0b de dd 3e a5 a3 3e bd
       0.48480594 0.20687616 0.43333468 -0.046542782
0003e0 9e f5 90 3e 6d f6 75 3e 19 b7 9a 3e 81 5d 95 3e
       0.2831239 0.24019785 0.30217817 0.291729
0003f0 e1 76 a4 be ed ab ad 3e 0c f0 b5 3e 15 c6 9a 3e
       -0.32121947 0.3392023 0.35534704 0.3022925

fc1.bias f4 [128]
000000 7b ff 9e be 03 21 0a 3d a6 de 56 3e d0 57 a4 bc
       -0.3105429 0.03372289 0.20983371 -0.020061404
000010 54 47 aa 3e 33 07 ae be 5c 4f 3e 3e ee ea 31 3e
       0.33257544 -0.33989868 0.1858496 0.17374775
000020 ff 58 03 bd 5b e1 7f bd d6 45 3a 3e 29 00 0e 3e
       -0.032067295 -0.062470775 0.18190703 0.13867249
000030 50 c3 c4 be 28 7e 27 bd 5e 38 70 be f0 5e 87 be
       -0.38430262 -0.040891796 -0.23459002 -0.2643962
000040 10 1f 1f be b5 3f 87 be ad 57 8a 3e f2 fe 3b 3e
       -0.15539193 -0.26415792 0.27020016 0.18358973
000050 2c 60 5e be 27 3f 9a bd 83 63 76 3e 05 61 46 3d
       -0.21716374 -0.075315766 0.24061398 0.04843237
000060 98 d2 ca bd 48 da 6d 3e a2 3d 96 3e b7 5e b1 3e
       -0.09903449 0.23227799 0.29343897 0.34642574
000070 5e 12 2c 3d 1c 54 71 3e f7 4f 61 be 0e 75 b1 be
       0.042009704 0.23567241 -0.2200316 -0.34659618
000080 ee 10 86 bc 48 fa d6 3d 70 f6 44 3c 22 23 98 3e
       -0.016365495 0.10496956 0.012021646 0.29714304
000090 6f c7 79 3e e3 59 24 3e ca 8b e4 3c b7 d0 88 3a
       0.24392484 0.16049914 0.027898688 0.0010438178
0000a0 ed 28 ad 3e d2 22 84 3e 35 74 5f 3b 17 61 cf 3e
       0.33820286 0.25807816 0.0034096364 0.4050376
0000b0 3f 22 02 be 81 62 42 3e a6 69 50 3e bf 13 84 3d
       -0.12708376 0.18982889 0.20352802 0.06449079
0000c0 62 3d a9 be e1 32 79 3e 7c 10 f1 bc 7f 08 bd be
       -0.33054644 0.24335815 -0.029426806 -0.36920545
0000d0 d2 cf 51 be af 80 d6 be 48 3d 9a bd 42 c6 8f 3d
       -0.20489433 -0.41895053 -0.0753122 0.070202366
0000e0 40 28 8d be f6 03 a7 be 90 c6 c0 be 13 eb 93 3e
       -0.2756977 -0.3262021 -0.3765149 0.28890285
0000f0 99 65 f6 3d f9 7e 49 be 16 da ae bd ce 8f a3 bd
       0.12031097 -0.19677342 -0.0853769 -0.07986413
000100 d4 cf cc bd 5f 65 32 3e 84 6e 90 bd ae f1 01 be
       -0.100005776 0.17421483 -0.07052329 -0.1268985
000110 5c 20 1a be 50 98 7f bd f6 d8 68 3e 9f 99 a3 3c
       -0.15051407 -0.062401116 0.22739014 0.019970713
000120 cd e2 2e be 5f 9e ff bc 49 8c 1a 3e 4a df a9 be
       -0.17078705 -0.031203447 0.15092577 -0.3317817
000130 00 e9 3f 3e 5e 38 20 3d a9 2e 81 3d b7 be 1b be
       0.18741226 0.039116256 0.06307728 -0.1520947
000140 c7 67 8d 3e 90 37 f0 bd b9 af 90 3e 66 a7 9e be
       0.27618238 -0.11729348 0.28259066 -0.3098709
000150 44 e4 a9 bd 8f 90 8d 3e f2 45 2f be 06 e1 1a be
       -0.08295491 0.27649352 -0.17116526 -0.15124902
000160 82 9f b5 3e 9b 69 c4 3d 64 be b2 bd e4 8a 76 be
       0.35473257 0.09590455 -0.087277204 -0.2407642
000170 35 3f 97 3e c3 5b c2 3e dd 18 6e bd d4 c3 44 3e
       0.2954041 0.37960634 -0.05812918 0.19215328
000180 14 8f ba be 8a 8a a6 3e 0e 5f f0 3d 7e 8b 65 bd
       -0.36437285 0.32527572 0.1173688 -0.056041233
000190 e2 49 08 3e 78 14 a7 3e 2a 98 77 3e 1d 1e 82 bd
       0.13309434 0.32632804 0.2417914 -0.063534
0001a0 4a eb e2 3d cd 3f 20 be ad a9 0f be dd 2e 8e 3e
       0.11080034 -0.15649338 -0.1402957 0.2777013
0001b0 b1 30 88 3e 1e e6 8f be 74 00 22 be 23 33 99 3e
       0.2659965 -0.28105253 -0.15820485 0.29921827
0001c0 eb 99 8f 3e 5d 6d 2e 3e 8c f1 a7 3e 7e ce a6 be
       0.28047118 0.17033906 0.32801473 -0.32579416
0001d0 51 a6 ca bc 8f 36 53 bd 32 79 86 3e 88 17 a9 bd
       -0.024737509 -0.051565703 0.2626434 -0.08256441
0001e0 3b 3c aa 3d 5e 4a 81 3c 3d 43 31 be 91 3d f8 3d
       0.08312269 0.015782531 -0.17310806 0.12121118
0001f0 13 53 2c be de 82 16 be 2f f1 90 3e 19 a4 94 be
       -0.16828565 -0.1469836 0.28309008 -0.29031447

fc2.weight f4 [128, 128]
000000 d8 a9 50 3e 3e 29 c1 bc 79 5c fd bb ec 85 19 bc
       0.2037729 -0.023579236 -0.007731971 -0.009370308
000010 5e f7 c3 bc 1e fd 4f bd ee e6 c1 bd 02 f8 92 bc
       -0.023921665 -0.0507785 -0.094678745 -0.017940525
000020 17 2a 04 bc 20 1b 3e 3d b3 26 02 bd 7e 91 67 3e
       -0.008066676 0.046412587 -0.031775188 0.22614095
000030 f4 e6 f6 bc a8 d1 26 3e f5 f9 04 3d d7 e3 a4 3d
       -0.030139424 0.16290915 0.03246494 0.080512695
000040 db e6 ac 3c 74 c4 29 3e 6a d5 2d 3d b1 15 15 bd
       0.021106174 0.16578847 0.042439856 -0.03639764
000050 06 e5 03 3d bf ed 6b 3c 5e 83 11 3d 94 a6 c9 bd
       0.032200836 0.014399945 0.035525672 -0.098462254
000060 fe 8d 3e be f5 d1 09 be 7b 23 79 3d a6 5c c5 3d
       -0.18608853 -0.13458999 0.060824852 0.09636812
000070 21 b4 dd 3d eb 90 f8 bd eb 38 53 3d 61 b7 e0 bb
       0.108253725 -0.12137016 0.051567953 -0.006857798
000080 57 c1 b9 bd 73 bc 52 bd 73 75 fc bd e9 ab 78 bd
       -0.0907008 -0.05144925 -0.12327089 -0.06071082
000090 73 d6 8b 3d 4a 08 59 bc 96 c7 88 3e f2 f5 df bc
       0.06828012 -0.013246605 0.26714772 -0.027338956
0000a0 28 1a 15 3e 3c d5 7a 3d f6 37 85 3d 03 59 4b 3e
       0.14560759 0.061238512 0.06504814 0.19858174
0000b0 c0 b4 97 3c a0 60 2f 3c aa 78 20 bd b7 03 0d bd
       0.018518806 0.01070419 -0.039177574 -0.03442737
0000c0 22 df ba 3b 2f 03 78 bd 96 7c d7 bd c5 9d 1c bd
       0.005702869 -0.06054991 -0.1052181 -0.0382364
0000d0 ce b8 a5 3d 3a 05 ca 3d fd d3 8e 3d 3b 1f 8b bc
       0.08091889 0.09864278 0.06974027 -0.016982665
0000e0 55 df c6 3a bd 4e 3c bd 13 fb 38 3d ef a4 45 ba
       0.0015172759 -0.04597353 0.045161318 -0.00075395306
0000f0 cf ab 24 3e 90 61 6f be 05 34 88 3c 22 56 d8 3d
       0.16081165 -0.23377061 0.016626367 0.105633035
000100 7c 8d 70 be 38 08 5c bc cc 24 c5 3c 10 77 2c 3e
       -0.23491472 -0.013429694 0.024065398 0.16842294
000110 96 a9 b0 bd c9 f9 04 3e 4f fc d5 3a 16 df 01 be
       -0.08626096 0.1298591 0.0016325804 -0.12682757
000120 74 63 8a 3c 25 58 55 3d ea 4f e6 bd 56 b2 81 3e
       0.016893126 0.052086014 -0.11245711 0.25331372
000130 eb 6f bf 3c 8d 52 31 3e 8d 47 a6 3e 83 0c 45 bd
       0.023368796 0.17316647 0.32476464 -0.048107635
000140 fd aa 06 3d 27 00 88 be ea 89 dd b9 27 ba 0e 3d
       0.03287791 -0.26562616 -0.0004225516 0.034845497
000150 ae 17 cf 3e 3b 1f 24 bc e1 7e 07 3d 25 49 e1 3d
       0.40447754 -0.010017212 0.033079986 0.11000279
000160 ec b8 16 3e 87 24 64 3e 36 8e 13 3d 5d 5f 2a 3c
       0.1471898 0.22279559 0.036024295 0.010398713
000170 94 61 82 3d 77 1d 26 bc ba aa 49 bd 53 89 a1 3c
       0.06366268 -0.010138861 -0.049235083 0.019718802
000180 77 62 46 3d d2 84 2c bd 7f 53 6d bc 21 e4 76 bd
       0.048433747 -0.042118855 -0.014485239 -0.060276154
000190 b7 80 ee bd 81 4d 59 bd 31 2a 75 3e c5 dc 8f bd
       -0.11645644 -0.05305243 0.23941876 -0.0702453
0001a0 ed ac 24 be f1 c0 56 bd 56 8f 2b 3e 00 e8 17 bc
       -0.16081591 -0.052430097 0.16753897 -0.009271622
0001b0 f5 5a 4b 3e 88 f5 02 3e 6f 95 ff 3d dd ab 67 bc
       0.19858916 0.12788975 0.12479674 -0.0141400965
0001c0 d0 ee ae bd 15 38 73 3c 9b 34 6b 3e 59 99 3e be
       -0.085416436 0.014844914 0.22969286 -0.18613185
0001d0 d1 fe e2 bc 2e b0 8a 3d c2 31 64 3d 33 80 92 bc
       -0.027709397 0.06771885 0.055711515 -0.017883396
0001e0 6a cd c0 bd 53 03 0a bd d1 f4 45 3e d0 a9 7b 3d
       -0.094141796 -0.033694576 0.19331671 0.061441243
0001f0 07 f9 7e be fb 32 f1 bd d6 b4 11 3e 0b 6c 4e 3d
       -0.24899684 -0.11777302 0.1422914 0.050396007
000200 00 d7 15 be 84 bf 7c 3d d3 4c e6 bc c1 b0 51 3d
       -0.14632797 0.06170608 -0.028112805 0.051193956
000210 4e 43 05 be 31 04 ac bd 49 48 26 be 7d 77 2a bd
       -0.13013956 -0.08399237 -0.16238512 -0.04161786
000220 be 2a 59 bd 9f f4 b4 3d ec 07 9f 3d c4 45 f1 bd
       -0.053019278 0.0883572 0.07765183 -0.11780885
000230 e1 a8 b0 bd 38 d7 57 3c 32 6d 2a be a8 19 68 3d
       -0.08625961 0.013173871 -0.16643217 0.056665093
000240 b9 f5 98 3d 70 e5 0a be 7c 1a ea bc 38 42 11 bc
       0.07468743 -0.13564086 -0.028577082 -0.008865885
000250 a4 c8 69 3d 5c a6 91 bc 61 c9 4a be 2c ef 48 bc
       0.05707611 -0.017779522 -0.19803382 -0.012264054
000260 68 f9 d7 3b 9c 05 8f be 56 43 02 3d d5 ce 09 3b
       0.006591011 -0.27933967 0.031802498 0.0021027823
000270 31 5b b0 bd fb 9a 36 3e 9d 2a 89 bc 02 23 cd bc
       -0.086111434 0.17832558 -0.016743952 -0.025041107
000280 6e 72 c4 bd 77 b9 b3 3a 11 ae 4b be 71 82 f1 3d
       -0.09592138 0.0013711889 -0.1989062 0.11792458
000290 c0 f6 4b bb 2e 5a 71 3e c3 74 c2 be e4 98 7b bb
       -0.0031122416 0.23569557 -0.37979707 -0.003839069
0002a0 da 23 1c 3e 26 c4 ae 3d 2a 26 36 3c 6f 40 0d be
       0.15248051 0.08533506 0.011117497 -0.1379411
0002b0 4d 9d b3 3d b2 82 af 3d 74 ed d2 bb 3a 3a 28 be
       0.08770237 0.0856985 -0.006436998 -0.16428462
0002c0 19 44 49 bd 50 36 1e be 74 1c 89 be 66 1b a9 3d
       -0.04913721 -0.15450406 -0.2677952 0.08257179
0002d0 31 e9 a8 3d 66 72 04 bd 29 6e 08 3d 46 99 2b 3e
       0.08247603 -0.03233566 0.033308182 0.16757688
0002e0 b0 c9 84 bd f2 c3 b3 3d 08 96 aa 3d cb 73 a5 3d
       -0.06483781 0.08777608 0.083293974 0.080787264
0002f0 dd 3a 27 bd 87 41 7d 3e 29 ce fb 3d af 11 90 3d
       -0.04082762 0.24732028 0.12295181 0.07034623
000300 1f 26 7f 3e 3d d5 14 3d b3 bc a5 bd 3c c2 f6 3c
       0.24916886 0.036336172 -0.08092632 0.030121915
000310 76 24 48 3d 60 12 05 3e 62 7d ca 3d 99 59 2d be
       0.048862897 0.12995291 0.09887196 -0.1692871
000320 98 e2 af 3d c9 91 ed 3e 60 cc 5e 3d 29 a2 4c be
       0.08588141 0.46400288 0.054394126 -0.19983734
000330 cd 08 96 3d f3 f4 d1 bd 74 44 9d be 7f 94 c5 bb
       0.07325897 -0.102517985 -0.30716288 -0.006029665
000340 b1 29 a0 bd aa 3e 86 3e db 3a ee bc bf 3c 02 bb
       -0.07820452 0.26219684 -0.029080799 -0.0019872633
000350 7d 62 d6 be cb ea 45 3d 27 d7 5a bd 99 9a 42 be
       -0.41872016 0.04831962 -0.05342784 -0.19004287
000360 3e a0 71 bd a8 58 a6 bd f7 a4 b7 3b d3 32 94 bd
       -0.05899071 -0.081223786 0.005604382 -0.072362565
000370 d0 f8 d0 3d 69 56 28 bd fe 8a 96 bd 36 21 14 3d
       0.10203707 -0.041098032 -0.073507294 0.036164485
000380 13 b8 da bb 95 80 96 3d 60 70 b9 3c 1a 41 7b bd
       -0.0066747754 0.07348744 0.022636592 -0.061341383
000390 fa 82 ca bd e0 59 31 bc 28 ea b1 bd c6 cc 5a 3e
       -0.09888263 -0.0108246505 -0.0868724 0.21367177
0003a0 c6 e0 22 3e c6 d5 bf bc b6 a6 3b 3d 79 25 83 3d
       0.15906057 -0.023417365 0.045813285 0.06403632
0003b0 10 34 4f 3d 92 92 de be a1 62 3b 3c 1c 00 35 be
       0.05058676 -0.434712 0.011437089 -0.17675823
0003c0 ab f5 fb bb a6 49 e3 bd d6 96 a8 bc 49 15 08 be
       -0.007689198 -0.11098032 -0.020579737 -0.1328937
0003d0 96 e2 bd ba 2a c6 31 bd fb 21 32 3d 25 84 44 3d
       -0.0014487084 -0.043401875 0.043489438 0.047977585
0003e0 07 0d bd bc 52 62 4d bc 0b f3 56 be 6b da 85 bd
       -0.023077501 -0.012535648 -0.20991151 -0.065358005
0003f0 6b 5c 87 bd ee eb 72 3d 7f 7b e7 bb bd af 65 bd
       -0.06609424 0.05930703 -0.0070642824 -0.0560758

fc2.bias f4 [128]
000000 4f 5f c1 3d bc e8 45 bd f5 e9 a3 bd 58 94 ea 3b
       0.09442007 -0.048317656 -0.08003608 0.0071587972
000010 6c 60 ff 3c 10 51 7e 3c 5d 06 e4 bc a6 71 9e bd
       0.031173907 0.0155222565 -0.027835065 -0.077365205
000020 c9 40 dc 3a f4 72 fe 3c 1d 49 97 bd ab 72 ae b8
       0.0016803975 0.031060673 -0.07386992 -8.318325e-05
000030 8d 27 3f 3d 48 f4 46 3c 28 c5 30 bd 58 10 ce 3b
       0.046668578 0.012143202 -0.043156773 0.0062885694
000040 04 b8 37 3d 68 22 80 3d ae f8 f4 3b ef 3d 80 3d
       0.044853225 0.062565625 0.007475934 0.06261813
000050 05 99 4e 3d d6 a4 b0 3d 1f 72 bd 3d 35 0d 16 3c
       0.0504389 0.0862519 0.092502825 0.009158422
000060 59 29 c1 bb 3c 53 ca 3d 4b 23 c2 3c 44 82 8d bc
       -0.0058948216 0.09879157 0.02369847 -0.01727403
000070 fc c9 80 3d 45 ca 9d bd 06 de 50 3c 4f 56 b0 bd
       0.062885255 -0.077045955 0.012748247 -0.08610212
000080 51 97 f9 3c 91 46 e1 3c 34 d8 5a bd 0a 30 da 3c
       0.030467661 0.027499469 -0.053428844 0.026634235
000090 9d 73 5f 3c fb 2e 24 3d f1 f9 31 3d 86 a9 ab 3d
       0.013638404 0.040083867 0.043451253 0.083819434
0000a0 20 01 96 3d 11 cb a7 bd d0 2e 67 3c 7e 15 3b bd
       0.07324433 -0.08193029 0.014110282 -0.045674793
0000b0 2f 89 ac 3c 07 e0 e6 3c ec ba 8b 3d 34 85 82 3d
       0.021061508 0.028182996 0.06822762 0.06373063
0000c0 b7 92 e6 3c 04 3f de 3b 43 bf 10 3d cf f7 01 bd
       0.028146131 0.0067824144 0.03533865 -0.03173047
0000d0 1d 3b b6 3a ee be 1b bc 0c 9d 4d bd 09 8d 0e bd
       0.0013903115 -0.00950597 -0.0501986 -0.03480247
0000e0 c5 d9 15 3d 12 7b 35 3d f0 ef 3e bd ff 8e bc 3d
       0.036584634 0.044306822 -0.04661554 0.09206962
0000f0 45 fe ca 3b a7 6b be bd 24 cc 91 bd 75 52 54 3d
       0.006194862 -0.09297877 -0.07119015 0.05183645
000100 82 08 96 bd f1 6b 10 3d dc aa 7a 3c 71 4a fd bc
       -0.073258415 0.03525919 0.015299525 -0.030919285
000110 0d 58 66 3d 32 07 c4 bc 8d eb 95 bd 00 d5 27 3c
       0.056236316 -0.023929212 -0.07320318 0.010243654
000120 03 73 9b bd 4a f6 a6 bd a0 3e 62 3d dc eb 12 3d
       -0.07590296 -0.08152445 0.055235505 0.035869464
000130 bf 07 6e bd bf 27 8f 3d d3 e3 96 3d 7d c7 bb 3c
       -0.058112856 0.06990003 0.07367673 0.022922272
000140 08 2c 8f 3d 31 44 48 bd f8 5d 70 bd ce 91 66 3d
       0.0699082 -0.048893157 -0.058683366 0.056291394
000150 23 5d c7 bc 7a 9c f7 bc 07 28 3a 3d c1 50 4a bd
       -0.024336403 -0.030225981 0.04544833 -0.04939342
000160 19 51 a5 bc ca 67 1c bc 47 5b fa 3c 3a 8d 9d 3d
       -0.020180272 -0.00954623 0.030561103 0.076929525
000170 26 25 82 bd 20 d7 76 bd 2d d2 78 3d c6 c5 cd 3d
       -0.06354742 -0.060263753 0.060747314 0.10047488
000180 ad 23 1c bd 1a 85 1a bc 14 e9 06 3e 75 92 4e bd
       -0.03811996 -0.009431148 0.1317485 -0.05043264
000190 81 fc 61 3d ad 5e d3 3d ae aa 58 bc 9f ed b5 bd
       0.055172447 0.10320792 -0.013224287 -0.08883213
0001a0 2e 8c f0 3b db ae 7d 3d 51 de af bd 06 2c 81 3d
       0.0073409295 0.061934333 -0.08587325 0.06307225
0001b0 8f 46 ad bc 9e 37 3b bd 00 4c 25 3d 84 d4 75 bd
       -0.021151809 -0.045707338 0.040355682 -0.060017124
0001c0 f6 d4 8c 3d cc a6 35 3d 69 8f 06 bd b2 d9 9e 3c
       0.068765566 0.044348523 -0.03285161 0.019390915
0001d0 d7 bb 7e 3d 30 1c 46 3c 43 1a 3f 3d d5 b2 5c bd
       0.062190857 0.012091681 0.046655905 -0.053881485
0001e0 51 de fe 3b 06 03 1d 3d 7b 0c 2c bd 54 5c a9 3d
       0.007777967 0.03833296 -0.04200409 0.08269563
0001f0 74 1e 21 bd 33 73 3a bd 91 09 6c bb a5 4c 8b 3d
       -0.039335683 -0.04552002 -0.0036016444 0.06801728

fc3.weight f4 [128, 128]
000000 ea 89 91 ba 55 ba 9a 3c 2d 09 06 3c d5 9b 54 bc
       -0.0011103724 0.018887678 0.008180899 -0.012976606
000010 36 5d a8 bd 83 58 87 bd cc c5 25 3c 8f f5 48 3c
       -0.082209036 -0.06608679 0.010117959 0.012265577
000020 44 01 6b 3d 2e 7a b8 bc 5e 39 b7 bc e6 58 94 3d
       0.057374254 -0.022519197 -0.022366222 0.072435185
000030 fd 20 8e bd a1 b1 11 3d 53 76 49 bd be a2 44 3d
       -0.06939886 0.03556979 -0.04918511 0.048006766
000040 88 8e e3 3d ec db fb bd cc 0f 94 bd ff 3e 1a bd
       0.1111117 -0.12297806 -0.072295755 -0.037657734
000050 e9 d6 67 bd 21 1c 88 bd 33 00 a6 bc 4d 92 21 bd
       -0.05660144 -0.0664599 -0.020263767 -0.039446164
000060 86 17 15 be 96 26 4d 3d 58 28 d3 3c 1e 9d 04 3e
       -0.14559755 0.050085627 0.025776073 0.1295056
000070 8a 63 bb 3a 7c 9b 5f 3d 4b 0c 82 3d e8 ac c2 3d
       0.0014296633 0.05459164 0.06350001 0.095056355
000080 4e b6 cd 3d 9e c4 4d 3d e3 53 b8 bb fb ef 0c bd
       0.100445375 0.050236337 -0.0056252345 -0.03440855
000090 23 8f 87 bd 54 e8 15 3e fa dd ce bb ce f0 3e 3d
       -0.06619098 0.14639407 -0.0063130828 0.046616368
0000a0 5b 2d f7 3c a3 ae 54 bd b6 35 0f 3e 10 68 c8 bc
       0.030172994 -0.05192436 0.13985333 -0.024463683
0000b0 65 95 40 3d 74 90 ea bd 86 b0 09 bd 5c c8 06 3e
       0.047017474 -0.114533335 -0.03361561 0.13162369
0000c0 8f 59 94 3c 97 a5 0c be ef fe 9f 3d 23 f1 c1 bd
       0.018109111 -0.13735043 0.078122966 -0.09469821
0000d0 de 87 13 3c 38 af 8a bd d9 68 42 bc f6 1e 51 bd
       0.009004561 -0.067717016 -0.011865818 -0.051054917
0000e0 ac 8f be bc b1 ce ba 3b db 52 d4 3c 8d 0c 0b be
       -0.023261867 0.005700909 0.025918415 -0.13579006
0000f0 b2 2d 83 3a cb 4d 2b bd c4 19 91 3d 0f 76 ae bc
       0.0010008125 -0.041822236 0.070849925 -0.02129653
000100 a8 af 4b 3d 64 b2 4c bd eb 25 f8 3c 2e 08 d8 3d
       0.049728066 -0.049974814 0.030291518 0.10548435
000110 fa 09 72 bd 3c 3f b3 bd 47 1c 7e bc 2a 16 a9 bd
       -0.059091546 -0.087522954 -0.0155096715 -0.082561806
000120 91 fd 19 bd dd 2d f7 bd 23 71 a0 be ec c2 89 3d
       -0.037595335 -0.120692946 -0.31336316 0.067266315
000130 b4 33 ad 3c 27 84 66 3d bc d5 d6 bc ba 1a c2 bd
       0.021142818 0.056278374 -0.026224963 -0.09477754
000140 da b1 05 3d 9c fc a3 bd 82 7c b3 bc 17 5e db bc
       0.032640316 -0.08007166 -0.021909956 -0.026778264
000150 4d 2e 59 3c a6 2e 92 3d 0a 80 e4 3d d3 7c b2 3d
       0.013255668 0.07137804 0.11157234 0.087152146
000160 95 73 ec 3b 83 3a 0f 3d 9a 08 06 3e b9 fc 96 3d
       0.007215927 0.03496791 0.13089219 0.07372422
000170 8a 30 1f bd a6 cb 4a 3d fa 1c 80 bc 89 46 25 3d
       -0.03886465 0.04951062 -0.015638817 0.04035047
000180 42 c1 27 bd 49 70 48 3d 34 71 1d 3d 46 fc ed 3c
       -0.04095579 0.04893521 0.038438037 0.029050957
000190 23 64 19 3d c3 1f f6 3c 30 4a 27 bd 9f c6 2e bd
       0.037449013 0.030044442 -0.040842235 -0.04266989
0001a0 d1 10 28 bd 21 3e 3d bd 5b 56 91 3d ce 90 56 3d
       -0.041031662 -0.04620183 0.07096549 0.05238419
0001b0 dd 1a 73 3d 4c 0a 2d 3d b4 0f 12 3e 6c c4 cf 3d
       0.05935179 0.042246148 0.14263803 0.101448864
0001c0 94 10 94 3c af c8 a6 3c 7f a0 21 bc 3c 91 56 39
       0.018074311 0.020359365 -0.009864925 0.00020462734
0001d0 2f a9 62 bd 15 bf 44 bc c6 b7 97 3d 3a 19 3f 3d
       -0.055337127 -0.012008448 0.07408099 0.046654917
0001e0 d6 d5 f5 3d 26 66 a9 3d 35 1c 02 3e 24 ee 15 bd
       0.120036766 0.082714364 0.12706073 -0.03660406
0001f0 2a a5 0f bd a2 77 ad 3c 7d 73 e2 3c c3 d2 9c 3d
       -0.035069622 0.02117521 0.02764296 0.07657387
000200 4b 58 b5 3d d2 d7 2b 3e d3 8a 2c bc e0 35 bc 3d
       0.08854731 0.16781548 -0.010531145 0.09189963
000210 f5 92 9d 3d 84 41 22 3e 6b 45 32 be ce 9a 8b 3d
       0.076940455 0.15845305 -0.17409293 0.06816636
000220 cf 9d c9 bd 03 77 cc bd 64 b8 3d 3d 24 a5 85 bd
       -0.09844553 -0.09983637 0.046318427 -0.06525639
000230 a7 12 81 3d cd 6e 16 bb 65 89 ba 3c 2d c0 29 3d
       0.06302386 -0.0022954226 0.022770593 0.04144304
000240 f3 9c 82 bd 41 9b 00 3e 21 b7 4a bd b4 18 05 bd
       -0.06377592 0.12559225 -0.04949105 -0.03249426
000250 2b 1d e3 bc c0 76 4c 3d c5 5f 40 be e9 e9 88 3d
       -0.02772387 0.049917936 -0.18786533 0.0668524
000260 0d 8e 12 3e 45 d4 c8 bd 98 df 53 3c ce c3 d1 bd
       0.14312 -0.09806112 0.012931727 -0.10242425
000270 85 4c 07 bd 29 49 e4 3c 1b d8 2f 3d fc 84 8b bd
       -0.03303196 0.027866917 0.042930704 -0.06812474
000280 ac 8c be bb 68 d1 6a 3b 49 d4 85 bd a6 22 d9 3d
       -0.0058151092 0.0035830382 -0.06534631 0.10602312
000290 3d df 08 bd 17 83 f9 bd 3c 2f d2 3d 95 44 71 3d
       -0.03341602 -0.121832065 0.102629155 0.058903296
0002a0 74 5f 93 3c 0e 20 bb 3c 1d e2 77 3c f4 6f 44 3d
       0.017989852 0.022842433 0.015129593 0.04795833
0002b0 27 0d ba bd 30 5c 1d bd 88 aa cd 3c 18 92 80 3d
       -0.0908454 -0.038417995 0.02510573 0.06277865
0002c0 63 39 f8 bd e7 e9 90 3d cf 96 4f be 8d 01 c5 3d
       -0.12120321 0.07075863 -0.20272373 0.096194364
0002d0 21 8d 0d bd 95 05 a6 bc a8 41 66 bd c9 a3 8b 3d
       -0.03455842 -0.020266334 -0.05621496 0.06818349
0002e0 24 2e 4f 3d ef 8b 4b 3b 84 72 d1 bc ce ae df 3d
       0.050581113 0.0031058749 -0.0255673 0.10922013
0002f0 be 9f a7 3c 7f 8d 49 3d 80 ee d9 bc 48 b4 1c 3b
       0.020461913 0.049207207 -0.026602983 0.0023911167
000300 49 33 09 bd b7 e6 a3 bd a6 5c 20 bd 05 2b 47 bd
       -0.033496175 -0.0800299 -0.039150856 -0.04862501
000310 f4 4d 0b bd a5 14 b8 3d f3 99 98 3c 1e da 07 bd
       -0.03400989 0.08988313 0.018628096 -0.033166997
000320 98 e7 b4 bd 2c 4a a8 3a a9 8d e4 3d a1 5f 71 bc
       -0.088332355 0.0012839488 0.11159832 -0.014732272
000330 0d 5e ac bd e4 cd c4 3c a8 21 14 3d 0d 2d e8 3d
       -0.08416376 0.024023958 0.03616491 0.11336718
000340 23 1d 47 bd 1d 49 88 3d c5 d4 c9 bd 28 88 f5 3c
       -0.04861177 0.0665457 -0.09855036 0.02997215
000350 5b ae 31 3b 9e 6e a3 bd e0 63 bd 3d 1c b0 d3 bc
       0.002711198 -0.07980083 0.09247565 -0.025840811
000360 b0 be 3e bc 06 08 a7 3c aa 0b 45 3d 17 65 da bc
       -0.011642143 0.020389568 0.048106827 -0.026659532
000370 57 69 04 3d 34 e8 44 bc 84 00 6d 3d 66 6f be bc
       0.032327022 -0.012018252 0.05786182 -0.023246478
000380 6e 7c a3 3e 5d 03 38 bd ba 57 98 bd 07 93 e1 3d
       0.3193087 -0.044925082 -0.074386075 0.11014371
000390 e3 2b 54 bd 5d cb 67 3d ac 18 a5 3d d4 66 19 bc
       -0.051799666 0.056590427 0.080613464 -0.009362895
0003a0 e5 96 47 bc 3f 4b c2 bd 9f 44 67 3d 8c 03 81 3d
       -0.012181972 -0.09487008 0.056461927 0.06299505
0003b0 23 bd ad bd 53 46 b0 bc 76 7c 21 3d 6a 0e 30 bd
       -0.084833406 -0.021517908 0.039425336 -0.042982496
0003c0 c6 d6 6e 3e 28 bc 82 bb 2f 92 8b bd af 5a fd 3d
       0.23324117 -0.003989715 -0.06814992 0.12370812
0003d0 74 84 06 3e a3 ac 87 3d 9d 4e 5b 3d 4d 33 3c bc
       0.13136464 0.06624725 0.05354177 -0.01148684
0003e0 f2 84 19 be d0 d9 44 3d c0 16 40 3d 7d df 85 bd
       -0.14992121 0.048059285 0.046896696 -0.06536768
0003f0 7e be 8e bd 92 03 91 3d 14 e1 c4 bc 31 b1 bc 3c
       -0.06969927 0.07080759 -0.024033107 0.02303371

fc3.bias f4 [128]
000000 54 89 e4 3d f3 98 cb 3d 6a 71 c8 bd ee 4e 94 3d
       0.11159006 0.09941282 -0.09787257 0.07241617
000010 23 db db 3d fe 73 a6 3d cb e2 85 bc f7 27 b8 3d
       0.107351564 0.081275925 -0.016343495 0.08991998
000020 7b d6 0d 3e 27 33 1e 3d 9e 3a 28 bc d2 f0 91 3d
       0.13851349 0.038623 -0.010267882 0.07126011
000030 16 33 8f bd 87 0c 9d bd 0e 6c 99 bd d9 54 ac 3c
       -0.06992166 -0.07668405 -0.07491313 0.021036552
000040 8b a0 b9 ba 34 12 e8 3d 24 c9 fa bd 6c a8 12 3d
       -0.0014162225 0.11331597 -0.12245396 0.03580515
000050 d4 5e 2e bd 30 5e 50 bd 6c 04 1e 3d d7 bc 9b bc
       -0.042570904 -0.050871074 0.038578436 -0.019010944
000060 73 ea 03 3e b2 20 5d bd 8c ec a3 ba 10 60 19 bd
       0.12882404 -0.05398626 -0.001250641 -0.037445128
000070 e8 c3 95 bd 21 c9 eb 3c 5f 65 21 bd b8 8b 67 bc
       -0.07312757 0.02878243 -0.039403316 -0.014132433
000080 c0 7d cf 3d 83 a8 a0 3d c2 a5 5c 3c 81 6b 5d bd
       0.10131407 0.07844641 0.013467254 -0.0540576
000090 a9 b2 d9 3c 10 0c 1f bd 94 e3 b5 bd a3 ac 53 3d
       0.02657445 -0.038829863 -0.08881298 0.05167831
0000a0 81 04 c8 3d ef 7c ec 3d a4 cc 07 3d e3 02 a0 bd
       0.09766484 0.11547267 0.033154145 -0.078130506
0000b0 ab 9d e4 3d 93 fd 35 3d dd 54 82 3d ac 94 e4 3c
       0.11162885 0.04443128 0.06363843 0.027902924
0000c0 2c ce bd bd 30 09 dd 3d 38 99 07 3e 77 05 81 bc
       -0.0926784 0.10792768 0.13242042 -0.015749676
0000d0 3d 0f 51 bd bf fa ae bd 00 05 71 bb c0 30 0e 3e
       -0.051039923 -0.0854392 -0.0036776662 0.13885784
0000e0 5b 4d 89 bc e1 d8 68 bd b6 43 4d 3c 13 89 a6 bd
       -0.016760519 -0.056847457 0.012528351 -0.081316136
0000f0 01 5e de 3c 39 20 a1 3d 9d 8c 25 3c 8a aa 08 bd
       0.027144434 0.07867474 0.010104326 -0.033365764
000100 fb 83 c2 3c 38 44 95 3d d8 8b 76 3d 7a 00 99 3d
       0.023744574 0.07288402 0.06019196 0.07470794
000110 c6 7e 07 3d 76 c0 d6 3a cc df ca 3d f5 8b b7 3a
       0.033079885 0.0016384262 0.09905967 0.0014003502
000120 d3 4b 81 bd a7 ef cb 3c d0 d4 c3 bd de f6 e4 3d
       -0.063132904 0.024894549 -0.09562075 0.11179899
000130 d6 2e fd 3c f2 ed 03 3c 30 f2 8b bd 4c 10 34 bd
       0.030906122 0.008052336 -0.06833303 -0.043960854
000140 a4 0d ce 3d 45 c3 73 3c 48 48 b8 bd c5 50 d6 3d
       0.100611955 0.014878099 -0.089981616 0.10464624
000150 1e 19 a3 bd 8d 3b 59 3b e7 d0 9e 3b 16 34 18 3c
       -0.07963775 0.0033147067 0.0048466804 0.009289762
000160 61 20 72 bb 63 03 c2 bd 32 19 fc bc e9 18 4e bd
       -0.003694557 -0.09473302 -0.030773733 -0.050316725
000170 21 8a 32 bd 59 1d 52 3b 78 ba aa bb 3f 5f 8a 3d
       -0.04358876 0.003206095 -0.005210217 0.06756448
000180 53 be 6e bc c3 f6 79 3c 2c 5b 3b bd 86 5e de 3d
       -0.014571744 0.0152565865 -0.045741245 0.10857873
000190 c1 78 ae bd 7b ae d3 3d 9c 00 a1 3d bf 51 c5 bc
       -0.08519126 0.10336014 0.07861444 -0.024086831
0001a0 a9 c6 a9 3c cc 26 00 bd 34 4d f6 3d 04 7d 10 3e
       0.020724611 -0.031287 0.12026444 0.1411019
0001b0 e3 a0 bd 3d 9b 94 6a 3d 0c eb 7a bc c1 1a 67 3c
       0.09259202 0.057270627 -0.015314829 0.0141055
0001c0 40 c1 df bd d2 a1 c8 bc 3d e1 23 bd cf 19 03 bc
       -0.109255314 -0.024491224 -0.040009726 -0.008001759
0001d0 fa 27 84 bb 31 d2 40 bd fe 6d e5 3d ca b8 be 3d
       -0.004033086 -0.047075454 0.1120262 0.093125895
0001e0 6d 50 c0 bd 41 d6 76 3d 78 72 2b bd dd f0 b9 bd
       -0.0939034 0.060262922 -0.041857213 -0.09079144
0001f0 cc fa 43 3d bc 65 88 3c d9 ed be bc bd b4 c0 3d
       0.0478466 0.016650073 -0.023306774 0.09409473

fc4.weight f4 [2, 128]
000000 52 73 08 be 41 bb 20 3e 65 1f 09 3c e9 28 e4 3d
       -0.13325241 0.15696432 0.008369301 0.111406155
000010 ee 19 f5 bd 9b 1c ea bd 88 cd 53 3d 54 cb 54 bd
       -0.11967836 -0.11431237 0.05170968 -0.05195172
000020 36 06 2b be 04 0d 3a be b0 af 4e 3e 93 18 47 be
       -0.16701588 -0.18169028 0.20184207 -0.19442968
000030 de e7 17 bc 40 e6 73 3d 29 60 13 39 be 17 0d be
       -0.00927159 0.059545755 0.00014054835 -0.13778588
000040 55 dc 03 3e 08 e5 a1 bd d4 95 09 bd 07 f7 4b 3c
       0.12877019 -0.07905012 -0.033590153 0.012449033
000050 38 dc cc bd 2c 99 c4 bd 06 25 de bd 6e 55 06 3e
       -0.10002941 -0.09599528 -0.108469054 0.13118526
000060 ea 71 6a be a5 00 f3 bb 43 bf 4a be fa 9c 12 3e
       -0.22895017 -0.0074158483 -0.19799523 0.14317694
000070 e2 f0 af bd db ca 16 be b7 c7 c3 3d 3c 83 2d 3e
       -0.085908666 -0.1472582 0.09559577 0.16944593
000080 7e a1 bd bd 0b 46 96 bc 63 cd bc bc 9e d9 af 3c
       -0.09259318 -0.018343946 -0.023047155 0.021466073
000090 d8 38 71 3e a6 82 f5 3d e2 e9 47 bd 6f 08 ab be
       0.2355684 0.1198781 -0.048807032 -0.33404872
0000a0 37 d6 21 be 11 db ba be 46 3c 51 bd 5a 00 6e 3b
       -0.15804373 -0.3649526 -0.05108287 0.0036316128
0000b0 e8 4c d7 3d 9a 90 b5 bd e8 27 c7 bd 20 ca dd bd
       0.105127156 -0.08865471 -0.097244084 -0.10829568
0000c0 2d b6 6d be fc 8b 17 3e 2e bc 36 bd 95 97 cf bb
       -0.23214026 0.14799494 -0.044613056 -0.0063352087
0000d0 b0 da 21 3e 09 d9 81 3d 2b bc 01 3b b5 57 95 bd
       0.15806079 0.06340224 0.0019795995 -0.072921194
0000e0 7e 38 4e be fc bd 0a be 82 81 12 3d 4a ca 7a bd
       -0.20138738 -0.13549036 0.03576804 -0.061228074
0000f0 39 1b de 3d 21 e3 0c bd 71 a7 8d bd 81 d1 4e bb
       0.10845036 -0.034396295 -0.069167025 -0.003155798
000100 38 3a 15 3e 23 e9 0f be d6 c1 07 be ec f0 03 be
       0.1457299 -0.14053778 -0.13257536 -0.12884873
000110 65 4c 3b be 8e a7 17 3e 0b e4 27 be e0 56 53 be
       -0.18290861 0.14810011 -0.16395585 -0.20638609
000120 34 11 8a 3d 40 34 f4 3d dd 1d 9e bd da 73 16 be
       0.067415625 0.119240284 -0.0772054 -0.14692631
000130 51 dc b4 bd 2b cf 43 be 33 e6 d1 3c 12 98 3f be
       -0.088310845 -0.19121997 0.025622463 -0.18710354
000140 26 d1 87 be 9e 21 1b 3e 1d aa 39 39 e5 99 cf bd
       -0.26526755 0.15149543 0.00017706347 -0.10136775
000150 3d ee 78 bd 1d a9 29 3e e0 a7 47 be 2b 54 c9 bc
       -0.060774077 0.16568418 -0.19497633 -0.024576267
000160 01 ba d2 3d 88 75 86 3d 27 af d4 bd 2f 5a 95 3d
       0.10289384 0.06565386 -0.1038497 0.07292592
000170 5b f9 29 be 15 50 02 3e 55 c2 f8 3c f8 e3 0b be
       -0.16599028 0.12725861 0.030366102 -0.13661182
000180 90 52 4d bd b3 0e 2c be 6f 8f d3 3c 43 e4 4b be
       -0.050127566 -0.16802482 0.02582523 -0.19911294
000190 81 e0 82 3d ab 26 d6 bd be 62 e3 bd 64 95 48 be
       0.06390477 -0.10456594 -0.11102818 -0.19588238
0001a0 a3 e6 5a 3e 37 20 fb 3d 9b 6b b2 be 08 e0 88 be
       0.21377043 0.12262004 -0.3484772 -0.26733422
0001b0 15 98 a6 bd 16 92 45 bd 6f ba 27 bd c0 e5 53 be
       -0.08134476 -0.04823502 -0.04094928 -0.20693111
0001c0 16 18 f5 3d 74 30 70 be d6 37 ab bc d3 1e 3a bd
       0.11967485 -0.23455983 -0.020900648 -0.045439553
0001d0 7c dd 22 3e d3 7f 81 bd 11 e9 b1 bd e2 d5 b7 3d
       0.15904802 -0.06323209 -0.08687032 0.08976342
0001e0 24 9d c3 bd 16 84 28 bc 03 a6 5b bb eb 6a 91 3d
       -0.095514566 -0.010285398 -0.0033515699 0.07100471
0001f0 b3 7b 1e be 0f 36 ff 3d cb a2 19 be d5 7b 32 be
       -0.15476875 0.12461483 -0.15003507 -0.1743005
000200 98 e8 e6 bd 6e 6e ea 3a 57 ea ac 3b f8 94 54 3c
       -0.112748325 0.0017885694 0.005276959 0.01297497
000210 c3 7e 8f bd ef 64 bc bd 73 c1 85 bd 2f 3c d6 bd
       -0.070066 -0.09198939 -0.06531038 -0.10460698
000220 db 38 4f be 5a d8 30 be 0d c0 ec 3d 32 2b eb bd
       -0.20236532 -0.17270032 0.11560068 -0.11482848
000230 ba cc ed 3d c5 f1 e2 3c d0 86 d8 3e c5 f1 12 be
       0.11611314 0.027703175 0.42290354 -0.1435004
000240 a7 6b 41 bd bb 9b 21 be 13 39 a0 3d f5 d7 09 be
       -0.047221806 -0.15782063 0.07823386 -0.13461287
000250 41 56 f8 3d 28 d0 58 bd 8c 1a e3 bd 0f 27 08 bd
       0.121258266 -0.05293289 -0.11089048 -0.033240374
000260 63 d8 c5 bd 72 9e 92 bc 98 29 d3 bd cf 20 3b 3d
       -0.09660413 -0.017897818 -0.10310668 0.045685586
000270 01 13 90 3d 67 2b 2e 3d 45 98 5d bd 92 fb cb 3d
       0.07034875 0.04252186 -0.054100294 0.099600926
000280 01 6a 33 be 96 6f 0b be 9a f1 02 3f a4 25 0f 3b
       -0.17520906 -0.13616785 0.51149905 0.0021842504
000290 1e ab e9 3e 4b 13 54 3d 7c 91 1c 3d 6c e8 ca bd
       0.45638365 0.05177621 0.038224682 -0.09907612
0002a0 cf 3d 87 bd c8 a9 f1 bc 07 32 2a 3d 9e 1b d1 bb
       -0.06603586 -0.029499903 0.041551616 -0.006381466
0002b0 a6 3f c6 bd e1 13 e2 bd 6b 8a 02 3e 70 d7 cf bc
       -0.09680109 -0.11038948 0.12748115 -0.025371283
0002c0 ee 45 1b 3e 12 44 4f 3e ad ed 14 be 3e e9 05 be
       0.15163395 0.2024081 -0.14543791 -0.13077256
0002d0 9f 8f e9 3d fb 51 f4 3b 6e 18 8b bd bc cc 7d be
       0.11404347 0.007456062 -0.06791769 -0.24785131
0002e0 e5 c5 74 bd d8 53 92 3d cb 1c bb bd cd 82 97 3d
       -0.05975904 0.07144898 -0.09136351 0.07397995
0002f0 c5 63 47 3d b0 e5 6d be 3a f5 97 bd 66 9b 11 3c
       0.048679132 -0.2323215 -0.0741982 0.0088871475
000300 fe 2a 28 3e 32 7b ab bd 52 bc 24 be 27 dc 8a bd
       0.1642265 -0.08373107 -0.16087463 -0.06780272
000310 93 ad c0 bd e9 9d 44 3e 2b 14 58 3e ae e8 3b 3e
       -0.09408107 0.19200863 0.21101443 0.18350479
000320 b3 a3 b4 3c b3 ae 40 3e 0b dd 80 bd 7d 36 0f be
       0.022050714 0.18816642 -0.062921606 -0.1398563
000330 d7 99 ae 3e 51 a0 c1 bd 4f ec 6a 3d 05 fd 00 be
       0.34101745 -0.09454406 0.057354268 -0.1259652
000340 93 d3 62 3b d9 37 c7 3d 1a 9e 4c 3d 8c 66 4a be
       0.0034610971 0.09727449 0.049955465 -0.19765681
000350 72 87 4c 3e a5 6e 57 3d 6c 4d 03 bd 4f 62 11 bd
       0.19973543 0.052595753 -0.032056257 -0.035494145
000360 4e a2 23 3e fd be 31 3c df 33 11 3e f4 4c 26 bd
       0.15979883 0.010848758 0.14179944 -0.040600732
000370 a8 66 e1 bd e3 fa 61 3d a3 b6 85 3e 43 f5 8c bc
       -0.11005908 0.055170905 0.26115903 -0.017206794
000380 54 99 af 3d 8b 80 ce bd 21 9c fe bc bc cc e1 bd
       0.08574167 -0.100831114 -0.031080307 -0.11025378
000390 f2 e2 94 bc f6 b0 b9 bc f0 5a 98 3e 2b 8c 92 3e
       -0.018174622 -0.02266739 0.2975688 0.28622565
0003a0 63 6d e4 be 89 87 78 3e a3 d2 89 3c 2d 09 a3 bc
       -0.44614705 0.24270453 0.016824072 -0.019901836
0003b0 d8 2a 12 3f b7 f0 4c be 9d da 0a bd d1 7d 86 bd
       0.57096624 -0.200137 -0.033899892 -0.06566966
0003c0 85 a2 3c 3e 49 52 4e 3e f8 d5 37 bd f9 2f 75 ba
       0.18421371 0.20148577 -0.04488179 -0.0009353157
0003d0 8f e7 49 3d 02 a7 29 3d e5 f2 a5 bd e4 cb 74 bc
       0.049293097 0.041419037 -0.08102969 -0.014941189
0003e0 8d 64 ae 3e 9a 3d 65 be 32 35 9c 3c 74 35 50 3d
       0.3406109 -0.2238678 0.019068334 0.050832227
0003f0 6e 3e 9e bd 2d 9d 2f 3e 43 c7 5c bd d9 f6 95 bd
       -0.07726751 0.17149802 -0.05390097 -0.07322473

fc4.bias f4 [2]
000000 7d 1d 7f bd 84 c3 d4 3c
       -0.06228398 0.025972135

fc1.weight f4 [128, 7]
000000 7d a8 81 3e 91 09 f0 be a3 64 36 3e da 1c 32 3e
       0.2532386 -0.468823 0.17811827 0.17393818
000010 78 1b 8a be 1f ed 21 3e 7c f0 50 3e f7 a8 4b 3d
       -0.26974082 0.15813111 0.20404238 0.049721684
000020 7f 0d 97 3e 08 f0 91 3c 2f 65 81 3e dc 3c ab 3d
       0.29502484 0.017814651 0.2527251 0.083612174
000030 f4 ad 83 3d f0 7f 2e 3e f8 8b b6 be 8a de dd 3d
       0.06429663 0.17040992 -0.35653663 0.108334616
000040 f5 60 1f be 14 69 b6 be ee 36 95 be 0e 18 0e bd
       -0.1556433 -0.35627043 -0.2914347 -0.03469091
000050 59 36 e8 3c ae d8 79 be c5 78 4f 3e e3 7d 56 3d
       0.028346227 -0.24399063 0.20260914 0.05236615
000060 d9 d3 c6 3d 27 1f 8e 3c f5 9a a9 3d bc b1 d7 3e
       0.097083755 0.017348839 0.08281509 0.42127788
000070 79 90 01 bd d5 8b b5 3e b6 c0 00 bf 7f d2 91 bd
       -0.03163192 0.35458246 -0.50294054 -0.07120227
000080 4b 52 be be 0c 62 4f 3e 9b b1 cc 3e 42 c5 a2 3c
       -0.3717216 0.20252246 0.39979252 0.01986945
000090 48 7a 0f 3e 5d db 79 3e 86 ff 91 be f3 67 9e 3d
       0.1401149 0.24400087 -0.2851526 0.077346705
0000a0 13 53 ad be 1e 7d cb bd 6a 78 06 3e 5f 59 85 be
       -0.33852443 -0.099359736 0.13131872 -0.26044747
0000b0 3d 31 02 3e 1e a0 6b be bb 1b 0c be c3 e7 ba be
       0.12714095 -0.23010299 -0.13682453 -0.36504945
0000c0 9c 78 69 be 96 4d 17 bc 3d 3b fa 3d 0c fa 9f be
       -0.22799915 -0.0092348065 0.1221833 -0.31245458
0000d0 5b b4 a7 be 6c 74 de 3d 65 fa 41 3e 5c 00 be 3e
       -0.32754788 0.108620495 0.18943174 0.3710965
0000e0 73 0a 15 be 71 bf 2e 3e f8 86 c8 3e 78 28 e3 3d
       -0.14554767 0.17065217 0.39165473 0.11091703
0000f0 8a b6 9e be bd 84 ca 3e 71 56 02 3e 9a 79 30 be
       -0.3099864 0.39554396 0.12728287 -0.17233887
000100 0a 05 99 be 48 3f 91 3e 8f 4a b1 bd 60 63 69 be
       -0.29886657 0.28368592 -0.08656799 -0.22791815
000110 33 bb 49 be 6b 18 fa 3d a8 14 22 3e b8 d8 c7 3e
       -0.19700317 0.122116886 0.15828192 0.3903253
000120 f3 1a 0e bd 75 88 bf 3e 02 a0 d9 3e 57 c8 7a bd
       -0.03469367 0.37408796 0.4250489 -0.061226215
000130 55 63 ee be 50 2a 22 3e 56 58 74 be af f2 16 3d
       -0.4656016 0.15836453 -0.23861822 0.036852535
000140 b5 c7 48 be 9b 59 20 bf 3d ae f2 3e 95 ff 48 be
       -0.19607432 -0.6263673 0.47398558 -0.19628747
000150 9c b8 21 3e cf 95 bc be bc ec b5 3e 17 d3 36 be
       0.15793079 -0.36833045 0.35532176 -0.17853962
000160 11 3f b5 3e 26 1a 8d be 09 c7 42 bd b5 a8 a6 3e
       0.35399678 -0.27559012 -0.047553096 0.32550588
000170 3d 8e b3 3e f5 24 7a be b0 ba 91 be f3 95 a5 3e
       0.35069457 -0.2442816 -0.28462744 0.32340965
000180 43 b1 1e 3e e8 55 6c be 18 50 51 3e ac a7 8c be
       0.15497307 -0.23079646 0.2044071 -0.27471673
000190 d7 49 21 be 32 77 20 be 48 5d d3 3b 66 ec bf 3e
       -0.15750824 -0.1567047 0.006450329 0.37485045
0001a0 74 4b 32 be 82 22 ea 3d b3 fe 70 be 4e 02 76 3e
       -0.17411596 0.11432363 -0.2353466 0.24024317
0001b0 cd aa 55 3e 98 06 00 be 13 5c d0 3e d2 93 d4 bd
       0.20865937 -0.12502515 0.40695247 -0.10379757
0001c0 77 08 da 3c ed e3 4c 3e dc ab dd bd de 7d de be
       0.026615364 0.20008822 -0.10823795 -0.43455404
0001d0 69 03 af 3b 13 f6 88 be 60 71 63 3e f0 5b ff 3e
       0.0053409827 -0.2675024 0.22211218 0.4987483
0001e0 a8 99 82 3e b8 6b 9d 3e 8e b7 51 be a4 7e be be
       0.25507855 0.30746245 -0.20480177 -0.37205994
0001f0 fd 25 fe 3d f3 af 43 be 06 35 fd 3d 8e 9a 97 bd
       0.124095894 -0.19110088 0.12363629 -0.07402526
000200 6a 00 47 bf d0 b5 a6 3d 09 b8 cc 3a cc 2f bd be
       -0.77735007 0.08140147 0.0015618812 -0.3695053
000210 d9 2b 08 3e 57 64 41 3c b7 bf 88 be 88 e9 50 be
       0.13297977 0.011803708 -0.26708767 -0.20401585
000220 b0 84 1d 3e 6e e1 9a be 08 e7 22 be 20 81 2d be
       0.15382648 -0.30250114 -0.15908444 -0.16943789
000230 aa 2d 43 be 0c dc 3a be d0 d3 3e 3e 1e e2 d1 bd
       -0.19060388 -0.18248004 0.18635488 -0.102482066
000240 16 16 8c be b0 d5 76 3e ac 11 a7 be cb 7e 38 be
       -0.273606 0.24104953 -0.3263067 -0.18017118
000250 6f b2 aa bd b3 9c 9d be bf f7 e9 bc 55 04 8e be
       -0.08334815 -0.30783615 -0.028560517 -0.2773768
000260 17 b7 de 3d 4e 8c 06 be a7 e2 4b 3e f8 a0 a8 3e
       0.10874765 -0.1313946 0.1991068 0.3293531
000270 ee a7 7d be e2 c9 1b be f1 1d 26 be 81 85 d7 bd
       -0.24771091 -0.15213731 -0.16222359 -0.10523511
000280 69 b8 a4 3e 1f 37 f3 be 50 0f 22 be 46 60 9e bd
       0.32171944 -0.47502992 -0.15826154 -0.077332065
000290 ef 19 56 3e 6c 99 ad 3e 45 cb 93 3e 93 67 ea be
       0.2090833 0.33906114 0.2886602 -0.45782146
0002a0 bb 0f 07 3e c8 59 b4 be 12 b5 cc be 69 00 e6 3d
       0.13189594 -0.35224748 -0.39981896 0.11230547
0002b0 8b bc ed 3d 40 5a 7b 3c c6 95 96 3d 9b ef 80 3c
       0.11608227 0.0153413415 0.07352786 0.015739253
0002c0 43 e0 ca 3c b2 cc 75 bf 27 0a 82 be a7 1e e6 bc
       0.02476514 -0.96015465 -0.2539837 -0.028090788
0002d0 ab 79 c9 be c6 3d 22 3e 28 55 85 3d 35 5a f5 3d
       -0.39350638 0.15843877 0.06510383 0.11980096
0002e0 db 35 8b be f3 75 05 3e ae 93 85 3e e6 be 7d 3e
       -0.27189526 0.13033275 0.26089233 0.24779853
0002f0 0e 5b 85 be a3 25 14 bd 46 22 6a be 51 55 cb 3e
       -0.26046032 -0.036168706 -0.22864637 0.3971353
000300 b7 5c 9f be d3 74 a9 be 17 60 9d 3a 01 64 1b be
       -0.31125423 -0.33096942 0.0012006786 -0.15174867
000310 29 6b 7f 3e 60 bb 07 3e 12 d1 06 be 2b 88 82 bd
       0.24943222 0.13255072 -0.13165691 -0.06373628
000320 8e d3 6b be 91 01 d6 3d f8 90 e3 3d 2b 4f a9 be
       -0.2302992 0.104495175 0.11111635 -0.33068213
000330 25 37 4e be c7 65 94 3e 20 32 02 be 1b 1c e2 3e
       -0.20138223 0.289839 -0.12714434 0.44162068
000340 4c d2 2d be 8c 71 52 be 73 af b8 be a3 49 ae 3e
       -0.16974753 -0.20551127 -0.36071357 0.34040555
000350 5d 1c c1 be 06 a1 18 bd 9e 71 73 3d ff 07 d5 3d
       -0.37716952 -0.03726294 0.059434526 0.10401916
000360 63 7f 54 be 57 df b1 bd 54 26 31 be df d8 52 bd
       -0.20751719 -0.08685177 -0.17299777 -0.051476356
000370 49 6c 18 be 77 61 ba be 65 96 3a 3e 0e 2e 52 be
       -0.14885058 -0.36402485 0.18221433 -0.20525381
000380 83 01 36 be 36 3c 9d 3e ce fa 2a bf 5b b4 89 3e
       -0.17774014 0.3071 -0.6678895 0.26895413
000390 67 60 94 3e 17 03 22 3e 39 78 0e 3e 43 03 60 3e
       0.289798 0.15821491 0.13913049 0.21876244
0003a0 27 2c bc bc 3b 4d e9 be 07 c6 40 bd ff f2 ba 3e
       -0.022970272 -0.45566735 -0.047063854 0.36513516
0003b0 de 35 3b 3c 69 5a bc 3e 3e 1d 3e bd 1b 19 18 bd
       0.011426417 0.36787727 -0.046414606 -0.037133317
0003c0 8b 1c 40 be 36 11 f2 bd 65 3a 98 be d1 8f 0e be
       -0.18760888 -0.11819689 -0.29732051 -0.13922049
0003d0 bc 72 f8 3e fa 71 52 3e e2 b1 dc 3e f7 75 3c bd
       0.48525035 0.20551291 0.43104464 -0.046010938
0003e0 84 42 90 3e 4a ca 74 3e ed 8a 9a 3e 12 3b 95 3e
       0.28175747 0.23905292 0.30184117 0.2914663
0003f0 88 25 a5 be fc 0c ad 3e b7 ad b5 3e f4 4e 9a 3e
       -0.32255197 0.3379897 0.35484096 0.3013836

fc1.bias f4 [128]
000000 7c 0c 9f be 59 ac 01 3d a8 10 4d 3e 70 44 aa bc
       -0.31064212 0.031658504 0.20025885 -0.020784587
000010 9a 64 ab 3e 33 07 ae be 33 62 35 3e 81 da 32 3e
       0.3347519 -0.33989868 0.17713241 0.17466165
000020 31 53 0a bd 5b e1 7f bd 66 0b 39 3e ed 56 0c 3e
       -0.033770744 -0.062470775 0.18070754 0.13705035
000030 50 c3 c4 be 66 61 2e bd 52 aa 6f be da e5 87 be
       -0.38430262 -0.042573355 -0.23404816 -0.2654255
000040 10 1f 1f be cc 85 88 be 0e 29 8c 3e 90 4c 39 3e
       -0.15539193 -0.2666458 0.27375072 0.18095613
000050 2c 60 5e be 27 3f 9a bd bd 07 79 3e 6c fc 45 3d
       -0.21716374 -0.075315766 0.24319358 0.04833643
000060 e1 6a cd bd 02 a0 72 3e 2a 7c 95 3e 83 b2 b0 3e
       -0.10030151 0.2369385 0.29196292 0.34511194
000070 8e 10 27 3d 11 62 70 3e f7 4f 61 be 0e 75 b1 be
       0.040787272 0.2347491 -0.2200316 -0.34659618
000080 67 97 6b bc 3e 96 d8 3d a4 79 42 3c 45 73 97 3e
       -0.014379359 0.105755314 0.011869822 0.2958013
000090 53 7a 78 3e fd 63 22 3e 55 36 e8 3c 44 ec 87 3a
       0.24265413 0.15858455 0.02834622 0.0010370095
0000a0 92 53 ac 3e 4d c4 83 3e 79 01 36 3a 9d f6 ce 3e
       0.3365751 0.25735703 0.00069429685 0.40422526
0000b0 3f 22 02 be 00 e0 41 3e 60 55 52 3e 63 e4 8a 3d
       -0.12708376 0.18933105 0.2054038 0.067818426
0000c0 62 3d a9 be 7e 4c 74 3e bc e5 c6 bc 7f 08 bd be
       -0.33054644 0.23857304 -0.024279468 -0.36920545
0000d0 d2 cf 51 be 14 15 d6 be a9 92 9d bd 58 83 8b 3d
       -0.20489433 -0.41812956 -0.07693989 0.06812161
0000e0 40 28 8d be f6 03 a7 be 90 c6 c0 be da a9 93 3e
       -0.2756977 -0.3262021 -0.3765149 0.28840524
0000f0 c1 e5 f5 3d ed 74 49 be 11 eb ad bd ac 5d a9 bd
       0.12006713 -0.1967351 -0.08492101 -0.082698196
000100 43 6f cf bd d8 f6 33 3e 84 6e 90 bd bd 10 02 be
       -0.10128643 0.17574632 -0.07052329 -0.12701698
000110 5c 20 1a be 92 69 80 bd ec b7 66 3e 93 a3 bc 3c
       -0.15051407 -0.06270136 0.22531098 0.023027217
000120 cd e2 2e be 31 bd 08 bd c5 46 1b 3e bd ea a9 be
       -0.17078705 -0.033383552 0.15163715 -0.33186904
000130 82 50 40 3e d7 87 1c 3d 1d a9 82 3d b7 be 1b be
       0.18780711 0.038215484 0.06379912 -0.1520947
000140 40 b1 8e 3e 7b 3c f2 bd dd cd 90 3e 66 a7 9e be
       0.27869606 -0.11827942 0.2828206 -0.3098709
000150 a5 c5 a7 bd bf e1 8d 3e f2 45 2f be 55 4e 1c be
       -0.081919946 0.27711293 -0.17116526 -0.15264256
000160 90 b6 b5 3e 1a 34 c6 3d 86 48 b9 bd e4 8a 76 be
       0.35490847 0.09677906 -0.09047036 -0.2407642
000170 aa e2 96 3e 80 4e c4 3e dd 18 6e bd 7c ef 45 3e
       0.29469806 0.3834114 -0.05812918 0.19329637
000180 14 8f ba be 34 ee a6 3e c7 e9 ee 3d 8a 6f 67 bd
       -0.36437285 0.3260361 0.11665683 -0.056502856
000190 21 f6 0a 3e f5 03 a7 3e 60 7c 77 3e b5 68 84 bd
       0.13570453 0.32620206 0.24168539 -0.06465284
0001a0 2b f1 e8 3d cd 3f 20 be 30 ed 0f be d3 53 8e 3e
       0.11374124 -0.15649338 -0.14055324 0.27798328
0001b0 28 25 87 3e 54 2b 90 be 5f f7 26 be 32 b1 99 3e
       0.26395535 -0.28158057 -0.16305302 0.30018002
0001c0 c1 4b 91 3e 66 a9 2f 3e 4a 09 a7 3e b4 eb a5 be
       0.28378108 0.17154464 0.32624274 -0.3240639
0001d0 51 a6 ca bc 8f 36 53 bd 32 73 85 3e 85 63 a7 bd
       -0.024737509 -0.051565703 0.2606445 -0.08173279
0001e0 48 ed ac 3d bf e7 7d 3c 32 09 32 be 35 3c 00 3e
       0.08443695 0.015497147 -0.1738632 0.12522967
0001f0 b6 4c 2d be ba 02 15 be 36 37 91 3e 19 a4 94 be
       -0.16923794 -0.14551821 0.28362435 -0.29031447
