flappybird_dqn_ep310.pth (torch, 561729 bytes, 32 tensors)

fc1.weight f4 [128, 7]
000000 31 52 81 3e e4 a5 fc be df 4c 3d 3e bd 38 2c 3e
       0.2525802 -0.49345315 0.18486355 0.16818519
000010 9d ab 80 be 4c 46 2b 3e db 31 5f 3e 5f 88 6d 3d
       -0.2513093 0.16726035 0.21796362 0.05799138
000020 96 2c ad 3e 8e d3 fe 3b 6c af 77 3e f7 cb 83 3d
       0.3382308 0.007776684 0.24188012 0.064353876
000030 ee 0d 6d 3d a7 4c 09 3e f8 8b b6 be 8a de dd 3d
       0.057874613 0.13408147 -0.35653663 0.108334616
000040 f5 60 1f be 14 69 b6 be ee 36 95 be 0e 18 0e bd
       -0.1556433 -0.35627043 -0.2914347 -0.03469091
000050 59 36 e8 3c fc ea 7d be 6d 6c 1c 3e b7 0a 3c 3d
       0.028346227 -0.2479667 0.15275736 0.045908656
000060 e0 2b c5 3d 20 c4 59 3d 97 f0 b3 3d 02 62 d7 3e
       0.09627509 0.053165555 0.08786123 0.42066962
000070 1a 16 27 bd 2d ce ba 3e 5a 4d 01 bf fb 14 aa bd
       -0.040792562 0.36485425 -0.50508654 -0.08304783
000080 12 8f d4 be ba de 41 3e 55 a4 c9 3e 42 c5 a2 3c
       -0.41515404 0.1893262 0.39383188 0.01986945
000090 48 7a 0f 3e 5d db 79 3e 86 ff 91 be f3 67 9e 3d
       0.1401149 0.24400087 -0.2851526 0.077346705
0000a0 13 53 ad be 1e 7d cb bd 8d 56 dd 3d 43 78 8b be
       -0.33852443 -0.099359736 0.10807524 -0.2724019
0000b0 90 26 ed 3d 45 0b 82 be 99 f5 27 be 24 5a c6 be
       0.11579621 -0.25399223 -0.16402282 -0.38740647
0000c0 57 94 82 be 66 c4 d2 bc fc de ee 3d b7 30 ac be
       -0.255038 -0.025728416 0.11663625 -0.33630916
0000d0 4d e2 b5 be 86 dc 44 3d b1 fa 2a 3e 1a c5 b4 3e
       -0.35524216 0.04806187 0.16697194 0.35306627
0000e0 3b 40 0b be ec 3c 19 3e 1c d7 ca 3e a9 4d ef 3d
       -0.1359872 0.14964646 0.3961724 0.116847344
0000f0 4f b4 91 be fa e4 d3 3e c9 1a f8 3d 9a 79 30 be
       -0.28457877 0.41385633 0.12114484 -0.17233887
000100 0a 05 99 be 48 3f 91 3e 8f 4a b1 bd 60 63 69 be
       -0.29886657 0.28368592 -0.08656799 -0.22791815
000110 33 bb 49 be 6b 18 fa 3d 5a 06 11 3e 55 bf b4 3e
       -0.19700317 0.122116886 0.14162579 0.35302225
000120 b2 a0 00 bd d6 37 b6 3e ac 0f da 3e d3 d8 86 bd
       -0.03140325 0.35589474 0.42590082 -0.06584325
000130 bb 0d 05 bf 8d 36 22 3e b7 11 81 be 52 70 34 3d
       -0.51974076 0.15841122 -0.25208828 0.04405243
000140 26 a1 4f be 50 27 1f bf e7 ee f4 3e bb 13 5e be
       -0.20276317 -0.6216936 0.47838518 -0.21687214
000150 9c b8 21 3e cf 95 bc be bc ec b5 3e 17 d3 36 be
       0.15793079 -0.36833045 0.35532176 -0.17853962
000160 11 3f b5 3e 26 1a 8d be 09 c7 42 bd 2b 90 9a 3e
       0.35399678 -0.27559012 -0.047553096 0.30188116
000170 2c 06 ab 3e d7 db 85 be df e9 9c be 88 43 9f 3e
       0.33403146 -0.26144287 -0.3064718 0.3110621
000180 53 76 08 3e 09 05 8f be 8f 86 45 3e 14 2b 90 be
       0.13326387 -0.2793353 0.19289611 -0.28157866
000190 e6 12 2e be b2 5e 22 be aa de 8f bb b4 cd b9 3e
       -0.16999397 -0.15856436 -0.0043905573 0.36289752
0001a0 35 41 2d be d2 af 1d 3e ec 6c 7b be 35 c4 91 3e
       -0.16919406 0.15399101 -0.24553269 0.28470007
0001b0 4e fd 6c 3e 91 ae cd bd fb 33 e6 3e 58 78 a0 bd
       0.23143503 -0.100430615 0.44961533 -0.07835454
0001c0 77 08 da 3c ed e3 4c 3e dc ab dd bd de 7d de be
       0.026615364 0.20008822 -0.10823795 -0.43455404
0001d0 69 03 af 3b 13 f6 88 be 60 71 63 3e 75 e6 04 3f
       0.0053409827 -0.2675024 0.22211218 0.5191415
0001e0 a9 47 96 3e b1 1a a3 3e 75 01 3a be d8 69 b2 be
       0.29351547 0.318563 -0.18164618 -0.34846377
0001f0 30 cf 0c 3e e7 a8 2f be ba e3 d5 3d cf 87 80 bd
       0.13750911 -0.17154275 0.10443826 -0.062759034
000200 02 a8 5f bf 3b 31 9a 3d 62 fa 8e bc a3 d4 cd be
       -0.87365735 0.07528921 -0.017453376 -0.4020129
000210 ce 4c fd 3d 9e de 69 3c cc 82 8a be 20 44 64 be
       0.12368165 0.0142742675 -0.27052915 -0.22291613
000220 43 1b 2d 3e a7 16 a8 be dd c7 18 be 54 84 4e be
       0.16904931 -0.32829782 -0.14919992 -0.20167667
000230 aa 2d 43 be 0c dc 3a be d0 d3 3e 3e 1e e2 d1 bd
       -0.19060388 -0.18248004 0.18635488 -0.102482066
000240 16 16 8c be b0 d5 76 3e ac 11 a7 be cb 7e 38 be
       -0.273606 0.24104953 -0.3263067 -0.18017118
000250 6f b2 aa bd b3 9c 9d be bf f7 e9 bc 55 04 8e be
       -0.08334815 -0.30783615 -0.028560517 -0.2773768
000260 17 b7 de 3d 4e 8c 06 be 8e 78 4a 3e 70 0d bc 3e
       0.10874765 -0.1313946 0.1977255 0.36729002
000270 bb d4 81 be dc df 1e be 12 f1 45 be ac a0 f5 bd
       -0.25357613 -0.15515083 -0.19330242 -0.11993536
000280 76 27 a7 3e 8d 6d fb be 91 b7 19 be 15 cc 10 be
       0.32647294 -0.49107018 -0.15011431 -0.14140351
000290 81 85 4c 3e 5f 8b a6 3e 9b d3 87 3e 97 2f ff be
       0.19972803 0.32528207 0.2652863 -0.49840996
0002a0 41 a7 04 3e bf 1f af be 6e df cd be 7d 36 00 3e
       0.12954427 -0.34203908 -0.40209526 0.12520786
0002b0 43 67 c6 3d 0b 5b 8d 3c db cc d6 3d d2 05 51 3c
       0.09687664 0.017255327 0.10488292 0.012757735
0002c0 4b 9c dd 3c be d0 76 bf a9 98 81 be c5 7d a5 bc
       0.027052065 -0.96412265 -0.25311783 -0.020201573
0002d0 9c 70 cc be 94 e7 35 3e b4 ff 5f 3d ef 35 f5 3d
       -0.39929664 0.17764121 0.054687217 0.11973178
0002e0 60 6d 84 be 70 10 ec 3d 5c bd 78 3e cc 79 7a 3e
       -0.25864697 0.11526573 0.24290985 0.24460524
0002f0 4e 4f 9b be 38 d3 a2 bc 31 1a 51 be 23 64 d0 3e
       -0.30333942 -0.019876108 -0.20420147 0.40701398
000300 53 ae 98 be 6e 39 9a be 75 64 74 3c bd c1 1a be
       -0.298205 -0.3012194 0.014916529 -0.15112968
000310 3d 86 84 3e 7c ef 18 3e b2 f7 04 be 6e 72 7f bd
       0.25883666 0.14935106 -0.12985113 -0.062364988
000320 e3 a9 67 be e5 74 db 3d cf 43 d6 3d c4 5d a2 be
       -0.226234 0.10715655 0.10462152 -0.31712162
000330 b7 ee 50 be 05 b9 97 3e 3c 04 d4 bd ce 0b f5 3e
       -0.20403562 0.29633346 -0.1035237 0.4786057
000340 9e dc 1e be 35 52 3e be 73 af b8 be a3 49 ae 3e
       -0.15513846 -0.18586047 -0.36071357 0.34040555
000350 5d 1c c1 be 06 a1 18 bd 9e 71 73 3d ff 07 d5 3d
       -0.37716952 -0.03726294 0.059434526 0.10401916
000360 63 7f 54 be 57 df b1 bd 54 26 31 be df d8 52 bd
       -0.20751719 -0.08685177 -0.17299777 -0.051476356
000370 49 6c 18 be 77 61 ba be 65 96 3a 3e 0e 2e 52 be
       -0.14885058 -0.36402485 0.18221433 -0.20525381
000380 ab 47 44 be 7a f5 ae 3e 46 03 42 bf 02 e6 84 3e
       -0.19167964 0.3417166 -0.75786245 0.25956732
000390 a2 b0 7a 3e f1 f5 fd 3d 95 6c 02 3e 79 9a 48 3e
       0.24481443 0.12400425 0.12736733 0.19590177
0003a0 bd 46 a9 bb dd 26 f9 be 3d 6a 88 bd 0b cc a7 3e
       -0.0051659034 -0.48662463 -0.06660888 0.3277286
0003b0 6a ae bb bc 3b ed b6 3e c2 fa 22 bd e5 38 68 bd
       -0.022910316 0.35727867 -0.039789923 -0.056694884
0003c0 59 28 85 be 7b 59 c2 bd 19 d9 8e be 68 7f 10 be
       -0.26007345 -0.09489723 -0.27900007 -0.14111102
0003d0 c5 db fe 3e b2 92 4b 3e 38 0e e6 3e 3a 9c 69 bd
       0.49777046 0.19880179 0.44932723 -0.057033755
0003e0 14 d8 86 3e ec 25 5d 3e b5 77 95 3e 05 80 80 3e
       0.2633673 0.21596497 0.29192892 0.2509767
0003f0 59 e5 a5 be c2 1c 9e 3e 54 0d b7 3e 7a 4c 97 3e
       -0.3240154 0.30881315 0.35752356 0.29550534

fc1.bias f4 [128]
000000 48 d1 9b be e4 c1 e5 3c 30 75 a5 3e d4 25 5e bc
       -0.30433106 0.028046556 0.3231597 -0.013558824
000010 14 26 a2 3e 33 07 ae be 6e 48 90 3e 1e cd 14 3e
       0.31669676 -0.33989868 0.2818026 0.14531371
000020 9f 85 8d bc 5b e1 7f bd 23 cc 2b 3e 7e e7 08 3e
       -0.01727563 -0.062470775 0.1677709 0.13369557
000030 50 c3 c4 be 36 00 7f bd 06 04 7d be 55 dc 6c be
       -0.38430262 -0.06225606 -0.24708566 -0.23130925
000040 10 1f 1f be 4a 54 79 be aa b6 84 3e e0 70 57 3e
       -0.15539193 -0.2434856 0.25920612 0.21039152
000050 2c 60 5e be 27 3f 9a bd f5 d5 6e 3e 45 c8 25 3d
       -0.21716374 -0.075315766 0.23323806 0.040474195
000060 fd e9 e1 bd c4 b9 7a 3e f8 fe 8d 3e 11 8f ba 3e
       -0.11030958 0.24484926 0.27733588 0.36437276
000070 31 3c 31 3d ed 70 85 3e f7 4f 61 be 0e 75 b1 be
       0.043270294 0.26062718 -0.2200316 -0.34659618
000080 ef 0e 2c bd d3 c8 a1 3d 36 74 f8 3c 28 d2 8f 3e
       -0.04200643 0.07899632 0.030328851 0.28090024
000090 cb 2f 7d 3e 8c 1e 33 3e 6e d0 54 3d 48 c1 0e bd
       0.24725263 0.17492121 0.051956587 -0.034852296
0000a0 13 45 b5 3e 60 fe 8d 3e 43 f6 aa 3b 3f 15 cd 3e
       0.35404262 0.27733135 0.005217345 0.40055272
0000b0 3f 22 02 be 2b 5b 2b 3e dc a9 31 3e 28 90 6e 3d
       -0.12708376 0.16733997 0.17349952 0.058242947
0000c0 62 3d a9 be 47 5d 9d 3e 0e ba 05 bd 7f 08 bd be
       -0.33054644 0.30735227 -0.03264814 -0.36920545
0000d0 d2 cf 51 be 3d 52 d5 be a7 74 ae bd b2 26 a7 3d
       -0.20489433 -0.41664305 -0.085183434 0.081616774
0000e0 40 28 8d be f6 03 a7 be 90 c6 c0 be 0b 70 96 3e
       -0.2756977 -0.3262021 -0.3765149 0.29382357
0000f0 13 b2 ea 3d d8 dd 4b be c2 3f 95 bd 50 f5 9d bd
       0.11459746 -0.19908845 -0.072875515 -0.07712805
000100 da f5 ca bd a2 a4 17 3e 84 6e 90 bd 71 0d 0c be
       -0.09910174 0.14808896 -0.07052329 -0.13677002
000110 5c 20 1a be f7 a8 6c bd fb 55 80 3e f0 ac de 3b
       -0.15051407 -0.057778325 0.25065598 0.006795518
000120 cd e2 2e be cc 3c 72 bc be 20 09 3e 05 18 9e be
       -0.17078705 -0.014785003 0.13391396 -0.308777
000130 3e 33 36 3e c2 0f 40 3d 5a 7f 69 3d b7 be 1b be
       0.17792985 0.046890028 0.057006218 -0.1520947
000140 34 79 87 3e e2 93 ee bd 95 53 88 3e 66 a7 9e be
       0.26459658 -0.116493 0.26626268 -0.3098709
000150 0d e7 a9 bd 1e 56 89 3e f2 45 2f be 4f de 1a be
       -0.082960226 0.26823515 -0.17116526 -0.15123866
000160 e6 d3 b2 3e a1 66 b5 3d 14 5d 9e bd e4 8a 76 be
       0.3492729 0.088574655 -0.07732597 -0.2407642
000170 67 3a 9f 3e 64 88 b7 3e dd 18 6e bd 79 4b 3b 3e
       0.31099245 0.35846245 -0.05812918 0.1829051
000180 14 8f ba be cb 3d a2 3e f2 ae 0c 3e fb 60 86 bd
       -0.36437285 0.3168777 0.13738611 -0.06561466
000190 17 e8 f7 3d b4 ba 9c 3e 26 23 87 3e f6 ac 5b bd
       0.121048145 0.30611193 0.26394004 -0.053631745
0001a0 7c 29 eb 3d cd 3f 20 be 10 dc 13 be ed 14 90 3e
       0.11482522 -0.15649338 -0.14439416 0.28140965
0001b0 be 87 85 3e 76 05 91 be 3b 5d 1c be a1 e9 93 3e
       0.26080126 -0.2832448 -0.1526994 0.28889182
0001c0 77 f3 8b 3e 90 55 17 3e f8 85 ac 3e a1 59 ab be
       0.27334186 0.14778733 0.3369596 -0.3346682
0001d0 51 a6 ca bc 8f 36 53 bd 94 95 8a 3e 13 2b c8 bd
       -0.024737509 -0.051565703 0.27067244 -0.09773841
0001e0 3e bd 88 3d e5 a3 06 bc 36 b6 28 be 87 a5 ec 3d
       0.0667672 -0.008217786 -0.16475758 0.11555009
0001f0 9d 97 46 be 64 e8 2c be f0 38 98 3e 19 a4 94 be
       -0.19393773 -0.16885525 0.2973094 -0.29031447

fc2.weight f4 [128, 128]
000000 5a b6 54 3e 75 5e 50 bc bb a3 f7 bd 2a 11 12 bb
       0.20772687 -0.012717833 -0.12091776 -0.0022288063
000010 69 bf ab bc 1e fd 4f bd 2a ef 60 be c9 74 ff bb
       -0.020965295 -0.0507785 -0.21966234 -0.0077959043
000020 ae 5e 0c bc 20 1b 3e 3d 14 ac 71 3c 77 07 61 3e
       -0.008567495 0.046412587 0.014750499 0.21975504
000030 f4 e6 f6 bc c6 40 5d 3e 2d 12 e2 3c 50 e4 96 3d
       -0.030139424 0.2160674 0.027596558 0.07367766
000040 db e6 ac 3c 2f 44 1b 3e 0b 98 d8 3c 94 df 11 be
       0.021106174 0.15162729 0.026439687 -0.14245445
000050 06 e5 03 3d bf ed 6b 3c 61 3f 28 3d 78 84 89 bd
       0.032200836 0.014399945 0.041076068 -0.067147195
000060 53 de 42 be dc e3 2e be c3 a3 97 3d 00 1f c2 3d
       -0.19030122 -0.17079109 0.07404282 0.09478569
000070 bb cc d7 3d b5 80 da bd eb 38 53 3d 61 b7 e0 bb
       0.10537096 -0.1066908 0.051567953 -0.006857798
000080 60 48 c6 bd 78 1e 24 bd 12 90 2a be 93 f0 4c bd
       -0.09681773 -0.04006812 -0.16656521 -0.050034117
000090 9b 2f a1 3d 37 db 61 bc 7f ac 70 3e 5c d0 d7 bc
       0.07870408 -0.013785175 0.23503302 -0.02634447
0000a0 0d 49 1e 3e 54 f5 21 3d b5 98 85 3d 1c 57 4a 3e
       0.15457554 0.039540604 0.06523267 0.19759792
0000b0 c0 b4 97 3c 15 88 bc 3c d5 82 1b bd 62 13 90 bd
       0.018518806 0.023014108 -0.037966568 -0.07034947
0000c0 22 df ba 3b a0 55 20 be a2 77 cf bd c5 9d 1c bd
       0.005702869 -0.15657663 -0.1013024 -0.0382364
0000d0 ce b8 a5 3d 8f 8c 29 3e a1 0d a6 3d 91 f2 b2 bb
       0.08091889 0.16557525 0.08108068 -0.005461045
0000e0 55 df c6 3a bd 4e 3c bd 13 fb 38 3d 88 96 8a bb
       0.0015172759 -0.04597353 0.045161318 -0.0042293705
0000f0 d1 a3 1f 3e e2 5e 58 be 58 ee a1 3c d7 8e ec 3d
       0.15589835 -0.21129945 0.019766971 0.11550682
000100 3e 40 65 be df ee ff bb cc 24 c5 3c 33 c2 38 3e
       -0.22387788 -0.007810458 0.024065398 0.18042831
000110 96 a9 b0 bd cc 06 16 3e 90 2c 91 3c bb 41 38 be
       -0.08626096 0.1465103 0.017721444 -0.17993824
000120 74 63 8a 3c 10 a6 31 3d 43 19 c0 bd f3 f4 70 3e
       0.016893126 0.04337126 -0.09379818 0.2353094
000130 21 99 34 3d 1d 20 34 3e df 48 9e 3e 83 0c 45 bd
       0.044091348 0.17590375 0.3091497 -0.048107635
000140 4a 63 9b 3d 65 de 8b be 39 50 7c 3c 27 ba 0e 3d
       0.07587297 -0.2731811 0.015399986 0.034845497
000150 d3 59 cb 3e 01 3e ca 3b e1 7e 07 3d bc b6 fa 3d
       0.39716968 0.006171942 0.033079986 0.12241885
000160 eb 4a 19 3e bd 2a 93 3e 36 5e 21 3d 5d 5f 2a 3c
       0.14969985 0.28743544 0.039396487 0.010398713
000170 24 95 88 3d 18 3a de bc ba aa 49 bd 6f 1d 1b 3d
       0.06669071 -0.02712731 -0.049235083 0.037869867
000180 77 62 46 3d 0a 8b f4 bc af 66 45 bd 09 26 92 bd
       0.048433747 -0.029851455 -0.04819363 -0.07136161
000190 bb d3 e3 bd 78 06 1d bd f4 3a 71 3e 93 56 8c bd
       -0.11124369 -0.038336247 0.23557645 -0.0685245
0001a0 78 78 27 be f1 c0 56 bd 0f 06 34 3e c7 e8 2e 3c
       -0.16354549 -0.052430097 0.17580436 0.010675616
0001b0 b9 59 6c 3e 5a 4f 0d 3e 74 17 dc 3d 73 54 32 bc
       0.23081101 0.13799801 0.10746661 -0.010884392
0001c0 93 0e be bd 14 34 7b 3b d1 c0 6b 3e 23 55 0e be
       -0.092801236 0.0038330602 0.23022772 -0.13899665
0001d0 d1 fe e2 bc 2e b0 8a 3d 23 df 82 3d 80 ae 32 bc
       -0.027709397 0.06771885 0.06390216 -0.010905862
0001e0 29 d8 a6 bd 37 25 1b bd ea d0 41 3e 18 5f 31 3d
       -0.08146698 -0.037877288 0.1892735 0.04330358
0001f0 0a cd 8f be a2 7e de bd 4b f9 14 3e 0b 6c 4e 3d
       -0.2808612 -0.10863997 0.14548223 0.050396007
000200 4b 34 2d be 57 f8 79 3d d3 4c e6 bc a6 a0 4d 3d
       -0.1691448 0.06102785 -0.028112805 0.050202034
000210 2a ed 07 be 31 04 ac bd f5 38 26 be 33 b7 07 bd
       -0.13274065 -0.08399237 -0.16232665 -0.033133697
000220 89 9d 6c bd 9f f4 b4 3d dc a9 c0 3d fb e2 04 be
       -0.057767425 0.0883572 0.09407398 -0.12977211
000230 e1 a8 b0 bd a2 28 96 3c 95 ce 35 be 79 6c 51 3d
       -0.08625961 0.018329922 -0.17754586 0.05112884
000240 b9 f5 98 3d 92 23 2d be d7 c3 e4 bc c2 69 d1 3b
       0.07468743 -0.169081 -0.027925415 0.006390781
000250 a4 c8 69 3d 5c a6 91 bc 47 70 53 be e1 54 99 bc
       0.05707611 -0.017779522 -0.20648299 -0.018717231
000260 fa 26 14 3d bd 82 8f be 53 ab 43 3d 7a 58 f4 3a
       0.036169983 -0.28029433 0.04777081 0.0018642091
000270 3b e8 d5 bd 07 6c 65 3e 9d 2a 89 bc 02 23 cd bc
       -0.10444685 0.2240449 -0.016743952 -0.025041107
000280 43 09 be bd 96 26 62 3c 89 58 9d be f7 3e fc 3d
       -0.0927911 0.013803145 -0.3073161 0.12316697
000290 c2 57 35 3c 8d 62 67 3e 28 24 c2 be cb 03 f9 3a
       0.011068286 0.22596188 -0.3791821 0.0018998323
0002a0 12 c7 18 3e e2 f3 c2 3d 78 82 d4 3a 5c fb 07 be
       0.1491969 0.09519173 0.0016213199 -0.1327948
0002b0 4d 9d b3 3d 7c 7d c2 3d 49 b5 f1 3b 99 f3 20 be
       0.08770237 0.094965905 0.007376347 -0.15717925
0002c0 19 44 49 bd 50 36 1e be 06 60 81 be 66 1b a9 3d
       -0.04913721 -0.15450406 -0.25268573 0.08257179
0002d0 31 e9 a8 3d 16 2c c7 bc 1b 85 29 3d 27 98 34 3e
       0.08247603 -0.024313014 0.041386705 0.17636167
0002e0 b0 c9 84 bd f2 c3 b3 3d 08 96 aa 3d 69 fd b8 3d
       -0.06483781 0.08777608 0.083293974 0.09032709
0002f0 4b a4 45 bd ef 84 89 3e 34 61 de 3d a8 f2 9c 3d
       -0.048252385 0.26859233 0.10858384 0.076634705
000300 aa 13 95 3e 79 d3 37 3d b3 bc a5 bd fb 24 8e 3d
       0.29116565 0.04487941 -0.08092632 0.06940647
000310 76 24 48 3d de 73 ed 3d 90 4a ce 3d 65 06 25 be
       0.048862897 0.115943655 0.100728154 -0.1611572
000320 98 e2 af 3d bc a6 f4 3e 21 4a 8e 3d a0 44 76 be
       0.08588141 0.47783458 0.06947733 -0.24049616
000330 5e e0 c4 3d 27 35 fb bd 74 44 9d be 7f 94 c5 bb
       0.09613107 -0.122659974 -0.30716288 -0.006029665
000340 69 d2 80 bd 45 0b 94 3e a5 af 76 bc bf 3c 02 bb
       -0.062901326 0.28914848 -0.015056525 -0.0019872633
000350 7d 62 d6 be e0 4c 89 3d 27 d7 5a bd 25 92 5b be
       -0.41872016 0.06704116 -0.05342784 -0.21442468
000360 90 04 98 bd d9 ad d4 bd 4f 6a 19 bb d3 32 94 bd
       -0.07422745 -0.10384721 -0.0023409312 -0.072362565
000370 c9 f7 e8 3d f4 19 1b bd fe 8a 96 bd 7a 33 37 3d
       0.11375386 -0.037866548 -0.073507294 0.044726826
000380 13 b8 da bb 6e cb a4 3d bb e8 14 3d 2d 5c 7b bd
       -0.0066747754 0.08046614 0.03635476 -0.061367203
000390 2d a2 c0 bd 02 c6 03 3b 89 4e e3 bd 48 c8 8d 3e
       -0.094059326 0.0020107036 -0.11098964 0.27691865
0003a0 53 32 25 3e c6 d5 bf bc f7 aa 00 3d e5 77 b2 3d
       0.16132478 -0.023417365 0.031413045 0.08714274
0003b0 f8 2a 84 3d 43 12 08 bf 27 a8 82 ba 12 e6 3b be
       0.06453508 -0.53152865 -0.0009968326 -0.18349484
0003c0 d8 be 37 bc 25 0c 09 be 7a 03 f8 bc e0 85 ef bd
       -0.011214934 -0.13383539 -0.030275095 -0.116954565
0003d0 96 e2 bd ba 2a c6 31 bd ef ac 44 3d 5e c1 59 3d
       -0.0014487084 -0.043401875 0.048016485 0.053162925
0003e0 e5 3d 37 bc 52 62 4d bc 13 ab 91 be e4 aa 82 bd
       -0.01118419 -0.012535648 -0.28450832 -0.06380251
0003f0 80 3a 46 bd 67 0d aa 3d 51 2f eb bc bd af 65 bd
       -0.048395634 0.083033375 -0.028709086 -0.0560758

fc2.bias f4 [128]
000000 eb cc d7 3d 84 02 1e bd f5 e9 a3 bd 9d f6 ab 3c
       0.10537132 -0.038576618 -0.08003608 0.020991618
000010 5f 3a 18 3d 40 6c c4 3c ba 02 41 bd a6 71 9e bd
       0.037165042 0.023977399 -0.04712174 -0.077365205
000020 55 dd 31 3c 0b cf 28 3d 1d 49 97 bd ab 72 ae b8
       0.010855992 0.041213077 -0.07386992 -8.318325e-05
000030 76 71 70 3d 48 f4 46 3c 28 c5 30 bd a1 5d 2f 3c
       0.058701955 0.012143202 -0.043156773 0.010703475
000040 56 08 bb 3c 49 78 95 3d ae f8 f4 3b b7 42 85 3d
       0.022831123 0.07298333 0.007475934 0.065068655
000050 20 9c 65 3d d6 a4 b0 3d 5c 20 ab 3d 35 0d 16 3c
       0.056057096 0.0862519 0.083557814 0.009158422
000060 1f d3 9a 3c ff 24 a4 3d 42 7c 00 3d dc 06 54 3c
       0.018899499 0.08014869 0.0313685 0.0129410885
000070 fc c9 80 3d 45 ca 9d bd 53 65 52 3b 4f 56 b0 bd
       0.062885255 -0.077045955 0.003210385 -0.08610212
000080 51 97 f9 3c 52 1b 7a 3c 34 d8 5a bd 82 50 c3 3c
       0.030467661 0.015265303 -0.053428844 0.0238421
000090 9d 73 5f 3c 7f 38 66 3d 4c aa 19 3d 60 0b ac 3d
       0.013638404 0.056206223 0.037515923 0.08400607
0000a0 bb d7 91 3d 11 cb a7 bd a1 cf 27 3c 7e 15 3b bd
       0.071212254 -0.08193029 0.010242374 -0.045674793
0000b0 38 ac a2 3c 47 7d 39 3d ec ba 8b 3d c7 84 38 3d
       0.01985751 0.04528549 0.06822762 0.0450485
0000c0 fe 4f 17 3c 06 58 f1 3c 4b 35 61 3d 7b 67 8e bc
       0.00923538 0.029460918 0.054982465 -0.017383328
0000d0 b6 66 7f 3b ee be 1b bc 0c 9d 4d bd 09 8d f8 bc
       0.0038971133 -0.00950597 -0.0501986 -0.030340688
0000e0 c5 d9 15 3d 12 7b 35 3d f0 ef 3e bd 45 f2 c1 3d
       0.036584634 0.044306822 -0.04661554 0.09470037
0000f0 b8 68 08 3c 1c b6 c1 bd 24 cc 91 bd 75 52 54 3d
       0.008325748 -0.09458563 -0.07119015 0.05183645
000100 82 08 96 bd 9e 39 f1 3c dc aa 7a 3c fe ca 68 bd
       -0.073258415 0.02944642 0.015299525 -0.056834213
000110 89 f1 62 3d e3 0b 7a bc 8d eb 95 bd 00 d5 27 3c
       0.055406127 -0.015261623 -0.07320318 0.010243654
000120 03 73 9b bd 1d cc 7a bd dc 9d 12 3d dc eb 12 3d
       -0.07590296 -0.061229814 0.035795078 0.035869464
000130 bf 07 6e bd a5 db 37 3d 01 89 a0 3d e2 89 d3 3c
       -0.058112856 0.044887204 0.078386314 0.025822584
000140 aa 54 a6 3d 31 44 48 bd f8 5d 70 bd fc 8a 2d 3d
       0.08121617 -0.048893157 -0.058683366 0.042368874
000150 23 5d c7 bc 7a 9c f7 bc c9 f8 19 3d c3 7c 85 bd
       -0.024336403 -0.030225981 0.037590776 -0.06517937
000160 c3 74 97 bc de 5f 4d bc 05 5e c2 3c d2 79 9a 3d
       -0.018488294 -0.012535064 0.023726473 0.07542767
000170 26 25 82 bd c7 ac a0 bd 7c 5b 86 3d c7 9a e5 3d
       -0.06354742 -0.07845455 0.06560418 0.11211162
000180 96 46 de bc 22 00 de bb 6e 95 d1 3d af f8 75 bd
       -0.027133267 -0.006774918 0.102335796 -0.060051616
000190 81 fc 61 3d 97 ef da 3d ae aa 58 bc 9f ed b5 bd
       0.055172447 0.106902294 -0.013224287 -0.08883213
0001a0 fa d3 93 bb ef e4 7d 3d 51 de af bd b7 64 7e 3d
       -0.0045113536 0.061985906 -0.08587325 0.062107768
0001b0 8f 46 ad bc 9e 37 3b bd 24 5d f0 3c c8 e7 27 bd
       -0.021151809 -0.045707338 0.029341288 -0.04099253
0001c0 27 e8 86 3d a3 93 e9 3c 69 8f 06 bd 05 d1 10 3c
       0.06587248 0.028512781 -0.03285161 0.008838897
0001d0 a6 e5 72 3d 30 1c 46 3c 43 1a 3f 3d bd aa 6b bd
       0.05930104 0.012091681 0.046655905 -0.057535876
0001e0 8c 44 b9 bc 06 03 1d 3d 5a 2e 28 bd 54 5c a9 3d
       -0.022615694 0.03833296 -0.04105983 0.08269563
0001f0 ef 2f 50 bd 93 3e fa bc 90 51 43 3b 35 ed 8a 3d
       -0.050826963 -0.030547416 0.0029803254 0.06783525

fc3.weight f4 [128, 128]
000000 f7 10 8b 3b 17 25 ec 3c 2d 09 06 3c cf c8 1b bb
       0.0042439657 0.02882628 0.008180899 -0.0023770814
000010 48 f1 a5 bd 25 cf 9f bd 27 3e 47 3c 8f f5 48 3c
       -0.08102661 -0.078031816 0.012160814 0.012265577
000020 b8 2f 02 3e a0 2f ff 3b 5e 39 b7 bc e6 58 94 3d
       0.12713516 0.0077876598 -0.022366222 0.072435185
000030 71 2c b1 bd a1 b1 11 3d 53 76 49 bd f7 a8 b1 3c
       -0.08651055 0.03556979 -0.04918511 0.021687014
000040 60 b6 dc 3d f5 02 fd bd cc 0f 94 bd 1a 8a 97 bc
       0.10776973 -0.1235408 -0.072295755 -0.01849847
000050 1b 83 38 bd 21 1c 88 bd 07 67 8d 3a 4d 92 21 bd
       -0.045046907 -0.0664599 0.0010788151 -0.039446164
000060 f6 68 29 be 16 92 2b 3d 77 01 24 3d 38 7e 37 3e
       -0.16543946 0.041887365 0.04004046 0.17919242
000070 8a 63 bb 3a 7c 9b 5f 3d 6c c2 50 3d e8 ac c2 3d
       0.0014296633 0.05459164 0.050966665 0.095056355
000080 4e b6 cd 3d a7 29 89 3d e3 53 b8 bb d8 0c 9d bc
       0.100445375 0.06697398 -0.0056252345 -0.019171163
000090 23 8f 87 bd 75 64 46 3e 2d 12 5b bc cd 57 94 3d
       -0.06619098 0.19374259 -0.013371033 0.07243309
0000a0 ba f5 1b 3d a3 ae 54 bd c2 05 0f 3e 10 68 c8 bc
       0.03807614 -0.05192436 0.1396704 -0.024463683
0000b0 eb 68 98 3d 58 42 f6 bd 86 b0 09 bd d0 24 11 3e
       0.074418865 -0.12024373 -0.03361561 0.14174199
0000c0 6e a4 3a 3d 03 fd 14 be 6b e4 f4 3d 77 6b c0 bd
       0.04556697 -0.14549641 0.1195763 -0.09395497
0000d0 10 58 13 3d 38 af 8a bd d9 68 42 bc 98 59 74 bd
       0.035972655 -0.067717016 -0.011865818 -0.059655756
0000e0 ac 8f be bc b1 ce ba 3b db 52 d4 3c 78 73 04 be
       -0.023261867 0.005700909 0.025918415 -0.12934673
0000f0 d1 14 51 3b 43 d4 79 bd c4 19 91 3d 0f 76 ae bc
       0.0031903277 -0.060993444 0.070849925 -0.02129653
000100 a8 af 4b 3d ed 2a fd bc eb 25 f8 3c b3 d7 cb 3d
       0.049728066 -0.030904258 0.030291518 0.09953251
000110 1a b5 75 bd fb 71 af bd 47 1c 7e bc 2a 16 a9 bd
       -0.059987165 -0.08566662 -0.0155096715 -0.082561806
000120 91 fd 19 bd 1c dc 04 be cc d8 9c be ec c2 89 3d
       -0.037595335 -0.1297459 -0.30634153 0.067266315
000130 b4 33 ad 3c d4 98 71 3d 3b 5e f7 3c 2a a5 df bd
       0.021142818 0.05898364 0.0301963 -0.109201744
000140 39 59 47 3d 9c fc a3 bd 82 7c b3 bc 8c 8f 2d bd
       0.048669074 -0.08007166 -0.021909956 -0.042373225
000150 4d 2e 59 3c a6 2e 92 3d 39 df ed 3d 55 90 b1 3d
       0.013255668 0.07137804 0.11614842 0.08670107
000160 28 01 8c 3d e1 f4 07 3d eb b6 e0 3d 0f 9e d3 3d
       0.06836158 0.03319252 0.10972389 0.10332882
000170 8a 30 1f bd 5c 83 78 3d 39 13 03 bd bb 31 68 3d
       -0.03886465 0.06067215 -0.032000754 0.05668805
000180 17 0a 2f bd f5 aa 52 3d c0 73 1e 3d 18 8b 5b 3c
       -0.04273423 0.05143257 0.038684607 0.013399862
000190 23 64 19 3d cf 1b a9 3d 30 4a 27 bd 9f c6 2e bd
       0.037449013 0.08257257 -0.040842235 -0.04266989
0001a0 ed 9e 19 bd 00 f5 9f bc 5b 56 91 3d ce 90 56 3d
       -0.03750508 -0.019526005 0.07096549 0.05238419
0001b0 dd 1a 73 3d 4c 0a 2d 3d c4 5b 0f 3e 26 79 b7 3d
       0.05935179 0.042246148 0.1399985 0.08958654
0001c0 a5 83 ce 3c af c8 a6 3c 7f a0 21 bc 6f 3b 1d 3c
       0.025209257 0.020359365 -0.009864925 0.00959669
0001d0 de 21 83 bd 15 bf 44 bc c6 b7 97 3d 51 8d 9b 3d
       -0.06402944 -0.012008448 0.07408099 0.07595313
0001e0 7d 28 e1 3d 26 66 a9 3d 6e 91 08 3e 24 ee 15 bd
       0.10994051 0.082714364 0.13336727 -0.03660406
0001f0 2a a5 0f bd 0b 29 4f 3c b9 e2 15 3d 67 fa a6 3d
       -0.035069622 0.012644063 0.036593173 0.08153229
000200 f8 a7 96 3d fe 7e 4e 3e d3 8a 2c bc 17 eb 9d 3d
       0.07356256 0.20165631 -0.010531145 0.077108555
000210 a0 c3 82 3d 46 92 16 3e be eb 2e be ce 9a 8b 3d
       0.06384969 0.14704236 -0.17082116 0.06816636
000220 d1 e4 e8 bd 28 6c 0c be 64 b8 3d 3d 24 a5 85 bd
       -0.11371768 -0.13713133 0.046318427 -0.06525639
000230 0c e1 51 3d cd 6e 16 bb 65 89 ba 3c e4 d1 25 3d
       0.051240012 -0.0022954226 0.022770593 0.04048337
000240 9a 1d 55 bd 8f ef e6 3d 21 b7 4a bd 62 40 78 bd
       -0.052030183 0.11276161 -0.04949105 -0.060608275
000250 40 85 0b bd c0 76 4c 3d e1 d7 55 be e9 e9 88 3d
       -0.034062624 0.049917936 -0.20883133 0.0668524
000260 c1 4b f7 3d 45 a2 9b bd 20 ba 60 bb 8f 16 25 be
       0.12074996 -0.0759931 -0.0034290627 -0.16121887
000270 85 4c 07 bd 29 49 e4 3c 16 fb 0c 3d fc 84 8b bd
       -0.03303196 0.027866917 0.03441914 -0.06812474
000280 ac 8c be bb b0 3f 1c bc 49 d4 85 bd 9b 6e c9 3d
       -0.0058151092 -0.009536669 -0.06534631 0.098355494
000290 3d df 08 bd 4b 24 29 be 4b 56 ca 3d 25 43 69 3d
       -0.03341602 -0.16517751 0.0987974 0.0569488
0002a0 4f 9a 7a 3b 0e 20 bb 3c a5 be 80 3c f4 6f 44 3d
       0.0038238948 0.022842433 0.015715906 0.04795833
0002b0 f7 41 f9 bd 25 35 34 bd 88 aa cd 3c 09 5c 74 3d
       -0.12170785 -0.043995995 0.02510573 0.059658084
0002c0 7a 05 16 be 01 10 51 3d f4 da 7d be 72 20 ba 3d
       -0.14650527 0.051040653 -0.24790555 0.0908822
0002d0 fb 59 82 bd 95 05 a6 bc a8 41 66 bd 49 46 8c 3d
       -0.06364819 -0.020266334 -0.05621496 0.06849343
0002e0 24 2e 4f 3d ef 8b 4b 3b 84 72 d1 bc 80 73 c8 3d
       0.050581113 0.0031058749 -0.0255673 0.09787655
0002f0 56 ed 2e 3c 97 77 53 3d 80 ee d9 bc 48 b4 1c 3b
       0.0106767025 0.05162772 -0.026602983 0.0023911167
000300 49 33 09 bd 1b ae b3 bd a6 5c 20 bd ba 46 f7 bc
       -0.033496175 -0.08773442 -0.039150856 -0.030185092
000310 94 fc 16 bd f3 e6 a2 3d f3 99 98 3c 1e da 07 bd
       -0.03686197 0.07954206 0.018628096 -0.033166997
000320 98 e7 b4 bd af d7 aa bc 49 da e1 3d a1 5f 71 bc
       -0.088332355 -0.0208548 0.11027963 -0.014732272
000330 0d 5e ac bd c1 f3 8a 3c 6e 48 3c 3d 19 56 d9 3d
       -0.08416376 0.016961934 0.04596751 0.10612125
000340 13 da 96 bd 1d 49 88 3d c5 d4 c9 bd 9d 70 3a 3d
       -0.07365813 0.0665457 -0.09855036 0.045517553
000350 5b ae 31 3b 9e 6e a3 bd 36 f9 a6 3d 6f a9 d3 bc
       0.002711198 -0.07980083 0.08153002 -0.025837628
000360 11 25 63 bd fd 2b b2 3c 0d 4f 48 3d be 20 83 bd
       -0.05545527 0.02174949 0.048903514 -0.064027295
000370 57 69 04 3d 5c b5 81 bc c1 5c 50 3d e3 c6 3b 3c
       0.032327022 -0.01583355 0.050869707 0.0114609925
000380 9a db c0 3e b7 f5 e3 bc 78 fd 87 bd db 5b 2a 3e
       0.37667543 -0.027827127 -0.06640142 0.16636603
000390 e3 2b 54 bd 44 7e a0 3d ac 18 a5 3d d4 66 19 bc
       -0.051799666 0.07836583 0.080613464 -0.009362895
0003a0 91 ea 0a bc 76 19 03 be 9f 44 67 3d a4 17 a3 3d
       -0.008478777 -0.12802681 0.056461927 0.079634935
0003b0 23 bd ad bd 53 46 b0 bc 27 95 3c 3d 6f 68 8d bc
       -0.084833406 -0.021517908 0.04604068 -0.017261712
0003c0 4e e5 5f 3e 0d c6 7b bb 2f 92 8b bd 43 9e df 3d
       0.21864817 -0.0038417608 -0.06814992 0.10918858
0003d0 00 92 f6 3d a3 ac 87 3d 9d 4e 5b 3d 4f 5b ff bc
       0.12039566 0.06624725 0.05354177 -0.031171469
0003e0 99 a5 f5 bd d0 d9 44 3d 38 38 60 3d 7d df 85 bd
       -0.11994476 0.048059285 0.054741114 -0.06536768
0003f0 67 e6 59 bd 27 b5 7a 3d f2 ce fe bc bf 0b 9f 3c
       -0.053198244 0.061207917 -0.031104539 0.01941478

fc3.bias f4 [128]
000000 ff a8 e5 3d 8d a4 c3 3d 6a 71 c8 bd c2 a3 8a 3d
       0.11213874 0.0955287 -0.09787257 0.067695156
000010 1c 9d ee 3d 54 8d a8 3d cb e2 85 bc 88 7c 8e 3d
       0.1165106 0.08230081 -0.016343495 0.06957346
000020 d2 57 08 3e 6a 67 44 3d 06 10 b2 bb ca b7 9f 3d
       0.13314751 0.047950186 -0.005434039 0.07798727
000030 50 6d a2 bd 87 0c 9d bd cb ba ab bd ed dd a4 3c
       -0.07931006 -0.07668405 -0.08385237 0.020125354
000040 fb e6 a8 bb 6b 65 ea 3d 24 c9 fa bd b8 4b 49 3b
       -0.005154488 0.11445125 -0.12245396 0.0030715298
000050 d4 5e 2e bd d7 2b 6a bd d1 6f 44 3d aa 3a 2b bd
       -0.042570904 -0.057170715 0.0479582 -0.041803993
000060 0f 9c 14 3e b2 20 5d bd a6 b9 22 3c 7a 57 09 bd
       0.14512657 -0.05398626 0.009931957 -0.03353069
000070 e8 c3 95 bd 21 c9 eb 3c 5f 65 21 bd 2c bb c7 3a
       -0.07312757 0.02878243 -0.039403316 0.0015238277
000080 22 31 c7 3d 4d 2d 84 3d 27 f0 27 3d ce 4b 8b bd
       0.09726168 0.06453953 0.04100051 -0.06801568
000090 ab 02 04 3b 2f 38 0e bd 94 e3 b5 bd f1 91 b1 3d
       0.0020143192 -0.03472155 -0.08881298 0.08670414
0000a0 da 70 6d 3d a9 34 c6 3d a4 cc 07 3d e3 02 a0 bd
       0.05796895 0.09678013 0.033154145 -0.078130506
0000b0 ab c6 dc 3d 9c 55 9d 3c 3a 24 dc 3d 26 dd 0a 3d
       0.107800804 0.01920586 0.10749097 0.03390231
0000c0 01 4c cc bd 43 c2 dc 3d cd e6 06 3e 66 53 d6 bb
       -0.09975434 0.1077924 0.13173981 -0.0065407036
0000d0 9f 30 47 bd bf fa ae bd 00 05 71 bb 19 ff 00 3e
       -0.048630353 -0.0854392 -0.0036776662 0.12597312
0000e0 f4 88 fb bb e1 d8 68 bd b6 43 4d 3c 13 89 a6 bd
       -0.007676238 -0.056847457 0.012528351 -0.081316136
0000f0 6e ef 08 3d 72 6a bc 3d 29 09 0e 3c 8a aa 08 bd
       0.033431463 0.0919999 0.008669176 -0.033365764
000100 25 af 9e 3c 72 ad c2 3d 6d d7 70 3d 7e a9 bd 3d
       0.019370625 0.09505738 0.058799196 0.09260844
000110 07 23 5f 3d bb 3e 90 bb 7a 5a e8 3d 3d c2 ae 3b
       0.054476764 -0.0044020093 0.11345382 0.0053332136
000120 d3 4b 81 bd 71 2a 0b 3d d0 d4 c3 bd 03 df db 3d
       -0.063132904 0.033976022 -0.09562075 0.107358955
000130 f3 c9 d0 3c 2f 98 57 3b 5d 57 9f bd 26 fe 6d bd
       0.025486922 0.0032897105 -0.07780335 -0.058103703
000140 3e df a7 3d 02 5c d2 3c 48 48 b8 bd 83 4e cf 3d
       0.08196877 0.025678638 -0.089981616 0.10122397
000150 15 91 b3 bd b1 82 64 ba 6b 82 93 3b 16 34 18 3c
       -0.087679066 -0.00087169843 0.004501631 0.009289762
000160 dc 5d 73 3a 63 03 c2 bd 2b a3 c8 bc e9 18 4e bd
       0.00092837005 -0.09473302 -0.024491867 -0.050316725
000170 90 0f 04 bd b9 06 27 3c 5b d5 3d bc c1 40 9b 3d
       -0.032241404 0.010194474 -0.011586512 0.0758071
000180 8c 99 a2 bb f5 f1 76 ba 2c 5b 3b bd e7 1d bf 3d
       -0.004962152 -0.00094202097 -0.045741245 0.09331875
000190 c1 78 ae bd 8d da ec 3d 30 9c a9 3d b7 53 23 bd
       -0.08519126 0.11565123 0.082817435 -0.03987476
0001a0 e4 86 98 3c 6e 51 77 bc 7c dc b1 3d b3 4f 1b 3e
       0.018619008 -0.015095098 0.08684632 0.15167122
0001b0 1e d2 0f 3e c2 c8 23 3d 0c eb 7a bc 35 3b 6d 3c
       0.14044997 0.03998638 -0.015314829 0.014479448
0001c0 59 b3 dc bd 92 1a 34 bd 3d e1 23 bd cf 19 03 bc
       -0.10776395 -0.043970652 -0.040009726 -0.008001759
0001d0 d7 ba ef ba 31 d2 40 bd a0 cf cd 3d a3 e1 b5 3d
       -0.0018289936 -0.047075454 0.10049367 0.088809274
0001e0 26 ff a0 bd 83 8f 93 3d 78 72 2b bd dd f0 b9 bd
       -0.07861166 0.07205107 -0.041857213 -0.09079144
0001f0 88 4e 1c 3d c0 7f d9 3c f8 45 cd bc 6f f5 97 3d
       0.03816083 0.026550174 -0.025057778 0.074198596

fc4.weight f4 [2, 128]
000000 db 90 14 be 51 b4 1e 3e 65 1f 09 3c dd 96 db 3d
       -0.14508383 0.15498473 0.008369301 0.10722134
000010 f6 c0 0b be 6b 2f 23 be 88 cd 53 3d 9d ac 7c bd
       -0.13647828 -0.15936057 0.05170968 -0.061688054
000020 64 ee 19 be c0 6f 27 be 3c 6e 44 3e dc 5e 75 be
       -0.15032345 -0.16351223 0.19182676 -0.23961967
000030 73 f2 12 bc 40 e6 73 3d 3b 91 92 bc d5 c3 08 be
       -0.008968937 0.059545755 -0.017891517 -0.13355954
000040 9a ac f6 3d de 4b 90 bd d4 95 09 bd 1e ec 2b 3d
       0.1204464 -0.070457205 -0.033590153 0.041973226
000050 38 dc cc bd ba 40 21 be 23 b4 05 be 98 e4 13 3e
       -0.10002941 -0.15747347 -0.13056998 0.1444267
000060 1e 48 47 be a5 00 f3 bb f7 6f 54 be 8b 2d 09 3e
       -0.19461104 -0.0074158483 -0.20745836 0.1339628
000070 e2 f0 af bd db ca 16 be b7 c7 c3 3d 6e 86 23 3e
       -0.085908666 -0.1472582 0.09559577 0.1596925
000080 fe 9a ad bd 42 dd 37 3b dd 14 46 bd 85 1d 44 bb
       -0.08476828 0.0028055464 -0.04835974 -0.0029924822
000090 25 9f 55 3e 0f 5e ef 3d e2 e9 47 bd ae 85 af be
       0.2086149 0.11687862 -0.048807032 -0.34281677
0000a0 29 1d 17 be b9 76 af be 46 3c 51 bd 5a 00 6e 3b
       -0.14757217 -0.34270266 -0.05108287 0.0036316128
0000b0 0f 8d cd 3d 69 1a bb bd c1 93 1d be f9 5c e1 bd
       0.100366704 -0.09135897 -0.15388395 -0.11004061
0000c0 82 b3 4f be 96 83 ce 3d ce 41 c5 bc d7 8c 0c 3d
       -0.2028332 0.10083692 -0.02407923 0.034314003
0000d0 76 78 14 3e 09 d9 81 3d 2b bc 01 3b b9 e1 4a bd
       0.14499077 0.06340224 0.0019795995 -0.049531672
0000e0 14 52 5a be fc bd 0a be 82 81 12 3d 4a ca 7a bd
       -0.21320373 -0.13549036 0.03576804 -0.061228074
0000f0 af c0 bd 3d 6a 0e c9 bc ab 04 a3 bd 81 d1 4e bb
       0.09265267 -0.024543006 -0.07959875 -0.003155798
000100 f1 d0 08 3e 43 f2 3c be fd 83 51 be 38 a1 58 be
       0.13360955 -0.1845179 -0.20460506 -0.2115525
000110 98 d7 55 be 76 23 0a 3e 3e a8 37 be d4 66 82 be
       -0.20883024 0.1349009 -0.17935273 -0.25469077
000120 34 11 8a 3d e3 38 c9 3d dd 1d 9e bd f9 53 14 be
       0.067415625 0.098253034 -0.0772054 -0.14485158
000130 d3 91 3f be 23 56 78 be ca 6b 44 3c d1 dc 27 be
       -0.18707971 -0.24251609 0.01198859 -0.16392829
000140 4e e7 7d be f5 c6 10 3e 1d aa 39 39 a5 30 c0 bd
       -0.24795267 0.14138396 0.00017706347 -0.09384278
000150 19 61 95 bd 60 46 24 3e 17 3b 88 be 2b 54 c9 bc
       -0.072939105 0.16042471 -0.26607582 -0.024576267
000160 16 fc b0 3d 88 75 86 3d 04 07 2a be 2f 5a 95 3d
       0.086418316 0.06565386 -0.16604239 0.07292592
000170 86 91 50 be d9 9a f8 3d 64 69 8f 3c 98 04 56 be
       -0.20368013 0.1213891 0.017506309 -0.2090019
000180 ac 4d 9b bd 92 47 1b be 6f 8f d3 3c 44 ee 31 be
       -0.07583174 -0.1516402 0.02582523 -0.17376047
000190 81 e0 82 3d f5 8a f3 bd fe 3f 60 be ad 58 60 be
       0.06390477 -0.11891738 -0.21899411 -0.21908827
0001a0 3a 94 51 3e a7 75 d9 3d 2d f6 a7 be b8 d5 8f be
       0.204667 0.106181435 -0.32805005 -0.28092742
0001b0 ba 2e ba bd 97 19 e3 bc 6f ba 27 bd bb 9b 8a be
       -0.09090944 -0.027722163 -0.04094928 -0.27071938
0001c0 db e2 cb 3d a5 63 66 be d6 37 ab bc d3 1e 3a bd
       0.099553786 -0.22498949 -0.020900648 -0.045439553
0001d0 0b 0a 1b 3e d3 7f 81 bd 19 47 aa bd 8a 16 ae 3d
       0.1514055 -0.06323209 -0.08314342 0.08500393
0001e0 25 9f 23 be 81 1b 4f 3a 03 a6 5b bb eb 6a 91 3d
       -0.15978678 0.0007900522 -0.0033515699 0.07100471
0001f0 04 ef 51 be 25 0a df 3d ec 67 19 be 0d e8 60 be
       -0.20501333 0.10890607 -0.1498105 -0.2196352
000200 65 0b d1 bd 71 e1 9a 3c 57 ea ac 3b c9 a2 bb 3c
       -0.102072515 0.018906327 0.005276959 0.02290477
000210 aa f2 65 bd 5d 8f b0 bd 73 c1 85 bd 98 fb d9 bd
       -0.056139626 -0.086210944 -0.06531038 -0.10643691
000220 a5 e8 70 be ed 77 53 be 00 1b 02 3e 36 cd e7 bd
       -0.23526247 -0.20651217 0.12705612 -0.11318438
000230 4c b8 e5 3d c5 f1 e2 3c d5 7a e0 3e 90 0f 3c be
       0.112167925 0.027703175 0.43843713 -0.18365312
000240 3d dd 0a bd b5 77 57 be 13 39 a0 3d a2 50 fa bd
       -0.033902396 -0.21041758 0.07823386 -0.12222411
000250 41 56 f8 3d 78 f6 ba bb 47 3e a9 bd 8e b7 ff bc
       0.121258266 -0.005705651 -0.082638316 -0.031215455
000260 94 29 ec bd 72 9e 92 bc fb 87 f6 bd 95 10 72 3d
       -0.11531368 -0.017897818 -0.12037655 0.059097845
000270 01 13 90 3d 67 2b 2e 3d 45 98 5d bd fe 65 e2 3d
       0.07034875 0.04252186 -0.054100294 0.1105461
000280 f1 cc 3a be 91 50 39 be 8c 55 03 3f 49 0d 95 bb
       -0.18242241 -0.1809714 0.5130241 -0.004548703
000290 34 9b ee 3e ff 49 6c 3d 7c 91 1c 3d d8 22 df bd
       0.46602786 0.057687756 0.038224682 -0.10895318
0002a0 f4 83 88 bd 9b eb 2a bd 07 32 2a 3d 9e 1b d1 bb
       -0.06665793 -0.041728597 0.041551616 -0.006381466
0002b0 a3 cb 9e bd b2 4c c8 bd ac 92 23 3e 8c ac 71 bd
       -0.07753684 -0.097802535 0.1597392 -0.059002444
0002c0 c5 fb 13 3e 88 df 59 3e 44 1f 39 be c1 5e f7 bd
       0.14451511 0.21276677 -0.18078333 -0.1207862
0002d0 ac f1 02 3e fb 51 f4 3b 6e 18 8b bd 78 22 99 be
       0.12787503 0.007456062 -0.06791769 -0.2990911
0002e0 ea 39 a1 bd d8 53 92 3d cb 1c bb bd cd 82 97 3d
       -0.07872374 0.07144898 -0.09136351 0.07397995
0002f0 d4 3c a0 3d 9c 22 9f be 88 88 d0 bd 66 9b 11 3c
       0.07824102 -0.31081092 -0.10182291 0.0088871475
000300 f5 ee 37 3e b2 0e a8 bd a4 ef 24 be 29 bc 83 bb
       0.17962249 -0.08205928 -0.1610704 -0.004020233
000310 ae 17 b5 bd 11 78 52 3e 2e ea 60 3e 77 07 74 3e
       -0.08842407 0.20553614 0.21964332 0.23830973
000320 b3 a3 b4 3c 30 bb 4b 3e 0b dd 80 bd 19 a5 41 be
       0.022050714 0.19895625 -0.062921606 -0.18910636
000330 cb cf a9 3e 1c 52 85 bd 4b 63 61 3d 9b 67 1a be
       0.33166346 -0.06509802 0.055026334 -0.15078585
000340 85 59 21 bc fc ff da 3d 1a 9e 4c 3d 7b 5c 51 be
       -0.009848003 0.106933564 0.049955465 -0.20445435
000350 92 22 4a 3e f0 7b 8e 3d 91 4f 51 3d 4f 62 11 bd
       0.1973975 0.06957233 0.05110127 -0.035494145
000360 ed 54 2c 3e fd be 31 3c 7e 77 3c 3e f4 4c 26 bd
       0.16829272 0.010848758 0.18404958 -0.040600732
000370 88 4c dd bd db fc 79 3d b7 c6 89 3e 50 8d 56 3d
       -0.10805613 0.061032157 0.2690942 0.05238086
000380 40 34 cf 3d 96 fb fd bd 21 9c fe bc 42 50 09 be
       0.10117388 -0.12401502 -0.031080307 -0.13409522
000390 f2 e2 94 bc be 5e 1d bd b5 e5 80 3e 6e 60 93 3e
       -0.018174622 -0.03842043 0.25175253 0.28784508
0003a0 8b 88 dd be 49 1f 82 3e 24 ac cf 3b a2 0d 00 bd
       -0.43268237 0.25414494 0.0063376594 -0.031263
0003b0 3d 1e 17 3f 93 02 71 be 9d da 0a bd f7 91 90 bc
       0.59030515 -0.23536138 -0.033899892 -0.017647726
0003c0 44 bc 4b 3e 0d 9d 48 3e f8 d5 37 bd f9 2f 75 ba
       0.19896036 0.1959116 -0.04488179 -0.0009353157
0003d0 d6 86 75 3d 02 a7 29 3d 60 26 a1 bd 5f 20 83 3b
       0.059943043 0.041419037 -0.078686476 0.0040016617
0003e0 d0 7f b1 3e 1d a8 84 be 32 35 9c 3c 74 35 50 3d
       0.34667826 -0.2590951 0.019068334 0.050832227
0003f0 89 5c 35 bd 6b fb 38 3e 43 c7 5c bd e5 d2 64 bc
       -0.0442777 0.18064658 -0.05390097 -0.013966297

fc4.bias f4 [2]
000000 3e 63 85 bd 02 9c d1 3c
       -0.065130696 0.025587086

fc1.weight f4 [128, 7]
000000 0c 2f 81 3e 31 80 fc be 14 6a 3d 3e e2 e3 2b 3e
       0.25231206 -0.49316552 0.18497497 0.16786149
000010 6c fe 80 be 09 e1 2a 3e 43 01 5f 3e 84 5e 70 3d
       -0.25194108 0.16687407 0.21777825 0.058683887
000020 bb ee ac 3e fa 17 fc 3b 28 c8 78 3e 1c a3 86 3d
       0.33775887 0.007693288 0.24295104 0.065740794
000030 31 36 70 3d 68 0c 0a 3e f8 8b b6 be 8a de dd 3d
       0.05864543 0.13481295 -0.35653663 0.108334616
000040 f5 60 1f be 14 69 b6 be ee 36 95 be 0e 18 0e bd
       -0.1556433 -0.35627043 -0.2914347 -0.03469091
000050 59 36 e8 3c 01 17 7e be b7 77 1c 3e 36 4d 3c 3d
       0.028346227 -0.24813463 0.15280043 0.04597207
000060 90 c7 c4 3d 71 dc 58 3d 36 ac b3 3d f1 52 d7 3e
       0.09608376 0.052944604 0.08773081 0.42055467
000070 a9 98 27 bd 6c 18 bb 3e d9 5a 01 bf 09 bf aa bd
       -0.040917072 0.3654207 -0.5052925 -0.08337218
000080 65 d6 d4 be de 8b 41 3e cb 96 c9 3e 42 c5 a2 3c
       -0.4156982 0.18901011 0.39372858 0.01986945
000090 48 7a 0f 3e 5d db 79 3e 86 ff 91 be f3 67 9e 3d
       0.1401149 0.24400087 -0.2851526 0.077346705
0000a0 13 53 ad be 1e 7d cb bd 0c 2e dd 3d 40 78 8b be
       -0.33852443 -0.099359736 0.10799798 -0.2724018
0000b0 e6 c2 ec 3d 72 12 82 be b1 00 28 be 2b 6a c6 be
       0.115606114 -0.25404698 -0.16406514 -0.38752875
0000c0 c7 9c 82 be bb 68 d4 bc d3 06 f0 3d 57 3a ac be
       -0.25510237 -0.025928846 0.117200516 -0.3363826
0000d0 3b 10 b6 be 63 03 43 3d 76 af 2a 3e a0 b3 b4 3e
       -0.35559258 0.04761065 0.16668496 0.35293293
0000e0 ef 82 0b be 23 38 19 3e 40 e7 ca 3e 77 e2 ee 3d
       -0.13624166 0.1496282 0.39629555 0.116642885
0000f0 c1 ca 91 be d2 c9 d3 3e 8b c7 f7 3d 9a 79 30 be
       -0.28475 0.41364914 0.12098607 -0.17233887
000100 0a 05 99 be 48 3f 91 3e 8f 4a b1 bd 60 63 69 be
       -0.29886657 0.28368592 -0.08656799 -0.22791815
000110 33 bb 49 be 6b 18 fa 3d ae 3d 11 3e 5e 99 b4 3e
       -0.19700317 0.122116886 0.14183685 0.3527326
000120 c4 89 fe bc 2a 66 b6 3e 75 52 da 3e e4 f5 85 bd
       -0.031071551 0.3562482 0.42641035 -0.065410405
000130 5b 02 05 bf e6 13 22 3e 7f 1c 81 be 93 8d 34 3d
       -0.5195672 0.15827903 -0.25217053 0.04408033
000140 ef b4 4f be 95 29 1f bf 6c e4 f4 3e fc 14 5e be
       -0.20283864 -0.62172824 0.47830522 -0.21687692
000150 9c b8 21 3e cf 95 bc be bc ec b5 3e 17 d3 36 be
       0.15793079 -0.36833045 0.35532176 -0.17853962
000160 11 3f b5 3e 26 1a 8d be 09 c7 42 bd e6 93 9a 3e
       0.35399678 -0.27559012 -0.047553096 0.30190963
000170 56 d7 aa 3e 02 e3 85 be 8f d4 9c be 62 68 9f 3e
       0.33367413 -0.26149756 -0.3063092 0.31134325
000180 77 a0 08 3e bd 04 8f be d4 54 45 3e 4b 11 90 be
       0.13342462 -0.27933303 0.1927064 -0.28138193
000190 08 27 2e be b1 93 22 be d3 b7 95 bb 8f b3 b9 3e
       -0.17007077 -0.15876652 -0.0045690327 0.36269805
0001a0 d2 a8 2d be 3a 70 1d 3e a6 4a 7b be 09 dc 91 3e
       -0.16958931 0.15374842 -0.24540195 0.28488186
0001b0 d3 ca 6c 3e 8b 2d ce bd c8 11 e6 3e e6 b3 a0 bd
       0.23124246 -0.100672804 0.4493544 -0.07846813
0001c0 77 08 da 3c ed e3 4c 3e dc ab dd bd de 7d de be
       0.026615364 0.20008822 -0.10823795 -0.43455404
0001d0 69 03 af 3b 13 f6 88 be 60 71 63 3e ad e9 04 3f
       0.0053409827 -0.2675024 0.22211218 0.5191906
0001e0 60 5b 96 3e 12 19 a3 3e 07 f4 39 be c8 69 b2 be
       0.2936659 0.31855065 -0.18159495 -0.3484633
0001f0 0c d2 0c 3e c4 91 2f be 9f 6d d6 3d 4a 0b 80 bd
       0.13752002 -0.17145449 0.10470127 -0.06252153
000200 21 89 5f bf 42 8d 9a 3d bf dd 8e bc c4 bb cd be
       -0.8731862 0.07546474 -0.017439721 -0.40182316
000210 1d c6 fd 3d dd 6c 65 3c fe b6 8a be e2 4f 64 be
       0.12391303 0.014003006 -0.27092737 -0.22296098
000220 ea cd 2c 3e f4 39 a8 be fc f8 18 be 7a c2 4e be
       0.16875425 -0.32856715 -0.1493873 -0.20191374
000230 aa 2d 43 be 0c dc 3a be d0 d3 3e 3e 1e e2 d1 bd
       -0.19060388 -0.18248004 0.18635488 -0.102482066
000240 16 16 8c be b0 d5 76 3e ac 11 a7 be cb 7e 38 be
       -0.273606 0.24104953 -0.3263067 -0.18017118
000250 6f b2 aa bd b3 9c 9d be bf f7 e9 bc 55 04 8e be
       -0.08334815 -0.30783615 -0.028560517 -0.2773768
000260 17 b7 de 3d 4e 8c 06 be 4f 55 4a 3e f8 48 bc 3e
       0.10874765 -0.1313946 0.19759105 0.3677442
000270 cc e9 81 be 29 4e 1f be f7 9e 46 be 63 57 f6 bd
       -0.25373685 -0.1555716 -0.19396578 -0.120283864
000280 f4 17 a7 3e 7f 0b fb be 82 91 1a be 2f c9 10 be
       0.32635462 -0.49032208 -0.1509457 -0.14139245
000290 1c 45 4d 3e 71 e8 a6 3e 7b 3a 88 3e 56 de fe be
       0.20045894 0.32599214 0.26607117 -0.49779004
0002a0 ff ce 04 3e 7c 30 af be 72 a3 cd be 12 5f 00 3e
       0.12969588 -0.34216678 -0.4016376 0.12536266
0002b0 80 cf c6 3d d8 cd 8e 3c 7e f7 d6 3d 5f 9b 52 3c
       0.09707546 0.017432138 0.10496424 0.012854426
0002c0 8b b8 e0 3c 88 b2 76 bf b9 a6 81 be 96 59 a8 bc
       0.027431747 -0.9636617 -0.25322512 -0.02055053
0002d0 3a 7d cc be f7 03 36 3e 5d fc 61 3d 81 8c f4 3d
       -0.3993929 0.1777495 0.055172313 0.119408615
0002e0 ed 5f 84 be a5 81 ed 3d 25 92 79 3e ef 0a 7b 3e
       -0.25854436 0.11596993 0.24372156 0.2451589
0002f0 f1 1e 9b be 2e a3 a2 bc c1 7c 51 be 4e 7e d0 3e
       -0.30297044 -0.0198532 -0.20457746 0.40721363
000300 e4 a0 98 be 62 26 9a be 80 2c 77 3c 0b b9 1a be
       -0.2981025 -0.3010741 0.015086293 -0.15109651
000310 ea 72 84 3e f1 11 19 3e b0 f3 04 be 86 0a 80 bd
       0.25868922 0.1494825 -0.12983584 -0.06252007
000320 72 d2 67 be 6a 31 db 3d 09 16 d6 3d 3f 2d a2 be
       -0.22638872 0.10702784 0.104534216 -0.31675145
000330 cd 41 51 be 24 c7 97 3e db b1 d2 bd e8 59 f5 3e
       -0.20435257 0.2964412 -0.102878295 0.47920156
000340 ae 83 1e be 5f f8 3d be 73 af b8 be a3 49 ae 3e
       -0.1547992 -0.18551777 -0.36071357 0.34040555
000350 5d 1c c1 be 06 a1 18 bd 9e 71 73 3d ff 07 d5 3d
       -0.37716952 -0.03726294 0.059434526 0.10401916
000360 63 7f 54 be 57 df b1 bd 54 26 31 be df d8 52 bd
       -0.20751719 -0.08685177 -0.17299777 -0.051476356
000370 49 6c 18 be 77 61 ba be 65 96 3a 3e 0e 2e 52 be
       -0.14885058 -0.36402485 0.18221433 -0.20525381
000380 36 a6 43 be 4b fd ae 3e d0 fe 41 bf ba 2b 85 3e
       -0.19106373 0.34177622 -0.7577944 0.26009923
000390 ae 30 7b 3e 2b 3b ff 3d c5 af 02 3e de 1a 49 3e
       0.24530289 0.12462457 0.12762363 0.19639155
0003a0 50 6c ad bb a9 40 f9 be ec 59 87 bd 07 13 a8 3e
       -0.005292453 -0.48682144 -0.06608948 0.32827017
0003b0 10 df b7 bc 1c 0f b7 3e c9 24 22 bd ab 8f 67 bd
       -0.022445232 0.35753715 -0.039585862 -0.056533497
0003c0 f7 21 85 be bd 16 c2 bd e2 c7 8e be fa 5d 10 be
       -0.26002476 -0.09476993 -0.27886873 -0.14098349
0003d0 30 f4 fe 3e 65 33 4c 3e 69 a6 e5 3e 99 47 6a bd
       0.49795675 0.1994148 0.44853523 -0.057197187
0003e0 1b 61 87 3e 6a 67 5e 3e c1 ca 95 3e 5b ca 80 3e
       0.26441273 0.21719137 0.2925625 0.25154385
0003f0 d4 d2 a5 be 3f e9 9d 3e 6a 22 b7 3e 6f 81 97 3e
       -0.32387412 0.30842015 0.35768443 0.29590937

fc1.bias f4 [128]
000000 5a 06 9c be b7 48 ee 3c a8 4d a5 3e c3 8f 61 bc
       -0.30473596 0.029087408 0.3228581 -0.013767186
000010 68 ff a1 3e 33 07 ae be d9 21 90 3e c1 76 14 3e
       0.31640172 -0.33989868 0.28150824 0.14498426
000020 30 81 8f bc 5b e1 7f bd 38 2d 2c 3e 68 d1 08 3e
       -0.017517656 -0.062470775 0.16814125 0.13361132
000030 50 c3 c4 be 01 58 7e bd ee 38 7d be 41 21 6d be
       -0.38430262 -0.062095646 -0.24728748 -0.23157217
000040 10 1f 1f be 69 4a 79 be 0d cd 84 3e 32 12 57 3e
       -0.15539193 -0.24344791 0.2593769 0.21003035
000050 2c 60 5e be 27 3f 9a bd 29 76 6e 3e 14 c8 28 3d
       -0.21716374 -0.075315766 0.23287262 0.041206434
000060 36 8a e1 bd f3 99 7a 3e b0 58 8e 3e 6d 9b ba 3e
       -0.1101269 0.2447279 0.27802038 0.36446705
000070 79 9d 30 3d 73 b1 85 3e f7 4f 61 be 0e 75 b1 be
       0.043118928 0.26111946 -0.2200316 -0.34659618
000080 8e 90 29 bd ee e6 a2 3d 50 cd f9 3c e2 4e 90 3e
       -0.041397624 0.079542026 0.030493408 0.28185183
000090 aa 8a 7d 3e 4e 8c 33 3e 81 57 55 3d f8 71 0c bd
       0.24759927 0.1753399 0.052085403 -0.034288377
0000a0 d6 4a b5 3e ae 5a 8e 3e 6e f2 ad 3b c0 1e cd 3e
       0.35408658 0.27803558 0.005308441 0.40062523
0000b0 3f 22 02 be 2b 7d 2c 3e a4 7c 31 3e d0 20 6e 3d
       -0.12708376 0.16844623 0.17332703 0.05813676
0000c0 62 3d a9 be 5b 46 9d 3e b3 ae 06 bd 7f 08 bd be
       -0.33054644 0.3071774 -0.03288145 -0.36920545
0000d0 d2 cf 51 be 67 4d d5 be 57 69 ad bd 63 84 a8 3d
       -0.20489433 -0.41660616 -0.084673576 0.08228376
0000e0 40 28 8d be f6 03 a7 be 90 c6 c0 be be 73 96 3e
       -0.2756977 -0.3262021 -0.3765149 0.2938518
0000f0 4d 2f ea 3d d0 b9 4b be f6 4f 96 bd 43 82 9d bd
       0.11434803 -0.198951 -0.0733947 -0.07690861
000100 be 5b ca bd 6f 5f 17 3e 84 6e 90 bd 22 ba 0c be
       -0.0988078 0.14782499 -0.07052329 -0.13742879
000110 5c 20 1a be d1 0a 6e bd 15 bd 80 3e 5c 1d d2 3b
       -0.15051407 -0.058115784 0.25144258 0.0064121913
000120 cd e2 2e be 8d 2f 70 bc 50 78 09 3e d4 1b 9e be
       -0.17078705 -0.0146597745 0.13424802 -0.30880606
000130 6c 73 36 3e f8 bf 3e 3d dd 02 69 3d b7 be 1b be
       0.17817467 0.046569794 0.056887496 -0.1520947
000140 ab 6b 87 3e 59 19 ee bd 7b 67 88 3e 66 a7 9e be
       0.26449332 -0.116259284 0.2664145 -0.3098709
000150 89 3b aa bd 48 4d 89 3e f2 45 2f be b0 b7 1a be
       -0.08312137 0.26816773 -0.17116526 -0.15109134
000160 41 ca b2 3e 3a 55 b5 3d fe 1b 9e bd e4 8a 76 be
       0.34919932 0.08854146 -0.07720183 -0.2407642
000170 17 7e 9f 3e 44 9a b7 3e dd 18 6e bd e4 c8 3b 3e
       0.31150886 0.35859883 -0.05812918 0.18338352
000180 14 8f ba be ea 5f a2 3e b2 99 0c 3e 20 b5 86 bd
       -0.36437285 0.31713802 0.13730505 -0.065775156
000190 27 f6 f6 3d f0 23 9d 3e 89 c5 86 3e 71 9e 5d bd
       0.120586686 0.3069148 0.26322582 -0.05410618
0001a0 4b 4b ea 3d cd 3f 20 be 98 2e 14 be 0c e7 8f 3e
       0.11440142 -0.15649338 -0.14470899 0.28105962
0001b0 5e bf 85 3e a5 ff 90 be 4c 65 1c be c9 f1 93 3e
       0.26122564 -0.2832004 -0.15273017 0.28895405
0001c0 af cb 8b 3e 92 02 17 3e 37 a5 ac 3e a1 59 ab be
       0.27303836 0.14747074 0.337198 -0.3346682
0001d0 51 a6 ca bc 8f 36 53 bd 77 f5 8a 3e 45 4c c8 bd
       -0.024737509 -0.051565703 0.271404 -0.09780172
0001e0 73 df 88 3d e5 a3 06 bc a2 a0 28 be 50 ae ec 3d
       0.066832446 -0.008217786 -0.16467527 0.11556685
0001f0 4d d6 46 be c2 2d 2d be ea 24 98 3e 19 a4 94 be
       -0.19417687 -0.16911986 0.29715663 -0.29031447
