flappybird_dqn_ep290.pth (torch, 561729 bytes, 32 tensors)

fc1.weight f4 [128, 7]
000000 de 87 7f 3e c0 c1 f6 be 76 30 3b 3e 09 fe 2b 3e
       0.24954173 -0.48194695 0.18280205 0.16796125
000010 5e 35 86 be b1 83 24 3e f1 77 55 3e 91 96 7a 3d
       -0.2621259 0.16065861 0.20846535 0.061178748
000020 f4 cc a5 3e fb 3f 81 3c 55 a9 7b 3e 60 f2 92 3d
       0.3238293 0.015777579 0.24576314 0.071751356
000030 3f 43 81 3d 37 78 23 3e f8 8b b6 be 8a de dd 3d
       0.06311654 0.15963827 -0.35653663 0.108334616
000040 f5 60 1f be 14 69 b6 be ee 36 95 be 0e 18 0e bd
       -0.1556433 -0.35627043 -0.2914347 -0.03469091
000050 59 36 e8 3c c2 11 7f be b5 ab 42 3e ab 3b 52 3d
       0.028346227 -0.24909118 0.19010814 0.051326435
000060 b6 8f b8 3d e3 e8 fb 3c a4 fa a7 3d b4 7a d4 3e
       0.09011786 0.030750697 0.08202103 0.41499865
000070 89 8b 04 bd e6 87 b5 3e 38 f4 01 bf 60 25 87 bd
       -0.032359634 0.35455245 -0.50763273 -0.065989256
000080 95 71 c5 be c2 da 4c 3e 3d da cc 3e 42 c5 a2 3c
       -0.3856322 0.20005324 0.40010253 0.01986945
000090 48 7a 0f 3e 5d db 79 3e 86 ff 91 be f3 67 9e 3d
       0.1401149 0.24400087 -0.2851526 0.077346705
0000a0 13 53 ad be 1e 7d cb bd 45 10 f0 3d 5f 59 85 be
       -0.33852443 -0.099359736 0.11721853 -0.26044747
0000b0 cb 85 e7 3d 9a 0f 7a be 3b 7b 1a be e8 1e c2 be
       0.11304816 -0.24420014 -0.15086071 -0.37914205
0000c0 08 6d 78 be 41 ed 40 bc 5f 94 eb 3d 04 13 a6 be
       -0.24260342 -0.011775316 0.11502909 -0.32436383
0000d0 04 bd a5 be d9 9d cc 3d ca 5c 3d 3e 0f 54 ba 3e
       -0.3237077 0.099910446 0.18492427 0.36392257
0000e0 f1 7c 16 be ec fb 25 3e fa af c9 3e 8d 76 d9 3d
       -0.14696099 0.16209382 0.39392072 0.10618315
0000f0 7d 7a 9a be ae 1b cc 3e b4 52 02 3e 9a 79 30 be
       -0.30171576 0.39864868 0.12726861 -0.17233887
000100 0a 05 99 be 48 3f 91 3e 8f 4a b1 bd 60 63 69 be
       -0.29886657 0.28368592 -0.08656799 -0.22791815
000110 33 bb 49 be 6b 18 fa 3d e6 7f 16 3e 0b e6 b6 3e
       -0.19700317 0.122116886 0.14697227 0.35722384
000120 28 eb f4 bc 4a fd b7 3e 31 71 dc 3e 98 65 81 bd
       -0.029897287 0.35935432 0.43055108 -0.063182056
000130 28 9b f8 be 82 23 21 3e 3f f7 74 be 4a 4d 24 3d
       -0.48555875 0.15736201 -0.23922442 0.04011277
000140 4f d7 51 be bd 67 21 bf 6c 6b f2 3e a6 bb 44 be
       -0.2049229 -0.6304892 0.4734758 -0.19212207
000150 9c b8 21 3e cf 95 bc be bc ec b5 3e 17 d3 36 be
       0.15793079 -0.36833045 0.35532176 -0.17853962
000160 11 3f b5 3e 26 1a 8d be 09 c7 42 bd de 46 a2 3e
       0.35399678 -0.27559012 -0.047553096 0.31694692
000170 52 fd ac 3e 04 e1 7b be b0 2d 96 be 29 23 a5 3e
       0.33787018 -0.24597555 -0.29331732 0.32253388
000180 10 f5 18 3e cb d9 70 be 6f 38 4f 3e 7b 35 8d be
       0.14937234 -0.23520581 0.20236371 -0.27579865
000190 63 eb 27 be 6a 9d 1a be 4d f8 96 bb a2 0b bf 3e
       -0.16398387 -0.15099111 -0.0046072365 0.37313563
0001a0 77 ee 24 be 73 c4 0b 3e 6e 68 79 be c8 1a 84 3e
       -0.16106592 0.13649158 -0.24356243 0.25801682
0001b0 39 41 66 3e dc fe e1 bd db 8a dc 3e 83 36 88 bd
       0.22485818 -0.11034939 0.43074688 -0.06651022
0001c0 77 08 da 3c ed e3 4c 3e dc ab dd bd de 7d de be
       0.026615364 0.20008822 -0.10823795 -0.43455404
0001d0 69 03 af 3b 13 f6 88 be 60 71 63 3e ca 19 03 3f
       0.0053409827 -0.2675024 0.22211218 0.51211226
0001e0 c3 ed 8d 3e 4d 58 9f 3e 54 a8 44 be 70 dc b8 be
       0.2772046 0.31122056 -0.19204837 -0.3610568
0001f0 68 cd 06 3e 1f 72 36 be e3 82 f9 3d 74 33 86 bd
       0.13164294 -0.17816971 0.12183168 -0.06552783
000200 95 0b 4f bf 33 7e b7 3d 37 dc 98 bb a4 0f c0 be
       -0.8087705 0.089596175 -0.0046649235 -0.37511933
000210 55 d0 05 3e fc bc 02 3c 38 2a 8d be 8c d1 79 be
       0.13067754 0.007979628 -0.27571273 -0.24396342
000220 55 39 2d 3e e7 6a 9c be 80 43 1f be 41 d4 30 be
       0.16916402 -0.3055031 -0.15553093 -0.17268468
000230 aa 2d 43 be 0c dc 3a be d0 d3 3e 3e 1e e2 d1 bd
       -0.19060388 -0.18248004 0.18635488 -0.102482066
000240 16 16 8c be b0 d5 76 3e ac 11 a7 be cb 7e 38 be
       -0.273606 0.24104953 -0.3263067 -0.18017118
000250 6f b2 aa bd b3 9c 9d be bf f7 e9 bc 55 04 8e be
       -0.08334815 -0.30783615 -0.028560517 -0.2773768
000260 17 b7 de 3d 4e 8c 06 be d4 f8 4d 3e e7 cd b6 3e
       0.10874765 -0.1313946 0.20114452 0.35703966
000270 d2 8b 81 be 55 8b 1c be f3 c9 39 be 26 61 e5 bd
       -0.25301987 -0.15287526 -0.18143444 -0.1120017
000280 d0 4d a4 3e 4e d1 f5 be 69 48 1e be 26 24 be bd
       0.32090616 -0.4801125 -0.1545731 -0.092842385
000290 25 0a 53 3e 77 55 a9 3e 6f 0e 90 3e 62 55 f0 be
       0.20609339 0.33073017 0.28136012 -0.46940142
0002a0 9c 64 0e 3e fe 0d b8 be fb 0a c0 be 53 95 0e 3e
       0.13905567 -0.35948175 -0.37508377 0.1392415
0002b0 f0 6d f6 3d f8 cf 03 3d 2c ba a5 3d 25 14 54 3c
       0.12032688 0.032180756 0.0809215 0.012944256
0002c0 11 ad c5 3c 31 d3 77 bf b7 e7 80 be ef 03 8f bc
       0.024130376 -0.9680663 -0.25176784 -0.01745793
0002d0 9c 58 cb be 10 9d 1c 3e 9c c1 8b 3d a5 f8 e0 3d
       -0.3971604 0.1529429 0.068240374 0.10984925
0002e0 97 32 89 be 22 70 08 3e 78 53 83 3e cc 66 81 3e
       -0.2679641 0.13324025 0.2564962 0.2527374
0002f0 c3 0e 86 be 46 8c f4 bc 17 28 4f be fd 48 cd 3e
       -0.26183137 -0.029852044 -0.20230137 0.40094748
000300 9d 17 a0 be 7e 19 a3 be eb 0c ad 3b 59 4f 0c be
       -0.31268016 -0.31855386 0.005281081 -0.13702144
000310 0e 46 80 3e 82 f7 11 3e cc 08 04 be 9e 7a 91 bd
       0.25053447 0.14254573 -0.1289398 -0.071034655
000320 07 9d 6b be 89 4a d5 3d 32 2c f0 3d 5e 67 a5 be
       -0.2300912 0.10414607 0.117271796 -0.32305425
000330 c0 39 45 be 2e 18 96 3e 5d f3 e9 bd f7 17 eb 3e
       -0.19260311 0.29315323 -0.11423371 0.4591672
000340 02 15 27 be 66 59 50 be 73 af b8 be a3 49 ae 3e
       -0.16316608 -0.20346603 -0.36071357 0.34040555
000350 5d 1c c1 be 06 a1 18 bd 9e 71 73 3d ff 07 d5 3d
       -0.37716952 -0.03726294 0.059434526 0.10401916
000360 63 7f 54 be 57 df b1 bd 54 26 31 be df d8 52 bd
       -0.20751719 -0.08685177 -0.17299777 -0.051476356
000370 49 6c 18 be 77 61 ba be 65 96 3a 3e 0e 2e 52 be
       -0.14885058 -0.36402485 0.18221433 -0.20525381
000380 fb 97 3b be fb 70 a3 3e 71 0c 33 bf de 40 8a 3e
       -0.18319695 0.31922135 -0.6994086 0.27002615
000390 5c eb 8c 3e 3e e8 15 3e db 3d 06 3e bf 56 59 3e
       0.27523315 0.14639375 0.13109533 0.21224497
0003a0 40 46 75 bc bf a7 f6 be c7 06 53 bd 1a c2 af 3e
       -0.014970362 -0.48174855 -0.051520135 0.34327775
0003b0 d6 3f d9 bb 60 65 b5 3e 4c ba 3e bd 30 99 ec bc
       -0.0066299243 0.35428905 -0.046564385 -0.02888164
0003c0 b0 9f 50 be 61 b5 ec bd b5 89 9c be 36 3e 15 be
       -0.20373416 -0.11558033 -0.30573812 -0.14574513
0003d0 d9 47 f6 3e 1f 20 51 3e c6 9e de 3e 85 fa 5f bd
       0.4810169 0.2042241 0.4348051 -0.054682273
0003e0 15 78 8c 3e c8 3f 6b 3e ce 73 97 3e 64 22 8b 3e
       0.27435365 0.2297355 0.2958054 0.27174675
0003f0 fb 26 a6 be 2d 04 a3 3e 4c 1e b6 3e 46 28 98 3e
       -0.32451615 0.31839123 0.3556999 0.29718226

fc1.bias f4 [128]
000000 23 91 9e be 79 01 11 3d 7c 82 87 3e 45 0d ac bc
       -0.30970106 0.035401795 0.2646674 -0.021002421
000010 7b 95 a9 3e 33 07 ae be 13 9f 6e 3e 99 3f 2f 3e
       0.33121857 -0.33989868 0.2330287 0.17114104
000020 6e 76 01 bd 5b e1 7f bd 2d f4 31 3e fa 3b 07 3e
       -0.031607084 -0.062470775 0.17378302 0.13206473
000030 50 c3 c4 be 44 5e 47 bd 75 a2 74 be 7b c1 7b be
       -0.38430262 -0.048673883 -0.23890097 -0.24585526
000040 10 1f 1f be 8b a6 81 be 38 ac 8b 3e 55 92 47 3e
       -0.15539193 -0.25322375 0.2727983 0.19489415
000050 2c 60 5e be 27 3f 9a bd e5 f7 74 3e 0b b0 38 3d
       -0.21716374 -0.075315766 0.2392269 0.045089763
000060 97 a7 c1 bd be f7 77 3e 30 c5 95 3e 9d 5b b4 3e
       -0.09455793 0.242156 0.29252005 0.35226145
000070 ec ff 20 3d f5 15 7e 3e f7 4f 61 be 0e 75 b1 be
       0.039306566 0.24813063 -0.2200316 -0.34659618
000080 c4 14 c1 bc 67 ab c0 3d 47 97 3d 3c eb 39 95 3e
       -0.023569472 0.094076924 0.011571712 0.2914575
000090 ec 9b 7a 3e aa ca 29 3e c4 dd 45 3d 17 e6 0e bb
       0.24473542 0.16581216 0.048307195 -0.0021804625
0000a0 f5 fc ae 3e d1 95 86 3e a4 09 68 3b 1b 60 ce 3e
       0.34177366 0.26286176 0.0035406137 0.40307698
0000b0 3f 22 02 be 07 a4 3c 3e aa d3 4b 3e cd b5 7b 3d
       -0.12708376 0.18421946 0.19904962 0.061452676
0000c0 62 3d a9 be a5 38 8c 3e d9 6b bb bc 7f 08 bd be
       -0.33054644 0.27386966 -0.022878574 -0.36920545
0000d0 d2 cf 51 be fc 84 d6 be fd 3c 9b bd 67 04 97 3d
       -0.20489433 -0.41898334 -0.07579992 0.073738866
0000e0 40 28 8d be f6 03 a7 be 90 c6 c0 be 36 db 96 3e
       -0.2756977 -0.3262021 -0.3765149 0.2946412
0000f0 c7 57 f1 3d 54 0a 4a be 14 94 b2 bd 95 ea 9f bd
       0.1178432 -0.19730502 -0.0871965 -0.07808415
000100 e8 8d c1 bd 45 f5 2c 3e 84 6e 90 bd 13 54 08 be
       -0.094508946 0.16890438 -0.07052329 -0.13313322
000110 5c 20 1a be 0f fa 78 bd 0d ed 70 3e f9 10 a5 3c
       -0.15051407 -0.06078535 0.23527928 0.020149695
000120 cd e2 2e be c4 0a 02 bd f9 6e 17 3e 84 e1 a3 be
       -0.17078705 -0.03174855 0.14788426 -0.32007992
000130 a9 a7 39 3e 97 91 1d 3d de 45 67 3d b7 be 1b be
       0.18130364 0.038468923 0.056463115 -0.1520947
000140 08 de 8e 3e 7d b6 ec bd 55 07 8e 3e 66 a7 9e be
       0.2790377 -0.115582444 0.2773997 -0.3098709
000150 4a e3 ad bd f5 92 8d 3e f2 45 2f be 41 dc 15 be
       -0.084906176 0.27651182 -0.17116526 -0.14634801
000160 ac 51 b4 3e fb 83 c6 3d 51 58 ab bd e4 8a 76 be
       0.3521856 0.09693142 -0.083664544 -0.2407642
000170 d4 d0 99 3e 42 63 c0 3e dd 18 6e bd 7a cd 42 3e
       0.30042136 0.37575728 -0.05812918 0.19023696
000180 14 8f ba be 1e 35 a5 3e 43 bc f6 3d 34 ac 6b bd
       -0.36437285 0.32267088 0.12047627 -0.057537273
000190 d6 50 0a 3e 9f 1d a4 3e 05 e2 7a 3e c5 63 66 bd
       0.13507399 0.3205385 0.24500282 -0.05624749
0001a0 9f cd ee 3d cd 3f 20 be 85 03 10 be f6 d5 8f 3e
       0.11660313 -0.15649338 -0.14063843 0.28092927
0001b0 17 7a 86 3e 26 d6 8e be 77 ca 25 be 5e e0 96 3e
       0.26265022 -0.27897757 -0.16190515 0.29468054
0001c0 04 8f 90 3e 07 85 2c 3e ea 39 a7 3e 24 ce 9e be
       0.28234112 0.16847621 0.32661372 -0.31016648
0001d0 51 a6 ca bc 8f 36 53 bd 08 11 87 3e fa 2c ad bd
       -0.024737509 -0.051565703 0.2638018 -0.08455844
0001e0 94 df 9c 3d b3 85 2e 3b 8a 9d 28 be 9e 08 f7 3d
       0.07659832 0.0026629984 -0.16466346 0.120621905
0001f0 cb 3f 2d be 13 f2 19 be 31 a2 92 3e 19 a4 94 be
       -0.16918866 -0.1503375 0.28639367 -0.29031447

fc2.weight f4 [128, 128]
000000 e4 86 4d 3e c9 6a ac bc ed da 89 bd f5 15 6d 3b
       0.20070988 -0.021047013 -0.0673121 0.0036176417
000010 c8 a0 ce bc 1e fd 4f bd 59 c8 28 be 2a 44 4b bc
       -0.02522315 -0.0507785 -0.16482677 -0.012406388
000020 9b 5c d2 bb 20 1b 3e 3d 32 3d 1d bd c7 bb 5d 3e
       -0.006419731 0.046412587 -0.03838844 0.21653663
000030 f4 e6 f6 bc bf fe 22 3e 0a 36 bb 3c c8 1c 9f 3d
       -0.030139424 0.1591749 0.022852916 0.077691615
000040 db e6 ac 3c a2 b0 1d 3e 57 c7 15 3d c8 51 ba bd
       0.021106174 0.15399411 0.03656706 -0.0909763
000050 06 e5 03 3d bf ed 6b 3c eb 7f 0d 3d 7b d5 ba bd
       0.032200836 0.014399945 0.03454582 -0.091227494
000060 35 4e 40 be 61 a4 10 be 83 ca 6c 3d 63 0a bf 3d
       -0.18779834 -0.14125206 0.057810318 0.09328153
000070 1e 1d d1 3d 4c ed e3 bd eb 38 53 3d 61 b7 e0 bb
       0.10210632 -0.11129245 0.051567953 -0.006857798
000080 0a 83 c1 bd ee 83 46 bd cd 50 00 be d2 1c 71 bd
       -0.09448822 -0.04846566 -0.12530823 -0.058865376
000090 73 d2 8d 3d 4f 51 b5 bc 53 6c 7c 3e 05 aa fa bc
       0.06924906 -0.022133498 0.24650697 -0.03059865
0000a0 07 68 12 3e 41 02 2e 3d 9c 0f 7b 3d f6 db 3e 3e
       0.14297496 0.04248262 0.061294183 0.18638596
0000b0 c0 b4 97 3c 4b 25 71 3c 8b dd 3a bd 57 2b 1d bd
       0.018518806 0.014718364 -0.045621436 -0.03837141
0000c0 22 df ba 3b b8 01 dc bd 41 29 e2 bd c5 9d 1c bd
       0.005702869 -0.10742515 -0.11043025 -0.0382364
0000d0 ce b8 a5 3d e1 1a 09 3e 93 eb 9b 3d 25 9e 77 bc
       0.08091889 0.1338916 0.076132916 -0.015113388
0000e0 55 df c6 3a bd 4e 3c bd 13 fb 38 3d 74 93 a4 bb
       0.0015172759 -0.04597353 0.045161318 -0.0050224606
0000f0 07 e5 1b 3e ee ba 56 be d7 e6 95 3c 46 f8 d4 3d
       0.15224086 -0.20969746 0.01829855 0.10398917
000100 7d 3e 73 be 53 70 28 bc cc 24 c5 3c b7 f6 23 3e
       -0.23754306 -0.010280686 0.024065398 0.16012083
000110 96 a9 b0 bd ae 6e 0d 3e f6 1c 86 3b 3f 1e 09 be
       -0.08626096 0.13811752 0.004092808 -0.13390444
000120 74 63 8a 3c 61 6d 39 3d 4b 6d d2 bd fd 59 74 3e
       0.016893126 0.045270327 -0.10274752 0.23862453
000130 53 ae 09 3d 45 2c 30 3e ea 5f a0 3e 83 0c 45 bd
       0.033613514 0.17204387 0.31323177 -0.048107635
000140 44 da f9 3c 4e 46 8b be 86 a6 16 3c 27 ba 0e 3d
       0.030499585 -0.27202076 0.009194976 0.034845497
000150 2a 7f ca 3e 28 bb cc 3a e1 7e 07 3d 26 10 de 3d
       0.39550143 0.0015619742 0.033079986 0.10842924
000160 8c 48 12 3e 4e 54 70 3e 89 ce 0d 3d 5d 5f 2a 3c
       0.14285487 0.2346966 0.034620795 0.010398713
000170 e7 51 71 3d 67 9a 9a bc ba aa 49 bd a0 39 e9 3c
       0.058916 -0.018872453 -0.049235083 0.02846986
000180 77 62 46 3d 42 5f 1e bd db 5b 6c bc 6f c7 9b bd
       0.048433747 -0.038665064 -0.014426197 -0.07606398
000190 fa e2 ef bd bf 0f 47 bd 60 f3 72 3e 34 4a d6 bd
       -0.11713214 -0.048599 0.23725653 -0.10463372
0001a0 c3 77 27 be f1 c0 56 bd 6a 86 34 3e a4 78 be 3b
       -0.16354279 -0.052430097 0.176294 0.0058127213
0001b0 dc 24 40 3e 7b 75 ed 3d a1 77 ee 3d 74 6f 8f bc
       0.1876406 0.11594673 0.11643911 -0.0175092
0001c0 d7 6e b8 bd b8 2c 98 3b 48 b9 63 3e 74 01 3d be
       -0.09005516 0.0046440028 0.22238648 -0.18457586
0001d0 d1 fe e2 bc 2e b0 8a 3d ac ce 3e 3d 6c 9e dd bb
       -0.027709397 0.06771885 0.046583816 -0.00676327
0001e0 eb 60 b4 bd 05 a5 1c bd 3f 53 37 3e 64 7c 66 3d
       -0.08807548 -0.038243312 0.1790285 0.056270972
0001f0 6f f9 82 be 65 6f fd bd e9 7f 10 3e 0b 6c 4e 3d
       -0.25580928 -0.123747624 0.14111294 0.050396007
000200 49 4b 17 be 6e cd 78 3d d3 4c e6 bc 31 66 73 3d
       -0.14774813 0.060742788 -0.028112805 0.05942363
000210 63 12 0c be 31 04 ac bd 49 48 26 be 90 ab 20 bd
       -0.13678889 -0.08399237 -0.16238512 -0.039226115
000220 a3 96 44 bd 9f f4 b4 3d 0f db 99 3d 33 2a f4 bd
       -0.04799522 0.0883572 0.07512485 -0.11922111
000230 e1 a8 b0 bd ee 34 12 3c a9 ca 28 be 9f 93 78 3d
       -0.08625961 0.008923752 -0.16483559 0.060687657
000240 b9 f5 98 3d c5 b8 12 be cb c3 0b bd e8 92 10 bc
       0.07468743 -0.14328296 -0.03412227 -0.008824088
000250 a4 c8 69 3d 5c a6 91 bc 3d a0 53 be bd d9 14 3b
       0.05707611 -0.017779522 -0.20666595 0.002271279
000260 75 0b b3 3c 2c 5d 92 be 24 d5 06 3d b2 21 c7 3b
       0.02185605 -0.2858671 0.03291811 0.006077015
000270 1e 43 c5 bd a0 fd 4d 3e 9d 2a 89 bc 02 23 cd bc
       -0.09631942 0.20116282 -0.016743952 -0.025041107
000280 23 82 cd bd bd b2 cf 3a 0e 6e 4e be 3d d7 f3 3d
       -0.10034587 0.0015846115 -0.2015917 0.11906288
000290 cc 32 3c 3b fd 6f 71 3e 51 25 c2 be 6f 67 07 bb
       0.00287168 0.23577876 -0.37919095 -0.0020661016
0002a0 01 d3 1b 3e 9d 6c c5 3d 5d 09 30 3c 0c a9 10 be
       0.1521721 0.09639857 0.01074442 -0.14126986
0002b0 4d 9d b3 3d e7 d5 b7 3d 6c 9e f7 bb f2 1d 2f be
       0.08770237 0.089763455 -0.007556727 -0.17101267
0002c0 19 44 49 bd 50 36 1e be 9c a3 8c be 66 1b a9 3d
       -0.04913721 -0.15450406 -0.27468574 0.08257179
0002d0 31 e9 a8 3d 61 49 70 bc e2 37 28 3d 13 99 30 3e
       0.08247603 -0.014665932 0.04106892 0.17245893
0002e0 b0 c9 84 bd f2 c3 b3 3d 08 96 aa 3d da 77 ae 3d
       -0.06483781 0.08777608 0.083293974 0.085189536
0002f0 43 6e 32 bd 29 71 89 3e 33 b7 ed 3d c5 45 94 3d
       -0.043562185 0.26844147 0.11607208 0.0723987
000300 04 59 84 3e c6 d9 27 3d b3 bc a5 bd 6b 81 35 3d
       0.25849164 0.04097917 -0.08092632 0.044312876
000310 76 24 48 3d 67 ec 01 3e f0 13 c7 3d 49 d6 2f be
       0.048862897 0.12687837 0.097206 -0.17171587
000320 98 e2 af 3d 6a 37 ef 3e d8 04 7a 3d bb 13 56 be
       0.08588141 0.46721965 0.061039776 -0.20905964
000330 8d 0f aa 3d 45 c1 d8 bd 74 44 9d be 7f 94 c5 bb
       0.08303747 -0.10583738 -0.30716288 -0.006029665
000340 72 f4 9d bd af 75 88 3e fc 20 ae bc bf 3c 02 bb
       -0.0771264 0.26652285 -0.021255963 -0.0019872633
000350 7d 62 d6 be 74 2a 67 3d 27 d7 5a bd 07 0d 42 be
       -0.41872016 0.05643697 -0.05342784 -0.18950282
000360 71 99 8a bd 1c e3 9c bd d3 62 b1 3b d3 32 94 bd
       -0.06767548 -0.07660505 0.005413392 -0.072362565
000370 ae f3 d8 3d 76 50 37 bd fe 8a 96 bd 8a d2 1b 3d
       0.10593353 -0.044754468 -0.073507294 0.038042583
000380 13 b8 da bb 66 45 94 3d e7 2a 0b 3d 1a 41 7b bd
       -0.0066747754 0.07239799 0.03397646 -0.061341383
000390 ba e8 e0 bd 54 64 cd bb 54 15 b1 bd 5c b8 68 3e
       -0.10981889 -0.0062680636 -0.08646646 0.22726578
0003a0 4e a0 18 3e c6 d5 bf bc a6 64 35 3d 2e 50 a2 3d
       0.14904901 -0.023417365 0.04428544 0.07925449
0003b0 ff a0 44 3d 6a 05 e9 be dd 59 28 3c a4 0f 3e be
       0.0480051 -0.45511943 0.010275331 -0.18560654
0003c0 6c 35 91 bc 20 44 e9 bd 55 4c c3 bc 67 46 03 be
       -0.017725669 -0.11389947 -0.023840109 -0.12819825
0003d0 96 e2 bd ba 2a c6 31 bd 52 9a 2c 3d 61 6e 6b 3d
       -0.0014487084 -0.043401875 0.04213936 0.057478312
0003e0 91 66 a1 bc 52 62 4d bc 3a 81 67 be c2 93 91 bd
       -0.019702228 -0.012535648 -0.2260789 -0.07108261
0003f0 46 0e 66 bd f7 31 84 3d 25 b5 48 bc bd af 65 bd
       -0.056165956 0.064548425 -0.0122502195 -0.0560758

fc2.bias f4 [128]
000000 aa e2 c0 3d 93 70 3e bd f5 e9 a3 bd 2a 3d ab ba
       0.09418233 -0.046494078 -0.08003608 -0.0013064493
000010 85 d3 01 3d d6 b0 c4 3c 17 24 2b bd a6 71 9e bd
       0.03169586 0.024010103 -0.041782465 -0.077365205
000020 35 37 cc ba 62 c3 0f 3d 1d 49 97 bd ab 72 ae b8
       -0.0015580418 0.03509844 -0.07386992 -8.318325e-05
000030 76 f9 40 3d 48 f4 46 3c 28 c5 30 bd 2d 2a 09 3c
       0.047112904 0.012143202 -0.043156773 0.008371872
000040 d5 41 38 3d e0 7b 7a 3d ae f8 f4 3b 59 ec 85 3d
       0.044984657 0.061153293 0.007475934 0.0653922
000050 0c 01 57 3d d6 a4 b0 3d 7b 43 c3 3d 35 0d 16 3c
       0.052491233 0.0862519 0.09534355 0.009158422
000060 7f c9 90 bb e3 e8 d3 3d 57 6c fe 3c 61 ea 1f bc
       -0.0044185515 0.10347154 0.03105752 -0.00976047
000070 fc c9 80 3d 45 ca 9d bd 50 13 d1 3b 4f 56 b0 bd
       0.062885255 -0.077045955 0.006380476 -0.08610212
000080 51 97 f9 3c 4a d9 08 3d 34 d8 5a bd 52 8a f0 3c
       0.030467661 0.033410348 -0.053428844 0.029362831
000090 9d 73 5f 3c 34 bf 29 3d ed 77 27 3d ee 2a b4 3d
       0.013638404 0.04144211 0.040885855 0.08797251
0000a0 53 87 99 3d 11 cb a7 bd a1 cf 27 3c 7e 15 3b bd
       0.07496514 -0.08193029 0.010242374 -0.045674793
0000b0 49 d9 9d 3c af 5a ab 3c ec ba 8b 3d 4a b6 85 3d
       0.019268649 0.020917265 0.06822762 0.065289095
0000c0 3a e1 fa 3c 1e 51 00 3c 6b dd 11 3d f2 bd d4 bc
       0.030624975 0.00783184 0.03561155 -0.02596948
0000d0 b4 05 95 3b ee be 1b bc 0c 9d 4d bd 1c a4 d2 bc
       0.004547799 -0.00950597 -0.0501986 -0.02571302
0000e0 c5 d9 15 3d 12 7b 35 3d f0 ef 3e bd 73 f4 c3 3d
       0.036584634 0.044306822 -0.04661554 0.09568109
0000f0 ca 5c 9b 3b 94 bf be bd 24 cc 91 bd 75 52 54 3d
       0.004741286 -0.093138844 -0.07119015 0.05183645
000100 82 08 96 bd 16 1b 11 3d dc aa 7a 3c d7 1b e6 bc
       -0.073258415 0.03542622 0.015299525 -0.028089447
000110 e7 ba 6b 3d 8f 27 d5 bc 8d eb 95 bd 00 d5 27 3c
       0.05755129 -0.02601984 -0.07320318 0.010243654
000120 03 73 9b bd 6a 87 a2 bd cd 83 57 3d dc eb 12 3d
       -0.07590296 -0.079359844 0.05261593 0.035869464
000130 bf 07 6e bd 6c e5 83 3d 49 0c 9b 3d 3f b7 c2 3c
       -0.058112856 0.06440243 0.075707026 0.02376902
000140 06 22 96 3d 31 44 48 bd f8 5d 70 bd ce 91 66 3d
       0.07330708 -0.048893157 -0.058683366 0.056291394
000150 23 5d c7 bc 7a 9c f7 bc 23 64 44 3d c3 7c 85 bd
       -0.024336403 -0.030225981 0.04794706 -0.06517937
000160 8f 99 d6 bc cc d5 9a bb 24 08 d0 3c 44 d3 90 3d
       -0.02619627 -0.0047251936 0.025394507 0.07071546
000170 26 25 82 bd cc 6a 6c bd f5 2a 7f 3d ea b9 ce 3d
       -0.06354742 -0.057719037 0.062296826 0.10094054
000180 91 4b f3 bc 7e 87 49 bc d8 dc f4 3d 7c 55 3c bd
       -0.029699119 -0.01230037 0.11956185 -0.04597996
000190 81 fc 61 3d fc fe d4 3d ae aa 58 bc 9f ed b5 bd
       0.055172447 0.10400197 -0.013224287 -0.08883213
0001a0 2e 8c f0 3b 8f 76 7b 3d 51 de af bd 06 2c 81 3d
       0.0073409295 0.061392363 -0.08587325 0.06307225
0001b0 8f 46 ad bc 9e 37 3b bd b5 9f 35 3d 6f 81 64 bd
       -0.021151809 -0.045707338 0.04434176 -0.0557875
0001c0 cb bc 90 3d a3 93 e9 3c 69 8f 06 bd 9d 9e d5 3c
       0.070672594 0.028512781 -0.03285161 0.02607661
0001d0 b8 92 64 3d 30 1c 46 3c 43 1a 3f 3d 8e 3b 5e bd
       0.055803984 0.012091681 0.046655905 -0.054256015
0001e0 7f 07 37 3c 06 03 1d 3d 7a 8d 3a bd 54 5c a9 3d
       0.011171221 0.03833296 -0.04554508 0.08269563
0001f0 74 1e 21 bd 34 a8 17 bd d2 d4 db ba f3 6f 92 3d
       -0.039335683 -0.037025645 -0.00167718 0.07150259

fc3.weight f4 [128, 128]
000000 a2 88 ec 3a 8c e8 8a 3c 2d 09 06 3c b4 6d 1e bc
       0.0018046091 0.01695659 0.008180899 -0.00966971
000010 be ae ac bd 05 d4 9c bd a0 97 50 3c 8f f5 48 3c
       -0.08431767 -0.07657627 0.012731463 0.012265577
000020 86 64 6a 3d 05 0f 6d bc 5e 39 b7 bc e6 58 94 3d
       0.057224773 -0.014468913 -0.022366222 0.072435185
000030 2e 0a a0 bd a1 b1 11 3d 53 76 49 bd 75 cd d3 3c
       -0.078144416 0.03556979 -0.04918511 0.025854805
000040 d6 58 e6 3d 3c e2 fc bd cc 0f 94 bd 50 41 0e bd
       0.11247413 -0.12347838 -0.072295755 -0.034730256
000050 2e c9 59 bd 21 1c 88 bd a2 45 c7 bb 4d 92 21 bd
       -0.053170376 -0.0664599 -0.006081299 -0.039446164
000060 d8 e5 15 be 99 bb 4e 3d 9a 61 10 3d 94 0f 03 3e
       -0.1463846 0.050471876 0.03524933 0.12798911
000070 8a 63 bb 3a 7c 9b 5f 3d ce 7b 64 3d e8 ac c2 3d
       0.0014296633 0.05459164 0.05578213 0.095056355
000080 4e b6 cd 3d 01 c6 5e 3d e3 53 b8 bb dd 40 09 bd
       0.100445375 0.05438805 -0.0056252345 -0.033509124
000090 23 8f 87 bd cf 99 24 3e 4d 7a 89 bc ab 7d 2f 3d
       -0.06619098 0.16074298 -0.01678195 0.042844456
0000a0 d5 be 04 3d a3 ae 54 bd c2 05 0f 3e 10 68 c8 bc
       0.032408554 -0.05192436 0.1396704 -0.024463683
0000b0 15 64 60 3d 84 93 02 be 86 b0 09 bd 40 df 06 3e
       0.054782946 -0.12751585 -0.03361561 0.131711
0000c0 c8 f4 ef 3c 47 a7 0d be 48 1f a7 3d 8b 05 c4 bd
       0.029291525 -0.13833342 0.08160263 -0.0957137
0000d0 22 d7 9b 3c 38 af 8a bd d9 68 42 bc a7 22 53 bd
       0.019023482 -0.067717016 -0.011865818 -0.05154672
0000e0 ac 8f be bc b1 ce ba 3b db 52 d4 3c 0b c0 0a be
       -0.023261867 0.005700909 0.025918415 -0.13549821
0000f0 b4 65 21 3b cf 8f 34 bd c4 19 91 3d 0f 76 ae bc
       0.002462727 -0.04408246 0.070849925 -0.02129653
000100 a8 af 4b 3d b8 a3 29 bd eb 25 f8 3c b5 32 da 3d
       0.049728066 -0.0414159 0.030291518 0.10654203
000110 1d 7b 80 bd eb 21 b1 bd 47 1c 7e bc 2a 16 a9 bd
       -0.06273482 -0.086490475 -0.0155096715 -0.082561806
000120 91 fd 19 bd 1d 9b f9 bd 27 a3 a5 be ec c2 89 3d
       -0.037595335 -0.12187789 -0.32351038 0.067266315
000130 b4 33 ad 3c 22 27 6c 3d cc a9 e5 bc ca fe c4 bd
       0.021142818 0.057654507 -0.028035067 -0.0961891
000140 68 d9 e4 3c 9c fc a3 bd 82 7c b3 bc 17 5e db bc
       0.027935699 -0.08007166 -0.021909956 -0.026778264
000150 4d 2e 59 3c a6 2e 92 3d bf 2f de 3d 55 90 b1 3d
       0.013255668 0.07137804 0.108489506 0.08670107
000160 6f 0d a9 3b f1 94 0b 3d ce f2 e4 3d 26 61 92 3d
       0.005159072 0.03407759 0.11179124 0.07147436
000170 8a 30 1f bd ee 8e 5d 3d 6f 97 f9 bc 5e 49 1a 3d
       -0.03886465 0.054091386 -0.030467717 0.037667625
000180 43 03 2f bd 22 66 46 3d 4e 9a 28 3d 77 73 d9 3c
       -0.04272772 0.048437245 0.04116278 0.026544316
000190 23 64 19 3d 5e 8b e2 3c 30 4a 27 bd 9f c6 2e bd
       0.037449013 0.027654346 -0.040842235 -0.04266989
0001a0 d1 10 28 bd 10 4b 22 bd 5b 56 91 3d ce 90 56 3d
       -0.041031662 -0.039622366 0.07096549 0.05238419
0001b0 dd 1a 73 3d 4c 0a 2d 3d c8 bb 11 3e 1e d4 cc 3d
       0.05935179 0.042246148 0.14231789 0.10001396
0001c0 9b f0 9c 3c af c8 a6 3c 7f a0 21 bc ef 70 4c 3b
       0.019157698 0.020359365 -0.009864925 0.0031195243
0001d0 03 91 7b bd 15 bf 44 bc c6 b7 97 3d 53 24 69 3d
       -0.06141759 -0.012008448 0.07408099 0.056919407
0001e0 c7 4d f8 3d 26 66 a9 3d 8a df 01 3e 24 ee 15 bd
       0.1212421 0.082714364 0.1268293 -0.03660406
0001f0 2a a5 0f bd 25 c4 2c 3c be ce ef 3c d0 ba 95 3d
       -0.035069622 0.010544811 0.029273387 0.07311022
000200 fd a6 a4 3d a9 40 3f 3e d3 8a 2c bc 57 cc ac 3d
       0.08039663 0.1867701 -0.010531145 0.08437412
000210 6c a0 8e 3d bc 92 1f 3e 34 e0 2f be ce 9a 8b 3d
       0.06964192 0.15583318 -0.1717537 0.06816636
000220 78 55 a9 bd 23 af e3 bd 64 b8 3d 3d 24 a5 85 bd
       -0.08268255 -0.11117389 0.046318427 -0.06525639
000230 29 48 76 3d cd 6e 16 bb 65 89 ba 3c 19 9b 45 3d
       0.06012741 -0.0022954226 0.022770593 0.048243616
000240 88 a9 7c bd f7 7e f2 3d 21 b7 4a bd 6a 00 1f bd
       -0.061685115 0.11840623 -0.04949105 -0.038818754
000250 20 14 06 bd c0 76 4c 3d a2 2e 51 be e9 e9 88 3d
       -0.032734036 0.049917936 -0.20427945 0.0668524
000260 ac d2 07 3e d9 26 c4 bd 5b 96 66 ba c1 d6 cf bd
       0.13263959 -0.09577722 -0.00087962084 -0.10148383
000270 85 4c 07 bd 29 49 e4 3c 52 cd 29 3d fc 84 8b bd
       -0.03303196 0.027866917 0.041455574 -0.06812474
000280 ac 8c be bb 60 d8 19 bb 49 d4 85 bd 4f c8 cd 3d
       -0.0058151092 -0.0023474917 -0.06534631 0.100479715
000290 3d df 08 bd 74 d7 09 be e2 80 db 3d 40 7e 80 3d
       -0.03341602 -0.13461095 0.10717942 0.0627408
0002a0 08 34 22 3c 0e 20 bb 3c a5 be 80 3c f4 6f 44 3d
       0.0099001005 0.022842433 0.015715906 0.04795833
0002b0 9e af d3 bd 2b 1f 15 bd 88 aa cd 3c 8b ad 7c 3d
       -0.10336231 -0.036406677 0.02510573 0.06168894
0002c0 0d 2b 08 be 4a 2e 80 3d e2 5a 52 be ba 72 c0 3d
       -0.13297673 0.06258829 -0.20542482 0.09396882
0002d0 5c 46 44 bd 95 05 a6 bc a8 41 66 bd c0 2a 88 3d
       -0.047918662 -0.020266334 -0.05621496 0.06648779
0002e0 24 2e 4f 3d ef 8b 4b 3b 84 72 d1 bc 2d 40 d2 3d
       0.050581113 0.0031058749 -0.0255673 0.10266147
0002f0 53 27 64 3c 83 9d 47 3d 80 ee d9 bc 48 b4 1c 3b
       0.013925391 0.0487342 -0.026602983 0.0023911167
000300 49 33 09 bd b5 fa b5 bd a6 5c 20 bd 6d 6e 3d bd
       -0.033496175 -0.08885709 -0.039150856 -0.04624789
000310 bb 90 11 bd 2a ec a9 3d f3 99 98 3c 1e da 07 bd
       -0.035538416 0.08296998 0.018628096 -0.033166997
000320 98 e7 b4 bd b4 35 02 bc 19 6a ff 3d a1 5f 71 bc
       -0.088332355 -0.007947374 0.124714084 -0.014732272
000330 0d 5e ac bd 64 10 91 3c 29 a5 41 3d 64 0b e2 3d
       -0.08416376 0.017708011 0.04727665 0.11037329
000340 a2 d1 5d bd 1d 49 88 3d c5 d4 c9 bd 28 88 f5 3c
       -0.054155 0.0665457 -0.09855036 0.02997215
000350 5b ae 31 3b 9e 6e a3 bd 46 2f b8 3d 6f a9 d3 bc
       0.002711198 -0.07980083 0.08993392 -0.025837628
000360 be a7 21 bc 4b 76 a8 3c c9 1b 69 3d 75 d8 c5 bc
       -0.009866653 0.020564219 0.056911264 -0.024151066
000370 57 69 04 3d b4 dd 8c bc b7 54 6f 3d bd 79 33 bc
       0.032327022 -0.01719556 0.0584304 -0.010954318
000380 0b 84 aa 3e 6d 62 fe bc d8 b4 93 bd 2e 31 f6 3d
       0.33303866 -0.031052792 -0.072122276 0.12021099
000390 e3 2b 54 bd ba e7 8b 3d ac 18 a5 3d d4 66 19 bc
       -0.051799666 0.06831308 0.080613464 -0.009362895
0003a0 e5 96 47 bc 67 d6 db bd 9f 44 67 3d 8c 03 81 3d
       -0.012181972 -0.107342534 0.056461927 0.06299505
0003b0 23 bd ad bd 53 46 b0 bc 6d c0 29 3d bf b1 fe bc
       -0.084833406 -0.021517908 0.041443277 -0.031090615
0003c0 95 d1 66 3e 0d c6 7b bb 2f 92 8b bd 0e 26 eb 3d
       0.22540887 -0.0038417608 -0.06814992 0.11481868
0003d0 e8 35 02 3e a3 ac 87 3d 9d 4e 5b 3d 20 fd 9b bc
       0.12715876 0.06624725 0.05354177 -0.019041598
0003e0 d5 6c 16 be d0 d9 44 3d f2 f3 69 3d 7d df 85 bd
       -0.14689954 0.048059285 0.05711741 -0.06536768
0003f0 7e be 8e bd af bc 8e 3d c0 27 f4 bc d1 65 c0 3c
       -0.06969927 0.06969582 -0.02980411 0.02348605

fc3.bias f4 [128]
000000 65 9d d4 3d fb 80 d0 3d 6a 71 c8 bd 2b 57 97 3d
       0.10381583 0.10180851 -0.09787257 0.07389673
000010 19 e6 cd 3d 28 ab 9c 3d cb e2 85 bc a4 c9 a3 3d
       0.10053653 0.07649833 -0.016343495 0.07997444
000020 90 b1 13 3e 71 af 3c 3d 3f c5 8d bb 48 95 8a 3d
       0.14423203 0.04606575 -0.004326492 0.067667544
000030 33 86 a2 bd 87 0c 9d bd 05 43 a4 bd a8 d3 a9 3c
       -0.07935753 -0.07668405 -0.080205955 0.020730808
000040 6b 1b 21 3b c0 d5 eb 3d 24 c9 fa bd 54 3c 0e 3d
       0.0024582993 0.11515379 -0.12245396 0.034725502
000050 d4 5e 2e bd de 5b 62 bd 72 c4 f4 3c c0 f0 ee bc
       -0.042570904 -0.055263393 0.029878829 -0.029167533
000060 2c 80 0b 3e b2 20 5d bd 0b 81 8f 3b f9 08 23 bd
       0.13623112 -0.05398626 0.004379397 -0.03980348
000070 e8 c3 95 bd 21 c9 eb 3c 5f 65 21 bd 7f 84 26 bc
       -0.07312757 0.02878243 -0.039403316 -0.0101634255
000080 21 a4 bb 3d 2c 03 97 3d f2 c8 08 3d 81 6b 5d bd
       0.091621645 0.07373652 0.03339476 -0.0540576
000090 98 5e 5b 3c ce 69 03 bd 94 e3 b5 bd ca 5d 70 3d
       0.013389252 -0.032083325 -0.08881298 0.058683194
0000a0 76 5e be 3d 9e c4 c0 3d a4 cc 07 3d e3 02 a0 bd
       0.09295361 0.09412502 0.033154145 -0.078130506
0000b0 62 0b ee 3d a7 f5 eb 3c 83 c6 98 3d f1 d7 c5 3c
       0.11623265 0.02880366 0.07459738 0.02415082
0000c0 42 92 d0 bd 36 cb eb 3d 08 8b 0a 3e 6c 47 81 bc
       -0.101841465 0.11513369 0.13529599 -0.015781127
0000d0 e8 1c 51 bd bf fa ae bd 00 05 71 bb ad f2 04 3e
       -0.051052958 -0.0854392 -0.0036776662 0.12983198
0000e0 07 8a 85 bc e1 d8 68 bd b6 43 4d 3c 13 89 a6 bd
       -0.016301168 -0.056847457 0.012528351 -0.081316136
0000f0 0c 39 03 3d 31 ca b9 3d 28 a6 16 3c 8a aa 08 bd
       0.032036826 0.09071768 0.009194888 -0.033365764
000100 af c2 ae 3c 28 fc 8f 3d 02 a6 81 3d 3a a4 9c 3d
       0.021333067 0.07030517 0.063304916 0.07648511
000110 84 62 01 3d 9c f3 8f ba 7e cc cf 3d 99 89 fd 3b
       0.031588092 -0.0010982635 0.10146426 0.00773735
000120 d3 4b 81 bd 41 19 d7 3c d0 d4 c3 bd 7c 19 e2 3d
       -0.063132904 0.02625716 -0.09562075 0.11040017
000130 30 2d f5 3c 3d a5 2a 3b 5d 57 9f bd c7 3a 35 bd
       0.029928774 0.002603843 -0.07780335 -0.044245508
000140 a5 fe a6 3d 7d a4 68 3c 48 48 b8 bd 28 6a c2 3d
       0.08154038 0.014199373 -0.089981616 0.09492904
000150 df de bc bd 9a cf 86 3b 90 45 4c 3a 16 34 18 3c
       -0.09222197 0.0041141035 0.0007792348 0.009289762
000160 bc 0d cb bb 63 03 c2 bd 4b d6 b7 bc e9 18 4e bd
       -0.0061967056 -0.09473302 -0.02244105 -0.050316725
000170 96 93 3b bd 7d d6 dc 3a 78 4c 56 bc 34 2c 86 3d
       -0.045795046 0.001684859 -0.013079755 0.065514
000180 96 03 42 bc fe 44 19 3c 2c 5b 3b bd c7 58 dd 3d
       -0.011841675 0.009354828 -0.045741245 0.108079486
000190 c1 78 ae bd 96 40 d4 3d 06 d7 a1 3d 58 16 c4 bc
       -0.08519126 0.10363881 0.079023406 -0.023936436
0001a0 80 c5 d7 3c 53 06 f0 bc 84 e8 b3 3d 1b f4 15 3e
       0.026339293 -0.02929989 0.08784583 0.146439
0001b0 b8 bc f4 3d 52 16 39 3d 0c eb 7a bc d0 f4 23 3c
       0.11950058 0.045187302 -0.015314829 0.010007098
0001c0 81 99 dc bd e4 01 2f bd 3d e1 23 bd cf 19 03 bc
       -0.10771466 -0.042726412 -0.040009726 -0.008001759
0001d0 55 8d d9 bb 31 d2 40 bd 46 db ea 3d 52 07 c4 3d
       -0.0066391625 -0.047075454 0.11467604 0.09571709
0001e0 1c f6 9d bd b2 a2 8c 3d 78 72 2b bd dd f0 b9 bd
       -0.07712957 0.06866969 -0.041857213 -0.09079144
0001f0 0b 3e 2a 3d 98 2d 93 3c 8a 38 cd bc 96 95 b7 3d
       0.041563075 0.017966077 -0.025051374 0.08964078

fc4.weight f4 [2, 128]
000000 c6 00 06 be b6 2e 1f 3e 65 1f 09 3c 68 6d da 3d
       -0.13086233 0.15545163 0.008369301 0.10665399
000010 8b 3f f7 bd d6 1b e8 bd 88 cd 53 3d 87 d0 4a bd
       -0.12072667 -0.11333434 0.05170968 -0.049515273
000020 f4 14 24 be 5f 82 32 be ee 5b 47 3e 00 0f 44 be
       -0.16023618 -0.17432545 0.19468662 -0.19146347
000030 73 f2 12 bc 40 e6 73 3d f6 5b 43 bc fb 3f 0e be
       -0.008968937 0.059545755 -0.011923781 -0.13891594
000040 7d 50 ff 3d 39 82 a2 bd d4 95 09 bd bd 77 80 3c
       0.12466524 -0.07934994 -0.033590153 0.015682096
000050 38 dc cc bd 31 92 c2 bd 67 b2 db bd 21 1d 06 3e
       -0.10002941 -0.0950054 -0.10727387 0.1309705
000060 57 60 44 be a5 00 f3 bb 09 9a 50 be 05 13 0a 3e
       -0.19177376 -0.0074158483 -0.2037126 0.13483818
000070 e2 f0 af bd db ca 16 be b7 c7 c3 3d 44 f5 26 3e
       -0.085908666 -0.1472582 0.09559577 0.16304499
000080 10 49 a5 bd 57 4b 1e bc 80 87 63 bd 9e d9 af 3c
       -0.08070576 -0.009661517 -0.055549145 0.021466073
000090 7e 57 59 3e 09 ae ea 3d e2 e9 47 bd e4 71 ab be
       0.21224782 0.11458976 -0.048807032 -0.3348533
0000a0 48 40 1f be 31 7a af be 46 3c 51 bd 5a 00 6e 3b
       -0.15551865 -0.34272912 -0.05108287 0.0036316128
0000b0 67 fe d6 3d d0 1f a0 bd ba fa e3 bd 12 4a f1 bd
       0.10497742 -0.07818568 -0.11131807 -0.11781706
0000c0 81 bc 4f be 25 80 ff 3d 83 82 15 bd 95 97 cf bb
       -0.20286752 0.124756135 -0.03650142 -0.0063352087
0000d0 d2 f2 19 3e 09 d9 81 3d 2b bc 01 3b 68 7e 6c bd
       0.15034035 0.06340224 0.0019795995 -0.057737738
0000e0 c8 b6 54 be fc bd 0a be 82 81 12 3d 4a ca 7a bd
       -0.2077285 -0.13549036 0.03576804 -0.061228074
0000f0 56 34 c7 3d f0 1b 08 bd d2 e8 93 bd 81 d1 4e bb
       0.09726779 -0.03322977 -0.07222141 -0.003155798
000100 4b 87 0f 3e c0 b4 0d be 9f fe 06 be 3a 7f 03 be
       0.14016454 -0.13838482 -0.13183068 -0.12841502
000110 a6 c9 3a be ca 6b 0f 3e 57 c3 2c be a3 67 50 be
       -0.18240985 0.14005962 -0.16871391 -0.20352034
000120 34 11 8a 3d e9 61 e2 3d dd 1d 9e bd fc ea 17 be
       0.067415625 0.11053831 -0.0772054 -0.14835733
000130 6b 2e b4 bd 56 72 42 be ca 6b 44 3c 61 b5 2a be
       -0.08797916 -0.18988928 0.01198859 -0.16670753
000140 1b ec 7d be 79 39 14 3e 1d aa 39 39 28 68 b3 bd
       -0.24797098 0.14475049 0.00017706347 -0.087601006
000150 54 44 66 bd e1 2e 26 3e 8a a8 46 be 2b 54 c9 bc
       -0.056217507 0.1622882 -0.1940023 -0.024576267
000160 3c a4 c4 3d 88 75 86 3d 3d 13 df bd 2f 5a 95 3d
       0.09601638 0.06565386 -0.10892341 0.07292592
000170 4b 54 27 be 50 32 f7 3d 58 7f c7 3c 8f b2 0b be
       -0.16340749 0.12070143 0.024352714 -0.13642333
000180 8d f0 58 bd ad 6f 1c be 6f 8f d3 3c 86 15 34 be
       -0.052963782 -0.15276976 0.02582523 -0.17586336
000190 81 e0 82 3d 5f 86 e4 bd 12 ec e2 bd 4c 4d 50 be
       0.06390477 -0.11158442 -0.11080183 -0.20341986
0001a0 2d 52 56 3e cf c7 ec 3d 4c f9 a7 be e9 b6 8d be
       0.20929785 0.11561548 -0.32807386 -0.27678612
0001b0 55 f6 ac bd 9e 0d 12 bd 6f ba 27 bd 0a d4 52 be
       -0.084454216 -0.035657518 -0.04094928 -0.20588699
0001c0 be 22 e3 3d e5 6e 66 be d6 37 ab bc d3 1e 3a bd
       0.11090611 -0.2250324 -0.020900648 -0.045439553
0001d0 dc ca 1a 3e d3 7f 81 bd 82 f5 b0 bd cd c0 b1 3d
       0.15116447 -0.06323209 -0.08640577 0.08679352
0001e0 92 4c e9 bd 2a 61 e1 bb 03 a6 5b bb eb 6a 91 3d
       -0.11391558 -0.006878038 -0.0033515699 0.07100471
0001f0 d0 fe 1b be df d8 f0 3d 19 68 19 be 7b ed 31 be
       -0.15233922 0.11760115 -0.14981116 -0.17375748
000200 79 a8 e6 bd a7 c5 aa 3b 57 ea ac 3b b3 7c 66 3c
       -0.11262602 0.0052115503 0.005276959 0.014067817
000210 56 8f 8c bd f1 02 c0 bd 73 c1 85 bd 43 13 dc bd
       -0.06863277 -0.09375561 -0.06531038 -0.107458614
000220 7e 1b 65 be 1f ce 46 be 23 60 00 3e 84 2c f0 bd
       -0.22373769 -0.19414566 0.12536673 -0.11727241
000230 1d b7 e5 3d c5 f1 e2 3c 6e e0 dc 3e 69 80 29 be
       0.11216567 0.027703175 0.43139976 -0.16552891
000240 58 96 35 bd 64 bd 3e be 13 39 a0 3d 99 92 09 be
       -0.044332832 -0.18626934 0.07823386 -0.13434829
000250 41 56 f8 3d 53 73 5f bd 6e d5 e2 bd b4 fe 52 bc
       0.121258266 -0.05455334 -0.11075865 -0.012878109
000260 41 6d e2 bd 72 9e 92 bc 83 9f f6 bd e2 35 61 3d
       -0.11055995 -0.017897818 -0.12042143 0.054983027
000270 01 13 90 3d 67 2b 2e 3d 45 98 5d bd b5 10 e2 3d
       0.07034875 0.04252186 -0.054100294 0.11038343
000280 8f ff 2c be 95 fb 07 be 22 4c 06 3f a4 25 0f 3b
       -0.16894363 -0.13279565 0.5245992 0.0021842504
000290 cf b5 ec 3e f9 93 74 3d 7c 91 1c 3d 83 8e e6 bd
       0.4623246 0.05971143 0.038224682 -0.11257651
0002a0 9c e3 8a bd dd 97 23 bd 07 32 2a 3d 9e 1b d1 bb
       -0.06781694 -0.03993975 0.041551616 -0.006381466
0002b0 83 89 b7 bd 7a c4 db bd 25 1c 0d 3e 1b 53 24 bd
       -0.08961775 -0.10730834 0.13780268 -0.040118318
0002c0 3e aa 15 3e ca b2 54 3e c8 89 2a be 2f e9 05 be
       0.14615723 0.20771328 -0.16654122 -0.13077234
0002d0 28 ad 00 3e fb 51 f4 3b 6e 18 8b bd 03 f8 78 be
       0.12566054 0.007456062 -0.06791769 -0.24313359
0002e0 3a 19 9a bd d8 53 92 3d cb 1c bb bd cd 82 97 3d
       -0.07524343 0.07144898 -0.09136351 0.07397995
0002f0 97 5c 80 3d 3e 93 8c be 4b eb a5 bd 66 9b 11 3c
       0.0626766 -0.27456087 -0.08101519 0.0088871475
000300 e3 7f 2a 3e 73 e4 b0 bd 73 01 2a be 67 ab 89 bd
       0.16650347 -0.08637323 -0.16602115 -0.067221455
000310 f6 b5 c3 bd 8e 94 41 3e 91 a2 59 3e 33 f5 34 3e
       -0.09556191 0.18904325 0.2125342 0.17671661
000320 b3 a3 b4 3c cd a4 44 3e 0b dd 80 bd e5 af 29 be
       0.022050714 0.19203492 -0.062921606 -0.16571005
000330 20 ea b1 3e 08 5b c6 bd 4b 63 61 3d 4d 12 15 be
       0.34748936 -0.096853316 0.055026334 -0.14557762
000340 37 34 f9 bb f6 eb d4 3d 1a 9e 4c 3d c5 1f 45 be
       -0.0076051014 0.103965685 0.049955465 -0.192504
000350 f5 0d 44 3e 23 1d 66 3d 86 4b fe bc 4f 62 11 bd
       0.19145949 0.05618013 -0.031041872 -0.035494145
000360 b7 a5 26 3e fd be 31 3c 67 13 0f 3e f4 4c 26 bd
       0.16274153 0.010848758 0.13972245 -0.040600732
000370 1d 66 e6 bd 70 cb 83 3d ea ed 84 3e 66 88 87 bc
       -0.11249945 0.06435287 0.25962764 -0.016544532
000380 c9 bd ab 3d 5c cc f4 bd 21 9c fe bc 63 03 04 be
       0.08385808 -0.11953041 -0.031080307 -0.12891917
000390 f2 e2 94 bc 20 b9 1b bd bf 8a 8f 3e f9 0f 92 3e
       -0.018174622 -0.038018346 0.28035542 0.2852781
0003a0 48 94 e3 be 9d 21 7d 3e e6 7d e5 3b c3 01 12 bd
       -0.44449067 0.24719854 0.0070035337 -0.03564621
0003b0 84 f0 17 3f d6 1c 46 be 9d da 0a bd f4 26 88 bd
       0.5935137 -0.19346938 -0.033899892 -0.06648055
0003c0 97 3a 43 3e 7f 27 47 3e f8 d5 37 bd f9 2f 75 ba
       0.19065319 0.1944866 -0.04488179 -0.0009353157
0003d0 05 24 7a 3d 02 a7 29 3d 9b 17 a4 bd e3 d5 40 bc
       0.061069507 0.041419037 -0.08012315 -0.011769745
0003e0 2c de a5 3e 12 52 6c be 32 35 9c 3c 74 35 50 3d
       0.32396066 -0.23078182 0.019068334 0.050832227
0003f0 f8 eb a3 bd 6f 19 35 3e 43 c7 5c bd f9 12 97 bd
       -0.08003992 0.17685483 -0.05390097 -0.073766656

fc4.bias f4 [2]
000000 ef 1a 72 bd df 5d ac 3c
       -0.059107717 0.021040855

fc1.weight f4 [128, 7]
000000 86 8d 80 3e 14 56 f5 be b0 47 3b 3e 95 3a 2d 3e
       0.25107974 -0.47917235 0.18289065 0.16916879
000010 2a 82 86 be 3f dc 24 3e 02 09 56 3e 0f 6f 6f 3d
       -0.26271182 0.16099642 0.20901874 0.058455523
000020 33 cb a4 3e 7b 85 7d 3c f7 11 7a 3e d1 c8 90 3d
       0.3218628 0.015473719 0.24420916 0.07069553
000030 fe 61 7b 3d e7 5e 23 3e f8 8b b6 be 8a de dd 3d
       0.06137275 0.15954171 -0.35653663 0.108334616
000040 f5 60 1f be 14 69 b6 be ee 36 95 be 0e 18 0e bd
       -0.1556433 -0.35627043 -0.2914347 -0.03469091
000050 59 36 e8 3c 29 96 7e be 1b 79 45 3e a5 d8 52 3d
       0.028346227 -0.24861969 0.1928448 0.05147614
000060 f9 4c b8 3d 0e 80 e7 3c 0e 81 a7 3d 25 a5 d4 3e
       0.08999056 0.028259303 0.08178912 0.41532245
000070 20 69 04 bd 47 28 b3 3e 52 cd 01 bf 87 52 86 bd
       -0.032326818 0.34991667 -0.5070392 -0.065587096
000080 fd 81 c3 be 97 cb 4d 3e ed bd cc 3e 42 c5 a2 3c
       -0.3818511 0.20097195 0.39988652 0.01986945
000090 48 7a 0f 3e 5d db 79 3e 86 ff 91 be f3 67 9e 3d
       0.1401149 0.24400087 -0.2851526 0.077346705
0000a0 13 53 ad be 1e 7d cb bd 45 10 f0 3d 5f 59 85 be
       -0.33852443 -0.099359736 0.11721853 -0.26044747
0000b0 cb 85 e7 3d 9a 0f 7a be 3b 7b 1a be e8 1e c2 be
       0.11304816 -0.24420014 -0.15086071 -0.37914205
0000c0 08 6d 78 be 20 1b 44 bc 1a 07 f0 3d 70 9c a5 be
       -0.24260342 -0.011969358 0.117201045 -0.32345915
0000d0 b2 ae a6 be f2 62 ca 3d ec 04 3d 3e 66 41 ba 3e
       -0.32555157 0.098821536 0.18458909 0.3637802
0000e0 1b 3b 16 be 3f 55 27 3e 33 67 c9 3e d8 9e da 3d
       -0.14670984 0.16341113 0.39336547 0.10674828
0000f0 2d a7 9a be d1 e6 cb 3e f3 86 02 3e 9a 79 30 be
       -0.3020567 0.39824536 0.12746792 -0.17233887
000100 0a 05 99 be 48 3f 91 3e 8f 4a b1 bd 60 63 69 be
       -0.29886657 0.28368592 -0.08656799 -0.22791815
000110 33 bb 49 be 6b 18 fa 3d e3 14 17 3e fd 9a b9 3e
       -0.19700317 0.122116886 0.14754061 0.3625106
000120 53 9c fe bc 91 46 b8 3e ca 27 db 3e 5b 26 83 bd
       -0.0310804 0.35991338 0.42803794 -0.064038
000130 1a 3c f7 be e4 84 22 3e 9f a8 76 be c7 25 26 3d
       -0.4828804 0.15871006 -0.24087761 0.04056337
000140 b0 b0 4e be a2 8b 20 bf 03 4c f3 3e f6 76 44 be
       -0.20184588 -0.6271306 0.4751893 -0.19186005
000150 9c b8 21 3e cf 95 bc be bc ec b5 3e 17 d3 36 be
       0.15793079 -0.36833045 0.35532176 -0.17853962
000160 11 3f b5 3e 26 1a 8d be 09 c7 42 bd 05 eb a2 3e
       0.35399678 -0.27559012 -0.047553096 0.3181993
000170 2c e1 ac 3e 49 e1 7a be 2c 56 95 be b0 e9 a5 3e
       0.33765543 -0.24500002 -0.29167306 0.32404852
000180 05 be 1a 3e fa 31 70 be 2a ef 4f 3e 41 e6 8b be
       0.15111549 -0.23456565 0.20306078 -0.27324107
000190 7c 05 27 be 19 d6 1a be 2b 3b b9 bb 7b 45 bf 3e
       -0.16310686 -0.15120734 -0.0056528053 0.37357697
0001a0 d2 82 24 be 6f 96 07 3e 52 d3 7c be f0 a5 82 3e
       -0.16065529 0.1324098 -0.24689987 0.25517225
0001b0 f7 ca 63 3e bb 83 e2 bd 3a f8 da 3e 8f e8 93 bd
       0.22245394 -0.11060282 0.42767507 -0.072220914
0001c0 77 08 da 3c ed e3 4c 3e dc ab dd bd de 7d de be
       0.026615364 0.20008822 -0.10823795 -0.43455404
0001d0 69 03 af 3b 13 f6 88 be 60 71 63 3e d8 e4 02 3f
       0.0053409827 -0.2675024 0.22211218 0.5113044
0001e0 e1 44 8c 3e fc 83 9f 3e 4c 45 45 be 51 d7 b8 be
       0.273963 0.31155384 -0.19264716 -0.36101773
0001f0 8a bb 06 3e dc c4 37 be 79 81 f8 3d 72 bc 8d bd
       0.13157478 -0.1794619 0.1213407 -0.06920709
000200 b6 5e 4e bf 9a 1d b7 3d 00 ec 1e bb 44 67 bf be
       -0.8061327 0.08941193 -0.0024249554 -0.37383473
000210 60 84 05 3e 61 f5 02 3c 0c a4 8c be 04 e1 75 be
       0.13038778 0.007993073 -0.27468908 -0.24011618
000220 1a 79 2b 3e fa 9e 9c be 7d 0a 20 be 59 0e 31 be
       0.16745415 -0.3059004 -0.15629001 -0.1729063
000230 aa 2d 43 be 0c dc 3a be d0 d3 3e 3e 1e e2 d1 bd
       -0.19060388 -0.18248004 0.18635488 -0.102482066
000240 16 16 8c be b0 d5 76 3e ac 11 a7 be cb 7e 38 be
       -0.273606 0.24104953 -0.3263067 -0.18017118
000250 6f b2 aa bd b3 9c 9d be bf f7 e9 bc 55 04 8e be
       -0.08334815 -0.30783615 -0.028560517 -0.2773768
000260 17 b7 de 3d 4e 8c 06 be 94 43 4e 3e 76 2f b3 3e
       0.10874765 -0.1313946 0.20142967 0.34997147
000270 73 d7 80 be cb a2 1a be dd ee 34 be 68 19 e1 bd
       -0.25164375 -0.15101163 -0.17669244 -0.10991174
000280 ac 9e a4 3e 05 ec f5 be 3b d1 1c be c3 29 b8 bd
       0.32152307 -0.4803163 -0.1531419 -0.089923404
000290 99 0e 52 3e 0a 18 a9 3e 8c 1b 90 3e 03 c7 ef be
       0.20513381 0.33026153 0.28146017 -0.4683152
0002a0 f8 03 11 3e 35 15 b6 be 31 c7 c1 be e4 d7 0d 3e
       0.1416167 -0.35563055 -0.37847283 0.13851887
0002b0 44 c6 f5 3d a3 3d 07 3d cd 3e a7 3d cf d4 3e 3c
       0.12000707 0.033017766 0.08166275 0.011647417
0002c0 b2 2f bb 3c 09 e9 77 bf a0 c9 81 be e4 b1 a1 bc
       0.022849891 -0.9683996 -0.2534914 -0.019738145
0002d0 8b f6 cb be 1d 8a 1b 3e d9 96 8b 3d 9b 9b e2 3d
       -0.39836535 0.15189405 0.06815881 0.11064836
0002e0 fe 27 89 be 7a 7a 08 3e 0e af 83 3e a1 53 81 3e
       -0.26788324 0.13327971 0.25719494 0.25259116
0002f0 1f cf 85 be 8f bf fd bc de f6 50 be c2 48 cd 3e
       -0.26134583 -0.030975131 -0.20406672 0.40094572
000300 8a 3e a0 be 8f 70 a4 be de c6 91 3b 3a ac 0e be
       -0.31297714 -0.32117125 0.0044487556 -0.13932887
000310 b8 dd 80 3e ed 16 0f 3e b6 1b 03 be 3c 67 8b bd
       0.25169158 0.13973589 -0.1280354 -0.068068
000320 0b a2 68 be d3 2a d9 3d 5c 9f f0 3d fa 8f a5 be
       -0.22718064 0.10603871 0.117491454 -0.32336408
000330 88 04 43 be fb 30 96 3e 0c 51 ee bd 5c ab e8 3e
       -0.19044697 0.29334244 -0.11636552 0.45443237
000340 bd cc 27 be 09 0b 4f be 73 af b8 be a3 49 ae 3e
       -0.16386695 -0.20219053 -0.36071357 0.34040555
000350 5d 1c c1 be 06 a1 18 bd 9e 71 73 3d ff 07 d5 3d
       -0.37716952 -0.03726294 0.059434526 0.10401916
000360 63 7f 54 be 57 df b1 bd 54 26 31 be df d8 52 bd
       -0.20751719 -0.08685177 -0.17299777 -0.051476356
000370 49 6c 18 be 77 61 ba be 65 96 3a 3e 0e 2e 52 be
       -0.14885058 -0.36402485 0.18221433 -0.20525381
000380 43 3e 3a be de de a1 3e 32 da 31 bf 48 33 8b 3e
       -0.18187813 0.31615347 -0.69473565 0.27187562
000390 fe c8 8e 3e 2a 2c 19 3e fe 48 08 3e 1f 44 5a 3e
       0.2788772 0.14958254 0.13309094 0.21315049
0003a0 c6 cc 74 bc 6f 59 f5 be ff 4a 52 bd bd 64 b0 3e
       -0.0149414 -0.47919795 -0.051341053 0.34451857
0003b0 d4 83 a3 bb b0 43 b6 3e fc 77 3c bd bf a9 ed bc
       -0.0049900804 0.35598516 -0.046012864 -0.029011605
0003c0 7b 06 4e be b7 4f ed bd cf 1b 9c be e0 f9 13 be
       -0.2011966 -0.1158747 -0.30489966 -0.14450788
0003d0 61 ae f6 3e ec f0 50 3e 4c 38 e0 3e dc 9f 5d bd
       0.48179916 0.20404404 0.4379295 -0.054107532
0003e0 0f 35 8c 3e 21 aa 69 3e 6a 2d 97 3e fb 42 8c 3e
       0.2738423 0.22818805 0.29526836 0.27394852
0003f0 c7 c7 a6 be 6f ad a4 3e 72 cc b5 3e 3b 33 97 3e
       -0.32574293 0.3216357 0.35507542 0.29531273

fc1.bias f4 [128]
000000 e2 31 9e be e8 bb 07 3d 4c 9e 81 3e 19 ae ae bc
       -0.30897433 0.033138186 0.25316083 -0.02132325
000010 08 1c aa 3e 33 07 ae be 8b 9b 63 3e f2 ad 2e 3e
       0.3322451 -0.33989868 0.22227304 0.17058542
000020 ef 41 01 bd 5b e1 7f bd e7 9e 31 3e 3a b4 09 3e
       -0.03155702 -0.062470775 0.17345773 0.13447657
000030 50 c3 c4 be c4 aa 41 bd b6 5d 74 be 8a 76 7e be
       -0.38430262 -0.047281995 -0.23863873 -0.24849907
000040 10 1f 1f be a1 fe 81 be 93 c4 8b 3e d4 c7 44 3e
       -0.15539193 -0.2538958 0.27298412 0.19216853
000050 2c 60 5e be 27 3f 9a bd ae c4 76 3e cc 1b 35 3d
       -0.21716374 -0.075315766 0.24098465 0.044215962
000060 20 3c be bd ab c6 75 3e a8 da 95 3e 1e 99 b3 3e
       -0.09288812 0.24001567 0.29268384 0.35077757
000070 c1 14 2a 3d ec 22 7c 3e f7 4f 61 be 0e 75 b1 be
       0.0415237 0.24622697 -0.2200316 -0.34659618
000080 4c 02 ae bc 93 69 c2 3d 2f 4b 41 3c 59 e1 94 3e
       -0.02124133 0.09492793 0.01179771 0.29078177
000090 6c 7b 78 3e 2b 1e 27 3e 9a 2b 46 3d d7 e0 01 bb
       0.24265832 0.16320102 0.048381425 -0.0019817853
0000a0 55 46 ae 3e 0e 9b 85 3e fa 26 40 3b 72 de ce 3e
       0.34038034 0.2609486 0.0029320107 0.40404087
0000b0 3f 22 02 be 52 db 3b 3e b3 a6 4e 3e 7a bd 81 3d
       -0.12708376 0.18345383 0.20180778 0.06334968
0000c0 62 3d a9 be 57 4d 88 3e 6e 08 c5 bc 7f 08 bd be
       -0.33054644 0.26621506 -0.024051871 -0.36920545
0000d0 d2 cf 51 be 9a 5d d6 be 83 1b 9f bd 15 01 92 3d
       -0.20489433 -0.41868287 -0.07768919 0.07129113
0000e0 40 28 8d be f6 03 a7 be 90 c6 c0 be 85 a4 95 3e
       -0.2756977 -0.3262021 -0.3765149 0.2922708
0000f0 7c 29 f5 3d f3 2f 4a be 4f 84 b4 bd 37 51 a2 bd
       0.11970803 -0.19744854 -0.08814298 -0.07925647
000100 2a 92 c4 bd 80 16 2e 3e 84 6e 90 bd b7 b1 04 be
       -0.09598191 0.1700077 -0.07052329 -0.12958418
000110 5c 20 1a be f3 78 7c bd 6c be 6d 3e e9 90 ae 3c
       -0.15051407 -0.061638784 0.23217171 0.021309333
000120 cd e2 2e be fc cf 03 bd 61 23 18 3e e5 52 a4 be
       -0.17078705 -0.03218077 0.14857246 -0.32094494
000130 ff 14 39 3e 9c 4d 1e 3d 82 7a 74 3d b7 be 1b be
       0.18074416 0.038648233 0.059687145 -0.1520947
000140 e2 c4 8e 3e 9e 4e ef bd 85 47 8f 3e 66 a7 9e be
       0.27884585 -0.11684917 0.27984253 -0.3098709
000150 5a 9a a6 bd 2f d2 8c 3e f2 45 2f be 9e 2d 16 be
       -0.08134909 0.27504107 -0.17116526 -0.14665839
000160 d2 fb b4 3e 69 c3 c4 3d 77 9f ad bd e4 8a 76 be
       0.35348374 0.09607584 -0.08477681 -0.2407642
000170 3a b6 98 3e a4 36 c1 3e dd 18 6e bd 64 c8 42 3e
       0.29826528 0.37737 -0.05812918 0.19021755
000180 14 8f ba be 32 46 a5 3e 70 fd f4 3d e5 f8 66 bd
       -0.36437285 0.32280117 0.11962402 -0.056389708
000190 b0 e1 08 3e c7 86 a3 3e be 42 7a 3e 64 c5 55 bd
       0.13367343 0.31938764 0.24439523 -0.0521902
0001a0 08 8d ed 3d cd 3f 20 be 99 ad 10 be b0 00 8f 3e
       0.11599165 -0.15649338 -0.14128722 0.27930212
0001b0 2e 00 86 3e 8b c4 8e be f3 cf 24 be 06 e7 97 3e
       0.26172012 -0.27884325 -0.16094951 0.29668444
0001c0 46 f7 90 3e 99 ab 2d 3e 74 18 a7 3e 8b 3c 9d be
       0.28313655 0.1695999 0.32635844 -0.30710253
0001d0 51 a6 ca bc 8f 36 53 bd 08 8f 86 3e e2 cf ae bd
       -0.024737509 -0.051565703 0.26281 -0.08535744
0001e0 8e 89 9e 3d 8b 95 fd 3a ab dc 28 be 42 30 f9 3d
       0.0774108 0.0019346935 -0.16490428 0.121674076
0001f0 42 35 29 be eb f4 18 be c4 de 91 3e 19 a4 94 be
       -0.16524222 -0.14937179 0.2849027 -0.29031447
