flappybird_dqn_ep110.pth (torch, 561729 bytes, 32 tensors)

fc1.weight f4 [128, 7]
0	0x3e9f458c	0.31107748
1	0xbecbb8da	-0.39789468
2	0x3e325131	0.17413785
3	0x3e77ebe4	0.24211079
4	0xbe51d9e7	-0.2049328
5	0x3e3da3b2	0.18519476
6	0x3e7183c1	0.23585416
7	0x3dc40eea	0.09573157
8	0x3e99e424	0.3005687
9	0xbd2abc1d	-0.041683305
10	0x3e896bde	0.2684011
11	0x3da80f9a	0.08206101
12	0x3dd0faa6	0.102040574
13	0x3e1f6ecd	0.15569611
14	0xbeb68bf8	-0.35653663
15	0x3dddde8a	0.108334616
16	0xbe1f60f5	-0.1556433
17	0xbeb66914	-0.35627043
18	0xbe9536ee	-0.2914347
19	0xbd0e180e	-0.03469091
20	0x3ce83659	0.028346227
21	0xbe907083	-0.2821084
22	0x3e867fd2	0.26269394
23	0x3d3cbc29	0.04607788
24	0x3cbc8f1a	0.023017455
25	0xbe07e70f	-0.13271736
26	0x3c972965	0.018452356
27	0x3ec6a1f7	0.38795444
28	0xbcf80328	-0.030274943
29	0x3ead72c1	0.33876613
30	0xbef3a0cd	-0.4758362
31	0xbccec9e3	-0.025242751
32	0xbeb2e155	-0.3493754
33	0x3e3c6c47	0.1840068
34	0x3eb807c4	0.35943425
35	0x3ca2c542	0.01986945
36	0x3e0f7a48	0.1401149
37	0x3e79db5d	0.24400087
38	0xbe91ff86	-0.2851526
39	0x3d9e67f3	0.077346705
40	0xbead5313	-0.33852443
41	0xbdcb7d1e	-0.099359736
42	0x3e06786a	0.13131872
43	0xbe85595f	-0.26044747
44	0x3e02313d	0.12714095
45	0xbe6ba01e	-0.23010299
46	0xbe0c1bbb	-0.13682453
47	0xbebae7c3	-0.36504945
48	0xbe69789c	-0.22799915
49	0x3ca5c698	0.020236298
50	0x3e18be03	0.14916234
51	0xbeab6121	-0.3347254
52	0xbea965e6	-0.33085555
53	0x3e06536a	0.13117757
54	0x3e4a3920	0.19748354
55	0x3eb7205f	0.35766885
56	0xbe07ef93	-0.13274984
57	0x3e1ddc92	0.15416172
58	0x3ed94f92	0.4244352
59	0x3e11a080	0.14221382
60	0xbe9106b3	-0.28325424
61	0x3ed1b613	0.40959224
62	0x3e20b95e	0.15695712
63	0xbe30799a	-0.17233887
64	0xbe99050a	-0.29886657
65	0x3e913f48	0.28368592
66	0xbdb14a8f	-0.08656799
67	0xbe696360	-0.22791815
68	0xbe49bb33	-0.19700317
69	0x3dfa186b	0.122116886
70	0x3e2e9635	0.17049487
71	0x3eca08b1	0.39459756
72	0xbd5fc6d7	-0.054632988
73	0x3eb73ba0	0.35787678
74	0x3ec39736	0.38201302
75	0xbd46237e	-0.04837369
76	0xbed77555	-0.42081705
77	0x3dd1f07d	0.102509476
78	0xbda20bab	-0.07912382
79	0x3d167d0f	0.03674036
80	0xbe5f8cdc	-0.21831077
81	0xbf36677a	-0.7125164
82	0x3ed50ebd	0.41612807
83	0xbe8ca0ee	-0.2746653
84	0x3e21b89c	0.15793079
85	0xbebc95cf	-0.36833045
86	0x3eb5ecbc	0.35532176
87	0xbe36d317	-0.17853962
88	0x3eb53f11	0.35399678
89	0xbe8d1a26	-0.27559012
90	0xbd42c709	-0.047553096
91	0x3ea4096a	0.32038432
92	0x3ea179ae	0.31538147
93	0xbe514836	-0.20437703
94	0xbe878f7d	-0.2647666
95	0x3e9a2031	0.30102685
96	0x3e3936cd	0.18087311
97	0xbe237f53	-0.15966539
98	0x3e373ef4	0.17895108
99	0xbea4e97b	-0.3220938
100	0xbdf886f5	-0.12135116
101	0xbe109103	-0.14117818
102	0x3cfb7d4e	0.030699398
103	0x3ec3be4d	0.38231125
104	0xbde7fb00	-0.11327171
105	0x3e0b1fb7	0.13586317
106	0xbe13f004	-0.14447027
107	0x3e8c3e03	0.2739106
108	0x3e51cc5b	0.20488112
109	0xbdd7913b	-0.105257474
110	0x3ec67f60	0.38769054
111	0xbe41963f	-0.1890497
112	0x3d50be62	0.050962813
113	0x3e6230f2	0.22088984
114	0xbdb4811f	-0.088136904
115	0xbed161e0	-0.40894985
116	0x3d01e5c9	0.03171328
117	0xbe77e792	-0.24209431
118	0x3e7ecad6	0.24882063
119	0x3ef2cb75	0.4742085
120	0x3e41dd54	0.18932086
121	0x3e99342d	0.2992262
122	0xbe56347e	-0.20918462
123	0xbeb9bcdd	-0.36276904
124	0x3debfdfe	0.115230545
125	0xbe540687	-0.20705615
126	0x3dced5cb	0.100993715
127	0xbde0b515	-0.10972039
128	0xbf264b71	-0.64958864
129	0x3dc3de67	0.09563904
130	0xbbc6900c	-0.006059652
131	0xbec0cb93	-0.37655315
132	0x3dd88c30	0.10573614
133	0x3b921006	0.0044574765
134	0xbe8120fc	-0.25220478
135	0xbe0bede7	-0.13664971
136	0x3e00c070	0.12573409
137	0xbe98bb55	-0.29830423
138	0xbe3e752e	-0.18599388
139	0xbe2fd30b	-0.1717035
140	0xbe432daa	-0.19060388
141	0xbe3adc0c	-0.18248004
142	0x3e3ed3d0	0.18635488
143	0xbdd1e21e	-0.102482066
144	0xbe8c1616	-0.273606
145	0x3e76d5b0	0.24104953
146	0xbea711ac	-0.3263067
147	0xbe387ecb	-0.18017118
148	0xbdaab26f	-0.08334815
149	0xbe9d9cb3	-0.30783615
150	0xbce9f7bf	-0.028560517
151	0xbe8e0455	-0.2773768
152	0x3ddeb717	0.10874765
153	0xbe068c4e	-0.1313946
154	0x3e3458ac	0.1761195
155	0x3eaffa42	0.3437062
156	0xbe3eb6f3	-0.18624477
157	0xbe1781bf	-0.14795588
158	0xbe281059	-0.16412486
159	0xbe08ea03	-0.13370518
160	0x3e8301ee	0.2558741
161	0xbee87a72	-0.45405918
162	0xbe1e5674	-0.15462667
163	0xbe01dd61	-0.12682106
164	0x3e3046a6	0.1721445
165	0x3eac9685	0.33708587
166	0x3e948a19	0.2901161
167	0xbed6750d	-0.41886178
168	0x3df5d57c	0.120036095
169	0xbebcaf7d	-0.36852637
170	0xbe892985	-0.2678949
171	0x3dbe31a7	0.09286814
172	0x3e011773	0.12606601
173	0x3b7d8254	0.0038682418
174	0x3d588123	0.05285753
175	0x3d8018aa	0.06254704
176	0x3d277eda	0.04089246
177	0xbeeb15b3	-0.45914993
178	0xbe67d630	-0.226403
179	0xbcc4b12e	-0.024010267
180	0xbebef7e0	-0.3729849
181	0x3e2b7570	0.16744018
182	0x3df52f1e	0.119718775
183	0x3df08e2d	0.11745868
184	0xbe74fa90	-0.23923707
185	0x3e1b6246	0.15174207
186	0x3e8d7121	0.27625373
187	0x3e9538bb	0.29144844
188	0xbe07febe	-0.1328077
189	0xbd8babda	-0.068198875
190	0xbe8c2ec9	-0.27379444
191	0x3ecc09b7	0.39851162
192	0xbe766b30	-0.24064326
193	0xbea27d2e	-0.3173613
194	0x3d04d6c1	0.032431368
195	0xbe537ccf	-0.2065308
196	0x3e802d4b	0.25034556
197	0x3e30b179	0.172552
198	0xbdaba5f7	-0.08381265
199	0xbca4351e	-0.02004486
200	0xbe5334e2	-0.20625642
201	0x3df36678	0.11884779
202	0x3e18064b	0.1484615
203	0xbe99cb58	-0.3003795
204	0xbe29d293	-0.16584234
205	0x3e8b0b5d	0.27157107
206	0xbe4a2ff5	-0.19744857
207	0x3ecb35c2	0.3968945
208	0xbe338ff9	-0.1753539
209	0xbe378de8	-0.17925227
210	0xbeb8af73	-0.36071357
211	0x3eae49a3	0.34040555
212	0xbec11c5d	-0.37716952
213	0xbd18a106	-0.03726294
214	0x3d73719e	0.059434526
215	0x3dd507ff	0.10401916
216	0xbe547f63	-0.20751719
217	0xbdb1df57	-0.08685177
218	0xbe312654	-0.17299777
219	0xbd52d8df	-0.051476356
220	0xbe186c49	-0.14885058
221	0xbeba6177	-0.36402485
222	0x3e3a9665	0.18221433
223	0xbe522e0e	-0.20525381
224	0xbe494f3d	-0.19659133
225	0x3e871a71	0.2638736
226	0xbf2442a8	-0.6416421
227	0x3e76d238	0.2410363
228	0x3e998913	0.29987392
229	0x3e198d07	0.14995204
230	0x3ddba2d2	0.10724415
231	0x3e62e10c	0.22156161
232	0xbcea6699	-0.028613375
233	0xbf02da69	-0.5111452
234	0xbdb3e078	-0.087830484
235	0x3eb3f453	0.35147342
236	0xbb92fe30	-0.004485868
237	0x3ea8dd2d	0.32981244
238	0xbd43259a	-0.04764328
239	0xbdcdb944	-0.10045102
240	0xbe19597c	-0.14975542
241	0xbddd20d7	-0.10797279
242	0xbe89aa7a	-0.26887876
243	0xbde79fcd	-0.113097765
244	0x3eec59a3	0.46162137
245	0x3e8b9a7e	0.27266306
246	0x3ee91666	0.455249
247	0xbd95b4a8	-0.07309848
248	0x3e84899e	0.25886244
249	0x3e758f03	0.23980336
250	0x3eab16a1	0.33415702
251	0x3e9c6811	0.30548146
252	0xbe8aa158	-0.2707622
253	0x3ea67b23	0.3251582
254	0x3ea30fb6	0.31847924
255	0x3e94de6d	0.29075947

fc1.bias f4 [128]
0	0xbe7b397d	-0.24533649
1	0x3d87ad0c	0.06624803
2	0x3dd33fad	0.103148796
3	0xbdc81b16	-0.09770791
4	0x3ea6740b	0.3251041
5	0xbeae0733	-0.33989868
6	0x3d207240	0.039171457
7	0x3e4de6b5	0.20107539
8	0xbc3121a4	-0.010811243
9	0xbd7fe15b	-0.062470775
10	0x3e3251eb	0.17414062
11	0x3da61d50	0.0811106
12	0xbec4c350	-0.38430262
13	0xbd63aa33	-0.055582236
14	0xbe7918cb	-0.24325864
15	0xbe7b7010	-0.24554467
16	0xbe04cb6b	-0.12968223
17	0xbe909b85	-0.28243652
18	0x3e763d3e	0.240468
19	0x3d88059b	0.06641694
20	0xbe5e602c	-0.21716374
21	0xbd9a3f27	-0.075315766
22	0x3e5a0282	0.21290019
23	0x3d5349f5	0.051584203
24	0xbdd2fe7c	-0.10302445
25	0x3e6ca540	0.23109913
26	0x3eaa3b50	0.33248377
27	0x3eb4ba0d	0.35298195
28	0x3d681acb	0.056666177
29	0x3e719348	0.2359134
30	0xbe614ff7	-0.2200316
31	0xbeb1750e	-0.34659618
32	0xbcb70a22	-0.022343699
33	0x3dc2db80	0.095145226
34	0x3c3ca2e4	0.0115134455
35	0x3eadad38	0.33921218
36	0x3e8f0689	0.27934673
37	0x3e5274b2	0.20552328
38	0x3d55f3b8	0.05223438
39	0x3c403105	0.011730437
40	0x3eabfab3	0.33589706
41	0x3e8c9d2c	0.27463663
42	0x3c61aebe	0.013774572
43	0x3ecdb48a	0.40176803
44	0xbdea2ea3	-0.114346765
45	0x3e6b8a4f	0.2300198
46	0x3e614bc4	0.22001559
47	0x3d567d43	0.052365553
48	0xbea93d62	-0.33054644
49	0x3e05055f	0.1299033
50	0x3c4f070c	0.012635957
51	0xbebd087f	-0.36920545
52	0xbe51cfd2	-0.20489433
53	0xbedf50ca	-0.43616325
54	0xbd84b952	-0.064806595
55	0x3dc30c89	0.09523875
56	0xbe8d2840	-0.2756977
57	0xbea703f6	-0.3262021
58	0xbec0c690	-0.3765149
59	0x3eac808f	0.33691832
60	0x3de2d1c1	0.11075164
61	0xbe5af309	-0.21381773
62	0xbdb00268	-0.08594209
63	0xbd87aa98	-0.06624335
64	0xbda2fd96	-0.07958524
65	0x3e4bc194	0.19898063
66	0xbd906e84	-0.07052329
67	0xbe246182	-0.16052821
68	0xbe1a205c	-0.15051407
69	0xbdd054cf	-0.10172426
70	0x3e6fea66	0.2342926
71	0x3ca46242	0.020066384
72	0xbe2ee2cd	-0.17078705
73	0xbc1026eb	-0.008798341
74	0x3e0e9409	0.13923658
75	0xbeae1f9e	-0.34008497
76	0x3e483133	0.19550018
77	0x3d60c905	0.054879207
78	0x3dce20e8	0.1006487
79	0xbe1bbeb7	-0.1520947
80	0x3e9223f1	0.28543046
81	0xbddc6cdc	-0.10762951
82	0x3e8df739	0.27727678
83	0xbe9ea766	-0.3098709
84	0xbcf142d1	-0.029450806
85	0x3e9aa5e5	0.30204692
86	0xbe2f45f2	-0.17116526
87	0xbe5f3b45	-0.21799953
88	0x3ebcab4e	0.36849445
89	0x3d9175ff	0.07102584
90	0xbd72ee32	-0.059309192
91	0xbe768ae4	-0.2407642
92	0x3ea93f31	0.33056024
93	0x3ec11577	0.3771169
94	0xbd6e18dd	-0.05812918
95	0x3e527fa2	0.205565
96	0xbeba8f14	-0.36437285
97	0x3ea79138	0.3272798
98	0x3df5fc14	0.12010971
99	0xbc928421	-0.01788527
100	0x3e07b131	0.13251187
101	0x3eb83381	0.35976794
102	0x3e6296ff	0.22127913
103	0xbd968580	-0.07349682
104	0x3e0c7908	0.13718045
105	0xbdf4c686	-0.11951928
106	0xbe4ea76b	-0.20181052
107	0x3e912681	0.2834969
108	0x3e83e973	0.25764045
109	0xbe91d448	-0.2848227
110	0xbe1a9706	-0.15096673
111	0x3e978672	0.2959476
112	0x3e99fea2	0.30077082
113	0x3e5618d0	0.20907903
114	0x3eb20359	0.3476818
115	0xbea985fb	-0.3311003
116	0xba93559b	-0.0011240722
117	0xbd53368f	-0.051565703
118	0x3e91033d	0.28322783
119	0xbdb0f4c6	-0.08640437
120	0x3dc20d54	0.094751984
121	0xbc6ec6a6	-0.014573729
122	0xbe3edb7c	-0.18638414
123	0x3db92927	0.09041052
124	0xbe674062	-0.22583154
125	0xbe5a2d1f	-0.21306275
126	0x3e9e558f	0.3092465
127	0xbe94a419	-0.29031447

fc2.weight f4 [128, 128]
0	0x3e540439	0.20704736
1	0xbc4f39f1	-0.012648092
2	0xbb0aad88	-0.0021160562
3	0xbc303290	-0.010754243
4	0xbd174e91	-0.03694016
5	0xbd4ffd1e	-0.0507785
6	0xbd947f00	-0.07250786
7	0xbbf3e7c4	-0.0074434
8	0x3c2fe36b	0.010735373
9	0x3d3e1b20	0.046412587
10	0xbd9d6d50	-0.07686865
11	0x3e3353c2	0.1751242
12	0xbcf6e6f4	-0.030139424
13	0x3d85fefd	0.06542776
14	0x3ca261a3	0.019821947
15	0x3dbd0a7a	0.09230514
16	0x3cace6db	0.021106174
17	0x3e032971	0.12808777
18	0x3d037d78	0.03210208
19	0xbcd3e815	-0.025867501
20	0x3d03e506	0.032200836
21	0x3c6bedbf	0.014399945
22	0xbce0891c	-0.027409129
23	0xbda5185e	-0.08061288
24	0xbddd7e51	-0.108151086
25	0xbde9dfde	-0.114196524
26	0x3d8bfe23	0.06835582
27	0x3da99a38	0.08281368
28	0x3dbc0f98	0.09182662
29	0xbdb730e2	-0.089448705
30	0x3d5338eb	0.051567953
31	0xbbe0b761	-0.006857798
32	0xbd9378bf	-0.07200765
33	0xbd1d9fc3	-0.03848244
34	0xbd8cd532	-0.06876601
35	0xbd5365a3	-0.0516106
36	0x3da8d00f	0.08242809
37	0x3c93aef0	0.018027753
38	0x3e301f4b	0.17199437
39	0xbbef844e	-0.007309473
40	0x3e051ac2	0.12998489
41	0xbc6f3f06	-0.014602428
42	0x3d839583	0.064250015
43	0x3e15df3d	0.1463594
44	0x3d02926d	0.031877924
45	0x3ca9db42	0.020734433
46	0xbd2cc802	-0.04218293
47	0xbc524218	-0.012833141
48	0x3bbadf22	0.005702869
49	0xbd83c680	-0.06434345
50	0xbde71739	-0.11283726
51	0xbd1c9dc5	-0.0382364
52	0x3da5b8ce	0.08091889
53	0x3c840a7a	0.016118277
54	0x3dc20eac	0.09475455
55	0xbc426ca2	-0.01186672
56	0x3ac6df55	0.0015172759
57	0xbd3c4ebd	-0.04597353
58	0x3d38fb13	0.045161318
59	0x3c22bb13	0.009932297
60	0x3ddc538f	0.10758125
61	0xbe4eafc1	-0.20184232
62	0xbdb12668	-0.086499035
63	0x3dd4fb1c	0.10399458
64	0xbe4a51eb	-0.19757812
65	0x3bb8ddae	0.0056416607
66	0x3cc524cc	0.024065398
67	0x3e0f60b4	0.14001733
68	0xbdb0a996	-0.08626096
69	0x3d3d453f	0.046208616
70	0xbcdf4a71	-0.027257176
71	0xbd618395	-0.055057127
72	0x3c8a6374	0.016893126
73	0xbdc741b8	-0.09729332
74	0xbd9e47cc	-0.07728538
75	0x3e514c64	0.20439297
76	0x3d0e1879	0.034691308
77	0x3e275412	0.16340664
78	0x3de0c6a6	0.10975389
79	0xbd450c83	-0.048107635
80	0xbc253d58	-0.010085426
81	0xbe810cf3	-0.25205192
82	0x3d140574	0.036138013
83	0x3d0eba27	0.034845497
84	0x3e41eeea	0.18938795
85	0x3c31e204	0.010857109
86	0x3d077ee1	0.033079986
87	0x3d823dba	0.0635943
88	0x3dcdac5d	0.10042641
89	0x3dc28c20	0.09499383
90	0x3d177cff	0.03698444
91	0x3c2a5f5d	0.010398713
92	0x3d755829	0.05989853
93	0xbcc2c411	-0.023775132
94	0xbd49aaba	-0.049235083
95	0x3d380e38	0.044935435
96	0x3d466277	0.048433747
97	0xbd440a29	-0.047861252
98	0xbae38f41	-0.0017361419
99	0xbcd2fdf7	-0.025755865
100	0xbe175b7b	-0.14780991
101	0xbd276b88	-0.040874034
102	0x3e4fd9ff	0.20298003
103	0x3cb6514a	0.022255559
104	0xbe0c9958	-0.13730371
105	0xbd5bc0c6	-0.05365064
106	0x3d77fe91	0.060545508
107	0x3c0c2350	0.008553341
108	0x3dfcb6af	0.12339532
109	0x3de2246b	0.110421024
110	0x3dfd88d3	0.12379613
111	0xbd3df8d3	-0.046379875
112	0xbe095211	-0.13410212
113	0x3ca7dba0	0.020490468
114	0x3e509556	0.20369467
115	0xbe1c9da3	-0.15294509
116	0xbd07d6de	-0.033163898
117	0x3d8ab02e	0.06771885
118	0x3d4c3927	0.049859192
119	0xbc51907f	-0.012790798
120	0xbda12173	-0.07867708
121	0x3da5c608	0.08094412
122	0x3e33bcfd	0.17552562
123	0x3d73f84f	0.059562977
124	0xbe069be1	-0.131454
125	0xbd721884	-0.05910541
126	0x3dfa5cac	0.12224707
127	0x3d4e6c0b	0.050396007
128	0xbde7a891	-0.11311448
129	0x3d492aea	0.04911319
130	0x3d3444d1	0.04401094
131	0x3d838b06	0.06423001
132	0xbdde7d7d	-0.10863779
133	0xbdac0431	-0.08399237
134	0xbdb4a363	-0.08820226
135	0xbd35494d	-0.04425936
136	0xbd463354	-0.048388794
137	0x3db4f49f	0.0883572
138	0x3d8b194d	0.06791935
139	0xbd0c5305	-0.03425886
140	0xbdb0a8e1	-0.08625961
141	0x3d800176	0.06250279
142	0xbdf0cd14	-0.117578655
143	0x3dca8118	0.09887904
144	0x3dabf6bc	0.0839667
145	0xbd4a78aa	-0.04943148
146	0x3d9850fc	0.074373215
147	0x3d84948e	0.06473647
148	0x3d69c8a4	0.05707611
149	0xbc91a65c	-0.017779522
150	0xbe1d6dd3	-0.15373926
151	0xbc06b4a0	-0.008221775
152	0xbb25801c	-0.002525336
153	0xbd91dfb7	-0.07122748
154	0x3cb3433c	0.021882646
155	0x3d1b7d3e	0.037961237
156	0xbd1a74a4	-0.037708893
157	0x3e0a86d9	0.13528003
158	0xbc892a9d	-0.016743952
159	0xbccd2302	-0.025041107
160	0xbdb005f8	-0.085948884
161	0xbc950c7c	-0.01819443
162	0xbe360cd8	-0.17778337
163	0x3dde72f6	0.10861771
164	0xbc8e0ce7	-0.017340137
165	0x3e5b6e79	0.2142886
166	0xbe2d6b62	-0.16935495
167	0xbccd7959	-0.025082277
168	0x3e2eca83	0.1706944
169	0x3da61d00	0.08111
170	0x3cd0caa2	0.025487248
171	0xbdafc2a1	-0.085820444
172	0x3db9ac71	0.09066094
173	0x3d89d4c0	0.06730032
174	0x3bd68915	0.006547103
175	0xbbad50cb	-0.0052891723
176	0xbd494419	-0.04913721
177	0xbda71e4a	-0.08160074
178	0xbe0a1989	-0.13486303
179	0x3da91b66	0.08257179
180	0x3da8e931	0.08247603
181	0x3d9d9efc	0.076963395
182	0xbbaabfd6	-0.005210857
183	0x3e13435b	0.14381163
184	0xbd84c9b0	-0.06483781
185	0x3db3c3f2	0.08777608
186	0x3daa9608	0.083293974
187	0x3dc2a02c	0.095032066
188	0x3cc56119	0.024094151
189	0x3e83af92	0.25719887
190	0x3e0fd2eb	0.14045303
191	0x3da88789	0.08228976
192	0x3e47772a	0.19479051
193	0x3cc36dff	0.023856161
194	0xbda5bcb3	-0.08092632
195	0x3e3fd75c	0.18734497
196	0x3d482476	0.048862897
197	0x3dfcaefd	0.12338064
198	0x3dae7133	0.08517685
199	0xbd9ed289	-0.07755
200	0x3dafe298	0.08588141
201	0x3ee676e3	0.45012578
202	0x3b732022	0.003709801
203	0xbdf04389	-0.11731631
204	0x3d29296b	0.041299265
205	0xbd9ef725	-0.07761983
206	0xbda41d45	-0.08013395
207	0xbbc5947f	-0.006029665
208	0xbd869277	-0.06570905
209	0x3e84aa0c	0.25910985
210	0xbd9991ed	-0.07498536
211	0xbb023cbf	-0.0019872633
212	0xbe5fe9a9	-0.21866478
213	0x3d0c2342	0.034213312
214	0xbd5ad727	-0.05342784
215	0xbdcfb1da	-0.10141344
216	0xbcd8e7af	-0.026477663
217	0x3b8cb09b	0.004293514
218	0x3ca1f123	0.019768303
219	0xbd9432d3	-0.072362565
220	0x3db9572f	0.09049832
221	0x3c92915b	0.017891577
222	0xbd968afe	-0.073507294
223	0xbb8bfe15	-0.0042722323
224	0xbbdab813	-0.0066747754
225	0x3d883b48	0.06651932
226	0x3d9c2649	0.0762449
227	0x3de07b75	0.109610476
228	0xbddf26d8	-0.10896081
229	0xbd0a4b15	-0.03376301
230	0x3947f64c	0.00019069872
231	0x3e05e220	0.13074541
232	0x3e71b31b	0.2360348
233	0xbcab492f	-0.02090892
234	0x3d3196ee	0.04335683
235	0x3d0b7aa7	0.034052517
236	0x3d8ab8dd	0.06773541
237	0xbe90065a	-0.28129846
238	0x3d1dfbb2	0.038570113
239	0xbe1bd194	-0.15216666
240	0x3d94098d	0.07228384
241	0xbd8654db	-0.06559154
242	0x3ac8ca04	0.0015318994
243	0xbd825125	-0.06363133
244	0xb9ccd37c	-0.0003906748
245	0xbd31c62a	-0.043401875
246	0x3d4edfb6	0.050506316
247	0x3ae9b58e	0.0017830597
248	0xbd315333	-0.043292236
249	0x3d3f117b	0.04664753
250	0xbda3bfa6	-0.079955384
251	0x3d5a006f	0.05322307
252	0xbdd43bbc	-0.10362956
253	0x3d8df701	0.06931878
254	0x3ceef6bc	0.029170386
255	0xbd65afbd	-0.0560758

fc2.bias f4 [128]
0	0x3dc15d6b	0.09441646
1	0xbd4fcf0e	-0.050734572
2	0xbda3e9f5	-0.08003608
3	0x3bf7d768	0.00756352
4	0x3ce54f28	0.027991846
5	0xbc408711	-0.011750952
6	0xbd34f7b9	-0.04418156
7	0xbd83a161	-0.06427265
8	0xbd1e3413	-0.03862388
9	0x3c7272b5	0.014797856
10	0xbd97491d	-0.07386992
11	0xb8ae72ab	-8.318325e-05
12	0x3d901b66	0.07036476
13	0x3c46f448	0.012143202
14	0xbd30c528	-0.043156773
15	0xbc1f4b20	-0.009722501
16	0x3cfbc9c4	0.030735858
17	0x3d88334e	0.066504106
18	0x3bf4f8ae	0.007475934
19	0x3d87cd3d	0.06630943
20	0x3d5ddf28	0.054167897
21	0x3db0a4d6	0.0862519
22	0x3d95ff8f	0.073241346
23	0x3c160d35	0.009158422
24	0x3cf658ed	0.0300717
25	0x3d94c3ed	0.072639324
26	0x3d1653a5	0.036700863
27	0xbbf75ab1	-0.007548653
28	0x3d80c9fc	0.062885255
29	0xbd9dca45	-0.077045955
30	0x3cca2d86	0.02467991
31	0xbd85dd2c	-0.06536326
32	0x3d354b82	0.044261463
33	0x3b7ce41f	0.003858812
34	0xbd5ad834	-0.053428844
35	0xbca7f5a9	-0.020502882
36	0x3c5f739d	0.013638404
37	0x3d8cf45a	0.06882544
38	0x3d5e961a	0.054342367
39	0x3da933ed	0.08261857
40	0x3d79dc01	0.061000828
41	0xbda7cb11	-0.08193029
42	0x3ca4d998	0.020123288
43	0xbd18f03d	-0.037338484
44	0xbbd946b9	-0.0066307453
45	0x3d103b5a	0.035212852
46	0x3dac2e42	0.084072605
47	0x3d63103e	0.05543541
48	0x3ccfaac3	0.02534998
49	0x3ce508b2	0.027958248
50	0x3d01ffd9	0.031738136
51	0xbd10289f	-0.03519499
52	0xbcced3b3	-0.02524743
53	0x3bbf52b5	0.005838717
54	0xbd2d0219	-0.04223833
55	0xbc12e0d6	-0.008964738
56	0x3d15d9c5	0.036584634
57	0x3d357b12	0.044306822
58	0xbd3eeff0	-0.04661554
59	0x3d943500	0.072366714
60	0x3bc40d78	0.005983051
61	0xbd9b60a2	-0.075867906
62	0xbd91cc24	-0.07119015
63	0x3d545275	0.05183645
64	0xbd960882	-0.073258415
65	0x3d18c2f0	0.037295282
66	0x3c7aaadc	0.015299525
67	0xbd62a841	-0.05533624
68	0x3d5f6114	0.05453594
69	0xbcdd0ce1	-0.02698368
70	0xbd95eb8d	-0.07320318
71	0x3c27d500	0.010243654
72	0xbd9b7303	-0.07590296
73	0xbd6f376c	-0.058402464
74	0x3d867f9b	0.065673076
75	0x3d12ebdc	0.035869464
76	0xbd6e07bf	-0.058112856
77	0x3d8319be	0.06401394
78	0x3d971835	0.07377664
79	0x3cfe9924	0.031078883
80	0x3d2e76a6	0.04259362
81	0xbd484431	-0.048893157
82	0xbd4d2e99	-0.050093267
83	0x3d6691ce	0.056291394
84	0xbc0be9d5	-0.008539637
85	0xbcf79c7a	-0.030225981
86	0x3d1e699a	0.03867493
87	0xbd4a50c1	-0.04939342
88	0xbcd36681	-0.025805714
89	0x3b1a0aa0	0.0023504868
90	0x3c82972b	0.015941223
91	0x3d916cbf	0.0710082
92	0xbd822526	-0.06354742
93	0xbd7f6015	-0.06234749
94	0x3d34d77e	0.044150822
95	0x3dd60faa	0.104522064
96	0xbcc7dac2	-0.024396304
97	0x3c712833	0.014719057
98	0x3de0fc7b	0.10985657
99	0xbd4b1158	-0.049577087
100	0x3d61fc81	0.055172447
101	0x3dc78d11	0.09743703
102	0xbc58aaae	-0.013224287
103	0xbd95c61e	-0.073131785
104	0x3bf08c2e	0.0073409295
105	0x3ce2377e	0.027614351
106	0xbdafde51	-0.08587325
107	0x3d812c06	0.06307225
108	0xbcad468f	-0.021151809
109	0xbd3b379e	-0.045707338
110	0x3d4ae38f	0.049533423
111	0xbd55042e	-0.05200594
112	0x3d46163b	0.048361044
113	0x3d35a6cc	0.044348523
114	0xbd068f69	-0.03285161
115	0xbb9a5500	-0.00470984
116	0x3da9bb5b	0.08287688
117	0x3ce4ce5c	0.027930431
118	0x3d3f1a43	0.046655905
119	0xbd184ed1	-0.03718454
120	0xbcb1363f	-0.021632312
121	0x3d1d0306	0.03833296
122	0xbcf00987	-0.029301418
123	0x3da95c54	0.08269563
124	0xbd211e74	-0.039335683
125	0xbd29939e	-0.041400544
126	0xbc04fef6	-0.008117428
127	0x3d17ee1e	0.03709232

fc3.weight f4 [128, 128]
0	0x3d4ce745	0.050025243
1	0x3c5454ce	0.012959672
2	0x3c06092d	0.008180899
3	0x3b447db2	0.0029982147
4	0xbd852038	-0.06500286
5	0xbc92416d	-0.017853463
6	0x3abc21ea	0.0014353369
7	0x3c48ebeb	0.0122632785
8	0x3d73094f	0.05933505
9	0x3cd0fcb1	0.025511118
10	0xbcb7395e	-0.022366222
11	0x3d9458e6	0.072435185
12	0xbd828373	-0.06372728
13	0x3d11b1a1	0.03556979
14	0xbd497653	-0.04918511
15	0x3cfedf1b	0.031112244
16	0x3d903133	0.07040634
17	0xbdc1ccf6	-0.09462921
18	0xbd940fcc	-0.072295755
19	0x3c1aa66c	0.009439092
20	0xbd126353	-0.035739254
21	0xbd881c21	-0.0664599
22	0xbdc120c8	-0.09430081
23	0xbd21924d	-0.039446164
24	0xbdc8a051	-0.09796203
25	0xbcbfb4d7	-0.02340166
26	0x3d771263	0.06032027
27	0x3dd87eb1	0.105710395
28	0x3abb638a	0.0014296633
29	0x3d5f9b7c	0.05459164
30	0x3d922661	0.071362264
31	0x3d49dfbd	0.04928564
32	0x3dad7971	0.08470429
33	0x3ced7cf5	0.028990248
34	0xbbb853e3	-0.0056252345
35	0x3b9a214f	0.0047036777
36	0xbd878f23	-0.06619098
37	0x3daadb73	0.08342638
38	0xbcaf061d	-0.02136522
39	0x3d02f94f	0.03197604
40	0x3ded4521	0.11585451
41	0xbd54aea3	-0.05192436
42	0x3def9724	0.1169875
43	0xbd2b7016	-0.04185494
44	0x3da86c81	0.082238205
45	0xbdb97e00	-0.09057236
46	0xbccf53e6	-0.02530856
47	0x3e066118	0.13122976
48	0x3c46ff25	0.012145792
49	0xbdcace84	-0.09902671
50	0x3caf6874	0.021412112
51	0xbd915c8a	-0.070977286
52	0x3cd55836	0.026043039
53	0xbd3fdf83	-0.046844017
54	0xbc982e6c	-0.018576823
55	0xbd25756c	-0.040395185
56	0xbcbe8fac	-0.023261867
57	0x3bbaceb1	0.005700909
58	0x3cd452db	0.025918415
59	0xbdadbaa7	-0.08482867
60	0x3d02da6a	0.031946577
61	0xbcd8d376	-0.02646802
62	0x3d9119c4	0.070849925
63	0xbcae760f	-0.02129653
64	0x3d4bafa8	0.049728066
65	0xbced56f2	-0.028972123
66	0x3cf825eb	0.030291518
67	0x3d33e01e	0.043914907
68	0xbcc75927	-0.024334503
69	0xbd82919c	-0.06375429
70	0xbc7e1c47	-0.0155096715
71	0xbda9162a	-0.082561806
72	0xbd19fd91	-0.037595335
73	0xbd929218	-0.071567714
74	0xbb2f0048	-0.0026703048
75	0x3d89c2ec	0.067266315
76	0x3cad33b4	0.021142818
77	0x3d02fd71	0.03197998
78	0xbd361004	-0.044448867
79	0xbd4a121a	-0.04933367
80	0x3d788519	0.060673807
81	0xbda3fc9c	-0.08007166
82	0xbd2d56e8	-0.04231921
83	0xbcdb5e17	-0.026778264
84	0x3c592e4d	0.013255668
85	0x3d922ea6	0.07137804
86	0x3dd61114	0.10452476
87	0x3db27cd3	0.087152146
88	0xbd0ef6ea	-0.034903444
89	0x3c790a48	0.015200205
90	0x3dd5d89c	0.104417056
91	0x3cb9a4c3	0.022661572
92	0xbd1f308a	-0.03886465
93	0x3d467863	0.048454653
94	0xbc6c5105	-0.014423613
95	0x3d538eed	0.051649977
96	0x3cffccc9	0.031225579
97	0x3d374f58	0.044753402
98	0x3cf5e62d	0.030016983
99	0x3b343c5e	0.0027501802
100	0x3d196423	0.037449013
101	0xbb4f4b07	-0.0031630413
102	0xbd274a30	-0.040842235
103	0xbd2ec69f	-0.04266989
104	0xbd2810d1	-0.041031662
105	0x3ca9364e	0.020655777
106	0x3d91565b	0.07096549
107	0x3d5690ce	0.05238419
108	0x3d731add	0.05935179
109	0x3d2d0a4c	0.042246148
110	0x3deff4f1	0.11716641
111	0x3dcb40f7	0.099245004
112	0x3d48a80a	0.04898838
113	0x3ca6c8af	0.020359365
114	0xbc21a07f	-0.009864925
115	0x3d5ebad6	0.0543774
116	0xbd0cf834	-0.034416392
117	0xbc44bf15	-0.012008448
118	0x3d97b7c6	0.07408099
119	0xbd0edece	-0.03488045
120	0x3d359ad6	0.044337116
121	0x3da96626	0.082714364
122	0x3dfe0d58	0.12404889
123	0xbd15ee24	-0.03660406
124	0xbd0fa52a	-0.035069622
125	0x3c370674	0.011170972
126	0x3d9d7cea	0.07689841
127	0x3d91f5e6	0.071269795
128	0x3d82a214	0.0637857
129	0x3e17cdc7	0.14824592
130	0xbc2c8ad3	-0.010531145
131	0x3d858922	0.06520297
132	0x3d2327a3	0.039832722
133	0x3e137fa0	0.14404154
134	0xbdb69088	-0.08914286
135	0x3d8b9c07	0.06816869
136	0xbd0af3d8	-0.033923954
137	0xbdbe9205	-0.09305195
138	0x3d3db864	0.046318427
139	0xbd85a524	-0.06525639
140	0x3d778e0e	0.06043821
141	0xbb166ecd	-0.0022954226
142	0x3cba8965	0.022770593
143	0x3d2d9670	0.042379797
144	0x37cfc9a8	2.4770226e-05
145	0x3dc9df10	0.09856999
146	0xbd4ab721	-0.04949105
147	0xbd6c04a6	-0.05762162
148	0xbd67d063	-0.056595217
149	0x3d4c76c0	0.049917936
150	0xbe38357d	-0.17989154
151	0x3d88e9e9	0.0668524
152	0x3de898db	0.1135728
153	0xbd23e88b	-0.040016692
154	0x3c50422b	0.012711088
155	0xbd98a0e1	-0.0745256
156	0xbd074c85	-0.03303196
157	0x3ce44929	0.027866917
158	0x3cd30ff1	0.025764437
159	0xbd8a3130	-0.06747663
160	0xbbbe8cac	-0.0058151092
161	0xbc6ea233	-0.0145650385
162	0xbd85d449	-0.06534631
163	0x3d95e244	0.07318547
164	0xbd08df3d	-0.03341602
165	0xbd58582e	-0.05281847
166	0x3de2fe02	0.110836044
167	0x3d7d0d4a	0.06178025
168	0xbc902b2b	-0.01759871
169	0x3cbb200e	0.022842433
170	0x3d4783aa	0.04870955
171	0x3d7506b4	0.059820846
172	0xbdb27a3f	-0.08714723
173	0xbd8b116e	-0.06790434
174	0x3c886b2a	0.016652662
175	0x3d82d74d	0.063887216
176	0xbdb22c4d	-0.08699856
177	0x3d43ca7c	0.047800526
178	0xbe0f7211	-0.14008357
179	0x3d931fd0	0.07183802
180	0xbbce1de2	-0.0062901834
181	0xbd05fe0b	-0.032712977
182	0xbd387f98	-0.045043558
183	0x3d8c4751	0.0684954
184	0x3d4f2e24	0.050581113
185	0x3b4b8bef	0.0031058749
186	0xbcd17284	-0.0255673
187	0x3d8b8afa	0.06813617
188	0xbc1a3a5e	-0.00941333
189	0x3d6d73f6	0.057971917
190	0xbcd9ee80	-0.026602983
191	0x3b1cb448	0.0023911167
192	0xbd093349	-0.033496175
193	0xbdb93c8b	-0.09044751
194	0xbd205ca6	-0.039150856
195	0x3c507a7f	0.012724518
196	0xbda3f50c	-0.08005723
197	0x3d722b82	0.059123524
198	0x3c9899f3	0.018628096
199	0xbd07da1e	-0.033166997
200	0xbdb4e798	-0.088332355
201	0xbc8a8764	-0.016910262
202	0xbd8508dc	-0.064958304
203	0xbc715fa1	-0.014732272
204	0xbdac5e0d	-0.08416376
205	0x3ccbdce9	0.024885612
206	0x3d1bf539	0.03807566
207	0x3dd1e56b	0.10248836
208	0xbd6e3c48	-0.058162957
209	0x3d88491d	0.0665457
210	0xbdaea125	-0.0852683
211	0x3cf58828	0.02997215
212	0x3bcf79f9	0.006331679
213	0xbda36e9e	-0.07980083
214	0x3dc09f84	0.09405425
215	0xbcd3b01c	-0.025840811
216	0x3c255036	0.010089925
217	0x3d51721d	0.051134218
218	0x3d58b989	0.052911315
219	0x3d218778	0.039435834
220	0x3d046957	0.032327022
221	0xbcbb0445	-0.022829184
222	0x3d2b34e3	0.041798484
223	0xbd84b66f	-0.06480109
224	0x3e251e33	0.16124801
225	0xbd5dec03	-0.054180156
226	0x3c643379	0.013928288
227	0x3def0f16	0.11672799
228	0xbd542be3	-0.051799666
229	0x3d774299	0.060366247
230	0x3da518ac	0.080613464
231	0xbc2739bf	-0.010206639
232	0xbc4796e5	-0.012181972
233	0xbdc337d9	-0.095321365
234	0x3d67449f	0.056461927
235	0x3d81038c	0.06299505
236	0xbdadbd23	-0.084833406
237	0xbcb04653	-0.021517908
238	0x3d960bf6	0.073265
239	0xbd26b4b6	-0.040699683
240	0x3e46968c	0.19393367
241	0xbb82bc28	-0.003989715
242	0xbd8b922f	-0.06814992
243	0x3da2d261	0.07950283
244	0x3df80275	0.12109844
245	0x3d82319f	0.06357121
246	0x3d5b4e9d	0.05354177
247	0x3c824ca0	0.015905678
248	0xbdb39a8e	-0.08769713
249	0x3d44d9d0	0.048059285
250	0x3d03560e	0.03206449
251	0xbd85df7d	-0.06536768
252	0xbd8ebe7e	-0.06969927
253	0x3daa5c28	0.08318359
254	0xbd8bb34e	-0.06821309
255	0x3d04f8b4	0.032463744

fc3.bias f4 [128]
0	0x3dfeeab2	0.12447108
1	0x3da7a331	0.08185423
2	0xbda7013a	-0.08154531
3	0x3d543c45	0.05181529
4	0x3de489b1	0.11159075
5	0x3d91596e	0.070971355
6	0xbb616b56	-0.0034396253
7	0x3dd82f10	0.105558515
8	0x3de88cb7	0.11354964
9	0xbbfbe1aa	-0.0076868134
10	0x3c9ae522	0.018908087
11	0x3d888fde	0.066680655
12	0xbd28d068	-0.041214377
13	0xbd9d0c87	-0.07668405
14	0xbdd29fbe	-0.10284375
15	0x3cce77a9	0.025203543
16	0xbcdbec46	-0.026846062
17	0x3dea225e	0.11432336
18	0xbdd6e491	-0.10492814
19	0x3cc25e7e	0.023726698
20	0xbcb813b4	-0.022470333
21	0xbd232115	-0.03982647
22	0x3d14a1c3	0.03628708
23	0xbab596bd	-0.0013854128
24	0x3e00836b	0.12550132
25	0xbd5d20b2	-0.05398626
26	0x3c076e42	0.008266034
27	0xbcd2cdf3	-0.02573297
28	0xbd22954f	-0.039693173
29	0x3d1d11a5	0.038346905
30	0xbd21655f	-0.039403316
31	0x3ca30614	0.01990036
32	0x3dcaae3f	0.09896516
33	0x3d911de9	0.07085783
34	0xbc9db3e8	-0.019250825
35	0xbd5d6b81	-0.0540576
36	0xbcd2c231	-0.025727363
37	0xbcfd4489	-0.03091647
38	0xbd95ed33	-0.07320633
39	0x3b24bbd9	0.002513638
40	0x3dce1029	0.10061676
41	0x3dee2f76	0.11630146
42	0x3d2f2dd1	0.042768303
43	0xbd9c2bfd	-0.076255776
44	0x3d9f182a	0.07768281
45	0x3ce013d2	0.027353201
46	0x3d9c637f	0.07636165
47	0x3d7c944a	0.061664857
48	0xbdb57132	-0.08859481
49	0x3c1df1da	0.009640181
50	0x3d9671ce	0.07345925
51	0x3a455992	0.00075283006
52	0xbc2184e7	-0.009858347
53	0xbdaefabf	-0.0854392
54	0xbb710500	-0.0036776662
55	0x3dc58228	0.09643966
56	0xbc5e9a7d	-0.013586638
57	0xbd248c6f	-0.04017299
58	0x3c75a0e5	0.0149919735
59	0xbda68913	-0.081316136
60	0x3d407a6c	0.04699175
61	0x3d3eb09a	0.04655514
62	0x3ca21be8	0.019788697
63	0xbd08aa8a	-0.033365764
64	0x3bd7850a	0.006577139
65	0x3d15837d	0.03650235
66	0x3d7acc4a	0.06122998
67	0x3dd5ff6f	0.10449111
68	0x3d037389	0.032092605
69	0xbc389ae3	-0.011267397
70	0x3d5c67ee	0.053810053
71	0xbbee367e	-0.0072696796
72	0xbd814bd3	-0.063132904
73	0x3d844843	0.06459095
74	0xbda361f5	-0.07977668
75	0x3df8d6ea	0.121503666
76	0xbc79ef62	-0.015254827
77	0x3d162b05	0.03666212
78	0xbd804c9b	-0.06264611
79	0xbd8fa9c9	-0.07014806
80	0x3dee11f7	0.1162452
81	0x3d01bdd7	0.031675186
82	0xbda43a1c	-0.08018896
83	0x3dcc61ba	0.09979577
84	0xbd576fd9	-0.0525969
85	0xbc24c3f4	-0.0100564845
86	0x3d0f3af5	0.034968335
87	0x3d408f0e	0.047011428
88	0x3cc9fa95	0.02465562
89	0xbdc1c9b9	-0.09462304
90	0xbd50c742	-0.050971277
91	0xbd4cc62b	-0.049993675
92	0xbd3dc9aa	-0.0463349
93	0x3cc70c09	0.024297731
94	0x3b135dad	0.0022486255
95	0x3dc83bf7	0.097770624
96	0x3cba2d87	0.022726787
97	0x3d082bc3	0.03324486
98	0xbcf51ba9	-0.029920416
99	0x3de007b7	0.109389715
100	0xbd998919	-0.074968524
101	0x3de47167	0.11154442
102	0x3d0b08e1	0.033944014
103	0xbd0cb0b9	-0.034348223
104	0xbd5eb29f	-0.054369565
105	0x3c21c582	0.00987375
106	0x3e0a9525	0.13533457
107	0x3dfbb65e	0.12290643
108	0x3cedb150	0.029015213
109	0x3ce2a310	0.027665645
110	0xbc7aeb0c	-0.015314829
111	0x3d27b19b	0.040940862
112	0xbd702481	-0.058628563
113	0xbbc1aaa1	-0.005910233
114	0xbcc5b6d8	-0.024135038
115	0xbc0319cf	-0.008001759
116	0x3c252669	0.0100799585
117	0xbd40d231	-0.047075454
118	0x3db1ac7f	0.08675479
119	0x3d864161	0.06555439
120	0xbd998ac4	-0.074971706
121	0x3cff50a0	0.031166375
122	0xbd0ba79e	-0.0340954
123	0xbdb9f0dd	-0.09079144
124	0x3d7c9638	0.061666697
125	0x3d803df9	0.0626182
126	0x3ba3aaf4	0.0049947444
127	0x3ded79c1	0.11595488

fc4.weight f4 [2, 128]
0	0xbdea5bc9	-0.11443288
1	0x3e0c24b5	0.13685878
2	0x3c993b20	0.01870495
3	0x3db57be2	0.088615194
4	0xbdc5a023	-0.09649684
5	0xbd7c82f7	-0.061648335
6	0x3d8be8da	0.06831522
7	0xbd34992f	-0.0440914
8	0xbde3da37	-0.111256056
9	0xbda31fb8	-0.07965034
10	0x3e2a7cb7	0.16649137
11	0xbe02624f	-0.12732814
12	0x3d935541	0.07193995
13	0x3d73e640	0.059545755
14	0xbdcd9cc7	-0.100396685
15	0xbdf8f03c	-0.12155196
16	0x3deb649d	0.114938
17	0xbdaef8de	-0.085435614
18	0xbd5a32f1	-0.053271238
19	0x3c85ae1d	0.016318375
20	0xbdd0f0f3	-0.102022074
21	0xbd123507	-0.035695102
22	0xbd916f21	-0.07101274
23	0x3dee88d0	0.11647189
24	0xbddf8ea3	-0.10915878
25	0xbbf300a5	-0.0074158483
26	0xbe3cc4a4	-0.18434387
27	0x3de5ee0c	0.112270445
28	0xbdcb2849	-0.09919793
29	0xbe179383	-0.14802365
30	0x3dc3c7b7	0.09559577
31	0x3e118717	0.14211689
32	0xbd9b0bc0	-0.075706005
33	0x3baaba65	0.0052102082
34	0xbdec6f5e	-0.11544679
35	0x3cafd99e	0.021466073
36	0x3d889c94	0.0667049
37	0x3dc120db	0.09430095
38	0xbd4b01e2	-0.049562342
39	0xbe9155b9	-0.28385714
40	0xbda92d50	-0.08260596
41	0xbe4d8e29	-0.20073761
42	0xbd9cfbb8	-0.07665199
43	0x3b6e005a	0.0036316128
44	0x3dc08552	0.09400429
45	0xbd56c1bf	-0.052430864
46	0xbd9f6f8e	-0.07784949
47	0xbdc65b1a	-0.09685345
48	0xbcc5061e	-0.024050768
49	0x3d8e7d1a	0.06957455
50	0xbd2a289c	-0.041542634
51	0xbbb23fe3	-0.005439745
52	0x3e043634	0.12911302
53	0x3d81d909	0.06340224
54	0x3b01bc2b	0.0019795995
55	0xbd12514e	-0.03572207
56	0xbe41c223	-0.18921714
57	0xbe0d509b	-0.1380028
58	0x3d121f30	0.035674274
59	0xbd7aca4a	-0.061228074
60	0x3da43546	0.080179736
61	0xbcbb3fe8	-0.022857621
62	0xbd33b5b3	-0.043874454
63	0xbb4ed181	-0.003155798
64	0x3e01b13c	0.12665266
65	0xbd1a6910	-0.03769785
66	0xbd6f4858	-0.0584186
67	0xbd7f7c52	-0.06237442
68	0xbdd57e92	-0.10424532
69	0x3de46bcc	0.11153373
70	0xbe01ad68	-0.12663805
71	0xbde9dbbb	-0.114188634
72	0x3d8a1134	0.067415625
73	0x3da46c7f	0.080285065
74	0xbd9e1ddd	-0.0772054
75	0xbe0f935d	-0.14021058
76	0xbe18db2b	-0.14927356
77	0xbe0cb924	-0.137425
78	0x3cd1e633	0.025622463
79	0xbd999276	-0.07498638
80	0xbdde8201	-0.1086464
81	0x3de25a9e	0.1105244
82	0x3c0818aa	0.008306662
83	0xbdb0d917	-0.086351566
84	0xbdd6d090	-0.10488999
85	0x3e0df4e3	0.13862948
86	0xbde9d300	-0.11417198
87	0xbd1cb4bc	-0.0382583
88	0x3d944017	0.07238787
89	0x3d867588	0.06565386
90	0xbdb57578	-0.08860296
91	0x3d955a2f	0.07292592
92	0xbdcec7c2	-0.100966945
93	0x3dc9e7a0	0.09858632
94	0x3c676904	0.014124159
95	0xbd858b1b	-0.06520673
96	0xbd710dc2	-0.05885101
97	0xbe0c9d39	-0.1373185
98	0x3d23e173	0.040009927
99	0xbdbf0326	-0.093267724
100	0x3d82e081	0.06390477
101	0xbdce88c2	-0.10084678
102	0xbe1913ce	-0.14948961
103	0xbe1ea051	-0.15490843
104	0x3d767671	0.06017155
105	0x3dc56ad7	0.09639519
106	0xbe39b988	-0.18137181
107	0xbe7c37f2	-0.24630716
108	0xbe222835	-0.1583565
109	0xbd3507f0	-0.044197023
110	0xbd27ba6f	-0.04094928
111	0xbe0f38ab	-0.13986461
112	0x3da6d2e5	0.08145694
113	0xbe07bd56	-0.1325582
114	0xbcab37d6	-0.020900648
115	0xbd3a1ed3	-0.045439553
116	0x3e004403	0.12525944
117	0xbd817fd3	-0.06323209
118	0xbcda5cc4	-0.026655562
119	0x3d914b6b	0.07094463
120	0xbdf6823a	-0.120365575
121	0x3c83a932	0.01607189
122	0x3bc2aaa1	0.0059407507
123	0x3d916aeb	0.07100471
124	0xbdd490b2	-0.10379161
125	0x3dc09c05	0.09404758
126	0xbe013ccd	-0.1262085
127	0xbdbd836a	-0.09253581
128	0xbdd2fa27	-0.10301619
129	0x3d2799e1	0.040918235
130	0x3c47dba3	0.012198362
131	0x3d016665	0.03159179
132	0xbd954f3f	-0.072905056
133	0xbd8cfc65	-0.06884078
134	0xbd5b3a01	-0.053522114
135	0xbda18374	-0.07886401
136	0xbe36da4c	-0.17856711
137	0xbe48ce35	-0.19609912
138	0x3dfcfe5e	0.12353204
139	0xbddab810	-0.106796384
140	0x3d4c451b	0.04987059
141	0x3ce2f1c5	0.027703175
142	0x3e20cf94	0.15704185
143	0xbe2bc52b	-0.16774432
144	0xbb18ba80	-0.0023304522
145	0xbe1c0540	-0.15236378
146	0x3dc576e7	0.096418194
147	0xbda3992c	-0.079881996
148	0x3e00e37e	0.12586781
149	0xbd0fd5ca	-0.035115995
150	0xbdbc3b72	-0.09191026
151	0xbbf4ed0e	-0.007474548
152	0xbdc4f8d6	-0.09617774
153	0xbc929e72	-0.017897818
154	0xbe205580	-0.15657616
155	0x3d69a017	0.05703744
156	0x3d998580	0.07496166
157	0x3d2fb131	0.042893592
158	0xbd5d9845	-0.054100294
159	0x3df8c099	0.1214611
160	0xbe082ed6	-0.13299116
161	0xbda87d25	-0.082269944
162	0x3e568471	0.2094896
163	0x3b0f25a4	0.0021842504
164	0x3db01521	0.0859778
165	0x3d2d68fc	0.04233645
166	0x3d1c917c	0.038224682
167	0xbe4dd08f	-0.2009909
168	0xbd82294c	-0.06355533
169	0xbe52c01e	-0.205811
170	0x3d7fd9fb	0.06246374
171	0x3c0cf146	0.008602446
172	0xbd1de42b	-0.038547676
173	0xbda12f34	-0.078703314
174	0xbbef894a	-0.0073100673
175	0xbd900c6d	-0.0703362
176	0xbd137e9d	-0.03600942
177	0x3cd06814	0.025440253
178	0xbd930475	-0.071785845
179	0xbe092c54	-0.13395816
180	0x3dd8f079	0.105927415
181	0x3bf451fb	0.007456062
182	0xbd8b186e	-0.06791769
183	0xbe35385d	-0.17697282
184	0xbdcff0ea	-0.101533726
185	0x3db0dbe6	0.08635692
186	0xbdbaeaa7	-0.09126788
187	0x3d9782cd	0.07397995
188	0x3d620695	0.05518206
189	0xbe403a98	-0.18772352
190	0xbd971a0f	-0.07378017
191	0x3c119b66	0.0088871475
192	0x3e1ca3f4	0.15296918
193	0xbd725389	-0.059161697
194	0xbe08fbb2	-0.13377264
195	0xbd1ea127	-0.038727906
196	0xbd9c562c	-0.076336235
197	0x3df154b6	0.117837355
198	0x3ddd0a24	0.1079295
199	0x3cb763f9	0.022386538
200	0x3cb4a3b3	0.022050714
201	0x3e066924	0.13126045
202	0xbda0248f	-0.07819473
203	0xbe074cdc	-0.13212913
204	0x3c8e3b94	0.017362393
205	0xbdc07396	-0.09397046
206	0x3d77cc26	0.060497425
207	0xbe3614ca	-0.17781368
208	0xbd9b7a6d	-0.0759171
209	0x3d9d3fb7	0.07678168
210	0x3d4ce679	0.050024483
211	0xbe1fa232	-0.15589216
212	0x3dc9819f	0.098391764
213	0x3dbe8dfe	0.093044266
214	0xbccdd485	-0.025125751
215	0xbca13c0f	-0.019681958
216	0x3de94c13	0.11391463
217	0x3be7515d	0.00705926
218	0x3cf3abed	0.029745067
219	0xbd54e74b	-0.05197839
220	0xbdd78e96	-0.10525243
221	0x3d8a993d	0.06767509
222	0x3e28f848	0.16500962
223	0xbcc2c7bf	-0.023776887
224	0x3daf0d83	0.08547499
225	0xbe4e4b2e	-0.20145866
226	0xbcfe9c21	-0.031080307
227	0xbe1058c2	-0.14096358
228	0xbcb6a7fd	-0.0222969
229	0xbd9c1f5f	-0.07623171
230	0x3d59a809	0.053138766
231	0x3de4f87e	0.111802086
232	0xbca0615a	-0.01957767
233	0x3e35a83f	0.17739962
234	0xbe315723	-0.17318396
235	0xbe2b1c0b	-0.16709916
236	0x3e75007d	0.23925968
237	0xbe0a79d3	-0.13523035
238	0xbd0ada9d	-0.033899892
239	0xbd8e44a6	-0.069466874
240	0x3e30eaa7	0.17277013
241	0x3d833a94	0.06407657
242	0xbd773e93	-0.06036241
243	0xba752ff9	-0.0009353157
244	0x3d8c0f09	0.06838805
245	0x3d29a702	0.041419037
246	0xbd2a33ce	-0.04155331
247	0x3c001448	0.007817335
248	0x3e6de94a	0.23233524
249	0xbe2ae0ed	-0.16687365
250	0xbb43d87f	-0.002988368
251	0x3d503574	0.050832227
252	0xbd8dac94	-0.06917682
253	0x3e12057b	0.14259903
254	0xbd414a37	-0.047189917
255	0xbd57a9d6	-0.052652203

fc4.bias f4 [2]
0	0xbda35bbc	-0.07976481
1	0x3d31d2ff	0.043414112

fc1.weight f4 [128, 7]
0	0x3e9f51e6	0.3111717
1	0xbecb79f4	-0.3974148
2	0x3e3372b6	0.17524227
3	0x3e781a7a	0.2422885
4	0xbe520ef5	-0.20513518
5	0x3e3de006	0.1854249
6	0x3e710f86	0.23541078
7	0x3dc3fcea	0.09569724
8	0x3e9a43cd	0.30129853
9	0xbd2ae441	-0.041721586
10	0x3e89a142	0.26880842
11	0x3da8b828	0.0823825
12	0x3dd0c817	0.10194414
13	0x3e1f5746	0.15560636
14	0xbeb68bf8	-0.35653663
15	0x3dddde8a	0.108334616
16	0xbe1f60f5	-0.1556433
17	0xbeb66914	-0.35627043
18	0xbe9536ee	-0.2914347
19	0xbd0e180e	-0.03469091
20	0x3ce83659	0.028346227
21	0xbe90768d	-0.28215447
22	0x3e85d085	0.2613565
23	0x3d3cf2ab	0.046129864
24	0x3cbfab41	0.02339709
25	0xbe06cb7c	-0.1316356
26	0x3c9857bb	0.01859652
27	0x3ec6ab0d	0.38802376
28	0xbcfa3545	-0.030542979
29	0x3eac2db1	0.3362861
30	0xbef3c0df	-0.47608086
31	0xbcc654b6	-0.024210315
32	0xbeb1fb2b	-0.34761938
33	0x3e3d3075	0.18475516
34	0x3eb85d7f	0.36008832
35	0x3ca2c542	0.01986945
36	0x3e0f7a48	0.1401149
37	0x3e79db5d	0.24400087
38	0xbe91ff86	-0.2851526
39	0x3d9e67f3	0.077346705
40	0xbead5313	-0.33852443
41	0xbdcb7d1e	-0.099359736
42	0x3e06786a	0.13131872
43	0xbe85595f	-0.26044747
44	0x3e02313d	0.12714095
45	0xbe6ba01e	-0.23010299
46	0xbe0c1bbb	-0.13682453
47	0xbebae7c3	-0.36504945
48	0xbe69789c	-0.22799915
49	0x3ca29422	0.019846026
50	0x3e183213	0.14862852
51	0xbeab86e1	-0.33501342
52	0xbea952bd	-0.33070937
53	0x3e06cf11	0.13164927
54	0x3e49fd9e	0.19725654
55	0x3eb70ea8	0.3575337
56	0xbe093f5b	-0.13403074
57	0x3e203690	0.15645814
58	0x3ed9c2b7	0.42531368
59	0x3e10396f	0.14084409
60	0xbe91ee22	-0.28501993
61	0x3ed0e872	0.40802342
62	0x3e1f010a	0.1552774
63	0xbe30799a	-0.17233887
64	0xbe99050a	-0.29886657
65	0x3e913f48	0.28368592
66	0xbdb14a8f	-0.08656799
67	0xbe696360	-0.22791815
68	0xbe49bb33	-0.19700317
69	0x3dfa186b	0.122116886
70	0x3e2e0c9a	0.16996995
71	0x3ecb5005	0.39709488
72	0xbd62e6cd	-0.05539589
73	0x3eb69539	0.35660723
74	0x3ec29f00	0.38011932
75	0xbd4c50a7	-0.049881604
76	0xbed8552c	-0.4225248
77	0x3dd2529d	0.102696635
78	0xbda15137	-0.078768186
79	0x3d16668f	0.0367189
80	0xbe5f971a	-0.21834984
81	0xbf36b380	-0.71367645
82	0x3ed50b46	0.41610163
83	0xbe8c9713	-0.2745901
84	0x3e21b89c	0.15793079
85	0xbebc95cf	-0.36833045
86	0x3eb5ecbc	0.35532176
87	0xbe36d317	-0.17853962
88	0x3eb53f11	0.35399678
89	0xbe8d1a26	-0.27559012
90	0xbd42c709	-0.047553096
91	0x3ea3bec2	0.31981474
92	0x3ea32f27	0.31871912
93	0xbe522bcc	-0.2052452
94	0xbe88a9c5	-0.26692024
95	0x3e98c874	0.29840434
96	0x3e36d32c	0.17853993
97	0xbe256291	-0.16150881
98	0x3e379891	0.17929293
99	0xbea51e39	-0.3224962
100	0xbdf81553	-0.12113442
101	0xbe104045	-0.14087017
102	0x3cfd18a1	0.030895533
103	0x3ec3eaac	0.38264978
104	0xbde7b0ff	-0.11313056
105	0x3e0af5ac	0.13570279
106	0xbe137f57	-0.14404045
107	0x3e8ce8de	0.27521414
108	0x3e520b78	0.20512187
109	0xbdd6c1f9	-0.10486216
110	0x3ec67fd6	0.38769406
111	0xbe419ea6	-0.18908176
112	0x3d50be62	0.050962813
113	0x3e6230f2	0.22088984
114	0xbdb4811f	-0.088136904
115	0xbed161e0	-0.40894985
116	0x3d01e5c9	0.03171328
117	0xbe77e792	-0.24209431
118	0x3e7ecad6	0.24882063
119	0x3ef2f0ad	0.47449246
120	0x3e41dd54	0.18932086
121	0x3e994d45	0.29941764
122	0xbe56024c	-0.20899314
123	0xbeb9e947	-0.3631079
124	0x3dec6261	0.11542202
125	0xbe53df0e	-0.20690557
126	0x3dcfda7e	0.10149096
127	0xbde30005	-0.11083988
128	0xbf268030	-0.6503935
129	0x3dc52e61	0.09627987
130	0xbbaa7be0	-0.0052027553
131	0xbec05092	-0.3756147
132	0x3dd99aeb	0.106252514
133	0x3b921006	0.0044574765
134	0xbe8120fc	-0.25220478
135	0xbe0bede7	-0.13664971
136	0x3e00c070	0.12573409
137	0xbe98bb55	-0.29830423
138	0xbe3e752e	-0.18599388
139	0xbe2fd30b	-0.1717035
140	0xbe432daa	-0.19060388
141	0xbe3adc0c	-0.18248004
142	0x3e3ed3d0	0.18635488
143	0xbdd1e21e	-0.102482066
144	0xbe8c1616	-0.273606
145	0x3e76d5b0	0.24104953
146	0xbea711ac	-0.3263067
147	0xbe387ecb	-0.18017118
148	0xbdaab26f	-0.08334815
149	0xbe9d9cb3	-0.30783615
150	0xbce9f7bf	-0.028560517
151	0xbe8e0455	-0.2773768
152	0x3ddeb717	0.10874765
153	0xbe068c4e	-0.1313946
154	0x3e3459a5	0.17612322
155	0x3eafb054	0.34314215
156	0xbe3e44e0	-0.18580961
157	0xbe17424b	-0.14771383
158	0xbe278dcf	-0.1636269
159	0xbe0887f6	-0.13333115
160	0x3e8384e1	0.25687316
161	0xbee955de	-0.45573324
162	0xbe1dd580	-0.15413475
163	0xbe062faa	-0.1310412
164	0x3e2e9e19	0.17052497
165	0x3eac0091	0.33594182
166	0x3e93907f	0.2882118
167	0xbed7aef1	-0.42125657
168	0x3df414ff	0.11918067
169	0xbebd1ade	-0.3693456
170	0xbe8b1d87	-0.27170965
171	0x3dbd85ab	0.09254011
172	0x3e0146e9	0.12624706
173	0x3b78eb13	0.0037981912
174	0x3d570ee9	0.052504454
175	0x3d80760b	0.06272515
176	0x3d24c9a4	0.040231362
177	0xbeea26bf	-0.45732686
178	0xbe67542b	-0.22590701
179	0xbcbf58c7	-0.023357762
180	0xbebeb8f6	-0.3725049
181	0x3e2c3e71	0.16820695
182	0x3df5a5c6	0.119945094
183	0x3df381ca	0.1188999
184	0xbe7519a4	-0.23935562
185	0x3e1a9c90	0.15098786
186	0x3e8cf4af	0.2753043
187	0x3e94d4b0	0.29068518
188	0xbe083e6c	-0.13305062
189	0xbd8b8741	-0.06812907
190	0xbe8ac90c	-0.27106512
191	0x3ecc37b1	0.3988624
192	0xbe76c77b	-0.24099533
193	0xbea30aef	-0.3184428
194	0x3d03bc1b	0.032161813
195	0xbe53cdaa	-0.20683923
196	0x3e8072d3	0.25087604
197	0x3e2f3827	0.17111264
198	0xbdaa1672	-0.08305062
199	0xbc91c705	-0.017795095
200	0xbe50a8ff	-0.20376967
201	0x3df6008a	0.120118216
202	0x3e19200c	0.14953631
203	0xbe992a08	-0.2991488
204	0xbe277c2b	-0.1635596
205	0x3e8b8385	0.2724878
206	0xbe49ba91	-0.19700076
207	0x3ecaa089	0.39575604
208	0xbe32dd13	-0.17467146
209	0xbe3653d4	-0.17805415
210	0xbeb8af73	-0.36071357
211	0x3eae49a3	0.34040555
212	0xbec11c5d	-0.37716952
213	0xbd18a106	-0.03726294
214	0x3d73719e	0.059434526
215	0x3dd507ff	0.10401916
216	0xbe547f63	-0.20751719
217	0xbdb1df57	-0.08685177
218	0xbe312654	-0.17299777
219	0xbd52d8df	-0.051476356
220	0xbe186c49	-0.14885058
221	0xbeba6177	-0.36402485
222	0x3e3a9665	0.18221433
223	0xbe522e0e	-0.20525381
224	0xbe49c70f	-0.19704841
225	0x3e871a06	0.26387042
226	0xbf25a38d	-0.64702684
227	0x3e762752	0.24038437
228	0x3e996a42	0.2996388
229	0x3e191068	0.14947665
230	0x3dd9b467	0.10630112
231	0x3e62bef2	0.22143152
232	0xbceea2b8	-0.029130325
233	0xbf02f0bc	-0.5114858
234	0xbdb458c4	-0.08805993
235	0x3eb40f59	0.3516796
236	0xbb9007d0	-0.0043954626
237	0x3ea8dd77	0.32981464
238	0xbd42f0b8	-0.04759285
239	0xbdd21610	-0.10258114
240	0xbe19350a	-0.14961639
241	0xbddb3186	-0.10702805
242	0xbe8833e2	-0.26602083
243	0xbde6c7ee	-0.11268602
244	0x3eec8f77	0.46203205
245	0x3e8b90fa	0.27259046
246	0x3eea3727	0.45745203
247	0xbd95bd3c	-0.07311484
248	0x3e843c14	0.25827086
249	0x3e748f40	0.2388277
250	0x3eaacf10	0.333611
251	0x3e9c57c4	0.3053571
252	0xbe8ac966	-0.2710678
253	0x3ea77d4e	0.32712787
254	0x3ea2dd45	0.3180944
255	0x3e946e4b	0.28990397

fc1.bias f4 [128]
0	0xbe7b53fe	-0.24543759
1	0x3d87ffe9	0.06640608
2	0x3dd33fad	0.103148796
3	0xbdc7be4d	-0.09753094
4	0x3ea6f2b2	0.32607037
5	0xbeae0733	-0.33989868
6	0x3d207240	0.039171457
7	0x3e4dceb5	0.20098384
8	0xbc4d07ea	-0.012514094
9	0xbd7fe15b	-0.062470775
10	0x3e30d6e5	0.17269476
11	0x3da60ebc	0.08108279
12	0xbec4c350	-0.38430262
13	0xbd6cb2fc	-0.05778788
14	0xbe78bf91	-0.24291827
15	0xbe7b2c6b	-0.24528663
16	0xbe04cb6b	-0.12968223
17	0xbe90826e	-0.2822451
18	0x3e77156d	0.24129267
19	0x3d88059b	0.06641694
20	0xbe5e602c	-0.21716374
21	0xbd9a3f27	-0.075315766
22	0x3e5a4bc4	0.21317965
23	0x3d4de7e1	0.050269965
24	0xbdd31675	-0.10307018
25	0x3e6d3452	0.2316449
26	0x3ea9ed50	0.33188868
27	0x3eb47b00	0.35250092
28	0x3d6f4df4	0.05842395
29	0x3e7232f1	0.23652245
30	0xbe614ff7	-0.2200316
31	0xbeb1750e	-0.34659618
32	0xbcb990b8	-0.022652015
33	0x3dc3188d	0.09526167
34	0x3c497347	0.012295551
35	0x3ead6553	0.33866367
36	0x3e8e8e49	0.2784293
37	0x3e51b403	0.20478825
38	0x3d579cea	0.05263988
39	0x3c43653e	0.0119259935
40	0x3eabeee2	0.3358069
41	0x3e8be680	0.27324295
42	0x3c5e1876	0.013555637
43	0x3ecdc172	0.4018665
44	0xbdeadf78	-0.114684045
45	0x3e6b99d2	0.23007897
46	0x3e6299d1	0.22128989
47	0x3d5b63f6	0.053562127
48	0xbea93d62	-0.33054644
49	0x3e05055f	0.1299033
50	0x3c609555	0.0137074785
51	0xbebd087f	-0.36920545
52	0xbe51cfd2	-0.20489433
53	0xbedf5f53	-0.43627414
54	0xbd83becc	-0.06432876
55	0x3dc14c38	0.09438366
56	0xbe8d2840	-0.2756977
57	0xbea703f6	-0.3262021
58	0xbec0c690	-0.3765149
59	0x3eac4aaf	0.3365073
60	0x3de463a3	0.11151817
61	0xbe5b701c	-0.21429485
62	0xbdaffd12	-0.08593191
63	0xbd896862	-0.067093626
64	0xbda3e49d	-0.08002589
65	0x3e4c9a50	0.1998074
66	0xbd906e84	-0.07052329
67	0xbe2492a8	-0.1607157
68	0xbe1a205c	-0.15051407
69	0xbdd0067d	-0.101574875
70	0x3e6f97c8	0.23397744
71	0x3caf4e49	0.021399634
72	0xbe2ee2cd	-0.17078705
73	0xbc14e71c	-0.009088304
74	0x3e0e672a	0.13906541
75	0xbeae0228	-0.3398602
76	0x3e48249b	0.19545214
77	0x3d66d8ee	0.056359224
78	0x3dceed05	0.10103802
79	0xbe1bbeb7	-0.1520947
80	0x3e91ef6f	0.28502986
81	0xbdddff33	-0.10839691
82	0x3e8e0aca	0.27742606
83	0xbe9ea766	-0.3098709
84	0xbceebaa0	-0.029141724
85	0x3e9a9845	0.30194297
86	0xbe2f45f2	-0.17116526
87	0xbe5f161f	-0.21785782
88	0x3ebd28d6	0.36945218
89	0x3d9199d6	0.0710942
90	0xbd71e77b	-0.059058648
91	0xbe768ae4	-0.2407642
92	0x3ea8b072	0.32947117
93	0x3ec111d5	0.37708917
94	0xbd6e18dd	-0.05812918
95	0x3e51a9d0	0.20474935
96	0xbeba8f14	-0.36437285
97	0x3ea7ba9a	0.32759553
98	0x3df5a517	0.11994379
99	0xbc97b0fb	-0.018517008
100	0x3e082da0	0.13298655
101	0x3eb81e04	0.359604
102	0x3e63c86f	0.22244428
103	0xbd981848	-0.07426506
104	0x3e0e1636	0.1387566
105	0xbdf01c58	-0.11724156
106	0xbe4e7055	-0.20160039
107	0x3e90cbf4	0.28280604
108	0x3e833611	0.25627187
109	0xbe918b0b	-0.28426394
110	0xbe1b3a68	-0.15158999
111	0x3e97f10d	0.29676095
112	0x3e99d083	0.30041894
113	0x3e572df2	0.2101362
114	0x3eb1afd5	0.34704462
115	0xbea9631b	-0.33083424
116	0xba38919b	-0.000704074
117	0xbd53368f	-0.051565703
118	0x3e90771c	0.28215873
119	0xbdb08352	-0.08618797
120	0x3dc38c70	0.09548271
121	0xbc6ec6a6	-0.014573729
122	0xbe3e56de	-0.18587825
123	0x3dbbb277	0.09164899
124	0xbe661cd8	-0.2247194
125	0xbe5b46f8	-0.21413791
126	0x3e9eed32	0.3104034
127	0xbe94a419	-0.29031447
