flappybird_dqn_ep130.pth (torch, 561729 bytes, 32 tensors)

fc1.weight f4 [128, 7]
0.2820173 -0.41541192 0.17145544 0.22965324 -0.23779273 0.16974989 0.23475921 0.07762825
0.31072843 -0.04392746 0.24459182 0.07496234 0.08607759 0.13284679 -0.35653663 0.108334616
-0.1556433 -0.35627043 -0.2914347 -0.03469091 0.028346227 -0.28034487 0.28210703 0.0430334
0.013856254 -0.13804135 0.014543333 0.38907793 -0.030003417 0.315987 -0.45583403 -0.03288102
-0.34113237 0.20263498 0.3745951 0.01986945 0.1401149 0.24400087 -0.2851526 0.077346705
-0.33852443 -0.099359736 0.13131872 -0.26044747 0.12714095 -0.23010299 -0.13682453 -0.36504945
-0.22799915 0.013571465 0.1250333 -0.33387032 -0.3417461 0.13914804 0.19741262 0.3604294
-0.129375 0.1594484 0.40750152 0.15328652 -0.28748754 0.41050485 0.16599667 -0.17233887
-0.29886657 0.28368592 -0.08656799 -0.22791815 -0.19700317 0.122116886 0.16257161 0.41339183
-0.053489104 0.34690598 0.38131458 -0.06125503 -0.44149768 0.113757506 -0.16808952 0.06542798
-0.191625 -0.6514107 0.44547382 -0.2620209 0.15793079 -0.36833045 0.35532176 -0.17853962
0.35399678 -0.27559012 -0.047553096 0.30878338 0.34162837 -0.20132431 -0.2738532 0.2957585
0.15943798 -0.17423488 0.18935925 -0.32478392 -0.126059 -0.12812574 0.045430772 0.3875963
-0.11632936 0.12150269 -0.17349187 0.24384613 0.21989128 -0.11679131 0.3912589 -0.17281641
0.050962813 0.22088984 -0.088136904 -0.40894985 0.03171328 -0.24209431 0.24882063 0.4787176
0.18593965 0.3060209 -0.20192452 -0.3462105 0.12221116 -0.20453988 0.1008541 -0.11910074
-0.6555244 0.08334097 -0.0005218126 -0.3775029 0.09192174 0.0044574765 -0.25220478 -0.13664971
0.12573409 -0.29830423 -0.18599388 -0.1717035 -0.19060388 -0.18248004 0.18635488 -0.102482066
-0.273606 0.24104953 -0.3263067 -0.18017118 -0.08334815 -0.30783615 -0.028560517 -0.2773768
0.10874765 -0.1313946 0.17582954 0.30612287 -0.1847967 -0.14102352 -0.15988418 -0.119294144
0.26073796 -0.4809675 -0.15781447 -0.08724275 0.14867142 0.34088564 0.28061384 -0.43187138
0.13253196 -0.3713676 -0.24335182 0.09743564 0.13632718 0.011512588 0.050995328 0.03496011
0.025216354 -0.5020802 -0.24473493 -0.035476383 -0.38817498 0.14677231 0.101358004 0.116469115
-0.25896454 0.14154157 0.27930653 0.27357203 -0.15663096 -0.06834892 -0.24761894 0.38739926
-0.25384396 -0.34018245 0.014209908 -0.23804136 0.2543101 0.16183574 -0.09673989 -0.008014466
-0.21147442 0.119846836 0.13638853 -0.30308464 -0.16885802 0.2838424 -0.19412665 0.4283268
-0.16821775 -0.15347403 -0.36071357 0.34040555 -0.37716952 -0.03726294 0.059434526 0.10401916
-0.20751719 -0.08685177 -0.17299777 -0.051476356 -0.14885058 -0.36402485 0.18221433 -0.20525381
-0.19990492 0.25627178 -0.6230605 0.23556347 0.3049532 0.14913654 0.09215848 0.2248884
-0.036651842 -0.4530341 -0.08957489 0.3713943 0.011936207 0.35884014 -0.053948984 -0.102859326
-0.15136433 -0.13011017 -0.28751183 -0.119809486 0.45347676 0.25627738 0.4555736 -0.079475634
0.24110365 0.24095745 0.31835282 0.2976988 -0.27852398 0.34513757 0.31850365 0.2795981
00000000: 9264 903e dfb0 d4be 0492 2f3e 382a 6b3e
00000010: f07f 73be ead2 2d3e b864 703e 8ffb 9e3d
00000020: cc17 9f3e 48ed 33bd 4776 7a3e db85 993d
00000030: 7349 b03d fd08 083e f88b b6be 8ade dd3d
00000040: f560 1fbe 1469 b6be ee36 95be 0e18 0ebd
00000050: 5936 e83c 5d89 8fbe 5570 903e ca43 303d
00000060: 5705 633c b65a 0dbe 2947 6e3c 3935 c73e
00000070: bac9 f5bc 0cc9 a13e 1463 e9be 40ae 06bd
00000080: e7a8 aebe 8b7f 4f3e eeca bf3e 42c5 a23c
00000090: 487a 0f3e 5ddb 793e 86ff 91be f367 9e3d
000000a0: 1353 adbe 1e7d cbbd 6a78 063e 5f59 85be
000000b0: 3d31 023e 1ea0 6bbe bb1b 0cbe c3e7 babe
000000c0: 9c78 69be da5a 5e3c bb08 003e 0df1 aabe
000000d0: 58f9 aebe d37c 0e3e 8926 4a3e 348a b83e
000000e0: e17a 04be 7146 233e 0aa4 d03e 24f7 1c3e
000000f0: 9131 93be b12d d23e 08fb 293e 9a79 30be
00000100: 0a05 99be 483f 913e 8f4a b1bd 6063 69be
00000110: 33bb 49be 6b18 fa3d 2c79 263e 18a8 d33e
00000120: 6417 5bbd a99d b13e aa3b c33e 8ee6 7abd
00000130: fc0b e2be b2f9 e83d a91f 2cbe 1bff 853d
00000140: 5839 44be dac2 26bf 2515 e43e 9a27 86be
00000150: 9cb8 213e cf95 bcbe bcec b53e 17d3 36be
00000160: 113f b53e 261a 8dbe 09c7 42bd db18 9e3e
00000170: eae9 ae3e f627 4ebe 7d36 8cbe a86d 973e
00000180: b643 233e a16a 32be 64e7 413e 144a a6be
00000190: 9c15 01be 6533 03be 9e15 3a3d 0673 c63e
000001a0: 163e eebd 67d6 f83d daa7 31be cdb2 793e
000001b0: 2e2b 613e 4830 efbd 1653 c83e c9f6 30be
000001c0: 62be 503d f230 623e 1f81 b4bd e061 d1be
000001d0: c9e5 013d 92e7 77be d6ca 7e3e 791a f53e
000001e0: f766 3e3e c5ae 9c3e 4dc5 4ebe 8142 b1be
000001f0: d849 fa3d e772 51be 988c ce3d 17eb f3bd
00000200: 72d0 27bf acae aa3d 40ca 08ba 0f48 c1be
00000210: 7741 bc3d 0610 923b fc20 81be e7ed 0bbe
00000220: 70c0 003e 55bb 98be 2e75 3ebe 0bd3 2fbe
00000230: aa2d 43be 0cdc 3abe d0d3 3e3e 1ee2 d1bd
00000240: 1616 8cbe b0d5 763e ac11 a7be cb7e 38be
00000250: 6fb2 aabd b39c 9dbe bff7 e9bc 5504 8ebe
00000260: 17b7 de3d 4e8c 06be a90c 343e 23bc 9c3e
00000270: 593b 3dbe 7868 10be aeb8 23be 7d50 f4bd
00000280: 727f 853e 5f41 f6be 1e9a 21be 54ac b2bd
00000290: 523d 183e 9088 ae3e 9eac 8f3e 3f1e ddbe
000002a0: 75b6 073e e523 bebe 3831 79be 568c c73d
000002b0: 5a99 0b3e 4b9f 3c3c 7ae0 503d 5532 0f3d
000002c0: 8792 ce3c 5488 00bf cb9b 7abe af4f 11bd
000002d0: dfbe c6be 7b4b 163e c994 cf3d 5c87 ee3d
000002e0: 0097 84be 46f0 103e 4401 8f3e a211 8c3e
000002f0: de63 20be 85fa 8bbd d28f 7dbe 3259 c63e
00000300: d6f7 81be 652c aebe add0 683c 1dc1 73be
00000310: ef34 823e 45b8 253e 901f c6bd 1b4f 03bc
00000320: c08c 58be 4272 f53d 6fa9 0b3e e92d 9bbe
00000330: 1ee9 2cbe cb53 913e 23c9 46be a64d db3e
00000340: 4641 2cbe 4c28 1dbe 73af b8be a349 ae3e
00000350: 5d1c c1be 06a1 18bd 9e71 733d ff07 d53d
00000360: 637f 54be 57df b1bd 5426 31be dfd8 52bd
00000370: 496c 18be 7761 babe 6596 3a3e 0e2e 52be
00000380: e0b3 4cbe 0e36 833e e580 1fbf 8d37 713e
00000390: d322 9c3e 40b7 183e 96bd bc3d 2549 663e
000003a0: 3e20 16bd 16f4 e7be 0a73 b7bd 6527 be3e
000003b0: 1590 433c e5b9 b73e 9cf9 5cbd e9a7 d2bd
000003c0: 40ff 1abe 9a3b 05be c034 93be ad5e f5bd
000003d0: 1b2e e83e ca36 833e f140 e93e 1fc4 a2bd
000003e0: e0e3 763e 8dbd 763e 24ff a23e fa6b 983e
000003f0: b29a 8ebe dfb5 b03e e912 a33e 7b27 8f3e

fc1.bias f4 [128]
-0.27844724 0.051071912 0.103148796 -0.09770184 0.33032244 -0.33989868 0.039171457 0.20022708
-0.011838137 -0.062470775 0.16880888 0.107710466 -0.38430262 -0.06492236 -0.22827758 -0.25759795
-0.12968223 -0.27530393 0.24462587 0.06641694 -0.21716374 -0.075315766 0.21563897 0.04578534
-0.09103697 0.21279961 0.32703194 0.34061846 0.05579394 0.24662673 -0.2200316 -0.34659618
-0.019662607 0.10925813 0.0014134719 0.3294463 0.27441975 0.20307614 0.037268367 0.010662755
0.3118804 0.2844809 0.003441723 0.40379882 -0.11276362 0.22900632 0.21753941 0.049449686
-0.33054644 0.1299033 0.0009829655 -0.36920545 -0.20489433 -0.43157333 -0.07580957 0.09062983
-0.2756977 -0.3262021 -0.3765149 0.3330176 0.10969059 -0.20949514 -0.09415531 -0.07526019
-0.08431925 0.19961835 -0.07052329 -0.15787153 -0.15051407 -0.09772515 0.22972797 0.012893505
-0.17078705 -0.016248984 0.1492828 -0.3353358 0.2013266 0.042683776 0.08865455 -0.1520947
0.28810802 -0.11273811 0.2839184 -0.3098709 -0.04183221 0.30499336 -0.17116526 -0.2154014
0.347599 0.08333596 -0.073332556 -0.2407642 0.3248833 0.37933582 -0.05812918 0.21258895
-0.36437285 0.32828286 0.12065861 -0.025171733 0.12089095 0.3580458 0.20310627 -0.057537276
0.13306107 -0.12513523 -0.19712195 0.29249245 0.25700796 -0.2866746 -0.15093817 0.29461566
0.28763092 0.19892132 0.33977616 -0.3392244 -0.008420405 -0.051565703 0.27752918 -0.0875742
0.09793454 -0.014573729 -0.19275928 0.09466477 -0.19582692 -0.2023272 0.2979164 -0.29031447
00000000: a390 8ebe c830 513d ad3f d33d e717 c8bd
00000010: 0620 a93e 3307 aebe 4072 203d 5408 4d3e
00000020: bff4 41bc 5be1 7fbd 3cdc 2c3e 4e97 dc3d
00000030: 50c3 c4be 04f6 84bd 99c1 69be e1e3 83be
00000040: 6bcb 04be a3f4 8cbe 347f 7a3e 9b05 883d
00000050: 2c60 5ebe 273f 9abd 76d0 5c3e 6989 3b3d
00000060: 9771 babd 24e8 593e bb70 a73e 8b65 ae3e
00000070: 3088 643d b88b 7c3e f74f 61be 0e75 b1be
00000080: 7a13 a1bc bac2 df3d 3f44 b93a 2fad a83e
00000090: bf80 8c3e 31f3 4f3e b7a6 183d d6b2 2e3c
000000a0: caae 9f3e 7ba7 913e 888e 613b b8be ce3e
000000b0: 9df0 e6bd a280 6a3e a7c2 5e3e c18b 4a3d
000000c0: 623d a9be 5f05 053e d9d6 803a 7f08 bdbe
000000d0: d2cf 51be 2ef7 dcbe 0c42 9bbd 229c b93d
000000e0: 4028 8dbe f603 a7be 90c6 c0be 4881 aa3e
000000f0: 76a5 e03d e585 56be 80d4 c0bd 0422 9abd
00000100: 92af acbd c168 4c3e 846e 90bd 13a9 21be
00000110: 5c20 1abe 2024 c8bd cf3d 6b3e 483f 533c
00000120: cde2 2ebe 971c 85bc 97dd 183e 22b1 abbe
00000130: 8f28 4e3e 2fd5 2e3d 8490 b53d b7be 1bbe
00000140: e582 933e 3de3 e6bd c15d 913e 66a7 9ebe
00000150: 4058 2bbd 1728 9c3e f245 2fbe 2f92 5cbe
00000160: 7ff8 b13e 0bac aa3d 612f 96bd e48a 76be
00000170: 1b57 a63e 4e38 c23e dd18 6ebd ebb0 593e
00000180: 148f babe b114 a83e dc1b f73d f334 cebc
00000190: ad95 f73d c751 b73e 17fb 4f3e 35ac 6bbd
000001a0: 2941 083e 7323 00be 56da 49be 92c1 953e
000001b0: 8c96 833e 03c7 92be 898f 1abe ddd7 963e
000001c0: 5c44 933e 08b2 4b3e 24f7 ad3e d2ae adbe
000001d0: bdf5 09bc 8f36 53bd 4e18 8e3e 1a5a b3bd
000001e0: e791 c83d a6c6 6ebc b062 45be 9adf c13d
000001f0: da86 48be dd2e 4fbe 8088 983e 19a4 94be

fc2.weight f4 [128, 128]
0.19930175 -0.023083858 -0.0021160562 -0.051894274 -0.04266678 -0.0507785 -0.07250786 -0.033994507
-0.005138356 0.046412587 -0.039239883 0.199011 -0.030139424 0.10570479 0.04614672 0.09592398
0.021106174 0.13902049 0.033523154 -0.025867501 0.032200836 0.014399945 -0.008406889 -0.0620349
-0.12687427 -0.087058984 0.06413305 0.08354377 0.09139698 -0.1175396 0.051567953 -0.006857798
-0.06865032 -0.063055396 -0.054537084 -0.06397557 0.07405276 0.031138748 0.17682281 -0.02271012
0.1373353 0.001395997 0.06444156 0.17112117 0.018660486 0.0050209025 -0.037805635 -0.014884733
0.005702869 -0.06434345 -0.0987884 -0.0382364 0.08091889 -0.07941672 0.07206154 -0.017203722
0.0015172759 -0.04597353 0.045161318 0.0049832263 0.1206789 -0.25089103 -0.035811793 0.103783906
-0.1890546 -0.019438172 0.024065398 0.1306802 -0.08626096 0.08614181 -0.020945182 -0.049152713
0.016893126 -0.004157707 -0.1124629 0.21739474 0.0057052313 0.15851861 0.12111675 -0.048107635
-0.015854822 -0.22792995 0.0006870066 0.034845497 0.19361755 -0.020796914 0.033079986 0.07102715
0.11489448 0.12033089 0.031717617 0.010398713 0.059208132 -0.018930374 -0.049235083 0.014166738
0.048433747 -0.06306724 -0.0078097624 0.0077809496 -0.10846627 -0.058373857 0.1998423 0.078620784
-0.13159391 -0.05266587 0.09693652 -0.031941146 0.1836729 0.11050597 0.13712049 -0.036682203
-0.10889477 0.01637355 0.21407703 -0.14958689 -0.027709397 0.06771885 0.069714166 -0.0586095
-0.10595875 0.08094412 0.17791608 0.05495647 -0.12413504 -0.024320027 0.11573283 0.050396007
-0.120497294 0.052371606 0.04401094 0.07393958 -0.10216025 -0.08399237 -0.08820226 -0.039775956
-0.05336166 0.0883572 0.07575867 -0.04697826 -0.08625961 0.0626487 -0.13948397 0.088806994
0.0839667 -0.062148187 0.073621206 0.06473647 0.05707611 -0.017779522 -0.1406957 -0.013217104
-0.019483179 -0.060163226 0.022186037 0.029723093 -0.040551044 0.14123258 -0.016743952 -0.025041107
-0.08704523 -0.0136035485 -0.17432109 0.10983391 -0.018496597 0.21995124 -0.18568707 -0.032965854
0.17106037 0.094500594 0.018101469 -0.09782771 0.08652289 0.06872583 0.002473275 -0.020094736
-0.04913721 -0.08160074 -0.12971455 0.08257179 0.08247603 0.07265237 -0.0064793564 0.14585955
-0.06483781 0.08777608 0.083293974 0.08900771 0.010653011 0.26555562 0.17011008 0.07939915
0.18190844 0.02174201 -0.08092632 0.14535734 0.048862897 0.14168398 0.10844888 -0.09771505
0.08588141 0.44144687 0.008547494 -0.12878962 0.04378159 -0.078148454 -0.0982278 -0.006029665
-0.06420207 0.24700612 -0.07125845 -0.0019872633 -0.23499699 0.044336867 -0.05342784 -0.11018741
-0.02555219 0.0133853005 0.015726749 -0.072362565 0.09019806 0.018484399 -0.073507294 0.016527854
-0.0066747754 0.075042926 0.065768294 0.038679495 -0.08472624 -0.0316029 -0.007437675 0.21805729
0.25431833 -0.02165139 0.052980192 0.04083839 0.072583504 -0.29633465 0.028076777 -0.15095274
0.09105028 -0.07293175 -0.003162147 -0.06363379 -0.013853545 -0.043401875 0.04626685 0.01945059
-0.03907252 0.04664753 -0.09663897 0.043794993 -0.12311849 0.05891968 0.030485665 -0.0560758
00000000: c215 4c3e 5c1a bdbc 88ad 0abb 178f 54bd
00000010: 5dc3 2ebd 1efd 4fbd 007f 94bd d33d 0bbd
00000020: a75f a8bb 201b 3e3d 00ba 20bd 8ac9 4b3e
00000030: f4e6 f6bc c17b d83d 5804 3d3d cb73 c43d
00000040: dbe6 ac3c 635b 0e3e 934f 093d 15e8 d3bc
00000050: 06e5 033d bfed 6b3c 0cbd 09bc 4f18 7ebd
00000060: 54eb 01be fb4b b2bd 3058 833d ff18 ab3d
00000070: 572e bb3d 9ab8 f0bd eb38 533d 61b7 e0bb
00000080: 8a98 8cbd 3023 81bd 4762 5fbd a005 83bd
00000090: f9a8 973d b016 ff3c 0a11 353e 930a babc
000000a0: a0a1 0c3e e3f9 b63a f0f9 833d 633a 2f3e
000000b0: e0dd 983c 6286 a43b 15da 1abd 18df 73bc
000000c0: 22df ba3b 80c6 83bd 9351 cabd c59d 1cbd
000000d0: ceb8 a53d 3ca5 a2bd 0095 933d d2ee 8cbc
000000e0: 55df c63a bd4e 3cbd 13fb 383d 554a a33b
000000f0: 8026 f73d ca74 80be 63af 12bd a88c d43d
00000100: 8797 41be cd3c 9fbc cc24 c53c 08d1 053e
00000110: 96a9 b0bd 1e6b b03d 3b95 abbc 5b54 49bd
00000120: 7463 8a3c 603d 88bb f352 e6bd ba9c 5e3e
00000130: f3f2 ba3b b452 223e 0f0c f83d 830c 45bd
00000140: f9e1 81bc 7866 69be 3c18 343a 27ba 0e3d
00000150: ae43 463e 4a5e aabc e17e 073d af76 913d
00000160: cc4d eb3d 0b70 f63d 55ea 013d 5d5f 2a3c
00000170: 3a84 723d df13 9bbc baaa 49bd 9b1b 683c
00000180: 7762 463d 6629 81bd 09e9 ffbb 56f7 fe3b
00000190: 9023 debd 6d19 6fbd 76a3 4c3e ef03 a13d
000001a0: 8ec0 06be 2bb8 57bd a786 c63d b8d4 02bd
000001b0: c014 3c3e f450 e23d 5069 0c3e 1440 16bd
000001c0: 3904 dfbd d321 863c 0237 5b3e 4e2d 19be
000001d0: d1fe e2bc 2eb0 8a3d 4dc6 8e3d 8410 70bd
000001e0: e700 d9bd 08c6 a53d a22f 363e 091a 613d
000001f0: 833a febd cb3a c7bc 5505 ed3d 0b6c 4e3d
00000200: 49c7 f6bd 9c83 563d d144 343d a26d 973d
00000210: 6539 d1bd 3104 acbd 63a3 b4bd 1dec 22bd
00000220: c291 5abd 9ff4 b43d 5d27 9b3d 476c 40bd
00000230: e1a8 b0bd f64d 803d e3d4 0ebe 71e0 b53d
00000240: bcf6 ab3d 198f 7ebd b7c6 963d 8e94 843d
00000250: a4c8 693d 5ca6 91bc 8912 10be 8d8c 58bc
00000260: 309b 9fbc b76d 76bd 7ebf b53c d87d f33c
00000270: da18 26bd 469f 103e 9d2a 89bc 0223 cdbc
00000280: c544 b2bd 6be1 5ebc 3a81 32be 9af0 e03d
00000290: 2d86 97bc e63a 613e c024 3ebe 3407 07bd
000002a0: 732a 2f3e 8789 c13d 8849 943c e559 c8bd
000002b0: ea32 b13d 21c0 8c3d ab16 223b b79d a4bc
000002c0: 1944 49bd 4a1e a7bd e4d3 04be 661b a93d
000002d0: 31e9 a83d c4ca 943d c850 d4bb 355c 153e
000002e0: b0c9 84bd f2c3 b33d 0896 aa3d ad49 b63d
000002f0: f789 2e3c e8f6 873e 5631 2e3e 069c a23d
00000300: 3546 3a3e 4d1c b23c b3bc a5bd 8ed8 143e
00000310: 7624 483d 9b15 113e 721a de3d d41e c8bd
00000320: 98e2 af3d 5305 e23e ca0a 0c3c 6de1 03be
00000330: 5354 333d 4c0c a0bd a82b c9bd 7f94 c5bb
00000340: 607c 83bd 2cef 7c3e f3ef 91bd bf3c 02bb
00000350: 0da3 70be 939a 353d 27d7 5abd f0a9 e1bd
00000360: d452 d1bc 054e 5b3c 62d5 803c d332 94bd
00000370: c3b9 b83d 986c 973c fe8a 96bd 6c65 873c
00000380: 13b8 dabb 1bb0 993d 87b1 863d 646e 1e3d
00000390: f384 adbd 0b72 01bd bdb7 f3bb 694a 5f3e
000003a0: 0336 823e 415e b1bc c201 593d 2846 273d
000003b0: a9a6 943d 2db9 97be 4501 e63c 5b93 1abe
000003c0: 9278 ba3d 3e5d 95bd 063c 4fbb 6f52 82bd
000003d0: fbf9 62bc 2ac6 31bd 4f82 3d3d d856 9f3c
000003e0: 820a 20bd 7b11 3f3d a7ea c5bd 6162 333d
000003f0: 8c25 fcbd c355 713d 13bd f93c bdaf 65bd

fc2.bias f4 [128]
0.086091734 -0.04972993 -0.08003608 0.0017145055 0.023374911 -0.0058162343 -0.02921439 -0.06427265
-0.03862388 0.015027835 -0.07386992 -8.318325e-05 0.07347072 0.012143202 -0.043156773 -0.013227965
0.040240932 0.061312072 0.007475934 0.06447256 0.05214092 0.0862519 0.07020552 0.009158422
0.025814964 0.07316188 0.033332165 0.007482454 0.062885255 -0.077045955 0.016000666 -0.06536326
0.044261463 0.0037890314 -0.053428844 -0.0063364897 0.013638404 0.06853463 0.053993776 0.082105875
0.05465125 -0.08193029 0.027415374 -0.045674793 -0.0013997273 0.028079374 0.084072605 0.067951
0.022994258 0.021569803 0.031104492 -0.03944564 -0.021990083 0.005838717 -0.04223833 -0.009401357
0.036584634 0.044306822 -0.04661554 0.0641041 -0.0036612032 -0.0827544 -0.07119015 0.05183645
-0.073258415 0.032390215 0.015299525 -0.04378727 0.048888016 -0.036446434 -0.07320318 0.010243654
-0.07590296 -0.060231414 0.063323185 0.035869464 -0.058112856 0.07234272 0.07407128 0.031235259
0.04939349 -0.048893157 -0.050093267 0.056291394 -0.008539637 -0.030225981 0.035543706 -0.04939342
-0.01908879 0.017934093 0.01697102 0.07742044 -0.06354742 -0.061610024 0.044982295 0.11469645
-0.045810044 0.014488042 0.12769023 -0.051088404 0.055172447 0.099295914 -0.013224287 -0.073131785
0.0073409295 0.023440246 -0.08587325 0.06307225 -0.021151809 -0.045707338 0.057420455 -0.04139894
0.045759674 0.044348523 -0.03285161 -0.0048920056 0.07628126 0.027930431 0.046655905 -0.04364025
-0.013365391 0.03833296 -0.02539529 0.08269563 -0.039335683 -0.04264493 -0.010622389 0.046552926
00000000: dd50 b03d 9cb1 4bbd f5e9 a3bd 42b9 e03a
00000010: be7c bf3c 1c96 bebb 0453 efbc 61a1 83bd
00000020: 1334 1ebd 4f37 763c 1d49 97bd ab72 aeb8
00000030: d177 963d 48f4 463c 28c5 30bd 1bba 58bc
00000040: add3 243d 5e22 7b3d aef8 f43b 310a 843d
00000050: b891 553d d6a4 b03d e9c7 8f3d 350d 163c
00000060: e779 d33c e5d5 953d 4f87 083d 602f f53b
00000070: fcc9 803d 45ca 9dbd d413 833c 2cdd 85bd
00000080: 824b 353d 6651 783b 34d8 5abd 54a2 cfbb
00000090: 9d73 5f3c e25b 8c3d 9428 5d3d 2027 a83d
000000a0: fdd9 5f3d 11cb a7bd 3596 e03c 7e15 3bbd
000000b0: 0e77 b7ba b706 e63c 422e ac3d e529 8b3d
000000c0: 745e bc3c 28b3 b03c d9ce fe3c c091 21bd
000000d0: 8c24 b4bc b552 bf3b 1902 2dbd 2608 1abc
000000e0: c5d9 153d 127b 353d f0ef 3ebd 0349 833d
000000f0: ccf0 6fbb 247b a9bd 24cc 91bd 7552 543d
00000100: 8208 96bd 9aab 043d dcaa 7a3c 485a 33bd
00000110: cd3e 483d db48 15bd 8deb 95bd 00d5 273c
00000120: 0373 9bbd 37b5 76bd 96af 813d dceb 123d
00000130: bf07 6ebd 6c28 943d afb2 973d 16e1 ff3c
00000140: d450 4a3d 3144 48bd 992e 4dbd ce91 663d
00000150: d5e9 0bbc 7a9c f7bc 4796 113d c150 4abd
00000160: 1860 9cbc 85ea 923c cf06 8b3c 9c8e 9e3d
00000170: 2625 82bd cb5a 7cbd 5b3f 383d f9e5 ea3d
00000180: 50a3 3bbd 415f 6d3c 3ac1 023e 1342 51bd
00000190: 81fc 613d a85b cb3d aeaa 58bc 1ec6 95bd
000001a0: 2e8c f03b c205 c03c 51de afbd 062c 813d
000001b0: 8f46 adbc 9e37 3bbd b631 6b3d ef91 29bd
000001c0: 7f6e 3b3d cca6 353d 698f 06bd 1e4d a0bb
000001d0: 5939 9c3d 5cce e43c 431a 3f3d 1ec0 32bd
000001e0: 83fa 5abc 0603 1d3d c909 d0bc 545c a93d
000001f0: 741e 21bd 73ac 2ebd 8709 2ebc 48ae 3e3d

fc3.weight f4 [128, 128]
0.04008007 0.02302594 0.008180899 -0.004810477 -0.072788715 -0.0049592983 0.007052098 0.0122632785
0.05933505 0.032877415 -0.022366222 0.072435185 -0.06089357 0.03556979 -0.04918511 0.049544442
0.08060122 -0.0992927 -0.072295755 0.0065315855 -0.040560607 -0.0664599 -0.12622342 -0.039446164
-0.104113184 -0.011803486 0.04817669 0.121371746 0.0014296633 0.05459164 0.07551127 0.04928564
0.08470429 0.03922682 -0.0056252345 -0.020963157 -0.06619098 0.092684776 -0.0070060175 0.04704086
0.0869991 -0.05192436 0.1259967 -0.024463683 0.09200541 -0.09743413 -0.02530856 0.1399652
0.021447513 -0.08964709 0.021420414 -0.058017347 0.034840617 -0.046844017 -0.018576823 -0.027821902
-0.023261867 0.005700909 0.025918415 -0.09670856 0.022240538 -0.018094413 0.070849925 -0.02129653
0.049728066 -0.026800089 0.030291518 0.05979465 -0.035625134 -0.0749132 -0.0155096715 -0.082561806
-0.037595335 -0.07004348 -0.06641678 0.067266315 0.021142818 0.035054516 -0.030807916 -0.043966092
0.0779631 -0.08007166 -0.04231921 -0.026778264 0.013255668 0.07137804 0.11997971 0.087152146
-0.008857455 0.028031085 0.12514374 0.05295068 -0.03886465 0.048821203 -0.011458928 0.066804186
-0.024224933 0.057818506 0.04284986 0.013708994 0.037449013 0.010923639 -0.040842235 -0.04266989
-0.041031662 0.023989474 0.07096549 0.05238419 0.05935179 0.042246148 0.13114937 0.10626686
0.050120775 0.020359365 -0.009864925 0.017797433 -0.034410264 -0.012008448 0.07408099 -0.044118755
0.06544746 0.082714364 0.13512081 -0.03660406 -0.035069622 0.023619577 0.061731484 0.08273343
0.06982607 0.14998855 -0.010531145 0.07252756 0.048703868 0.1231843 -0.11073173 0.06816869
-0.033923954 -0.11022864 0.046318427 -0.06525639 0.056725577 -0.0022954226 0.022770593 0.026838124
-0.021547318 0.10455692 -0.04949105 -0.056939274 -0.052761644 0.049917936 -0.17936009 0.0668524
0.117763564 -0.046767198 0.018329911 -0.098754734 -0.03303196 0.027866917 0.023840917 -0.06747663
-0.0058151092 -0.025096962 -0.06534631 0.10451199 -0.03341602 -0.06651382 0.09493919 0.05856856
-0.0073410133 0.022842433 0.02644964 0.04795833 -0.10006805 -0.06346733 0.016652662 0.05404045
-0.10174267 0.04075012 -0.14015616 0.061011605 -0.017391182 -0.032712977 -0.045043558 0.0598703
0.050581113 0.0031058749 -0.0255673 0.0770562 -0.0044189407 0.046667952 -0.026602983 0.0023911167
-0.033496175 -0.091817684 -0.039150856 -0.011857064 -0.07402768 0.06519103 0.018628096 -0.033166997
-0.088332355 -0.021302812 -0.018981216 -0.014732272 -0.08416376 0.0118299965 0.037079994 0.090822026
-0.077609286 0.0665457 -0.0852683 0.02997215 0.006331679 -0.07980083 0.07729454 -0.025840811
-0.0069553065 0.02879314 0.033617865 0.0043827416 0.032327022 -0.019696848 0.038784176 -0.0772105
0.20943627 -0.066615336 -0.01076986 0.115610056 -0.051799666 0.05812403 0.080613464 -0.010206639
-0.012181972 -0.10930148 0.056461927 0.06299505 -0.084833406 -0.021517908 0.05317656 -0.0510984
0.19086844 -0.003989715 -0.06814992 0.09789966 0.12198428 0.06357121 0.05354177 0.025425674
-0.11545992 0.048059285 0.019177169 -0.06536768 -0.06969927 0.06997942 -0.059668858 0.01892507
00000000: 002b 243d e5a0 bc3c 2d09 063c 35a1 9dbb
00000010: 4012 95bd 9c81 a2bb 4915 e73b ebeb 483c
00000020: 4f09 733d 78aa 063d 5e39 b7bc e658 943d
00000030: 896b 79bd a1b1 113d 5376 49bd 1def 4a3d
00000040: 4112 a53d f959 cbbd cc0f 94bd e906 d63b
00000050: e122 26bd 211c 88bd b640 01be 4d92 21bd
00000060: 4b39 d5bd 6963 41bc ec54 453d c091 f83d
00000070: 8a63 bb3a 7c9b 5f3d a7a5 9a3d bddf 493d
00000080: 7179 ad3d 4dac 203d e353 b8bb edba abbc
00000090: 238f 87bd 84d1 bd3d bc92 e5bb ebad 403d
000000a0: 962c b23d a3ae 54bd 4705 013e 1068 c8bc
000000b0: 556d bc3d 8c8b c7bd e653 cfbc 0a53 0f3e
000000c0: b2b2 af3c e598 b7bd dd79 af3c 99a3 6dbd
000000d0: 09b5 0e3d 83df 3fbd 6c2e 98bc c2ea e3bc
000000e0: ac8f bebc b1ce ba3b db52 d43c 230f c6bd
000000f0: ca31 b63c bc3a 94bc c419 913d 0f76 aebc
00000100: a8af 4b3d dc8b dbbc eb25 f83c 3ceb 743d
00000110: a9eb 11bd 186c 99bd 471c 7ebc 2a16 a9bd
00000120: 91fd 19bd f572 8fbd 8505 88bd ecc2 893d
00000130: b433 ad3c 5395 0f3d e260 fcbc ca15 34bd
00000140: 1eab 9f3d 9cfc a3bd e856 2dbd 175e dbbc
00000150: 4d2e 593c a62e 923d ecb7 f53d d37c b23d
00000160: dc1e 11bc 72a1 e53c ae25 003e d0e2 583d
00000170: 8a30 1fbd bef8 473d 3abe 3bbc a2d0 883d
00000180: 5e73 c6bc 19d3 6c3d 5683 2f3d b09b 603c
00000190: 2364 193d 10f9 323c 304a 27bd 9fc6 2ebd
000001a0: d110 28bd 9385 c43c 5b56 913d ce90 563d
000001b0: dd1a 733d 4c0a 2d3d 054c 063e 71a2 d93d
000001c0: 714b 4d3d afc8 a63c 7fa0 21bc eccb 913c
000001d0: c7f1 0cbd 15bf 44bc c6b7 973d deb5 34bd
000001e0: 5109 863d 2666 a93d 1c5d 0a3e 24ee 15bd
000001f0: 2aa5 0fbd d87d c13c 27da 7c3d 2570 a93d
00000200: f800 8f3d 9996 193e d38a 2cbc 5489 943d
00000210: b57d 473d 0d48 fc3d 51c7 e2bd 079c 8b3d
00000220: d8f3 0abd 8ebf e1bd 64b8 3d3d 24a5 85bd
00000230: 1459 683d cd6e 16bb 6589 ba3c a0db db3c
00000240: 0084 b0bc f021 d63d 21b7 4abd 2839 69bd
00000250: 981c 58bd c076 4c3d 2caa 37be e9e9 883d
00000260: 062e f13d f68e 3fbd 9c28 963c ec3f cabd
00000270: 854c 07bd 2949 e43c 074e c33c 3031 8abd
00000280: ac8c bebb 2598 cdbc 49d4 85bd 620a d63d
00000290: 3ddf 08bd 6638 88bd 7a6f c23d 96e5 6f3d
000002a0: e28c f0bb 0e20 bb3c eaac d83c f46f 443d
000002b0: 7af0 ccbd 29fb 81bd 2a6b 883c 8559 5d3d
000002c0: 765e d0bd 99e9 263d 1985 0fbe 4ee7 793d
000002d0: f477 8ebc 0bfe 05bd 987f 38bd 8f3a 753d
000002e0: 242e 4f3d ef8b 4b3b 8472 d1bc a4cf 9d3d
000002f0: c3cc 90bb e526 3f3d 80ee d9bc 48b4 1c3b
00000300: 4933 09bd e90a bcbd a65c 20bd 2244 42bc
00000310: d39b 97bd e082 853d f399 983c 1eda 07bd
00000320: 98e7 b4bd 3c83 aebc 7f7e 9bbc a15f 71bc
00000330: 0d5e acbd 9ad2 413c 31e1 173d e600 ba3d
00000340: 9ef1 9ebd 1d49 883d 25a1 aebd 2888 f53c
00000350: f979 cf3b 9e6e a3bd 9a4c 9e3d 1cb0 d3bc
00000360: 57e9 e3bb 97df eb3c e3b2 093d 1a9d 8f3b
00000370: 5769 043d 495b a1bc 28dc 1e3d 8a20 9ebd
00000380: 7676 563e 9f6d 88bd 1174 30bc f7c4 ec3d
00000390: e32b 54bd 7613 6e3d ac18 a53d bf39 27bc
000003a0: e596 47bc 74d9 dfbd 9f44 673d 8c03 813d
000003b0: 23bd adbd 5346 b0bc aacf 593d 8e4c 51bd
000003c0: 0473 433e 28bc 82bb 2f92 8bbd 9e7f c83d
000003d0: e5d2 f93d 9f31 823d 9d4e 5b3d 8149 d03c
000003e0: 4076 ecbd d0d9 443d 7019 9d3c 7ddf 85bd
000003f0: 7ebe 8ebd 5f51 8f3d 5567 74bd c008 9b3c

fc3.bias f4 [128]
0.13306329 0.075518765 -0.09787257 0.05423624 0.11145967 0.08048102 -0.0034396253 0.11092955
0.10754739 -0.005852088 0.012238134 0.072775885 -0.041214377 -0.07668405 -0.08328746 0.030476823
-0.029554976 0.12149759 -0.10492814 0.03386956 -0.03146769 -0.039409358 0.03408466 -0.003732953
0.12182667 -0.05398626 0.011158584 -0.028737461 -0.058522508 0.037873585 -0.039403316 0.017958669
0.113379605 0.07840162 0.00052205345 -0.0540576 -0.010615641 -0.029141206 -0.07320633 -0.0018295269
0.10789352 0.10769183 0.042768303 -0.076255776 0.07852315 0.03724755 0.06768611 0.063033774
-0.08859481 0.009640181 0.06992821 6.838143e-05 -0.018930513 -0.0854392 -0.0036776662 0.109771945
-0.012248461 -0.04823413 0.0149919735 -0.081316136 0.04663021 0.048418287 0.030167488 -0.033365764
0.0040072864 0.053122774 0.041490596 0.10654722 0.039859213 -0.010715708 0.03424778 -0.0078487145
-0.063132904 0.050282363 -0.07977668 0.123476885 -0.016618907 0.032645512 -0.06264611 -0.07410333
0.1254184 0.017004654 -0.08018896 0.11483106 -0.060430557 -0.011076668 0.031569 0.038904794
0.021845186 -0.094628416 -0.05146836 -0.049993675 -0.03548276 0.016101131 0.0069372444 0.09392643
0.016981404 0.02400205 -0.029920416 0.10534879 -0.074968524 0.116177164 0.033543605 -0.05154347
-0.044053912 0.0058654123 0.12922342 0.12085902 0.012692337 0.042618115 -0.015314829 0.03653787
-0.06949598 -0.010692711 -0.024135038 -0.008001759 0.010064773 -0.047075454 0.07704576 0.06690159
-0.08459394 0.046638522 -0.041857213 -0.09079144 0.058450013 0.049092337 0.0065133385 0.11168861
00000000: be41 083e 95a9 9a3d 6a71 c8bd d226 5e3d
00000010: f844 e43d 3cd3 a43d 566b 61bb 082f e33d
00000020: ce41 dc3d dfc2 bfbb 7482 483c 860b 953d
00000030: 68d0 28bd 870c 9dbd 9e92 aabd 88aa f93c
00000040: 471d f2bc bad3 f83d 91e4 d6bd cfba 0a3d
00000050: 44e4 00bd b56b 21bd 5b9c 0b3d 8fa4 74bb
00000060: 4380 f93d b220 5dbd 7ed2 363c d36a ebbc
00000070: 4cb5 6fbd 5521 1b3d 5f65 21bd 0f1e 933c
00000080: 9133 e83d 0791 a03d 6ada 083a 816b 5dbd
00000090: 3aed 2dbc 8ab9 eebc 33ed 95bd bccc efba
000000a0: 47f7 dc3d 898d dc3d d12d 2f3d fd2b 9cbd
000000b0: bfd0 a03d e390 183d 049f 8a3d da17 813d
000000c0: 3271 b5bd daf1 1d3c 8536 8f3d 0068 8f38
000000d0: 2a14 9bbc bffa aebd 0005 71bb 1dd0 e03d
000000e0: c5ad 48bc 2791 45bd e5a0 753c 1389 a6bd
000000f0: 52ff 3e3d 4152 463d cf21 f73c 8aaa 08bd
00000100: 8e4f 833b 4497 593d 0bf2 293d 6e35 da3d
00000110: 6a43 233d f090 2fbc 6647 0c3d e597 00bc
00000120: d34b 81bd e1f4 4d3d f561 a3bd 73e1 fc3d
00000130: 6024 88bc 4db7 053d 9b4c 80bd 7dc3 97bd
00000140: ae6d 003e 584d 8b3c 1c3a a4bd 8c2c eb3d
00000150: 0886 77bd ea7a 35bc 7f4e 013d a25a 1f3d
00000160: adf4 b23c 8bcc c1bd 7dd0 52bd 2bc6 4cbd
00000170: 5f56 11bd 85e6 833c d351 e33b 805c c03d
00000180: 961c 8b3c f29f c43c a91b f5bc 1bc1 d73d
00000190: 1989 99bd 4bee ed3d 0565 093d 3f1f 53bd
000001a0: e071 34bd a532 c03b 2553 043e ef84 f73d
000001b0: 85f3 4f3c 5590 2e3d 0ceb 7abc bca8 153d
000001c0: e953 8ebd 7b30 2fbc d8b6 c5bc cf19 03bc
000001d0: b8e6 243c 31d2 40bd 2bca 9d3d b303 893d
000001e0: 963f adbd 0908 3f3d 7872 2bbd ddf0 b9bd
000001f0: 4869 6f3d 0c15 493d d86d d53b ffbc e43d

fc4.weight f4 [2, 128]
-0.12741406 0.13569336 0.008369319 0.089382164 -0.11721944 -0.09079026 0.06831522 -0.05147267
-0.11070882 -0.074401446 0.16625603 -0.1638147 0.07193995 0.059545755 -0.095607646 -0.12541454
0.11121797 -0.088914 -0.053271238 0.0067136413 -0.10174478 -0.06903592 -0.10361091 0.10909397
-0.10800578 -0.0074158483 -0.18848051 0.11088305 -0.09604541 -0.14782518 0.09559577 0.14285475
-0.08934297 -0.019760126 -0.103690356 0.021466073 0.08733567 0.09639644 -0.049562342 -0.2825925
-0.11544955 -0.19874841 -0.07665199 0.0036316128 0.090089045 -0.0851712 -0.09083486 -0.10119041
-0.024050768 0.06957455 -0.03925975 -0.00057555514 0.12582153 0.06340224 0.0019795995 -0.08019629
-0.19417669 -0.13780254 0.035674274 -0.061228074 0.07624928 -0.016011389 -0.051989708 -0.003155798
0.12319743 -0.091542706 -0.11615332 -0.0958798 -0.13819294 0.12351864 -0.12519245 -0.11395094
0.067415625 0.07757522 -0.0772054 -0.14620185 -0.14907867 -0.16677442 0.025622463 -0.069616444
-0.11332652 0.10963133 0.008306662 -0.102578275 -0.09885074 0.1403867 -0.1435455 -0.0538016
0.067339756 0.06565386 -0.08838166 0.07292592 -0.13469504 0.097030595 0.005661027 -0.08992553
-0.06418839 -0.13384484 0.040009927 -0.09729427 0.06390477 -0.10661815 -0.14930129 -0.15127306
0.09699742 0.08893672 -0.17967178 -0.24571188 -0.15332389 -0.059033237 -0.04094928 -0.17140318
0.081941456 -0.13000686 -0.020900648 -0.045439553 0.12560596 -0.06323209 -0.08056173 0.069339365
-0.11542669 0.016723275 -0.0033515699 0.07100471 -0.13531873 0.09235606 -0.15431955 -0.12655853
-0.10901486 0.033447698 0.005276963 0.018735684 -0.07115385 -0.07016709 -0.053522114 -0.084014446
-0.19170348 -0.20670654 0.118053034 -0.1038518 0.04987059 0.027703175 0.24451369 -0.166024
-0.00938628 -0.15278302 0.096418194 -0.086104475 0.121106416 -0.03458747 -0.09028857 -0.013053937
-0.11559819 -0.017897818 -0.15492573 0.054884106 0.07536282 0.04252186 -0.054100294 0.11584594
-0.14383386 -0.08974576 0.31137937 0.0021842504 0.18015583 0.039531555 0.038224682 -0.20078887
-0.064138845 -0.20781408 0.06246374 0.008602446 -0.051072624 -0.07709216 0.007781876 -0.06562034
-0.03600942 0.025440253 -0.09345207 -0.14207563 0.10172293 0.007456062 -0.06791769 -0.17174752
-0.09710518 0.08043966 -0.09126788 0.07397995 0.053529765 -0.19520132 -0.07515954 0.0088871475
0.14573626 -0.05747574 -0.11995073 -0.035759233 -0.07362988 0.112762205 0.09395732 0.021887707
0.022050714 0.14232525 -0.07819473 -0.1319851 0.013964599 -0.09250618 0.060497425 -0.18805745
-0.078068204 0.077903114 0.050024483 -0.16312525 0.09825451 0.08575185 -0.023584457 -0.011597245
0.13484314 0.0027130856 0.029452235 -0.05197839 -0.10348311 0.062200163 0.19975469 -0.020100499
0.086558335 -0.20634364 -0.031080307 -0.14062189 -0.0222969 -0.069770835 0.052756704 0.11144921
-0.11785387 0.20915218 -0.17466478 -0.16519447 0.24040046 -0.14589457 -0.033899892 -0.06415356
0.16671912 0.063611805 -0.06036241 -0.0009353157 0.061724577 0.041419037 -0.050121166 0.0017941649
0.23684418 -0.17908978 0.019068334 0.050832227 -0.06819943 0.14329183 -0.038281415 -0.048254758
00000000: d578 02be 33f3 0a3e 781f 093c ff0d b73d
00000010: bf10 f0bd 3ef0 b9bd dae8 8b3d 02d5 52bd
00000020: 4ebb e2bd c95f 98bd 053f 2a3e 0abf 27be
00000030: 4155 933d 40e6 733d f1cd c3bd ab6c 00be
00000040: 3fc6 e33d 8b18 b6bd f132 5abd 1bfe db3b
00000050: 915f d0bd b462 8dbd f531 d4bd a96c df3d
00000060: 2232 ddbd a500 f3bb 0901 41be a716 e33d
00000070: 75b3 c4bd 7c5f 17be b7c7 c33d 8448 123e
00000080: 72f9 b6bd fddf a1bc 9c5b d4bd 9ed9 af3c
00000090: 0bdd b23d 7f6b c53d e201 4bbd f7af 90be
000000a0: d070 ecbd b484 4bbe b8fb 9cbd 5a00 6e3b
000000b0: 9b80 b83d 3d6e aebd a107 babd eb3c cfbd
000000c0: 1e06 c5bc 1a7d 8e3d d5ce 20bd dae0 16ba
000000d0: 5cd7 003e 09d9 813d 2bbc 013b f43d a4bd
000000e0: 41d6 46be 1c1c 0dbe 301f 123d 4aca 7abd
000000f0: 9528 9c3d 512a 83bc 29f3 54bd 81d1 4ebb
00000100: ef4e fc3d be7a bbbd cbe1 edbd a15c c4bd
00000110: 7382 0dbe 57f7 fc3d 7332 00be 1c5f e9bd
00000120: 3411 8a3d c2df 9e3d dd1d 9ebd f0b5 15be
00000130: 14a8 18be eac6 2abe 33e6 d13c 1193 8ebd
00000140: bc17 e8bd 6486 e03d aa18 083c 8f14 d2bd
00000150: 4272 cabd 88c1 0f3e 97fd 12be 115f 5cbd
00000160: 6de9 893d 8875 863d 7201 b5bd 2f5a 953d
00000170: 7fed 09be fab7 c63d 2380 b93b e02a b8bd
00000180: 3475 83bd 9f0e 09be 73e1 233d 3842 c7bd
00000190: 81e0 823d 9e5a dabd 70e2 18be 53e7 1abe
000001a0: 95a6 c63d 7424 b63d e1fb 37be e59b 7bbe
000001b0: f000 1dbe d6cc 71bd 6fba 27bd 5184 2fbe
000001c0: ecd0 a73d 8520 05be d637 abbc d31e 3abd
000001d0: d99e 003e d37f 81bd 8cfd a4bd cc01 8e3d
000001e0: d464 ecbd 40ff 883c 03a6 5bbb eb6a 913d
000001f0: fe90 0abe 2d25 bd3d f205 1ebe 8f98 01be
00000200: 2f43 dfbd 7400 093d 60ea ac3b 947b 993c
00000210: 1cb9 91bd c3b3 8fbd 013a 5bbd c40f acbd
00000220: eb4d 44be e1aa 53be cac5 f13d 41b0 d4bd
00000230: 1b45 4c3d c5f1 e23c cc61 7a3e 3202 2abe
00000240: e9c8 19bc 2773 1cbe e776 c53d 8b57 b0bd
00000250: a406 f83d 97ab 0dbd 37e9 b8bd 2ee0 55bc
00000260: bebe ecbd 729e 92bc daa4 1ebe 28ce 603d
00000270: d257 9a3d 672b 2e3d 4598 5dbd a340 ed3d
00000280: 2f49 13be a0cc b7bd 1e6d 9f3e a425 0f3b
00000290: c57a 383e d7eb 213d 7c91 1c3d 999b 4dbe
000002a0: 3a5b 83bd 37cd 54be fbd9 7f3d 46f1 0c3c
000002b0: 8731 51bd 7fe2 9dbd 1bff fe3b f563 86bd
000002c0: 9d7e 13bd 1468 d03c cd63 bfbd 467c 11be
000002d0: 1d54 d03d fb51 f43b 6e18 8bbd 95de 2fbe
000002e0: 15df c6bd 8cbd a43d a7ea babd cd82 973d
000002f0: 0742 5b3d dbe2 47be 3fed 99bd 669b 113c
00000300: e33b 153e ae6b 6bbd baa8 f5bd 4678 12bd
00000310: 43cb 96bd dfef e63d b26c c03d d94d b33c
00000320: b3a3 b43c b6bd 113e 8f24 a0bd 1a27 07be
00000330: c6cb 643c e173 bdbd 26cc 773d 2292 40be
00000340: 39e2 9fbd ab8b 9f3d 79e6 4c3d 4e0a 27be
00000350: a939 c93d aa9e af3d 3134 c1bc 5f02 3ebc
00000360: 5214 0a3e 06ce 313b d045 f13c 4be7 54bd
00000370: f4ee d3bd 99c5 7e3d 7e8c 4c3e cda9 a4bc
00000380: 7f45 b13d bf4b 53be 219c febc 2fff 0fbe
00000390: fda7 b6bc 03e4 8ebd 6a17 583d 7c3f e43d
000003a0: 5f5d f1bd fd2b 563e 53db 32be bd28 29be
000003b0: 8a2b 763e 6365 15be 9dda 0abd f162 83bd
000003c0: 6bb8 2a3e e846 823d 933e 77bd f92f 75ba
000003d0: e9d2 7c3d 02a7 293d da4b 4dbd 2f2a eb3a
000003e0: 4887 723e 5063 37be 3235 9c3c 7435 503d
000003f0: 25ac 8bbd 18bb 123e f9cc 1cbd c8a6 45bd

fc4.bias f4 [2]
-0.08171102 0.03218548
00000000: 1b58 a7bd ecd4 033d

fc1.weight f4 [128, 7]
0.28294578 -0.414737 0.1708065 0.2310553 -0.23532674 0.17058821 0.23403883 0.08047668
0.31170326 -0.045290872 0.24757506 0.07652523 0.08742938 0.13537386 -0.35653663 0.108334616
-0.1556433 -0.35627043 -0.2914347 -0.03469091 0.028346227 -0.27992454 0.28187633 0.04356647
0.014481373 -0.13841051 0.01501993 0.38881412 -0.032776218 0.31687397 -0.45786837 -0.034590743
-0.3433988 0.19883934 0.37038645 0.01986945 0.1401149 0.24400087 -0.2851526 0.077346705
-0.33852443 -0.099359736 0.13131872 -0.26044747 0.12714095 -0.23010299 -0.13682453 -0.36504945
-0.22799915 0.01348486 0.12821807 -0.33422202 -0.3422621 0.13655098 0.19619831 0.35970977
-0.12852831 0.15492362 0.40799978 0.15464807 -0.28549716 0.41252345 0.16745715 -0.17233887
-0.29886657 0.28368592 -0.08656799 -0.22791815 -0.19700317 0.122116886 0.16470876 0.4134487
-0.05438479 0.34915814 0.38302204 -0.059293825 -0.4359502 0.11453278 -0.16381706 0.0606288
-0.19184805 -0.6567809 0.44252956 -0.26477647 0.15793079 -0.36833045 0.35532176 -0.17853962
0.35399678 -0.27559012 -0.047553096 0.3138551 0.34016582 -0.20253909 -0.27064762 0.29717776
0.16321321 -0.16914544 0.18799135 -0.32386854 -0.12586993 -0.1300087 0.043972466 0.3863735
-0.11699789 0.12419115 -0.17517656 0.24449766 0.22341353 -0.11190855 0.3942316 -0.17073438
0.050962813 0.22088984 -0.088136904 -0.40894985 0.03171328 -0.24209431 0.24882063 0.4782681
0.18932086 0.30563718 -0.20277396 -0.3479759 0.12164134 -0.20581748 0.098748535 -0.11468977
-0.657156 0.082152285 -0.0018967186 -0.38053107 0.090932876 0.0044574765 -0.25220478 -0.13664971
0.12573409 -0.29830423 -0.18599388 -0.1717035 -0.19060388 -0.18248004 0.18635488 -0.102482066
-0.273606 0.24104953 -0.3263067 -0.18017118 -0.08334815 -0.30783615 -0.028560517 -0.2773768
0.10874765 -0.1313946 0.17163007 0.31071138 -0.18701586 -0.14526063 -0.1644027 -0.12468834
0.2551955 -0.48148802 -0.15473217 -0.08738281 0.14722364 0.33932194 0.2791887 -0.43368143
0.12893873 -0.36930758 -0.24361524 0.09492245 0.13438776 0.008305581 0.049333204 0.038627286
0.027632752 -0.4977524 -0.24211791 -0.0337161 -0.3862077 0.14868158 0.103308834 0.11882341
-0.25801557 0.14221434 0.2792811 0.27439734 -0.15379319 -0.06670514 -0.25151315 0.3878543
-0.25076103 -0.33765095 0.016974472 -0.23510948 0.2538518 0.16390438 -0.09673306 -0.009114477
-0.2126014 0.119373135 0.13620654 -0.30208853 -0.16380556 0.28353864 -0.19416119 0.42692077
-0.16872677 -0.15151373 -0.36071357 0.34040555 -0.37716952 -0.03726294 0.059434526 0.10401916
-0.20751719 -0.08685177 -0.17299777 -0.051476356 -0.14885058 -0.36402485 0.18221433 -0.20525381
-0.20142348 0.25970498 -0.6247319 0.23396137 0.30350697 0.14672484 0.09152053 0.22466786
-0.032303143 -0.45370167 -0.09050205 0.36957574 0.0099027585 0.3569935 -0.052116536 -0.10249163
-0.14940937 -0.12707014 -0.28414208 -0.11758307 0.4558339 0.25937474 0.4572687 -0.08008451
0.24339937 0.24128814 0.31980014 0.29894778 -0.2761996 0.34519464 0.31849962 0.28144193
00000000: 45de 903e 6858 d4be e6e7 2e3e c399 6c3e
00000010: 7ef9 70be adae 2e3e e0a7 6f3e f5d0 a43d
00000020: 9297 9f3e ec82 39bd 5184 7d3e 43b9 9c3d
00000030: 2d0e b33d 729f 0a3e f88b b6be 8ade dd3d
00000040: f560 1fbe 1469 b6be ee36 95be 0e18 0ebd
00000050: 5936 e83c 4552 8fbe 1852 903e c172 323d
00000060: 4843 6d3c 7cbb 0dbe 2716 763c a512 c73e
00000070: 5b40 06bd 4e3d a23e b96d eabe 06af 0dbd
00000080: f8d1 afbe 8a9c 4b3e 4ba3 bd3e 42c5 a23c
00000090: 487a 0f3e 5ddb 793e 86ff 91be f367 9e3d
000000a0: 1353 adbe 1e7d cbbd 6a78 063e 5f59 85be
000000b0: 3d31 023e 1ea0 6bbe bb1b 0cbe c3e7 babe
000000c0: 9c78 69be 9aef 5c3c 994b 033e 261f abbe
000000d0: fa3c afbe 05d4 0b3e 36e8 483e e12b b83e
000000e0: ed9c 03be 4ca4 1e3e 59e5 d03e 105c 1e3e
000000f0: af2c 92be 4636 d33e e379 2b3e 9a79 30be
00000100: 0a05 99be 483f 913e 8f4a b1bd 6063 69be
00000110: 33bb 49be 6b18 fa3d 6aa9 283e 8caf d33e
00000120: 96c2 5ebd dbc4 b23e 771b c43e 15de 72bd
00000130: dd34 dfbe 2a90 ea3d a9bf 27be e855 783d
00000140: d173 44be cb22 28bf 3c93 e23e c890 87be
00000150: 9cb8 213e cf95 bcbe bcec b53e 17d3 36be
00000160: 113f b53e 261a 8dbe 09c7 42bd 9eb1 a03e
00000170: 372a ae3e 6866 4fbe 5392 8abe af27 983e
00000180: 5d21 273e 7634 2dbe ce80 403e 19d2 a5be
00000190: 0ce4 00be 0021 05be 791c 343d bfd2 c53e
000001a0: 979c efbd ee57 fe3d 7c61 33be 985d 7a3e
000001b0: 84c6 643e 4f30 e5bd b9d8 c93e fed4 2ebe
000001c0: 62be 503d f230 623e 1f81 b4bd e061 d1be
000001d0: c9e5 013d 92e7 77be d6ca 7e3e 8edf f43e
000001e0: 54dd 413e 7a7c 9c3e faa3 4fbe e629 b2be
000001f0: 181f f93d d1c1 52be ac3c ca3d 78e2 eabd
00000200: 603b 28bf 753f a83d 519b f8ba f8d4 c2be
00000210: 043b ba3d 0610 923b fc20 81be e7ed 0bbe
00000220: 70c0 003e 55bb 98be 2e75 3ebe 0bd3 2fbe
00000230: aa2d 43be 0cdc 3abe d0d3 3e3e 1ee2 d1bd
00000240: 1616 8cbe b0d5 763e ac11 a7be cb7e 38be
00000250: 6fb2 aabd b39c 9dbe bff7 e9bc 5504 8ebe
00000260: 17b7 de3d 4e8c 06be cbbf 2f3e 9015 9f3e
00000270: 1681 3fbe 34bf 14be 2e59 28be 9a5c ffbd
00000280: fca8 823e 9985 f6be 1c72 1ebe c2f5 b2bd
00000290: cbc1 163e 9bbb ad3e d2f1 8e3e 7e0b debe
000002a0: 8408 043e e215 bdbe 4676 79be b466 c23d
000002b0: f29c 093e 2214 083c 9d11 4a3d a537 1e3d
000002c0: 155e e23c 67d9 febe c2ed 77be e519 0abd
000002d0: 04bd c5be fc3f 183e 9593 d33d b059 f33d
000002e0: 9e1a 84be a3a0 113e effd 8e3e cf7d 8c3e
000002f0: f67b 1dbe b49c 88bd 55c6 80be d794 c63e
00000300: c063 80be 96e0 acbe 0c0e 8b3c 8ac0 70be
00000310: ddf8 813e 8dd6 273e fc1b c6bd e354 15bc
00000320: 2eb4 59be e779 f43d ba79 0b3e 59ab 9abe
00000330: a5bc 27be fa2b 913e 31d2 46be 5c95 da3e
00000340: b6c6 2cbe 6a26 1bbe 73af b8be a349 ae3e
00000350: 5d1c c1be 06a1 18bd 9e71 733d ff07 d53d
00000360: 637f 54be 57df b1bd 5426 31be dfd8 52bd
00000370: 496c 18be 7761 babe 6596 3a3e 0e2e 52be
00000380: f541 4ebe 0df8 843e 6eee 1fbf 9293 6f3e
00000390: 4465 9b3e 093f 163e 1e6f bb3d 550f 663e
000003a0: 4d50 04bd 964b e8be 2459 b9bd 0839 bd3e
000003b0: 2e3f 223c dac7 b63e 2678 55bd 22e7 d1bd
000003c0: c5fe 18be ad1e 02be 127b 91be 65cf f0bd
000003d0: 1063 e93e c4cc 843e 1f1f ea3e 5903 a4bd
000003e0: af3d 793e 3d14 773e d8bc a33e af0f 993e
000003f0: 096a 8dbe 5abd b03e 6212 a33e 2819 903e

fc1.bias f4 [128]
-0.2766979 0.053584334 0.103148796 -0.097448654 0.32744732 -0.33989868 0.039171457 0.1988476
-0.01033791 -0.062470775 0.17102776 0.106451124 -0.38430262 -0.06159021 -0.2299236 -0.25374436
-0.12968223 -0.27602562 0.24284753 0.06641694 -0.21716374 -0.075315766 0.21098347 0.044612106
-0.093742326 0.2154014 0.32792053 0.3429753 0.054957934 0.24659081 -0.2200316 -0.34659618
-0.021220682 0.10808917 0.0038254543 0.3314153 0.27631855 0.2059063 0.037994865 0.009613587
0.31386995 0.2850671 0.0055961665 0.4037318 -0.11362401 0.22863287 0.2158499 0.04811709
-0.33054644 0.1299033 -0.0042594704 -0.36920545 -0.20489433 -0.43120176 -0.07662686 0.09338742
-0.2756977 -0.3262021 -0.3765149 0.33423737 0.10954191 -0.20961036 -0.094428875 -0.07289219
-0.08549985 0.19821604 -0.07052329 -0.15705141 -0.15051407 -0.1015991 0.23378699 0.01084364
-0.17078705 -0.017174933 0.1486488 -0.33466884 0.20081872 0.043008015 0.09071612 -0.1520947
0.28716013 -0.1144362 0.2834913 -0.3098709 -0.041084796 0.30585542 -0.17116526 -0.21787012
0.34681457 0.08211417 -0.07152 -0.2407642 0.3263486 0.37768185 -0.05812918 0.21388693
-0.36437285 0.32673132 0.1210041 -0.02383332 0.12049147 0.35847142 0.20587091 -0.05466736
0.13495582 -0.12202126 -0.1985762 0.2922761 0.2604499 -0.2863848 -0.14874174 0.292967
0.28656155 0.1974182 0.34179398 -0.3392244 -0.008420405 -0.051565703 0.2802539 -0.08746305
0.096025 -0.014573729 -0.19212037 0.09285231 -0.19820343 -0.2051798 0.29868504 -0.29031447
00000000: 59ab 8dbe 3f7b 5b3d ad3f d33d 2993 c7bd
00000010: 2da7 a73e 3307 aebe 4072 203d b59e 4b3e
00000020: 5660 29bc 5be1 7fbd e721 2f3e 0c03 da3d
00000030: 50c3 c4be 0446 7cbd 1871 6bbe c8ea 81be
00000040: 6bcb 04be 3b53 8dbe 06ad 783e 9b05 883d
00000050: 2c60 5ebe 273f 9abd 0d0c 583e 2fbb 363d
00000060: fafb bfbd 2f92 5c3e 33e5 a73e 759a af3e
00000070: 921b 613d 4d82 7c3e f74f 61be 0e75 b1be
00000080: ffd6 adbc db5d dd3d 79b4 7a3b 44af a93e
00000090: a079 8d3e 1ad9 523e 81a0 1b3d 4e82 1d3c
000000a0: 90b3 a03e 51f4 913e 0c60 b73b efb5 ce3e
000000b0: b4b3 e8bd bc1e 6a3e c207 5d3e 6d16 453d
000000c0: 623d a9be 5f05 053e 0793 8bbb 7f08 bdbe
000000d0: d2cf 51be 7ac6 dcbe 8bee 9cbd e741 bf3d
000000e0: 4028 8dbe f603 a7be 90c6 c0be 2921 ab3e
000000f0: 8257 e03d 19a4 56be ed63 c1bd 8048 95bd
00000100: 8c1a afbd 25f9 4a3e 846e 90bd 16d2 20be
00000110: 5c20 1abe 3013 d0bd db65 6f3e 86a9 313c
00000120: cde2 2ebe 72b2 8cbc 6437 183e b759 abbe
00000130: 6ca3 4d3e 2c29 303d 60c9 b93d b7be 1bbe
00000140: a706 933e 875d eabd c625 913e 66a7 9ebe
00000150: 8848 28bd 1599 9c3e f245 2fbe 5819 5fbe
00000160: ae91 b13e 792b a83d 1479 92bd e48a 76be
00000170: 2a17 a73e 845f c13e dd18 6ebd 2d05 5b3e
00000180: 148f babe 5449 a73e ffd0 f73d 183e c3bc
00000190: 3bc4 f63d 9189 b73e d3cf 523e e2ea 5fbd
000001a0: dc31 0a3e 48e6 f9bd 8f57 4bbe 37a5 953e
000001b0: b059 853e 07a1 92be c14f 18be c5ff 953e
000001c0: 32b8 923e ff27 4a3e 9fff ae3e d2ae adbe
000001d0: bdf5 09bc 8f36 53bd 707d 8f3e d41f b3bd
000001e0: c1a8 c43d a6c6 6ebc 34bb 44be 5a29 be3d
000001f0: d7f5 4abe a71a 52be 3fed 983e 19a4 94be

fc2.weight f4 [128, 128]
0.1984207 -0.023153286 -0.0021160562 -0.053779624 -0.043324962 -0.0507785 -0.07250786 -0.032664932
-0.004830052 0.046412587 -0.04290859 0.19694966 -0.030139424 0.10253545 0.04844957 0.09549172
0.021106174 0.13943526 0.032322004 -0.025867501 0.032200836 0.014399945 -0.013547036 -0.06511681
-0.12063028 -0.08991586 0.06474114 0.08333198 0.090663716 -0.11608923 0.051567953 -0.006857798
-0.06871509 -0.06107198 -0.05791761 -0.06367331 0.07432287 0.030072687 0.17685732 -0.02033523
0.13538326 -0.0019894654 0.06392859 0.1709477 0.018737897 0.005599405 -0.036384024 -0.01333502
0.005702869 -0.06434345 -0.10216214 -0.0382364 0.08091889 -0.07552639 0.073144615 -0.01768758
0.0015172759 -0.04597353 0.045161318 0.005695275 0.12044768 -0.24928527 -0.044903666 0.10337941
-0.18877883 -0.017368548 0.024065398 0.12642989 -0.08626096 0.07637762 -0.024569264 -0.046512205
0.016893126 -0.0150166415 -0.11034807 0.21736921 0.008300955 0.15747447 0.12139158 -0.048107635
-0.0140674915 -0.2284924 0.002876038 0.034845497 0.19361806 -0.019806402 0.033079986 0.06810423
0.112171784 0.10788544 0.031335562 0.010398713 0.05893513 -0.018716129 -0.049235083 0.014134127
0.048433747 -0.06225864 -0.0075924825 0.012409059 -0.11650004 -0.057486434 0.1981466 0.08373667
-0.13302816 -0.052455485 0.085850395 -0.030230982 0.17820169 0.1086329 0.13649333 -0.039030347
-0.11187368 0.0168505 0.21271612 -0.14958689 -0.027709397 0.06771885 0.068395756 -0.057579596
-0.10414069 0.08094412 0.17812213 0.055438578 -0.12137746 -0.02858047 0.11447167 0.050396007
-0.120901145 0.054970473 0.04401094 0.07137832 -0.09461283 -0.08399237 -0.08820226 -0.0360666
-0.053742092 0.0883572 0.07919747 -0.047879476 -0.08625961 0.06893523 -0.13816488 0.087699614
0.0839667 -0.06420706 0.0786128 0.06473647 0.05707611 -0.017779522 -0.13459046 -0.014614644
-0.017334057 -0.059474487 0.025242487 0.028968124 -0.037521712 0.13984624 -0.016743952 -0.025041107
-0.083355844 -0.00873095 -0.17526235 0.11222942 -0.01771179 0.22083007 -0.18645698 -0.030114423
0.16993736 0.09416292 0.017813003 -0.09447299 0.08585965 0.07041691 0.0077966964 -0.0125495065
-0.04913721 -0.08160074 -0.122958645 0.08257179 0.08247603 0.0710827 -0.0059167063 0.14566267
-0.06483781 0.08777608 0.083293974 0.09075029 0.012219782 0.26487514 0.17030479 0.08022181
0.18070571 0.024735717 -0.08092632 0.14369054 0.048862897 0.1390927 0.110550016 -0.09158194
0.08588141 0.43982336 0.010492516 -0.13079564 0.045230456 -0.07856568 -0.09948049 -0.006029665
-0.059760895 0.24540135 -0.06966455 -0.0019872633 -0.23587145 0.046621803 -0.05342784 -0.11136516
-0.022534136 0.010165031 0.016164947 -0.072362565 0.09069571 0.023690179 -0.073507294 0.01946963
-0.0066747754 0.079852246 0.06415488 0.054973852 -0.08269859 -0.029592285 -0.008522113 0.2185438
0.26557836 -0.023699082 0.050994564 0.040855385 0.0758532 -0.29699573 0.027688274 -0.14428066
0.09905245 -0.07089464 -0.002860404 -0.06363379 -0.013853545 -0.043401875 0.046691705 0.017389894
-0.035490677 0.04664753 -0.09739131 0.05010175 -0.12214424 0.060940187 0.030406173 -0.0560758
00000000: cc2e 4b3e f6ab bdbc 88ad 0abb 0648 5cbd
00000010: 8475 31bd 1efd 4fbd 007f 94bd aacb 05bd
00000020: 6a45 9ebb 201b 3e3d ebc0 2fbd 2cad 493e
00000030: f4e6 f6bc 1bfe d13d 0e73 463d 2a91 c33d
00000040: dbe6 ac3c 1ec8 0e3e 1464 043d 15e8 d3bc
00000050: 06e5 033d bfed 6b3c 63f4 5dbc f65b 85bd
00000060: 020d f7bd ce25 b8bd 0197 843d f5a9 aa3d
00000070: e6ad b93d 31c0 edbd eb38 533d 61b7 e0bb
00000080: 7fba 8cbd 9d26 7abd 043b 6dbd 2767 82bd
00000090: 9736 983d ff5a f63c 161a 353e 1196 a6bc
000000a0: e9a1 0a3e b161 02bb feec 823d ea0c 2f3e
000000b0: 3880 993c 377b b73b 6a07 15bd 217b 5abc
000000c0: 22df ba3b 80c6 83bd 623a d1bd c59d 1cbd
000000d0: ceb8 a53d 94ad 9abd d8cc 953d 8be5 90bc
000000e0: 55df c63a bd4e 3cbd 13fb 383d 6e9f ba3b
000000f0: 46ad f63d a344 7fbe e8ec 37bd 96b8 d33d
00000100: 3d4f 41be 7c48 8ebc cc24 c53c d676 013e
00000110: 96a9 b0bd df6b 9c3d 7b45 c9bc 9583 3ebd
00000120: 7463 8a3c 5c08 76bc 2bfe e1bd 0996 5e3e
00000130: bb00 083c fd40 213e 269c f83d 830c 45bd
00000140: 567b 66bc e9f9 69be e97b 3c3b 27ba 0e3d
00000150: d043 463e 0941 a2bc e17e 073d 3b7a 8b3d
00000160: 52ba e53d 0bf3 dc3d b859 003d 5d5f 2a3c
00000170: f665 713d 9152 99bc baaa 49bd d392 673c
00000180: 7762 463d ea02 7fbd 5cca f8bb 5e4f 4b3c
00000190: 9397 eebd e576 6bbd f1e6 4a3e 227e ab3d
000001a0: 8938 08be 90db 56bd 55d2 af3d f7a6 f7bc
000001b0: 817a 363e ed7a de3d e8c4 0b3e 49de 1fbd
000001c0: 071e e5bd 0f0a 8a3c 41d2 593e 4e2d 19be
000001d0: d1fe e2bc 2eb0 8a3d 1313 8c3d 95d8 6bbd
000001e0: b747 d5bd 08c6 a53d a665 363e 9013 633d
000001f0: bf94 f8bd 9721 eabc 1f70 ea3d 0b6c 4e3d
00000200: 059b f7bd b828 613d d144 343d cc2e 923d
00000210: 5fc4 c1bd 3104 acbd 63a3 b4bd 92ba 13bd
00000220: ab20 5cbd 9ff4 b43d 4832 a23d 451d 44bd
00000230: e1a8 b0bd ea2d 8d3d 187b 0dbe db9b b33d
00000240: bcf6 ab3d fe7e 83bd bfff a03d 8e94 843d
00000250: a4c8 693d 5ca6 91bc 15d2 09be 4372 6fbc
00000260: 2700 8ebc 859b 73bd 55c9 ce3c 8f4e ed3c
00000270: 5eb0 19bd da33 0f3e 9d2a 89bc 0223 cdbc
00000280: 78b6 aabd 420c 0fbc f977 33be 8ad8 e53d
00000290: 5118 91bc 4721 623e 94ee 3ebe 86b2 f6bc
000002a0: 0f04 2e3e 7dd8 c03d 93ec 913c 0e7b c1bd
000002b0: 2fd7 af3d be36 903d 6e7b ff3b 729c 4dbc
000002c0: 1944 49bd 4a1e a7bd bed1 fbbd 661b a93d
000002d0: 31e9 a83d ce93 913d eee0 c1bb 9828 153e
000002e0: b0c9 84bd f2c3 b33d 0896 aa3d 4adb b93d
000002f0: 7b35 483c b79d 873e 6164 2e3e 554b a43d
00000300: eb0a 393e 8fa2 ca3c b3bc a5bd 9d23 133e
00000310: 7624 483d 516e 0e3e 0c68 e23d 508f bbbd
00000320: 98e2 af3d 8730 e13e cde8 2b3c 4bef 05be
00000330: 9243 393d 0be7 a0bd 6dbc cbbd 7f94 c5bb
00000340: d7c7 74bd 7e4a 7b3e 4aac 8ebd bf3c 02bb
00000350: 4988 71be 81f6 3e3d 27d7 5abd 6b13 e4bd
00000360: 8299 b8bc 3b8b 263c 5a6c 843c d332 94bd
00000370: acbe b93d e811 c23c fe8a 96bd c67e 9f3c
00000380: 13b8 dabb 9389 a33d a263 833d 432c 613d
00000390: e15d a9bd 856b f2bc 55a0 0bbc f2c9 5f3e
000003a0: e3f9 873e 9424 c2bc addf 503d fa57 273d
000003b0: ec58 9b3d d30f 98be 85d2 e23c 4fbe 13be
000003c0: 03dc ca3d 3631 91bd 9e75 3bbb 6f52 82bd
000003d0: fbf9 62bc 2ac6 31bd cd3f 3f3d 4075 8e3c
000003e0: ac5e 11bd 7b11 3f3d 1875 c7bd 7e37 4d3d
000003f0: c226 fabd 6b9c 793d 5e16 f93c bdaf 65bd
