flappybird_dqn_ep20.pth (torch, 561683 bytes, 32 tensors)

fc1.weight f4 [128, 7]
0	0x3e9894e5	0.29801098
1	0xbe9ee256	-0.31032056
2	0x3e2964aa	0.16542307
3	0x3e7bc159	0.24585475
4	0xbe442e8b	-0.1915838
5	0x3e27b9af	0.16379426
6	0x3e5de6e8	0.21670115
7	0x3dc48082	0.095948234
8	0x3e4ad1e1	0.19806625
9	0xbd884c18	-0.06655139
10	0x3ea1015f	0.3144636
11	0x3e0d714d	0.13812752
12	0x3dee185d	0.11625741
13	0x3e429a40	0.19004154
14	0xbeb68bf8	-0.35653663
15	0x3dddde8a	0.108334616
16	0xbe1f60f5	-0.1556433
17	0xbeb66914	-0.35627043
18	0xbe9536ee	-0.2914347
19	0xbd0e180e	-0.03469091
20	0x3ce83659	0.028346227
21	0xbe81ca28	-0.25349545
22	0x3e4a8966	0.19778976
23	0x3d80c63a	0.06287809
24	0x3d17fa46	0.037103914
25	0xbe2ff590	-0.17183518
26	0x3d1cbef6	0.038268052
27	0x3ebb6213	0.36598262
28	0xbd4e52ca	-0.050371923
29	0x3eaf6878	0.3425939
30	0xbef925ea	-0.4866174
31	0xbcb5c0af	-0.022186605
32	0xbeaac8f2	-0.33356434
33	0x3e33b441	0.1754923
34	0x3eafdadf	0.34346673
35	0x3ca2c542	0.01986945
36	0x3e0f7a48	0.1401149
37	0x3e79db5d	0.24400087
38	0xbe91ff86	-0.2851526
39	0x3d9e67f3	0.077346705
40	0xbead5313	-0.33852443
41	0xbdcb7d1e	-0.099359736
42	0x3e06786a	0.13131872
43	0xbe85595f	-0.26044747
44	0x3e02313d	0.12714095
45	0xbe6ba01e	-0.23010299
46	0xbe0c1bbb	-0.13682453
47	0xbebae7c3	-0.36504945
48	0xbe69789c	-0.22799915
49	0x3cfd48a8	0.030918434
50	0x3db03675	0.08604137
51	0xbeabae7c	-0.3353156
52	0xbe98d8b4	-0.2985283
53	0x3e4544ff	0.19264601
54	0x3e5408c2	0.20706466
55	0x3eb0ff16	0.34569615
56	0xbe119fe4	-0.1422115
57	0x3e41cc13	0.18925504
58	0x3eb3fa28	0.35151792
59	0x3e176e33	0.14788131
60	0xbe8f0973	-0.27936897
61	0x3ec2cbf4	0.3804623
62	0x3dfed158	0.12442273
63	0xbe30799a	-0.17233887
64	0xbe99050a	-0.29886657
65	0x3e913f48	0.28368592
66	0xbdb14a8f	-0.08656799
67	0xbe696360	-0.22791815
68	0xbe49bb33	-0.19700317
69	0x3dfa186b	0.122116886
70	0x3e1418f6	0.14462647
71	0x3ebce88f	0.36896178
72	0xbe18af3c	-0.14910597
73	0x3eb584bb	0.35452828
74	0x3ec3c08e	0.38232845
75	0xbd9baed3	-0.076017044
76	0xbecefa57	-0.4042537
77	0x3d60b8cd	0.05486374
78	0x3e6595a9	0.22420372
79	0x3aa7f89f	0.0012815184
80	0xbe724335	-0.2365845
81	0xbf179f63	-0.5922758
82	0x3ec52270	0.38502836
83	0xbea40fb2	-0.32043225
84	0x3e311ba6	0.17295703
85	0xbebc95cf	-0.36833045
86	0x3ebd9fea	0.37036067
87	0xbe2770c0	-0.16351604
88	0x3ebcf21c	0.36903465
89	0xbe8566f8	-0.2605512
90	0xbd053a0d	-0.032526065
91	0x3ea6a914	0.3255087
92	0x3ea10388	0.31448007
93	0xbe77bf21	-0.24194004
94	0xbe883559	-0.266032
95	0x3e96aab9	0.29427126
96	0x3e349b35	0.17637332
97	0xbe16b18b	-0.14716165
98	0x3e254ed1	0.16143347
99	0xbe9d0faa	-0.30676013
100	0xbdfdb43e	-0.12387894
101	0xbe176228	-0.14783537
102	0x3d3f3706	0.046683334
103	0x3ebfef11	0.3748708
104	0xbdc64ad6	-0.096822426
105	0x3d88bea4	0.06676987
106	0xbe086499	-0.13319625
107	0x3e8c1bc4	0.27364933
108	0x3e46aace	0.19401094
109	0xbdbb033e	-0.09131478
110	0x3eb8c6b4	0.36089098
111	0xbe3539c8	-0.17697823
112	0x3d50c03d	0.050964583
113	0x3e623167	0.22089158
114	0xbdb48065	-0.08813552
115	0xbed161ac	-0.4089483
116	0x3d01e6f8	0.03171441
117	0xbe77e728	-0.24209273
118	0x3e7ecb3f	0.2488222
119	0x3edb124e	0.42787403
120	0x3e9af594	0.30265486
121	0x3e8cf7a3	0.27532682
122	0xbe6e3e9f	-0.23266076
123	0xbe66e129	-0.2254683
124	0x3dbb36b7	0.091412954
125	0xbe7be7c6	-0.24600133
126	0x3de60008	0.11230475
127	0xbddc97b0	-0.107711196
128	0xbeffb930	-0.49945974
129	0x3dd1e67b	0.10249039
130	0xbb199e09	-0.0023440144
131	0xbeb855c2	-0.36002928
132	0x3dfa0a88	0.1220904
133	0x3b921006	0.0044574765
134	0xbe8120fc	-0.25220478
135	0xbe0bede7	-0.13664971
136	0x3e00c070	0.12573409
137	0xbe98bb55	-0.29830423
138	0xbe3e752e	-0.18599388
139	0xbe2fd30b	-0.1717035
140	0xbe432daa	-0.19060388
141	0xbe3adc0c	-0.18248004
142	0x3e3ed3d0	0.18635488
143	0xbdd1e21e	-0.102482066
144	0xbe8c1616	-0.273606
145	0x3e76d5b0	0.24104953
146	0xbea711ac	-0.3263067
147	0xbe387ecb	-0.18017118
148	0xbdaab26f	-0.08334815
149	0xbe9d9cb3	-0.30783615
150	0xbce9f7bf	-0.028560517
151	0xbe8e0455	-0.2773768
152	0x3ddeb717	0.10874765
153	0xbe068c4e	-0.1313946
154	0x3e17f199	0.14838256
155	0x3ead4835	0.33844152
156	0xbe2dac3c	-0.16960233
157	0xbe11ee1b	-0.14250986
158	0xbe0d3e4c	-0.13793296
159	0xbdfb1157	-0.12259167
160	0x3e75a218	0.23987615
161	0xbecdfa25	-0.40229908
162	0xbdfac1aa	-0.1224397
163	0xbe80128c	-0.2501415
164	0x3e1803a9	0.14845146
165	0x3e99f6f2	0.30071217
166	0x3e872863	0.26398
167	0xbec1ba59	-0.37837484
168	0x3ddbcce8	0.10732442
169	0xbeafd2c3	-0.34340486
170	0xbe96d36c	-0.29458177
171	0x3d82432f	0.063604705
172	0x3dd09ac2	0.10185768
173	0xbc850e0d	-0.016242051
174	0x3d7fdcf7	0.062466588
175	0x3d2de43c	0.04245399
176	0x3d1b1dc6	0.03787019
177	0xbed3cf20	-0.4136896
178	0xbe71c3ea	-0.23609892
179	0xbce760d7	-0.028244419
180	0xbec0af45	-0.3763372
181	0x3e15eed5	0.14641888
182	0x3dc70c75	0.09719173
183	0x3dbe6767	0.09297066
184	0xbe89276b	-0.26787886
185	0x3e2ea731	0.17055966
186	0x3ea28d93	0.31748638
187	0x3e941335	0.28920904
188	0xbdd1562d	-0.10221515
189	0xbdf3d561	-0.11905933
190	0xbe93650f	-0.2878804
191	0x3ec4054b	0.38285288
192	0xbe74135d	-0.23835512
193	0xbe95d5ce	-0.29264683
194	0x3ce1b83f	0.027553676
195	0xbe522fd3	-0.20526056
196	0x3e60528f	0.21906494
197	0x3e4aab38	0.19791877
198	0xbdbaf15d	-0.09128068
199	0xbc8999d7	-0.01679699
200	0xbe3d424f	-0.18482326
201	0x3ddbb043	0.10726979
202	0x3e147ee4	0.1450153
203	0xbe8ba6e0	-0.27275753
204	0xbe72040f	-0.2363436
205	0x3e81c8aa	0.25348407
206	0xbe480547	-0.19533263
207	0x3ea396ab	0.31950888
208	0xbe3c8df8	-0.18413532
209	0xbe1a3308	-0.1505853
210	0xbeb8af73	-0.36071357
211	0x3eae49a3	0.34040555
212	0xbec11c5d	-0.37716952
213	0xbd18a106	-0.03726294
214	0x3d73719e	0.059434526
215	0x3dd507ff	0.10401916
216	0xbe547f63	-0.20751719
217	0xbdb1df57	-0.08685177
218	0xbe312654	-0.17299777
219	0xbd52d8df	-0.051476356
220	0xbe186c49	-0.14885058
221	0xbeba6177	-0.36402485
222	0x3e3a9665	0.18221433
223	0xbe522e0e	-0.20525381
224	0xbe340b92	-0.17582539
225	0x3e9317e3	0.28729162
226	0xbf099499	-0.5374237
227	0x3e6e46b7	0.23269163
228	0x3e94a3c4	0.29031193
229	0x3e1a6c6b	0.1508042
230	0x3e09e6f1	0.13467003
231	0x3e70673b	0.2347688
232	0xbc7c66c3	-0.01540536
233	0xbeeecf17	-0.46642372
234	0xbdbf9126	-0.09353857
235	0x3eb1b4ba	0.34708196
236	0xbadd4129	-0.0016880381
237	0x3eae9ea9	0.34105423
238	0xbd5ada4f	-0.05343085
239	0xbe1dcf48	-0.15411103
240	0xbe0b64bb	-0.13612644
241	0xbdd073cd	-0.10178337
242	0xbe7fd08c	-0.24981898
243	0xbdd09f51	-0.10186637
244	0x3eddd280	0.4332466
245	0x3e921fae	0.28539795
246	0x3eb6706b	0.35632643
247	0xbd915f9c	-0.07098314
248	0x3e96f840	0.29486275
249	0x3e9a81fc	0.30177295
250	0x3eb3937f	0.35073468
251	0x3ea277fc	0.31732166
252	0xbe813fb6	-0.2524392
253	0x3e93983f	0.28827092
254	0x3e9a1f39	0.30101946
255	0x3e9c210a	0.30493957

fc1.bias f4 [128]
0	0xbe7e5022	-0.24835256
1	0x3dc566c1	0.096387394
2	0x3dd33fad	0.103148796
3	0xbda4ee18	-0.08053225
4	0x3ea72947	0.3264868
5	0xbeae0733	-0.33989868
6	0x3d207240	0.039171457
7	0x3e665fdd	0.22497506
8	0xbc4658f1	-0.012106166
9	0xbd7fe15b	-0.062470775
10	0x3e274459	0.16334666
11	0x3d5c6462	0.05380667
12	0xbebd1022	-0.3692637
13	0xbd6e6746	-0.058203958
14	0xbe7a4cd0	-0.24443364
15	0xbe84f90f	-0.25971267
16	0xbe04caff	-0.12968062
17	0xbe9cb16a	-0.30604106
18	0x3e7d5af2	0.24741724
19	0x3d88059b	0.06641694
20	0xbe5e602c	-0.21716374
21	0xbd9a3f27	-0.075315766
22	0x3e5e49d9	0.21707858
23	0x3d03dcf3	0.032193135
24	0xbe00c21b	-0.12574045
25	0x3e62dbd1	0.22154166
26	0x3eb1b89d	0.3471116
27	0x3eb1fd2f	0.34763476
28	0x3d5a7cc5	0.053341646
29	0x3e6cac80	0.23112679
30	0xbe614ff7	-0.2200316
31	0xbeb1750e	-0.34659618
32	0xbcc918a9	-0.024547892
33	0x3dc3899a	0.0954773
34	0x3c8b9c6f	0.017042367
35	0x3ebcc581	0.36869434
36	0x3e945c80	0.28976822
37	0x3e4c260e	0.19936392
38	0x3d4dbbf3	0.05022807
39	0x3c8772ac	0.016534172
40	0x3eae89b8	0.34089446
41	0x3e842cbf	0.2581539
42	0x3cb498d4	0.02204553
43	0x3ecd6231	0.40113977
44	0xbd767dac	-0.060178444
45	0x3e821b67	0.2541153
46	0x3e74af04	0.23894888
47	0x3d4fcb23	0.050730836
48	0xbea93d62	-0.33054644
49	0x3e05055f	0.1299033
50	0x3b3a56f9	0.0028433187
51	0xbebd087f	-0.36920545
52	0xbe51cfd2	-0.20489433
53	0xbed1d649	-0.409838
54	0xbd2d4b9c	-0.042308435
55	0x3dcb7192	0.09933771
56	0xbe8d2840	-0.2756977
57	0xbea703f6	-0.3262021
58	0xbec0c690	-0.3765149
59	0x3eba7061	0.36413863
60	0x3df7b7ec	0.12095627
61	0xbe5ea67b	-0.21743195
62	0xbde91224	-0.11380413
63	0xbd6288ad	-0.055306125
64	0xbda3f494	-0.08005634
65	0x3e589ae7	0.2115284
66	0xbd906e84	-0.07052329
67	0xbe27f385	-0.16401489
68	0xbe1a205c	-0.15051407
69	0xbdbeaaec	-0.093099445
70	0x3e7ae2f7	0.24500643
71	0x3c9a921e	0.018868502
72	0xbe2c36c1	-0.16817762
73	0xbc849cf5	-0.016188124
74	0x3e164d10	0.14677835
75	0xbeb61e31	-0.3556991
76	0x3e5288a2	0.20559934
77	0x3d70d27f	0.058794495
78	0x3db1c590	0.0868026
79	0xbe1bbeb7	-0.1520947
80	0x3e99f99b	0.30073246
81	0xbde48bad	-0.111594535
82	0x3e98f664	0.2987548
83	0xbe976b87	-0.29574224
84	0xbcd1f926	-0.025631499
85	0x3ea3557e	0.31901163
86	0xbe2f45f2	-0.17116526
87	0xbe58d455	-0.21174748
88	0x3ec53062	0.38513476
89	0x3dabc8b4	0.083878905
90	0xbd6a74c7	-0.057240274
91	0xbe768ae4	-0.2407642
92	0x3eabb1d8	0.33534122
93	0x3ec2364a	0.37932044
94	0xbd6e18dd	-0.05812918
95	0x3e55365b	0.20821516
96	0xbeba8f14	-0.36437285
97	0x3eaa1c3d	0.3322467
98	0x3df743d9	0.12073488
99	0xbdaacbec	-0.08339676
100	0x3e0bb8da	0.13644734
101	0x3ebf2039	0.3732927
102	0x3e5cf718	0.21578634
103	0xbd9d949b	-0.0769436
104	0x3dc89a1e	0.097950205
105	0xbe06782c	-0.1313178
106	0xbe3ccc17	-0.18437229
107	0x3e9c8fd6	0.30578488
108	0x3e83313d	0.25623503
109	0xbe8b52f7	-0.27211735
110	0xbe349654	-0.1763547
111	0x3e9ad1ef	0.30238292
112	0x3e96a7b6	0.29424828
113	0x3e80403b	0.25049004
114	0x3eb3da9e	0.3512773
115	0xbeab4399	-0.3345001
116	0x3b4e6e88	0.0031498987
117	0xbd53368f	-0.051565703
118	0x3e8f1b6a	0.27950603
119	0xbd4d6abe	-0.050150625
120	0x3ddc4788	0.10755831
121	0xbc6ec149	-0.01457245
122	0xbe3a4e5b	-0.18193953
123	0x3dcb5629	0.09928543
124	0xbe63603e	-0.22204682
125	0xbe49e5e8	-0.19716609
126	0x3eaab55b	0.33341488
127	0xbe94a419	-0.29031447

fc2.weight f4 [128, 128]
0	0x3e18263e	0.14858338
1	0xbc9b3b31	-0.018949123
2	0xbb0aad88	-0.0021160562
3	0x3ca8649e	0.02055579
4	0xbd3226ff	-0.04349422
5	0xbd4ffd1e	-0.0507785
6	0xbd947f00	-0.07250786
7	0xbb31aa55	-0.0027109582
8	0xbca2e813	-0.019886052
9	0x3d3e1b20	0.046412587
10	0xbd16bc27	-0.03680053
11	0x3daca09b	0.084290706
12	0xbc889ce7	-0.01667638
13	0x3d8d7260	0.06906581
14	0x3ae068cf	0.0017121079
15	0x3d6fb36e	0.058520727
16	0x3cace4f7	0.021105273
17	0x3d1abedf	0.037779685
18	0x3d3624b6	0.044468604
19	0xbcd3e815	-0.025867501
20	0x3d03e506	0.032200836
21	0x3c6bedbf	0.014399945
22	0xbd161a78	-0.036646336
23	0xbd6791fa	-0.0565357
24	0xbdcc3d8e	-0.09972678
25	0xbdaaad5c	-0.08333847
26	0x3d94fb4f	0.07274496
27	0x3d4fe673	0.050756883
28	0x3d56efa2	0.052474625
29	0xbd0c138d	-0.034198333
30	0x3d5338eb	0.051567953
31	0xbbe0b761	-0.006857798
32	0xbd848940	-0.06471491
33	0xbc9a0a7a	-0.018803824
34	0x3b9bcc67	0.0047545913
35	0xbd728abb	-0.059214335
36	0x3dab1100	0.08352852
37	0x3db8658d	0.09003744
38	0x3db9b30c	0.090673536
39	0xbcaf902b	-0.02143105
40	0x3de0a129	0.10968239
41	0xbc708015	-0.014678975
42	0x3cbcd6e6	0.02305169
43	0x3dcf92cd	0.10135422
44	0x3d2ecb8e	0.042674594
45	0x3c86c7b4	0.016452648
46	0xbd4a8f6d	-0.049453188
47	0x3c5b07f0	0.013368592
48	0x3bbadf22	0.005702869
49	0xbd83c680	-0.06434345
50	0xbd829677	-0.06376355
51	0xbd1c9dc5	-0.0382364
52	0x3da5b8ce	0.08091889
53	0x3d8bb25d	0.068211295
54	0x3dbabc68	0.09117967
55	0xbc35018a	-0.01104773
56	0x3ac6df55	0.0015172759
57	0xbd3c4ebd	-0.04597353
58	0x3d38fb13	0.045161318
59	0xbb316395	-0.0027067412
60	0x3d4fa32d	0.050692726
61	0xbc452bc3	-0.012034359
62	0xbc7080bb	-0.014679129
63	0x3dbb62be	0.09149693
64	0xbcb511cd	-0.022103215
65	0xbabe065f	-0.0014497748
66	0x3cc524cc	0.024065398
67	0x3e1d1038	0.15338218
68	0xbdb0a996	-0.08626096
69	0x3dac74dc	0.08420727
70	0xbc9d47fa	-0.01919936
71	0xbcf51191	-0.029915603
72	0x3b7bf1dc	0.003844372
73	0x3bf10fdf	0.0073566283
74	0xbd641cc5	-0.0556915
75	0x3deb790d	0.11497698
76	0x3d544f8d	0.051833678
77	0x3df1cb07	0.118063025
78	0x3d0c766f	0.034292635
79	0xbd450c83	-0.048107635
80	0xbb8d9271	-0.0043204357
81	0xbdb24222	-0.0870402
82	0x3d5ebd74	0.054379895
83	0x3d3a0b0e	0.0454207
84	0x3dc16d07	0.094446234
85	0x3d2282d0	0.039675534
86	0x3d077ee1	0.033079986
87	0xbc1b31a3	-0.009472284
88	0x3d88a12e	0.066713676
89	0x3de0c6f3	0.109754466
90	0x3b7dd998	0.0038734432
91	0x3c2a5f5d	0.010398713
92	0x3d5b32a3	0.053515088
93	0xbc50a75f	-0.012735217
94	0xbd49aaba	-0.049235083
95	0x3dac02bf	0.08398961
96	0x3d466277	0.048433747
97	0xbd2152d1	-0.03938562
98	0x3d2f53a4	0.042804375
99	0x3d8f05ac	0.06983504
100	0xbdd28615	-0.1027948
101	0xbd223921	-0.039605264
102	0x3e0e5bf5	0.13902266
103	0x3d3d7ef5	0.046263654
104	0xbdaddcb2	-0.0848936
105	0xbcea3cf5	-0.02859352
106	0x3de61007	0.11233526
107	0x3cd85af2	0.026410554
108	0x3e0b5044	0.13604838
109	0x3d339934	0.043847278
110	0x3d9b7a42	0.07591678
111	0xbd837a59	-0.0641982
112	0xbd91e063	-0.071228765
113	0xbaeda4a6	-0.0018130734
114	0x3e22c6f9	0.15896215
115	0xbdb7e891	-0.089799054
116	0xbd63df0a	-0.05563263
117	0x3d8ab02e	0.06771885
118	0x3c96186d	0.018322194
119	0x3c803ab9	0.015653001
120	0xbd949a92	-0.072560444
121	0x3da5c58f	0.08094322
122	0x3dca0018	0.09863299
123	0x3d956e94	0.07296482
124	0xbdf84633	-0.121227644
125	0xbcd75b0b	-0.02628853
126	0x3db5b1a0	0.0887177
127	0x3d4e6c0b	0.050396007
128	0xbdcc0f4b	-0.099638544
129	0x3d2a6bb6	0.041606627
130	0x3d3444d1	0.04401094
131	0xbd38f850	-0.045158684
132	0xbdbc5e26	-0.09197645
133	0xbdac0431	-0.08399237
134	0xbdb4a363	-0.08820226
135	0xbd28eeef	-0.04124349
136	0xbd817456	-0.063210174
137	0x3db4f49f	0.0883572
138	0x3cc08a03	0.02350331
139	0xbc71d5b7	-0.014760426
140	0xbd937396	-0.07199781
141	0x3cd29b57	0.025708837
142	0xbdbbfb49	-0.09178788
143	0x3da775aa	0.081767395
144	0x3dabf6bc	0.0839667
145	0xbc229636	-0.009923508
146	0x3db195a6	0.08671121
147	0x3d84948e	0.06473647
148	0x3d69c8a4	0.05707611
149	0xbc91a65c	-0.017779522
150	0xbdf1932c	-0.11795649
151	0x3d56be81	0.052427772
152	0x3d0126d1	0.03153116
153	0xbd6f4ad2	-0.058420964
154	0x3c479daf	0.012183591
155	0x3cf49b22	0.02985913
156	0xbcf1888c	-0.029484056
157	0x3deb5cbf	0.11492299
158	0xbc892a9d	-0.016743952
159	0xbccd2302	-0.025041107
160	0xbd9d2ee1	-0.07674957
161	0xbcc14e46	-0.023596894
162	0xbdfd363c	-0.1236386
163	0x3dcbec66	0.09957199
164	0xbd3591e4	-0.044328585
165	0x3dfb2050	0.122620225
166	0xbdbfb3be	-0.09360455
167	0xbab3bc3a	-0.0013712712
168	0x3e100a28	0.14066374
169	0x3e113a9c	0.14182514
170	0x3c907bcb	0.017637154
171	0xbd9413cc	-0.072303385
172	0x3db479cc	0.088122934
173	0x3d6db6c2	0.05803562
174	0x3c894f4b	0.016761443
175	0xbc013d17	-0.0078881
176	0xbd494419	-0.04913721
177	0xbda71e4a	-0.08160074
178	0xbe25791b	-0.1615948
179	0x3da91b66	0.08257179
180	0x3da8e931	0.08247603
181	0x3c71e4a2	0.014763983
182	0xbbc70ba8	-0.0060743876
183	0x3dd9aa26	0.10628156
184	0xbd84c9b0	-0.06483781
185	0x3db3c3f2	0.08777608
186	0x3daa9608	0.083293974
187	0x3dbbc671	0.09168709
188	0x3d34b954	0.044122055
189	0x3e08cb85	0.13358887
190	0xbb890ee5	-0.004182684
191	0x3d79604a	0.060882844
192	0x3dad1469	0.084511586
193	0x3d20f1c2	0.03929306
194	0xbda5bcb3	-0.08092632
195	0x3d39098e	0.045175128
196	0x3d482476	0.048862897
197	0xbb9231a6	-0.004461485
198	0x3d808072	0.06274499
199	0xbda9dbad	-0.08293853
200	0x3d676d65	0.05650081
201	0x3e8d559a	0.2760437
202	0x3bdaccf8	0.006677266
203	0xbd703d8f	-0.058652457
204	0x3d55d1e4	0.05220212
205	0xbd917183	-0.07101729
206	0xbd253f73	-0.040343713
207	0xbbc5947f	-0.006029665
208	0xbd4923ba	-0.049106337
209	0x3e23b46b	0.15986793
210	0xbd8ba454	-0.068184525
211	0xbc6dd1b7	-0.014515332
212	0xbe005ced	-0.12535448
213	0x3c132158	0.008980118
214	0xbd5ad727	-0.05342784
215	0xbd543ac0	-0.05181384
216	0xbcbde612	-0.023180995
217	0xbd4d4330	-0.050112903
218	0x3c217fe2	0.00985715
219	0xbd9432d3	-0.072362565
220	0x3da47d68	0.08031732
221	0x3cbdeb96	0.023183625
222	0xbd968afe	-0.073507294
223	0xbd31b2f5	-0.043383557
224	0xbbdab813	-0.0066747754
225	0x3d956868	0.072953045
226	0x3c0d633f	0.008629619
227	0xbd085103	-0.033280384
228	0xbe16daee	-0.14731953
229	0xbd11b0a4	-0.03556885
230	0x3cc5950c	0.024118923
231	0x3cfe1518	0.031015918
232	0x3c317b68	0.010832645
233	0x3ce7fc49	0.028318541
234	0xbcd5e30c	-0.026109241
235	0x3d20e5c0	0.039281607
236	0x3cb8957c	0.022532217
237	0xbe324ec8	-0.17412865
238	0x3ce4b50c	0.027918361
239	0xbde6b57b	-0.112650834
240	0x3cfbeed6	0.030753534
241	0xbd833443	-0.064064525
242	0xba2b4d51	-0.00065346534
243	0xbdb2e8be	-0.08735798
244	0xbcca4d52	-0.024695072
245	0xbd31c62a	-0.043401875
246	0x3d0e0465	0.03467216
247	0xbd1f40d4	-0.038880184
248	0xbd1c1347	-0.03810432
249	0x3d3f117b	0.04664753
250	0x3c4f4711	0.012651221
251	0x3d8ccc2a	0.06874879
252	0xbdc29544	-0.095011264
253	0x3d568533	0.052373122
254	0x3d06f5c6	0.03294923
255	0xbd65afbd	-0.0560758

fc2.bias f4 [128]
0	0x3db5fbc3	0.0888591
1	0xbd6f2ae2	-0.058390506
2	0xbd8e63fd	-0.06952665
3	0x3b92b2b7	0.004476871
4	0x3cbf3d95	0.023344794
5	0xbc2551b6	-0.010090282
6	0xbd5b1ef3	-0.053496312
7	0xbd83a161	-0.06427265
8	0xbd1c70be	-0.038193457
9	0x3c6ac182	0.014328362
10	0xbd97491d	-0.07386992
11	0x3c817898	0.015804574
12	0x3d9ecc91	0.07753862
13	0x3c46f448	0.012143202
14	0xbd30c528	-0.043156773
15	0xbc0e2212	-0.008675115
16	0x3c8c93b1	0.017160269
17	0x3d825eca	0.06365736
18	0x3bf4f8ae	0.007475934
19	0x3d83354d	0.06406651
20	0x3d18c7a7	0.03729978
21	0x3db0a4d6	0.0862519
22	0x3da00b92	0.07814707
23	0x3c160d35	0.009158422
24	0x3d1ccf1e	0.03828346
25	0x3d870872	0.06593408
26	0x3d23f998	0.040032953
27	0xbca9763d	-0.020686263
28	0x3d80c9fc	0.062885255
29	0xbd9dca45	-0.077045955
30	0x3ccb84ad	0.024843538
31	0xbd85dd2c	-0.06536326
32	0x3d38722c	0.045030758
33	0x3bbaf217	0.005705129
34	0xbd5ad834	-0.053428844
35	0xbd036311	-0.0320769
36	0x3c5f739d	0.013638404
37	0x3d91c7f6	0.07118218
38	0x3d4325e1	0.047643546
39	0x3daa370c	0.083112806
40	0x3d8f5a84	0.06999686
41	0xbda7cb11	-0.08193029
42	0x3c148a08	0.009066112
43	0xbd18f03d	-0.037338484
44	0xbc321c23	-0.010870966
45	0x3c9dbc4a	0.019254822
46	0x3dac2e42	0.084072605
47	0x3d57c0da	0.052674152
48	0x3cc7b0e3	0.024376338
49	0x3d140b8c	0.036143824
50	0x3d1a7f38	0.03771898
51	0xbcfb07e5	-0.030643413
52	0xbccadf4a	-0.024764676
53	0x3be01645	0.0068385922
54	0xbd2d0219	-0.04223833
55	0xbc2d7a75	-0.010588278
56	0x3d15d9c5	0.036584634
57	0x3d357b12	0.044306822
58	0xbd3eeff0	-0.04661554
59	0x3d795488	0.06087163
60	0xbbf24aef	-0.0073941867
61	0xbd971310	-0.07376683
62	0xbd8eb371	-0.069678195
63	0x3d545275	0.05183645
64	0xbd960882	-0.073258415
65	0x3cfaba8e	0.030606534
66	0x3ce31dad	0.027724111
67	0xbd88a12d	-0.06671367
68	0x3d111c02	0.0354271
69	0xbd0f8267	-0.03503647
70	0xbd95eb8d	-0.07320318
71	0x3c27d500	0.010243654
72	0xbd9b7303	-0.07590296
73	0xbd567323	-0.052355897
74	0x3d966798	0.07343978
75	0x3d12ebdc	0.035869464
76	0xbd6e07b1	-0.058112804
77	0x3d8a7913	0.06761374
78	0x3d7cb43b	0.06169532
79	0x3d06bfb0	0.03289765
80	0x3d0c862c	0.034307644
81	0xbd484431	-0.048893157
82	0xbd4d2e99	-0.050093267
83	0x3d6691ce	0.056291394
84	0xbc0be9d5	-0.008539637
85	0xbcf79c7a	-0.030225981
86	0x3ce27376	0.027642947
87	0xbd4a50c1	-0.04939342
88	0xbd1813ae	-0.037128143
89	0xbc10f77c	-0.008848067
90	0x3c3df5d9	0.011594259
91	0x3d47ffde	0.048828
92	0xbd822526	-0.06354742
93	0xbd89af09	-0.067228384
94	0x3d468b86	0.048472904
95	0x3db838e9	0.0899523
96	0xbd22c6eb	-0.039740484
97	0x3b6099e6	0.0034271418
98	0x3dce9a25	0.100879945
99	0xbd767e22	-0.060178883
100	0x3d61fc81	0.055172447
101	0x3db284cb	0.087167345
102	0xbae23d59	-0.0017260715
103	0xbd95c61e	-0.073131785
104	0x3c01ca65	0.00792179
105	0x3cd2f51f	0.025751648
106	0xbd8fde00	-0.07024765
107	0x3d812c06	0.06307225
108	0xbcad468f	-0.021151809
109	0xbd3b379e	-0.045707338
110	0x3d2c8a5f	0.04212415
111	0xbd74c02c	-0.059753582
112	0x3d69b9d7	0.057061996
113	0x3d35a6cc	0.044348523
114	0xbcbd5998	-0.02311401
115	0xba5bdfab	-0.0008387516
116	0x3da7c9ca	0.08192785
117	0x3ce4ce5c	0.027930431
118	0x3d622707	0.055213
119	0xbcef7a5b	-0.029233148
120	0xbd18a761	-0.037269
121	0x3d5cc6d3	0.05390055
122	0xbd21fead	-0.03954952
123	0x3da95c54	0.08269563
124	0xbd211e74	-0.039335683
125	0xbd33b3b0	-0.043872535
126	0xbcd3cee1	-0.025855483
127	0x3cde1cc9	0.027113335

fc3.weight f4 [128, 128]
0	0x3d4e1980	0.050317287
1	0xbd1ceede	-0.03831374
2	0xba90e72d	-0.0011055224
3	0xbab2e453	-0.0013648368
4	0xbd97fe43	-0.074215434
5	0xbd583e76	-0.052793942
6	0xbbec3560	-0.0072085112
7	0x3c48ebeb	0.0122632785
8	0x3d73094f	0.05933505
9	0x3c61103b	0.01373678
10	0xbcb7395e	-0.022366222
11	0x3d94a04f	0.07257139
12	0xbd4f6c8b	-0.050640624
13	0x3d11b1a1	0.03556979
14	0xbd497653	-0.04918511
15	0xbc3904e5	-0.011292671
16	0x3d507984	0.050897136
17	0xbdc4729d	-0.09592173
18	0xbd940fcc	-0.072295755
19	0xba7f5ee0	-0.00097416155
20	0xbd2324e7	-0.039830115
21	0xbd881c21	-0.0664599
22	0xbd713957	-0.058892574
23	0xbd21924d	-0.039446164
24	0xbdeb60f6	-0.11493103
25	0xbce1435b	-0.027497938
26	0x3daab8cc	0.083360285
27	0x3db11b8e	0.08647834
28	0x3abb638a	0.0014296633
29	0x3d5f9b7c	0.05459164
30	0x3d4e98bc	0.050438628
31	0x3d49dfbd	0.04928564
32	0x3dad7971	0.08470429
33	0x3cbf2623	0.023333615
34	0xbbb853e3	-0.0056252345
35	0xbc4c97e0	-0.012487382
36	0xbd878f23	-0.06619098
37	0x3d9460ca	0.072450235
38	0xbd3a3387	-0.045459297
39	0xbc7d82b7	-0.015473059
40	0x3debe24e	0.115177736
41	0xbd54aea3	-0.05192436
42	0x3dd13c3c	0.10216567
43	0xbd2b7016	-0.04185494
44	0x3d8a70f0	0.06759822
45	0xbdc05095	-0.0939037
46	0xbccf53e6	-0.02530856
47	0x3df4afd4	0.11947599
48	0x3b7bb85a	0.0038409443
49	0xbde8ae1c	-0.11361334
50	0x3b111ebc	0.0022143563
51	0xbddc72eb	-0.10764106
52	0x3c556315	0.013024111
53	0xbd3fdf83	-0.046844017
54	0xbc982e6c	-0.018576823
55	0xbd8a0bdb	-0.067405425
56	0xbcbe8fac	-0.023261867
57	0x3bbaceb1	0.005700909
58	0x3cd452db	0.025918415
59	0xbda8204f	-0.082092874
60	0x3d1a3d73	0.03765626
61	0xbd81fe4b	-0.06347331
62	0x3d9119c4	0.070849925
63	0xbcae760f	-0.02129653
64	0x3d4bafa8	0.049728066
65	0xbd2060a8	-0.03915468
66	0x3cf825eb	0.030291518
67	0x3cd5626a	0.026047904
68	0xbc8abbae	-0.016935196
69	0xbd60b75d	-0.05486237
70	0xbc7e1c47	-0.0155096715
71	0xbda9162a	-0.082561806
72	0xbd19fd91	-0.037595335
73	0xbdc22686	-0.09480004
74	0x3b03d99f	0.0020118726
75	0x3d89c2ec	0.067266315
76	0x3cad33b4	0.021142818
77	0x3cb89aba	0.022534717
78	0xbdb4d2ea	-0.08829291
79	0xbdc24b64	-0.09487036
80	0x3d27f249	0.041002546
81	0xbda3fc9c	-0.08007166
82	0xbd2d56e8	-0.04231921
83	0xbcdb5e17	-0.026778264
84	0x3c592e4d	0.013255668
85	0x3d922ea6	0.07137804
86	0x3da1c518	0.07898921
87	0x3db27cd3	0.087152146
88	0xbd8a3431	-0.06748236
89	0xbb80aa56	-0.0039265556
90	0x3d90e99e	0.07075809
91	0xbbaf18bd	-0.005343525
92	0xbd1f308a	-0.03886465
93	0x3d1c1a3e	0.038110964
94	0xbd2c563c	-0.042074427
95	0x3cf1765e	0.029475387
96	0xbd5de95b	-0.054177623
97	0x3c9780cd	0.018494034
98	0x3c7ba726	0.0153596755
99	0xbd36d17e	-0.04463338
100	0x3d196423	0.037449013
101	0xbd5ce30d	-0.05392747
102	0xbd274a30	-0.040842235
103	0xbd2ec69f	-0.04266989
104	0xbd2810d1	-0.041031662
105	0x3c74196d	0.01489864
106	0x3d91565b	0.07096549
107	0x3d5690ce	0.05238419
108	0x3d731add	0.05935179
109	0x3d2d0a4c	0.042246148
110	0x3dc52a0c	0.096271604
111	0x3da65b36	0.08122866
112	0x3d060866	0.032722853
113	0x3ca6c8af	0.020359365
114	0xbc81d286	-0.015847456
115	0x3d5d1278	0.05397269
116	0xbd3625a8	-0.044469506
117	0xbc44bf15	-0.012008448
118	0x3d97b7c6	0.07408099
119	0xbd1b05ec	-0.037847444
120	0x3cdbf3ec	0.02684971
121	0x3dafb912	0.08580221
122	0x3dd67154	0.104708344
123	0xbd15ee24	-0.03660406
124	0xbd0fa52a	-0.035069622
125	0xbc8921a7	-0.01673968
126	0x3db01dad	0.0859941
127	0x3d689ccc	0.05679016
128	0x3d7c100c	0.06153874
129	0x3e01fe87	0.1269475
130	0xba058914	-0.00050939736
131	0x3d80fd21	0.062982805
132	0x3d11d001	0.03559876
133	0x3dd09994	0.10185543
134	0xbd9f928e	-0.07791625
135	0x3d8b9c07	0.06816869
136	0xbd0ab9a9	-0.033868466
137	0xbd9fefee	-0.07809435
138	0x3d3db864	0.046318427
139	0xbd8e61c9	-0.06952245
140	0x3d2b1d0d	0.04177575
141	0xbb166ecd	-0.0022954226
142	0x3cba8965	0.022770593
143	0x3c020f08	0.007938154
144	0x3cb645e6	0.022250127
145	0x3dc20163	0.09472921
146	0xbd4ab721	-0.04949105
147	0xbd3a7e55	-0.045530636
148	0xbd3e3a4d	-0.04644232
149	0x3d4c76c0	0.049917936
150	0xbe0d677c	-0.13809007
151	0x3d88e9e9	0.0668524
152	0x3dda306f	0.10653769
153	0xbd178c44	-0.036999002
154	0xbbeef79d	-0.0072927014
155	0xbd4ffcbe	-0.050778143
156	0xbd074c85	-0.03303196
157	0x3ce44929	0.027866917
158	0x3c95f2cf	0.018304257
159	0xbd8a3130	-0.06747663
160	0xbbd6f7e9	-0.006560315
161	0xbbc564f9	-0.006024
162	0xbd85d449	-0.06534631
163	0x3d7ae111	0.061249796
164	0xbd08df3d	-0.03341602
165	0xbd1ee51d	-0.03879272
166	0x3ddfb1b7	0.10922568
167	0x3d05dbb8	0.032680243
168	0xbd44e592	-0.048070498
169	0x3cbb200e	0.022842433
170	0x3d8af2d9	0.06784601
171	0x3d7506b4	0.059820846
172	0xbd8d85bf	-0.06910276
173	0xbd85b58e	-0.065287694
174	0x3c886b2a	0.016652662
175	0x3d80d366	0.06290321
176	0xbd9c22d1	-0.07623828
177	0x3ce0019e	0.027344521
178	0xbddf8688	-0.10914332
179	0x3d629a42	0.055322893
180	0x3c2e50e3	0.010639402
181	0xbd0604cd	-0.032719422
182	0xbd387f98	-0.045043558
183	0x3d1efaaf	0.03881329
184	0x3d4f2e24	0.050581113
185	0x3b4b8bef	0.0031058749
186	0xbcd17284	-0.0255673
187	0x3d8d85ba	0.06910272
188	0xbc42951a	-0.011876369
189	0x3d1f4b72	0.03889031
190	0xbcdbeb31	-0.026845546
191	0x3b1cb448	0.0023911167
192	0xbd093349	-0.033496175
193	0xbd98f597	-0.074687175
194	0xbcc0705f	-0.023491083
195	0x3d0476d1	0.032339875
196	0xbd91a7c2	-0.071120754
197	0x3d5a2aaf	0.053263362
198	0x3c9899f3	0.018628096
199	0xbd07da1e	-0.033166997
200	0xbdb4e798	-0.088332355
201	0xbd09ff5a	-0.033690788
202	0xbd83b03d	-0.06430099
203	0xbc715fa1	-0.014732272
204	0xbdac5e09	-0.08416373
205	0x3bbdd29a	0.005792928
206	0x3d22e865	0.03977241
207	0x3d96ec0f	0.07369243
208	0xbd0b93d5	-0.03407653
209	0x3d88491d	0.0665457
210	0xbdaea125	-0.0852683
211	0x3cf58828	0.02997215
212	0x3bcf79f9	0.006331679
213	0xbda36e9e	-0.07980083
214	0x3dcdf156	0.10055797
215	0xbcd3b01c	-0.025840811
216	0x3d4641bb	0.04840253
217	0x3d967a3a	0.073475316
218	0x3d258a1c	0.040414914
219	0x3db4ef66	0.08834724
220	0x3d046957	0.032327022
221	0xbc624991	-0.013811485
222	0x3c9fa555	0.019488016
223	0xbd56ef8a	-0.052474536
224	0x3d478870	0.0487141
225	0xbd65bcf2	-0.056088395
226	0x3d09e74f	0.03366786
227	0x3db203fe	0.08692168
228	0xbd542be3	-0.051799666
229	0x3d22b4bf	0.039723154
230	0x3d8731f7	0.06601327
231	0xbc2739bf	-0.010206639
232	0xbc479d91	-0.012183563
233	0xbdaf7c02	-0.085685745
234	0x3d827a0e	0.06370936
235	0x3d81038c	0.06299505
236	0xbdadbd23	-0.084833406
237	0xbcb04653	-0.021517908
238	0x3dc88c05	0.097923316
239	0xbd210411	-0.03931052
240	0x3e092db1	0.13396336
241	0xbb82bc28	-0.003989715
242	0xbd9e730b	-0.077367865
243	0x3d411993	0.04714353
244	0x3de092cc	0.10965499
245	0x3d82319f	0.06357121
246	0x3d683842	0.056694277
247	0x3ca84905	0.02054263
248	0xbd8b3589	-0.067973204
249	0x3d3e784e	0.04650145
250	0x3d23df40	0.04000783
251	0xbd85df7d	-0.06536768
252	0xbd8ebe7e	-0.06969927
253	0x3d1b066a	0.037847914
254	0xbd6e6536	-0.05820199
255	0x3d458dfe	0.048231117

fc3.bias f4 [128]
0	0x3ddb5ce8	0.1071108
1	0x3db6e0f3	0.089296244
2	0xbda7013a	-0.08154531
3	0x3d7a3d27	0.061093476
4	0x3dc63ea8	0.096799195
5	0x3d601b28	0.0547134
6	0xbb616b56	-0.0034396253
7	0x3db676a7	0.0890935
8	0x3db80ea8	0.089871705
9	0x3c3a320a	0.011364469
10	0x3ce0cf03	0.02744246
11	0x3d4215f1	0.047384206
12	0xbd28d068	-0.041214377
13	0xbd9d0c87	-0.07668405
14	0xbdb47452	-0.08811249
15	0xbbb049fb	-0.005379913
16	0xbc9b4b28	-0.018956736
17	0x3dc63c27	0.09679442
18	0xbdcd390a	-0.10020645
19	0xbcfbea6d	-0.030751431
20	0xbc2e396e	-0.0106338095
21	0xbd41b209	-0.04728893
22	0x3c9f33fa	0.019433964
23	0x3c27dbab	0.010245244
24	0x3dac1016	0.08401506
25	0xbd5d20b2	-0.05398626
26	0xbb83271b	-0.0040024645
27	0xbc57a73e	-0.013162432
28	0xbcfd7117	-0.030937715
29	0x3d4202dc	0.04736601
30	0xbd21655f	-0.039403316
31	0x3cf90890	0.03039959
32	0x3da43317	0.08017557
33	0x3d92c8c4	0.07167199
34	0xbb8362c9	-0.004009579
35	0xbd5d4715	-0.054022867
36	0xbcd2c231	-0.025727363
37	0xbca270a1	-0.019829096
38	0xbd95ed33	-0.07320633
39	0xbd39bc59	-0.045345638
40	0x3db15ace	0.08659898
41	0x3d84ca14	0.06483856
42	0x3d2f2dd1	0.042768303
43	0xbd9c2bfd	-0.076255776
44	0x3dad0f1d	0.08450148
45	0x3c237faf	0.009979173
46	0x3da59e88	0.08086878
47	0x3d249cc6	0.040188573
48	0xbdb4cc05	-0.08827976
49	0x3c81af4e	0.015830662
50	0x3d90c8ba	0.070695356
51	0x3cd8c353	0.026460325
52	0x3a3b7865	0.0007151424
53	0xbdaefabf	-0.0854392
54	0xbb710500	-0.0036776662
55	0x3d967bc2	0.07347824
56	0xbd3100aa	-0.043213524
57	0xbcb899a0	-0.022534192
58	0x3c8d587d	0.017254109
59	0xbda68913	-0.081316136
60	0x3d4f5081	0.050613884
61	0x3d878a69	0.066181965
62	0x3b92a5e8	0.004475344
63	0xbd08aa8a	-0.033365764
64	0x3c3ffae0	0.011717528
65	0x3cbb56b8	0.0228685
66	0x3d2be946	0.041970514
67	0x3dbd84be	0.09253834
68	0x3c90de8c	0.017684244
69	0xbca6d517	-0.020365281
70	0x3d992254	0.07477251
71	0x39d68044	0.00040912826
72	0xbd814bd3	-0.063132904
73	0x3d8caedc	0.06869289
74	0xbda361f5	-0.07977668
75	0x3db82b16	0.08992593
76	0x3a7e31c5	0.00096967473
77	0x3cc3011c	0.02380424
78	0xbd804c9b	-0.06264611
79	0xbd576f25	-0.05259623
80	0x3dade206	0.08490376
81	0x3d22115b	0.039567333
82	0xbd9fc78d	-0.07801733
83	0x3d9fb808	0.07798773
84	0xbd7ade1e	-0.061246984
85	0x3ac60be0	0.001510974
86	0x3cd771eb	0.026299438
87	0x3d451fbd	0.04812597
88	0x3cfc983f	0.030834315
89	0xbdc1c9b9	-0.09462304
90	0xbd0727b9	-0.032996867
91	0xbd4cc62b	-0.049993675
92	0xbd81acba	-0.06331773
93	0x3cf5d02c	0.03000649
94	0x3bf28b97	0.0074018943
95	0x3db72a0b	0.08943566
96	0x3d08e791	0.033423964
97	0xbc0c733d	-0.008572397
98	0xbcf51ba9	-0.029920416
99	0x3dc5c4f3	0.09656706
100	0xbd998919	-0.074968524
101	0x3db172f9	0.086645074
102	0x3d4daa5e	0.050211303
103	0xbcc68b02	-0.024236206
104	0xbd185581	-0.037190918
105	0x3c2ff713	0.010740059
106	0x3d9c5f3e	0.076353535
107	0x3d816b07	0.06319242
108	0x3d2353b0	0.039874732
109	0x3ba6b96c	0.005088022
110	0xbc7aeb0c	-0.015314829
111	0x3cfdab8b	0.030965587
112	0xbd508559	-0.05090842
113	0xbcb1f3e4	-0.021722741
114	0xbcc5b6d8	-0.024135038
115	0xbc0319cf	-0.008001759
116	0x3ca32b15	0.019918004
117	0xbd0107b5	-0.03150149
118	0x3da1da4a	0.079029635
119	0x3d976754	0.07392755
120	0xbd7aeade	-0.061259143
121	0x3d49fc20	0.04931271
122	0xbd0ba79e	-0.0340954
123	0xbda1587a	-0.07878204
124	0x3d413320	0.047167897
125	0x3d85ee4f	0.065395944
126	0xbafc4012	-0.0019245169
127	0x3dd7f567	0.10544854

fc4.weight f4 [2, 128]
0	0xbde407b0	-0.11134279
1	0x3de51bbd	0.11186931
2	0x3c993b20	0.01870495
3	0x3d948aff	0.07253074
4	0xbdc3eaf0	-0.09566295
5	0xbd661e18	-0.056181043
6	0x3d8be8da	0.06831522
7	0xbd31713d	-0.043320883
8	0xbcf918a8	-0.030407265
9	0xbc23abd4	-0.0099896975
10	0x3e054b4f	0.13017009
11	0xbde83b93	-0.11339488
12	0x3d935541	0.07193995
13	0x3d73e640	0.059545755
14	0xbda17de7	-0.07885342
15	0xbd34fc5f	-0.044185992
16	0x3dce1563	0.10062673
17	0xbca21270	-0.019784182
18	0xbd60a9c2	-0.054849394
19	0x3c187ad5	0.009306629
20	0xbd99574a	-0.07487352
21	0xbce944a9	-0.028475123
22	0xbd655637	-0.055990424
23	0x3de47487	0.11155038
24	0xbc696fb2	-0.014247822
25	0xbbf300a5	-0.0074158483
26	0xbdfb9310	-0.12283909
27	0x3dabfbc0	0.08397627
28	0xbd8a8d68	-0.06765252
29	0xbdeb4cfd	-0.11489294
30	0x3dc3c7b7	0.09559577
31	0x3dd2d0ce	0.102937326
32	0xbd634efb	-0.055495244
33	0x3d4669d4	0.04844077
34	0xbdbb055f	-0.09131884
35	0x3cafd99e	0.021466073
36	0x3d889c94	0.0667049
37	0x3d8fd290	0.070225835
38	0xbd4b01e2	-0.049562342
39	0xbe2dfd44	-0.16991144
40	0xbd8c5b2b	-0.068533264
41	0xbdaafb40	-0.083487034
42	0xbd9cfbb8	-0.07665199
43	0x3b6e005a	0.0036316128
44	0x3dc3cc7a	0.09560485
45	0xbd2ee093	-0.04269464
46	0xbda83568	-0.082133114
47	0xbd2d6fd0	-0.04234296
48	0xbcc51501	-0.024057867
49	0x3d90d53e	0.07071923
50	0x3c2f8b5e	0.01071438
51	0x3d3ae758	0.045630783
52	0x3dc1a87f	0.09455966
53	0x3d81d909	0.06340224
54	0x3b01bc2b	0.0019795995
55	0x3c3571cd	0.0110744955
56	0xbdfda17d	-0.12384317
57	0xbdfc5b3d	-0.1232209
58	0x3d12432f	0.035708603
59	0xbd7aca4a	-0.061228074
60	0x3d4b2cd0	0.049603283
61	0x3d0f3f46	0.03497245
62	0xbd2b0c6a	-0.041759886
63	0xbb4ed181	-0.003155798
64	0x3dbe5213	0.09292998
65	0xbc8d3d47	-0.017241133
66	0xbcd09900	-0.025463581
67	0xbd6705fb	-0.056402188
68	0xbdc34ffb	-0.095367394
69	0x3db99097	0.090607814
70	0xbda99a32	-0.082813635
71	0xbd953d00	-0.072870255
72	0x3d8a1134	0.067415625
73	0x3d1f3551	0.038869206
74	0xbd9e1ddd	-0.0772054
75	0xbdc8ae44	-0.097988635
76	0xbdf9e2f7	-0.12201493
77	0xbe02814d	-0.12744637
78	0x3cd1e633	0.025622463
79	0xbc1b39ce	-0.009474231
80	0xbcf0dbe7	-0.029401733
81	0x3da930ba	0.08261247
82	0xbceb9068	-0.028755382
83	0xbd8689f2	-0.0656928
84	0xbdc887ba	-0.09791513
85	0x3dce7f2f	0.10082852
86	0xbde017e7	-0.10942059
87	0xbd1587a6	-0.036506318
88	0x3ce06212	0.027390514
89	0x3d867588	0.06565386
90	0xbd838e35	-0.06423608
91	0x3d955a2f	0.07292592
92	0xbdaefc50	-0.085442185
93	0x3d9231b1	0.07138384
94	0xbd3358d8	-0.0437859
95	0xbd7dd1bf	-0.061967608
96	0xbd82ddae	-0.06389938
97	0xbcbe6443	-0.023241168
98	0x3d23e173	0.040009927
99	0xbd07bb0f	-0.033137377
100	0x3d82e081	0.06390477
101	0xbd0fa86b	-0.035072725
102	0xbdfff2a8	-0.12497455
103	0xbe02ecf0	-0.12785697
104	0x3d6c6da2	0.05772174
105	0x3d2f9717	0.0428687
106	0xbd80a264	-0.062809736
107	0xbdf6989a	-0.12040825
108	0xbe0827fb	-0.13296501
109	0xbc9bf1c0	-0.019036174
110	0xbd27ba6f	-0.04094928
111	0xbe073ba8	-0.13206351
112	0x3d16c24c	0.03680639
113	0xbdad1b1f	-0.084524386
114	0xbcab37d6	-0.020900648
115	0xbd3a1ed3	-0.045439553
116	0x3dc88c22	0.09792353
117	0xbd9facc8	-0.07796627
118	0xbb2d44f2	-0.00264388
119	0x3d7bb960	0.061456084
120	0xbdc6c004	-0.09704593
121	0x3d8a933a	0.067663625
122	0x3bc2aaa1	0.0059407507
123	0x3da7c199	0.08191223
124	0xbdbdfded	-0.09276948
125	0x3d5b8792	0.053596087
126	0xbdfc2216	-0.12311189
127	0xbdaa8f50	-0.08328116
128	0xbdbb235f	-0.09137606
129	0x3d058be1	0.032604102
130	0x3c47dba3	0.012198362
131	0x3c6a34f3	0.014294851
132	0xbd8152ef	-0.063146465
133	0xbd66ca18	-0.056345075
134	0xbd5b3a01	-0.053522114
135	0xbd86f677	-0.06589978
136	0xbdfc299d	-0.123126246
137	0xbe0de732	-0.13857725
138	0x3dbbf665	0.091778554
139	0xbd9e52a5	-0.07730607
140	0x3d4c451b	0.04987059
141	0x3ce2f1c5	0.027703175
142	0x3dcc6dfe	0.09981917
143	0xbde51589	-0.11185748
144	0xbc4f4a21	-0.012651951
145	0xbde606e3	-0.11231782
146	0x3dc576e7	0.096418194
147	0xbd37b8f1	-0.04485411
148	0x3d72797d	0.05919789
149	0xbc91b122	-0.017784659
150	0xbd74b43b	-0.059742194
151	0xbc3045d8	-0.01075884
152	0xbd1241e3	-0.035707366
153	0xbc929e72	-0.017897818
154	0xbe1c4269	-0.15259708
155	0x3cdcd6f1	0.02695796
156	0x3d104330	0.035220325
157	0x3d2aec82	0.041729458
158	0xbd5d9845	-0.054100294
159	0x3db63067	0.08895951
160	0xbd944e6a	-0.07241519
161	0xbd89c007	-0.067260794
162	0x3dc8b5b2	0.09800281
163	0x3b5885c5	0.0033038717
164	0x3db01521	0.0859778
165	0x3cc11327	0.023568703
166	0x3d1c917c	0.038224682
167	0xbe0b965e	-0.1363158
168	0xbcfb239a	-0.030656625
169	0xbe050c36	-0.1299294
170	0x3d7fd9fb	0.06246374
171	0x3c0cf146	0.008602446
172	0xbd244b5c	-0.04011093
173	0xbd5027ed	-0.050819326
174	0xbb0d1f5b	-0.0021533582
175	0xbd218234	-0.039430812
176	0xbd137e9d	-0.03600942
177	0x3ccc6f12	0.024955306
178	0xbd791784	-0.060813442
179	0xbdeb0b83	-0.11476805
180	0x3da1e7bb	0.07905527
181	0x3bf451fb	0.007456062
182	0xbd8b186e	-0.06791769
183	0xbdc659b2	-0.09685077
184	0xbd52c14d	-0.051453877
185	0x3d872917	0.06599634
186	0xbdbaf2cd	-0.09128342
187	0x3d9782cd	0.07397995
188	0x3cba3644	0.022730954
189	0xbe0eecb9	-0.1395749
190	0xbd792d1d	-0.06083404
191	0x3c119b66	0.0088871475
192	0x3def4b47	0.1168428
193	0xbce04096	-0.027374547
194	0xbd9eed07	-0.07760053
195	0xbcba1ed5	-0.02271978
196	0xbd587cb5	-0.052853305
197	0x3cb640c0	0.022247672
198	0x3da0c50a	0.07850082
199	0x3cc5e252	0.02415577
200	0x3cb4a3b3	0.022050714
201	0x3d9cb1bd	0.076510884
202	0xbda0248f	-0.07819473
203	0xbdba40e7	-0.090944104
204	0x3c1b84fb	0.009492154
205	0xbd909a3b	-0.07060667
206	0x3d77cc26	0.060497425
207	0xbe00d95e	-0.12582919
208	0xbcec39af	-0.0288361
209	0x3d60b041	0.05485559
210	0x3d8273a9	0.06369717
211	0xbdc604a7	-0.09668856
212	0x3da7f357	0.0820071
213	0x3d8cf8a7	0.06883364
214	0xbc3e95a1	-0.011632354
215	0xbc64edcc	-0.013972711
216	0x3d968d6e	0.07351194
217	0x3be7515d	0.00705926
218	0x3c9a6ea0	0.018851578
219	0xbd54e74b	-0.05197839
220	0xbd9176a4	-0.07102707
221	0x3d655095	0.055985052
222	0x3dc81c06	0.0977097
223	0xbc8a26b7	-0.016864164
224	0x3dd237a3	0.10264518
225	0xbdc689ec	-0.09694275
226	0xbcfe9c21	-0.031080307
227	0xbdf116b9	-0.11771912
228	0xbcb6a7fd	-0.0222969
229	0xbd179a90	-0.037012637
230	0x3d1e5538	0.03865549
231	0x3d915b77	0.07097524
232	0xbc4e99cb	-0.012609909
233	0x3dbca366	0.09210853
234	0xbdc12f4d	-0.0943285
235	0xbdc2d3a4	-0.095130235
236	0x3de0df97	0.109801464
237	0xbd917d16	-0.071039364
238	0xbd0ada9d	-0.033899892
239	0xbd273c7e	-0.040829174
240	0x3dfaea69	0.122517414
241	0x3d1a5992	0.037683077
242	0xbd773e93	-0.06036241
243	0xba752ff9	-0.0009353157
244	0x3d39df2f	0.04537886
245	0x3d29a702	0.041419037
246	0xbca7bfac	-0.020477138
247	0xbb78318e	-0.0037871334
248	0x3dfaf54f	0.1225382
249	0xbe0dc899	-0.13846053
250	0xbb43d87f	-0.002988368
251	0x3d503574	0.050832227
252	0xbd39009b	-0.045166593
253	0x3dc1ecda	0.09469004
254	0xbcec226c	-0.028825007
255	0xbd002f57	-0.031295147

fc4.bias f4 [2]
0	0xbd786c39	-0.060650084
1	0x3d4e7967	0.050408747

fc1.weight f4 [128, 7]
0	0x3e988e1e	0.29795927
1	0xbe9c4e54	-0.3052851
2	0x3e23c810	0.15994287
3	0x3e7ca455	0.24672063
4	0xbe43a285	-0.19104965
5	0x3e25dbd4	0.16197139
6	0x3e599e42	0.21251777
7	0x3dbe795a	0.0930049
8	0x3e418348	0.18897736
9	0xbd92ee95	-0.07174412
10	0x3ea13a7e	0.31489938
11	0x3e0f8c16	0.14018282
12	0x3deccae0	0.11562133
13	0x3e3d3e60	0.18480825
14	0xbeb68bf8	-0.35653663
15	0x3dddde8a	0.108334616
16	0xbe1f60f5	-0.1556433
17	0xbeb66914	-0.35627043
18	0xbe9536ee	-0.2914347
19	0xbd0e180e	-0.03469091
20	0x3ce83659	0.028346227
21	0xbe74fbc8	-0.23924172
22	0x3e62434c	0.22095984
23	0x3d866bd6	0.06563537
24	0x3d4c227f	0.049837586
25	0xbe2ef0e9	-0.17084087
26	0x3d36c410	0.044620574
27	0x3ebb8b13	0.36629543
28	0xbd56c49a	-0.052433588
29	0x3eafa22a	0.3430341
30	0xbef4085c	-0.47662628
31	0xbcbfbd3d	-0.023405666
32	0xbeab1545	-0.33414665
33	0x3e32e389	0.1746961
34	0x3eaf55b9	0.3424509
35	0x3ca2c542	0.01986945
36	0x3e0f7a48	0.1401149
37	0x3e79db5d	0.24400087
38	0xbe91ff86	-0.2851526
39	0x3d9e67f3	0.077346705
40	0xbead5313	-0.33852443
41	0xbdcb7d1e	-0.099359736
42	0x3e06786a	0.13131872
43	0xbe85595f	-0.26044747
44	0x3e02313d	0.12714095
45	0xbe6ba01e	-0.23010299
46	0xbe0c1bbb	-0.13682453
47	0xbebae7c3	-0.36504945
48	0xbe69789c	-0.22799915
49	0x3d11649b	0.035496335
50	0x3db2eb58	0.087362945
51	0xbeaae3a1	-0.33376792
52	0xbe981131	-0.29700616
53	0x3e44699d	0.19180913
54	0x3e54e56d	0.20790644
55	0x3eaff125	0.34363666
56	0xbe0a9c09	-0.13536085
57	0x3e46d029	0.19415344
58	0x3eaf58f5	0.34247556
59	0x3e188e29	0.1489798
60	0xbe8faf3e	-0.28063387
61	0x3ec295bb	0.3800486
62	0x3dff4331	0.124639876
63	0xbe30799a	-0.17233887
64	0xbe99050a	-0.29886657
65	0x3e913f48	0.28368592
66	0xbdb14a8f	-0.08656799
67	0xbe696360	-0.22791815
68	0xbe49bb33	-0.19700317
69	0x3dfa186b	0.122116886
70	0x3e1af481	0.15132333
71	0x3ebcb02d	0.3685316
72	0xbe1d177c	-0.1534099
73	0x3eb691b9	0.35658053
74	0x3ec42683	0.38310632
75	0xbd975c54	-0.07390657
76	0xbece2f82	-0.4027062
77	0x3d435544	0.047688738
78	0x3e97b98f	0.29633757
79	0xbac636ea	-0.0015122567
80	0xbe728446	-0.23683271
81	0xbf0f0f8b	-0.5588309
82	0x3ec404fc	0.38285053
83	0xbea6a7f8	-0.32550025
84	0x3e311ba6	0.17295703
85	0xbebc95cf	-0.36833045
86	0x3ebd9fea	0.37036067
87	0xbe2770c0	-0.16351604
88	0x3ebcf21c	0.36903465
89	0xbe8566f8	-0.2605512
90	0xbd053a0d	-0.032526065
91	0x3ea840b3	0.32861862
92	0x3ea0fe5d	0.31444064
93	0xbe7f24c2	-0.24916366
94	0xbe879e8e	-0.26488155
95	0x3e96e8de	0.2947454
96	0x3e358641	0.17726995
97	0xbe16f1c2	-0.14740661
98	0x3e202ec9	0.15642847
99	0xbe9a117c	-0.30091465
100	0xbdf94fb2	-0.12173404
101	0xbe19d934	-0.15024263
102	0x3d3f5a27	0.046716835
103	0x3ebe9237	0.37220928
104	0xbdbe7381	-0.09299374
105	0x3d7d14c1	0.06178737
106	0xbe087e6b	-0.13329475
107	0x3e8c1511	0.27359822
108	0x3e463b36	0.19358525
109	0xbdb9cd93	-0.09072413
110	0x3eb8a080	0.36059952
111	0xbe363f96	-0.17797694
112	0x3d699fd6	0.057037197
113	0x3e687333	0.22700195
114	0xbdaaa4ab	-0.08332189
115	0xbece7d24	-0.4032985
116	0x3d11e54a	0.035619058
117	0xbe72377d	-0.2365398
118	0x3e823078	0.25427604
119	0x3ed7713f	0.42078587
120	0x3eadd49c	0.3395127
121	0x3e8c350e	0.27384228
122	0xbe6f8e73	-0.23394184
123	0xbe47a04b	-0.1949474
124	0x3db8459b	0.08997651
125	0xbe7d589d	-0.24740835
126	0x3dd5b88c	0.1043559
127	0xbdde1469	-0.10843737
128	0xbeface25	-0.489854
129	0x3dce9a4e	0.10088025
130	0xbb178df6	-0.0023125387
131	0xbeb9567f	-0.36198804
132	0x3df7c483	0.120980285
133	0x3b921006	0.0044574765
134	0xbe8120fc	-0.25220478
135	0xbe0bede7	-0.13664971
136	0x3e00c070	0.12573409
137	0xbe98bb55	-0.29830423
138	0xbe3e752e	-0.18599388
139	0xbe2fd30b	-0.1717035
140	0xbe432daa	-0.19060388
141	0xbe3adc0c	-0.18248004
142	0x3e3ed3d0	0.18635488
143	0xbdd1e21e	-0.102482066
144	0xbe8c1616	-0.273606
145	0x3e76d5b0	0.24104953
146	0xbea711ac	-0.3263067
147	0xbe387ecb	-0.18017118
148	0xbdaab26f	-0.08334815
149	0xbe9d9cb3	-0.30783615
150	0xbce9f7bf	-0.028560517
151	0xbe8e0455	-0.2773768
152	0x3ddeb717	0.10874765
153	0xbe068c4e	-0.1313946
154	0x3e1085b0	0.14113498
155	0x3ea9c59b	0.33158574
156	0xbe281eda	-0.16418019
157	0xbe12b678	-0.14327419
158	0xbe0ba578	-0.1363734
159	0xbdf8a29c	-0.1214039
160	0x3e756fd6	0.23968443
161	0xbecbbd04	-0.39792645
162	0xbdf821ac	-0.121157974
163	0xbe7623ba	-0.24037066
164	0x3e1a9bc4	0.15098482
165	0x3e9ade59	0.30247763
166	0x3e87d90c	0.2653278
167	0xbebfb291	-0.37440923
168	0x3dd3595f	0.103197806
169	0xbeaef8ee	-0.34174293
170	0xbe959a1b	-0.29219136
171	0x3d7eb38c	0.062182948
172	0x3dcf0966	0.101092145
173	0xbc9950ad	-0.018715227
174	0x3d81fa40	0.063465595
175	0x3d086682	0.033300884
176	0x3d000a81	0.031260017
177	0xbed14ac3	-0.4087735
178	0xbe72e151	-0.23718764
179	0xbcdd0a39	-0.026982414
180	0xbec0e63e	-0.3767566
181	0x3e14eeb1	0.14544179
182	0x3dba9155	0.09109751
183	0x3dc045cc	0.09388313
184	0xbe8b5475	-0.27212873
185	0x3e2fb47a	0.1715869
186	0x3ea41a2a	0.32051212
187	0x3e931f98	0.28735042
188	0xbdd63d18	-0.104608715
189	0xbe017083	-0.12640576
190	0xbe946597	-0.28983757
191	0x3ebf22ea	0.37331325
192	0xbe7465e9	-0.23867
193	0xbe955135	-0.2916352
194	0x3cdbb983	0.026821857
195	0xbe55c2be	-0.2087507
196	0x3e6017b4	0.21884042
197	0x3e4de0c6	0.20105276
198	0xbdcbe699	-0.099560924
199	0xbc7d3efb	-0.01545691
200	0xbe3bb5fd	-0.18331142
201	0x3dd974e9	0.10618002
202	0x3e154ccd	0.14580078
203	0xbe8b26d1	-0.27178052
204	0xbe774e8b	-0.24151056
205	0x3e7d15c7	0.24715339
206	0xbe495c88	-0.19664204
207	0x3ea117d4	0.31463492
208	0xbe3ffe54	-0.18749362
209	0xbe1912f5	-0.14948638
210	0xbeb8af73	-0.36071357
211	0x3eae49a3	0.34040555
212	0xbec11c5d	-0.37716952
213	0xbd18a106	-0.03726294
214	0x3d73719e	0.059434526
215	0x3dd507ff	0.10401916
216	0xbe547f63	-0.20751719
217	0xbdb1df57	-0.08685177
218	0xbe312654	-0.17299777
219	0xbd52d8df	-0.051476356
220	0xbe186c49	-0.14885058
221	0xbeba6177	-0.36402485
222	0x3e3a9665	0.18221433
223	0xbe522e0e	-0.20525381
224	0xbe375f79	-0.17907514
225	0x3e937022	0.28796488
226	0xbf06354b	-0.5242507
227	0x3e6e62f8	0.23279941
228	0x3e950b6d	0.2911028
229	0x3e19650d	0.14979954
230	0x3e0c1261	0.13678886
231	0x3e6c3f39	0.23070993
232	0xbc719836	-0.014745763
233	0xbeecc620	-0.46244907
234	0xbdc0870f	-0.094007604
235	0x3eb1d455	0.3473231
236	0xbb5b39a7	-0.0033451112
237	0x3eaf4366	0.34231108
238	0xbd916c3e	-0.07100724
239	0xbe253af9	-0.16135778
240	0xbe150f58	-0.14556634
241	0xbdd411e2	-0.103549734
242	0xbe7dec9d	-0.24797292
243	0xbdd78df8	-0.10525125
244	0x3edc36c0	0.4301052
245	0x3e93668f	0.28789183
246	0x3eb365a1	0.35038474
247	0xbd8c0a6e	-0.06837927
248	0x3e9788be	0.29596514
249	0x3e9a9022	0.3018809
250	0x3eb4bb4c	0.35299146
251	0x3ea0d6ce	0.31413883
252	0xbe7b5069	-0.24542393
253	0x3e930aaa	0.28719074
254	0x3e98f1fb	0.29872116
255	0x3e9ce088	0.30640054

fc1.bias f4 [128]
0	0xbe7dd94c	-0.24789923
1	0x3dc4befd	0.096067406
2	0x3dd33fad	0.103148796
3	0xbd8d5134	-0.06900254
4	0x3ea6b035	0.3255631
5	0xbeae0733	-0.33989868
6	0x3d207240	0.039171457
7	0x3e67f39f	0.22651528
8	0xbc315c2b	-0.010825197
9	0xbd7fe15b	-0.062470775
10	0x3e293b2c	0.16526479
11	0x3d58759e	0.052846543
12	0xbebd1022	-0.3692637
13	0xbd6a641e	-0.057224385
14	0xbe7c7254	-0.24652988
15	0xbe852471	-0.26004365
16	0xbdfe05e6	-0.12403469
17	0xbe9d60c2	-0.30737883
18	0x3e7bb363	0.2458015
19	0x3d88059b	0.06641694
20	0xbe5e602c	-0.21716374
21	0xbd9a3f27	-0.075315766
22	0x3e5dc0a6	0.21655521
23	0x3d0d59b0	0.03450936
24	0xbe023a69	-0.12717594
25	0x3e61c19a	0.2204651
26	0x3eb1cf19	0.34728315
27	0x3eb1a449	0.34695652
28	0x3d5ed765	0.054404635
29	0x3e6a3b4a	0.2287418
30	0xbe614ff7	-0.2200316
31	0xbeb1750e	-0.34659618
32	0xbcc911a3	-0.024544543
33	0x3dc2540d	0.09488688
34	0x3c73143b	0.014836366
35	0x3ebd6967	0.36994478
36	0x3e951783	0.291195
37	0x3e4c811e	0.1997113
38	0x3d42656f	0.047460016
39	0x3c871afc	0.01649236
40	0x3eaef148	0.34168458
41	0x3e84a200	0.25904846
42	0x3cb993c0	0.02265346
43	0x3ecdae40	0.40172005
44	0xbd69c7b7	-0.05707523
45	0x3e82bdad	0.25535336
46	0x3e7443fb	0.23854057
47	0x3d4a1c5f	0.049343463
48	0xbea93d62	-0.33054644
49	0x3e05055f	0.1299033
50	0x3a838d38	0.0010036593
51	0xbebd087f	-0.36920545
52	0xbe51cfd2	-0.20489433
53	0xbed056d8	-0.40691257
54	0xbd28ca88	-0.041208774
55	0x3dccdb80	0.10002804
56	0xbe8d2840	-0.2756977
57	0xbea703f6	-0.3262021
58	0xbec0c690	-0.3765149
59	0x3ebb39a5	0.36567417
60	0x3df88703	0.121351264
61	0xbe5db70d	-0.2165186
62	0xbddd1c7d	-0.10796449
63	0xbd5ed4dc	-0.054402217
64	0xbdaf8ada	-0.08571406
65	0x3e585b5e	0.21128604
66	0xbd906e84	-0.07052329
67	0xbe285140	-0.16437244
68	0xbe1a205c	-0.15051407
69	0xbdb961ce	-0.09051858
70	0x3e7afb52	0.24509934
71	0x3c8aca34	0.016942121
72	0xbe2c36c1	-0.16817762
73	0xbcb750c2	-0.022377376
74	0x3e15acec	0.14616746
75	0xbeb59bec	-0.3547052
76	0x3e511130	0.20416713
77	0x3d81c461	0.063362844
78	0x3dadd548	0.08487946
79	0xbe1bbeb7	-0.1520947
80	0x3e9ad5fb	0.3024138
81	0xbddb8991	-0.10719598
82	0x3e98fe95	0.2988173
83	0xbe976b87	-0.29574224
84	0xbcdf3886	-0.027248632
85	0x3ea3f6cf	0.32024238
86	0xbe2f45f2	-0.17116526
87	0xbe5b3b21	-0.21409275
88	0x3ec56b89	0.38558605
89	0x3dbe50aa	0.09292729
90	0xbd6dc265	-0.058046717
91	0xbe768ae4	-0.2407642
92	0x3eabf95e	0.3358869
93	0x3ec20ec4	0.3790189
94	0xbd6e18dd	-0.05812918
95	0x3e5584ed	0.20851488
96	0xbeba8f14	-0.36437285
97	0x3ea9cb4b	0.33162913
98	0x3df7d685	0.12101463
99	0xbdaacbec	-0.08339676
100	0x3e0a6404	0.13514715
101	0x3ebf1421	0.37320045
102	0x3e5badd8	0.21453035
103	0xbda17fe3	-0.078857206
104	0x3ddb3ba7	0.10704737
105	0xbe099db2	-0.13439062
106	0xbe39ce1a	-0.18145028
107	0x3e9ca36b	0.30593428
108	0x3e83f164	0.25770104
109	0xbe8b3d2d	-0.2719511
110	0xbe34e312	-0.17664745
111	0x3e9a542e	0.3014235
112	0x3e95e953	0.29279575
113	0x3e809b1b	0.25118336
114	0x3eb4463b	0.35209832
115	0xbea8a9b5	-0.32941976
116	0x3b4e6e88	0.0031498987
117	0xbd53368f	-0.051565703
118	0x3e8fa2a6	0.28053778
119	0xbd54c6cc	-0.0519474
120	0x3ddbe55a	0.10737105
121	0xbc27121b	-0.010197188
122	0xbe3c0609	-0.18361677
123	0x3dc8fec0	0.09814215
124	0xbe654b76	-0.22392067
125	0xbe4972ff	-0.19672774
126	0x3eab54af	0.33463046
127	0xbe94a419	-0.29031447
