flappybird_dqn_ep340.pth (torch, 561729 bytes, 32 tensors)

fc1.weight f4 [128, 7]
0	0x3e844c2f	0.25839373
1	0xbef9dd24	-0.4880153
2	0x3e447a62	0.1918731
3	0x3e3adfc5	0.18249424
4	0xbe84a5f5	-0.25907865
5	0x3e2f6c6a	0.171312
6	0x3e6acd6f	0.22929929
7	0x3d7291c9	0.059221063
8	0x3eabee83	0.33580408
9	0x3c318b03	0.010836366
10	0x3e64c3a7	0.2234026
11	0x3d803f7b	0.06262108
12	0x3d58acd4	0.052899197
13	0x3e0e4f9a	0.13897553
14	0xbeb68bf8	-0.35653663
15	0x3dddde8a	0.108334616
16	0xbe1f60f5	-0.1556433
17	0xbeb66914	-0.35627043
18	0xbe9536ee	-0.2914347
19	0xbd0e180e	-0.03469091
20	0x3ce83659	0.028346227
21	0xbe852b9e	-0.2600984
22	0x3e176789	0.1478559
23	0x3d2ff7a0	0.042960763
24	0x3da9481e	0.082657084
25	0x3d5bbd90	0.053647578
26	0x3da45893	0.08024707
27	0x3ed546e2	0.41655642
28	0xbd31df7a	-0.043426014
29	0x3ec37d7b	0.38181672
30	0xbf008c2c	-0.50213885
31	0xbd9c48ed	-0.07631097
32	0xbeda1bf5	-0.42599455
33	0x3e413913	0.18869428
34	0x3ec9cdf9	0.39414957
35	0x3ca2c542	0.01986945
36	0x3e0f7a48	0.1401149
37	0x3e79db5d	0.24400087
38	0xbe91ff86	-0.2851526
39	0x3d9e67f3	0.077346705
40	0xbead5313	-0.33852443
41	0xbdcb7d1e	-0.099359736
42	0x3dddc419	0.10828418
43	0xbe8b7845	-0.27240196
44	0x3dee3424	0.11631039
45	0xbe81f7e0	-0.25384426
46	0xbe27d795	-0.16390832
47	0xbec62eca	-0.38707572
48	0xbe827d89	-0.254864
49	0xbd2c4545	-0.042058248
50	0x3e1b25e4	0.15151173
51	0xbeb2777f	-0.34856793
52	0xbec2eb88	-0.3807032
53	0x3cbddf88	0.023177877
54	0x3e1615b5	0.14656718
55	0x3eaebc27	0.34127924
56	0xbe174f8b	-0.14776437
57	0x3e17d825	0.14828546
58	0x3ecaa5dc	0.39579666
59	0x3dd7654c	0.10517368
60	0xbe96eb9d	-0.29476634
61	0x3ecefc8a	0.40427047
62	0x3deea896	0.11653249
63	0xbe30799a	-0.17233887
64	0xbe99050a	-0.29886657
65	0x3e913f48	0.28368592
66	0xbdb14a8f	-0.08656799
67	0xbe696360	-0.22791815
68	0xbe49bb33	-0.19700317
69	0x3dfa186b	0.122116886
70	0x3e0e4738	0.13894355
71	0x3eb27740	0.34856606
72	0xbcf40411	-0.029787095
73	0x3ead1bd3	0.3381029
74	0x3ed3cf8d	0.41369286
75	0xbd936471	-0.07196892
76	0xbf07563e	-0.5286597
77	0x3e246e2c	0.16057652
78	0xbe86a702	-0.26299292
79	0x3d05f0a9	0.032700215
80	0xbe420562	-0.18947366
81	0xbf20b9e9	-0.62783676
82	0x3ef42ad1	0.47688916
83	0xbe608846	-0.21926984
84	0x3e21b89c	0.15793079
85	0xbebc95cf	-0.36833045
86	0x3eb5ecbc	0.35532176
87	0xbe36d317	-0.17853962
88	0x3eb53f11	0.35399678
89	0xbe8d1a26	-0.27559012
90	0xbd42c709	-0.047553096
91	0x3e96b5d0	0.29435587
92	0x3eb2303b	0.34802422
93	0xbe92ca82	-0.28670126
94	0xbea2389a	-0.3168381
95	0x3e9a94a1	0.3019152
96	0x3df69c8b	0.12041577
97	0xbe947b1b	-0.29000172
98	0x3e47dc8e	0.19517729
99	0xbeaa8e6f	-0.33311793
100	0xbe31cb81	-0.17362787
101	0xbe136968	-0.14395678
102	0xbbd7dcc7	-0.006587598
103	0x3ec189f6	0.37800568
104	0xbe2f5cd7	-0.1712526
105	0x3e17d98c	0.14829081
106	0xbe8a7424	-0.27041733
107	0x3e981b55	0.29708353
108	0x3e75aa30	0.23990703
109	0xbdb79105	-0.08963207
110	0x3ee8dd65	0.4548141
111	0xbd9b803e	-0.0759282
112	0x3cda0877	0.026615364
113	0x3e4ce3ed	0.20008822
114	0xbdddabdc	-0.10823795
115	0xbede7dde	-0.43455404
116	0x3baf0369	0.0053409827
117	0xbe88f613	-0.2675024
118	0x3e637160	0.22211218
119	0x3f06a6d8	0.52598333
120	0x3e95b5aa	0.2924016
121	0x3ea22a29	0.3167279
122	0xbe3fd37b	-0.18733017
123	0xbebd5572	-0.36979252
124	0x3e0981db	0.13428442
125	0xbe2ffedc	-0.17187065
126	0x3df37f8e	0.118895635
127	0xbd3bd0fb	-0.045853596
128	0xbf5ab9c4	-0.85439706
129	0x3da3ef52	0.08004631
130	0xbc596344	-0.013268296
131	0xbec8eacf	-0.39241645
132	0x3dfcacac	0.12337622
133	0x3c8bb617	0.0170546
134	0xbe4dbd6a	-0.20091787
135	0xbea56f4d	-0.32311478
136	0x3e2ceb8c	0.16886729
137	0xbea55c6b	-0.32297072
138	0xbe22d4f9	-0.15901555
139	0xbe58f80f	-0.21188377
140	0xbe432daa	-0.19060388
141	0xbe3adc0c	-0.18248004
142	0x3e3ed3d0	0.18635488
143	0xbdd1e21e	-0.102482066
144	0xbe8c1616	-0.273606
145	0x3e76d5b0	0.24104953
146	0xbea711ac	-0.3263067
147	0xbe387ecb	-0.18017118
148	0xbdaab26f	-0.08334815
149	0xbe9d9cb3	-0.30783615
150	0xbce9f7bf	-0.028560517
151	0xbe8e0455	-0.2773768
152	0x3ddeb717	0.10874765
153	0xbe068c4e	-0.1313946
154	0x3e41f0c5	0.18939503
155	0x3ecaab98	0.3958404
156	0xbe82b173	-0.25526008
157	0xbe297d65	-0.1655174
158	0xbe59be0a	-0.212639
159	0xbe08433e	-0.13306901
160	0x3ea4837f	0.32131574
161	0xbefad4d8	-0.48990512
162	0xbe281ea1	-0.16417934
163	0xbdb292ef	-0.087194316
164	0x3e4e5a99	0.20151748
165	0x3ea53bc8	0.32272172
166	0x3e8c5b1e	0.27413267
167	0xbf04ebc2	-0.5192224
168	0x3e1043a7	0.14088307
169	0xbeb00511	-0.34378865
170	0xbee2ec95	-0.44321123
171	0x3e05638c	0.13026255
172	0x3db80637	0.089855604
173	0x3cae5d45	0.021284709
174	0x3dd99ecf	0.106259935
175	0x3b76e45c	0.0037672734
176	0x3dba7261	0.09103847
177	0xbf7af467	-0.9802918
178	0xbe83c60e	-0.2573704
179	0xbca1e815	-0.019763986
180	0xbed579bc	-0.41694438
181	0x3e2bb435	0.16767962
182	0x3d4d1be6	0.050075434
183	0x3e11eb96	0.14250025
184	0xbe865270	-0.2623477
185	0x3dbf66b8	0.09345764
186	0x3e66c807	0.22537242
187	0x3e69399d	0.22775884
188	0xbea075cf	-0.3133988
189	0xbcb08498	-0.0215476
190	0xbe481a0e	-0.19541189
191	0x3ec2ae2e	0.38023514
192	0xbea0d136	-0.31409615
193	0xbe9ec38e	-0.3100857
194	0xbb29c1a0	-0.0025902763
195	0xbe2e8e2d	-0.17046423
196	0x3e848b49	0.25887516
197	0x3e293949	0.16525759
198	0xbdf92b6f	-0.121664874
199	0xbd8c145a	-0.06839819
200	0xbe75bafa	-0.23997107
201	0x3dd2ab71	0.10286606
202	0x3dc89228	0.09793502
203	0xbea2f8b2	-0.31830364
204	0xbe5d9a2c	-0.21640843
205	0x3e961aeb	0.29317412
206	0xbdda9b06	-0.106740996
207	0x3ef88731	0.48540643
208	0xbe1e5098	-0.15460432
209	0xbe3ba8e7	-0.1832615
210	0xbeb8af73	-0.36071357
211	0x3eae49a3	0.34040555
212	0xbec11c5d	-0.37716952
213	0xbd18a106	-0.03726294
214	0x3d73719e	0.059434526
215	0x3dd507ff	0.10401916
216	0xbe547f63	-0.20751719
217	0xbdb1df57	-0.08685177
218	0xbe312654	-0.17299777
219	0xbd52d8df	-0.051476356
220	0xbe186c49	-0.14885058
221	0xbeba6177	-0.36402485
222	0x3e3a9665	0.18221433
223	0xbe522e0e	-0.20525381
224	0xbe363b2c	-0.1779601
225	0x3eb37404	0.3504945
226	0xbf3ec1d3	-0.745145
227	0x3e8d1648	0.27556062
228	0x3e7b991f	0.2457013
229	0x3e0a54d1	0.13508917
230	0x3e00aea8	0.12566626
231	0x3e51c539	0.2048539
232	0x3c9f86dc	0.019473486
233	0xbef430ac	-0.47693384
234	0xbd852aa9	-0.065022774
235	0x3ea5f0da	0.32410318
236	0xbcab897c	-0.020939581
237	0x3eb830e2	0.35974795
238	0xbd2fb67e	-0.042898647
239	0xbd4af959	-0.049554203
240	0xbe8721ce	-0.26392978
241	0xbdc24794	-0.09486309
242	0xbe908df8	-0.28233314
243	0xbe14afd3	-0.14520197
244	0x3efd911e	0.49524778
245	0x3e458b7e	0.19291493
246	0x3ee9f7b1	0.45696786
247	0xbd7cffb1	-0.061767284
248	0x3e737710	0.23775887
249	0x3e4e18af	0.20126604
250	0x3e8d8d7e	0.27647012
251	0x3e8006dd	0.25005236
252	0xbea8cbdd	-0.32968035
253	0x3ea2d8e1	0.3180609
254	0x3eb54d83	0.354107
255	0x3e8c4f5a	0.2740429

fc1.bias f4 [128]
0	0xbe9c2917	-0.305001
1	0x3ce4c996	0.027928155
2	0x3ea5e01f	0.32397553
3	0xbca04c85	-0.019567737
4	0x3e9edea2	0.3102923
5	0xbeae0733	-0.33989868
6	0x3e90b0ca	0.2825988
7	0x3dfe48b4	0.12416211
8	0xbcec3577	-0.028834088
9	0xbd7fe15b	-0.062470775
10	0x3e23f564	0.16011578
11	0x3e070c87	0.13188373
12	0xbec4c350	-0.38430262
13	0xbd9189b2	-0.071063414
14	0xbe7cbd67	-0.24681626
15	0xbe6a5ba8	-0.22886527
16	0xbe1f1f10	-0.15539193
17	0xbe7c6635	-0.24648364
18	0x3e89dc74	0.26926005
19	0x3e5a3545	0.21309383
20	0xbe5e602c	-0.21716374
21	0xbd9a3f27	-0.075315766
22	0x3e600d01	0.2187996
23	0x3d2154cb	0.039387506
24	0xbde01594	-0.10941616
25	0x3e75de13	0.24010496
26	0x3e87b5bb	0.26505837
27	0x3eb7a373	0.3586689
28	0x3d131744	0.03591086
29	0x3e86b79a	0.26311952
30	0xbe614ff7	-0.2200316
31	0xbeb1750e	-0.34659618
32	0xbd0e977b	-0.03481243
33	0x3da6f37a	0.08151908
34	0x3cdcd469	0.026956754
35	0x3e89eaf1	0.2693706
36	0x3e797a39	0.2436303
37	0x3e3f879c	0.18704075
38	0x3d69923c	0.057024226
39	0xbca46097	-0.020065589
40	0x3eb4c511	0.353066
41	0x3e95af5d	0.29235354
42	0xbc0503bf	-0.008118569
43	0x3ecf4abe	0.4048671
44	0xbe02223f	-0.12708376
45	0x3e24ed53	0.16106157
46	0x3e22b144	0.15887934
47	0x3d866708	0.065626204
48	0xbea93d62	-0.33054644
49	0x3e9ae89a	0.30255586
50	0xbcfed7b3	-0.031108713
51	0xbebd087f	-0.36920545
52	0xbe51cfd2	-0.20489433
53	0xbed56231	-0.41676477
54	0xbdaa3cea	-0.083124
55	0x3da9e1ff	0.082950585
56	0xbe8d2840	-0.2756977
57	0xbea703f6	-0.3262021
58	0xbec0c690	-0.3765149
59	0x3e8f6422	0.28006083
60	0x3dcfc6a1	0.10145307
61	0xbe4e574b	-0.20150487
62	0xbd659eef	-0.056059774
63	0xbda454d5	-0.08023993
64	0xbddf6983	-0.10908797
65	0x3e06c5ff	0.13161467
66	0xbd906e84	-0.07052329
67	0xbe01c865	-0.126741
68	0xbe1a205c	-0.15051407
69	0xbd8d7c8a	-0.069085196
70	0x3e7b666c	0.2455079
71	0x3cc809ca	0.02441873
72	0xbe2ee2cd	-0.17078705
73	0xbc1faebc	-0.00974625
74	0x3e092681	0.13393594
75	0xbe9aeb80	-0.30257797
76	0x3e2f65c5	0.17128666
77	0x3d546f46	0.05186393
78	0x3d6aa658	0.057287544
79	0xbe1bbeb7	-0.1520947
80	0x3e821b1d	0.2541131
81	0xbdce8c32	-0.10085334
82	0x3e85fc1f	0.26168916
83	0xbe9ea766	-0.3098709
84	0xbd99b208	-0.0750466
85	0x3e83bd7e	0.2573051
86	0xbe2f45f2	-0.17116526
87	0xbdf74ed6	-0.12075584
88	0x3eaf8464	0.34280694
89	0x3d965956	0.07341258
90	0xbda56939	-0.0807671
91	0xbe768ae4	-0.2407642
92	0x3e9ba5d0	0.30399942
93	0x3ebb3d38	0.36570144
94	0xbd6e18dd	-0.05812918
95	0x3e3573e8	0.17719996
96	0xbeba8f14	-0.36437285
97	0x3e9fd01c	0.31213462
98	0x3e11cd37	0.1423844
99	0xbd890768	-0.06690866
100	0x3df4c8f8	0.11952394
101	0x3e994b6f	0.29940364
102	0x3e82c885	0.2554361
103	0xbd35dd7b	-0.044400673
104	0x3ddd6352	0.108099595
105	0xbe203fcd	-0.15649338
106	0xbe14e6e9	-0.1454121
107	0x3e8ba797	0.27276298
108	0x3e87471b	0.26421437
109	0xbe8d23d9	-0.27566412
110	0xbe137610	-0.14400506
111	0x3e93a20a	0.28834563
112	0x3e8383e0	0.2568655
113	0x3e160b48	0.14652741
114	0x3ead1bce	0.33810276
115	0xbea9c20a	-0.33155853
116	0xbccaa651	-0.024737509
117	0xbd53368f	-0.051565703
118	0x3e8e311b	0.2777184
119	0xbdd15e7f	-0.10223102
120	0x3d36123f	0.044450995
121	0xbc06a3e5	-0.008217786
122	0xbe211a3f	-0.15732668
123	0x3dfb07d4	0.122573525
124	0xbe502d15	-0.20329697
125	0xbe3bd240	-0.18341923
126	0x3e9afef0	0.30272627
127	0xbe94a419	-0.29031447

fc2.weight f4 [128, 128]
0	0x3e5d96a6	0.21639499
1	0xbc27a353	-0.010231811
2	0xbdf91fb1	-0.12164248
3	0xbc21f5c9	-0.00988526
4	0xbc704f6a	-0.014667371
5	0xbd4ffd1e	-0.0507785
6	0xbe61ad4b	-0.22038762
7	0xbb895d20	-0.0041920096
8	0xbc9e1258	-0.019295856
9	0x3d3e1b20	0.046412587
10	0x3d2f369a	0.04277668
11	0x3e6bd1e0	0.2302928
12	0xbcf6e6f4	-0.030139424
13	0x3e6f52be	0.23371407
14	0x3d95a0f5	0.07306091
15	0x3d948951	0.072527535
16	0x3cace6db	0.021106174
17	0x3e38a149	0.18030275
18	0x3d596c57	0.053081837
19	0xbdd22a48	-0.10261971
20	0x3d03e506	0.032200836
21	0x3c6bedbf	0.014399945
22	0x3d313276	0.043261014
23	0xbd168978	-0.036752194
24	0xbe1e568f	-0.15462707
25	0xbe0066ea	-0.12539259
26	0x3dba3042	0.09091236
27	0x3db4acce	0.088220224
28	0x3de4e62e	0.11176716
29	0xbdd3f599	-0.103495784
30	0x3d5338eb	0.051567953
31	0xbbe0b761	-0.006857798
32	0xbd6c6113	-0.057709765
33	0xbcd08256	-0.025452774
34	0xbe2892b5	-0.16462214
35	0xbd351c52	-0.04421646
36	0x3da4d150	0.08047736
37	0x3ca8f02a	0.020622332
38	0x3e751c93	0.23936681
39	0xbb2cf8b8	-0.0026393365
40	0x3e14b358	0.14521539
41	0x3d7795d9	0.06044564
42	0x3d7c30ef	0.061570104
43	0x3e5e4f25	0.21709879
44	0x3c97b4c0	0.018518806
45	0x3cefcec8	0.029273406
46	0xbca1d7b6	-0.01975618
47	0xbd3c607d	-0.045990456
48	0x3bbadf22	0.005702869
49	0xbe20e09e	-0.15710685
50	0xbcaac70b	-0.020846864
51	0xbd1c9dc5	-0.0382364
52	0x3da5b8ce	0.08091889
53	0x3e152169	0.14563526
54	0x3dae0756	0.08497493
55	0xbc3c72e7	-0.011502004
56	0x3ac6df55	0.0015172759
57	0xbd3c4ebd	-0.04597353
58	0x3d38fb13	0.045161318
59	0x3bf469b2	0.007458889
60	0x3e2cf8ad	0.16891737
61	0xbe7676b0	-0.24068713
62	0x3c76b7af	0.015058442
63	0x3de936a0	0.11387372
64	0xbe78d179	-0.24298657
65	0x3ba0db79	0.0049089757
66	0x3cc524cc	0.024065398
67	0x3e775215	0.24152406
68	0xbdb0a996	-0.08626096
69	0x3e0b6dca	0.136161
70	0x3c92ee8b	0.017936012
71	0xbe16eda3	-0.14739089
72	0x3c8a6374	0.016893126
73	0x3dc19280	0.09451771
74	0xbda5c076	-0.0809335
75	0x3e86e9e6	0.26350325
76	0x3d6b460e	0.057439856
77	0x3e2f5f09	0.17126097
78	0x3e9e3faf	0.30907962
79	0xbd450c83	-0.048107635
80	0x3dc7819c	0.09741518
81	0xbe7dab48	-0.2477237
82	0x3cd7d61e	0.026347216
83	0x3d0eba27	0.034845497
84	0x3ecba445	0.39773765
85	0x3b6e917e	0.0036402638
86	0x3d077ee1	0.033079986
87	0x3dfd2475	0.12360469
88	0x3e1d756a	0.15376821
89	0x3e91738b	0.28408465
90	0x3d08d868	0.033409506
91	0x3c2a5f5d	0.010398713
92	0x3d964c39	0.07338757
93	0x3bf3dfa1	0.00744243
94	0xbd49aaba	-0.049235083
95	0x3d1ae013	0.03781135
96	0x3d466277	0.048433747
97	0xbca70828	-0.020389631
98	0xbd8c60bb	-0.068543874
99	0xbcc96624	-0.024584837
100	0xbdc68015	-0.096923985
101	0xbceab042	-0.0286485
102	0x3e721ea8	0.23644507
103	0x3cb3d4bb	0.021952024
104	0xbd966dd8	-0.0734517
105	0xbd56c0f1	-0.052430097
106	0x3e2e07ea	0.16995206
107	0x3c66c481	0.014084936
108	0x3e82589e	0.25458235
109	0x3e2de44a	0.16981617
110	0x3de5b3ff	0.11215972
111	0xbab74865	-0.0013983367
112	0xbda775fb	-0.081768
113	0x3d03d47a	0.032185055
114	0x3e6dadfd	0.23210903
115	0xbe0e5fab	-0.13903682
116	0xbce2fed1	-0.027709397
117	0x3d8ab02e	0.06771885
118	0x3d9a4375	0.07532398
119	0xbc873754	-0.016505875
120	0xbd9317dc	-0.07182285
121	0xbd1b2537	-0.037877288
122	0x3e58079e	0.21096656
123	0x3d9b0d11	0.075708516
124	0xbe7eb2df	-0.24872921
125	0xbda17f6f	-0.07885634
126	0x3e0bee92	0.13665226
127	0x3d4e6c0b	0.050396007
128	0xbe28e233	-0.16492538
129	0x3d90e14b	0.07074221
130	0xbce64cd3	-0.028112805
131	0x3d98737a	0.074439004
132	0xbdfa4045	-0.1221929
133	0xbdac0431	-0.08399237
134	0xbe2638f5	-0.16232665
135	0xbc887062	-0.01665515
136	0xbd3a7771	-0.045524064
137	0x3db4f49f	0.0883572
138	0x3da6b020	0.08139062
139	0xbe132a9b	-0.14371721
140	0xbdb0a8e1	-0.08625961
141	0x3a06db00	0.0005144328
142	0xbe8f3980	-0.27973557
143	0x3d62b8a8	0.055351883
144	0x3d98f5b9	0.07468743
145	0xbe4d8490	-0.200701
146	0xbcab38c7	-0.020901097
147	0xb9bde1f4	-0.00036217237
148	0x3d69c8a4	0.05707611
149	0xbc91a65c	-0.017779522
150	0xbe431d44	-0.19054133
151	0xbd35e6bd	-0.044409502
152	0x3d1e00d1	0.038574997
153	0xbeaadaec	-0.3337015
154	0x3d491f16	0.04910191
155	0x3c763644	0.015027586
156	0xbdd518fd	-0.10405157
157	0x3e77d33b	0.24201672
158	0xbc892a9d	-0.016743952
159	0xbccd2302	-0.025041107
160	0xbdcd3a80	-0.100209236
161	0x3cde77a0	0.027156651
162	0xbe94f569	-0.29093483
163	0x3e0a1e16	0.1348804
164	0x3c978409	0.018495576
165	0x3e548171	0.20752503
166	0xbec22428	-0.3791821
167	0xba8f6d2e	-0.0010942572
168	0x3e246218	0.16053045
169	0x3db1b737	0.086775236
170	0x3b9cf9a5	0.004790502
171	0xbe08e5c0	-0.13368893
172	0x3db39d4d	0.08770237
173	0x3dde4f86	0.10855012
174	0x3baf6361	0.005352423
175	0xbe0f4ebf	-0.13994883
176	0xbd494419	-0.04913721
177	0xbe1e6c39	-0.15470971
178	0xbea96498	-0.3308456
179	0x3da91b66	0.08257179
180	0x3da8e931	0.08247603
181	0xbbcbcf17	-0.0062197554
182	0x3d66e06f	0.05636638
183	0x3e3ff3dc	0.18745369
184	0xbd84c9b0	-0.06483781
185	0x3db3c3f2	0.08777608
186	0x3daa9608	0.083293974
187	0x3db42961	0.08796955
188	0xbd4538c4	-0.04814984
189	0x3e938ce3	0.28818426
190	0x3e0826e9	0.13296093
191	0x3da6a96f	0.08137786
192	0x3e844321	0.25832465
193	0x3d6770ab	0.056503933
194	0xbda5bcb3	-0.08092632
195	0x3d92c338	0.07166141
196	0x3d482476	0.048862897
197	0x3e0a0feb	0.13482635
198	0x3df40bbc	0.11916301
199	0xbe1a546b	-0.15071265
200	0x3dafe298	0.08588141
201	0x3eaad639	0.33366564
202	0x3db686ee	0.089124545
203	0xbe8bfbff	-0.27340695
204	0x3decdefc	0.115659684
205	0xbdd3a1aa	-0.10333569
206	0xbe9d4474	-0.30716288
207	0xbbc5947f	-0.006029665
208	0xbd7dd4d8	-0.06197056
209	0x3e72ab10	0.23698068
210	0x3bd0cb9a	0.0063719274
211	0xbb023cbf	-0.0019872633
212	0xbed6627d	-0.41872016
213	0x3db4b8fc	0.088243455
214	0xbd5ad727	-0.05342784
215	0xbe50da1f	-0.20395707
216	0xbd7af2ef	-0.061266836
217	0xbdca0a62	-0.098652616
218	0x3bcda517	0.0062757838
219	0xbd9432d3	-0.072362565
220	0x3df8ae04	0.12142566
221	0xbd28a6c5	-0.04117467
222	0xbd968afe	-0.073507294
223	0x3d86ffb7	0.065917425
224	0xbbdab813	-0.0066747754
225	0x3dc533d1	0.09629024
226	0x3d5c9757	0.053855266
227	0xbdab5ccf	-0.08367311
228	0xbe097027	-0.13421689
229	0x3c8639e2	0.016385023
230	0xbdc2884a	-0.09498651
231	0x3e753f32	0.23949888
232	0x3dbf6234	0.09344903
233	0xbcbfd5c6	-0.023417365
234	0x3d566ed1	0.052351777
235	0x3de5b259	0.11215658
236	0x3d5e7b55	0.054316837
237	0xbf24fe15	-0.644502
238	0xbc6e5a99	-0.014547967
239	0xbe32c815	-0.17459138
240	0xbc95c6b6	-0.01828323
241	0xbe48e6fe	-0.19619367
242	0xbcc4b154	-0.024010338
243	0xbe000ea1	-0.1250558
244	0xbabde296	-0.0014487084
245	0xbd31c62a	-0.043401875
246	0x3d3bc2e6	0.045840167
247	0x3da06f21	0.07833696
248	0x3b94ad28	0.0045372434
249	0xbc4d6252	-0.012535648
250	0xbebccd9d	-0.3687562
251	0xbd77b233	-0.06047268
252	0xbd5466a3	-0.051855695
253	0x3d8704d9	0.065927215
254	0x3b1abf2f	0.002361249
255	0xbd65afbd	-0.0560758

fc2.bias f4 [128]
0	0x3de9dc64	0.11418989
1	0xbcd82677	-0.026385529
2	0xbda3e9f5	-0.08003608
3	0x3bee126e	0.0072653806
4	0x3cc24d57	0.02371852
5	0x3cc05456	0.023477715
6	0xbd4102ba	-0.04712174
7	0xbd9e71a6	-0.077365205
8	0x3b8f007d	0.004364072
9	0x3d3ff497	0.04686412
10	0xbd97491d	-0.07386992
11	0xb8ae72ab	-8.318325e-05
12	0x3d53cc79	0.051708672
13	0x3c46f448	0.012143202
14	0xbd30c528	-0.043156773
15	0x3c923040	0.017845273
16	0x3c99ca18	0.018773124
17	0x3dbb71fb	0.091525994
18	0x3bf4f8ae	0.007475934
19	0x3d6f80c3	0.058472406
20	0x3d761b6e	0.060084753
21	0x3db0a4d6	0.0862519
22	0x3dca8d1c	0.09890196
23	0x3c160d35	0.009158422
24	0x3c1251e9	0.008930662
25	0x3d9cb07b	0.076508485
26	0x3c9bb676	0.019007903
27	0x3d24b414	0.0402108
28	0x3d80c9fc	0.062885255
29	0xbd9dca45	-0.077045955
30	0xbc805791	-0.015666755
31	0xbdb0564f	-0.08610212
32	0x3cf99751	0.030467661
33	0x3c8c8bd0	0.017156512
34	0xbd5ad834	-0.053428844
35	0x3c35e896	0.011102816
36	0x3c5f739d	0.013638404
37	0x3d94670d	0.07246218
38	0x3d049795	0.032371122
39	0x3dabc0e9	0.08386404
40	0x3d825388	0.063635886
41	0xbda7cb11	-0.08193029
42	0x3bf2a93f	0.0074054296
43	0xbd3b157e	-0.045674793
44	0x3caac48f	0.02084568
45	0x3d824c23	0.06362178
46	0x3d8bbaec	0.06822762
47	0x3d179f6f	0.037017282
48	0x3b870b4d	0.00412122
49	0x3caf4046	0.021392953
50	0x3d7d8d46	0.061902307
51	0x3866f624	5.506551e-05
52	0xbce3c424	-0.027803488
53	0xbc1bbeee	-0.00950597
54	0xbd4d9d0c	-0.0501986
55	0xbd080a2c	-0.033212826
56	0x3d15d9c5	0.036584634
57	0x3d357b12	0.044306822
58	0xbd3eeff0	-0.04661554
59	0x3dd47038	0.103729665
60	0x3bcb424e	0.0062029725
61	0xbd96cb0a	-0.073629454
62	0xbd91cc24	-0.07119015
63	0x3d545275	0.05183645
64	0xbd960882	-0.073258415
65	0x3ce19493	0.027536666
66	0x3c7aaadc	0.015299525
67	0xbd79217d	-0.060822953
68	0x3d7ee0f0	0.062226236
69	0xbcb7ecbc	-0.022451751
70	0xbd95eb8d	-0.07320318
71	0x3c27d500	0.010243654
72	0xbd9b7303	-0.07590296
73	0xbd928e7a	-0.071560815
74	0x3d4fc430	0.05072421
75	0x3d12ebdc	0.035869464
76	0xbd6e07bf	-0.058112856
77	0x3cfd0b95	0.030889312
78	0x3d5a0548	0.053227693
79	0x3d030bdd	0.031993736
80	0x3db06151	0.08612312
81	0xbd484431	-0.048893157
82	0xbd705df8	-0.058683366
83	0x3d2d8afc	0.042368874
84	0xbcc75d23	-0.024336403
85	0xbcf79c7a	-0.030225981
86	0x3d01bdb6	0.031675063
87	0xbd857cc3	-0.06517937
88	0xbae6ba08	-0.0017603049
89	0xbcb136a9	-0.02163251
90	0x3cd0cc91	0.02548817
91	0x3dc90344	0.09815076
92	0xbd822526	-0.06354742
93	0xbdc0bd59	-0.09411115
94	0x3da41cbe	0.08013295
95	0x3df650e6	0.12027149
96	0xbcc8f45e	-0.024530586
97	0xbb7b69c0	-0.0038362592
98	0x3dd0c2b0	0.10193384
99	0xbd26776e	-0.04064124
100	0x3d20ffb9	0.039306376
101	0x3dd94d12	0.10610403
102	0xbc58aaae	-0.013224287
103	0xbdb5ed9f	-0.08883213
104	0xbb93d71f	-0.0045117284
105	0x3d51a3af	0.05118149
106	0xbdafde51	-0.08587325
107	0x3d7e64b7	0.062107768
108	0xbcad468f	-0.021151809
109	0xbd79ea15	-0.061014254
110	0x3d075214	0.03303726
111	0xbd2f6cda	-0.04282842
112	0x3d4e01ec	0.0502948
113	0x3ce993a3	0.028512781
114	0xbd068f69	-0.03285161
115	0x3b246804	0.0025086412
116	0x3d6f96c4	0.05849339
117	0x3c461c30	0.012091681
118	0x3d3f1a43	0.046655905
119	0xbd14c38d	-0.036319304
120	0xbcc2e4ae	-0.023790684
121	0x3d1d0306	0.03833296
122	0xbcfd8251	-0.030945929
123	0x3da95c54	0.08269563
124	0xbd502fef	-0.050826963
125	0xbd33bb0a	-0.043879546
126	0x3bfc3400	0.0076966286
127	0x3d89b57a	0.06724067

fc3.weight f4 [128, 128]
0	0x3c8b4c12	0.017004047
1	0x3ce2eecd	0.02770176
2	0x3c06092d	0.008180899
3	0x3b878cf8	0.004136678
4	0xbd9aaf76	-0.07552998
5	0xbdb597eb	-0.08866867
6	0x3c473e27	0.012160814
7	0x3c48f58f	0.012265577
8	0x3e18f201	0.14936067
9	0x3c960b07	0.018315805
10	0xbcb7395e	-0.022366222
11	0x3d9458e6	0.072435185
12	0xbdb8c0d9	-0.09021158
13	0x3d11b1a1	0.03556979
14	0xbd497653	-0.04918511
15	0x3ca52739	0.020160304
16	0x3ddca647	0.107739024
17	0xbdea9178	-0.11453527
18	0xbd940fcc	-0.072295755
19	0xbc2a8d07	-0.0104096
20	0xbd0c7236	-0.034288608
21	0xbd881c21	-0.0664599
22	0x3b2087a9	0.0024494922
23	0xbd21924d	-0.039446164
24	0xbe2162c7	-0.15760337
25	0x3d2b5435	0.041828353
26	0x3d375d73	0.044766854
27	0x3e5df365	0.21674879
28	0x3abb638a	0.0014296633
29	0x3d5f9b7c	0.05459164
30	0x3d38d958	0.04512915
31	0x3dc2ace8	0.095056355
32	0x3dcdb64e	0.100445375
33	0x3da31be7	0.07964306
34	0xbbb853e3	-0.0056252345
35	0xbc172af8	-0.009226553
36	0xbd878f23	-0.06619098
37	0x3e483786	0.1955243
38	0xbca21e2d	-0.01978978
39	0x3d38aa2f	0.045084175
40	0x3cf197e9	0.029491382
41	0xbd54aea3	-0.05192436
42	0x3e0ef11e	0.13959166
43	0xbcc86810	-0.024463683
44	0x3db9dac0	0.090749264
45	0xbdcdbdd7	-0.10045975
46	0xbd09b086	-0.03361561
47	0x3e16ea9d	0.14737935
48	0x3d3b0bd4	0.045665577
49	0xbe104d12	-0.140919
50	0x3df10e92	0.11770357
51	0xbdb86a67	-0.0900467
52	0x3d27a7ed	0.04093163
53	0xbd8aaf38	-0.067717016
54	0xbc4268d9	-0.011865818
55	0xbe040150	-0.12891126
56	0xbcbe8fac	-0.023261867
57	0x3bbaceb1	0.005700909
58	0x3cd452db	0.025918415
59	0xbdeae10b	-0.11468705
60	0x3c31e575	0.0108579295
61	0xbdbe3a4f	-0.09288465
62	0x3d9119c4	0.070849925
63	0xbcae760f	-0.02129653
64	0x3d4bafa8	0.049728066
65	0xbcb53ae8	-0.022122815
66	0x3cf825eb	0.030291518
67	0x3dcbc013	0.099487446
68	0xbd35b9bd	-0.044366587
69	0xbda289ed	-0.079364635
70	0xbc7e1c47	-0.0155096715
71	0xbda9162a	-0.082561806
72	0xbd19fd91	-0.037595335
73	0xbe0f23bf	-0.1397848
74	0xbec2b3e8	-0.38027883
75	0x3d89c2ec	0.067266315
76	0x3cad33b4	0.021142818
77	0x3d69aca9	0.057049427
78	0x3d0153f7	0.031574216
79	0xbe4a2cbd	-0.19743629
80	0x3d8c5e1a	0.06853886
81	0xbda3fc9c	-0.08007166
82	0xbcb37c82	-0.021909956
83	0xbd2d8f8c	-0.042373225
84	0x3c592e4d	0.013255668
85	0x3d922ea6	0.07137804
86	0x3de9220a	0.113834456
87	0x3db19055	0.08670107
88	0x3db3e028	0.08782989
89	0x3bffbbb7	0.00780436
90	0x3dd99e2f	0.10625874
91	0x3deb4404	0.11487582
92	0xbd1f308a	-0.03886465
93	0x3d8086c8	0.062757075
94	0xbd064baa	-0.032787003
95	0x3d98d400	0.07462311
96	0xbd27371c	-0.04082404
97	0x3d3d56a1	0.046225194
98	0x3d1e7bcc	0.03869228
99	0x3c1a9d41	0.009436906
100	0x3d46b5e6	0.048513316
101	0x3d822d83	0.06356337
102	0xbd274a30	-0.040842235
103	0xbd2ec69f	-0.04266989
104	0xbd199ed6	-0.037504993
105	0xbaf1d022	-0.0018448869
106	0x3d91565b	0.07096549
107	0x3d5690ce	0.05238419
108	0x3d731add	0.05935179
109	0x3d29c6a8	0.04144922
110	0x3def5079	0.11685271
111	0x3d41f8be	0.04735636
112	0x3cdb1a46	0.026745927
113	0x3ca6c8af	0.020359365
114	0xbc21a07f	-0.009864925
115	0x3bf1c365	0.007378029
116	0xbd6912f1	-0.05690283
117	0xbc44bf15	-0.012008448
118	0x3d97b7c6	0.07408099
119	0x3da20a66	0.079121396
120	0x3de126f2	0.10993756
121	0x3da96626	0.082714364
122	0x3e08f3bd	0.13374229
123	0xbd15ee24	-0.03660406
124	0xbd0fa52a	-0.035069622
125	0x3c7ba820	0.015359908
126	0x3d5213e9	0.05128852
127	0x3db11eb2	0.08648433
128	0x3d92883f	0.07154893
129	0x3e51a550	0.20473218
130	0xbc2c8ad3	-0.010531145
131	0x3d96a8b9	0.073564
132	0x3d74960a	0.0597134
133	0x3e17dc59	0.1483015
134	0xbe2eebbe	-0.17082116
135	0x3d8b9ace	0.06816636
136	0xbdee5bb4	-0.11638585
137	0xbe08433f	-0.13306902
138	0x3d3db864	0.046318427
139	0xbd85a524	-0.06525639
140	0x3d5afec5	0.053465623
141	0xbb166ecd	-0.0022954226
142	0x3cba8965	0.022770593
143	0x3d282510	0.04105097
144	0xbd551d45	-0.052029867
145	0x3de1d4b4	0.11026898
146	0xbd4ab721	-0.04949105
147	0xbd4466e2	-0.04794968
148	0xbd0b88ba	-0.03406594
149	0x3d4c76c0	0.049917936
150	0xbe5ec170	-0.21753478
151	0x3d88e9e9	0.0668524
152	0x3deebfb3	0.116576575
153	0xbd9b9478	-0.075966775
154	0xbbf311ef	-0.0074179093
155	0xbe389e0e	-0.18029043
156	0xbd074c85	-0.03303196
157	0x3ce44929	0.027866917
158	0x3d152610	0.036413252
159	0xbd8b84fc	-0.06812474
160	0xbbbe8cac	-0.0058151092
161	0xbc9dce93	-0.019263541
162	0xbd85d449	-0.06534631
163	0x3db9cc95	0.09072224
164	0xbd08df3d	-0.03341602
165	0xbe2b95b0	-0.1675632
166	0x3dc76f95	0.097380795
167	0x3d61a196	0.05508574
168	0x3bb25c94	0.005443165
169	0x3cbb200e	0.022842433
170	0x3c81082b	0.015750965
171	0x3d446ff4	0.04795833
172	0xbdfc42ca	-0.123174265
173	0xbd3a6af0	-0.04551214
174	0x3ccdaa88	0.02510573
175	0x3d6a4ddb	0.057203155
176	0xbe16c50e	-0.14723608
177	0x3d450398	0.04809913
178	0xbe806fb2	-0.25085217
179	0x3dbb1d8f	0.09136497
180	0xbd852fb2	-0.06503238
181	0xbca60595	-0.020266334
182	0xbd6641a8	-0.05621496
183	0x3d8d2fda	0.068938926
184	0x3d4f2e24	0.050581113
185	0x3b4b8bef	0.0031058749
186	0xbcd17284	-0.0255673
187	0x3dc1ae53	0.09457078
188	0x3c09ea2e	0.008417649
189	0x3d313904	0.043267265
190	0xbcd9ee80	-0.026602983
191	0x3b1cb448	0.0023911167
192	0xbd093349	-0.033496175
193	0xbdb4009c	-0.08789179
194	0xbd205ca6	-0.039150856
195	0xbcf7434c	-0.030183457
196	0xbd179fc2	-0.03701759
197	0x3d9e2946	0.07722716
198	0x3c9899f3	0.018628096
199	0xbd07da1e	-0.033166997
200	0xbdb4e798	-0.088332355
201	0xbcb8a8b9	-0.02254139
202	0x3e20e4af	0.15712236
203	0xbc715fa1	-0.014732272
204	0xbdac5e0d	-0.08416376
205	0x3c840dc5	0.016119847
206	0x3ce1d69d	0.027568156
207	0x3de12cbd	0.10994861
208	0xbd971f86	-0.073790595
209	0x3d88491d	0.0665457
210	0xbdc9d4c5	-0.09855036
211	0x3d3a709d	0.045517553
212	0x3b31ae5b	0.002711198
213	0xbda36e9e	-0.07980083
214	0x3da4fc00	0.08055878
215	0xbcd3a96f	-0.025837628
216	0xbda39b45	-0.079886
217	0x3da7e021	0.08197046
218	0x3d4a0183	0.049317848
219	0xbd84df18	-0.06487864
220	0x3d046957	0.032327022
221	0xbc9b562f	-0.018961994
222	0x3d4a7166	0.04942455
223	0xba810416	-0.0009843137
224	0x3eb40934	0.3516327
225	0xbcb2a14a	-0.021805424
226	0xbd87fdaa	-0.066401795
227	0x3e0c3905	0.13693626
228	0xbd67eac7	-0.056620385
229	0x3d816775	0.06318561
230	0x3da518ac	0.080613464
231	0xbc1966d4	-0.009362895
232	0xbc0aea27	-0.008478678
233	0xbe040e81	-0.12896158
234	0x3d67449f	0.056461927
235	0x3da317a4	0.079634935
236	0xbdadbd23	-0.084833406
237	0xbca8d231	-0.02060804
238	0x3dc8c5b6	0.09803335
239	0xbc0f0f19	-0.008731627
240	0x3e5c53d0	0.21516347
241	0xbb7bc60d	-0.0038417608
242	0xbd8b922f	-0.06814992
243	0x3de09356	0.10965602
244	0x3df35c81	0.11882878
245	0x3d87aca3	0.06624725
246	0x3d5b4e9d	0.05354177
247	0xbd17a14e	-0.037019067
248	0xbdf5a4a5	-0.11994294
249	0x3d44d9d0	0.048059285
250	0x3d84ddff	0.06487655
251	0xbd85df7d	-0.06536768
252	0xbd59e667	-0.053198244
253	0x3d614688	0.054998904
254	0xbd05aa59	-0.03263316
255	0x3c9f94e4	0.019480176

fc3.bias f4 [128]
0	0x3e000819	0.12503089
1	0x3dc19146	0.09451537
2	0xbdd63ff4	-0.10461417
3	0x3d75fab8	0.060053557
4	0x3e04f91d	0.12985654
5	0x3dd63006	0.104583785
6	0xbcf4bc6b	-0.029875001
7	0x3dbb1ab5	0.09135953
8	0x3e14d9de	0.14536235
9	0x3d8a7ab5	0.06761686
10	0x3c1a671c	0.009423997
11	0x3dd320ed	0.103090145
12	0xbda270b4	-0.07931653
13	0xbd9d0c87	-0.07668405
14	0xbddb72f6	-0.107152864
15	0x3d0021aa	0.031282105
16	0xbc943d4b	-0.018095633
17	0x3dff4c59	0.12465734
18	0xbdfac924	-0.12245396
19	0x3ccd971c	0.025096469
20	0xbd2e5ed4	-0.042570904
21	0xbd8d44af	-0.06897866
22	0x3d8d6496	0.06903951
23	0xbd3fc56a	-0.046819128
24	0x3e1cb02a	0.15301576
25	0xbd5d20b2	-0.05398626
26	0x3cbe9d53	0.023268377
27	0xbce846c5	-0.028354058
28	0xbd95c3e8	-0.07312757
29	0x3cebc921	0.02878243
30	0xbd21655f	-0.039403316
31	0x3c59dd6f	0.013297423
32	0x3ddb0607	0.10694509
33	0x3d9642cd	0.0733696
34	0x3d30057b	0.042973977
35	0xbd8b4bce	-0.06801568
36	0xbc2b311a	-0.010448718
37	0xbcf0d946	-0.029400479
38	0xbdb5e394	-0.08881298
39	0x3dc86b3d	0.09786079
40	0x3d14a26e	0.036287718
41	0x3dcce5c8	0.10004765
42	0x3d07cca4	0.033154145
43	0xbda002e3	-0.078130506
44	0x3dd58147	0.10425048
45	0x3d2a45cf	0.04157048
46	0x3df01922	0.11723544
47	0x3d944943	0.07240536
48	0xbdd9a16d	-0.10626493
49	0x3dc7b91f	0.09752106
50	0x3e140ea4	0.1445871
51	0x3bbb26b3	0.0057114004
52	0xbd42b5e4	-0.047536746
53	0xbdaefabf	-0.0854392
54	0xbb710500	-0.0036776662
55	0x3e05352d	0.13008566
56	0xbb132e73	-0.0022458106
57	0xbd68d8e1	-0.056847457
58	0x3c4d43b6	0.012528351
59	0xbda68913	-0.081316136
60	0x3d24736e	0.040149145
61	0x3d70d69c	0.058798417
62	0x3cb3d57c	0.021952383
63	0xbd08aa8a	-0.033365764
64	0x3c7da211	0.015480534
65	0x3de38058	0.11108464
66	0x3d96f8fe	0.0737171
67	0x3da4f2cf	0.080541246
68	0x3d8e70f0	0.06955135
69	0xbc23238f	-0.009957208
70	0x3df09af0	0.11748302
71	0x3c5908dc	0.013246741
72	0xbd814bd3	-0.063132904
73	0x3ca54f16	0.020179313
74	0xbdc3d4d0	-0.09562075
75	0x3def2282	0.11676504
76	0xbb3ec01d	-0.0029106208
77	0xbc5d75bf	-0.013516842
78	0xbd9f575d	-0.07780335
79	0xbd869c09	-0.0657273
80	0x3df79153	0.12088265
81	0x3cbb4372	0.022859309
82	0xbdb84848	-0.089981616
83	0x3de3e093	0.111268185
84	0xbdd4153f	-0.10355615
85	0x3bb59598	0.0055415146
86	0x3b2862dd	0.0025693693
87	0x3c128a62	0.008944126
88	0x3ccd7839	0.02508174
89	0xbdbddc04	-0.0927048
90	0xbca71fde	-0.020400938
91	0xbd4e18e9	-0.050316725
92	0xbb910cc7	-0.004426572
93	0x3c35c1f0	0.011093602
94	0xbb82735b	-0.0039810366
95	0x3daea556	0.08527629
96	0xbcac26db	-0.021014621
97	0x39844a3e	0.00025232317
98	0xbd3b5b2c	-0.045741245
99	0x3d9cf07e	0.07663058
100	0xbdae78c1	-0.08519126
101	0x3dfde90b	0.12397965
102	0x3d70baab	0.05877177
103	0xbd115a64	-0.035486594
104	0xb98a2cf2	-0.00026354898
105	0x3a1922a9	0.00058416516
106	0x3db08672	0.086193934
107	0x3e386542	0.18007377
108	0x3e0d8205	0.1381913
109	0x3d28c7b4	0.041206077
110	0xbc7aeb0c	-0.015314829
111	0x3a00d475	0.0004914471
112	0xbddc5f83	-0.10760405
113	0xbd815fcb	-0.06317099
114	0xbd23e13d	-0.040009726
115	0x3bad98e4	0.005297767
116	0x3b71f3e2	0.0036919047
117	0xbd40d231	-0.047075454
118	0x3d96f73b	0.07371374
119	0x3da48757	0.080336265
120	0xbda61a74	-0.08110514
121	0x3dc82eb4	0.09774533
122	0xbd2b7278	-0.041857213
123	0xbdb9f0dd	-0.09079144
124	0x3cb180ed	0.021667922
125	0x3d0ed7c9	0.034873758
126	0xbd16eff1	-0.03684992
127	0x3d8ba2e1	0.06818176

fc4.weight f4 [2, 128]
0	0xbe1a3e32	-0.15062788
1	0x3e1b38f6	0.15158448
2	0x3c481d5c	0.012214031
3	0x3dd7215b	0.10504409
4	0xbe10bfbe	-0.14135644
5	0xbe3e9219	-0.1861042
6	0x3d53cd88	0.05170968
7	0xbd8c56b3	-0.06852474
8	0xbe220ee7	-0.15825997
9	0xbe306e52	-0.17229584
10	0x3e44086a	0.19143835
11	0xbe8977f6	-0.26849335
12	0xbc12dc22	-0.008963617
13	0x3d73e640	0.059545755
14	0xbc92913b	-0.017891517
15	0xbe0ffbc4	-0.14060885
16	0x3dec2c86	0.1153193
17	0xbda38b72	-0.079855815
18	0xbd0995d4	-0.033590153
19	0x3cafa739	0.021442043
20	0xbdccdc38	-0.10002941
21	0xbe1e2d7f	-0.15447043
22	0xbe11d81b	-0.14242594
23	0x3e09d3c7	0.13459693
24	0xbe6a6ae4	-0.22892338
25	0xbbf300a5	-0.0074158483
26	0xbe61a7aa	-0.22036615
27	0x3e09237b	0.13392441
28	0xbdaff0e2	-0.085908666
29	0xbe16cadb	-0.1472582
30	0x3dc3c7b7	0.09559577
31	0x3e22795a	0.15866604
32	0xbdbcfba9	-0.09227688
33	0x3a399df5	0.00070807274
34	0xbd9606cb	-0.073255144
35	0xbb441d85	-0.0029924822
36	0x3e559f25	0.2086149
37	0x3dea7ad0	0.11449206
38	0xbd47e9e2	-0.048807032
39	0xbeb6e335	-0.3572022
40	0xbe562eb8	-0.2091626
41	0xbeaf76b9	-0.34270266
42	0xbd513c46	-0.05108287
43	0x3b6e005a	0.0036316128
44	0x3db90301	0.09033776
45	0xbdd687b7	-0.10475104
46	0xbe2accda	-0.16679707
47	0xbdf8c1ce	-0.1214634
48	0xbe4fb382	-0.2028332
49	0x3dd394b4	0.10331097
50	0xbd0ca7b3	-0.034339618
51	0x3d063dfb	0.032773953
52	0x3e1440eb	0.14477889
53	0x3d81d909	0.06340224
54	0x3b01bc2b	0.0019795995
55	0xbd581f06	-0.05276396
56	0xbe63a826	-0.22232112
57	0xbe0abdfc	-0.13549036
58	0x3d128182	0.03576804
59	0xbd7aca4a	-0.061228074
60	0x3db0976e	0.08622633
61	0xbcee4929	-0.02908762
62	0xbdaed4eb	-0.08536705
63	0xbb4ed181	-0.003155798
64	0x3e087f78	0.13329875
65	0xbe5d4a99	-0.21610488
66	0xbe4bf618	-0.19918096
67	0xbe52aacd	-0.20572968
68	0xbe7ae264	-0.24500424
69	0x3e0d0a5a	0.1377348
70	0xbe38cc76	-0.18046746
71	0xbe824141	-0.2544041
72	0x3d8a1134	0.067415625
73	0x3dcdf825	0.100570954
74	0xbd9e1ddd	-0.0772054
75	0xbe1c8844	-0.15286356
76	0xbe3faced	-0.1871831
77	0xbe729897	-0.23691021
78	0x3c446bca	0.01198859
79	0xbe26ac91	-0.16276766
80	0xbe7de1e1	-0.24793197
81	0x3e0ed45c	0.13948196
82	0x3939aa1d	0.00017706347
83	0xbdd22088	-0.10260111
84	0xbda279c8	-0.07933384
85	0x3e222428	0.15834105
86	0xbe86f60d	-0.26359597
87	0xbcc9542b	-0.024576267
88	0x3dacc71e	0.08436416
89	0x3e1c3799	0.15255584
90	0xbe260ec8	-0.16216576
91	0x3d955a2f	0.07292592
92	0xbe6dfdf6	-0.2324141
93	0x3df33742	0.11875774
94	0x3c9b7a6a	0.01897927
95	0xbe52f174	-0.2059992
96	0xbda120f9	-0.07867617
97	0xbe1a3f66	-0.15063247
98	0x3cd38f6f	0.02582523
99	0xbe30a9b1	-0.17252232
100	0x3d82e081	0.06390477
101	0xbe040801	-0.12893678
102	0xbe5ffa0b	-0.21872728
103	0xbe60a215	-0.2193683
104	0x3e50ad66	0.20378646
105	0x3dd54c06	0.10414891
106	0xbea7f62d	-0.32805005
107	0xbe9699fb	-0.29414353
108	0xbde5a1b4	-0.11212483
109	0xbcea6675	-0.028613308
110	0xbd27ba6f	-0.04094928
111	0xbe870d43	-0.26377305
112	0x3dd38bae	0.10329376
113	0xbe629860	-0.22128439
114	0xbcab37d6	-0.020900648
115	0xbdba3504	-0.09092143
116	0x3e1573f4	0.14595014
117	0xbd817fd3	-0.06323209
118	0xbd82e82f	-0.06391942
119	0x3da742d9	0.08167047
120	0xbe205138	-0.15655982
121	0xbc246fc8	-0.010036416
122	0xbb5ba603	-0.0033515699
123	0x3d916aeb	0.07100471
124	0xbe4cc1b7	-0.19995771
125	0x3ddd5f63	0.10809209
126	0xbe1963d7	-0.14979492
127	0xbe5fb610	-0.21846795
128	0xbde81db8	-0.113337934
129	0x3ca93fe7	0.020660354
130	0xba090974	-0.0005227544
131	0x3cc81c25	0.024427483
132	0xbd8abaec	-0.06773934
133	0xbdc69150	-0.09695685
134	0xbd859106	-0.06521802
135	0xbe054095	-0.13012917
136	0xbe822bf1	-0.2542415
137	0xbe690f45	-0.22759731
138	0x3df61047	0.120148234
139	0xbdfeeeae	-0.12447868
140	0x3de5b84c	0.112167925
141	0x3ce2f1c5	0.027703175
142	0x3edb75c9	0.428633
143	0xbe500195	-0.20313103
144	0xbceb754b	-0.028742453
145	0xbe6aba42	-0.22922614
146	0x3da03913	0.07823386
147	0xbe038c34	-0.12846452
148	0x3df85641	0.121258266
149	0xbc6d0144	-0.014465634
150	0xbdc6bbbc	-0.09703776
151	0xbcdb2499	-0.02675085
152	0xbe0bd796	-0.13656458
153	0xbc929e72	-0.017897818
154	0xbe05045e	-0.12989947
155	0x3d5b60f0	0.053559244
156	0x3d901301	0.07034875
157	0x3d2e2b67	0.04252186
158	0xbd5d9845	-0.054100294
159	0x3de08526	0.10962896
160	0xbe356ea5	-0.17717989
161	0xbe3fc836	-0.18728718
162	0x3f086ad6	0.5328802
163	0xbb950d49	-0.004548703
164	0x3eecdd1a	0.46262437
165	0x3d7aed5f	0.06126153
166	0x3d1c917c	0.038224682
167	0xbdf5c624	-0.12000683
168	0xbd517efd	-0.051146496
169	0xbd358f0b	-0.04432587
170	0x3d2a3207	0.041551616
171	0xbbd11b9e	-0.006381466
172	0xbd90087c	-0.07032868
173	0xbddb7b1c	-0.107168406
174	0x3e24d224	0.16095787
175	0xbdaa6462	-0.08319928
176	0x3e1276fa	0.14303198
177	0x3e60491c	0.21902889
178	0xbe4b318d	-0.19843121
179	0xbe0dea26	-0.13858852
180	0x3df8f8e5	0.12156848
181	0x3bf451fb	0.007456062
182	0xbd8b186e	-0.06791769
183	0xbe984398	-0.2973907
184	0xbdb31119	-0.087434955
185	0x3d9253d8	0.07144898
186	0xbdbb1ccb	-0.09136351
187	0x3d9782cd	0.07397995
188	0x3da012a9	0.07816059
189	0xbe9ecaaf	-0.3101401
190	0xbde17388	-0.11008364
191	0x3c119b66	0.0088871475
192	0x3e38aae4	0.1803394
193	0xbdb17c5d	-0.086662985
194	0xbe205d61	-0.15660621
195	0xbc96395c	-0.018337898
196	0xbdb75974	-0.08952609
197	0x3e54e783	0.2079144
198	0x3e633b05	0.22190483
199	0x3e8904f7	0.267616
200	0x3cb4a3b3	0.022050714
201	0x3e46ebde	0.19425914
202	0xbd80dd0b	-0.062921606
203	0xbe54ddff	-0.2078781
204	0x3e9c691e	0.30548948
205	0xbd89bf34	-0.06725922
206	0x3d61634b	0.055026334
207	0xbe1effa3	-0.15527205
208	0xbcb11fbf	-0.021621583
209	0x3dd2d751	0.102949746
210	0x3d4c9e1a	0.049955465
211	0xbe50c674	-0.20388204
212	0x3e5b6ef0	0.21429038
213	0x3d9014a1	0.07035185
214	0x3d0e8ad9	0.034800384
215	0xbd115b3c	-0.0354874
216	0x3e2b23b7	0.16712843
217	0x3d645269	0.055742655
218	0x3e4a475b	0.19753782
219	0xbd264cf4	-0.040600732
220	0xbdee4ce2	-0.11635758
221	0x3d66515a	0.056229927
222	0x3e86aad0	0.26302195
223	0x3d96385a	0.07334967
224	0x3dc417ef	0.095748775
225	0xbe050412	-0.12989834
226	0xbcfe9c21	-0.031080307
227	0xbe0d8e65	-0.1382385
228	0xbc94e2f2	-0.018174622
229	0xbd4c0984	-0.049813762
230	0x3e59e6ee	0.21279499
231	0x3e9cdfb3	0.3063942
232	0xbedec2f7	-0.4350812
233	0x3e803565	0.25040737
234	0x3bafbfa6	0.0053634224
235	0xbd0ea0e7	-0.034821417
236	0x3f20abd6	0.627622
237	0xbe698599	-0.2280487
238	0xbd0ada9d	-0.033899892
239	0xbcb19beb	-0.021680793
240	0x3e4408d5	0.19143994
241	0x3e46b7e2	0.19406083
242	0xbd37d5f8	-0.04488179
243	0x3da3ac4c	0.079918474
244	0x3d72d45e	0.05928456
245	0x3d29a702	0.041419037
246	0xbd87db07	-0.06633573
247	0x3bb670f4	0.0055676643
248	0x3ead7cb1	0.33884194
249	0xbe923e94	-0.28563368
250	0x3c9c3532	0.019068334
251	0x3d503574	0.050832227
252	0xbd3a37ef	-0.0454635
253	0x3e32890f	0.17435096
254	0xbd5a44f7	-0.053288426
255	0xbcb4c4ae	-0.02206644

fc4.bias f4 [2]
0	0xbd962875	-0.07331935
1	0x3c918250	0.017762333

fc1.weight f4 [128, 7]
0	0x3e84d39f	0.25942704
1	0xbefa4df6	-0.48887604
2	0x3e44c52e	0.19215843
3	0x3e3cac31	0.18425061
4	0xbe83981a	-0.25701982
5	0x3e30cf06	0.17266473
6	0x3e6c64c8	0.2308532
7	0x3d785797	0.060630407
8	0x3eaad7ea	0.33367854
9	0x3c2c6450	0.010521963
10	0x3e66e09b	0.22546618
11	0x3d850b4f	0.064962976
12	0x3d60bad5	0.054865677
13	0x3e0e2e47	0.13884841
14	0xbeb68bf8	-0.35653663
15	0x3dddde8a	0.108334616
16	0xbe1f60f5	-0.1556433
17	0xbeb66914	-0.35627043
18	0xbe9536ee	-0.2914347
19	0xbd0e180e	-0.03469091
20	0x3ce83659	0.028346227
21	0xbe848e22	-0.2588969
22	0x3e1877e9	0.14889492
23	0x3d37d8b7	0.04488441
24	0x3daa0f53	0.08303704
25	0x3d5bfa55	0.053705532
26	0x3da67078	0.081269205
27	0x3ed64e66	0.41856688
28	0xbd34a7e6	-0.044105433
29	0x3ec3f327	0.38271448
30	0xbf005485	-0.50128967
31	0xbd9cf5fe	-0.07664107
32	0xbed9fb10	-0.42574358
33	0x3e40f3d7	0.18843018
34	0x3ec9723c	0.39344966
35	0x3ca2c542	0.01986945
36	0x3e0f7a48	0.1401149
37	0x3e79db5d	0.24400087
38	0xbe91ff86	-0.2851526
39	0x3d9e67f3	0.077346705
40	0xbead5313	-0.33852443
41	0xbdcb7d1e	-0.099359736
42	0x3dddc419	0.10828418
43	0xbe8b7845	-0.27240196
44	0x3dee3424	0.11631039
45	0xbe81f7e0	-0.25384426
46	0xbe27d795	-0.16390832
47	0xbec62eca	-0.38707572
48	0xbe827d89	-0.254864
49	0xbd2b18d9	-0.041771743
50	0x3e1dfd98	0.1542877
51	0xbeb04aff	-0.34432217
52	0xbec3c5fe	-0.38236994
53	0x3cad0469	0.021120267
54	0x3e1619c3	0.14658265
55	0x3eaf9311	0.3429189
56	0xbe183d6e	-0.14867184
57	0x3e191696	0.14950022
58	0x3ecb2791	0.39678624
59	0x3dd46da0	0.10372472
60	0xbe97c2fe	-0.29640955
61	0x3ece7315	0.40322176
62	0x3def37f6	0.116805956
63	0xbe30799a	-0.17233887
64	0xbe99050a	-0.29886657
65	0x3e913f48	0.28368592
66	0xbdb14a8f	-0.08656799
67	0xbe696360	-0.22791815
68	0xbe49bb33	-0.19700317
69	0x3dfa186b	0.122116886
70	0x3e0e64e3	0.13905673
71	0x3eb223c4	0.34792912
72	0xbcfab62c	-0.030604444
73	0x3ead5318	0.33852458
74	0x3ed4577b	0.41472992
75	0xbd92f700	-0.07176018
76	0xbf0751a7	-0.52858967
77	0x3e23990a	0.15976349
78	0xbe86bf21	-0.26317695
79	0x3cfe4e8e	0.031043317
80	0xbe417a45	-0.18894298
81	0xbf208170	-0.62697506
82	0x3ef3e8c6	0.4763853
83	0xbe6165e8	-0.2201153
84	0x3e21b89c	0.15793079
85	0xbebc95cf	-0.36833045
86	0x3eb5ecbc	0.35532176
87	0xbe36d317	-0.17853962
88	0x3eb53f11	0.35399678
89	0xbe8d1a26	-0.27559012
90	0xbd42c709	-0.047553096
91	0x3e96a88a	0.2942546
92	0x3eb24a26	0.34822196
93	0xbe9267de	-0.2859487
94	0xbea25536	-0.31705636
95	0x3e9a6f4b	0.30163035
96	0x3df65535	0.12027971
97	0xbe945c82	-0.28976828
98	0x3e47e7a8	0.19521964
99	0xbeaa6821	-0.3328257
100	0xbe315ba6	-0.17320117
101	0xbe13833c	-0.1440553
102	0xbbd65b52	-0.006541648
103	0x3ec16b19	0.37777022
104	0xbe2f98d3	-0.17148142
105	0x3e181b5d	0.14854188
106	0xbe89da67	-0.2692444
107	0x3e98224e	0.29713672
108	0x3e754ae1	0.23954345
109	0xbdb8cac3	-0.09023049
110	0x3ee8ae60	0.45445538
111	0xbd9a2a5c	-0.07527611
112	0x3cda0877	0.026615364
113	0x3e4ce3ed	0.20008822
114	0xbdddabdc	-0.10823795
115	0xbede7dde	-0.43455404
116	0x3baf0369	0.0053409827
117	0xbe88f613	-0.2675024
118	0x3e637160	0.22211218
119	0x3f05fab7	0.52335685
120	0x3e95c255	0.29249826
121	0x3ea11f4a	0.31469184
122	0xbe41343f	-0.18867587
123	0xbebd4cd3	-0.36972675
124	0x3e079e19	0.13243903
125	0xbe328b40	-0.17435932
126	0x3df376eb	0.11887916
127	0xbd3ea387	-0.04654267
128	0xbf5b2fba	-0.856197
129	0x3da52579	0.08063788
130	0xbc4ebb16	-0.012617847
131	0xbec8bed8	-0.39208102
132	0x3dfc30b5	0.12313978
133	0x3c8c1dd6	0.01710407
134	0xbe4e041d	-0.20118757
135	0xbea58bb5	-0.3233315
136	0x3e2d4df6	0.16924271
137	0xbea54c26	-0.3228466
138	0xbe22b1e6	-0.15888175
139	0xbe58def1	-0.21178795
140	0xbe432daa	-0.19060388
141	0xbe3adc0c	-0.18248004
142	0x3e3ed3d0	0.18635488
143	0xbdd1e21e	-0.102482066
144	0xbe8c1616	-0.273606
145	0x3e76d5b0	0.24104953
146	0xbea711ac	-0.3263067
147	0xbe387ecb	-0.18017118
148	0xbdaab26f	-0.08334815
149	0xbe9d9cb3	-0.30783615
150	0xbce9f7bf	-0.028560517
151	0xbe8e0455	-0.2773768
152	0x3ddeb717	0.10874765
153	0xbe068c4e	-0.1313946
154	0x3e40d69f	0.18831871
155	0x3ecad1b6	0.39613122
156	0xbe832b19	-0.25618818
157	0xbe2a1c02	-0.16612247
158	0xbe59b796	-0.21261439
159	0xbe0915d7	-0.13387237
160	0x3ea3c9db	0.3198994
161	0xbefa06c1	-0.48833278
162	0xbe2977c8	-0.16549599
163	0xbdb6dd34	-0.0892891
164	0x3e4fb73c	0.20284742
165	0x3ea5c993	0.3238035
166	0x3e8ce32b	0.27517065
167	0xbf04501e	-0.5168475
168	0x3e1190a6	0.14215335
169	0xbeb074cd	-0.34464112
170	0xbee10569	-0.4394944
171	0x3e06575f	0.13119267
172	0x3db9e2ed	0.09076486
173	0x3cb7a750	0.022418648
174	0x3ddc1a9f	0.10747265
175	0x3b81f522	0.0039659897
176	0x3db8f6af	0.09031426
177	0xbf7b7a00	-0.9823303
178	0xbe837f8d	-0.2568325
179	0xbc9bdfb9	-0.019027578
180	0xbed539e4	-0.4164573
181	0x3e2b886c	0.1675126
182	0x3d539886	0.05165913
183	0x3e1034e6	0.14082679
184	0xbe8665d2	-0.26249558
185	0x3dc270ba	0.09494157
186	0x3e685b60	0.22691107
187	0x3e6aad06	0.22917566
188	0xbea02212	-0.31275994
189	0xbcab8608	-0.020937935
190	0xbe4a8987	-0.19779025
191	0x3ec2f616	0.38078374
192	0xbe9fb9cb	-0.31196436
193	0xbe9de6e7	-0.30840227
194	0xba7d41d7	-0.0009660995
195	0xbe2dc424	-0.16969353
196	0x3e8372e7	0.256736
197	0x3e296762	0.16543344
198	0xbdfb8387	-0.12280946
199	0xbd8e5591	-0.06949914
200	0xbe7624b5	-0.2403744
201	0x3dcfe783	0.10151579
202	0x3dc69692	0.09696688
203	0xbea2a8f5	-0.3176953
204	0xbe5dcd54	-0.21660358
205	0x3e95fd86	0.29294986
206	0xbddb467b	-0.107068025
207	0x3ef8b16d	0.48572865
208	0xbe1e4d83	-0.15459256
209	0xbe3bb114	-0.18329269
210	0xbeb8af73	-0.36071357
211	0x3eae49a3	0.34040555
212	0xbec11c5d	-0.37716952
213	0xbd18a106	-0.03726294
214	0x3d73719e	0.059434526
215	0x3dd507ff	0.10401916
216	0xbe547f63	-0.20751719
217	0xbdb1df57	-0.08685177
218	0xbe312654	-0.17299777
219	0xbd52d8df	-0.051476356
220	0xbe186c49	-0.14885058
221	0xbeba6177	-0.36402485
222	0x3e3a9665	0.18221433
223	0xbe522e0e	-0.20525381
224	0xbe354066	-0.17700347
225	0x3eb2d807	0.3493044
226	0xbf3e7038	-0.7438998
227	0x3e8dbad0	0.2768159
228	0x3e7cd86e	0.24691936
229	0x3e0b89c5	0.13626774
230	0x3e0120dd	0.12610193
231	0x3e51e59b	0.20497744
232	0x3c9c990f	0.019115953
233	0xbef34eb0	-0.4752097
234	0xbd852363	-0.0650089
235	0x3ea6135e	0.3243665
236	0xbca7ae94	-0.020468988
237	0x3eb80180	0.35938644
238	0xbd3069b8	-0.04306957
239	0xbd4da999	-0.05021057
240	0xbe869ca4	-0.26291382
241	0xbdc3194b	-0.095263086
242	0xbe906ed0	-0.28209543
243	0xbe14b49c	-0.14522022
244	0x3efd733c	0.4950198
245	0x3e45b164	0.1930595
246	0x3ee97d49	0.45603397
247	0xbd790eda	-0.06080518
248	0x3e7366d7	0.23769699
249	0x3e4e84c7	0.20167838
250	0x3e8dd295	0.27699724
251	0x3e800279	0.25001886
252	0xbea80cd1	-0.32822278
253	0x3ea25cdf	0.3171148
254	0x3eb5cd3c	0.35508144
255	0x3e8ce4b3	0.27518234

fc1.bias f4 [128]
0	0xbe9b5611	-0.303391
1	0x3cf522e8	0.029923871
2	0x3ea5e01f	0.32397553
3	0xbc9b1bb4	-0.018934108
4	0x3e9ec057	0.3100612
5	0xbeae0733	-0.33989868
6	0x3e90b0ca	0.2825988
7	0x3dfc2a8b	0.12312802
8	0xbcf740ab	-0.030182203
9	0xbd7fe15b	-0.062470775
10	0x3e2491bd	0.1607122
11	0x3e07016f	0.1318414
12	0xbec4c350	-0.38430262
13	0xbd91f68e	-0.07127105
14	0xbe7cb18b	-0.24677102
15	0xbe6a8cef	-0.22905324
16	0xbe1f1f10	-0.15539193
17	0xbe7e3bad	-0.24827452
18	0x3e8a0acc	0.26961362
19	0x3e5a4dd8	0.21318758
20	0xbe5e602c	-0.21716374
21	0xbd9a3f27	-0.075315766
22	0x3e5f7f67	0.21825944
23	0x3d26b7f0	0.04070276
24	0xbdddd630	-0.10831869
25	0x3e7665bb	0.24062245
26	0x3e888bc3	0.2666913
27	0x3eb8457d	0.35990515
28	0x3d0dc888	0.03461507
29	0x3e86f8d0	0.26361704
30	0xbe614ff7	-0.2200316
31	0xbeb1750e	-0.34659618
32	0xbd09e99f	-0.033670064
33	0x3da761e5	0.08172969
34	0x3cdd0146	0.026978146
35	0x3e8a13c0	0.26968193
36	0x3e7b1cc2	0.24522689
37	0x3e3f5bb5	0.18687327
38	0x3d5fe31d	0.05465995
39	0xbcaf8e76	-0.021430235
40	0x3eb4bee8	0.353019
41	0x3e9629a6	0.2932865
42	0xbc08a202	-0.008339407
43	0x3ecf57b1	0.4049659
44	0xbe02223f	-0.12708376
45	0x3e25a596	0.16176447
46	0x3e228000	0.1586914
47	0x3d862908	0.06550795
48	0xbea93d62	-0.33054644
49	0x3e9ae89a	0.30255586
50	0xbcf93c82	-0.03042436
51	0xbebd087f	-0.36920545
52	0xbe51cfd2	-0.20489433
53	0xbed431bf	-0.41444203
54	0xbdab789e	-0.08372615
55	0x3dabaa8a	0.08382137
56	0xbe8d2840	-0.2756977
57	0xbea703f6	-0.3262021
58	0xbec0c690	-0.3765149
59	0x3e90fc5b	0.28317532
60	0x3dcc7d73	0.09984865
61	0xbe4c66b4	-0.19961053
62	0xbd6a855b	-0.057256084
63	0xbda29297	-0.07938116
64	0xbddf85ee	-0.10914217
65	0x3e0670da	0.13128987
66	0xbd906e84	-0.07052329
67	0xbe0157de	-0.12631175
68	0xbe1a205c	-0.15051407
69	0xbd8a4870	-0.067520976
70	0x3e7b9935	0.24570163
71	0x3cc319c6	0.023816
72	0xbe2ee2cd	-0.17078705
73	0xbc212f8e	-0.009837998
74	0x3e0adfef	0.13561986
75	0xbe9bab67	-0.30404207
76	0x3e2f1309	0.17097105
77	0x3d44c7c5	0.048042078
78	0x3d6aa658	0.057287544
79	0xbe1bbeb7	-0.1520947
80	0x3e831e97	0.25609276
81	0xbdd1ad9d	-0.10238192
82	0x3e869d3e	0.2629184
83	0xbe9ea766	-0.3098709
84	0xbd9e8a1d	-0.07741187
85	0x3e84b181	0.25916675
86	0xbe2f45f2	-0.17116526
87	0xbdfc8d97	-0.123316936
88	0x3eaf3c78	0.34225821
89	0x3d9ca300	0.07648277
90	0xbda50c3f	-0.080589764
91	0xbe768ae4	-0.2407642
92	0x3e9cd358	0.30629992
93	0x3ebb50bb	0.3658503
94	0xbd6e18dd	-0.05812918
95	0x3e38b5f8	0.18038166
96	0xbeba8f14	-0.36437285
97	0x3e9fd5cf	0.3121781
98	0x3e11a1d5	0.1422189
99	0xbd8a58ab	-0.06755193
100	0x3df5b303	0.119970344
101	0x3e9a6e00	0.30162048
102	0x3e819b00	0.25313568
103	0xbd37ae12	-0.04484374
104	0x3ddd213a	0.10797353
105	0xbe203fcd	-0.15649338
106	0xbe148197	-0.1450256
107	0x3e8ba1b0	0.27271795
108	0x3e87bdf8	0.26512122
109	0xbe8e1729	-0.27752045
110	0xbe1477f0	-0.14498878
111	0x3e9301a2	0.28712183
112	0x3e83aa77	0.25715992
113	0x3e1382fc	0.14405435
114	0x3ead517e	0.33851236
115	0xbea9c953	-0.3316141
116	0xbccaa651	-0.024737509
117	0xbd53368f	-0.051565703
118	0x3e8edba5	0.2790195
119	0xbdca6d8a	-0.09884174
120	0x3d39674f	0.04526454
121	0xbc06a3e5	-0.008217786
122	0xbe224224	-0.15845543
123	0x3dfb8e44	0.122829944
124	0xbe508d24	-0.20366341
125	0xbe3c54a2	-0.1839166
126	0x3e9b9f1c	0.30394828
127	0xbe94a419	-0.29031447
