flappybird_dqn_ep90.pth (torch, 561683 bytes, 32 tensors)

fc1.weight f4 [128, 7]
0.3117937 -0.3785851 0.1751568 0.24966392 -0.2003355 0.18447496 0.23087008 0.093926534
0.28563535 -0.043693163 0.28435007 0.09586213 0.107001826 0.16383219 -0.35653663 0.108334616
-0.1556433 -0.35627043 -0.2914347 -0.03469091 0.028346227 -0.2795787 0.25899267 0.048911393
0.029588811 -0.12361585 0.022284647 0.38728335 -0.031414334 0.33646783 -0.47438896 -0.023666332
-0.34368473 0.18739215 0.36110583 0.01986945 0.1401149 0.24400087 -0.2851526 0.077346705
-0.33852443 -0.099359736 0.13131872 -0.26044747 0.12714095 -0.23010299 -0.13682453 -0.36504945
-0.22799915 0.020190783 0.12594083 -0.33361524 -0.3199062 0.15450096 0.20197986 0.35912287
-0.13913216 0.1664672 0.41608918 0.14601578 -0.28193754 0.40394834 0.14525174 -0.17233887
-0.29886657 0.28368592 -0.08656799 -0.22791815 -0.19700317 0.122116886 0.16385427 0.3893994
-0.06502205 0.35917962 0.38284248 -0.055104475 -0.42130336 0.100283414 -0.07303669 0.033079535
-0.21993887 -0.7163373 0.4131525 -0.27503213 0.15793079 -0.36833045 0.35532176 -0.17853962
0.35399678 -0.27559012 -0.047553096 0.321645 0.3200824 -0.20892467 -0.26657197 0.29656532
0.17604764 -0.16061282 0.17985755 -0.32906225 -0.12304832 -0.14163041 0.035343416 0.38323694
-0.1121137 0.11753205 -0.14214922 0.27866653 0.20959197 -0.09496879 0.38358828 -0.1857619
0.050962813 0.22088984 -0.088136904 -0.40894985 0.03171328 -0.24209431 0.24882063 0.4721652
0.19363141 0.29820806 -0.21018745 -0.35795972 0.114214666 -0.20808668 0.10891006 -0.112623565
-0.6133177 0.096806414 -0.007596527 -0.36765787 0.1120617 0.0044574765 -0.25220478 -0.13664971
0.12573409 -0.29830423 -0.18599388 -0.1717035 -0.19060388 -0.18248004 0.18635488 -0.102482066
-0.273606 0.24104953 -0.3263067 -0.18017118 -0.08334815 -0.30783615 -0.028560517 -0.2773768
0.10874765 -0.1313946 0.17504509 0.34673986 -0.1772962 -0.14638485 -0.15754196 -0.12767348
0.2581316 -0.4498623 -0.15102609 -0.14752063 0.15254441 0.32009357 0.27907896 -0.4325729
0.11336714 -0.36788207 -0.28548074 0.07972016 0.11818415 -0.00089429383 0.05356303 0.062986426
0.04620112 -0.45057914 -0.23324451 -0.033303145 -0.3744013 0.1628824 0.1256229 0.10707269
-0.23752567 0.15460473 0.27981338 0.29771632 -0.1235553 -0.07418437 -0.2765101 0.39805388
-0.23542048 -0.30594423 0.03341124 -0.20329396 0.24504972 0.18403463 -0.080854625 -0.012133156
-0.19343527 0.11926579 0.15143351 -0.295595 -0.17995155 0.26967928 -0.19588801 0.38181883
-0.1761336 -0.1732003 -0.36071357 0.34040555 -0.37716952 -0.03726294 0.059434526 0.10401916
-0.20751719 -0.08685177 -0.17299777 -0.051476356 -0.14885058 -0.36402485 0.18221433 -0.20525381
-0.19318193 0.26652446 -0.6472147 0.23021774 0.29296118 0.14860511 0.10783155 0.22106978
-0.029013762 -0.51629883 -0.09685601 0.34531763 -0.0068015317 0.32661274 -0.050371982 -0.11749684
-0.14935717 -0.10711138 -0.25818637 -0.11225533 0.45818275 0.27405524 0.4339363 -0.07001021
0.27071446 0.2623931 0.34026152 0.310642 -0.27062032 0.31910902 0.31585202 0.2977406
00000000: 6da3 9f3e e8d5 c1be 4e5c 333e e6a7 7f3e
00000010: c024 4dbe 01e7 3c3e 3569 6c3e 8e5c c03d
00000020: cc3e 923e 9af7 32bd 5596 913e 5d53 c43d
00000030: c623 db3d a0c3 273e f88b b6be 8ade dd3d
00000040: f560 1fbe 1469 b6be ee36 95be 0e18 0ebd
00000050: 5936 e83c f024 8fbe b09a 843e 5057 483d
00000060: 3c64 f23c 4f2a fdbd 4b8e b63c 014a c63e
00000070: 51ac 00bd 8345 ac3e 1ce3 f2be e5df c1bc
00000080: 72f7 afbe bae3 3f3e dde2 b83e 42c5 a23c
00000090: 487a 0f3e 5ddb 793e 86ff 91be f367 9e3d
000000a0: 1353 adbe 1e7d cbbd 6a78 063e 5f59 85be
000000b0: 3d31 023e 1ea0 6bbe bb1b 0cbe c3e7 babe
000000c0: 9c78 69be 2467 a53c a2f6 003e 9ecf aabe
000000d0: bfca a3be 8035 1e3e cfd3 4e3e f4de b73e
000000e0: a978 0ebe 6176 2a3e a409 d53e 2985 153e
000000f0: 1e5a 90be 51d2 ce3e dfbc 143e 9a79 30be
00000100: 0a05 99be 483f 913e 8f4a b1bd 6063 69be
00000110: 33bb 49be 6b18 fa3d 6ac9 273e 5c5f c73e
00000120: 482a 85bd 64e6 b73e ee03 c43e 3bb5 61bd
00000130: 13b5 d7be 6461 cd3d 4394 95bd 687e 073d
00000140: a837 61be e261 37bf b988 d33e 03d1 8cbe
00000150: 9cb8 213e cf95 bcbe bcec b53e 17d3 36be
00000160: 113f b53e 261a 8dbe 09c7 42bd a7ae a43e
00000170: d7e1 a33e 59f0 55be 1f7c 88be 69d7 973e
00000180: d545 343e b077 24be 942c 383e d97a a8be
00000190: c200 fcbd 9007 11be 42c4 103d a237 c43e
000001a0: de9b e5bd a5b4 f03d 918f 11be 61ad 8e3e
000001b0: 479f 563e ff7e c2bd af65 c43e 5e38 3ebe
000001c0: 62be 503d f230 623e 1f81 b4bd e061 d1be
000001d0: c9e5 013d 92e7 77be d6ca 7e3e a3bf f13e
000001e0: 5047 463e baae 983e 613b 57be 7f46 b7be
000001f0: 61e9 e93d ad14 55be 3d0c df3d 2fa7 e6bd
00000200: 6402 1dbf 7142 c63d 4aec f8bb a73d bcbe
00000210: 9b80 e53d 0610 923b fc20 81be e7ed 0bbe
00000220: 70c0 003e 55bb 98be 2e75 3ebe 0bd3 2fbe
00000230: aa2d 43be 0cdc 3abe d0d3 3e3e 1ee2 d1bd
00000240: 1616 8cbe b0d5 763e ac11 a7be cb7e 38be
00000250: 6fb2 aabd b39c 9dbe bff7 e9bc 5504 8ebe
00000260: 17b7 de3d 4e8c 06be 053f 333e e387 b13e
00000270: 238d 35be e9e5 15be ae52 21be d6bc 02be
00000280: d329 843e 5a54 e6be 95a6 1abe a60f 17be
00000290: 9a34 1c3e 4ee3 a33e 70e3 8e3e 327a ddbe
000002a0: 082d e83d 0a5b bcbe 882a 92be 5344 a33d
000002b0: 880a f23d 0b6f 6aba e864 5b3d 07ff 803d
000002c0: 633d 3d3d 4fb2 e6be a6d7 6ebe e168 08bd
000002d0: 87b1 bfbe a5ca 263e 4aa3 003e ed48 db3d
000002e0: ee39 73be b450 1e3e b343 8f3e 466e 983e
000002f0: 900a fdbd faed 97bd bb92 8dbe b8cd cb3e
00000300: 1112 71be b9a4 9cbe 39da 083d 4b2c 50be
00000310: 50ee 7a3e 9373 3c3e 1c97 a5bd 25ca 46bc
00000320: e513 46be 9f41 f43d 6311 1b3e 3a58 97be
00000330: 3845 38be 6713 8a3e de96 48be c27d c33e
00000340: 5e5c 34be 6b5b 31be 73af b8be a349 ae3e
00000350: 5d1c c1be 06a1 18bd 9e71 733d ff07 d53d
00000360: 637f 54be 57df b1bd 5426 31be dfd8 52bd
00000370: 496c 18be 7761 babe 6596 3a3e 0e2e 52be
00000380: 7cd1 45be e575 883e ddaf 25bf 33be 6b3e
00000390: 02ff 953e f02b 183e cad6 dc3d 1e60 623e
000003a0: 45ae edbc 292c 04bf 725c c6bd 79cd b03e
000003b0: 62df debb c939 a73e da52 4ebd 2fa2 f0bd
000003c0: 16f1 18be 365d dbbd 0131 84be 1fe6 e5bd
000003d0: ee96 ea3e f850 8c3e e62c de3e 8361 8fbd
000003e0: 169b 8a3e 6358 863e c236 ae3e 780c 9f3e
000003f0: bf8e 8abe 4262 a33e 5bb7 a13e 7571 983e

fc1.bias f4 [128]
-0.24119563 0.07295012 0.103148796 -0.09372046 0.32801613 -0.33989868 0.039171457 0.20759012
-0.012134001 -0.062470775 0.17077745 0.07852576 -0.38430262 -0.058247425 -0.23993543 -0.24337427
-0.12968223 -0.28344434 0.24167114 0.06641694 -0.21716374 -0.075315766 0.21617536 0.038536496
-0.11094476 0.2244054 0.33734724 0.35453993 0.06094324 0.23496294 -0.2200316 -0.34659618
-0.027052501 0.09019506 0.012206083 0.3478505 0.2822172 0.20586373 0.05466738 0.011448535
0.33979034 0.2691614 0.0064921323 0.40187618 -0.10427621 0.23232357 0.22506173 0.05103509
-0.33054644 0.1299033 0.008497025 -0.36920545 -0.20489433 -0.43489966 -0.054774713 0.097215705
-0.2756977 -0.3262021 -0.3765149 0.339365 0.11588788 -0.2183033 -0.08656298 -0.061359245
-0.078147486 0.20171006 -0.07052329 -0.15890186 -0.15051407 -0.09997458 0.23854928 0.018299386
-0.17078705 -0.011660696 0.13421942 -0.3396004 0.19384567 0.055683263 0.0960686 -0.1520947
0.28164405 -0.111143574 0.28011665 -0.3098709 -0.028045861 0.30599597 -0.17116526 -0.22370723
0.37493274 0.072916016 -0.05814342 -0.2407642 0.33218318 0.3737601 -0.05812918 0.20677069
-0.36437285 0.32764256 0.120784424 -0.033922397 0.13584033 0.3620469 0.2248919 -0.07871424
0.13789539 -0.12598078 -0.1991197 0.28585094 0.25491184 -0.27925903 -0.15828568 0.29835984
0.30000016 0.22219165 0.35083213 -0.3333548 0.0031498987 -0.051565703 0.28153104 -0.08096258
0.09829496 -0.014573729 -0.18373825 0.0922558 -0.21981499 -0.2036749 0.31630275 -0.29031447
00000000: fdfb 76be df66 953d ad3f d33d 83f0 bfbd
00000010: bbf1 a73e 3307 aebe 4072 203d 8192 543e
00000020: b0cd 46bc 5be1 7fbd 49e0 2e3e 1dd2 a03d
00000030: 50c3 c4be da94 6ebd a2b1 75be 1b37 79be
00000040: 6bcb 04be 9e1f 91be a478 773e 9b05 883d
00000050: 2c60 5ebe 273f 9abd 135d 5d3e 72d8 1d3d
00000060: 0237 e3bd 87ca 653e c7b8 ac3e 4286 b53e
00000070: 9e9f 793d 209a 703e f74f 61be 0e75 b1be
00000080: 359d ddbc 30b8 b83d 06fc 473c 7619 b23e
00000090: c67e 903e f1cd 523e e7ea 5f3d a392 3b3c
000000a0: 00f9 ad3e 86cf 893e f4bb d43b b7c2 cd3e
000000b0: c48e d5bd 3be6 6d3e 9576 663e 2c0a 513d
000000c0: 623d a9be 5f05 053e 1b37 0b3c 7f08 bdbe
000000d0: d2cf 51be 2bab debe 735b 60bd 0719 c73d
000000e0: 4028 8dbe f603 a7be 90c6 c0be 40c1 ad3e
000000f0: a056 ed3d e68a 5fbe ef47 b1bd d553 7bbd
00000100: ca0b a0bd 158d 4e3e 846e 90bd 2bb7 22be
00000110: 5c20 1abe 79bf ccbd 4346 743e 98e8 953c
00000120: cde2 2ebe 810c 3fbc d170 093e 1be0 adbe
00000130: 7b7f 463e 2214 643d 9dbf c43d b7be 1bbe
00000140: a633 903e 3e9f e3bd 736b 8f3e 66a7 9ebe
00000150: 6fc0 e5bc 81ab 9c3e f245 2fbe 8213 65be
00000160: 2ff7 bf3e fe54 953d cb27 6ebd e48a 76be
00000170: ea13 aa3e 7c5d bf3e dd18 6ebd b2bb 533e
00000180: 148f babe c4c0 a73e d35d f73d 36f2 0abd
00000190: ba19 0b3e 365e b93e 104a 663e ee34 a1bd
000001a0: 7334 0d3e 1b01 01be 09e6 4bbe 0e5b 923e
000001b0: ce83 823e 0afb 8ebe a415 22be 9fc2 983e
000001c0: 9f99 993e 3586 633e 45a0 b33e 7bad aabe
000001d0: 886e 4e3b 8f36 53bd d624 903e b6cf a5bd
000001e0: de4e c93d a6c6 6ebc e125 3cbe 9cf0 bc3d
000001f0: 2e17 61be 2790 50be 6ff2 a13e 19a4 94be

fc2.weight f4 [128, 128]
0.20200306 -0.010047941 -0.0021160562 -0.00048238668 -0.035180658 -0.0507785 -0.07250786 -0.00172957
0.009740575 0.046412587 -0.061212957 0.15646146 -0.030139424 0.06607059 0.0109260855 0.085738
0.021106174 0.11525042 0.035609856 -0.025867501 0.032200836 0.014399945 -0.025482576 -0.058409207
-0.10552033 -0.11034328 0.07333851 0.07836615 0.08687681 -0.062407155 0.051567953 -0.006857798
-0.068248324 -0.030405438 -0.055488016 -0.04917714 0.08741201 0.04206657 0.169093 -0.008057545
0.12953186 -0.001653601 0.058556624 0.13511182 0.03638983 0.024513304 -0.042582553 -0.009895795
0.005702869 -0.06434345 -0.1024836 -0.0382364 0.08091889 0.029305337 0.098510705 -0.0068271062
0.0015172759 -0.04597353 0.045161318 0.009655679 0.09618342 -0.16413431 -0.07348842 0.10450833
-0.16010737 0.008090114 0.024065398 0.15956935 -0.08626096 0.056717046 -0.018910611 -0.052403543
0.016893126 -0.09274479 -0.064155675 0.1965665 0.045719784 0.15855879 0.106194966 -0.048107635
-0.0057204035 -0.22270095 0.04745617 0.034845497 0.18606834 0.026230918 0.033079986 0.057352923
0.09532816 0.10180922 0.033861015 0.010398713 0.06221078 -0.019210178 -0.049235083 0.063316815
0.048433747 -0.040760458 0.007502588 -0.024845712 -0.13799486 -0.035747103 0.19545792 0.054311227
-0.12214711 -0.04770504 0.072819404 0.020022769 0.124831505 0.10928593 0.114337966 -0.04495582
-0.115103655 0.017467538 0.19687866 -0.09152683 -0.05563263 0.06771885 0.044237014 -0.003421086
-0.07184223 0.08094412 0.17356348 0.062709875 -0.13100499 -0.047768205 0.11917288 0.050396007
-0.11297745 0.048263937 0.04401094 0.06243036 -0.1076543 -0.08399237 -0.08820226 -0.04628359
-0.050712295 0.0883572 0.06848413 -0.029013176 -0.08625961 0.059471026 -0.120715894 0.09733916
0.0839667 -0.041483056 0.07804878 0.06473647 0.05707611 -0.017779522 -0.14734028 0.0008715123
-0.0048774597 -0.064263865 0.019846281 0.035845086 -0.036369484 0.13241424 -0.016743952 -0.025041107
-0.08356155 -0.01975845 -0.16005152 0.106894724 -0.020607147 0.2112655 -0.15492831 -0.026265804
0.17028934 0.09212527 0.024748055 -0.08588565 0.0887298 0.06502504 0.0052293437 -0.009556153
-0.04913721 -0.08160074 -0.13336079 0.08257179 0.08247603 0.07470747 -0.00718212 0.14129324
-0.06483781 0.08777608 0.083293974 0.09306176 0.024469255 0.24007384 0.14319023 0.08028897
0.18283887 0.022045182 -0.08092632 0.17651077 0.048862897 0.13125773 0.089316875 -0.085231096
0.08588141 0.43653524 0.004668118 -0.106588565 0.041455574 -0.07641438 -0.07266782 -0.006029665
-0.06486174 0.24796201 -0.074572764 -0.0019872633 -0.20211126 0.029939877 -0.05342784 -0.09366892
-0.02438213 0.012703586 0.01832437 -0.072362565 0.08987832 0.018476117 -0.073507294 -0.005983852
-0.0066747754 0.06588061 0.06676596 0.09043209 -0.10555 -0.035197563 0.0036898507 0.19084695
0.22638276 -0.01890162 0.05036984 0.032414805 0.07120171 -0.26162973 0.03724377 -0.14873691
0.07166859 -0.067335725 0.0022151577 -0.09272504 -0.024695072 -0.043401875 0.049980387 -0.001873582
-0.045603137 0.04664753 -0.06220464 0.055031173 -0.112402394 0.06945357 0.03067487 -0.0560758
00000000: e4d9 4e3e 1ea0 24bc 88ad 0abb d8e8 fcb9
00000010: 9819 10bd 1efd 4fbd 007f 94bd bdb2 e2ba
00000020: ef96 1f3c 201b 3e3d 70ba 7abd 6f37 203e
00000030: f4e6 f6bc 0450 873d 5303 333c 6897 af3d
00000040: dbe6 ac3c 6a08 ec3d a4db 113d 15e8 d3bc
00000050: 06e5 033d bfed 6b3c d6c0 d0bc 7e3e 6fbd
00000060: 0b1b d8bd a8fb e1bd 8032 963d 6f7e a03d
00000070: 78ec b13d a59e 7fbd eb38 533d 61b7 e0bb
00000080: c7c5 8bbd d314 f9bc 6747 63bd f86d 49bd
00000090: 1105 b33d ff4d 2c3d b726 2d3e cb03 04bc
000000a0: 00a4 043e a4bd d8ba 12d9 6f3d c15a 0a3e
000000b0: 810d 153d 20d0 c83c 0b6b 2ebd f921 22bc
000000c0: 22df ba3b 80c6 83bd ece2 d1bd c59d 1cbd
000000d0: ceb8 a53d bf11 f03c fbbf c93d ebb5 dfbb
000000e0: 55df c63a bd4e 3cbd 13fb 383d da32 1e3c
000000f0: d0fb c43d d312 28be 1981 96bd 7708 d63d
00000100: 30f3 23be 668c 043c cc24 c53c 2666 233e
00000110: 96a9 b0bd 2250 683d 6dea 9abc 19a5 56bd
00000120: 7463 8a3c fbf0 bdbd 0d64 83bd bb48 493e
00000130: ab44 3b3d 3c5d 223e bf7c d93d 830c 45bd
00000140: 3972 bbbb b80b 64be 6761 423d 27ba 0e3d
00000150: b388 3e3e 39e2 d63c e17e 073d e6ea 6a3d
00000160: 693b c33d 5a81 d03d d9b1 0a3d 5d5f 2a3c
00000170: bbd0 7e3d aa5e 9dbc baaa 49bd 3fac 813d
00000180: 7762 463d 70f4 26bd 45d8 f53b 3c89 cbbc
00000190: 864e 0dbe 8e6b 12bd 1f26 483e 7375 5e3d
000001a0: 4428 fabd 5c66 43bd 5722 953d ca06 a43c
000001b0: a9a7 ff3d 4dd1 df3d 062a ea3d 9823 38bd
000001c0: 77bb ebbd 1518 8f3c 8f9a 493e 6b72 bbbd
000001d0: 0adf 63bd 2eb0 8a3d df31 353d 4c34 60bb
000001e0: 0522 93bd 08c6 a53d a0ba 313e 096e 803d
000001f0: 2c26 06be 98a8 43bd e910 f43d 0b6c 4e3d
00000200: b960 e7bd 68b0 453d d144 343d fab6 7f3d
00000210: dc79 dcbd 3104 acbd 63a3 b4bd dd93 3dbd
00000220: b2b7 4fbd 9ff4 b43d 6841 8c3d 0aad edbc
00000230: e1a8 b0bd e497 733d e539 f7bd c159 c73d
00000240: bcf6 ab3d 23ea 29bd 0ad8 9f3d 8e94 843d
00000250: a4c8 693d 5ca6 91bc 5fe0 16be 3376 643a
00000260: 19d3 9fbb c69c 83bd ab94 a23c 4cd2 123d
00000270: 2bf8 14bd 9997 073e 9d2a 89bc 0223 cdbc
00000280: 5122 abbd 79dc a1bc 8ce4 23be 9feb da3d
00000290: 52d0 a8bc fc55 583e 87a5 1ebe 622b d7bc
000002a0: 5460 2e3e 2cac bc3d 6fbc ca3c d1e4 afbd
000002b0: f8b7 b53d d92b 853d ea5a ab3b 6991 1cbc
000002c0: 1944 49bd 4a1e a7bd bb8f 08be 661b a93d
000002d0: 31e9 a83d 3b00 993d fd57 ebbb 2daf 103e
000002e0: b0c9 84bd f2c3 b33d 0896 aa3d 2a97 be3d
000002f0: bf73 c83c ebd5 753e 76a0 123e 8b6e a43d
00000300: 1d3a 3b3e 1998 b43c b3bc a5bd 3dbf 343e
00000310: 7624 483d 6d68 063e c4eb b63d a48d aebd
00000320: 98e2 af3d 8c81 df3e 03f7 983b 1b4b dabd
00000330: 52cd 293d 247f 9cbd ded2 94bd 7f94 c5bb
00000340: 3bd6 84bd c1e9 7d3e 9bb9 98bd bf3c 02bb
00000350: 41f6 4ebe 7944 f53c 27d7 5abd 7ed5 bfbd
00000360: 08bd c7bc b422 503c fd1c 963c d332 94bd
00000370: 2012 b83d 3a5b 973c fe8a 96bd 3014 c4bb
00000380: 13b8 dabb 6aec 863d 97bc 883d 7634 b93d
00000390: 992a d8bd 522b 10bd 6cd1 713b 626d 433e
000003a0: e2d0 673e 92d7 9abc 9b50 4e3d 63c5 043d
000003b0: 34d2 913d 55f4 85be ec8c 183d 7d4e 18be
000003c0: fbc6 923d 50e7 89bd 2e2c 113b a0e6 bdbd
000003d0: 524d cabc 2ac6 31bd 3cb8 4c3d fb92 f5ba
000003e0: 5bca 3abd 7b11 3f3d 4bca 7ebd 5e68 613d
000003f0: 3a33 e6bd ac3d 8e3d dd49 fb3c bdaf 65bd

fc2.bias f4 [128]
0.09714074 -0.052235868 -0.08003608 0.00831433 0.025989363 -0.009415742 -0.048736 -0.06427265
-0.03862388 0.014885405 -0.07386992 0.014481798 0.077139616 0.012143202 -0.043156773 -0.009005912
0.024443096 0.06924661 0.007475934 0.061827354 0.051668596 0.0862519 0.077035934 0.009158422
0.036863886 0.07104763 0.033767547 -0.014367658 0.062885255 -0.077045955 0.026953857 -0.06536326
0.044261463 0.0016376346 -0.053428844 -0.026034802 0.013638404 0.06899429 0.05214303 0.08394518
0.06280642 -0.08193029 0.0140470145 -0.037338484 -0.008205746 0.03389887 0.084072605 0.05246469
0.025448263 0.037009854 0.035429332 -0.03269187 -0.026926693 0.005838717 -0.04223833 -0.006840187
0.036584634 0.044306822 -0.04661554 0.07364806 0.007588512 -0.074361 -0.069678195 0.05183645
-0.073258415 0.038307194 0.015299525 -0.060331244 0.05362543 -0.021439277 -0.07320318 0.010243654
-0.07590296 -0.05379939 0.072149016 0.035869464 -0.058112856 0.06559725 0.066866286 0.035542335
0.0400998 -0.048893157 -0.050093267 0.056291394 -0.008539637 -0.030225981 0.032699052 -0.04939342
-0.031610876 -0.0041086054 0.015072678 0.058145672 -0.06354742 -0.068159804 0.046426293 0.09416055
-0.023962842 0.0118087735 0.10521051 -0.052914597 0.055172447 0.092482984 -0.0017260715 -0.073131785
0.0073409295 0.027270129 -0.07024765 0.06307225 -0.021151809 -0.045707338 0.04382256 -0.05543789
0.055865593 0.044348523 -0.023248194 -0.0012309196 0.08353485 0.027930431 0.055212922 -0.031885248
-0.027250914 0.05390055 -0.033825863 0.08269563 -0.039335683 -0.04104792 -0.010679169 0.031105408
00000000: b9f1 c63d 47f5 55bd f5e9 a3bd d438 083c
00000010: a5e7 d43c 7c44 1abc 669f 47bd 61a1 83bd
00000020: 1334 1ebd eae1 733c 1d49 97bd 1045 6d3c
00000030: 60fb 9d3d 48f4 463c 28c5 30bd 888d 13bc
00000040: e33c c83c 2bd1 8d3d aef8 f43b ae3e 7d3d
00000050: 73a2 533d d6a4 b03d 04c5 9d3d 350d 163c
00000060: 96fe 163d 6b81 913d d74f 0a3d 5366 6bbc
00000070: fcc9 803d 45ca 9dbd 56ce dc3c 2cdd 85bd
00000080: 824b 353d e6a5 d63a 34d8 5abd f046 d5bc
00000090: 9d73 5f3c e14c 8d3d ee93 553d 73eb ab3d
000000a0: a7a0 803d 11cb a7bd 7325 663c 3df0 18bd
000000b0: 6571 06bc 8bd9 0a3d 422e ac3d 37e5 563d
000000c0: e078 d03c a597 173d 591e 113d e9e7 05bd
000000d0: 5e95 dcbc b552 bf3b 1902 2dbd a623 e0bb
000000e0: c5d9 153d 127b 353d f0ef 3ebd cbd4 963d
000000f0: 0da9 f83b 944a 98bd 71b3 8ebd 7552 543d
00000100: 8208 96bd 01e8 1c3d dcaa 7a3c e51d 77bd
00000110: 57a6 5b3d 6ca1 afbc 8deb 95bd 00d5 273c
00000120: 0373 9bbd c05c 5cbd ddc2 933d dceb 123d
00000130: bf07 6ebd da57 863d 31f1 883d d794 113d
00000140: b03f 243d 3144 48bd 992e 4dbd ce91 663d
00000150: d5e9 0bbc 7a9c f7bc 71ef 053d c150 4abd
00000160: 687a 01bd 7ba1 86bb 65f3 763c 282a 6e3d
00000170: 2625 82bd 5e97 8bbd 7f29 3e3d 3fd7 c03d
00000180: b94d c4bc 9679 413c 9c78 d73d fabc 58bd
00000190: 81fc 613d b867 bd3d 593d e2ba 1ec6 95bd
000001a0: 2e8c f03b 9b65 df3c 00de 8fbd 062c 813d
000001b0: 8f46 adbc 9e37 3bbd 497f 333d d712 63bd
000001c0: 52d3 643d cca6 353d ff72 bebc cf56 a1ba
000001d0: 5214 ab3d 5cce e43c f226 623d 1b9a 02bd
000001e0: 4f3d dfbc d3c6 5c3d fd8c 0abd 545c a93d
000001f0: 741e 21bd dd21 28bd aef7 2ebc c5d0 fe3c

fc3.weight f4 [128, 128]
0.0585932 -0.011268971 0.008180899 0.008144916 -0.06248826 -0.03417694 0.00013277133 0.0122632785
0.05933505 0.02120864 -0.022366222 0.07257139 -0.049565647 0.03556979 -0.04918511 0.011255685
0.06616017 -0.08719228 -0.072295755 0.004906686 -0.034210924 -0.0664599 -0.08310956 -0.039446164
-0.10046259 -0.02283354 0.08562907 0.098888725 0.0014296633 0.05459164 0.066660196 0.04928564
0.08470429 0.025176588 -0.0056252345 -0.0007686202 -0.06619098 0.07927216 -0.033433992 0.005321691
0.12336765 -0.05192436 0.1121767 -0.04185494 0.076788954 -0.08560764 -0.02530856 0.12757182
0.009844752 -0.10213357 0.018146377 -0.09102204 0.02041245 -0.046844017 -0.018576823 -0.055610523
-0.023261867 0.005700909 0.025918415 -0.076865084 0.04306164 -0.046090208 0.070849925 -0.02129653
0.049728066 -0.03136508 0.030291518 0.04036636 -0.015595438 -0.049833894 -0.0155096715 -0.082561806
-0.037595335 -0.08000486 -0.004109699 0.067266315 0.021142818 0.03141719 -0.06385752 -0.075557284
0.05434104 -0.08007166 -0.04231921 -0.026778264 0.013255668 0.07137804 0.09141837 0.087152146
-0.04825288 0.010082118 0.087200925 0.0064220894 -0.03886465 0.044934474 -0.02191683 0.039096218
-0.0051979832 0.03213536 0.025373464 -0.021386322 0.037449013 -0.028316377 -0.040842235 -0.04266989
-0.041031662 0.01940656 0.07096549 0.05238419 0.05935179 0.042246148 0.1114994 0.08811061
0.05064322 0.020359365 -0.01585105 0.05976653 -0.03424049 -0.012008448 0.07408099 -0.03444285
0.04058672 0.08580221 0.115719214 -0.03660406 -0.035069622 -0.002345675 0.08792663 0.06420583
0.059278466 0.15241213 -0.010531145 0.061221957 0.036697157 0.14371917 -0.0837639 0.06816869
-0.033923954 -0.087144025 0.046318427 -0.053436365 0.054346547 -0.0022954226 0.022770593 0.044300813
0.008652335 0.09447151 -0.04949105 -0.05190609 -0.058412533 0.049917936 -0.17479403 0.0668524
0.11216419 -0.036576275 0.004567309 -0.06336666 -0.03303196 0.027866917 0.023613134 -0.06747663
-0.0058151092 -0.009638239 -0.06534631 0.073759146 -0.03341602 -0.0474982 0.11919517 0.064999826
-0.022011898 0.022842433 0.057727296 0.059820846 -0.07969569 -0.07170069 0.016652662 0.068168364
-0.08279706 0.044932146 -0.13619225 0.07587457 -0.0006860681 -0.032712977 -0.045043558 0.07016809
0.050581113 0.0031058749 -0.0255673 0.06351547 -0.014354972 0.06356556 -0.026845546 0.0023911167
-0.033496175 -0.08630539 -0.039150856 0.020541068 -0.08395194 0.053531032 0.018628096 -0.033166997
-0.088332355 -0.01862174 -0.06606243 -0.014732272 -0.08416376 0.024576208 0.04734339 0.10870579
-0.04822798 0.0665457 -0.0852683 0.02997215 0.006331679 -0.07980083 0.10503206 -0.025840811
0.031234818 0.06081184 0.06058247 0.07037077 0.032327022 -0.017376902 0.03819136 -0.0551232
0.14666395 -0.04680095 0.022613363 0.11977495 -0.051799666 0.06648922 0.06601327 -0.010206639
-0.012181972 -0.09198117 0.06370936 0.06299505 -0.084833406 -0.021517908 0.08351143 -0.036683034
0.18992272 -0.003989715 -0.07512719 0.07387533 0.1166379 0.06357121 0.056694064 0.016015053
-0.07876892 0.04650145 0.039630316 -0.06536768 -0.06969927 0.08174972 -0.0724763 0.042672284
00000000: 6cff 6f3d 7da1 38bc 2d09 063c 4172 053c
00000010: b1f3 7fbd 1efd 0bbd 8838 0b39 ebeb 483c
00000020: 4f09 733d bebd ad3c 5e39 b7bc 4fa0 943d
00000030: 5905 4bbd a1b1 113d 5376 49bd c469 383c
00000040: fc7e 873d de91 b2bd cc0f 94bd 44c8 a03b
00000050: c120 0cbd 211c 88bd 5835 aabd 4d92 21bd
00000060: 55bf cdbd 670d bbbc 4b5e af3d 2c86 ca3d
00000070: 8a63 bb3a 7c9b 5f3d 2485 883d bddf 493d
00000080: 7179 ad3d 223f ce3c e353 b8bb 3a7d 49ba
00000090: 238f 87bd 7159 a23d 15f2 08bd 9461 ae3b
000000a0: 2ea8 fc3d a3ae 54bd e6bc e53d 1670 2bbd
000000b0: 8743 9d3d 0f53 afbd e653 cfbc 30a2 023e
000000c0: e24b 213c 682b d1bd b6a7 943c c369 babd
000000d0: 0338 a73c 83df 3fbd 6c2e 98bc dcc7 63bd
000000e0: ac8f bebc b1ce ba3b db52 d43c 716b 9dbd
000000f0: 6761 303d 16c9 3cbd c419 913d 0f76 aebc
00000100: a8af 4b3d ac78 00bd eb25 f83c 3257 253d
00000110: 0284 7fbc a01e 4cbd 471c 7ebc 2a16 a9bd
00000120: 91fd 19bd 97d9 a3bd a7aa 86bb ecc2 893d
00000130: b433 ad3c 50af 003d bbc7 82bd c7bd 9abd
00000140: b694 5e3d 9cfc a3bd e856 2dbd 175e dbbc
00000150: 4d2e 593c a62e 923d 8e39 bb3d d37c b23d
00000160: d0a4 45bd 782f 253c 6696 b23d 6470 d23b
00000170: 8a30 1fbd 360d 383d ed8a b3bc 5b23 203d
00000180: d853 aabb 5ea0 033d 03dc cf3c 5e32 afbc
00000190: 2364 193d bff7 e7bc 304a 27bd 9fc6 2ebd
000001a0: d110 28bd 82fa 9e3c 5b56 913d ce90 563d
000001b0: dd1a 733d 4c0a 2d3d cc59 e43d 5673 b43d
000001c0: 446f 4f3d afc8 a63c 10da 81bc c0cd 743d
000001d0: c23f 0cbd 15bf 44bc c6b7 973d f213 0dbd
000001e0: 433e 263d 12b9 af3d 32fe ec3d 24ee 15bd
000001f0: 2aa5 0fbd e5b9 19bb e112 b43d 597e 833d
00000200: facd 723d ed11 1c3e d38a 2cbc e0c3 7a3d
00000210: c24f 163d 1e2b 133e 688c abbd 079c 8b3d
00000220: d8f3 0abd 9178 b2bd 64b8 3d3d 17e0 5abd
00000230: 7c9a 5e3d cd6e 16bb 6589 ba3c c574 353d
00000240: 86c2 0d3c 477a c13d 21b7 4abd 7b9b 54bd
00000250: fb41 6fbd c076 4c3d 35fd 32be e9e9 883d
00000260: 57b6 e53d 01d1 15bd 5da9 953b 61c6 81bd
00000270: 854c 07bd 2949 e43c 5570 c13c 3031 8abd
00000280: ac8c bebb b4e9 1dbc 49d4 85bd 090f 973d
00000290: 3ddf 08bd 798d 42bd 991c f43d a11e 853d
000002a0: 4c52 b4bc 0e20 bb3c 7573 6c3d b406 753d
000002b0: 7e37 a3bd d0d7 92bd 2a6b 883c db9b 8b3d
000002c0: 8191 a9bd c50a 383d fb75 0bbe 2064 9b3d
000002d0: 40d9 33ba 0bfe 05bd 987f 38bd 4ab4 8f3d
000002e0: 242e 4f3d ef8b 4b3b 8472 d1bc 6614 823d
000002f0: 1e31 6bbc a92e 823d 31eb dbbc 48b4 1c3b
00000300: 4933 09bd e1c0 b0bd a65c 20bd be45 a83c
00000310: ffee abbd 5b43 5b3d f399 983c 1eda 07bd
00000320: 98e7 b4bd 9f8c 98bc bd4b 87bd a15f 71bc
00000330: 0d5e acbd 0b54 c93c 24eb 413d 24a1 de3d
00000340: b48a 45bd 1d49 883d 25a1 aebd 2888 f53c
00000350: f979 cf3b 9e6e a3bd 0c1b d73d 1cb0 d3bc
00000360: 29e0 ff3c d615 793d 5325 783d 8d1e 903d
00000370: 5769 043d 015a 8ebc 8b6e 1c3d ddc8 61bd
00000380: 132f 163e 5ab2 3fbd a93f b93c 924c f53d
00000390: e32b 54bd 802b 883d f731 873d bf39 27bc
000003a0: e596 47bc a060 bcbd 0e7a 823d 8c03 813d
000003b0: 23bd adbd 5346 b0bc 0a08 ab3d f340 16bd
000003c0: 1a7b 423e 28bc 82bb 49dc 99bd f34b 973d
000003d0: dadf ee3d 9f31 823d 0938 683d 0032 833c
000003e0: 9951 a1bd 4e78 3e3d 6653 223d 7ddf 85bd
000003f0: 7ebe 8ebd 666c a73d 746e 94bd 22c9 2e3d

fc3.bias f4 [128]
0.11672499 0.08641559 -0.08154531 0.05756848 0.103215896 0.06363905 -0.0034396253 0.1001426
0.105796404 0.00019275254 0.025979616 0.059244275 -0.041214377 -0.07668405 -0.09491863 0.016952658
-0.024194926 0.10672256 -0.10020645 -0.030751431 -0.0151980715 -0.04461422 0.027899832 0.000699746
0.117790475 -0.05398626 0.0063067586 -0.018031161 -0.03202106 0.047858212 -0.039403316 0.027125452
0.08922976 0.06579111 -0.007524652 -0.0540576 -0.025727363 -0.023283992 -0.07320633 -0.00034100795
0.09366975 0.11369558 0.042768303 -0.076255776 0.07824647 0.019810949 0.07594924 0.053827416
-0.08859481 0.009640181 0.06756859 0.012784697 -0.0019527205 -0.0854392 -0.0036776662 0.0843231
-0.019419732 -0.034959786 0.016884886 -0.081316136 0.04863336 0.051800866 0.014287334 -0.033365764
0.012580626 0.027839746 0.05049834 0.09784769 0.024974585 -0.017576175 0.0670115 0.001687555
-0.063132904 0.06925113 -0.07977668 0.113888934 -0.0049978835 0.030191697 -0.06264611 -0.06211966
0.110939324 0.040531743 -0.08018896 0.09013286 -0.049510233 -0.0024096672 0.027820857 0.046863336
0.028262602 -0.09462304 -0.039252877 -0.049993675 -0.054014552 0.02740707 0.0049222014 0.0911728
0.028522957 0.032153405 -0.029920416 0.10178094 -0.074968524 0.10387207 0.04422035 -0.024149772
-0.047895137 0.015384746 0.13354908 0.11854919 0.04176041 0.016901962 -0.015314829 0.03565407
-0.05237397 -0.0049010706 -0.024135038 -0.008001759 0.016824676 -0.03150149 0.081135586 0.070920214
-0.06465781 0.036324754 -0.0340954 -0.09079144 0.05504664 0.06629776 -0.0005267886 0.110034205
00000000: 830d ef3d a8fa b03d 3a01 a7bd edcc 6b3d
00000010: db62 d33d 3155 823d 566b 61bb 9017 cd3d
00000020: c9ab d83d 9e1d 4a39 34d3 d43c 20aa 723d
00000030: 68d0 28bd 870c 9dbd b364 c2bd 4de0 8a3c
00000040: 7034 c6bc 5c91 da3d 0a39 cdbd 6dea fbbc
00000050: 5501 79bc 66bd 36bd 308e e43c 296f 373a
00000060: 223c f13d b220 5dbd eda8 ce3b 16b6 93bc
00000070: 8428 03bd f906 443d 5f65 21bd 3236 de3c
00000080: 18be b63d 7dbd 863d 5b91 f6bb 816b 5dbd
00000090: 31c2 d2bc 12be bebc 33ed 95bd 50c9 b2b9
000000a0: edd5 bf3d 3ad9 e83d d12d 2f3d fd2b 9cbd
000000b0: af3f a03d 924a a23c 468b 9b3d 237a 5c3d
000000c0: 3271 b5bd daf1 1d3c 6761 8a3d e876 513c
000000d0: 6df2 ffba bffa aebd 0005 71bb 97b1 ac3d
000000e0: 2116 9fbc fe31 0fbd 2c52 8a3c 1389 a6bd
000000f0: c633 473d 252d 543d 6c15 6a3c 8aaa 08bd
00000100: f81e 4e3c 2e10 e43c 59d7 4e3d 5f64 c83d
00000110: 8097 cc3c e9fb 8fbc 533d 893d f330 dd3a
00000120: d34b 81bd 89d3 8d3d f561 a3bd 9a3e e93d
00000130: 49c5 a3bb 9454 f73c 9b4c 80bd 2f71 7ebd
00000140: 2834 e33d 9d04 263d 1c3a a4bd 9497 b83d
00000150: 3ecb 4abd 82eb 1dbb 91e8 e33c c5f3 3f3d
00000160: f986 e73c b9c9 c1bd a0c7 20bd 2bc6 4cbd
00000170: 5d3e 5dbd cb84 e03c 6b4a a13b ceb8 ba3d
00000180: faa8 e93c 4ab3 033d a91b f5bc 8772 d03d
00000190: 1989 99bd e1ba d43d 6620 353d bed5 c5bc
000001a0: b12d 44bd 4d10 7c3c 17c1 083e ebc9 f23d
000001b0: f70c 2b3d fc75 8a3c 0ceb 7abc 010a 123d
000001c0: 1786 56bd 2999 a0bb d8b6 c5bc cf19 03bc
000001d0: e7d3 893c b507 01bd 6a2a a63d 9e3e 913d
000001e0: 506b 84bd 44c9 143d 9ea7 0bbd ddf0 b9bd
000001f0: 9678 613d 1fc7 873d 2f18 0aba 9d59 e13d

fc4.weight f4 [2, 128]
-0.113036744 0.13744417 0.01870495 0.08958685 -0.0960681 -0.059004996 0.06831522 -0.042741023
-0.107852995 -0.07872305 0.1637466 -0.11857417 0.07193995 0.059545755 -0.10059483 -0.11881945
0.11736572 -0.08150617 -0.054849394 0.009306629 -0.10119604 -0.030587852 -0.06182522 0.1201053
-0.10460097 -0.0074158483 -0.1827288 0.11053903 -0.09667236 -0.14428988 0.09559577 0.13738845
-0.06091705 0.014231287 -0.115151554 0.021466073 0.0667049 0.0929436 -0.049562342 -0.2771688
-0.073779576 -0.19383347 -0.07665199 0.0036316128 0.0989915 -0.04381962 -0.08261816 -0.09488653
-0.024050768 0.06957455 -0.03926321 -0.004973658 0.12720598 0.06340224 0.0019795995 -0.010689563
-0.18796684 -0.13311005 0.035709158 -0.061228074 0.07669753 -0.02159497 -0.042865813 -0.003155798
0.124912165 -0.023477491 -0.036422003 -0.05903133 -0.09820209 0.11093004 -0.120685905 -0.10863321
0.067415625 0.07441252 -0.0772054 -0.13825734 -0.14599203 -0.13139777 0.025622463 -0.073339075
-0.10590085 0.10989884 0.008306662 -0.07324857 -0.11089092 0.13564867 -0.11371531 -0.038807668
0.06566061 0.06565386 -0.08613703 0.07292592 -0.09149277 0.098033614 0.003165592 -0.06531172
-0.057922367 -0.13069887 0.040009927 -0.0907976 0.06390477 -0.09827922 -0.14684293 -0.15454394
0.061520338 0.088177785 -0.17488505 -0.23939058 -0.15912324 -0.026759604 -0.04094928 -0.13421953
0.07620295 -0.13755034 -0.020900648 -0.045439553 0.12388025 -0.07796627 -0.011842346 0.07570777
-0.12128797 0.016126776 0.0059407507 0.07100471 -0.09713927 0.089987345 -0.124369204 -0.08709958
-0.09694196 0.045876104 0.012198362 0.029821878 -0.06414128 -0.06240172 -0.053522114 -0.075548515
-0.17355993 -0.18653722 0.12109145 -0.08926173 0.04987059 0.027703175 0.16185948 -0.16361733
0.003778858 -0.14820644 0.096418194 -0.04485411 0.12756342 -0.021380277 -0.07564451 -0.0017536539
-0.09111241 -0.017897818 -0.15626274 0.05342164 0.08293309 0.045677558 -0.054100294 0.12160529
-0.10612392 -0.07362201 0.21822025 0.0021844741 0.0859778 0.041253973 0.038224682 -0.19480051
-0.044967946 -0.19846858 0.06246374 0.008602446 -0.03226771 -0.0651967 0.0012337368 -0.06543549
-0.03600942 0.025440253 -0.069061026 -0.1302858 0.108405255 0.007456062 -0.06791769 -0.14963129
-0.09653542 0.092096016 -0.091268 0.07397995 0.049821556 -0.18020022 -0.070597164 0.0088871475
0.15378782 -0.041893363 -0.11278678 -0.027690107 -0.061696228 0.08545613 0.12312417 0.02665835
0.022050714 0.12187445 -0.07819473 -0.12677284 0.021809338 -0.07646316 0.060497425 -0.1697364
-0.071387835 0.079850435 0.050024483 -0.1337321 0.095324576 0.095322594 -0.016238108 -0.016203517
0.110600166 0.00705926 0.03164718 -0.05197839 -0.0878518 0.07197788 0.1584676 -0.01591557
0.09969622 -0.19250356 -0.031080307 -0.1378984 -0.0222969 -0.07156566 0.055685446 0.11237118
-0.019149745 0.1729946 -0.16581449 -0.16062216 0.24387966 -0.11089748 -0.033899892 -0.047443885
0.16769163 0.054917604 -0.06036241 -0.0009353157 0.07025845 0.041419037 -0.032373667 0.01095418
0.23626156 -0.16505127 -0.002988368 0.050832227 -0.052723136 0.13872124 -0.030382825 -0.033503823
00000000: cf7f e7bd 2abe 0c3e 203b 993c 4f79 b73d
00000010: 5abf c4bd 39af 71bd dae8 8b3d 3611 2fbd
00000020: 08e2 dcbd 8d39 a1bd 30ad 273e 04d7 f2bd
00000030: 4155 933d 40e6 733d aa04 cebd 9d57 f3bd
00000040: 705d f03d b5ec a6bd c2a9 60bd d57a 183c
00000050: df3f cfbd 6093 fabc 713c 7dbd c4f9 f53d
00000060: 0939 d6bd a500 f3bb 421d 3bbe 4962 e23d
00000070: 29fc c5bd bac0 13be b7c7 c33d 8faf 0c3e
00000080: 2884 79bd 582a 693c 94d4 ebbd 9ed9 af3c
00000090: 949c 883d 3759 be3d e201 4bbd 12e9 8dbe
000000a0: bf19 97bd 487c 46be b8fb 9cbd 5a00 6e3b
000000b0: 0ebc ca3d 347c 33bd b633 a9bd de53 c2bd
000000c0: 1e06 c5bc 1a7d 8e3d 76d2 20bd 11fa a2bb
000000d0: 4942 023e 09d9 813d 2bbc 013b 4723 2fbc
000000e0: 617a 40be 004e 08be c443 123d 4aca 7abd
000000f0: 9813 9d3d efe7 b0bc 1094 2fbd 81d1 4ebb
00000100: f3d1 ff3d de53 c0bc 3d2f 15bd d6ca 71bd
00000110: 2d1e c9bd 4a2f e33d 2c2a f7bd 177b debd
00000120: 3411 8a3d 9765 983d dd1d 9ebd 5593 0dbe
00000130: ef7e 15be 238d 06be 33e6 d13c cc32 96bd
00000140: 8be2 d8bd a512 e13d aa18 083c 5903 96bd
00000150: c71a e3bd 7ce7 0a3e 93e3 e8bd caf4 1ebd
00000160: 1279 863d 8875 863d 9c68 b0bd 2f5a 953d
00000170: 9060 bbbd d9c5 c83d d275 4f3b 27c2 85bd
00000180: 0140 6dbd edd5 05be 73e1 233d 18f4 b9bd
00000190: 81e0 823d 9e46 c9bd fe5d 16be c440 1ebe
000001a0: c0fc 7b3d 8e96 b43d 1115 33be ce22 75be
000001b0: 34f1 22be f536 dbbc 6fba 27bd d870 09be
000001c0: 4b10 9c3d ffd9 0cbe d637 abbc d31e 3abd
000001d0: eeb4 fd3d c8ac 9fbd 6606 42bc ad0c 9b3d
000001e0: d465 f8bd 4d1c 843c a1aa c23b eb6a 913d
000001f0: f4f0 c6bd 494b b83d 48b5 febd 4461 b2bd
00000200: 8289 c6bd 95e8 3b3d a3db 473c 034d f43c
00000210: 815c 83bd f298 7fbd 013a 5bbd 2eb9 9abd
00000220: b2b9 31be 9d03 3fbe cbfe f73d dbce b6bd
00000230: 1b45 4c3d c5f1 e23c 7ebe 253e 4d8b 27be
00000240: b8a6 773b 6ec3 17be e776 c53d f1b8 37bd
00000250: fc9f 023e b125 afbc 82eb 9abd dcda e5ba
00000260: 2599 babd 729e 92bc 5703 20be a6d0 5a3d
00000270: d3d8 a93d 6418 3b3d 4598 5dbd 320c f93d
00000280: 7f57 d9bd 23c7 96bd 2175 5f3e 6529 0f3b
00000290: 2115 b03d edf9 283d 7c91 1c3d c979 47be
000002a0: 4f30 38bd 593b 4bbe fbd9 7f3d 46f1 0c3c
000002b0: 252b 04bd d985 85bd 56b5 a13a 0b03 86bd
000002c0: 9d7e 13bd 1468 d03c de6f 8dbd a469 05be
000002d0: 9303 de3d fb51 f43b 6e18 8bbd f238 19be
000002e0: 5db4 c5bd d69c bc3d b8ea babd cd82 973d
000002f0: b011 4c3d 6886 38be 3f95 90bd 669b 113c
00000300: 8e7a 1d3e 6098 2bbd c1fc e6bd 5dd6 e2bc
00000310: 2fb5 7cbd a003 af3d 8628 fc3d 9d62 da3c
00000320: b3a3 b43c 5099 f93d 8f24 a0bd bdd0 01be
00000330: 7fa9 b23c b898 9cbd 26cc 773d 61cf 2dbe
00000340: c933 92bd a088 a33d 79e6 4c3d 11f1 08be
00000350: 8839 c33d 7e38 c33d c805 85bc 3dbd 84bc
00000360: 5782 e23d 5d51 e73b 79a0 013d 4be7 54bd
00000370: a5eb b3bd 2469 933d 5545 223e 5f61 82bc
00000380: 882d cc3d a71f 45be 219c febc 3d35 0dbe
00000390: fda7 b6bc 0491 92bd 6c16 643d dc22 e63d
000003a0: eddf 9cbc 7f25 313e 46cb 29be 237a 24be
000003b0: 97bb 793e 381e e3bd 9dda 0abd 8554 42bd
000003c0: 5bb7 2b3e 48f1 603d 933e 77bd f92f 75ba
000003d0: aae3 8f3d 02a7 293d 409a 04bd 2979 333c
000003e0: 8dee 713e 3303 29be 7fd8 43bb 7435 503d
000003f0: 37f4 57bd f10c 0e3e 67e5 f8bc 4e3b 09bd

fc4.bias f4 [2]
-0.07837958 0.04871936
00000000: 7985 a0bd f48d 473d

fc1.weight f4 [128, 7]
0.30741176 -0.37108585 0.17408136 0.24301898 -0.206366 0.17886844 0.23030671 0.09361362
0.28540272 -0.04358988 0.28442794 0.09609443 0.10706974 0.16431879 -0.35653663 0.108334616
-0.1556433 -0.35627043 -0.2914347 -0.03469091 0.028346227 -0.27878675 0.2554822 0.048983157
0.031042004 -0.12289803 0.02279614 0.38772392 -0.031466477 0.33716273 -0.47399586 -0.024540901
-0.3448198 0.18732272 0.36046112 0.01986945 0.1401149 0.24400087 -0.2851526 0.077346705
-0.33852443 -0.099359736 0.13131872 -0.26044747 0.12714095 -0.23010299 -0.13682453 -0.36504945
-0.22799915 0.020432057 0.12083667 -0.33344424 -0.31851554 0.15682447 0.20261352 0.35926977
-0.14025104 0.1688377 0.4142292 0.1457188 -0.2825352 0.40265912 0.14298663 -0.17233887
-0.29886657 0.28368592 -0.08656799 -0.22791815 -0.19700317 0.122116886 0.16437303 0.38775775
-0.064550154 0.36085534 0.38456196 -0.054110117 -0.41828036 0.099311315 -0.0684505 0.032214954
-0.22050016 -0.715366 0.41238353 -0.27569604 0.15793079 -0.36833045 0.35532176 -0.17853962
0.35399678 -0.27559012 -0.047553096 0.32236382 0.32082936 -0.20854977 -0.26587108 0.2970479
0.17609876 -0.15796681 0.17963672 -0.3323677 -0.12333454 -0.13987195 0.03883277 0.3840493
-0.111441724 0.113303274 -0.13697763 0.27836847 0.20513865 -0.09925451 0.37863162 -0.18954769
0.050962813 0.22088984 -0.088136904 -0.40894985 0.03171328 -0.24209431 0.24882063 0.47118965
0.19363141 0.29769987 -0.2106956 -0.3558389 0.11370652 -0.20883352 0.11150298 -0.11107093
-0.60520977 0.0966898 -0.008679231 -0.36712962 0.11140794 0.0044574765 -0.25220478 -0.13664971
0.12573409 -0.29830423 -0.18599388 -0.1717035 -0.19060388 -0.18248004 0.18635488 -0.102482066
-0.273606 0.24104953 -0.3263067 -0.18017118 -0.08334815 -0.30783615 -0.028560517 -0.2773768
0.10874765 -0.1313946 0.17470431 0.35109192 -0.17706561 -0.14807594 -0.15975858 -0.12899035
0.25646672 -0.44795823 -0.149562 -0.14833827 0.15107211 0.31804043 0.27765837 -0.43418145
0.112618506 -0.36701262 -0.2823103 0.07763112 0.1164197 -0.0020974749 0.050845128 0.061650753
0.057223774 -0.45013568 -0.24113703 -0.043439426 -0.382896 0.15627462 0.12524325 0.1098864
-0.23848505 0.15315753 0.2780594 0.29605597 -0.12395422 -0.07503589 -0.27578786 0.39781392
-0.234986 -0.30438113 0.033157222 -0.20254076 0.24345016 0.18660922 -0.0814304 -0.014213162
-0.19534251 0.118074626 0.15027152 -0.29500672 -0.18156083 0.2690801 -0.19523785 0.3810738
-0.17639537 -0.1733023 -0.36071357 0.34040555 -0.37716952 -0.03726294 0.059434526 0.10401916
-0.20751719 -0.08685177 -0.17299777 -0.051476356 -0.14885058 -0.36402485 0.18221433 -0.20525381
-0.19114663 0.2691414 -0.6419304 0.2288511 0.2912116 0.14766343 0.1067028 0.22157203
-0.02777634 -0.51555514 -0.09777469 0.3442597 -0.0070738615 0.32550967 -0.050350305 -0.11381588
-0.14921945 -0.10807997 -0.26127174 -0.11252623 0.45730224 0.27410197 0.43316975 -0.07024492
0.27140585 0.26310146 0.3402815 0.31076744 -0.27066156 0.3180943 0.31574374 0.29837683
00000000: 1365 9d3e f7fe bdbe 6242 323e f8d9 783e
00000010: 9c51 53be 4a29 373e 86d5 6b3e 7fb8 bf3d
00000020: 4e20 923e 4d8b 32bd 8aa0 913e 28cd c43d
00000030: 6147 db3d 2f43 283e f88b b6be 8ade dd3d
00000040: f560 1fbe 1469 b6be ee36 95be 0e18 0ebd
00000050: 5936 e83c 23bd 8ebe 90ce 823e 90a2 483d
00000060: cd4b fe3c f6b1 fbbd f8be ba3c c083 c63e
00000070: fee2 00bd 98a0 ac3e 96af f2be 000a c9bc
00000080: 398c b0be 87d1 3f3e 5c8e b83e 42c5 a23c
00000090: 487a 0f3e 5ddb 793e 86ff 91be f367 9e3d
000000a0: 1353 adbe 1e7d cbbd 6a78 063e 5f59 85be
000000b0: 3d31 023e 1ea0 6bbe bb1b 0cbe c3e7 babe
000000c0: 9c78 69be 2161 a73c 3779 f73d 34b9 aabe
000000d0: 7814 a3be 9896 203e eb79 4f3e 35f2 b73e
000000e0: f89d 0fbe cae3 2c3e da15 d43e 4f37 153e
000000f0: 74a8 90be 5629 ce3e 166b 123e 9a79 30be
00000100: 0a05 99be 483f 913e 8f4a b1bd 6063 69be
00000110: 33bb 49be 6b18 fa3d 6751 283e 2f88 c63e
00000120: df32 84bd 08c2 b83e 4ee5 c43e 92a2 5dbd
00000130: d828 d6be bb63 cb3d c72f 8cbd d4f3 033d
00000140: cbca 61be 3a22 37bf ef23 d33e 0828 8dbe
00000150: 9cb8 213e cf95 bcbe bcec b53e 17d3 36be
00000160: 113f b53e 261a 8dbe 09c7 42bd df0c a53e
00000170: bf43 a43e 128e 55be 4120 88be aa16 983e
00000180: 3c53 343e 0dc2 21be b0f2 373e 192c aabe
00000190: d296 fcbd 983a 0fbe 1c0f 1f3d 1ca2 c43e
000001a0: 8f3b e4bd 8c0b e83d dd43 0cbe 5086 8e3e
000001b0: de0f 523e f345 cbbd 01dc c13e ca18 42be
000001c0: 62be 503d f230 623e 1f81 b4bd e061 d1be
000001d0: c9e5 013d 92e7 77be d6ca 7e3e c53f f13e
000001e0: 5047 463e 1e6c 983e 96c0 57be 8430 b6be
000001f0: f7de e83d 74d8 55be ad5b e43d 2879 e3bd
00000200: 07ef 1abf 4d05 c63d 5533 0ebc 6af8 bbbe
00000210: d929 e43d 0610 923b fc20 81be e7ed 0bbe
00000220: 70c0 003e 55bb 98be 2e75 3ebe 0bd3 2fbe
00000230: aa2d 43be 0cdc 3abe d0d3 3e3e 1ee2 d1bd
00000240: 1616 8cbe b0d5 763e ac11 a7be cb7e 38be
00000250: 6fb2 aabd b39c 9dbe bff7 e9bc 5504 8ebe
00000260: 17b7 de3d 4e8c 06be b0e5 323e 52c2 b33e
00000270: b050 35be 38a1 17be c197 23be 0c16 04be
00000280: 9b4f 833e c85a e5be c826 19be fde5 17be
00000290: a6b2 1a3e 32d6 a23e 3d29 8e3e 084d debe
000002a0: 88a4 e63d 14e9 bbbe fa8a 90be 11fd 9e3d
000002b0: 746d ee3d ca75 09bb fb42 503d 8085 7c3d
000002c0: 7a63 6a3d 2f78 e6be a0ec 76be 8aed 31bd
000002d0: f20a c4be 7406 203e c43f 003e 1f0c e13d
000002e0: 6d35 74be 54d5 1c3e cd5d 8e3e a694 973e
000002f0: b6db fdbd 6bac 99bd 1134 8dbe 44ae cb3e
00000300: 2ca0 70be d8d7 9bbe decf 073d d866 4fbe
00000310: 004b 793e 7d16 3f3e fbc4 a6bd 52de 68bc
00000320: de07 48be 1cd1 f13d c7e0 193e 1f0b 97be
00000330: 15eb 39be dec4 893e 6eec 47be 1b1c c33e
00000340: fda0 34be 2876 31be 73af b8be a349 ae3e
00000350: 5d1c c1be 06a1 18bd 9e71 733d ff07 d53d
00000360: 637f 54be 57df b1bd 5426 31be dfd8 52bd
00000370: 496c 18be 7761 babe 6596 3a3e 0e2e 52be
00000380: f1bb 43be e7cc 893e 8d55 24bf f157 6a3e
00000390: b019 953e 1535 173e ff86 da3d c7e3 623e
000003a0: 358b e3bc 6cfb 03bf 193e c8bd cf42 b03e
000003b0: dacb e7bb 34a9 a63e 1f3c 4ebd 4d18 e9bd
000003c0: fccc 18be 0859 ddbd 69c5 85be 2774 e6bd
000003d0: 8523 ea3e 1857 8c3e 6dc8 dd3e 92dc 8fbd
000003e0: b5f5 8a3e 3cb5 863e 6039 ae3e e91c 9f3e
000003f0: 2794 8abe 42dd a23e 2aa9 a13e d9c4 983e

fc1.bias f4 [128]
-0.24746138 0.07289419 0.103148796 -0.09289846 0.3272602 -0.33989868 0.039171457 0.20836593
-0.013000194 -0.062470775 0.17216937 0.077837855 -0.38430262 -0.057586063 -0.23801038 -0.24824554
-0.12968223 -0.2839525 0.24164346 0.06641694 -0.21716374 -0.075315766 0.2146239 0.037222587
-0.11256877 0.21648417 0.33607247 0.35478875 0.05890443 0.23518634 -0.2200316 -0.34659618
-0.0279372 0.08954631 0.011292881 0.3481156 0.2825273 0.20578414 0.055029355 0.011278086
0.34036207 0.2694329 0.007008742 0.40172905 -0.10245269 0.23177986 0.2244653 0.050700642
-0.33054644 0.1299033 0.005431863 -0.36920545 -0.20489433 -0.43484753 -0.053556982 0.097950175
-0.2756977 -0.3262021 -0.3765149 0.34072635 0.11692287 -0.21827044 -0.085157216 -0.061412666
-0.079701774 0.20083499 -0.07052329 -0.15900692 -0.15051407 -0.101503685 0.24085858 0.01781844
-0.17078705 -0.011775522 0.13292857 -0.3402138 0.19303837 0.059764415 0.095525436 -0.1520947
0.2810001 -0.11026265 0.2796388 -0.3098709 -0.028589448 0.30639696 -0.17116526 -0.2243833
0.37409973 0.072662376 -0.058066454 -0.2407642 0.33259547 0.3732801 -0.05812918 0.2068774
-0.36437285 0.32602653 0.12086082 -0.032100327 0.1359798 0.36239865 0.22370954 -0.078755476
0.13984257 -0.12155265 -0.1988382 0.28646338 0.25608718 -0.27859905 -0.16038306 0.29805496
0.30002278 0.22178598 0.35133323 -0.3334629 0.0031498987 -0.051565703 0.2821772 -0.08203601
0.09764663 -0.014573729 -0.18323763 0.09197143 -0.2209901 -0.2021132 0.31593925 -0.29031447
00000000: 8466 7dbe 8d49 953d ad3f d33d 8c41 bebd
00000010: a68e a73e 3307 aebe 4072 203d e15d 553e
00000020: c4fe 54bc 5be1 7fbd 2b4d 303e 7469 9f3d
00000030: 50c3 c4be 5ddf 6bbd feb8 73be 1434 7ebe
00000040: 6bcb 04be 3962 91be 6271 773e 9b05 883d
00000050: 2c60 5ebe 273f 9abd 5ec6 5b3e b676 183d
00000060: 758a e6bd 07ae 5d3e b111 ac3e dfa6 b53e
00000070: c645 713d b0d4 703e f74f 61be 0e75 b1be
00000080: 8edc e4bc 0e64 b73d c705 393c 353c b23e
00000090: 6ba7 903e 14b9 523e 7666 613d b9c7 383c
000000a0: f043 ae3e 1cf3 893e 97a9 e53b 6eaf cd3e
000000b0: b7d2 d1bd b357 6d3e 3bda 653e 7aab 4f3d
000000c0: 623d a9be 5f05 053e c5fd b13b 7f08 bdbe
000000d0: d2cf 51be 56a4 debe 915e 5bbd 1a9a c83d
000000e0: 4028 8dbe f603 a7be 90c6 c0be af73 ae3e
000000f0: 4275 ef3d 4982 5fbe e866 aebd d98b 7bbd
00000100: af3a a3bd b0a7 4d3e 846e 90bd b6d2 22be
00000110: 5c20 1abe 2ae1 cfbd a2a3 763e faf7 913c
00000120: cde2 2ebe 1eee 40bc 6d1e 083e 8130 aebe
00000130: daab 453e 88cb 743d d7a2 c33d b7be 1bbe
00000140: 3fdf 8f3e 62d1 e1bd d12c 8f3e 66a7 9ebe
00000150: 6b34 eabc 10e0 9c3e f245 2fbe bcc4 65be
00000160: 008a bf3e 03d0 943d 17d7 6dbd e48a 76be
00000170: f449 aa3e 921e bf3e dd18 6ebd abd7 533e
00000180: 148f babe f3ec a63e e185 f73d a27b 03bd
00000190: 4a3e 0b3e 518c b93e 1d14 653e 8d4a a1bd
000001a0: e432 0f3e 99f0 f8bd 3e9c 4bbe 54ab 923e
000001b0: dc1d 833e 89a4 8ebe 753b 24be a99a 983e
000001c0: 969c 993e dd1b 633e f3e1 b33e a6bb aabe
000001d0: 886e 4e3b 8f36 53bd 8879 903e 7f02 a8bd
000001e0: f5fa c73d a6c6 6ebc a5a2 3bbe 845b bc3d
000001f0: 3b4b 62be c3f6 4ebe cac2 a13e 19a4 94be

fc2.weight f4 [128, 128]
0.20041949 -0.010618134 -0.0021160562 -0.001122591 -0.035392575 -0.0507785 -0.07250786 -0.0018449689
0.008565485 0.046412587 -0.061121207 0.15366636 -0.030139424 0.0647047 0.007410622 0.084136456
0.021106174 0.11290409 0.03663593 -0.025867501 0.032200836 0.014399945 -0.026186831 -0.058195285
-0.105798155 -0.109342664 0.07266944 0.07669423 0.08521142 -0.06066348 0.051567953 -0.006857798
-0.067607306 -0.029987508 -0.054376073 -0.04991607 0.08662615 0.04304449 0.16757672 -0.009190037
0.12837687 -0.003687282 0.05705026 0.13228852 0.036078207 0.023941899 -0.043699298 -0.008186418
0.005702869 -0.06434345 -0.10169237 -0.0382364 0.08091889 0.028366901 0.097938895 -0.007513075
0.0015172759 -0.04597353 0.045161318 0.008476904 0.09388406 -0.1606407 -0.07319246 0.10332873
-0.15698768 0.0074585015 0.024065398 0.14684337 -0.08626096 0.05587554 -0.018544193 -0.050440565
0.016893126 -0.09168281 -0.06357597 0.19462416 0.046193045 0.1569596 0.104590654 -0.048107635
-0.0062854937 -0.21914719 0.048000433 0.034845497 0.1845774 0.027118873 0.033079986 0.055980634
0.0940153 0.1016615 0.032511603 0.010398713 0.061211675 -0.018735856 -0.049235083 0.0648735
0.048433747 -0.040618453 0.007943682 -0.023866339 -0.13758379 -0.036223512 0.19376518 0.05321766
-0.12172487 -0.05093825 0.07256179 0.020660799 0.12290785 0.10808316 0.1125101 -0.04533182
-0.11420197 0.01616539 0.19500321 -0.09119704 -0.05563263 0.06771885 0.0421781 -0.002362385
-0.07192604 0.08094412 0.17218198 0.06345216 -0.13024588 -0.047883824 0.11809311 0.050396007
-0.11370423 0.048116878 0.04401094 0.060139302 -0.10747151 -0.08399237 -0.08820226 -0.045926057
-0.051755555 0.0883572 0.069142655 -0.027705273 -0.08625961 0.0593654 -0.122396044 0.09700295
0.0839667 -0.03979882 0.08077574 0.06473647 0.05707611 -0.017779522 -0.14806631 0.0024494599
-0.0036136603 -0.06298316 0.02014362 0.035221905 -0.03719559 0.1332805 -0.016743952 -0.025041107
-0.0807438 -0.018282237 -0.15840228 0.10675416 -0.020950062 0.21138412 -0.15294601 -0.026006844
0.16985472 0.09343858 0.024267912 -0.08598987 0.08752918 0.064953245 0.005715294 -0.0075570634
-0.04913721 -0.08160074 -0.13243446 0.08257179 0.08247603 0.072427206 -0.007214908 0.14092796
-0.06483781 0.08777608 0.083293974 0.09275075 0.023993857 0.23615061 0.14127879 0.07986688
0.18140392 0.022297109 -0.08092632 0.16789201 0.048862897 0.12801857 0.09001678 -0.082575895
0.08588141 0.43620914 0.0066904905 -0.10452262 0.043392565 -0.07740483 -0.0704589 -0.006029665
-0.063761264 0.24681178 -0.07298594 -0.0019872633 -0.19933674 0.03020529 -0.05342784 -0.0932049
-0.024746688 0.011453662 0.017423388 -0.072362565 0.0901238 0.020527711 -0.073507294 -0.0052787913
-0.0066747754 0.06686089 0.06544461 0.0871449 -0.10547031 -0.03478703 0.0034035235 0.19245042
0.22448936 -0.021143816 0.047830388 0.033552658 0.071830265 -0.25996447 0.037205778 -0.14813392
0.07112915 -0.06778729 0.0017912266 -0.092215136 -0.024695072 -0.043401875 0.049760383 -0.0005599111
-0.045038052 0.04664753 -0.059925783 0.0573048 -0.11083361 0.06751766 0.030195188 -0.0560758
00000000: c43a 4d3e aff7 2dbc 88ad 0abb e723 93ba
00000010: cef7 10bd 1efd 4fbd 007f 94bd e2d2 f1ba
00000020: 3f56 0c3c 201b 3e3d 3b5a 7abd b75a 1d3e
00000030: f4e6 f6bc e683 843d ced4 f23b bc4f ac3d
00000040: dbe6 ac3c 423a e73d 8f0f 163d 15e8 d3bc
00000050: 06e5 033d bfed 6b3c c485 d6bc 2e5e 6ebd
00000060: b4ac d8bd 0cef dfbd b7d3 943d dd11 9d3d
00000070: 5383 ae3d 457a 78bd eb38 533d 61b7 e0bb
00000080: b375 8abd 5da8 f5bc 72b9 5ebd cb74 4cbd
00000090: 0d69 b13d 6b4f 303d 3b99 2b3e cf91 16bc
000000a0: 3a75 033e 54a6 71bb 89ad 693d a476 073e
000000b0: bec6 133d cd21 c43c 09fe 32bd 5320 06bc
000000c0: 22df ba3b 80c6 83bd 1744 d0bd c59d 1cbd
000000d0: ceb8 a53d b461 e83c 3094 c83d 3e30 f6bb
000000e0: 55df c63a bd4e 3cbd 13fb 383d b6e2 0a3c
000000f0: 4946 c03d ff7e 24be eee5 95bd 039e d33d
00000100: 61c1 20be 7266 f43b cc24 c53c 1c5e 163e
00000110: 96a9 b0bd c0dd 643d fee9 97bc c49a 4ebd
00000120: 7463 8a3c 32c4 bbbd 1e34 82bd 8e4b 473e
00000130: eb34 3d3d 04ba 203e a033 d63d 830c 45bd
00000140: 8bf6 cdbb 1f68 60be 1a9c 443d 27ba 0e3d
00000150: dc01 3d3e 6628 de3c e17e 073d f34b 653d
00000160: 188b c03d e833 d03d e32a 053d 5d5f 2a3c
00000170: 18b9 7a3d f07b 99bc baaa 49bd 66dc 843d
00000180: 7762 463d 895f 26bd 3826 023c 5783 c3bc
00000190: c4e2 0cbe 1b5f 14bd 616a 463e c3fa 593d
000001a0: e34a f9bd a0a4 50bd 479b 943d d640 a93c
000001b0: 1cb7 fb3d b45a dd3d b26b e63d dcad 39bd
000001c0: b9e2 e9bd 486d 843c ecae 473e 84c5 babd
000001d0: 0adf 63bd 2eb0 8a3d f2c2 2c3d 3ed2 1abb
000001e0: f64d 93bd 08c6 a53d 7950 303e 35f3 813d
000001f0: 2d5f 05be d421 44bd cdda f13d 0b6c 4e3d
00000200: c3dd e8bd 3416 453d d144 343d a154 763d
00000210: 061a dcbd 3104 acbd 63a3 b4bd f61c 3cbd
00000220: a2fd 53bd 9ff4 b43d aa9a 8d3d 2bf6 e2bc
00000230: e1a8 b0bd 2229 733d c7aa fabd 7ca9 c63d
00000240: bcf6 ab3d 1604 23bd c06d a53d 8e94 843d
00000250: a4c8 693d 5ca6 91bc b29e 17be 1e87 203b
00000260: 29d3 6cbb 51fd 80bd 3c04 a53c d844 103d
00000270: 675a 18bd af7a 083e 9d2a 89bc 0223 cdbc
00000280: 015d a5bd a1c4 95bc 3534 22be eda1 da3d
00000290: 779f abbc 1475 583e e19d 1cbe 4e0c d5bc
000002a0: 65ee 2d3e ba5c bf3d 80cd c63c 751b b0bd
000002b0: 8042 b33d 3506 853d 5c47 bb3b 3ea1 f7bb
000002c0: 1944 49bd 4a1e a7bd e69c 07be 661b a93d
000002d0: 31e9 a83d b754 943d 096b ecbb 6b4f 103e
000002e0: b0c9 84bd f2c3 b33d 0896 aa3d 1bf4 bd3d
000002f0: c48e c43c 77d1 713e 63ab 103e 3f91 a33d
00000300: f3c1 393e 6da8 b63c b3bc a5bd e2eb 2b3e
00000310: 7624 483d 4d17 033e b85a b83d 8d1d a9bd
00000320: 98e2 af3d ce56 df3e e73b db3b f50f d6bd
00000330: 67bc 313d 6c86 9ebd c14c 90bd 7f94 c5bb
00000340: 4495 82bd 3abc 7c3e a779 95bd bf3c 02bb
00000350: ee1e 4cbe 1671 f73c 27d7 5abd 36e2 bebd
00000360: 91b9 cabc 24a8 3b3c 7ebb 8e3c d332 94bd
00000370: d492 b83d bb29 a83c fe8a 96bd b6f9 acbb
00000380: 13b8 dabb 5dee 883d d307 863d 0679 b23d
00000390: d100 d8bd d87c 0ebd a60d 5f3b b911 453e
000003a0: 8ae0 653e cc35 adbc cce9 433d 836e 093d
000003b0: bf1b 933d 101a 85be 1665 183d 6bb0 17be
000003c0: 29ac 913d 10d4 8abd 97c7 ea3a 4adb bcbd
000003d0: 524d cabc 2ac6 31bd 8bd1 4b3d ffc6 12ba
000003e0: d279 38bd 7b11 3f3d bd74 75bd 70b8 6a3d
000003f0: bbfc e2bd b346 8a3d e65b f73c bdaf 65bd
