flappybird_dqn_ep180.pth (torch, 561729 bytes, 32 tensors)

fc1.weight f4 [128, 7]
0	0x3e95ea8a	0.29280502
1	0xbeedc014	-0.46435606
2	0x3e2f149d	0.17097707
3	0x3e691a60	0.22763968
4	0xbe743468	-0.23848116
5	0x3e3ea6ec	0.18618363
6	0x3e6e7072	0.23285082
7	0x3d83bc1a	0.06432362
8	0x3e99694c	0.29963148
9	0x3cea2fcf	0.02858725
10	0x3e87df8c	0.2653774
11	0x3d83b891	0.064316876
12	0x3da9db0e	0.082937345
13	0x3e271622	0.16317037
14	0xbeb68bf8	-0.35653663
15	0x3dddde8a	0.108334616
16	0xbe1f60f5	-0.1556433
17	0xbeb66914	-0.35627043
18	0xbe9536ee	-0.2914347
19	0xbd0e180e	-0.03469091
20	0x3ce83659	0.028346227
21	0xbe83252d	-0.256143
22	0x3e85b1d3	0.26112232
23	0x3d55455e	0.052068107
24	0x3d8ca502	0.0686741
25	0xbda9937b	-0.08280083
26	0x3d38c5dd	0.045110572
27	0x3ecf4d42	0.4048863
28	0xbcd1e0b1	-0.025619837
29	0x3eb63a4b	0.3559135
30	0xbefc6f38	-0.49303603
31	0xbda51184	-0.080599815
32	0xbeb5e78f	-0.35528228
33	0x3e514288	0.20435536
34	0x3ebeb985	0.37250915
35	0x3ca2c542	0.01986945
36	0x3e0f7a48	0.1401149
37	0x3e79db5d	0.24400087
38	0xbe91ff86	-0.2851526
39	0x3d9e67f3	0.077346705
40	0xbead5313	-0.33852443
41	0xbdcb7d1e	-0.099359736
42	0x3e06786a	0.13131872
43	0xbe85595f	-0.26044747
44	0x3e02313d	0.12714095
45	0xbe6ba01e	-0.23010299
46	0xbe0c1bbb	-0.13682453
47	0xbebae7c3	-0.36504945
48	0xbe69789c	-0.22799915
49	0xbc13ff1c	-0.009032991
50	0x3dfa9bde	0.122367606
51	0xbea189f8	-0.31550574
52	0xbeb0fb68	-0.34566808
53	0x3e0a7a1b	0.13523142
54	0x3e446c7b	0.19182007
55	0x3eb991c3	0.3624402
56	0xbe02f410	-0.12788415
57	0x3e32701a	0.17425576
58	0x3ec704c3	0.3887082
59	0x3e0cfa81	0.13767435
60	0xbe9d0289	-0.30665997
61	0x3ed026d9	0.40654638
62	0x3e14753a	0.14497843
63	0xbe30799a	-0.17233887
64	0xbe99050a	-0.29886657
65	0x3e913f48	0.28368592
66	0xbdb14a8f	-0.08656799
67	0xbe696360	-0.22791815
68	0xbe49bb33	-0.19700317
69	0x3dfa186b	0.122116886
70	0x3e18eeb2	0.14934805
71	0x3ec556b1	0.38542703
72	0xbac535c3	-0.001504593
73	0x3eb97c88	0.36227822
74	0x3ec2cdc4	0.38047612
75	0xbd87d8c5	-0.066331424
76	0xbef1279b	-0.4710053
77	0x3e0f173d	0.13973708
78	0xbe5d591a	-0.21616021
79	0x3d07a660	0.033117652
80	0xbe46b12c	-0.19403523
81	0xbf24969e	-0.64292324
82	0x3eea394e	0.45746845
83	0xbe7e2556	-0.2481893
84	0x3e21b89c	0.15793079
85	0xbebc95cf	-0.36833045
86	0x3eb5ecbc	0.35532176
87	0xbe36d317	-0.17853962
88	0x3eb53f11	0.35399678
89	0xbe8d1a26	-0.27559012
90	0xbd42c709	-0.047553096
91	0x3e9c2a09	0.3050082
92	0x3ea9650d	0.33084908
93	0xbe572559	-0.21010341
94	0xbe8ea1f0	-0.27857924
95	0x3e985d07	0.29758474
96	0x3e1a1df9	0.15050496
97	0xbe6c1534	-0.23054963
98	0x3e5491dd	0.20758767
99	0xbe8c1061	-0.27356246
100	0xbe2d00dc	-0.16894859
101	0xbe11b37b	-0.14228623
102	0x3d4008d5	0.046883423
103	0x3ec46959	0.38361624
104	0xbe0cdf04	-0.13756949
105	0x3df38df1	0.118923075
106	0xbe49478d	-0.196562
107	0x3e767901	0.24069597
108	0x3e54e4f5	0.20790465
109	0xbe074428	-0.13209593
110	0x3ec9881a	0.3936165
111	0xbe232dea	-0.15935484
112	0x3cda0877	0.026615364
113	0x3e4ce3ed	0.20008822
114	0xbdddabdc	-0.10823795
115	0xbede7dde	-0.43455404
116	0x3baf0369	0.0053409827
117	0xbe88f613	-0.2675024
118	0x3e637160	0.22211218
119	0x3ef96dca	0.48716575
120	0x3e8071d7	0.25086853
121	0x3e923a21	0.28559974
122	0xbe45a9f3	-0.19303112
123	0xbeba92c5	-0.364401
124	0x3de9a034	0.114075094
125	0xbe43a50a	-0.19105926
126	0x3dd44aeb	0.10365852
127	0xbd9d9901	-0.07695199
128	0xbf5e7dea	-0.8691088
129	0x3d2f1ac6	0.042750143
130	0xbc842203	-0.0161295
131	0xbeca3a06	-0.39497393
132	0x3dc9ed62	0.0985973
133	0x3b921006	0.0044574765
134	0xbe8120fc	-0.25220478
135	0xbe0bede7	-0.13664971
136	0x3e00c070	0.12573409
137	0xbe98bb55	-0.29830423
138	0xbe3e752e	-0.18599388
139	0xbe2fd30b	-0.1717035
140	0xbe432daa	-0.19060388
141	0xbe3adc0c	-0.18248004
142	0x3e3ed3d0	0.18635488
143	0xbdd1e21e	-0.102482066
144	0xbe8c1616	-0.273606
145	0x3e76d5b0	0.24104953
146	0xbea711ac	-0.3263067
147	0xbe387ecb	-0.18017118
148	0xbdaab26f	-0.08334815
149	0xbe9d9cb3	-0.30783615
150	0xbce9f7bf	-0.028560517
151	0xbe8e0455	-0.2773768
152	0x3ddeb717	0.10874765
153	0xbe068c4e	-0.1313946
154	0x3e481b10	0.19541574
155	0x3eb329bf	0.34992787
156	0xbe88a21f	-0.2668619
157	0xbe1c02b0	-0.152354
158	0xbe151bd3	-0.14561395
159	0xbdd93b7e	-0.1060705
160	0x3e938ff0	0.28820753
161	0xbefaaa8a	-0.48958236
162	0xbe43598c	-0.19077128
163	0xbd25cb47	-0.040477064
164	0x3e40aacc	0.18815154
165	0x3eaf9e27	0.34300348
166	0x3e95aca0	0.29233265
167	0xbed22fd9	-0.4105213
168	0x3e00db05	0.1258355
169	0xbeb57de8	-0.3544762
170	0xbea48502	-0.32132727
171	0x3dcbe1a0	0.09955144
172	0x3e072067	0.13195954
173	0x3bef8476	0.0073094917
174	0x3d92ee7b	0.07174393
175	0x3d4207db	0.047370773
176	0x3cd41aa1	0.025891604
177	0xbf6975a1	-0.9119511
178	0xbe613f84	-0.21996886
179	0x3c004d5f	0.007830947
180	0xbeb6560b	-0.3561252
181	0x3e2137a7	0.15743886
182	0x3db1cbac	0.086814255
183	0x3dedd7bd	0.116134144
184	0xbe817d59	-0.25290945
185	0x3e19e106	0.15027246
186	0x3e8c145a	0.27359277
187	0x3e86de9a	0.26341707
188	0xbe420a15	-0.18949158
189	0xbd1134e2	-0.035450824
190	0xbe700a76	-0.2344149
191	0x3ece38c6	0.4027769
192	0xbe89c1e5	-0.26905742
193	0xbeb75257	-0.35805008
194	0x3c433c2c	0.011916202
195	0xbe5dbb58	-0.21653497
196	0x3e8b0bf2	0.2715755
197	0x3e1e236e	0.15443203
198	0xbe0c6767	-0.1371132
199	0xbcbbe16e	-0.022934642
200	0xbe661f33	-0.22472839
201	0x3df10da1	0.11770178
202	0x3e06e866	0.1317459
203	0xbe9ea46e	-0.30984825
204	0xbe434bf4	-0.19071943
205	0x3ea2fff8	0.31835914
206	0xbe1a925a	-0.15094891
207	0x3ee52a3e	0.4475879
208	0xbe217afd	-0.15769573
209	0xbe0db633	-0.13839035
210	0xbeb8af73	-0.36071357
211	0x3eae49a3	0.34040555
212	0xbec11c5d	-0.37716952
213	0xbd18a106	-0.03726294
214	0x3d73719e	0.059434526
215	0x3dd507ff	0.10401916
216	0xbe547f63	-0.20751719
217	0xbdb1df57	-0.08685177
218	0xbe312654	-0.17299777
219	0xbd52d8df	-0.051476356
220	0xbe186c49	-0.14885058
221	0xbeba6177	-0.36402485
222	0x3e3a9665	0.18221433
223	0xbe522e0e	-0.20525381
224	0xbe433881	-0.19064523
225	0x3e91907a	0.2843054
226	0xbf30ff3e	-0.6913947
227	0x3e72aa9a	0.23697892
228	0x3e96a50e	0.29422802
229	0x3e189684	0.14901167
230	0x3df55990	0.11979973
231	0x3e552e1d	0.20818372
232	0xbd276c66	-0.04087486
233	0xbee27d8e	-0.44236416
234	0xbd931f47	-0.071837
235	0x3ebfd696	0.37468404
236	0x3c48021e	0.012207536
237	0x3ebcf49a	0.36905366
238	0xbd637f59	-0.05554137
239	0xbd493b6c	-0.049128935
240	0xbe27e1a1	-0.16394664
241	0xbe06dc6d	-0.13170023
242	0xbe973514	-0.29532683
243	0xbe066745	-0.13125332
244	0x3ee5cdf0	0.4488368
245	0x3e67672d	0.22597952
246	0x3ee48187	0.44630072
247	0xbce15273	-0.027505135
248	0x3e86dfe9	0.26342705
249	0x3e6ff2b6	0.2343243
250	0x3e9e3e37	0.3090684
251	0x3ea4b691	0.32170537
252	0xbe9a7beb	-0.30172667
253	0x3ea3b002	0.3197022
254	0x3ec22a91	0.379231
255	0x3ea3afa0	0.3196993

fc1.bias f4 [128]
0	0xbe8c27c7	-0.27374098
1	0x3d1ccf7d	0.038283814
2	0x3dd33fad	0.103148796
3	0xbd809341	-0.062780865
4	0x3ea5d0d2	0.3238588
5	0xbeae0733	-0.33989868
6	0x3d207240	0.039171457
7	0x3e3e431a	0.18580285
8	0xbcb46f27	-0.022025658
9	0xbd7fe15b	-0.062470775
10	0x3e255e01	0.16149141
11	0x3e01cd07	0.12675868
12	0xbec4c350	-0.38430262
13	0xbd8665fb	-0.0656242
14	0xbe5d55a1	-0.21614696
15	0xbe889148	-0.2667334
16	0xbe1f1f10	-0.15539193
17	0xbe8c248e	-0.2737164
18	0x3e72c100	0.23706436
19	0x3d88059b	0.06641694
20	0xbe5e602c	-0.21716374
21	0xbd9a3f27	-0.075315766
22	0x3e6f4f55	0.23370107
23	0x3d302eee	0.043013506
24	0xbdc5f5a0	-0.0966599
25	0x3e7a884f	0.2446606
26	0x3ea248de	0.31696218
27	0x3eb164f1	0.34647325
28	0x3d69a61c	0.05704318
29	0x3e821e5f	0.25413796
30	0xbe614ff7	-0.2200316
31	0xbeb1750e	-0.34659618
32	0xbcabadbf	-0.020956872
33	0x3dd39097	0.10330313
34	0xbb0a01c7	-0.0021058188
35	0x3e9fb0e2	0.31189638
36	0x3e86bf3e	0.2631778
37	0x3e3d8e8a	0.18511406
38	0x3d0693c4	0.032855764
39	0x3b6780ba	0.003532453
40	0x3ea62f39	0.32457903
41	0x3e828114	0.25489104
42	0x3bef1311	0.007295974
43	0x3ed1a94a	0.4094947
44	0xbe02223f	-0.12708376
45	0x3e5a75cd	0.21334
46	0x3e52e576	0.20595345
47	0x3d2198e6	0.039452456
48	0xbea93d62	-0.33054644
49	0x3e05055f	0.1299033
50	0x3a05943c	0.0005095636
51	0xbebd087f	-0.36920545
52	0xbe51cfd2	-0.20489433
53	0xbedc8321	-0.43068793
54	0xbda7c994	-0.08192745
55	0x3dbac054	0.09118715
56	0xbe8d2840	-0.2756977
57	0xbea703f6	-0.3262021
58	0xbec0c690	-0.3765149
59	0x3ea2c517	0.31790993
60	0x3dfc3066	0.12313919
61	0xbe44130f	-0.19147895
62	0xbd9219f6	-0.07133858
63	0xbd9d3144	-0.07675412
64	0xbd975415	-0.07389084
65	0x3e3c819d	0.18408819
66	0xbd906e84	-0.07052329
67	0xbe07a34e	-0.1324589
68	0xbe1a205c	-0.15051407
69	0xbd8fc146	-0.07019286
70	0x3e797dfa	0.24364462
71	0x3a7e5a5b	0.0009702795
72	0xbe2ee2cd	-0.17078705
73	0xbcba1873	-0.022716736
74	0x3e0a53c0	0.1350851
75	0xbeaed02e	-0.34143203
76	0x3e432350	0.1905644
77	0x3d2f2026	0.04275527
78	0x3d51de1c	0.05123721
79	0xbe1bbeb7	-0.1520947
80	0x3e9418f1	0.2892528
81	0xbdbc0414	-0.09180465
82	0x3e8907fd	0.26763907
83	0xbe9ea766	-0.3098709
84	0xbd3a9f16	-0.045561872
85	0x3e961eac	0.29320276
86	0xbe2f45f2	-0.17116526
87	0xbe3afc98	-0.1826042
88	0x3eb9aef6	0.36266297
89	0x3ddd9a52	0.1082045
90	0xbd9bad08	-0.076013625
91	0xbe768ae4	-0.2407642
92	0x3ea54832	0.32281643
93	0x3ebf03b2	0.37307507
94	0xbd6e18dd	-0.05812918
95	0x3e494525	0.19655283
96	0xbeba8f14	-0.36437285
97	0x3ea2c098	0.31787562
98	0x3e123238	0.1427697
99	0xbcf2690b	-0.029591104
100	0x3def33fd	0.11679838
101	0x3eaf4983	0.34235772
102	0x3e63d159	0.22247829
103	0xbd97bd34	-0.074091345
104	0x3def0eda	0.116727546
105	0xbe1b8c27	-0.15190183
106	0xbe28df63	-0.16491465
107	0x3e92d416	0.28677434
108	0x3e83df75	0.25756422
109	0xbe937bc0	-0.2880535
110	0xbe15df2d	-0.14635916
111	0x3e943a1c	0.28950584
112	0x3e8fc78a	0.28081924
113	0x3e4965a8	0.19667685
114	0x3eb08e59	0.34483603
115	0xbeadaed2	-0.3392244
116	0xbc395def	-0.011313899
117	0xbd53368f	-0.051565703
118	0x3e8c8557	0.2744548
119	0xbdba44f3	-0.09095182
120	0x3dabb992	0.08385004
121	0xbc6ec6a6	-0.014573729
122	0xbe3b9946	-0.18320188
123	0x3db2a3ba	0.087226346
124	0xbe464e82	-0.19365886
125	0xbe4294a0	-0.19002008
126	0x3e92223c	0.28541744
127	0xbe94a419	-0.29031447

fc2.weight f4 [128, 128]
0	0x3e5ac624	0.21364647
1	0xbc9bae52	-0.01900402
2	0xbb0aad88	-0.0021160562
3	0x3b40d989	0.0029426536
4	0xbc805cfd	-0.01566934
5	0xbd4ffd1e	-0.0507785
6	0xbd947f00	-0.07250786
7	0xbcaabb7c	-0.020841353
8	0xbad6acd2	-0.0016378409
9	0x3d3e1b20	0.046412587
10	0xbd17dfd9	-0.037078712
11	0x3e6a3006	0.22869882
12	0xbcf6e6f4	-0.030139424
13	0x3e0eb061	0.1393447
14	0x3d17ae58	0.0370315
15	0x3daddcb4	0.084893614
16	0x3cace6db	0.021106174
17	0x3e0b9461	0.13630821
18	0x3ced6d87	0.02898289
19	0xbcd3e815	-0.025867501
20	0x3d03e506	0.032200836
21	0x3c6bedbf	0.014399945
22	0x3d14b98b	0.03630976
23	0xbdfd46eb	-0.12367042
24	0xbe2305bd	-0.15920158
25	0xbe092e47	-0.1339656
26	0x3d80b67b	0.062848054
27	0x3db7b0c8	0.08969265
28	0x3dfd7c11	0.123771794
29	0xbe0c56b4	-0.1370495
30	0x3d5338eb	0.051567953
31	0xbbe0b761	-0.006857798
32	0xbdcbebcb	-0.09957083
33	0xbd63a04d	-0.055572797
34	0xbd928af9	-0.07155413
35	0xbd6fdc3d	-0.058559645
36	0x3d8c5f41	0.06854106
37	0x3c9118d1	0.017712029
38	0x3e43b1b1	0.19110753
39	0xbc86eb2d	-0.016469562
40	0x3e13f1ea	0.14447752
41	0x3ccba599	0.024859237
42	0x3d919748	0.07108933
43	0x3e491de3	0.19640307
44	0x3c97b4c0	0.018518806
45	0x3c01e484	0.0079280175
46	0xbcf4e9df	-0.029896675
47	0xbcf2e57c	-0.029650442
48	0x3bbadf22	0.005702869
49	0xbd83c680	-0.06434345
50	0xbdd68c0c	-0.104759306
51	0xbd1c9dc5	-0.0382364
52	0x3da5b8ce	0.08091889
53	0xbd2bfff4	-0.041992143
54	0x3d8f0385	0.06983093
55	0xbcabd21c	-0.020974211
56	0x3ac6df55	0.0015172759
57	0xbd3c4ebd	-0.04597353
58	0x3d38fb13	0.045161318
59	0x3b733805	0.0037112248
60	0x3e2240e3	0.15845065
61	0xbe8119a2	-0.2521487
62	0x3c432339	0.011910253
63	0x3dd7b772	0.10533036
64	0xbe5aa8a9	-0.21353401
65	0xbc2eb3f6	-0.010663023
66	0x3cc524cc	0.024065398
67	0x3e213c77	0.15745722
68	0xbdb0a996	-0.08626096
69	0x3e078602	0.13234714
70	0xbbf87a07	-0.007582906
71	0xbdcd8e1c	-0.10036871
72	0x3c8a6374	0.016893126
73	0x3d069b4f	0.032862958
74	0xbdf7fe21	-0.12109018
75	0x3e5effa4	0.21777207
76	0xbaed778f	-0.0018117296
77	0x3e38df13	0.18053846
78	0x3e0401ad	0.12891264
79	0xbd450c83	-0.048107635
80	0x3b655e1e	0.0034998725
81	0xbe7e034b	-0.24805944
82	0xbbe37b44	-0.0069421846
83	0x3d0eba27	0.034845497
84	0x3e590532	0.21193388
85	0xbcb599ca	-0.022168059
86	0x3d077ee1	0.033079986
87	0x3debf3f4	0.1152114
88	0x3e1ffb30	0.15623164
89	0x3e65e5a1	0.22450878
90	0x3d2a8086	0.041626476
91	0x3c2a5f5d	0.010398713
92	0x3d64632f	0.05575865
93	0xbcdd75cb	-0.027033707
94	0xbd49aaba	-0.049235083
95	0x3c5d2dfe	0.013499735
96	0x3d466277	0.048433747
97	0xbd3e874e	-0.046515755
98	0xbc7c3439	-0.01539331
99	0x3c2f8088	0.010711797
100	0xbddd58e9	-0.10807974
101	0xbd6c474e	-0.05768519
102	0x3e6e5317	0.23273884
103	0xbd9a9367	-0.07547646
104	0xbdc5c85e	-0.09657358
105	0xbd56c0f1	-0.052430097
106	0x3e3326b1	0.17495228
107	0xbd080f53	-0.03321774
108	0x3e49bfe1	0.19702102
109	0x3e05220b	0.13001268
110	0x3e0c45f2	0.13698557
111	0xbc127717	-0.008939526
112	0xbdb6d88b	-0.08928021
113	0x3cfa70f1	0.030571433
114	0x3e682b72	0.22672823
115	0xbe192d4e	-0.14958689
116	0xbce2fed1	-0.027709397
117	0x3d8ab02e	0.06771885
118	0x3d8b1f2d	0.06793056
119	0xbd309039	-0.04310629
120	0xbdc744dc	-0.09729931
121	0x3da5c608	0.08094412
122	0x3e362010	0.17785668
123	0x3d490e91	0.049086157
124	0xbe5060e1	-0.20349456
125	0xbdad2576	-0.08454411
126	0x3e0f599d	0.13999029
127	0x3d4e6c0b	0.050396007
128	0xbe011e92	-0.12609318
129	0x3d79d274	0.06099172
130	0x3d3444d1	0.04401094
131	0x3d491d95	0.049100477
132	0xbe0790ce	-0.13238832
133	0xbdac0431	-0.08399237
134	0xbdb4a363	-0.08820226
135	0xbd39cb00	-0.04535961
136	0xbd02bb16	-0.0319167
137	0x3db4f49f	0.0883572
138	0x3da44017	0.08020037
139	0xbd8216ee	-0.0635203
140	0xbdb0a8e1	-0.08625961
141	0x3c17ad3f	0.009257614
142	0xbe12e3a8	-0.14344656
143	0x3dc083a9	0.09400112
144	0x3d98f5b9	0.07468743
145	0xbd58f2a7	-0.052965786
146	0x3c04264d	0.008065772
147	0x3d84948e	0.06473647
148	0x3d69c8a4	0.05707611
149	0xbc91a65c	-0.017779522
150	0xbe3d73cc	-0.18501204
151	0x3c189778	0.009313457
152	0xbbe7b907	-0.0070716175
153	0xbe6cbbec	-0.23118562
154	0x3cea2127	0.028580261
155	0x3d5af782	0.053458698
156	0xbd8ea3f4	-0.06964865
157	0x3e39f6ea	0.18160596
158	0xbc892a9d	-0.016743952
159	0xbccd2302	-0.025041107
160	0xbdd0fbf0	-0.10204303
161	0xbc6c2e33	-0.014415312
162	0xbe3bd72e	-0.18343803
163	0x3df56d3d	0.11983726
164	0x3bd9013b	0.006622461
165	0x3e72fb0c	0.2372858
166	0xbe4948fc	-0.19656748
167	0xbcc8bb2e	-0.024503317
168	0x3e5353a4	0.20637375
169	0x3dfbeef0	0.12301433
170	0x3d271a38	0.04079649
171	0xbde980e7	-0.11401539
172	0x3db39d4d	0.08770237
173	0x3db1c472	0.08680047
174	0xbc661793	-0.0140437065
175	0xbe1c26e8	-0.15249217
176	0xbd494419	-0.04913721
177	0xbda71e4a	-0.08160074
178	0xbe893167	-0.26795503
179	0x3da91b66	0.08257179
180	0x3da8e931	0.08247603
181	0x3c4a85fa	0.012361044
182	0x3cdc4afc	0.026891224
183	0x3e3df653	0.18550996
184	0xbd84c9b0	-0.06483781
185	0x3db3c3f2	0.08777608
186	0x3daa9608	0.083293974
187	0x3dcac535	0.099008955
188	0xbc0b1bb8	-0.008490495
189	0x3e87be88	0.2651255
190	0x3e04253e	0.12904832
191	0x3dba203c	0.090881795
192	0x3e4ea3c4	0.20179659
193	0x3cea169c	0.028575234
194	0xbda5bcb3	-0.08092632
195	0x3d781cbb	0.060574275
196	0x3d482476	0.048862897
197	0x3e1be580	0.15224266
198	0x3e03dbc9	0.1287681
199	0xbe4cb1cc	-0.19989699
200	0x3dafe298	0.08588141
201	0x3ef24629	0.47319153
202	0x3d2ad678	0.04170844
203	0xbdf93405	-0.12168125
204	0x3d8f675a	0.070021346
205	0xbd8f424c	-0.06995067
206	0xbde72e4c	-0.11288127
207	0xbbc5947f	-0.006029665
208	0xbd98da54	-0.07463518
209	0x3e8e4bcc	0.27792203
210	0xbd17c6d1	-0.03705484
211	0xbb023cbf	-0.0019872633
212	0xbe79201f	-0.2432866
213	0x3d62006c	0.055176184
214	0xbd5ad727	-0.05342784
215	0xbe06a96b	-0.13150565
216	0xbd16d5a0	-0.036824822
217	0xbcfbc8ad	-0.030735338
218	0x3ce3f522	0.02782685
219	0xbd9432d3	-0.072362565
220	0x3dfeeb04	0.124471694
221	0xbbd8fe1f	-0.0066220905
222	0xbd968afe	-0.073507294
223	0x3d2248fe	0.039620392
224	0xbbdab813	-0.0066747754
225	0x3d8d5d9a	0.06902619
226	0x3da58636	0.08082239
227	0xbd9d0d4d	-0.076685525
228	0xbda5ab83	-0.08089354
229	0xbc392d11	-0.011302249
230	0xbca1ba85	-0.01974226
231	0x3e429a8b	0.19004266
232	0x3e29a7c2	0.16567901
233	0xbcc5ec40	-0.024160504
234	0x3d503688	0.050833255
235	0x3da38578	0.079844415
236	0x3da74751	0.081678994
237	0xbea49f9c	-0.32153022
238	0x3d408e06	0.047010444
239	0xbe2db91f	-0.1696515
240	0x3d0a5791	0.033774916
241	0xbdb45b4e	-0.088064775
242	0x3cb5dab0	0.022199005
243	0xbd82526f	-0.06363379
244	0xbc1826a1	-0.009286554
245	0xbd31c62a	-0.043401875
246	0x3d959ca5	0.07305268
247	0x3d836674	0.06416026
248	0xbd15bcf7	-0.036557164
249	0x3d3f117b	0.04664753
250	0xbde05664	-0.10953978
251	0xbd3e60f0	-0.046479166
252	0xbdf5e62b	-0.12006792
253	0x3d49addf	0.049238082
254	0x3d2880e3	0.04113854
255	0xbd65afbd	-0.0560758

fc2.bias f4 [128]
0	0x3dbafc39	0.09130139
1	0xbd1674f4	-0.03673263
2	0xbda3e9f5	-0.08003608
3	0x3af1b0bd	0.0018439513
4	0x3cd4a2ec	0.025956593
5	0x3c036392	0.008019345
6	0xbcb77788	-0.022395864
7	0xbd83a161	-0.06427265
8	0xbc9ac052	-0.018890534
9	0x3cc8385f	0.024440942
10	0xbd97491d	-0.07386992
11	0xb8ae72ab	-8.318325e-05
12	0x3d915f25	0.070982255
13	0x3c46f448	0.012143202
14	0xbd30c528	-0.043156773
15	0x3c1cc5fd	0.009568688
16	0x3d369063	0.04457129
17	0x3d7ed0d1	0.06221086
18	0x3bf4f8ae	0.007475934
19	0x3d87e899	0.06636161
20	0x3d7b734b	0.06138925
21	0x3db0a4d6	0.0862519
22	0x3da88d12	0.08230032
23	0x3c160d35	0.009158422
24	0x3cb42949	0.021992343
25	0x3dca8d73	0.098902605
26	0x3d185d66	0.037198447
27	0xbb8a0b7e	-0.0042127958
28	0x3d80c9fc	0.062885255
29	0xbd9dca45	-0.077045955
30	0x3ce68711	0.028140577
31	0xbdb0564f	-0.08610212
32	0x3cf99751	0.030467661
33	0xbac84919	-0.0015280574
34	0xbd5ad834	-0.053428844
35	0x3b14eaef	0.002272304
36	0x3c5f739d	0.013638404
37	0x3d3f20b3	0.046662044
38	0x3d2a0e8c	0.04151778
39	0x3daddd80	0.084895134
40	0x3d6ea41e	0.058261983
41	0xbda7cb11	-0.08193029
42	0x3cc29568	0.023752883
43	0xbd3b157e	-0.045674793
44	0xbab3a175	-0.0013704734
45	0x3d18de98	0.037321657
46	0x3dac2e42	0.084072605
47	0x3d79020e	0.060792975
48	0x3cc545a6	0.024081063
49	0x3cc8fc97	0.024534507
50	0x3d0960c2	0.03353954
51	0xbc4ae98e	-0.012384785
52	0xbc9384e6	-0.018007707
53	0x3bbf52b5	0.005838717
54	0xbd4d9d0c	-0.0501986
55	0xbc8860d6	-0.016647737
56	0x3d15d9c5	0.036584634
57	0x3d357b12	0.044306822
58	0xbd3eeff0	-0.04661554
59	0x3d8dd965	0.0692623
60	0xbb1feda8	-0.0024403129
61	0xbd8e05ac	-0.069346756
62	0xbd91cc24	-0.07119015
63	0x3d545275	0.05183645
64	0xbd960882	-0.073258415
65	0x3d1de316	0.038546644
66	0x3c7aaadc	0.015299525
67	0xbd0923af	-0.033481296
68	0x3d7d6f55	0.061873753
69	0xbccdbfba	-0.025115836
70	0xbd95eb8d	-0.07320318
71	0x3c27d500	0.010243654
72	0xbd9b7303	-0.07590296
73	0xbd6a6412	-0.05722434
74	0x3d677f9b	0.05651818
75	0x3d12ebdc	0.035869464
76	0xbd6e07bf	-0.058112856
77	0x3d3e11d9	0.04640374
78	0x3da1038f	0.07862007
79	0x3d21898e	0.039437823
80	0x3d462fd1	0.048385445
81	0xbd484431	-0.048893157
82	0xbd705df8	-0.058683366
83	0x3d6691ce	0.056291394
84	0xbcc75d23	-0.024336403
85	0xbcf79c7a	-0.030225981
86	0x3cbce6be	0.023059245
87	0xbd4a50c1	-0.04939342
88	0xbca2b624	-0.019862242
89	0x3be0e843	0.0068636253
90	0x3cf5e001	0.03001404
91	0x3d95f97d	0.07322977
92	0xbd822526	-0.06354742
93	0xbd8df394	-0.069312245
94	0x3d64ef3f	0.055892225
95	0x3dccaadc	0.09993526
96	0xbd7b06fa	-0.06128595
97	0xbacab772	-0.0015466048
98	0x3e09a80a	0.13443008
99	0xbd4916df	-0.049094077
100	0x3d61fc81	0.055172447
101	0x3dced782	0.100996986
102	0xbc58aaae	-0.013224287
103	0xbd95c61e	-0.073131785
104	0x3bf08c2e	0.0073409295
105	0x3d0f6a89	0.03501371
106	0xbdafde51	-0.08587325
107	0x3d812c06	0.06307225
108	0xbcad468f	-0.021151809
109	0xbd3b379e	-0.045707338
110	0x3d517139	0.05113337
111	0xbd687b84	-0.05675842
112	0x3d4f80fc	0.05066012
113	0x3d35a6cc	0.044348523
114	0xbd068f69	-0.03285161
115	0xbc86b357	-0.016442938
116	0x3d92e770	0.071730494
117	0x3ce4ce5c	0.027930431
118	0x3d3f1a43	0.046655905
119	0xbd505c80	-0.050869465
120	0xba0096bd	-0.0004905274
121	0x3d1d0306	0.03833296
122	0xbd0a921f	-0.03383076
123	0x3da95c54	0.08269563
124	0xbd211e74	-0.039335683
125	0xbd44a94f	-0.048013028
126	0x3b2625d3	0.0025352135
127	0x3d470fca	0.048599042

fc3.weight f4 [128, 128]
0	0x3d0ceaad	0.03440349
1	0x3d5453be	0.051837675
2	0x3c06092d	0.008180899
3	0x3b15d700	0.0022863746
4	0xbd90414e	-0.07043706
5	0xbc19502a	-0.0093574915
6	0xbc2e18c1	-0.010626019
7	0x3c48ebeb	0.0122632785
8	0x3df510cf	0.119660966
9	0xbc2e7c3d	-0.010649738
10	0xbcb7395e	-0.022366222
11	0x3d9458e6	0.072435185
12	0xbd7db9ea	-0.06194488
13	0x3d11b1a1	0.03556979
14	0xbd497653	-0.04918511
15	0x3d64a621	0.055822495
16	0x3dbd6bd3	0.092490815
17	0xbdd87729	-0.10569603
18	0xbd940fcc	-0.072295755
19	0xbcc2405e	-0.023712333
20	0xbd2689e1	-0.040658835
21	0xbd881c21	-0.0664599
22	0xbbba923f	-0.0056937034
23	0xbd21924d	-0.039446164
24	0xbe0b5a22	-0.13608602
25	0x3cc76412	0.02433971
26	0x3d0b9434	0.034076884
27	0x3e0a104a	0.13482776
28	0x3abb638a	0.0014296633
29	0x3d5f9b7c	0.05459164
30	0x3da4c9e2	0.080463186
31	0x3dc2ace8	0.095056355
32	0x3dcdb64e	0.100445375
33	0x3d46b7fa	0.048515297
34	0xbbb853e3	-0.0056252345
35	0xbce49780	-0.027904272
36	0xbd878f23	-0.06619098
37	0x3e0ae4ce	0.13563845
38	0x3bb2054e	0.0054327613
39	0x3d96988d	0.073533155
40	0x3ca880ee	0.020569291
41	0xbd54aea3	-0.05192436
42	0x3e120842	0.14260963
43	0xbcc86810	-0.024463683
44	0x3d840f71	0.06448258
45	0xbdbb72e5	-0.09152774
46	0xbccf53e6	-0.02530856
47	0x3e078519	0.13234366
48	0x3c8df156	0.017326992
49	0xbdf78d1e	-0.12087463
50	0x3cecd354	0.028909363
51	0xbd68cf02	-0.056838043
52	0x3c7f7fc4	0.015594427
53	0xbd3fdf83	-0.046844017
54	0xbc4268d9	-0.011865818
55	0xbc55e35c	-0.013054695
56	0xbcbe8fac	-0.023261867
57	0x3bbaceb1	0.005700909
58	0x3cd452db	0.025918415
59	0xbdcce652	-0.100048676
60	0x3ce5ba21	0.028042855
61	0xbc4b07b2	-0.012391971
62	0x3d9119c4	0.070849925
63	0xbcae760f	-0.02129653
64	0x3d4bafa8	0.049728066
65	0xbd0a0635	-0.033697326
66	0x3cf825eb	0.030291518
67	0x3db133bc	0.08652446
68	0xbd0f6bfa	-0.035015084
69	0xbd8ec61a	-0.069713786
70	0xbc7e1c47	-0.0155096715
71	0xbda9162a	-0.082561806
72	0xbd19fd91	-0.037595335
73	0xbdba0c3a	-0.09084363
74	0xbe66c479	-0.22535886
75	0x3d89c2ec	0.067266315
76	0x3cad33b4	0.021142818
77	0x3d3d4889	0.046211753
78	0x3c34ef9a	0.011043454
79	0xbd54ffed	-0.052001882
80	0x3d83266f	0.06403815
81	0xbda3fc9c	-0.08007166
82	0xbcb37c82	-0.021909956
83	0xbcdb5e17	-0.026778264
84	0x3c592e4d	0.013255668
85	0x3d922ea6	0.07137804
86	0x3dfe1cf9	0.1240787
87	0x3db27cd3	0.087152146
88	0x3c789bf8	0.015173905
89	0x3d1c279d	0.038123716
90	0x3e0e8463	0.13917689
91	0x3da74416	0.08167283
92	0xbd1f308a	-0.03886465
93	0x3d55874e	0.05213099
94	0xbc251b9c	-0.010077383
95	0x3d9deb39	0.07710881
96	0xbcd1b604	-0.025599487
97	0x3d88b98f	0.066760175
98	0x3c596bee	0.013270361
99	0x3d5bda7d	0.053675164
100	0x3d196423	0.037449013
101	0x3d4f9f46	0.050689004
102	0xbd274a30	-0.040842235
103	0xbd2ec69f	-0.04266989
104	0xbd2810d1	-0.041031662
105	0xbcde65c2	-0.027148131
106	0x3d91565b	0.07096549
107	0x3d5690ce	0.05238419
108	0x3d731add	0.05935179
109	0x3d2d0a4c	0.042246148
110	0x3e17a15c	0.14807647
111	0x3dfa0427	0.12207823
112	0x3b9e8338	0.00483742
113	0x3ca6c8af	0.020359365
114	0xbc21a07f	-0.009864925
115	0xbbfea243	-0.007770808
116	0xbd1d5fad	-0.03842132
117	0xbc44bf15	-0.012008448
118	0x3d97b7c6	0.07408099
119	0x3ced1c60	0.028944194
120	0x3dcf7aa9	0.101308174
121	0x3da96626	0.082714364
122	0x3e0b3a5b	0.1359648
123	0xbd15ee24	-0.03660406
124	0xbd0fa52a	-0.035069622
125	0x3d13f1ba	0.0361192
126	0x3d4ecaf0	0.050486505
127	0x3db21119	0.08694667
128	0x3da05369	0.07828409
129	0x3e0e21a8	0.13880026
130	0xbc2c8ad3	-0.010531145
131	0x3da307f1	0.07960499
132	0x3d7ea7ad	0.062171627
133	0x3e01ad8b	0.12663858
134	0xbe0aa451	-0.13539244
135	0x3d8b9c07	0.06816869
136	0xbccead97	-0.025229258
137	0xbdf6ba42	-0.120472446
138	0x3d3db864	0.046318427
139	0xbd85a524	-0.06525639
140	0x3d719d2c	0.05898778
141	0xbb166ecd	-0.0022954226
142	0x3cba8965	0.022770593
143	0x3ceb7573	0.028742528
144	0xbd04a374	-0.032382444
145	0x3de8a585	0.11359695
146	0xbd4ab721	-0.04949105
147	0xbd72697a	-0.05918262
148	0xbd74d973	-0.05977769
149	0x3d4c76c0	0.049917936
150	0xbe5090cb	-0.20367734
151	0x3d88e9e9	0.0668524
152	0x3e133841	0.14376928
153	0xbdaf1ade	-0.085500464
154	0x3c0e4fbd	0.008686003
155	0xbdd04a41	-0.10170413
156	0xbd074c85	-0.03303196
157	0x3ce44929	0.027866917
158	0x3ced4dc0	0.028967738
159	0xbd8b84fc	-0.06812474
160	0xbbbe8cac	-0.0058151092
161	0xbba74cb0	-0.0051055774
162	0xbd85d449	-0.06534631
163	0x3db2287b	0.08699127
164	0xbd08df3d	-0.03341602
165	0xbddf5684	-0.109051734
166	0x3daa7640	0.08323336
167	0x3d3cbdc4	0.046079412
168	0x3c28b352	0.01029666
169	0x3cbb200e	0.022842433
170	0x3c9989c0	0.018742442
171	0x3d446ff4	0.04795833
172	0xbde5f707	-0.11228757
173	0xbd5987ba	-0.053107955
174	0x3c886b2a	0.016652662
175	0x3d255b3a	0.040370204
176	0xbdff36af	-0.12461602
177	0x3d72d825	0.059288163
178	0xbe17438c	-0.14771861
179	0x3d8d4c0d	0.06899271
180	0xbd36aaee	-0.044596605
181	0xbd05fe0b	-0.032712977
182	0xbd6641a8	-0.05621496
183	0x3d3b8208	0.045778304
184	0x3d4f2e24	0.050581113
185	0x3b4b8bef	0.0031058749
186	0xbcd17284	-0.0255673
187	0x3dadaba0	0.084800005
188	0x3b43ce1c	0.002987749
189	0x3d28278b	0.041053336
190	0xbcd9ee80	-0.026602983
191	0x3b1cb448	0.0023911167
192	0xbd093349	-0.033496175
193	0xbde47a07	-0.11156087
194	0xbd205ca6	-0.039150856
195	0xbcb95b66	-0.02262659
196	0xbd83cb9d	-0.064353205
197	0x3d99f5d8	0.07517594
198	0x3c9899f3	0.018628096
199	0xbd07da1e	-0.033166997
200	0xbdb4e798	-0.088332355
201	0xbc01ec33	-0.007929849
202	0xba959353	-0.0011411704
203	0xbc715fa1	-0.014732272
204	0xbdac5e0d	-0.08416376
205	0x3c2393d1	0.009983973
206	0x3ca851bc	0.020546786
207	0x3dc86e7e	0.097867
208	0xbdb80f8f	-0.089873426
209	0x3d88491d	0.0665457
210	0xbdc9d4c5	-0.09855036
211	0x3cf58828	0.02997215
212	0x3b31ae5b	0.002711198
213	0xbda36e9e	-0.07980083
214	0x3d83aafc	0.06429097
215	0xbcd3b01c	-0.025840811
216	0xbcd14abd	-0.025548333
217	0x3cc5e9b2	0.024159286
218	0x3cf7f35a	0.030267406
219	0xbd0a239d	-0.03372537
220	0x3d046957	0.032327022
221	0xbd027ba5	-0.031856198
222	0x3d3f9ab7	0.046778407
223	0xbdc31a68	-0.09526521
224	0x3e863f65	0.2622024
225	0xbd95d717	-0.07316416
226	0xbd0f44df	-0.03497779
227	0x3dc88a1a	0.09791966
228	0xbd542be3	-0.051799666
229	0x3d2a360e	0.041555457
230	0x3da518ac	0.080613464
231	0xbc2739bf	-0.010206639
232	0xbc4796e5	-0.012181972
233	0xbdf1eb91	-0.11812509
234	0x3d67449f	0.056461927
235	0x3d81038c	0.06299505
236	0xbdadbd23	-0.084833406
237	0xbcb04653	-0.021517908
238	0x3d3e3a48	0.0464423
239	0xbd9ea19a	-0.07745667
240	0x3e667038	0.22503746
241	0xbb82bc28	-0.003989715
242	0xbd8b922f	-0.06814992
243	0x3de445f0	0.11146152
244	0x3e04e6ea	0.12978712
245	0x3d82319f	0.06357121
246	0x3d5b4e9d	0.05354177
247	0x3bb3a7b7	0.0054826397
248	0xbe04de67	-0.12975465
249	0x3d44d9d0	0.048059285
250	0x3c682723	0.014169487
251	0xbd85df7d	-0.06536768
252	0xbd8ebe7e	-0.06969927
253	0x3d7e2a65	0.06205215
254	0xbd71dc17	-0.059047785
255	0xbbec1b03	-0.0072053685

fc3.bias f4 [128]
0	0x3e061a85	0.13096054
1	0x3d8d35e1	0.06895042
2	0xbdc8716a	-0.09787257
3	0x3d38fde2	0.045163997
4	0x3dda7c21	0.10668207
5	0x3dad5f78	0.08465475
6	0xbc85e2cb	-0.016343495
7	0x3dd97e03	0.10619738
8	0x3e04527b	0.12922089
9	0x3cb901e5	0.022583911
10	0x3ba9034e	0.0051578647
11	0x3d914ae0	0.070943594
12	0xbce157d0	-0.027507693
13	0xbd9d0c87	-0.07668405
14	0xbd89e858	-0.06733769
15	0x3ca5011a	0.020142127
16	0xbd191c23	-0.03738035
17	0x3de5a70e	0.11213504
18	0xbdfac924	-0.12245396
19	0x3d053571	0.03252167
20	0xbd25d223	-0.040483605
21	0xbd05c264	-0.03265609
22	0x3cfda72b	0.030963501
23	0xbb7c7844	-0.0038523832
24	0x3e0ef69a	0.13961259
25	0xbd5d20b2	-0.05398626
26	0x3c34f8f1	0.01104568
27	0xbd204835	-0.039131362
28	0xbd86ce7e	-0.06582354
29	0x3d11aa6d	0.03556292
30	0xbd21655f	-0.039403316
31	0x3b04b1f1	0.0020247663
32	0x3de8958e	0.1135665
33	0x3da4902f	0.08035313
34	0x3c2b21aa	0.010445038
35	0xbd5d6b81	-0.0540576
36	0x3c200e8c	0.009769093
37	0xbcda4b6b	-0.02664729
38	0xbdb5e394	-0.08881298
39	0x3cb33979	0.021877991
40	0x3dcc4b25	0.0997527
41	0x3e021911	0.12704875
42	0x3d07cca4	0.033154145
43	0xbda002e3	-0.078130506
44	0x3db39323	0.087682985
45	0x3d2556e7	0.04036608
46	0x3d933650	0.07188094
47	0x3d667874	0.056267217
48	0xbdb57132	-0.08859481
49	0x3db80986	0.089861915
50	0x3dddb653	0.10825791
51	0xbc344865	-0.011003588
52	0xbcf409b4	-0.029789783
53	0xbdaefabf	-0.0854392
54	0xbb710500	-0.0036776662
55	0x3e02b7a4	0.12765366
56	0xbc34164e	-0.010991646
57	0xbd5b9b7c	-0.05361508
58	0x3c4d43b6	0.012528351
59	0xbda68913	-0.081316136
60	0x3d1e1316	0.03859242
61	0x3da13779	0.07871909
62	0x3cba9c0d	0.022779489
63	0xbd08aa8a	-0.033365764
64	0x3cb288b2	0.021793697
65	0x3d9c079c	0.07618639
66	0x3d9d1bf5	0.07671348
67	0x3dd4aa11	0.10384
68	0x3d393a9e	0.045221917
69	0x3bba490a	0.0056849765
70	0x3db503a7	0.08838587
71	0xbb02c69d	-0.0019954809
72	0xbd814bd3	-0.063132904
73	0x3d402207	0.04690745
74	0xbda361f5	-0.07977668
75	0x3df03e05	0.11730579
76	0x3d2d4dfe	0.042310707
77	0x3ca360bc	0.019943587
78	0xbd8bf230	-0.06833303
79	0xbd48eb4e	-0.04905253
80	0x3de75af1	0.112966426
81	0x3cc8a708	0.02449371
82	0xbda43a1c	-0.08018896
83	0x3ddfa663	0.109204076
84	0xbd271901	-0.04079533
85	0xbcae1c26	-0.021253657
86	0x3ccb0bb1	0.024785848
87	0x3cbb69ad	0.022877539
88	0x3c3604d2	0.011109548
89	0xbdc20363	-0.09473302
90	0xbd542aa1	-0.051798467
91	0xbd4e18e9	-0.050316725
92	0xbd2b21fc	-0.041780457
93	0x3be5d669	0.007014085
94	0x3c3e58d9	0.011617863
95	0x3db8b52f	0.09018933
96	0x3b8f40c7	0.0043717357
97	0x3cf19337	0.029489143
98	0xbcf51ba9	-0.029920416
99	0x3dd9ebd3	0.10640683
100	0xbd998919	-0.074968524
101	0x3de06384	0.10956481
102	0x3dc1f1b9	0.09469933
103	0xbc47c227	-0.012192286
104	0xbd2b0a08	-0.041757613
105	0x3b4ce727	0.0031265707
106	0x3e169af0	0.14707541
107	0x3e146a48	0.14493668
108	0x3da535a8	0.08066875
109	0x3d611712	0.054953642
110	0xbc7aeb0c	-0.015314829
111	0x3d00f239	0.031481
112	0xbdae1254	-0.084995896
113	0x3bedc33b	0.0072559393
114	0xbcc5b6d8	-0.024135038
115	0xbc0319cf	-0.008001759
116	0xba2ee5f8	-0.0006671841
117	0xbd40d231	-0.047075454
118	0x3df4e0fc	0.11956975
119	0x3d7a914f	0.061173733
120	0xbdc6d0bf	-0.09707784
121	0x3d8948f0	0.06703365
122	0xbd2b7278	-0.041857213
123	0xbdb9f0dd	-0.09079144
124	0x3d6a348d	0.057179023
125	0x3d3b8ac4	0.045786634
126	0xbc46cb75	-0.012133469
127	0x3de810c1	0.113313206

fc4.weight f4 [2, 128]
0	0xbe0b9042	-0.13629249
1	0x3e13d7bd	0.14437766
2	0x3c091f65	0.008369301
3	0x3dc6ff94	0.097167164
4	0xbe01e1e6	-0.1268383
5	0xbde5a288	-0.11212641
6	0x3d53cd88	0.05170968
7	0xbd541705	-0.051779766
8	0xbe035bcb	-0.12827985
9	0xbdc12be5	-0.094322
10	0x3e3a2719	0.18178977
11	0xbe3ee06c	-0.18640298
12	0x3d289dfc	0.04116629
13	0x3d73e640	0.059545755
14	0xbd8dafa3	-0.06918266
15	0xbe113373	-0.14179783
16	0x3deb4e43	0.114895366
17	0xbdc1325c	-0.094334334
18	0xbd0995d4	-0.033590153
19	0xb996b9aa	-0.0002874856
20	0xbdccfed1	-0.1000954
21	0xbd99eb47	-0.07515579
22	0xbddf4ea1	-0.10903669
23	0x3dea4490	0.114388585
24	0xbe013e35	-0.12621386
25	0xbbf300a5	-0.0074158483
26	0xbe51a0fa	-0.20471564
27	0x3dfb0447	0.12256675
28	0xbdb5007b	-0.08837982
29	0xbe1719ec	-0.14755982
30	0x3dc3c7b7	0.09559577
31	0x3e1ac979	0.15115918
32	0xbdcfa7dc	-0.101394385
33	0xbcdbdb9c	-0.026838116
34	0xbdadfcaf	-0.08495461
35	0x3cafd99e	0.021466073
36	0x3dfa2d45	0.12215666
37	0x3dd1264e	0.10212384
38	0xbd47e9e2	-0.048807032
39	0xbe9a57f8	-0.3014524
40	0xbe0e0493	-0.13868932
41	0xbe5b9ddd	-0.21446939
42	0xbd513c46	-0.05108287
43	0x3b6e005a	0.0036316128
44	0x3dc23300	0.09482384
45	0xbdcae9ca	-0.09907873
46	0xbd8d3205	-0.06894306
47	0xbddabf08	-0.106809676
48	0xbcc5061e	-0.024050768
49	0x3d9db188	0.07699877
50	0xbd626950	-0.055276215
51	0xbbcf9795	-0.0063352087
52	0x3e0bbefa	0.1364707
53	0x3d81d909	0.06340224
54	0x3b01bc2b	0.0019795995
55	0xbdc317df	-0.095260374
56	0xbe562ecf	-0.20916294
57	0xbe0ac5b9	-0.13551988
58	0x3d128182	0.03576804
59	0xbd7aca4a	-0.061228074
60	0x3db920fb	0.09039494
61	0xbd0a3635	-0.033743102
62	0xbd8c3d06	-0.06847577
63	0xbb4ed181	-0.003155798
64	0x3e04348d	0.12910672
65	0xbdf848c9	-0.12123258
66	0xbe037e8f	-0.12841247
67	0xbddc69bb	-0.10762354
68	0xbe251f3d	-0.16125198
69	0x3e0df8d4	0.13864452
70	0xbe25920e	-0.16168997
71	0xbdf23cda	-0.11828013
72	0x3d8a1134	0.067415625
73	0x3dd10e35	0.10207788
74	0xbd9e1ddd	-0.0772054
75	0xbe1d6b52	-0.1537297
76	0xbdfd017c	-0.12353799
77	0xbe36617a	-0.17810622
78	0x3cd1e633	0.025622463
79	0xbdb17b34	-0.08666077
80	0xbe083d05	-0.13304527
81	0x3e010c8c	0.12602443
82	0x3c0818aa	0.008306662
83	0xbde115c0	-0.109904766
84	0xbdb37315	-0.087621845
85	0x3e1bbef0	0.15209556
86	0xbe260c75	-0.1621569
87	0xbd1a3a0b	-0.03765301
88	0x3dafcdbe	0.08584164
89	0x3d867588	0.06565386
90	0xbda7db77	-0.081961565
91	0x3d955a2f	0.07292592
92	0xbe1b0419	-0.15138282
93	0x3dd557a7	0.10417109
94	0x3c87a57c	0.016558401
95	0xbddaea95	-0.10689274
96	0xbd7a7847	-0.06114986
97	0xbe134ae4	-0.14384037
98	0x3d23e173	0.040009927
99	0xbdeaeec2	-0.11471321
100	0x3d82e081	0.06390477
101	0xbdf0697b	-0.11738869
102	0xbe01c9ed	-0.12674685
103	0xbe4b4189	-0.19849218
104	0x3e4d8749	0.20071138
105	0x3dd45ada	0.10368891
106	0xbe46dd88	-0.19420445
107	0xbe875570	-0.2643237
108	0xbe089460	-0.1333785
109	0xbd87925e	-0.06619714
110	0xbd27ba6f	-0.04094928
111	0xbe3aa845	-0.18228252
112	0x3dc9c364	0.09851721
113	0xbe219af8	-0.15781772
114	0xbcab37d6	-0.020900648
115	0xbd3a1ed3	-0.045439553
116	0x3e0d67ad	0.1380908
117	0xbd817fd3	-0.06323209
118	0xbdc1ce44	-0.0946317
119	0x3da84e0c	0.08218011
120	0xbddd9fd7	-0.10821503
121	0x3ad9d325	0.0016618712
122	0xbb5ba603	-0.0033515699
123	0x3d916aeb	0.07100471
124	0xbe107dd1	-0.14110495
125	0x3ddb43da	0.10706301
126	0xbe297850	-0.16549802
127	0xbe11f912	-0.14255169
128	0xbdf1fb2f	-0.118154876
129	0x3bb029cd	0.005376077
130	0x3bacea57	0.005276959
131	0x3c190bc0	0.00934118
132	0xbd87bb09	-0.06627471
133	0xbdc20b56	-0.094748184
134	0xbd85c173	-0.06531038
135	0xbdd33a51	-0.10313857
136	0xbe71f6f1	-0.23629357
137	0xbe7ed0f5	-0.24884398
138	0x3df3bace	0.119008645
139	0xbdfc76b8	-0.12327331
140	0x3d324057	0.04351839
141	0x3ce2f1c5	0.027703175
142	0x3ed527ec	0.4163202
143	0xbe2756dc	-0.16341728
144	0xbd276fe4	-0.04087819
145	0xbe241831	-0.16024853
146	0x3da03913	0.07823386
147	0xbde8c737	-0.11366122
148	0x3df85641	0.121258266
149	0xbd8b960d	-0.06815729
150	0xbde999f4	-0.11406317
151	0xbd204ec2	-0.03913761
152	0xbe235658	-0.15950906
153	0xbc929e72	-0.017897818
154	0xbe151f25	-0.14562662
155	0x3d39cb4d	0.0453599
156	0x3d901301	0.07034875
157	0x3d2e2b67	0.04252186
158	0xbd5d9845	-0.054100294
159	0x3dcf07c2	0.101089016
160	0xbe319e6c	-0.1734559
161	0xbdfe4e6a	-0.124173
162	0x3efc88ad	0.49323025
163	0x3b0f25a4	0.0021842504
164	0x3ee61348	0.44936585
165	0x3d30db09	0.04317764
166	0x3d1c917c	0.038224682
167	0xbe2cdded	-0.16881533
168	0xbda622eb	-0.08112129
169	0xbe38ecb9	-0.18059053
170	0x3d2a3207	0.041551616
171	0xbbd11b9e	-0.006381466
172	0xbdb93be2	-0.09044625
173	0xbdd18746	-0.102308795
174	0x3da60afc	0.08107564
175	0xbd784724	-0.06061472
176	0xbd137e9d	-0.03600942
177	0x3e6a3265	0.22870786
178	0xbe1be495	-0.15223916
179	0xbe05f476	-0.13081536
180	0x3dde7c44	0.108635455
181	0x3bf451fb	0.007456062
182	0xbd8b186e	-0.06791769
183	0xbe5f36b8	-0.21798217
184	0xbda5ba04	-0.0809212
185	0x3d9253d8	0.07144898
186	0xbdbb1ccb	-0.09136351
187	0x3d9782cd	0.07397995
188	0x3d033867	0.03203621
189	0xbe79c602	-0.2439194
190	0xbda4946f	-0.08036124
191	0x3c119b66	0.0088871475
192	0x3e2fb383	0.17158322
193	0xbdbe0ead	-0.09280143
194	0xbe286db4	-0.16448098
195	0xbd886c42	-0.066612735
196	0xbdbfc31b	-0.09363385
197	0x3e423967	0.1896721
198	0x3e792222	0.24329427
199	0x3c537e00	0.012908459
200	0x3cb4a3b3	0.022050714
201	0x3e352e0b	0.17693345
202	0xbda0248f	-0.07819473
203	0xbe0afc79	-0.13572873
204	0x3eac3d77	0.33640644
205	0xbdd2c2c0	-0.10291052
206	0x3d6aec4f	0.057354268
207	0xbe5b890c	-0.21438998
208	0xbdb52a0c	-0.088459104
209	0x3dc46d58	0.09591168
210	0x3d4ce679	0.050024483
211	0xbe42625b	-0.18982832
212	0x3e3e02cf	0.18555759
213	0x3d5b197c	0.0534911
214	0xbd4c5997	-0.049890127
215	0xbd0815eb	-0.033224028
216	0x3e1d44ee	0.15358326
217	0x3c31befd	0.010848758
218	0x3ccad249	0.024758475
219	0xbd264cf4	-0.040600732
220	0xbdf7f1ab	-0.121066414
221	0x3d5ee17b	0.054414254
222	0x3e83e140	0.2575779
223	0xbcee65fc	-0.029101364
224	0x3db9fbff	0.090812676
225	0xbe42e03d	-0.19030853
226	0xbcfe9c21	-0.031080307
227	0xbe2af8b8	-0.16696441
228	0xbcb6a7fd	-0.0222969
229	0xbd50f4b7	-0.05101463
230	0x3e986dea	0.29771358
231	0x3e7f07f8	0.24905384
232	0xbedda123	-0.43287
233	0x3e7673d6	0.24067625
234	0xbe187a6e	-0.14890453
235	0xbe02f045	-0.12786968
236	0x3f0de545	0.5542796
237	0xbe3adcd3	-0.182483
238	0xbd0ada9d	-0.033899892
239	0xbda10739	-0.07862706
240	0x3e371573	0.17879276
241	0x3e25f480	0.1620655
242	0xbd773e93	-0.06036241
243	0xba752ff9	-0.0009353157
244	0x3d2e2aa1	0.042521123
245	0x3d29a702	0.041419037
246	0xbdccb525	-0.09995488
247	0xbcc0a613	-0.02351669
248	0x3e6b6b88	0.22990239
249	0xbe6bae31	-0.23015667
250	0x3c9c3532	0.019068334
251	0x3d503574	0.050832227
252	0xbdb18f6d	-0.086699344
253	0x3e2c85b3	0.16847877
254	0xbd512570	-0.051061094
255	0xbda51af8	-0.080617845

fc4.bias f4 [2]
0	0xbdab78d9	-0.08372659
1	0x3d2ba63a	0.041906573

fc1.weight f4 [128, 7]
0	0x3e96dfcf	0.29467627
1	0xbeecb5a9	-0.46232346
2	0x3e2e85ea	0.17043272
3	0x3e6a7a72	0.22898272
4	0xbe734990	-0.2375853
5	0x3e3f31dd	0.18671365
6	0x3e721eed	0.2364461
7	0x3d8352c0	0.06412268
8	0x3e9953fc	0.29946887
9	0x3ceb4881	0.028721096
10	0x3e87c2cf	0.26515815
11	0x3d837cd8	0.064202964
12	0x3da9ce09	0.08291251
13	0x3e26c4a2	0.16285947
14	0xbeb68bf8	-0.35653663
15	0x3dddde8a	0.108334616
16	0xbe1f60f5	-0.1556433
17	0xbeb66914	-0.35627043
18	0xbe9536ee	-0.2914347
19	0xbd0e180e	-0.03469091
20	0x3ce83659	0.028346227
21	0xbe82f16b	-0.25574812
22	0x3e8794a0	0.2648058
23	0x3d535ec1	0.051604036
24	0x3d8b3224	0.06796673
25	0xbdab1944	-0.083544284
26	0x3d346440	0.04404092
27	0x3ed002f6	0.4062726
28	0xbcd60237	-0.026124103
29	0x3eb5c208	0.35499597
30	0xbefbf7d2	-0.4921251
31	0xbda5d640	-0.080975056
32	0xbeb602c3	-0.35548982
33	0x3e51570d	0.20443363
34	0x3ebd79b8	0.37006927
35	0x3ca2c542	0.01986945
36	0x3e0f7a48	0.1401149
37	0x3e79db5d	0.24400087
38	0xbe91ff86	-0.2851526
39	0x3d9e67f3	0.077346705
40	0xbead5313	-0.33852443
41	0xbdcb7d1e	-0.099359736
42	0x3e06786a	0.13131872
43	0xbe85595f	-0.26044747
44	0x3e02313d	0.12714095
45	0xbe6ba01e	-0.23010299
46	0xbe0c1bbb	-0.13682453
47	0xbebae7c3	-0.36504945
48	0xbe69789c	-0.22799915
49	0xbc13b22b	-0.0090146465
50	0x3dfbce6c	0.12295231
51	0xbea14f56	-0.3150584
52	0xbeb12a5e	-0.34602636
53	0x3e0a3cd1	0.13499762
54	0x3e444d37	0.1917008
55	0x3eb94d64	0.36191857
56	0xbe02074f	-0.126981
57	0x3e344448	0.17604172
58	0x3ec6812d	0.38770428
59	0x3e0d6fc1	0.13812162
60	0xbe9ce9d8	-0.3064716
61	0x3ed018ff	0.4064407
62	0x3e1727cc	0.14761275
63	0xbe30799a	-0.17233887
64	0xbe99050a	-0.29886657
65	0x3e913f48	0.28368592
66	0xbdb14a8f	-0.08656799
67	0xbe696360	-0.22791815
68	0xbe49bb33	-0.19700317
69	0x3dfa186b	0.122116886
70	0x3e1a5446	0.1507121
71	0x3ec63ff1	0.38720658
72	0xbb5011f9	-0.0031748994
73	0x3eb9f7b3	0.36321792
74	0x3ec30ada	0.38094217
75	0xbd87c466	-0.06629257
76	0xbeef24b6	-0.46707696
77	0x3e0ff896	0.14059672
78	0xbe5ca5f2	-0.21547678
79	0x3d07c7ef	0.033149656
80	0xbe45c850	-0.19314694
81	0xbf24808a	-0.64258635
82	0x3eea75f0	0.45793104
83	0xbe7c90b9	-0.24664582
84	0x3e21b89c	0.15793079
85	0xbebc95cf	-0.36833045
86	0x3eb5ecbc	0.35532176
87	0xbe36d317	-0.17853962
88	0x3eb53f11	0.35399678
89	0xbe8d1a26	-0.27559012
90	0xbd42c709	-0.047553096
91	0x3e9db458	0.30801654
92	0x3eaab434	0.3334061
93	0xbe57fc6d	-0.21092387
94	0xbe8d1b48	-0.27559876
95	0x3e996c61	0.299655
96	0x3e1b9005	0.15191658
97	0xbe6634f9	-0.22481145
98	0x3e55e7eb	0.20889251
99	0xbe8c8ddb	-0.27451977
100	0xbe2cb20a	-0.16864792
101	0xbe0ffaee	-0.14060566
102	0x3d45be93	0.04827745
103	0x3ec52086	0.38501376
104	0xbe0a884c	-0.13528556
105	0x3df30a08	0.11867148
106	0xbe4939ab	-0.19650905
107	0x3e760298	0.24024427
108	0x3e549d42	0.20763114
109	0xbe076f38	-0.1322602
110	0x3ec964b3	0.3933464
111	0xbe23563d	-0.15950866
112	0x3cda0877	0.026615364
113	0x3e4ce3ed	0.20008822
114	0xbdddabdc	-0.10823795
115	0xbede7dde	-0.43455404
116	0x3baf0369	0.0053409827
117	0xbe88f613	-0.2675024
118	0x3e637160	0.22211218
119	0x3ef94fb1	0.48693612
120	0x3e8071d7	0.25086853
121	0x3e920cb6	0.28525323
122	0xbe45f366	-0.1933113
123	0xbebacb20	-0.36483097
124	0x3de8f254	0.113743454
125	0xbe43dc45	-0.19126995
126	0x3dceb4cc	0.10093078
127	0xbda49c6e	-0.08037649
128	0xbf5e1e30	-0.8676481
129	0x3d262b35	0.04056855
130	0xbc9049fd	-0.017613405
131	0xbecae1ee	-0.39625496
132	0x3dc194be	0.094521984
133	0x3b921006	0.0044574765
134	0xbe8120fc	-0.25220478
135	0xbe0bede7	-0.13664971
136	0x3e00c070	0.12573409
137	0xbe98bb55	-0.29830423
138	0xbe3e752e	-0.18599388
139	0xbe2fd30b	-0.1717035
140	0xbe432daa	-0.19060388
141	0xbe3adc0c	-0.18248004
142	0x3e3ed3d0	0.18635488
143	0xbdd1e21e	-0.102482066
144	0xbe8c1616	-0.273606
145	0x3e76d5b0	0.24104953
146	0xbea711ac	-0.3263067
147	0xbe387ecb	-0.18017118
148	0xbdaab26f	-0.08334815
149	0xbe9d9cb3	-0.30783615
150	0xbce9f7bf	-0.028560517
151	0xbe8e0455	-0.2773768
152	0x3ddeb717	0.10874765
153	0xbe068c4e	-0.1313946
154	0x3e476df2	0.19475535
155	0x3eb201b7	0.34766933
156	0xbe87f605	-0.26554886
157	0xbe1c7488	-0.15278828
158	0xbe1550a7	-0.14581548
159	0xbdd8a41f	-0.105781786
160	0x3e926180	0.28590012
161	0xbefa691e	-0.48908323
162	0xbe4380ef	-0.19092153
163	0xbd239543	-0.03993727
164	0x3e41388f	0.18869232
165	0x3eafc5a0	0.34330463
166	0x3e95ef56	0.2928416
167	0xbed1dfa4	-0.40990937
168	0x3dff8dc5	0.12478212
169	0xbeb6e182	-0.35718924
170	0xbea35467	-0.3190033
171	0x3dca9535	0.0989174
172	0x3e06a8bc	0.13150305
173	0x3bf2fbc5	0.007415267
174	0x3d8d2071	0.06890953
175	0x3d37a23e	0.04483246
176	0x3cbc7ba7	0.02300818
177	0xbf695809	-0.91149956
178	0xbe632328	-0.2218138
179	0x3bdca38a	0.0067333626
180	0xbeb6e882	-0.35724264
181	0x3e1c8f99	0.15289153
182	0x3db58345	0.08862928
183	0x3dee0d7b	0.11623665
184	0xbe80ed4d	-0.25181046
185	0x3e1b71d4	0.1518014
186	0x3e8c84ec	0.2744516
187	0x3e8799cb	0.26484522
188	0xbe3f077d	-0.186552
189	0xbd13f2b0	-0.036120117
190	0xbe6fc460	-0.23414755
191	0x3ece1c98	0.4025619
192	0xbe8a0358	-0.26955676
193	0xbeb78fb7	-0.35851833
194	0x3c3a8e2c	0.0113864355
195	0xbe5defa1	-0.21673442
196	0x3e8bbe43	0.27293596
197	0x3e1fbde6	0.15599784
198	0xbe0c9b71	-0.13731171
199	0xbcb34429	-0.021883087
200	0xbe657bae	-0.22410461
201	0x3df21c77	0.118218355
202	0x3e0a782a	0.13522401
203	0xbe9f5f8b	-0.3112758
204	0xbe437f63	-0.19091563
205	0x3ea30e7f	0.31846997
206	0xbe1bf005	-0.15228279
207	0x3ee4cb0a	0.44686157
208	0xbe225010	-0.15850854
209	0xbe100421	-0.14064075
210	0xbeb8af73	-0.36071357
211	0x3eae49a3	0.34040555
212	0xbec11c5d	-0.37716952
213	0xbd18a106	-0.03726294
214	0x3d73719e	0.059434526
215	0x3dd507ff	0.10401916
216	0xbe547f63	-0.20751719
217	0xbdb1df57	-0.08685177
218	0xbe312654	-0.17299777
219	0xbd52d8df	-0.051476356
220	0xbe186c49	-0.14885058
221	0xbeba6177	-0.36402485
222	0x3e3a9665	0.18221433
223	0xbe522e0e	-0.20525381
224	0xbe43744a	-0.1908733
225	0x3e9006ec	0.2813028
226	0xbf2ef43a	-0.6834141
227	0x3e7315a9	0.23738731
228	0x3e96f39e	0.2948274
229	0x3e1a1276	0.15046105
230	0x3df21812	0.11820997
231	0x3e54165c	0.20711654
232	0xbd2f600c	-0.042816207
233	0xbee24c90	-0.44199038
234	0xbd943b05	-0.072378196
235	0x3ebfb7e3	0.37444982
236	0x3c47545a	0.012166107
237	0x3ebb991c	0.3664025
238	0xbd72425b	-0.059145313
239	0xbd5d571e	-0.05403816
240	0xbe283cb7	-0.16429411
241	0xbe0bd343	-0.13654809
242	0xbe999eaf	-0.30003878
243	0xbe090d99	-0.13384093
244	0x3ee36142	0.4441014
245	0x3e66afa0	0.22527933
246	0x3ee4791b	0.44623646
247	0xbce07834	-0.027401067
248	0x3e86a167	0.26295015
249	0x3e6fddaa	0.23424402
250	0x3e9e0a43	0.30867204
251	0x3ea40750	0.3203683
252	0xbe99ff62	-0.30077654
253	0x3ea4b3c0	0.32168388
254	0x3ec1df1f	0.3786554
255	0x3ea3f271	0.32020906

fc1.bias f4 [128]
0	0xbe8b6c88	-0.2723124
1	0x3d1c2554	0.038121536
2	0x3dd33fad	0.103148796
3	0xbd80826f	-0.06274878
4	0x3ea5a1fe	0.32350153
5	0xbeae0733	-0.33989868
6	0x3d207240	0.039171457
7	0x3e3e1d87	0.18565951
8	0xbcafe523	-0.021471566
9	0xbd7fe15b	-0.062470775
10	0x3e2658ed	0.1624486
11	0x3e02771e	0.12740752
12	0xbec4c350	-0.38430262
13	0xbd80eca8	-0.062951386
14	0xbe5bcaf9	-0.21464147
15	0xbe88ad42	-0.26694685
16	0xbe1f1f10	-0.15539193
17	0xbe8c4ca4	-0.27402222
18	0x3e70697e	0.23477742
19	0x3d88059b	0.06641694
20	0xbe5e602c	-0.21716374
21	0xbd9a3f27	-0.075315766
22	0x3e6edb06	0.23325738
23	0x3d31d488	0.043415576
24	0xbdc79816	-0.09745805
25	0x3e789de6	0.24278983
26	0x3ea2f98b	0.3183101
27	0x3eb117f2	0.3458858
28	0x3d6dc0b7	0.058045115
29	0x3e81895a	0.25300103
30	0xbe614ff7	-0.2200316
31	0xbeb1750e	-0.34659618
32	0xbcaa8b8b	-0.020818492
33	0x3dd2355c	0.10264084
34	0xbbd0a208	-0.006366972
35	0x3e9f8520	0.31156254
36	0x3e8712a5	0.26381412
37	0x3e3d002c	0.18457097
38	0x3d0771c0	0.033067465
39	0x3b764fed	0.003758426
40	0x3ea6c29b	0.32570347
41	0x3e8292a1	0.25502494
42	0x3c10452e	0.008805556
43	0x3ed28794	0.41119063
44	0xbe02223f	-0.12708376
45	0x3e5ada16	0.21372256
46	0x3e539d48	0.20665467
47	0x3d1870c6	0.037216924
48	0xbea93d62	-0.33054644
49	0x3e05055f	0.1299033
50	0xba80f929	-0.000983988
51	0xbebd087f	-0.36920545
52	0xbe51cfd2	-0.20489433
53	0xbedc4f56	-0.4302928
54	0xbda904f8	-0.08252901
55	0x3dbbb418	0.091652095
56	0xbe8d2840	-0.2756977
57	0xbea703f6	-0.3262021
58	0xbec0c690	-0.3765149
59	0x3ea34fd6	0.31896847
60	0x3dfe8292	0.12427248
61	0xbe44faa6	-0.1923624
62	0xbd916d2a	-0.071008995
63	0xbd9ada0e	-0.07561122
64	0xbd969dc9	-0.07354314
65	0x3e3bb482	0.18330577
66	0xbd906e84	-0.07052329
67	0xbe077253	-0.13227205
68	0xbe1a205c	-0.15051407
69	0xbd90c48b	-0.070687376
70	0x3e7a3040	0.24432468
71	0xba6efd2d	-0.00091167056
72	0xbe2ee2cd	-0.17078705
73	0xbcc3bd8e	-0.023894098
74	0x3e09a922	0.13443425
75	0xbeaeebca	-0.34164268
76	0x3e422ab8	0.18961608
77	0x3d3086a3	0.04309715
78	0x3d520669	0.051275644
79	0xbe1bbeb7	-0.1520947
80	0x3e9460b1	0.2898002
81	0xbdbb12ce	-0.09134446
82	0x3e8878f6	0.26654786
83	0xbe9ea766	-0.3098709
84	0xbd349865	-0.044090647
85	0x3e95ae95	0.29234758
86	0xbe2f45f2	-0.17116526
87	0xbe38d1fb	-0.18048851
88	0x3eb9ffc3	0.36327943
89	0x3de03968	0.109484494
90	0xbd994d66	-0.07485466
91	0xbe768ae4	-0.2407642
92	0x3ea5ac63	0.32358083
93	0x3ebefee9	0.37303856
94	0xbd6e18dd	-0.05812918
95	0x3e48b52d	0.19600363
96	0xbeba8f14	-0.36437285
97	0x3ea248b8	0.31696105
98	0x3e119fe1	0.14221145
99	0xbcee72f1	-0.029107543
100	0x3dec3b85	0.1153479
101	0x3eaee10e	0.34156078
102	0x3e65076b	0.22366111
103	0xbd97204a	-0.073792055
104	0x3df0d29b	0.1175892
105	0xbe1b8c27	-0.15190183
106	0xbe28e150	-0.164922
107	0x3e92677b	0.28594574
108	0x3e849844	0.2589742
109	0xbe933d7b	-0.28757843
110	0xbe15f6be	-0.14644906
111	0x3e943ca4	0.28952515
112	0x3e8f24e5	0.27957836
113	0x3e4a3d69	0.19749989
114	0x3eb174c0	0.34659386
115	0xbeadaed2	-0.3392244
116	0xbc395def	-0.011313899
117	0xbd53368f	-0.051565703
118	0x3e8d030d	0.2754139
119	0xbdbad574	-0.09122744
120	0x3daa91e3	0.08328607
121	0xbc6ec6a6	-0.014573729
122	0xbe3c39ba	-0.18381396
123	0x3dad4d6c	0.08462033
124	0xbe486436	-0.19569477
125	0xbe415d97	-0.18883358
126	0x3e924d67	0.28574678
127	0xbe94a419	-0.29031447
