flappybird_dqn_ep70.pth (torch, 561683 bytes, 32 tensors)

fc1.weight f4 [128, 7]
00000000: f6ee 993e ec95 b0be 2a4d 323e 3b6d 703e
00000010: 1c74 5abe 0225 2e3e 7b77 693e d3fd c73d
00000020: 1d2d 893e 941c 37bd 457d 983e 80e8 e23d
00000030: ea11 e83d aaef 2d3e f88b b6be 8ade dd3d
00000040: f560 1fbe 1469 b6be ee36 95be 0e18 0ebd
00000050: 5936 e83c e140 8ebe 4794 7c3e 6aa8 443d
00000060: 92b8 f93c 7dd1 03be 0895 b73c 10ca c43e
00000070: 8ddf 07bd 2739 ad3e 29c5 f1be 13e0 aebc
00000080: de05 aebe 926b 413e 31d9 b83e 42c5 a23c
00000090: 487a 0f3e 5ddb 793e 86ff 91be f367 9e3d
000000a0: 1353 adbe 1e7d cbbd 6a78 063e 5f59 85be
000000b0: 3d31 023e 1ea0 6bbe bb1b 0cbe c3e7 babe
000000c0: 9c78 69be 6f88 af3c 83ba de3d 529d aabe
000000d0: c75b 9ebe bb71 373e 9bf1 513e 1688 b73e
000000e0: 1625 12be f817 3c3e 84ef ce3e 75c4 173e
000000f0: 5bf4 8ebe 8736 ca3e 4d12 0f3e 9a79 30be
00000100: 0a05 99be 483f 913e 8f4a b1bd 6063 69be
00000110: 33bb 49be 6b18 fa3d 40fa 283e 7539 c33e
00000120: 5e66 92bd 2b18 ba3e 3949 c63e d10d 64bd
00000130: f060 d4be c6d9 bf3d 6667 0abd 71ff d43c
00000140: 4bd5 63be 13e9 35bf da99 d03e a570 90be
00000150: a0c2 213e cf95 bcbe bcf1 b53e 14c9 36be
00000160: 1144 b53e 2615 8dbe f59e 42bd 9b1b a63e
00000170: 4e5e a43e 9290 58be 17a4 88be 040c 973e
00000180: 5b76 333e 4103 20be 7df1 383e 7ba0 abbe
00000190: fb07 fdbd 5412 0dbe 50e3 2e3d 23b7 c53e
000001a0: b35d d8bd e372 c93d 8d3a 0ebe a412 913e
000001b0: 108c 503e ea57 bebd dabd bf3e 6e7f 44be
000001c0: 62be 503d f230 623e 1f81 b4bd e061 d1be
000001d0: c9e5 013d 92e7 77be d6ca 7e3e c715 ee3e
000001e0: db49 6f3e b54b 963e b9d0 5bbe 8291 b1be
000001f0: ca6f e03d 414c 5cbe 8759 e83d 33d5 e7bd
00000200: 3c74 11bf 7539 c93d 8879 f5bb a0a3 b9be
00000210: f871 e83d 0610 923b fc20 81be e7ed 0bbe
00000220: 70c0 003e 55bb 98be 2e75 3ebe 0bd3 2fbe
00000230: aa2d 43be 0cdc 3abe d0d3 3e3e 1ee2 d1bd
00000240: 1616 8cbe b0d5 763e ac11 a7be cb7e 38be
00000250: 6fb2 aabd b39c 9dbe bff7 e9bc 5504 8ebe
00000260: 17b7 de3d 4e8c 06be 3dcf 2e3e e750 b23e
00000270: f7e6 30be bc0a 13be d752 1abe 1005 ffbd
00000280: be8e 833e 026e d9be cd41 15be dfbd 2cbe
00000290: e433 193e 2a73 9f3e 9720 8e3e 91da d9be
000002a0: b328 f73d 7fb3 b9be 0179 8bbe f389 9a3d
000002b0: 03b2 e73d dac8 aaba 6187 623d 64e0 6a3d
000002c0: 8038 523d 9279 e0be 4877 75be 63ef 20bd
000002d0: ee48 c3be 40f4 1b3e 6264 053e 1abd ca3d
000002e0: 2045 71be 4a24 2a3e 9d77 963e ba0d 9c3e
000002f0: 3688 e4bd 357f 9bbd a2bb 8ebe c1f5 cb3e
00000300: 3506 6cbe aaf9 97be 467c 143d f613 4bbe
00000310: f0fc 743e 7f93 473e 06d9 a4bd 1f33 83bc
00000320: a9e3 46be 291d ee3d 6448 1a3e 3290 95be
00000330: b712 47be 1c95 883e ae52 48be 0678 bd3e
00000340: 1ce4 36be ef0d 30be 73af b8be a349 ae3e
00000350: 5d1c c1be 06a1 18bd 9e71 733d ff07 d53d
00000360: 637f 54be 57df b1bd 5426 31be dfd8 52bd
00000370: 496c 18be 7761 babe 6596 3a3e 0e2e 52be
00000380: 9a7d 40be 890c 8a3e dc86 1dbf da19 693e
00000390: ea5f 943e b990 193e 10d5 e33d 4f51 663e
000003a0: aa62 d9bc e830 02bf feb7 c6bd a4ab b03e
000003b0: a3d0 73bb 2cf2 a73e 3933 4dbd dd5f edbd
000003c0: 755a 16be 75a5 dcbd a9bd 85be 9002 e3bd
000003d0: 223b e83e 5e6c 8e3e 7309 d13e a4fb 88bd
000003e0: 0e84 913e 55cb 923e eb9e b13e 5439 a13e
000003f0: 983a 89be 6758 9f3e 795f a03e 5819 9b3e
0.30065125 -0.3448938 0.17412248 0.23479168 -0.21333355 0.17006305 0.22799484 0.0976521
0.2679223 -0.04470499 0.29783073 0.11079502 0.11331542 0.16985956 -0.35653663 0.108334616
-0.1556433 -0.35627043 -0.2914347 -0.03469091 0.028346227 -0.27783874 0.24665938 0.048012175
0.030483518 -0.12872882 0.02240993 0.3843541 -0.03317218 0.33832666 -0.47220734 -0.021347081
-0.3398885 0.18888691 0.36103204 0.01986945 0.1401149 0.24400087 -0.2851526 0.077346705
-0.33852443 -0.099359736 0.13131872 -0.26044747 0.12714095 -0.23010299 -0.13682453 -0.36504945
-0.22799915 0.021427361 0.10875418 -0.3332315 -0.30929396 0.17914478 0.20502321 0.35846013
-0.1427196 0.18368518 0.4041711 0.14821036 -0.27920803 0.39494726 0.13971825 -0.17233887
-0.29886657 0.28368592 -0.08656799 -0.22791815 -0.19700317 0.122116886 0.16501713 0.38129774
-0.07148431 0.36346564 0.3872774 -0.05567724 -0.41480207 0.09367709 -0.033790015 0.02600071
-0.22249334 -0.7105877 0.4074238 -0.2821094 0.157969 -0.36833045 0.3553599 -0.17850143
0.35403493 -0.27555197 -0.047514874 0.32442936 0.321032 -0.21148899 -0.2668769 0.29501355
0.17525618 -0.15626241 0.1806087 -0.33520874 -0.12355038 -0.13776523 0.04269725 0.38616285
-0.10564747 0.09836366 -0.13889523 0.28334534 0.2036593 -0.09294112 0.37449533 -0.19189236
0.050962813 0.22088984 -0.088136904 -0.40894985 0.03171328 -0.24209431 0.24882063 0.4650099
0.23368017 0.29354635 -0.2146634 -0.34681326 0.10958822 -0.21513464 0.11345201 -0.113199614
-0.56817985 0.09825412 -0.0074912943 -0.36257648 0.11349863 0.0044574765 -0.25220478 -0.13664971
0.12573409 -0.29830423 -0.18599388 -0.1717035 -0.19060388 -0.18248004 0.18635488 -0.102482066
-0.273606 0.24104953 -0.3263067 -0.18017118 -0.08334815 -0.30783615 -0.028560517 -0.2773768
0.10874765 -0.1313946 0.17071243 0.3482735 -0.17275606 -0.14359564 -0.15070663 -0.124521375
0.2569484 -0.42466742 -0.14575882 -0.16869305 0.14961201 0.3114255 0.2775924 -0.42549565
0.1206831 -0.36269757 -0.27240756 0.07545843 0.1131325 -0.0013029829 0.05530489 0.0573429
0.051323414 -0.4384275 -0.23971283 -0.039290797 -0.38141578 0.15229893 0.13026574 0.098993495
-0.23561525 0.16615406 0.29388133 0.30479223 -0.11158793 -0.07592622 -0.27877527 0.39835933
-0.23049243 -0.29682666 0.03625133 -0.19831833 0.23924613 0.19489859 -0.080492064 -0.016015587
-0.19422783 0.116266556 0.15066677 -0.29211575 -0.19440733 0.2667626 -0.1956279 0.37005633
-0.17860454 -0.17192815 -0.36071357 0.34040555 -0.37716952 -0.03726294 0.059434526 0.10401916
-0.20751719 -0.08685177 -0.17299777 -0.051476356 -0.14885058 -0.36402485 0.18221433 -0.20525381
-0.18797913 0.2696269 -0.61533904 0.22763768 0.28979427 0.14996614 0.11124623 0.22491954
-0.026536305 -0.50855875 -0.097030625 0.3450595 -0.0037203215 0.3280195 -0.050097678 -0.1159055
-0.14682944 -0.10773746 -0.26121262 -0.11084473 0.45357615 0.27817053 0.40827522 -0.06688622
0.28421062 0.28670755 0.34691557 0.3148905 -0.26802516 0.31122133 0.3132284 0.30292773

fc1.bias f4 [128]
00000000: 3bc4 82be 5e56 ab3d ad3f d33d 9eb0 bebd
00000010: 75c3 a83e 3307 aebe 4072 203d 0105 5c3e
00000020: 6458 42bc 5be1 7fbd 3d82 323e 29d6 963d
00000030: 50be c4be e40c 6fbd 59bf 70be a69d 7fbe
00000040: 6bcb 04be b771 93be a80a 793e 9b05 883d
00000050: 2c60 5ebe 273f 9abd 5355 5f3e d996 153d
00000060: f796 e8bd 9924 5f3e 4280 b23e 5d88 b73e
00000070: 26bb 683d 1f85 6f3e f74f 61be 0e75 b1be
00000080: f65c e7bc b404 bb3d a924 3c3c 02d2 b73e
00000090: 33ac 923e ccaa 533e 174c 593d 5230 673c
000000a0: cf17 af3e 7d53 893e 5527 3a3c 488e ce3e
000000b0: f135 bebd a03d 793e 220e 6a3e d1d3 4c3d
000000c0: 623d a9be 5f05 053e 624b 123c 7f08 bdbe
000000d0: d2cf 51be 9c7b ddbe 5736 3abd 9060 cd3d
000000e0: 4028 8dbe f603 a7be 90c6 c0be 74a3 b43e
000000f0: 1905 f93d 92b7 5fbe e370 abbd 4549 68bd
00000100: 143d a5bd 3284 513e 846e 90bd 91bb 26be
00000110: 5c20 1abe 8aab cabd 36a7 7a3e cc93 903c
00000120: c136 2cbe e202 1ebc 037e 093e b3c5 afbe
00000130: bba0 493e 70dc 6a3d 1213 c83d b7be 1bbe
00000140: c7c9 903e 28e6 eebd 4751 8f3e 66a7 9ebe
00000150: ac4a e9bc 22b5 9e3e f245 2fbe 9d32 62be
00000160: 36a8 c23e 825f 983d d7ba 5bbd e48a 76be
00000170: f527 ad3e a072 bf3e dd18 6ebd a847 553e
00000180: 148f babe cf43 a73e a1e6 f03d 3372 eebc
00000190: dd3d 0d3e 1dd1 bb3e 3002 663e 01b0 a6bd
000001a0: 0493 0f3e e7f3 f8bd 9e08 4bbe 2c27 913e
000001b0: c9c9 833e 6ed2 8ebe 7ee9 27be 3745 993e
000001c0: 36a2 9c3e b603 6d3e 1156 b53e 1312 abbe
000001d0: 886e 4e3b 8f36 53bd 0994 903e 99ef 9cbd
000001e0: 77e6 cd3d a6c6 6ebc d010 3ebe 7489 be3d
000001f0: 12c1 60be 8ba0 4bbe 7056 a83e 19a4 94be
-0.25540337 0.083660826 0.103148796 -0.09311031 0.32961622 -0.33989868 0.039171457 0.21486284
-0.011861894 -0.062470775 0.17432494 0.073650666 -0.38426447 -0.058361903 -0.23510493 -0.24962482
-0.12968223 -0.28797695 0.24320471 0.06641694 -0.21716374 -0.075315766 0.21809892 0.036520813
-0.11356919 0.21791305 0.34863478 0.35846224 0.056819104 0.23390625 -0.2200316 -0.34659618
-0.02824257 0.091317564 0.01148335 0.3590241 0.28647003 0.20670623 0.05305108 0.014110642
0.34197852 0.2682151 0.011361917 0.40342927 -0.09287632 0.24339914 0.22856954 0.05000669
-0.33054644 0.1299033 0.0089291055 -0.36920545 -0.20489433 -0.4325837 -0.04546198 0.100281835
-0.2756977 -0.3262021 -0.3765149 0.35280955 0.121591754 -0.2184737 -0.08371141 -0.0567105
-0.0806829 0.20460585 -0.07052329 -0.16282488 -0.15051407 -0.09896 0.24477848 0.0176486
-0.16817762 -0.009644242 0.13426976 -0.3433052 0.1969022 0.05733913 0.097692624 -0.1520947
0.28278944 -0.116649926 0.27991697 -0.3098709 -0.02847799 0.30997568 -0.17116526 -0.2208962
0.3801896 0.07440092 -0.05364498 -0.2407642 0.33819547 0.3739214 -0.05812918 0.20828116
-0.36437285 0.3266892 0.11762739 -0.029107189 0.1379313 0.36682978 0.22461772 -0.08139039
0.14020926 -0.12155896 -0.19827506 0.28350198 0.25739887 -0.2789492 -0.16397664 0.2993562
0.30592507 0.23145947 0.35417226 -0.33412227 0.0031498987 -0.051565703 0.28237942 -0.07662887
0.10053723 -0.014573729 -0.18561101 0.09303561 -0.2194865 -0.19885461 0.32878447 -0.29031447

fc2.weight f4 [128, 128]
00000000: 30c8 493e 8150 04bc 88ad 0abb 864e fa3a
00000010: 1c09 02bd 1efd 4fbd 007f 94bd 511a 413b
00000020: f215 053c 201b 3e3d 1375 54bd 6fc3 0f3e
00000030: 5b9f f6bc 3bad 883d 830a d83b 42f2 a63d
00000040: dbe6 ac3c 6064 ce3d 2d61 293d 15e8 d3bc
00000050: 06e5 033d bfed 6b3c 288b bdbc 871e 57bd
00000060: 32b0 ccbd d18d cfbd c830 9d3d 9117 993d
00000070: a074 ab3d 1929 41bd eb38 533d 61b7 e0bb
00000080: 6325 83bd 4674 c3bc 4947 26bd 4020 42bd
00000090: 5240 b83d 5c1d 713d 7e3a 243e d580 febb
000000a0: 13b0 023e 04f3 bdbb a458 5f3d c11f 023e
000000b0: 7a3e 273d 48d9 dd3c acff 29bd 50ee 993a
000000c0: 22df ba3b 80c6 83bd 39ff b6bd c59d 1cbd
000000d0: ceb8 a53d e76d 043d c1fb ce3d b64b 98bb
000000e0: 55df c63a bd4e 3cbd 13fb 383d 1456 1b3c
000000f0: 195a b53d a4ec 05be 3a81 6fbd 2ba1 d53d
00000100: 3aa7 f4bd a028 2a3c cc24 c53c fc13 303e
00000110: 96a9 b0bd 8a7d 713d 8d5e 70bc c0a9 28bd
00000120: dcf1 7b3b 5f1f a1bd fd46 71bd b397 3c3e
00000130: 5654 503d 6409 1e3e 7db5 c23d 830c 45bd
00000140: 2f8f 78bb dd51 3fbe 522d 593d 27ba 0e3d
00000150: 015e 343e 09f4 133d e17e 073d 49cf 503d
00000160: 1760 bd3d 6130 db3d f7b5 ff3c 5d5f 2a3c
00000170: 37a2 803d 3f7e 68bc baaa 49bd 24ee 993d
00000180: 7762 463d 1c02 11bd ce13 873c cab4 16ba
00000190: b4ac 03be d71e 05bd e97c 413e 5ec1 7a3d
000001a0: 0bfc c1bd dce1 3abd c32c a23d e468 d43c
000001b0: cb30 fb3d a83f d53d 7653 dd3d b90f 2fbd
000001c0: bdcd c9bd 876d 843c 04b1 433e fc46 b8bd
000001d0: 0adf 63bd 2eb0 8a3d adfe 1e3d 6721 6b3b
000001e0: 01ee 88bd 08c6 a53d a40e 2a3e acb0 8c3d
000001f0: 1615 fdbd e9dc 1ebd e2df ef3d 0b6c 4e3d
00000200: b1c3 e6bd 9875 403d d144 343d d35d 713d
00000210: 2355 d9bd 3104 acbd 63a3 b4bd 4814 3fbd
00000220: c154 5dbd 9ff4 b43d 5d15 8c3d f7f8 a1bc
00000230: e695 b0bd e0e9 6b3d 701e f8bd 9cb5 c53d
00000240: bcf6 ab3d 7ebf e7bc 2a84 ae3d 8e94 843d
00000250: a4c8 693d 5ca6 91bc 4a89 13be eeaf 803c
00000260: cf0b 9e3a e870 7abd 18db 9e3c 8621 103d
00000270: 778c 17bd d2c4 063e 9d2a 89bc 0223 cdbc
00000280: 1c99 9ebd 27af 8cbc f33e 0bbe a6e5 d73d
00000290: b00e c3bc 9072 533e 6074 0abe ce22 c4bc
000002a0: e38e 2c3e 2987 d73d cbcb c43c ea7d a9bd
000002b0: ba72 b23d 3c27 823d 81de e03b 4d0a e9bb
000002c0: 1944 49bd 4a1e a7bd e016 0abe 661b a93d
000002d0: 31e9 a83d b241 923d 9e06 03bc da1e 0d3e
000002e0: b0c9 84bd f2c3 b33d 0896 aa3d cb36 bd3d
000002f0: da33 df3c 5419 5d3e 92eb 153e cca1 a03d
00000300: 93d3 2d3e 5618 bb3c b3bc a5bd 2522 0f3e
00000310: 7624 483d 7eb6 023e fa43 b83d f819 aabd
00000320: 656d 673d 554b dc3e 6709 263c 97c6 b7bd
00000330: 0d32 443d b211 9cbd 0d11 6cbd 7f94 c5bb
00000340: 35dc 77bd a0bd 733e 98c5 8ebd bf3c 02bb
00000350: f289 36be 8ff1 d33c 27d7 5abd 97d2 abbd
00000360: eacb c3bc 16c1 a53c 4476 853c d332 94bd
00000370: b83c b93d 56aa b83c fe8a 96bd df69 1fbc
00000380: 13b8 dabb f59b 893d ebe6 6c3d 67e4 6e3d
00000390: bc29 d9bd e74e 0fbd f3df f03b e758 363e
000003a0: b9b9 593e 66d0 89bc 8c27 533d 7075 103d
000003b0: 3f26 993d b82a 75be b68f 1a3d 8827 12be
000003c0: c2d7 893d bffa 8abd 540f 473b 7494 b5bd
000003d0: 524d cabc 2ac6 31bd 5b35 4d3d 0015 13bb
000003e0: a649 3abd 7b11 3f3d 94f5 1fbd 8416 7a3d
000003f0: 6e75 debd 2ec5 833d ae03 ff3c bdaf 65bd
0.19705272 -0.008075834 -0.0021160562 0.0019096888 -0.03174697 -0.0507785 -0.07250786 0.0029465149
0.008122908 0.046412587 -0.051869463 0.14039396 -0.030105283 0.06673666 0.00659305 0.08151676
0.021106174 0.10077739 0.04135244 -0.025867501 0.032200836 0.014399945 -0.023137644 -0.052519348
-0.09994544 -0.10134471 0.0767532 0.07475198 0.08371854 -0.047158334 0.051567953 -0.006857798
-0.06403615 -0.023859154 -0.040595327 -0.047394037 0.08996643 0.05886589 0.16037938 -0.007766823
0.1276248 -0.005796792 0.054527894 0.12707426 0.040831067 0.027081147 -0.041503593 0.0011743996
0.005702869 -0.06434345 -0.089353986 -0.0382364 0.08091889 0.032331374 0.10106612 -0.0046476973
0.0015172759 -0.04597353 0.045161318 0.009480972 0.088550754 -0.13078552 -0.05847285 0.10431131
-0.119459584 0.010385662 0.024065398 0.17195123 -0.08626096 0.058957614 -0.01467098 -0.04117751
0.003844372 -0.07867312 -0.05890559 0.18417244 0.05086168 0.1543327 0.095072724 -0.048107635
-0.003792714 -0.18683572 0.053021736 0.034845497 0.17613985 0.036121402 0.033079986 0.050978933
0.09246843 0.10702587 0.031214697 0.010398713 0.0628094 -0.014190256 -0.049235083 0.07516125
0.048433747 -0.035402402 0.016488936 -0.00057489856 -0.1285885 -0.032500114 0.18895306 0.061219566
-0.094719015 -0.045625553 0.07918694 0.025928922 0.12265166 0.10412532 0.108069345 -0.042739604
-0.098536946 0.016165508 0.19110495 -0.08997914 -0.05563263 0.06771885 0.038817097 0.0035878064
-0.06686021 0.08094412 0.16607147 0.06869635 -0.123575374 -0.038784895 0.11712624 0.050396007
-0.11267794 0.046987146 0.04401094 0.05892737 -0.10611942 -0.08399237 -0.08820226 -0.0466502
-0.054035906 0.0883572 0.06840012 -0.019772036 -0.08622341 0.057596087 -0.121151805 0.0965378
0.0839667 -0.028289553 0.08521302 0.06473647 0.05707611 -0.017779522 -0.1440784 0.01570889
0.0012057963 -0.061142832 0.019391581 0.03518822 -0.036999192 0.13161018 -0.016743952 -0.025041107
-0.07744047 -0.017173363 -0.13598232 0.10541849 -0.023810714 0.20649171 -0.13520956 -0.023942377
0.16851382 0.10523827 0.024022957 -0.08275969 0.087132886 0.063551396 0.006862462 -0.0071118237
-0.04913721 -0.08160074 -0.13485289 0.08257179 0.08247603 0.07141437 -0.007997183 0.137813
-0.06483781 0.08777608 0.083293974 0.092389666 0.027246404 0.21591693 0.14640644 0.0784336
0.1697524 0.022838753 -0.08092632 0.13977869 0.048862897 0.12764928 0.089973405 -0.083057344
0.05650081 0.43026224 0.010134078 -0.08973425 0.047899295 -0.076205626 -0.05763345 -0.006029665
-0.06051274 0.23802805 -0.06971282 -0.0019872633 -0.1782606 0.02587202 -0.05342784 -0.08389776
-0.023900945 0.020233672 0.016291745 -0.072362565 0.09044784 0.02254216 -0.073507294 -0.0097298315
-0.0066747754 0.067191996 0.057837408 0.05832329 -0.10603663 -0.034987357 0.0073509156 0.17807351
0.21262254 -0.016823005 0.051551387 0.035268247 0.07477998 -0.23942077 0.03773471 -0.14272892
0.06730606 -0.06786107 0.0030374127 -0.08866206 -0.024695072 -0.043401875 0.050099712 -0.0022442937
-0.045480393 0.04664753 -0.03905256 0.06105663 -0.10862242 0.064340934 0.031129684 -0.0560758

fc2.bias f4 [128]
00000000: 7a6e ca3d b7f3 56bd f5e9 a3bd a271 1e3c
00000010: 2a5e d53c 3f87 c5bb c54b 4ebd 61a1 83bd
00000020: 1334 1ebd 0626 5c3c 1d49 97bd 1045 6d3c
00000030: a6e2 a23d 48f4 463c 28c5 30bd 45d1 fcbb
00000040: ee39 c13c 0894 913d aef8 f43b fc1a 733d
00000050: a689 4a3d d6a4 b03d 38ac 9f3d 350d 163c
00000060: 47ef 1c3d fb76 923d 6147 353d 7e7d 99bc
00000070: fcc9 803d 45ca 9dbd 357a ed3c 2cdd 85bd
00000080: 824b 353d a878 143b 34d8 5abd b67b cebc
00000090: 9d73 5f3c 707c 8c3d 3d09 583d 62ef ac3d
000000a0: 82a3 8b3d 11cb a7bd 9032 3e3c 3df0 18bd
000000b0: 289d 38bc af04 0c3d 422e ac3d a95c 523d
000000c0: e285 c93c b62f 193d 5ee6 0a3d cfb6 02bd
000000d0: 024a e6bc d6bb da3b 1902 2dbd 7081 08bc
000000e0: c5d9 153d 127b 353d f0ef 3ebd e6c0 983d
000000f0: 2051 0b3c 3ebe 92bd 71b3 8ebd 7552 543d
00000100: 8208 96bd c3a0 203d aefe 7a3c 0947 82bd
00000110: 26cb 563d 4499 9abc 8deb 95bd 00d5 273c
00000120: 0373 9bbd d105 58bd 551a 8e3d dceb 123d
00000130: bf07 6ebd 9a67 8c3d c852 893d c5f0 193d
00000140: 0dc2 183d 3144 48bd 992e 4dbd ce91 663d
00000150: d5e9 0bbc 7a9c f7bc 25fe fd3c c150 4abd
00000160: 9885 ffbc 0969 07bc e510 823c 373c 633d
00000170: 2625 82bd 5574 8fbd 4314 433d 5bab b93d
00000180: a059 bebc 075b 353c 8034 d03d d851 5ebd
00000190: 81fc 613d a980 bd3d 593d e2ba 1ec6 95bd
000001a0: 65ca 013c de16 d13c 00de 8fbd 062c 813d
000001b0: 8f46 adbc 9e37 3bbd 7e58 2e3d 13d7 6ebd
000001c0: a580 643d cca6 353d ff72 bebc 897d b23a
000001d0: 63eb b13d 5cce e43c f226 623d 2f72 05bd
000001e0: d8cc fcbc d3c6 5c3d 3293 0bbd 545c a93d
000001f0: 741e 21bd 4252 26bd 7f7d 4fbc 8a3c e93c
0.09884353 -0.05247852 -0.08003608 0.009670647 0.026045877 -0.0060280855 -0.05036523 -0.06427265
-0.03862388 0.0134368 -0.07386992 0.014481798 0.07953386 0.012143202 -0.043156773 -0.0077153766
0.023587193 0.07108313 0.007475934 0.059351906 0.049447678 0.0862519 0.0779652 0.009158422
0.03831413 0.071516 0.044257525 -0.018736597 0.062885255 -0.077045955 0.028988937 -0.06536326
0.044261463 0.0022654925 -0.053428844 -0.025205474 0.013638404 0.06859672 0.052743185 0.08444096
0.06818296 -0.08193029 0.011608735 -0.037338484 -0.011267938 0.034184154 0.084072605 0.0513579
0.024599973 0.037399016 0.0339111 -0.03191262 -0.028111462 0.006675224 -0.04223833 -0.008331642
0.036584634 0.044306822 -0.04661554 0.074586675 0.008503228 -0.07165192 -0.069678195 0.05183645
-0.073258415 0.039215814 0.015319509 -0.06361205 0.05243983 -0.01887191 -0.07320318 0.010243654
-0.07590296 -0.052739922 0.06938616 0.035869464 -0.058112856 0.06855698 0.067052424 0.03758313
0.037294436 -0.048893157 -0.050093267 0.056291394 -0.008539637 -0.030225981 0.031004975 -0.04939342
-0.031191632 -0.008264788 0.015877197 0.055477347 -0.06354742 -0.070046104 0.047626745 0.090658866
-0.023236096 0.011069066 0.101662636 -0.05427727 0.055172447 0.092530556 -0.0017260715 -0.073131785
0.00792179 0.0255236 -0.07024765 0.06307225 -0.021151809 -0.045707338 0.04256486 -0.05831058
0.055786747 0.044348523 -0.023248194 0.0013617735 0.086874746 0.027930431 0.055212922 -0.032579597
-0.030859396 0.05390055 -0.034075923 0.08269563 -0.039335683 -0.04060579 -0.012664198 0.02847125

fc3.weight f4 [128, 128]
00000000: 6587 643d c7fe afbc 2d09 063c 1e40 9b3b
00000010: 7687 8abd d1da 33bd 38e1 b0bb ebeb 483c
00000020: 4f09 733d 1e9d 7c3c 5e39 b7bc 4fa0 943d
00000030: 41ec 4ebd a1b1 113d 5376 49bd 4c9c 243a
00000040: 1c0f 733d 499b bbbd cc0f 94bd 657a d738
00000050: 7f6d 1abd 211c 88bd e939 a7bd 4d92 21bd
00000060: 90fb d9bd 1f9f d5bc 5a89 ac3d e1fa bb3d
00000070: 8a63 bb3a 7c9b 5f3d b185 783d bddf 493d
00000080: 7179 ad3d 2c22 ae3c e353 b8bb e7e4 0cbc
00000090: 238f 87bd b023 973d 7323 28bd 89fa 66bb
000000a0: 4c6f f03d a3ae 54bd 1ed5 d93d 1670 2bbd
000000b0: ff3d 913d bef0 b3bd e653 cfbc 4c43 fb3d
000000c0: 30c8 af3b e3f0 dcbd 2dd7 603c 1c2b cbbd
000000d0: 00e9 613c 83df 3fbd 6c2e 98bc b5fd 80bd
000000e0: ac8f bebc b1ce ba3b db52 d43c c233 a2bd
000000f0: 7281 2a3d fe05 67bd c419 913d 0f76 aebc
00000100: a8af 4b3d 0005 12bd eb25 f83c 84ec 0b3d
00000110: 3d9c 83bc e38f 56bd 471c 7ebc 2a16 a9bd
00000120: 91fd 19bd 07d2 b3bd debb f6bb ecc2 893d
00000130: b433 ad3c b0bd ce3c c113 95bd 5c1d b3bd
00000140: a927 443d 9cfc a3bd e856 2dbd 175e dbbc
00000150: 4d2e 593c a62e 923d a9dc ab3d d37c b23d
00000160: 4de5 62bd adaa 483b e7f6 a03d bedc 873b
00000170: 8a30 1fbd 174b 283d 318d 02bd 4ad3 0a3d
00000180: c7a8 08bd 9d37 c93c 343c 943c d6d5 ffbc
00000190: 2364 193d 40f6 22bd 304a 27bd 9fc6 2ebd
000001a0: d110 28bd 986b 803c 5b56 913d ce90 563d
000001b0: dd1a 733d 4c0a 2d3d e781 d63d 234f ab3d
000001c0: 5004 1a3d afc8 a63c 10da 81bc e751 5e3d
000001d0: 33e2 23bd 15bf 44bc c6b7 973d 8478 1cbd
000001e0: e496 0a3d 12b9 af3d c12f e13d 24ee 15bd
000001f0: 2aa5 0fbd 913e 44bc 7ba6 b43d b826 743d
00000200: ed3c 6e3d 6bd0 1c3e d38a 2cbc 0b67 763d
00000210: c7e4 113d 0512 0f3e 1463 9cbd 079c 8b3d
00000220: d8f3 0abd cc50 a4bd 64b8 3d3d 17e0 5abd
00000230: b6e1 4a3d cd6e 16bb 6589 ba3c 6c50 2d3d
00000240: 9d6a 8d3c 4e87 bd3d 21b7 4abd 396b 3bbd
00000250: 0d00 6dbd c076 4c3d 98a3 2bbe e9e9 883d
00000260: 55ef e43d 3787 04bd f498 70ba 2d76 5bbd
00000270: 854c 07bd 2949 e43c f3ce bb3c 3031 8abd
00000280: ac8c bebb 0d4c 98bb 49d4 85bd 7578 8f3d
00000290: 3ddf 08bd 33b1 29bd 195f fa3d 76b6 7c3d
000002a0: 6c9a cabc 0e20 bb3c f48e 863d b406 753d
000002b0: 3e1d 96bd 3788 93bd 2a6b 883c a82a 913d
000002c0: 93c9 9ebd 50a9 273d 5fe3 02be fd0f 9b3d
000002d0: 6f3f c33b b003 06bd 987f 38bd 9da3 883d
000002e0: 242e 4f3d ef8b 4b3b 8472 d1bc d833 7f3d
000002f0: ce58 82bc b471 823d 31eb dbbc 48b4 1c3b
00000300: 4933 09bd ed68 abbd c947 20bd 6c21 e23c
00000310: dbd1 abbd 0189 523d f399 983c 1eda 07bd
00000320: 98e7 b4bd db4f a8bc 57e0 76bd a15f 71bc
00000330: 0d5e acbd eced cf3c 5b50 5c3d b2b9 e03d
00000340: 1a42 24bd 1d49 883d 25a1 aebd 2888 f53c
00000350: f979 cf3b 9e6e a3bd 9c64 e13d 1cb0 d3bc
00000360: 6e25 2e3d 25b9 8e3d 344b 823d 3cbd ac3d
00000370: 5769 043d da1a 51bc 4aea 113d 3cc1 4ebd
00000380: 01ab 153e b399 32bd f6a0 033d fdb3 f43d
00000390: e32b 54bd f825 8c3d f731 873d bf39 27bc
000003a0: 919d 47bc 640e b2bd 0e7a 823d 8c03 813d
000003b0: 23bd adbd 5346 b0bc 0a0a bd3d b5c4 0bbd
000003c0: ba67 3c3e 28bc 82bb 49dc 99bd d8d2 933d
000003d0: 1f09 eb3d 9f31 823d 0938 683d 3987 aa3c
000003e0: 4aac 8fbd 4e78 3e3d 2071 333d 7ddf 85bd
000003f0: 7ebe 8ebd 388e 9a3d 3132 95bd 382e 483d
0.055793185 -0.021483792 0.008180899 0.004737868 -0.067641184 -0.04390985 -0.005397942 0.0122632785
0.05933505 0.015418319 -0.022366222 0.07257139 -0.050518278 0.03556979 -0.04918511 0.00062793936
0.05934058 -0.09160478 -0.072295755 0.00010274797 -0.03770208 -0.0664599 -0.08165342 -0.039446164
-0.10643685 -0.026076851 0.08424635 0.09178711 0.0014296633 0.05459164 0.060674373 0.04928564
0.08470429 0.021256529 -0.0056252345 -0.008599496 -0.06619098 0.07379854 -0.041049432 -0.0035244545
0.11739978 -0.05192436 0.10636352 -0.04185494 0.07091903 -0.08786152 -0.02530856 0.12268695
0.0053644404 -0.10788133 0.013723177 -0.09920332 0.013788462 -0.046844017 -0.018576823 -0.06298391
-0.023261867 0.005700909 0.025918415 -0.07920028 0.041627355 -0.0564022 0.070849925 -0.02129653
0.049728066 -0.0356493 0.030291518 0.034161106 -0.016065711 -0.052383315 -0.0155096715 -0.082561806
-0.037595335 -0.08780294 -0.0075297197 0.067266315 0.021142818 0.025236934 -0.072791584 -0.08745834
0.047889385 -0.08007166 -0.04231921 -0.026778264 0.013255668 0.07137804 0.08391697 0.087152146
-0.05539446 0.0030619309 0.07859593 0.0041461876 -0.03886465 0.041087236 -0.031872932 0.033892907
-0.033364084 0.024562651 0.018095113 -0.031229895 0.037449013 -0.039785624 -0.040842235 -0.04266989
-0.041031662 0.015676305 0.07096549 0.05238419 0.05935179 0.042246148 0.10473996 0.083647035
0.03760177 0.020359365 -0.01585105 0.054277327 -0.040010642 -0.012008448 0.07408099 -0.03820087
0.033835307 0.08580221 0.109954365 -0.03660406 -0.035069622 -0.011977808 0.08820816 0.059607238
0.058163572 0.1531388 -0.010531145 0.060156863 0.03561857 0.13971718 -0.07636085 0.06816869
-0.033923954 -0.08023223 0.046318427 -0.053436365 0.04953166 -0.0022954226 0.022770593 0.042313024
0.017262751 0.09254323 -0.04949105 -0.045756552 -0.057861377 0.049917936 -0.16761625 0.0668524
0.111784615 -0.032355513 -0.0009178065 -0.053579498 -0.03303196 0.027866917 0.02292583 -0.06747663
-0.0058151092 -0.004647738 -0.06534631 0.07005397 -0.03341602 -0.041428756 0.1222517 0.061697446
-0.024731837 0.022842433 0.06570235 0.059820846 -0.07329796 -0.07203715 0.016652662 0.07088214
-0.07753291 0.040932953 -0.12782048 0.07571409 0.0059584896 -0.03271836 -0.045043558 0.06671832
0.050581113 0.0031058749 -0.0255673 0.0623053 -0.015911486 0.063693434 -0.026845546 0.0023911167
-0.033496175 -0.083696224 -0.03913096 0.027603827 -0.08389636 0.05140019 0.018628096 -0.033166997
-0.088332355 -0.02054589 -0.06027254 -0.014732272 -0.08416376 0.025382005 0.05378757 0.109729186
-0.0401021 0.0665457 -0.0852683 0.02997215 0.006331679 -0.07980083 0.11005518 -0.025840811
0.042516164 0.06968907 0.06362 0.08434531 0.032327022 -0.01276275 0.035623826 -0.05047725
0.14616014 -0.04360361 0.032135926 0.119483925 -0.051799666 0.068431795 0.06601327 -0.010206639
-0.012183563 -0.08694151 0.06370936 0.06299505 -0.084833406 -0.021517908 0.092304304 -0.03412314
0.18398944 -0.003989715 -0.07512719 0.0721795 0.11476349 0.06357121 0.056694064 0.020816432
-0.070152834 0.04650145 0.043809056 -0.06536768 -0.06969927 0.07546657 -0.07284964 0.048872203

fc3.bias f4 [128]
00000000: 3c27 e43d 04cd b53d 3a01 a7bd 5f35 763d
00000010: 1a32 ca3d bd77 6e3d 566b 61bb 7fd8 c03d
00000020: df61 cf3d 86e3 123c 58c5 e73c 1fb1 543d
00000030: 68d0 28bd 870c 9dbd 7020 b6bd ac35 193c
00000040: 5b8f b8bc 39b9 cc3d 0a39 cdbd 6dea fbbc
00000050: 1f92 dcbb d456 47bd dcb0 b73c 792c 153b
00000060: 0127 eb3d b220 5dbd 6a53 433c 1793 7abc
00000070: 7660 d4bc f2f7 363d 5f65 21bd fc77 f33c
00000080: bbc2 a93d 17b7 853d c352 02b9 1547 5dbd
00000090: 31c2 d2bc 7e9d a8bc 33ed 95bd f44a bebb
000000a0: 21d2 b23d 2aa3 dd3d d12d 2f3d fd2b 9cbd
000000b0: 28a5 a03d e6fc 773c 70f6 993d e93a 4d3d
000000c0: 05cc b4bd daf1 1d3c 6a02 8e3d 507e 893c
000000d0: de98 123a bffa aebd 0005 71bb db39 a33d
000000e0: 9613 cfbc 4918 01bd 7d58 8d3c 1389 a6bd
000000f0: e85d 573d acef 683d 435a 263c 8aaa 08bd
00000100: 185b 5b3c 3c05 c93c 6513 3d3d 0548 c23d
00000110: 744a 9d3c d0e6 a6bc a2d0 823d 7c6f 20bb
00000120: d34b 81bd b652 903d f561 a3bd 894e dd3d
00000130: 0e78 d8bb b4c0 c33c 9b4c 80bd b747 7dbd
00000140: e4f6 e53d 2ac0 303d 8dc7 9fbd 193d ac3d
00000150: 6676 4abd 5d4f f938 363d d43c da03 3a3d
00000160: e4ba 063d b9c9 c1bd eca7 27bd 2bc6 4cbd
00000170: 4e5b 77bd 137b f63c 745d ca3b aec7 b63d
00000180: 5590 053d ec31 d83c a91b f5bc 72b0 c93d
00000190: 1989 99bd a68e ca3d 953f 303d 461e c1bc
000001a0: 2626 44bd 2d15 5d3c fb63 033e f1e1 e53d
000001b0: 1d74 3b3d 001b 2c3c 0ceb 7abc fdfe fd3c
000001c0: ce08 4fbd bb4e b3bb d8b6 c5bc cf19 03bc
000001d0: 089e 9e3c b507 01bd a19b ac3d 3993 953d
000001e0: 5f30 76bd a320 043d 9ea7 0bbd ddf0 b9bd
000001f0: 2f42 473d d825 8c3d 73f1 3ebb 401f d83d
0.11140296 0.08876994 -0.08154531 0.060109492 0.09872837 0.05821966 -0.0034396253 0.09416293
0.10126089 0.008965379 0.028292343 0.05192673 -0.041214377 -0.07668405 -0.08892906 0.009351175
-0.022529295 0.09996266 -0.10020645 -0.030751431 -0.006731286 -0.04866679 0.0224232 0.0022762103
0.11482049 -0.05398626 0.011921743 -0.015293858 -0.025924902 0.044670053 -0.039403316 0.029720299
0.08289095 0.06529062 -0.00012428597 -0.054022867 -0.025727363 -0.02058291 -0.07320633 -0.005807275
0.08731485 0.10822137 0.042768303 -0.076255776 0.07844001 0.015135979 0.07517707 0.05010501
-0.08827976 0.009640181 0.06934054 0.016783863 0.0005592237 -0.0854392 -0.0036776662 0.079700194
-0.025277894 -0.0315173 0.017254109 -0.081316136 0.05257979 0.056869194 0.010153356 -0.033365764
0.013388418 0.024538629 0.046161074 0.09486393 0.019200541 -0.020373732 0.0638745 -0.0024480512
-0.063132904 0.07047026 -0.07977668 0.10805995 -0.0066061085 0.023895599 -0.06264611 -0.06183597
0.11228731 0.043152012 -0.07801733 0.08410091 -0.04942932 0.00011888028 0.025908094 0.04541383
0.032893077 -0.09462304 -0.040931627 -0.049993675 -0.06038981 0.030087983 0.0061756913 0.08924805
0.03260835 0.026390992 -0.029920416 0.098481074 -0.074968524 0.09890489 0.043029387 -0.023574006
-0.047887944 0.013493818 0.12831108 0.112247355 0.04576503 0.010504484 -0.015314829 0.031005377
-0.050545506 -0.005472032 -0.024135038 -0.008001759 0.019362465 -0.03150149 0.08428121 0.07303471
-0.060104724 0.032257687 -0.0340954 -0.09079144 0.048647102 0.068431556 -0.0029135614 0.105528355

fc4.weight f4 [2, 128]
00000000: c2a6 dfbd b307 0b3e 203b 993c d614 b53d
00000010: 346a bebd 64e0 60bd dae8 8b3d 5acd 26bd
00000020: 13fc d1bd 0250 9abd 832a 253e 1a6c e6bd
00000030: 4155 933d 40e6 733d 881b b9bd 0de2 e9bd
00000040: a882 ef3d 2aba 9cbd c2a9 60bd d57a 183c
00000050: 3957 b3bd 7edf debc 6b05 62bd 7d31 f83d
00000060: 7356 cabd a500 f3bb 4267 38be 278e de3d
00000070: 24aa a8bd 6177 07be b7c7 c33d 41a2 083e
00000080: 6eeb 5bbd c4f1 a03c 1c3b d3bd 9ed9 af3c
00000090: 949c 883d d6ac ba3d e201 4bbd 0cc0 89be
000000a0: bcc4 8bbd 5539 3ebe b8fb 9cbd 5a00 6e3b
000000b0: 357a ce3d 07f9 1ebd 3f57 a4bd 0bbb b8bd
000000c0: 0115 c5bc 1a7d 8e3d 0fc5 11bd 31ea 0ebb
000000d0: 851b ff3d 09d9 813d 2bbc 013b 27b5 103c
000000e0: 4d21 3cbe 3903 febd 2f43 123d 4aca 7abd
000000f0: a2a1 9c3d 1554 97bc fe28 22bd 81d1 4ebb
00000100: 1a4e fa3d ddb3 7abc b3aa bcbc 51a7 5ebd
00000110: 8732 c0bd e350 e43d 9502 d6bd 5c96 c0bd
00000120: 3411 8a3d b24a 8d3d dd1d 9ebd 820b 09be
00000130: 6a7a 0bbe 6b10 02be 33e6 d13c 236d 8ebd
00000140: 830a d1bd 36b1 df3d 6890 ebbc 45fd 84bd
00000150: e4cb e5bd d4b4 073e 8906 dfbd 14c2 0fbd
00000160: 0efa 7c3d 8875 863d 78de 9dbd 2f5a 953d
00000170: 9e32 aebd 72bd c33d a958 fdbb 6264 7bbd
00000180: 5377 6cbd 37ba fcbd 73e1 233d c7f5 b1bd
00000190: 81e0 823d e148 bfbd 52f0 0cbe 5bab 0fbe
000001a0: c822 853d 1c03 a83d d9fa 2abe 6fa8 6cbe
000001b0: 14e4 15be dd84 8bbc 6fba 27bd f59e 05be
000001c0: ad99 923d 524e 0dbe d637 abbc d31e 3abd
000001d0: debd fb3d c8ac 9fbd 6633 97bb 9336 9f3d
000001e0: 54d5 e0bd c330 9f3c a1aa c23b eb6a 913d
000001f0: 23b5 bcbd 9dc6 b13d 08bf f7bd 4fcc a8bd
00000200: 2ee2 c0bd dd95 3f3d a3db 473c 5a17 ee3c
00000210: 804a 7fbd e30e 75bd 013a 5bbd 82ff 91bd
00000220: ca5e 28be cf09 33be e301 f13d 012b a3bd
00000230: 1b45 4c3d c5f1 e23c 633a 153e 4877 1dbe
00000240: b9b4 a43b 8e85 0ebe e776 c53d f1b8 37bd
00000250: d19a de3d d05b 95bc 0c12 83bd aaff 8cba
00000260: 8d99 a5bd 729e 92bc 3ff9 22be 7988 4a3d
00000270: e9b3 8b3d 9b91 383d 4598 5dbd 0316 f23d
00000280: dee4 a7bd d77d 92bd 7f46 413e c585 583b
00000290: 2115 b03d 8266 213d 7c91 1c3d 5bbb 39be
000002a0: 1783 0abd 2272 3bbe fbd9 7f3d 46f1 0c3c
000002b0: 52d9 f7bc 4c20 72bd 6bd1 633b 6c5f 6dbd
000002c0: 9d7e 13bd 1468 d03c 9827 86bd e772 fdbd
000002d0: ba28 db3d fb51 f43b 6e18 8bbd b1ac f6bd
000002e0: 49a7 b0bd 565e be3d cdf2 babd cd82 973d
000002f0: f8f3 3c3d c100 2dbe 72ca 87bd 669b 113c
00000300: 9ac8 1c3e 08d5 0abd 03a6 bfbd 7b27 ccbc
00000310: f8cf 62bd fecf 8f3d 32ea f23d 94e2 d73c
00000320: b3a3 b43c 6a6e e73d 8f24 a0bd dfab eebd
00000330: 304f af3c 2095 90bd 26cc 773d 4e39 21be
00000340: c4b3 7fbd 47a3 a23d a973 823d 757d e7bd
00000350: 61fe b33d b34b c03d e272 3cbc 03b7 6cbc
00000360: b9e6 db3d 5d51 e73b 2864 fe3c 4be7 54bd
00000370: 45dc 9abd 47bf 933d a29b 1a3e e902 66bc
00000380: 12ad d83d ddd7 30be 219c febc 2803 07be
00000390: fda7 b6bc 42ff 81bd 7faf 603d 9b12 c73d
000003a0: 51ef 63bc 24bf 283e 6321 1abe 8aaa 15be
000003b0: 3a98 543e 0bcc b5bd 9dda 0abd 03ae 16bd
000003c0: 5a23 243e be83 273d 933e 77bd f92f 75ba
000003d0: d413 8e3d 02a7 293d 6a2f 0abd b847 253c
000003e0: ad99 573e 540c 20be 7fd8 43bb 7435 503d
000003f0: 3393 41bd 123b 083e 1a2f e1bc 1daa edbc
-0.109204784 0.13577156 0.01870495 0.08841865 -0.092976004 -0.054901496 0.06831522 -0.040723182
-0.102531575 -0.075347915 0.16129498 -0.112510875 0.07193995 0.059545755 -0.09038454 -0.11420069
0.116948426 -0.076526955 -0.054849394 0.009306629 -0.08756871 -0.027206179 -0.05518095 0.12118814
-0.0987977 -0.0074158483 -0.1800814 0.10866957 -0.08235577 -0.13229133 0.09559577 0.13343145
-0.05369132 0.019646533 -0.103140086 0.021466073 0.0667049 0.09114997 -0.049562342 -0.26904333
-0.068246335 -0.18576558 -0.07665199 0.0036316128 0.10081903 -0.03881171 -0.08024453 -0.090200506
-0.024057867 0.06957455 -0.03558832 -0.002180707 0.12456421 0.06340224 0.0019795995 0.008832253
-0.18372078 -0.124029584 0.035708603 -0.061228074 0.076480165 -0.01847271 -0.039589874 -0.003155798
0.12221928 -0.015301672 -0.023030614 -0.054358784 -0.09384637 0.111482404 -0.10449711 -0.09403679
0.067415625 0.068990126 -0.0772054 -0.13383296 -0.13620916 -0.12701575 0.025622463 -0.0695441
-0.10207083 0.10922472 -0.028755382 -0.0649362 -0.1122053 0.13252574 -0.10889918 -0.035097197
0.06176191 0.06565386 -0.07708448 0.07292592 -0.08505748 0.09557618 -0.0077315164 -0.06137503
-0.057730984 -0.12340205 0.040009927 -0.086894564 0.06390477 -0.093400724 -0.1376355 -0.1403021
0.065007746 0.08203718 -0.16697253 -0.23111127 -0.14637786 -0.017031128 -0.04094928 -0.13048919
0.071582176 -0.13799408 -0.020900648 -0.045439553 0.12292074 -0.07796627 -0.0046142815 0.07774081
-0.10978189 0.019432431 0.0059407507 0.07100471 -0.092142366 0.086804606 -0.12096983 -0.08242094
-0.0941814 0.04677378 0.012198362 0.02906387 -0.062326908 -0.05982865 -0.053522114 -0.071288124
-0.16442409 -0.1748421 0.11767938 -0.07967187 0.04987059 0.027703175 0.14573054 -0.15377533
0.0050264266 -0.13918135 0.096418194 -0.04485411 0.10869373 -0.018232256 -0.063999265 -0.0010757346
-0.08085928 -0.017897818 -0.15915392 0.049446557 0.068214245 0.045060735 -0.054100294 0.11820605
-0.0819795 -0.07152908 0.18874548 0.0033038717 0.0859778 0.0394044 0.038224682 -0.18137877
-0.033816423 -0.18305257 0.06246374 0.008602446 -0.030254994 -0.059112832 0.0034762274 -0.05795233
-0.03600942 0.025440253 -0.06550521 -0.123754315 0.10701127 0.007456062 -0.06791769 -0.12044657
-0.08625657 0.09295337 -0.09128342 0.07397995 0.046131104 -0.16894819 -0.0663041 0.0088871475
0.15310898 -0.03389457 -0.09357836 -0.02492117 -0.055374116 0.07022093 0.118610755 0.026353158
0.022050714 0.11300357 -0.07819473 -0.116538756 0.021400064 -0.07059693 0.060497425 -0.15744516
-0.062427297 0.07941299 0.06369717 -0.11303226 0.08788753 0.093894385 -0.011502 -0.01444793
0.10737366 0.00705926 0.031053618 -0.05197839 -0.07561544 0.07214218 0.15098432 -0.01403878
0.105798855 -0.17269845 -0.031080307 -0.13184798 -0.0222969 -0.06347515 0.054854866 0.097203456
-0.013912038 0.16479164 -0.15051799 -0.14615837 0.20761195 -0.08876809 -0.033899892 -0.036787044
0.1602911 0.040897124 -0.06036241 -0.0009353157 0.06937376 0.041419037 -0.033736624 0.0100879
0.21054716 -0.15629703 -0.002988368 0.050832227 -0.04725952 0.13303784 -0.02748828 -0.02901178

fc4.bias f4 [2]
00000000: 44ee 9dbd 3b35 4b3d
-0.07711461 0.04961131

fc1.weight f4 [128, 7]
00000000: 05db 993e 6169 b1be a493 323e 48a8 713e
00000010: 2f34 58be 08f3 2e3e a5c7 693e 6002 c63d
00000020: 1741 873e 886e 3cbd 0ba1 983e 6e4f e63d
00000030: 26c6 e63d b498 2d3e f88b b6be 8ade dd3d
00000040: f560 1fbe 1469 b6be ee36 95be 0e18 0ebd
00000050: 5936 e83c 3e75 8ebe 63f1 7b3e 77ef 423d
00000060: f1e5 f33c 56bf 04be eeb4 b33c 2886 c43e
00000070: 8764 0cbd f690 ad3e bf67 f2be 82f1 b4bc
00000080: 9e3b aebe bb3e 403e d48a b83e 42c5 a23c
00000090: 487a 0f3e 5ddb 793e 86ff 91be f367 9e3d
000000a0: 1353 adbe 1e7d cbbd 6a78 063e 5f59 85be
000000b0: 3d31 023e 1ea0 6bbe bb1b 0cbe c3e7 babe
000000c0: 9c78 69be 896d a93c 7492 d83d a0fe aabe
000000d0: c270 9ebe 7c33 393e e462 513e 794b b73e
000000e0: eb2c 14be f254 3c3e c489 cd3e ea08 163e
000000f0: daa3 8fbe c621 c93e 0733 0d3e 9a79 30be
00000100: 0a05 99be 483f 913e 8f4a b1bd 6063 69be
00000110: 33bb 49be 6b18 fa3d 0445 293e 1a42 c23e
00000120: e839 92bd 177f ba3e 03da c63e 2974 61bd
00000130: 060e d4be 4302 c03d b167 f8bc fb3d d73c
00000140: 0745 63be 5167 35bf fdc3 d03e 1c6d 90be
00000150: b7fa 213e cf95 bcbe cd0d b63e 0091 36be
00000160: 2260 b53e 15f9 8cbe 98be 41bd 204b a63e
00000170: 66e2 a33e a855 58be f84b 88be 3067 973e
00000180: 8320 343e 02c5 1fbe 2ade 383e 29ec a9be
00000190: f31f fcbd 1a84 0fbe a016 213d b051 c53e
000001a0: b5c8 d8bd 058b c73d 5066 0fbe 4f6c 903e
000001b0: c7ee 503e 6e9f bcbd 7bb5 bf3e d480 44be
000001c0: 62be 503d f230 623e 1f81 b4bd e061 d1be
000001d0: c9e5 013d 92e7 77be d6ca 7e3e f50e ee3e
000001e0: 9627 733e 5265 963e c899 5bbe 5693 b0be
000001f0: 5ad7 e03d 7e57 5cbe 5e8c e93d 84ff e3bd
00000200: f491 11bf 0efc c63d c596 15bc 1328 babe
00000210: 904f e83d 0610 923b fc20 81be e7ed 0bbe
00000220: 70c0 003e 55bb 98be 2e75 3ebe 0bd3 2fbe
00000230: aa2d 43be 0cdc 3abe d0d3 3e3e 1ee2 d1bd
00000240: 1616 8cbe b0d5 763e ac11 a7be cb7e 38be
00000250: 6fb2 aabd b39c 9dbe bff7 e9bc 5504 8ebe
00000260: 17b7 de3d 4e8c 06be ac35 2e3e f3a8 b23e
00000270: 6ca0 31be b5f6 12be d5fc 19be 37de ffbd
00000280: d89e 833e 8410 d9be 0090 11be 22cb 2cbe
00000290: 4176 163e a8a8 9d3e 8b03 8d3e ab75 dabe
000002a0: 8d1e f73d a570 b8be aef1 8bbe cc83 963d
000002b0: b7be e23d a659 45bb 35d8 5f3d 882a 6e3d
000002c0: 369f 513d 7582 e0be 228d 74be 8ca1 1dbd
000002d0: 9dd7 c2be 6ac4 1c3e a07e 043e 6af9 ca3d
000002e0: 5891 72be ee0f 293e eb0a 963e ba6e 9b3e
000002f0: 118c e5bd d404 9cbd dbe9 8ebe ccdb cb3e
00000300: 4fcb 6bbe 4ec9 97be db79 143d 9805 4bbe
00000310: e276 743e 9fd8 473e a60a a5bd d4b2 86bc
00000320: de36 47be 6d7b ed3d 4111 1a3e 1769 95be
00000330: 04ea 49be 9a79 883e 609e 47be 0de2 bd3e
00000340: 83ca 36be 12cf 2fbe 73af b8be a349 ae3e
00000350: 5d1c c1be 06a1 18bd 9e71 733d ff07 d53d
00000360: 637f 54be 57df b1bd 5426 31be dfd8 52bd
00000370: 496c 18be 7761 babe 6596 3a3e 0e2e 52be
00000380: 48a7 3fbe c055 8b3e 688d 1dbf 789d 673e
00000390: bb3c 933e 4646 183e ac47 e33d 075a 663e
000003a0: 1ced cbbc 2a49 02bf f527 c9bd 79e4 af3e
000003b0: 4913 9bbb 7fb8 a73e ba35 4ebd 3cb1 edbd
000003c0: cea6 16be 4fe5 dcbd 6eb1 85be 9e81 e3bd
000003d0: bf11 e83e 0de0 8d3e 2a68 cf3e 3480 8bbd
000003e0: c734 913e 7b3d 933e 7b21 b13e 9ae8 a03e
000003f0: ce5b 89be c201 9e3e 4b27 a03e 3990 9b3e
0.3004991 -0.3465071 0.17439133 0.2359935 -0.21113656 0.17084897 0.22830065 0.09668422
0.26416847 -0.04600385 0.29810366 0.11245619 0.112682626 0.16952783 -0.35653663 0.108334616
-0.1556433 -0.35627043 -0.2914347 -0.03469091 0.028346227 -0.27823824 0.246038 0.047591653
0.02977273 -0.12963614 0.02193686 0.38383603 -0.034275558 0.3389966 -0.47344777 -0.022087816
-0.3402986 0.1877393 0.36043417 0.01986945 0.1401149 0.24400087 -0.2851526 0.077346705
-0.33852443 -0.099359736 0.13131872 -0.26044747 0.12714095 -0.23010299 -0.13682453 -0.36504945
-0.22799915 0.020682113 0.10574809 -0.33397388 -0.30945402 0.18086046 0.2044788 0.3579977
-0.1447026 0.18391779 0.4014417 0.14651838 -0.28054696 0.3928358 0.13788997 -0.17233887
-0.29886657 0.28368592 -0.08656799 -0.22791815 -0.19700317 0.122116886 0.16530234 0.37941056
-0.07139951 0.36425087 0.38838205 -0.05504242 -0.4141695 0.093754314 -0.030322881 0.026274672
-0.221943 -0.70860773 0.40774527 -0.28208244 0.15818296 -0.36833045 0.35557404 -0.1782875
0.35424906 -0.27533785 -0.047300905 0.3247919 0.32008666 -0.21126425 -0.2662046 0.29570913
0.17590527 -0.15602496 0.18053499 -0.33187988 -0.12310781 -0.14015236 0.039328218 0.38538885
-0.10585157 0.09743313 -0.14003873 0.28207633 0.20403586 -0.09210096 0.37443146 -0.19189769
0.050962813 0.22088984 -0.088136904 -0.40894985 0.03171328 -0.24209431 0.24882063 0.46495786
0.2374557 0.29374176 -0.21445382 -0.34487408 0.10978575 -0.2151775 0.11403726 -0.1113272
-0.5686333 0.09716044 -0.009130185 -0.363587 0.113433 0.0044574765 -0.25220478 -0.13664971
0.12573409 -0.29830423 -0.18599388 -0.1717035 -0.19060388 -0.18248004 0.18635488 -0.102482066
-0.273606 0.24104953 -0.3263067 -0.18017118 -0.08334815 -0.30783615 -0.028560517 -0.2773768
0.10874765 -0.1313946 0.17012662 0.34894523 -0.17346352 -0.14351924 -0.15037854 -0.12493556
0.25707126 -0.42395413 -0.14215088 -0.16874364 0.14693548 0.30792737 0.27541766 -0.426679
0.12066374 -0.3602344 -0.27332824 0.07349357 0.11071532 -0.003011325 0.05464955 0.05814603
0.051177226 -0.4384953 -0.23881963 -0.03848414 -0.38055125 0.15309301 0.12938929 0.09910853
-0.23688257 0.16509983 0.29305205 0.30357915 -0.11208356 -0.076181084 -0.27912793 0.3981613
-0.23026775 -0.2964577 0.036249023 -0.19826353 0.23873475 0.19516228 -0.08058672 -0.016442694
-0.19454524 0.11595807 0.15045644 -0.2918174 -0.19718176 0.26655275 -0.19494009 0.37086526
-0.1785069 -0.17168835 -0.36071357 0.34040555 -0.37716952 -0.03726294 0.059434526 0.10401916
-0.20751719 -0.08685177 -0.17299777 -0.051476356 -0.14885058 -0.36402485 0.18221433 -0.20525381
-0.18716156 0.2721386 -0.61543894 0.22618663 0.2875727 0.14870557 0.11097655 0.2249528
-0.024893336 -0.5089289 -0.09822074 0.34353998 -0.0047325236 0.32757947 -0.050344206 -0.116060704
-0.14712068 -0.10785925 -0.2611193 -0.11108707 0.4532604 0.2771 0.40509158 -0.06811562
0.28360578 0.28757843 0.34595856 0.3142746 -0.26827854 0.30860716 0.31279978 0.3038347

fc1.bias f4 [128]
00000000: 334a 82be ee91 ab3d ad3f d33d d2ba bfbd
00000010: ec51 a83e 3307 aebe 4072 203d 6ed0 5b3e
00000020: d99d 5fbc 5be1 7fbd 1a6e 333e 3982 973d
00000030: 3fa2 c4be d03d 6cbd f8c2 72be 715c 7fbe
00000040: 6bcb 04be db56 93be 2feb 773e 9b05 883d
00000050: 2c60 5ebe 273f 9abd c839 5f3e 4d70 0a3d
00000060: 96aa ecbd 8a0e 603e ecf3 b13e c091 b73e
00000070: 4ab6 663d c206 703e f74f 61be 0e75 b1be
00000080: 9ffe f3bc da9b b83d 7f61 393c 2a82 b73e
00000090: 5d1e 933e 39db 543e d6b4 5b3d aefa 513c
000000a0: 39a7 af3e 54b1 883e a140 303c 7030 ce3e
000000b0: 7381 c2bd f777 783e 5700 693e 7ca8 473d
000000c0: 623d a9be 5f05 053e 5037 043c 7f08 bdbe
000000d0: d2cf 51be e7ac ddbe 2ef0 3abd 143a cf3d
000000e0: 4028 8dbe f603 a7be 90c6 c0be 3551 b43e
000000f0: d7f3 f83d 45db 5fbe 65ba adbd 9e13 65bd
00000100: 0fbd a5bd ec27 503e 846e 90bd 1ae1 25be
00000110: 5c20 1abe 76eb cbbd 7359 7b3e e50d 893c
00000120: c136 2cbe a75e 04bc f01b 093e 6fa8 afbe
00000130: d15b 483e c0ec 673d 9387 c83d b7be 1bbe
00000140: 0acb 8f3e 7df5 ecbd fe3a 8f3e 66a7 9ebe
00000150: d7e2 e5bc 51f3 9e3e f245 2fbe b8ba 61be
00000160: 6f99 c23e d08f 973d d35f 5dbd e48a 76be
00000170: bb66 ad3e f4be be3e dd18 6ebd e521 563e
00000180: 148f babe bec8 a63e c397 f13d 2a5e f2bc
00000190: ab9a 0c3e 1cbd bb3e ce44 663e a2ff a4bd
000001a0: 1580 0d3e eb8b 00be f79f 4bbe b430 913e
000001b0: ac48 843e 6581 8ebe 1427 27be 33d1 983e
000001c0: 375a 9c3e 8fc2 6b3e 1cbe b53e 5317 abbe
000001d0: 886e 4e3b 8f36 53bd 4bc1 903e 5da9 9cbd
000001e0: be6b cc3d a6c6 6ebc 9383 3dbe 28ae bb3d
000001f0: a33b 62be 5d3a 4dbe 880b a93e 19a4 94be
-0.25447235 0.08377443 0.103148796 -0.09361805 0.32875 -0.33989868 0.039171457 0.21466228
-0.013648474 -0.062470775 0.17522469 0.07397885 -0.38405034 -0.057676136 -0.23707187 -0.24937607
-0.12968223 -0.28777203 0.24210809 0.06641694 -0.21716374 -0.075315766 0.21799386 0.033798505
-0.11555974 0.21880546 0.3475641 0.35853386 0.05632619 0.23440078 -0.2200316 -0.34659618
-0.029784499 0.09014101 0.011314749 0.35841495 0.28734103 0.20786752 0.053639255 0.012816114
0.34307268 0.2669779 0.010757596 0.4027133 -0.09497347 0.24264513 0.22754036 0.048744664
-0.33054644 0.1299033 0.008069828 -0.36920545 -0.20489433 -0.43295977 -0.04563921 0.101184994
-0.2756977 -0.3262021 -0.3765149 0.35218206 0.12155884 -0.21860988 -0.084828176 -0.05592691
-0.08092701 0.20327729 -0.07052329 -0.1619915 -0.15051407 -0.0995702 0.24545841 0.016730258
-0.16817762 -0.0080792075 0.13389564 -0.34308192 0.19566275 0.056622267 0.09791484 -0.1520947
0.28084594 -0.11570261 0.27974695 -0.3098709 -0.028062267 0.3104501 -0.17116526 -0.22043884
0.38007686 0.07400477 -0.054046463 -0.2407642 0.3386744 0.3725506 -0.05812918 0.20911367
-0.36437285 0.3257503 0.117965244 -0.029585917 0.13730876 0.36667717 0.22487184 -0.080565706
0.1381839 -0.12553374 -0.1988524 0.2835747 0.25836694 -0.27833095 -0.16323501 0.29847106
0.30537578 0.23023437 0.35496604 -0.33416232 0.0031498987 -0.051565703 0.2827247 -0.07649491
0.09981488 -0.014573729 -0.18507223 0.09164077 -0.22093062 -0.20041795 0.3301661 -0.29031447

fc2.weight f4 [128, 128]
00000000: c19e 493e 5b03 04bc 88ad 0abb b71b 253b
00000010: e771 02bd 1efd 4fbd 007f 94bd 9807 413b
00000020: e160 053c 201b 3e3d 7af0 52bd 3711 0f3e
00000030: 2d0e f5bc 45b8 883d 8ef0 d73b 04ce a63d
00000040: dbe6 ac3c 37e4 cc3d c874 283d 15e8 d3bc
00000050: 06e5 033d bfed 6b3c a854 bfbc e259 57bd
00000060: 5be2 ccbd 3614 d0bd a946 9d3d 7800 993d
00000070: d522 ab3d 3fdd 3fbd eb38 533d 61b7 e0bb
00000080: 937d 83bd 5a3a c3bc 7f29 24bd b21b 42bd
00000090: a082 b83d 4e84 733d bf84 233e fe17 00bc
000000a0: 39ad 023e 2022 c4bb 73fa 5e3d f0e9 013e
000000b0: 38f2 273d b6f2 dd3c 2b31 2abd db82 893a
000000c0: 22df ba3b 80c6 83bd 5f17 b7bd c59d 1cbd
000000d0: ceb8 a53d f909 073d 4511 cf3d 1053 94bb
000000e0: 55df c63a bd4e 3cbd 13fb 383d 66dd 1b3c
000000f0: 88e7 b43d 3842 04be adc1 6dbd e3b9 d53d
00000100: 4f71 f1bd 2bb6 293c cc24 c53c 0648 303e
00000110: 96a9 b0bd c861 733d 8f8f 71bc 4cf0 28bd
00000120: dcf1 7b3b bbae 9ebd 7547 71bd ffd8 3b3e
00000130: 2134 503d 32e3 1d3e da35 c13d 830c 45bd
00000140: e312 7cbb 42b9 3dbe 506a 593d 27ba 0e3d
00000150: 6b9e 333e 6192 143d e17e 073d 9787 4f3d
00000160: 7e07 bd3d 2850 dc3d 2274 ff3c 5d5f 2a3c
00000170: faa2 803d f563 6abc baaa 49bd e647 9a3d
00000180: 7762 463d b74c 11bd 3f91 8a3c ba63 583b
00000190: 1c61 03be 7018 05bd ba3c 413e 61ea 7c3d
000001a0: 2cc6 c0bd 9112 3bbd dc6f a33d b29b d43c
000001b0: 8092 fb3d f544 d43d b6f9 dc3d 3ebc 2fbd
000001c0: d576 c9bd a129 843c 9c8c 433e 003a b8bd
000001d0: 0adf 63bd 2eb0 8a3d d0a6 1e3d 0f6d 753b
000001e0: 32f3 88bd 08c6 a53d aa62 293e b85a 8c3d
000001f0: 6d30 fdbd 988b 1cbd 129e ef3d 0b6c 4e3d
00000200: 194f e7bd 05d5 3f3d d144 343d 69e1 6d3d
00000210: 2042 dabd 3104 acbd 63a3 b4bd ec89 3cbd
00000220: 69bc 60bd 9ff4 b43d 40f2 8d3d 4c4d 9fbc
00000230: 8a2b b0bd 8083 6b3d 37ae f6bd 8254 c43d
00000240: bcf6 ab3d 6454 e3bc 252d b13d 8e94 843d
00000250: a4c8 693d 5ca6 91bc e62d 14be 5ff4 9b3c
00000260: bd98 7a3b c3e9 7ebd 0359 a43c ea95 0f3d
00000270: b1cd 19bd 6889 083e 9d2a 89bc 0223 cdbc
00000280: 3d09 9bbd 44f6 81bc 64b9 0bbe 4eef d73d
00000290: 845c c3bc 39b2 533e b5ab 09be d1a6 bcbc
000002a0: db13 2c3e 3415 e03d 41d3 bf3c 2ba5 a8bd
000002b0: 47bc b43d 5f85 823d eb6c fe3b 2908 e4bb
000002c0: 1944 49bd 4a1e a7bd 9b62 0bbe 661b a93d
000002d0: 31e9 a83d 8532 903d 1a09 f9bb cbe4 0c3e
000002e0: b0c9 84bd f2c3 b33d 0896 aa3d 8576 bd3d
000002f0: 7070 de3c 7bd6 593e dba9 143e 303b a03d
00000300: b094 2b3e 4fab c03c b3bc a5bd 780e 103e
00000310: 7624 483d 8caa 013e 39b2 b83d 41c1 a9bd
00000320: 656d 673d b690 db3e 2775 433c 9057 b6bd
00000330: 327e 4c3d 5c1b 9dbd 0b5d 69bd 7f94 c5bb
00000340: 7ede 6fbd 3cb8 713e 6695 8bbd bf3c 02bb
00000350: 9580 35be 6c94 d73c 27d7 5abd 5a35 abbd
00000360: b7af c7bc f8e8 a03c c919 7e3c d332 94bd
00000370: 1b7e ba3d 050e c43c fe8a 96bd ba34 1bbc
00000380: 13b8 dabb 94b5 8b3d 01bd 663d 468e 603d
00000390: 7b79 dcbd e21f 0cbd 73f1 eb3b 3bf2 343e
000003a0: 8ee7 573e 6133 71bc eafb 4e3d e517 183d
000003b0: 6e22 9b3d 4959 74be f0a8 183d b009 12be
000003c0: 989b 873d 3228 8bbd bf87 353b 6015 b5bd
000003d0: 524d cabc 2ac6 31bd c980 4d3d 10f8 1ebb
000003e0: 82aa 36bd 7b11 3f3d 6868 1cbd 51ce 7e3d
000003f0: 226c dbbd 7568 833d b24e fb3c bdaf 65bd
0.19689466 -0.008057441 -0.0021160562 0.0025193521 -0.031846907 -0.0507785 -0.07250786 0.002945399
0.0081407735 0.046412587 -0.051498868 0.1397141 -0.029913986 0.066757716 0.0065899557 0.08144763
0.021106174 0.10004466 0.041126996 -0.025867501 0.032200836 0.014399945 -0.023355797 -0.052575953
-0.100041114 -0.10160105 0.07679493 0.074707925 0.08356253 -0.046841856 0.051567953 -0.006857798
-0.06420436 -0.023831535 -0.040078636 -0.047389694 0.0900929 0.059452347 0.15968607 -0.00781822
0.12761392 -0.0059855133 0.054438066 0.12686896 0.041002482 0.027093273 -0.041550796 0.0010491268
0.005702869 -0.06434345 -0.089400046 -0.0382364 0.08091889 0.032968495 0.10110716 -0.0045265034
0.0015172759 -0.04597353 0.045161318 0.009513235 0.088332236 -0.12915885 -0.05804603 0.10435846
-0.1178919 0.010358374 0.024065398 0.17214975 -0.08626096 0.059419423 -0.0147437 -0.04124479
0.003844372 -0.07748171 -0.058906037 0.18344496 0.050830964 0.154187 0.094340995 -0.048107635
-0.0038463406 -0.18527701 0.053079903 0.034845497 0.175409 0.03627241 0.033079986 0.050666418
0.09229945 0.10757476 0.031183306 0.010398713 0.06281085 -0.014306058 -0.049235083 0.07533245
0.048433747 -0.03547355 0.016914962 0.0033018426 -0.12830013 -0.03249401 0.18870822 0.06174696
-0.09412798 -0.045672003 0.0798032 0.025953148 0.12283802 0.10364715 0.10789816 -0.04290413
-0.098371185 0.016133131 0.19096607 -0.089954376 -0.05563263 0.06771885 0.038733304 0.0037449037
-0.06687011 0.08094412 0.16541544 0.06853241 -0.12362752 -0.038219064 0.117000714 0.050396007
-0.112943836 0.04683401 0.04401094 0.058076296 -0.106571436 -0.08399237 -0.08820226 -0.04602997
-0.054867182 0.0883572 0.06930971 -0.019446038 -0.086020544 0.057498455 -0.120449476 0.09586431
0.0839667 -0.027750202 0.08651189 0.06473647 0.05707611 -0.017779522 -0.14470634 0.019037424
0.0038238012 -0.06223465 0.020061975 0.03505508 -0.03754968 0.13333666 -0.016743952 -0.025041107
-0.075701214 -0.015864499 -0.1364494 0.105436906 -0.023847826 0.20673455 -0.13444407 -0.023028763
0.1680445 0.10941544 0.023416163 -0.08234628 0.088249736 0.06373095 0.007764449 -0.0069589806
-0.04913721 -0.08160074 -0.13611834 0.08257179 0.08247603 0.07040886 -0.007599962 0.13759153
-0.06483781 0.08777608 0.083293974 0.092511214 0.027153224 0.21273224 0.1451792 0.07823789
0.16755939 0.023519186 -0.08092632 0.1406802 0.048862897 0.12662715 0.09018368 -0.082888134
0.05650081 0.42883843 0.011929787 -0.0890342 0.049925037 -0.07671234 -0.0569735 -0.006029665
-0.058561794 0.23605436 -0.06815605 -0.0019872633 -0.17724831 0.02631589 -0.05342784 -0.083597854
-0.02437578 0.019642338 0.015509077 -0.072362565 0.09106084 0.023932466 -0.073507294 -0.00947302
-0.0066747754 0.06821743 0.056332592 0.054823183 -0.10765358 -0.034210093 0.007200414 0.17670529
0.21084425 -0.014721722 0.050533213 0.037132163 0.07574926 -0.23862185 0.037270486 -0.14261508
0.06621474 -0.06794776 0.002769932 -0.088419676 -0.024695072 -0.043401875 0.050171647 -0.0024256743
-0.044596203 0.04664753 -0.038185507 0.062208477 -0.10713984 0.06416408 0.030677173 -0.0560758
