flappybird_dqn_ep60.pth (torch, 561683 bytes, 32 tensors)

fc1.weight f4 [128, 7]
0.29494548 -0.3441323 0.1709232 0.23690781 -0.2033686 0.16723871 0.2263047 0.09780281
0.25724968 -0.04610349 0.29944322 0.11462253 0.11399815 0.17527117 -0.35653663 0.108334616
-0.1556433 -0.35627043 -0.2914347 -0.03469091 0.028346227 -0.27676693 0.23874429 0.050090037
0.030630047 -0.12853095 0.02421684 0.38338193 -0.041548043 0.3370984 -0.47934186 -0.022663044
-0.33761486 0.18382604 0.3580245 0.01986945 0.1401149 0.24400087 -0.2851526 0.077346705
-0.33852443 -0.099359736 0.13131872 -0.26044747 0.12714095 -0.23010299 -0.13682453 -0.36504945
-0.22799915 0.018627856 0.09694512 -0.33458444 -0.30954704 0.18853416 0.20391428 0.35591778
-0.1518187 0.18469946 0.3960094 0.14053048 -0.28425744 0.38584659 0.13108559 -0.17233887
-0.29886657 0.28368592 -0.08656799 -0.22791815 -0.19700317 0.122116886 0.16332243 0.37844682
-0.07855462 0.36078173 0.3852354 -0.059741046 -0.41484353 0.0878617 -0.00067137385 0.019605042
-0.22635913 -0.7139676 0.40158203 -0.2905934 0.17295703 -0.36833045 0.37036067 -0.16351604
0.36903465 -0.2605512 -0.032526065 0.3263818 0.32038477 -0.21412496 -0.2662351 0.29513475
0.17561366 -0.1551041 0.179144 -0.3328508 -0.12437005 -0.14062475 0.040088646 0.38481712
-0.10475569 0.09106663 -0.14092904 0.28081462 0.20135385 -0.09144433 0.37126213 -0.19039282
0.050962813 0.22088984 -0.088136904 -0.40894985 0.03171328 -0.24209431 0.24882063 0.4582439
0.29103968 0.2864981 -0.2215296 -0.3543546 0.10257447 -0.2243655 0.11825363 -0.11252518
-0.54702914 0.100313455 -0.007030379 -0.3596624 0.1196974 0.0044574765 -0.25220478 -0.13664971
0.12573409 -0.29830423 -0.18599388 -0.1717035 -0.19060388 -0.18248004 0.18635488 -0.102482066
-0.273606 0.24104953 -0.3263067 -0.18017118 -0.08334815 -0.30783615 -0.028560517 -0.2773768
0.10874765 -0.1313946 0.16460733 0.34768632 -0.1769125 -0.14312394 -0.14733244 -0.12721197
0.25358853 -0.4118312 -0.14629059 -0.17234638 0.15213422 0.31009242 0.28001657 -0.40683138
0.12142237 -0.3624393 -0.2561281 0.073803104 0.11090787 -0.0013093683 0.062020518 0.05689975
0.049317617 -0.426435 -0.23878829 -0.037798136 -0.3805603 0.15401895 0.12783304 0.09301354
-0.2412354 0.16912298 0.29991546 0.30355206 -0.10778776 -0.07692 -0.27790466 0.39596975
-0.22942527 -0.29560733 0.035535663 -0.198761 0.2360587 0.19725782 -0.08365205 -0.015801737
-0.19208029 0.11421986 0.14832331 -0.28358275 -0.19949494 0.27239943 -0.19124408 0.36333278
-0.17337973 -0.1598675 -0.36071357 0.34040555 -0.37716952 -0.03726294 0.059434526 0.10401916
-0.20751719 -0.08685177 -0.17299777 -0.051476356 -0.14885058 -0.36402485 0.18221433 -0.20525381
-0.1800097 0.2710808 -0.5892613 0.23022111 0.28976738 0.15365452 0.12070056 0.22531134
-0.026573885 -0.50622183 -0.09636508 0.3456416 -0.0026415682 0.33109123 -0.05318342 -0.1229355
-0.14835168 -0.105947115 -0.2531316 -0.11127926 0.45164478 0.27604133 0.39290643 -0.06913519
0.2850511 0.29554504 0.34621993 0.31576425 -0.26712203 0.30718982 0.3131022 0.30214056
00000000: 1803 973e 1c32 b0be 7e06 2f3e f697 723e
00000010: dc3f 50be a040 2b3e 6bbc 673e d74c c83d
00000020: 3bb6 833e 03d7 3cbd 9f50 993e 38bf ea3d
00000030: dd77 e93d 497a 333e f88b b6be 8ade dd3d
00000040: f560 1fbe 1469 b6be ee36 95be 0e18 0ebd
00000050: 5936 e83c 65b4 8dbe 6279 743e 362b 4d3d
00000060: ddeb fa3c 9e9d 03be 6562 c63c a34a c43e
00000070: 482e 2abd 2998 ac3e 4c6c f5be d9a7 b9bc
00000080: dbdb acbe e53c 3c3e fd4e b73e 42c5 a23c
00000090: 487a 0f3e 5ddb 793e 86ff 91be f367 9e3d
000000a0: 1353 adbe 1e7d cbbd 6a78 063e 5f59 85be
000000b0: 3d31 023e 1ea0 6bbe bb1b 0cbe c3e7 babe
000000c0: 9c78 69be 7299 983c 2a8b c63d a74e abbe
000000d0: f37c 9ebe 190f 413e e8ce 503e db3a b63e
000000e0: 5c76 1bbe db21 3d3e bec1 ca3e 39e7 0f3e
000000f0: 318a 91be af8d c53e 4d3b 063e 9a79 30be
00000100: 0a05 99be 483f 913e 8f4a b1bd 6063 69be
00000110: 33bb 49be 6b18 fa3d ff3d 273e c8c3 c13e
00000120: 3fe1 a0bd 62b8 b83e 933d c53e 07b3 74bd
00000130: 5f66 d4be d6f0 b33d 23ff 2fba c19a a03c
00000140: b0ca 67be 95c6 36bf 299c cd3e a8c8 94be
00000150: a61b 313e cf95 bcbe ea9f bd3e c070 27be
00000160: 1cf2 bc3e f866 85be 0d3a 05bd 841b a73e
00000170: 7909 a43e 9343 5bbe f84f 88be e71b 973e
00000180: 11d4 333e 9cd3 1ebe 8671 373e 6c6b aabe
00000190: bab5 febd efff 0fbe fe33 243d c006 c53e
000001a0: 278a d6bd 2481 ba3d b44f 10be efc6 8f3e
000001b0: b42f 4e3e 2a47 bbbd 1216 be3e 56f6 42be
000001c0: 62be 503d f230 623e 1f81 b4bd e061 d1be
000001d0: c9e5 013d 92e7 77be d6ca 7e3e f29e ea3e
000001e0: 2703 953e e1af 923e a8d8 62be f76d b5be
000001f0: 9012 d23d 12c0 65be f62e f23d 9a73 e6bd
00000200: 1a0a 0cbf 2471 cd3d 185f e6bb ac25 b8be
00000210: e923 f53d 0610 923b fc20 81be e7ed 0bbe
00000220: 70c0 003e 55bb 98be 2e75 3ebe 0bd3 2fbe
00000230: aa2d 43be 0cdc 3abe d0d3 3e3e 1ee2 d1bd
00000240: 1616 8cbe b0d5 763e ac11 a7be cb7e 38be
00000250: 6fb2 aabd b39c 9dbe bff7 e9bc 5504 8ebe
00000260: 17b7 de3d 4e8c 06be d38e 283e f103 b23e
00000270: 8d28 35be 158f 12be 51de 16be db43 02be
00000280: 5bd6 813e 8adb d2be 33cd 15be 927b 30be
00000290: 13c9 1b3e 6fc4 9e3e 555e 8f3e 344c d0be
000002a0: 4bac f83d a591 b9be 3923 83be 1526 973d
000002b0: aa23 e33d 1c9f abba 3a09 7e3d b60f 693d
000002c0: 4501 4a3d b055 dabe eb84 74be 38d2 1abd
000002d0: cdd8 c2be 25b7 1d3e aae6 023e e27d be3d
000002e0: 6a06 77be 932e 2d3e 858e 993e 2d6b 9b3e
000002f0: d4bf dcbd 3c88 9dbd 8549 8ebe 8cbc ca3e
00000300: 75ee 6abe d859 97be d88d 113d 0188 4bbe
00000310: 5fb9 713e f4fd 493e c451 abbd a572 81bc
00000320: b2b0 44be 1aec e93d 11e2 173e c231 91be
00000330: 6748 4cbe f077 8b3e 7dd5 43be c106 ba3e
00000340: 758a 31be 4eb4 23be 73af b8be a349 ae3e
00000350: 5d1c c1be 06a1 18bd 9e71 733d ff07 d53d
00000360: 637f 54be 57df b1bd 5426 31be dfd8 52bd
00000370: 496c 18be 7761 babe 6596 3a3e 0e2e 52be
00000380: 7654 38be 1acb 8a3e d4d9 16bf 15bf 6b3e
00000390: 645c 943e 9c57 1d3e db31 f73d 04b8 663e
000003a0: 7ab1 d9bc c197 01bf 0e5b c5bd f0f7 b03e
000003b0: 291e 2dbb ca84 a93e dcd6 59bd 9cc5 fbbd
000003c0: 81e9 17be cdfa d8bd 779a 81be 61e6 e3bd
000003d0: fc3d e73e 4a55 8d3e 082b c93e c096 8dbd
000003e0: 38f2 913e ae51 973e bd43 b13e daab a13e
000003f0: 38c4 88be fc47 9d3e ee4e a03e 2bb2 9a3e

fc1.bias f4 [128]
-0.2548332 0.085688084 0.103148796 -0.09214321 0.3269028 -0.33989868 0.039171457 0.21482615
-0.019378182 -0.062470775 0.17217478 0.06807342 -0.3692637 -0.05756878 -0.2377223 -0.25156504
-0.12968223 -0.29489872 0.2451405 0.06641694 -0.21716374 -0.075315766 0.21707222 0.038184274
-0.1152475 0.21882585 0.35084984 0.3586471 0.056120906 0.23897244 -0.2200316 -0.34659618
-0.026043523 0.09192885 0.012081918 0.35996515 0.286759 0.2034247 0.052479964 0.015809288
0.340686 0.268066 0.004992947 0.40470955 -0.08716624 0.24813683 0.23023693 0.05011008
-0.33054644 0.1299033 0.0057892273 -0.36920545 -0.20489433 -0.4316859 -0.0457616 0.100209765
-0.2756977 -0.3262021 -0.3765149 0.35660508 0.121833116 -0.21656573 -0.083193354 -0.05650976
-0.076107934 0.20532157 -0.07052329 -0.1616029 -0.15051407 -0.1003286 0.24496263 0.018040722
-0.16817762 -0.0069194715 0.1333612 -0.3500435 0.19885483 0.04897884 0.09737516 -0.1520947
0.2879884 -0.1100127 0.2811677 -0.3098709 -0.031534087 0.30999094 -0.17116526 -0.22160381
0.380247 0.074220076 -0.055557206 -0.2407642 0.33865875 0.37656245 -0.05812918 0.20599025
-0.36437285 0.3279442 0.12163205 -0.030594707 0.13529949 0.36790958 0.22127543 -0.07873158
0.13177313 -0.1305879 -0.19885607 0.28152925 0.25742972 -0.2786121 -0.16526657 0.29956666
0.2948672 0.2330238 0.354063 -0.33450148 0.0031498987 -0.051565703 0.2838009 -0.07777481
0.10205277 -0.014573729 -0.1859024 0.09518252 -0.22060142 -0.19697696 0.32961765 -0.29031447
00000000: 7f79 82be 3c7d af3d ad3f d33d 94b5 bcbd
00000010: ce5f a73e 3307 aebe 4072 203d 63fb 5b3e
00000020: febe 9ebc 5be1 7fbd 964e 303e 146a 8b3d
00000030: 2210 bdbe 3ecd 6bbd 7a6d 73be 22cd 80be
00000040: 6bcb 04be f7fc 96be 1c06 7b3e 9b05 883d
00000050: 2c60 5ebe 273f 9abd 2e48 5e3e 1d67 1c3d
00000060: e206 ecbd e213 603e 97a2 b33e 98a0 b73e
00000070: 09df 653d 31b5 743e f74f 61be 0e75 b1be
00000080: 3a59 d5bc 3145 bc3d 3df3 453c 5a4d b83e
00000090: 13d2 923e 914e 503e 3bf5 563d 7b82 813c
000000a0: 656e ae3e f23f 893e e09b a33b 1736 cf3e
000000b0: 3784 b2bd 9517 7e3e 3bc3 6b3e 3a40 4d3d
000000c0: 623d a9be 5f05 053e 8fb3 bd3b 7f08 bdbe
000000d0: d2cf 51be ef05 ddbe 8470 3bbd c73a cd3d
000000e0: 4028 8dbe f603 a7be 90c6 c0be f194 b63e
000000f0: a483 f93d 68c3 5dbe 4761 aabd c776 67bd
00000100: 7ade 9bbd d13f 523e 846e 90bd 3b7b 25be
00000110: 5c20 1abe 1579 cdbd 7cd7 7a3e 23ca 933c
00000120: c136 2cbe bcbc e2bb d78f 083e e738 b3be
00000130: 9aa0 4b3e 099e 483d a16c c73d b7be 1bbe
00000140: 3773 933e 574e e1bd 36f5 8f3e 66a7 9ebe
00000150: e329 01bd 22b7 9e3e f245 2fbe 1cec 62be
00000160: bcaf c23e b200 983d f48f 63bd e48a 76be
00000170: ae64 ad3e cbcc c03e dd18 6ebd 1cef 523e
00000180: 148f babe 4de8 a73e 391a f93d c0a1 fabc
00000190: f38b 0a3e a55e bc3e 0796 623e 063e a1bd
000001a0: 89ef 063e d6b8 05be eda0 4bbe 9a24 903e
000001b0: d4cd 833e 3fa6 8ebe a43b 29be cd60 993e
000001c0: d5f8 963e cb9d 6e3e bf47 b53e c743 abbe
000001d0: 886e 4e3b 8f36 53bd 5a4e 913e 6648 9fbd
000001e0: 0b01 d13d a6c6 6ebc 335d 3ebe 0eef c23d
000001f0: 57e5 61be 54b4 49be a5c3 a83e 19a4 94be

fc2.weight f4 [128, 128]
0.19165836 -0.009312461 -0.0021160562 0.0046924744 -0.03302246 -0.0507785 -0.07250786 0.0026027749
0.0043142196 0.046412587 -0.044067305 0.13256535 -0.01667638 0.070306875 0.0055507463 0.07725231
0.021106174 0.09247825 0.0427881 -0.025867501 0.032200836 0.014399945 -0.025464214 -0.05179585
-0.09943085 -0.09977464 0.07721321 0.07122148 0.079757035 -0.041538607 0.051567953 -0.006857798
-0.06289031 -0.021626301 -0.03381824 -0.048714038 0.08976255 0.07107033 0.15206502 -0.009773525
0.12513866 -0.0056964243 0.05019019 0.12392986 0.04301912 0.02581181 -0.0415677 0.003768643
0.005702869 -0.06434345 -0.084165975 -0.0382364 0.08091889 0.03413043 0.09953624 -0.0050150105
0.0015172759 -0.04597353 0.045161318 0.008077578 0.08332584 -0.120388485 -0.05040815 0.10296817
-0.096482396 0.008775294 0.024065398 0.17552531 -0.08626096 0.06266938 -0.01444058 -0.03929234
0.003844372 -0.06270693 -0.05798233 0.1755034 0.05149132 0.14931276 0.08799535 -0.048107635
-0.0024019864 -0.16414319 0.05355321 0.034845497 0.16695139 0.037858214 0.033079986 0.04421527
0.08886624 0.11194298 0.027454624 0.010398713 0.061906546 -0.0124085825 -0.049235083 0.07763803
0.048433747 -0.0350569 0.01885156 0.015849214 -0.124339595 -0.033029336 0.18281661 0.06649029
-0.08757612 -0.04392798 0.08429003 0.026197555 0.12793632 0.09700902 0.1033529 -0.045227792
-0.092271455 0.013707745 0.18682344 -0.08979936 -0.05563263 0.06771885 0.036495045 0.0052393996
-0.06707369 0.08094412 0.15814069 0.07043967 -0.12366587 -0.033610478 0.11297968 0.050396007
-0.109658636 0.046165686 0.04401094 0.06454845 -0.10200304 -0.08399237 -0.08820226 -0.045629736
-0.05536152 0.0883572 0.06442856 -0.018968025 -0.07199781 0.054276228 -0.12266837 0.0937158
0.0839667 -0.024810202 0.08889008 0.06473647 0.05707611 -0.017779522 -0.13646601 0.025036933
0.002746628 -0.057684723 0.01762839 0.033324048 -0.034532283 0.12720633 -0.016743952 -0.025041107
-0.074323244 -0.016504455 -0.12234483 0.104328535 -0.02788863 0.19787785 -0.12637946 -0.022037715
0.1651806 0.118770696 0.022541177 -0.0823088 0.084569305 0.062375765 0.007678063 -0.008583726
-0.04913721 -0.08160074 -0.13567972 0.08257179 0.08247603 0.07690321 -0.008799807 0.13302125
-0.06483781 0.08777608 0.083293974 0.09089065 0.02868333 0.2026989 0.15030864 0.0754121
0.1499252 0.024519632 -0.08092632 0.12526424 0.048862897 0.13057311 0.089334585 -0.08704598
0.05650081 0.41444114 0.011714605 -0.08341507 0.050536506 -0.07448584 -0.05416704 -0.006029665
-0.057109088 0.2212499 -0.06767096 -0.0019872633 -0.16643022 0.023285052 -0.05342784 -0.0751836
-0.02255048 0.031407077 0.014969308 -0.072362565 0.088323794 0.024373816 -0.073507294 -0.011997647
-0.0066747754 0.06940454 0.047211945 0.037650283 -0.10569387 -0.035556808 0.011971729 0.13117379
0.202516 -0.010523851 0.05821196 0.037544664 0.07307135 -0.22541367 0.03541853 -0.13691738
0.063796766 -0.06812609 0.002159078 -0.08735749 -0.024695072 -0.043401875 0.04726834 -0.0029815054
-0.044388432 0.04664753 -0.027732259 0.06451151 -0.11306281 0.056242634 0.03227864 -0.0560758
00000000: 1742 443e 4b93 18bc 88ad 0abb 54c3 993b
00000010: 8f42 07bd 1efd 4fbd 007f 94bd 5193 2a3b
00000020: 4c5e 8d3b 201b 3e3d eb7f 34bd 36bf 073e
00000030: e79c 88bc 0dfd 8f3d 09e3 b53b 7636 9e3d
00000040: dbe6 ac3c 3d65 bd3d 9342 2f3d 15e8 d3bc
00000050: 06e5 033d bfed 6b3c 549a d0bc e327 54bd
00000060: 67a2 cbbd a556 ccbd f621 9e3d 91dc 913d
00000070: a857 a33d 6324 2abd eb38 533d 61b7 e0bb
00000080: a3cc 80bd a429 b1bc ff84 0abd 5f88 47bd
00000090: 6ed5 b73d 528d 913d efb6 1b3e 2321 20bc
000000a0: 5924 003e 12a9 babb 3b94 4d3d f0ce fd3d
000000b0: d134 303d 4a73 d33c e542 2abd 56fb 763b
000000c0: 22df ba3b 80c6 83bd 365f acbd c59d 1cbd
000000d0: ceb8 a53d 5acc 0b3d a8d9 cb3d f554 a4bb
000000e0: 55df c63a bd4e 3cbd 13fb 383d d157 043c
000000f0: bda6 aa3d 3d8e f6bd c778 4ebd fae0 d23d
00000100: 9098 c5bd 40c6 0f3c cc24 c53c e8bc 333e
00000110: 96a9 b0bd ce58 803d 2f98 6cbc 01f1 20bd
00000120: dcf1 7b3b 7e6c 80bd e17e 6dbd 2ab7 333e
00000130: 90e8 523d 72e5 183e e836 b43d 830c 45bd
00000140: a56a 1dbb 2715 28be 9c5a 5b3d 27ba 0e3d
00000150: 4ef5 2a3e 3711 1b3d e17e 073d 121b 353d
00000160: 81ff b53d 5c42 e53d 85e8 e03c 5d5f 2a3c
00000170: b891 7d3d 5e4d 4bbc baaa 49bd b000 9f3d
00000180: 7762 463d d397 0fbd 966e 9a3c 36d6 813c
00000190: c2a5 febd c549 07bd 4734 3b3e 102c 883d
000001a0: 1c5b b3bd d3ed 33bd 40a0 ac3d 419c d63c
000001b0: bd01 033e aaac c63d afaa d33d c740 39bd
000001c0: d1f8 bcbd 7396 603c a54e 3f3e bae8 b7bd
000001d0: 0adf 63bd 2eb0 8a3d d47b 153d 45af ab3b
000001e0: ee5d 89bd 08c6 a53d a2ef 213e ac42 903d
000001f0: 8844 fdbd 24ab 09bd e461 e73d 0b6c 4e3d
00000200: b594 e0bd 3b18 3d3d d144 343d fa31 843d
00000210: f8e6 d0bd 3104 acbd 63a3 b4bd 3fe6 3abd
00000220: c3c2 62bd 9ff4 b43d 1ff3 833d d562 9bbc
00000230: 9673 93bd c050 5e3d 8e39 fbbd 12ee bf3d
00000240: bcf6 ab3d c43e cbbc 010c b63d 8e94 843d
00000250: a4c8 693d 5ca6 91bc bfbd 0bbe 411a cd3c
00000260: c500 343b d146 6cbd 6a69 903c cc7e 083d
00000270: b971 0dbd 6042 023e 9d2a 89bc 0223 cdbc
00000280: c936 98bd 5a34 87bc ed8f fabd 33aa d53d
00000290: b276 e4bc 7ea0 4a3e 9e69 01be 7088 b4bc
000002a0: 1a25 293e 0d3e f33d 46a8 b83c 8491 a8bd
000002b0: ac32 ad3d bb7d 7f3d 4398 fb3b c2a2 0cbc
000002c0: 1944 49bd 4a1e a7bd a0ef 0abe 661b a93d
000002d0: 31e9 a83d 6e7f 9d3d 112d 10bc b936 083e
000002e0: b0c9 84bd f2c3 b33d 0896 aa3d e124 ba3d
000002f0: 4ef9 ea3c 4d90 4f3e 82ea 193e a971 9a3d
00000300: fe85 193e 65dd c83c b3bc a5bd 4545 003e
00000310: 7624 483d f5b4 053e 0df5 b63d 2a45 b2bd
00000320: 656d 673d a131 d43e 9dee 3f3c 85d5 aabd
00000330: 5eff 4e3d 088c 98bd 42de 5dbd 7f94 c5bb
00000340: 38eb 69bd 558f 623e 1397 8abd bf3c 02bb
00000350: af6c 2abe 4bc0 be3c 27d7 5abd dcf9 99bd
00000360: c9bb b8bc b5a4 003d d441 753c d332 94bd
00000370: 1be3 b43d 99ab c73c fe8a 96bd c791 44bc
00000380: 13b8 dabb f823 8e3d 5061 413d 2f37 1a3d
00000390: 0776 d8bd 04a4 11bd 1225 443c 6c52 063e
000003a0: 5b60 4f3e 3b6c 2cbc aa6f 6e3d 6fc8 193d
000003b0: 6fa6 953d d7d2 66be 0513 113d 1234 0cbe
000003c0: e1a7 823d b185 8bbd 517f 0d3b 7ce8 b2bd
000003d0: 524d cabc 2ac6 31bd 729c 413d 5c65 43bb
000003e0: a5d0 35bd 7b11 3f3d c32e e3bc 9c1e 843d
000003f0: 798d e7bd ad5e 663d 9b36 043d bdaf 65bd

fc2.bias f4 [128]
0.09801774 -0.053575404 -0.08003608 0.009395589 0.02585831 -0.007549778 -0.051397383 -0.06427265
-0.03862388 0.0143828355 -0.07386992 0.015736232 0.07777094 0.012143202 -0.043156773 -0.008004792
0.02231275 0.07047413 0.007475934 0.060773693 0.049483825 0.0862519 0.07787635 0.009158422
0.037820842 0.070825316 0.040624082 -0.01782671 0.062885255 -0.077045955 0.027983848 -0.06536326
0.044261463 0.003325601 -0.053428844 -0.027670503 0.013638404 0.069266066 0.050514508 0.082095966
0.066795975 -0.08193029 0.011367042 -0.037338484 -0.010758001 0.033214808 0.084072605 0.05156335
0.024886917 0.03664743 0.036227822 -0.03237683 -0.028352512 0.006675224 -0.04223833 -0.009096427
0.036584634 0.044306822 -0.04661554 0.07346879 0.007074607 -0.07213621 -0.069678195 0.05183645
-0.073258415 0.039114546 0.027724111 -0.06273939 0.052299093 -0.020474216 -0.07320318 0.010243654
-0.07590296 -0.053760648 0.068807654 0.035869464 -0.058112856 0.06747085 0.06753448 0.03744589
0.038392592 -0.048893157 -0.050093267 0.056291394 -0.008539637 -0.030225981 0.030664215 -0.04939342
-0.030680178 -0.007844471 0.016033214 0.056957074 -0.06354742 -0.069189444 0.04710908 0.0921656
-0.022982359 0.011996044 0.10010902 -0.054613374 0.055172447 0.09183136 -0.0017260715 -0.073131785
0.00792179 0.026067806 -0.07024765 0.06307225 -0.021151809 -0.045707338 0.04276913 -0.06084045
0.052997757 0.044348523 -0.023248194 0.0009919337 0.08582725 0.027930431 0.055212922 -0.03154616
-0.030369723 0.05390055 -0.03412026 0.08269563 -0.039335683 -0.04425381 -0.01301379 0.028859163
00000000: 86bd c83d e271 5bbd f5e9 a3bd f5ef 193c
00000010: ced4 d33c 2164 f7bb 1086 52bd 61a1 83bd
00000020: 1334 1ebd fca5 6b3c 1d49 97bd 45e9 803c
00000030: 5f46 9f3d 48f4 463c 28c5 30bd 8826 03bc
00000040: 3ac9 b63c be54 903d aef8 f43b d6ed 783d
00000050: 8daf 4a3d d6a4 b03d a37d 9f3d 350d 163c
00000060: 07ea 1a3d dd0c 913d 7065 263d 5209 92bc
00000070: fcc9 803d 45ca 9dbd 623e e53c 2cdd 85bd
00000080: 824b 353d 54f2 593b 34d8 5abd 40ad e2bc
00000090: 9d73 5f3c 5edb 8d3d 4de8 4e3d ee21 a83d
000000a0: 54cc 883d 11cb a7bd d43c 3a3c 3df0 18bd
000000b0: 5442 30bc 400c 083d 422e ac3d 1734 533d
000000c0: a6df cb3c 9e1b 163d a063 143d 919d 04bd
000000d0: 8743 e8bc d6bb da3b 1902 2dbd 2e09 15bc
000000e0: c5d9 153d 127b 353d f0ef 3ebd ce76 963d
000000f0: 1bd2 e73b 26bc 93bd 71b3 8ebd 7552 543d
00000100: 8208 96bd 9336 203d ad1d e33c 827d 80bd
00000110: 9337 563d 8bb9 a7bc 8deb 95bd 00d5 273c
00000120: 0373 9bbd 2034 5cbd 07eb 8c3d dceb 123d
00000130: bf07 6ebd 282e 8a3d 844f 8a3d dd60 193d
00000140: 8d41 1d3d 3144 48bd 992e 4dbd ce91 663d
00000150: d5e9 0bbc 7a9c f7bc 8533 fb3c c150 4abd
00000160: ff54 fbbc 1986 00bc 1658 833c d24b 693d
00000170: 2625 82bd 32b3 8dbd 73f5 403d 51c1 bc3d
00000180: 8045 bcbc 0e8b 443c f505 cd3d 46b2 5fbd
00000190: 81fc 613d 1412 bc3d 593d e2ba 1ec6 95bd
000001a0: 65ca 013c 278c d53c 00de 8fbd 062c 813d
000001b0: 8f46 adbc 9e37 3bbd af2e 2f3d d633 79bd
000001c0: 2d14 593d cca6 353d ff72 bebc c603 823a
000001d0: 32c6 af3d 5cce e43c f226 623d 8c36 01bd
000001e0: edc9 f8bc d3c6 5c3d b0c1 0bbd 545c a93d
000001f0: 741e 21bd 7c43 35bd cb37 55bc 0d6a ec3c

fc3.weight f4 [128, 128]
0.058144983 -0.02670829 0.008180899 0.0060933135 -0.06770106 -0.045421407 -0.0044488036 0.0122632785
0.05933505 0.016776662 -0.022366222 0.07257139 -0.046100806 0.03556979 -0.04918511 -0.0022238516
0.058820333 -0.08963114 -0.072295755 0.0012386556 -0.034202453 -0.0664599 -0.0751413 -0.039446164
-0.108006924 -0.026203694 0.090326905 0.090826735 0.0014296633 0.05459164 0.059567213 0.04928564
0.08470429 0.022597801 -0.0056252345 -0.01113401 -0.06619098 0.0754645 -0.040301736 -0.008119439
0.12044227 -0.05192436 0.10597948 -0.04185494 0.07220809 -0.08605535 -0.02530856 0.123955555
0.0072367047 -0.10782723 0.014798574 -0.10207123 0.016215062 -0.046844017 -0.018576823 -0.063161835
-0.023261867 0.005700909 0.025918415 -0.07618902 0.045240104 -0.057790782 0.070849925 -0.02129653
0.049728066 -0.03360322 0.030291518 0.03345727 -0.011356161 -0.048440393 -0.0155096715 -0.082561806
-0.037595335 -0.08981136 -0.0011648751 0.067266315 0.021142818 0.026765699 -0.07744148 -0.09174761
0.047730662 -0.08007166 -0.04231921 -0.026778264 0.013255668 0.07137804 0.083792984 0.087152146
-0.058485508 0.0021416135 0.07751103 0.0040105847 -0.03886465 0.042081133 -0.034379564 0.03373572
-0.0301127 0.024702856 0.017728867 -0.03609511 0.037449013 -0.045912318 -0.040842235 -0.04266989
-0.041031662 0.017881954 0.07096549 0.05238419 0.05935179 0.042246148 0.103140816 0.084870346
0.041102856 0.020359365 -0.01585105 0.05869945 -0.03986227 -0.012008448 0.07408099 -0.035780255
0.033121746 0.08580221 0.110272184 -0.03660406 -0.035069622 -0.010992587 0.093846105 0.06087977
0.059527844 0.1456898 -0.010531145 0.061433673 0.0366975 0.1321929 -0.07787481 0.06816869
-0.033923954 -0.08156479 0.046318427 -0.06952058 0.047467057 -0.0022954226 0.022770593 0.035892513
0.017426705 0.09340632 -0.04949105 -0.047018297 -0.05659667 0.049917936 -0.1611661 0.0668524
0.11172126 -0.033426017 -0.0037891169 -0.05255305 -0.03303196 0.027866917 0.022806358 -0.06747663
-0.0058151092 -0.0059737638 -0.06534631 0.066268 -0.03341602 -0.04312255 0.11734117 0.05451767
-0.03088726 0.022842433 0.06608898 0.059820846 -0.07461055 -0.070280164 0.016652662 0.06820311
-0.07964514 0.03864095 -0.12840077 0.071726084 0.0037475673 -0.03271836 -0.045043558 0.05912331
0.050581113 0.0031058749 -0.0255673 0.06362606 -0.014815274 0.057420846 -0.026845546 0.0023911167
-0.033496175 -0.08262344 -0.023491083 0.0278181 -0.08159097 0.051927276 0.018628096 -0.033166997
-0.088332355 -0.022669647 -0.06665149 -0.014732272 -0.08416376 0.021028057 0.05061057 0.1046626
-0.0397692 0.0665457 -0.0852683 0.02997215 0.006331679 -0.07980083 0.10657108 -0.025840811
0.045152377 0.07024684 0.05888457 0.08429092 0.032327022 -0.0141686555 0.0324926 -0.0530171
0.12880497 -0.04795102 0.032495067 0.11050618 -0.051799666 0.060878504 0.06601327 -0.010206639
-0.012183563 -0.089168794 0.06370936 0.06299505 -0.084833406 -0.021517908 0.09380248 -0.038651653
0.1774578 -0.003989715 -0.07512719 0.06521986 0.11509713 0.06357121 0.056694064 0.018164068
-0.070016064 0.04650145 0.0411689 -0.06536768 -0.06969927 0.06704545 -0.070519134 0.047354974
00000000: 6f29 6e3d 58cb dabc 2d09 063c 6baa c73b
00000010: daa6 8abd cc0b 3abd 45c7 91bb ebeb 483c
00000020: 4f09 733d 366f 893c 5e39 b7bc 4fa0 943d
00000030: 33d4 3cbd a1b1 113d 5376 49bd 0abe 11bb
00000040: 97ed 703d 8890 b7bd cc0f 94bd 635a a23a
00000050: df17 0cbd 211c 88bd afe3 99bd 4d92 21bd
00000060: bc32 ddbd 21a9 d6bc 50fd b83d 5e03 ba3d
00000070: 8a63 bb3a 7c9b 5f3d c0fc 733d bddf 493d
00000080: 7179 ad3d 061f b93c e353 b8bb 6c6b 36bc
00000090: 238f 87bd 228d 9a3d 6f13 25bd 6507 05bc
000000a0: 70aa f63d a3ae 54bd c50b d93d 1670 2bbd
000000b0: d6e1 933d ca3d b0bd e653 cfbc 69dc fd3d
000000c0: e121 ed3b 86d4 dcbd b875 723c b90a d1bd
000000d0: 73d5 843c 83df 3fbd 6c2e 98bc fe5a 81bd
000000e0: ac8f bebc b1ce ba3b db52 d43c fd08 9cbd
000000f0: b04d 393d 07b6 6cbd c419 913d 0f76 aebc
00000100: a8af 4b3d 88a3 09bd eb25 f83c 7e0a 093d
00000110: 310f 3abc 6f69 46bd 471c 7ebc 2a16 a9bd
00000120: 91fd 19bd 05ef b7bd b9ae 98ba ecc2 893d
00000130: b433 ad3c bd43 db3c a399 9ebd 2ce6 bbbd
00000140: 3a81 433d 9cfc a3bd e856 2dbd 175e dbbc
00000150: 4d2e 593c a62e 923d a89b ab3d d37c b23d
00000160: 808e 6fbd 505a 0c3b 1abe 9e3d 396b 833b
00000170: 8a30 1fbd 445d 2c3d 96d1 0cbd 772e 0a3d
00000180: e9ae f6bc a55d ca3c 213c 913c 77d8 13bd
00000190: 2364 193d 8e0e 3cbd 304a 27bd 9fc6 2ebd
000001a0: d110 28bd 2d7d 923c 5b56 913d ce90 563d
000001b0: dd1a 733d 4c0a 2d3d 7e3b d33d 81d0 ad3d
000001c0: 785b 283d afc8 a63c 10da 81bc d66e 703d
000001d0: 9f46 23bd 15bf 44bc c6b7 973d 518e 12bd
000001e0: abaa 073d 12b9 af3d 62d6 e13d 24ee 15bd
000001f0: 2aa5 0fbd 401a 34bc 6332 c03d 115d 793d
00000200: 78d3 733d b52f 153e d38a 2cbc e0a1 7b3d
00000210: 1e50 163d 935d 073e d47c 9fbd 079c 8b3d
00000220: d8f3 0abd 710b a7bd 64b8 3d3d ce60 8ebd
00000230: d16c 423d cd6e 16bb 6589 ba3c 0704 133d
00000240: 73c2 8e3c d04b bf3d 21b7 4abd 4296 40bd
00000250: e9d1 67bd c076 4c3d ba08 25be e9e9 883d
00000260: 1ece e43d b8e9 08bd d552 78bb de41 57bd
00000270: 854c 07bd 2949 e43c 66d4 ba3c 3031 8abd
00000280: ac8c bebb 90bf c3bb 49d4 85bd 84b7 873d
00000290: 3ddf 08bd 45a1 30bd 9150 f03d ec4d 5f3d
000002a0: 4707 fdbc 0e20 bb3c a959 873d b406 753d
000002b0: 6bcd 98bd 0cef 8fbd 2a6b 883c 12ae 8b3d
000002c0: fe1c a3bd f945 1e3d 7e7b 03be 20e5 923d
000002d0: bf99 753b b003 06bd 987f 38bd 492b 723d
000002e0: 242e 4f3d ef8b 4b3b 8472 d1bc 614e 823d
000002f0: c3bb 72bc 1f32 6b3d 31eb dbbc 48b4 1c3b
00000300: 4933 09bd 7a36 a9bd 5f70 c0bc c9e2 e33c
00000310: 2b19 a7bd b2b1 543d f399 983c 1eda 07bd
00000320: 98e7 b4bd b2b5 b9bc 9480 88bd a15f 71bc
00000330: 0d5e acbd 0843 ac3c 074d 4f3d 5859 d63d
00000340: 07e5 22bd 1d49 883d 25a1 aebd 2888 f53c
00000350: f979 cf3b 9e6e a3bd f041 da3d 1cb0 d3bc
00000360: b3f1 383d 93dd 8f3d f230 713d b8a0 ac3d
00000370: 5769 043d a623 68bc f616 053d 7528 59bd
00000380: 73e5 033e 4a68 44bd 8c19 053d 1051 e23d
00000390: e32b 54bd bd5b 793d f731 873d bf39 27bc
000003a0: 919d 47bc 219e b6bd 0e7a 823d 8c03 813d
000003b0: 23bd adbd 5346 b0bc 841b c03d 3251 1ebd
000003c0: 7fb7 353e 28bc 82bb 49dc 99bd fd91 853d
000003d0: 0bb8 eb3d 9f31 823d 0938 683d d0cc 943c
000003e0: 9564 8fbd 4e78 3e3d b8a0 283d 7ddf 85bd
000003f0: 7ebe 8ebd 204f 893d 566c 90bd 4af7 413d

fc3.bias f4 [128]
0.11188199 0.08829569 -0.08154531 0.059749346 0.09948957 0.058945823 -0.0034396253 0.094729215
0.09909634 0.012309572 0.026942102 0.05214095 -0.041214377 -0.07668405 -0.09241855 0.009304609
-0.02281532 0.10143284 -0.10020645 -0.030751431 -0.009313487 -0.04704198 0.0224314 0.0021987858
0.11190347 -0.05398626 0.013750703 -0.015563334 -0.028757332 0.04522854 -0.039403316 0.02876411
0.08450846 0.066918604 -0.0033943197 -0.054022867 -0.025727363 -0.02101684 -0.07320633 -0.012200886
0.08855012 0.10271219 0.042768303 -0.076255776 0.078100435 0.016006958 0.07583637 0.050820153
-0.08827976 0.009640181 0.0742559 0.020997368 -0.00069657515 -0.0854392 -0.0036776662 0.079064935
-0.026626753 -0.02715226 0.017254109 -0.081316136 0.0520415 0.060084276 0.009152296 -0.033365764
0.01210728 0.024870878 0.046143316 0.09563072 0.02031574 -0.022866199 0.06244152 -0.001751072
-0.063132904 0.06913807 -0.07977668 0.10787355 -0.0055061523 0.02497707 -0.06264611 -0.058147855
0.11107224 0.04224746 -0.07801733 0.08540188 -0.04979726 -0.00055689854 0.026795557 0.046756994
0.031429537 -0.09462304 -0.03942341 -0.049993675 -0.0595595 0.029653981 0.003932168 0.09019021
0.033469025 0.02274234 -0.029920416 0.10248354 -0.074968524 0.099003345 0.04401758 -0.026030779
-0.046285897 0.01275632 0.120786846 0.104800634 0.04228672 0.010831209 -0.015314829 0.032140523
-0.05193609 -0.0054400316 -0.024135038 -0.008001759 0.018733285 -0.03150149 0.083183624 0.07254701
-0.062451974 0.038473867 -0.0340954 -0.09079144 0.04949419 0.06706572 -0.0022430818 0.10603058
00000000: 6322 e53d 5fd4 b43d 3a01 a7bd bbbb 743d
00000010: 30c1 cb3d 2d71 713d 566b 61bb 6401 c23d
00000020: 06f3 ca3d 16ae 493c afb5 dc3c c091 553d
00000030: 68d0 28bd 870c 9dbd f045 bdbd 5c72 183c
00000040: 32e7 babc 05bc cf3d 0a39 cdbd 6dea fbbc
00000050: 9997 18bc 17af 40bd 0ec2 b73c 8119 103b
00000060: a52d e53d b220 5dbd a14a 613c 5bfd 7ebc
00000070: 7f94 ebbc 9041 393d 5f65 21bd b6a2 eb3c
00000080: c512 ad3d 9f0c 893d 3c73 5ebb 1547 5dbd
00000090: 31c2 d2bc 822b acbc 33ed 95bd 3ae6 47bc
000000a0: c459 b53d c55a d23d d12d 2f3d fd2b 9cbd
000000b0: 1ff3 9f3d 0621 833c 1950 9b3d cb28 503d
000000c0: 05cc b4bd daf1 1d3c 7a13 983d ac02 ac3c
000000d0: 5e9a 36ba bffa aebd 0005 71bb ccec a13d
000000e0: 5920 dabc 6b6e debc 7d58 8d3c 1389 a6bd
000000f0: 7829 553d ee1a 763d 83f3 153c 8aaa 08bd
00000100: 9d5d 463c 03be cb3c c600 3d3d 0ada c33d
00000110: 326d a63c e551 bbbc aec2 7f3d 3a84 e5ba
00000120: d34b 81bd 4398 8d3d f561 a3bd cfec dc3d
00000130: f46c b4bb b69c cc3c 9b4c 80bd 722c 6ebd
00000140: d879 e33d ac0b 2d3d 8dc7 9fbd 2ee7 ae3d
00000150: 36f8 4bbd d4fc 11ba 5b82 db3c 4384 3f3d
00000160: 42bc 003d b9c9 c1bd 717a 21bd 2bc6 4cbd
00000170: aaf4 73bd e8ec f23c 6ad9 803b a5b5 b83d
00000180: d116 093d 254e ba3c a91b f5bc e4e2 d13d
00000190: 1989 99bd 44c2 ca3d c74b 343d 803e d5bc
000001a0: 4896 3dbd e2ff 503c 185f f73d b7a1 d63d
000001b0: d734 2d3d 6275 313c 0ceb 7abc c8a5 033d
000001c0: f0ba 54bd 4b42 b2bb d8b6 c5bc cf19 03bc
000001d0: 8c76 993c b507 01bd 2d5c aa3d 8793 943d
000001e0: a4cd 7fbd c696 1d3d 9ea7 0bbd ddf0 b9bd
000001f0: 6bba 4a3d c159 893d ab00 13bb 9026 d93d

fc4.weight f4 [2, 128]
-0.111871675 0.13009308 0.01870495 0.083390765 -0.09606053 -0.056616362 0.06831522 -0.042642076
-0.09511504 -0.06892575 0.15481979 -0.113913625 0.07193995 0.059545755 -0.09251755 -0.1081843
0.11218516 -0.070652805 -0.054849394 0.009306629 -0.09064414 -0.028800303 -0.056661107 0.11753808
-0.09042229 -0.0074158483 -0.17550306 0.102590315 -0.08316242 -0.13157879 0.09559577 0.1262137
-0.056395393 0.021941863 -0.105592854 0.021466073 0.0667049 0.08531085 -0.049562342 -0.25951943
-0.06962728 -0.17619182 -0.07665199 0.0036316128 0.097818345 -0.04081593 -0.08333664 -0.08539786
-0.024057867 0.06957455 -0.0313226 0.0023274433 0.11825735 0.06340224 0.0019795995 0.009555729
-0.17859912 -0.12701075 0.035708603 -0.061228074 0.07059044 -0.013181164 -0.041302457 -0.003155798
0.11538052 -0.016065259 -0.02317245 -0.056249276 -0.09557264 0.10656759 -0.10422478 -0.093144365
0.067415625 0.061999213 -0.0772054 -0.13031268 -0.13567701 -0.12924951 0.025622463 -0.06345975
-0.09566631 0.103389844 -0.028755382 -0.06691317 -0.112383395 0.12552023 -0.110877044 -0.037207667
0.053956304 0.06565386 -0.07671349 0.07292592 -0.08660097 0.08900776 -0.019256003 -0.06351002
-0.06322594 -0.114324726 0.040009927 -0.081806205 0.06390477 -0.08782007 -0.13719882 -0.14171438
0.06410839 0.074008286 -0.15754454 -0.22126944 -0.14880347 -0.018001603 -0.04094928 -0.13350815
0.06425893 -0.13451278 -0.020900648 -0.045439553 0.11714542 -0.07796627 -0.0012522805 0.07399665
-0.11274655 0.023960117 0.0059407507 0.07100471 -0.0937997 0.07980241 -0.12374091 -0.08462049
-0.094929256 0.041667752 0.012198362 0.02346367 -0.06416562 -0.06048872 -0.053522114 -0.07186901
-0.1570303 -0.16747439 0.110003896 -0.07993545 0.04987059 0.027703175 0.1360295 -0.14685735
-0.00069820473 -0.13327082 0.096418194 -0.04485411 0.09725089 -0.018672721 -0.06281865 -0.0052228007
-0.07204081 -0.017897818 -0.16282164 0.041991856 0.06327545 0.04506301 -0.054100294 0.11043375
-0.077443816 -0.07287375 0.16937128 0.0033038717 0.0859778 0.033621833 0.038224682 -0.17069097
-0.033497848 -0.17083801 0.06246374 0.008602446 -0.03442049 -0.059188552 0.0013856189 -0.053829163
-0.03600942 0.025440253 -0.068200335 -0.12163316 0.099703506 0.007456062 -0.06791769 -0.11168306
-0.07818381 0.08958054 -0.09128342 0.07397995 0.038070768 -0.1611793 -0.0657519 0.0088871475
0.14554198 -0.033448126 -0.08875824 -0.025070673 -0.05572634 0.060185533 0.11814862 0.026353158
0.022050714 0.1038166 -0.07819473 -0.110923335 0.021409076 -0.07108848 0.060497425 -0.14854467
-0.055836573 0.07230589 0.06369717 -0.10749941 0.083843626 0.08663471 -0.01140396 -0.015123504
0.09958862 0.00705926 0.031051585 -0.05197839 -0.07552047 0.067048095 0.14005001 -0.014909569
0.104381524 -0.15632236 -0.031080307 -0.12918316 -0.0222969 -0.05774249 0.054852985 0.09524306
-0.013851436 0.15422273 -0.13808286 -0.1342022 0.18559805 -0.08335491 -0.033899892 -0.037789512
0.1512949 0.036501527 -0.06036241 -0.0009353157 0.06199803 0.041419037 -0.03299581 0.004136898
0.18833232 -0.1511455 -0.002988368 0.050832227 -0.047367036 0.124443464 -0.0280556 -0.029705556
00000000: fa1c e5bd 1f37 053e 203b 993c c7c8 aa3d
00000010: 62bb c4bd 8fe6 67bd dae8 8b3d 75a9 2ebd
00000020: adcb c2bd f228 8dbd 1489 1e3e 8c4b e9bd
00000030: 4155 933d 40e6 733d d779 bdbd bb8f ddbd
00000040: 55c1 e53d 6bb2 90bd c2a9 60bd d57a 183c
00000050: a3a3 b9bd 9dee ebbc 7a15 68bd ceb7 f03d
00000060: 522f b9bd a500 f3bb 13b7 33be df1a d23d
00000070: 0f51 aabd 97bc 06be b7c7 c33d 2a3e 013e
00000080: dbfe 66bd 6cbf b33c 1141 d8bd 9ed9 af3c
00000090: 949c 883d 74b7 ae3d e201 4bbd bbdf 84be
000000a0: bf98 8ebd a16b 34be b8fb 9cbd 5a00 6e3b
000000b0: fc54 c83d 9b2e 27bd 66ac aabd 13e5 aebd
000000c0: 0115 c5bc 1a7d 8e3d 204c 00bd 0588 183b
000000d0: e930 f23d 09d9 813d 2bbc 013b a28f 1c3c
000000e0: b0e2 36be 1b0f 02be 2f43 123d 4aca 7abd
000000f0: b891 903d cff5 57bc c42c 29bd 81d1 4ebb
00000100: 9f4c ec3d 4a9b 83bc 26d4 bdbc a465 66bd
00000110: 97bb c3bd 1c40 da3d cd73 d5bd 79c2 bebd
00000120: 3411 8a3d e3f2 7d3d dd1d 9ebd b070 05be
00000130: eaee 0abe fc59 04be 33e6 d13c 2ff7 81bd
00000140: b3ec c3bd 0ebe d33d 6890 ebbc c609 89bd
00000150: 4429 e6bd 6088 003e 8113 e3bd 1167 18bd
00000160: 4901 5d3d 8875 863d f61b 9dbd 2f5a 953d
00000170: d95b b1bd b349 b63d c4be 9dbc 8b11 82bd
00000180: 9a7c 81bd 1523 eabd 73e1 233d 038a a7bd
00000190: 81e0 823d 02db b3bd d97d 0cbe 931d 11be
000001a0: 424b 833d a891 973d 5b53 21be 7594 62be
000001b0: f05f 18be 1978 93bc 6fba 27bd 5cb6 08be
000001c0: 309a 833d b8bd 09be d637 abbc d31e 3abd
000001d0: f0e9 ef3d c8ac 9fbd 9023 a4ba 8e8b 973d
000001e0: aae7 e6bd 0248 c43c a1aa c23b eb6a 913d
000001f0: 0f1a c0bd 726f a33d e06b fdbd 824d adbd
00000200: 456a c2bd ceab 2a3d a3db 473c e236 c03c
00000210: 4469 83bd 05c3 77bd 013a 5bbd 0f30 93bd
00000220: 8dcc 20be 687e 2bbe b949 e13d 32b5 a3bd
00000230: 1b45 4c3d c5f1 e23c 514b 0b3e c661 16be
00000240: ba07 37ba 2578 08be e776 c53d f1b8 37bd
00000250: 7a2b c73d 89f7 98bc 10a7 80bd 0724 abbb
00000260: 228a 93bd 729e 92bc b7ba 26be a7ff 2b3d
00000270: 8f96 813d fe93 383d 4598 5dbd 172b e23d
00000280: dd9a 9ebd d53e 95bd aa6f 2d3e c585 583b
00000290: 2115 b03d 0cb7 093d 7c91 1c3d 9dc9 2ebe
000002a0: 0a35 09bd 29f0 2ebe fbd9 7f3d 46f1 0c3c
000002b0: 80fc 0cbd b26f 72bd a89d b53a f87b 5cbd
000002c0: 9d7e 13bd 1468 d03c 9eac 8bbd ce1a f9bd
000002d0: 5a31 cc3d fb51 f43b 6e18 8bbd 17ba e4bd
000002e0: d51e a0bd 0176 b73d cdf2 babd cd82 973d
000002f0: 18f0 1b3d 300c 25be efa8 86bd 669b 113c
00000300: f508 153e e700 09bd e1c6 b5bd 0361 cdbc
00000310: 4d41 64bd 1b85 763d e7f7 f13d 94e2 d73c
00000320: b3a3 b43c cc9d d43d 8f24 a0bd c62b e3bd
00000330: 1662 af3c d696 91bd 26cc 773d 181c 18be
00000340: e4b4 64bd 1c15 943d a973 823d a728 dcbd
00000350: 35b6 ab3d 8a6d b13d add7 3abc 93c8 77bc
00000360: 1ef5 cb3d 5d51 e73b e55f fe3c 4be7 54bd
00000370: 7aaa 9abd 8350 893d 4569 0f3e 4447 74bc
00000380: fbc5 d53d f812 20be 219c febc 9748 04be
00000390: fda7 b6bc 6483 6cbd 86ad 603d cb0e c33d
000003a0: 22f1 62bc 90ec 1d3e 9865 0dbe 4d6c 09be
000003b0: 6a0d 3e3e fbb5 aabd 9dda 0abd 2dc9 1abd
000003c0: 0ded 1a3e a082 153d 933e 77bd f92f 75ba
000003d0: a5f1 7d3d 02a7 293d 9d26 07bd d18e 873b
000003e0: 30da 403e e3c5 1abe 7fd8 43bb 7435 503d
000003f0: f003 42bd 37dc fe3d dcd4 e5bc 1159 f3bc

fc4.bias f4 [2]
-0.07715674 0.04825962
00000000: 5a04 9ebd e1ab 453d

fc1.weight f4 [128, 7]
0.29484102 -0.34031093 0.17101634 0.23550996 -0.20546524 0.1660925 0.225109 0.09705385
0.2500648 -0.048493907 0.30258778 0.120360054 0.11408513 0.17566289 -0.35653663 0.108334616
-0.1556433 -0.35627043 -0.2914347 -0.03469091 0.028346227 -0.27631533 0.24055287 0.050181534
0.031274106 -0.12787254 0.024520267 0.3831419 -0.042651933 0.3365658 -0.479918 -0.021713363
-0.33575904 0.18381584 0.35876605 0.01986945 0.1401149 0.24400087 -0.2851526 0.077346705
-0.33852443 -0.099359736 0.13131872 -0.26044747 0.12714095 -0.23010299 -0.13682453 -0.36504945
-0.22799915 0.018109335 0.0960533 -0.3357518 -0.30835947 0.19251886 0.20352346 0.35525388
-0.14695701 0.18616685 0.3932479 0.14610219 -0.27966657 0.38843855 0.13111816 -0.17233887
-0.29886657 0.28368592 -0.08656799 -0.22791815 -0.19700317 0.122116886 0.1616329 0.3782542
-0.08408327 0.35983256 0.38426784 -0.062409185 -0.41793188 0.08788181 0.0021062866 0.019430678
-0.2262729 -0.7142502 0.40149644 -0.29157597 0.17295703 -0.36833045 0.37036067 -0.16351604
0.36903465 -0.2605512 -0.032526065 0.32743055 0.32035798 -0.2148167 -0.26647064 0.2943799
0.17566212 -0.1552893 0.17834662 -0.32901296 -0.123645805 -0.144589 0.035269454 0.3832559
-0.105094336 0.08711554 -0.13547139 0.27842483 0.1949443 -0.09709363 0.36498913 -0.19294658
0.050962813 0.22088984 -0.088136904 -0.40894985 0.03171328 -0.24209431 0.24882063 0.45832917
0.29103944 0.28654513 -0.22148247 -0.3545907 0.10262158 -0.22507222 0.116540134 -0.112523235
-0.5453144 0.10008916 -0.0066075916 -0.36028656 0.12136008 0.0044574765 -0.25220478 -0.13664971
0.12573409 -0.29830423 -0.18599388 -0.1717035 -0.19060388 -0.18248004 0.18635488 -0.102482066
-0.273606 0.24104953 -0.3263067 -0.18017118 -0.08334815 -0.30783615 -0.028560517 -0.2773768
0.10874765 -0.1313946 0.16422012 0.3442624 -0.17463599 -0.14128017 -0.14407368 -0.12470863
0.2561578 -0.41815156 -0.14156021 -0.18467595 0.14704932 0.3053609 0.27407146 -0.40664193
0.117290884 -0.36098102 -0.2611663 0.071956754 0.10980481 -0.0036658596 0.06340825 0.056803368
0.04723271 -0.42645425 -0.23696718 -0.03526834 -0.37871173 0.15574378 0.124570474 0.09444223
-0.24547869 0.16668618 0.29852828 0.29982173 -0.10935356 -0.0773969 -0.2774327 0.39526337
-0.23047324 -0.29678428 0.03476233 -0.19951347 0.23729496 0.1976846 -0.08326968 -0.01471363
-0.19150934 0.11503131 0.14793038 -0.28086078 -0.20088567 0.27393413 -0.18863662 0.3637194
-0.17140125 -0.15655795 -0.36071357 0.34040555 -0.37716952 -0.03726294 0.059434526 0.10401916
-0.20751719 -0.08685177 -0.17299777 -0.051476356 -0.14885058 -0.36402485 0.18221433 -0.20525381
-0.18360557 0.2724035 -0.5894547 0.22814345 0.28844166 0.15122098 0.12171749 0.22265275
-0.025853198 -0.5063462 -0.09745055 0.34530547 -0.0040522614 0.33165103 -0.053753357 -0.12541054
-0.14829884 -0.10531069 -0.25092646 -0.11100677 0.45139894 0.27571237 0.39077207 -0.06993065
0.2862265 0.29870316 0.34611464 0.31612012 -0.26700625 0.30591726 0.3111209 0.30307272
00000000: 67f5 963e 3c3d aebe e81e 2f3e 8629 713e
00000010: 7b65 52be 2714 2a3e f982 663e 2bc4 c63d
00000020: 7e08 803e 8ca1 46bd c9ec 9a3e 557f f63d
00000030: 77a5 e93d f9e0 333e f88b b6be 8ade dd3d
00000040: f560 1fbe 1469 b6be ee36 95be 0e18 0ebd
00000050: 5936 e83c 3479 8dbe 7e53 763e 278b 4d3d
00000060: 4719 003d 05f1 02be bade c83c 2d2b c43e
00000070: cbb3 2ebd 5a52 ac3e d0b7 f5be 39e0 b1bc
00000080: 9ce8 abbe 383a 3c3e 2fb0 b73e 42c5 a23c
00000090: 487a 0f3e 5ddb 793e 86ff 91be f367 9e3d
000000a0: 1353 adbe 1e7d cbbd 6a78 063e 5f59 85be
000000b0: 3d31 023e 1ea0 6bbe bb1b 0cbe c3e7 babe
000000c0: 9c78 69be 075a 943c 98b7 c43d a9e7 abbe
000000d0: 4be1 9dbe aa23 453e 7468 503e d6e3 b53e
000000e0: e67b 16be 86a2 3e3e ca57 c93e d09b 153e
000000f0: 7530 8fbe 6be1 c63e d743 063e 9a79 30be
00000100: 0a05 99be 483f 913e 8f4a b1bd 6063 69be
00000110: 33bb 49be 6b18 fa3d 1883 253e 89aa c13e
00000120: d933 acbd f93b b83e c1be c43e c6a0 7fbd
00000130: 2bfb d5be 61fb b33d a009 0a3b 162d 9f3c
00000140: 15b4 67be 1ad9 36bf f190 cd3e 7249 95be
00000150: a61b 313e cf95 bcbe ea9f bd3e c070 27be
00000160: 1cf2 bc3e f866 85be 0d3a 05bd faa4 a73e
00000170: f605 a43e e9f8 5bbe d76e 88be f6b8 963e
00000180: c5e0 333e 2904 1fbe 7fa0 363e 6374 a8be
00000190: 033a fdbd 240f 14be b476 103d 1e3a c43e
000001a0: b33b d7bd a269 b23d 03b9 0abe b38d 8e3e
000001b0: 7b9f 473e 06d9 c6bd dbdf ba3e ca93 45be
000001c0: 62be 503d f230 623e 1f81 b4bd e061 d1be
000001d0: c9e5 013d 92e7 77be d6ca 7e3e 1faa ea3e
000001e0: 1f03 953e 0bb6 923e 4dcc 62be ea8c b5be
000001f0: 432b d23d 5579 66be 98ac ee3d 9572 e6bd
00000200: b999 0bbf 8cfb cc3d 7f84 d8bb 7b77 b8be
00000210: a28b f83d 0610 923b fc20 81be e7ed 0bbe
00000220: 70c0 003e 55bb 98be 2e75 3ebe 0bd3 2fbe
00000230: aa2d 43be 0cdc 3abe d0d3 3e3e 1ee2 d1bd
00000240: 1616 8cbe b0d5 763e ac11 a7be cb7e 38be
00000250: 6fb2 aabd b39c 9dbe bff7 e9bc 5504 8ebe
00000260: 17b7 de3d 4e8c 06be 5229 283e 2943 b03e
00000270: c7d3 32be c0ab 10be 0d88 13be 3d67 ffbd
00000280: 1d27 833e f617 d6be 29f5 10be b11b 3dbe
00000290: 1994 163e 4458 9c3e 1853 8c3e 5f33 d0be
000002a0: 3436 f03d 81d2 b8be 97b7 85be 105e 933d
000002b0: 58e1 e03d eb3e 70bb 2fdc 813d a6aa 683d
000002c0: 1677 413d 3658 dabe 86a7 72be 8975 10bd
000002d0: 81e6 c1be 4c7b 1f3e ce1e ff3d ee6a c13d
000002e0: c45e 7bbe c8af 2a3e b3d8 983e 3c82 993e
000002f0: c2f4 dfbd 4482 9ebd a90b 8ebe f65f ca3e
00000300: 2d01 6cbe 1cf4 97be f262 0e3d 424d 4cbe
00000310: 73fd 723e d56d 4a3e 4b89 aabd 7011 71bc
00000320: 061b 44be 8995 eb3d 107b 173e fccc 8fbe
00000330: f9b4 4dbe 1841 8c3e f529 41be 6e39 ba3e
00000340: cf83 2fbe ba50 20be 73af b8be a349 ae3e
00000350: 5d1c c1be 06a1 18bd 9e71 733d ff07 d53d
00000360: 637f 54be 57df b1bd 5426 31be dfd8 52bd
00000370: 496c 18be 7761 babe 6596 3a3e 0e2e 52be
00000380: 1903 3cbe 7978 8b3e 81e6 16bf 709e 693e
00000390: a0ae 933e acd9 1a3e 0547 f93d 15ff 633e
000003a0: 16ca d3bc e89f 01bf 2794 c7bd e1cb b03e
000003b0: d5c8 84bb 2ace a93e 7b2c 5cbd 9f6b 00be
000003c0: a7db 17be 22ad d7bd 6f79 80be 8457 e3bd
000003d0: c31d e73e 2c2a 8d3e 4713 c83e cd37 8fbd
000003e0: 488c 923e 9fef 983e f035 b13e 7fda a13e
000003f0: 0bb5 88be 30a1 9c3e 3d4b 9f3e 592c 9b3e

fc1.bias f4 [128]
-0.25587824 0.08762775 0.103148796 -0.09163171 0.32769036 -0.33989868 0.039171457 0.21540835
-0.014112007 -0.062470775 0.17068514 0.068055645 -0.3692637 -0.057826865 -0.24083243 -0.257825
-0.12968223 -0.29485175 0.24489972 0.06641694 -0.21716374 -0.075315766 0.21904841 0.032933883
-0.117054716 0.2206495 0.34794548 0.35759494 0.057171714 0.24135742 -0.2200316 -0.34659618
-0.028117394 0.090849265 0.012528799 0.36065388 0.28725642 0.2037716 0.051794518 0.014175543
0.34110835 0.264665 0.009329607 0.40303105 -0.085287794 0.24498284 0.23074563 0.049408503
-0.33054644 0.1299033 0.0080182105 -0.36920545 -0.20489433 -0.43181217 -0.045294523 0.100354016
-0.2756977 -0.3262021 -0.3765149 0.35560393 0.12016561 -0.21985152 -0.08308358 -0.055979177
-0.07512941 0.20553757 -0.07052329 -0.16335554 -0.15051407 -0.100887775 0.24540268 0.017813003
-0.16817762 -0.005897406 0.1341715 -0.35016632 0.19925864 0.05265385 0.0983775 -0.1520947
0.28556955 -0.11025374 0.2828958 -0.3098709 -0.03161934 0.31149134 -0.17116526 -0.22015326
0.3811011 0.074130714 -0.055611532 -0.2407642 0.33780786 0.3750443 -0.05812918 0.2054623
-0.36437285 0.3282118 0.12112111 -0.012497271 0.13763109 0.36804667 0.22178264 -0.07632715
0.1357828 -0.13033892 -0.1991586 0.28389227 0.25644988 -0.27850586 -0.16515073 0.29897216
0.30121833 0.23451647 0.3534251 -0.33450148 0.0031498987 -0.051565703 0.2821561 -0.07474579
0.101926275 -0.014573729 -0.1860947 0.09423754 -0.21794361 -0.20062627 0.33097717 -0.29031447
00000000: 7902 83be 2e76 b33d ad3f d33d 68a9 bbbd
00000010: 08c7 a73e 3307 aebe 4072 203d 0294 5c3e
00000020: 0c36 67bc 5be1 7fbd 16c8 2e3e c260 8b3d
00000030: 2210 bdbe dddb 6cbd c79c 76be a301 84be
00000040: 6bcb 04be cff6 96be fec6 7a3e 9b05 883d
00000050: 2c60 5ebe 273f 9abd 3a4e 603e aee5 063d
00000060: 62ba efbd f1f1 613e e925 b23e af16 b73e
00000070: e32c 6a3d 6626 773e f74f 61be 0e75 b1be
00000080: 7356 e6bc 2e0f ba3d 9745 4d3c a0a7 b83e
00000090: 4613 933e 81a9 503e 7d26 543d 8940 683c
000000a0: c1a5 ae3e 2c82 873e 35db 183c 165a ce3e
000000b0: 5eab aebd c8dc 7a3e 9548 6c3e 9260 4a3d
000000c0: 623d a9be 5f05 053e d05e 033c 7f08 bdbe
000000d0: d2cf 51be 7c16 ddbe c086 39bd 6886 cd3d
000000e0: 4028 8dbe f603 a7be 90c6 c0be b811 b63e
000000f0: 6319 f63d c220 61be b927 aabd 6c4a 65bd
00000100: 73dd 99bd 7178 523e 846e 90bd ad46 27be
00000110: 5c20 1abe 409e cebd d74a 7b3e 93ec 913c
00000120: c136 2cbe 073f c1bb 4164 093e 0049 b3be
00000130: 750a 4c3e 90ab 573d 257a c93d b7be 1bbe
00000140: 2c36 923e b6cc e1bd b8d7 903e 66a7 9ebe
00000150: 4883 01bd cb7b 9f3e f245 2fbe db6f 61be
00000160: af1f c33e d8d1 973d ebc8 63bd e48a 76be
00000170: 27f5 ac3e ce05 c03e dd18 6ebd b664 523e
00000180: 148f babe 610b a83e 580e f83d 5bc1 4cbc
00000190: 2aef 0c3e 9d70 bc3e fd1a 633e 6951 9cbd
000001a0: a50a 0b3e 9177 05be 3bf0 4bbe 545a 913e
000001b0: 664d 833e 5298 8ebe 461d 29be e112 993e
000001c0: 4a39 9a3e 1625 703e 22f4 b43e c743 abbe
000001d0: 886e 4e3b 8f36 53bd c476 903e 5214 99bd
000001e0: b9be d03d a6c6 6ebc 9c8f 3ebe 9dff c03d
000001f0: 9c2c 5fbe f970 4dbe d775 a93e 19a4 94be

fc2.weight f4 [128, 128]
0.19077921 -0.010602808 -0.0021160562 0.0047803554 -0.03426496 -0.0507785 -0.07250786 0.0011465878
0.0036211766 0.046412587 -0.044859346 0.1317789 -0.01667638 0.06945381 0.0052719973 0.076785594
0.021106174 0.09158665 0.041486245 -0.025867501 0.032200836 0.014399945 -0.026102567 -0.053126898
-0.1008648 -0.10009068 0.07579473 0.070276365 0.07918768 -0.04249028 0.051567953 -0.006857798
-0.0643555 -0.022795185 -0.032119412 -0.05007202 0.08853721 0.07145309 0.15095314 -0.01115099
0.12415268 -0.0076509886 0.04953356 0.12271868 0.042556886 0.02446826 -0.042886205 0.0030075521
0.005702869 -0.06434345 -0.08434146 -0.0382364 0.08091889 0.03444354 0.098115236 -0.006220201
0.0015172759 -0.04597353 0.045161318 0.006850913 0.0824375 -0.119318314 -0.049015686 0.10183197
-0.092045836 0.0073526264 0.024065398 0.17584437 -0.08626096 0.063450426 -0.015912237 -0.040105123
0.003844372 -0.05968866 -0.059263743 0.17446975 0.049999494 0.14852239 0.08729218 -0.048107635
-0.0036121784 -0.15973915 0.05211868 0.034845497 0.16561843 0.036512364 0.033079986 0.043039024
0.087740965 0.11264622 0.02668959 0.010398713 0.060438987 -0.0137408795 -0.049235083 0.07607178
0.048433747 -0.03657208 0.01923896 0.014320264 -0.12442903 -0.03451899 0.1818299 0.066587225
-0.08654481 -0.043277293 0.08509988 0.024890985 0.12733474 0.0958923 0.102723144 -0.046558376
-0.09196291 0.012603727 0.18583441 -0.08979936 -0.05563263 0.06771885 0.03545814 0.004582029
-0.068536654 0.08094412 0.15701672 0.06930533 -0.12457949 -0.033209395 0.111890316 0.050396007
-0.11011449 0.04668212 0.04401094 0.06696361 -0.09963554 -0.08399237 -0.08820226 -0.044476666
-0.056343924 0.0883572 0.066262536 -0.020092357 -0.07199781 0.05588494 -0.12171451 0.09198203
0.0839667 -0.025480403 0.08989931 0.06473647 0.05707611 -0.017779522 -0.13379224 0.02764014
0.003671976 -0.058082838 0.018489031 0.03289215 -0.033627942 0.12665406 -0.016743952 -0.025041107
-0.07383884 -0.014972529 -0.118091054 0.10471826 -0.028346071 0.1973161 -0.12574479 -0.020615686
0.16435473 0.12294035 0.02171594 -0.08094111 0.0847506 0.06257474 0.009627375 -0.008108614
-0.04913721 -0.08160074 -0.13462725 0.08257179 0.08247603 0.07949093 -0.008628552 0.13209647
-0.06483781 0.08777608 0.083293974 0.09127774 0.029409995 0.1997853 0.15234171 0.07520226
0.14610022 0.025673335 -0.08092632 0.1167107 0.048862897 0.13238126 0.08976384 -0.08793246
0.05650081 0.41278818 0.0125777405 -0.08355975 0.051776443 -0.07450189 -0.054909617 -0.006029665
-0.05440136 0.21760128 -0.066549174 -0.0019872633 -0.16550612 0.02331536 -0.05342784 -0.07459677
-0.021672467 0.0350199 0.014638488 -0.072362565 0.08847897 0.025620798 -0.073507294 -0.011730088
-0.0066747754 0.07115661 0.04410576 0.047193285 -0.103927664 -0.03492065 0.011885011 0.12685339
0.20845512 -0.0063507725 0.061345026 0.038214795 0.075696364 -0.22345354 0.03413185 -0.13449869
0.06607131 -0.06758727 0.0021880409 -0.08735749 -0.024695072 -0.043401875 0.04710192 -0.0037304068
-0.043185484 0.04664753 -0.026488217 0.06595965 -0.113881275 0.056603786 0.03243763 -0.0560758
00000000: a05b 433e 66b7 2dbc 88ad 0abb 87a4 9c3b
00000010: 6a59 0cbd 1efd 4fbd 007f 94bd 1a49 963a
00000020: 4351 6d3b 201b 3e3d 6fbe 37bd 0cf1 063e
00000030: e79c 88bc cd3d 8e3d b8c0 ac3b c441 9d3d
00000040: dbe6 ac3c c891 bb3d 7bed 293d 15e8 d3bc
00000050: 06e5 033d bfed 6b3c 0dd5 d5bc 979b 59bd
00000060: 3492 cebd 58fc ccbd 443a 9b3d 0eed 8f3d
00000070: 262d a23d 4a0a 2ebd eb38 533d 61b7 e0bb
00000080: d1cc 83bd f8bc babc a58f 03bd 5218 4dbd
00000090: ff52 b53d ff55 923d 7693 1a3e a4b2 36bc
000000a0: c343 fe3d 25b5 fabb b4e3 4a3d ee53 fb3d
000000b0: 2150 2e3d a971 c83c 72a9 2fbd 5a1a 453b
000000c0: 22df ba3b 80c6 83bd 37bb acbd c59d 1cbd
000000d0: ceb8 a53d ab14 0d3d a4f0 c83d d4d2 cbbb
000000e0: 55df c63a bd4e 3cbd 13fb 383d a07d e03b
000000f0: fed4 a83d 295d f4bd acc4 48bd 488d d03d
00000100: 8782 bcbd 4dee f03b cc24 c53c 8c10 343e
00000110: 96a9 b0bd 4cf2 813d 615a 82bc 4545 24bd
00000120: dcf1 7b3b 197c 74bd 8abe 72bd 33a8 323e
00000130: 45cc 4c3d 4116 183e 3ec6 b23d 830c 45bd
00000140: 4cba 6cbb a992 23be 667a 553d 27ba 0e3d
00000150: e197 293e fd8d 153d e17e 073d b049 303d
00000160: 89b1 b33d 10b3 e63d 21a4 da3c 5d5f 2a3c
00000170: df8e 773d 6d21 61bc baaa 49bd 85cb 9b3d
00000180: 7762 463d 9bcc 15bd 069b 9d3c 8a9f 6a3c
00000190: a6d4 febd c963 0dbd 9e31 3a3e e25e 883d
000001a0: 683e b1bd 8843 31bd d948 ae3d 2ee8 cb3c
000001b0: 0a64 023e 2f63 c43d 8360 d23d ffb3 3ebd
000001c0: 0d57 bcbd dd7f 4e3c 604b 3e3e bae8 b7bd
000001d0: 0adf 63bd 2eb0 8a3d 8e3c 113d d824 963b
000001e0: f25c 8cbd 08c6 a53d fec8 203e f4ef 8d3d
000001f0: 8823 ffbd 9306 08bd c026 e53d 0b6c 4e3d
00000200: b583 e1bd c035 3f3d d144 343d 3824 893d
00000210: b80d ccbd 3104 acbd 63a3 b4bd 2a2d 36bd
00000220: e3c8 66bd 9ff4 b43d a7b4 873d ba98 a4bc
00000230: 9673 93bd 9be7 643d 7545 f9bd 1361 bc3d
00000240: bcf6 ab3d 47bc d0bc 211d b83d 8e94 843d
00000250: a4c8 693d 5ca6 91bc d500 09be 936d e23c
00000260: 89a5 703b 45e8 6dbd 4f76 973c ebb9 063d
00000270: 74bd 09bd 9ab1 013e 9d2a 89bc 0223 cdbc
00000280: d138 97bd 574f 75bc b9d9 f1bd 8776 d63d
00000290: 0536 e8bc 3b0d 4a3e 3ec3 00be 3ae2 a8bc
000002a0: 9b4c 283e 26c8 fb3d a1e5 b13c 74c4 a5bd
000002b0: b991 ad3d 2f27 803d 23bc 1d3c fed9 04bc
000002c0: 1944 49bd 4a1e a7bd badb 09be 661b a93d
000002d0: 31e9 a83d 24cc a23d c55e 0dbc 4c44 073e
000002e0: b0c9 84bd f2c3 b33d 0896 aa3d d3ef ba3d
000002f0: 3bed f03c 8594 4c3e 77ff 1b3e a403 9a3d
00000300: 4c9b 153e e350 d23c b3bc a5bd 0506 ef3d
00000310: 7624 483d f48e 073e 1bd6 b73d ef15 b4bd
00000320: 656d 673d f958 d33e de12 4e3c 6021 abbd
00000330: 8913 543d 7294 98bd e8e8 60bd 7f94 c5bb
00000340: f6d3 5ebd dfd2 5e3e ef4a 88bd bf3c 02bb
00000350: 707a 29be dbff be3c 27d7 5abd 31c6 98bd
00000360: 758a b1bc 0771 0f3d 45d6 6f3c d332 94bd
00000370: 7634 b53d b5e2 d13c fe8a 96bd 8e2f 40bc
00000380: 13b8 dabb 8fba 913d 3ea8 343d bf4d 413d
00000390: 07d8 d4bd f508 0fbd 59b9 423c dbe5 013e
000003a0: 4275 553e 241a d0bb ec44 7b3d 1e87 1c3d
000003b0: b206 9b3d 01d1 64be d7cd 0b3d 06ba 09be
000003c0: 6550 873d 326b 8abd 3c65 0f3b 7ce8 b2bd
000003d0: 524d cabc 2ac6 31bd f1ed 403d d779 74bb
000003e0: 43e3 30bd 7b11 3f3d d1fd d8bc da15 873d
000003f0: 963a e9bd 5fd9 673d 52dd 043d bdaf 65bd
