flappybird_dqn_ep260.pth (torch, 561729 bytes, 32 tensors)

fc1.weight f4 [128, 7]
000000 cd aa 83 3e a1 2b ef be bf da 36 3e e7 0f 38 3e
       0.25716248 -0.46712974 0.17856883 0.17974816
000010 9b a9 8a be 0e 41 24 3e a2 aa 50 3e 9d 5e 4a 3d
       -0.27082524 0.16040441 0.20377591 0.049406637
000020 3d ee 91 3e 37 4f 7e 3c 42 2d 86 3e ca e0 b6 3d
       0.28502074 0.015521816 0.26206404 0.08929594
000030 7a 53 8c 3d 79 e1 30 3e f8 8b b6 be 8a de dd 3d
       0.068518594 0.17273511 -0.35653663 0.108334616
000040 f5 60 1f be 14 69 b6 be ee 36 95 be 0e 18 0e bd
       -0.1556433 -0.35627043 -0.2914347 -0.03469091
000050 59 36 e8 3c ec b6 78 be 22 92 48 3e f5 05 5b 3d
       0.028346227 -0.24288529 0.19586995 0.053472478
000060 f4 3f d3 3d 39 7d 8b 3c 58 58 af 3d 39 9d d9 3e
       0.103149325 0.017027484 0.08561772 0.42502764
000070 2a a2 ff bc 7f 9f bd 3e 18 15 01 bf da 0d a0 bd
       -0.031205256 0.37035748 -0.5042281 -0.07815142
000080 72 6f bd be be 26 4c 3e e1 be c7 3e 42 c5 a2 3c
       -0.3699909 0.19936654 0.39012817 0.01986945
000090 48 7a 0f 3e 5d db 79 3e 86 ff 91 be f3 67 9e 3d
       0.1401149 0.24400087 -0.2851526 0.077346705
0000a0 13 53 ad be 1e 7d cb bd 6a 78 06 3e 5f 59 85 be
       -0.33852443 -0.099359736 0.13131872 -0.26044747
0000b0 3d 31 02 3e 1e a0 6b be bb 1b 0c be c3 e7 ba be
       0.12714095 -0.23010299 -0.13682453 -0.36504945
0000c0 9c 78 69 be e1 80 13 bc b5 23 04 3e 52 2c 9f be
       -0.22799915 -0.009002895 0.12904246 -0.310885
0000d0 c3 ee a8 be 2d a1 e9 3d cd 7d 42 3e a5 98 bd 3e
       -0.3299466 0.11407695 0.18993302 0.3703052
0000e0 84 a2 14 be 2d 88 29 3e c4 3f c9 3e 47 c2 eb 3d
       -0.1451512 0.16555853 0.39306462 0.11511665
0000f0 e8 0c 9f be c4 56 cb 3e 64 66 03 3e 9a 79 30 be
       -0.31064534 0.39714634 0.12832028 -0.17233887
000100 0a 05 99 be 48 3f 91 3e 8f 4a b1 bd 60 63 69 be
       -0.29886657 0.28368592 -0.08656799 -0.22791815
000110 33 bb 49 be 6b 18 fa 3d dd 3b 26 3e 47 0a c9 3e
       -0.19700317 0.122116886 0.16233774 0.39265653
000120 32 24 01 bd cd d7 c2 3e d2 aa da 3e e0 ff 69 bd
       -0.03152866 0.38055268 0.4270845 -0.057128787
000130 2e 9f eb be a7 db 21 3e b6 09 7b be b5 43 19 3d
       -0.46019882 0.15806447 -0.24515423 0.037418086
000140 03 b1 47 be 27 0d 21 bf e3 c3 f2 3e 78 e2 4c be
       -0.19501118 -0.62910694 0.47415075 -0.20008266
000150 9c b8 21 3e cf 95 bc be bc ec b5 3e 17 d3 36 be
       0.15793079 -0.36833045 0.35532176 -0.17853962
000160 11 3f b5 3e 26 1a 8d be 09 c7 42 bd 4a 3a a8 3e
       0.35399678 -0.27559012 -0.047553096 0.3285697
000170 b2 39 b4 3e a4 61 74 be 63 ac 8f be c9 52 a6 3e
       0.35200268 -0.23865372 -0.28061208 0.32485035
000180 23 3b 22 3e 43 1c 6c be 09 80 51 3e c3 0f 8c be
       0.15842871 -0.23057656 0.20458998 -0.27355775
000190 98 23 1a be 56 f7 27 be 14 d3 19 3c 9f 50 c0 3e
       -0.1505264 -0.16402945 0.009388704 0.3756151
0001a0 ea d6 38 be c0 8d e9 3d 5d e5 6e be 1f fd 77 3e
       -0.18050733 0.1140399 -0.23329683 0.24217652
0001b0 ac aa 56 3e 63 24 00 be 9c 78 cf 3e b6 fb d7 bd
       0.20963544 -0.1251388 0.40521705 -0.10546057
0001c0 77 08 da 3c ed e3 4c 3e dc ab dd bd de 7d de be
       0.026615364 0.20008822 -0.10823795 -0.43455404
0001d0 69 03 af 3b 13 f6 88 be 60 71 63 3e f5 89 fd 3e
       0.0053409827 -0.2675024 0.22211218 0.49519315
0001e0 1b 89 75 3e 3a 48 9d 3e f8 54 54 be 48 5b c3 be
       0.23978083 0.30719167 -0.20735538 -0.3815558
0001f0 92 74 fc 3d d1 8e 4a be ac a9 01 3e 55 5d 82 bd
       0.123269215 -0.19781043 0.12662381 -0.06365458
000200 82 c8 46 bf d7 25 98 3d 2a d3 a3 ba ca a3 be be
       -0.776497 0.074290924 -0.0012498845 -0.37234336
000210 0e eb 07 3e 06 10 92 3b fc 20 81 be e7 ed 0b be
       0.1327326 0.0044574765 -0.25220478 -0.13664971
000220 70 c0 00 3e 55 bb 98 be 2e 75 3e be 0b d3 2f be
       0.12573409 -0.29830423 -0.18599388 -0.1717035
000230 aa 2d 43 be 0c dc 3a be d0 d3 3e 3e 1e e2 d1 bd
       -0.19060388 -0.18248004 0.18635488 -0.102482066
000240 16 16 8c be b0 d5 76 3e ac 11 a7 be cb 7e 38 be
       -0.273606 0.24104953 -0.3263067 -0.18017118
000250 6f b2 aa bd b3 9c 9d be bf f7 e9 bc 55 04 8e be
       -0.08334815 -0.30783615 -0.028560517 -0.2773768
000260 17 b7 de 3d 4e 8c 06 be 4b 72 4c 3e 8f 1b ab 3e
       0.10874765 -0.1313946 0.19965474 0.33419463
000270 1d c5 7d be ab 8f 1f be b9 e4 26 be 97 7f d8 bd
       -0.24782224 -0.15582149 -0.16298188 -0.10571211
000280 32 f0 a1 3e 64 e3 f2 be a0 0d 22 be f6 db 96 bd
       0.31628567 -0.4743911 -0.1582551 -0.07366173
000290 01 ce 56 3e c1 3a ae 3e 46 84 94 3e 15 5c e8 be
       0.20977022 0.340292 0.29007167 -0.45382753
0002a0 89 bd f2 3d 1f cc b5 be cd 05 cb be 38 f0 c3 3d
       0.11852557 -0.35507295 -0.39652863 0.095673025
0002b0 16 13 e8 3d 92 07 9e 39 a6 a8 8c 3d d0 a9 d1 3c
       0.11331765 0.0003014175 0.06868105 0.025593668
0002c0 9b 98 18 3d 37 02 73 bf 24 21 7d be 16 20 e1 bc
       0.03725491 -0.94925255 -0.24719673 -0.02748112
0002d0 0f b3 c5 be ed d3 28 3e 45 14 88 3d 1c 51 03 3e
       -0.38613173 0.16487093 0.06644491 0.1282391
0002e0 96 09 8c be be d3 04 3e 12 c5 86 3e c8 3c 7c 3e
       -0.27351063 0.12971398 0.26322228 0.24632561
0002f0 93 3a 86 be 8f 57 03 bd 81 82 74 be 22 83 cc 3e
       -0.26216564 -0.032065924 -0.23877908 0.39943796
000300 e7 9e 9b be b0 9b ab be 47 5f a8 3b 03 7a 1a be
       -0.3039467 -0.33517218 0.005138311 -0.15085606
000310 88 53 80 3e e0 ab 01 3e b8 ce 06 be 76 9d 76 bd
       0.2506373 0.12663221 -0.13164794 -0.06020876
000320 95 9c 6e be 10 5e d8 3d 8a 88 de 3d 20 d2 a9 be
       -0.23301919 0.10564816 0.108658865 -0.33168125
000330 4f 9f 4f be 9b be 94 3e 58 7b 02 be 1a 2b e3 3e
       -0.20275615 0.2905167 -0.12742364 0.4436882
000340 59 70 2d be f5 db 4c be 73 af b8 be a3 49 ae 3e
       -0.16937388 -0.20005782 -0.36071357 0.34040555
000350 5d 1c c1 be 06 a1 18 bd 9e 71 73 3d ff 07 d5 3d
       -0.37716952 -0.03726294 0.059434526 0.10401916
000360 63 7f 54 be 57 df b1 bd 54 26 31 be df d8 52 bd
       -0.20751719 -0.08685177 -0.17299777 -0.051476356
000370 49 6c 18 be 77 61 ba be 65 96 3a 3e 0e 2e 52 be
       -0.14885058 -0.36402485 0.18221433 -0.20525381
000380 ad 32 35 be da a1 9f 3e 16 f9 2b bf 97 79 86 3e
       -0.17695113 0.3117817 -0.6717695 0.2626464
000390 c4 05 94 3e 0c dc 1f 3e 05 1e 0d 3e 9b c8 61 3e
       0.2891065 0.15611285 0.13780983 0.22049181
0003a0 7d 99 b1 bc 52 59 e4 be e2 86 42 bd 50 37 be 3e
       -0.021679634 -0.44599396 -0.047491916 0.37151575
0003b0 8f 85 88 3c 4e a9 bd 3e e6 30 45 bd d3 6e 12 bd
       0.016665248 0.37043232 -0.048142336 -0.03575022
0003c0 ad 17 41 be 0f 73 f6 bd 31 a3 96 be 13 e6 0e be
       -0.18856688 -0.120336644 -0.2942138 -0.13954954
0003d0 d0 ab f8 3e 46 e5 51 3e b5 a7 da 3e 5d b4 3c bd
       0.48568583 0.20497617 0.42706075 -0.046070445
0003e0 2d 2d 92 3e 3f ff 79 3e 96 ac 9b 3e 0f a8 96 3e
       0.2855009 0.24413775 0.3040511 0.29425094
0003f0 66 54 a4 be d3 d0 ac 3e 7b d5 b5 3e f8 11 9e 3e
       -0.3209564 0.3375307 0.35514435 0.30873084

fc1.bias f4 [128]
000000 11 11 9e be e5 49 0a 3d 73 a5 3b 3e ea 70 a4 bc
       -0.30872396 0.033761878 0.18324833 -0.020073373
000010 4f a0 ab 3e 33 07 ae be 73 bd 25 3e 2d a7 34 3e
       0.33520743 -0.33989868 0.1618555 0.17641897
000020 15 61 0a bd 5b e1 7f bd 27 ad 3c 3e d1 46 0c 3e
       -0.03378399 -0.062470775 0.18425427 0.1369889
000030 50 c3 c4 be 1a fa 23 bd 9d 90 6e be f8 00 88 be
       -0.38430262 -0.040033437 -0.23297353 -0.2656324
000040 10 1f 1f be 94 18 8b be 67 23 8c 3e b1 e2 40 3e
       -0.15539193 -0.2716719 0.2737076 0.18836476
000050 2c 60 5e be 27 3f 9a bd 96 dc 78 3e 60 3e 45 3d
       -0.21716374 -0.075315766 0.24302897 0.04815519
000060 2c 0d e0 bd 6a 25 78 3e 81 61 96 3e 49 bd b1 3e
       -0.10940012 0.24233022 0.29371265 0.34714726
000070 8a 78 28 3d 56 85 6f 3e f7 4f 61 be 0e 75 b1 be
       0.04113058 0.23390707 -0.2200316 -0.34659618
000080 09 3b 67 bc 68 4b df 3d 24 46 36 3c 24 46 98 3e
       -0.014113196 0.109030545 0.011125121 0.29741013
000090 53 e5 7a 3e e8 fd 22 3e 3b 6e ee 3c 1f 36 ee 3a
       0.24501543 0.1591717 0.029105296 0.0018174088
0000a0 6c e1 ab 3e 74 18 83 3e c3 62 39 3a 14 f4 ce 3e
       0.3357042 0.25604594 0.00070719066 0.40420592
0000b0 3f 22 02 be 0f 27 47 3e 59 33 54 3e f5 d3 8d 3d
       -0.12708376 0.19448493 0.20722713 0.06925193
0000c0 62 3d a9 be 92 e1 6b 3e 5b f2 bd bc 7f 08 bd be
       -0.33054644 0.23035267 -0.023186853 -0.36920545
0000d0 d2 cf 51 be 73 5a d6 be 2c 03 99 bd 3b ea 8d 3d
       -0.20489433 -0.41865882 -0.07471308 0.069294415
0000e0 40 28 8d be f6 03 a7 be 90 c6 c0 be fd 58 95 3e
       -0.2756977 -0.3262021 -0.3765149 0.29169455
0000f0 ce 4a f6 3d 21 a8 47 be 72 78 a4 bd 58 37 a5 bd
       0.120259866 -0.1949773 -0.080307856 -0.080671966
000100 5d 14 d2 bd 61 f1 35 3e 84 6e 90 bd ce 7e 03 be
       -0.1025779 0.1776786 -0.07052329 -0.12841341
000110 5c 20 1a be 00 41 7c bd ee e0 60 3e 4c 05 be 3c
       -0.15051407 -0.061585426 0.21960804 0.023195885
000120 cd e2 2e be cb 56 0f bd e0 91 1c 3e 4f af ab be
       -0.17078705 -0.03499488 0.15290022 -0.33532187
000130 2e 15 44 3e 59 0c 19 3d 2f 99 83 3d b7 be 1b be
       0.19148704 0.03736529 0.06425702 -0.1520947
000140 9b 49 8f 3e a6 70 ec bd a7 16 91 3e 66 a7 9e be
       0.27985844 -0.115449235 0.28337595 -0.3098709
000150 61 aa 9a bd 80 4c 8f 3e f2 45 2f be 4c 85 1e be
       -0.075520284 0.27988052 -0.17116526 -0.15480536
000160 8d 8f b6 3e 1e 4b c6 3d 97 e6 b6 bd e4 8a 76 be
       0.35656396 0.09682296 -0.089307 -0.2407642
000170 cd ba 98 3e 47 82 c4 3e dd 18 6e bd 75 18 48 3e
       0.29830018 0.38380644 -0.05812918 0.1954058
000180 14 8f ba be 56 f4 a6 3e ca 14 f1 3d 9c 9e 58 bd
       -0.36437285 0.3260829 0.11771543 -0.052885637
000190 b9 3a 0c 3e 3e c8 a8 3e 1b f7 76 3e fd d9 92 bd
       0.13694276 0.32965273 0.24117701 -0.07170484
0001a0 e8 a4 ea 3d cd 3f 20 be 8d e2 11 be 2f d7 8e 3e
       0.114572346 -0.15649338 -0.14246579 0.27898547
0001b0 eb 6d 87 3e b3 dd 91 be 82 44 27 be b7 66 99 3e
       0.26451048 -0.28489456 -0.16334727 0.29961178
0001c0 ca 35 92 3e 7a 61 32 3e 9d 05 a8 3e f8 67 9d be
       0.28556663 0.17419997 0.32816783 -0.30743384
0001d0 51 a6 ca bc 8f 36 53 bd 2b e0 85 3e 50 fe a2 bd
       -0.024737509 -0.051565703 0.2614759 -0.079586625
0001e0 bb 95 ac 3d de 1d b5 3c 3c 91 35 be 38 8e 02 3e
       0.08426996 0.022108968 -0.17731184 0.12749565
0001f0 4f 08 39 be 6e c3 15 be c1 d2 90 3e 19 a4 94 be
       -0.18069576 -0.14625332 0.28285792 -0.29031447

fc2.weight f4 [128, 128]
000000 45 65 57 3e 56 a4 c4 bc 03 1c c2 3c 26 69 5a bc
       0.21034725 -0.024004143 0.023694998 -0.013330733
000010 b1 62 c2 bc 1e fd 4f bd 60 53 5e bd d5 60 a5 bc
       -0.0237287 -0.0507785 -0.05427873 -0.020187775
000020 fe e2 b7 bb 20 1b 3e 3d c3 3a ee bc a5 f0 6e 3e
       -0.0056117764 0.046412587 -0.029080754 0.23333986
000030 f4 e6 f6 bc 15 ae 24 3e 35 78 12 3d ac c6 ad 3d
       -0.030139424 0.16082032 0.03575917 0.08485159
000040 db e6 ac 3c 75 96 32 3e f5 50 2a 3d 96 8c 27 bb
       0.021106174 0.17440207 0.041581113 -0.0025565973
000050 06 e5 03 3d bf ed 6b 3c 9e 78 11 3d e6 3d c5 bd
       0.032200836 0.014399945 0.03551542 -0.09630947
000060 63 3c 3c be 9b f8 07 be 02 ea 7c 3d fc 10 ce 3d
       -0.1838241 -0.13278429 0.061746605 0.10061833
000070 cf 26 e5 3d 17 98 fb bd eb 38 53 3d 61 b7 e0 bb
       0.11189043 -0.12284868 0.051567953 -0.006857798
000080 4f 99 bb bd 45 39 5d bd cf a1 fc bd 21 82 77 bd
       -0.09160101 -0.054009695 -0.1233555 -0.060426835
000090 55 48 8e 3d af 5c 3a bc 01 da 89 3e e8 95 c3 bc
       0.0694739 -0.011374637 0.26924136 -0.023875192
0000a0 3c 6f 18 3e 99 46 8e 3d 01 c7 8e 3d f7 28 52 3e
       0.14886183 0.06947059 0.06971551 0.2052344
0000b0 c0 b4 97 3c c6 02 2a 3c 67 ae 1d bd 03 e4 14 bd
       0.018518806 0.010376638 -0.0384964 -0.03635026
0000c0 22 df ba 3b 10 43 0f bd 06 37 d4 bd c5 9d 1c bd
       0.005702869 -0.034976065 -0.103620574 -0.0382364
0000d0 ce b8 a5 3d 25 80 a1 3d 94 0b 8f 3d 7c fd 85 bc
       0.08091889 0.0788577 0.0698463 -0.016356222
0000e0 55 df c6 3a bd 4e 3c bd 13 fb 38 3d 15 3a 56 3b
       0.0015172759 -0.04597353 0.045161318 0.0032688428
0000f0 a4 8b 2b 3e d3 fa 78 be aa 83 68 3c 90 73 dc 3d
       0.16752487 -0.24314432 0.014191547 0.10764229
000100 5a 47 72 be e1 b0 56 bc cc 24 c5 3c a6 d2 38 3e
       -0.23660031 -0.013103695 0.024065398 0.18049106
000110 96 a9 b0 bd df a1 03 3e 42 a4 99 3a f1 b7 02 be
       -0.08626096 0.12854718 0.0011721926 -0.1276548
000120 74 63 8a 3c ec 5e 54 3d a8 9d eb bd c0 1a 87 3e
       0.016893126 0.051848337 -0.1150468 0.26387596
000130 0e 06 a1 3c 7f 8b 34 3e fb 01 a7 3e 83 0c 45 bd
       0.019656207 0.17631339 0.32618698 -0.048107635
000140 fd 4c 09 3d 33 6a 87 be f2 de 21 bb 27 ba 0e 3d
       0.033520687 -0.2644821 -0.0024699536 0.034845497
000150 97 ef cf 3e dc 46 79 bc e1 7e 07 3d fb 70 eb 3d
       0.4061248 -0.015214648 0.033079986 0.11496159
000160 1b 13 1a 3e 63 d0 62 3e 29 82 20 3d 5d 5f 2a 3c
       0.1504635 0.22149806 0.03918663 0.010398713
000170 15 85 88 3d 1d 2e 16 bc ba aa 49 bd e4 6d 7d 3c
       0.066660084 -0.009166268 -0.049235083 0.0154680945
000180 77 62 46 3d 1c 7f 34 bd 16 13 7b bc 08 ea 3f bd
       0.048433747 -0.044066533 -0.015324375 -0.04685405
000190 b9 ee f0 bd b1 e8 5a bd 51 eb 7a 3e ba 86 19 bd
       -0.11764283 -0.053444568 0.24503829 -0.037482
0001a0 b1 8f 22 be f1 c0 56 bd bb 54 28 3e a3 9d 4b bc
       -0.15875126 -0.052430097 0.16438572 -0.01242772
0001b0 e2 3a 50 3e f2 5f 0d 3e 99 f3 05 3e 93 00 4b bc
       0.20334962 0.13806131 0.13081206 -0.012390274
0001c0 9d d7 b1 bd b2 c7 b2 3c c1 83 71 3e b0 9d 40 be
       -0.08683703 0.021823738 0.23585416 -0.18810153
0001d0 d1 fe e2 bc 2e b0 8a 3d f1 a8 77 3d ad b0 bf bc
       -0.027709397 0.06771885 0.06046385 -0.023399675
0001e0 44 e9 c5 bd 54 bc ec bc 2d 98 50 3e 88 72 75 3d
       -0.096636325 -0.028898396 0.2037055 0.05992368
0001f0 86 d5 7d be b5 d2 e9 bd 28 66 15 3e 0b 6c 4e 3d
       -0.24788484 -0.11417142 0.14589751 0.050396007
000200 ef 3a 10 be c3 ca 8a 3d d3 4c e6 bc 7a 59 84 3d
       -0.14084981 0.06776955 -0.028112805 0.06462379
000210 54 02 ff bd 31 04 ac bd 49 48 26 be 64 8c 10 bd
       -0.12451616 -0.08399237 -0.16238512 -0.035290137
000220 c4 21 43 bd 9f f4 b4 3d a4 06 9c 3d 39 e8 ee bd
       -0.047639623 0.0883572 0.07618454 -0.11665387
000230 e1 a8 b0 bd 71 f2 32 3c 21 7b 2c be 65 84 74 3d
       -0.08625961 0.01092206 -0.16843845 0.059696574
000240 b9 f5 98 3d 3e 30 0b be f8 04 de bc 38 42 11 bc
       0.07468743 -0.13592622 -0.027101979 -0.008865885
000250 a4 c8 69 3d 5c a6 91 bc b3 1f 45 be 9e 73 48 bc
       0.05707611 -0.017779522 -0.19250374 -0.012234597
000260 68 f9 d7 3b 3d 38 8e be 29 71 06 3d 01 03 8d 3b
       0.006591011 -0.2777728 0.03282276 0.0043033366
000270 6c 99 a7 bd db c6 36 3e 9d 2a 89 bc 02 23 cd bc
       -0.0818356 0.17849295 -0.016743952 -0.025041107
000280 e7 d5 bf bd 85 88 c2 3b 82 37 4b be 6a c5 fb 3d
       -0.093669705 0.0059366846 -0.19845393 0.12293513
000290 ca b6 c9 b9 6f f5 68 3e c3 74 c2 be 98 e9 e7 39
       -0.00038473896 0.22749875 -0.37979707 0.00044233794
0002a0 2c fe 1e 3e 73 cd 9d 3d f3 fc 6c 3c b3 7e 0d be
       0.15526646 0.07705202 0.014464605 -0.13817863
0002b0 4d 9d b3 3d 9b 99 b9 3d 0b ef c4 bb f8 db 25 be
       0.08770237 0.09062501 -0.0060099415 -0.16197193
0002c0 19 44 49 bd 50 36 1e be e6 e9 88 be 66 1b a9 3d
       -0.04913721 -0.15450406 -0.2674095 0.08257179
0002d0 31 e9 a8 3d b5 52 84 bc 89 1e 26 3d fe 4e 2e 3e
       0.08247603 -0.016152719 0.040556464 0.1702232
0002e0 b0 c9 84 bd f2 c3 b3 3d 08 96 aa 3d 0b ff a9 3d
       -0.06483781 0.08777608 0.083293974 0.08300599
0002f0 f6 8c 20 bd 4e ca 82 3e 31 4c 03 3e 11 35 93 3d
       -0.03919693 0.2554497 0.12822033 0.07187856
000300 1e 47 6e 3e 6f c6 30 3d b3 bc a5 bd 3c c2 f6 3c
       0.23269317 0.04315799 -0.08092632 0.030121915
000310 76 24 48 3d 85 13 0f 3e 73 a9 d3 3d cf d5 29 be
       0.048862897 0.1397229 0.10335054 -0.16585468
000320 98 e2 af 3d 85 92 e9 3e b0 2e 7e 3d 6b b9 4d be
       0.08588141 0.45619598 0.062056243 -0.20090263
000330 b3 fb a0 3d 01 f6 c4 bd 74 44 9d be 7f 94 c5 bb
       0.07860508 -0.09617234 -0.30716288 -0.006029665
000340 b2 18 a1 bd 19 d3 82 3e 02 51 a7 bc bf 3c 02 bb
       -0.078660384 0.2555168 -0.02042437 -0.0019872633
000350 7d 62 d6 be d3 a4 5d 3d 27 d7 5a bd 1f a9 3c be
       -0.41872016 0.054112267 -0.05342784 -0.1842389
000360 03 43 5c bd 97 7a 8b bd 7e 0f 23 3c d3 32 94 bd
       -0.053774845 -0.068104915 0.009952424 -0.072362565
000370 d2 99 d1 3d dc 9b 23 bd fe 8a 96 bd 47 ef 2e 3d
       0.10234417 -0.03994356 -0.073507294 0.04270866
000380 13 b8 da bb 65 22 a0 3d 3b 2c c5 3c 1a 41 7b bd
       -0.0066747754 0.0781906 0.024068942 -0.061341383
000390 a8 36 c4 bd ec a5 c3 bb 74 44 a7 bd c6 cc 5a 3e
       -0.09580737 -0.005970707 -0.08167353 0.21367177
0003a0 fb fa 20 3e c6 d5 bf bc fa e9 71 3d 6c 72 92 3d
       0.15720741 -0.023417365 0.059061028 0.071507305
0003b0 73 77 47 3d 12 d0 db be 81 91 3b 3c 83 83 2f be
       0.0486979 -0.42932183 0.011448265 -0.17140011
0003c0 1e 5a cf bb b6 16 e0 bd 96 27 99 bc e3 9d e6 bd
       -0.0063278815 -0.10941832 -0.018695634 -0.11260583
0003d0 96 e2 bd ba 2a c6 31 bd 32 d5 2e 3d 0a bb 75 3d
       -0.0014487084 -0.043401875 0.042683788 0.059992827
0003e0 4c a4 8d bc 52 62 4d bc 0c 8c 55 be cc 51 83 bd
       -0.017290257 -0.012535648 -0.20854205 -0.06412086
0003f0 da 2e 85 bd 9e 37 79 3d aa 4c b4 b9 bd af 65 bd
       -0.06503077 0.060844056 -0.00034389395 -0.0560758

fc2.bias f4 [128]
000000 c8 58 c4 3d f7 59 37 bd f5 e9 a3 bd 39 1b c1 3b
       0.09587246 -0.04476353 -0.08003608 0.005893138
000010 f1 e1 d6 3c 00 76 9c 3c 5d 06 e4 bc a6 71 9e bd
       0.026230784 0.019099236 -0.027835065 -0.077365205
000020 4b 68 11 3c 64 11 18 3d 1d 49 97 bd ab 72 ae b8
       0.008874963 0.03712596 -0.07386992 -8.318325e-05
000030 22 3e 49 3d 48 f4 46 3c 28 c5 30 bd 18 79 f0 3b
       0.04913152 0.012143202 -0.043156773 0.0073386542
000040 04 b8 37 3d f5 51 7a 3d ae f8 f4 3b cf 76 90 3d
       0.044853225 0.061113317 0.007475934 0.07053911
000050 3a d7 50 3d d6 a4 b0 3d 97 85 b4 3d 35 0d 16 3c
       0.050986506 0.0862519 0.08814543 0.009158422
000060 06 4e 91 bb 3c 53 ca 3d b0 0c df 3c 44 82 8d bc
       -0.00443435 0.09879157 0.02722773 -0.01727403
000070 fc c9 80 3d 45 ca 9d bd 7c f1 14 3c 4f 56 b0 bd
       0.062885255 -0.077045955 0.0090907775 -0.08610212
000080 51 97 f9 3c 10 ff 9c 3c 34 d8 5a bd fc 06 cd 3c
       0.030467661 0.019164592 -0.053428844 0.025027744
000090 9d 73 5f 3c ee 4c 2b 3d 65 1c 2f 3d cc ef 9f 3d
       0.013638404 0.041821413 0.04275169 0.078094095
0000a0 5b 86 9a 3d 11 cb a7 bd d0 2e 67 3c 7e 15 3b bd
       0.075451575 -0.08193029 0.014110282 -0.045674793
0000b0 9a 99 d3 3c 96 43 dc 3c ec ba 8b 3d e0 63 82 3d
       0.025830079 0.026887696 0.06822762 0.06366706
0000c0 60 79 00 3d bf a0 1d 3c eb d4 15 3d 2e ad cc bc
       0.031365752 0.009620844 0.036580008 -0.024984922
0000d0 1e 03 e3 3b ee be 1b bc 0c 9d 4d bd 44 31 d1 bc
       0.006927862 -0.00950597 -0.0501986 -0.025536187
0000e0 c5 d9 15 3d 12 7b 35 3d f0 ef 3e bd be 22 b3 3d
       0.036584634 0.044306822 -0.04661554 0.08746861
0000f0 2b e2 19 3b f6 91 bb bd 24 cc 91 bd 75 52 54 3d
       0.0023480754 -0.09158699 -0.07119015 0.05183645
000100 82 08 96 bd ea 1a 18 3d dc aa 7a 3c 71 4a fd bc
       -0.073258415 0.037135042 0.015299525 -0.030919285
000110 34 a3 58 3d d6 ff dd bc 8d eb 95 bd 00 d5 27 3c
       0.052890018 -0.027099531 -0.07320318 0.010243654
000120 03 73 9b bd 02 98 a2 bd c9 3a 66 3d dc eb 12 3d
       -0.07590296 -0.079391494 0.056208406 0.035869464
000130 bf 07 6e bd 50 23 8c 3d 5d 5c 91 3d 84 3d cf 3c
       -0.058112856 0.06842673 0.07097695 0.025297888
000140 6a 48 8e 3d 31 44 48 bd f8 5d 70 bd ce 91 66 3d
       0.06947406 -0.048893157 -0.058683366 0.056291394
000150 23 5d c7 bc 7a 9c f7 bc 09 0c 2b 3d c1 50 4a bd
       -0.024336403 -0.030225981 0.041759524 -0.04939342
000160 e0 55 a1 bc ca 67 1c bc f5 73 ef 3c 77 db 9f 3d
       -0.019694269 -0.00954623 0.029230097 0.078055315
000170 26 25 82 bd c2 39 6b bd 3a 36 68 3d ce 89 cb 3d
       -0.06354742 -0.05742813 0.05669234 0.099383935
000180 b7 10 2a bd c3 ef dc bb 14 e9 06 3e 15 75 68 bd
       -0.041519847 -0.006742449 0.1317485 -0.056752283
000190 81 fc 61 3d 7e d0 c5 3d ae aa 58 bc 9f ed b5 bd
       0.055172447 0.09658907 -0.013224287 -0.08883213
0001a0 2e 8c f0 3b 69 7c 88 3d 51 de af bd 06 2c 81 3d
       0.0073409295 0.06664354 -0.08587325 0.06307225
0001b0 8f 46 ad bc 9e 37 3b bd 00 4c 25 3d 72 48 7f bd
       -0.021151809 -0.045707338 0.040355682 -0.06232495
0001c0 62 36 87 3d cc a6 35 3d 69 8f 06 bd 66 d8 88 3c
       0.066021696 0.044348523 -0.03285161 0.01670475
0001d0 f0 af 82 3d 30 1c 46 3c 43 1a 3f 3d 45 2f 5d bd
       0.06381214 0.012091681 0.046655905 -0.054000158
0001e0 51 de fe 3b 06 03 1d 3d cf 05 23 bd 54 5c a9 3d
       0.007777967 0.03833296 -0.03980046 0.08269563
0001f0 74 1e 21 bd 0c 75 31 bd 71 ab ac bb b6 ad 86 3d
       -0.039335683 -0.043324515 -0.005269461 0.065761015

fc3.weight f4 [128, 128]
000000 7b 89 8b 3b 93 34 cf 3c 2d 09 06 3c 01 80 1a bc
       0.0042583323 0.025293624 0.008180899 -0.009429933
000010 8c 0f a2 bd bd 66 60 bd cc c5 25 3c 8f f5 48 3c
       -0.079131216 -0.05478548 0.010117959 0.012265577
000020 53 b1 85 3d 86 2b b2 bc 5e 39 b7 bc e6 58 94 3d
       0.065279625 -0.02174927 -0.022366222 0.072435185
000030 41 14 84 bd a1 b1 11 3d 53 76 49 bd 46 96 6d 3d
       -0.064491756 0.03556979 -0.04918511 0.05800464
000040 88 8e e3 3d d0 3b f3 bd cc 0f 94 bd 43 a9 13 bd
       0.1111117 -0.11876643 -0.072295755 -0.036050092
000050 63 fc 5c bd 21 1c 88 bd e3 97 9c bc 4d 92 21 bd
       -0.053951632 -0.0664599 -0.019115394 -0.039446164
000060 eb f1 0d be 96 26 4d 3d cc c1 e2 3c 1e 9d 04 3e
       -0.13861816 0.050085627 0.0276803 0.1295056
000070 8a 63 bb 3a 7c 9b 5f 3d c6 3c 8c 3d e8 ac c2 3d
       0.0014296633 0.05459164 0.06847529 0.095056355
000080 4e b6 cd 3d 1d 19 5a 3d e3 53 b8 bb be ae f7 bc
       0.100445375 0.053246606 -0.0056252345 -0.03023469
000090 23 8f 87 bd 34 85 14 3e 4a 67 bc 3a 1a d5 6a 3d
       -0.06619098 0.14503938 0.0014374044 0.057332136
0000a0 4b 3f 0c 3d a3 ae 54 bd b6 35 0f 3e 10 68 c8 bc
       0.03424005 -0.05192436 0.13985333 -0.024463683
0000b0 f2 7a 48 3d 22 2a df bd 86 b0 09 bd b3 31 09 3e
       0.048945375 -0.10896708 -0.03361561 0.13397865
0000c0 50 31 95 3c c1 99 03 be ba 6b a3 3d e8 a6 b1 bd
       0.01821199 -0.12851621 0.079795316 -0.08674413
0000d0 fe 99 22 3c 38 af 8a bd d9 68 42 bc 40 3f 41 bd
       0.00992441 -0.067717016 -0.011865818 -0.04717946
0000e0 ac 8f be bc b1 ce ba 3b db 52 d4 3c bd e4 04 be
       -0.023261867 0.005700909 0.025918415 -0.12977882
0000f0 48 16 cb 3b 92 c8 04 bd c4 19 91 3d 0f 76 ae bc
       0.0061977245 -0.03241784 0.070849925 -0.02129653
000100 a8 af 4b 3d be 28 42 bd eb 25 f8 3c 2e 08 d8 3d
       0.049728066 -0.047402136 0.030291518 0.10548435
000110 17 27 62 bd 78 f5 aa bd 47 1c 7e bc 2a 16 a9 bd
       -0.05521306 -0.08347601 -0.0155096715 -0.082561806
000120 91 fd 19 bd 35 0b e4 bd a0 fa 94 be ec c2 89 3d
       -0.037595335 -0.1113495 -0.29097462 0.067266315
000130 b4 33 ad 3c 75 ee 76 3d 6e b6 a6 bc 5e 77 aa bd
       0.021142818 0.060286004 -0.020350661 -0.08323549
000140 ca 13 16 3d 9c fc a3 bd 82 7c b3 bc 17 5e db bc
       0.036639966 -0.08007166 -0.021909956 -0.026778264
000150 4d 2e 59 3c a6 2e 92 3d 81 9d f2 3d d3 7c b2 3d
       0.013255668 0.07137804 0.11846448 0.087152146
000160 23 0d f1 3b 83 3a 0f 3d 1b 6e 0f 3e 79 91 99 3d
       0.0073563023 0.03496791 0.14006846 0.0749845
000170 8a 30 1f bd cd 17 52 3d 61 5b 02 bc bf 12 39 3d
       -0.03886465 0.05129223 -0.007956357 0.045183893
000180 2c c3 20 bd 15 a1 5d 3d 34 71 1d 3d e3 7b 14 3d
       -0.03924863 0.054108698 0.038438037 0.03625096
000190 23 64 19 3d f6 9e 14 3d 30 4a 27 bd 9f c6 2e bd
       0.037449013 0.03628441 -0.040842235 -0.04266989
0001a0 d1 10 28 bd c7 6e 33 bd 5b 56 91 3d ce 90 56 3d
       -0.041031662 -0.043806817 0.07096549 0.05238419
0001b0 dd 1a 73 3d 4c 0a 2d 3d b4 0f 12 3e c6 c1 de 3d
       0.05935179 0.042246148 0.14263803 0.10876803
0001c0 39 88 af 3c af c8 a6 3c 7f a0 21 bc b2 2e 94 3b
       0.02142726 0.020359365 -0.009864925 0.004522168
0001d0 64 24 48 bd 15 bf 44 bc c6 b7 97 3d 36 18 3e 3d
       -0.04886283 -0.012008448 0.07408099 0.046409808
0001e0 d6 d5 f5 3d 26 66 a9 3d cb d1 05 3e 24 ee 15 bd
       0.120036766 0.082714364 0.13068311 -0.03660406
0001f0 2a a5 0f bd 18 1e e7 3c a0 ef fc 3c 56 5f a8 3d
       -0.035069622 0.028212592 0.03087598 0.08221309
000200 3c a0 af 3d b3 16 27 3e d3 8a 2c bc 04 68 b6 3d
       0.08575484 0.16317253 -0.010531145 0.08906558
000210 75 35 9b 3d ee 06 22 3e 6b 45 32 be ce 9a 8b 3d
       0.075785555 0.15822956 -0.17409293 0.06816636
000220 c8 8f cf bd b2 af ce bd 64 b8 3d 3d 24 a5 85 bd
       -0.10134846 -0.10092105 0.046318427 -0.06525639
000230 e7 07 80 3d cd 6e 16 bb 65 89 ba 3c 66 6c 25 3d
       0.06251507 -0.0022954226 0.022770593 0.04038658
000240 f3 9c 82 bd 65 2b fd 3d 21 b7 4a bd 5b 71 08 bd
       -0.06377592 0.123617925 -0.04949105 -0.03331123
000250 d2 cf 03 bd c0 76 4c 3d 5b 85 45 be e9 e9 88 3d
       -0.032180615 0.049917936 -0.19289152 0.0668524
000260 d3 1a 13 3e 45 d4 c8 bd ab 18 28 3c ce c3 d1 bd
       0.14365701 -0.09806112 0.010259788 -0.10242425
000270 85 4c 07 bd 29 49 e4 3c 7a 3d 2e 3d fc 84 8b bd
       -0.03303196 0.027866917 0.042539097 -0.06812474
000280 ac 8c be bb 0a b7 41 3a 49 d4 85 bd 07 6f d1 3d
       -0.0058151092 0.00073896407 -0.06534631 0.10226255
000290 3d df 08 bd 55 c8 f9 bd 44 56 cf 3d bd 9b 6d 3d
       -0.03341602 -0.121964134 0.10123876 0.05800985
0002a0 fd 83 87 3c 0e 20 bb 3c 1d e2 77 3c f4 6f 44 3d
       0.01654243 0.022842433 0.015129593 0.04795833
0002b0 08 ed bd bd 95 56 27 bd 88 aa cd 3c 07 0d 77 3d
       -0.09273726 -0.040854055 0.02510573 0.06031516
0002c0 62 e0 fa bd 3e 02 92 3d c1 0c 51 be 65 e2 c6 3d
       -0.12249829 0.07129334 -0.20415021 0.0971115
0002d0 12 dd 13 bd 95 05 a6 bc a8 41 66 bd 07 18 8b 3d
       -0.0360995 -0.020266334 -0.05621496 0.06791692
0002e0 24 2e 4f 3d ef 8b 4b 3b 84 72 d1 bc e8 61 d6 3d
       0.050581113 0.0031058749 -0.0255673 0.10467893
0002f0 a6 c5 8b 3c 3d 9f 54 3d 80 ee d9 bc 48 b4 1c 3b
       0.01706202 0.051909674 -0.026602983 0.0023911167
000300 49 33 09 bd e1 8a ac bd a6 5c 20 bd 05 2b 47 bd
       -0.033496175 -0.084249265 -0.039150856 -0.04862501
000310 43 75 1d bd 40 93 b2 3d f3 99 98 3c 1e da 07 bd
       -0.038441908 0.08719492 0.018628096 -0.033166997
000320 98 e7 b4 bd 99 3f 25 3b 81 c8 be 3d a1 5f 71 bc
       -0.088332355 0.002521491 0.09315587 -0.014732272
000330 0d 5e ac bd c7 93 b3 3c c4 9f ca 3c ae d0 ea 3d
       -0.08416376 0.021921052 0.024734385 0.11465584
000340 20 9b 4e bd 1d 49 88 3d c5 d4 c9 bd 28 88 f5 3c
       -0.050440907 0.0665457 -0.09855036 0.02997215
000350 5b ae 31 3b 9e 6e a3 bd 04 0b b8 3d 1c b0 d3 bc
       0.002711198 -0.07980083 0.08986476 -0.025840811
000360 6c a5 46 bc 06 08 a7 3c a8 d0 3f 3d a1 27 e8 bc
       -0.012124401 0.020389568 0.04682985 -0.028339209
000370 57 69 04 3d d9 88 6e bc c4 04 6a 3d e9 66 17 bd
       0.032327022 -0.014558994 0.05713345 -0.036963377
000380 5c d6 a2 3e 19 59 3e bd ba 57 98 bd 56 e3 c8 3d
       0.31804168 -0.04647169 -0.074386075 0.09808986
000390 e3 2b 54 bd 02 b1 2f 3d ac 18 a5 3d d4 66 19 bc
       -0.051799666 0.042893417 0.080613464 -0.009362895
0003a0 e5 96 47 bc 1d f0 c6 bd 9f 44 67 3d 8c 03 81 3d
       -0.012181972 -0.09713767 0.056461927 0.06299505
0003b0 23 bd ad bd 53 46 b0 bc 76 7c 21 3d ba ae 70 bd
       -0.084833406 -0.021517908 0.039425336 -0.058760382
0003c0 38 9e 6d 3e 28 bc 82 bb 2f 92 8b bd ab 15 f9 3d
       0.23204887 -0.003989715 -0.06814992 0.12162336
0003d0 4a 7c 04 3e a3 ac 87 3d 9d 4e 5b 3d 54 01 5a bc
       0.12938038 0.06624725 0.05354177 -0.013305981
0003e0 f2 84 19 be d0 d9 44 3d 5e 34 3c 3d 7d df 85 bd
       -0.14992121 0.048059285 0.04594838 -0.06536768
0003f0 7e be 8e bd bc fe 90 3d c6 c9 ea bc d8 2b 9e 3c
       -0.06969927 0.07079837 -0.028660666 0.019308016

fc3.bias f4 [128]
000000 4a a5 f1 3d f9 a6 c4 3d 6a 71 c8 bd 4e 02 90 3d
       0.117991045 0.0960216 -0.09787257 0.070316896
000010 2c 58 e0 3d 57 4e ab 3d cb e2 85 bc 9a af bf 3d
       0.109543175 0.083645515 -0.016343495 0.09359665
000020 30 83 04 3e 84 74 fb 3c c8 95 04 bc a6 02 98 3d
       0.12940669 0.030695207 -0.008092351 0.0742238
000030 7e 18 87 bd 87 0c 9d bd ab 09 8e bd 28 dc a8 3c
       -0.065964684 -0.07668405 -0.06935438 0.020612791
000040 82 3a f3 bb 70 4b da 3d 24 c9 fa bd b1 2c 10 3d
       -0.007422746 0.1065892 -0.12245396 0.03519887
000050 d4 5e 2e bd 11 a1 41 bd 88 6b 2a 3d c9 85 96 bc
       -0.042570904 -0.047272746 0.041606456 -0.01837434
000060 c5 e5 09 3e b2 20 5d bd 8f fb 8f bb 0e ca 12 bd
       0.13466556 -0.05398626 -0.004394002 -0.035837226
000070 e8 c3 95 bd 21 c9 eb 3c 5f 65 21 bd 23 de 3e bc
       -0.07312757 0.02878243 -0.039403316 -0.011649641
000080 56 02 e3 3d 05 2e 9e 3d a6 98 e2 3b 81 6b 5d bd
       0.1108443 0.07723621 0.00691517 -0.0540576
000090 28 23 09 3d 51 a4 13 bd 94 e3 b5 bd 41 01 52 3d
       0.033480793 -0.036045376 -0.08881298 0.051270727
0000a0 17 c2 ce 3d 26 3f fe 3d a4 cc 07 3d e3 02 a0 bd
       0.100956134 0.12414388 0.033154145 -0.078130506
0000b0 24 7a d5 3d 9c b6 35 3d 4b c2 75 3d 4d e4 0e 3d
       0.10423687 0.044363603 0.059999745 0.034885693
0000c0 5a 40 ba bd 93 9b eb 3d e4 d1 00 3e e3 8d 62 bc
       -0.09094305 0.11504283 0.12580067 -0.013827774
0000d0 2f 28 48 bd bf fa ae bd 00 05 71 bb 98 11 0d 3e
       -0.048866447 -0.0854392 -0.0036776662 0.13776243
0000e0 04 8a 8f bc e1 d8 68 bd b6 43 4d 3c 13 89 a6 bd
       -0.017521866 -0.056847457 0.012528351 -0.081316136
0000f0 1b e0 eb 3c 52 64 98 3d 1d f6 43 3c 8a aa 08 bd
       0.028793385 0.074410096 0.011960533 -0.033365764
000100 3b c3 e0 3c c7 d7 99 3d 1d d8 75 3d ba 0c 9a 3d
       0.027436843 0.075118594 0.060020555 0.07521959
000110 a2 54 0b 3d 5e be bf 3b 43 75 e1 3d e0 96 80 ba
       0.03401626 0.005851551 0.11008694 -0.0009810589
000120 d3 4b 81 bd 87 3a e2 3c d0 d4 c3 bd c8 59 e4 3d
       -0.063132904 0.027615799 -0.09562075 0.11149937
000130 e6 e8 01 3d aa bd 26 3c 30 f2 8b bd 15 f0 51 bd
       0.03171625 0.010177055 -0.06833303 -0.05125435
000140 67 f8 d9 3d ac ad 8c 3c 48 48 b8 bd ae 1a de 3d
       0.10643082 0.017172657 -0.089981616 0.108449325
000150 d3 b4 95 bd 51 da 22 3b 0e e0 0c 3c 16 34 18 3c
       -0.0730988 0.0024849365 0.008598341 0.009289762
000160 5c 34 5c 3a 63 03 c2 bd a2 cb 02 bd e9 18 4e bd
       0.0008400136 -0.09473302 -0.03193248 -0.050316725
000170 d6 c8 24 bd 32 d2 a3 3b 5a 9a fc b9 65 29 93 3d
       -0.040230595 0.0049994225 -0.00048180186 0.0718563
000180 a3 b0 27 bc 4a ce 67 3c 2c 5b 3b bd 80 32 d8 3d
       -0.010234985 0.014148304 -0.045741245 0.10556507
000190 c1 78 ae bd a3 e1 d4 3d 32 49 99 3d e9 56 8b bc
       -0.08519126 0.10394599 0.07484664 -0.017009215
0001a0 01 ba 46 3c 97 a1 e9 bc fe 06 06 3e e4 af 0f 3e
       0.012129308 -0.028519435 0.13088605 0.1403194
0001b0 0d 88 9d 3d cb 53 7e 3d 0c eb 7a bc 29 56 98 3c
       0.07691965 0.06209163 -0.015314829 0.018595772
0001c0 35 f4 d9 bd a4 32 7c bc 3d e1 23 bd cf 19 03 bc
       -0.10642282 -0.015392933 -0.040009726 -0.008001759
0001d0 ca 0c 26 bb 31 d2 40 bd fe 6d e5 3d a1 38 b6 3d
       -0.0025337213 -0.047075454 0.1120262 0.0889752
0001e0 ff b4 bb bd 8e 63 80 3d 78 72 2b bd dd f0 b9 bd
       -0.09165382 0.062689885 -0.041857213 -0.09079144
0001f0 f1 63 48 3d ba 0e 9f 3c d9 ed be bc c3 23 c7 3d
       0.048923437 0.019416202 -0.023306774 0.09723618

fc4.weight f4 [2, 128]
000000 9a 2e 0a be 4e d1 1e 3e 65 1f 09 3c f8 8c df 3d
       -0.1349434 0.15509531 0.008369301 0.109155595
000010 b6 d9 f7 bd ba fb e9 bd 88 cd 53 3d 47 47 5a bd
       -0.12102072 -0.11424966 0.05170968 -0.05329063
000020 35 19 36 be 93 32 47 be fa 30 50 3e 11 85 48 be
       -0.17783053 -0.19452886 0.20331183 -0.19582011
000030 a3 eb 17 bc 40 e6 73 3d 61 1b 01 b9 85 23 15 be
       -0.009272489 0.059545755 -0.00012312598 -0.14564331
000040 7c 67 01 3e c3 da af bd d4 95 09 bd 74 ec 00 3c
       0.12637132 -0.08586647 -0.033590153 0.007868875
000050 38 dc cc bd a4 ab c8 bd 31 2a e1 bd ff 27 08 3e
       -0.10002941 -0.09798363 -0.109943755 0.13296507
000060 d1 8a 6d be a5 00 f3 bb d9 de 51 be 9f ad 13 3e
       -0.23197486 -0.0074158483 -0.20495166 0.144217
000070 e2 f0 af bd db ca 16 be b7 c7 c3 3d 10 41 2e 3e
       -0.085908666 -0.1472582 0.09559577 0.17017007
000080 b9 db c3 bd 42 2d a9 bc 6c ff cb bc 9e d9 af 3c
       -0.09563393 -0.020651463 -0.024902068 0.021466073
000090 36 14 6f 3e bb c6 f5 3d e2 e9 47 bd 84 3e af be
       0.23347554 0.120007955 -0.048807032 -0.34227383
0000a0 04 43 23 be ff 5a bb be 46 3c 51 bd 5a 00 6e 3b
       -0.15943533 -0.36592862 -0.05108287 0.0036316128
0000b0 0a 4d d2 3d 8e 8f be bd a7 4d cb bd d0 bc df bd
       0.102686 -0.09304725 -0.099269204 -0.10924685
0000c0 2d b6 6d be e9 9e 14 3e a1 91 6e bd 95 97 cf bb
       -0.23214026 0.14513744 -0.05824435 -0.0063352087
0000d0 ec 6a 23 3e 09 d9 81 3d 2b bc 01 3b 31 f7 9d bd
       0.15958756 0.06340224 0.0019795995 -0.07713164
0000e0 81 b3 54 be fc bd 0a be 82 81 12 3d 4a ca 7a bd
       -0.207716 -0.13549036 0.03576804 -0.061228074
0000f0 0a 93 e2 3d 7e 05 1c bd 65 5a 8f bd 81 d1 4e bb
       0.11063202 -0.038091175 -0.06999663 -0.003155798
000100 25 0b 13 3e 23 55 10 be d6 c1 07 be 2e f5 03 be
       0.1435972 -0.14094977 -0.13257536 -0.12886497
000110 be 4e 3a be 9f 29 15 3e 66 17 2a be c3 88 56 be
       -0.181941 0.14566658 -0.16610488 -0.20950608
000120 34 11 8a 3d 81 44 f5 3d dd 1d 9e bd 76 b9 1b be
       0.067415625 0.11975957 -0.0772054 -0.15207466
000130 f6 8e b5 bd f8 d5 45 be 33 e6 d1 3c 80 0d 4a be
       -0.08865158 -0.19319904 0.025622463 -0.19731712
000140 93 11 88 be 6e 9f 1b 3e 1d aa 39 39 b2 6a d6 bd
       -0.26575908 0.15197536 0.00017706347 -0.10469569
000150 ca e8 82 bd 84 9c 27 3e a6 05 4a be 2b 54 c9 bc
       -0.06392057 0.163683 -0.19728717 -0.024576267
000160 26 f9 d1 3d 88 75 86 3d 22 8e dd bd 2f 5a 95 3d
       0.102525994 0.06565386 -0.10818125 0.07292592
000170 b1 1f 2b be f3 9e 02 3e 0a 41 ec 3c ca 60 0d be
       -0.16711308 0.12755947 0.028839607 -0.13806453
000180 a9 7c 53 bd 01 76 40 be 6f 8f d3 3c 3e a4 53 be
       -0.051632557 -0.18795015 0.02582523 -0.20668122
000190 81 e0 82 3d 45 b5 e1 bd be 62 e3 bd 79 b5 4a be
       0.06390477 -0.110209025 -0.11102818 -0.19795789
0001a0 2d 5a 58 3e 54 27 fa 3d ab c4 b2 be 2f 90 8b be
       0.2112815 0.122145325 -0.3491567 -0.2725844
0001b0 5d 09 ab bd 2a 41 53 bd 6f ba 27 bd 2e de 55 be
       -0.08351395 -0.051575817 -0.04094928 -0.20885536
0001c0 ee 98 f7 3d 78 2c 71 be d6 37 ab bc d3 1e 3a bd
       0.12089716 -0.2355212 -0.020900648 -0.045439553
0001d0 f7 1f 24 3e d3 7f 81 bd 11 e9 b1 bd 19 89 b4 3d
       0.16027819 -0.06323209 -0.08687032 0.08815212
0001e0 af 9a c8 bd 65 4b 29 bc 03 a6 5b bb eb 6a 91 3d
       -0.097951286 -0.010332917 -0.0033515699 0.07100471
0001f0 cd d5 20 be f3 14 00 3e cb a2 19 be e2 10 34 be
       -0.15706559 0.12507991 -0.15003507 -0.17584565
000200 03 bb e5 bd 25 fc e2 3b 57 ea ac 3b 22 5c a2 3c
       -0.1121731 0.0069270306 0.005276959 0.019819323
000210 8d 5f 91 bd 0f f6 bc bd 73 c1 85 bd c0 34 d3 bd
       -0.07098303 -0.092266195 -0.06531038 -0.10312796
000220 11 a8 46 be 0b 0c 29 be ce 56 ef 3d ec aa eb bd
       -0.1940005 -0.165085 0.116864786 -0.1150721
000230 db 30 f8 3d c5 f1 e2 3c 18 4e da 3e e5 93 05 be
       0.121186934 0.027703175 0.42637706 -0.13044699
000240 34 bc 2a bd 2b a4 11 be 13 39 a0 3d a1 5b 08 be
       -0.04168339 -0.14222781 0.07823386 -0.13316204
000250 41 56 f8 3d f6 07 68 bd c6 1c e6 bd bc 44 26 bd
       0.121258266 -0.056648217 -0.11235957 -0.040592894
000260 95 37 be bd 72 9e 92 bc 9a 12 bd bd f3 ce 40 3d
       -0.09287945 -0.017897818 -0.092320636 0.047072362
000270 01 13 90 3d 67 2b 2e 3d 45 98 5d bd 0b 04 ce 3d
       0.07034875 0.04252186 -0.054100294 0.10059365
000280 82 43 37 be 6e 17 0b be e3 54 02 3f a4 25 0f 3b
       -0.17896846 -0.13583156 0.50910777 0.0021842504
000290 38 3a ec 3e 3d 6f 55 3d 7c 91 1c 3d c8 88 b9 bd
       0.46138167 0.05210804 0.038224682 -0.09059292
0002a0 60 3f 87 bd 86 5e d7 bc 07 32 2a 3d 9e 1b d1 bb
       -0.06603885 -0.02629019 0.041551616 -0.006381466
0002b0 0c 2f c2 bd 10 73 df bd ef 5a e9 3d d3 11 a3 bc
       -0.0948163 -0.10910618 0.11394297 -0.01990596
0002c0 91 4b 1e 3e f0 49 55 3e b2 a1 08 be 38 ed 05 be
       0.15458514 0.20828986 -0.13342932 -0.13078773
0002d0 5d 9c eb 3d fb 51 f4 3b 6e 18 8b bd 0c 64 7c be
       0.11504433 0.007456062 -0.06791769 -0.2464754
0002e0 b7 3d 4b bd d8 53 92 3d cb 1c bb bd cd 82 97 3d
       -0.049619403 0.07144898 -0.09136351 0.07397995
0002f0 48 8d 4c 3d ce b6 66 be 84 55 93 bd 66 9b 11 3c
       0.049939424 -0.22530672 -0.07194045 0.0088871475
000300 d2 45 2f 3e c2 f7 aa bd 18 a6 24 be 73 f0 8a bd
       0.17116478 -0.08348037 -0.16078985 -0.06784143
000310 91 ae c0 bd 9a 55 4f 3e 87 52 60 3e 6a a4 2b 3e
       -0.09408296 0.20247498 0.21906482 0.16761938
000320 b3 a3 b4 3c fb 5e 44 3e 0b dd 80 bd 62 a2 00 be
       0.022050714 0.19176857 -0.062921606 -0.12561944
000330 49 53 ac 3e 15 47 c7 bd 4f ec 6a 3d 5c 7f f5 bd
       0.33657292 -0.09730355 0.057354268 -0.119871825
000340 c4 dd 01 3c ac 86 cb 3d 1a 9e 4c 3d 21 2c 4c be
       0.007926408 0.09937796 0.049955465 -0.19938709
000350 0c 9a 55 3e 2c 7e 6f 3d cd 98 15 bd 4f 62 11 bd
       0.20859545 0.058469936 -0.036522675 -0.035494145
000360 67 50 27 3e fd be 31 3c 4d 71 01 3e f4 4c 26 bd
       0.16339265 0.010848758 0.12640877 -0.040600732
000370 6b 6d e1 bd 24 b0 68 3d 97 8e 88 3e d1 88 a3 bc
       -0.11007198 0.056808606 0.26671287 -0.0199627
000380 ac bb bb 3d fd e3 ba bd 21 9c fe bc 5e 4b d6 bd
       0.09166655 -0.091255166 -0.031080307 -0.10463594
000390 f2 e2 94 bc 39 35 43 bc aa 11 98 3e 0e f9 97 3e
       -0.018174622 -0.011914545 0.29700977 0.296822
0003a0 bf 4f df be f3 d9 7b 3e 9a e7 a3 3c 4f 95 20 bc
       -0.4361553 0.2459486 0.020007897 -0.009801223
0003b0 c4 7a 10 3f 84 4a 4f be 9d da 0a bd d3 f3 8c bd
       0.56437325 -0.20243269 -0.033899892 -0.06882443
0003c0 c5 21 40 3e e6 7c 52 3e f8 d5 37 bd f9 2f 75 ba
       0.18762882 0.20555457 -0.04488179 -0.0009353157
0003d0 66 61 49 3d 02 a7 29 3d e5 f2 a5 bd 16 45 2d bc
       0.049165152 0.041419037 -0.08102969 -0.010575553
0003e0 57 ad a8 3e ca 53 65 be 32 35 9c 3c 74 35 50 3d
       0.32944748 -0.22395244 0.019068334 0.050832227
0003f0 fc 26 a4 bd f7 81 32 3e 43 c7 5c bd 7c e2 9f bd
       -0.08015248 0.1743239 -0.05390097 -0.0780687

fc4.bias f4 [2]
000000 f3 dd 87 bd 94 09 09 3d
       -0.0663413 0.0334564

fc1.weight f4 [128, 7]
000000 fb df 84 3e fb b9 ee be 2c 67 37 3e d3 71 3c 3e
       0.25952134 -0.46626267 0.1791045 0.18402795
000010 1f 2e 8a be fd 29 26 3e 26 89 51 3e 9a f7 51 3d
       -0.26988313 0.16226955 0.20462474 0.051261522
000020 b6 06 91 3e 2b 87 6d 3c 04 67 88 3e 40 a9 b7 3d
       0.28325433 0.014497559 0.26641095 0.08967829
000030 bd c0 91 3d c6 c5 32 3e f8 8b b6 be 8a de dd 3d
       0.0711684 0.17458257 -0.35653663 0.108334616
000040 f5 60 1f be 14 69 b6 be ee 36 95 be 0e 18 0e bd
       -0.1556433 -0.35627043 -0.2914347 -0.03469091
000050 59 36 e8 3c d2 d7 76 be 13 2f 47 3e 9e 99 5c 3d
       0.028346227 -0.24105766 0.19451551 0.05385744
000060 fd 45 dc 3d f5 f6 84 3c 21 02 b4 3d 5f 05 da 3e
       0.10755537 0.01623104 0.087894686 0.42582223
000070 d9 a8 03 bd fa 35 c0 3e ee 6e 01 bf 78 90 a9 bd
       -0.032143448 0.3754118 -0.5055989 -0.08279508
000080 42 04 bd be 33 2c 49 3e 62 e9 c5 3e 42 c5 a2 3c
       -0.3691731 0.19645767 0.3865462 0.01986945
000090 48 7a 0f 3e 5d db 79 3e 86 ff 91 be f3 67 9e 3d
       0.1401149 0.24400087 -0.2851526 0.077346705
0000a0 13 53 ad be 1e 7d cb bd 6a 78 06 3e 5f 59 85 be
       -0.33852443 -0.099359736 0.13131872 -0.26044747
0000b0 3d 31 02 3e 1e a0 6b be bb 1b 0c be c3 e7 ba be
       0.12714095 -0.23010299 -0.13682453 -0.36504945
0000c0 9c 78 69 be 94 0b 22 bc ac 6d 06 3e a9 4b 9f be
       -0.22799915 -0.009890456 0.13127774 -0.31112412
0000d0 ff a8 aa be 34 b3 ea 3d fb 14 41 3e d0 79 bd 3e
       -0.3333206 0.114599615 0.1885566 0.37006998
0000e0 6f b4 14 be a2 be 26 3e 0b b5 c9 3e c6 c5 ef 3d
       -0.14521955 0.16283658 0.39395937 0.11707644
0000f0 fd 55 9f be 49 c2 cb 3e 58 ff 03 3e 9a 79 30 be
       -0.3112029 0.39796665 0.12890375 -0.17233887
000100 0a 05 99 be 48 3f 91 3e 8f 4a b1 bd 60 63 69 be
       -0.29886657 0.28368592 -0.08656799 -0.22791815
000110 33 bb 49 be 6b 18 fa 3d fa 93 28 3e d8 ec c8 3e
       -0.19700317 0.122116886 0.16462699 0.39243197
000120 92 21 ef bc 7f 28 c5 3e 4e 98 db 3e a1 e6 5c bd
       -0.029190812 0.3850746 0.42889637 -0.053930882
000130 68 a2 ea be a0 05 1f 3e 50 7e 81 be 4a e7 16 3d
       -0.4582703 0.1552949 -0.2529168 0.03684167
000140 b6 11 49 be 72 7f 21 bf c0 55 f2 3e cd b4 4e be
       -0.19635662 -0.6308509 0.47331047 -0.20186158
000150 9c b8 21 3e cf 95 bc be bc ec b5 3e 17 d3 36 be
       0.15793079 -0.36833045 0.35532176 -0.17853962
000160 11 3f b5 3e 26 1a 8d be 09 c7 42 bd cf 70 a8 3e
       0.35399678 -0.27559012 -0.047553096 0.32898566
000170 7c d1 b2 3e a3 35 72 be 8d 8c 8e be 8b be a6 3e
       0.3492545 -0.23653273 -0.27841607 0.32567248
000180 44 f1 23 3e 84 59 6c be 53 91 50 3e 66 7d 8c be
       0.16010004 -0.23081023 0.20367937 -0.2743942
000190 3a e7 17 be 08 4d 2b be af b1 23 3c bd 18 c0 3e
       -0.148343 -0.16728604 0.009991094 0.37518874
0001a0 92 60 38 be cc 83 eb 3d d3 3b 6e be f5 5f 79 3e
       -0.18005589 0.11499748 -0.23265009 0.24353011
0001b0 36 2f 59 3e fd dd fe bd e0 b1 cf 3e 49 81 d5 bd
       0.21209416 -0.12444685 0.40565395 -0.1042505
0001c0 77 08 da 3c ed e3 4c 3e dc ab dd bd de 7d de be
       0.026615364 0.20008822 -0.10823795 -0.43455404
0001d0 69 03 af 3b 13 f6 88 be 60 71 63 3e 35 5f fe 3e
       0.0053409827 -0.2675024 0.22211218 0.49682012
0001e0 40 0d 72 3e 31 f8 9c 3e 54 69 4f be ed db c2 be
       0.23637867 0.30658105 -0.20255023 -0.38058415
0001f0 81 fe ff 3d 3e a7 4b be 29 67 03 3e cd a0 6d bd
       0.12499715 -0.19888017 0.12832321 -0.05801468
000200 ba 71 47 bf 8c 0b 93 3d 2d 48 10 3a a3 4c bf be
       -0.7790791 0.07179937 0.0005503919 -0.37363157
000210 54 15 06 3e 06 10 92 3b fc 20 81 be e7 ed 0b be
       0.13094074 0.0044574765 -0.25220478 -0.13664971
000220 70 c0 00 3e 55 bb 98 be 2e 75 3e be 0b d3 2f be
       0.12573409 -0.29830423 -0.18599388 -0.1717035
000230 aa 2d 43 be 0c dc 3a be d0 d3 3e 3e 1e e2 d1 bd
       -0.19060388 -0.18248004 0.18635488 -0.102482066
000240 16 16 8c be b0 d5 76 3e ac 11 a7 be cb 7e 38 be
       -0.273606 0.24104953 -0.3263067 -0.18017118
000250 6f b2 aa bd b3 9c 9d be bf f7 e9 bc 55 04 8e be
       -0.08334815 -0.30783615 -0.028560517 -0.2773768
000260 17 b7 de 3d 4e 8c 06 be 1d 1c 4d 3e b7 02 ad 3e
       0.10874765 -0.1313946 0.20030256 0.33791134
000270 98 d5 7e be cd 07 21 be 5e fc 25 be 8b eb d9 bd
       -0.24886167 -0.15725632 -0.16209552 -0.106406294
000280 7f d6 a0 3e 45 9f f2 be 30 03 22 be fa d7 94 bd
       0.31413648 -0.47387138 -0.15821528 -0.07267757
000290 7d 46 57 3e 96 5d ae 3e b3 d0 94 3e 76 db e7 be
       0.21022983 0.34055775 0.29065475 -0.45284623
0002a0 f6 d2 e7 3d f8 46 b6 be 44 1d ca be 80 aa b5 3d
       0.113195345 -0.3560102 -0.39475453 0.08870411
0002b0 63 ca e5 3d 50 c2 bd bb 02 fd 8a 3d 8c ab 07 3d
       0.11220243 -0.005790986 0.06786539 0.033122584
0002c0 b6 15 3c 3d 7a 6a 71 bf f5 f8 75 be 5c 39 b7 bc
       0.045919143 -0.94303095 -0.24020751 -0.022366218
0002d0 6e b8 c2 be d2 31 29 3e 30 1b 86 3d 5a 13 02 3e
       -0.38031334 0.16522911 0.06548154 0.12702695
0002e0 b6 20 8c be e5 2f 04 3e 77 f2 86 3e 7f 90 7b 3e
       -0.27368706 0.12908895 0.2635686 0.2456684
0002f0 a3 db 85 be 81 be e5 bc 92 5f 75 be f9 06 cd 3e
       -0.26144132 -0.02804494 -0.23962238 0.40044382
000300 3f 21 98 be ee b3 ab be 65 d4 10 3c 61 2c 1a be
       -0.29712865 -0.33535713 0.008839701 -0.15055992
000310 64 5d 80 3e 7f fd fc 3d 1d 0e 07 be 59 ff 6d bd
       0.2507125 0.12353038 -0.13188978 -0.058104847
000320 55 43 6f be 8e 50 d9 3d 25 d1 dc 3d c8 b7 a9 be
       -0.23365529 0.10611068 0.10782079 -0.33148026
000330 2f af 50 be 16 75 95 3e bf 4c 02 be 5b 94 e3 3e
       -0.20379327 0.29190892 -0.12724589 0.44449124
000340 cb 72 2c be f1 65 4a be 73 af b8 be a3 49 ae 3e
       -0.16840665 -0.1976545 -0.36071357 0.34040555
000350 5d 1c c1 be 06 a1 18 bd 9e 71 73 3d ff 07 d5 3d
       -0.37716952 -0.03726294 0.059434526 0.10401916
000360 63 7f 54 be 57 df b1 bd 54 26 31 be df d8 52 bd
       -0.20751719 -0.08685177 -0.17299777 -0.051476356
000370 49 6c 18 be 77 61 ba be 65 96 3a 3e 0e 2e 52 be
       -0.14885058 -0.36402485 0.18221433 -0.20525381
000380 d8 4b 35 be 1c 81 a0 3e 00 40 2d bf 31 f3 84 3e
       -0.17704713 0.31348503 -0.6767578 0.2596679
000390 5c 73 94 3e 1e 77 1e 3e 6c d0 0b 3e 2c 1a 62 3e
       0.28994262 0.15475127 0.13653725 0.22080296
0003a0 50 8f af bc a0 66 e3 be 7a e5 47 bd eb f4 be 3e
       -0.021430641 -0.44414234 -0.04880283 0.37296233
0003b0 6a 2c 91 3c ae f7 bd 3e 9b ec 49 bd d2 4d 12 bd
       0.017721374 0.37103027 -0.04929791 -0.035718746
0003c0 e9 fb 43 be b3 e6 fd bd 68 03 97 be 3b 2c 10 be
       -0.19139065 -0.12397518 -0.29494786 -0.14079373
0003d0 cd 55 f8 3e d0 44 52 3e bb 39 da 3e 73 55 3b bd
       0.4850296 0.20534062 0.4262217 -0.045735788
0003e0 a2 83 92 3e 12 b3 7a 3e f0 1f 9c 3e 2c d1 97 3e
       0.28616053 0.24482372 0.30493116 0.29651773
0003f0 95 7c a3 be 24 7c ac 3e e0 15 b6 3e 8a 45 a0 3e
       -0.31930986 0.33688462 0.35563564 0.31303054

fc1.bias f4 [128]
000000 4e 20 9d be ed 45 11 3d 19 4c 30 3e 5e d9 9b bc
       -0.3068871 0.035467077 0.17216529 -0.019024547
000010 31 24 ab 3e 33 07 ae be e2 a6 1b 3e 55 d4 33 3e
       0.3342605 -0.33989868 0.1520038 0.17561467
000020 86 82 0b bd 5b e1 7f bd 18 ed 3e 3e 5c 72 0a 3e
       -0.034060024 -0.062470775 0.18645132 0.13520187
000030 50 c3 c4 be e5 99 21 bd 5d 0d 6f be 1c 93 87 be
       -0.38430262 -0.039453406 -0.23344941 -0.26479423
000040 10 1f 1f be 87 4e 8a be 9d 92 8c 3e 48 7b 37 3e
       -0.15539193 -0.27013037 0.27455607 0.17918122
000050 2c 60 5e be 27 3f 9a bd 98 4e 79 3e 36 a4 43 3d
       -0.21716374 -0.075315766 0.24346387 0.047764026
000060 bc 78 e7 bd ea e6 7d 3e 5b 1b 96 3e 5e 55 b3 3e
       -0.11302325 0.24795118 0.29317746 0.35026067
000070 c3 6c 29 3d a9 75 6f 3e f7 4f 61 be 0e 75 b1 be
       0.04136349 0.23384728 -0.2200316 -0.34659618
000080 34 26 63 bc ea 39 e0 3d 5a 39 1b 3c 6a 82 98 3e
       -0.013864089 0.10948546 0.009474123 0.29786998
000090 ec 6c 7c 3e 99 a8 24 3e 88 48 e9 3c 8f 8b fc 39
       0.24650925 0.1607994 0.028476968 0.00048169165
0000a0 e7 04 ad 3e 04 6f 83 3e e5 02 80 3a fc d1 ce 3e
       0.33792803 0.25670636 0.0009766488 0.4039458
0000b0 3f 22 02 be e9 71 48 3e e0 28 53 3e 4c 78 90 3d
       -0.12708376 0.19574703 0.20621061 0.07054195
0000c0 62 3d a9 be 4b 88 66 3e 24 3d a3 bc 7f 08 bd be
       -0.33054644 0.22512929 -0.019926615 -0.36920545
0000d0 d2 cf 51 be f8 90 d6 be 14 a7 98 bd 4a 0f 93 3d
       -0.20489433 -0.41907477 -0.074537426 0.071806505
0000e0 40 28 8d be f6 03 a7 be 90 c6 c0 be 19 7a 95 3e
       -0.2756977 -0.3262021 -0.3765149 0.29194716
0000f0 3d 71 f5 3d c1 3e 46 be 47 66 a1 bd cb e3 a3 bd
       0.11984489 -0.19359876 -0.07880836 -0.080024324
000100 4d 8f d4 bd a5 f0 34 3e 84 6e 90 bd df 9d 05 be
       -0.10378895 0.17669924 -0.07052329 -0.13048504
000110 5c 20 1a be be 8d 7a bd d2 71 61 3e 86 70 9d 3c
       -0.15051407 -0.061170332 0.22016075 0.019218694
000120 cd e2 2e be 3e 0d 19 bd c9 fe 1b 3e f1 7b ac be
       -0.17078705 -0.037366144 0.15233912 -0.3368831
000130 af d7 43 3e 0b e3 1d 3d 55 2c 85 3d b7 be 1b be
       0.19125246 0.038546603 0.06502596 -0.1520947
000140 07 47 91 3e 7c 19 e9 bd 1d 79 90 3e 66 a7 9e be
       0.28374502 -0.11381814 0.28217402 -0.3098709
000150 9a e6 97 bd 5f bc 8f 3e f2 45 2f be 6c 89 1e be
       -0.07417031 0.28073403 -0.17116526 -0.1548211
000160 11 14 b7 3e 55 99 c7 3d f1 6f b6 bd e4 8a 76 be
       0.35757497 0.09746043 -0.0890807 -0.2407642
000170 6f 85 9a 3e da 1d c5 3e dd 18 6e bd 63 5a 49 3e
       0.30179927 0.38499337 -0.05812918 0.19663386
000180 14 8f ba be f4 a1 a6 3e 38 00 f2 3d 06 c5 5c bd
       -0.36437285 0.32545435 0.11816448 -0.053898834
000190 a9 87 0b 3e c4 ef a8 3e 21 70 77 3e 29 cb 99 bd
       0.13625969 0.32995427 0.24163868 -0.07509453
0001a0 5b 2c ee 3d cd 3f 20 be c4 e9 11 be c8 b5 8e 3e
       0.11629554 -0.15649338 -0.14249331 0.27873063
0001b0 83 81 88 3e ec 07 93 be b2 ad 2b be 8d 17 99 3e
       0.2666131 -0.2871698 -0.16765478 0.2990078
0001c0 00 4a 92 3e 5d 94 31 3e 6b d5 a8 3e 85 44 9f be
       0.28572083 0.17341752 0.32975325 -0.31106964
0001d0 51 a6 ca bc 8f 36 53 bd ab 06 87 3e db a6 a1 bd
       -0.024737509 -0.051565703 0.26372275 -0.07893153
0001e0 26 84 ac 3d 51 2a d0 3c 95 aa 37 be c5 ad 04 3e
       0.08423643 0.025410803 -0.17936166 0.12956913
0001f0 71 80 3e be 8b 82 18 be e0 a9 91 3e 19 a4 94 be
       -0.18603684 -0.14893548 0.28449917 -0.29031447
