flappybird_dqn_ep350.pth (torch, 561729 bytes, 32 tensors)

fc1.weight f4 [128, 7]
0	0x3e89af19	0.268914
1	0xbeff6a69	-0.49885872
2	0x3e4f408d	0.20239468
3	0x3e4be9f8	0.19913471
4	0xbe8445e1	-0.25834563
5	0x3e3d4ec9	0.18487085
6	0x3e6ed2fd	0.23322673
7	0x3d83e8e2	0.06440903
8	0x3eb1a337	0.34694836
9	0x3c7f0b38	0.01556664
10	0x3e5f4140	0.21802235
11	0x3d827afb	0.06371113
12	0x3d58c5c9	0.052922998
13	0x3e10dea4	0.1414743
14	0xbeb68bf8	-0.35653663
15	0x3dddde8a	0.108334616
16	0xbe1f60f5	-0.1556433
17	0xbeb66914	-0.35627043
18	0xbe9536ee	-0.2914347
19	0xbd0e180e	-0.03469091
20	0x3ce83659	0.028346227
21	0xbe86fabb	-0.26363167
22	0x3e107d7f	0.14110373
23	0x3d30649b	0.043064695
24	0x3dac18b4	0.08403149
25	0x3d739142	0.0594647
26	0x3da641f4	0.08118048
27	0x3ed75152	0.4205423
28	0xbd1c4289	-0.03814939
29	0x3ec35742	0.3815251
30	0xbefea04f	-0.4973168
31	0xbd8f7e82	-0.07006551
32	0xbedca43f	-0.4309406
33	0x3e45211b	0.1925091
34	0x3eccbbb0	0.39986944
35	0x3ca2c542	0.01986945
36	0x3e0f7a48	0.1401149
37	0x3e79db5d	0.24400087
38	0xbe91ff86	-0.2851526
39	0x3d9e67f3	0.077346705
40	0xbead5313	-0.33852443
41	0xbdcb7d1e	-0.099359736
42	0x3dddc419	0.10828418
43	0xbe8b7845	-0.27240196
44	0x3dee3424	0.11631039
45	0xbe81f7e0	-0.25384426
46	0xbe27d795	-0.16390832
47	0xbec62eca	-0.38707572
48	0xbe827d89	-0.254864
49	0xbd4c7e68	-0.049925238
50	0x3e181c2f	0.14854501
51	0xbebb61ef	-0.36598155
52	0xbec467a4	-0.38360322
53	0x3c617322	0.01376036
54	0x3e0d044b	0.13771169
55	0x3eaa862d	0.33305493
56	0xbe24a48a	-0.16078392
57	0x3e1189f8	0.14212787
58	0x3ecce2c4	0.40016758
59	0x3dc6d940	0.09709406
60	0xbe9c26fc	-0.30498493
61	0x3ecb6f65	0.39733425
62	0x3de2bcdd	0.11071179
63	0xbe30799a	-0.17233887
64	0xbe99050a	-0.29886657
65	0x3e913f48	0.28368592
66	0xbdb14a8f	-0.08656799
67	0xbe696360	-0.22791815
68	0xbe49bb33	-0.19700317
69	0x3dfa186b	0.122116886
70	0x3e12e6ab	0.14345805
71	0x3eb291f4	0.34876978
72	0xbcb415c6	-0.021983039
73	0x3ea9bd02	0.33152014
74	0x3ed3b418	0.41348338
75	0xbd8c78c9	-0.068589754
76	0xbf06b169	-0.52614456
77	0x3e232897	0.15933453
78	0xbe897f7e	-0.2685508
79	0x3d0b8a29	0.034067307
80	0xbe450840	-0.19241428
81	0xbf248e65	-0.64279777
82	0x3ef1c1b6	0.47218102
83	0xbe62da9e	-0.22153708
84	0x3e21b89c	0.15793079
85	0xbebc95cf	-0.36833045
86	0x3eb5ecbc	0.35532176
87	0xbe36d317	-0.17853962
88	0x3eb53f11	0.35399678
89	0xbe8d1a26	-0.27559012
90	0xbd42c709	-0.047553096
91	0x3e95f64d	0.29289475
92	0x3eb2f5c9	0.34953144
93	0xbe983d76	-0.2973439
94	0xbea357bd	-0.31902876
95	0x3e993250	0.29921198
96	0x3df2664f	0.1183592
97	0xbe96eaca	-0.29476005
98	0x3e423f4c	0.18969458
99	0xbeaeb309	-0.34120968
100	0xbe31ddd9	-0.17369784
101	0xbe11abca	-0.14225689
102	0xbc34ae52	-0.011027889
103	0x3ec1a03d	0.37817565
104	0xbe2bf67a	-0.16793242
105	0x3e0d9420	0.13826036
106	0xbe90e47b	-0.28299317
107	0x3e9d1784	0.30682003
108	0x3e75a01c	0.23986858
109	0xbdc616c4	-0.09672311
110	0x3ee7cce5	0.4527351
111	0xbda85796	-0.08219831
112	0x3cda0877	0.026615364
113	0x3e4ce3ed	0.20008822
114	0xbdddabdc	-0.10823795
115	0xbede7dde	-0.43455404
116	0x3baf0369	0.0053409827
117	0xbe88f613	-0.2675024
118	0x3e637160	0.22211218
119	0x3f0777de	0.5291728
120	0x3e926bcc	0.28597867
121	0x3ea1263d	0.31474486
122	0xbe52bc18	-0.20579565
123	0xbeca9e07	-0.3957369
124	0x3e014e84	0.12627608
125	0xbe352c52	-0.17692688
126	0x3e025f5c	0.12731689
127	0xbd31750a	-0.043324508
128	0xbf5806c1	-0.84385306
129	0x3da775d8	0.08176774
130	0xbbe8bdef	-0.00710272
131	0xbec64a19	-0.38728407
132	0x3e01d9ca	0.12680736
133	0x3c8f9a94	0.017529763
134	0xbe4cc60a	-0.19997421
135	0xbea33db8	-0.31883025
136	0x3e2b3e03	0.16722874
137	0xbea5bc42	-0.32370192
138	0xbe2309fc	-0.15921777
139	0xbe592eba	-0.21209231
140	0xbe432daa	-0.19060388
141	0xbe3adc0c	-0.18248004
142	0x3e3ed3d0	0.18635488
143	0xbdd1e21e	-0.102482066
144	0xbe8c1616	-0.273606
145	0x3e76d5b0	0.24104953
146	0xbea711ac	-0.3263067
147	0xbe387ecb	-0.18017118
148	0xbdaab26f	-0.08334815
149	0xbe9d9cb3	-0.30783615
150	0xbce9f7bf	-0.028560517
151	0xbe8e0455	-0.2773768
152	0x3ddeb717	0.10874765
153	0xbe068c4e	-0.1313946
154	0x3e49d587	0.1971036
155	0x3ecb4c37	0.39706585
156	0xbe7c5954	-0.24643451
157	0xbe23f5f6	-0.16011795
158	0xbe572e0c	-0.21013659
159	0xbe02db08	-0.12778866
160	0x3ea8c438	0.32962203
161	0xbefaba7d	-0.48970404
162	0xbe1ff499	-0.1562065
163	0xbd95f4c2	-0.073220745
164	0x3e49b958	0.1969961
165	0x3ea44904	0.32086957
166	0x3e8c9f8b	0.27465472
167	0xbf07f366	-0.5310577
168	0x3e13dd28	0.14439833
169	0xbeb0fd0b	-0.34568056
170	0xbeea8cce	-0.4581055
171	0x3e091899	0.1338829
172	0x3db030cf	0.086030595
173	0x3ccc6fe5	0.0249557
174	0x3ddae094	0.10687366
175	0x3b8c494f	0.0042812
176	0x3dbd1069	0.092316456
177	0xbf7c8826	-0.98645246
178	0xbe82d670	-0.25554228
179	0xbc8b1c02	-0.016981129
180	0xbed53ff7	-0.41650364
181	0x3e2fd2d3	0.17170267
182	0x3d3f204c	0.04666166
183	0x3e12d96a	0.1434075
184	0xbe8924f2	-0.26786
185	0x3dba2dd0	0.09090769
186	0x3e656b93	0.22404318
187	0x3e67565f	0.22591542
188	0xbea74a32	-0.32673794
189	0xbc9cfd75	-0.019163826
190	0xbe3fe44b	-0.1873943
191	0x3ec3f9da	0.3827656
192	0xbeaa4150	-0.33252954
193	0xbea0527b	-0.31312928
194	0xbc1739d0	-0.009230092
195	0xbe2fa901	-0.17154314
196	0x3e87a70e	0.2649464
197	0x3e2a281d	0.16616865
198	0xbde9bd46	-0.11413054
199	0xbd96adcb	-0.07357367
200	0xbe80d4d0	-0.25162363
201	0x3dd04e12	0.10171141
202	0x3dcd3657	0.1002013
203	0xbea44420	-0.32083225
204	0xbe66c62c	-0.22536534
205	0x3e993ab7	0.29927608
206	0xbdd8b89d	-0.10582087
207	0x3efccaf4	0.4937359
208	0xbe17bffb	-0.14819328
209	0xbe32d4cc	-0.17463988
210	0xbeb8af73	-0.36071357
211	0x3eae49a3	0.34040555
212	0xbec11c5d	-0.37716952
213	0xbd18a106	-0.03726294
214	0x3d73719e	0.059434526
215	0x3dd507ff	0.10401916
216	0xbe547f63	-0.20751719
217	0xbdb1df57	-0.08685177
218	0xbe312654	-0.17299777
219	0xbd52d8df	-0.051476356
220	0xbe186c49	-0.14885058
221	0xbeba6177	-0.36402485
222	0x3e3a9665	0.18221433
223	0xbe522e0e	-0.20525381
224	0xbe301553	-0.17195635
225	0x3eb807ba	0.35943395
226	0xbf3e7d51	-0.7440997
227	0x3e8dc831	0.27691796
228	0x3e7d2334	0.2472046
229	0x3e0bf131	0.13666226
230	0x3e029667	0.12752686
231	0x3e58d49a	0.21174851
232	0x3cfbe7e1	0.030750217
233	0xbef570e3	-0.47937688
234	0xbd84489d	-0.064591624
235	0x3ea455b2	0.3209663
236	0xbca77059	-0.020439314
237	0x3eba7644	0.36418355
238	0xbd3116c8	-0.043234617
239	0xbd3311f6	-0.0437183
240	0xbe90ff1e	-0.2831964
241	0xbdb6d57c	-0.08927438
242	0xbe911f78	-0.2834432
243	0xbe15d84f	-0.14633296
244	0x3efe0d57	0.49619552
245	0x3e4a23dd	0.19740243
246	0x3eeccac3	0.46248445
247	0xbd844ea8	-0.06460315
248	0x3e72795c	0.23679107
249	0x3e4c6ea2	0.19964078
250	0x3e8dc042	0.27685744
251	0x3e7e2d2e	0.24821922
252	0xbea9ec83	-0.33188257
253	0x3ea2f9e8	0.31831288
254	0x3eb57e27	0.3544781
255	0x3e8ab214	0.27088988

fc1.bias f4 [128]
0	0xbe98fcb7	-0.29880306
1	0x3cff0250	0.031129032
2	0x3ea5e01f	0.32397553
3	0xbc9376c8	-0.018000975
4	0x3e9eeee5	0.31041637
5	0xbeae0733	-0.33989868
6	0x3e90b0ca	0.2825988
7	0x3deb2f5f	0.11483645
8	0xbd274885	-0.040840644
9	0xbd7fe15b	-0.062470775
10	0x3e265951	0.16245009
11	0x3dfd59aa	0.12370618
12	0xbec4c350	-0.38430262
13	0xbd96194d	-0.073290445
14	0xbe80ebb6	-0.25179833
15	0xbe73d059	-0.23809947
16	0xbe1f1f10	-0.15539193
17	0xbe825f24	-0.25463212
18	0x3e8dc1a9	0.27686813
19	0x3e59f9d1	0.21286704
20	0xbe5e602c	-0.21716374
21	0xbd9a3f27	-0.075315766
22	0x3e658871	0.2241533
23	0x3d1d1671	0.03835148
24	0xbde1f36b	-0.110327564
25	0x3e77c8d0	0.24197698
26	0x3e868652	0.26274353
27	0x3eb75446	0.35806483
28	0x3d06924d	0.032854367
29	0x3e886c73	0.2664524
30	0xbe614ff7	-0.2200316
31	0xbeb1750e	-0.34659618
32	0xbcffba66	-0.031216811
33	0x3da9bf7b	0.08288475
34	0x3cd6a3fd	0.026201243
35	0x3e8a6b81	0.27035144
36	0x3e7a2c3c	0.24430937
37	0x3e3e378c	0.18575877
38	0x3d95905f	0.07302927
39	0xbcad8bec	-0.021184884
40	0x3eba25bc	0.36356914
41	0x3e9706e8	0.29497457
42	0xbc8827b3	-0.016620493
43	0x3ece84f4	0.4033581
44	0xbe02223f	-0.12708376
45	0x3e22bed2	0.15893105
46	0x3e21e77a	0.15810958
47	0x3d8f5cfa	0.07000156
48	0xbea93d62	-0.33054644
49	0x3e9ae89a	0.30255586
50	0xbd09beb5	-0.033629138
51	0xbebd087f	-0.36920545
52	0xbe51cfd2	-0.20489433
53	0xbed35268	-0.41273808
54	0xbdabffe9	-0.0839842
55	0x3daec5f6	0.08533852
56	0xbe8d2840	-0.2756977
57	0xbea703f6	-0.3262021
58	0xbec0c690	-0.3765149
59	0x3e8b3af3	0.27193412
60	0x3dd2f2c8	0.10300213
61	0xbe4f70da	-0.20257893
62	0xbd59f267	-0.05320969
63	0xbda6e329	-0.08148796
64	0xbddb457d	-0.10706613
65	0x3e014dae	0.12627289
66	0xbd906e84	-0.07052329
67	0xbe012321	-0.12611057
68	0xbe1a205c	-0.15051407
69	0xbd7cb1d1	-0.061693016
70	0x3e81c224	0.2534343
71	0x3cc00651	0.023440512
72	0xbe2ee2cd	-0.17078705
73	0xbc939744	-0.018016465
74	0x3e0a6003	0.13513188
75	0xbe9b94e8	-0.30387044
76	0x3e318bf5	0.17338546
77	0x3d59a299	0.05313358
78	0x3d6aa658	0.057287544
79	0xbe1bbeb7	-0.1520947
80	0x3e829f88	0.25512338
81	0xbdbc0901	-0.09181405
82	0x3e85afd1	0.261107
83	0xbe9ea766	-0.3098709
84	0xbd5d89bf	-0.054086443
85	0x3e82a434	0.25515902
86	0xbe2f45f2	-0.17116526
87	0xbde7d1b3	-0.11319294
88	0x3eaeb54b	0.3412269
89	0x3d87c9a4	0.06630257
90	0xbdac8fb2	-0.08425845
91	0xbe768ae4	-0.2407642
92	0x3e9d153e	0.3068027
93	0x3ebde47f	0.3708839
94	0xbd6e18dd	-0.05812918
95	0x3e3dbe63	0.18529658
96	0xbeba8f14	-0.36437285
97	0x3e9dbe0b	0.30809054
98	0x3e043222	0.12909749
99	0xbd92a247	-0.07159858
100	0x3df4b77d	0.1194906
101	0x3e9908e2	0.2988959
102	0x3e8298fc	0.25507343
103	0xbd452d87	-0.04813912
104	0x3dd41e8c	0.10357389
105	0xbe203fcd	-0.15649338
106	0xbe04e433	-0.12977676
107	0x3e8a875b	0.27056393
108	0x3e8a029d	0.2695512
109	0xbe9164b5	-0.28397146
110	0xbe1a80c5	-0.15088184
111	0x3e952b73	0.29134712
112	0x3e8418a5	0.25800052
113	0x3e11a7b8	0.14224136
114	0x3eaccffe	0.33752435
115	0xbea7cfdb	-0.3277577
116	0xbccaa651	-0.024737509
117	0xbd53368f	-0.051565703
118	0x3e8fd147	0.28089353
119	0xbdcbc88d	-0.099503614
120	0x3d1be114	0.038056448
121	0xbc06a3e5	-0.008217786
122	0xbe23e6b0	-0.16005969
123	0x3e05f4d5	0.13081677
124	0xbe52cded	-0.20586367
125	0xbe42d598	-0.19026792
126	0x3ea0414b	0.31299815
127	0xbe94a419	-0.29031447

fc2.weight f4 [128, 128]
0	0x3e703562	0.23457864
1	0xbc29e810	-0.010370269
2	0xbdf91fb1	-0.12164248
3	0xbc05561c	-0.008138206
4	0xbc85a6ec	-0.016314946
5	0xbd4ffd1e	-0.0507785
6	0xbe61ad4b	-0.22038762
7	0xbbc0f518	-0.0058885925
8	0xbc6827bc	-0.01416963
9	0x3d3e1b20	0.046412587
10	0x3d0bf76b	0.034171503
11	0x3e78a2b6	0.2428082
12	0xbcf6e6f4	-0.030139424
13	0x3e6915e2	0.22762254
14	0x3d9866bc	0.0744147
15	0x3da1408d	0.0787364
16	0x3cace6db	0.021106174
17	0x3e5794c6	0.21052846
18	0x3d347b67	0.044063
19	0xbdebfe75	-0.11523143
20	0x3d03e506	0.032200836
21	0x3c6bedbf	0.014399945
22	0x3d327778	0.043570966
23	0xbd3b0efe	-0.045668595
24	0xbe218faf	-0.15777467
25	0xbe1126e7	-0.14174996
26	0x3dac7507	0.08420759
27	0x3dc2e52a	0.09516366
28	0x3dfeb0e0	0.1243608
29	0xbde485f0	-0.11158359
30	0x3d5338eb	0.051567953
31	0xbbe0b761	-0.006857798
32	0xbd8a3214	-0.06747833
33	0xbcf01f29	-0.029311733
34	0xbe3154be	-0.17317483
35	0xbd349ec6	-0.04409673
36	0x3d9d0612	0.076671734
37	0x3c3b211d	0.011421469
38	0x3e781c99	0.24229659
39	0xbbb3b903	-0.0054847016
40	0x3e159ace	0.14609835
41	0x3d6e0f56	0.058120094
42	0x3d8d1420	0.06888604
43	0x3e63eab1	0.22257496
44	0x3c97b4c0	0.018518806
45	0x3cebc26a	0.028779227
46	0xbcd6e219	-0.026230859
47	0xbd5cc30f	-0.05389696
48	0x3bbadf22	0.005702869
49	0xbe20e09e	-0.15710685
50	0xbd4d42c1	-0.05011249
51	0xbd1c9dc5	-0.0382364
52	0x3da5b8ce	0.08091889
53	0x3e1b327d	0.15155979
54	0x3db44af2	0.08803357
55	0xbc801391	-0.01563433
56	0x3ac6df55	0.0015172759
57	0xbd3c4ebd	-0.04597353
58	0x3d38fb13	0.045161318
59	0x3bd84fd4	0.006601313
60	0x3e3fecc1	0.18742658
61	0xbe7da2a2	-0.2476907
62	0x3c417c4d	0.011809421
63	0x3de5c384	0.11218932
64	0xbe8f93d1	-0.28042462
65	0x3bcb0628	0.0061958022
66	0x3cc524cc	0.024065398
67	0x3e6922f0	0.22767234
68	0xbdb0a996	-0.08626096
69	0x3e0faaac	0.1402995
70	0x3c5b0fd4	0.013370473
71	0xbe2581a4	-0.16162735
72	0x3c8a6374	0.016893126
73	0x3d94629e	0.07245372
74	0xbda958c2	-0.08268882
75	0x3e95a4e2	0.29227358
76	0x3d612626	0.05496802
77	0x3e3a7b9c	0.18211216
78	0x3e9e3faf	0.30907962
79	0xbd450c83	-0.048107635
80	0x3dc45fd5	0.09588591
81	0xbe819290	-0.2530713
82	0x3cd4ac49	0.025961058
83	0x3d0eba27	0.034845497
84	0x3ece417a	0.4028433
85	0xbb58d4e4	-0.0033085877
86	0x3d077ee1	0.033079986
87	0x3e0e4c71	0.13896348
88	0x3e2858a3	0.16440062
89	0x3e9848c1	0.29743007
90	0x3d25a966	0.040444754
91	0x3c2a5f5d	0.010398713
92	0x3d8af492	0.06784929
93	0xbb0bf5b4	-0.0021356167
94	0xbd49aaba	-0.049235083
95	0x3cf56626	0.029955935
96	0x3d466277	0.048433747
97	0xbcb41f2a	-0.021987516
98	0xbd9bfa17	-0.0761606
99	0xbd552ebe	-0.05204653
100	0xbdc8d222	-0.09805705
101	0xbcf10804	-0.029422767
102	0x3e814cc3	0.25253877
103	0x3bc19ee3	0.0059088334
104	0xbd9fd1c1	-0.07803679
105	0xbd56c0f1	-0.052430097
106	0x3e318601	0.17336275
107	0x3c51e390	0.012810603
108	0x3e7d505e	0.24737689
109	0x3e441c61	0.1915145
110	0x3df84575	0.12122623
111	0xba721e20	-0.00092360564
112	0xbdb766b8	-0.08955139
113	0x3d573d60	0.052548766
114	0x3e76db33	0.24107055
115	0xbe0c2ec6	-0.13689718
116	0xbce2fed1	-0.027709397
117	0x3d8ab02e	0.06771885
118	0x3d9a5ca2	0.075371996
119	0xbca9410f	-0.020660905
120	0xbd957519	-0.07297725
121	0xbd1b2537	-0.037877288
122	0x3e6a52c5	0.22883137
123	0x3d871263	0.06595304
124	0xbe824d1c	-0.25449455
125	0xbdb20675	-0.08692638
126	0x3e178a76	0.14798912
127	0x3d4e6c0b	0.050396007
128	0xbe30b046	-0.17254743
129	0x3d93ac2f	0.07210576
130	0xbce64cd3	-0.028112805
131	0x3d998a98	0.07497138
132	0xbdf4f05e	-0.11959909
133	0xbdac0431	-0.08399237
134	0xbe2638f5	-0.16232665
135	0xbc5bd6a5	-0.013417874
136	0xbd418301	-0.047244076
137	0x3db4f49f	0.0883572
138	0x3dad0f98	0.0845024
139	0xbe119ad7	-0.14219223
140	0xbdb0a8e1	-0.08625961
141	0x3a4b8e67	0.0007765055
142	0xbe88e3d2	-0.26736313
143	0x3d774a01	0.06037331
144	0x3d98f5b9	0.07468743
145	0xbe6ec49a	-0.23317185
146	0xbcc4d6d6	-0.024028223
147	0x3bc7a8b5	0.0060931095
148	0x3d69c8a4	0.05707611
149	0xbc91a65c	-0.017779522
150	0xbe470e84	-0.19439131
151	0xbd1d0836	-0.03833791
152	0x3d4190bb	0.047257166
153	0xbeb1eb2b	-0.3474973
154	0x3d654880	0.055977345
155	0x3c87e947	0.016590727
156	0xbdd95a75	-0.106129564
157	0x3e7e6814	0.2484439
158	0xbc892a9d	-0.016743952
159	0xbccd2302	-0.025041107
160	0xbdcd5ee8	-0.100278676
161	0x3d049df3	0.032377195
162	0xbe8d329d	-0.27577677
163	0x3e0e6d92	0.13908985
164	0x3cc86f26	0.024467062
165	0x3e505eaa	0.20348611
166	0xbec1fab8	-0.37886596
167	0x3c8765d5	0.01652805
168	0x3e20dbf8	0.15708911
169	0x3daa9d8b	0.0833083
170	0xb8892a15	-6.5405075e-05
171	0xbe017f67	-0.12646256
172	0x3db39d4d	0.08770237
173	0x3de81cc3	0.11333611
174	0x3c65a2e8	0.014015891
175	0xbe1152c8	-0.14191735
176	0xbd494419	-0.04913721
177	0xbe1e6c39	-0.15470971
178	0xbeac4a28	-0.33650327
179	0x3da91b66	0.08257179
180	0x3da8e931	0.08247603
181	0xbc19aa03	-0.009378913
182	0x3d7b14f2	0.061299272
183	0x3e41d51a	0.18928948
184	0xbd84c9b0	-0.06483781
185	0x3db3c3f2	0.08777608
186	0x3daa9608	0.083293974
187	0x3dc70c99	0.097192
188	0xbd391058	-0.045181602
189	0x3e94ecba	0.29086858
190	0x3e025d37	0.12730871
191	0x3dade1a1	0.08490301
192	0x3e845287	0.25844213
193	0x3d832c53	0.064049385
194	0xbda5bcb3	-0.08092632
195	0x3dc4ccd6	0.09609382
196	0x3d482476	0.048862897
197	0x3e016942	0.12637809
198	0x3df1cdb8	0.11806816
199	0xbe15aee7	-0.14617501
200	0x3dafe298	0.08588141
201	0x3eab6916	0.33478612
202	0x3dc0da87	0.09416681
203	0xbe9cdf56	-0.30639142
204	0x3df8d7a5	0.12150506
205	0xbde43cc6	-0.11144404
206	0xbe9d4474	-0.30716288
207	0xbbc5947f	-0.006029665
208	0xbd73ed30	-0.05955237
209	0x3e684ef5	0.2268637
210	0x3c39f0bb	0.0113488985
211	0xbb023cbf	-0.0019872633
212	0xbed6627d	-0.41872016
213	0x3dbaa162	0.091128126
214	0xbd5ad727	-0.05342784
215	0xbe5a90d1	-0.21344306
216	0xbd894852	-0.06703247
217	0xbde06a7d	-0.10957811
218	0x3bba20dc	0.0056801867
219	0xbd9432d3	-0.072362565
220	0x3dfffef4	0.124998
221	0xbd2ecaf8	-0.042674035
222	0xbd968afe	-0.073507294
223	0x3d859492	0.06522478
224	0xbbdab813	-0.0066747754
225	0x3dcc17b7	0.09965461
226	0x3d737b99	0.059444044
227	0x3bf81aee	0.0075715696
228	0xbe1dfbc9	-0.1542808
229	0x3cb27071	0.021782132
230	0xbdd41ab8	-0.10356659
231	0x3e8e3a16	0.2777869
232	0x3dc4b40c	0.09604654
233	0xbcbfd5c6	-0.023417365
234	0x3d4357a3	0.047691
235	0x3dee26cb	0.11628493
236	0x3d691b5b	0.056910854
237	0xbf39841e	-0.7246722
238	0xbca39e07	-0.019972814
239	0xbe3054c1	-0.17219831
240	0xbcc3eaa2	-0.023915593
241	0xbe48f8f2	-0.19626215
242	0xbcc63912	-0.024197135
243	0xbe27fe71	-0.16405655
244	0xbabde296	-0.0014487084
245	0xbd31c62a	-0.043401875
246	0x3d4e3567	0.050343897
247	0x3d9e445d	0.07727883
248	0x3c1cbaa6	0.009565985
249	0xbc4d6252	-0.012535648
250	0xbedd62aa	-0.43239337
251	0xbd808929	-0.06276161
252	0xbd240b46	-0.040049814
253	0x3da5ba45	0.08092169
254	0xbb93fbc8	-0.0045160986
255	0xbd65afbd	-0.0560758

fc2.bias f4 [128]
0	0x3de93a7c	0.11388108
1	0xbcae7f88	-0.021301046
2	0xbda3e9f5	-0.08003608
3	0x3be7ca65	0.007073688
4	0x3cbd6baf	0.023122637
5	0x3ca29b2c	0.019849382
6	0xbd4102ba	-0.04712174
7	0xbd9e71a6	-0.077365205
8	0x3aa065fc	0.0012237425
9	0x3d4d239b	0.050082784
10	0xbd97491d	-0.07386992
11	0xb8ae72ab	-8.318325e-05
12	0x3d47baf6	0.048762284
13	0x3c46f448	0.012143202
14	0xbd30c528	-0.043156773
15	0x3c86d48c	0.016458772
16	0x3c99ca18	0.018773124
17	0x3dc04f60	0.093901396
18	0x3bf4f8ae	0.007475934
19	0x3d755914	0.059899405
20	0x3d7846c1	0.06061435
21	0x3db0a4d6	0.0862519
22	0x3dd56a56	0.104206726
23	0x3c160d35	0.009158422
24	0x3b94b6ea	0.0045384066
25	0x3d9cb07b	0.076508485
26	0x3c64fbb5	0.013976027
27	0x3d2f6abd	0.042826403
28	0x3d80c9fc	0.062885255
29	0xbd9dca45	-0.077045955
30	0xbc2a4fed	-0.010395032
31	0xbdb0564f	-0.08610212
32	0x3cf99751	0.030467661
33	0x3c4c14cd	0.012456131
34	0xbd5ad834	-0.053428844
35	0x3c4a97cc	0.012365293
36	0x3c5f739d	0.013638404
37	0x3d8f992b	0.07011636
38	0x3d22fee4	0.039793864
39	0x3db30793	0.08741679
40	0x3d87a746	0.06623702
41	0xbda7cb11	-0.08193029
42	0x3bf2a93f	0.0074054296
43	0xbd3b157e	-0.045674793
44	0x3ccc301c	0.024925284
45	0x3d85af0b	0.065275274
46	0x3d8bbaec	0.06822762
47	0x3d2e6a98	0.042582124
48	0x3b868c33	0.0041060685
49	0x3c9aa5ba	0.018877853
50	0x3d84f41d	0.064918734
51	0x3b6d2417	0.0036184841
52	0xbcea63e1	-0.02861208
53	0xbc1bbeee	-0.00950597
54	0xbd4d9d0c	-0.0501986
55	0xbcd0d4f9	-0.025492178
56	0x3d15d9c5	0.036584634
57	0x3d357b12	0.044306822
58	0xbd3eeff0	-0.04661554
59	0x3dd8f19c	0.10592958
60	0x3bdef31d	0.0068038837
61	0xbdb29d77	-0.0872144
62	0xbd91cc24	-0.07119015
63	0x3d545275	0.05183645
64	0xbd960882	-0.073258415
65	0x3d09bbbc	0.033626303
66	0x3c7aaadc	0.015299525
67	0xbd79217d	-0.060822953
68	0x3d85c9db	0.065326415
69	0xbcbfd9ea	-0.02341934
70	0xbd95eb8d	-0.07320318
71	0x3c27d500	0.010243654
72	0xbd9b7303	-0.07590296
73	0xbd9a9932	-0.07548751
74	0x3d1573d0	0.0364874
75	0x3d12ebdc	0.035869464
76	0xbd6e07bf	-0.058112856
77	0x3cfd07e2	0.030887548
78	0x3d6093c3	0.054828417
79	0x3cd19a2e	0.025586214
80	0x3dac7614	0.08420959
81	0xbd484431	-0.048893157
82	0xbd705df8	-0.058683366
83	0x3d2d8afc	0.042368874
84	0xbcc75d23	-0.024336403
85	0xbcf79c7a	-0.030225981
86	0x3cfb0856	0.030643623
87	0xbd857cc3	-0.06517937
88	0xba40ff6a	-0.00073622784
89	0xbcb9001b	-0.022583058
90	0x3cdf21d3	0.027237808
91	0x3dd06ade	0.10176633
92	0xbd822526	-0.06354742
93	0xbdbaff91	-0.09130777
94	0x3da22ea9	0.07919056
95	0x3e0005b4	0.12502176
96	0xbcb0f8d4	-0.021603025
97	0x3b052818	0.0020318087
98	0x3dd0c2b0	0.10193384
99	0xbd1f4746	-0.03888633
100	0x3d20ffb9	0.039306376
101	0x3dd30813	0.103042744
102	0xbc58aaae	-0.013224287
103	0xbdb5ed9f	-0.08883213
104	0xbb93d71f	-0.0045117284
105	0x3d53c020	0.051696897
106	0xbdafde51	-0.08587325
107	0x3d7e64b7	0.062107768
108	0xbcad468f	-0.021151809
109	0xbd79ea15	-0.061014254
110	0x3d0b1864	0.033958808
111	0xbd1a8848	-0.037727624
112	0x3d5a5bd9	0.05331025
113	0x3ce993a3	0.028512781
114	0xbd068f69	-0.03285161
115	0xbbb3854f	-0.005478538
116	0x3d66e1c4	0.05636765
117	0x3c461c30	0.012091681
118	0x3d3f1a43	0.046655905
119	0xbcf26579	-0.029589402
120	0xbcc68a87	-0.024235977
121	0x3d1d0306	0.03833296
122	0xbcd6c1fd	-0.026215548
123	0x3da95c54	0.08269563
124	0xbd502fef	-0.050826963
125	0xbd403e8b	-0.046934646
126	0x3c35531c	0.011067178
127	0x3d8d9275	0.069127

fc3.weight f4 [128, 128]
0	0x3c91be69	0.01779099
1	0x3cbc3df3	0.022978758
2	0x3c06092d	0.008180899
3	0x3b678daa	0.003533224
4	0xbd9aa325	-0.075506486
5	0xbdb9451a	-0.09046383
6	0x3c473e27	0.012160814
7	0x3c48f58f	0.012265577
8	0x3e1c2fae	0.15252563
9	0x3c988664	0.01861877
10	0xbcb7395e	-0.022366222
11	0x3d9458e6	0.072435185
12	0xbdc9650d	-0.09833727
13	0x3d11b1a1	0.03556979
14	0xbd497653	-0.04918511
15	0x3c91539f	0.017740069
16	0x3ddca647	0.107739024
17	0xbde8708e	-0.11349593
18	0xbd940fcc	-0.072295755
19	0xbc98f4df	-0.018671451
20	0xbd1e3b7c	-0.038630947
21	0xbd881c21	-0.0664599
22	0xb97dd1cc	-0.00024206116
23	0xbd21924d	-0.039446164
24	0xbe1c316a	-0.15253225
25	0x3d2b5435	0.041828353
26	0x3d28f931	0.041253272
27	0x3e5ba17a	0.21448317
28	0x3abb638a	0.0014296633
29	0x3d5f9b7c	0.05459164
30	0x3d350ece	0.044203572
31	0x3dc2ace8	0.095056355
32	0x3dcdb64e	0.100445375
33	0x3d9e92e3	0.0774286
34	0xbbb853e3	-0.0056252345
35	0xbc0bab98	-0.008524798
36	0xbd878f23	-0.06619098
37	0x3e4b6520	0.19862795
38	0xbcc2ea1d	-0.023793275
39	0x3d2a043b	0.04150794
40	0x3cbbaa95	0.022908488
41	0xbd54aea3	-0.05192436
42	0x3e0ef11e	0.13959166
43	0xbcc86810	-0.024463683
44	0x3dbe2d0a	0.09285934
45	0xbdd02601	-0.10163499
46	0xbd09b086	-0.03361561
47	0x3e15609d	0.14587636
48	0x3d436b68	0.047709852
49	0xbe06845f	-0.13136433
50	0x3dfa3069	0.12216265
51	0xbdbd87ec	-0.09254441
52	0x3d20342d	0.03911226
53	0xbd8aaf38	-0.067717016
54	0xbc4268d9	-0.011865818
55	0xbe10d13c	-0.14142317
56	0xbcbe8fac	-0.023261867
57	0x3bbaceb1	0.005700909
58	0x3cd452db	0.025918415
59	0xbde99a4b	-0.11406382
60	0x3c1fc4d1	0.0097515145
61	0xbdaf1e60	-0.085507154
62	0x3d9119c4	0.070849925
63	0xbcae760f	-0.02129653
64	0x3d4bafa8	0.049728066
65	0xbcd6e9ef	-0.026234595
66	0x3cf825eb	0.030291518
67	0x3dcbc013	0.099487446
68	0xbd3c53e5	-0.045978446
69	0xbda40153	-0.08008065
70	0xbc7e1c47	-0.0155096715
71	0xbda9162a	-0.082561806
72	0xbd19fd91	-0.037595335
73	0xbe0f7164	-0.14008099
74	0xbee340fb	-0.44385514
75	0x3d89c2ec	0.067266315
76	0x3cad33b4	0.021142818
77	0x3d61629a	0.055025674
78	0x3cdd8328	0.02704008
79	0xbe58bb85	-0.21165283
80	0x3d8cd636	0.06876795
81	0xbda3fc9c	-0.08007166
82	0xbcb37c82	-0.021909956
83	0xbd2d8f8c	-0.042373225
84	0x3c592e4d	0.013255668
85	0x3d922ea6	0.07137804
86	0x3de2b997	0.11070555
87	0x3db19055	0.08670107
88	0x3db32ea9	0.08749134
89	0x3bfab398	0.007650804
90	0x3dd40fc0	0.103545666
91	0x3de90a8c	0.11378965
92	0xbd1f308a	-0.03886465
93	0x3d7ae6cd	0.061255265
94	0xbd0a73ec	-0.033801958
95	0x3d90e759	0.07075376
96	0xbcfaf33d	-0.030633563
97	0x3d108ad8	0.03528866
98	0x3d1e7bcc	0.03869228
99	0x3c417c7e	0.011809466
100	0x3d46b5e6	0.048513316
101	0x3d83c0e1	0.06433273
102	0xbd274a30	-0.040842235
103	0xbd2ec69f	-0.04266989
104	0xbd199ed6	-0.037504993
105	0xbaa1f437	-0.0012356107
106	0x3d91565b	0.07096549
107	0x3d5690ce	0.05238419
108	0x3d731add	0.05935179
109	0x3d29c6a8	0.04144922
110	0x3de3d2e6	0.1112421
111	0x3d07ee81	0.03318644
112	0x3cdc4355	0.026887575
113	0x3ca6c8af	0.020359365
114	0xbc21a07f	-0.009864925
115	0x3b8bb082	0.0042629847
116	0xbd6e4df5	-0.058179814
117	0xbc44bf15	-0.012008448
118	0x3d97b7c6	0.07408099
119	0x3da405bc	0.08008906
120	0x3de1265e	0.10993646
121	0x3da96626	0.082714364
122	0x3dfc8b0d	0.12331209
123	0xbd15ee24	-0.03660406
124	0xbd0fa52a	-0.035069622
125	0x3c92e36e	0.017930713
126	0x3d452196	0.048127733
127	0x3da8b0a7	0.08236819
128	0x3d96ba4b	0.07359751
129	0x3e4e838f	0.20167373
130	0xbc2c8ad3	-0.010531145
131	0x3d997539	0.074930616
132	0x3d742900	0.059609413
133	0x3e11f6b3	0.14254265
134	0xbe2eebbe	-0.17082116
135	0x3d8b9ace	0.06816636
136	0xbdde7dce	-0.10863839
137	0xbe0efad1	-0.13962866
138	0x3d3db864	0.046318427
139	0xbd85a524	-0.06525639
140	0x3d6ffd44	0.058591142
141	0xbb166ecd	-0.0022954226
142	0x3cba8965	0.022770593
143	0x3d30de5f	0.04318082
144	0xbd551d45	-0.052029867
145	0x3de51ee2	0.11187531
146	0xbd4ab721	-0.04949105
147	0xbd3572cf	-0.044298943
148	0xbce4868b	-0.027896186
149	0x3d4c76c0	0.049917936
150	0xbe633198	-0.22186887
151	0x3d88e9e9	0.0668524
152	0x3de65bdf	0.11247992
153	0xbd9b9478	-0.075966775
154	0xbb59e01f	-0.003324516
155	0xbe38cbed	-0.18046542
156	0xbd074c85	-0.03303196
157	0x3ce44929	0.027866917
158	0x3d116037	0.03549215
159	0xbd8b84fc	-0.06812474
160	0xbbbe8cac	-0.0058151092
161	0xbcb4f413	-0.02208904
162	0xbd85d449	-0.06534631
163	0x3dc3b581	0.095561035
164	0xbd08df3d	-0.03341602
165	0xbe2f1ff5	-0.17102034
166	0x3dc04a56	0.093891785
167	0x3d54f502	0.05199147
168	0x3c531095	0.012882371
169	0x3cbb200e	0.022842433
170	0x3c81082b	0.015750965
171	0x3d446ff4	0.04795833
172	0xbe05e919	-0.13077201
173	0xbd25d8c3	-0.040489923
174	0x3ccdaa88	0.02510573
175	0x3d6289b2	0.055307098
176	0xbe1a5652	-0.15071991
177	0x3d389c63	0.045071017
178	0xbe82e625	-0.2556621
179	0x3dc41d56	0.09575908
180	0xbd888b5a	-0.06667204
181	0xbca60595	-0.020266334
182	0xbd6641a8	-0.05621496
183	0x3d686140	0.05673337
184	0x3d4f2e24	0.050581113
185	0x3b4b8bef	0.0031058749
186	0xbcd17284	-0.0255673
187	0x3dc89117	0.09793299
188	0x3c1f701e	0.009731321
189	0x3d077f6a	0.033080496
190	0xbcd9ee80	-0.026602983
191	0x3b1cb448	0.0023911167
192	0xbd093349	-0.033496175
193	0xbdb2a782	-0.08723356
194	0xbd205ca6	-0.039150856
195	0xbcf7434c	-0.030183457
196	0xbcfe248a	-0.031023283
197	0x3d9fba7b	0.0779924
198	0x3c9899f3	0.018628096
199	0xbd07da1e	-0.033166997
200	0xbdb4e798	-0.088332355
201	0xbcddb324	-0.02706296
202	0x3e815c4f	0.25265738
203	0xbc715fa1	-0.014732272
204	0xbdac5e0d	-0.08416376
205	0x3c8aa829	0.016925888
206	0x3ba5fc07	0.0050654444
207	0x3dd49e51	0.10381759
208	0xbd9fc3d1	-0.07801021
209	0x3d88491d	0.0665457
210	0xbdc9d4c5	-0.09855036
211	0x3d3a709d	0.045517553
212	0x3b31ae5b	0.002711198
213	0xbda36e9e	-0.07980083
214	0x3d9caa70	0.07649696
215	0xbcd3a96f	-0.025837628
216	0xbdc09df6	-0.09405129
217	0x3da85695	0.08219639
218	0x3d4891aa	0.04896704
219	0xbd80a1d9	-0.0628087
220	0x3d046957	0.032327022
221	0xbca02282	-0.019547705
222	0x3d4c0f0b	0.049819034
223	0x3a2cf682	0.0006598012
224	0x3eb02178	0.34400535
225	0xbccf1a62	-0.025281135
226	0xbd87fdaa	-0.066401795
227	0x3e08507f	0.13311957
228	0xbd67eac7	-0.056620385
229	0x3d7acc16	0.061229788
230	0x3da518ac	0.080613464
231	0xbc1966d4	-0.009362895
232	0xbc0aea27	-0.008478678
233	0xbe080328	-0.13282454
234	0x3d67449f	0.056461927
235	0x3da317a4	0.079634935
236	0xbdadbd23	-0.084833406
237	0xbca8d231	-0.02060804
238	0x3e00660a	0.12538925
239	0xbc331cab	-0.010932128
240	0x3e5a789b	0.2133507
241	0xbb7bc60d	-0.0038417608
242	0xbd8b922f	-0.06814992
243	0x3de84046	0.11340384
244	0x3df753a2	0.120764986
245	0x3d87aca3	0.06624725
246	0x3d5b4e9d	0.05354177
247	0xbd238df8	-0.039930314
248	0xbdf5a38a	-0.11994083
249	0x3d44d9d0	0.048059285
250	0x3d919147	0.071077876
251	0xbd85df7d	-0.06536768
252	0xbd59e667	-0.053198244
253	0x3d53e2d7	0.051730003
254	0xbcc9dbe9	-0.024640994
255	0x3cbf641f	0.023363171

fc3.bias f4 [128]
0	0x3dfdbd9d	0.123896815
1	0x3dcb9205	0.099399604
2	0xbde70192	-0.112795964
3	0x3d82baee	0.0638331
4	0x3e00ac8f	0.12565826
5	0x3dd6f34a	0.104956225
6	0xbcf4bc6b	-0.029875001
7	0x3dc53a0a	0.09630211
8	0x3e19ed2e	0.15031883
9	0x3d959b57	0.07305019
10	0x3c14255a	0.009042108
11	0x3dd7b7f9	0.10533137
12	0xbda5c85f	-0.080948584
13	0xbd9d0c87	-0.07668405
14	0xbddb72f6	-0.107152864
15	0x3d171e72	0.03689427
16	0xbc23349f	-0.009961276
17	0x3e05108f	0.12994598
18	0xbdfac924	-0.12245396
19	0x3ccbf141	0.024895312
20	0xbd2e5ed4	-0.042570904
21	0xbd8a21ce	-0.06744729
22	0x3d870da1	0.065943964
23	0xbd2ba343	-0.041903745
24	0x3e20c74f	0.1570103
25	0xbd5d20b2	-0.05398626
26	0x3cd86b20	0.026418269
27	0xbcd1c7c2	-0.025607947
28	0xbd95c3e8	-0.07312757
29	0x3cebc921	0.02878243
30	0xbd21655f	-0.039403316
31	0x3c25948e	0.010106219
32	0x3ddf1534	0.10892716
33	0x3dac6d32	0.08419265
34	0x3d271fc7	0.04080179
35	0xbd8b4bce	-0.06801568
36	0xbc2b311a	-0.010448718
37	0xbcf0bacf	-0.029385952
38	0xbdb5e394	-0.08881298
39	0x3dccc2d2	0.099980965
40	0x3d0529ca	0.032510556
41	0x3de19d12	0.11016287
42	0x3d07cca4	0.033154145
43	0xbda002e3	-0.078130506
44	0x3ddf9fb3	0.10919132
45	0x3d37e697	0.044897642
46	0x3de5f8ca	0.112290934
47	0x3da90b3d	0.08254097
48	0xbde276f8	-0.11057848
49	0x3ddaf676	0.1069154
50	0x3e1989c3	0.14993958
51	0x3c3b388e	0.011427058
52	0xbd581277	-0.052751984
53	0xbdaefabf	-0.0854392
54	0xbb710500	-0.0036776662
55	0x3e0d3ae3	0.13791995
56	0xbbdee29f	-0.0068019177
57	0xbd68d8e1	-0.056847457
58	0x3c4d43b6	0.012528351
59	0xbda68913	-0.081316136
60	0x3d1a1c00	0.03762436
61	0x3d8a09ef	0.06740176
62	0x3cee4782	0.029086832
63	0xbd08aa8a	-0.033365764
64	0x3c18ab83	0.009318235
65	0x3de3f773	0.111311816
66	0x3d8c54e9	0.06852133
67	0x3da25a9d	0.07927439
68	0x3d8f8936	0.07008593
69	0xbbdf5a02	-0.0068161497
70	0x3df119e0	0.117725134
71	0x3c898ab4	0.016789772
72	0xbd814bd3	-0.063132904
73	0x3ca5eab5	0.020253519
74	0xbdc3d4d0	-0.09562075
75	0x3df4d065	0.119538106
76	0xbb3ec01d	-0.0029106208
77	0xbc22699d	-0.0099128755
78	0xbd9f575d	-0.07780335
79	0xbd86e696	-0.065869495
80	0x3df64ce5	0.12026385
81	0x3cb47996	0.022030633
82	0xbdb84848	-0.089981616
83	0x3de96bc6	0.11397509
84	0xbdc6a1e7	-0.09698849
85	0x3bb1bf26	0.005424398
86	0xba7f8643	-0.00097474846
87	0x3c128a62	0.008944126
88	0x3cbbbe19	0.022917794
89	0xbdbf48e9	-0.093400784
90	0xbc70e5d2	-0.014703231
91	0xbd4e18e9	-0.050316725
92	0xba98dadb	-0.0011661904
93	0x3c34c0af	0.0110322675
94	0xbc20ce94	-0.009814877
95	0x3da1b8bc	0.078965634
96	0xbcb7fbc8	-0.022458926
97	0x3b47d97b	0.0030494619
98	0xbd3b5b2c	-0.045741245
99	0x3d9ae35f	0.07562899
100	0xbdae78c1	-0.08519126
101	0x3dfdc5fe	0.1239128
102	0x3d90dca1	0.070733316
103	0xbd1080e6	-0.035279177
104	0x39add0f7	0.00033152822
105	0xba9ed56b	-0.0012118047
106	0x3daed31b	0.08536359
107	0x3e3c3002	0.18377689
108	0x3e0a9c63	0.1353622
109	0x3d448eee	0.04798787
110	0xbc7aeb0c	-0.015314829
111	0xba949b3e	-0.001133777
112	0xbdcf4b06	-0.101217315
113	0xbd835a9a	-0.06413765
114	0xbd23e13d	-0.040009726
115	0x3c843b78	0.016141638
116	0x3b802077	0.00391012
117	0xbd40d231	-0.047075454
118	0x3d96f73b	0.07371374
119	0x3db5b7fd	0.088729836
120	0xbda84436	-0.08216135
121	0x3dd5ccdc	0.104394644
122	0xbd2b7278	-0.041857213
123	0xbdb9f0dd	-0.09079144
124	0x3cbbaad0	0.022908598
125	0x3cea2669	0.028582769
126	0xbd16eff1	-0.03684992
127	0x3d8e616c	0.069521755

fc4.weight f4 [2, 128]
0	0xbe1cb7b6	-0.15304455
1	0x3e1cda8e	0.15317747
2	0x3c4ac45a	0.012375915
3	0x3de254e2	0.11051346
4	0xbe13120b	-0.14362352
5	0xbe4e8e0f	-0.20171379
6	0x3d53cd88	0.05170968
7	0xbd90cfc8	-0.07070881
8	0xbe1d7131	-0.1537521
9	0xbe2cdacf	-0.16880344
10	0x3e454273	0.1926363
11	0xbe93f28d	-0.2889599
12	0xbc10d673	-0.008840191
13	0x3d73e640	0.059545755
14	0xbc92913b	-0.017891517
15	0xbe0f375e	-0.13985965
16	0x3decb8ae	0.11558662
17	0xbda2a7d9	-0.07942171
18	0xbd0995d4	-0.033590153
19	0x3cbf1d27	0.02332933
20	0xbdccdc38	-0.10002941
21	0xbe1e1e46	-0.15441236
22	0xbe1f9d4f	-0.15587352
23	0x3e00d6c2	0.12581924
24	0xbe6aee04	-0.22942358
25	0xbbf300a5	-0.0074158483
26	0xbe66c8a1	-0.22537471
27	0x3e0b8bf2	0.13627604
28	0xbdaff0e2	-0.085908666
29	0xbe16cadb	-0.1472582
30	0x3dc3c7b7	0.09559577
31	0x3e235cb9	0.1595334
32	0xbdca630d	-0.09882174
33	0xbaef983e	-0.0018279625
34	0xbd9105ae	-0.070811614
35	0xbb441d85	-0.0029924822
36	0x3e559f25	0.2086149
37	0x3df52f4b	0.11971911
38	0xbd47e9e2	-0.048807032
39	0xbebb0615	-0.36528078
40	0xbe88a8b4	-0.2669121
41	0xbeaf45e3	-0.34233007
42	0xbd513c46	-0.05108287
43	0x3b6e005a	0.0036316128
44	0x3db90066	0.09033279
45	0xbdf2a7fd	-0.118484475
46	0xbe31353b	-0.17305462
47	0xbdf809ff	-0.121112816
48	0xbe4fb382	-0.2028332
49	0x3de34821	0.11097742
50	0xbd02ef80	-0.031966686
51	0x3d9bc9a6	0.07606821
52	0x3e0f8d1c	0.14018673
53	0x3d81d909	0.06340224
54	0x3b01bc2b	0.0019795995
55	0xbd60ec3a	-0.054912783
56	0xbe6614e4	-0.22468907
57	0xbe0abdfc	-0.13549036
58	0x3d128182	0.03576804
59	0xbd7aca4a	-0.061228074
60	0x3db5605c	0.0885627
61	0xbce20bdb	-0.027593544
62	0xbdaa7706	-0.08323483
63	0xbb4ed181	-0.003155798
64	0x3e0ab578	0.13545787
65	0xbe70356e	-0.23457882
66	0xbe47bf6a	-0.19506612
67	0xbe523cd3	-0.20531015
68	0xbe86e2e5	-0.26344982
69	0x3e15f5d3	0.14644556
70	0xbe37f837	-0.1796578
71	0xbe85394d	-0.2602028
72	0x3d8a1134	0.067415625
73	0x3dcbe31d	0.09955428
74	0xbd9e1ddd	-0.0772054
75	0xbe1c4f94	-0.15264732
76	0xbe3faced	-0.1871831
77	0xbe728127	-0.2368208
78	0x3c446bca	0.01198859
79	0xbe22f9a6	-0.15915546
80	0xbe8451e3	-0.25843725
81	0x3e0e9592	0.13924244
82	0x3939aa1d	0.00017706347
83	0xbddf6259	-0.1090743
84	0xbdb55634	-0.088543326
85	0x3e2301d7	0.1591867
86	0xbe86b1e2	-0.2630759
87	0xbcc9542b	-0.024576267
88	0x3db2ee92	0.0873691
89	0x3e1c3799	0.15255584
90	0xbe297701	-0.16549303
91	0x3d955a2f	0.07292592
92	0xbe81c55c	-0.25345886
93	0x3df501d0	0.11963236
94	0x3c91a1a2	0.017777268
95	0xbe50adb3	-0.20378761
96	0xbdacdf99	-0.08441085
97	0xbe1608f3	-0.14651851
98	0x3cd38f6f	0.02582523
99	0xbe2dfc1e	-0.16990706
100	0x3d82e081	0.06390477
101	0xbe089b95	-0.133406
102	0xbe5ec2de	-0.21754023
103	0xbe62b06d	-0.22137614
104	0x3e53a42b	0.20668094
105	0x3dd01f22	0.10162188
106	0xbea7f62d	-0.32805005
107	0xbe9a511b	-0.30140004
108	0xbdd77065	-0.105194844
109	0xbd05d27a	-0.03267143
110	0xbd27ba6f	-0.04094928
111	0xbe86c0b9	-0.2631891
112	0x3dd260c2	0.10272361
113	0xbe629860	-0.22128439
114	0xbcab37d6	-0.020900648
115	0xbded5cc1	-0.11589957
116	0x3e144445	0.14479168
117	0xbd817fd3	-0.06323209
118	0xbd82e82f	-0.06391942
119	0x3dabdc57	0.08391636
120	0xbe220839	-0.15823449
121	0xbbdfdf93	-0.006832072
122	0xbb5ba603	-0.0033515699
123	0x3d916aeb	0.07100471
124	0xbe4c970e	-0.19979498
125	0x3ddb07d3	0.10694852
126	0xbe1963d7	-0.14979492
127	0xbe5fa7f9	-0.2184142
128	0xbde25a83	-0.1105242
129	0x3cc02498	0.02345495
130	0xbcaf2e1e	-0.021384295
131	0x3ce78ff5	0.028266886
132	0xbd81d3b5	-0.06339208
133	0xbdc4d8e2	-0.096116796
134	0xbd859106	-0.06521802
135	0xbe04ffd3	-0.12988214
136	0xbe8d04b6	-0.27542657
137	0xbe8047fb	-0.25054917
138	0x3dfa2067	0.122132115
139	0xbdf93941	-0.121691234
140	0x3de5a442	0.1121297
141	0x3ce2f1c5	0.027703175
142	0x3edb75c9	0.428633
143	0xbe678160	-0.22607946
144	0xbcdf77ce	-0.027278807
145	0xbe80d896	-0.25165242
146	0x3da03913	0.07823386
147	0xbe04397c	-0.12912554
148	0x3df85641	0.121258266
149	0xbcb7bc5a	-0.02242868
150	0xbdc0ec0f	-0.094200246
151	0xbd0fc872	-0.03510327
152	0xbe1cd4d3	-0.15315561
153	0xbc929e72	-0.017897818
154	0xbe0ba55b	-0.13637297
155	0x3d6f3669	0.0584015
156	0x3d901301	0.07034875
157	0x3d2e2b67	0.04252186
158	0xbd5d9845	-0.054100294
159	0x3de56a90	0.11201966
160	0xbe3f1103	-0.18658833
161	0xbe558f39	-0.20855416
162	0x3f0a0a8b	0.5392234
163	0xbb950d49	-0.004548703
164	0x3eecdd1a	0.46262437
165	0x3d8300ad	0.06396613
166	0x3d1c917c	0.038224682
167	0xbdfeee89	-0.12447841
168	0xbd450f3a	-0.048110224
169	0xbd731856	-0.05934938
170	0x3d2a3207	0.041551616
171	0xbbd11b9e	-0.006381466
172	0xbd94384a	-0.07237299
173	0xbddad287	-0.10684686
174	0x3e2afd24	0.16698128
175	0xbdc5794c	-0.09642276
176	0x3e124bad	0.1428668
177	0x3e6b74e5	0.2299381
178	0xbe5e05c4	-0.21681887
179	0xbe6e9e59	-0.23302592
180	0x3e013256	0.12616858
181	0x3bf451fb	0.007456062
182	0xbd8b186e	-0.06791769
183	0xbea0c5cb	-0.31400904
184	0xbdbea656	-0.0930907
185	0x3d9253d8	0.07144898
186	0xbdbb1ccb	-0.09136351
187	0x3d9782cd	0.07397995
188	0x3db14051	0.086548455
189	0xbead4934	-0.33844912
190	0xbde985c8	-0.1140247
191	0x3c119b66	0.0088871475
192	0x3e3fbc1a	0.18724099
193	0xbdac8306	-0.08423428
194	0xbe16dcb0	-0.14732623
195	0xbce59e2d	-0.028029526
196	0xbdb27441	-0.0871358
197	0x3e6248a1	0.22098018
198	0x3e690062	0.22754052
199	0x3e8dc7ec	0.2769159
200	0x3cb4a3b3	0.022050714
201	0x3e4fb2cd	0.20283051
202	0xbd80dd0b	-0.062921606
203	0xbe6b46da	-0.22976246
204	0x3e9c691e	0.30548948
205	0xbd92d684	-0.07169822
206	0x3d61634b	0.055026334
207	0xbe34ddbc	-0.1766271
208	0xbcf27633	-0.029597377
209	0x3dd83099	0.10556144
210	0x3d4c9e1a	0.049955465
211	0xbe598724	-0.21242958
212	0x3e78a646	0.24282178
213	0x3d967305	0.07346157
214	0x3bc809fe	0.006104707
215	0xbd115b3c	-0.0354874
216	0x3e2f720c	0.17133349
217	0x3d63935d	0.05556046
218	0x3e56ee93	0.20989446
219	0xbd264cf4	-0.040600732
220	0xbde70932	-0.11281051
221	0x3d675013	0.05647285
222	0x3e887301	0.2665024
223	0x3d52006b	0.05126993
224	0x3df06355	0.11737696
225	0xbe1d1ccb	-0.15343015
226	0xbcfe9c21	-0.031080307
227	0xbe22e0b7	-0.15906034
228	0xbc94e2f2	-0.018174622
229	0xbd5a7d90	-0.053342402
230	0x3e6d054e	0.23146555
231	0x3ea4ed40	0.32212257
232	0xbede7d04	-0.43454754
233	0x3e81d5e2	0.25358492
234	0xbad6b5d2	-0.0016381091
235	0xbd083374	-0.033252195
236	0x3f235574	0.63802266
237	0xbe7c0f6b	-0.24615256
238	0xbd0ada9d	-0.033899892
239	0xbcfa122b	-0.030526241
240	0x3e4cf9d7	0.20017181
241	0x3e46bb44	0.19407374
242	0xbd37d5f8	-0.04488179
243	0x3e17aeeb	0.1481282
244	0x3d80fd0c	0.06298265
245	0x3d29a702	0.041419037
246	0xbd87db07	-0.06633573
247	0x3c4ff9fb	0.012693877
248	0x3eb01480	0.3439064
249	0xbe9acf57	-0.30236313
250	0x3c9c3532	0.019068334
251	0x3d503574	0.050832227
252	0xbd538611	-0.051641528
253	0x3e35dda0	0.17760324
254	0xbd5a44f7	-0.053288426
255	0xbd1fa26f	-0.038973268

fc4.bias f4 [2]
0	0xbd8a19c6	-0.06743197
1	0x3c73685e	0.014856426

fc1.weight f4 [128, 7]
0	0x3e89a773	0.26885566
1	0xbeff6a29	-0.4988568
2	0x3e4f100e	0.20220968
3	0x3e4bdd04	0.1990853
4	0xbe844c36	-0.25839394
5	0x3e3d386a	0.18478552
6	0x3e6ebf52	0.2331517
7	0x3d840f68	0.06448251
8	0x3eb1a13d	0.34693328
9	0x3c7e5aaa	0.015524546
10	0x3e5f63d2	0.21815422
11	0x3d82d622	0.06388499
12	0x3d592201	0.053010944
13	0x3e10fb93	0.14158468
14	0xbeb68bf8	-0.35653663
15	0x3dddde8a	0.108334616
16	0xbe1f60f5	-0.1556433
17	0xbeb66914	-0.35627043
18	0xbe9536ee	-0.2914347
19	0xbd0e180e	-0.03469091
20	0x3ce83659	0.028346227
21	0xbe871056	-0.2637965
22	0x3e10a005	0.14123543
23	0x3d3042fc	0.04303263
24	0x3dabb62b	0.08384355
25	0x3d72c716	0.059271894
26	0x3da5e5a4	0.08100441
27	0x3ed74544	0.42045033
28	0xbd1c3803	-0.038139354
29	0x3ec35570	0.3815112
30	0xbefe9eff	-0.4973068
31	0xbd8f9b15	-0.070120014
32	0xbedcaed4	-0.43102133
33	0x3e451e36	0.19249806
34	0x3eccb612	0.3998266
35	0x3ca2c542	0.01986945
36	0x3e0f7a48	0.1401149
37	0x3e79db5d	0.24400087
38	0xbe91ff86	-0.2851526
39	0x3d9e67f3	0.077346705
40	0xbead5313	-0.33852443
41	0xbdcb7d1e	-0.099359736
42	0x3dddc419	0.10828418
43	0xbe8b7845	-0.27240196
44	0x3dee3424	0.11631039
45	0xbe81f7e0	-0.25384426
46	0xbe27d795	-0.16390832
47	0xbec62eca	-0.38707572
48	0xbe827d89	-0.254864
49	0xbd4be8ec	-0.04978268
50	0x3e180fb5	0.14849742
51	0xbebb6a11	-0.3660436
52	0xbec44995	-0.3833739
53	0x3c6680fa	0.014068836
54	0x3e0d2afe	0.13785931
55	0x3eaa9566	0.33317107
56	0xbe24b451	-0.1608441
57	0x3e11992c	0.14218587
58	0x3eccd687	0.4000742
59	0x3dc6bb4c	0.09703693
60	0xbe9c2e27	-0.3050396
61	0x3ecb651c	0.39725578
62	0x3de2a41d	0.110664584
63	0xbe30799a	-0.17233887
64	0xbe99050a	-0.29886657
65	0x3e913f48	0.28368592
66	0xbdb14a8f	-0.08656799
67	0xbe696360	-0.22791815
68	0xbe49bb33	-0.19700317
69	0x3dfa186b	0.122116886
70	0x3e12e5eb	0.14345519
71	0x3eb28f35	0.34874883
72	0xbcb562ac	-0.022141777
73	0x3ea9cd8c	0.33164632
74	0x3ed3cd3c	0.4136752
75	0xbd8c78a8	-0.06858951
76	0xbf06ae76	-0.52609956
77	0x3e232221	0.15930988
78	0xbe8985e4	-0.26859963
79	0x3d0afd09	0.03393272
80	0xbe45069f	-0.19240807
81	0xbf248edb	-0.6428048
82	0x3ef1bbb2	0.47213513
83	0xbe62e718	-0.22158468
84	0x3e21b89c	0.15793079
85	0xbebc95cf	-0.36833045
86	0x3eb5ecbc	0.35532176
87	0xbe36d317	-0.17853962
88	0x3eb53f11	0.35399678
89	0xbe8d1a26	-0.27559012
90	0xbd42c709	-0.047553096
91	0x3e96078a	0.29302627
92	0x3eb2e0ec	0.34937227
93	0xbe985452	-0.2975183
94	0xbea33afe	-0.31880945
95	0x3e9956bc	0.29948986
96	0x3df2c775	0.1185445
97	0xbe96dcaf	-0.29465243
98	0x3e425883	0.18979077
99	0xbeaeba09	-0.3412631
100	0xbe31db34	-0.17368776
101	0xbe11a08e	-0.14221403
102	0xbc33a9d9	-0.010965788
103	0x3ec1aa2b	0.3782514
104	0xbe2bf170	-0.1679132
105	0x3e0d8e8a	0.13823906
106	0xbe90e504	-0.28299725
107	0x3e9d1118	0.30677104
108	0x3e759c8e	0.23985502
109	0xbdc6130f	-0.09671604
110	0x3ee7ca19	0.45271376
111	0xbda86510	-0.08222401
112	0x3cda0877	0.026615364
113	0x3e4ce3ed	0.20008822
114	0xbdddabdc	-0.10823795
115	0xbede7dde	-0.43455404
116	0x3baf0369	0.0053409827
117	0xbe88f613	-0.2675024
118	0x3e637160	0.22211218
119	0x3f0775ac	0.5291393
120	0x3e9271a6	0.28602332
121	0x3ea11a4e	0.3146538
122	0xbe52b886	-0.20578203
123	0xbecaa6e0	-0.3958044
124	0x3e014072	0.1262224
125	0xbe3533f6	-0.17695603
126	0x3e026aca	0.1273605
127	0xbd319474	-0.043354467
128	0xbf57f691	-0.84360605
129	0x3da77e9c	0.08178446
130	0xbbe9d5a1	-0.0071360623
131	0xbec644c9	-0.38724354
132	0x3e01e32f	0.1268432
133	0x3c8f8df8	0.01752375
134	0xbe4cc5bd	-0.19997306
135	0xbea33d1c	-0.3188256
136	0x3e2b3d6f	0.16722654
137	0xbea5bccf	-0.32370612
138	0xbe230b40	-0.1592226
139	0xbe592ffa	-0.21209708
140	0xbe432daa	-0.19060388
141	0xbe3adc0c	-0.18248004
142	0x3e3ed3d0	0.18635488
143	0xbdd1e21e	-0.102482066
144	0xbe8c1616	-0.273606
145	0x3e76d5b0	0.24104953
146	0xbea711ac	-0.3263067
147	0xbe387ecb	-0.18017118
148	0xbdaab26f	-0.08334815
149	0xbe9d9cb3	-0.30783615
150	0xbce9f7bf	-0.028560517
151	0xbe8e0455	-0.2773768
152	0x3ddeb717	0.10874765
153	0xbe068c4e	-0.1313946
154	0x3e49c7af	0.1970508
155	0x3ecb53f9	0.39712504
156	0xbe7c5b6c	-0.2464425
157	0xbe241c94	-0.16026527
158	0xbe576610	-0.21035028
159	0xbe02f4bd	-0.12788673
160	0x3ea8b959	0.3295391
161	0xbefaa58c	-0.48954427
162	0xbe200b58	-0.15629327
163	0xbd95c6bc	-0.07313296
164	0x3e49ea92	0.19718388
165	0x3ea463a2	0.32107264
166	0x3e8cb6a7	0.27483103
167	0xbf07e61d	-0.530855
168	0x3e13f5e6	0.14449272
169	0xbeb10ab8	-0.3457849
170	0xbeea992d	-0.4581999
171	0x3e09360f	0.13399528
172	0x3db07d02	0.08617593
173	0x3ccd607e	0.025070425
174	0x3ddaf360	0.10690951
175	0x3b8711a6	0.004121977
176	0x3dbd7591	0.0925094
177	0xbf7c578e	-0.985711
178	0xbe82fb66	-0.25582427
179	0xbc8e13d4	-0.01734344
180	0xbed55d78	-0.41672873
181	0x3e2fa683	0.17153363
182	0x3d3fe9dc	0.046853885
183	0x3e12bc51	0.1432965
184	0xbe892a25	-0.26789966
185	0x3dbab12a	0.091158226
186	0x3e65b4ae	0.22432205
187	0x3e678bb9	0.22611894
188	0xbea72ec2	-0.3265286
189	0xbc9caef5	-0.019126395
190	0xbe3ffbe2	-0.1874843
191	0x3ec3d536	0.38248605
192	0xbeaa259c	-0.3323182
193	0xbea02dca	-0.31284934
194	0xbc1677c5	-0.009183829
195	0xbe2f9b47	-0.17149077
196	0x3e87a3af	0.26492068
197	0x3e2a1846	0.16610822
198	0xbdea1851	-0.11430419
199	0xbd96941b	-0.073524676
200	0xbe80d09a	-0.2515915
201	0x3dd0326d	0.10165868
202	0x3dcd1e86	0.100155875
203	0xbea43eee	-0.32079262
204	0xbe66bac8	-0.22532189
205	0x3e9941ef	0.29933116
206	0xbdd87a0d	-0.10570154
207	0x3efce074	0.49389994
208	0xbe17ad17	-0.14812122
209	0xbe32bb65	-0.17454298
210	0xbeb8af73	-0.36071357
211	0x3eae49a3	0.34040555
212	0xbec11c5d	-0.37716952
213	0xbd18a106	-0.03726294
214	0x3d73719e	0.059434526
215	0x3dd507ff	0.10401916
216	0xbe547f63	-0.20751719
217	0xbdb1df57	-0.08685177
218	0xbe312654	-0.17299777
219	0xbd52d8df	-0.051476356
220	0xbe186c49	-0.14885058
221	0xbeba6177	-0.36402485
222	0x3e3a9665	0.18221433
223	0xbe522e0e	-0.20525381
224	0xbe30029a	-0.17188492
225	0x3eb7fe62	0.35936266
226	0xbf3e7645	-0.74399215
227	0x3e8dcee7	0.27696916
228	0x3e7d2c63	0.24723963
229	0x3e0c045f	0.13673542
230	0x3e02a0dc	0.12756675
231	0x3e58eca3	0.2118402
232	0x3cfb52db	0.030679157
233	0xbef56fb8	-0.47936797
234	0xbd8405b2	-0.06446399
235	0x3ea46a88	0.32112527
236	0xbca67fe9	-0.020324664
237	0x3eba82a1	0.36427787
238	0xbd312d8a	-0.04325632
239	0xbd32feed	-0.043700147
240	0xbe90fcbe	-0.28317827
241	0xbdb6f827	-0.0893405
242	0xbe9121b8	-0.28346038
243	0xbe15e243	-0.14637093
244	0x3efe09d2	0.49616867
245	0x3e4a4920	0.19754457
246	0x3eecc1e0	0.46241665
247	0xbd8458b8	-0.06462234
248	0x3e72b045	0.23700054
249	0x3e4cb14b	0.19989507
250	0x3e8dd61e	0.2770242
251	0x3e7e5fe8	0.24841273
252	0xbea9e997	-0.33186027
253	0x3ea2fc26	0.31833
254	0x3eb57fdf	0.3544912
255	0x3e8abfde	0.27099508

fc1.bias f4 [128]
0	0xbe99041d	-0.2988595
1	0x3d000bdc	0.03126131
2	0x3ea5e01f	0.32397553
3	0xbc95047a	-0.018190611
4	0x3e9ee9d7	0.3103778
5	0xbeae0733	-0.33989868
6	0x3e90b0ca	0.2825988
7	0x3debb0ea	0.11508353
8	0xbd2786a0	-0.040899873
9	0xbd7fe15b	-0.062470775
10	0x3e2673d9	0.1625513
11	0x3dfd5085	0.123688735
12	0xbec4c350	-0.38430262
13	0xbd95a67b	-0.07307144
14	0xbe80e173	-0.25172004
15	0xbe73d249	-0.23810686
16	0xbe1f1f10	-0.15539193
17	0xbe8265a2	-0.25468165
18	0x3e8dc1f6	0.27687043
19	0x3e59f880	0.21286201
20	0xbe5e602c	-0.21716374
21	0xbd9a3f27	-0.075315766
22	0x3e656285	0.22400863
23	0x3d1ddd69	0.03854123
24	0xbde1af6c	-0.11019787
25	0x3e777e61	0.24169303
26	0x3e86a741	0.2629948
27	0x3eb76b94	0.35824263
28	0x3d06963e	0.032858126
29	0x3e887aef	0.2665629
30	0xbe614ff7	-0.2200316
31	0xbeb1750e	-0.34659618
32	0xbcff4c50	-0.031164318
33	0x3daa05bf	0.08301877
34	0x3cd677f8	0.026180252
35	0x3e8a87a5	0.27056614
36	0x3e7a4578	0.24440563
37	0x3e3e2ced	0.18571825
38	0x3d959c5c	0.07305214
39	0xbcab3051	-0.020897062
40	0x3eba206a	0.36352855
41	0x3e971260	0.29506207
42	0xbc88b352	-0.01668707
43	0x3ecea3fe	0.4035949
44	0xbe02223f	-0.12708376
45	0x3e22ff9f	0.15917824
46	0x3e221474	0.15828115
47	0x3d8f4f97	0.069976024
48	0xbea93d62	-0.33054644
49	0x3e9ae89a	0.30255586
50	0xbd0ab63b	-0.033865195
51	0xbebd087f	-0.36920545
52	0xbe51cfd2	-0.20489433
53	0xbed35b0a	-0.41280395
54	0xbdaba216	-0.08380525
55	0x3daf10f6	0.08548157
56	0xbe8d2840	-0.2756977
57	0xbea703f6	-0.3262021
58	0xbec0c690	-0.3765149
59	0x3e8b5890	0.27216005
60	0x3dd2cc02	0.10292818
61	0xbe4f5e12	-0.20250729
62	0xbd5a9a78	-0.05336997
63	0xbda67bc8	-0.08129078
64	0xbddb21bb	-0.10699793
65	0x3e0171ce	0.1264107
66	0xbd906e84	-0.07052329
67	0xbe013dce	-0.12621233
68	0xbe1a205c	-0.15051407
69	0xbd7d54f9	-0.061848614
70	0x3e81ce73	0.2535282
71	0x3cbf03b1	0.02331719
72	0xbe2ee2cd	-0.17078705
73	0xbc948300	-0.018128872
74	0x3e0a804f	0.13525508
75	0xbe9b9f8f	-0.3039517
76	0x3e31d0d7	0.17364822
77	0x3d590bba	0.0529897
78	0x3d6aa658	0.057287544
79	0xbe1bbeb7	-0.1520947
80	0x3e82a9a0	0.2552004
81	0xbdbc0af5	-0.091817774
82	0x3e85c517	0.2612693
83	0xbe9ea766	-0.3098709
84	0xbd5d971e	-0.054099195
85	0x3e829f5b	0.25512204
86	0xbe2f45f2	-0.17116526
87	0xbde82575	-0.11335269
88	0x3eaebb8f	0.3412747
89	0x3d87c7d2	0.066299096
90	0xbdac5668	-0.08414918
91	0xbe768ae4	-0.2407642
92	0x3e9d283e	0.30694765
93	0x3ebde68a	0.3708995
94	0xbd6e18dd	-0.05812918
95	0x3e3db817	0.18527256
96	0xbeba8f14	-0.36437285
97	0x3e9dd892	0.30829293
98	0x3e0432f8	0.12910068
99	0xbd92b680	-0.07163715
100	0x3df42643	0.1192136
101	0x3e991781	0.29900745
102	0x3e8289ac	0.2549566
103	0xbd4582fa	-0.048220612
104	0x3dd3ac4b	0.10335597
105	0xbe203fcd	-0.15649338
106	0xbe05279c	-0.13003391
107	0x3e8a7b7c	0.27047336
108	0x3e8a173c	0.2697085
109	0xbe916251	-0.28395322
110	0xbe1a8bb3	-0.15092354
111	0x3e95355f	0.2914228
112	0x3e83fb04	0.25777447
113	0x3e11a8de	0.14224574
114	0x3eace664	0.33769524
115	0xbea7d0cc	-0.32776487
116	0xbccaa651	-0.024737509
117	0xbd53368f	-0.051565703
118	0x3e8fe86e	0.28107017
119	0xbdcc02c5	-0.09961466
120	0x3d1c43fe	0.03815078
121	0xbc06a3e5	-0.008217786
122	0xbe23e7c6	-0.16006383
123	0x3e05f428	0.1308142
124	0xbe52cea2	-0.20586637
125	0xbe42b550	-0.19014478
126	0x3ea02e6f	0.31285426
127	0xbe94a419	-0.29031447
