flappybird_dqn_ep40.pth (torch, 561683 bytes, 32 tensors)

fc1.weight f4 [128, 7]
00000000: 06f9 933e cd0f aabe 37af 2b3e c199 733e
00000010: db7b 49be 3527 273e 27aa 623e be27 c23d
00000020: 8ef0 703e c29c 65bd 06fe 9b3e 1bfd 023e
00000030: cf17 e53d aa82 383e f88b b6be 8ade dd3d
00000040: f560 1fbe 1469 b6be ee36 95be 0e18 0ebd
00000050: 5936 e83c f988 8bbe 0e34 613e 34eb 483d
00000060: 311e f43c eb4d 10be df5c c83c 1f2d c23e
00000070: 2849 4bbd bdba ac3e cf08 fabe 7708 c5bc
00000080: 1a00 acbe 02dd 353e acba b33e 42c5 a23c
00000090: 487a 0f3e 5ddb 793e 86ff 91be f367 9e3d
000000a0: 1353 adbe 1e7d cbbd 6a78 063e 5f59 85be
000000b0: 3d31 023e 1ea0 6bbe bb1b 0cbe c3e7 babe
000000c0: 9c78 69be e894 983c ed43 b73d d5a1 adbe
000000d0: 8207 9ebe e387 453e f94f 4e3e c770 b43e
000000e0: 07e2 17be 97ec 413e 482f c23e 255f 153e
000000f0: b6ae 8ebe 4120 c43e e1ce 013e 9a79 30be
00000100: 0a05 99be 483f 913e 8f4a b1bd 6063 69be
00000110: 33bb 49be 6b18 fa3d fbab 223e 60e8 bf3e
00000120: fbfb ccbd 6713 b83e 917b c53e 295e 87bd
00000130: 3415 d1be 551b 9d3d c9a2 f53d 766b 253c
00000140: 2e5e 6cbe e3c3 31bf 0643 c93e 26af 9bbe
00000150: a61b 313e cf95 bcbe ea9f bd3e c070 27be
00000160: 1cf2 bc3e f866 85be 0d3a 05bd aad3 a93e
00000170: 1620 a33e 6dcb 5dbe 0552 87be b94f 973e
00000180: 0984 363e 162b 19be dfb2 343e c0b2 a5be
00000190: 96a7 ffbd a191 11be 8400 263d f22d c43e
000001a0: 0be2 d6bd d63e 8e3d ad72 08be 3a1f 8c3e
000001b0: 373e 423e 1569 c5bd e634 b73e c733 45be
000001c0: 62be 503d f230 623e 1f81 b4bd e061 d1be
000001d0: c9e5 013d 92e7 77be d6ca 7e3e f190 e53e
000001e0: 7ed7 9a3e ab0f 903e ef0e 68be 1026 a5be
000001f0: a896 c73d 8719 71be a018 e93d 6f17 e7bd
00000200: efdb 06bf a848 cd3d 4c30 b7bb 5e31 b8be
00000210: 03ef f83d 0610 923b fc20 81be e7ed 0bbe
00000220: 70c0 003e 55bb 98be 2e75 3ebe 0bd3 2fbe
00000230: aa2d 43be 0cdc 3abe d0d3 3e3e 1ee2 d1bd
00000240: 1616 8cbe b0d5 763e ac11 a7be cb7e 38be
00000250: 6fb2 aabd b39c 9dbe bff7 e9bc 5504 8ebe
00000260: 17b7 de3d 4e8c 06be 0839 203e 540d ae3e
00000270: 3c67 33be 1a2e 11be dbe3 10be 283c 00be
00000280: ebcf 7e3e 5e3e d0be c90e 0dbe 6bf8 66be
00000290: 4ab2 183e b994 9b3e 65fa 8b3e dc60 c9be
000002a0: dc55 ec3d 98a8 b6be 697c 8abe 7932 8e3d
000002b0: f940 db3d 0043 ccbb 5cd3 863d 687a 443d
000002c0: 118a 3c3d 08f6 d6be d1bf 77be 6c35 1abd
000002d0: 632b c4be f544 1a3e 8b67 e33d 5477 b63d
000002e0: b40a 84be 6002 2c3e 08e2 9d3e dfdb 963e
000002f0: 2b05 dcbd 201e adbd c65b 8ebe 5e8c c83e
00000300: 210c 6bbe 74dd 95be 3714 0a3d df9b 4abe
00000310: 83a7 6d3e 385b 4b3e 1e84 b0bd d920 45bc
00000320: 8085 3dbe b860 e93d cb24 163e 1ba0 88be
00000330: d974 53be 2c35 8e3e b385 38be d551 b33e
00000340: 727f 29be 2cd0 15be 73af b8be a349 ae3e
00000350: 5d1c c1be 06a1 18bd 9e71 733d ff07 d53d
00000360: 637f 54be 57df b1bd 5426 31be dfd8 52bd
00000370: 496c 18be 7761 babe 6596 3a3e 0e2e 52be
00000380: b65a 3bbe fd56 8c3e a8aa 11bf c23d 6b3e
00000390: bfed 933e 2546 1c3e ff3b 013e d11e 683e
000003a0: 526c cbbc 271b fcbe d17a c5bd cbfc b03e
000003b0: 68f7 c1ba 326e ab3e 5fa5 57bd 5bdb 0dbe
000003c0: 020a 16be 5a29 d6bd 882a 80be 5f39 e0bd
000003d0: efde e43e e88c 8d3e fa1e be3e ba78 96bd
000003e0: d558 933e cf44 9b3e 51fc b03e d10f a23e
000003f0: 051c 86be 9835 9a3e 1570 9d3e e3bd 9b3e
0.28900927 -0.3321518 0.16766058 0.23789121 -0.19676153 0.1632355 0.2213522 0.094802365
0.23529264 -0.0560577 0.30467242 0.12791865 0.11186182 0.18018594 -0.35653663 0.108334616
-0.1556433 -0.35627043 -0.2914347 -0.03469091 0.028346227 -0.2725294 0.21992514 0.049052432
0.029799553 -0.14092223 0.024458347 0.3792505 -0.049630314 0.3373622 -0.48834845 -0.024051888
-0.33593827 0.17760089 0.35103357 0.01986945 0.1401149 0.24400087 -0.2851526 0.077346705
-0.33852443 -0.099359736 0.13131872 -0.26044747 0.12714095 -0.23010299 -0.13682453 -0.36504945
-0.22799915 0.018625692 0.08948503 -0.3391253 -0.30865103 0.19290118 0.20147695 0.35242292
-0.14832316 0.18937908 0.37926698 0.14587076 -0.2786767 0.38305858 0.12676574 -0.17233887
-0.29886657 0.28368592 -0.08656799 -0.22791815 -0.19700317 0.122116886 0.15885918 0.37481976
-0.10008999 0.35952303 0.38570836 -0.066097565 -0.4083649 0.07671229 0.119939394 0.010096421
-0.23082802 -0.69439524 0.39308947 -0.30407065 0.17295703 -0.36833045 0.37036067 -0.16351604
0.36903465 -0.2605512 -0.032526065 0.331693 0.31860417 -0.21659632 -0.26429763 0.2955301
0.17823805 -0.14957842 0.17646359 -0.32362938 -0.12483136 -0.1421571 0.040527835 0.38316303
-0.10492333 0.06945579 -0.13324995 0.27367574 0.18969046 -0.096391834 0.35782546 -0.19258033
0.050962813 0.22088984 -0.088136904 -0.40894985 0.03171328 -0.24209431 0.24882063 0.44837144
0.30242532 0.28136954 -0.22661947 -0.32255602 0.09745532 -0.23544894 0.1138165 -0.112837665
-0.5267934 0.10023624 -0.0055904742 -0.35975164 0.12154963 0.0044574765 -0.25220478 -0.13664971
0.12573409 -0.29830423 -0.18599388 -0.1717035 -0.19060388 -0.18248004 0.18635488 -0.102482066
-0.273606 0.24104953 -0.3263067 -0.18017118 -0.08334815 -0.30783615 -0.028560517 -0.2773768
0.10874765 -0.1313946 0.15646756 0.33994544 -0.1751985 -0.14177743 -0.1414942 -0.12522948
0.24884002 -0.40672582 -0.13775171 -0.22555701 0.14911762 0.30386904 0.27339473 -0.3933171
0.11539814 -0.35675502 -0.27048042 0.06943221 0.10705752 -0.006233573 0.06583282 0.0479683
0.046030108 -0.41984582 -0.24194266 -0.037648603 -0.3831435 0.15065368 0.11103734 0.08909479
-0.25789416 0.16797781 0.3083651 0.29464623 -0.10743173 -0.084530115 -0.27804393 0.39169592
-0.22953846 -0.29270518 0.033710685 -0.19786023 0.23208432 0.19859016 -0.08618949 -0.012031757
-0.18507957 0.11395401 0.14662473 -0.2668465 -0.20650043 0.27774942 -0.18019752 0.3502337
-0.16552523 -0.14630193 -0.36071357 0.34040555 -0.37716952 -0.03726294 0.059434526 0.10401916
-0.20751719 -0.08685177 -0.17299777 -0.051476356 -0.14885058 -0.36402485 0.18221433 -0.20525381
-0.18296322 0.27410117 -0.56901026 0.22972777 0.28892323 0.15261133 0.12620543 0.22668006
-0.024831925 -0.49239466 -0.09642566 0.34567866 -0.0014798464 0.3348251 -0.052647945 -0.13853209
-0.14652255 -0.10457106 -0.2503245 -0.10948443 0.44701335 0.27646565 0.37133008 -0.073472455
0.2877871 0.30325934 0.34567502 0.31652692 -0.26193252 0.30119014 0.30749574 0.3041831

fc1.bias f4 [128]
00000000: 3fd5 82be ee33 b73d ad3f d33d 278c b9bd
00000010: 1a2c a63e 3307 aebe 4072 203d 0e0c 5d3e
00000020: 96ac 67bc 5be1 7fbd d0ac 2e3e 976b 773d
00000030: 2210 bdbe b9ce 63bd 10e8 74be 3508 87be
00000040: 6bcb 04be 8599 99be 8cc9 7a3e 9b05 883d
00000050: 2c60 5ebe 273f 9abd 317e 5e3e fd72 0b3d
00000060: 2034 f5bd acda 5c3e b6af b13e b6dc b63e
00000070: 8fb3 6f3d 46d6 7e3e f74f 61be 0e75 b1be
00000080: 5c2c e1bc 4c0a bd3d 3c9f 5a3c 82b4 b93e
00000090: 3f28 943e 15d9 513e 41b2 483d 5c7e 5c3c
000000a0: 8ea6 af3e d283 863e 23fa 683c 4c0d ce3e
000000b0: 7b97 9ebd 8cd5 7e3e 81f7 6d3e ecc5 443d
000000c0: 623d a9be 5f05 053e 5da0 a33b 7f08 bdbe
000000d0: d2cf 51be b701 dbbe cc99 44bd f7ed ce3d
000000e0: 4028 8dbe f603 a7be 90c6 c0be 4f08 b83e
000000f0: af20 f13d d52c 5fbe bd5c a6bd 591e 5dbd
00000100: 9602 a6bd 0a66 533e 846e 90bd 0e4d 23be
00000110: 5c20 1abe 6199 cbbd c977 7d3e 108b 893c
00000120: c136 2cbe 9254 03bc eced 0c3e f51b b5be
00000130: ac2b 4f3e aa83 4d3d 27b5 c43d b7be 1bbe
00000140: 1109 933e 6669 e7bd f817 923e 876b 97be
00000150: c8e4 fbbc e861 a03e f245 2fbe 284d 60be
00000160: decc c23e 2278 983d 8e04 64bd e48a 76be
00000170: 3c0c ad3e 996e c03e dd18 6ebd 4d03 513e
00000180: 148f babe 54da a73e df34 f93d eccb aabd
00000190: 7ff2 083e 1889 bc3e 1f25 5f3e dd0f 94bd
000001a0: 24e8 0f3e 8dab 08be 6f61 49be 81c4 963e
000001b0: a110 843e 70f6 8dbe 071f 2dbe e0d0 983e
000001c0: d303 983e ba0f 743e 55ef b43e c743 abbe
000001d0: 886e 4e3b 8f36 53bd 97af 903e 18b4 87bd
000001e0: 26c5 d23d a6c6 6ebc ac64 3dbe 42a1 c23d
000001f0: 7b06 61be cb98 49be 2fc0 a93e 19a4 94be
-0.2555332 0.08945452 0.103148796 -0.09059935 0.32455522 -0.33989868 0.039171457 0.2158663
-0.014140269 -0.062470775 0.1705811 0.06040534 -0.3692637 -0.055617068 -0.2391665 -0.2637345
-0.12968223 -0.2999994 0.24490947 0.06641694 -0.21716374 -0.075315766 0.21727826 0.03404521
-0.11972833 0.21567792 0.3470437 0.35715264 0.05852085 0.24886426 -0.2200316 -0.34659618
-0.027486973 0.092304796 0.0133436285 0.3627053 0.28936955 0.20492966 0.04899812 0.013457861
0.3430676 0.26272446 0.0142197935 0.4024452 -0.07743736 0.24886149 0.23238946 0.048040316
-0.33054644 0.1299033 0.004993482 -0.36920545 -0.20489433 -0.42774746 -0.047998235 0.10103982
-0.2756977 -0.3262021 -0.3765149 0.3594384 0.11773812 -0.21794446 -0.08123157 -0.05398402
-0.08105962 0.20644394 -0.07052329 -0.15947363 -0.15051407 -0.09941364 0.24752726 0.016789943
-0.16817762 -0.008015769 0.13762635 -0.35372892 0.20231503 0.050174393 0.096048646 -0.1520947
0.28717855 -0.112994 0.28533912 -0.29574224 -0.03074874 0.31324697 -0.17116526 -0.21904433
0.38046926 0.074447885 -0.055668406 -0.2407642 0.33798397 0.3758438 -0.05812918 0.20411415
-0.36437285 0.3278376 0.121682875 -0.08339676 0.13373755 0.36823344 0.21791504 -0.07229588
0.14053398 -0.13346691 -0.19666074 0.29446796 0.25793937 -0.2772708 -0.16906367 0.2984686
0.29690418 0.23834124 0.35338846 -0.33450148 0.0031498987 -0.051565703 0.28258964 -0.06626147
0.10291509 -0.014573729 -0.18495435 0.09503414 -0.21975128 -0.19687192 0.33154437 -0.29031447

fc2.weight f4 [128, 128]
00000000: e680 333e 48e7 69bc 88ad 0abb 4862 9d3c
00000010: 093c 1bbd 1efd 4fbd 007f 94bd 70c5 1539
00000020: 137f e9bb 201b 3e3d 5c66 1ebd 2e71 d73d
00000030: e79c 88bc 4993 8d3d 25f3 483a a2af 843d
00000040: dbe6 ac3c 8dec 813d d78a 303d 15e8 d3bc
00000050: 06e5 033d bfed 6b3c ce3c 04bd e7e7 5bbd
00000060: 6c0b cebd b27c c5bd 84b6 983d 797d 713d
00000070: 544d 893d 22bc 1bbd eb38 533d 61b7 e0bb
00000080: da3e 82bd 910e 9fbc e19c 93bc 9636 5ebd
00000090: ee37 af3d 9f45 a73d 9f98 fc3d 39ec 81bc
000000a0: e7fc ec3d 60ed 11bc 64b2 143d 067f e33d
000000b0: 85e1 2e3d e732 ab3c d999 3abd 5b64 dc3b
000000c0: 22df ba3b 80c6 83bd 50e8 9ebd c59d 1cbd
000000d0: ceb8 a53d 8c3b 653d a93a c23d 2529 1cbc
000000e0: 55df c63a bd4e 3cbd 13fb 383d 06c8 f93a
000000f0: 2f2a 883d 93ce 9bbd f44c 0ebd 3e7f c43d
00000100: fada 86bd 5e76 723b cc24 c53c 520c 353e
00000110: 96a9 b0bd 11f3 973d 81e3 89bc 8a95 15bd
00000120: dcf1 7b3b 5f97 1abd 803c 66bd 8a13 153e
00000130: cdc6 543d 7d4f 0a3e 33b0 723d 830c 45bd
00000140: 7ae8 53bb ce4a 08be 0528 5f3d 0e0b 3a3d
00000150: 3fea 0a3e c56f 203d e17e 073d 2d08 c23c
00000160: 15ef 9f3d dc9a f33d 79a7 7c3c 5d5f 2a3c
00000170: f40a 683d 9dee 4abc baaa 49bd c3f8 a63d
00000180: 7762 463d ef07 16bd a30a b93c ac05 8f3d
00000190: 9f1b efbd 20c7 15bd f610 293e c2e3 8d3d
000001a0: 25c8 aabd 4eff 23bd baa2 cb3d 2113 dc3c
000001b0: 8315 083e ceca 983d d53f b33d 2853 5bbd
000001c0: 0243 afbd 86f5 b43b aa45 303e bae8 b7bd
000001d0: 0adf 63bd 2eb0 8a3d 85b4 d03c 7291 453c
000001e0: d370 8ebd 08c6 a53d d85b 063e a7aa 913d
000001f0: 8319 febd 384b efbc 6230 d03d 0b6c 4e3d
00000200: a5c3 ddbd cce6 473d d144 343d 0f83 e73c
00000210: 242d b6bd 3104 acbd 63a3 b4bd 5e09 24bd
00000220: 3ce4 6cbd 9ff4 b43d 70f1 6d3d e2fd 7ebc
00000230: 9673 93bd 62a8 6c3d 8c00 e8bd ab32 b83d
00000240: bcf6 ab3d 67f6 91bc 0834 c63d 8e94 843d
00000250: a4c8 693d 5ca6 91bc c3c7 f3bd 5994 1b3d
00000260: 8697 2f3c ad52 32bd 42c4 a33c d38e 063d
00000270: 79d4 e4bc 9848 fb3d 9d2a 89bc 0223 cdbc
00000280: 80b7 90bd 2f16 7abc 1aa2 ffbd d70d da3d
00000290: 2a85 febc dd10 3a3e bb30 e4bd daf5 67bc
000002a0: 8a86 253e a25c 0a3e 4932 ad3c 6259 98bd
000002b0: ab74 af3d 4049 823d 88b8 803c 8780 0bb9
000002c0: 1944 49bd 4a1e a7bd 997c 02be 661b a93d
000002d0: 31e9 a83d 1c72 4e3d 97fd efbb f9a7 023e
000002e0: b0c9 84bd f2c3 b33d 0896 aa3d 368c be3d
000002f0: f0ea 113d dce1 333e 268b 1e3e 3af0 973d
00000300: a8c4 013e e9fc fe3c b3bc a5bd 8ca0 d23d
00000310: 7624 483d 9f55 f23d 95b2 b93d 73de aabd
00000320: 656d 673d 6fb2 bf3e 8c6e 353c f6c5 94bd
00000330: d9fc 593d 5933 91bd bc3b 42bd 7f94 c5bb
00000340: e3d7 42bd 4757 4a3e 80e7 88bd b7d1 6dbc
00000350: e404 19be e03f b03c 27d7 5abd 7fed 89bd
00000360: 1c66 84bc 52e3 bb3b 5e57 7c3c d332 94bd
00000370: adb1 b53d cbe2 f63c fe8a 96bd 83b8 85bc
00000380: 13b8 dabb 5467 9d3d 7959 0c3d 0351 08bd
00000390: a2dc d4bd 8ce4 05bd 874e 873c c282 c53d
000003a0: 2880 513e 07bc cc3b 49e3 333d 38d4 1b3d
000003b0: 15be 863d fee4 51be dbee 073d 5d47 fabd
000003c0: dd09 983d 9617 84bd 2cba 8d3b 7ce8 b2bd
000003d0: 524d cabc 2ac6 31bd c310 3f3d 0ece 85bc
000003e0: 86f8 1ebd 7b11 3f3d 0041 1ebc f6e1 973d
000003f0: 9a53 e5bd cbd2 573d 372e 143d bdaf 65bd
0.1752964 -0.014276333 -0.0021160562 0.019211903 -0.03789905 -0.0507785 -0.07250786 0.00014283299
-0.007125744 0.046412587 -0.038671836 0.10519634 -0.01667638 0.06912858 0.0007665626 0.06478812
0.021106174 0.063439466 0.043101158 -0.025867501 0.032200836 0.014399945 -0.03228455 -0.053687956
-0.10060772 -0.09642924 0.07456687 0.05895755 0.06704202 -0.038021214 0.051567953 -0.006857798
-0.06359644 -0.019416125 -0.018019142 -0.054251276 0.085555896 0.08167576 0.12333798 -0.01585971
0.11571675 -0.008906692 0.03630294 0.11108212 0.04269554 0.020898296 -0.045556877 0.0067258305
0.005702869 -0.06434345 -0.07759154 -0.0382364 0.08091889 0.05596499 0.09483845 -0.009531294
0.0015172759 -0.04597353 0.045161318 0.0019056804 0.06648671 -0.0760776 -0.034741357 0.09594582
-0.06584735 0.0036996822 0.024065398 0.17680481 -0.08626096 0.07419408 -0.016832115 -0.036519565
0.003844372 -0.037742015 -0.05621004 0.14558235 0.051947404 0.13506885 0.059250068 -0.048107635
-0.0032334612 -0.13309786 0.054481525 0.0454207 0.1356592 0.03916909 0.033079986 0.02368554
0.07809273 0.118947715 0.015420788 0.010398713 0.05665107 -0.012385991 -0.049235083 0.08152916
0.048433747 -0.03662866 0.02258808 0.06983504 -0.1167519 -0.036566854 0.16510376 0.06928207
-0.08338956 -0.0400384 0.09943147 0.02686459 0.13289456 0.07460557 0.08752409 -0.0535461
-0.085577026 0.0055224327 0.17214075 -0.08979936 -0.05563263 0.06771885 0.025476703 0.012058603
-0.06955113 0.08094412 0.13120973 0.071126275 -0.1240721 -0.029210672 0.10165478 0.050396007
-0.10828332 0.04880409 0.04401094 0.028260736 -0.08895329 -0.08399237 -0.08820226 -0.040047996
-0.05783485 0.0883572 0.05809158 -0.01556346 -0.07199781 0.05777777 -0.11328229 0.08994039
0.0839667 -0.01781769 0.09677893 0.06473647 0.05707611 -0.017779522 -0.11903336 0.037983272
0.010717278 -0.043535877 0.019991044 0.03285105 -0.027933346 0.122697055 -0.016743952 -0.025041107
-0.0706625 -0.015264078 -0.1248209 0.10647171 -0.031069357 0.18170495 -0.11142107 -0.014157737
0.16164604 0.13511899 0.021142142 -0.074389234 0.085671745 0.063616276 0.015712991 -0.00013303953
-0.04913721 -0.08160074 -0.12742843 0.08257179 0.08247603 0.050401792 -0.0073239314 0.12759389
-0.06483781 0.08777608 0.083293974 0.09304087 0.035624444 0.17566627 0.15482768 0.074188665
0.12672675 0.031126456 -0.08092632 0.10284528 0.048862897 0.11832737 0.09067265 -0.0834321
0.05650081 0.37440822 0.01107372 -0.072643206 0.05321965 -0.07089872 -0.04742025 -0.006029665
-0.047569167 0.19759856 -0.0668478 -0.014515332 -0.14943272 0.021514833 -0.05342784 -0.06734752
-0.01616197 0.005733886 0.015401689 -0.072362565 0.088717796 0.03013744 -0.073507294 -0.016323334
-0.0066747754 0.07685724 0.034265015 -0.033280384 -0.10393645 -0.032688662 0.016516937 0.09644081
0.20459044 0.0062480005 0.043917928 0.038044184 0.06579224 -0.2049751 0.033186775 -0.12220643
0.07423756 -0.06449811 0.004325172 -0.08735749 -0.024695072 -0.043401875 0.046646845 -0.016333606
-0.03881123 0.04664753 -0.009659052 0.074161455 -0.11197586 0.052691262 0.036176886 -0.0560758

fc2.bias f4 [128]
00000000: 2768 be3d 01f2 50bd fd63 8ebd dc60 d63b
00000010: 0dd5 c23c 4e90 0ebc cc42 5cbd 61a1 83bd
00000020: 1334 1ebd 3372 553c 1d49 97bd 9958 813c
00000030: a812 a23d 48f4 463c 28c5 30bd 2465 30bc
00000040: 7ba7 963c 5bca 883d aef8 f43b 7b11 773d
00000050: ce94 313d d6a4 b03d 29eb 9f3d 350d 163c
00000060: 8e73 1d3d f16a 8c3d 154a 203d 233d a8bc
00000070: fcc9 803d 45ca 9dbd 5192 d83c 2cdd 85bd
00000080: 2c72 383d bae5 813b 34d8 5abd 1163 03bd
00000090: 9d73 5f3c 9c87 8d3d 9ed7 413d 288d b23d
000000a0: 5fd2 883d 11cb a7bd cde2 fa3b 3df0 18bd
000000b0: 6266 53bc c62e d63c 422e ac3d 2fb7 453d
000000c0: 38af b93c e3f3 1a3d 6b66 0f3d a252 f5bc
000000d0: 8f4b dfbc d6bb da3b 1902 2dbd 0a6d 1cbc
000000e0: c5d9 153d 127b 353d f0ef 3ebd df89 893d
000000f0: a562 293a 67d9 96bd 71b3 8ebd 7552 543d
00000100: 8208 96bd 279a 0a3d ad1d e33c 737b 85bd
00000110: feea 373d a7b2 dfbc 8deb 95bd 00d5 273c
00000120: 0373 9bbd 0304 54bd 8c97 913d dceb 123d
00000130: bf07 6ebd e071 853d 980a 853d 8a42 173d
00000140: 7d20 093d 3144 48bd 992e 4dbd ce91 663d
00000150: d5e9 0bbc 7a9c f7bc 6539 e53c c150 4abd
00000160: 51c3 07bd 795f 18bc 7748 573c a840 543d
00000170: 2625 82bd c372 8fbd 1885 463d 4803 ba3d
00000180: c05d 07bd 0561 cb3b cfc6 c73d 542b 62bd
00000190: 81fc 613d fbe6 bc3d 593d e2ba 1ec6 95bd
000001a0: 65ca 013c d870 c73c 00de 8fbd 062c 813d
000001b0: 8f46 adbc 9e37 3bbd c50b 253d 1915 77bd
000001c0: 34f5 553d cca6 353d ff72 bebc d1ac e1b9
000001d0: 8d54 ad3d 5cce e43c f226 623d d064 05bd
000001e0: b6f1 0cbd d3c6 5c3d 1e14 1abd 545c a93d
000001f0: 741e 21bd 0cee 35bd 9b69 a2bc c5e1 d73c
0.09297209 -0.051012043 -0.06952665 0.0065423083 0.023783231 -0.008701397 -0.05377464 -0.06427265
-0.03862388 0.0130277155 -0.07386992 0.015789317 0.07913715 0.012143202 -0.043156773 -0.010766301
0.018390408 0.06679221 0.007475934 0.060319405 0.0433548 0.0862519 0.07808525 0.009158422
0.03844028 0.06856335 0.03913315 -0.020536965 0.062885255 -0.077045955 0.026436957 -0.06536326
0.045030758 0.003964153 -0.053428844 -0.0320769 0.013638404 0.06910631 0.04732477 0.0871833
0.0668075 -0.08193029 0.0076564313 -0.037338484 -0.012902828 0.02614535 0.084072605 0.0482704
0.022666559 0.037830245 0.035009783 -0.029946629 -0.027257709 0.006675224 -0.04223833 -0.009547481
0.036584634 0.044306822 -0.04661554 0.0671575 0.00064615376 -0.07365685 -0.069678195 0.05183645
-0.073258415 0.033838417 0.027724111 -0.06517687 0.04490184 -0.027306868 -0.07320318 0.010243654
-0.07590296 -0.05176164 0.071089834 0.035869464 -0.058112856 0.065158606 0.06496161 0.03692869
0.03347825 -0.048893157 -0.050093267 0.056291394 -0.008539637 -0.030225981 0.02798147 -0.04939342
-0.033145253 -0.009300106 0.013139836 0.051819474 -0.06354742 -0.07004311 0.04846677 0.09082657
-0.03304839 0.006206634 0.097547166 -0.055217102 0.055172447 0.092237435 -0.0017260715 -0.073131785
0.00792179 0.0243458 -0.07024765 0.06307225 -0.021151809 -0.045707338 0.040294427 -0.060322855
0.052235797 0.044348523 -0.023248194 -0.00043044102 0.084633924 0.027930431 0.055212922 -0.032566845
-0.0344102 0.05390055 -0.03761684 0.08269563 -0.039335683 -0.044416472 -0.019825747 0.026352772

fc3.weight f4 [128, 128]
00000000: 4be0 4e3d 138d 0fbd 2de7 90ba c565 cbb9
00000010: b82b 99bd f0f5 61bd 79a7 71bb ebeb 483c
00000020: 4f09 733d 53c5 7d3c 5e39 b7bc 4fa0 943d
00000030: 3107 62bd a1b1 113d 5376 49bd bc4b 1bbc
00000040: 4489 693d 8f05 cabd cc0f 94bd e2eb 073a
00000050: 164e 1ebd 211c 88bd 743b a4bd 4d92 21bd
00000060: 1a56 ebbd 8c2f dabc f969 a73d 299f b73d
00000070: 8a63 bb3a 7c9b 5f3d 3ef3 533d bddf 493d
00000080: 7179 ad3d 7190 b33c e353 b8bb e097 4cbc
00000090: 238f 87bd d67e 963d 11b5 37bd 84d5 71bc
000000a0: d4ba ef3d a3ae 54bd 809c d73d 1670 2bbd
000000b0: 0f33 8d3d 829a bcbd e653 cfbc c940 f83d
000000c0: 2515 b93b 8d60 ecbd 0260 353c c7a5 debd
000000d0: a359 6a3c 83df 3fbd 6c2e 98bc f2d8 9fbd
000000e0: ac8f bebc b1ce ba3b db52 d43c 9d90 adbd
000000f0: 04d6 1a3d 5749 8bbd c419 913d 0f76 aebc
00000100: a8af 4b3d 0e07 1bbd eb25 f83c ef35 013d
00000110: 0a41 79bc 418c 6cbd 471c 7ebc 2a16 a9bd
00000120: 91fd 19bd 0da6 c4bd 1af7 7db9 ecc2 893d
00000130: b433 ad3c 53ce cb3c 42e6 aebd 79d4 cabd
00000140: f880 373d 9cfc a3bd e856 2dbd 175e dbbc
00000150: 4d2e 593c a62e 923d 1a7d a13d d37c b23d
00000160: 95f0 85bd 346b 213a f3dc 953d 0ad7 0ebb
00000170: 8a30 1fbd 33af 243d 9fa2 24bd ce22 f93c
00000180: b76c f4bc 468e 9e3c 4a5a 913c 22d4 36bd
00000190: 2364 193d b6ea 61bd 304a 27bd 9fc6 2ebd
000001a0: d110 28bd bdc4 8d3c 5b56 913d ce90 563d
000001b0: dd1a 733d 4c0a 2d3d 3220 cf3d 3fa5 ab3d
000001c0: 78dd 0e3d afc8 a63c 10da 81bc 14e3 663d
000001d0: 8827 40bd 15bf 44bc c6b7 973d 941a 0fbd
000001e0: 3036 013d 12b9 af3d 05eb da3d 24ee 15bd
000001f0: 2aa5 0fbd a2a0 c1bc 39ab b23d ba26 713d
00000200: 3f22 683d e6a4 0d3e 1489 05ba ae9f 703d
00000210: ae36 0e3d 2352 043e 2706 a4bd 079c 8b3d
00000220: d8f3 0abd 624a a5bd 64b8 3d3d 4261 8ebd
00000230: 821f 3a3d cd6e 16bb 6589 ba3c 6621 013d
00000240: 477e 933c 49c3 bc3d 21b7 4abd 4671 40bd
00000250: 1888 6bbd c076 4c3d 90c1 22be e9e9 883d
00000260: 81c1 e03d e8ea 13bd c42b c3bb 19dd 56bd
00000270: 854c 07bd 2949 e43c be8d a13c 3031 8abd
00000280: e9f7 d6bb 7626 cabb 49d4 85bd 11e1 7a3d
00000290: 3ddf 08bd 6ed5 2abd 485e f23d be33 443d
000002a0: 8d7f 06bd 0e20 bb3c a731 873d b406 753d
000002b0: d7ea 93bd 8590 95bd 2a6b 883c 23a0 8a3d
000002c0: 4eb6 a1bd 033c 163d 24be fabd 3a9b 883d
000002d0: ab50 c13b b003 06bd 987f 38bd 08b9 743d
000002e0: 242e 4f3d ef8b 4b3b 8472 d1bc 36ef 7b3d
000002f0: bfc5 90bc dbd7 6b3d 31eb dbbc 48b4 1c3b
00000300: 4933 09bd 2f82 a8bd 5f70 c0bc 4639 e93c
00000310: 8ee7 abbd b6a2 493d f399 983c 1eda 07bd
00000320: 98e7 b4bd e85a d7bc 6661 88bd a15f 71bc
00000330: 0d5e acbd b573 993c 3bc1 403d 1a1d cc3d
00000340: 47fb 19bd 1d49 883d 25a1 aebd 2888 f53c
00000350: f979 cf3b 9e6e a3bd 3efa dd3d 1cb0 d3bc
00000360: a169 473d ef55 903d 84ed 643d 3c20 b33d
00000370: 5769 043d b013 59bc 99bc ed3c 95e4 54bd
00000380: e1f2 bb3d 438d 46bd 9338 033d aaaa d13d
00000390: e32b 54bd 6dee 5d3d f731 873d bf39 27bc
000003a0: 919d 47bc dcdb b5bd 0e7a 823d 8c03 813d
000003b0: 23bd adbd 5346 b0bc 0c24 c23d 9add 20bd
000003c0: 6e5c 2f3e 28bc 82bb 49dc 99bd aa84 7d3d
000003d0: 7704 e53d 9f31 823d 0938 683d 294f 8f3c
000003e0: 14fa 90bd 4e78 3e3d 6840 303d 7ddf 85bd
000003f0: 7ebe 8ebd fcea 863d 2e2e 93bd fe63 493d
0.05050687 -0.03504665 -0.0011055224 -0.00038795001 -0.07479042 -0.055166185 -0.0036873503 0.0122632785
0.05933505 0.01548894 -0.022366222 0.07257139 -0.05518264 0.03556979 -0.04918511 -0.009478506
0.057015672 -0.098643415 -0.072295755 0.00051849906 -0.038648687 -0.0664599 -0.08019152 -0.039446164
-0.11491032 -0.026634 0.081745096 0.08965904 0.0014296633 0.05459164 0.051745646 0.04928564
0.08470429 0.021919461 -0.0056252345 -0.012487382 -0.06619098 0.07348411 -0.044850413 -0.014760379
0.117055565 -0.05192436 0.10527897 -0.04185494 0.06894504 -0.092091575 -0.02530856 0.12121732
0.0056482726 -0.11541853 0.011070253 -0.10871463 0.014303598 -0.046844017 -0.018576823 -0.07805051
-0.023261867 0.005700909 0.025918415 -0.084748484 0.037801757 -0.06801098 0.070849925 -0.02129653
0.049728066 -0.037848525 0.030291518 0.031545576 -0.01521326 -0.057750944 -0.0155096715 -0.082561806
-0.037595335 -0.09601984 -0.00024220013 0.067266315 0.021142818 0.024878656 -0.08540012 -0.09903807
0.04480073 -0.08007166 -0.04231921 -0.026778264 0.013255668 0.07137804 0.07885189 0.087152146
-0.06540028 0.0006157637 0.07317533 -0.0021795654 -0.03886465 0.040206145 -0.04019415 0.030412104
-0.029836996 0.01935495 0.017743248 -0.0446359 0.037449013 -0.05515548 -0.040842235 -0.04266989
-0.041031662 0.017305726 0.07096549 0.05238419 0.05935179 0.042246148 0.10113563 0.083811276
0.034879178 0.020359365 -0.01585105 0.056368902 -0.0469127 -0.012008448 0.07408099 -0.034937456
0.031545818 0.08580221 0.10689358 -0.03660406 -0.035069622 -0.023636166 0.087240644 0.058874823
0.056673285 0.13832435 -0.00050939736 0.058746032 0.034720115 0.12921958 -0.08008986 0.06816869
-0.033923954 -0.08070828 0.046318427 -0.06952144 0.045440204 -0.0022954226 0.022770593 0.03152599
0.01800455 0.09216935 -0.04949105 -0.046983026 -0.057502836 0.049917936 -0.1589415 0.0668524
0.10974408 -0.036112696 -0.005956145 -0.05245695 -0.03303196 0.027866917 0.019720908 -0.06747663
-0.006560315 -0.0061691357 -0.06534631 0.061249796 -0.03341602 -0.04170745 0.11834389 0.047900908
-0.032836486 0.022842433 0.06601267 0.059820846 -0.072225265 -0.073029555 0.016652662 0.06768825
-0.078961 0.036678325 -0.12243298 0.06670232 0.005899509 -0.03271836 -0.045043558 0.059746772
0.050581113 0.0031058749 -0.0255673 0.061507426 -0.017672418 0.057578903 -0.026845546 0.0023911167
-0.033496175 -0.082279555 -0.023491083 0.028469693 -0.08393775 0.04922744 0.018628096 -0.033166997
-0.088332355 -0.026288465 -0.06659202 -0.014732272 -0.08416376 0.018731931 0.04705928 0.09966488
-0.037593152 0.0665457 -0.0852683 0.02997215 0.006331679 -0.07980083 0.108387455 -0.025840811
0.04868472 0.070476405 0.055890575 0.087463826 0.032327022 -0.013249323 0.029020594 -0.051975805
0.09177185 -0.04847456 0.032036375 0.1023763 -0.051799666 0.05418246 0.06601327 -0.010206639
-0.012183563 -0.088798255 0.06370936 0.06299505 -0.084833406 -0.021517908 0.09479532 -0.039273836
0.17125103 -0.003989715 -0.07512719 0.061894096 0.11182492 0.06357121 0.056694064 0.017493801
-0.070789486 0.04650145 0.043030173 -0.06536768 -0.06969927 0.065877885 -0.071865425 0.049167626

fc3.bias f4 [128]
00000000: 5e05 dd3d 9287 b33d 3a01 a7bd 1bee 743d
00000010: 553a c73d e0fd 613d 566b 61bb cbed b73d
00000020: 9544 c03d 8c9d 223c 0674 de3c c3d2 453d
00000030: 68d0 28bd 870c 9dbd 570c bcbd 689f 1c3a
00000040: 5773 bcbc 5692 c43d 0a39 cdbd 6dea fbbc
00000050: bded 4fbc b1b1 44bd 4c27 9b3c 0278 1939
00000060: f1f8 ce3d b220 5dbd 5933 ad3b 9dca 75bc
00000070: 1ba9 06bd 2ddb 3b3d 5f65 21bd 07b0 f03c
00000080: 67b2 a73d c6e9 873d 6656 75bb 1547 5dbd
00000090: 31c2 d2bc c3e3 a9bc 33ed 95bd d606 c4bc
000000a0: c030 b23d 4f60 b63d d12d 2f3d fd2b 9cbd
000000b0: 3f05 9b3d e1fe 393c dfb4 9d3d c3b8 3a3d
000000c0: 05cc b4bd f8f1 1d3c d5cc 8d3d 71a9 b83c
000000d0: 92f4 cb38 bffa aebd 0005 71bb be65 9d3d
000000e0: d748 06bd 551d c3bc 7d58 8d3c 1389 a6bd
000000f0: 83bb 523d ef45 773d 93de a33b 8aaa 08bd
00000100: b745 503c 38e4 ca3c 8a7a 333d 6b22 be3d
00000110: 0f70 953c a590 95bc bc83 863d 84ec 88ba
00000120: d34b 81bd 6587 903d f561 a3bd 51fc d13d
00000130: 3f87 8cbb b493 bd3c 9b4c 80bd 1553 62bd
00000140: 76d2 c93d a600 293d 8dc7 9fbd 3c5d a73d
00000150: de50 5bbd cecc 8d39 6f12 da3c 7f7d 3c3d
00000160: fd79 083d b9c9 c1bd 6fbd 11bd 2bc6 4cbd
00000170: 5f61 80bd 02a0 f63c b00d 223c 9931 b73d
00000180: f426 0a3d 2f09 303c a91b f5bc 4ba1 cb3d
00000190: 1989 99bd e4d7 bd3d de00 453d 7cf1 ddbc
000001a0: f015 3abd 7a1b 6c3c f464 d83d c5b8 b93d
000001b0: bc7a 193d 70f1 d93b 0ceb 7abc fa5f 013d
000001c0: 0eae 49bd 5411 44bc d8b6 c5bc cf19 03bc
000001d0: 3856 993c b507 01bd 910b a63d f230 933d
000001e0: b54c 84bd dc55 363d 9ea7 0bbd ddf0 b9bd
000001f0: b758 433d 1b2e 8b3d 0c0a 47bb 7ab1 d53d
0.10792039 0.08766092 -0.08154531 0.059797388 0.09727923 0.055173755 -0.0034396253 0.08980902
0.09388081 0.009925257 0.027154934 0.0482967 -0.041214377 -0.07668405 -0.09182041 0.0005974681
-0.023004217 0.09598224 -0.10020645 -0.030751431 -0.012690959 -0.048021022 0.018939637 0.00014635923
0.101060756 -0.05398626 0.005285662 -0.01500192 -0.032876115 0.04586332 -0.039403316 0.029380811
0.081883244 0.066363856 -0.003743553 -0.054022867 -0.025727363 -0.020738488 -0.07320633 -0.02392904
0.087007046 0.08905088 0.042768303 -0.076255776 0.0756936 0.011352272 0.07700514 0.04558636
-0.08827976 0.009640209 0.06923834 0.022541733 9.725349e-05 -0.0854392 -0.0036776662 0.076854214
-0.03278431 -0.023817698 0.017254109 -0.081316136 0.051448356 0.06036943 0.005000898 -0.033365764
0.012711934 0.024767026 0.043818034 0.092839085 0.01824191 -0.018257448 0.06568095 -0.0010446464
-0.063132904 0.070570745 -0.07977668 0.10253204 -0.0042885835 0.02314172 -0.06264611 -0.055255014
0.09854595 0.041260384 -0.07801733 0.0817208 -0.053543918 0.00027046207 0.026620118 0.04601812
0.033319462 -0.09462304 -0.03558105 -0.049993675 -0.06268572 0.030105595 0.009890959 0.08945007
0.033728555 0.010744377 -0.029920416 0.099428736 -0.074968524 0.092696935 0.04809653 -0.027092688
-0.045431077 0.014410848 0.1056613 0.09068445 0.037470564 0.006651096 -0.015314829 0.03158567
-0.049238257 -0.011967022 -0.024135038 -0.008001759 0.01871787 -0.03150149 0.08107675 0.0718707
-0.06459943 0.044515476 -0.0340954 -0.09079144 0.047692027 0.06795903 -0.0030370979 0.104342416

fc4.weight f4 [2, 128]
00000000: 2efe e8bd 663b 033e 203b 993c 068c ad3d
00000010: eda1 c8bd 1252 6ebd dae8 8b3d b0df 37bd
00000020: 695e 96bd b672 48bd 5f32 1c3e 0f2f ecbd
00000030: 4155 933d 40e6 733d dc6c b6bd 4f5a b2bd
00000040: 532d e53d 2cdb 51bd c2a9 60bd d57a 183c
00000050: 1f25 b1bd 6ff4 f6bc e796 6cbd 4b23 ee3d
00000060: 6ad2 84bd a500 f3bb f037 21be 0212 d03d
00000070: 7a4d a0bd 98aa 01be b7c7 c33d 7480 fc3d
00000080: 3d02 6bbd c077 fd3c 032d d0bd 9ed9 af3c
00000090: 949c 883d 40fd ab3d e201 4bbd b42c 6cbe
000000a0: 60b8 90bd ad02 16be b8fb 9cbd 5a00 6e3b
000000b0: f6ce c83d 63ca 33bd 88ed adbd 98f7 8cbd
000000c0: 0115 c5bc 1a7d 8e3d c5ce 85bc 7e12 8d3c
000000d0: ee30 ef3d 09d9 813d 2bbc 013b 55c8 213c
000000e0: d727 20be b00a 02be 2f43 123d 4aca 7abd
000000f0: d6e2 923d 6af4 803b f2e4 30bd 81d1 4ebb
00000100: 8ca3 ec3d 5379 96bc 4c5c cfbc b333 6ebd
00000110: ee9e c6bd 0a14 e23d 52cf c4bd 6299 b2bd
00000120: 3411 8a3d 8a85 803d dd1d 9ebd cb06 ebbd
00000130: 6ab8 06be c959 05be 33e6 d13c 76af 37bd
00000140: 1b37 95bd f1e5 d13d 6890 ebbc 0ef0 89bd
00000150: 95f8 d2bd 7dc6 fb3d 953e e5bd 8db3 1dbd
00000160: 8876 553d 8875 863d 4bd6 95bd 2f5a 953d
00000170: ff98 b3bd 79b9 b23d 58e4 b5bc d6df 83bd
00000180: 0185 7dbd 5bce a8bd 73e1 233d 57e8 84bd
00000190: 81e0 823d 38f9 8abd 84de 08be 10fa 0cbe
000001a0: 7e94 913d cf4b 923d 0089 02be 14e8 42be
000001b0: d64e 14be e53e 9cbc 6fba 27bd 423c 0abe
000001c0: 3420 813d e4ca ecbd d637 abbc d31e 3abd
000001d0: ce98 ec3d c8ac 9fbd 315c 39bb 73cf 9a3d
000001e0: a109 dcbd 6442 1a3d a1aa c23b eb6a 913d
000001f0: a68a c2bd c04d 9f3d d35c 00be 8fca afbd
00000200: 23f1 c0bd 90d4 263d a3db 473c 0875 a93c
00000210: 6341 83bd 368c 70bd 013a 5bbd 87bd 8ebd
00000220: 4f52 12be c693 1ebe 006f d93d 15d1 a1bd
00000230: 1b45 4c3d c5f1 e23c 55dc f93d 673f 08be
00000240: 383e 28bb fa13 febd e776 c53d f1b8 37bd
00000250: 9e95 ac3d 623d 8ebc fb34 7bbd 3d33 aebb
00000260: 8213 5fbd 729e 92bc 912d 23be 6b17 1b3d
00000270: 92b1 653d c347 373d 4598 5dbd b276 d83d
00000280: e720 92bd 444d 91bd 22af 113e c585 583b
00000290: 2115 b03d 4337 053d 7c91 1c3d 02e6 1ebe
000002a0: 2a7e 01bd b78d 1dbe fbd9 7f3d 46f1 0c3c
000002b0: 47f6 0bbd 5b8b 65bd d8cc ddb9 ce60 3cbd
000002c0: 9d7e 13bd 1468 d03c 19f0 85bd 6d18 f3bd
000002d0: 16cd c23d fb51 f43b 6e18 8bbd e390 d0bd
000002e0: 00e2 85bd 0827 b23d cdf2 babd cd82 973d
000002f0: 434a fd3c 382a 1cbe 9d7e 82bd 669b 113c
00000300: 66b5 0e3e 17c7 00bd c3fc aabd 1cef c7bc
00000310: a7fa 5ebd 134c 113d 8601 e03d 47f4 d53c
00000320: b3a3 b43c b25c bf3d 8f24 a0bd d9c3 cdbd
00000330: d019 ac3c 2b18 90bd 26cc 773d bdec 0dbe
00000340: 2f05 27bd bcc4 8d3d a973 823d 5995 cebd
00000350: 9b91 af3d 3361 aa3d 47da 35bc 7c01 6dbc
00000360: 68f0 bf3d 5d51 e73b 66fe f73c 4be7 54bd
00000370: 390f 96bd d502 873d 5712 063e 0c6d 80bc
00000380: a6c8 db3d 6222 09be 219c febc a90f fdbd
00000390: fda7 b6bc 4137 45bd 0b0c 5c3d 9bf9 b73d
000003a0: 4627 03bd 03df 143e 01db f5bd b0ee edbd
000003b0: 1224 223e 03cf 9cbd 9dda 0abd d4e9 1abd
000003c0: bd84 113e 2a55 253d 933e 77bd f92f 75ba
000003d0: 76db 733d 02a7 293d 4874 dcbc fec9 af3a
000003e0: 7d9a 2a3e afd2 14be 7fd8 43bb 7435 503d
000003f0: 0926 3dbd 6d3c f23d 0952 e9bc 5058 f9bc
-0.11376606 0.12815627 0.01870495 0.08473973 -0.0979651 -0.058183737 0.06831522 -0.04489106
-0.07342226 -0.048937522 0.1525359 -0.11532413 0.07193995 0.059545755 -0.08907482 -0.08708631
0.111902855 -0.05123441 -0.054849394 0.009306629 -0.086496584 -0.030145852 -0.0577611 0.11627825
-0.06485446 -0.0074158483 -0.15743995 0.10159685 -0.078272775 -0.12662733 0.09559577 0.12329188
-0.05737518 0.03094089 -0.10164835 0.021466073 0.0667049 0.08397913 -0.049562342 -0.23063928
-0.07066417 -0.14649458 -0.07665199 0.0036316128 0.098051 -0.043894183 -0.08492571 -0.06883162
-0.024057867 0.06957455 -0.016333947 0.017220732 0.116792545 0.06340224 0.0019795995 0.009874423
-0.15640198 -0.1269939 0.035708603 -0.061228074 0.07172172 0.0039353864 -0.04318709 -0.003155798
0.115546316 -0.018368399 -0.025312565 -0.058154773 -0.09698282 0.110389784 -0.09609856 -0.08720662
0.067415625 0.062754706 -0.0772054 -0.11475905 -0.13156286 -0.13022532 0.025622463 -0.044845067
-0.07285901 0.10248936 -0.028755382 -0.0673524 -0.103013195 0.12293718 -0.11193577 -0.03850131
0.052114993 0.06565386 -0.07316264 0.07292592 -0.08769416 0.08726782 -0.02220361 -0.06439178
-0.06189442 -0.08242484 0.040009927 -0.06489628 0.06390477 -0.06785816 -0.13366133 -0.13767266
0.07108401 0.071433656 -0.12747574 -0.19033843 -0.14483199 -0.01907296 -0.04094928 -0.13499549
0.063049704 -0.11562136 -0.020900648 -0.045439553 0.11552583 -0.07796627 -0.002828371 0.07559099
-0.10744024 0.03766097 0.0059407507 0.07100471 -0.09499101 0.077785015 -0.1253541 -0.08583557
-0.09420993 0.04073006 0.012198362 0.020685688 -0.06408956 -0.058727466 -0.053522114 -0.06969743
-0.1428921 -0.15486059 0.10616875 -0.07901207 0.04987059 0.027703175 0.12200228 -0.13305436
-0.002567185 -0.12406154 0.096418194 -0.04485411 0.08426975 -0.017363254 -0.061329823 -0.0053161667
-0.054461963 -0.017897818 -0.15935351 0.03786413 0.056077547 0.04474617 -0.054100294 0.10569514
-0.07135182 -0.070948154 0.14226964 0.0033038717 0.0859778 0.032523405 0.038224682 -0.15517429
-0.03161446 -0.15386091 0.06246374 0.008602446 -0.034170415 -0.056041103 -0.00042305025 -0.045990758
-0.03600942 0.025440253 -0.065399356 -0.11869893 0.09511773 0.007456062 -0.06791769 -0.10183885
-0.06537247 0.08698851 -0.09128342 0.07397995 0.0309192 -0.1525048 -0.06371806 0.0088871475
0.13936386 -0.031439867 -0.08348992 -0.024406008 -0.05443826 0.03547294 0.109377906 0.026117457
0.022050714 0.09343852 -0.07819473 -0.100471206 0.021008402 -0.0703586 0.060497425 -0.1385984
-0.040776428 0.0692229 0.06369717 -0.100870796 0.08572694 0.083193205 -0.011099405 -0.014465686
0.09372026 0.00705926 0.030272674 -0.05197839 -0.07327122 0.06592337 0.13092934 -0.015676998
0.1073163 -0.13392022 -0.031080307 -0.123565026 -0.0222969 -0.048148397 0.053722423 0.08983155
-0.032019876 0.14538197 -0.12004662 -0.11617792 0.15834072 -0.07656672 -0.033899892 -0.037820652
0.14210792 0.040364422 -0.06036241 -0.0009353157 0.059535466 0.041419037 -0.026910916 0.0013411639
0.16660495 -0.14533494 -0.002988368 0.050832227 -0.04617885 0.118279316 -0.0284815 -0.030437618

fc4.bias f4 [2]
00000000: 42be 90bd 6984 4f3d
-0.07067539 0.050663386

fc1.weight f4 [128, 7]
00000000: b15d 933e 73bd a9be d345 2a3e 02ea 723e
00000010: faa0 49be 9fee 253e 6d61 623e 2980 c23d
00000020: 8d00 703e 8e7e 66bd 4543 9c3e a684 033e
00000030: 504b e53d 0e0a 383e f88b b6be 8ade dd3d
00000040: f560 1fbe 1469 b6be ee36 95be 0e18 0ebd
00000050: 5936 e83c be7f 8bbe 060c 613e f474 483d
00000060: 1378 f23c 44a5 11be eb43 c73c f607 c23e
00000070: ff79 4ebd 135c ac3e 8d93 fabe 2ae0 c2bc
00000080: b0af abbe 59b7 353e 43cd b33e 42c5 a23c
00000090: 487a 0f3e 5ddb 793e 86ff 91be f367 9e3d
000000a0: 1353 adbe 1e7d cbbd 6a78 063e 5f59 85be
000000b0: 3d31 023e 1ea0 6bbe bb1b 0cbe c3e7 babe
000000c0: 9c78 69be cc02 973c 7768 b73d b4d8 adbe
000000d0: 4228 9ebe 5b14 453e faea 4d3e 8f52 b43e
000000e0: e4d4 17be ee61 423e f2d9 c13e 0748 153e
000000f0: c6ce 8ebe 3bf4 c33e 5464 013e 9a79 30be
00000100: 0a05 99be 483f 913e 8f4a b1bd 6063 69be
00000110: 33bb 49be 6b18 fa3d bb39 243e d047 c03e
00000120: 440a c9bd fe01 b83e ad26 c53e f3ad 86bd
00000130: bc2f d1be 3ebc 9a3d 7fd8 f53d 7f33 153c
00000140: e560 6dbe c8a7 31bf 5ec1 c83e cffa 9bbe
00000150: a61b 313e cf95 bcbe ea9f bd3e c070 27be
00000160: 1cf2 bc3e f866 85be 0d3a 05bd 5430 aa3e
00000170: 0960 a33e dad3 5cbe 5170 87be d713 973e
00000180: 8d7d 363e 468d 19be 81c6 333e db6f a5be
00000190: 9380 00be 307a 12be 6b03 243d 5bc8 c33e
000001a0: fd35 d7bd 6bd1 8c3d 8268 08be 0ed7 8b3e
000001b0: 3510 423e b365 c5bd 8f0e b73e 6578 45be
000001c0: 62be 503d f230 623e 1f81 b4bd e061 d1be
000001d0: c9e5 013d 92e7 77be d6ca 7e3e 25f3 e43e
000001e0: 7ed7 9a3e 4686 8f3e bb21 69be ce05 a5be
000001f0: 1471 c53d c7b2 71be 02e7 e83d fc2a e8bd
00000200: 46d8 06bf bdf2 cd3d 2585 a8bb e2fe b7be
00000210: 03c3 f93d 0610 923b fc20 81be e7ed 0bbe
00000220: 70c0 003e 55bb 98be 2e75 3ebe 0bd3 2fbe
00000230: aa2d 43be 0cdc 3abe d0d3 3e3e 1ee2 d1bd
00000240: 1616 8cbe b0d5 763e ac11 a7be cb7e 38be
00000250: 6fb2 aabd b39c 9dbe bff7 e9bc 5504 8ebe
00000260: 17b7 de3d 4e8c 06be 3811 1f3e cd86 ad3e
00000270: b9fb 34be 36fd 10be 1915 10be 2a94 00be
00000280: 4f46 7f3e 894a d0be c335 0cbe c1af 68be
00000290: 3ff6 173e 6324 9b3e 9ba2 8b3e e282 c9be
000002a0: 450d ed3d 19c5 b6be 989f 8abe f0ce 8e3d
000002b0: 43cd db3d 86c2 c1bb 4c12 883d 7ead 433d
000002c0: d1f4 383d 58f9 d6be b253 77be c09e 17bd
000002d0: f0ed c3be b5b7 1a3e 97d2 e03d 1b74 b73d
000002e0: 8bb8 84be f71c 2b3e eaa1 9d3e 9b38 963e
000002f0: 24d5 ddbd abd2 afbd 110f 8ebe 09e9 c73e
00000300: c6e9 6bbe 9b24 96be 145b 053d 2742 4bbe
00000310: 80c0 6c3e 215d 4b3e 5789 b2bd 815a 48bc
00000320: 3f62 3dbe a916 e83d 9617 163e 00b2 87be
00000330: e87f 53be 67ed 8e3e fb46 37be 1005 b33e
00000340: b81a 28be 9ea4 15be 73af b8be a349 ae3e
00000350: 5d1c c1be 06a1 18bd 9e71 733d ff07 d53d
00000360: 637f 54be 57df b1bd 5426 31be dfd8 52bd
00000370: 496c 18be 7761 babe 6596 3a3e 0e2e 52be
00000380: c77b 3bbe e53e 8c3e 4db6 11bf 3342 6b3e
00000390: 14f7 933e ac5e 1c3e eb80 013e 3070 683e
000003a0: 09b5 cdbc a1a3 fbbe 9afd c4bd 121b b13e
000003b0: 5bf3 8fba 31b2 ab3e ad7c 56bd a4a9 0ebe
000003c0: 48cb 15be ed36 d5bd 0de4 7fbe c574 dfbd
000003d0: 7ef9 e43e 19b7 8d3e 9853 be3e f95c 96bd
000003e0: 1158 933e b0ec 9a3e 12ff b03e 9ae5 a13e
000003f0: 07a0 85be c468 9a3e dac2 9d3e 3ccb 9b3e
0.28782418 -0.3315235 0.16628198 0.2372208 -0.19690314 0.16204308 0.22107477 0.09497101
0.2343771 -0.056273036 0.30520073 0.1284357 0.11196005 0.17972586 -0.35653663 0.108334616
-0.1556433 -0.35627043 -0.2914347 -0.03469091 0.028346227 -0.27245897 0.21977243 0.04893966
0.029598271 -0.142232 0.024324378 0.378967 -0.050409313 0.33663997 -0.48940697 -0.02378853
-0.33532476 0.17745723 0.3511754 0.01986945 0.1401149 0.24400087 -0.2851526 0.077346705
-0.33852443 -0.099359736 0.13131872 -0.26044747 0.12714095 -0.23010299 -0.13682453 -0.36504945
-0.22799915 0.01843395 0.08955472 -0.33954394 -0.3089009 0.19246046 0.20109168 0.35219237
-0.14827305 0.1898267 0.37861592 0.14578258 -0.2789213 0.3827227 0.12635928 -0.17233887
-0.29886657 0.28368592 -0.08656799 -0.22791815 -0.19700317 0.122116886 0.16037647 0.3755479
-0.09816411 0.3593902 0.3850607 -0.06576147 -0.4085673 0.075554356 0.12004184 0.009106516
-0.23181494 -0.6939664 0.39210027 -0.3046479 0.17295703 -0.36833045 0.37036067 -0.16351604
0.36903465 -0.2605512 -0.032526065 0.33239996 0.31909207 -0.2156519 -0.26452878 0.29507324
0.17821331 -0.14995298 0.17556192 -0.323119 -0.12549047 -0.14304423 0.040042322 0.38238797
-0.10508344 0.06875881 -0.13321117 0.2731251 0.18951495 -0.09638538 0.35753295 -0.19284208
0.050962813 0.22088984 -0.088136904 -0.40894985 0.03171328 -0.24209431 0.24882063 0.44716755
0.30242532 0.2803213 -0.22766773 -0.3223099 0.096407086 -0.23603354 0.11372186 -0.113363236
-0.5267376 0.10056064 -0.005142825 -0.35936648 0.12195399 0.0044574765 -0.25220478 -0.13664971
0.12573409 -0.29830423 -0.18599388 -0.1717035 -0.19060388 -0.18248004 0.18635488 -0.102482066
-0.273606 0.24104953 -0.3263067 -0.18017118 -0.08334815 -0.30783615 -0.028560517 -0.2773768
0.10874765 -0.1313946 0.15533912 0.33891907 -0.1767415 -0.14159092 -0.14070548 -0.1255652
0.24929164 -0.40681866 -0.13692383 -0.22723295 0.14840029 0.30301198 0.27272496 -0.39357668
0.115747966 -0.3569725 -0.27074885 0.06973064 0.1073251 -0.0059130816 0.06644115 0.047772877
0.04515535 -0.4198711 -0.24153021 -0.03701663 -0.3826747 0.15109141 0.10977667 0.08957692
-0.25922045 0.16710268 0.30787593 0.29340062 -0.10831669 -0.085851036 -0.2774587 0.3904498
-0.23038396 -0.29324803 0.032557562 -0.19849454 0.23120308 0.19859745 -0.08717602 -0.012228609
-0.18494509 0.11332447 0.14657435 -0.2650299 -0.20654261 0.279155 -0.1789817 0.349648
-0.16416442 -0.14613578 -0.36071357 0.34040555 -0.37716952 -0.03726294 0.059434526 0.10401916
-0.20751719 -0.08685177 -0.17299777 -0.051476356 -0.14885058 -0.36402485 0.18221433 -0.20525381
-0.18308936 0.27391735 -0.56918794 0.22974472 0.28899443 0.1527049 0.12646835 0.22699046
-0.025110738 -0.49148276 -0.09618683 0.34590966 -0.001098256 0.33534387 -0.052364994 -0.139319
-0.14628327 -0.10410867 -0.24989338 -0.10910944 0.44721597 0.27678755 0.37173152 -0.07341952
0.28778127 0.30258703 0.34569603 0.31620485 -0.26098654 0.30158055 0.30812722 0.30428493

fc1.bias f4 [128]
00000000: b844 83be 72fe b73d ad3f d33d 6fe9 b9bd
00000010: 7641 a63e 3307 aebe 4072 203d fbba 5c3e
00000020: b016 6abc 5be1 7fbd 9ba7 2e3e db5f 733d
00000030: 2210 bdbe 3e90 64bd 50d4 75be 0e25 87be
00000040: 6bcb 04be ea22 9abe 3b21 7b3e 9b05 883d
00000050: 2c60 5ebe 273f 9abd dc94 5e3e 7d74 083d
00000060: 8699 f4bd 4647 5d3e 5629 b13e 4660 b63e
00000070: d976 6e3d 0214 803e f74f 61be 0e75 b1be
00000080: 4ef6 e0bc 0a97 bd3d 1cd7 613c 28b5 b93e
00000090: 0f3f 943e a519 523e 0a7b 443d e772 543c
000000a0: 597e af3e b30b 863e d008 653c cf56 cd3e
000000b0: dce2 9ebd 3666 7e3e dee7 6d3e 4741 463d
000000c0: 623d a9be 5f05 053e 8602 b03b 7f08 bdbe
000000d0: d2cf 51be 9efe dabe 0dd1 46bd 15c9 ce3d
000000e0: 4028 8dbe f603 a7be 90c6 c0be 840d b83e
000000f0: 53c7 ee3d c072 5ebe 58be a7bd 03ca 5dbd
00000100: 544c a1bd 0359 533e 846e 90bd a06e 23be
00000110: 5c20 1abe 7363 cbbd d888 7d3e cda2 8c3c
00000120: c136 2cbe f818 eebb 4b80 0d3e bba0 b5be
00000130: 4b5f 4f3e b7dc 483d 04f4 c23d b7be 1bbe
00000140: acea 923e ca41 e4bd eb47 923e 876b 97be
00000150: 5249 01bd 42cf a03e f245 2fbe ec7a 61be
00000160: 81cf c13e 6f4b 983d 354d 66bd e48a 76be
00000170: 46e9 ac3e 687f c03e dd18 6ebd e3d2 503e
00000180: 148f babe 1a09 a83e 4c84 f93d eccb aabd
00000190: 4822 093e 0fed bc3e 9bde 5d3e a75d 94bd
000001a0: 0b90 0f3e 8f35 08be b945 49be 56c7 963e
000001b0: c5f1 833e 4680 8ebe 74ea 2dbe 27aa 983e
000001c0: c521 983e 7576 733e 6d94 b43e c743 abbe
000001d0: 886e 4e3b 8f36 53bd 2c4f 903e 4eb0 86bd
000001e0: 6058 d33d a6c6 6ebc bb5d 3ebe d058 c33d
000001f0: 848f 60be 203b 49be 2789 a93e 19a4 94be
-0.25638366 0.089840785 0.103148796 -0.09077727 0.32471818 -0.33989868 0.039171457 0.21555702
-0.014287636 -0.062470775 0.17056124 0.059417587 -0.3692637 -0.055801623 -0.24006772 -0.26395458
-0.12968223 -0.30104762 0.24524395 0.06641694 -0.21716374 -0.075315766 0.21736473 0.033314217
-0.11943345 0.2160922 0.3460185 0.35620326 0.05821881 0.25015265 -0.2200316 -0.34659618
-0.027461197 0.09257324 0.013784196 0.36271024 0.2895436 0.20517595 0.0479689 0.012966848
0.34276083 0.261808 0.013979152 0.40105292 -0.07758114 0.24843678 0.23232982 0.048402097
-0.33054644 0.1299033 0.0053713946 -0.36920545 -0.20489433 -0.42772382 -0.04853921 0.10096947
-0.2756977 -0.3262021 -0.3765149 0.35947812 0.11659112 -0.21723461 -0.08190602 -0.05414773
-0.078758866 0.20639424 -0.07052329 -0.15960169 -0.15051407 -0.09931078 0.24759233 0.017167473
-0.16817762 -0.00726616 0.13818471 -0.3547419 0.20251195 0.049038615 0.095191985 -0.1520947
0.28694665 -0.11145361 0.28570494 -0.29574224 -0.031564064 0.31408125 -0.17116526 -0.22019547
0.37853625 0.07436263 -0.056225974 -0.2407642 0.33771724 0.37597203 -0.05812918 0.20392947
-0.36437285 0.32819444 0.12183437 -0.08339676 0.13391984 0.3689961 0.21666948 -0.07244425
0.14019792 -0.13301681 -0.19655503 0.29448956 0.25770393 -0.2783224 -0.16983968 0.29817316
0.29713264 0.23775657 0.3526949 -0.33450148 0.0031498987 -0.051565703 0.28185403 -0.06576596
0.103195906 -0.014573729 -0.18590443 0.09538424 -0.21929747 -0.1965146 0.3311245 -0.29031447

fc2.weight f4 [128, 128]
00000000: f2de 313e d404 7abc 88ad 0abb 1f5f a03c
00000010: 7d0c 1dbd 1efd 4fbd 007f 94bd 1211 12ba
00000020: e4e2 0dbc 201b 3e3d c2f1 20bd 0fc8 d13d
00000030: e79c 88bc d0bb 8b3d fc88 68b9 a2d1 803d
00000040: dbe6 ac3c 43b1 783d a583 2e3d 15e8 d3bc
00000050: 06e5 033d bfed 6b3c e93b 06bd 18f4 5dbd
00000060: 6988 cfbd 4a77 c5bd c4c8 963d 9382 693d
00000070: e57d 863d d0d1 1ebd eb38 533d 61b7 e0bb
00000080: 2d62 83bd 1e2d a3bc 9324 92bc 7fd4 62bd
00000090: 9e8a ac3d cf61 a53d 43f3 f73d 4c07 8abc
000000a0: 455c e93d 5f41 1abc 2b72 0d3d 9423 e03d
000000b0: 9f5b 2c3d df2a a23c 7521 3ebd 69e3 ce3b
000000c0: 22df ba3b 80c6 83bd d1ea 9ebd c59d 1cbd
000000d0: ceb8 a53d dea5 673d 291c c03d 4fe8 33bc
000000e0: 55df c63a bd4e 3cbd 13fb 383d eabf 3a3a
000000f0: 9168 843d 6f0f 99bd 8554 0cbd 7563 c13d
00000100: 4a4c 88bd f06a 363b cc24 c53c c9a1 343e
00000110: 96a9 b0bd dad7 983d 7e83 8fbc a69d 17bd
00000120: dcf1 7b3b 9c37 23bd ae5c 68bd 696d 123e
00000130: 457b 523d 5dd7 083e 6112 673d 830c 45bd
00000140: 7c6e 72bb 1577 09be 13fe 5c3d 0e0b 3a3d
00000150: 9177 083e 4400 1e3d e17e 073d f1e7 b43c
00000160: 8f63 9d3d 85d8 f33d 25e8 613c 5d5f 2a3c
00000170: 7a05 633d f05c 53bc baaa 49bd 9922 a63d
00000180: 7762 463d 8749 18bd 1c8a ad3c ac05 8f3d
00000190: d3f9 eebd dc97 19bd b75a 273e 1103 8d3d
000001a0: c596 a9bd 0c8d 24bd 9a4d cc3d ee0c d83c
000001b0: 2d40 073e f281 953d c4ed ae3d 53f0 5ebd
000001c0: 090c afbd 0bb0 8b3b 8e4e 2e3e bae8 b7bd
000001d0: 0adf 63bd 2eb0 8a3d 527b c13c 3e19 403c
000001e0: 31f1 8fbd 08c6 a53d 3740 043e 7db3 903d
000001f0: a54c ffbd b7aa f3bc 496c cd3d 0b6c 4e3d
00000200: 11af dbbd ee3d 4a3d d144 343d 1ff8 d73c
00000210: 1e7d b6bd 3104 acbd 63a3 b4bd 8e50 24bd
00000220: a0cb 68bd 9ff4 b43d 062f 713d 75bc 58bc
00000230: 9673 93bd 6107 733d 4b1f e5bd 8511 bb3d
00000240: bcf6 ab3d cb4b 7dbc ef3f c63d 8e94 843d
00000250: a4c8 693d 5ca6 91bc 56c1 f2bd 8a77 1c3d
00000260: 00a5 2d3c 37bc 31bd 0001 a93c a73d 0c3d
00000270: 4a6a dabc 928b fb3d 9d2a 89bc 0223 cdbc
00000280: 5ade 90bd 1f69 7ebc f9ec 00be f47a db3d
00000290: 607e f6bc b690 3b3e 3d82 dfbd 148b 60bc
000002a0: a8f5 263e beea 0a3e 8314 b83c 4ef8 94bd
000002b0: ef5b b03d 7183 833d cfbc 853c 8c54 89b9
000002c0: 1944 49bd 4a1e a7bd ac70 02be 661b a93d
000002d0: 31e9 a83d 4d44 473d e7f4 e2bb c7ce 033e
000002e0: b0c9 84bd f2c3 b33d 0896 aa3d 7857 c03d
000002f0: 6808 183d 83dc 313e c298 1e3e c172 9a3d
00000300: 52d9 023e 0859 003d b3bc a5bd c64c d03d
00000310: 7624 483d d45d f13d 78b7 ba3d c88f abbd
00000320: 656d 673d 5bcc c03e 2fe5 2f3c 910b 90bd
00000330: 1eaf 583d 1dcc 8ebd 1228 38bd 7f94 c5bb
00000340: 7a94 42bd a98e 4b3e 23c4 89bd b7d1 6dbc
00000350: a2cf 16be ef71 ae3c 27d7 5abd 5fb2 87bd
00000360: 4cd9 77bc 2f00 8c3b 68cf 873c d332 94bd
00000370: 13ba b73d 9ec7 f63c fe8a 96bd c82e 89bc
00000380: 13b8 dabb 92f9 9c3d e6d1 103d 0351 08bd
00000390: 1586 d5bd 8130 04bd 15a5 903c 8e56 c23d
000003a0: 9baf 523e f2e6 c73b f2c6 2f3d 3514 1a3d
000003b0: c8d9 893d e024 50be 5b6a 0e3d 593f f9bd
000003c0: f49c 983d 2f33 82bd 22c3 bf3b 7ce8 b2bd
000003d0: 524d cabc 2ac6 31bd f4da 453d d6ff 8cbc
000003e0: f019 1fbd 7b11 3f3d a694 f5bb e4e1 973d
000003f0: 4a00 e6bd 1d46 5a3d 5be3 173d bdaf 65bd
0.17370203 -0.01525994 -0.0021160562 0.019576607 -0.038341988 -0.0507785 -0.07250786 -0.00055720017
-0.008660052 0.046412587 -0.03929306 0.10243236 -0.01667638 0.06822932 -0.00022176275 0.06289984
0.021106174 0.060715925 0.042606015 -0.025867501 0.032200836 0.014399945 -0.03277198 -0.054187864
-0.1013344 -0.09641893 0.07362512 0.05700929 0.06566981 -0.03877431 0.051567953 -0.006857798
-0.0641521 -0.019918974 -0.017839706 -0.055378433 0.08424877 0.08075296 0.12106945 -0.016849183
0.11394552 -0.009415 0.034532707 0.10944286 0.042079564 0.019795833 -0.046418626 0.0063137305
0.005702869 -0.06434345 -0.077596314 -0.0382364 0.08091889 0.056554668 0.09380371 -0.01098068
0.0015172759 -0.04597353 0.045161318 0.00071239343 0.06465257 -0.07473647 -0.03426029 0.09442798
-0.06655176 0.0027834736 0.024065398 0.17639841 -0.08626096 0.074630454 -0.017518755 -0.03701558
0.003844372 -0.039847955 -0.05672901 0.14299549 0.05138709 0.13363405 0.056414012 -0.048107635
-0.0036992123 -0.13424332 0.05395324 0.0454207 0.13326861 0.038574472 0.033079986 0.022083255
0.07685005 0.11906532 0.013788258 0.010398713 0.055425145 -0.012900576 -0.049235083 0.08112068
0.048433747 -0.037179496 0.02118402 0.06983504 -0.11668744 -0.03749834 0.16343199 0.068853505
-0.0828071 -0.040173575 0.09975739 0.026373353 0.13208075 0.07300176 0.08541444 -0.05442841
-0.085472174 0.0042629293 0.17022154 -0.08979936 -0.05563263 0.06771885 0.023618374 0.011724768
-0.070284255 0.08094412 0.12915121 0.07065485 -0.12465791 -0.02974449 0.100304194 0.050396007
-0.10726751 0.049375467 0.04401094 0.02636343 -0.08910583 -0.08399237 -0.08820226 -0.040115885
-0.056834817 0.0883572 0.058882736 -0.013228525 -0.07199781 0.05933321 -0.11187609 0.09134201
0.0839667 -0.015459965 0.09680163 0.06473647 0.05707611 -0.017779522 -0.11853282 0.03819994
0.010598421 -0.043392386 0.02063036 0.034238484 -0.02666201 0.1228248 -0.016743952 -0.025041107
-0.0707366 -0.0155279925 -0.12590398 0.10716811 -0.030089557 0.18316922 -0.10913513 -0.013705034
0.16304648 0.1356611 0.022470718 -0.07273923 0.08611285 0.06421555 0.016325383 -0.0002619367
-0.04913721 -0.08160074 -0.12738293 0.08257179 0.08247603 0.04864912 -0.0069261673 0.12871848
-0.06483781 0.08777608 0.083293974 0.09391683 0.03711739 0.17369275 0.1548796 0.07541419
0.12778214 0.031334907 -0.08092632 0.10170893 0.048862897 0.117854744 0.09117025 -0.083770335
0.05650081 0.3765591 0.010735794 -0.07033456 0.05290138 -0.06972525 -0.04496009 -0.006029665
-0.04750488 0.1987864 -0.06726863 -0.014515332 -0.14727643 0.021294562 -0.05342784 -0.066258185
-0.015127491 0.004272483 0.016578391 -0.072362565 0.08971038 0.030124482 -0.073507294 -0.01674594
-0.0066747754 0.07664789 0.035356425 -0.033280384 -0.10425965 -0.03227282 0.017656842 0.09489165
0.205748 0.006100529 0.04291434 0.037616927 0.067309916 -0.20326567 0.034769397 -0.12170286
0.074518114 -0.06357419 0.005852119 -0.08735749 -0.024695072 -0.043401875 0.048304513 -0.017211836
-0.038843095 0.04664753 -0.007494527 0.07416132 -0.11230524 0.05328952 0.037082057 -0.0560758
