flappybird_dqn_ep200.pth (torch, 561729 bytes, 32 tensors)

fc1.weight f4 [128, 7]
0	0x3e8fa4fb	0.28055558
1	0xbeed1a6d	-0.46309224
2	0x3e306917	0.17227589
3	0x3e61898e	0.22025129
4	0xbe7c429c	-0.24634784
5	0x3e366231	0.17810895
6	0x3e62a4ca	0.22133175
7	0x3d810540	0.062998295
8	0x3e965d3b	0.29368004
9	0x3ca7e21c	0.02049356
10	0x3e871352	0.26381928
11	0x3d8a911c	0.06765959
12	0x3da6ae1f	0.0813868
13	0x3e272066	0.16320953
14	0xbeb68bf8	-0.35653663
15	0x3dddde8a	0.108334616
16	0xbe1f60f5	-0.1556433
17	0xbeb66914	-0.35627043
18	0xbe9536ee	-0.2914347
19	0xbd0e180e	-0.03469091
20	0x3ce83659	0.028346227
21	0xbe7d5c6b	-0.24742286
22	0x3e797164	0.24359661
23	0x3d37a579	0.04483554
24	0x3db972e3	0.09055116
25	0xbd3e9a47	-0.04653385
26	0x3d7f2ce0	0.062298656
27	0x3ed19ed2	0.40941483
28	0xbd1c073e	-0.038092844
29	0x3eb48078	0.35254264
30	0xbf03c264	-0.5146849
31	0xbda83a76	-0.082142755
32	0xbeb6bd94	-0.35691512
33	0x3e47029e	0.19434592
34	0x3ec04364	0.37551415
35	0x3ca2c542	0.01986945
36	0x3e0f7a48	0.1401149
37	0x3e79db5d	0.24400087
38	0xbe91ff86	-0.2851526
39	0x3d9e67f3	0.077346705
40	0xbead5313	-0.33852443
41	0xbdcb7d1e	-0.099359736
42	0x3e06786a	0.13131872
43	0xbe85595f	-0.26044747
44	0x3e02313d	0.12714095
45	0xbe6ba01e	-0.23010299
46	0xbe0c1bbb	-0.13682453
47	0xbebae7c3	-0.36504945
48	0xbe69789c	-0.22799915
49	0xbcaddd4b	-0.021223685
50	0x3dd51fa1	0.10406423
51	0xbea5d31f	-0.32387635
52	0xbeaf46ba	-0.34233648
53	0x3e0ddcfe	0.13853833
54	0x3e41a4a7	0.18910466
55	0x3eb78f68	0.35851598
56	0xbe064911	-0.1311381
57	0x3e391524	0.18074471
58	0x3ec899bc	0.3917979
59	0x3e0aefc9	0.13568033
60	0xbe9e7fe8	-0.3095696
61	0x3ece8737	0.40337536
62	0x3e0f230b	0.13978212
63	0xbe30799a	-0.17233887
64	0xbe99050a	-0.29886657
65	0x3e913f48	0.28368592
66	0xbdb14a8f	-0.08656799
67	0xbe696360	-0.22791815
68	0xbe49bb33	-0.19700317
69	0x3dfa186b	0.122116886
70	0x3e1a4304	0.15064627
71	0x3ec23e22	0.3793803
72	0x3b8a0a92	0.004212686
73	0x3ebb1ea4	0.36546814
74	0x3ec70ab9	0.38875368
75	0xbd803a7c	-0.06261155
76	0xbef39362	-0.47573382
77	0x3e0c9b33	0.13731079
78	0xbe60cb68	-0.21952593
79	0x3d12f8f1	0.03588194
80	0xbe481804	-0.19540411
81	0xbf252a31	-0.64517504
82	0x3eea9392	0.45815712
83	0xbe7abf16	-0.24486956
84	0x3e21b89c	0.15793079
85	0xbebc95cf	-0.36833045
86	0x3eb5ecbc	0.35532176
87	0xbe36d317	-0.17853962
88	0x3eb53f11	0.35399678
89	0xbe8d1a26	-0.27559012
90	0xbd42c709	-0.047553096
91	0x3ea2f7a7	0.3182957
92	0x3eabe713	0.33574733
93	0xbe5ade66	-0.21373901
94	0xbe8b1e5c	-0.271716
95	0x3e9dd4b8	0.30826354
96	0x3e24ba32	0.16086653
97	0xbe6afee2	-0.22948793
98	0x3e5bc779	0.21462812
99	0xbe992377	-0.2990987
100	0xbe20d251	-0.1570523
101	0xbe0876a1	-0.13326503
102	0x3d6b8b3c	0.05750583
103	0x3ecb5975	0.39716688
104	0xbe07b45c	-0.13252395
105	0x3dfb07b7	0.12257331
106	0xbe49df8d	-0.19714184
107	0x3e75ce5f	0.24004506
108	0x3e5ccd2a	0.21562639
109	0xbe0498e8	-0.12948954
110	0x3ecb764b	0.39738688
111	0xbe0b1692	-0.13582829
112	0x3cda0877	0.026615364
113	0x3e4ce3ed	0.20008822
114	0xbdddabdc	-0.10823795
115	0xbede7dde	-0.43455404
116	0x3baf0369	0.0053409827
117	0xbe88f613	-0.2675024
118	0x3e637160	0.22211218
119	0x3efc4fa8	0.49279523
120	0x3e71fb4a	0.23631015
121	0x3e97dbe2	0.29659945
122	0xbe40e60d	-0.18837757
123	0xbeb70f16	-0.35753697
124	0x3dfc5d87	0.123225264
125	0xbe42558f	-0.1897795
126	0x3dde4ea9	0.10854847
127	0xbda000be	-0.078126416
128	0xbf639fc9	-0.8891569
129	0x3d3d8ca4	0.046276703
130	0xbc15e123	-0.009147915
131	0xbec8ec5c	-0.39242828
132	0x3de4d80d	0.11174021
133	0x3b921006	0.0044574765
134	0xbe8120fc	-0.25220478
135	0xbe0bede7	-0.13664971
136	0x3e00c070	0.12573409
137	0xbe98bb55	-0.29830423
138	0xbe3e752e	-0.18599388
139	0xbe2fd30b	-0.1717035
140	0xbe432daa	-0.19060388
141	0xbe3adc0c	-0.18248004
142	0x3e3ed3d0	0.18635488
143	0xbdd1e21e	-0.102482066
144	0xbe8c1616	-0.273606
145	0x3e76d5b0	0.24104953
146	0xbea711ac	-0.3263067
147	0xbe387ecb	-0.18017118
148	0xbdaab26f	-0.08334815
149	0xbe9d9cb3	-0.30783615
150	0xbce9f7bf	-0.028560517
151	0xbe8e0455	-0.2773768
152	0x3ddeb717	0.10874765
153	0xbe068c4e	-0.1313946
154	0x3e40b31b	0.18818323
155	0x3eb267a6	0.34844702
156	0xbe8d9d0a	-0.27658874
157	0xbe203137	-0.15643774
158	0xbe1812d5	-0.14850934
159	0xbdea8226	-0.11450605
160	0x3e96eb7c	0.29476535
161	0xbef144c0	-0.47122765
162	0xbe45f59f	-0.19331978
163	0xbd49ad62	-0.049237616
164	0x3e512ae7	0.20426522
165	0x3eb451a7	0.35218546
166	0x3e9ba2a9	0.30397537
167	0xbed447a6	-0.41460913
168	0x3de2ac0e	0.11067973
169	0xbec116f6	-0.3771283
170	0xbeaf3008	-0.34216332
171	0x3dba1bd8	0.09087342
172	0x3e049d80	0.12950706
173	0xbb064aaa	-0.002049128
174	0x3d7beffb	0.06150816
175	0x3d30880b	0.04309849
176	0x3d191d0f	0.037381228
177	0xbf6d3ef0	-0.9267416
178	0xbe679c0c	-0.22618121
179	0xb9f92193	-0.00047517996
180	0xbebc12ba	-0.36733037
181	0x3e2c8f61	0.1685157
182	0x3da73f46	0.08166365
183	0x3dddb934	0.1082634
184	0xbe80dcd0	-0.25168467
185	0x3e158a42	0.14603522
186	0x3e8b98cb	0.2726501
187	0x3e86468a	0.26225692
188	0xbe596600	-0.21230316
189	0xbcef40bf	-0.029205678
190	0xbe76c874	-0.24099904
191	0x3ecdff0a	0.40233642
192	0xbe8b3662	-0.27189928
193	0xbeb49d1e	-0.3527612
194	0x3c75ff01	0.015014411
195	0xbe53eca9	-0.20695747
196	0x3e877e7a	0.2646368
197	0x3e2582d7	0.16163193
198	0xbe0e160a	-0.13875595
199	0xbce8aca7	-0.02840264
200	0xbe697b46	-0.22800931
201	0x3de3f8ae	0.11131416
202	0x3dfa41e6	0.122196004
203	0xbe9c36f9	-0.3051069
204	0xbe389117	-0.18024097
205	0x3ea266c7	0.31719038
206	0xbe17705c	-0.14788955
207	0x3ee2f16e	0.4432482
208	0xbe223260	-0.15839529
209	0xbe15e1e8	-0.14636958
210	0xbeb8af73	-0.36071357
211	0x3eae49a3	0.34040555
212	0xbec11c5d	-0.37716952
213	0xbd18a106	-0.03726294
214	0x3d73719e	0.059434526
215	0x3dd507ff	0.10401916
216	0xbe547f63	-0.20751719
217	0xbdb1df57	-0.08685177
218	0xbe312654	-0.17299777
219	0xbd52d8df	-0.051476356
220	0xbe186c49	-0.14885058
221	0xbeba6177	-0.36402485
222	0x3e3a9665	0.18221433
223	0xbe522e0e	-0.20525381
224	0xbe4b7b7d	-0.19871326
225	0x3e8e92c4	0.27846348
226	0xbf4171f3	-0.755645
227	0x3e6c8fcf	0.23101734
228	0x3e926ac4	0.2859708
229	0x3e0ded68	0.13860095
230	0x3df526db	0.11970302
231	0x3e5907c8	0.21194375
232	0xbd4b5fcc	-0.049651906
233	0xbede3794	-0.43401778
234	0xbd8ec637	-0.069714
235	0x3ec0291d	0.37531367
236	0x3c98f622	0.018672053
237	0x3ebdcf51	0.37072232
238	0xbd718444	-0.05896403
239	0xbd5be556	-0.05368551
240	0xbe37e91a	-0.17960015
241	0xbe0be41a	-0.13661233
242	0xbe9715c5	-0.29508796
243	0xbe0f7cf6	-0.14012513
244	0x3eea2294	0.45729506
245	0x3e5eeb1e	0.21769378
246	0x3ee00773	0.43755683
247	0xbd19baf0	-0.037531793
248	0x3e883856	0.2660548
249	0x3e70d863	0.23520045
250	0x3e9da41e	0.30789274
251	0x3e9d2894	0.3069502
252	0xbe9a7c72	-0.3017307
253	0x3ea50841	0.3223286
254	0x3ec0e52c	0.37674844
255	0x3ea29555	0.31754556

fc1.bias f4 [128]
0	0xbe919155	-0.28431192
1	0x3d2249cd	0.039621163
2	0x3dd33fad	0.103148796
3	0xbd37cb5b	-0.04487167
4	0x3ea213d4	0.31655753
5	0xbeae0733	-0.33989868
6	0x3d207240	0.039171457
7	0x3e39fdec	0.1816327
8	0xbccec35e	-0.025239643
9	0xbd7fe15b	-0.062470775
10	0x3e2a373f	0.16622637
11	0x3dfe78bb	0.12425371
12	0xbec4c350	-0.38430262
13	0xbd59c29c	-0.05316411
14	0xbe53a736	-0.20669255
15	0xbe86ea1e	-0.26350492
16	0xbe1f1f10	-0.15539193
17	0xbe88df1b	-0.26732716
18	0x3e78f678	0.2431277
19	0x3d88059b	0.06641694
20	0xbe5e602c	-0.21716374
21	0xbd9a3f27	-0.075315766
22	0x3e69b6c0	0.2282362
23	0x3d68473e	0.056708567
24	0xbdd9e4d9	-0.10639352
25	0x3e740768	0.2383095
26	0x3ea0b621	0.31388953
27	0x3eb476bb	0.35246834
28	0x3d543bdd	0.051814903
29	0x3e8208e4	0.25397408
30	0xbe614ff7	-0.2200316
31	0xbeb1750e	-0.34659618
32	0xbcf272be	-0.029595729
33	0x3dd85335	0.105627455
34	0xbb8ead9a	-0.004354191
35	0x3e9e3a1a	0.30903703
36	0x3e867eda	0.26268655
37	0x3e3ec321	0.18629123
38	0x3d22fe8a	0.03979353
39	0xb92a4d5e	-0.00016241285
40	0x3ea71ff7	0.32641575
41	0x3e8637c9	0.26214436
42	0x3bd130b7	0.006383981
43	0x3ed15708	0.40886712
44	0xbe02223f	-0.12708376
45	0x3e571317	0.21003376
46	0x3e4d204a	0.20031849
47	0x3d2bb12f	0.041917022
48	0xbea93d62	-0.33054644
49	0x3e05055f	0.1299033
50	0xbb0cf7e0	-0.002151005
51	0xbebd087f	-0.36920545
52	0xbe51cfd2	-0.20489433
53	0xbee00119	-0.43750837
54	0xbda0c065	-0.07849196
55	0x3dbedae8	0.09319097
56	0xbe8d2840	-0.2756977
57	0xbea703f6	-0.3262021
58	0xbec0c690	-0.3765149
59	0x3ea418ad	0.32050076
60	0x3df90fdc	0.12161228
61	0xbe42d235	-0.190255
62	0xbd97bf80	-0.074095726
63	0xbd986d26	-0.074426934
64	0xbdab457a	-0.08362861
65	0x3e363397	0.17793117
66	0xbd906e84	-0.07052329
67	0xbe0b3144	-0.13593012
68	0xbe1a205c	-0.15051407
69	0xbd65afc6	-0.056075834
70	0x3e7acc1e	0.24491927
71	0x3b38795a	0.0028148503
72	0xbe2ee2cd	-0.17078705
73	0xbc7dcf6e	-0.01549135
74	0x3e0e7dc9	0.1391517
75	0xbeab6c2c	-0.33480966
76	0x3e43bb82	0.19114497
77	0x3d29326f	0.041307863
78	0x3d5e14bd	0.054218996
79	0xbe1bbeb7	-0.1520947
80	0x3e91e62d	0.28495923
81	0xbdbe3c4f	-0.09288847
82	0x3e8acd6b	0.27109846
83	0xbe9ea766	-0.3098709
84	0xbd5f3c39	-0.054500792
85	0x3e953071	0.2913852
86	0xbe2f45f2	-0.17116526
87	0xbe2e9298	-0.17048109
88	0x3eb9e1e2	0.36305147
89	0x3dd9d593	0.10636439
90	0xbd9dcabe	-0.07704686
91	0xbe768ae4	-0.2407642
92	0x3ea5d2a0	0.32387257
93	0x3eba6c33	0.36410674
94	0xbd6e18dd	-0.05812918
95	0x3e45174f	0.19247173
96	0xbeba8f14	-0.36437285
97	0x3ea1989d	0.31561747
98	0x3dfb9579	0.12284369
99	0xbd134850	-0.035957634
100	0x3deebf3c	0.11657569
101	0x3eaf9083	0.3428994
102	0x3e71b2e5	0.23603399
103	0xbd9c1709	-0.07621581
104	0x3de3f9ca	0.11131628
105	0xbe1b8c27	-0.15190183
106	0xbe17d040	-0.14825535
107	0x3e92feee	0.2871012
108	0x3e888d1c	0.26670158
109	0xbe993eb6	-0.29930657
110	0xbe13fe45	-0.14452465
111	0x3e91eae4	0.2849952
112	0x3e8d451d	0.27591792
113	0x3e46525c	0.19367355
114	0x3eb1b599	0.3470886
115	0xbeadaed2	-0.3392244
116	0xbc395def	-0.011313899
117	0xbd53368f	-0.051565703
118	0x3e8d1d63	0.27561483
119	0xbdbd94da	-0.09256907
120	0x3da14bcc	0.07875785
121	0x3cc79f91	0.02436808
122	0xbe4ad13f	-0.19806384
123	0x3dc4fd8d	0.096186735
124	0xbe46b870	-0.19406295
125	0xbe44da0b	-0.19223802
126	0x3e953242	0.29139906
127	0xbe94a419	-0.29031447

fc2.weight f4 [128, 128]
0	0x3e4825ae	0.19545624
1	0xbcb73d63	-0.022368139
2	0xbb0aad88	-0.0021160562
3	0xbc270d82	-0.010196092
4	0xbca40b17	-0.02002482
5	0xbd4ffd1e	-0.0507785
6	0xbd947f00	-0.07250786
7	0xbcd2d293	-0.025735175
8	0xbbc3c35c	-0.0059742164
9	0x3d3e1b20	0.046412587
10	0xbcb3b3ee	-0.021936383
11	0x3e6205f9	0.22072591
12	0xbcf6e6f4	-0.030139424
13	0x3e28b710	0.16476083
14	0x3c8b7dc4	0.017027743
15	0x3d9ec5f9	0.07752604
16	0x3cace6db	0.021106174
17	0x3e068ad3	0.13138895
18	0x3cbfc739	0.023410426
19	0xbcd3e815	-0.025867501
20	0x3d03e506	0.032200836
21	0x3c6bedbf	0.014399945
22	0x3d0ec166	0.034852408
23	0xbdf898db	-0.1213853
24	0xbe36bd3d	-0.17845626
25	0xbe1446ad	-0.14480086
26	0x3d809ef4	0.06280318
27	0x3db514ca	0.08841856
28	0x3df24498	0.118294895
29	0xbe08cf0f	-0.13360237
30	0x3d5338eb	0.051567953
31	0xbbe0b761	-0.006857798
32	0xbdd46bde	-0.103721365
33	0xbd746891	-0.059670035
34	0xbdc9b75a	-0.09849425
35	0xbd7b9526	-0.061421536
36	0x3d8e2a2d	0.06941638
37	0x3c822bab	0.015889963
38	0x3e4688da	0.19388142
39	0xbcf329ea	-0.029683072
40	0x3e16f483	0.14741711
41	0x3d2a23e9	0.041538153
42	0x3d8c23ee	0.068427905
43	0x3e48dce8	0.19615519
44	0x3c97b4c0	0.018518806
45	0x3bb4991e	0.005511417
46	0xbd069d41	-0.032864813
47	0xbd394c76	-0.045238934
48	0x3bbadf22	0.005702869
49	0xbd83c680	-0.06434345
50	0xbdd7fe3a	-0.10546537
51	0xbd1c9dc5	-0.0382364
52	0x3da5b8ce	0.08091889
53	0xbc76cb3b	-0.015063102
54	0x3d812fa6	0.06307916
55	0xbc908384	-0.017640837
56	0x3ac6df55	0.0015172759
57	0xbd3c4ebd	-0.04597353
58	0x3d38fb13	0.045161318
59	0xb9e9dae7	-0.00044604318
60	0x3e1c4143	0.1525927
61	0xbe806f42	-0.25084883
62	0x3c32aac2	0.01090497
63	0x3dde2eb9	0.108487554
64	0xbe5e7190	-0.21723008
65	0xbca6b877	-0.020351632
66	0x3cc524cc	0.024065398
67	0x3e1d1942	0.15341666
68	0xbdb0a996	-0.08626096
69	0x3e02f078	0.12787044
70	0xbbc82493	-0.0061078756
71	0xbdfdace6	-0.123864934
72	0x3c8a6374	0.016893126
73	0x3d3d5ea8	0.04623285
74	0xbe01178b	-0.12606637
75	0x3e5f23ef	0.21791051
76	0xbb890d44	-0.0041824896
77	0x3e3446f6	0.17605194
78	0x3e05237b	0.13001816
79	0xbd450c83	-0.048107635
80	0x3c4c1295	0.012455602
81	0xbe80cc81	-0.25156024
82	0xbc5e1b6a	-0.013556341
83	0x3d0eba27	0.034845497
84	0x3e6ade44	0.2293635
85	0xbcba51a3	-0.022744006
86	0x3d077ee1	0.033079986
87	0x3dd50692	0.10401644
88	0x3e1b8f9b	0.151915
89	0x3e5cd6ee	0.21566364
90	0x3d1fd1f6	0.039018594
91	0x3c2a5f5d	0.010398713
92	0x3d7266a0	0.059179902
93	0xbce9ecd4	-0.028555311
94	0xbd49aaba	-0.049235083
95	0x3c5cd1a0	0.013477713
96	0x3d466277	0.048433747
97	0xbd468896	-0.048470102
98	0xbc92a420	-0.017900527
99	0x3aec9745	0.0018050453
100	0xbded4e6d	-0.11587224
101	0xbd78b5f0	-0.060720384
102	0x3e65787c	0.22409242
103	0xbd9714d8	-0.073770225
104	0xbdbf5e2e	-0.09344135
105	0xbd56c0f1	-0.052430097
106	0x3e294f04	0.16534048
107	0xbd188992	-0.037240572
108	0x3e5645fc	0.20925134
109	0x3e07b759	0.13253535
110	0x3e057fb7	0.13037
111	0xbc627bcf	-0.013823464
112	0xbdb13904	-0.08653453
113	0x3cc0ba53	0.023526346
114	0x3e6948ba	0.22781649
115	0xbe192d4e	-0.14958689
116	0xbce2fed1	-0.027709397
117	0x3d8ab02e	0.06771885
118	0x3d86eb49	0.06587846
119	0xbd3bede7	-0.04588118
120	0xbdd225fa	-0.1026115
121	0x3d30da3d	0.04317688
122	0x3e421142	0.18951896
123	0x3d333392	0.043750353
124	0xbe7604a3	-0.24025206
125	0xbdb91962	-0.090380445
126	0x3e0b9e89	0.13634695
127	0x3d4e6c0b	0.050396007
128	0xbe01b90a	-0.12668243
129	0x3d9aa448	0.075508654
130	0x3d3444d1	0.04401094
131	0x3d844442	0.06458332
132	0xbde38845	-0.11109976
133	0xbdac0431	-0.08399237
134	0xbdb4a363	-0.08820226
135	0xbd0abeed	-0.033873487
136	0xbce98409	-0.028505342
137	0x3db4f49f	0.0883572
138	0x3dabeea2	0.08395125
139	0xbd8c7464	-0.06858137
140	0xbdb0a8e1	-0.08625961
141	0x3c7c8a60	0.015413851
142	0xbe18a71c	-0.14907497
143	0x3dabb2ed	0.08383737
144	0x3d98f5b9	0.07468743
145	0xbd7b4301	-0.061343197
146	0x3c0a79af	0.008451863
147	0x3d84948e	0.06473647
148	0x3d69c8a4	0.05707611
149	0xbc91a65c	-0.017779522
150	0xbe1f5f4f	-0.15563701
151	0x3ac9ba86	0.0015390671
152	0xbc3a8bb7	-0.01138585
153	0xbe67f8ab	-0.22653453
154	0x3d0d9f6d	0.03457587
155	0x3d43df15	0.04782017
156	0xbd54dfc2	-0.051971205
157	0x3e3520c0	0.17688274
158	0xbc892a9d	-0.016743952
159	0xbccd2302	-0.025041107
160	0xbdcee4d0	-0.10102236
161	0xbb3abc65	-0.002849364
162	0xbe1c9a36	-0.15293202
163	0x3e05401f	0.13012742
164	0x3c0f4317	0.008744023
165	0x3e722fec	0.23651093
166	0xbe4b0926	-0.19827709
167	0xbc9db576	-0.019251566
168	0x3e57b1a1	0.21063854
169	0x3df2f588	0.118632376
170	0x3d3226e9	0.04349414
171	0xbde12071	-0.10992516
172	0x3db39d4d	0.08770237
173	0x3dc061f5	0.09393684
174	0xbbf52f61	-0.0074824546
175	0xbe18612c	-0.14880818
176	0xbd494419	-0.04913721
177	0xbda71e4a	-0.08160074
178	0xbe86a4c0	-0.2629757
179	0x3da91b66	0.08257179
180	0x3da8e931	0.08247603
181	0xbb3642d1	-0.0027810822
182	0x3d04381a	0.032280065
183	0x3e4040f7	0.18774782
184	0xbd84c9b0	-0.06483781
185	0x3db3c3f2	0.08777608
186	0x3daa9608	0.083293974
187	0x3dd08a61	0.10182644
188	0xbb9fdd5f	-0.0048786844
189	0x3e81e4fa	0.25370008
190	0x3e2edbe6	0.17076072
191	0x3dbee96a	0.09321864
192	0x3e4257dd	0.1897883
193	0x3d16fc2f	0.036861595
194	0xbda5bcb3	-0.08092632
195	0x3d58b5a0	0.052907586
196	0x3d482476	0.048862897
197	0x3e3b727e	0.18305394
198	0x3e12cd1a	0.14336053
199	0xbe479384	-0.19489866
200	0x3dafe298	0.08588141
201	0x3ef2f3ef	0.47451732
202	0x3d484878	0.048897237
203	0xbe029500	-0.12752151
204	0x3d9626c8	0.07331616
205	0xbd5fb0fa	-0.054612137
206	0xbde93c1b	-0.11388417
207	0xbbc5947f	-0.006029665
208	0xbd96a6fe	-0.0735607
209	0x3e896998	0.26838374
210	0xbcefdb6b	-0.029279431
211	0xbb023cbf	-0.0019872633
212	0xbe7a6411	-0.24452235
213	0x3d816f25	0.06320027
214	0xbd5ad727	-0.05342784
215	0xbe08b24f	-0.1334927
216	0xbc5ea45f	-0.013588994
217	0xbcf32f6d	-0.0296857
218	0x3d12988b	0.035790008
219	0xbd9432d3	-0.072362565
220	0x3dff132c	0.124548286
221	0xbbb9f8bf	-0.005675405
222	0xbd968afe	-0.073507294
223	0x3d5dc444	0.05414225
224	0xbbdab813	-0.0066747754
225	0x3da87030	0.08224523
226	0x3d89cd7d	0.06728647
227	0xbd916649	-0.070995875
228	0xbd101723	-0.035178315
229	0xbba2ff3f	-0.0049742754
230	0xbc989a55	-0.018628279
231	0x3e425376	0.1897715
232	0x3e34986d	0.17636271
233	0xbcc5ec40	-0.024160504
234	0x3da105fe	0.07862471
235	0x3da644fb	0.08118626
236	0x3db33daa	0.08751996
237	0xbea26256	-0.3171565
238	0x3d38607a	0.045013882
239	0xbe18bf1c	-0.14916652
240	0x3d5dc04e	0.054138474
241	0xbda2f8d4	-0.079576164
242	0x3cdca1ec	0.02693268
243	0xbd82526f	-0.06363379
244	0xbc1826a1	-0.009286554
245	0xbd31c62a	-0.043401875
246	0x3d945350	0.07242453
247	0x3db55db4	0.08855763
248	0xbce0ee0b	-0.027457258
249	0x3e0769e2	0.13223985
250	0xbdcc1928	-0.09965736
251	0xbd3bdaba	-0.04586289
252	0xbdf2dd72	-0.118586436
253	0x3d320db8	0.043470114
254	0x3d70378f	0.058646735
255	0xbd65afbd	-0.0560758

fc2.bias f4 [128]
0	0x3db9122e	0.090366706
1	0xbcf09a75	-0.029370526
2	0xbda3e9f5	-0.08003608
3	0x3bdfcbdb	0.0068297214
4	0x3d05eb13	0.032694887
5	0x3c76df6a	0.0150679145
6	0xbca65fe0	-0.020309389
7	0xbd9e71a6	-0.077365205
8	0xbc0a07e5	-0.008424734
9	0x3ce83792	0.02834681
10	0xbd97491d	-0.07386992
11	0xb8ae72ab	-8.318325e-05
12	0x3d8c7649	0.068584986
13	0x3c46f448	0.012143202
14	0xbd30c528	-0.043156773
15	0x3c40eade	0.011774747
16	0x3d6a984b	0.057274144
17	0x3d83382b	0.064071976
18	0x3bf4f8ae	0.007475934
19	0x3d8a4d48	0.067530215
20	0x3d73f731	0.059561912
21	0x3db0a4d6	0.0862519
22	0x3daaac09	0.08333594
23	0x3c160d35	0.009158422
24	0x3ce357d5	0.027751843
25	0x3dd48220	0.10376382
26	0x3cf52897	0.029926581
27	0xbbb30344	-0.005463036
28	0x3d80c9fc	0.062885255
29	0xbd9dca45	-0.077045955
30	0x3d0bfb58	0.034175247
31	0xbdb0564f	-0.08610212
32	0x3cf99751	0.030467661
33	0x3b0df0d7	0.0021658444
34	0xbd5ad834	-0.053428844
35	0x3b0b95a6	0.0021298914
36	0x3c5f739d	0.013638404
37	0x3d4e843e	0.050419085
38	0x3d240357	0.040042248
39	0x3db3673b	0.08759924
40	0x3d6cf305	0.05784895
41	0xbda7cb11	-0.08193029
42	0x3ccdffa7	0.025146319
43	0xbd3b157e	-0.045674793
44	0x3b90d90d	0.0044204057
45	0x3d3e7c69	0.046505366
46	0x3d8bde7c	0.06829545
47	0x3d7d4038	0.061828822
48	0x3cbbb656	0.022914093
49	0x3cfebac4	0.031094916
50	0x3d31b22a	0.0433828
51	0xbc2571ef	-0.010097965
52	0xbc8ef729	-0.01745184
53	0xbc1bbeee	-0.00950597
54	0xbd4d9d0c	-0.0501986
55	0xbc51fbfb	-0.0128164245
56	0x3d15d9c5	0.036584634
57	0x3d357b12	0.044306822
58	0xbd3eeff0	-0.04661554
59	0x3d93ef37	0.07223361
60	0xba9e4ab1	-0.0012076703
61	0xbd92ae57	-0.07162159
62	0xbd91cc24	-0.07119015
63	0x3d545275	0.05183645
64	0xbd960882	-0.073258415
65	0x3cfb0499	0.03064184
66	0x3c7aaadc	0.015299525
67	0xbca44ecb	-0.020057103
68	0x3d80b451	0.062843926
69	0xbcb0a0e4	-0.021561094
70	0xbd95eb8d	-0.07320318
71	0x3c27d500	0.010243654
72	0xbd9b7303	-0.07590296
73	0xbd77f8b5	-0.06053992
74	0x3d5ee870	0.05442089
75	0x3d12ebdc	0.035869464
76	0xbd6e07bf	-0.058112856
77	0x3d62831b	0.055300813
78	0x3da2307e	0.079194054
79	0x3d36387e	0.04448747
80	0x3d632d2e	0.05546301
81	0xbd484431	-0.048893157
82	0xbd705df8	-0.058683366
83	0x3d6691ce	0.056291394
84	0xbcc75d23	-0.024336403
85	0xbcf79c7a	-0.030225981
86	0x3caf621b	0.021409085
87	0xbd4a50c1	-0.04939342
88	0xbca1368d	-0.019679332
89	0x3b637de4	0.0034712488
90	0x3d034e6f	0.032057222
91	0x3d97a144	0.07403806
92	0xbd822526	-0.06354742
93	0xbd8cc845	-0.06874136
94	0x3d7e15f6	0.062032662
95	0x3dc99bd3	0.09844174
96	0xbd55e7ff	-0.0522232
97	0x3a3b63d6	0.00071483606
98	0x3e11e77c	0.1424846
99	0xbd5b3d00	-0.05352497
100	0x3d61fc81	0.055172447
101	0x3dca46b2	0.09876765
102	0xbc58aaae	-0.013224287
103	0xbd95c61e	-0.073131785
104	0x3bf08c2e	0.0073409295
105	0x3d20c478	0.039249867
106	0xbdafde51	-0.08587325
107	0x3d812c06	0.06307225
108	0xbcad468f	-0.021151809
109	0xbd3b379e	-0.045707338
110	0x3d3b5702	0.045737274
111	0xbd6d8a67	-0.05799332
112	0x3d597a18	0.053094953
113	0x3d35a6cc	0.044348523
114	0xbd068f69	-0.03285161
115	0xbc261ebc	-0.010139164
116	0x3d962760	0.07331729
117	0x3ce4ce5c	0.027930431
118	0x3d3f1a43	0.046655905
119	0xbd63f752	-0.055655785
120	0x3c124043	0.008926454
121	0x3d1d0306	0.03833296
122	0xbd06983e	-0.032860033
123	0x3da95c54	0.08269563
124	0xbd211e74	-0.039335683
125	0xbd302d05	-0.043011684
126	0x3b13fcf3	0.002258119
127	0x3d47aef6	0.04875084

fc3.weight f4 [128, 128]
0	0x3ca95910	0.020672351
1	0x3d0a9dc6	0.03384187
2	0x3c06092d	0.008180899
3	0xbc220e72	-0.009891139
4	0xbda700f9	-0.081544824
5	0xbd2326e1	-0.039832
6	0x3bef195d	0.0072967247
7	0x3c48f58f	0.012265577
8	0x3dc5023b	0.09619566
9	0x3a8d3fcc	0.0010776459
10	0xbcb7395e	-0.022366222
11	0x3d9458e6	0.072435185
12	0xbd94e871	-0.07270897
13	0x3d11b1a1	0.03556979
14	0xbd497653	-0.04918511
15	0x3d19b378	0.03752467
16	0x3de06398	0.10956496
17	0xbdef2c33	-0.11678352
18	0xbd940fcc	-0.072295755
19	0xbc95fe45	-0.018309722
20	0xbd28225d	-0.041048396
21	0xbd881c21	-0.0664599
22	0xbb9c516a	-0.0047704475
23	0xbd21924d	-0.039446164
24	0xbe20817a	-0.15674391
25	0x3d455809	0.04817966
26	0x3d16c6ff	0.03681087
27	0x3e08bbe4	0.13352925
28	0x3abb638a	0.0014296633
29	0x3d5f9b7c	0.05459164
30	0x3d833231	0.064060576
31	0x3dc2ace8	0.095056355
32	0x3dcdb64e	0.100445375
33	0x3d3dc8aa	0.046333946
34	0xbbb853e3	-0.0056252345
35	0xbcb4ec6d	-0.022085393
36	0xbd878f23	-0.06619098
37	0x3e184298	0.14869153
38	0xbba65a69	-0.0050766957
39	0x3d67d003	0.05659486
40	0x3cedbda6	0.029021095
41	0xbd54aea3	-0.05192436
42	0x3e105337	0.14094244
43	0xbcc86810	-0.024463683
44	0x3d953855	0.07286135
45	0xbde42e08	-0.11141592
46	0xbd098baf	-0.03358048
47	0x3e0bac8f	0.13640045
48	0x3cf3faa9	0.02978261
49	0xbe1a21d1	-0.15051962
50	0x3d7e5854	0.062095955
51	0xbdade67f	-0.08491229
52	0x3ceb9ec8	0.028762236
53	0xbd8aaf38	-0.067717016
54	0xbc4268d9	-0.011865818
55	0xbcc3a8da	-0.023884226
56	0xbcbe8fac	-0.023261867
57	0x3bbaceb1	0.005700909
58	0x3cd452db	0.025918415
59	0xbde4bc43	-0.111687206
60	0x3c6f96ca	0.014623353
61	0xbd0bd684	-0.034140125
62	0x3d9119c4	0.070849925
63	0xbcae760f	-0.02129653
64	0x3d4bafa8	0.049728066
65	0xbced5bfd	-0.028974527
66	0x3cf825eb	0.030291518
67	0x3dd7954d	0.10526524
68	0xbd3655f6	-0.044515572
69	0xbda591d2	-0.08084454
70	0xbc7e1c47	-0.0155096715
71	0xbda9162a	-0.082561806
72	0xbd19fd91	-0.037595335
73	0xbdef6a2f	-0.11690175
74	0xbe6bdeaa	-0.23034158
75	0x3d89c2ec	0.067266315
76	0x3cad33b4	0.021142818
77	0x3d535cde	0.051602237
78	0x3b3aa415	0.0028479148
79	0xbda89187	-0.08230882
80	0x3d950845	0.07276968
81	0xbda3fc9c	-0.08007166
82	0xbcb37c82	-0.021909956
83	0xbcdb5e17	-0.026778264
84	0x3c592e4d	0.013255668
85	0x3d922ea6	0.07137804
86	0x3dec409a	0.11535759
87	0x3db27cd3	0.087152146
88	0x3c8cd4a1	0.017191233
89	0x3d19dc5c	0.037563667
90	0x3dfb4313	0.12268653
91	0x3dab0cef	0.08352076
92	0xbd1f308a	-0.03886465
93	0x3d607c9b	0.054806333
94	0xbcd3157b	-0.025767079
95	0x3d9960cd	0.074891664
96	0xbcd6f653	-0.026240503
97	0x3d551be5	0.052028555
98	0x3d080d77	0.033215966
99	0x3d310025	0.04321303
100	0x3d196423	0.037449013
101	0x3d304e37	0.04304334
102	0xbd274a30	-0.040842235
103	0xbd2ec69f	-0.04266989
104	0xbd2810d1	-0.041031662
105	0xbc810342	-0.015748624
106	0x3d91565b	0.07096549
107	0x3d5690ce	0.05238419
108	0x3d731add	0.05935179
109	0x3d2d0a4c	0.042246148
110	0x3e16e376	0.14735207
111	0x3dee273c	0.11628577
112	0x3c0fe140	0.008781731
113	0x3ca6c8af	0.020359365
114	0xbc21a07f	-0.009864925
115	0xba192fe4	-0.0005843623
116	0xbd58a7f7	-0.05289456
117	0xbc44bf15	-0.012008448
118	0x3d97b7c6	0.07408099
119	0x3d1f45cc	0.038884923
120	0x3df3713d	0.11886833
121	0x3da96626	0.082714364
122	0x3e022356	0.12708792
123	0xbd15ee24	-0.03660406
124	0xbd0fa52a	-0.035069622
125	0x3cab81b2	0.020935867
126	0x3d42bff0	0.047546327
127	0x3db04ac0	0.086080074
128	0x3da5bdee	0.08092867
129	0x3e115565	0.14192732
130	0xbc2c8ad3	-0.010531145
131	0x3dacff9c	0.08447191
132	0x3d8eaefb	0.069669686
133	0x3e089c9b	0.1334099
134	0xbe141453	-0.14460878
135	0x3d8b9ace	0.06816636
136	0xbd83e440	-0.064400196
137	0xbdfb56fc	-0.1227245
138	0x3d3db864	0.046318427
139	0xbd85a524	-0.06525639
140	0x3d75cf1c	0.060011968
141	0xbb166ecd	-0.0022954226
142	0x3cba8965	0.022770593
143	0x3d1647b5	0.03668948
144	0xbd274ca1	-0.040844563
145	0x3df1cdcb	0.1180683
146	0xbd4ab721	-0.04949105
147	0xbd60ad1d	-0.054852594
148	0xbd3e428a	-0.046450175
149	0x3d4c76c0	0.049917936
150	0xbe4ae62a	-0.19814363
151	0x3d88e9e9	0.0668524
152	0x3e11317c	0.14179033
153	0xbda51d4a	-0.08062227
154	0x3b8b62b0	0.004253708
155	0xbdd1e21c	-0.10248205
156	0xbd074c85	-0.03303196
157	0x3ce44929	0.027866917
158	0x3d12e3a8	0.03586164
159	0xbd8b84fc	-0.06812474
160	0xbbbe8cac	-0.0058151092
161	0xba17e46b	-0.000579423
162	0xbd85d449	-0.06534631
163	0x3dbbbcbb	0.09166857
164	0xbd08df3d	-0.03341602
165	0xbdfea7e1	-0.12434364
166	0x3db8734a	0.09006365
167	0x3d39e5d2	0.04538519
168	0x3c05f385	0.008175735
169	0x3cbb200e	0.022842433
170	0x3c872da8	0.016501263
171	0x3d446ff4	0.04795833
172	0xbde3a298	-0.11114997
173	0xbd253ecc	-0.04034309
174	0x3ccd5f82	0.025069956
175	0x3d54a960	0.05191934
176	0xbe08d6a5	-0.1336313
177	0x3d82e65b	0.06391593
178	0xbe3bad26	-0.1832777
179	0x3da6dc88	0.08147532
180	0xbd599523	-0.053120743
181	0xbca60595	-0.020266334
182	0xbd6641a8	-0.05621496
183	0x3d314420	0.04327786
184	0x3d4f2e24	0.050581113
185	0x3b4b8bef	0.0031058749
186	0xbcd17284	-0.0255673
187	0x3dbec4f3	0.09314909
188	0x3c198cd8	0.009371959
189	0x3d33fb37	0.04394075
190	0xbcd9ee80	-0.026602983
191	0x3b1cb448	0.0023911167
192	0xbd093349	-0.033496175
193	0xbdd2baf3	-0.10289564
194	0xbd205ca6	-0.039150856
195	0xbcef2b17	-0.029195352
196	0xbd4904c3	-0.049076807
197	0x3da628a2	0.08113219
198	0x3c9899f3	0.018628096
199	0xbd07da1e	-0.033166997
200	0xbdb4e798	-0.088332355
201	0xbbc9e822	-0.0061617056
202	0x3c0b0a4e	0.008486344
203	0xbc715fa1	-0.014732272
204	0xbdac5e0d	-0.08416376
205	0x3c6e2a0d	0.014536393
206	0x3c1c0c3a	0.009524399
207	0x3dd5ae9c	0.10433695
208	0xbdae56de	-0.08512662
209	0x3d88491d	0.0665457
210	0xbdc9d4c5	-0.09855036
211	0x3cf58828	0.02997215
212	0x3b31ae5b	0.002711198
213	0xbda36e9e	-0.07980083
214	0x3d9819e3	0.074268125
215	0xbcd3b01c	-0.025840811
216	0xbc393358	-0.011303745
217	0x3cad0d1e	0.021124419
218	0x3d27e0cd	0.04098587
219	0xbd055751	-0.032553975
220	0x3d046957	0.032327022
221	0xbcc0b79c	-0.023525052
222	0x3d5b19b0	0.053491294
223	0xbdbd8034	-0.092529684
224	0x3e85f352	0.261622
225	0xbd8155df	-0.06315207
226	0xbd32584d	-0.04354124
227	0x3daf6916	0.085649654
228	0xbd542be3	-0.051799666
229	0x3cf20a45	0.029545913
230	0x3da518ac	0.080613464
231	0xbc2739bf	-0.010206639
232	0xbc4796e5	-0.012181972
233	0xbdf5bb8d	-0.11998663
234	0x3d67449f	0.056461927
235	0x3d81038c	0.06299505
236	0xbdadbd23	-0.084833406
237	0xbcb04653	-0.021517908
238	0x3d26c125	0.04071154
239	0xbdab48d9	-0.08363504
240	0x3e699ddd	0.22814126
241	0xbb82bc28	-0.003989715
242	0xbd8b922f	-0.06814992
243	0x3de56f78	0.112029016
244	0x3e03e8bc	0.1288175
245	0x3d82319f	0.06357121
246	0x3d5b4e9d	0.05354177
247	0xbba52547	-0.005039844
248	0xbe08f07b	-0.13372986
249	0x3d44d9d0	0.048059285
250	0x3cf3f1f3	0.029778456
251	0xbd85df7d	-0.06536768
252	0xbd8ebe7e	-0.06969927
253	0x3d7ecdf2	0.062208124
254	0xbd358e41	-0.044325117
255	0x3bf4284c	0.007451093

fc3.bias f4 [128]
0	0x3e018f0c	0.12652224
1	0x3daa3339	0.08310551
2	0xbdc8716a	-0.09787257
3	0x3d6e1c3f	0.058132406
4	0x3dea4668	0.1143921
5	0x3dbc39cf	0.091907136
6	0xbc85e2cb	-0.016343495
7	0x3dd367c4	0.10322526
8	0x3e094915	0.13406785
9	0x3ce9020a	0.028443355
10	0x3b97cd20	0.004632607
11	0x3da352c8	0.07974774
12	0xbd127eaf	-0.035765346
13	0xbd9d0c87	-0.07668405
14	0xbd952c81	-0.07283879
15	0x3cbbe439	0.022935973
16	0xbca4e2c7	-0.020127667
17	0x3dea1520	0.114298105
18	0xbdfac924	-0.12245396
19	0x3d10b474	0.035328344
20	0xbd2be103	-0.041962635
21	0xbd113f08	-0.035460502
22	0x3d34a5a0	0.044103265
23	0xba87cf8e	-0.0010361539
24	0x3e1432c9	0.14472498
25	0xbd5d20b2	-0.05398626
26	0x3c26c6d4	0.01017924
27	0xbd03d871	-0.032188836
28	0xbd911fa5	-0.07086114
29	0x3cebc921	0.02878243
30	0xbd21655f	-0.039403316
31	0x3bd194c4	0.006395908
32	0x3dea6bb9	0.11446328
33	0x3da87b07	0.082265906
34	0x3ba9f931	0.0051871766
35	0xbd5d6b81	-0.0540576
36	0x3c223410	0.009900108
37	0xbce73650	-0.02822414
38	0xbdb5e394	-0.08881298
39	0x3d1a28a1	0.037636403
40	0x3ddf776a	0.10911448
41	0x3e0ed6ca	0.13949123
42	0x3d07cca4	0.033154145
43	0xbda002e3	-0.078130506
44	0x3dbb8652	0.09156479
45	0x3d2fd79f	0.04293024
46	0x3d86c4c3	0.06580498
47	0x3d63f32b	0.055651825
48	0xbdb57132	-0.08859481
49	0x3db7c187	0.08972459
50	0x3de8deea	0.113706425
51	0xbc344865	-0.011003588
52	0xbcd6bd4f	-0.026213316
53	0xbdaefabf	-0.0854392
54	0xbb710500	-0.0036776662
55	0x3e07aa52	0.13248566
56	0xbc46256a	-0.012093881
57	0xbd6531d8	-0.055955738
58	0x3c4d43b6	0.012528351
59	0xbda68913	-0.081316136
60	0x3d2bf43c	0.041980967
61	0x3db054e9	0.08609945
62	0x3cbf9b45	0.023389468
63	0xbd08aa8a	-0.033365764
64	0x3cac0a3b	0.021000972
65	0x3daa8ddb	0.08327838
66	0x3d97f803	0.07420351
67	0x3dc93622	0.09824778
68	0x3d52555d	0.05135094
69	0x3b800ad2	0.00390754
70	0x3dd78788	0.105238974
71	0x3b085a19	0.0020805656
72	0xbd814bd3	-0.063132904
73	0x3d4cf438	0.050037593
74	0xbda361f5	-0.07977668
75	0x3ded07d6	0.1157376
76	0x3d11bec9	0.035582338
77	0x3ccd81a7	0.025086237
78	0xbd8bf230	-0.06833303
79	0xbd25c320	-0.04046929
80	0x3df7dde3	0.121028684
81	0x3cfd85c8	0.030947581
82	0xbdab9c8a	-0.08379467
83	0x3dea9ec5	0.11456064
84	0xbd4161f4	-0.047212556
85	0xbc1c106c	-0.0095254
86	0x3caac28e	0.020844724
87	0x3ca5cebf	0.020240186
88	0x3c81f41b	0.015863469
89	0xbdc20363	-0.09473302
90	0xbd7991dc	-0.060930118
91	0xbd4e18e9	-0.050316725
92	0xbd0dbb2d	-0.034602333
93	0x3c5a4784	0.013322715
94	0xbaa2a970	-0.0012410115
95	0x3db25bab	0.087088905
96	0x3aa64bca	0.0012687382
97	0x3c89f79e	0.016841706
98	0xbcf51ba9	-0.029920416
99	0x3de6f4d1	0.11277164
100	0xbd998919	-0.074968524
101	0x3ddf1b7c	0.10893914
102	0x3dc4499c	0.095843524
103	0xbc760add	-0.015017238
104	0xbcca418f	-0.024689464
105	0x3ababcca	0.0014246937
106	0x3e1e9dd8	0.154899
107	0x3e0ea111	0.1392863
108	0x3d9ac833	0.07557716
109	0x3d6ecc0c	0.058300063
110	0xbc7aeb0c	-0.015314829
111	0x3cd4c546	0.025972974
112	0xbdb41c5e	-0.08794473
113	0x3b90e820	0.0044222027
114	0xbcc5b6d8	-0.024135038
115	0xbc0319cf	-0.008001759
116	0x3ba7074b	0.005097305
117	0xbd40d231	-0.047075454
118	0x3df78ae2	0.12087037
119	0x3d9c8c79	0.076439805
120	0xbdceedc3	-0.10103943
121	0x3d974569	0.07386286
122	0xbd2b7278	-0.041857213
123	0xbdb9f0dd	-0.09079144
124	0x3d678049	0.056518827
125	0x3d2fb714	0.042899206
126	0xbc757472	-0.014981376
127	0x3dec2353	0.11530175

fc4.weight f4 [2, 128]
0	0xbe1279b4	-0.14304239
1	0x3e16abed	0.14714022
2	0x3c091f65	0.008369301
3	0x3dcb1659	0.09916372
4	0xbe099012	-0.13433865
5	0xbe0285f1	-0.12746407
6	0x3d53cd88	0.05170968
7	0xbd6a8599	-0.057256315
8	0xbe13ee59	-0.14446391
9	0xbde6fddf	-0.11278891
10	0x3e40cbf4	0.18827802
11	0xbe453f50	-0.19262433
12	0x3c931443	0.017953997
13	0x3d73e640	0.059545755
14	0xbd55697d	-0.052102555
15	0xbe172f39	-0.14764108
16	0x3deefa8c	0.11668882
17	0xbdc1bff0	-0.09460437
18	0xbd0995d4	-0.033590153
19	0xba25bdb7	-0.000632252
20	0xbdcce484	-0.100045234
21	0xbda67724	-0.08128193
22	0xbdefc251	-0.11706985
23	0x3dea3303	0.11435511
24	0xbe1855d4	-0.14876491
25	0xbbf300a5	-0.0074158483
26	0xbe4b602d	-0.19860907
27	0x3e020d20	0.1270032
28	0xbdb4f677	-0.08836072
29	0xbe16cadb	-0.1472582
30	0x3dc3c7b7	0.09559577
31	0x3e1cfa14	0.15329772
32	0xbdcb04ef	-0.099130504
33	0xbcae6bb6	-0.021291595
34	0xbd975b9a	-0.073905185
35	0x3cafd99e	0.021466073
36	0x3e11c1c7	0.14234076
37	0x3dd4cf21	0.10391069
38	0xbd47e9e2	-0.048807032
39	0xbe944b39	-0.2896364
40	0xbe13cbf2	-0.14433268
41	0xbe5d1479	-0.21589841
42	0xbd513c46	-0.05108287
43	0x3b6e005a	0.0036316128
44	0x3dc3306d	0.09530721
45	0xbdd0beb1	-0.101926215
46	0xbd886a87	-0.066609435
47	0xbddd4d1d	-0.10805724
48	0xbcc5061e	-0.024050768
49	0x3d9c659d	0.07636569
50	0xbd95f461	-0.07322002
51	0xbbcf9795	-0.0063352087
52	0x3e11b88d	0.14230557
53	0x3d81d909	0.06340224
54	0x3b01bc2b	0.0019795995
55	0xbdc9817c	-0.0983915
56	0xbe59c534	-0.21266633
57	0xbe0abede	-0.13549373
58	0x3d128182	0.03576804
59	0xbd7aca4a	-0.061228074
60	0x3dbc5acc	0.09197006
61	0xbd16df4c	-0.036834046
62	0xbd9a2d5d	-0.075281836
63	0xbb4ed181	-0.003155798
64	0x3e04fccf	0.12987064
65	0xbe0a7d5e	-0.13524386
66	0xbe037fc7	-0.12841712
67	0xbde6d4e8	-0.112710774
68	0xbe3006ff	-0.17190169
69	0x3e0cc125	0.13745554
70	0xbe35956b	-0.1773278
71	0xbe166571	-0.14687134
72	0x3d8a1134	0.067415625
73	0x3dde4de4	0.108547
74	0xbd9e1ddd	-0.0772054
75	0xbe259a2e	-0.16172096
76	0xbdc85e14	-0.09783569
77	0xbe39e7de	-0.18154857
78	0x3cd1e633	0.025622463
79	0xbdd477ae	-0.103743896
80	0xbe172329	-0.14759506
81	0x3e096afe	0.1341972
82	0xb8f3fc3e	-0.00011634127
83	0xbddf44d4	-0.109018
84	0xbdb1cfda	-0.08682223
85	0x3e1d7450	0.15376401
86	0xbe2c10af	-0.1680324
87	0xbd18f89a	-0.03734646
88	0x3dbab2ee	0.091161594
89	0x3d867588	0.06565386
90	0xbda5644e	-0.08075772
91	0x3d955a2f	0.07292592
92	0xbe227515	-0.15864976
93	0x3ddee5d1	0.10883678
94	0x3caea717	0.021319909
95	0xbde69ba7	-0.11260157
96	0xbd727688	-0.05919507
97	0xbe0b2b87	-0.13590823
98	0x3d23e173	0.040009927
99	0xbe0a8c82	-0.13530162
100	0x3d82e081	0.06390477
101	0xbde8ddf1	-0.11370457
102	0xbdda6d63	-0.10665395
103	0xbe59a68e	-0.21254942
104	0x3e51badf	0.20481442
105	0x3dde447e	0.108529076
106	0xbe471c9f	-0.19444512
107	0xbe814ced	-0.25254002
108	0xbe03d3a4	-0.12873703
109	0xbd801c4e	-0.06255399
110	0xbd27ba6f	-0.04094928
111	0xbe3f2d02	-0.18669513
112	0x3dd9b6c9	0.106305666
113	0xbe3f02dd	-0.18653436
114	0xbcab37d6	-0.020900648
115	0xbd3a1ed3	-0.045439553
116	0x3e124441	0.1428385
117	0xbd817fd3	-0.06323209
118	0xbdc2dfce	-0.095153436
119	0x3daf1b89	0.08550174
120	0xbdd28fc1	-0.10281325
121	0xbc19610f	-0.0093615195
122	0xbb5ba603	-0.0033515699
123	0x3d916aeb	0.07100471
124	0xbe12ba8c	-0.14328974
125	0x3de5cc2d	0.11220584
126	0xbe29550b	-0.16536348
127	0xbe1a9b95	-0.15098412
128	0xbdefb104	-0.11703685
129	0x3b94b3ad	0.0045380206
130	0x3bacea57	0.005276959
131	0x3c48972a	0.012243072
132	0xbd85ec93	-0.065392636
133	0xbdc2a52f	-0.095041625
134	0xbd85c173	-0.06531038
135	0xbdd3dc66	-0.10344772
136	0xbe72deb7	-0.23717771
137	0xbe755e9c	-0.23961872
138	0x3dec6c5b	0.11544105
139	0xbdf9d2d8	-0.121984184
140	0x3d5753e6	0.052570246
141	0x3ce2f1c5	0.027703175
142	0x3ed503d9	0.41604498
143	0xbe25c0af	-0.16186784
144	0xbd273cbf	-0.040829416
145	0xbe231f1a	-0.15929833
146	0x3da03913	0.07823386
147	0xbdeb855e	-0.11500047
148	0x3df85641	0.121258266
149	0xbd8a48ce	-0.06752168
150	0xbde7e647	-0.11323219
151	0xbd2604dc	-0.040531978
152	0xbe2047a8	-0.15652335
153	0xbc929e72	-0.017897818
154	0xbe109f99	-0.14123382
155	0x3d2c7f6a	0.0421137
156	0x3d901301	0.07034875
157	0x3d2e2b67	0.04252186
158	0xbd5d9845	-0.054100294
159	0x3dcc6e48	0.09981972
160	0xbe35ceec	-0.17754716
161	0xbe028e9f	-0.12749718
162	0x3efc868f	0.4932141
163	0x3b0f25a4	0.0021842504
164	0x3ee62ca7	0.44955942
165	0x3d363d3a	0.044491984
166	0x3d1c917c	0.038224682
167	0xbe1d7f8b	-0.15380685
168	0xbda2e553	-0.079538964
169	0xbe2881cd	-0.16455765
170	0x3d2a3207	0.041551616
171	0xbbd11b9e	-0.006381466
172	0xbdbef231	-0.09323538
173	0xbdcfacb1	-0.1014036
174	0x3da6ebd7	0.08150452
175	0xbd7055c4	-0.058675542
176	0xbd137e9d	-0.03600942
177	0x3e6a4657	0.22878395
178	0xbe1c1406	-0.15242013
179	0xbe05f476	-0.13081536
180	0x3ddedc1b	0.108818255
181	0x3bf451fb	0.007456062
182	0xbd8b186e	-0.06791769
183	0xbe624c5c	-0.22099441
184	0xbda126b2	-0.07868709
185	0x3d9253d8	0.07144898
186	0xbdbb1ccb	-0.09136351
187	0x3d9782cd	0.07397995
188	0x3d11159d	0.035421003
189	0xbe7c91fb	-0.24665062
190	0xbda4a739	-0.08039708
191	0x3c119b66	0.0088871475
192	0x3e2eabcf	0.17057727
193	0xbdbd75e9	-0.09251005
194	0xbe282d92	-0.16423634
195	0xbd878c4e	-0.06618558
196	0xbdbe93d9	-0.093055435
197	0x3e42c1a7	0.19019185
198	0x3e7bb025	0.24578913
199	0x3d7760bd	0.06039499
200	0x3cb4a3b3	0.022050714
201	0x3e34a5ee	0.17641422
202	0xbda0248f	-0.07819473
203	0xbe09eeec	-0.13470048
204	0x3eac4a64	0.33650506
205	0xbdd26e32	-0.10274924
206	0x3d6aec4f	0.057354268
207	0xbe4fc658	-0.20290506
208	0xbda60ba3	-0.08107688
209	0x3dc0b4c6	0.0940948
210	0x3d4ce679	0.050024483
211	0xbe44ddbf	-0.19225214
212	0x3e404704	0.1877709
213	0x3d5f851b	0.0545703
214	0xbd479c51	-0.04873306
215	0xbd0815eb	-0.033224028
216	0x3e1b9726	0.15194377
217	0x3c31befd	0.010848758
218	0x3ccad249	0.024758475
219	0xbd264cf4	-0.040600732
220	0xbdf57cc6	-0.11986689
221	0x3d5e6d25	0.054303307
222	0x3e832b04	0.25618756
223	0xbce71e0d	-0.028212572
224	0x3dbaa91e	0.09114288
225	0xbe36500d	-0.17803974
226	0xbcfe9c21	-0.031080307
227	0xbe278b3a	-0.16361704
228	0xbcb6a7fd	-0.0222969
229	0xbd46d33e	-0.0485413
230	0x3e988aeb	0.29793486
231	0x3e8bcb18	0.27303386
232	0xbedb373a	-0.42815572
233	0x3e74851c	0.23878902
234	0xbe07055c	-0.13185638
235	0xbdda051a	-0.10645504
236	0x3f0de545	0.5542796
237	0xbe3f532c	-0.18684071
238	0xbd0ada9d	-0.033899892
239	0xbd9fe0fd	-0.07806585
240	0x3e3402e1	0.17579223
241	0x3e2dad75	0.169607
242	0xbd773e93	-0.06036241
243	0xba752ff9	-0.0009353157
244	0x3d31697c	0.04331349
245	0x3d29a702	0.041419037
246	0xbdc95b03	-0.09831812
247	0xbcbba531	-0.022905918
248	0x3e6b6b88	0.22990239
249	0xbe6ee71e	-0.23330352
250	0x3c9c3532	0.019068334
251	0x3d503574	0.050832227
252	0xbdb11d31	-0.08648146
253	0x3e2a6a9f	0.16642235
254	0xbd512570	-0.051061094
255	0xbda42a86	-0.08015923

fc4.bias f4 [2]
0	0xbda65b7b	-0.08122917
1	0x3d1d1bae	0.038356476

fc1.weight f4 [128, 7]
0	0x3e90e618	0.28300548
1	0xbeee2227	-0.4651043
2	0x3e2fe17f	0.17175864
3	0x3e630083	0.22168164
4	0xbe79e015	-0.24401887
5	0x3e38f526	0.18062267
6	0x3e63b761	0.22237922
7	0x3d80937a	0.06278129
8	0x3e9644de	0.29349416
9	0x3cca4042	0.024688844
10	0x3e872856	0.2639796
11	0x3d892b5d	0.06697724
12	0x3da7c96a	0.081927136
13	0x3e264cd2	0.16240242
14	0xbeb68bf8	-0.35653663
15	0x3dddde8a	0.108334616
16	0xbe1f60f5	-0.1556433
17	0xbeb66914	-0.35627043
18	0xbe9536ee	-0.2914347
19	0xbd0e180e	-0.03469091
20	0x3ce83659	0.028346227
21	0xbe7dc66c	-0.24782723
22	0x3e7c4bb0	0.24638247
23	0x3d3c0dbb	0.045911532
24	0x3db52f3d	0.088469006
25	0xbd508d53	-0.050916027
26	0x3d791976	0.060815297
27	0x3ed18cf6	0.40927857
28	0xbd1c56a9	-0.038168583
29	0x3eb4e1b5	0.3532845
30	0xbf02a39d	-0.51030904
31	0xbda9f442	-0.082985416
32	0xbeb6ee46	-0.35728663
33	0x3e47423a	0.19458857
34	0x3ec017ee	0.37518257
35	0x3ca2c542	0.01986945
36	0x3e0f7a48	0.1401149
37	0x3e79db5d	0.24400087
38	0xbe91ff86	-0.2851526
39	0x3d9e67f3	0.077346705
40	0xbead5313	-0.33852443
41	0xbdcb7d1e	-0.099359736
42	0x3e06786a	0.13131872
43	0xbe85595f	-0.26044747
44	0x3e02313d	0.12714095
45	0xbe6ba01e	-0.23010299
46	0xbe0c1bbb	-0.13682453
47	0xbebae7c3	-0.36504945
48	0xbe69789c	-0.22799915
49	0xbca4e1fe	-0.020127293
50	0x3ddca4ce	0.107736215
51	0xbea51a74	-0.32246745
52	0xbeaf977c	-0.3429526
53	0x3e0cce0e	0.13750479
54	0x3e418f7e	0.18902394
55	0x3eb857f7	0.36004612
56	0xbe051264	-0.12995297
57	0x3e37581e	0.17904708
58	0x3ec8c6ae	0.3921408
59	0x3e0b52ef	0.13605855
60	0xbe9dffea	-0.3085931
61	0x3ecf3d25	0.40476337
62	0x3e0f9ebe	0.14025399
63	0xbe30799a	-0.17233887
64	0xbe99050a	-0.29886657
65	0x3e913f48	0.28368592
66	0xbdb14a8f	-0.08656799
67	0xbe696360	-0.22791815
68	0xbe49bb33	-0.19700317
69	0x3dfa186b	0.122116886
70	0x3e18f3f8	0.14936817
71	0x3ec1c68e	0.37846798
72	0x3b920f21	0.00445737
73	0x3eba61fd	0.36402884
74	0x3ec63922	0.38715464
75	0xbd82a6ad	-0.06379447
76	0xbef47bdf	-0.47750756
77	0x3e126594	0.14296561
78	0xbe5f3286	-0.21796617
79	0x3d0b9f64	0.034087554
80	0xbe42a1af	-0.1900699
81	0xbf240aeb	-0.6407916
82	0x3eec5829	0.4616101
83	0xbe7458be	-0.23861977
84	0x3e21b89c	0.15793079
85	0xbebc95cf	-0.36833045
86	0x3eb5ecbc	0.35532176
87	0xbe36d317	-0.17853962
88	0x3eb53f11	0.35399678
89	0xbe8d1a26	-0.27559012
90	0xbd42c709	-0.047553096
91	0x3ea26454	0.3171717
92	0x3ea9e322	0.331811
93	0xbe5bad99	-0.21452941
94	0xbe8af2c2	-0.27138335
95	0x3e9d8df4	0.30772364
96	0x3e24bae4	0.16086918
97	0xbe6c9be6	-0.23106346
98	0x3e5a3346	0.21308622
99	0xbe97659c	-0.2956971
100	0xbe23f749	-0.160123
101	0xbe08dab0	-0.13364673
102	0x3d6772f9	0.05650613
103	0x3eca4e72	0.39512974
104	0xbe0888a3	-0.13333373
105	0x3df83738	0.12119907
106	0xbe49103a	-0.19635096
107	0x3e75bfff	0.23999022
108	0x3e599b34	0.21250612
109	0xbe05a885	-0.13052566
110	0x3eca97e8	0.3956902
111	0xbe1198ba	-0.14218417
112	0x3cda0877	0.026615364
113	0x3e4ce3ed	0.20008822
114	0xbdddabdc	-0.10823795
115	0xbede7dde	-0.43455404
116	0x3baf0369	0.0053409827
117	0xbe88f613	-0.2675024
118	0x3e637160	0.22211218
119	0x3efa65f3	0.48905906
120	0x3e6feb00	0.23429489
121	0x3e961f2c	0.29320657
122	0xbe4443cf	-0.19166492
123	0xbeb8112d	-0.35950604
124	0x3df5462e	0.11976276
125	0xbe44c46e	-0.19215557
126	0x3dda89ad	0.10670791
127	0xbd9e88f3	-0.07740965
128	0xbf633cb1	-0.8876448
129	0x3d38780c	0.04503636
130	0xbc35955c	-0.011082973
131	0xbeca0eb4	-0.39464343
132	0x3de1a090	0.11016953
133	0x3b921006	0.0044574765
134	0xbe8120fc	-0.25220478
135	0xbe0bede7	-0.13664971
136	0x3e00c070	0.12573409
137	0xbe98bb55	-0.29830423
138	0xbe3e752e	-0.18599388
139	0xbe2fd30b	-0.1717035
140	0xbe432daa	-0.19060388
141	0xbe3adc0c	-0.18248004
142	0x3e3ed3d0	0.18635488
143	0xbdd1e21e	-0.102482066
144	0xbe8c1616	-0.273606
145	0x3e76d5b0	0.24104953
146	0xbea711ac	-0.3263067
147	0xbe387ecb	-0.18017118
148	0xbdaab26f	-0.08334815
149	0xbe9d9cb3	-0.30783615
150	0xbce9f7bf	-0.028560517
151	0xbe8e0455	-0.2773768
152	0x3ddeb717	0.10874765
153	0xbe068c4e	-0.1313946
154	0x3e3fa4b8	0.18715179
155	0x3eb27c7d	0.34860602
156	0xbe8d993b	-0.27655968
157	0xbe2078f8	-0.15671146
158	0xbe17f21d	-0.14838453
159	0xbdebc3a0	-0.11511922
160	0x3e967c7b	0.29391846
161	0xbef1434b	-0.47121653
162	0xbe456d0a	-0.19279876
163	0xbd353639	-0.044241164
164	0x3e50a57d	0.20375629
165	0x3eb40844	0.35162556
166	0x3e9bf48d	0.30460015
167	0xbed21c53	-0.41037235
168	0x3de0be3e	0.10973786
169	0xbebf2a0a	-0.3733676
170	0xbeb0088b	-0.34381518
171	0x3db68b98	0.08913344
172	0x3e0254c5	0.1272765
173	0xbb8c773f	-0.004286676
174	0x3d7932ab	0.060839336
175	0x3d2b9e20	0.041898847
176	0x3d172f58	0.036910385
177	0xbf6cee33	-0.92550963
178	0xbe687dd1	-0.22704245
179	0xba3add9c	-0.0007128359
180	0xbebc96b2	-0.3683372
181	0x3e2ac485	0.16676529
182	0x3da86744	0.08222821
183	0x3ddf3fc7	0.109008364
184	0xbe80f682	-0.2518807
185	0x3e165b62	0.14683297
186	0x3e8ba984	0.27277768
187	0x3e86659e	0.26249403
188	0xbe57768d	-0.21041317
189	0xbcd56832	-0.02605066
190	0xbe764d70	-0.24052978
191	0x3ecde21e	0.40211576
192	0xbe88dda2	-0.26731592
193	0xbeb3a18b	-0.35084185
194	0x3c8e6bfa	0.017385472
195	0xbe5029d0	-0.2032845
196	0x3e881daa	0.26585132
197	0x3e225326	0.15852031
198	0xbe0ecf85	-0.1394635
199	0xbcdd4a15	-0.027012864
200	0xbe67c03e	-0.22631928
201	0x3de7590e	0.11296283
202	0x3dfbc3d8	0.122932136
203	0xbe9cb3ed	-0.30606022
204	0xbe37cde6	-0.17949638
205	0x3ea33860	0.31878948
206	0xbe197eca	-0.14989772
207	0x3ee2434c	0.44191968
208	0xbe231822	-0.15927175
209	0xbe1789cc	-0.14798659
210	0xbeb8af73	-0.36071357
211	0x3eae49a3	0.34040555
212	0xbec11c5d	-0.37716952
213	0xbd18a106	-0.03726294
214	0x3d73719e	0.059434526
215	0x3dd507ff	0.10401916
216	0xbe547f63	-0.20751719
217	0xbdb1df57	-0.08685177
218	0xbe312654	-0.17299777
219	0xbd52d8df	-0.051476356
220	0xbe186c49	-0.14885058
221	0xbeba6177	-0.36402485
222	0x3e3a9665	0.18221433
223	0xbe522e0e	-0.20525381
224	0xbe4b8108	-0.1987344
225	0x3e8f2385	0.27956787
226	0xbf4048b2	-0.75110924
227	0x3e6cd059	0.23126353
228	0x3e927249	0.28602818
229	0x3e0dc7ef	0.138458
230	0x3df4b635	0.11948816
231	0x3e58bb4e	0.21165201
232	0xbd4096bf	-0.047018763
233	0xbede48d6	-0.43414944
234	0xbd8eea76	-0.069783136
235	0x3ebfd11e	0.3746423
236	0x3c90ec9a	0.017690945
237	0x3ebdf8cb	0.37103876
238	0xbd72170c	-0.05910401
239	0xbd573e1d	-0.05254947
240	0xbe350e99	-0.1768135
241	0xbe0b6e07	-0.13616191
242	0xbe9777f5	-0.29583707
243	0xbe0f2a24	-0.13980919
244	0x3eea0c10	0.45712328
245	0x3e61534d	0.22004433
246	0x3ee12a0d	0.43977395
247	0xbd0c3dee	-0.03423875
248	0x3e8818e9	0.26581505
249	0x3e709940	0.2349596
250	0x3e9e03f3	0.30862388
251	0x3e9efcc0	0.31052208
252	0xbe99c632	-0.30034024
253	0x3ea47159	0.32117727
254	0x3ec23913	0.3793417
255	0x3ea3057e	0.31840128

fc1.bias f4 [128]
0	0xbe904acf	-0.28182074
1	0x3d203b87	0.03911927
2	0x3dd33fad	0.103148796
3	0xbd3ea562	-0.04654444
4	0x3ea1f4e4	0.3163215
5	0xbeae0733	-0.33989868
6	0x3d207240	0.039171457
7	0x3e39f6d7	0.18160568
8	0xbcc56b4d	-0.024099017
9	0xbd7fe15b	-0.062470775
10	0x3e28aaee	0.16471455
11	0x3e04c0c0	0.12964153
12	0xbec4c350	-0.38430262
13	0xbd5d76a3	-0.05406822
14	0xbe550ea5	-0.20806368
15	0xbe878b3e	-0.2647342
16	0xbe1f1f10	-0.15539193
17	0xbe8aa64a	-0.27079993
18	0x3e76edac	0.24114102
19	0x3d88059b	0.06641694
20	0xbe5e602c	-0.21716374
21	0xbd9a3f27	-0.075315766
22	0x3e691ac4	0.22764117
23	0x3d670261	0.056398753
24	0xbddd2108	-0.10797316
25	0x3e7325b2	0.23744848
26	0x3ea0e436	0.3142411
27	0x3eb5cbe7	0.35507128
28	0x3d5a55e8	0.053304583
29	0x3e8165e4	0.2527305
30	0xbe614ff7	-0.2200316
31	0xbeb1750e	-0.34659618
32	0xbcf2689a	-0.029590894
33	0x3dd751cc	0.105136484
34	0xbb9aff37	-0.004730131
35	0x3e9eaae5	0.30989757
36	0x3e87049c	0.26370704
37	0x3e405714	0.18783218
38	0x3d1818d1	0.03713304
39	0xb9862927	-0.00025589133
40	0x3ea75464	0.32681572
41	0x3e849dcb	0.25901636
42	0x3c0c951d	0.008580473
43	0x3ed1afc0	0.409544
44	0xbe02223f	-0.12708376
45	0x3e56e2a3	0.20984893
46	0x3e4d36a2	0.20040372
47	0x3d22b60a	0.039724387
48	0xbea93d62	-0.33054644
49	0x3e05055f	0.1299033
50	0xbb88bc2a	-0.0041728215
51	0xbebd087f	-0.36920545
52	0xbe51cfd2	-0.20489433
53	0xbedf3ec0	-0.43602562
54	0xbda163a5	-0.07880334
55	0x3dc0d23b	0.09415098
56	0xbe8d2840	-0.2756977
57	0xbea703f6	-0.3262021
58	0xbec0c690	-0.3765149
59	0x3ea41b45	0.32052055
60	0x3dfa511f	0.12222504
61	0xbe42f461	-0.19038536
62	0xbd9dcd27	-0.07705145
63	0xbd967d6e	-0.073481426
64	0xbda77560	-0.081766844
65	0x3e36525a	0.17804852
66	0xbd906e84	-0.07052329
67	0xbe096908	-0.13418972
68	0xbe1a205c	-0.15051407
69	0xbd671dce	-0.05642491
70	0x3e7bfff5	0.24609359
71	0x3a89824f	0.0010491105
72	0xbe2ee2cd	-0.17078705
73	0xbc8dae94	-0.01729516
74	0x3e0d7fd8	0.138183
75	0xbead4273	-0.3383976
76	0x3e4399e5	0.19101675
77	0x3d1d8f14	0.038466528
78	0x3d534fa1	0.051589612
79	0xbe1bbeb7	-0.1520947
80	0x3e9203fa	0.2851866
81	0xbdbcae7d	-0.092129685
82	0x3e8a5e21	0.2702494
83	0xbe9ea766	-0.3098709
84	0xbd6749ed	-0.056466985
85	0x3e95048a	0.29105026
86	0xbe2f45f2	-0.17116526
87	0xbe311dad	-0.17296477
88	0x3eba4c35	0.36386266
89	0x3ddcc5e1	0.1077993
90	0xbd99e447	-0.075142436
91	0xbe768ae4	-0.2407642
92	0x3ea5cb2e	0.32381576
93	0x3eba9365	0.36440578
94	0xbd6e18dd	-0.05812918
95	0x3e456955	0.19278462
96	0xbeba8f14	-0.36437285
97	0x3ea14d9d	0.31504527
98	0x3e009bb2	0.12559393
99	0xbd0ed88b	-0.03487448
100	0x3debee62	0.11520077
101	0x3eaf491d	0.34235469
102	0x3e6df820	0.23239183
103	0xbd9c785b	-0.076401435
104	0x3ddd1b3f	0.107962124
105	0xbe1b8c27	-0.15190183
106	0xbe1ad261	-0.15119316
107	0x3e92dae9	0.2868264
108	0x3e88e849	0.2673972
109	0xbe992cbe	-0.29916948
110	0xbe12b928	-0.14328444
111	0x3e91b546	0.28458613
112	0x3e8cdb34	0.2751099
113	0x3e467fde	0.19384715
114	0x3eb26e28	0.34849668
115	0xbeadaed2	-0.3392244
116	0xbc395def	-0.011313899
117	0xbd53368f	-0.051565703
118	0x3e8e42a2	0.27785212
119	0xbdbe91b0	-0.093051314
120	0x3d9fa594	0.077952534
121	0x3cc91827	0.02454765
122	0xbe49db80	-0.19712639
123	0x3dc042fe	0.09387778
124	0xbe463606	-0.19356546
125	0xbe468d16	-0.19389758
126	0x3e948e18	0.2901466
127	0xbe94a419	-0.29031447
