flappybird_dqn_ep160.pth (torch, 561729 bytes, 32 tensors)

fc1.weight f4 [128, 7]
0.27945563 -0.45353097 0.16587484 0.21445529 -0.24785802 0.17135267 0.23134941 0.064638875
0.30174327 0.0216848 0.25586167 0.0698246 0.0867152 0.15962829 -0.35653663 0.108334616
-0.1556433 -0.35627043 -0.2914347 -0.03469091 0.028346227 -0.27753207 0.2608855 0.040659335
0.020537378 -0.14195174 0.015633048 0.39859816 -0.03178552 0.34074962 -0.49211475 -0.064077824
-0.35782456 0.19893175 0.37113443 0.01986945 0.1401149 0.24400087 -0.2851526 0.077346705
-0.33852443 -0.099359736 0.13131872 -0.26044747 0.12714095 -0.23010299 -0.13682453 -0.36504945
-0.22799915 -0.0044784243 0.117451936 -0.32250035 -0.33969164 0.13460687 0.19167516 0.3653905
-0.12964955 0.17746033 0.37575158 0.13557015 -0.303919 0.40315184 0.14864092 -0.17233887
-0.29886657 0.28368592 -0.08656799 -0.22791815 -0.19700317 0.122116886 0.15252921 0.39445898
-0.01537748 0.35541928 0.38157538 -0.06542216 -0.45132482 0.13406494 -0.21792668 0.039079364
-0.19139737 -0.63464105 0.45776406 -0.25241518 0.15793079 -0.36833045 0.35532176 -0.17853962
0.35399678 -0.27559012 -0.047553096 0.30906555 0.3491378 -0.18915582 -0.27799648 0.3003891
0.15504429 -0.19929644 0.20727941 -0.28975126 -0.15495025 -0.13123393 0.046652608 0.38725305
-0.123331584 0.11234872 -0.18618311 0.24109453 0.19424269 -0.13944641 0.38421664 -0.16930431
0.026615364 0.20008822 -0.10823795 -0.43455404 0.0053409827 -0.2675024 0.22211218 0.49034467
0.24504334 0.29257506 -0.19089343 -0.36142862 0.11906131 -0.19478 0.109414555 -0.10561308
-0.7153372 0.07183213 -0.007281708 -0.37648275 0.10495801 0.0044574765 -0.25220478 -0.13664971
0.12573409 -0.29830423 -0.18599388 -0.1717035 -0.19060388 -0.18248004 0.18635488 -0.102482066
-0.273606 0.24104953 -0.3263067 -0.18017118 -0.08334815 -0.30783615 -0.028560517 -0.2773768
0.10874765 -0.1313946 0.19062859 0.35383543 -0.22830033 -0.15443836 -0.15638664 -0.11002197
0.26842332 -0.49442 -0.18820676 -0.04006379 0.17320588 0.33938646 0.2879263 -0.4212938
0.1305126 -0.37318167 -0.24134919 0.10839181 0.13331467 0.016834013 0.064971365 0.056252882
0.004993487 -0.76743495 -0.21086234 0.006270722 -0.34378636 0.17548467 0.09138017 0.11560398
-0.23888607 0.15037443 0.27489838 0.2672467 -0.16970637 -0.045743637 -0.23391043 0.39921036
-0.2655341 -0.3504324 0.012037693 -0.22791083 0.26712778 0.16135465 -0.13332643 -0.020932497
-0.22084977 0.11514772 0.12928315 -0.3111656 -0.19412945 0.31624216 -0.16011332 0.44299167
-0.1565752 -0.1406313 -0.36071357 0.34040555 -0.37716952 -0.03726294 0.059434526 0.10401916
-0.20751719 -0.08685177 -0.17299777 -0.051476356 -0.14885058 -0.36402485 0.18221433 -0.20525381
-0.18766665 0.26707906 -0.57871467 0.2540521 0.30590284 0.16099717 0.12089333 0.2045253
-0.047607284 -0.4543279 -0.07357957 0.37231472 0.0065981364 0.3645329 -0.053334273 -0.08144593
-0.15725346 -0.12973255 -0.2938638 -0.12363976 0.4504244 0.2343533 0.44506374 -0.028595567
0.2567727 0.23692681 0.31538862 0.32208598 -0.29773897 0.32928082 0.36701778 0.3066281
00000000: cf14 8f3e 3635 e8be 18db 293e 2b9a 5b3e
00000010: 7ece 7dbe 1377 2f3e dce6 6c3e 6361 843d
00000020: 187e 9a3e 52a4 b13c 4d00 833e 3300 8f3d
00000030: bd97 b13d 9975 233e f88b b6be 8ade dd3d
00000040: f560 1fbe 1469 b6be ee36 95be 0e18 0ebd
00000050: 5936 e83c af18 8ebe c992 853e 678a 263d
00000060: 013e a83c cc5b 11be e110 803c 0f15 cc3e
00000070: 8931 02bd bc76 ae3e 77f6 fbbe 3c3b 83bd
00000080: c834 b7be c4b4 4b3e 5505 be3e 42c5 a23c
00000090: 487a 0f3e 5ddb 793e 86ff 91be f367 9e3d
000000a0: 1353 adbe 1e7d cbbd 6a78 063e 5f59 85be
000000b0: 3d31 023e 1ea0 6bbe bb1b 0cbe c3e7 babe
000000c0: 9c78 69be bfbf 92bb a48a f03d c41e a5be
000000d0: 10ec adbe 62d6 093e 7e46 443e 7714 bb3e
000000e0: dac2 04be 29b8 353e 8362 c03e e7d2 0a3e
000000f0: 459b 9bbe eb69 ce3e 5335 183e 9a79 30be
00000100: 0a05 99be 483f 913e 8f4a b1bd 6063 69be
00000110: 33bb 49be 6b18 fa3d 9e30 1c3e 87f6 c93e
00000120: d3f1 7bbc 84f9 b53e d95d c33e 0efc 85bd
00000130: 0c14 e7be 5248 093e 2c28 5fbe af11 203d
00000140: acfd 43be d677 22bf 0d60 ea3e 903c 81be
00000150: 9cb8 213e cf95 bcbe bcec b53e 17d3 36be
00000160: 113f b53e 261a 8dbe 09c7 42bd d73d 9e3e
00000170: 31c2 b23e 10b2 41be 8e55 8ebe 9acc 993e
00000180: eec3 1e3e 5e14 4cbe 0e41 543e 475a 94be
00000190: 47ab 1ebe 3062 06be ce16 3f3d 0846 c63e
000001a0: 4595 fcbd 1617 e63d c9a6 3ebe 7ce1 763e
000001b0: 8ee7 463e 0acb 0ebe 0bb8 c43e 1c5e 2dbe
000001c0: 7708 da3c ede3 4c3e dcab ddbd de7d debe
000001d0: 6903 af3b 13f6 88be 6071 633e 750e fb3e
000001e0: a4ec 7a3e 66cc 953e 9179 43be 2c0d b9be
000001f0: 6bd6 f33d 6974 47be bd14 e03d ac4b d8bd
00000200: 5720 37bf b91c 933d 659b eebb 59c2 c0be
00000210: 3af4 d63d 0610 923b fc20 81be e7ed 0bbe
00000220: 70c0 003e 55bb 98be 2e75 3ebe 0bd3 2fbe
00000230: aa2d 43be 0cdc 3abe d0d3 3e3e 1ee2 d1bd
00000240: 1616 8cbe b0d5 763e ac11 a7be cb7e 38be
00000250: 6fb2 aabd b39c 9dbe bff7 e9bc 5504 8ebe
00000260: 17b7 de3d 4e8c 06be 2434 433e eb29 b53e
00000270: 90c7 69be 1725 1ebe d223 20be 3353 e1bd
00000280: c86e 893e 9e24 fdbe 46b9 40be ee19 24bd
00000290: e25c 313e 10c4 ad3e 136b 933e d2b3 d7be
000002a0: 18a5 053e ab11 bfbe 3e24 77be 86fc dd3d
000002b0: a483 083e 7ce7 893c b50f 853d 6c69 663d
000002c0: 68a0 a33b 9e76 44bf 4cec 57be a17a cd3b
000002d0: c404 b0be 41b2 333e 8725 bb3d c8c1 ec3d
000002e0: 8d9e 74be c1fb 193e 7bbf 8c3e 8fd4 883e
000002f0: 82c7 2dbe ae5d 3bbd 3786 6fbe 4d65 cc3e
00000300: 16f4 87be e06b b3be be39 453c 7561 69be
00000310: f9c4 883e 273a 253e b986 08be a17a abbc
00000320: 7126 62be 91d2 eb3d cd62 043e 1951 9fbe
00000330: dfc9 46be 7eea a13e bff4 23be cecf e23e
00000340: 4055 20be a701 10be 73af b8be a349 ae3e
00000350: 5d1c c1be 06a1 18bd 9e71 733d ff07 d53d
00000360: 637f 54be 57df b1bd 5426 31be dfd8 52bd
00000370: 496c 18be 7761 babe 6596 3a3e 0e2e 52be
00000380: b02b 40be 96be 883e a526 14bf 1e13 823e
00000390: 4c9f 9c3e 71dc 243e ec96 f73d 156f 513e
000003a0: dbff 42bd ab9d e8be e3b0 96bd 09a0 be3e
000003b0: 2e35 d83b 0ea4 ba3e 0a75 5abd 20cd a6bd
000003c0: 0d07 21be 9cd8 04be 5175 96be d836 fdbd
000003d0: 079e e63e 50fa 6f3e 65df e33e 4041 eabc
000003e0: b677 833e f19c 723e 9e7a a13e 74e8 a43e
000003f0: 3e71 98be 7f97 a83e c1e9 bb3e 5cfe 9c3e

fc1.bias f4 [128]
-0.28528386 0.04189077 0.103148796 -0.0964298 0.31950507 -0.33989868 0.039171457 0.1874701
-0.021207944 -0.062470775 0.16374226 0.12806888 -0.38430262 -0.06189774 -0.21647242 -0.27408338
-0.15539193 -0.2703685 0.24468248 0.06641694 -0.21716374 -0.075315766 0.2254789 0.03868877
-0.093807936 0.24748254 0.31975898 0.34626928 0.05706415 0.250603 -0.2200316 -0.34659618
-0.01328498 0.10013966 0.00025211892 0.317019 0.26492983 0.19520208 0.04286723 0.006993806
0.32701236 0.2669103 0.003660202 0.4085817 -0.12728156 0.21939346 0.21225776 0.04492918
-0.33054644 0.1299033 0.0006086073 -0.36920545 -0.20489433 -0.43083933 -0.0860711 0.09034298
-0.2756977 -0.3262021 -0.3765149 0.32029435 0.11856341 -0.19725473 -0.068666205 -0.08122887
-0.07831208 0.18687263 -0.07052329 -0.1383941 -0.15051407 -0.0833435 0.24292317 0.009139834
-0.17078705 -0.022609517 0.13889721 -0.3377958 0.1920465 0.027814988 0.063948855 -0.1520947
0.29328316 -0.095032655 0.2700734 -0.3098709 -0.041210532 0.29646176 -0.17116526 -0.1971891
0.3556754 0.08709807 -0.0790648 -0.2407642 0.3228918 0.37965795 -0.05812918 0.20032221
-0.36437285 0.31469572 0.13265899 -0.017203052 0.12229062 0.34551802 0.20831954 -0.06223987
0.12664331 -0.15196492 -0.18785182 0.28833276 0.25413656 -0.28497013 -0.1466959 0.29095536
0.28394663 0.18886463 0.3392498 -0.3392244 -0.011313899 -0.051565703 0.28104246 -0.09426886
0.09196899 -0.014573729 -0.19480631 0.09090901 -0.19096233 -0.19365515 0.2775956 -0.29031447
00000000: ba10 92be a895 2b3d ad3f d33d fd7c c5bd
00000010: 2b96 a33e 3307 aebe 4072 203d 29f8 3f3e
00000020: 48bc adbc 5be1 7fbd 0dac 273e 7d24 033e
00000030: 50c3 c4be 7c88 7dbd f2aa 5dbe a854 8cbe
00000040: 101f 1fbe bd6d 8abe 0b8e 7a3e 9b05 883d
00000050: 2c60 5ebe 273f 9abd f1e3 663e 1e78 1e3d
00000060: 601e c0bd 106c 7d3e 73b7 a33e 354a b13e
00000070: 19bc 693d 094f 803e f74f 61be 0e75 b1be
00000080: 3fa9 59bc 0616 cd3d d42e 8439 5050 a23e
00000090: e2a4 873e 0ee3 473e 8c95 2f3d 4c2c e53b
000000a0: 2a6e a73e 78a8 883e 00e0 6f3b 9f31 d13e
000000b0: 1956 02be aea8 603e 195a 593e a907 383d
000000c0: 623d a9be 5f05 053e f28a 1f3a 7f08 bdbe
000000d0: d2cf 51be f996 dcbe 0b46 b0bd be05 b93d
000000e0: 4028 8dbe f603 a7be 90c6 c0be 9ffd a33e
000000f0: 60d1 f23d 25fd 49be dea0 8cbd 525b a6bd
00000100: 1562 a0bd 8a5b 3f3e 846e 90bd 2fb7 0dbe
00000110: 5c20 1abe ffaf aabd dac0 783e 3ebf 153c
00000120: cde2 2ebe 9837 b9bc 123b 0e3e 92f3 acbe
00000130: d6a7 443e 42dc e33c 9ef7 823d b7be 1bbe
00000140: 3629 963e 7ba0 c2bd 1047 8a3e 66a7 9ebe
00000150: 60cc 28bd d6c9 973e f245 2fbe f0eb 49be
00000160: 161b b63e 7960 b23d baec a1bd e48a 76be
00000170: 1352 a53e 8762 c23e dd18 6ebd 4421 4d3e
00000180: 148f babe cc1f a13e c2d7 073e 6aed 8cbc
00000190: 8173 fa3d bde7 b03e b851 553e 3cef 7ebd
000001a0: c9ae 013e b19c 1bbe 3a5c 40be 5aa0 933e
000001b0: 301e 823e 9be7 91be 7337 16be 1af8 943e
000001c0: 7461 913e bb65 413e 26b2 ad3e d2ae adbe
000001d0: ef5d 39bc 8f36 53bd cce4 8f3e 0810 c1bd
000001e0: 3d5a bc3d a6c6 6ebc 4e7b 47be 812e ba3d
000001f0: a18b 43be 894d 46be 0321 8e3e 19a4 94be

fc2.weight f4 [128, 128]
0.21915093 -0.023989795 -0.0021160562 -0.011251129 -0.04127252 -0.0507785 -0.07250786 -0.03433423
0.00028516096 0.046412587 -0.046907954 0.22109094 -0.030139424 0.11600488 0.021632548 0.095256925
0.021106174 0.1516573 0.033181343 -0.025867501 0.032200836 0.014399945 0.009365009 -0.12071851
-0.1770748 -0.12246219 0.052979454 0.09329891 0.10605577 -0.13119711 0.051567953 -0.006857798
-0.107061066 -0.07629183 -0.047002908 -0.065006755 0.06877182 0.025848774 0.18087572 -0.03796749
0.1491045 0.012956213 0.07214013 0.17535052 0.018518806 0.0032616726 -0.054026306 -0.024375081
0.005702869 -0.06434345 -0.1002829 -0.0382364 0.08091889 -0.055946432 0.06808364 -0.01764388
0.0015172759 -0.04597353 0.045161318 0.00013956465 0.13925134 -0.24760568 -0.014226462 0.105130866
-0.20261289 -0.026312375 0.024065398 0.13069145 -0.08626096 0.13091257 -0.0076053585 -0.09592563
0.016893126 0.032230515 -0.13004726 0.23012112 -0.0129063185 0.17971672 0.12587717 -0.048107635
-0.023168482 -0.23773204 -0.015504127 0.034845497 0.19777893 -0.024711443 0.033079986 0.12047286
0.1371875 0.20720433 0.040466826 0.010398713 0.05560153 -0.039924994 -0.049235083 0.011343707
0.048433747 -0.066515066 -0.0066471477 -0.016271027 -0.10861601 -0.064150944 0.23819959 -0.045221794
-0.11243625 -0.052478928 0.15102723 -0.03462017 0.188101 0.12717052 0.14122643 -0.036913954
-0.10324558 0.017505247 0.22452538 -0.14958689 -0.027709397 0.06771885 0.07062636 -0.056326922
-0.11194516 0.08094412 0.1772596 0.053870555 -0.19711839 -0.09609472 0.139267 0.050396007
-0.12269491 0.056512542 0.04401094 0.07723607 -0.12535189 -0.08399237 -0.08820226 -0.04295852
-0.03392104 0.0883572 0.07854077 -0.05265873 -0.08625961 0.02620672 -0.14141662 0.09012073
0.07468743 -0.06159971 0.018252162 0.06473647 0.05707611 -0.017779522 -0.174896 0.0014033578
-0.012665571 -0.18677469 0.026724195 0.050311945 -0.06006554 0.17394055 -0.016743952 -0.025041107
-0.10668115 -0.015620245 -0.18538561 0.11740812 0.0008158597 0.23317242 -0.20086093 -0.027381597
0.19263633 0.11458895 0.035839714 -0.10776282 0.087465964 0.083104774 -0.009752386 -0.11706295
-0.04913721 -0.08160074 -0.25154614 0.08257179 0.08247603 0.05503462 0.018496132 0.17554878
-0.06483781 0.08777608 0.083293974 0.09649037 0.0019023156 0.27287623 0.1275142 0.089308165
0.18986018 0.027040798 -0.08092632 0.06684816 0.048862897 0.1572894 0.11795154 -0.18824016
0.08588141 0.46271205 0.0312459 -0.1303136 0.06272365 -0.07416567 -0.1107385 -0.006029665
-0.07071235 0.25804347 -0.04771805 -0.0019872633 -0.24933618 0.054002516 -0.05342784 -0.12351727
-0.035630416 0.01818558 0.026658006 -0.072362565 0.115865976 -0.0059264125 -0.073507294 0.032490585
-0.0066747754 0.069953226 0.07359705 -0.057262547 -0.11145715 -0.015828796 -0.016684286 0.17810339
0.18409503 -0.025654603 0.071064465 0.07281967 0.0789658 -0.3173927 0.04289794 -0.165944
0.044184834 -0.08145275 0.016006785 -0.06363379 -0.009286554 -0.043401875 0.06634871 0.055530705
-0.03658426 0.04664753 -0.11575907 -0.027183825 -0.13027555 0.049084697 0.03579053 -0.0560758
00000000: 1a69 603e 3f86 c4bc 88ad 0abb a856 38bc
00000010: 600d 29bd 1efd 4fbd 007f 94bd 0da2 0cbd
00000020: a881 9539 201b 3e3d 8e22 40bd aa65 623e
00000030: f4e6 f6bc f793 ed3d be36 b13c 1016 c33d
00000040: dbe6 ac3c 0d4c 1b3e 29e9 073d 15e8 d3bc
00000050: 06e5 033d bfed 6b3c b26f 193c 443b f7bd
00000060: 1953 35be 75cd fabd fc00 593d 8013 bf3d
00000070: c433 d93d 8958 06be eb38 533d 61b7 e0bb
00000080: d542 dbbd e43e 9cbd 1f86 40bd 4322 85bd
00000090: 3dd8 8c3d cfc0 d33c 7c37 393e cc83 1bbd
000000a0: daae 183e 4c46 543c 34be 933d 168f 333e
000000b0: c0b4 973c c9c1 553b b04a 5dbd 40ae c7bc
000000c0: 22df ba3b 80c6 83bd 1f61 cdbd c59d 1cbd
000000d0: ceb8 a53d 1628 65bd 6f6f 8b3d e689 90bc
000000e0: 55df c63a bd4e 3cbd 13fb 383d 1a58 1239
000000f0: e797 0e3e 588c 7dbe 1b16 69bc da4e d73d
00000100: c179 4fbe 0d8d d7bc cc24 c53c fbd3 053e
00000110: 96a9 b0bd f20d 063e 5f36 f9bb a874 c4bd
00000120: 7463 8a3c 2504 043d 1c2b 05be dfa4 6b3e
00000130: 0675 53bc a907 383e f2e5 003e 830c 45bd
00000140: d4cb bdbc 0770 73be 0605 7ebc 27ba 0e3d
00000150: 8f86 4a3e a76f cabc e17e 073d 7aba f63d
00000160: e17a 0c3e 5f2d 543e 8bc0 253d 5d5f 2a3c
00000170: 6ebe 633d 6488 23bd baaa 49bd f5da 393c
00000180: 7762 463d 0d39 88bd 51d0 d9bb d14a 85bc
00000190: 1272 debd 9261 83bd 98ea 733e 7d3a 39bd
000001a0: fa44 e6bd 25f4 56bd e2a6 1a3e e1cd 0dbd
000001b0: 8c9d 403e fd38 023e a99d 103e 1633 17bd
000001c0: 6b72 d3bd 2a67 8f3c fbe9 653e 4e2d 19be
000001d0: d1fe e2bc 2eb0 8a3d 8ea4 903d 0fb7 66bd
000001e0: 8143 e5bd 08c6 a53d 8a83 353e 5fa7 5c3d
000001f0: 67d9 49be 4fcd c4bd 029c 0e3e 0b6c 4e3d
00000200: 7847 fbbd b279 673d d144 343d f22d 9e3d
00000210: 3f5c 00be 3104 acbd 63a3 b4bd 46f5 2fbd
00000220: caf0 0abd 9ff4 b43d fcd9 a03d aeb0 57bd
00000230: e1a8 b0bd 7aaf d63c 85cf 10be 3891 b83d
00000240: b9f5 983d fa4f 7cbd 8f85 953c 8e94 843d
00000250: a4c8 693d 5ca6 91bc f017 33be e0f0 b73a
00000260: 4183 4fbc dd41 3fbe b3ec da3c e613 4e3d
00000270: 4907 76bd 791d 323e 9d2a 89bc 0223 cdbc
00000280: a67b dabd 0eec 7fbc bad5 3dbe ab73 f03d
00000290: 6bdf 553a c0c4 6e3e 7dae 4dbe 5f4f e0bc
000002a0: 7542 453e 9dad ea3d aacc 123d c1b2 dcbd
000002b0: 5b21 b33d d632 aa3d 79c8 1fbc b3be efbd
000002c0: 1944 49bd 4a1e a7bd a8ca 80be 661b a93d
000002d0: 31e9 a83d fb6b 613d 3385 973c 0fc3 333e
000002e0: b0c9 84bd f2c3 b33d 0896 aa3d be9c c53d
000002f0: 1f57 f93a 6fb6 8b3e 1593 023e 33e7 b63d
00000300: b56a 423e aa84 dd3c b3bc a5bd b0e7 883d
00000310: 7624 483d 7910 213e 9490 f13d 07c2 40be
00000320: 98e2 af3d 98e8 ec3e 67f7 ff3c ee70 05be
00000330: 4275 803d 2ce4 97bd deca e2bd 7f94 c5bb
00000340: a3d1 90bd 461e 843e 0174 43bd bf3c 02bb
00000350: fc51 7fbe be31 5d3d 27d7 5abd 9ff6 fcbd
00000360: 33f1 11bd edf9 943c e461 da3c d332 94bd
00000370: 244b ed3d 5a32 c2bb fe8a 96bd d914 053d
00000380: 13b8 dabb a343 8f3d 0dba 963d 228c 6abd
00000390: a543 e4bd 64ab 81bc 7cad 88bc bc60 363e
000003a0: 6883 3c3e 9a29 d2bc 3f8a 913d 7b22 953d
000003b0: d2b8 a13d 4c81 a2be c0b5 2f3d 39ed 29be
000003c0: 28fb 343d b3d0 a6bd a920 833c 6f52 82bd
000003d0: a126 18bc 2ac6 31bd d5e1 873d 2a74 633d
000003e0: 61d9 15bd 7b11 3f3d 1713 edbd 9db0 debc
000003f0: f466 05be 090d 493d 1799 123d bdaf 65bd

fc2.bias f4 [128]
0.083440974 -0.038998347 -0.08003608 0.00095948816 0.021790344 0.0022609914 -0.026813526 -0.06427265
-0.03836692 0.018919783 -0.07386992 -8.318325e-05 0.07264248 0.012143202 -0.043156773 0.0010190937
0.03957993 0.050951924 0.007475934 0.0663257 0.059642203 0.0862519 0.074672006 0.009158422
0.019500125 0.09023818 0.035717722 -0.0015220664 0.062885255 -0.077045955 0.021436917 -0.08610212
0.030467661 -0.001116167 -0.053428844 -0.00040595199 0.013638404 0.050320584 0.042222273 0.08487664
0.05341718 -0.08193029 0.028002976 -0.045674793 0.0035712963 0.030948954 0.084072605 0.0645521
0.024061374 0.018322986 0.029450295 -0.028709892 -0.019848963 0.005838717 -0.0501986 -0.022607004
0.036584634 0.044306822 -0.04661554 0.07081287 -0.0036642966 -0.07877295 -0.07119015 0.05183645
-0.073258415 0.040922876 0.015299525 -0.040171813 0.06374766 -0.029610978 -0.07320318 0.010243654
-0.07590296 -0.066877134 0.058252744 0.035869464 -0.058112856 0.04973886 0.08087753 0.038806412
0.049061116 -0.048893157 -0.058683366 0.056291394 -0.024336403 -0.030225981 0.026673168 -0.04939342
-0.019643497 0.010013565 0.023596752 0.07329429 -0.06354742 -0.06464236 0.05015108 0.1115162
-0.052492872 -0.0021701457 0.12621464 -0.046081793 0.055172447 0.1002976 -0.013224287 -0.073131785
0.0073409295 0.029995102 -0.08587325 0.06307225 -0.021151809 -0.045707338 0.054205056 -0.0482979
0.044332545 0.044348523 -0.03285161 -0.015517492 0.06481476 0.027930431 0.046655905 -0.041209675
-0.006031229 0.03833296 -0.03151643 0.08269563 -0.039335683 -0.057865568 0.0005630585 0.046979003
00000000: 1ae3 aa3d bbbc 1fbd f5e9 a3bd 2986 7b3a
00000010: aa81 b23c 242d 143b 0aa8 dbbc 61a1 83bd
00000020: a226 1dbd a9fd 9a3c 1d49 97bd ab72 aeb8
00000030: 95c5 943d 48f4 463c 28c5 30bd 1c93 853a
00000040: 911e 223d f7b2 503d aef8 f43b c5d5 873d
00000050: 624b 743d d6a4 b03d a3ed 983d 350d 163c
00000060: babe 9f3c cbce b83d bf4c 123d 1380 c7ba
00000070: fcc9 803d 45ca 9dbd 799c af3c 4f56 b0bd
00000080: 5197 f93c 5a4c 92ba 34d8 5abd f4d5 d4b9
00000090: 9d73 5f3c f51c 4e3d 43f1 2c3d ced3 ad3d
000000a0: f9cb 5a3d 11cb a7bd 7f66 e53c 7e15 3bbd
000000b0: 690c 6a3b a988 fd3c 422e ac3d e433 843d
000000c0: 5c1c c53c 161a 963c bf41 f13c 0231 ebbc
000000d0: 4b9a a2bc b552 bf3b 0c9d 4dbd 5332 b9bc
000000e0: c5d9 153d 127b 353d f0ef 3ebd 5706 913d
000000f0: b224 70bb b653 a1bd 24cc 91bd 7552 543d
00000100: 8208 96bd bf9e 273d dcaa 7a3c 338b 24bd
00000110: 228e 823d b992 f2bc 8deb 95bd 00d5 273c
00000120: 0373 9bbd e1f6 88bd 6e9a 6e3d dceb 123d
00000130: bf07 6ebd faba 4b3d 1ea3 a53d 79f3 1e3d
00000140: 4ff4 483d 3144 48bd f85d 70bd ce91 663d
00000150: 235d c7bc 7a9c f7bc b081 da3c c150 4abd
00000160: 66eb a0bc f00f 243c fa4d c13c 511b 963d
00000170: 2625 82bd 3763 84bd 386b 4d3d 9b62 e43d
00000180: c402 57bd 0139 0ebb 693e 013e 43c0 3cbd
00000190: 81fc 613d d468 cd3d aeaa 58bc 1ec6 95bd
000001a0: 2e8c f03b 4ab8 f53c 51de afbd 062c 813d
000001b0: 8f46 adbc 9e37 3bbd 1f06 5e3d 05d4 45bd
000001c0: 0b96 353d cca6 353d 698f 06bd 143d 7ebc
000001d0: 9abd 843d 5cce e43c 431a 3f3d 7acb 28bd
000001e0: 9ea1 c5bb 0603 1d3d 5f17 01bd 545c a93d
000001f0: 741e 21bd 7204 6dbd 379a 133a 0e6d 403d

fc3.weight f4 [128, 128]
0.03508146 0.04613998 0.008180899 0.00012426762 -0.06943606 0.0014176423 -0.00032434578 0.0122632785
0.06963814 0.0113478005 -0.022366222 0.072435185 -0.059555646 0.03556979 -0.04918511 0.062684625
0.09026713 -0.10498662 -0.072295755 -0.00965604 -0.036203567 -0.0664599 -0.051968027 -0.039446164
-0.11911503 0.0081957495 0.028203262 0.13251705 0.0014296633 0.05459164 0.084027134 0.095056355
0.100445375 0.053404626 -0.0056252345 -0.026310086 -0.06619098 0.10061794 0.0081354985 0.06839932
0.01854609 -0.05192436 0.14007534 -0.024463683 0.07674903 -0.08472526 -0.02530856 0.13856563
0.016539194 -0.102165274 0.017620608 -0.04476947 0.023445124 -0.046844017 -0.011865818 -0.017704614
-0.023261867 0.005700909 0.025918415 -0.09494076 0.028069846 -0.008511764 0.070849925 -0.02129653
0.049728066 -0.029989103 0.030291518 0.08164881 -0.0253582 -0.073659204 -0.0155096715 -0.082561806
-0.037595335 -0.07871813 -0.17577726 0.067266315 0.021142818 0.033991087 -0.003919223 -0.039925497
0.071006745 -0.08007166 -0.021909956 -0.026778264 0.013255668 0.07137804 0.13023561 0.087152146
0.008745151 0.036212277 0.14535527 0.07572814 -0.03886465 0.051970176 -0.007773624 0.08178542
-0.023897184 0.070813574 0.025810704 0.04124027 0.037449013 0.037387893 -0.040842235 -0.04266989
-0.041031662 -0.0013650993 0.07096549 0.05238419 0.05935179 0.042246148 0.14620337 0.120249
0.0044946373 0.020359365 -0.009864925 -0.014767498 -0.037060786 -0.012008448 0.07408099 -0.020297315
0.09549472 0.082714364 0.14394204 -0.03660406 -0.035069622 0.036402363 0.059220236 0.092030905
0.08305607 0.14243676 -0.010531145 0.08536737 0.06574315 0.12176078 -0.1137511 0.06816869
-0.002281472 -0.10896471 0.046318427 -0.06525639 0.06543184 -0.0022954226 0.022770593 0.027908238
-0.029753238 0.12066004 -0.04949105 -0.053550504 -0.053294487 0.049917936 -0.18870327 0.0668524
0.14176716 -0.045535963 0.030731464 -0.101002306 -0.03303196 0.027866917 0.03139006 -0.06812474
-0.0058151092 -0.023722257 -0.06534631 0.107522175 -0.03341602 -0.07143886 0.084101856 0.050856702
0.03892304 0.022842433 0.019994553 0.04795833 -0.10637582 -0.05685903 0.016652662 0.043442506
-0.10230738 0.054495808 -0.13683702 0.06141816 -0.021393862 -0.032712977 -0.05621496 0.05563354
0.050581113 0.0031058749 -0.0255673 0.08600636 0.0054809554 0.0415414 -0.026602983 0.0023911167
-0.033496175 -0.099632375 -0.039150856 -0.018454218 -0.06693993 0.079935186 0.018628096 -0.033166997
-0.088332355 -0.0073789824 0.00021448829 -0.014732272 -0.08416376 0.023881674 0.02799337 0.09194685
-0.08460019 0.0665457 -0.09855036 0.02997215 0.002711198 -0.07980083 0.06391244 -0.025840811
-0.018851586 0.024749026 0.027766021 -0.025785524 0.032327022 -0.026769845 0.05166536 -0.097797774
0.2527823 -0.07775809 -0.01623252 0.10585361 -0.051799666 0.047841836 0.080613464 -0.010206639
-0.012181972 -0.10846206 0.056461927 0.06299505 -0.084833406 -0.021517908 0.047064386 -0.07142683
0.23826286 -0.003989715 -0.06814992 0.13471468 0.13558677 0.06357121 0.05354177 0.028869923
-0.12295828 0.048059285 0.00819521 -0.06536768 -0.06969927 0.06751067 -0.05558351 -0.002669934
00000000: 94b1 0f3d 47fd 3c3d 2d09 063c d64d 0239
00000010: 7e34 8ebd 2fd0 b93a f40c aab9 ebeb 483c
00000020: 719e 8e3d 20ec 393c 5e39 b7bc e658 943d
00000030: 9ff0 73bd a1b1 113d 5376 49bd cc60 803d
00000040: f9dd b83d 3a03 d7bd cc0f 94bd 5e34 1ebc
00000050: 314a 14bd 211c 88bd 6ddc 54bd 4d92 21bd
00000060: 95f2 f3bd 7747 063c 870a e73c 8db2 073e
00000070: 8a63 bb3a 7c9b 5f3d 6b16 ac3d e8ac c23d
00000080: 4eb6 cd3d cfbe 5a3d e353 b8bb 4088 d7bc
00000090: 238f 87bd c710 ce3d c14a 053c f114 8c3d
000000a0: f8ed 973c a3ae 54bd e96f 0f3e 1068 c8bc
000000b0: 982e 9d3d 7084 adbd e653 cfbc 26e4 0d3e
000000c0: 347d 873c 073c d1bd 1859 903c 3160 37bd
000000d0: fd0f c03c 83df 3fbd d968 42bc 4409 91bc
000000e0: ac8f bebc b1ce ba3b db52 d43c 4d70 c2bd
000000f0: bcf2 e53c ed74 0bbc c419 913d 0f76 aebc
00000100: a8af 4b3d b5ab f5bc eb25 f83c 7e37 a73d
00000110: 00bc cfbc a3da 96bd 471c 7ebc 2a16 a9bd
00000120: 91fd 19bd f936 a1bd f4fe 33be ecc2 893d
00000130: b433 ad3c 3d3a 0b3d d36c 80bb eb88 23bd
00000140: fc6b 913d 9cfc a3bd 827c b3bc 175e dbbc
00000150: 4d2e 593c a62e 923d 7c5c 053e d37c b23d
00000160: d247 0f3c 5353 143d 03d8 143e 5b17 9b3d
00000170: 8a30 1fbd aede 543d e2b9 febb 1d7f a73d
00000180: 07c4 c3bc b506 913d f870 d33c 8feb 283d
00000190: 2364 193d 0c24 193d 304a 27bd 9fc6 2ebd
000001a0: d110 28bd 22ed b2ba 5b56 913d ce90 563d
000001b0: dd1a 733d 4c0a 2d3d 56b6 153e 1c45 f63d
000001c0: c047 933b afc8 a63c 7fa0 21bc 60f3 71bc
000001d0: 0dcd 17bd 15bf 44bc c6b7 973d 8e46 a6bc
000001e0: bc92 c33d 2666 a93d 8b65 133e 24ee 15bd
000001f0: 2aa5 0fbd a51a 153d eb90 723d b37a bc3d
00000200: 4d19 aa3d f1da 113e d38a 2cbc 16d5 ae3d
00000210: 58a4 863d b75d f93d 56f6 e8bd 079c 8b3d
00000220: c084 15bb e428 dfbd 64b8 3d3d 24a5 85bd
00000230: 2101 863d cd6e 16bb 6589 ba3c d19f e43c
00000240: 10bd f3bc 9c1c f73d 21b7 4abd c657 5bbd
00000250: 524b 5abd c076 4c3d 6e3b 41be e9e9 883d
00000260: 692b 113e eb83 3abd 8dc0 fb3c 4cda cebd
00000270: 854c 07bd 2949 e43c dd92 003d fc84 8bbd
00000280: ac8c bebb 2e55 c2bc 49d4 85bd 9634 dc3d
00000290: 3ddf 08bd 894e 92bd 983d ac3d 1e4f 503d
000002a0: c46d 1f3d 0e20 bb3c 9ecb a33c f46f 443d
000002b0: 91db d9bd 04e5 68bd 2a6b 883c c5f0 313d
000002c0: 8886 d1bd ff36 5f3d 011f 0cbe 9c91 7b3d
000002d0: 2e42 afbc 0bfe 05bd a841 66bd ffdf 633d
000002e0: 242e 4f3d ef8b 4b3b 8472 d1bc 1a24 b03d
000002f0: 9699 b33b 5127 2a3d 80ee d9bc 48b4 1c3b
00000300: 4933 09bd 0f0c ccbd a65c 20bd 4d2d 97bc
00000310: cd17 89bd 0fb5 a33d f399 983c 1eda 07bd
00000320: 98e7 b4bd 64cb f1bb 43e8 6039 a15f 71bc
00000330: 0d5e acbd 80a3 c33c 5a52 e53c a14e bc3d
00000340: dd42 adbd 1d49 883d c5d4 c9bd 2888 f53c
00000350: 5bae 313b 9e6e a3bd 86e4 823d 1cb0 d3bc
00000360: a46e 9abc 78be ca3c 9175 e33c 2a3c d3bc
00000370: 5769 043d 6f4c dbbc 0e9f 533d 334a c8bd
00000380: ae6c 813e a23f 9fbd 10fa 84bc c7c9 d83d
00000390: e32b 54bd cdf5 433d ac18 a53d bf39 27bc
000003a0: e596 47bc 5b21 debd 9f44 673d 8c03 813d
000003b0: 23bd adbd 5346 b0bc 96c6 403d 3b48 92bd
000003c0: 2efb 733e 28bc 82bb 2f92 8bbd a5f2 093e
000003d0: 42d7 0a3e 9f31 823d 9d4e 5b3d 9e80 ec3c
000003e0: 8dd1 fbbd d0d9 443d 3445 063c 7ddf 85bd
000003f0: 7ebe 8ebd 0943 8a3d 89ab 63bd 0ffa 2ebb

fc3.bias f4 [128]
0.13965346 0.06964258 -0.09787257 0.04478296 0.11106389 0.08364695 -0.016343495 0.11333615
0.121201985 0.022488162 0.0036625422 0.08006367 -0.041214377 -0.07668405 -0.07588299 0.029713677
-0.036412526 0.12111141 -0.12245396 0.028193668 -0.04048306 -0.037685756 0.023235044 -0.008554034
0.12923329 -0.05398626 0.00969748 -0.037862707 -0.06298504 0.03556292 -0.039403316 0.005228169
0.11493435 0.07796637 0.007810177 -0.0540576 0.00017689743 -0.029842392 -0.08881298 0.013865157
0.113577574 0.119170375 0.033154145 -0.078130506 0.08023509 0.040337186 0.062183823 0.062149443
-0.08859481 0.06690152 0.099920675 -0.0066868435 -0.030982874 -0.0854392 -0.0036776662 0.11923766
-0.0073746853 -0.052626614 0.012529597 -0.081316136 0.035115022 0.0741983 0.028822215 -0.033365764
0.022948178 0.06716997 0.07007556 0.10057762 0.045641363 0.002394006 0.02551649 -0.010679483
-0.063132904 0.04153571 -0.07977668 0.12692682 0.019221982 0.02799628 -0.06833303 -0.050810292
0.10878667 0.017169561 -0.08018896 0.11303126 -0.044116214 -0.018673446 0.021989191 0.025337353
0.004064209 -0.09473302 -0.054051127 -0.050316725 -0.03197232 0.008079719 0.014812291 0.08861768
0.011646527 0.041826706 -0.029920416 0.1010652 -0.074968524 0.114528134 0.08594674 -0.061744463
-0.05038148 0.004654514 0.13784167 0.13781957 0.064212345 0.040946886 -0.015314829 0.032220397
-0.08409164 0.0016794627 -0.024135038 -0.008001759 0.0026720974 -0.047075454 0.115423776 0.060403034
-0.094498575 0.06277493 -0.041857213 -0.09079144 0.051300388 0.05089438 -0.011340038 0.10805744
00000000: 5101 0f3e c5a0 8e3d 6a71 c8bd 566e 373d
00000010: 7775 e33d 184f ab3d cbe2 85bc c91c e83d
00000020: bf38 f83d 1839 b83c 4307 703b 6cf8 a33d
00000030: 68d0 28bd 870c 9dbd 8b68 9bbd 196a f33c
00000040: 4d25 15bd 4209 f83d 24c9 fabd 68f6 e63c
00000050: 91d1 25bd 615c 1abd 6b57 be3c 3826 0cbc
00000060: bb55 043e b220 5dbd 2ee2 1e3c ed15 1bbd
00000070: 4dfe 80bd 6daa 113d 5f65 21bd 0f51 ab3b
00000080: b362 eb3d d5ac 9f3d 83ec ff3b 816b 5dbd
00000090: 8b7d 3939 0878 f4bc 94e3 b5bd af2a 633c
000000a0: 5c9b e83d 990f f43d a4cc 073d e302 a0bd
000000b0: 4b52 a43d 9b38 253d 77b4 7e3d 6a90 7e3d
000000c0: 3271 b5bd aa03 893d 36a3 cc3d 4f1d dbbb
000000d0: cccf fdbc bffa aebd 0005 71bb e032 f43d
000000e0: 58a7 f1bb 018f 57bd f048 4d3c 1389 a6bd
000000f0: c5d4 0f3d 47f5 973d 911c ec3c 8aaa 08bd
00000100: d1fd bb3c 6990 893d c683 8f3d a4fb cd3d
00000110: 70f2 3a3d c1e4 1c3b f507 d13c 00f9 2ebc
00000120: d34b 81bd 5921 2a3d f561 a3bd 1bf9 013e
00000130: 6b77 9d3c 7458 e53c 30f2 8bbd 741e 50bd
00000140: 8ccb de3d 2ea7 8c3c 1c3a a4bd ef7c e73d
00000150: 34b3 34bd 0ef9 98bc ad22 b43c 4890 cf3c
00000160: 0e2d 853b 6303 c2bd b764 5dbd e918 4ebd
00000170: 68f5 02bd cc60 043c 40af 723c 307d b53d
00000180: 13d1 3e3c 7b52 2b3d a91b f5bc 46fb ce3d
00000190: 1989 99bd ba8d ea3d d804 b03d c3e7 7cbd
000001a0: d05c 4ebd e584 983b 5e26 0d3e 9320 0d3e
000001b0: c381 833d ecb7 273d 0ceb 7abc 89f9 033d
000001c0: 3d38 acbd 6b21 dc3a d8b6 c5bc cf19 03bc
000001d0: 5b1e 2f3b 31d2 40bd 4d63 ec3d 2c69 773d
000001e0: 7888 c1bd 2490 803d 7872 2bbd ddf0 b9bd
000001f0: 5b20 523d a076 503d 91cb 39bc 384d dd3d

fc4.weight f4 [2, 128]
-0.13755283 0.14910404 0.008369301 0.105403475 -0.12608825 -0.1084028 0.05170968 -0.051977243
-0.11743486 -0.085969575 0.18387264 -0.18333924 0.07193995 0.059545755 -0.086531945 -0.13870364
0.122434445 -0.098096415 -0.033590153 -0.0012299626 -0.1000954 -0.07372551 -0.108325094 0.11794286
-0.11463136 -0.0074158483 -0.20053099 0.12684615 -0.08858052 -0.14755982 0.09559577 0.15396887
-0.10472857 -0.02990218 -0.09433824 0.021466073 0.11350533 0.10855605 -0.048807032 -0.29158202
-0.1355034 -0.20803261 -0.05108287 0.0036316128 0.09903523 -0.09933187 -0.07807153 -0.11123327
-0.024050768 0.06937329 -0.04366757 -0.0059059234 0.13886538 0.06340224 0.0019795995 -0.09961443
-0.20338055 -0.13177042 0.03576804 -0.061228074 0.098143056 -0.023822278 -0.063729234 -0.003155798
0.13582787 -0.1169925 -0.12867887 -0.10556768 -0.15742038 0.15495574 -0.114932485 -0.11247291
0.067415625 0.09709198 -0.0772054 -0.15016302 -0.12983648 -0.175792 0.025622463 -0.07840032
-0.12584697 0.122183844 0.008306662 -0.11400752 -0.09173392 0.15676628 -0.15684326 -0.0407368
0.08341138 0.06565386 -0.08240328 0.07292592 -0.15011568 0.10655214 0.012724588 -0.10173404
-0.06605602 -0.13967915 0.040009927 -0.106509544 0.06390477 -0.117753 -0.13613118 -0.14214993
0.20809624 0.10107347 -0.18845566 -0.25561956 -0.13781114 -0.072595105 -0.04094928 -0.17939009
0.09839404 -0.13822702 -0.020900648 -0.045439553 0.140653 -0.06323209 -0.09408183 0.08918737
-0.10832735 0.014330399 -0.0033515699 0.07100471 -0.14111823 0.10569641 -0.16261576 -0.13697596
-0.1172477 0.022192333 0.005276959 0.015604071 -0.071776286 -0.08717949 -0.06531038 -0.0978883
-0.22584435 -0.23181185 0.12585588 -0.11806142 0.04987059 0.027703175 0.3497433 -0.16348714
-0.022307023 -0.15710951 0.07823386 -0.10276893 0.121258326 -0.06220555 -0.109135 -0.025526438
-0.14950581 -0.017897818 -0.15362218 0.053686723 0.0706381 0.04252186 -0.054100294 0.111065134
-0.15927982 -0.11102369 0.4268595 0.0021842504 0.35195887 0.042785365 0.038224682 -0.19569032
-0.07747342 -0.19638127 0.041551616 -0.006381466 -0.072339565 -0.09476499 0.026067926 -0.06572927
-0.03600942 0.14292814 -0.13893901 -0.1324195 0.11396182 0.007456062 -0.06791769 -0.20219105
-0.09291665 0.07544501 -0.09136351 0.07397995 0.040846482 -0.2199926 -0.07882009 0.0088871475
0.16418648 -0.08340992 -0.15731679 -0.061412282 -0.08799487 0.15883105 0.08244277 0.015199125
0.022050714 0.17153268 -0.07819473 -0.13786902 0.18806732 -0.10127132 0.057354268 -0.19777055
-0.083677985 0.098075 0.050024483 -0.17870384 0.14675157 0.068490036 -0.04755143 -0.029430013
0.15338172 0.010848758 0.025558803 -0.040600732 -0.11707458 0.06100897 0.25641093 -0.026923414
0.10319 -0.1954019 -0.031080307 -0.15769647 -0.0222969 -0.065591455 0.19598524 0.10088422
-0.35698885 0.24276453 -0.1641969 -0.15603818 0.42551392 -0.16759783 -0.033899892 -0.07570016
0.17871366 0.11681276 -0.06036241 -0.0009353157 0.05321414 0.041419037 -0.09181549 -0.0066526234
0.2301054 -0.22027935 0.019068334 0.050832227 -0.08257348 0.1703789 -0.04921672 -0.0775661
00000000: a6da 0cbe bbae 183e 651f 093c c7dd d73d
00000010: 471d 01be 4a02 debd 88cd 533d 17e6 54bd
00000020: b081 f0bd d110 b0bd 1c49 3c3e 48bd 3bbe
00000030: 4155 933d 40e6 733d a937 b1bd 5408 0ebe
00000040: e9be fa3d c6e6 c8bd d495 09bd b236 a1ba
00000050: d1fe ccbd 66fd 96bd 8cd9 ddbd 078c f13d
00000060: d9c3 eabd a500 f3bb ff57 4dbe f5e3 013e
00000070: b469 b5bd ec19 17be b7c7 c33d 04aa 1d3e
00000080: ef7b d6bd 6bf5 f4bc 6834 c1bd 9ed9 af3c
00000090: 7c75 e83d a252 de3d e2e9 47bd 3d4a 95be
000000a0: 67c1 0abe 8006 55be 463c 51bd 5a00 6e3b
000000b0: fcd2 ca3d 826e cbbd f7e3 9fbd 45ce e3bd
000000c0: 1e06 c5bc 9513 8e3d c4dc 32bd 7a86 c1bb
000000d0: ba32 0e3e 09d9 813d 2bbc 013b a602 ccbd
000000e0: fe42 50be d3ee 06be 8281 123d 4aca 7abd
000000f0: 3aff c83d f026 c3bc 7984 82bd 81d1 4ebb
00000100: 7616 0b3e c499 efbd 65c4 03be de33 d8bd
00000110: cf32 21be b8ac 1e3e b961 ebbd 3258 e6bd
00000120: 3411 8a3d 29d8 c63d dd1d 9ebd 56c4 19be
00000130: dbf3 04be d102 34be 33e6 d13c 5990 a0bd
00000140: 07de 00be 863b fa3d aa18 083c c67c e9bd
00000150: fede bbbd 5787 203e 859b 20be a1db 26bd
00000160: 96d3 aa3d 8875 863d 0dc3 a8bd 2f5a 953d
00000170: edb7 19be 0238 da3d ca7a 503c f059 d0bd
00000180: 6148 87bd 0d08 0fbe 73e1 233d ad21 dabd
00000190: 81e0 823d 7c28 f1bd f965 0bbe c08f 11be
000001a0: 2e17 553e 9cff ce3d 85fa 40be 91e0 82be
000001b0: 5d1e 0dbe beac 94bd 6fba 27bd 09b2 37be
000001c0: d082 c93d 628b 0dbe d637 abbc d31e 3abd
000001d0: 5707 103e d37f 81bd f9ad c0bd dea7 b63d
000001e0: bbda ddbd 0dca 6a3c 03a6 5bbb eb6a 913d
000001f0: 4c81 10be 5c77 d83d bf84 26be 6d43 0cbe
00000200: 901f f0bd b2cc b53c 57ea ac3b 38a8 7f3c
00000210: 72ff 92bd 298b b2bd 73c1 85bd a979 c8bd
00000220: be43 67be 1660 6dbe 5de0 003e 30ca f1bd
00000230: 1b45 4c3d c5f1 e23c 8e11 b33e 2c69 27be
00000240: 38bd b6bc 51e1 20be 1339 a03d 8478 d2bd
00000250: 4956 f83d 3fcb 7ebd 2c82 dfbd d21c d1bc
00000260: 0d18 19be 729e 92bc 224f 1dbe 9ce6 5b3d
00000270: b5aa 903d 672b 2e3d 4598 5dbd 1e76 e33d
00000280: 401a 23be 6360 e3bd 548d da3e a425 0f3b
00000290: f433 b43e b53f 2f3d 7c91 1c3d 0b63 48be
000002a0: 62aa 9ebd 2c18 49be 0732 2a3d 9e1b d1bb
000002b0: c426 94bd 2614 c2bd 678c d53c 119d 86bd
000002c0: 9d7e 13bd c15b 123e 0746 0ebe fa98 07be
000002d0: d164 e93d fb51 f43b 6e18 8bbd 2c0b 4fbe
000002e0: 164b bebd ea82 9a3d cb1c bbbd cd82 973d
000002f0: a44e 273d bd45 61be 6d6c a1bd 669b 113c
00000300: 8020 283e d2d2 aabd a717 21be 728b 7bbd
00000310: a836 b4bd 9ba4 223e c1d7 a83d c005 793c
00000320: b3a3 b43c 43a6 2f3e 8f24 a0bd 892d 0dbe
00000330: b894 403e 5667 cfbd 4fec 6a3d 5d84 4abe
00000340: 5d5f abbd 8cdb c83d 79e6 4c3d 24fe 36be
00000350: 0b46 163e 8144 8c3d 4ac5 42bd 3617 f1bc
00000360: 1910 1d3e fdbe 313c b260 d13c f44c 26bd
00000370: ccc4 efbd 8be4 793d 4b48 833e 7e8e dcbc
00000380: 4755 d33d 7017 48be 219c febc 2f7b 21be
00000390: fda7 b6bc d054 86bd 5bb0 483e 639c ce3d
000003a0: 3ec7 b6be 4497 783e 3b23 28be 79c8 1fbe
000003b0: f6dc d93e c49e 2bbe 9dda 0abd af08 9bbd
000003c0: b700 373e 873b ef3d 933e 77bd f92f 75ba
000003d0: 12f7 593d 02a7 293d c209 bcbd 40fe d9bb
000003e0: c0a0 6b3e e990 61be 3235 9c3c 7435 503d
000003f0: 491c a9bd ce77 2e3e 7997 49bd fada 9ebd

fc4.bias f4 [2]
-0.085377045 0.037675764
00000000: 29da aebd e751 1a3d

fc1.weight f4 [128, 7]
0.27840295 -0.45229214 0.16514458 0.21342525 -0.24864917 0.17010477 0.22974738 0.06317147
0.3032073 0.017909743 0.25385436 0.07071388 0.085643575 0.15707582 -0.35653663 0.108334616
-0.1556433 -0.35627043 -0.2914347 -0.03469091 0.028346227 -0.27708626 0.2624343 0.04188228
0.019106464 -0.14251843 0.015911287 0.39854106 -0.03347254 0.33785045 -0.48843005 -0.06425254
-0.36057684 0.19743426 0.3718212 0.01986945 0.1401149 0.24400087 -0.2851526 0.077346705
-0.33852443 -0.099359736 0.13131872 -0.26044747 0.12714095 -0.23010299 -0.13682453 -0.36504945
-0.22799915 -0.005378797 0.11826091 -0.3227925 -0.3403698 0.13390175 0.19066134 0.36552852
-0.1284745 0.17436436 0.3756537 0.13721406 -0.30139384 0.40497392 0.14938112 -0.17233887
-0.29886657 0.28368592 -0.08656799 -0.22791815 -0.19700317 0.122116886 0.15260758 0.39650068
-0.0186464 0.35497937 0.3830028 -0.06552304 -0.45132944 0.1341898 -0.22047438 0.039861094
-0.1897374 -0.6335763 0.458456 -0.25365123 0.15793079 -0.36833045 0.35532176 -0.17853962
0.35399678 -0.27559012 -0.047553096 0.3110055 0.3489369 -0.18628596 -0.27615038 0.30213803
0.15744506 -0.19603446 0.20667832 -0.2911759 -0.15300615 -0.13048922 0.04513377 0.38713366
-0.1236349 0.112397626 -0.18517843 0.24019745 0.19348519 -0.13988653 0.3837338 -0.17045169
0.026615364 0.20008822 -0.10823795 -0.43455404 0.0053409827 -0.2675024 0.22211218 0.4907587
0.24425839 0.29330945 -0.19078533 -0.3616324 0.11952978 -0.19592741 0.10841778 -0.10741883
-0.6920726 0.07189551 -0.009141886 -0.37714472 0.106535405 0.0044574765 -0.25220478 -0.13664971
0.12573409 -0.29830423 -0.18599388 -0.1717035 -0.19060388 -0.18248004 0.18635488 -0.102482066
-0.273606 0.24104953 -0.3263067 -0.18017118 -0.08334815 -0.30783615 -0.028560517 -0.2773768
0.10874765 -0.1313946 0.18981133 0.3542742 -0.22093716 -0.15489611 -0.16020101 -0.111325696
0.26643193 -0.49436814 -0.18653403 -0.04040098 0.17292127 0.34025764 0.28799865 -0.42120627
0.13057815 -0.3739684 -0.23279499 0.10948475 0.13312043 0.017154709 0.06718916 0.056534953
-0.0018601851 -0.7387263 -0.21167356 0.004526188 -0.3425693 0.18044111 0.08914395 0.11639272
-0.23871899 0.14884263 0.27409217 0.26567408 -0.17000955 -0.04630211 -0.23054923 0.3979576
-0.26498395 -0.34939393 0.011728753 -0.22935002 0.26684535 0.16231522 -0.1325408 -0.021328403
-0.22138889 0.11457856 0.12765892 -0.31109113 -0.19302672 0.31453657 -0.16051807 0.44385773
-0.1565866 -0.1387507 -0.36071357 0.34040555 -0.37716952 -0.03726294 0.059434526 0.10401916
-0.20751719 -0.08685177 -0.17299777 -0.051476356 -0.14885058 -0.36402485 0.18221433 -0.20525381
-0.1882996 0.2655493 -0.5708773 0.2549908 0.30584177 0.16103867 0.121718995 0.20457664
-0.047299437 -0.45427045 -0.073494665 0.3724021 0.0066464157 0.36525115 -0.050957255 -0.08133543
-0.15542863 -0.12721615 -0.292197 -0.12115465 0.45263603 0.23388211 0.44673967 -0.031060403
0.25509197 0.23712893 0.31444147 0.320612 -0.29723886 0.33089092 0.36452946 0.3059664
00000000: d58a 8e3e d692 e7be a91b 293e 268c 5a3e
00000010: e39d 7ebe f22f 2e3e e642 6b3e 0b60 813d
00000020: fd3d 9b3e 74b7 923c 33f9 813e 70d2 903d
00000030: e665 af3d 7cd8 203e f88b b6be 8ade dd3d
00000040: f560 1fbe 1469 b6be ee36 95be 0e18 0ebd
00000050: 5936 e83c 40de 8dbe ca5d 863e c18c 2b3d
00000060: 2985 9c3c 5af0 11be 6358 823c 930d cc3e
00000070: 811a 09bd bcfa ac3e 8113 fabe d696 83bd
00000080: 879d b8be 352c 4a3e 595f be3e 42c5 a23c
00000090: 487a 0f3e 5ddb 793e 86ff 91be f367 9e3d
000000a0: 1353 adbe 1e7d cbbd 6a78 063e 5f59 85be
000000b0: 3d31 023e 1ea0 6bbe bb1b 0cbe c3e7 babe
000000c0: 9c78 69be 9f40 b0bb c732 f23d 0f45 a5be
000000d0: f344 aebe 8a1d 093e ba3c 433e 8e26 bb3e
000000e0: d28e 03be 928c 323e af55 c03e d881 0c3e
000000f0: 4b50 9abe be58 cf3e 5df7 183e 9a79 30be
00000100: 0a05 99be 483f 913e 8f4a b1bd 6063 69be
00000110: 33bb 49be 6b18 fa3d 2945 1c3e 2302 cb3e
00000120: 56c0 98bc dbbf b53e f118 c43e f230 86bd
00000130: a714 e7be 0d69 093e 09c4 61be 6345 233d
00000140: 854a 42be 0e32 22bf bfba ea3e 93de 81be
00000150: 9cb8 213e cf95 bcbe bcec b53e 17d3 36be
00000160: 113f b53e 261a 8dbe 09c7 42bd 1d3c 9f3e
00000170: dba7 b23e bfc1 3ebe 9563 8dbe d6b1 9a3e
00000180: 4739 213e 42bd 48be 7ba3 533e 0215 95be
00000190: a5ad 1cbe f79e 05be 30de 383d 6236 c63e
000001a0: 4b34 fdbd ba30 e63d 6a9f 3dbe 52f6 753e
000001b0: fb20 463e 6a3e 0fbe c278 c43e e38a 2ebe
000001c0: 7708 da3c ede3 4c3e dcab ddbd de7d debe
000001d0: 6903 af3b 13f6 88be 6071 633e b944 fb3e
000001e0: df1e 7a3e a82c 963e 3b5d 43be e227 b9be
000001f0: 07cc f43d 32a1 48be 240a de3d 67fe dbbd
00000200: ab2b 31bf f43d 933d d9c7 15bc 1d19 c1be
00000210: 3c2f da3d 0610 923b fc20 81be e7ed 0bbe
00000220: 70c0 003e 55bb 98be 2e75 3ebe 0bd3 2fbe
00000230: aa2d 43be 0cdc 3abe d0d3 3e3e 1ee2 d1bd
00000240: 1616 8cbe b0d5 763e ac11 a7be cb7e 38be
00000250: 6fb2 aabd b39c 9dbe bff7 e9bc 5504 8ebe
00000260: 17b7 de3d 4e8c 06be e75d 423e 6e63 b53e
00000270: 5a3d 62be 169d 1ebe bc0b 24be bafe e3bd
00000280: c469 883e d21d fdbe c702 3fbe 7f7b 25bd
00000290: 4612 313e 4036 ae3e 8f74 933e 59a8 d7be
000002a0: 47b6 053e c978 bfbe cf61 6ebe 8a39 e03d
000002b0: b950 083e 0888 8c3c 789a 893d 3291 673d
000002c0: 74d1 f3ba 2b1d 3dbf f4c0 58be 6b50 943b
000002d0: 3e65 afbe 8ec5 383e 1a91 b63d 4e5f ee3d
000002e0: c072 74be 346a 183e cf55 8c3e 6f06 883e
000002f0: fc16 2ebe 48a7 3dbd 1915 6cbe 19c1 cb3e
00000300: faab 87be c3e3 b2be f529 403c bbda 6abe
00000310: f49f 883e f635 263e c7b8 07be e7b8 aebc
00000320: c5b3 62be 2aa8 ea3d 05b9 023e 5647 9fbe
00000330: cca8 45be f00a a13e d95e 24be 5241 e33e
00000340: 3d58 20be aa14 0ebe 73af b8be a349 ae3e
00000350: 5d1c c1be 06a1 18bd 9e71 733d ff07 d53d
00000360: 637f 54be 57df b1bd 5426 31be dfd8 52bd
00000370: 496c 18be 7761 babe 6596 3a3e 0e2e 52be
00000380: 9cd1 40be 14f6 873e 0425 12bf 278e 823e
00000390: 4b97 9c3e 52e7 243e cf47 f93d 8a7c 513e
000003a0: 0ebd 41bd 2396 e8be 5f84 96bd 7dab be3e
000003b0: 2dca d93b 3302 bb3e 8eb8 50bd 3193 a6bd
000003c0: af28 1fbe f344 02be d89a 95be ee1f f8bd
000003d0: e9bf e73e cb7e 6f3e 10bb e43e 6372 febc
000003e0: 6a9b 823e edd1 723e 79fe a03e 4227 a43e
000003f0: b12f 98be 896a a93e 9ba3 ba3e a1a7 9c3e

fc1.bias f4 [128]
-0.28622952 0.041790668 0.103148796 -0.09624694 0.31708124 -0.33989868 0.039171457 0.18659575
-0.019202862 -0.062470775 0.16466731 0.1286973 -0.38430262 -0.0599244 -0.21762252 -0.27431673
-0.15539193 -0.27011082 0.24313398 0.06641694 -0.21716374 -0.075315766 0.22299583 0.039250504
-0.09389655 0.24655877 0.31830743 0.34663498 0.056631837 0.2511719 -0.2200316 -0.34659618
-0.013640409 0.10021497 0.0026515292 0.3169754 0.2662333 0.19638965 0.042735115 0.005830019
0.3302567 0.2698864 0.0047414834 0.40759802 -0.12674025 0.21921715 0.21164213 0.043600976
-0.33054644 0.1299033 -0.0017005946 -0.36920545 -0.20489433 -0.4295717 -0.08695998 0.09136688
-0.2756977 -0.3262021 -0.3765149 0.32041207 0.11714376 -0.19837658 -0.068959236 -0.08152271
-0.0808137 0.18513137 -0.07052329 -0.13632347 -0.15051407 -0.083440185 0.24469782 0.009552138
-0.17078705 -0.0230331 0.13961275 -0.3375939 0.1921576 0.028528437 0.067254655 -0.1520947
0.29350173 -0.09806486 0.27011037 -0.3098709 -0.04050195 0.29666096 -0.17116526 -0.1981062
0.35334367 0.08652663 -0.078689575 -0.2407642 0.3227798 0.3788183 -0.05812918 0.20069793
-0.36437285 0.31239527 0.13105106 -0.017709069 0.12115713 0.34528366 0.2074588 -0.061149545
0.12733197 -0.1480534 -0.18860823 0.28840253 0.256122 -0.2836745 -0.14600962 0.289796
0.2825635 0.18685946 0.3389561 -0.3392244 -0.011313899 -0.051565703 0.28225562 -0.09392915
0.09179501 -0.014573729 -0.19351748 0.08978993 -0.19154976 -0.1965461 0.27650118 -0.29031447
00000000: ad8c 92be b12c 2b3d ad3f d33d 1e1d c5bd
00000010: 7958 a23e 3307 aebe 4072 203d f512 3f3e
00000020: 524f 9dbc 5be1 7fbd 8c9e 283e 3ac9 033e
00000030: 50c3 c4be 4a73 75bd 70d8 5ebe 3e73 8cbe
00000040: 101f 1fbe f74b 8abe 1df8 783e 9b05 883d
00000050: 2c60 5ebe 273f 9abd 0559 643e 23c5 203d
00000060: d64c c0bd e779 7c3e 31f9 a23e 247a b13e
00000070: c9f6 673d 9a99 803e f74f 61be 0e75 b1be
00000080: 067c 5fbc 823d cd3d 47c5 2d3b 9a4a a23e
00000090: bb4f 883e 5e1a 493e 040b 2f3d be09 bf3b
000000a0: 6817 a93e 8d2e 8a3e 725e 9b3b b0b0 d03e
000000b0: 32c8 01be 767a 603e b7b8 583e f096 323d
000000c0: 623d a9be 5f05 053e 7ce6 deba 7f08 bdbe
000000d0: d2cf 51be d2f0 dbbe 1318 b2bd 8f1e bb3d
000000e0: 4028 8dbe f603 a7be 90c6 c0be 0d0d a43e
000000f0: 11e9 ef3d 3b23 4bbe 803a 8dbd 61f5 a6bd
00000100: a781 a5bd 1493 3d3e 846e 90bd 6198 0bbe
00000110: 5c20 1abe b0e2 aabd 1192 7a3e 9280 1c3c
00000120: cde2 2ebe e9af bcbc a5f6 0e3e 1cd9 acbe
00000130: f6c4 443e 78b4 e93c cfbc 893d b7be 1bbe
00000140: dc45 963e 3bd6 c8bd e84b 8a3e 66a7 9ebe
00000150: 5fe5 25bd f2e3 973e f245 2fbe 5adc 4abe
00000160: 76e9 b43e e034 b13d 0028 a1bd e48a 76be
00000170: 6543 a53e 79f4 c13e dd18 6ebd c283 4d3e
00000180: 148f babe 46f2 9f3e 4032 063e 9c12 91bc
00000190: 3b21 f83d 05c9 b03e 1470 543e f277 7abd
000001a0: 5063 023e 4f9b 17be 8422 41be 7fa9 933e
000001b0: 6c22 833e c93d 91be 8c83 15be 2460 943e
000001c0: 2aac 903e 1658 3f3e a78b ad3e d2ae adbe
000001d0: ef5d 39bc 8f36 53bd cf83 903e ed5d c0bd
000001e0: 06ff bb3d a6c6 6ebc 7229 46be c8e3 b73d
000001f0: 9f25 44be 6143 49be 9091 8d3e 19a4 94be

fc2.weight f4 [128, 128]
0.21837796 -0.024437584 -0.0021160562 -0.016579803 -0.04255079 -0.0507785 -0.07250786 -0.035408363
-7.966583e-05 0.046412587 -0.046408318 0.2213557 -0.030139424 0.11617183 0.021559138 0.095617376
0.021106174 0.15432449 0.033264976 -0.025867501 0.032200836 0.014399945 0.008219226 -0.12166525
-0.17845054 -0.12202483 0.052880816 0.093426086 0.10553841 -0.13123888 0.051567953 -0.006857798
-0.106824115 -0.077374645 -0.047722775 -0.065431505 0.06876798 0.026696738 0.18119635 -0.039282165
0.1496572 0.013215655 0.07212696 0.17545882 0.018518806 0.0028203488 -0.054433245 -0.025217505
0.005702869 -0.06434345 -0.101235606 -0.0382364 0.08091889 -0.058692697 0.06740776 -0.017501246
0.0015172759 -0.04597353 0.045161318 -0.0001575718 0.13891754 -0.24818984 -0.016761394 0.10536024
-0.202206 -0.02769287 0.024065398 0.12022638 -0.08626096 0.1286323 -0.0076585836 -0.09751975
0.016893126 0.032267082 -0.13128665 0.23191582 -0.013952484 0.17926018 0.12626965 -0.048107635
-0.023747616 -0.23702274 -0.01689077 0.034845497 0.19811551 -0.025208373 0.033079986 0.11929609
0.13669133 0.20020068 0.0402628 0.010398713 0.05575745 -0.039948627 -0.049235083 0.0108669605
0.048433747 -0.06741563 -0.006446063 -0.017787475 -0.10809409 -0.06464056 0.23752415 -0.047524545
-0.113142364 -0.052478928 0.14556955 -0.035601534 0.1891624 0.12561752 0.14174272 -0.03835948
-0.102968246 0.017163893 0.22485194 -0.14958689 -0.027709397 0.06771885 0.071276404 -0.058843955
-0.11305734 0.08094412 0.17748792 0.053323057 -0.19859424 -0.096837945 0.13863257 0.050396007
-0.12413848 0.054722503 0.04401094 0.08110617 -0.12528841 -0.08399237 -0.08820226 -0.043605756
-0.03623129 0.0883572 0.07771853 -0.055130314 -0.08625961 0.027412018 -0.14424674 0.08808695
0.07468743 -0.064147174 0.020519365 0.06473647 0.05707611 -0.017779522 -0.17365667 0.00010357599
-0.014570631 -0.17781457 0.025251772 0.047538638 -0.060523406 0.17235051 -0.016743952 -0.025041107
-0.1071405 -0.016514765 -0.1823834 0.115676135 -0.0014962903 0.23262496 -0.20240997 -0.029709248
0.18979934 0.113808095 0.03276009 -0.10934169 0.08765549 0.081267945 -0.010716075 -0.11251757
-0.04913721 -0.08160074 -0.2467523 0.08257179 0.08247603 0.05879274 0.015744042 0.17302568
-0.06483781 0.08777608 0.083293974 0.09402733 -6.743411e-05 0.27400634 0.13045357 0.087426186
0.18841006 0.025287557 -0.08092632 0.06817486 0.048862897 0.15916395 0.11653236 -0.18588768
0.08588141 0.46094602 0.029478878 -0.13259208 0.06126746 -0.075808726 -0.111695625 -0.006029665
-0.07142856 0.2556523 -0.04959802 -0.0019872633 -0.25083908 0.053393334 -0.05342784 -0.12388763
-0.03687675 0.0253397 0.024585966 -0.072362565 0.11333533 -0.005926492 -0.073507294 0.03187828
-0.0066747754 0.06953527 0.0722584 -0.055153184 -0.11197169 -0.017632056 -0.017249381 0.17749855
0.1872728 -0.025748009 0.07541485 0.071242504 0.077716455 -0.31733063 0.039803848 -0.16652517
0.045697805 -0.0828729 0.013012943 -0.06363379 -0.009286554 -0.043401875 0.06354864 0.055973962
-0.03763692 0.04664753 -0.116768934 -0.024003303 -0.13233618 0.046852056 0.034660336 -0.0560758
00000000: 799e 5f3e 5431 c8bc 88ad 0abb 5ed2 87bc
00000010: bd49 2ebd 1efd 4fbd 007f 94bd 5c08 11bd
00000020: 4412 a7b8 201b 3e3d a616 3ebd 12ab 623e
00000030: f4e6 f6bc 7feb ed3d ca9c b03c 0bd3 c33d
00000040: dbe6 ac3c 3d07 1e3e db40 083d 15e8 d3bc
00000050: 06e5 033d bfed 6b3c efa9 063c a12b f9bd
00000060: bdbb 36be 27e8 f9bd 8e99 583d 2d56 bf3d
00000070: 8624 d83d 7c63 06be eb38 533d 61b7 e0bb
00000080: 9ac6 dabd 9976 9ebd f578 43bd f400 86bd
00000090: 3ad6 8c3d 1eb3 da3c 898b 393e 56e6 20bd
000000a0: bd3f 193e 7a86 583c 4db7 933d 7aab 333e
000000b0: c0b4 973c 9ad5 383b 65f5 5ebd f194 cebc
000000c0: 22df ba3b 80c6 83bd 9d54 cfbd c59d 1cbd
000000d0: ceb8 a53d c167 70bd 140d 8a3d c65e 8fbc
000000e0: 55df c63a bd4e 3cbd 13fb 383d dc39 25b9
000000f0: 6640 0e3e 7a25 7ebe 314f 89bc 1cc7 d73d
00000100: 170f 4fbe 28dc e2bc cc24 c53c 4039 f63d
00000110: 96a9 b0bd 30b8 033e dbf4 fabb 6fb8 c7bd
00000120: 7463 8a3c 7d2a 043d 0270 06be 577b 6d3e
00000130: f698 64bc fb8f 373e d54c 013e 830c 45bd
00000140: 5c8a c2bc 17b6 72be 835e 8abc 27ba 0e3d
00000150: cbde 4a3e ca81 cebc e17e 073d 8251 f43d
00000160: d0f8 0b3e 6801 4d3e 9bea 243d 5d5f 2a3c
00000170: ed61 643d 2ca1 23bd baaa 49bd 560b 323c
00000180: 7762 463d 3511 8abd 7f39 d3bb 0ab7 91bc
00000190: 6f60 ddbd 4562 84bd 8839 733e 19a9 42bd
000001a0: 2fb7 e7bd 25f4 56bd 2f10 153e ead2 11bd
000001b0: cab3 413e e1a1 003e 0125 113e d51e 1dbd
000001c0: 04e1 d2bd 4b9b 8c3c 963f 663e 4e2d 19be
000001d0: d1fe e2bc 2eb0 8a3d 5df9 913d 5c06 71bd
000001e0: 9b8a e7bd 08c6 a53d 65bf 353e 4769 5a3d
000001f0: 4a5c 4bbe f952 c6bd b2f5 0d3e 0b6c 4e3d
00000200: 513c febd b424 603d d144 343d fe1a a63d
00000210: 9b4b 00be 3104 acbd 63a3 b4bd f39b 32bd
00000220: 4367 14bd 9ff4 b43d e52a 9f3d 53d0 61bd
00000230: e1a8 b0bd 2b8f e03c 6bb5 13be ee66 b43d
00000240: b9f5 983d 985f 83bd 3a18 a83c 8e94 843d
00000250: a4c8 693d 5ca6 91bc 0ed3 31be f036 d938
00000260: a8b9 6ebc 0615 36be cedc ce3c e0b7 423d
00000270: 64e7 77bd a77c 303e 9d2a 89bc 0223 cdbc
00000280: 7a6c dbbd f949 87bc b7c2 3abe 9ce7 ec3d
00000290: 2c1f c4ba 3d35 6e3e 8f44 4fbe cf60 f3bc
000002a0: c25a 423e 3814 e93d 722f 063d 89ee dfbd
000002b0: b984 b33d cf6f a63d 7a92 2fbc 9d6f e6bd
000002c0: 1944 49bd 4a1e a7bd a3ac 7cbe 661b a93d
000002d0: 31e9 a83d a8d0 703d a6f9 803c a52d 313e
000002e0: b0c9 84bd f2c3 b33d 0896 aa3d 6791 c03d
000002f0: 6a6b 8db8 8f4a 8c3e 9f95 053e 800c b33d
00000300: 91ee 403e da27 cf3c b3bc a5bd 439f 8b3d
00000310: 7624 483d e0fb 223e 85a8 ee3d 5759 3ebe
00000320: 98e2 af3d 1e01 ec3e b07d f13c 38c6 07be
00000330: 97f3 7a3d 9b41 9bbd adc0 e4bd 7f94 c5bb
00000340: 2349 92bd dce4 823e 4b27 4bbd bf3c 02bb
00000350: fb6d 80be f8b2 5a3d 27d7 5abd ccb8 fdbd
00000360: 130c 17bd 3495 cf3c 8268 c93c d332 94bd
00000370: 5a1c e83d 0533 c2bb fe8a 96bd cd92 023d
00000380: 13b8 dabb 8268 8e3d 36fc 933d 4ee8 61bd
00000390: 6a51 e5bd 1a71 90bc 934e 8dbc 2ec2 353e
000003a0: 71c4 3f3e 7ded d2bc 1a73 9a3d 97e7 913d
000003b0: ce29 9f3d 2979 a2be 5c09 233d 9385 2abe
000003c0: 9f2d 3b3d 44b9 a9bd 3d34 553c 6f52 82bd
000003d0: a126 18bc 2ac6 31bd ca25 823d f444 653d
000003e0: 2c29 1abd 7b11 3f3d 8d24 efbd 93a2 c4bc
000003f0: 2383 07be f1e7 3f3d fff7 0d3d bdaf 65bd
