flappybird_dqn_ep30.pth (torch, 561683 bytes, 32 tensors)

fc1.weight f4 [128, 7]
00000000: e040 923e 144c a7be 6b7f 283e c0da 733e
00000010: 6176 46be a661 253e d2e7 5a3e 8bab c73d
00000020: 793b 603e 0822 73bd 886d 9f3e 3704 093e
00000030: e537 ec3d 911e 3f3e f88b b6be 8ade dd3d
00000040: f560 1fbe 1469 b6be ee36 95be 0e18 0ebd
00000050: 5936 e83c debd 87be 8c87 4f3e 931e 643d
00000060: 2d40 033d 29e3 1fbe 36db f93c 50c0 c13e
00000070: ef69 49bd 2346 ae3e 71c3 fbbe d54b b9bc
00000080: 674e abbe ee72 343e 5b81 b33e 42c5 a23c
00000090: 487a 0f3e 5ddb 793e 86ff 91be f367 9e3d
000000a0: 1353 adbe 1e7d cbbd 6a78 063e 5f59 85be
000000b0: 3d31 023e 1ea0 6bbe bb1b 0cbe c3e7 babe
000000c0: 9c78 69be 2808 ab3c cf7e b03d 0da1 adbe
000000d0: 7d01 9dbe 78ab 443e 9db9 4e3e 5b25 b43e
000000e0: b986 15be cc3d 3c3e 6d55 be3e 76fe 173e
000000f0: cb75 8dbe 1a5e c53e 755d ff3d 9a79 30be
00000100: 0a05 99be 483f 913e 8f4a b1bd 6063 69be
00000110: 33bb 49be 6b18 fa3d 4351 183e 94b1 bd3e
00000120: d4d5 f2bd 1518 b63e e366 c43e 7f00 93bd
00000130: aec6 d1be 76f7 873d b367 243e d886 9a3b
00000140: f100 71be 012f 28bf 5a9d c63e 82b0 a0be
00000150: a61b 313e cf95 bcbe ea9f bd3e c070 27be
00000160: 1cf2 bc3e f866 85be 0d3a 05bd f9f9 a83e
00000170: a3ba a13e 7258 5dbe ce00 88be c2bd 963e
00000180: 6c00 373e c646 18be 6192 2d3e 5e86 a3be
00000190: 338b 00be c2b1 12be 6d5c 3c3d 14ac c23e
000001a0: aa56 d3bd 55a6 903d 9692 0abe bb25 8c3e
000001b0: 0659 473e b43c bbbd f040 b93e f8e0 3cbe
000001c0: 62be 503d f230 623e 1f81 b4bd e061 d1be
000001d0: c9e5 013d 92e7 77be d6ca 7e3e 0681 e03e
000001e0: 7ed7 9a3e db9f 8d3e 7eee 6cbe 39a4 93be
000001f0: 8dd7 bd3d 1f9a 79be b61d f13d 05c4 e0bd
00000200: f73d 05bf 91d4 d43d accf 1dbb 5b4b b7be
00000210: eb1b 023e 0610 923b fc20 81be e7ed 0bbe
00000220: 70c0 003e 55bb 98be 2e75 3ebe 0bd3 2fbe
00000230: aa2d 43be 0cdc 3abe d0d3 3e3e 1ee2 d1bd
00000240: 1616 8cbe b0d5 763e ac11 a7be cb7e 38be
00000250: 6fb2 aabd b39c 9dbe bff7 e9bc 5504 8ebe
00000260: 17b7 de3d 4e8c 06be 4d0f 203e afc4 af3e
00000270: 4e2b 36be cf7d 0fbe d074 0ebe 8173 febd
00000280: aa26 7e3e 062b d1be 793b 0abe 801b 83be
00000290: ec2e 1b3e 1bcd 9c3e a545 8a3e 09b9 c3be
000002a0: c2f1 e83d fa8c b4be b4a8 91be a74c 8f3d
000002b0: fe01 dd3d 9afd 05bc 0438 8d3d 677b 563d
000002c0: 135c 393d deab d7be a13c 71be 982f 00bd
000002d0: 04f1 c0be 72d7 1c3e d0a7 cc3d 168e b33d
000002e0: d50a 88be 4cfd 2c3e 8738 a13e 8090 943e
000002f0: ae37 d9bd 8b28 c5bd f6e5 8fbe 9899 c63e
00000300: 6402 6ebe c87c 95be 7c14 fe3c 58d4 4dbe
00000310: b0c3 643e d559 443e 0625 b3bd d2f4 6abc
00000320: e7ce 3bbe fe6b e53d 369c 143e 5b45 8abe
00000330: 3a6c 61be b0bd 883e 4189 3fbe 6e0b ac3e
00000340: c919 32be 957f 1fbe 73af b8be a349 ae3e
00000350: 5d1c c1be 06a1 18bd 9e71 733d ff07 d53d
00000360: 637f 54be 57df b1bd 5426 31be dfd8 52bd
00000370: 496c 18be 7761 babe 6596 3a3e 0e2e 52be
00000380: 44fc 36be 9dc2 8e3e 33e4 0fbf dbcd 6e3e
00000390: 7c67 953e 7603 1d3e fdd4 093e e267 6f3e
000003a0: 4a9b aebc 8631 f5be 9b51 bebd cb36 b23e
000003b0: 5a16 3a3a bd06 af3e 4798 35bd 2def 10be
000003c0: 1262 0ebe 4810 cebd 5cd6 80be c4d4 d2bd
000003d0: 4e31 e43e 43be 8e3e 5c13 bb3e 3229 98bd
000003e0: d3a1 943e 7307 9b3e 4648 b13e 2161 a33e
000003f0: 4756 84be e512 973e ffd1 9d3e 8507 9b3e
0.2856512 -0.3267523 0.16454856 0.23813915 -0.19381095 0.16150531 0.21377495 0.09749516
0.21897687 -0.059358627 0.31138253 0.13380514 0.115340985 0.18664004 -0.35653663 0.108334616
-0.1556433 -0.35627043 -0.2914347 -0.03469091 0.028346227 -0.26512045 0.20266551 0.05569322
0.032043625 -0.15613998 0.030500036 0.37842035 -0.04917329 0.34037885 -0.49172547 -0.022619167
-0.33458254 0.17621967 0.35059628 0.01986945 0.1401149 0.24400087 -0.2851526 0.077346705
-0.33852443 -0.099359736 0.13131872 -0.26044747 0.12714095 -0.23010299 -0.13682453 -0.36504945
-0.22799915 0.020877913 0.08617937 -0.33911934 -0.30665198 0.19206035 0.20187993 0.3518475
-0.14602174 0.18382949 0.3717455 0.14843163 -0.2762893 0.38548356 0.124689974 -0.17233887
-0.29886657 0.28368592 -0.08656799 -0.22791815 -0.19700317 0.122116886 0.14874749 0.37049544
-0.11857191 0.35565248 0.38359746 -0.07177829 -0.40971893 0.06638996 0.16055183 0.0047157817
-0.23535515 -0.6569672 0.38791925 -0.31384665 0.17295703 -0.36833045 0.37036067 -0.16351604
0.36903465 -0.2605512 -0.032526065 0.33003214 0.31587705 -0.2161577 -0.26563114 0.2944165
0.17871255 -0.14870748 0.1695037 -0.31938452 -0.125531 -0.14325622 0.04598658 0.3802191
-0.10319264 0.07062975 -0.1353248 0.27372536 0.19467553 -0.091424376 0.36182356 -0.18445194
0.050962813 0.22088984 -0.088136904 -0.40894985 0.03171328 -0.24209431 0.24882063 0.43848437
0.30242532 0.27661023 -0.23137853 -0.2883623 0.09269629 -0.24375199 0.11773245 -0.10974888
-0.52047676 0.10392106 -0.002408008 -0.3579968 0.12705962 0.0044574765 -0.25220478 -0.13664971
0.12573409 -0.29830423 -0.18599388 -0.1717035 -0.19060388 -0.18248004 0.18635488 -0.102482066
-0.273606 0.24104953 -0.3263067 -0.18017118 -0.08334815 -0.30783615 -0.028560517 -0.2773768
0.10874765 -0.1313946 0.15630837 0.34329745 -0.17789957 -0.14012836 -0.13911748 -0.12424374
0.24819437 -0.40853137 -0.1349925 -0.25606918 0.15154618 0.30625233 0.2700626 -0.38227108
0.11374237 -0.35263807 -0.28449023 0.06997042 0.107913956 -0.008178139 0.0689545 0.05236378
0.045253824 -0.42123312 -0.23558284 -0.03129539 -0.3768388 0.15316561 0.09992945 0.08767335
-0.26570764 0.168935 0.3148844 0.29016495 -0.10606323 -0.096268736 -0.28105134 0.38789058
-0.232431 -0.29196763 0.031015627 -0.20100534 0.22340274 0.19174893 -0.08747296 -0.014340596
-0.18340646 0.112022385 0.14512715 -0.2700604 -0.22013941 0.2670722 -0.18704702 0.3360247
-0.17392649 -0.15576012 -0.36071357 0.34040555 -0.37716952 -0.03726294 0.059434526 0.10401916
-0.20751719 -0.08685177 -0.17299777 -0.051476356 -0.14885058 -0.36402485 0.18221433 -0.20525381
-0.17869669 0.27882853 -0.5620758 0.23320715 0.29180515 0.15333351 0.13460155 0.23379472
-0.021314282 -0.47889346 -0.09292909 0.3480743 0.00070986676 0.34184828 -0.044334676 -0.14153738
-0.13904598 -0.10061699 -0.25163543 -0.10294488 0.44568866 0.27879533 0.36538208 -0.074297324
0.29029712 0.3027912 0.34625453 0.3191004 -0.25847074 0.29506603 0.30824277 0.30279174

fc1.bias f4 [128]
00000000: 95eb 82be 9ae8 c13d ad3f d33d eefb b1bd
00000010: 01d2 a63e 3307 aebe 4072 203d f19c 5e3e
00000020: 6f0c 3cbc 5be1 7fbd 51a8 293e 03ea 633d
00000030: 2210 bdbe 2f66 69bd d812 76be 4c9d 84be
00000040: 6bcb 04be 5409 9cbe 29a8 7e3e 9b05 883d
00000050: 2c60 5ebe 273f 9abd ae2d 603e ff0a 123d
00000060: 896e f4bd d55d 633e 5e60 b13e 602c b53e
00000070: f6ad 653d 55a1 763e f74f 61be 0e75 b1be
00000080: acf4 c4bc 6fb1 c43d dcc5 933c 989a ba3e
00000090: b48d 933e 0586 4c3e 561f 463d 757a 8b3c
000000a0: 8dca ad3e 1935 853e a1a9 933c 1cca cd3e
000000b0: eddb 85bd bce3 813e 7ecb 713e 925f 563d
000000c0: 623d a9be 5f05 053e 06a8 b43b 7f08 bdbe
000000d0: d2cf 51be 5703 d6be 7e49 49bd 2b4c cb3d
000000e0: 4028 8dbe f603 a7be 90c6 c0be 62ea ba3e
000000f0: db95 f23d f621 5cbe 8145 d6bd 2166 65bd
00000100: 6b2d a2bd c8c1 563e 846e 90bd 3463 26be
00000110: 5c20 1abe bffd cbbd 74a3 7b3e 655d a83c
00000120: c136 2cbe 87b9 0cbc 6f54 143e 92b3 b6be
00000130: 5ecb 523e ad69 4f3d 7246 bb3d b7be 1bbe
00000140: 0cfb 983e b451 d8bd 8428 953e 876b 97be
00000150: 9e7c 02bd 0662 a13e f245 2fbe 977e 5fbe
00000160: f982 c13e 9169 9e3d cfbe 69bd e48a 76be
00000170: 9b41 ac3e ce56 c23e dd18 6ebd 077c 513e
00000180: 148f babe b69b a93e 4090 003e eccb aabd
00000190: e14a 0c3e 0349 be3e 01fc 593e efeb a3bd
000001a0: 2154 ef3d a06a 06be f21b 47be 56fb 993e
000001b0: 37b9 823e 806e 8ebe 73db 30be 727b 9a3e
000001c0: d7cd 973e 4216 7a3e 5253 b33e c743 abbe
000001d0: 886e 4e3b 8f36 53bd 2197 8f3e 9804 75bd
000001e0: 82d2 d93d a6c6 6ebc d558 3dbe b9da cc3d
000001f0: faad 5fbe be0c 44be f624 a93e 19a4 94be
-0.2557036 0.09468193 0.103148796 -0.0869063 0.32582095 -0.33989868 0.039171457 0.21739556
-0.011477574 -0.062470775 0.16568114 0.055643093 -0.3692637 -0.056982215 -0.24030626 -0.25901258
-0.12968223 -0.30475867 0.24868836 0.06641694 -0.21716374 -0.075315766 0.21892425 0.035655018
-0.119351454 0.22203763 0.34643835 0.35385418 0.056074105 0.24084981 -0.2200316 -0.34659618
-0.02404245 0.09604155 0.018038683 0.3644607 0.28819048 0.19973 0.048369728 0.017026166
0.33943596 0.26017073 0.018025221 0.4019326 -0.06536088 0.2536906 0.23612782 0.052337237
-0.33054644 0.1299033 0.005513194 -0.36920545 -0.20489433 -0.41799423 -0.049142353 0.09926637
-0.2756977 -0.3262021 -0.3765149 0.36506945 0.11844989 -0.2149733 -0.104624756 -0.0560056
-0.07918819 0.20972359 -0.07052329 -0.1624878 -0.15051407 -0.099605076 0.24574071 0.020552346
-0.16817762 -0.008589155 0.14485334 -0.35683876 0.20585391 0.05063789 0.09144296 -0.1520947
0.29879034 -0.10562459 0.29132473 -0.29574224 -0.031857125 0.31520098 -0.17116526 -0.21825634
0.37795237 0.07734979 -0.057066735 -0.2407642 0.33643803 0.37956852 -0.05812918 0.20457469
-0.36437285 0.3312661 0.12555027 -0.08339676 0.13700439 0.3716508 0.21287538 -0.08003985
0.11685968 -0.13126612 -0.19444254 0.30074567 0.25531933 -0.2781868 -0.17271213 0.30172306
0.2964923 0.24422553 0.35024506 -0.33450148 0.0031498987 -0.051565703 0.2804499 -0.059818834
0.10635854 -0.014573729 -0.18490918 0.100026555 -0.2184371 -0.19145486 0.3303601 -0.29031447

fc2.weight f4 [128, 128]
00000000: 2e9b 233e 3969 a4bc 88ad 0abb d990 bb3c
00000010: 5e7a 3dbd 1efd 4fbd 007f 94bd 3054 65bb
00000020: 1b44 93bc 201b 3e3d 25ae 20bd cfbe b93d
00000030: e79c 88bc 8323 833d fb06 96ba 9840 683d
00000040: dbe6 ac3c a42c 403d ac35 293d 15e8 d3bc
00000050: 06e5 033d bfed 6b3c 69c8 2fbd 1756 60bd
00000060: 360b cebd 149f c5bd e751 923d dc02 513d
00000070: 2f72 543d a908 14bd eb38 533d 61b7 e0bb
00000080: 2043 86bd 0e00 aabc 2a3e 16bc 9d2e 76bd
00000090: 0f75 a73d e0e2 ac3d cf90 d13d 82f3 a7bc
000000a0: 8ccc dc3d 402e 2dbc b549 cc3c 9d3c d13d
000000b0: 53ff 2b3d 17ff 813c 9eaa 4cbd 8358 bf3b
000000c0: 22df ba3b 80c6 83bd cf78 a3bd c59d 1cbd
000000d0: ceb8 a53d bb44 823d 6ab1 ba3d c0a2 5dbc
000000e0: 55df c63a bd4e 3cbd 13fb 383d ca5c 51bb
000000f0: 166e 5c3d 64ba 52bd eb12 12bd f70e b83d
00000100: a339 46bd 7032 8bba cc24 c53c e910 2c3e
00000110: 96a9 b0bd 20f4 963d 0c18 b1bc 2c8b 15bd
00000120: dcf1 7b3b 0e94 8fbc 74bb 67bd a427 023e
00000130: 995a 523d fc6d f83d f911 303d 830c 45bd
00000140: fdb4 a0bb b6be f2bd 4c3c 5c3d 0e0b 3a3d
00000150: 5312 e83d 9ea7 1a3d e17e 073d c4ec b53b
00000160: 8845 883d d1cb ee3d 15dd 753b 5d5f 2a3c
00000170: e32f 593d 7b25 6dbc baaa 49bd 095a a53d
00000180: 7762 463d 96b9 24bd 9652 db3c ac05 8f3d
00000190: e116 f3bd a7d7 23bd 2fa6 183e 04e6 733d
000001a0: 8db8 afbd 896b 15bd 4acd ce3d 4a1e d83c
000001b0: 63bc 073e 295c 5e3d e1d2 9d3d 3c2e 82bd
000001c0: 2243 b2bd 02cc d8ba 995d 243e bae8 b7bd
000001d0: 0adf 63bd 2eb0 8a3d cc25 953c ffae 463c
000001e0: b2a1 95bd 08c6 a53d 2844 e13d 753a 8e3d
000001f0: 2b8e fcbd 0cff ebbc 77fd b83d 0b6c 4e3d
00000200: dd6d d7bd b48c 3b3d d144 343d 5d42 71bc
00000210: e889 bcbd 3104 acbd 63a3 b4bd 1138 2bbd
00000220: a103 71bd 9ff4 b43d fa52 373d c510 37bc
00000230: 9673 93bd a564 483d c78c d1bd 7fb5 b53d
00000240: bcf6 ab3d 1632 33bc 86ff b93d 8e94 843d
00000250: a4c8 693d 5ca6 91bc 5fc9 f9bd 2ec1 363d
00000260: f1cc 913c e674 52bd fbbb 8c3c af7c 0a3d
00000270: 46f2 e6bc 4edd f43d 9d2a 89bc 0223 cdbc
00000280: 1ac6 99bd 7763 aabc 9446 04be 02c1 d43d
00000290: bf4c 0fbd f13d 243e 9ee5 cfbd 5838 17bc
000002a0: 2dcb 1f3e 9868 0f3e c627 b03c 9e1e 91bd
000002b0: ac85 b23d 88c7 7a3d 71b3 853c e45e afbb
000002c0: 1944 49bd 4a1e a7bd 2b94 14be 661b a93d
000002d0: 31e9 a83d e32d d13c c94e e7bb 77ea f73d
000002e0: b0c9 84bd f2c3 b33d 0896 aa3d d75e bf3d
000002f0: a5f9 273d 5fbf 1f3e cd76 043e 1e37 913d
00000300: 7fe9 e23d e96c 093d b3bc a5bd d5c0 953d
00000310: 7624 483d 14ac aa3d 6ac2 a23d 54f0 afbd
00000320: 656d 673d 1dd3 b03e c819 e83b df49 82bd
00000330: 277c 523d 439e 8fbd bd30 26bd 7f94 c5bb
00000340: 634f 42bd 1c03 3d3e 11a0 8ebd b7d1 6dbc
00000350: 1a53 0cbe b6d1 733c 27d7 5abd 2d7f 7bbd
00000360: a360 96bc 0afc 05bd 629a 703c d332 94bd
00000370: 2564 b13d c087 d43c fe8a 96bd de68 f2bc
00000380: 13b8 dabb 06a2 963d e26e da3c 0351 08bd
00000390: 1727 ffbd 2e96 0bbd 1e84 a03c c778 763d
000003a0: 7715 303e 7e1c 623c b7e4 623c 1f7c 173d
000003b0: 1c75 4d3d 37e2 43be 1d39 093d 669c f4bd
000003c0: d01b 643d a95f 82bd f72c 9e3b 7ce8 b2bd
000003d0: 524d cabc 2ac6 31bd bd08 383d fb65 fabc
000003e0: 1af0 22bd 7b11 3f3d e4ca eb3a 5661 903d
000003f0: eac2 dbbd 0010 5c3d ef42 103d bdaf 65bd
0.15977165 -0.020069705 -0.0021160562 0.022896217 -0.046259277 -0.0507785 -0.07250786 -0.0034992807
-0.017976811 0.046412587 -0.039228577 0.09069597 -0.01667638 0.06403258 -0.0011446172 0.056702226
0.021106174 0.046917573 0.04131095 -0.025867501 0.032200836 0.014399945 -0.042915735 -0.0547696
-0.10060732 -0.09649482 0.07144528 0.051028118 0.051866706 -0.03614107 0.051567953 -0.006857798
-0.06555772 -0.02075198 -0.0091700945 -0.060103048 0.08176624 0.084417105 0.10232698 -0.020501856
0.10781202 -0.010570109 0.02493749 0.10216639 0.041991543 0.015868707 -0.0499674 0.005839409
0.005702869 -0.06434345 -0.07982027 -0.0382364 0.08091889 0.063607655 0.0911587 -0.013527572
0.0015172759 -0.04597353 0.045161318 -0.0031946176 0.053815924 -0.051447287 -0.035662573 0.08987229
-0.04839481 -0.001061989 0.024065398 0.16803326 -0.08626096 0.07370782 -0.021617912 -0.036509678
0.003844372 -0.017526653 -0.056575254 0.12710434 0.051355932 0.12130353 0.04298589 -0.048107635
-0.004904388 -0.118527815 0.05376844 0.0454207 0.1133162 0.03775751 0.033079986 0.0055519063
0.06653887 0.11659969 0.0037515808 0.010398713 0.053024184 -0.014474268 -0.049235083 0.080738135
0.048433747 -0.04021605 0.026772778 0.06983504 -0.11869598 -0.040000584 0.14907144 0.059545532
-0.08580122 -0.036479507 0.100977495 0.02638163 0.13255458 0.05428711 0.077062376 -0.06356475
-0.08704211 -0.0016540291 0.1605133 -0.08979936 -0.05563263 0.06771885 0.0182065 0.012126683
-0.073062316 0.08094412 0.10999328 0.069447435 -0.12331804 -0.02880814 0.090327196 0.050396007
-0.10519002 0.04578848 0.04401094 -0.014725295 -0.09205991 -0.08399237 -0.08820226 -0.041801516
-0.05884135 0.0883572 0.044756867 -0.011173432 -0.07199781 0.048924107 -0.10231929 0.08872508
0.0839667 -0.010937234 0.0908194 0.06473647 0.05707611 -0.017779522 -0.121966116 0.044617824
0.017797919 -0.051381014 0.01717948 0.033810314 -0.028191697 0.11956273 -0.016743952 -0.025041107
-0.07508488 -0.020799382 -0.12917548 0.10388376 -0.0349853 0.16039254 -0.10151218 -0.009229742
0.15604849 0.14004743 0.02150334 -0.07085918 0.08716902 0.061225444 0.016320916 -0.005351888
-0.04913721 -0.08160074 -0.14509647 0.08257179 0.08247603 0.025534576 -0.0070589525 0.121052675
-0.06483781 0.08777608 0.083293974 0.09344261 0.041009564 0.15600346 0.12935944 0.07090591
0.11079692 0.03355113 -0.08092632 0.073121704 0.048862897 0.083336025 0.07947238 -0.08590761
0.05650081 0.34536067 0.0070831515 -0.06361746 0.051387932 -0.07012608 -0.040573824 -0.006029665
-0.04743899 0.18458217 -0.06964124 -0.014515332 -0.13703576 0.014881542 -0.05342784 -0.06140058
-0.018356627 -0.032711066 0.014685245 -0.072362565 0.08661679 0.025943637 -0.073507294 -0.02959102
-0.0066747754 0.07355122 0.026664201 -0.033280384 -0.12458628 -0.03407877 0.019594248 0.060173776
0.17195688 0.013800738 0.013848475 0.036983605 0.050160512 -0.19129263 0.033501733 -0.11943893
0.055690587 -0.06365902 0.0048271376 -0.08735749 -0.024695072 -0.043401875 0.04493021 -0.030566206
-0.03977976 0.04664753 0.0017989543 0.07049815 -0.10730536 0.053726196 0.035220083 -0.0560758

fc2.bias f4 [128]
00000000: 7090 b43d 022e 5bbd fd63 8ebd 3aec 4a3b
00000010: b548 ad3c 7700 3abc 67d9 58bd 61a1 83bd
00000020: be70 1cbd f8cc 813c 1d49 97bd 9958 813c
00000030: 7f94 9b3d 48f4 463c 28c5 30bd e69b 32bc
00000040: ce05 9a3c 721e 813d aef8 f43b a827 823d
00000050: 7eaa 273d d6a4 b03d cd74 9e3d 350d 163c
00000060: 2edc 153d 8c62 8e3d 8b25 1e3d 4e70 9dbc
00000070: fcc9 803d 45ca 9dbd 7863 c03c 2cdd 85bd
00000080: 2c72 383d 9d65 df3b 34d8 5abd 1163 03bd
00000090: 9d73 5f3c 113c 933d 88a0 3a3d 622a ae3d
000000a0: 7393 8a3d 11cb a7bd 7b3c 193c 3df0 18bd
000000b0: 5e92 1dbc 9ce7 aa3c 422e ac3d 4ea5 4f3d
000000c0: 69bf d23c 6ac1 0e3d 21ce 1b3d 420b 02bd
000000d0: 36f7 c5bc d6bb da3b 1902 2dbd 748d 3dbc
000000e0: c5d9 153d 127b 353d f0ef 3ebd eaed 7d3d
000000f0: 3dfa b3bb 872a 97bd 71b3 8ebd 7552 543d
00000100: 8208 96bd 40a7 093d ad1d e33c c337 84bd
00000110: 5370 243d bba7 0dbd 8deb 95bd 00d5 273c
00000120: 0373 9bbd b307 5ebd 3ec0 953d dceb 123d
00000130: bf07 6ebd dff5 843d 3aa2 843d cd03 103d
00000140: b372 133d 3144 48bd 992e 4dbd ce91 663d
00000150: d5e9 0bbc 7a9c f7bc 9f64 d53c c150 4abd
00000160: 71a9 0dbd 5fa6 f8bb a8ef 563c 9138 4e3d
00000170: 2625 82bd b434 88bd 5c54 423d 69d9 bd3d
00000180: 4a80 e3bc 53e6 783b b105 cc3d 4b2f 67bd
00000190: 81fc 613d 150e ba3d 593d e2ba 1ec6 95bd
000001a0: 65ca 013c ea97 dd3c 00de 8fbd 062c 813d
000001b0: 8f46 adbc 9e37 3bbd 1fd0 303d 85e0 70bd
000001c0: 2306 403d cca6 353d ff72 bebc f065 f939
000001d0: 660f a53d 5cce e43c f226 623d 4532 eebc
000001e0: 056e 0abd d3c6 5c3d 8e31 1fbd 545c a93d
000001f0: 741e 21bd d027 41bd 3e74 b2bc bd15 de3c
0.08816612 -0.053510673 -0.06952665 0.0030963556 0.021152833 -0.01135265 -0.052941706 -0.06427265
-0.038193457 0.015844807 -0.07386992 0.015789317 0.07596683 0.012143202 -0.043156773 -0.010901427
0.018801596 0.06304635 0.007475934 0.0635522 0.04093408 0.0862519 0.07737122 0.009158422
0.036586933 0.0695239 0.038610023 -0.01921859 0.062885255 -0.077045955 0.02348493 -0.06536326
0.045030758 0.006817533 -0.053428844 -0.0320769 0.013638404 0.07189191 0.04556325 0.08504178
0.06766405 -0.08193029 0.009352799 -0.037338484 -0.009617416 0.020862393 0.084072605 0.050694756
0.025726037 0.034852423 0.038038377 -0.031749018 -0.02416573 0.006675224 -0.04223833 -0.01156937
0.036584634 0.044306822 -0.04661554 0.06199447 -0.005492477 -0.07381158 -0.069678195 0.05183645
-0.073258415 0.033606768 0.027724111 -0.06455948 0.040146183 -0.03458379 -0.07320318 0.010243654
-0.07590296 -0.05420656 0.07312058 0.035869464 -0.058112856 0.06492209 0.06476255 0.035159875
0.035998058 -0.048893157 -0.050093267 0.056291394 -0.008539637 -0.030225981 0.026048956 -0.04939342
-0.03458542 -0.0075881924 0.013118662 0.050346915 -0.06354742 -0.06650677 0.047443733 0.09269983
-0.027771134 0.003797908 0.09962023 -0.056441586 0.055172447 0.09084717 -0.0017260715 -0.073131785
0.00792179 0.027049977 -0.07024765 0.06307225 -0.021151809 -0.045707338 0.04316723 -0.05880787
0.046880852 0.044348523 -0.023248194 0.0004756893 0.08059578 0.027930431 0.055212922 -0.029076705
-0.03379633 0.05390055 -0.03886562 0.08269563 -0.039335683 -0.04715711 -0.021783944 0.027109975

fc3.weight f4 [128, 128]
00000000: 31b7 503d c33a 11bd 2de7 90ba 8f82 73ba
00000010: 53e4 97bd 90d8 56bd 98af 28bb ebeb 483c
00000020: 4f09 733d c00b 963c 5e39 b7bc 4fa0 943d
00000030: 605a 50bd a1b1 113d 5376 49bd ff90 1dbc
00000040: b382 653d b800 c5bd cc0f 94bd 3af9 443b
00000050: 7270 14bd 211c 88bd 1d86 8cbd 4d92 21bd
00000060: 3330 ebbd b022 cabc a743 b33d b9c8 b73d
00000070: 8a63 bb3a 7c9b 5f3d 5420 543d bddf 493d
00000080: 7179 ad3d 6321 d53c e353 b8bb e097 4cbc
00000090: 238f 87bd 74f3 9d3d e996 2bbd 4964 6cbc
000000a0: 9cc1 f73d a3ae 54bd 8134 d83d 1670 2bbd
000000b0: 469e 933d b4c0 bdbd e653 cfbc 4ac3 fb3d
000000c0: c50c 073c 8207 eabd 2f36 f33b 331b debd
000000d0: 3f8f 9e3c 83df 3fbd 6c2e 98bc ee55 8dbd
000000e0: ac8f bebc b1ce ba3b db52 d43c 6bfc a8bd
000000f0: a902 1f3d fc01 7ebd c419 913d 0f76 aebc
00000100: a8af 4b3d 963d 11bd eb25 f83c 9894 f83c
00000110: 3fdb 78bc e8ae 5fbd 471c 7ebc 2a16 a9bd
00000120: 91fd 19bd 590e c4bd e2e8 c73b ecc2 893d
00000130: b433 ad3c eab0 e03c 4fbc b1bd 8f09 c6bd
00000140: fc5f 3b3d 9cfc a3bd e856 2dbd 175e dbbc
00000150: 4d2e 593c a62e 923d 93f0 a73d d37c b23d
00000160: e8ba 88bd a8dc ae38 1f23 983d 8adf 8fbb
00000170: 8a30 1fbd 1268 2b3d 1e84 29bd 261c 053d
00000180: 340c 17bd a08f b13c fe0c 9f3c 344d 39bd
00000190: 2364 193d 7834 62bd 304a 27bd 9fc6 2ebd
000001a0: d110 28bd bd3e a13c 5b56 913d ce90 563d
000001b0: dd1a 733d 4c0a 2d3d b0b5 cd3d b847 af3d
000001c0: 05b7 283d afc8 a63c 10da 81bc 7ff0 763d
000001d0: c7cf 3cbd 15bf 44bc c6b7 973d e981 05bd
000001e0: cd0c fd3c 12b9 af3d fe70 dd3d 24ee 15bd
000001f0: 2aa5 0fbd c385 6bbc d35d b63d a8fe 753d
00000200: 6bd7 713d b935 0b3e 1489 05ba 85bd 7a3d
00000210: cda7 143d 0aa0 fa3d 4002 a6bd 079c 8b3d
00000220: a9b9 0abd 6d0c aabd 64b8 3d3d 4261 8ebd
00000230: cf84 363d cd6e 16bb 6589 ba3c 25c6 d73c
00000240: 83ae 9a3c 87f5 bf3d 21b7 4abd 115f 49bd
00000250: f8e4 60bd c076 4c3d d79f 1bbe e9e9 883d
00000260: c5ca e03d a2d4 1ebd d006 04bc 8b00 57bd
00000270: 854c 07bd 2949 e43c 5944 a23c 3031 8abd
00000280: e9f7 d6bb 2646 1cbc 49d4 85bd 11e1 7a3d
00000290: 3ddf 08bd 7aba 36bd 6343 e93d 3620 2e3d
000002a0: 3d33 1fbd 0e20 bb3c 91af 863d b406 753d
000002b0: 491e 99bd 6353 8fbd 2a6b 883c 2862 843d
000002c0: 642b a6bd 5587 0e3d 4ee2 eebd 31dd 813d
000002d0: 441e 123b b003 06bd 987f 38bd fc90 4f3d
000002e0: 242e 4f3d ef8b 4b3b 8472 d1bc fa53 833d
000002f0: a71a 7abc 9fa6 4c3d 31eb dbbc 48b4 1c3b
00000300: 4933 09bd df5a a7bd 5f70 c0bc 3018 f23c
00000310: c857 a3bd 6363 503d f399 983c 1eda 07bd
00000320: 98e7 b4bd a8a8 e4bc a1cd 91bd a15f 71bc
00000330: 0d5e acbd 9d95 613c 9231 3a3d 8876 be3d
00000340: b0bb 1cbd 1d49 883d 25a1 aebd 2888 f53c
00000350: f979 cf3b 9e6e a3bd 6a0f d63d 1cb0 d3bc
00000360: 15cc 4c3d 9a74 913d 9988 523d 02d8 b63d
00000370: 5769 043d c135 74bc 3311 e53c 50c4 5dbd
00000380: 3bad ac3d ca50 57bd e455 fc3c df8a ca3d
00000390: e32b 54bd 02ac 513d f731 873d bf39 27bc
000003a0: 919d 47bc c5b0 b9bd 0e7a 823d 8c03 813d
000003b0: 23bd adbd 5346 b0bc 997c c33d 9175 29bd
000003c0: 0abb 263e 28bc 82bb 49dc 99bd 3e21 613d
000003d0: 9b1f e63d 9f31 823d 0938 683d c730 813c
000003e0: 1a0b 90bd 4e78 3e3d 862d 283d 7ddf 85bd
000003f0: 7ebe 8ebd 380a 673d b8d4 8abd 4215 443d
0.050955955 -0.03545643 -0.0011055224 -0.0009289169 -0.07416596 -0.052452624 -0.0025739428 0.0122632785
0.05933505 0.01831615 -0.022366222 0.07257139 -0.05086744 0.03556979 -0.04918511 -0.009617089
0.056032848 -0.09619278 -0.072295755 0.0030055777 -0.03624005 -0.0664599 -0.068615176 -0.039446164
-0.11483803 -0.024674743 0.08753138 0.08973832 0.0014296633 0.05459164 0.051788643 0.04928564
0.08470429 0.026016897 -0.0056252345 -0.012487382 -0.06619098 0.077124506 -0.041891966 -0.014428207
0.12097475 -0.05192436 0.10556889 -0.04185494 0.07207923 -0.09265271 -0.02530856 0.12293108
0.008242791 -0.11427213 0.0074222307 -0.108450316 0.019355414 -0.046844017 -0.018576823 -0.069011554
-0.023261867 0.005700909 0.025918415 -0.0825127 0.038820896 -0.06201361 0.070849925 -0.02129653
0.049728066 -0.035459124 0.030291518 0.030344293 -0.015188991 -0.054610163 -0.0155096715 -0.082561806
-0.037595335 -0.09573049 0.00610076 0.067266315 0.021142818 0.02742811 -0.08678495 -0.09669792
0.045745835 -0.08007166 -0.04231921 -0.026778264 0.013255668 0.07137804 0.08200183 0.087152146
-0.066762745 8.338067e-05 0.07428574 -0.0043906616 -0.03886465 0.041847296 -0.041385762 0.032497548
-0.036876872 0.021674931 0.019415375 -0.045239642 0.037449013 -0.05522582 -0.040842235 -0.04266989
-0.041031662 0.019683236 0.07096549 0.05238419 0.05935179 0.042246148 0.1004442 0.08558601
0.041190166 0.020359365 -0.01585105 0.06028795 -0.04609659 -0.012008448 0.07408099 -0.032594595
0.030889893 0.08580221 0.10812567 -0.03660406 -0.035069622 -0.014375153 0.08904614 0.060057312
0.05904333 0.13594712 -0.00050939736 0.061215896 0.03629284 0.12237556 -0.08105898 0.06816869
-0.033868466 -0.08303151 0.046318427 -0.06952144 0.04456025 -0.0022954226 0.022770593 0.0263396
0.018882042 0.093730025 -0.04949105 -0.049162928 -0.05490586 0.049917936 -0.15197693 0.0668524
0.10976175 -0.038777 -0.008058265 -0.052490752 -0.03303196 0.027866917 0.019807981 -0.06747663
-0.006560315 -0.009538209 -0.06534631 0.061249796 -0.03341602 -0.04461143 0.11389806 0.042511187
-0.038867224 0.022842433 0.065764554 0.059820846 -0.074764796 -0.06998327 0.016652662 0.06464034
-0.08113745 0.03479703 -0.11664258 0.06341017 0.0022295872 -0.03271836 -0.045043558 0.050675377
0.050581113 0.0031058749 -0.0255673 0.06412502 -0.0152651435 0.04996359 -0.026845546 0.0023911167
-0.033496175 -0.08171629 -0.023491083 0.02955255 -0.07975727 0.050876033 0.018628096 -0.033166997
-0.088332355 -0.027912453 -0.07119299 -0.014732272 -0.08416376 0.013768581 0.04545743 0.09299952
-0.03826493 0.0665457 -0.0852683 0.02997215 0.006331679 -0.07980083 0.10452159 -0.025840811
0.049999315 0.07102318 0.0513998 0.08927919 0.032327022 -0.014905394 0.027962303 -0.054142296
0.084314786 -0.05256728 0.030802675 0.09889769 -0.051799666 0.05118943 0.06601327 -0.010206639
-0.012183563 -0.09066919 0.06370936 0.06299505 -0.084833406 -0.021517908 0.095452495 -0.041371886
0.16282287 -0.003989715 -0.07512719 0.054963343 0.11236497 0.06357121 0.056694064 0.01577033
-0.070333675 0.04650145 0.04105904 -0.06536768 -0.06969927 0.05640623 -0.06778854 0.047871836

fc3.bias f4 [128]
00000000: fa05 e03d 31de b23d 3a01 a7bd 1904 6d3d
00000010: c1b8 ca3d c243 683d 566b 61bb da15 ba3d
00000020: 4801 be3d 9eff 253c 1fef cc3c 2089 4b3d
00000030: 68d0 28bd 870c 9dbd 99dd bcbd df5e ddba
00000040: 5405 c6bc 16bd c43d 0a39 cdbd 6dea fbbc
00000050: b106 11bc 27e9 3bbd a495 a73c 884f af3b
00000060: da21 b93d b220 5dbd 6015 6939 c6c9 8bbc
00000070: 39e8 f3bc 6a94 3c3d 5f65 21bd 86c3 e63c
00000080: d080 a73d 9de9 8e3d 60ab a2bb 1547 5dbd
00000090: 31c2 d2bc 4e74 b8bc 33ed 95bd eced 0dbd
000000a0: 97f0 b53d 987b 9f3d d12d 2f3d fd2b 9cbd
000000b0: ce68 a43d 4ded 3c3c f1bc a13d 69f4 323d
000000c0: 05cc b4bd a818 1e3c 71b9 903d 7e71 d03c
000000d0: dac4 fdba bffa aebd 0005 71bb 9e1a 9b3d
000000e0: 078d 12bd 8fe5 b7bc 7d58 8d3c 1389 a6bd
000000f0: 473d 503d 844f 823d f019 cf3b 8aaa 08bd
00000100: 3b2b 283c 79f9 cf3c 1e29 343d 250a c23d
00000110: 8a39 a33c b4ec b5bc 552b 8d3d 99b5 29b9
00000120: d34b 81bd 901c 8e3d f561 a3bd 802e ca3d
00000130: 6d61 023b d0b7 ca3c 9b4c 80bd 427a 5ebd
00000140: 61f4 b33d 9f81 1e3d 8dc7 9fbd b88a a73d
00000150: 81be 6fbd 8c58 82ba 13f6 e73c 4484 453d
00000160: cecb 063d b9c9 c1bd 651b 08bd 2bc6 4cbd
00000170: b863 7abd 6a95 e53c 2e17 ce3b d921 bb3d
00000180: 960d 063d 75cd 343a a91b f5bc 6b8c ca3d
00000190: 1989 99bd e9aa b53d 0606 4e3d 9173 cebc
000001a0: 03bb 3bbd b3ef 3a3c 0fa2 bc3d 7d4e 9f3d
000001b0: bc07 223d 5f0a fa3b 0ceb 7abc 3c56 083d
000001c0: 3b9b 4fbd 3a9e 94bc d8b6 c5bc cf19 03bc
000001d0: 41d5 8a3c b507 01bd 06c3 a63d 7647 8e3d
000001e0: 5761 80bd 3e9b 453d 9ea7 0bbd ddf0 b9bd
000001f0: 6b5c 4a3d facc 853d 7826 b0ba 2d52 d93d
0.1093864 0.08733786 -0.08154531 0.057865236 0.0989852 0.056705244 -0.0034396253 0.09086199
0.09277588 0.010131745 0.025016366 0.04969132 -0.041214377 -0.07668405 -0.09221954 -0.0016889236
-0.024172463 0.09606378 -0.10020645 -0.030751431 -0.008851693 -0.04587665 0.020457096 0.005350057
0.0903966 -0.05398626 0.00022228574 -0.017063987 -0.029773818 0.046039976 -0.039403316 0.028169405
0.08178866 0.06978152 -0.004964277 -0.054022867 -0.025727363 -0.022516396 -0.07320633 -0.034650728
0.088837795 0.077872455 0.042768303 -0.076255776 0.080278024 0.011531186 0.07897366 0.04369012
-0.08827976 0.009649433 0.0706662 0.025444742 -0.0019361035 -0.0854392 -0.0036776662 0.07573436
-0.035779025 -0.02244833 0.017254109 -0.081316136 0.05083969 0.06362823 0.0063202307 -0.033365764
0.010264213 0.025387513 0.043984525 0.09474591 0.019924898 -0.022207595 0.068930306 -0.00016184746
-0.063132904 0.069390416 -0.07977668 0.098721504 0.0019894496 0.024745852 -0.06264611 -0.054315813
0.08786846 0.038697835 -0.07801733 0.081807554 -0.058531288 -0.0009944602 0.02831558 0.04822184
0.032909207 -0.09462304 -0.03322925 -0.049993675 -0.061130255 0.028025348 0.0062893843 0.09137315
0.0327278 0.00068970706 -0.029920416 0.09890064 -0.074968524 0.08870489 0.050298713 -0.02520159
-0.045832645 0.011409688 0.09210598 0.07778642 0.039558157 0.007630631 -0.015314829 0.033285365
-0.05068515 -0.018141855 -0.024135038 -0.008001759 0.01694739 -0.03150149 0.081426665 0.06947224
-0.06268566 0.048243754 -0.0340954 -0.09079144 0.049404543 0.06533237 -0.0013439199 0.10611377

fc4.weight f4 [2, 128]
00000000: 712d ecbd 60d1 fe3d 203b 993c f27d a83d
00000010: abd6 cdbd ed04 73bd dae8 8b3d 4ae3 3bbd
00000020: 9ac9 50bd bd58 e8bc 57ac 163e bd93 efbd
00000030: 4155 933d 40e6 733d 527c b5bd 2e5b 85bd
00000040: 6fa9 de3d a1c4 0cbd c2a9 60bd d57a 183c
00000050: d289 aabd b6e5 03bd 24fe 71bd 0f84 ed3d
00000060: 41fd 1bbd a500 f3bb ad72 0dbe 6ae9 c73d
00000070: bbb2 99bd ff0a f9bd b7c7 c33d b50d f13d
00000080: 6287 74bd 7c12 2b3d 09fe cebd 9ed9 af3c
00000090: 949c 883d 14e4 a53d e201 4bbd 22ff 4ebe
000000a0: e849 94bd 4245 f0bd b8fb 9cbd 5a00 6e3b
000000b0: be66 c93d 1f04 39bd 5cbb b3bd 42cc 60bd
000000c0: 0115 c5bc 1a7d 8e3d 5c20 92b9 2433 073d
000000d0: ce08 e33d 09d9 813d 2bbc 013b c4d5 293c
000000e0: 31b0 0dbe ee2e 08be 2f43 123d 4aca 7abd
000000f0: 85af 8b3d 1bdf aa3c 8e2b 36bd 81d1 4ebb
00000100: 88ad df3d f5e2 9abc e273 d3bc 0800 76bd
00000110: caa5 c9bd 3668 d73d 9b5d c3bd 11d4 a5bd
00000120: 3411 8a3d 77ef 663d dd1d 9ebd 3b77 d5bd
00000130: f496 03be 5d5e 07be 33e6 d13c b4c4 d4bc
00000140: 6062 49bd e17e c83d 6890 ebbc c61f 8cbd
00000150: c11f cabd 4662 f03d 6061 e9bd 7b52 25bd
00000160: de57 3c3d 8875 863d b232 8fbd 2f5a 953d
00000170: ba47 b6bd 425f ab3d 3b77 efbc 70f5 87bd
00000180: a003 83bd cffb 51bd 73e1 233d b25a 43bd
00000190: 81e0 823d f2d0 4fbd 00ab 05be 850d 0abe
000001a0: d638 8e3d 4461 843d 3b53 c7bd e721 22be
000001b0: 8103 11be 4104 a3bc 6fba 27bd 0849 0dbe
000001c0: 11a5 643d 2b29 c9bd d637 abbc d31e 3abd
000001d0: 0375 e33d c8ac 9fbd 41c2 0dbb d039 963d
000001e0: b367 dcbd c060 5d3d a1aa c23b eb6a 913d
000001f0: 290d c6bd cdab 923d 3e99 02be 6a62 b4bd
00000200: ffa4 c4bd 1299 1d3d a3db 473c 5514 9c3c
00000210: 56bf 88bd df7e 77bd 013a 5bbd a02c 90bd
00000220: e6b3 0cbe 906c 19be 3c7a d03d f3c3 a6bd
00000230: 1b45 4c3d c5f1 e23c a150 e23d 0e78 02be
00000240: f60a b8bb 643b f7bd e776 c53d f1b8 37bd
00000250: 6ca7 933d d6b4 a2bc 9a0e 81bd 0068 e2bb
00000260: d718 43bd 729e 92bc d0ca 22be 8ca7 0d3d
00000270: c3fa 413d 18b9 313d 4598 5dbd e14e ce3d
00000280: f90e 97bd 4a37 90bd 3231 fb3d c585 583b
00000290: 2115 b03d 043b f43c 7c91 1c3d ccf4 19be
000002a0: 35e0 0abd 2000 17be fbd9 7f3d 46f1 0c3c
000002b0: c371 13bd 8e9d 69bd 4580 91bb 65e7 3abd
000002c0: 9d7e 13bd ec71 d03c 79a6 85bd 7329 f4bd
000002d0: ef1e b93d fb51 f43b 6e18 8bbd b56b cfbd
000002e0: 8f34 80bd d2c6 963d cdf2 babd cd82 973d
000002f0: 80f5 e83c 5293 17be 4cfb 84bd 669b 113c
00000300: c525 083e c1c4 02bd 334d aabd cf2a dcbc
00000310: 6d79 66bd bb2b 003d 70af c23d 7ab8 ce3c
00000320: b3a3 b43c 4b4b b53d 8f24 a0bd 9dbc c9bd
00000330: 7db1 923c e548 96bd 26cc 773d 3d70 09be
00000340: 10d2 12bd 2819 853d a973 823d 5cfd cdbd
00000350: 8010 a93d d9ac a13d 550f 6dbc e1a5 87bc
00000360: c76f b43d 5d51 e73b e8ae d53c 4be7 54bd
00000370: 5feb 99bd 414c 813d 066a f83d 275d 9bbc
00000380: ef25 d73d 1618 fcbd 219c febc 5d81 fdbd
00000390: fda7 b6bc f469 3abd e6aa 443d 0c70 a83d
000003a0: 9095 b9bc f5d2 063e 9f28 e8bd 97ea e2bd
000003b0: fc34 0e3e 72d2 9abd 9dda 0abd 216e 2fbd
000003c0: ca3c 0b3e 7fb0 173d 933e 77bd f92f 75ba
000003d0: b324 623d 02a7 293d e400 d3bc d795 6a38
000003e0: 678f 143e e262 14be 7fd8 43bb 7435 503d
000003f0: 6e3a 47bd 6a49 e43d f9f3 01bd 6cea 0abd
-0.11532105 0.12442279 0.01870495 0.08227147 -0.1005071 -0.05933087 0.06831522 -0.045871057
-0.050973512 -0.028362626 0.1471418 -0.11698101 0.07193995 0.059545755 -0.08861603 -0.06511532
0.10872161 -0.034367207 -0.054849394 0.009306629 -0.083270684 -0.03220149 -0.059080258 0.11597454
-0.03808332 -0.0074158483 -0.13813277 0.09761317 -0.07504793 -0.121603005 0.09559577 0.117701925
-0.059699424 0.041765675 -0.10107047 0.021466073 0.0667049 0.08100143 -0.049562342 -0.20214513
-0.07240659 -0.1173196 -0.07665199 0.0036316128 0.0983405 -0.045169946 -0.0877597 -0.054882295
-0.024057867 0.06957455 -0.000278714 0.033007756 0.11085664 0.06340224 0.0019795995 0.010365907
-0.13836743 -0.13299152 0.035708603 -0.061228074 0.06820587 0.020858338 -0.04447513 -0.003155798
0.1092177 -0.01890705 -0.025812093 -0.060058624 -0.09846075 0.105179235 -0.09539338 -0.08097089
0.067415625 0.056380715 -0.0772054 -0.10423132 -0.12850553 -0.1321959 0.025622463 -0.025972702
-0.049166083 0.09789825 -0.028755382 -0.06841998 -0.09869338 0.11737494 -0.11395526 -0.040361863
0.045982234 0.06565386 -0.06992091 0.07292592 -0.089003995 0.08367778 -0.029231658 -0.0663861
-0.06397176 -0.051265534 0.040009927 -0.047693916 0.06390477 -0.050736375 -0.13053513 -0.1348172
0.06944434 0.064638644 -0.09732672 -0.15833245 -0.14161493 -0.01989949 -0.04094928 -0.1379739
0.055821482 -0.09822305 -0.020900648 -0.045439553 0.111063026 -0.07796627 -0.0021630677 0.073352456
-0.107619666 0.054047346 0.0059407507 0.07100471 -0.09670479 0.07161675 -0.1275377 -0.088078335
-0.09601783 0.038476057 0.012198362 0.019052664 -0.066771194 -0.060423728 -0.053522114 -0.070397615
-0.13740501 -0.1498282 0.10179564 -0.08142843 0.04987059 0.027703175 0.11050535 -0.1274111
-0.005616541 -0.12071875 0.096418194 -0.04485411 0.072096676 -0.01986162 -0.06301613 -0.0069093704
-0.04763111 -0.017897818 -0.1589768 0.034583613 0.047358286 0.04338941 -0.054100294 0.10073639
-0.07375903 -0.070417956 0.12265243 0.0033038717 0.0859778 0.029813297 0.038224682 -0.15034789
-0.033905227 -0.14746141 0.06246374 0.008602446 -0.035997164 -0.05703502 -0.0044403397 -0.04563083
-0.03600942 0.025444947 -0.06525893 -0.11921968 0.09039103 0.007456062 -0.06791769 -0.10127965
-0.06260025 0.07362141 -0.09128342 0.07397995 0.028437376 -0.14802292 -0.064932436 0.0088871475
0.13295658 -0.03192592 -0.08315506 -0.026875881 -0.056268144 0.031291705 0.09506118 0.02523445
0.022050714 0.088522516 -0.07819473 -0.09850428 0.017906899 -0.07338122 0.060497425 -0.13421722
-0.035844862 0.06498939 0.06369717 -0.1005809 0.082551 0.07894296 -0.0144689875 -0.01655859
0.08810382 0.00705926 0.026084378 -0.05197839 -0.075155966 0.063133724 0.12129597 -0.018965317
0.10505282 -0.123092815 -0.031080307 -0.1237819 -0.0222969 -0.0455112 0.048014544 0.08224496
-0.022654325 0.13166411 -0.11335873 -0.11079901 0.138874 -0.075596705 -0.033899892 -0.042829636
0.13597408 0.037033554 -0.06036241 -0.0009353157 0.05521078 0.041419037 -0.02575726 5.5929497e-05
0.14507829 -0.14490846 -0.002988368 0.050832227 -0.048639707 0.11146815 -0.03172681 -0.03391497

fc4.bias f4 [2]
00000000: a663 85bd c1e5 4a3d
-0.06513147 0.049535517

fc1.weight f4 [128, 7]
00000000: 91cd 913e 4005 a6be 9d13 283e 8cd2 733e
00000010: 063f 46be fdaa 243e d7bd 593e fd3a bf3d
00000020: cbcb 583e 7e88 86bd 2fef 9e3e c6af 0a3e
00000030: 5469 e53d 0010 3c3e f88b b6be 8ade dd3d
00000040: f560 1fbe 1469 b6be ee36 95be 0e18 0ebd
00000050: 5936 e83c d426 86be fa68 4c3e 479a 6f3d
00000060: 896c 043d e41d 28be f516 063d bbf9 bf3e
00000070: 8a68 54bd 7342 ae3e 6894 fcbe 6247 c5bc
00000080: 68a4 abbe 1eb0 323e a024 b13e 42c5 a23c
00000090: 487a 0f3e 5ddb 793e 86ff 91be f367 9e3d
000000a0: 1353 adbe 1e7d cbbd 6a78 063e 5f59 85be
000000b0: 3d31 023e 1ea0 6bbe bb1b 0cbe c3e7 babe
000000c0: 9c78 69be 282f b83c a7f4 b33d 8d7c adbe
000000d0: 8b1d 9dbe 51aa 413e b48b 4e3e 3786 b23e
000000e0: 6292 12be f83f 373e 4e8f bc3e d0bc 1d3e
000000f0: e26c 8abe a454 c73e 6832 053e 9a79 30be
00000100: 0a05 99be 483f 913e 8f4a b1bd 6063 69be
00000110: 33bb 49be 6b18 fa3d c517 173e 5c97 bd3e
00000120: dbb2 04be 0064 b63e 489a c43e c7fa 95bd
00000130: f83b d0be 4e71 813d 8d34 383e 2143 7a3b
00000140: e06c 71be f261 23bf 7937 c63e a200 a1be
00000150: a61b 313e cf95 bcbe ea9f bd3e c070 27be
00000160: 1cf2 bc3e f866 85be 0d3a 05bd e6eb a83e
00000170: 7768 a13e 2868 63be f17d 87be d231 973e
00000180: bf29 373e 296b 15be d3ff 2b3e 7eb3 a2be
00000190: 5fa7 febd b70d 12be 09ac 463d bdc9 c23e
000001a0: d043 ccbd 561c 8b3d 2f24 09be bec7 8a3e
000001b0: dd83 463e 3543 bcbd 2380 b83e bb13 3cbe
000001c0: 62be 503d f230 623e 1f81 b4bd e061 d1be
000001d0: c9e5 013d 92e7 77be d6ca 7e3e 4e05 df3e
000001e0: 7ed7 9a3e 7871 8d3e 504b 6dbe 0f4c 8abe
000001f0: ea1d bd3d 876d 79be 3cce eb3d 855c e0bd
00000200: 9863 04bf 56cb d13d 6597 4abb 77f9 b7be
00000210: 9376 fe3d 0610 923b fc20 81be e7ed 0bbe
00000220: 70c0 003e 55bb 98be 2e75 3ebe 0bd3 2fbe
00000230: aa2d 43be 0cdc 3abe d0d3 3e3e 1ee2 d1bd
00000240: 1616 8cbe b0d5 763e ac11 a7be cb7e 38be
00000250: 6fb2 aabd b39c 9dbe bff7 e9bc 5504 8ebe
00000260: 17b7 de3d 4e8c 06be ae1b 1d3e 3046 af3e
00000270: 8047 34be b9d2 11be e38c 0fbe ac2e 00be
00000280: 0857 793e 8560 d1be 5b99 06be 577f 86be
00000290: c2b3 193e 4ce2 9b3e 34d4 883e 9fc3 c3be
000002a0: eddb e33d d875 b3be 0f0f 92be a94b 8b3d
000002b0: 5170 d93d faeb 2bbc 6f77 873d eeab 443d
000002c0: 079b 393d ed66 d7be 24a3 74be de09 0abd
000002d0: d68b c2be 1909 183e d238 c33d 7bd0 b63d
000002e0: 30d4 8abe 7b6a 2c3e 6da7 a13e e5d2 923e
000002f0: eaff d9bd 7c0f d1bd 2986 90be feec c43e
00000300: 0612 6fbe 0e4e 95be 5ee2 f23c 4c64 4dbe
00000310: 4fcf 633e d035 433e 7487 b7bd f2c3 4bbc
00000320: 1115 39be b5cc e63d 9538 183e 708b 8abe
00000330: febd 65be 4cce 863e 6658 41be 32cd a93e
00000340: 32ee 34be a75f 1ebe 73af b8be a349 ae3e
00000350: 5d1c c1be 06a1 18bd 9e71 733d ff07 d53d
00000360: 637f 54be 57df b1bd 5426 31be dfd8 52bd
00000370: 496c 18be 7761 babe 6596 3a3e 0e2e 52be
00000380: d580 38be 7c87 8f3e 25c4 0ebf 84a5 6d3e
00000390: ccff 943e 0492 1b3e eb1e 083e e45e 6f3e
000003a0: ccf1 a5bc 09d1 f0be d301 c0bd add8 b13e
000003b0: 6a13 4939 7054 ae3e 6702 34bd 32c9 11be
000003c0: fff2 0cbe 3db7 d1bd 09f6 81be 9d13 d3bd
000003d0: 78cc e13e e9a6 8f3e bdb1 ba3e 4eaa 97bd
000003e0: 9aca 943e c0f5 993e 3f6e b13e 6583 a23e
000003f0: 0c39 83be 5c40 963e efd0 9c3e 3ce9 9b3e
0.28477147 -0.3242588 0.16413732 0.23810786 -0.19359979 0.16080852 0.21263824 0.09337423
0.21171491 -0.065690026 0.31041858 0.13543615 0.1120173 0.18365479 -0.35653663 0.108334616
-0.1556433 -0.35627043 -0.2914347 -0.03469091 0.028346227 -0.26201499 0.1996192 0.05849674
0.03233007 -0.16417652 0.032736737 0.37495217 -0.05185751 0.34035072 -0.49331975 -0.02408189
-0.3352387 0.17449996 0.34598255 0.01986945 0.1401149 0.24400087 -0.2851526 0.077346705
-0.33852443 -0.099359736 0.13131872 -0.26044747 0.12714095 -0.23010299 -0.13682453 -0.36504945
-0.22799915 0.022483423 0.08786898 -0.33884087 -0.30686602 0.18912627 0.2017048 0.34868023
-0.14313653 0.17895496 0.36828083 0.15404058 -0.27036196 0.38931763 0.1300751 -0.17233887
-0.29886657 0.28368592 -0.08656799 -0.22791815 -0.19700317 0.122116886 0.14755161 0.3702954
-0.12958853 0.3562317 0.38398957 -0.073232226 -0.40670753 0.06320439 0.17988797 0.0038186985
-0.23576689 -0.6382133 0.38714197 -0.31445795 0.17295703 -0.36833045 0.37036067 -0.16351604
0.36903465 -0.2605512 -0.032526065 0.32992476 0.31525013 -0.22207701 -0.26463273 0.29530197
0.17887019 -0.1459166 0.16796808 -0.31777567 -0.12434267 -0.14263044 0.04850391 0.3804454
-0.09973872 0.06792514 -0.13392709 0.27105516 0.1938624 -0.09192506 0.3603526 -0.18366902
0.050962813 0.22088984 -0.088136904 -0.40894985 0.03171328 -0.24209431 0.24882063 0.43558735
0.30242532 0.27625632 -0.2317326 -0.27011153 0.09234221 -0.24358188 0.115139455 -0.10955147
-0.5171447 0.102438614 -0.0030912992 -0.35932514 0.1242496 0.0044574765 -0.25220478 -0.13664971
0.12573409 -0.29830423 -0.18599388 -0.1717035 -0.19060388 -0.18248004 0.18635488 -0.102482066
-0.273606 0.24104953 -0.3263067 -0.18017118 -0.08334815 -0.30783615 -0.028560517 -0.2773768
0.10874765 -0.1313946 0.1534259 0.34233236 -0.176054 -0.1424054 -0.14018588 -0.12517804
0.24349606 -0.4089395 -0.13144438 -0.26269028 0.15009978 0.30446088 0.26724398 -0.38235185
0.11125932 -0.35050845 -0.28527114 0.068015404 0.10617126 -0.010493273 0.06614577 0.048015527
0.04531386 -0.42070714 -0.23890358 -0.033700816 -0.3799731 0.1484722 0.09532322 0.08926483
-0.2711501 0.16837494 0.31573048 0.28676525 -0.10644515 -0.102080315 -0.28227356 0.3846206
-0.23346719 -0.29161114 0.029648956 -0.20057791 0.2224705 0.19063497 -0.089613825 -0.012436854
-0.18074442 0.112695135 0.14865334 -0.27059507 -0.22435758 0.26329267 -0.18881378 0.33164364
-0.1766899 -0.15466176 -0.36071357 0.34040555 -0.37716952 -0.03726294 0.059434526 0.10401916
-0.20751719 -0.08685177 -0.17299777 -0.051476356 -0.14885058 -0.36402485 0.18221433 -0.20525381
-0.18017896 0.28033054 -0.5576804 0.2320767 0.29101408 0.1519242 0.13293044 0.23376042
-0.0202569 -0.4703448 -0.09375348 0.34735623 0.00019176086 0.34048796 -0.043947604 -0.14236906
-0.1376457 -0.10240028 -0.25383022 -0.10306475 0.4410131 0.2805703 0.3646373 -0.0740553
0.29060823 0.30070305 0.34654424 0.3174087 -0.2562946 0.29345977 0.30628154 0.3045138

fc1.bias f4 [128]
00000000: 0a15 83be 72f5 bd3d ad3f d33d 81f7 afbd
00000010: e417 a63e 3307 aebe 4072 203d 7c6a 5e3e
00000020: 9bea cabb 5be1 7fbd 46a9 293e 2dae 613d
00000030: 2210 bdbe a867 66bd 404d 75be c326 85be
00000040: 6bcb 04be b637 9cbe e84a 7d3e 9b05 883d
00000050: 2c60 5ebe 273f 9abd 522e 5e3e 0b91 0b3d
00000060: ba73 f8bd 95f8 5f3e 23ab b03e e07f b43e
00000070: 8648 6c3d 8f40 743e f74f 61be 0e75 b1be
00000080: f052 cdbc e46e c33d afe8 873c a5c0 ba3e
00000090: 1942 943e ef62 4d3e 9118 443d ebb2 7c3c
000000a0: 4350 ae3e 1541 853e 7de3 9b3c 042c cd3e
000000b0: 2a83 88bd a758 813e 2c30 713e 5fed 4f3d
000000c0: 623d a9be 5f05 053e e2ad 3c3b 7f08 bdbe
000000d0: d2cf 51be c60b d5be c28f 4abd b9db cc3d
000000e0: 4028 8dbe f603 a7be 90c6 c0be 2ca1 b93e
000000f0: 4ca3 f13d 5624 5cbe df82 d3bd 15de 61bd
00000100: 79be a9bd b633 563e 846e 90bd fb93 27be
00000110: 5c20 1abe 768e c4bd 793e 7b3e 65c9 9c3c
00000120: c136 2cbe 11f4 56bc 2b3d 143e bf93 b6be
00000130: a3c2 513e 006e 553d 82c5 b93d b7be 1bbe
00000140: cffb 983e c123 d8bd 104b 953e 876b 97be
00000150: 17a5 f4bc feb6 a13e f245 2fbe 7e4c 5dbe
00000160: b27d c13e 5ac4 a33d 4e63 69bd e48a 76be
00000170: 0a5c ac3e 76c8 c13e dd18 6ebd bed6 503e
00000180: 148f babe 3f4b a93e 57aa fc3d eccb aabd
00000190: 9d99 093e c8ab bd3e 002a 5a3e eeff 9bbd
000001a0: 3102 ef3d 7afd 05be 4301 43be 0069 9a3e
000001b0: 6036 833e 601e 8ebe 63b7 32be 3d2a 9a3e
000001c0: ad9a 963e 124f 783e 29e2 b33e c743 abbe
000001d0: 886e 4e3b 8f36 53bd 90eb 8f3e 92cc 6cbd
000001e0: 85a6 d83d a6c6 6ebc e40a 3dbe 9b88 ca3d
000001f0: eb7e 61be 61d7 46be ab0e a93e 19a4 94be
-0.2560199 0.092753306 0.103148796 -0.085921295 0.32440102 -0.33989868 0.039171457 0.21720308
-0.006192518 -0.062470775 0.16568479 0.055097748 -0.3692637 -0.056251198 -0.2395525 -0.26006135
-0.12968223 -0.30511254 0.24735606 0.06641694 -0.21716374 -0.075315766 0.21697357 0.03407387
-0.12131448 0.2187217 0.34505567 0.3525381 0.05768635 0.23852752 -0.2200316 -0.34659618
-0.025063962 0.09542635 0.016590444 0.364751 0.28956679 0.20057271 0.04787499 0.015423517
0.3404561 0.26026216 0.019029373 0.40072644 -0.066656426 0.2526295 0.23553532 0.050763484
-0.33054644 0.1299033 0.0028790166 -0.36920545 -0.20489433 -0.41610545 -0.049453504 0.10002846
-0.2756977 -0.3262021 -0.3765149 0.36255777 0.117987245 -0.21498236 -0.10327696 -0.055143435
-0.08288283 0.20918164 -0.07052329 -0.16365044 -0.15051407 -0.09597485 0.2453555 0.019139001
-0.16817762 -0.013119713 0.14476459 -0.35659596 0.20484404 0.052106857 0.09070875 -0.1520947
0.29879615 -0.105536945 0.2915883 -0.29574224 -0.029863877 0.31584924 -0.17116526 -0.2161121
0.3779121 0.079964355 -0.05697947 -0.2407642 0.3366397 0.37848252 -0.05812918 0.20394418
-0.36437285 0.3306522 0.12337177 -0.08339676 0.13437505 0.3704512 0.21305084 -0.07617174
0.1167034 -0.13084975 -0.1904345 0.30158234 0.25627422 -0.2775755 -0.17452769 0.3011035
0.29414883 0.24248913 0.35133484 -0.33450148 0.0031498987 -0.051565703 0.28109407 -0.05781228
0.10578636 -0.014573729 -0.18461186 0.09889337 -0.22021072 -0.19418098 0.33019003 -0.29031447

fc2.weight f4 [128, 128]
00000000: 4d0c 1e3e 08cc a0bc 88ad 0abb ffde e13c
00000010: c0db 34bd 1efd 4fbd 007f 94bd cc58 2abb
00000020: 896b b1bc 201b 3e3d 3fc4 1abd d0aa ab3d
00000030: e79c 88bc c5e4 843d 44f5 1ebb 41f2 573d
00000040: dbe6 ac3c 527e 223d e150 313d 15e8 d3bc
00000050: 06e5 033d bfed 6b3c f3eb 27bd 4920 62bd
00000060: d8da ccbd 483d bdbd 0322 933d 222c 423d
00000070: 7df9 4b3d 778f 10bd eb38 533d 61b7 e0bb
00000080: e7aa 83bd fafe 9bbc 1731 41bb 5cef 75bd
00000090: 4060 a63d 3c71 b03d 5c63 c33d 1605 abbc
000000a0: 29ba d83d 343c 43bc ed45 aa3c 7fc4 cc3d
000000b0: 6d08 2b3d 1d2b 823c 67d2 4bbd f8e6 123c
000000c0: 22df ba3b 80c6 83bd 2414 99bd c59d 1cbd
000000d0: ceb8 a53d cc19 8b3d c878 ba3d 4a88 67bc
000000e0: 55df c63a bd4e 3cbd 13fb 383d 2945 76bb
000000f0: cc71 4b3d 4d84 2abd ed41 00bd f5e3 b53d
00000100: 2fb8 30bd d37f 80ba cc24 c53c 3cea 293e
00000110: 96a9 b0bd f272 a13d 4661 a4bc bbd6 09bd
00000120: dcf1 7b3b 6524 4bbc 225a 62bd d2df f43d
00000130: 895e 563d 3028 f13d 98ab 113d 830c 45bd
00000140: 66f5 89bb f79a eebd d20b 613d 0e0b 3a3d
00000150: f489 d63d 2ce2 1f3d e17e 073d d19a 3dba
00000160: 2f78 873d 94d0 f53d 088f 423a 5d5f 2a3c
00000170: c87c 573d 0d24 55bc baaa 49bd 097c aa3d
00000180: 7762 463d 5062 1fbd 1ca2 da3c ac05 8f3d
00000190: 37b1 e7bd 8cd1 22bd f509 133e de34 6f3d
000001a0: 1d42 a6bd cd60 10bd 099f d93d c375 dd3c
000001b0: 410b 093e db61 473d d20a 943d 4534 81bd
000001c0: 0df1 a8bd 19e3 28bb 4d9f 203e bae8 b7bd
000001d0: 0adf 63bd 2eb0 8a3d 7d0c 7d3c 7213 773c
000001e0: 4923 94bd 08c6 a53d 7db5 d33d 9227 923d
000001f0: 3346 fabd eaf2 ebbc b569 b63d 0b6c 4e3d
00000200: c6be d6bd 5b4d 393d d144 343d 1493 d8bc
00000210: 2853 babd 3104 acbd 63a3 b4bd 5706 27bd
00000220: 9523 78bd 9ff4 b43d e8ae 233d 2843 42bc
00000230: 9673 93bd aacb 353d ea65 ccbd 0950 b13d
00000240: bcf6 ab3d 3181 2dbc 3488 ba3d 8e94 843d
00000250: a4c8 693d 5ca6 91bc 04fe f8bd a5c3 413d
00000260: 7e05 b73c 782a 55bd 7a84 883c b8a0 043d
00000270: b451 f1bc d104 f43d 9d2a 89bc 0223 cdbc
00000280: 08b6 97bd 61e3 a6bc 6e2c 03be 9964 d33d
00000290: 5cb3 17bd 111d 1b3e b78d ccbd 3202 dbbb
000002a0: 04db 1b3e 4d07 103e e532 a43c 5cc1 91bd
000002b0: bae4 b33d 8c27 793d 359c 8d3c c16b 90bb
000002c0: 1944 49bd 4a1e a7bd 6f50 18be 661b a93d
000002d0: 31e9 a83d e1fd a73c a8d6 d0bb 16d9 f03d
000002e0: b0c9 84bd f2c3 b33d 0896 aa3d 531c bf3d
000002f0: 26ea 283d fb99 183e 09c4 c53d e069 8c3d
00000300: 9605 d23d 2b00 123d b3bc a5bd 3b30 8b3d
00000310: 7624 483d fae4 743d 857d 9b3d 44ef aabd
00000320: 656d 673d c3b0 a83e 550c 053c b77f 7fbd
00000330: b6ae 573d 51fc 91bd c40a 25bd 7f94 c5bb
00000340: 2ea5 3fbd b509 373e c158 8cbd b7d1 6dbc
00000350: 6f81 09be ff4b 6a3c 27d7 5abd d066 76bd
00000360: 4d63 9fbc 2a33 2cbd 79fe 543c d332 94bd
00000370: b502 af3d 664f da3c fe8a 96bd b045 02bd
00000380: 13b8 dabb 5ea2 983d f787 b43c 0351 08bd
00000390: 589b 05be 6d63 0abd 194a a13c d4d2 683d
000003a0: ee64 f83d fd1d 843c 7675 90b9 86df 1d3d
000003b0: 999f 323d 0762 40be 2c9f 023d 917d efbd
000003c0: 45d5 483d c078 82bd 9216 4c3b 7ce8 b2bd
000003d0: 524d cabc 2ac6 31bd b964 2d3d 9b29 02bd
000003e0: 248d 1dbd 7b11 3f3d fcf2 833b e944 923d
000003f0: 8d24 d3bd 5b27 5e3d f9c8 0c3d bdaf 65bd
0.1543438 -0.01962854 -0.0021160562 0.027572153 -0.044154882 -0.0507785 -0.07250786 -0.0025992868
-0.021657722 0.046412587 -0.03778481 0.08382189 -0.01667638 0.06488947 -0.0024255076 0.052721266
0.021106174 0.03967125 0.043290023 -0.025867501 0.032200836 0.014399945 -0.040996503 -0.05520657
-0.10002679 -0.09240204 0.071842216 0.04740537 0.049798477 -0.03529307 0.051567953 -0.006857798
-0.064290814 -0.01904248 -0.0029478723 -0.060042724 0.08123827 0.08615348 0.09540436 -0.020876449
0.10582382 -0.011916209 0.020785296 0.09998416 0.041756082 0.015889699 -0.049761202 0.0089662
0.005702869 -0.06434345 -0.07474545 -0.0382364 0.08091889 0.0679203 0.091050684 -0.014131615
0.0015172759 -0.04597353 0.045161318 -0.0037577844 0.049669072 -0.041630078 -0.03131287 0.0888137
-0.0431444 -0.000980372 0.024065398 0.1659326 -0.08626096 0.07883252 -0.020065915 -0.03365205
0.003844372 -0.012398814 -0.05526174 0.11956753 0.05233625 0.11775243 0.035564035 -0.048107635
-0.004210162 -0.11650651 0.054942913 0.0454207 0.10475531 0.039034054 0.033079986 -0.0007232847
0.0661472 0.12002674 0.0007421826 0.010398713 0.052609235 -0.013009083 -0.049235083 0.08324439
0.048433747 -0.038912117 0.026688628 0.06983504 -0.11313098 -0.03975062 0.14359267 0.058400027
-0.08118079 -0.035248566 0.10626037 0.027033692 0.133832 0.048677307 0.07228626 -0.06308798
-0.08249102 -0.0025770126 0.15685768 -0.08979936 -0.05563263 0.06771885 0.015444872 0.01508032
-0.072332926 0.08094412 0.103373505 0.07136454 -0.12220421 -0.028802354 0.08906881 0.050396007
-0.10485606 0.045239788 0.04401094 -0.02643732 -0.09097892 -0.08399237 -0.08820226 -0.04077753
-0.06058081 0.0883572 0.039961725 -0.011856832 -0.07199781 0.044383682 -0.09980376 0.086578436
0.0839667 -0.010589884 0.0910801 0.06473647 0.05707611 -0.017779522 -0.12157825 0.04730572
0.022341486 -0.052042454 0.016664732 0.032379836 -0.029457904 0.11914981 -0.016743952 -0.025041107
-0.074077666 -0.020372095 -0.12809917 0.10321922 -0.037036285 0.15147807 -0.099879675 -0.0066836113
0.15220267 0.14065285 0.0200438 -0.071169585 0.087838605 0.06082873 0.0172864 -0.0044073765
-0.04913721 -0.08160074 -0.14874433 0.08257179 0.08247603 0.020506801 -0.0063732453 0.11760156
-0.06483781 0.08777608 0.083293974 0.09331574 0.041238926 0.14902489 0.09656531 0.068561316
0.10254972 0.03564469 -0.08092632 0.067963086 0.048862897 0.05978868 0.075923 -0.083464175
0.05650081 0.32947358 0.008120616 -0.062377658 0.05265685 -0.07128204 -0.04029347 -0.006029665
-0.046788387 0.17874797 -0.06852866 -0.014515332 -0.13428281 0.014300345 -0.05342784 -0.060156643
-0.01945653 -0.04204098 0.013000124 -0.072362565 0.08545438 0.026649188 -0.073507294 -0.03180474
-0.0066747754 0.07452844 0.02203749 -0.033280384 -0.1304754 -0.033786226 0.019688653 0.056841686
0.12128626 0.01612758 -0.00027553336 0.038543247 0.043609235 -0.18787394 0.03189008 -0.11693872
0.049031515 -0.063706875 0.0031141383 -0.08735749 -0.024695072 -0.043401875 0.042332385 -0.03177796
-0.03846468 0.04664753 0.0040267687 0.0714205 -0.10309706 0.05423675 0.03437135 -0.0560758
