flappybird_dqn_ep220.pth (torch, 561729 bytes, 32 tensors)

fc1.weight f4 [128, 7]
00000000: f721 883e e960 f5be 1390 313e 8ba7 5c3e
00000010: 8e0c 82be e3ff 303e d78b 5d3e 1c78 853d
00000020: 42ab 8f3e 40c1 853c 5c00 853e 86ce b13d
00000030: d3e7 a03d faa4 293e f88b b6be 8ade dd3d
00000040: f560 1fbe 1469 b6be ee36 95be 0e18 0ebd
00000050: 5936 e83c bb06 74be 40b3 583e 291c 513d
00000060: 0095 e53d b84f 293b 95b1 aa3d e9aa d63e
00000070: 6d75 12bd 8af9 c43e bb5b 08bf dd0e abbd
00000080: 4776 c1be 1da2 3e3e 0462 bf3e 42c5 a23c
00000090: 487a 0f3e 5ddb 793e 86ff 91be f367 9e3d
000000a0: 1353 adbe 1e7d cbbd 6a78 063e 5f59 85be
000000b0: 3d31 023e 1ea0 6bbe bb1b 0cbe c3e7 babe
000000c0: 9c78 69be 7684 b8bc 2969 063e bee2 a8be
000000d0: f7cb b0be 8ba3 013e 0fd2 373e e683 b43e
000000e0: d0b3 13be 8f3f 283e f5ec ca3e 95fe 043e
000000f0: ff84 a1be b9b5 cb3e 7a18 0c3e 9a79 30be
00000100: 0a05 99be 483f 913e 8f4a b1bd 6063 69be
00000110: 33bb 49be 6b18 fa3d b9dc 1c3e b097 c43e
00000120: 5f85 e7bb 6661 bc3e 1226 c93e 6dfa 85bd
00000130: 40b0 f0be ecd3 ff3d 3982 86be 9bca 103d
00000140: 8c58 46be fffd 25bf 9c84 e93e b836 6ebe
00000150: 9cb8 213e cf95 bcbe bcec b53e 17d3 36be
00000160: 113f b53e 261a 8dbe 09c7 42bd 6e14 9c3e
00000170: cf8c a83e a6f4 64be 0812 95be b13f 9a3e
00000180: 9301 143e 3c11 73be 5213 483e 620e 90be
00000190: 7337 1bbe 49fc 22be 4acb 0c3d 89fa c13e
000001a0: d1bc 2cbe 141c fb3d e8b0 60be e605 7d3e
000001b0: d147 703e 8321 00be af18 d13e 06e0 d2bd
000001c0: 7708 da3c ede3 4c3e dcab ddbd de7d debe
000001d0: 6903 af3b 13f6 88be 6071 633e 7cf4 f93e
000001e0: fd6c 573e f65a 9c3e 245b 47be 90d1 b3be
000001f0: c845 023e 4dc9 4abe 52ea 053e 7319 54bd
00000200: d050 53bf 96e3 6c3d 8784 d0ba bd75 c0be
00000210: 60c5 fa3d 0610 923b fc20 81be e7ed 0bbe
00000220: 70c0 003e 55bb 98be 2e75 3ebe 0bd3 2fbe
00000230: aa2d 43be 0cdc 3abe d0d3 3e3e 1ee2 d1bd
00000240: 1616 8cbe b0d5 763e ac11 a7be cb7e 38be
00000250: 6fb2 aabd b39c 9dbe bff7 e9bc 5504 8ebe
00000260: 17b7 de3d 4e8c 06be 79df 483e 5a63 b73e
00000270: 05c5 85be ca91 1fbe 4dba 1fbe 9d2b e1bd
00000280: 8449 973e 8561 efbe ce64 2abe cc37 64bd
00000290: b51f 503e 2b95 b03e 392d 983e a647 e2be
000002a0: 978c e53d a75d b8be 4868 c5be b236 a93d
000002b0: ab82 ee3d 871b ddbb b45e 623d ffaf 5e3d
000002c0: 6417 9a3d 8897 6dbf d851 64be 30fb 77bc
000002d0: 3180 bbbe f546 2c3e 0d90 943d 131e d03d
000002e0: 6d0c 8abe 1e9d 0d3e 8897 8a3e 91c0 823e
000002f0: bbde 67be 278f 91bc 4538 81be 9f9d ce3e
00000300: a2d0 8fbe 7996 aebe b69f 993c 1873 2dbe
00000310: 96d2 7f3e 7850 fc3d 2aeb 09be 95e4 0fbd
00000320: 5cea 6dbe f7fb dc3d e40d f13d a817 9cbe
00000330: 81a0 50be 5c3a 9e3e 29b2 04be 88e7 e53e
00000340: f2d7 1bbe 3c93 1dbe 73af b8be a349 ae3e
00000350: 5d1c c1be 06a1 18bd 9e71 733d ff07 d53d
00000360: 637f 54be 57df b1bd 5426 31be dfd8 52bd
00000370: 496c 18be 7761 babe 6596 3a3e 0e2e 52be
00000380: 6b11 3fbe d285 983e 8f28 3cbf 08b5 733e
00000390: f53f 933e 146c 153e 5b64 033e 7658 643e
000003a0: 89bd fbbc 6bf8 dcbe fd3e 82bd 65f5 c13e
000003b0: 9b30 c23c 1d35 bd3e c2e0 3abd 202c 2bbc
000003c0: 3906 3fbe 3c17 09be d352 97be 5f8c 11be
000003d0: 9518 ec3e bebd 573e d361 d63e 9b64 6dbd
000003e0: 3a90 8e3e 6baf 7e3e e21a 9d3e 5e1e 993e
000003f0: 0ca3 9fbe 684d a23e 9f72 bd3e 95be a03e
0.26588413 -0.479255 0.17340116 0.21548288 -0.25400203 0.17285113 0.21635376 0.0651705
0.28060347 0.0163275 0.25976837 0.08681969 0.07856717 0.1656684 -0.35653663 0.108334616
-0.1556433 -0.35627043 -0.2914347 -0.03469091 0.028346227 -0.23830692 0.21162128 0.051052246
0.1121006 0.002583487 0.08334652 0.4192727 -0.035756517 0.38471633 -0.5326497 -0.08352444
-0.3778555 0.18616529 0.37379467 0.01986945 0.1401149 0.24400087 -0.2851526 0.077346705
-0.33852443 -0.099359736 0.13131872 -0.26044747 0.12714095 -0.23010299 -0.13682453 -0.36504945
-0.22799915 -0.0225241 0.13126053 -0.3298549 -0.34530613 0.12660043 0.17951225 0.3525688
-0.14424062 0.16430496 0.3963391 0.1298774 -0.3154678 0.3978708 0.13681212 -0.17233887
-0.29886657 0.28368592 -0.08656799 -0.22791815 -0.19700317 0.122116886 0.15318574 0.38396978
-0.0070654596 0.3679306 0.39286858 -0.065419056 -0.47009468 0.12491593 -0.26271227 0.03534947
-0.19369715 -0.6484069 0.45608985 -0.23263061 0.15793079 -0.36833045 0.35532176 -0.17853962
0.35399678 -0.27559012 -0.047553096 0.30484337 0.32919928 -0.22358951 -0.2911532 0.30126718
0.14453726 -0.23737043 0.1953862 -0.28135973 -0.15157871 -0.15916552 0.03437356 0.37886456
-0.16868903 0.12261215 -0.21942484 0.24709281 0.23464896 -0.12512784 0.40839145 -0.10296635
0.026615364 0.20008822 -0.10823795 -0.43455404 0.0053409827 -0.2675024 0.22211218 0.4881934
0.2103767 0.30538148 -0.19468361 -0.3512082 0.12721932 -0.19803353 0.13077667 -0.051782083
-0.82545185 0.05783423 -0.0015908637 -0.37589827 0.122446775 0.0044574765 -0.25220478 -0.13664971
0.12573409 -0.29830423 -0.18599388 -0.1717035 -0.19060388 -0.18248004 0.18635488 -0.102482066
-0.273606 0.24104953 -0.3263067 -0.18017118 -0.08334815 -0.30783615 -0.028560517 -0.2773768
0.10874765 -0.1313946 0.19616498 0.35817987 -0.26126876 -0.15582958 -0.15598412 -0.10994647
0.29548275 -0.4675409 -0.16640016 -0.055717275 0.20324595 0.34488806 0.29722002 -0.44195288
0.11208456 -0.3600895 -0.38556123 0.082623854 0.11646017 -0.0067476663 0.055266097 0.05436706
0.07523993 -0.92809343 -0.22296846 -0.015135571 -0.3662124 0.16823943 0.07254038 0.10161986
-0.26962605 0.13829467 0.27068734 0.25537542 -0.22643559 -0.017768456 -0.25238243 0.4035463
-0.28088862 -0.34099177 0.018752914 -0.16938436 0.24982676 0.12320036 -0.13468614 -0.035130102
-0.23233932 0.10790246 0.117702276 -0.30486798 -0.20373727 0.309039 -0.12958588 0.44903207
-0.15219095 -0.15388197 -0.36071357 0.34040555 -0.37716952 -0.03726294 0.059434526 0.10401916
-0.20751719 -0.08685177 -0.17299777 -0.051476356 -0.14885058 -0.36402485 0.18221433 -0.20525381
-0.18658988 0.29789597 -0.7349939 0.23799527 0.28759733 0.1459201 0.12831251 0.2229937
-0.030730026 -0.43158278 -0.0635967 0.37882534 0.023704818 0.36954585 -0.045624502 -0.010447532
-0.18654718 -0.1338777 -0.29555377 -0.14213704 0.46112505 0.21068475 0.4187151 -0.057957273
0.2784441 0.24871604 0.30684572 0.2990598 -0.31179082 0.3169968 0.3700151 0.31395403

fc1.bias f4 [128]
00000000: eba0 97be 3eb6 4e3d ad3f d33d 13d5 b4bc
00000010: 8789 9d3e 3307 aebe 4072 203d bfd7 323e
00000020: c4fc 10bd 5be1 7fbd d1ae 2d3e 2f4e ec3d
00000030: 50c3 c4be bd90 83bd b5fd 69be 52bb 85be
00000040: 101f 1fbe 61d2 89be b29b 853e 9b05 883d
00000050: 2c60 5ebe 273f 9abd ffa4 6b3e 1112 603d
00000060: 94cb e4bd bcf3 743e 7dbc 9d3e 6ebf ba3e
00000070: 9760 2a3d 73a7 833e f74f 61be 0e75 b1be
00000080: 5e08 acbc 0abe e83d 80f3 833b 73b3 a03e
00000090: 8eb8 833e ac42 3f3e 199d ea3c ac21 dd3a
000000a0: 3bb4 a53e 82e2 893e b671 2ebb d764 ce3e
000000b0: 3f22 02be 585d 583e 7714 4c3e cd45 6d3d
000000c0: 623d a9be 5f05 053e 090f bebb 7f08 bdbe
000000d0: d2cf 51be 1ed0 ddbe 8041 97bd 9b50 c43d
000000e0: 4028 8dbe f603 a7be 90c6 c0be c7fa a13e
000000f0: 9208 ee3d a917 35be 5eac a3bd 52f4 aabd
00000100: 3c20 b0bd 7007 3b3e 846e 90bd d5db 04be
00000110: 5c20 1abe 7251 6bbd 9ee1 773e bc83 303c
00000120: cde2 2ebe 3b83 72bc 6505 183e 68eb adbe
00000130: 0654 4c3e fd0d 143d 92c9 663d b7be 1bbe
00000140: 37b3 8e3e 44fa c1bd 427c 903e 66a7 9ebe
00000150: 183c 89bd f813 953e f245 2fbe 5bf4 1ebe
00000160: dfd6 b63e 36a5 a43d 207a acbd e48a 76be
00000170: a2ef a43e 1fd1 bc3e dd18 6ebd 0f20 483e
00000180: 148f babe 4b5b a53e 673e 003e bbf7 3ebd
00000190: e9c9 fa3d e041 b03e f791 703e 05e5 92bd
000001a0: 47bd dc3d cd3f 20be 08d7 0cbe fab5 953e
000001b0: 229b 853e 6463 95be 8791 24be 4a1e 943e
000001c0: 85e9 8b3e 96aa 373e 1edc ad3e d2ae adbe
000001d0: 51a6 cabc 8f36 53bd 84a6 913e e0c4 b3bd
000001e0: 1aa0 a83d ba5f 0a3d 0fb1 42be 9642 e33d
000001f0: ec0b 3bbe 3d84 3bbe f6bf 943e 19a4 94be
-0.29614958 0.05046677 0.103148796 -0.022074258 0.30768988 -0.33989868 0.039171457 0.17465113
-0.035397306 -0.062470775 0.16961218 0.1153835 -0.38430262 -0.06424091 -0.22850688 -0.26119477
-0.15539193 -0.2691832 0.2609535 0.06641694 -0.21716374 -0.075315766 0.2301216 0.05470473
-0.11171642 0.23921102 0.30807868 0.36474174 0.04159602 0.2571369 -0.2200316 -0.34659618
-0.021000084 0.11364372 0.00402683 0.3138691 0.25726742 0.18677777 0.028639363 0.0016870997
0.32364067 0.26930624 -0.002661807 0.4031131 -0.12708376 0.21129358 0.19929682 0.057927895
-0.33054644 0.1299033 -0.005800132 -0.36920545 -0.20489433 -0.43322843 -0.0738554 0.09585687
-0.2756977 -0.3262021 -0.3765149 0.3163664 0.116227284 -0.17684807 -0.07991861 -0.08347382
-0.08599898 0.18264556 -0.07052329 -0.12974484 -0.15051407 -0.05745072 0.2420716 0.010773595
-0.17078705 -0.014801796 0.14845808 -0.33968663 0.19953927 0.036146153 0.056344576 -0.1520947
0.27871105 -0.094715625 0.282198 -0.3098709 -0.06700915 0.29116797 -0.17116526 -0.15522902
0.3571081 0.08039324 -0.08421731 -0.2407642 0.32214075 0.36878297 -0.05812918 0.1954348
-0.36437285 0.32296214 0.12523805 -0.046622973 0.122455426 0.3442526 0.23493181 -0.07172588
0.10778289 -0.15649338 -0.13753903 0.292404 0.2609492 -0.29177392 -0.1607114 0.2892936
0.273266 0.17936167 0.33957 -0.3392244 -0.024737509 -0.051565703 0.28447354 -0.08777785
0.08233662 0.0337827 -0.19012855 0.11096685 -0.18266267 -0.18312164 0.29052705 -0.29031447

fc2.weight f4 [128, 128]
00000000: 7a94 553e c20f f1bc 88ad 0abb d5d6 4ebc
00000010: 87ed e2bc 1efd 4fbd 007f 94bd 96ef efbc
00000020: ca77 92bb 201b 3e3d 75b0 0ebd 2def 663e
00000030: f4e6 f6bc 1a9b 143e 7bb9 b73c 0e05 a53d
00000040: dbe6 ac3c 6306 183e 39f5 4a3c 15e8 d3bc
00000050: 06e5 033d bfed 6b3c 0b11 dc3c 4113 cabd
00000060: 7d1a 2abe 95d0 21be 7696 5e3d acfe bf3d
00000070: 362f e13d e91b 07be eb38 533d 61b7 e0bb
00000080: 1e30 e1bd c4ed 82bd 6a41 d2bd a04d 88bd
00000090: a0eb 873d f4cf fb3b 795f 3b3e fe2b d3bc
000000a0: ddea 133e cde5 813d 30c4 8d3d 8a53 443e
000000b0: c0b4 973c c701 513b 55f2 38bd c04c 5fbd
000000c0: 22df ba3b 80c6 83bd 7686 02be c59d 1cbd
000000d0: ceb8 a53d a7d7 933b be8a 873d 925e a8bc
000000e0: 55df c63a bd4e 3cbd 13fb 383d d25b ccba
000000f0: 24da 203e 61b5 7fbe 31d8 d93b 2085 d43d
00000100: c4a6 61be 0ec3 9dbc cc24 c53c c9dc 383e
00000110: 96a9 b0bd fe2e fe3d c3de 3dbc 0bec 03be
00000120: 7463 8a3c e6ca 503d d811 fdbd 42e1 623e
00000130: 5b2c 573b 3402 313e 8591 143e 830c 45bd
00000140: a85c 113c 98d1 81be eef3 2abc 27ba 0e3d
00000150: 7b3b 823e 4a64 e2bc e17e 073d df16 e53d
00000160: dab3 133e a318 623e 08b1 163d 5d5f 2a3c
00000170: 8a70 703d 13d7 10bd baaa 49bd 07bf c93b
00000180: 7762 463d 5cab 5dbd 93e7 8bbc 1ebd 77bc
00000190: f570 ffbd af53 7ebd 0f75 723e 3207 76bc
000001a0: 6a29 e4bd f1c0 56bd 74a7 243e 9a6b dfbc
000001b0: 449b 443e e8f9 0a3e ef52 063e 3e00 9dbc
000001c0: 6f7d cdbd 05e4 993c 38df 683e 4e2d 19be
000001d0: d1fe e2bc 2eb0 8a3d 02e9 833d 032a 29bd
000001e0: e51f d7bd 6e65 20bc 1aee 393e f617 fd3c
000001f0: b4f3 6abe 2614 dcbd 1ca9 0b3e 0b6c 4e3d
00000200: 67ff e7bd 0d8f b33d d144 343d cbbe 963d
00000210: 9111 cebd 3104 acbd 63a3 b4bd 0e99 78bc
00000220: 9b54 e6bc 9ff4 b43d 5505 b73d 1b66 9fbd
00000230: e1a8 b0bd 52c5 183c 63ef 16be b9c2 a93d
00000240: b9f5 983d 3c9d a8bd eb8e 773c 8e94 843d
00000250: a4c8 693d 5ca6 91bc 2fd4 20be 7778 57bb
00000260: 7909 1c3c ba15 6cbe 17d9 503d fafc 303d
00000270: 5427 5dbd 98c2 483e 9d2a 89bc 0223 cdbc
00000280: a89d abbd 68cb ac3c 344c 54be 77be 133e
00000290: 0be8 9f3c 7bf9 6c3e 9628 61be d4d1 513c
000002a0: d674 4b3e a86f e43d 7437 273d f668 d1bd
000002b0: 4d9d b33d e0bf e13d 9ce1 223c fde6 11be
000002c0: 1944 49bd 4a1e a7bd 3184 8bbe 661b a93d
000002d0: 31e9 a83d f964 b9bb 19db 663d 9e42 423e
000002e0: b0c9 84bd f2c3 b33d 0896 aa3d abff ef3d
000002f0: 0342 89ba bd11 7d3e 61f7 123e 8b10 bc3d
00000300: 8a14 363e 4055 853d b3bc a5bd 9928 dc3c
00000310: 7624 483d 16a7 243e f9b4 153e 7d0f 29be
00000320: 98e2 af3d 8123 ed3e 392a a73d 7e7e 10be
00000330: c62f d23d 3031 89bd 4d18 04be 7f94 c5bb
00000340: dcc8 72bd bd6d 803e 5432 8f3b bf3c 02bb
00000350: fbb7 84be 5843 a03d 27d7 5abd f348 1cbe
00000360: 21aa 5dbc 7b55 64bd c068 0b3d d332 94bd
00000370: 37e2 083e 3a0d 483b fe8a 96bd f3aa 893d
00000380: 13b8 dabb 6c84 cc3d 86ee 4d3d fe70 94bd
00000390: 2844 86bd 3d29 7b3c 3938 1bbd cfda 473e
000003a0: c0ed 2f3e c6d5 bfbc bc95 9c3d af27 de3d
000003b0: f001 b63d d45f bebe bcad 2a3d 9255 0bbe
000003c0: 7200 0b3d 1d83 97bd 3bf1 c23c 6f52 82bd
000003d0: 96e2 bdba 2ac6 31bd 8a62 963d ffef af3d
000003e0: 0ec9 95bb 9b24 a43c 4a23 0cbe 61bf 20bd
000003f0: 2363 89bd 6a38 873d addd 3f3d bdaf 65bd
0.2085742 -0.02942646 -0.0021160562 -0.012624462 -0.027701152 -0.0507785 -0.07250786 -0.029289048
-0.0044698464 0.046412587 -0.03483625 0.22552176 -0.030139424 0.14512292 0.022427311 0.08057605
0.021106174 0.14846186 0.012387567 -0.025867501 0.032200836 0.014399945 0.026863595 -0.09866954
-0.16611667 -0.15802224 0.05434271 0.09374747 0.10995333 -0.1319424 0.051567953 -0.006857798
-0.10995506 -0.063930064 -0.10266383 -0.06655431 0.06636739 0.007684702 0.18298139 -0.025777813
0.14445062 0.06342659 0.069221854 0.19172493 0.018518806 0.0031891929 -0.04515298 -0.054516554
0.005702869 -0.06434345 -0.12746605 -0.0382364 0.08091889 0.0045117917 0.0661826 -0.020552907
0.0015172759 -0.04597353 0.045161318 -0.001559133 0.15708214 -0.24971534 0.0066480865 0.10376954
-0.22036272 -0.019258048 0.024065398 0.18052973 -0.08626096 0.12411307 -0.011588755 -0.12883012
0.016893126 0.05097475 -0.12356919 0.22156242 0.0032832834 0.17285997 0.14508636 -0.048107635
0.008872189 -0.2535522 -0.010434134 0.034845497 0.25436005 -0.027635712 0.033079986 0.11186003
0.14424077 0.2207971 0.036789924 0.010398713 0.058701076 -0.03536136 -0.049235083 0.0061568054
0.048433747 -0.0541185 -0.017078197 -0.015120773 -0.12472717 -0.062091526 0.23677467 -0.015016364
-0.111407116 -0.052430097 0.16079503 -0.027272988 0.19199854 0.13571894 0.13117574 -0.019165155
-0.1003369 0.018785486 0.22741401 -0.14958689 -0.027709397 0.06771885 0.06440927 -0.04129983
-0.1050413 -0.009789808 0.18157235 0.030895215 -0.22944528 -0.107460305 0.13638729 0.050396007
-0.11328011 0.08767519 0.04401094 0.073606096 -0.10061944 -0.08399237 -0.08820226 -0.01517321
-0.028116515 0.0883572 0.08936564 -0.07783147 -0.08625961 0.009324389 -0.14739756 0.082890935
0.07468743 -0.08233115 0.015109758 0.06473647 0.05707611 -0.017779522 -0.15705942 -0.00328782
0.009523743 -0.23055163 0.050988283 0.043210007 -0.053992584 0.19605482 -0.016743952 -0.025041107
-0.0837968 0.021093085 -0.20732194 0.14428125 0.019519826 0.23142044 -0.21988139 0.012806375
0.19868788 0.11154109 0.04082437 -0.10225098 0.08770237 0.110229254 0.009941485 -0.14248271
-0.04913721 -0.08160074 -0.27249292 0.08257179 0.08247603 -0.005657789 0.05636129 0.18970725
-0.06483781 0.08777608 0.083293974 0.11718687 -0.0010471944 0.24713798 0.1435218 0.09182843
0.17781273 0.06510401 -0.08092632 0.026874827 0.048862897 0.16079363 0.14619817 -0.16509815
0.08588141 0.4631615 0.0816235 -0.14110753 0.10263018 -0.06698835 -0.12899895 -0.006029665
-0.059273586 0.25083724 0.0043700133 -0.0019872633 -0.25921616 0.07825345 -0.05342784 -0.15262203
-0.013529331 -0.055745583 0.034035444 -0.072362565 0.13367544 0.0030525462 -0.073507294 0.06722059
-0.0066747754 0.09986195 0.0502763 -0.07248114 -0.065559685 0.015329656 -0.037895415 0.19517063
0.17180538 -0.023417365 0.07645747 0.10847413 0.08887088 -0.37182486 0.041669592 -0.13606861
0.03393597 -0.07398055 0.023796668 -0.06363379 -0.0014487084 -0.043401875 0.073430136 0.085906975
-0.0045710867 0.020036986 -0.13685337 -0.039245013 -0.06708362 0.06602557 0.046842266 -0.0560758

fc2.bias f4 [128]
00000000: 471c b03d fb25 72bc f5e9 a3bd 4474 973b
00000010: dd6f fe3c 51f6 863c f00e 8abc a671 9ebd
00000020: 29a4 343b 73b2 113d 1d49 97bd ab72 aeb8
00000030: ad35 7e3d 48f4 463c 28c5 30bd d96d 9f3c
00000040: efb8 5f3d f8b2 803d aef8 f43b f3ec 863d
00000050: 3128 703d d6a4 b03d e220 b33d 350d 163c
00000060: 7b96 483c 5f68 cd3d da81 903c b061 8bbc
00000070: fcc9 803d 45ca 9dbd 95b4 373d 4f56 b0bd
00000080: 5197 f93c 346f 023d 34d8 5abd ff0a 823a
00000090: 9d73 5f3c 54dd 653d 8171 353d 3ac0 b33d
000000a0: 76df 623d 11cb a7bd 8e78 6a3c 7e15 3bbd
000000b0: 277e 823c b838 3c3d ecba 8b3d 1bca 913d
000000c0: 9e03 163d ef90 d03c aada 2d3d b28d f4bb
000000d0: 2743 85bb eebe 1bbc 0c9d 4dbd b617 9ebc
000000e0: c5d9 153d 127b 353d f0ef 3ebd a466 933d
000000f0: 9c3f 8538 8144 b1bd 24cc 91bd 7552 543d
00000100: 8208 96bd 0abe fc3c dcaa 7a3c d785 b2bc
00000110: 873c 883d 0da6 a0bc 8deb 95bd 00d5 273c
00000120: 0373 9bbd e211 8fbd 2c23 413d dceb 123d
00000130: bf07 6ebd 837c 683d 1ca7 a53d 6279 fe3c
00000140: c27d 983d 3144 48bd f85d 70bd ce91 663d
00000150: 235d c7bc 7a9c f7bc a33a 043d c150 4abd
00000160: 67d9 68bc ce4a 17bc 29cc 383d bd4f b23d
00000170: 2625 82bd 37ab 6dbd 0289 933d 4fe1 d73d
00000180: abf8 24bd 81c2 773c 5483 123e dbb4 5bbd
00000190: 81fc 613d 780f c93d aeaa 58bc 1ec6 95bd
000001a0: 2e8c f03b 66c8 3a3d 51de afbd 062c 813d
000001b0: 8f46 adbc 9e37 3bbd af91 343d df31 79bd
000001c0: 1270 553d cca6 353d 698f 06bd 03fd 32bc
000001d0: 5c55 8f3d 5cce e43c 431a 3f3d bbdd 4abd
000001e0: f058 0c3c 0603 1d3d 93ef b7bc 545c a93d
000001f0: 741e 21bd 211c 3abd 978a e43a 31ce 5d3d
0.085991435 -0.014779563 -0.08003608 0.0046220142 0.0310592 0.016474875 -0.016852826 -0.077365205
0.0027563667 0.035570573 -0.07386992 -8.318325e-05 0.062062908 0.012143202 -0.043156773 0.01946156
0.054619726 0.062841356 0.007475934 0.06588163 0.05863208 0.0862519 0.08746506 0.009158422
0.012242909 0.10029673 0.017640043 -0.017014354 0.062885255 -0.077045955 0.04484995 -0.08610212
0.030467661 0.031844333 -0.053428844 0.000992149 0.013638404 0.056119278 0.0442977 0.08776899
0.05538889 -0.08193029 0.014310969 -0.045674793 0.015929295 0.04595253 0.06822762 0.07118627
0.036624543 0.025459735 0.042444862 -0.0074631805 -0.004066843 -0.00950597 -0.0501986 -0.019298416
0.036584634 0.044306822 -0.04661554 0.071973115 6.3537824e-05 -0.08655644 -0.07119015 0.05183645
-0.073258415 0.030852336 0.015299525 -0.021792335 0.0665217 -0.01961043 -0.07320318 0.010243654
-0.07590296 -0.06985833 0.047152683 0.035869464 -0.058112856 0.05675937 0.08088514 0.03106374
0.074458614 -0.048893157 -0.058683366 0.056291394 -0.024336403 -0.030225981 0.032282483 -0.04939342
-0.014211989 -0.009234143 0.045116577 0.08706615 -0.06354742 -0.05802461 0.072038665 0.10541021
-0.04027621 0.015122057 0.1430791 -0.053639274 0.055172447 0.098174036 -0.013224287 -0.073131785
0.0073409295 0.04560127 -0.08587325 0.06307225 -0.021151809 -0.045707338 0.044084247 -0.060838576
0.05210883 0.044348523 -0.03285161 -0.0109245805 0.06998703 0.027930431 0.046655905 -0.049527865
0.008566126 0.03833296 -0.022453105 0.08269563 -0.039335683 -0.045436982 0.0017436323 0.054151718

fc3.weight f4 [128, 128]
00000000: 6edc cf3c 36a1 323d 2d09 063c ce6a 65bb
00000010: b2ec 8cbd 6e38 18bd 94b2 853c 8ff5 483c
00000020: 5ec4 253d 424c 0ebc 5e39 b7bc e658 943d
00000030: 6366 8bbd a1b1 113d 5376 49bd 164c 5c3d
00000040: 94f1 f43d abbe ddbd cc0f 94bd 7936 f6bc
00000050: d7a2 34bd 211c 88bd 0451 5bbc 4d92 21bd
00000060: 0612 16be 1960 6c3d ffe9 fb3c adc0 043e
00000070: 8a63 bb3a 7c9b 5f3d fc83 973d e8ac c23d
00000080: 4eb6 cd3d 90a0 6f3d e353 b8bb e024 d7bc
00000090: 238f 87bd e4dd 0a3e b17c 8eb8 c500 783d
000000a0: 11b8 ee3c a3ae 54bd ea42 0f3e 1068 c8bc
000000b0: 6356 8d3d aefe c9bd 86b0 09bd ec9a 0e3e
000000c0: ac39 ac3c 2ee0 0cbe c558 393d 7013 a7bd
000000d0: 03e9 a43c 38af 8abd d968 42bc b0cf 06bd
000000e0: ac8f bebc b1ce ba3b db52 d43c 7e9b dcbd
000000f0: 8043 a43c 74da e0bc c419 913d 0f76 aebc
00000100: a8af 4b3d f68e 10bd eb25 f83c 3f60 ef3d
00000110: 28f5 29bd 375f 96bd 471c 7ebc 2a16 a9bd
00000120: 91fd 19bd 2b28 ddbd 4c1f 96be ecc2 893d
00000130: b433 ad3c 98c8 5e3d 4739 74bc 4673 93bd
00000140: 55e2 c03d 9cfc a3bd 827c b3bc 175e dbbc
00000150: 4d2e 593c a62e 923d e61b f73d d37c b23d
00000160: fda3 a53c 7095 0f3d c5b6 0c3e 2588 a93d
00000170: 8a30 1fbd 8af3 573d f758 53bc 9f4e 8a3d
00000180: 8fe8 27bd fef2 7e3d c0a3 343d 7b71 f53c
00000190: 2364 193d 458e fd3c 304a 27bd 9fc6 2ebd
000001a0: d110 28bd 4da2 c5bc 5b56 913d ce90 563d
000001b0: dd1a 733d 4c0a 2d3d 27d1 143e 4676 d53d
000001c0: 982a 753c afc8 a63c 7fa0 21bc b58a 30b7
000001d0: a21a 36bd 15bf 44bc c6b7 973d abdb 063d
000001e0: d89b 043e 2666 a93d c581 0b3e 24ee 15bd
000001f0: 2aa5 0fbd 5a19 eb3c fe1f 393d 29e7 b03d
00000200: c211 a93d c403 0f3e d38a 2cbc 18d8 b33d
00000210: 4abf 913d cfb7 0f3e e926 36be ce9a 8b3d
00000220: ba49 a9bd 0a3c e1bd 64b8 3d3d 24a5 85bd
00000230: 7bc7 7e3d cd6e 16bb 6589 ba3c 705e 1b3d
00000240: acea 8bbd ec22 f63d 21b7 4abd 78fc 13bd
00000250: ee95 17bd c076 4c3d 164a 44be e9e9 883d
00000260: c08e 133e aebc d3bd 2795 263c 32e4 d1bd
00000270: 854c 07bd 2949 e43c 6968 1a3d fc84 8bbd
00000280: ac8c bebb c9a3 f33a 49d4 85bd af80 c93d
00000290: 3ddf 08bd 9026 e3bd 67b8 c43d f270 2d3d
000002a0: 0725 9a3c 0e20 bb3c 51d9 773c f46f 443d
000002b0: 975e d9bd ee81 28bd 88aa cd3c 899d 6b3d
000002c0: 566e fcbd 4b5e 883d bb08 2abe ea7c b43d
000002d0: 829c 2bbd 9505 a6bc a841 66bd 4eb6 533d
000002e0: 242e 4f3d ef8b 4b3b 8472 d1bc 5289 c23d
000002f0: 81ef 423c abe3 223d 80ee d9bc 48b4 1c3b
00000300: 4933 09bd 0b1f c2bd a65c 20bd 9be4 61bd
00000310: 9dca 31bd 9063 a93d f399 983c 1eda 07bd
00000320: 98e7 b4bd 1fa8 89bb 1978 b63d a15f 71bc
00000330: 0d5e acbd 9bd5 d33c 808b 963b 86b7 d53d
00000340: 7916 e2bd 1d49 883d c5d4 c9bd 2888 f53c
00000350: 5bae 313b 9e6e a3bd 1b58 a93d 1cb0 d3bc
00000360: 0ff6 19bc 50bb a63c 41e9 343d c0a6 e2bc
00000370: 5769 043d 5eb0 7cbc 802e 663d 6e51 b0bd
00000380: aaf7 873e ee1d 81bd 545b 9fbd da06 a03d
00000390: e32b 54bd 6ec8 ab3c ac18 a53d bf39 27bc
000003a0: e596 47bc cbe8 debd 9f44 673d 8c03 813d
000003b0: 23bd adbd 5346 b0bc 1e08 1e3d 767b bbbd
000003c0: 9cd4 703e 28bc 82bb 2f92 8bbd ebcf fa3d
000003d0: 1a75 043e 9f31 823d 9d4e 5b3d 920f 1f3a
000003e0: 7550 21be d0d9 443d 3822 0b3d 7ddf 85bd
000003f0: 7ebe 8ebd 4a25 823d d2d4 11bd 3f09 953c
0.025373664 0.043610774 0.008180899 -0.0035006288 -0.068810835 -0.03716319 0.016320504 0.012265577
0.040470473 -0.0086851735 -0.022366222 0.072435185 -0.06806638 0.03556979 -0.04918511 0.0537835
0.1196014 -0.10827383 -0.072295755 -0.030055271 -0.04410061 -0.0664599 -0.013386015 -0.039446164
-0.14655313 0.057708833 0.030751226 0.12964125 0.0014296633 0.05459164 0.07398221 0.095056355
0.100445375 0.058502734 -0.0056252345 -0.0262627 -0.06619098 0.13561207 -6.794313e-05 0.06054761
0.029140504 -0.05192436 0.1399037 -0.024463683 0.069012426 -0.098630294 -0.03361561 0.13926286
0.021023594 -0.13757393 0.045250673 -0.08158004 0.02013064 -0.067717016 -0.011865818 -0.03291291
-0.023261867 0.005700909 0.025918415 -0.10771845 0.020051718 -0.027447917 0.070849925 -0.02129653
0.049728066 -0.03529259 0.030291518 0.11688279 -0.041493565 -0.073423795 -0.0155096715 -0.082561806
-0.037595335 -0.10798677 -0.29320753 0.067266315 0.021142818 0.05439052 -0.014906234 -0.07199721
0.094181694 -0.08007166 -0.021909956 -0.026778264 0.013255668 0.07137804 0.12065868 0.087152146
0.020219797 0.035054624 0.13741596 0.08277921 -0.03886465 0.05272249 -0.012899629 0.06753277
-0.04099327 0.062243454 0.044101477 0.029961338 0.037449013 0.030951628 -0.040842235 -0.04266989
-0.041031662 -0.024125243 0.07096549 0.05238419 0.05935179 0.042246148 0.1453291 0.104229495
0.014963768 0.020359365 -0.009864925 -1.0522713e-05 -0.044458993 -0.012008448 0.07408099 0.032924335
0.12950075 0.082714364 0.13623722 -0.03660406 -0.035069622 0.028698612 0.045196526 0.0863784
0.0825534 0.1396628 -0.010531145 0.08781451 0.071165636 0.14034961 -0.1778828 0.06816636
-0.08266015 -0.1099778 0.046318427 -0.06525639 0.06220196 -0.0022954226 0.022770593 0.03793186
-0.068318695 0.120183796 -0.04949105 -0.036129445 -0.03700822 0.049917936 -0.19168887 0.0668524
0.14409924 -0.10338722 0.010167397 -0.10248603 -0.03303196 0.027866917 0.03769723 -0.06812474
-0.0058151092 0.001858824 -0.06534631 0.098389976 -0.03341602 -0.110913396 0.096054845 0.04234404
0.018816484 0.022842433 0.015127496 0.04795833 -0.10613745 -0.041139536 0.02510573 0.057523284
-0.123257324 0.0665861 -0.16604893 0.08812888 -0.041897304 -0.020266334 -0.05621496 0.05168753
0.050581113 0.0031058749 -0.0255673 0.09498848 0.0118979225 0.039767902 -0.026602983 0.0023911167
-0.033496175 -0.09478577 -0.039150856 -0.055149656 -0.043406118 0.08270943 0.018628096 -0.033166997
-0.088332355 -0.00420095 0.089096256 -0.014732272 -0.08416376 0.025858691 0.0045942664 0.10435395
-0.110394426 0.0665457 -0.09855036 0.02997215 0.002711198 -0.07980083 0.08268758 -0.025840811
-0.009397044 0.02035299 0.04416776 -0.027667403 0.032327022 -0.015422909 0.05619669 -0.086092815
0.2655614 -0.06304537 -0.07781091 0.07813807 -0.051799666 0.020969596 0.080613464 -0.010206639
-0.012181972 -0.108842455 0.056461927 0.06299505 -0.084833406 -0.021517908 0.03858196 -0.09154408
0.23518604 -0.003989715 -0.06814992 0.122466885 0.12935296 0.06357121 0.05354177 0.0006067689
-0.15753348 0.048059285 0.03396818 -0.06536768 -0.06969927 0.063547686 -0.035603352 0.018192885

fc3.bias f4 [128]
00000000: 46e5 073e 6685 b03d 6a71 c8bd 8198 7c3d
00000010: 1afa f73d 30da de3d cbe2 85bc df6c dd3d
00000020: 1f33 153e b498 283d 3919 113c 1579 bb3d
00000030: 922e 1fbd 870c 9dbd 5e05 aebd b085 ce3c
00000040: fa40 85bc c7a3 ef3d 24c9 fabd 4601 2b3d
00000050: ae5e 2ebd d4b7 2fbd feee 623d 4843 17bc
00000060: c45d 0a3e b220 5dbd bf69 363c fe55 cfbc
00000070: f20d 93bd 21c9 eb3c 5f65 21bd b403 d43b
00000080: 8727 fd3d 4a39 b43d 4a80 933b 816b 5dbd
00000090: 3627 993c af3d d5bc 94e3 b5bd f134 2d3d
000000a0: 24cf ee3d 8750 023e a4cc 073d e302 a0bd
000000b0: 2c4c c73d 92a2 543d 78b4 533d 4d61 633d
000000c0: 3271 b5bd fc7f b83d 804f 003e 6548 34bc
000000d0: 8449 04bd bffa aebd 0005 71bb 587c 243e
000000e0: 4b22 48bc a535 65bd b643 4d3c 1389 a6bd
000000f0: 2bfd 233d f314 ab3d 56ef cb3c 8aaa 08bd
00000100: 3a71 9a3c 1854 b73d 952b a03d e3be a73d
00000110: 6c35 7c3d 9e07 3cbb 0d15 eb3d 6c00 26bc
00000120: d34b 81bd 478e 533d d0d4 c3bd 4280 f33d
00000130: 9e87 d03c 8251 b83c 30f2 8bbd 4489 2fbd
00000140: 1a0a fe3d d0f2 033d 4848 b8bd d793 003e
00000150: 9e05 6cbd c707 f0bb a561 593b 1563 263c
00000160: c038 b33c 6303 c2bd 76d0 83bd e918 4ebd
00000170: a78c e4bc b9d6 b93c ccb1 a23b c043 923d
00000180: 822b 41bb ca42 123b 2c5b 3bbd c5b5 f83d
00000190: c178 aebd e6a1 e23d c686 973d fe8c 6dbc
000001a0: 5b96 cebb 2b88 41bb 309e 0e3e 92ca 173e
000001b0: c537 923d f292 923d 0ceb 7abc 1334 8c3c
000001c0: 109e b2bd 3490 093c d8b6 c5bc cf19 03bc
000001d0: 4fed 503c 31d2 40bd d70e 083e 2ecf a53d
000001e0: f5c5 d6bd 6733 ae3d 7872 2bbd ddf0 b9bd
000001f0: 0df1 6d3d 8f4f 1d3d 93b0 adbc fb72 e93d
0.13271055 0.08619194 -0.09787257 0.061668877 0.1210825 0.1088146 -0.016343495 0.10811781
0.14570282 0.041161254 0.008856111 0.09153954 -0.038862772 -0.07668405 -0.084971175 0.025210232
-0.016266335 0.1170116 -0.12245396 0.04174926 -0.042570762 -0.04289992 0.055403702 -0.00923235
0.13512331 -0.05398626 0.01113361 -0.025309559 -0.07180394 0.02878243 -0.039403316 0.006470168
0.12361055 0.087999895 0.004501377 -0.0540576 0.018695455 -0.02603039 -0.08881298 0.042286817
0.11660603 0.12726031 0.033154145 -0.078130506 0.097313255 0.05191285 0.05168578 0.055512715
-0.08859481 0.09008786 0.12530327 -0.011003588 -0.032296672 -0.0854392 -0.0036776662 0.16063058
-0.012215207 -0.055959363 0.012528351 -0.081316136 0.04003636 0.08353605 0.024894398 -0.033365764
0.018852819 0.089515865 0.078208126 0.081907056 0.061574385 -0.0028691064 0.114786245 -0.0101319365
-0.063132904 0.051649358 -0.09562075 0.118896976 0.025455292 0.022499803 -0.06833303 -0.042855516
0.124042705 0.032213986 -0.089981616 0.12556396 -0.057622544 -0.007325146 0.0033169773 0.010155459
0.021877646 -0.09473302 -0.06436245 -0.050316725 -0.0278991 0.022685396 0.0049650427 0.071418285
-0.0029475396 0.0022317641 -0.045741245 0.12144045 -0.08519126 0.11066036 0.07398753 -0.014498947
-0.006304545 -0.0029530625 0.13927531 0.14823368 0.071395434 0.07156934 -0.015314829 0.017114675
-0.08721554 0.008396197 -0.024135038 -0.008001759 0.012751891 -0.047075454 0.13286911 0.08096157
-0.10486976 0.08505898 -0.041857213 -0.09079144 0.058091212 0.03840595 -0.021202361 0.11398884

fc4.weight f4 [2, 128]
00000000: 68ea 07be 1c89 163e 651f 093c 66b2 cb3d
00000010: ce9e f4bd ac6e 0dbe 88cd 533d 8815 49bd
00000020: e868 1abe dd06 0abe 2dd8 473e b494 4cbe
00000030: 3f47 3e3c 40e6 733d a1c2 abba bfcf 14be
00000040: f9e5 f23d 4535 bbbd d495 09bd 63a2 4b3b
00000050: 38dc ccbd e41c 6ebd 6f30 d1bd 4c4b ee3d
00000060: cd31 27be a500 f3bb fb99 48be f33f 0a3e
00000070: eee2 b4bd dbca 16be b7c7 c33d 708a 223e
00000080: ed51 b9bd 95a3 90bc 3c8b 85bd 9ed9 af3c
00000090: 420d 6e3e 0838 e53d e2e9 47bd 4bcc 96be
000000a0: 2806 1dbe 2838 5cbe 463c 51bd 5a00 6e3b
000000b0: c01f c13d d6e3 babd 96a2 61bd e89a d4bd
000000c0: 1e06 c5bc 7c5d 173e dcca 9dbd 9597 cfbb
000000d0: c9e5 173e 09d9 813d 2bbc 013b e437 c9bd
000000e0: 1836 55be debe 0abe 8281 123d 4aca 7abd
000000f0: bb18 ca3d 6dbc 1abd ec94 8abd 81d1 4ebb
00000100: f196 0b3e df77 13be 39e2 e8bd 0f8b bbbd
00000110: f009 38be 7b9b 153e d032 27be ee57 0fbe
00000120: 3411 8a3d 5d97 e93d dd1d 9ebd 39ee 1ebe
00000130: b6a2 bbbd fc2e 26be 33e6 d13c a362 f4bd
00000140: 1622 2dbe 73a6 113e 1daa 3939 1754 cebd
00000150: a48e 8ebd b769 1f3e c622 1bbe aeb0 c6bc
00000160: 9281 c63d 8875 863d 4485 a4bd 2f5a 953d
00000170: 6e76 2abe dfc0 eb3d 1505 dc3c 6356 c4bd
00000180: 6a93 6abd 7e9a 0ebe 6f8f d33c e5a6 16be
00000190: 81e0 823d 538c ddbd 054d bfbd 3a05 44be
000001a0: aced 5b3e 88a1 e93d 3f6e 46be 770f 7fbe
000001b0: e6fd f5bd 29be 60bd 6fba 27bd c070 2ebe
000001c0: 9727 e83d fab9 58be d637 abbc d31e 3abd
000001d0: 63bc 183e d37f 81bd 5b5e c0bd 7a80 ad3d
000001e0: e984 d1bd 5ac1 5cbc 03a6 5bbb eb6a 913d
000001f0: 198d febd d3bb f03d e4f0 19be 9d59 14be
00000200: c0fd 02be c960 4d3c 57ea ac3b 5029 d53c
00000210: 3c33 acbd fd2f d3bd 73c1 85bd e914 e8bd
00000220: 3038 6dbe ce80 5abe d600 f63d e7ad 04be
00000230: ee11 8b3d c5f1 e23c 8096 d83e eeb5 1dbe
00000240: ec4b 1fbd dc8a 1ebe 1339 a03d 235b 06be
00000250: 4156 f83d 2582 92bd 8bfa 08be 9bd8 28bd
00000260: 07db 0ebe 729e 92bc 2c1b fcbd 7a65 463d
00000270: 0113 903d 672b 2e3d 4598 5dbd 5869 d83d
00000280: c3a1 4ebe 8c49 13be 6134 fd3e a425 0f3b
00000290: df9d e93e 54e3 673d 7c91 1c3d dfe8 fcbd
000002a0: 9d11 aabd d078 04be 0732 2a3d 9e1b d1bb
000002b0: 29ec cdbd 6e43 e8bd 50b3 a03d 8a91 45bd
000002c0: 9d7e 13bd 57f4 4b3e 0fac 1bbe 76f4 05be
000002d0: 702f ef3d fb51 f43b 6e18 8bbd a179 76be
000002e0: 651a 8bbd d853 923d cb1c bbbd cd82 973d
000002f0: b361 423d 1001 78be 051c b2bd 669b 113c
00000300: eb09 353e dbca ccbd c5b0 25be 45cf 90bd
00000310: 4724 d2bd 208b 4c3e 4f94 683e 7c02 633d
00000320: b3a3 b43c 12d4 403e 0bdd 80bd 3ebb 08be
00000330: cf08 ac3e f974 debd 4fec 6a3d 0297 33be
00000340: 1ed7 6cbd afd0 ce3d 1a9e 4c3d 5945 58be
00000350: a116 4a3e d9c7 813d 4c4f 5bbd 9579 11bd
00000360: b0af 253e fdbe 313c ebf0 aa3c f44c 26bd
00000370: f118 ffbd be0d 7d3d 3b2f 873e 4f55 06bd
00000380: 994a c73d d0c6 1ebe 219c febc a9f8 17be
00000390: f2e2 94bc 01ca 12bd cc30 983e 5c62 983e
000003a0: 3388 e0be 3edf 7c3e 0401 bfbd d638 6ebd
000003b0: 106b 0e3f f361 58be 9dda 0abd bda2 a8bd
000003c0: aff1 3c3e 180e 403e 933e 77bd f92f 75ba
000003d0: 9fe3 553d 02a7 293d 0a15 b7bd 37be 5abc
000003e0: 886b 6b3e b5de 70be 3235 9c3c 7435 503d
000003f0: f7f7 bcbd bf82 313e 17e0 5cbd f126 ccbd
-0.13273013 0.1470074 0.008369301 0.09946136 -0.11944352 -0.13811749 0.05170968 -0.0490928
-0.15079081 -0.1347918 0.19516058 -0.199786 0.011613666 0.059545755 -0.0013104269 -0.14532374
0.1186027 -0.0914102 -0.033590153 0.0031072132 -0.10002941 -0.05813302 -0.10214316 0.116354555
-0.16327591 -0.0074158483 -0.19589989 0.13500957 -0.08832346 -0.1472582 0.09559577 0.15873122
-0.09048829 -0.017656127 -0.065206975 0.021466073 0.23247245 0.11192328 -0.048807032 -0.29452738
-0.1533438 -0.21505797 -0.05108287 0.0036316128 0.09429884 -0.091254875 -0.055086695 -0.103811085
-0.024050768 0.14781755 -0.07704708 -0.0063352087 0.1483375 0.06340224 0.0019795995 -0.098251134
-0.20821416 -0.13549373 0.03576804 -0.061228074 0.09867998 -0.037777353 -0.06766686 -0.003155798
0.13631798 -0.14401196 -0.113712735 -0.09157383 -0.17972541 0.14610092 -0.16327977 -0.13998386
0.067415625 0.114058234 -0.0772054 -0.15520562 -0.09161894 -0.1622886 0.025622463 -0.11932876
-0.16907534 0.14223652 0.00017706347 -0.100746326 -0.069608 0.15567671 -0.15149984 -0.02425417
0.09692682 0.06565386 -0.08033231 0.07292592 -0.1664674 0.115113966 0.026857892 -0.095867895
-0.05726949 -0.13926122 0.02582523 -0.14712103 0.06390477 -0.1081778 -0.09340862 -0.19142619
0.21477383 0.11407763 -0.19377993 -0.24908243 -0.12011318 -0.05486885 -0.04094928 -0.17035198
0.11335676 -0.21164694 -0.020900648 -0.045439553 0.14915614 -0.06323209 -0.09392997 0.084717706
-0.10230429 -0.013473833 -0.0033515699 0.07100471 -0.12429256 0.117545746 -0.15033299 -0.1448731
-0.1279211 0.012535282 0.005276959 0.026020676 -0.0840821 -0.103118874 -0.06531038 -0.11332113
-0.23165965 -0.21338198 0.12011878 -0.12956963 0.06790529 0.027703175 0.42302322 -0.15401432
-0.038890764 -0.15482658 0.07823386 -0.13120703 0.121258266 -0.07153729 -0.13376825 -0.041222196
-0.1395074 -0.017897818 -0.1230987 0.04843662 0.07034875 0.04252186 -0.054100294 0.10566968
-0.20178895 -0.14383525 0.49454024 0.0021842504 0.4562826 0.05661328 0.038224682 -0.12349104
-0.08304141 -0.12936711 0.041551616 -0.006381466 -0.100548096 -0.11340986 0.07846701 -0.0482345
-0.03600942 0.19917427 -0.15202354 -0.13081536 0.1167897 0.007456062 -0.06791769 -0.24069835
-0.06792144 0.07144898 -0.09136351 0.07397995 0.047456454 -0.24219155 -0.086967506 0.0088871475
0.17679565 -0.09999629 -0.16180713 -0.070707835 -0.102608256 0.19974947 0.22712825 0.05542229
0.022050714 0.18830898 -0.062921606 -0.13352677 0.3360047 -0.108621545 0.057354268 -0.17538074
-0.05782234 0.10098397 0.049955465 -0.21120204 0.19735195 0.06336946 -0.05354242 -0.03551634
0.161803 0.010848758 0.020866832 -0.040600732 -0.12455929 0.061780684 0.2640322 -0.0327962
0.09731025 -0.15505528 -0.031080307 -0.1484095 -0.018174622 -0.035837177 0.2972473 0.29762542
-0.43853912 0.24694535 -0.093263656 -0.05815967 0.55632114 -0.21131115 -0.033899892 -0.08234165
0.1845157 0.18755376 -0.06036241 -0.0009353157 0.05221903 0.041419037 -0.0893956 -0.013351015
0.22990239 -0.23522456 0.019068334 0.050832227 -0.09226983 0.17335032 -0.053924646 -0.09968365

fc4.bias f4 [2]
00000000: 3d18 9ebd 4c25 023d
-0.07719467 0.03177385

fc1.weight f4 [128, 7]
00000000: 20b3 883e 0838 f5be 944e 303e 6518 5e3e
00000010: 6557 81be f270 313e 8220 603e 0670 843d
00000020: a3f4 8f3e df4b 873c 27dd 843e 1f89 af3d
00000030: b841 a23d 8318 253e f88b b6be 8ade dd3d
00000040: f560 1fbe 1469 b6be ee36 95be 0e18 0ebd
00000050: 5936 e83c cfb7 74be a308 5b3e 84a2 4c3d
00000060: 0737 e03d 9f35 66bb 8d40 a73d d135 d53e
00000070: f942 11bd 3fda c43e 2bd9 07bf 2c5d aabd
00000080: 26ba c0be 1978 3e3e 616b c03e 42c5 a23c
00000090: 487a 0f3e 5ddb 793e 86ff 91be f367 9e3d
000000a0: 1353 adbe 1e7d cbbd 6a78 063e 5f59 85be
000000b0: 3d31 023e 1ea0 6bbe bb1b 0cbe c3e7 babe
000000c0: 9c78 69be 39e8 cfbc a85f 023e 724f a9be
000000d0: 79ba b0be b13f 033e 7500 373e 4355 b33e
000000e0: 72de 10be 3547 253e e9bf ca3e f624 083e
000000f0: 16de 9fbe 5360 cd3e 6a48 0d3e 9a79 30be
00000100: 0a05 99be 483f 913e 8f4a b1bd 6063 69be
00000110: 33bb 49be 6b18 fa3d 5a68 1b3e 9ebc c23e
00000120: 0ae7 d5bb f6b5 bb3e 4179 c93e 37c0 85bd
00000130: 4cb3 f1be eb42 053e 9ac2 83be a037 0f3d
00000140: 3e06 44be ed3f 25bf 35d2 ea3e 65db 68be
00000150: 9cb8 213e cf95 bcbe bcec b53e 17d3 36be
00000160: 113f b53e 261a 8dbe 09c7 42bd b533 9c3e
00000170: ccd6 a83e 23f9 65be 49d1 94be f341 9a3e
00000180: 0fb2 133e d4f4 70be c064 473e 7c61 8fbe
00000190: 936c 1abe 884e 23be 412e 0b3d 169e c13e
000001a0: 433c 2cbe 6a9d fb3d 3b2e 61be f9ab 7b3e
000001b0: 9b75 703e 7b3f febd 8cfe d03e f373 dcbd
000001c0: 7708 da3c ede3 4c3e dcab ddbd de7d debe
000001d0: 6903 af3b 13f6 88be 6071 633e c8b2 fa3e
000001e0: 1565 5e3e 0965 9b3e ef09 46be 2b85 b4be
000001f0: dd6f 013e 0962 49be 3891 043e 8961 4dbd
00000200: f5ee 52bf e92f 683d a1ea 54bb 0aa9 c1be
00000210: 6bdf fb3d 0610 923b fc20 81be e7ed 0bbe
00000220: 70c0 003e 55bb 98be 2e75 3ebe 0bd3 2fbe
00000230: aa2d 43be 0cdc 3abe d0d3 3e3e 1ee2 d1bd
00000240: 1616 8cbe b0d5 763e ac11 a7be cb7e 38be
00000250: 6fb2 aabd b39c 9dbe bff7 e9bc 5504 8ebe
00000260: 17b7 de3d 4e8c 06be 3f0e 493e bacd b93e
00000270: b357 86be 2259 20be d852 21be a2bf e4bd
00000280: 5147 973e feb2 f0be a86a 2dbe 4801 68bd
00000290: bdf8 4e3e c3c9 b03e 51a0 973e 2b7f e1be
000002a0: 1299 e13d 80ea b8be a49f c1be 2035 a83d
000002b0: 59d8 ef3d c8ad 05bc 4638 643d bce9 5a3d
000002c0: 832a 9b3d f3fe 6bbf 9afe 65be 9a49 88bc
000002d0: 737f bcbe 2846 2e3e 4f31 973d 300a d43d
000002e0: dd98 89be 8fde 0e3e 7e2d 8b3e 281a 833e
000002f0: 2265 64be 117e 8bbc a020 7fbe 95ae ce3e
00000300: 1734 8ebe 589d adbe d7ab 9f3c b50b 2dbe
00000310: c2fc 813e 38ab 013e 6c59 0abe fa04 07bd
00000320: b28a 6bbe 7e5f e13d 96e1 f63d 3075 9bbe
00000330: 3b62 4fbe ce3f 9f3e e20e 06be 79c0 e63e
00000340: 4cc0 1abe 5f0d 1bbe 73af b8be a349 ae3e
00000350: 5d1c c1be 06a1 18bd 9e71 733d ff07 d53d
00000360: 637f 54be 57df b1bd 5426 31be dfd8 52bd
00000370: 496c 18be 7761 babe 6596 3a3e 0e2e 52be
00000380: 1e9d 3fbe 04b3 983e 499a 3bbf 9855 733e
00000390: 55ea 923e 2bba 143e bc25 043e 13e2 623e
000003a0: 62ca f8bc 4f45 ddbe cb5b 83bd 52ca c13e
000003b0: 43e2 b83c b1f4 bc3e 8afd 4abd 67cc 4fbc
000003c0: 8ec2 40be dfe1 0bbe 32ba 98be 0448 15be
000003d0: 5569 ea3e a38f 573e 800c d63e 4b33 6cbd
000003e0: dd2a 8e3e 2dfc 7e3e 048f 9d3e fb64 973e
000003f0: f225 9fbe 2e78 a03e 6116 be3e 0701 a13e
0.26699162 -0.4789431 0.17217475 0.21688993 -0.2526199 0.17328241 0.21887401 0.06466679
0.2811633 0.01651567 0.25949976 0.08571076 0.07922691 0.16122632 -0.35653663 0.108334616
-0.1556433 -0.35627043 -0.2914347 -0.03469091 0.028346227 -0.23898242 0.21390013 0.049959674
0.10947996 -0.0035127176 0.08166609 0.4164262 -0.03546426 0.3844776 -0.5306575 -0.083185524
-0.3764202 0.18600501 0.37581924 0.01986945 0.1401149 0.24400087 -0.2851526 0.077346705
-0.33852443 -0.099359736 0.13131872 -0.26044747 0.12714095 -0.23010299 -0.13682453 -0.36504945
-0.22799915 -0.025379287 0.12731802 -0.33068424 -0.34517267 0.12817265 0.17871268 0.35025987
-0.14147356 0.16140445 0.3959954 0.1329535 -0.31224126 0.40112552 0.13797155 -0.17233887
-0.29886657 0.28368592 -0.08656799 -0.22791815 -0.19700317 0.122116886 0.15176526 0.38034528
-0.006527786 0.36662263 0.39350322 -0.06530803 -0.47207105 0.13013808 -0.25734407 0.034965158
-0.19143006 -0.6455067 0.458635 -0.22739942 0.15793079 -0.36833045 0.35532176 -0.17853962
0.35399678 -0.27559012 -0.047553096 0.305082 0.32976377 -0.2245832 -0.29065922 0.3012844
0.14423393 -0.23530895 0.19472027 -0.28004062 -0.1508048 -0.15947926 0.033979658 0.37815922
-0.16819863 0.12285884 -0.21990292 0.24577321 0.23482363 -0.12414452 0.40819204 -0.10764303
0.026615364 0.20008822 -0.10823795 -0.43455404 0.0053409827 -0.2675024 0.22211218 0.48964524
0.21718247 0.3035052 -0.19339727 -0.3525785 0.12640329 -0.19666304 0.12946022 -0.050141845
-0.8239587 0.056686316 -0.0032488483 -0.3782428 0.12298473 0.0044574765 -0.25220478 -0.13664971
0.12573409 -0.29830423 -0.18599388 -0.1717035 -0.19060388 -0.18248004 0.18635488 -0.102482066
-0.273606 0.24104953 -0.3263067 -0.18017118 -0.08334815 -0.30783615 -0.028560517 -0.2773768
0.10874765 -0.1313946 0.1963434 0.3628977 -0.26238784 -0.15659001 -0.15754259 -0.111693636
0.29546598 -0.4701156 -0.16935217 -0.056641847 0.20212074 0.34528932 0.296145 -0.44042334
0.11015524 -0.3611641 -0.3781711 0.08213258 0.11711187 -0.008159108 0.05571773 0.053445563
0.07576468 -0.92185897 -0.22460404 -0.016636658 -0.36815986 0.1701895 0.07382452 0.103535056
-0.26874438 0.13952087 0.27183145 0.25605893 -0.22304204 -0.017027887 -0.24914789 0.4036757
-0.27774116 -0.33909106 0.01949112 -0.16898997 0.2538815 0.12662971 -0.13510674 -0.03296373
-0.23002127 0.11004542 0.12054746 -0.30362844 -0.20252316 0.31103367 -0.13091615 0.4506872
-0.15112418 -0.1514182 -0.36071357 0.34040555 -0.37716952 -0.03726294 0.059434526 0.10401916
-0.20751719 -0.08685177 -0.17299777 -0.051476356 -0.14885058 -0.36402485 0.18221433 -0.20525381
-0.18712279 0.29824078 -0.73282295 0.2376312 0.28694406 0.14524142 0.1290502 0.22156553
-0.030369941 -0.4321694 -0.064139925 0.3784967 0.022568827 0.36905435 -0.0495582 -0.012683011
-0.18824217 -0.13660382 -0.29829556 -0.14578253 0.45783487 0.21050887 0.41806412 -0.057666104
0.27767077 0.24900885 0.30773175 0.2956923 -0.31083637 0.3134169 0.3712645 0.31446096

fc1.bias f4 [128]
00000000: 1afb 96be 165c 4b3d ad3f d33d 51d7 cabc
00000010: 58fa 9d3e 3307 aebe 4072 203d d505 323e
00000020: 6e6e 04bd 5be1 7fbd 3e01 2d3e ab7d f53d
00000030: 50c3 c4be d240 83bd e293 6abe 5b6a 85be
00000040: 101f 1fbe 0371 89be b9d7 843e 9b05 883d
00000050: 2c60 5ebe 273f 9abd de19 6b3e 1389 5b3d
00000060: ec60 e6bd c4b4 733e 6561 9e3e cb6d bb3e
00000070: 1c1a 383d 8c70 843e f74f 61be 0e75 b1be
00000080: 65ee b0bc 79ba e63d e456 eb39 33ba a03e
00000090: 4d61 843e 5f13 413e a867 ea3c e34b ad3a
000000a0: fd84 a43e 8d95 883e 59b4 24ba e33f cf3e
000000b0: 3f22 02be 7034 573e 5ea2 4c3e bf08 653d
000000c0: 623d a9be 5f05 053e 84ac 07bc 7f08 bdbe
000000d0: d2cf 51be 3caa ddbe e45f 98bd 7b53 c43d
000000e0: 4028 8dbe f603 a7be 90c6 c0be aa99 a23e
000000f0: 99e5 ef3d 8de5 39be 252e a4bd be61 a8bd
00000100: 641c aebd 5d7b 3a3e 846e 90bd 2d01 06be
00000110: 5c20 1abe 8d04 71bd 484d 783e 9e63 113c
00000120: cde2 2ebe c34d 6dbc 9dab 163e 53a6 adbe
00000130: fd44 4b3e 5d62 1a3d 65b8 633d b7be 1bbe
00000140: e2ed 8e3e 9eb6 c0bd c40f 903e 66a7 9ebe
00000150: 3e20 8cbd 66a3 943e f245 2fbe f07e 22be
00000160: 3e9f b73e 04a8 a73d b2e9 a8bd e48a 76be
00000170: 9999 a53e fe9a bc3e dd18 6ebd 97d4 463e
00000180: 148f babe 7ffb a43e 9754 013e 2644 2fbd
00000190: ac59 f33d c01d b03e 3053 6f3e fd79 94bd
000001a0: 6757 de3d cd3f 20be cfc9 0ebe 10ac 943e
000001b0: 956a 863e 7ed9 95be ce65 24be b21a 943e
000001c0: ee51 8b3e 3bdd 373e d39b ae3e d2ae adbe
000001d0: 51a6 cabc 8f36 53bd 53c6 913e 49dc b8bd
000001e0: fbfe a53d b038 003d 09d8 43be a24b df3d
000001f0: 9a1f 3bbe 10b1 39be 3d01 953e 19a4 94be
-0.2948845 0.049648367 0.103148796 -0.024760874 0.3085506 -0.33989868 0.039171457 0.17385037
-0.032331876 -0.062470775 0.16895005 0.1198686 -0.38430262 -0.06408848 -0.22907975 -0.26057705
-0.15539193 -0.26844034 0.25945833 0.06641694 -0.21716374 -0.075315766 0.22959086 0.05359752
-0.11248955 0.23799425 0.3093368 0.36607203 0.044946775 0.25867116 -0.2200316 -0.34659618
-0.02159805 0.112660356 0.0004488743 0.3139206 0.25855485 0.18855046 0.02861388 0.0013221469
0.32132712 0.26676598 -0.00062829774 0.4047843 -0.12708376 0.21016097 0.19983813 0.055916544
-0.33054644 0.1299033 -0.008280877 -0.36920545 -0.20489433 -0.4329394 -0.07440165 0.09586235
-0.2756977 -0.3262021 -0.3765149 0.3175786 0.11713714 -0.18153973 -0.08016614 -0.08221768
-0.08501509 0.18211122 -0.07052329 -0.13086386 -0.15051407 -0.05884223 0.2424823 0.008873848
-0.17078705 -0.014483872 0.14713903 -0.33915958 0.19850536 0.037691463 0.055595774 -0.1520947
0.27915865 -0.094098315 0.28137028 -0.3098709 -0.06842087 0.29030913 -0.17116526 -0.15868735
0.3586368 0.08186343 -0.08247699 -0.2407642 0.32343748 0.36837 -0.05812918 0.19417034
-0.36437285 0.32223126 0.12629925 -0.0427896 0.11882338 0.34397697 0.23371577 -0.0724983
0.108565144 -0.15649338 -0.13944171 0.29037523 0.2625319 -0.29267496 -0.1605446 0.28926617
0.27210945 0.17955486 0.3410326 -0.3392244 -0.024737509 -0.051565703 0.28471622 -0.09026391
0.08105274 0.03130406 -0.1912538 0.10903098 -0.18273774 -0.1813395 0.29102507 -0.29031447

fc2.weight f4 [128, 128]
00000000: 480f 553e e4b1 e0bc 88ad 0abb f013 20bc
00000010: 4760 cfbc 1efd 4fbd 007f 94bd 08c3 debc
00000020: efc6 92bb 201b 3e3d 27d1 0cbd dc7b 643e
00000030: f4e6 f6bc 038b 153e ff6c 8a3c 3352 a23d
00000040: dbe6 ac3c b7b3 163e e870 833c 15e8 d3bc
00000050: 06e5 033d bfed 6b3c 4c50 f43c de74 d4bd
00000060: 47f9 2bbe 1cc1 1dbe 6fec 623d 0363 be3d
00000070: 7689 e53d 7643 07be eb38 533d 61b7 e0bb
00000080: 59a3 dcbd 2f90 7cbd 86c5 cbbd 1ff9 84bd
00000090: 2fcf 873d 6550 1a3c 78ea 3b3e 260a d5bc
000000a0: ddb5 143e 0772 783d 0c96 8c3d c54e 443e
000000b0: c0b4 973c 1f73 913b 4774 33bd 5984 51bd
000000c0: 22df ba3b 80c6 83bd f427 febd c59d 1cbd
000000d0: ceb8 a53d 4532 023b 669c 883d 3f66 a5bc
000000e0: 55df c63a bd4e 3cbd 13fb 383d 260c 07bb
000000f0: 3d70 203e 03c0 7fbe 812b 163c caa4 d43d
00000100: 8dd4 61be 8a5e 94bc cc24 c53c 2486 2b3e
00000110: 96a9 b0bd 7d1e 023e 606d 16bc 4086 01be
00000120: 7463 8a3c b905 503d c265 f9bd 616a 633e
00000130: 9a09 963b b60a 333e e954 113e 830c 45bd
00000140: 8a6f 163c b40a 82be 1caf 0ebc 27ba 0e3d
00000150: 2efd 803e 6c0c d2bc e17e 073d db77 e73d
00000160: 7960 163e b918 633e 7eba 193d 5d5f 2a3c
00000170: 243d 6f3d df57 07bd baaa 49bd aab3 133c
00000180: 7762 463d 1cfd 52bd c6d2 8fbc 929b a7bc
00000190: 34e5 f8bd 6728 79bd 3735 733e 9b8d e2bc
000001a0: aceb e0bd f1c0 56bd e4d8 273e 038f d8bc
000001b0: 6410 453e d7ea 0b3e 565c 053e e38a 8abc
000001c0: d781 c6bd ff94 9e3c d404 693e 4e2d 19be
000001d0: d1fe e2bc 2eb0 8a3d 7d40 833d e032 23bd
000001e0: 3440 d3bd 9f2a 93bb b26b 3b3e 5b08 0d3d
000001f0: e7bc 69be 24d0 e5bd 3207 0e3e 0b6c 4e3d
00000200: cf2d e9bd 4362 ad3d d144 343d f98b 833d
00000210: 446f d7bd 3104 acbd 63a3 b4bd 37e4 9abc
00000220: e84f e9bc 9ff4 b43d ffa0 be3d d2d9 95bd
00000230: e1a8 b0bd 0212 5e3c 98aa 12be 0a25 ae3d
00000240: b9f5 983d d436 a4bd 4948 2a3c 8e94 843d
00000250: a4c8 693d 5ca6 91bc 0f7e 26be 83f2 38b8
00000260: 0da4 213c 6c65 74be eb3b 523d 3dc0 3b3d
00000270: 92ab 67bd de9c 493e 9d2a 89bc 0223 cdbc
00000280: 1b54 b1bd 00be 8d3c 0fe9 64be 87a4 113e
00000290: 820a ae3c 742e 6f3e 0f07 5ebe 9b5d 343c
000002a0: 8a99 4d3e 230b ea3d 1a8e 2e3d b4a4 ccbd
000002b0: 4d9d b33d 4321 de3d 12ee 203c 3e23 19be
000002c0: 1944 49bd 4a1e a7bd 49f9 8cbe 661b a93d
000002d0: 31e9 a83d decf 83bb 55fe 5b3d 31ed 433e
000002e0: b0c9 84bd f2c3 b33d 0896 aa3d ec58 f23d
000002f0: c728 c939 b161 7c3e 8ee2 0a3e 2856 c23d
00000300: 6d7e 373e 7adb 7b3d b3bc a5bd db6c 0d3d
00000310: 7624 483d b04f 1e3e 81d4 123e c3a3 33be
00000320: 98e2 af3d a898 ee3e bea2 9d3d 5a1a 0fbe
00000330: 83d6 cb3d a614 90bd cef0 00be 7f94 c5bb
00000340: 9c43 6bbd 7f94 813e b3c4 4eba bf3c 02bb
00000350: d223 83be 16c5 9a3d 27d7 5abd 1b48 1fbe
00000360: 9ec6 8fbc 0882 82bd 0af0 083d d332 94bd
00000370: b13e 0b3e c4e0 833a fe8a 96bd 4f07 803d
00000380: 13b8 dabb ef97 c43d f687 563d 3cef 8cbd
00000390: c160 97bd 023d 5c3c cd8e 24bd 4250 473e
000003a0: f34c 333e c6d5 bfbc 3d8f 893d 91e9 d63d
000003b0: 389c be3d 65fd bfbe 88e2 313d 6522 10be
000003c0: 10a1 f53c 4606 97bd f177 ce3c 6f52 82bd
000003d0: 9ce2 bdba 2ac6 31bd d04c 9c3d 96b1 9e3d
000003e0: dae3 02bc 0d90 413c c6a7 09be 7d31 31bd
000003f0: 4a15 97bd dd79 8f3d 5fde 293d bdaf 65bd
0.2080661 -0.027428575 -0.0021160562 -0.0097703785 -0.025314463 -0.0507785 -0.07250786 -0.027192608
-0.004479281 0.046412587 -0.03437915 0.22312874 -0.030139424 0.1460381 0.016897677 0.079258345
0.021106174 0.14716993 0.016045049 -0.025867501 0.032200836 0.014399945 0.029823445 -0.10373853
-0.1679431 -0.15405697 0.055401262 0.09296229 0.11207859 -0.13209328 0.051567953 -0.006857798
-0.107733436 -0.06166094 -0.09949784 -0.064928286 0.06631314 0.009418582 0.18351161 -0.026005816
0.145225 0.06065562 0.06864557 0.19170673 0.018518806 0.0044387723 -0.043812063 -0.051151607
0.005702869 -0.06434345 -0.12409964 -0.0382364 0.08091889 0.0019866389 0.06670456 -0.020190356
0.0015172759 -0.04597353 0.045161318 -0.0020606606 0.15667816 -0.2497559 0.009165646 0.103829935
-0.22053738 -0.018111486 0.024065398 0.1675039 -0.08626096 0.12706943 -0.0091813505 -0.12648869
0.016893126 0.050786708 -0.12177612 0.22208549 0.0045787813 0.17484555 0.14192547 -0.048107635
0.009181866 -0.2539879 -0.0087087415 0.034845497 0.2519316 -0.025640689 0.033079986 0.113021575
0.14685239 0.221774 0.03753137 0.010398713 0.058407918 -0.033042785 -0.049235083 0.009015003
0.048433747 -0.051510915 -0.01755656 -0.020459924 -0.12153092 -0.060829546 0.23750769 -0.027655413
-0.10982451 -0.052430097 0.16391331 -0.02643538 0.19244534 0.13663803 0.13023505 -0.01691193
-0.09692734 0.019358156 0.22755748 -0.14958689 -0.027709397 0.06771885 0.064087845 -0.03984344
-0.1031498 -0.004491165 0.18302801 0.034431797 -0.22825967 -0.1122134 0.13869932 0.050396007
-0.113856904 0.084660076 0.04401094 0.06423182 -0.10519269 -0.08399237 -0.08820226 -0.01890765
-0.028480485 0.0883572 0.09308051 -0.073169366 -0.08625961 0.013554098 -0.14322889 0.085031584
0.07468743 -0.0801827 0.010393211 0.06473647 0.05707611 -0.017779522 -0.16259025 -4.4094875e-05
0.009865773 -0.23866814 0.051326673 0.04583763 -0.056560107 0.19688746 -0.016743952 -0.025041107
-0.0865862 0.017302513 -0.2235453 0.14222918 0.021245245 0.23357564 -0.2168238 0.011008645
0.20078102 0.114279054 0.042615987 -0.09992352 0.08770237 0.10846188 0.009822385 -0.1495485
-0.04913721 -0.08160074 -0.2753394 0.08257179 0.08247603 -0.0040225824 0.053709347 0.1913345
-0.06483781 0.08777608 0.083293974 0.11833367 0.0003836809 0.24646641 0.13562986 0.09489089
0.17919321 0.061488606 -0.08092632 0.03452764 0.048862897 0.15460086 0.14338876 -0.17542939
0.08588141 0.46600842 0.07697056 -0.13974896 0.09953024 -0.070351884 -0.1259186 -0.006029665
-0.057437524 0.25308606 -0.0007887587 -0.0019872633 -0.25613266 0.075571224 -0.05342784 -0.1555485
-0.017550763 -0.06372458 0.033432044 -0.072362565 0.13598134 0.0010061492 -0.073507294 0.06251394
-0.0066747754 0.095992915 0.052375756 -0.06881568 -0.07391501 0.01344228 -0.040175248 0.1946421
0.17509823 -0.023417365 0.06716774 0.10493768 0.0930714 -0.37498012 0.043428928 -0.1407562
0.029984027 -0.073742434 0.025203677 -0.06363379 -0.001448709 -0.043401875 0.07631838 0.077487156
-0.007988894 0.01181413 -0.13442907 -0.043260086 -0.073771074 0.070056655 0.041471835 -0.0560758
