flappybird_dqn_ep150.pth (torch, 561729 bytes, 32 tensors)

fc1.weight f4 [128, 7]
0.2784296 -0.45267272 0.16439717 0.22438796 -0.24246953 0.17265417 0.23541282 0.06898014
0.3208779 -0.01340478 0.23997161 0.072735496 0.08482374 0.1471568 -0.35653663 0.108334616
-0.1556433 -0.35627043 -0.2914347 -0.03469091 0.028346227 -0.27650532 0.2748142 0.04337627
0.0152844535 -0.14277193 0.015127856 0.39838216 -0.039425436 0.29954064 -0.46773 -0.04620006
-0.35681975 0.20131782 0.38097477 0.01986945 0.1401149 0.24400087 -0.2851526 0.077346705
-0.33852443 -0.099359736 0.13131872 -0.26044747 0.12714095 -0.23010299 -0.13682453 -0.36504945
-0.22799915 -0.0033322074 0.12354004 -0.3293872 -0.34152013 0.13785522 0.19148643 0.3644808
-0.12813708 0.15194522 0.39654198 0.14695936 -0.29060683 0.411046 0.15922904 -0.17233887
-0.29886657 0.28368592 -0.08656799 -0.22791815 -0.19700317 0.122116886 0.15371914 0.4199991
-0.041457407 0.34264898 0.3820681 -0.0710934 -0.4638054 0.117212035 -0.23200265 0.053267464
-0.20179287 -0.654834 0.44718158 -0.263317 0.15793079 -0.36833045 0.35532176 -0.17853962
0.35399678 -0.27559012 -0.047553096 0.31379 0.36406714 -0.18409066 -0.2774203 0.29885525
0.15563622 -0.19121526 0.20364678 -0.30839306 -0.13982257 -0.119616635 0.04146211 0.38959244
-0.121553056 0.12313672 -0.1950759 0.23504771 0.20929253 -0.12743716 0.39532945 -0.16644225
0.026615364 0.20008822 -0.10823795 -0.43455404 0.0053409827 -0.2675024 0.22211218 0.49269858
0.24706087 0.29471788 -0.1880209 -0.35830998 0.121652946 -0.19859582 0.11032927 -0.1118961
-0.65794843 0.07566432 -0.012977325 -0.3744903 0.104374416 0.0044574765 -0.25220478 -0.13664971
0.12573409 -0.29830423 -0.18599388 -0.1717035 -0.19060388 -0.18248004 0.18635488 -0.102482066
-0.273606 0.24104953 -0.3263067 -0.18017118 -0.08334815 -0.30783615 -0.028560517 -0.2773768
0.10874765 -0.1313946 0.1797203 0.3416903 -0.18272737 -0.1608814 -0.17965455 -0.12331214
0.26392514 -0.4902198 -0.16692738 -0.060614496 0.16301173 0.34331152 0.28548443 -0.42506704
0.1290296 -0.38169152 -0.21231082 0.10822712 0.13128911 0.017129986 0.062253404 0.021934088
0.0116474815 -0.522348 -0.2580809 -0.0477137 -0.39348364 0.16343023 0.09325601 0.12445271
-0.24886802 0.14376093 0.2769681 0.26753902 -0.16952841 -0.04990368 -0.20763654 0.39067993
-0.2636268 -0.3480572 0.008482641 -0.23704647 0.26317072 0.15603293 -0.11048443 -0.013900731
-0.21922778 0.11648114 0.12967314 -0.30695465 -0.17345612 0.3005041 -0.1749506 0.4430292
-0.15870933 -0.14259441 -0.36071357 0.34040555 -0.37716952 -0.03726294 0.059434526 0.10401916
-0.20751719 -0.08685177 -0.17299777 -0.051476356 -0.14885058 -0.36402485 0.18221433 -0.20525381
-0.18991897 0.26144347 -0.5780559 0.25211263 0.30290702 0.15981361 0.11399927 0.209323
-0.0389865 -0.46036434 -0.08044711 0.37136185 0.007700397 0.36299047 -0.048672095 -0.08980681
-0.15171576 -0.124710634 -0.28838214 -0.116972975 0.45579737 0.24112545 0.46336803 -0.056380525
0.241313 0.23804766 0.31328657 0.3093355 -0.29123497 0.3534846 0.33964837 0.28507945
00000000: 538e 8e3e b8c4 e7be bb57 283e f5c5 653e
00000010: ef49 78be 41cc 303e 0f10 713e 7645 8d3d
00000020: 1c4a a43e b99f 5bbc 1ebb 753e 59f6 943d
00000030: 12b8 ad3d 46b0 163e f88b b6be 8ade dd3d
00000040: f560 1fbe 1469 b6be ee36 95be 0e18 0ebd
00000050: 5936 e83c 1b92 8dbe 72b4 8c3e 51ab 313d
00000060: a56b 7a3c ce32 12be d4da 773c bff8 cb3e
00000070: 917c 21bd 645d 993e 4e7a efbe 463c 3dbd
00000080: 14b1 b6be 4226 4e3e 200f c33e 42c5 a23c
00000090: 487a 0f3e 5ddb 793e 86ff 91be f367 9e3d
000000a0: 1353 adbe 1e7d cbbd 6a78 063e 5f59 85be
000000b0: 3d31 023e 1ea0 6bbe bb1b 0cbe c3e7 babe
000000c0: 9c78 69be 2a61 5abb 8f02 fd3d 70a5 a8be
000000d0: badb aebe eb29 0d3e 0515 443e 3a9d ba3e
000000e0: 5e36 03be 8797 1b3e 8d07 cb3e 847c 163e
000000f0: 6bca 94be 9f74 d23e f00c 233e 9a79 30be
00000100: 0a05 99be 483f 913e 8f4a b1bd 6063 69be
00000110: 33bb 49be 6b18 fa3d 8d68 1d3e 1f0a d73e
00000120: 3ecf 29bd b06f af3e 6e9e c33e 6b99 91bd
00000130: e777 edbe dd0c f03d 1a92 6dbe fc2e 5a3d
00000140: caa2 4ebe 33a3 27bf fcf4 e43e 7cd1 86be
00000150: 9cb8 213e cf95 bcbe bcec b53e 17d3 36be
00000160: 113f b53e 261a 8dbe 09c7 42bd 15a9 a03e
00000170: 0267 ba3e 4382 3cbe 090a 8ebe 8e03 993e
00000180: 1a5f 1f3e efcd 43be c888 503e b2e5 9dbe
00000190: a62d 0fbe 91f9 f4bd 2cd4 293d a978 c73e
000001a0: cff0 f8bd 1b2f fc3d fac1 47be 59b0 703e
000001b0: c850 563e e37e 02be 9f68 ca3e d66f 2abe
000001c0: 7708 da3c ede3 4c3e dcab ddbd de7d debe
000001d0: 6903 af3b 13f6 88be 6071 633e fd42 fc3e
000001e0: 86fd 7c3e 43e5 963e 8d88 40be 6874 b7be
000001f0: 2e25 f93d b45c 4bbe 50f4 e13d c829 e5bd
00000200: 4f6f 28bf e5f5 9a3d d99e 54bc 31bd bfbe
00000210: 41c2 d53d 0610 923b fc20 81be e7ed 0bbe
00000220: 70c0 003e 55bb 98be 2e75 3ebe 0bd3 2fbe
00000230: aa2d 43be 0cdc 3abe d0d3 3e3e 1ee2 d1bd
00000240: 1616 8cbe b0d5 763e ac11 a7be cb7e 38be
00000250: 6fb2 aabd b39c 9dbe bff7 e9bc 5504 8ebe
00000260: 17b7 de3d 4e8c 06be 9908 383e 08f2 ae3e
00000270: e21c 3bbe 18be 24be 5df7 37be 138b fcbd
00000280: 3221 873e 17fe fabe 03ef 2abe e846 78bd
00000290: 8cec 263e 87c6 af3e 042b 923e 63a2 d9be
000002a0: 5620 043e 126d c3be 0268 59be 2ea6 dd3d
000002b0: a770 063e 2f54 8c3c 6dfd 7e3d 1eaf b33c
000002c0: 14d5 3e3c 99b8 05bf 2e23 84be 716f 43bd
000002d0: b076 c9be 415a 273e 02fd be3d 10e1 fe3d
000002e0: 42d7 7ebe 1136 133e c3ce 8d3e e0fa 883e
000002f0: db98 2dbe cd67 4cbd ac9e 54be 3307 c83e
00000300: 18fa 86be 8e34 b2be c6fa 0a3c 4fbc 72be
00000310: 50be 863e 19c7 1f3e a945 e2bd e4bf 63bc
00000320: 3f7d 60be aa8d ee3d 09c9 043e 2929 9dbe
00000330: 7b9e 31be acdb 993e 4026 33be b9d4 e23e
00000340: b384 22be 4504 12be 73af b8be a349 ae3e
00000350: 5d1c c1be 06a1 18bd 9e71 733d ff07 d53d
00000360: 637f 54be 57df b1bd 5426 31be dfd8 52bd
00000370: 496c 18be 7761 babe 6596 3a3e 0e2e 52be
00000380: 1e7a 42be ebdb 853e 79fb 13bf e814 813e
00000390: a116 9b3e 2ea6 233e 7378 e93d c558 563e
000003a0: 4fb0 1fbd e0b4 ebbe 74c1 a4bd 2423 be3e
000003b0: 9d53 fc3b e3d9 b93e 645c 47bd a2ec b7bd
000003c0: 605b 1bbe 4a68 ffbd d3a6 93be 878f efbd
000003d0: 465e e93e 97e9 763e 933e ed3e 44ef 66bd
000003e0: c11a 773e c4c2 733e 1967 a03e 3961 9e3e
000003f0: c01c 95be effb b43e 64e6 ad3e eff5 913e

fc1.bias f4 [128]
-0.2827503 0.045656297 0.103148796 -0.09589169 0.31628087 -0.33989868 0.039171457 0.1901526
-0.012841691 -0.062470775 0.16463071 0.10849952 -0.38430262 -0.06051812 -0.22142914 -0.26205835
-0.15539193 -0.2675882 0.24184883 0.06641694 -0.21716374 -0.075315766 0.20752403 0.04296983
-0.09570334 0.19951215 0.3219384 0.3457405 0.056048516 0.25261685 -0.2200316 -0.34659618
-0.01612578 0.101805784 0.005613435 0.32045963 0.27015945 0.20124197 0.046281118 0.004844318
0.31887963 0.27880383 0.0014868315 0.40412053 -0.12763302 0.2219921 0.21261406 0.04332609
-0.33054644 0.1299033 -0.0019111402 -0.36920545 -0.20489433 -0.4250409 -0.08370341 0.09170109
-0.2756977 -0.3262021 -0.3765149 0.32329854 0.11426221 -0.20129299 -0.09276696 -0.079784214
-0.08675255 0.18864164 -0.07052329 -0.14991336 -0.15051407 -0.07701653 0.24976592 0.013291562
-0.17078705 -0.016951427 0.14374745 -0.33546317 0.1976901 0.04144514 0.07827248 -0.1520947
0.29097724 -0.10864537 0.27581295 -0.3098709 -0.036167815 0.30058348 -0.17116526 -0.1962013
0.34280992 0.0877309 -0.07856557 -0.2407642 0.32372397 0.38011187 -0.05812918 0.20555583
-0.36437285 0.31590036 0.12803288 -0.022967348 0.11945092 0.3485084 0.20988943 -0.06770858
0.12571579 -0.11790466 -0.18862928 0.29148418 0.25911963 -0.28326932 -0.15002583 0.29065698
0.2790111 0.1858646 0.33880648 -0.3392244 -0.011311579 -0.051565703 0.28188437 -0.08920538
0.091323085 -0.014573729 -0.19083138 0.091135606 -0.19069907 -0.19925636 0.2870747 -0.29031447
00000000: a6c4 90be 1902 3b3d ad3f d33d dd62 c4bd
00000010: 91ef a13e 3307 aebe 4072 203d 5db7 423e
00000020: f565 52bc 5be1 7fbd f494 283e ff34 de3d
00000030: 50c3 c4be d9e1 77bd 52be 62be 832c 86be
00000040: 101f 1fbe 5201 89be 38a7 773e 9b05 883d
00000050: 2c60 5ebe 273f 9abd 2e81 543e 2201 303d
00000060: 1d00 c4bd ea4c 4c3e 1cd5 a43e e604 b13e
00000070: 2193 653d ff56 813e f74f 61be 0e75 b1be
00000080: 361a 84bc 8d7f d03d e8f0 b73b 4913 a43e
00000090: 5752 8a3e 6012 4e3e 4591 3d3d 16bd 9e3b
000000a0: 3144 a33e 60bf 8e3e c9e1 c23a e3e8 ce3e
000000b0: 3bb2 02be e651 633e 80b7 593e b376 313d
000000c0: 623d a9be 5f05 053e 397f faba 7f08 bdbe
000000d0: d2cf 51be f69e d9be b26c abbd c8cd bb3d
000000e0: 4028 8dbe f603 a7be 90c6 c0be 6387 a53e
000000f0: 4e02 ea3d c01f 4ebe 9bfc bdbd e865 a3bd
00000100: 52ab b1bd 462b 413e 846e 90bd e382 19be
00000110: 5c20 1abe d8ba 9dbd a3c2 7f3e dac4 593c
00000120: cde2 2ebe b8dd 8abc 8832 133e d4c1 abbe
00000130: 466f 4a3e 61c2 293d 524d a03d b7be 1bbe
00000140: f8fa 943e 7781 debd 5b37 8d3e 66a7 9ebe
00000150: b424 14bd 14e6 993e f245 2fbe fee8 48be
00000160: c884 af3e 42ac b33d fce6 a0bd e48a 76be
00000170: 26bf a53e 069e c23e dd18 6ebd 3a7d 523e
00000180: 148f babe b1bd a13e 0d1b 033e 0526 bcbc
00000190: afa2 f43d b16f b23e 41ed 563e ccaa 8abd
000001a0: a4bb 003e 0078 f1bd 0928 41be 6a3d 953e
000001b0: 54ab 843e ad08 91be 5fa0 19be fed0 943e
000001c0: 8bda 8e3e 4a53 3e3e 0b78 ad3e d2ae adbe
000001d0: 3354 39bc 8f36 53bd 2653 903e 4fb1 b6bd
000001e0: 9907 bb3d a6c6 6ebc 4d69 43be 4ea5 ba3d
000001f0: 9e46 43be dc09 4cbe 75fb 923e 19a4 94be

fc2.weight f4 [128, 128]
0.21361703 -0.023785792 -0.0021160562 -0.038049158 -0.035537463 -0.0507785 -0.07250786 -0.034423765
-0.00427231 0.046412587 -0.039448578 0.22584566 -0.030139424 0.1270183 0.028277356 0.094210945
0.021106174 0.15974084 0.045231745 -0.025867501 0.032200836 0.014399945 0.018002545 -0.126075
-0.1745519 -0.10433627 0.056528065 0.09140963 0.110400684 -0.1350668 0.051567953 -0.006857798
-0.092486866 -0.07173696 -0.051016845 -0.064745136 0.06733908 0.028426025 0.18296623 -0.037507206
0.14928626 0.008970285 0.070214234 0.18436812 0.018518806 0.0020289414 -0.044982266 -0.015574019
0.005702869 -0.06434345 -0.0898315 -0.0382364 0.08091889 -0.07799661 0.06359463 -0.019213391
0.0015172759 -0.04597353 0.045161318 -0.0013882956 0.14379649 -0.25621462 -0.008093137 0.10570078
-0.20525321 -0.028177943 0.024065398 0.1326868 -0.08626096 0.12403745 -0.0046769436 -0.08472408
0.016893126 0.03143518 -0.13342462 0.23840433 -0.015041341 0.17859787 0.12482364 -0.048107635
-0.016314812 -0.23907788 -0.019699892 0.034845497 0.1994654 -0.02720987 0.033079986 0.10709557
0.1415233 0.1789631 0.038954593 0.010398713 0.055942338 -0.02709931 -0.049235083 0.010553089
0.048433747 -0.061036568 -0.011124568 -0.013672216 -0.0943791 -0.064686745 0.22960915 -0.042664845
-0.10597566 -0.052507147 0.12887016 -0.041438416 0.19921826 0.12250404 0.14221525 -0.029484686
-0.088445015 0.020505155 0.22749087 -0.14958689 -0.027709397 0.06771885 0.07467861 -0.06699367
-0.11197395 0.08094412 0.17875119 0.062781826 -0.18939555 -0.09427525 0.13845864 0.050396007
-0.12328088 0.05852573 0.04401094 0.09478014 -0.1068773 -0.08399237 -0.08820226 -0.03679773
-0.043687906 0.0883572 0.088075124 -0.055256046 -0.08625961 0.061651602 -0.15324292 0.08745887
0.07468743 -0.054355033 0.06763228 0.06473647 0.05707611 -0.017779522 -0.14781754 -0.008716131
-0.024338791 -0.055221237 0.027613066 0.03965503 -0.043843098 0.1620553 -0.016743952 -0.025041107
-0.09036092 -0.01185904 -0.16781323 0.11765599 -0.0050664344 0.2453293 -0.19304249 -0.03749659
0.18460664 0.11264306 0.025587512 -0.10184799 0.08689162 0.07927983 -0.0035635445 -0.046843477
-0.04913721 -0.08160074 -0.15713358 0.08257179 0.08247603 0.0770406 0.003134433 0.16813478
-0.06483781 0.08777608 0.083293974 0.09115645 0.004031025 0.27977052 0.14762817 0.09026424
0.188382 0.021341363 -0.08092632 0.10599286 0.048862897 0.15780905 0.12370735 -0.13573547
0.08588141 0.4653866 0.02000131 -0.12288832 0.054188333 -0.07663879 -0.101393774 -0.006029665
-0.06513566 0.25982162 -0.060662884 -0.0019872633 -0.23929241 0.058690608 -0.05342784 -0.10823707
-0.026606478 0.05106912 0.0236561 -0.072362565 0.10556811 0.01301152 -0.073507294 0.036459412
-0.0066747754 0.07852195 0.07909436 -0.011752818 -0.10050662 -0.021378834 -0.0054910546 0.19464125
0.24024141 -0.049117096 0.08447085 0.060236726 0.08785801 -0.30687174 0.0326378 -0.15477535
0.07712632 -0.07730132 0.006678885 -0.06363379 -0.009288552 -0.043401875 0.059115455 0.048657816
-0.03538993 0.04664753 -0.10910779 0.027729142 -0.13827647 0.03945224 0.035154868 -0.0560758
00000000: 6cbe 5a3e 6cda c2bc 88ad 0abb 6fd9 1bbd
00000010: bb8f 11bd 1efd 4fbd 007f 94bd efff 0cbd
00000020: bcfe 8bbb 201b 3e3d d594 21bd 1644 673e
00000030: f4e6 f6bc 1611 023e eaa5 e73c abf1 c03d
00000040: dbe6 ac3c 1a93 233e ec44 393d 15e8 d3bc
00000050: 06e5 033d bfed 6b3c 137a 933c ce19 01be
00000060: bcbd 32be 41ae d5bd f989 673d f934 bb3d
00000070: c119 e23d f44e 0abe eb38 533d 61b7 e0bb
00000080: c169 bdbd d4ea 92bd 0af7 50bd 1999 84bd
00000090: 12e9 893d b2dd e83c 805b 3b3e 28a1 19bd
000000a0: 7fde 183e 1af8 123c 7bcc 8f3d ffca 3c3e
000000b0: c0b4 973c fdf7 043b 533f 38bd 2c2a 7fbc
000000c0: 22df ba3b 80c6 83bd 94f9 b7bd c59d 1cbd
000000d0: ceb8 a53d b0bc 9fbd e73d 823d 6765 9dbc
000000e0: 55df c63a bd4e 3cbd 13fb 383d 78f7 b5ba
000000f0: 633f 133e 902e 83be 1499 04bc a779 d83d
00000100: e62d 52be 6ed5 e6bc cc24 c53c 0cdf 073e
00000110: 96a9 b0bd 5907 fe3d 0c41 99bb d283 adbd
00000120: 7463 8a3c 2dc2 003d 77a0 08be 4420 743e
00000130: f56f 76bc 5ce2 363e 89a3 ff3d 830c 45bd
00000140: a4a6 85bc d5d0 74be ab61 a1bc 27ba 0e3d
00000150: a840 4c3e 3ce7 debc e17e 073d ec54 db3d
00000160: 7ceb 103e 1a42 373e da8e 1f3d 5d5f 2a3c
00000170: cb23 653d 5fff ddbc baaa 49bd dde6 2c3c
00000180: 7762 463d 7b01 7abd d243 36bc 6e01 60bc
00000190: d449 c1bd 7c7a 84bd a91e 6b3e 55c1 2ebd
000001a0: c409 d9bd bc11 57bd 8af6 033e 54bb 29bd
000001b0: dfff 4b3e 66e3 fa3d e0a0 113e de89 f1bc
000001c0: a922 b5bd 6dfa a73c 5ef3 683e 4e2d 19be
000001d0: d1fe e2bc 2eb0 8a3d 19f1 983d fa33 89bd
000001e0: 9952 e5bd 08c6 a53d 8d0a 373e c293 803d
000001f0: e8f0 41be 6213 c1bd 1ac8 0d3e 0b6c 4e3d
00000200: b07a fcbd adb8 6f3d d144 343d 171c c23d
00000210: 7ce2 dabd 3104 acbd 63a3 b4bd 37b9 16bd
00000220: 17f2 32bd 9ff4 b43d bb60 b43d 2a54 62bd
00000230: e1a8 b0bd 6486 7c3d b6eb 1cbe a31d b33d
00000240: b9f5 983d 62a3 5ebd cb82 8a3d 8e94 843d
00000250: a4c8 693d 5ca6 91bc 7b5d 17be 1ace 0ebc
00000260: 2562 c7bc aa2f 62bd cc34 e23c 506d 223d
00000270: d294 33bd d3f1 253e 9d2a 89bc 0223 cdbc
00000280: 250f b9bd 6b4c 42bc 3bd7 2bbe a0f5 f03d
00000290: 5504 a6bb 9b37 7b3e eeac 45be 0696 19bd
000002a0: 8609 3d3e 68b1 e63d e79c d13c ae95 d0bd
000002b0: 3cf4 b13d 775d a23d 5b8a 69bb f2de 3fbd
000002c0: 1944 49bd 4a1e a7bd a0e7 20be 661b a93d
000002d0: 31e9 a83d 76c7 9d3d 0f6b 4d3b 862b 2c3e
000002e0: b0c9 84bd f2c3 b33d 0896 aa3d 3cb0 ba3d
000002f0: b016 843b 153e 8f3e d72b 173e 75dc b83d
00000300: 36e7 403e 15d4 ae3c b3bc a5bd c912 d93d
00000310: 7624 483d b298 213e 475a fd3d 3dfe 0abe
00000320: 98e2 af3d 2747 ee3e cad9 a33c dfac fbbd
00000330: 96f4 5d3d ccf4 9cbd 8aa7 cfbd 7f94 c5bb
00000340: d865 85bd 5707 853e a579 78bd bf3c 02bb
00000350: 1209 75be 9065 703d 27d7 5abd 66ab ddbd
00000360: d4f5 d9bc db2d 513d 70ca c13c d332 94bd
00000370: 1834 d83d 452e 553c fe8a 96bd 7756 153d
00000380: 13b8 dabb 1ed0 a03d 39fc a13d e48e 40bc
00000390: 6ad6 cdbd aa22 afbc 4eee b3bb 0950 473e
000003a0: d801 763e 022f 49bd 0eff ac3d c9ba 763d
000003b0: e6ee b33d 4b1e 9dbe 37af 053d 6e7d 1ebe
000003c0: 67f4 9d3d 2850 9ebd 8cda da3b 6f52 82bd
000003d0: 032f 18bc 2ac6 31bd 0c23 723d 6b4d 473d
000003e0: 08f5 10bd 7b11 3f3d e873 dfbd 3a28 e33c
000003f0: 5998 0dbe ac98 213d 8dfe 0f3d bdaf 65bd

fc2.bias f4 [128]
0.08520684 -0.03983688 -0.08003608 -0.0012278296 0.020134652 -0.0022220619 -0.034361776 -0.06427265
-0.04055565 0.011469989 -0.07386992 -8.318325e-05 0.06848636 0.012143202 -0.043156773 -0.0065466985
0.040161107 0.056885783 0.007475934 0.06345002 0.05510135 0.0862519 0.07392904 0.009158422
0.022223286 0.08160603 0.0334258 0.001133303 0.062885255 -0.077045955 0.020899829 -0.083709896
0.044261463 0.0012509074 -0.053428844 -0.006928766 0.013638404 0.06300932 0.050454725 0.08859309
0.049321875 -0.08193029 0.02870086 -0.045674793 0.0034257437 0.030274168 0.084072605 0.06711638
0.021050455 0.020308366 0.030605143 -0.0373 -0.025228912 0.005838717 -0.0501986 -0.019958338
0.036584634 0.044306822 -0.04661554 0.07108256 -0.0039238376 -0.07730657 -0.07119015 0.05183645
-0.073258415 0.03622132 0.015299525 -0.044634532 0.055246968 -0.03381162 -0.07320318 0.010243654
-0.07590296 -0.06564577 0.05845861 0.035869464 -0.058112856 0.05514838 0.07798259 0.03409621
0.05258106 -0.048893157 -0.058683366 0.056291394 -0.024336403 -0.030225981 0.033943415 -0.04939342
-0.018292736 0.0117500955 0.019654635 0.076733 -0.06354742 -0.060584184 0.041446995 0.11347887
-0.046728857 0.012281951 0.12149444 -0.047593623 0.055172447 0.1013704 -0.013224287 -0.073131785
0.0073409295 0.021910952 -0.08587325 0.06307225 -0.021151809 -0.045707338 0.05567026 -0.044240817
0.04383863 0.044348523 -0.03285161 -0.01774767 0.06749102 0.027930431 0.046655905 -0.037790313
-0.011688676 0.03833296 -0.02485494 0.08269563 -0.039335683 -0.0523035 -0.0068349587 0.04915554
00000000: ec80 ae3d ff2b 23bd f5e9 a3bd 20ef a0ba
00000010: 6df1 a43c 03a0 11bb efbe 0cbd 61a1 83bd
00000020: ae1d 26bd 9fec 3b3c 1d49 97bd ab72 aeb8
00000030: 9442 8c3d 48f4 463c 28c5 30bd b085 d6bb
00000040: f97f 243d 1101 693d aef8 f43b 16f2 813d
00000050: f4b1 613d d6a4 b03d 1c68 973d 350d 163c
00000060: 9c0d b63c 1021 a73d 7ee9 083d 578b 943a
00000070: fcc9 803d 45ca 9dbd 1e36 ab3c 1870 abbd
00000080: 824b 353d 7df5 a33a 34d8 5abd b40a e3bb
00000090: 9d73 5f3c 080b 813d 9da9 4e3d 4b70 b53d
000000a0: bc05 4a3d 11cb a7bd 111e eb3c 7e15 3bbd
000000b0: 7182 603b 8801 f83c 422e ac3d 5074 893d
000000c0: 0172 ac3c bb5d a63c a3b7 fa3c e3c7 18bd
000000d0: ddac cebc b552 bf3b 0c9d 4dbd ab7f a3bc
000000e0: c5d9 153d 127b 353d f0ef 3ebd bc93 913d
000000f0: 8993 80bb e852 9ebd 24cc 91bd 7552 543d
00000100: 8208 96bd cf5c 143d dcaa 7a3c b3d2 36bd
00000110: a54a 623d 0e7e 0abd 8deb 95bd 00d5 273c
00000120: 0373 9bbd 4a71 86bd 4c72 6f3d dceb 123d
00000130: bf07 6ebd 45e3 613d 56b5 9f3d 78a8 0b3d
00000140: 3d5f 573d 3144 48bd f85d 70bd ce91 663d
00000150: 235d c7bc 7a9c f7bc 4008 0b3d c150 4abd
00000160: a6da 95bc 7983 403c c202 a13c 3126 9d3d
00000170: 2625 82bd 1f27 78bd 53c4 293d 9c67 e83d
00000180: c266 3fbd 3c3a 493c 14d2 f83d 88f1 42bd
00000190: 81fc 613d 499b cf3d aeaa 58bc 1ec6 95bd
000001a0: 2e8c f03b 997e b33c 51de afbd 062c 813d
000001b0: 8f46 adbc 9e37 3bbd 8006 643d dc35 35bd
000001c0: 2390 333d cca6 353d 698f 06bd 9063 91bc
000001d0: bb38 8a3d 5cce e43c 431a 3f3d 04ca 1abd
000001e0: dc81 3fbc 0603 1d3d 969c cbbc 545c a93d
000001f0: 741e 21bd 323c 56bd caf7 dfbb 5257 493d

fc3.weight f4 [128, 128]
0.030236265 0.0406463 0.008180899 -0.008458435 -0.07962541 0.0025173721 0.009829799 0.0122632785
0.06817643 0.046034824 -0.022366222 0.072435185 -0.06045629 0.03556979 -0.04918511 0.05718568
0.08299771 -0.108178504 -0.072295755 0.0071862694 -0.0333058 -0.0664599 -0.06832548 -0.039446164
-0.11594965 -0.0137682045 0.042797126 0.12431045 0.0014296633 0.05459164 0.07600842 0.09280672
0.08470429 0.05121436 -0.0056252345 -0.008284639 -0.06619098 0.112569645 0.00944451 0.06492461
0.05356 -0.05192436 0.13187219 -0.024463683 0.101171434 -0.09724951 -0.02530856 0.1479354
0.033323012 -0.09775894 0.015708176 -0.0491316 0.060237303 -0.046844017 -0.011865818 -0.015718477
-0.023261867 0.005700909 0.025918415 -0.097437136 0.018211337 -0.008884555 0.070849925 -0.02129653
0.049728066 -0.017468054 0.030291518 0.065434575 -0.035269424 -0.08466048 -0.0155096715 -0.082561806
-0.037595335 -0.074272834 -0.08754508 0.067266315 0.021142818 0.03597054 -0.014360242 -0.039426878
0.08312562 -0.08007166 -0.021909956 -0.026778264 0.013255668 0.07137804 0.1353722 0.087152146
0.002915598 0.028695645 0.13898772 0.07395904 -0.03886465 0.053713735 -0.0123506505 0.08599611
-0.026974302 0.07292231 0.04436487 0.033618703 0.037449013 0.02969501 -0.040842235 -0.04266989
-0.041031662 0.036279876 0.07096549 0.05238419 0.05935179 0.042246148 0.13597119 0.1262601
0.027578382 0.020359365 -0.009864925 0.009903961 -0.03894873 -0.012008448 0.07408099 -0.030737545
0.07659774 0.082714364 0.1460529 -0.03660406 -0.035069622 0.03460772 0.061647434 0.09802353
0.08483954 0.1448347 -0.010531145 0.08686587 0.06590425 0.12226083 -0.116246074 0.06816869
-0.0043690535 -0.112744175 0.046318427 -0.06525639 0.063903645 -0.0022954226 0.022770593 0.027230736
-0.030304478 0.12106148 -0.04949105 -0.05533172 -0.054078173 0.049917936 -0.18902844 0.0668524
0.14063646 -0.054652713 0.029207231 -0.10371692 -0.03303196 0.027866917 0.032480516 -0.06586599
-0.0058151092 -0.0275111 -0.06534631 0.11024804 -0.03341602 -0.070857674 0.08385839 0.05325124
0.025776759 0.022842433 0.018332338 0.04795833 -0.106903255 -0.055007465 0.016652662 0.040626507
-0.10423617 0.0529529 -0.13418649 0.06210845 -0.02356071 -0.032712977 -0.05621496 0.056099597
0.050581113 0.0031058749 -0.0255673 0.08691335 0.0069113057 0.043107897 -0.026602983 0.0023911167
-0.033496175 -0.1011832 -0.039150856 -0.02160988 -0.0665818 0.079880044 0.018628096 -0.033166997
-0.088332355 -0.008398561 -0.008494281 -0.014732272 -0.08416376 0.014861826 0.03240852 0.09215405
-0.08440104 0.0665457 -0.09855036 0.02997215 0.002711198 -0.07980083 0.064019695 -0.025840811
-0.016666636 0.022516228 0.027479028 -0.017164864 0.032327022 -0.026054293 0.050628696 -0.096511796
0.25145605 -0.077014126 -0.014908512 0.11035267 -0.051799666 0.05261192 0.080613464 -0.010206639
-0.012181972 -0.11292879 0.056461927 0.06299505 -0.084833406 -0.021517908 0.045210626 -0.06981436
0.22611257 -0.003989715 -0.06814992 0.12358346 0.13592084 0.06357121 0.05354177 0.02937564
-0.12729476 0.048059285 0.007838207 -0.06536768 -0.06969927 0.06729982 -0.055781033 -0.002886661
00000000: 0bb2 f73c bc7c 263d 2d09 063c 3f95 0abc
00000010: a612 a3bd 7ffa 243b 2a0d 213c ebeb 483c
00000020: 16a0 8b3d 038f 3c3d 5e39 b7bc e658 943d
00000030: 04a1 77bd a1b1 113d 5376 49bd 883b 6a3d
00000040: b4fa a93d b18c ddbd cc0f 94bd cc7a eb3b
00000050: aa6b 08bd 211c 88bd 3bee 8bbd 4d92 21bd
00000060: 0377 edbd 0994 61bc 0a4c 2f3d 7a96 fe3d
00000070: 8a63 bb3a 7c9b 5f3d 4daa 9b3d 7311 be3d
00000080: 7179 ad3d 26c6 513d e353 b8bb 4bbc 07bc
00000090: 238f 87bd ea8a e63d 25bd 1a3c 32f7 843d
000000a0: bb61 5b3d a3ae 54bd 8109 073e 1068 c8bc
000000b0: f832 cf3d c02a c7bd e653 cfbc 617c 173e
000000c0: b67d 083d d735 c8bd 6fae 803c 373e 49bd
000000d0: 64bb 763d 83df 3fbd d968 42bc 09c4 80bc
000000e0: ac8f bebc b1ce ba3b db52 d43c 1f8d c7bd
000000f0: f12f 953c 8690 11bc c419 913d 0f76 aebc
00000100: a8af 4b3d 2a19 8fbc eb25 f83c 9002 863d
00000110: ac76 10bd 7962 adbd 471c 7ebc 2a16 a9bd
00000120: 91fd 19bd 5b1c 98bd d64a b3bd ecc2 893d
00000130: b433 ad3c d855 133d 3847 6bbc 147e 21bd
00000140: c43d aa3d 9cfc a3bd 827c b3bc 175e dbbc
00000150: 4d2e 593c a62e 923d 039f 0a3e d37c b23d
00000160: 9e13 3f3b 2113 eb3c cc52 0e3e d677 973d
00000170: 8a30 1fbd ef02 5c3d 625a 4abc bb1e b03d
00000180: 36f9 dcbc 4b58 953d f0b7 353d c4b3 093d
00000190: 2364 193d f342 f33c 304a 27bd 9fc6 2ebd
000001a0: d110 28bd 359a 143d 5b56 913d ce90 563d
000001b0: dd1a 733d 4c0a 2d3d 083c 0b3e 544a 013e
000001c0: 0fec e13c afc8 a63c 7fa0 21bc 3944 223c
000001d0: b488 1fbd 15bf 44bc c6b7 973d 4ecd fbbc
000001e0: 47df 9c3d 2666 a93d e48e 153e 24ee 15bd
000001f0: 2aa5 0fbd d3c0 0d3d 0582 7c3d 8fc0 c83d
00000200: 5ac0 ad3d 8c4f 143e d38a 2cbc bce6 b13d
00000210: cff8 863d e363 fa3d 6c12 eebd 079c 8b3d
00000220: 472a 8fbb 6be6 e6bd 64b8 3d3d 24a5 85bd
00000230: eadf 823d cd6e 16bb 6589 ba3c fe12 df3c
00000240: 1941 f8bc 15ef f73d 21b7 4abd 83a3 62bd
00000250: 1381 5dbd c076 4c3d ac90 41be e9e9 883d
00000260: 0103 103e 86db 5fbd 0144 ef3c 8969 d4bd
00000270: 854c 07bd 2949 e43c 4a0a 053d c0e4 86bd
00000280: ac8c bebb f55e e1bc 49d4 85bd b9c9 e13d
00000290: 3ddf 08bd d41d 91bd f3bd ab3d f91d 5a3d
000002a0: c829 d33c 0e20 bb3c b32d 963c f46f 443d
000002b0: 18f0 dabd 824f 61bd 2a6b 883c fb67 263d
000002c0: c679 d5bd 24e5 583d 2f68 09be 6e65 7e3d
000002d0: 6402 c1bc 0bfe 05bd a841 66bd b1c8 653d
000002e0: 242e 4f3d ef8b 4b3b 8472 d1bc a0ff b13d
000002f0: 3c78 e23b e891 303d 80ee d9bc 48b4 1c3b
00000300: 4933 09bd 2339 cfbd a65c 20bd 3407 b1bc
00000310: 0a5c 88bd 2698 a33d f399 983c 1eda 07bd
00000320: 98e7 b4bd 1e9a 09bc 992b 0bbc a15f 71bc
00000330: 0d5e acbd 047f 733c ccbe 043d 43bb bc3d
00000340: 74da acbd 1d49 883d c5d4 c9bd 2888 f53c
00000350: 5bae 313b 9e6e a3bd c21c 833d 1cb0 d3bc
00000360: 7888 88bc f473 b83c b31b e13c 549d 8cbc
00000370: 5769 043d d06f d5bc 0960 4f3d faa7 c5bd
00000380: d9be 803e 95b9 9dbd d542 74bc 9500 e23d
00000390: e32b 54bd 997f 573d ac18 a53d bf39 27bc
000003a0: e596 47bc 3647 e7bd 9f44 673d 8c03 813d
000003b0: 23bd adbd 5346 b0bc c72e 393d d5fa 8ebd
000003c0: 0e8a 673e 28bc 82bb 2f92 8bbd 5319 fd3d
000003d0: d52e 0b3e 9f31 823d 9d4e 5b3d 2fa5 f03c
000003e0: 8f59 02be d0d9 443d d36b 003c 7ddf 85bd
000003f0: 7ebe 8ebd 7dd4 893d a77a 64bd 232e 3dbb

fc3.bias f4 [128]
0.14461751 0.06939506 -0.09787257 0.043945257 0.11498444 0.09168405 -0.016343495 0.12079192
0.10522727 0.008916718 0.009654828 0.085965015 -0.041214377 -0.07668405 -0.08644354 0.03869822
-0.037793957 0.13010797 -0.10492814 0.038049854 -0.034411985 -0.03688097 0.038367137 -0.0069268304
0.12084976 -0.05398626 0.016515734 -0.028980445 -0.059540257 0.03556292 -0.039403316 0.022003518
0.12146132 0.08679008 -0.0036109255 -0.0540576 -0.015621896 -0.033915415 -0.08881298 0.01022768
0.11800163 0.12135166 0.033154145 -0.078130506 0.076551996 0.04796752 0.055985298 0.07023369
-0.08859481 0.009640181 0.07061068 -0.002494417 -0.027174508 -0.0854392 -0.0036776662 0.11752451
-0.006055905 -0.048589136 0.013278059 -0.081316136 0.046981398 0.048103552 0.034977216 -0.033365764
0.012078316 0.06373875 0.044989362 0.099308364 0.05034073 -0.005375228 0.03278433 -0.008726792
-0.063132904 0.04078774 -0.07977668 0.13357086 -0.01742177 0.036387287 -0.06833303 -0.06920864
0.12357485 0.020933473 -0.08018896 0.12107597 -0.05452149 -0.008429346 0.02601386 0.036039643
0.004056595 -0.09473302 -0.050624993 -0.050316725 -0.025482086 0.018445846 0.018154409 0.09573886
0.009102284 0.036304243 -0.029920416 0.10916105 -0.074968524 0.119908266 0.03358695 -0.05475801
-0.043848183 0.0144652985 0.14123592 0.1329851 0.011095866 0.04780829 -0.015314829 0.039388943
-0.06523383 -0.005317051 -0.024135038 -0.008001759 0.010064057 -0.047075454 0.080563016 0.056948207
-0.08519003 0.04165616 -0.041857213 -0.09079144 0.06132572 0.056795023 -0.00086497515 0.10973254
00000000: 9d16 143e ff1e 8e3d 6a71 c8bd f1ff 333d
00000010: f67c eb3d d9c4 bb3d cbe2 85bc c161 f73d
00000020: 6581 d73d 6d17 123c 492f 1e3c 6d0e b03d
00000030: 68d0 28bd 870c 9dbd 5009 b1bd 0682 1e3d
00000040: d6cd 1abd 063b 053e 91e4 d6bd 2ada 1b3d
00000050: 95f3 0cbd 8010 17bd dc26 1d3d 77fa e2bb
00000060: 1480 f73d b220 5dbd 014c 873c 6668 edbc
00000070: 7ce0 73bd 6daa 113d 5f65 21bd b940 b43c
00000080: b6c0 f83d ffbe b13d 47a5 6cbb 816b 5dbd
00000090: fbf2 7fbc e4ea 0abd 94e3 b5bd 0092 273c
000000a0: d7aa f13d 3887 f83d a4cc 073d e302 a0bd
000000b0: 4bc7 9c3d 9779 443d d750 653d aed6 8f3d
000000c0: 3271 b5bd daf1 1d3c 559c 903d 5f79 23bb
000000d0: 139d debc bffa aebd 0005 71bb b1b0 f03d
000000e0: 9d70 c6bb 6705 47bd 378c 593c 1389 a6bd
000000f0: 916f 403d 3b08 453d 4544 0f3d 8aaa 08bd
00000100: 21e4 453c 7689 823d c446 383d 2f62 cb3d
00000110: 1532 4e3d ae22 b0bb dd48 063d d2fa 0ebc
00000120: d34b 81bd 0c11 273d f561 a3bd cdc6 083e
00000130: 1ab8 8ebc d60a 153d 30f2 8bbd 42bd 8dbd
00000140: d014 fd3d ad7c ab3c 1c3a a4bd aef6 f73d
00000150: ed51 5fbd 3d1b 0abc 051b d53c 4e9e 133d
00000160: 2fed 843b 6303 c2bd 275c 4fbd e918 4ebd
00000170: cfbf d0bc be1b 973c 8eb8 943c bc12 c43d
00000180: bf21 153c c2b3 143d a91b f5bc d48f df3d
00000190: 1989 99bd 7792 f53d 7892 093d ef49 60bd
000001a0: 279a 33bd dcff 6c3c 26a0 103e 3f2d 083e
000001b0: 6fcb 353c a0d2 433d 0ceb 7abc 4d56 213d
000001c0: 5099 85bd a83a aebb d8b6 c5bc cf19 03bc
000001d0: b7e3 243c 31d2 40bd 39fe a43d 8642 693d
000001e0: 1c78 aebd a69f 2a3d 7872 2bbd ddf0 b9bd
000001f0: ae30 7b3d e6a1 683d 80bf 62ba 74bb e03d

fc4.weight f4 [2, 128]
-0.13353217 0.14891066 0.008369301 0.10325325 -0.116676636 -0.100439176 0.05170968 -0.047398724
-0.111555815 -0.08092128 0.18358432 -0.17642047 0.07193995 0.059545755 -0.094812565 -0.13500197
0.1221354 -0.09476236 -0.053271238 0.0033558067 -0.101558305 -0.066824816 -0.1004788 0.11885774
-0.108981684 -0.0074158483 -0.19722925 0.12646846 -0.09292408 -0.14755982 0.09559577 0.1535384
-0.10081241 -0.026049245 -0.10254461 0.021466073 0.09839813 0.10882495 -0.048807032 -0.28922716
-0.12801838 -0.20417872 -0.05108287 0.0036316128 0.099854186 -0.093261756 -0.08132532 -0.10832667
-0.024050768 0.06957455 -0.03587296 -0.0034149801 0.13891535 0.06340224 0.0019795995 -0.09261278
-0.20133807 -0.1350971 0.03576804 -0.061228074 0.09596702 -0.02007831 -0.0577696 -0.003155798
0.13359377 -0.109095395 -0.12170991 -0.09914751 -0.14975664 0.1449881 -0.121725924 -0.1080685
0.067415625 0.09539958 -0.0772054 -0.14822078 -0.14441314 -0.16757347 0.025622463 -0.07364529
-0.12236113 0.122244395 0.008306662 -0.110057585 -0.09253161 0.15592052 -0.14933446 -0.039545953
0.083095595 0.06565386 -0.08432566 0.07292592 -0.1434876 0.10669466 0.0138738 -0.09445024
-0.06816193 -0.13594948 0.040009927 -0.102554195 0.06390477 -0.11461034 -0.14458488 -0.14819336
0.18505356 0.10161753 -0.18513682 -0.25257596 -0.15174814 -0.068378605 -0.04094928 -0.17132
0.09683658 -0.13145861 -0.020900648 -0.045439553 0.14037667 -0.06323209 -0.08384532 0.088585705
-0.112473756 0.02420275 -0.0033515699 0.07100471 -0.13362844 0.10619037 -0.15689309 -0.13038675
-0.12377875 0.028321305 0.005276959 0.026017923 -0.08795932 -0.088961095 -0.06531038 -0.09946785
-0.20543864 -0.20380202 0.12294333 -0.12462835 0.04987059 0.027703175 0.2563874 -0.17070197
-0.015371205 -0.16034827 0.096418194 -0.102497235 0.121095 -0.06130904 -0.11370284 -0.020008143
-0.13052638 -0.017897818 -0.15038368 0.05700283 0.074505225 0.04252186 -0.054100294 0.1176806
-0.16431293 -0.10953706 0.32906476 0.0021842504 0.2133646 0.046030816 0.038224682 -0.198857
-0.08472506 -0.20638815 0.041551616 -0.006381466 -0.06371772 -0.09777587 -0.007023955 -0.07174755
-0.03600942 0.025440253 -0.11336055 -0.14114666 0.10909303 0.007456062 -0.06791769 -0.19733256
-0.10369714 0.07999081 -0.09137054 0.07397995 0.051058244 -0.1926538 -0.0849155 0.0088871475
0.15366201 -0.07927139 -0.1497239 -0.058307786 -0.09403071 0.12988722 0.0919721 0.021887707
0.022050714 0.16197589 -0.07819473 -0.14306536 0.013438646 -0.113773346 0.057354268 -0.18624191
-0.080216534 0.08986829 0.050024483 -0.18359427 0.12336642 0.07832181 -0.047251057 -0.031146336
0.14436866 0.010848758 0.029452235 -0.040600732 -0.123850636 0.065955244 0.24301969 -0.037912376
0.099977456 -0.2055247 -0.031080307 -0.14616135 -0.0222969 -0.07424557 0.052711677 0.10838688
-0.25916204 0.2322434 -0.17348379 -0.16267848 0.24033594 -0.16654815 -0.033899892 -0.08636735
0.1778175 0.07881232 -0.06036241 -0.0009353157 0.057294536 0.041419037 -0.076495975 -0.004177806
0.23678787 -0.19599353 0.019068334 0.050832227 -0.08835629 0.16168287 -0.056333162 -0.077079445
00000000: a8bc 08be 097c 183e 651f 093c 7176 d33d
00000010: 29f4 eebd 0eb3 cdbd 88cd 533d 2a25 42bd
00000020: 6077 e4bd 0eba a5bd 87fd 3b3e 91a7 34be
00000030: 4155 933d 40e6 733d 172d c2bd f53d 0abe
00000040: 2022 fa3d c512 c2bd f132 5abd 18ed 5b3b
00000050: cdfd cfbd 73db 88bd d4c7 cdbd b06b f33d
00000060: ca31 dfbd a500 f3bb 77f6 49be f380 013e
00000070: fb4e bebd ec19 17be b7c7 c33d 2c39 1d3e
00000080: bd76 cebd 3a65 d5bc e902 d2bd 9ed9 af3c
00000090: f584 c93d 9edf de3d e2e9 47bd 9515 94be
000000a0: 4017 03be 3a14 51be 463c 51bd 5a00 6e3b
000000b0: 5a80 cc3d 0500 bfbd e48d a6bd 60da ddbd
000000c0: 1e06 c5bc 1a7d 8e3d 86ef 12bd dccd 5fbb
000000d0: d33f 0e3e 09d9 813d 2bbc 013b c5ab bdbd
000000e0: 912b 4ebe e556 0abe 8281 123d 4aca 7abd
000000f0: 5b8a c43d 457b a4bc d19f 6cbd 81d1 4ebb
00000100: cecc 083e 686d dfbd 0c43 f9bd da0d cbbd
00000110: ce59 19be c377 143e 714b f9bd 0553 ddbd
00000120: 3411 8a3d db60 c33d dd1d 9ebd 30c7 17be
00000130: 0ae1 13be 6198 2bbe 33e6 d13c 58d3 96bd
00000140: 7998 fabd 455b fa3d aa18 083c df65 e1bd
00000150: 3681 bdbd a1a9 1f3e 22eb 18be f0fa 21bd
00000160: 062e aa3d 8875 863d eeb2 acbd 2f5a 953d
00000170: 6aee 12be bb82 da3d ef4e 633c 216f c1bd
00000180: 7b98 8bbd 5736 0bbe 73e1 233d ef07 d2bd
00000190: 81e0 823d d3b8 eabd 0f0e 14be 00c0 17be
000001a0: ae7e 3d3e da1c d03d 8294 3dbe a351 81be
000001b0: dd63 1bbe 150a 8cbd 6fba 27bd 836e 2fbe
000001c0: 4252 c63d 169d 06be d637 abbc d31e 3abd
000001d0: e7be 0f3e d37f 81bd 18b7 abbd 6c6c b53d
000001e0: a458 e6bd d844 c63c 03a6 5bbb eb6a 913d
000001f0: e5d5 08be 567a d93d 95a8 20be 1b84 05be
00000200: b77f fdbd 1502 e83c 57ea ac3b 8a23 d53c
00000210: 0424 b4bd 3c31 b6bd 73c1 85bd cdb5 cbbd
00000220: 825e 52be 7ab1 50be b6c9 fb3d 263d ffbd
00000230: 1b45 4c3d c5f1 e23c 3645 833e 7fcc 2ebe
00000240: 82d7 7bbc 5632 24be e776 c53d 12ea d1bd
00000250: a800 f83d 301f 7bbd 09dd e8bd 1ee8 a3bc
00000260: b5a8 05be 729e 92bc 2efe 19be cd7b 693d
00000270: 3296 983d 672b 2e3d 4598 5dbd 8702 f13d
00000280: a641 28be f754 e0bd 2d7b a83e a425 0f3b
00000290: 407c 5a3e cf8a 3c3d 7c91 1c3d 2ba1 4bbe
000002a0: 5584 adbd 6a57 53be 0732 2a3d 9e1b d1bb
000002b0: 707e 82bd b73e c8bd 3529 e6bb 61f0 92bd
000002c0: 9d7e 13bd 1468 d03c 9329 e8bd c088 10be
000002d0: 2b6c df3d fb51 f43b 6e18 8bbd 8c11 4abe
000002e0: 2b5f d4bd 39d2 a33d 7a20 bbbd cd82 973d
000002f0: 7322 513d 0a47 45be 2de8 adbd 669b 113c
00000300: 9359 1d3e 0a59 a2bd 3951 19be 25d4 6ebd
00000310: 2c93 c0bd 2801 053e de5b bc3d d94d b33c
00000320: b3a3 b43c 02dd 253e 8f24 a0bd ba7f 12be
00000330: c42d 5c3c 0002 e9bd 4fec 6a3d 33b6 3ebe
00000340: 9148 a4bd de0c b83d 79e6 4c3d 2300 3cbe
00000350: 89a7 fc3d 2f67 a03d 538a 41bd 9a26 ffbc
00000360: 61d5 133e fdbe 313c d045 f13c f44c 26bd
00000370: 67a5 fdbd 8b13 873d 27da 783e 024a 1bbd
00000380: fbc0 cc3d 1175 52be 219c febc 52ab 15be
00000390: fda7 b6bc 100e 98bd 33e8 573d f1f9 dd3d
000003a0: e3b0 84be 37d1 6d3e bca5 31be 3095 26be
000003b0: a01a 763e 998b 2abe 9dda 0abd 5de1 b0bd
000003c0: ca15 363e 5b68 a13d 933e 77bd f92f 75ba
000003d0: adad 6a3d 02a7 293d eca9 9cbd fae5 88bb
000003e0: 8578 723e 87b2 48be 3235 9c3c 7435 503d
000003f0: 24f4 b4bd 3290 253e 9abd 66bd d4db 9dbd

fc4.bias f4 [2]
-0.08423967 0.028598562
00000000: d985 acbd 8847 ea3c

fc1.weight f4 [128, 7]
0.28097636 -0.44669265 0.16451237 0.22525945 -0.2432076 0.17261048 0.2363757 0.06979833
0.3175695 -0.01543159 0.24045347 0.07338258 0.085975945 0.14624576 -0.35653663 0.108334616
-0.1556433 -0.35627043 -0.2914347 -0.03469091 0.028346227 -0.27814138 0.27469972 0.04240226
0.013218043 -0.14328372 0.013752354 0.39686581 -0.037998438 0.3037235 -0.46713567 -0.046213213
-0.35750043 0.2011507 0.38110295 0.01986945 0.1401149 0.24400087 -0.2851526 0.077346705
-0.33852443 -0.099359736 0.13131872 -0.26044747 0.12714095 -0.23010299 -0.13682453 -0.36504945
-0.22799915 -0.0022418264 0.121857524 -0.3286953 -0.34031042 0.13931282 0.19311947 0.36511895
-0.12730612 0.15690179 0.3960827 0.14585935 -0.29323238 0.40992114 0.15831167 -0.17233887
-0.29886657 0.28368592 -0.08656799 -0.22791815 -0.19700317 0.122116886 0.1528809 0.41679317
-0.042950038 0.34249216 0.38229114 -0.07108318 -0.4652324 0.11877554 -0.22808655 0.05396923
-0.20063299 -0.65453565 0.44804448 -0.26317483 0.15793079 -0.36833045 0.35532176 -0.17853962
0.35399678 -0.27559012 -0.047553096 0.31081042 0.36110592 -0.18572801 -0.2787535 0.29818177
0.15402752 -0.19272347 0.20250602 -0.3073105 -0.13850078 -0.120646276 0.040139377 0.38886988
-0.12122069 0.12785628 -0.18980062 0.2347557 0.21140362 -0.12767036 0.3966126 -0.16509642
0.026615364 0.20008822 -0.10823795 -0.43455404 0.0053409827 -0.2675024 0.22211218 0.49132264
0.24353194 0.29598796 -0.18916926 -0.3567253 0.12182996 -0.19866796 0.10931894 -0.11304734
-0.6545289 0.07490431 -0.013052371 -0.3747498 0.10329475 0.0044574765 -0.25220478 -0.13664971
0.12573409 -0.29830423 -0.18599388 -0.1717035 -0.19060388 -0.18248004 0.18635488 -0.102482066
-0.273606 0.24104953 -0.3263067 -0.18017118 -0.08334815 -0.30783615 -0.028560517 -0.2773768
0.10874765 -0.1313946 0.18098779 0.3407009 -0.185538 -0.15952864 -0.17982298 -0.12241533
0.26435587 -0.49180445 -0.16858798 -0.064033374 0.1617437 0.34317192 0.28395566 -0.4267317
0.12951219 -0.38141632 -0.20722248 0.10815203 0.1315238 0.017345505 0.06223649 0.02126
0.011171899 -0.5224314 -0.25856033 -0.0480136 -0.39397392 0.16138284 0.093206994 0.1217091
-0.24935979 0.14419763 0.27760345 0.2682622 -0.16842481 -0.051404376 -0.21143912 0.39091775
-0.26304534 -0.34718913 0.008966344 -0.23792358 0.26419532 0.15822071 -0.10834233 -0.0129773505
-0.21888773 0.11794425 0.13001473 -0.30799225 -0.17716031 0.29966593 -0.17576787 0.44334146
-0.15893753 -0.14413546 -0.36071357 0.34040555 -0.37716952 -0.03726294 0.059434526 0.10401916
-0.20751719 -0.08685177 -0.17299777 -0.051476356 -0.14885058 -0.36402485 0.18221433 -0.20525381
-0.1904921 0.2590279 -0.5736643 0.2521843 0.30377457 0.1602705 0.11362634 0.21022505
-0.041485514 -0.45872277 -0.08000619 0.37243453 0.00912701 0.36442563 -0.050150275 -0.092072494
-0.15215154 -0.12642156 -0.28900048 -0.11794713 0.45473358 0.24126728 0.4601651 -0.05668735
0.24118452 0.23904087 0.3147219 0.30839172 -0.2907201 0.3499216 0.3377473 0.28536364
00000000: 22dc 8f3e e6b4 e4be ee75 283e 6aaa 663e
00000010: 6a0b 79be cdc0 303e 790c 723e 6df2 8e3d
00000020: 7898 a23e c8d4 7cbc 6f39 763e 9b49 963d
00000030: 2814 b03d 73c1 153e f88b b6be 8ade dd3d
00000040: f560 1fbe 1469 b6be ee36 95be 0e18 0ebd
00000050: 5936 e83c 8c68 8ebe 71a5 8c3e fead 2d3d
00000060: 7e90 583c f8b8 12be 8e51 613c ff31 cb3e
00000070: 40a4 1bbd a681 9b3e 682c efbe 114a 3dbd
00000080: 4c0a b7be 73fa 4d3e ed1f c33e 42c5 a23c
00000090: 487a 0f3e 5ddb 793e 86ff 91be f367 9e3d
000000a0: 1353 adbe 1e7d cbbd 6a78 063e 5f59 85be
000000b0: 3d31 023e 1ea0 6bbe bb1b 0cbe c3e7 babe
000000c0: 9c78 69be 9beb 12bb 7090 f93d c04a a8be
000000d0: 2b3d aebe 05a8 0e3e 1cc1 453e dff0 ba3e
000000e0: 895c 02be ddaa 203e 5acb ca3e 275c 153e
000000f0: 8e22 96be 2fe1 d13e 741c 223e 9a79 30be
00000100: 0a05 99be 483f 913e 8f4a b1bd 6063 69be
00000110: 33bb 49be 6b18 fa3d d08c 1c3e ea65 d53e
00000120: 61ec 2fbd 225b af3e aabb c33e 0f94 91bd
00000130: f132 eebe 9740 f33d 858f 69be d70e 5d3d
00000140: bc72 4dbe a68f 27bf 1666 e53e dabe 86be
00000150: 9cb8 213e cf95 bcbe bcec b53e 17d3 36be
00000160: 113f b53e 261a 8dbe 09c7 42bd 8b22 9f3e
00000170: e0e2 b83e 7c2f 3ebe c7b8 8ebe 48ab 983e
00000180: 64b9 1d3e 4d59 45be bd5d 4f3e cd57 9dbe
00000190: 26d3 0dbe 6515 f7bd 3069 243d f419 c73e
000001a0: 8e42 f8bd c2ec 023e 185b 42be cc63 703e
000001b0: 317a 583e 05bc 02be cf10 cb3e 090f 29be
000001c0: 7708 da3c ede3 4c3e dcab ddbd de7d debe
000001d0: 6903 af3b 13f6 88be 6071 633e a48e fb3e
000001e0: 7060 793e bc8b 973e 96b5 41be b3a4 b6be
000001f0: fc81 f93d 9d6f 4bbe 9ce2 df3d 5d85 e7bd
00000200: 358f 27bf 6e67 993d 9dd9 55bc 35df bfbe
00000210: 338c d33d 0610 923b fc20 81be e7ed 0bbe
00000220: 70c0 003e 55bb 98be 2e75 3ebe 0bd3 2fbe
00000230: aa2d 43be 0cdc 3abe d0d3 3e3e 1ee2 d1bd
00000240: 1616 8cbe b0d5 763e ac11 a7be cb7e 38be
00000250: 6fb2 aabd b39c 9dbe bff7 e9bc 5504 8ebe
00000260: 17b7 de3d 4e8c 06be dd54 393e 5970 ae3e
00000270: acfd 3dbe 7a5b 23be 8423 38be e3b4 fabd
00000280: a759 873e cbcd fbbe 54a2 2cbe ee23 83bd
00000290: 24a0 253e 3bb4 af3e a362 913e 947c dabe
000002a0: d89e 043e 0049 c3be 2132 54be d07e dd3d
000002b0: 2dae 063e 2918 8e3c b1eb 7e3d 7429 ae3c
000002c0: 570a 373c 10be 05bf 0562 84be e9a9 44bd
000002d0: f3b6 c9be 8b41 253e 4fe3 be3d 9f42 f93d
000002e0: 2c58 7fbe 8ba8 133e 0a22 8e3e aa59 893e
000002f0: 8e77 2cbe 658d 52bd 7f83 58be 5f26 c83e
00000300: e1ad 86be c6c2 b1be 93e7 123c 3da2 73be
00000310: 9c44 873e 9c04 223e 95e2 ddbd f49e 54bc
00000320: 1b24 60be c18c f13d 9522 053e 29b1 9dbe
00000330: 8369 35be d06d 993e 7efc 33be a7fd e23e
00000340: 85c0 22be 3f98 13be 73af b8be a349 ae3e
00000350: 5d1c c1be 06a1 18bd 9e71 733d ff07 d53d
00000360: 637f 54be 57df b1bd 5426 31be dfd8 52bd
00000370: 496c 18be 7761 babe 6596 3a3e 0e2e 52be
00000380: 5c10 43be 4e9f 843e aadb 12bf 4d1e 813e
00000390: 5788 9b3e f31d 243e edb4 e83d 3c45 573e
000003a0: b7ec 29bd b6dd eabe 49da a3bd bdaf be3e
000003b0: 7489 153c ff95 ba3e 606a 4dbd 8190 bcbd
000003c0: 9dcd 1bbe a774 01be dff7 93be 448e f1bd
000003d0: d7d2 e83e c50e 773e c39a eb3e ff30 68bd
000003e0: 13f9 763e 21c7 743e 3b23 a13e 85e5 9d3e
000003f0: 44d9 94be ed28 b33e 37ed ac3e 2f1b 923e

fc1.bias f4 [128]
-0.28194442 0.046449192 0.103148796 -0.0973271 0.31661928 -0.33989868 0.039171457 0.19161469
-0.013954176 -0.062470775 0.16436352 0.109543234 -0.38430262 -0.062380146 -0.22283897 -0.25996202
-0.15539193 -0.2681995 0.24131945 0.06641694 -0.21716374 -0.075315766 0.20809725 0.04217922
-0.09534791 0.19903482 0.32234687 0.3455226 0.056731008 0.252312 -0.2200316 -0.34659618
-0.01591386 0.10285535 0.0042180824 0.3212291 0.27087906 0.20187654 0.044653863 0.0048492965
0.31827074 0.27838233 0.0019395386 0.40307504 -0.12702422 0.2228415 0.21041632 0.042824663
-0.33054644 0.1299033 -0.0013594099 -0.36920545 -0.20489433 -0.425397 -0.081802644 0.09243159
-0.2756977 -0.3262021 -0.3765149 0.32543012 0.112253696 -0.20184003 -0.09336956 -0.079240136
-0.086267665 0.18978149 -0.07052329 -0.1530987 -0.15051407 -0.0768155 0.24837767 0.012422404
-0.17078705 -0.016770812 0.14422268 -0.33671346 0.19808833 0.04495796 0.07921984 -0.1520947
0.2895213 -0.10837667 0.27637845 -0.3098709 -0.03767536 0.30177268 -0.17116526 -0.19838285
0.34391376 0.08658177 -0.07918845 -0.2407642 0.3241924 0.380182 -0.05812918 0.20702639
-0.36437285 0.31734142 0.12710303 -0.02245977 0.11890825 0.34993583 0.2091072 -0.065516874
0.12643887 -0.121648096 -0.18919697 0.29294294 0.25863856 -0.28426224 -0.15029596 0.29052114
0.28159726 0.18751432 0.3382971 -0.3392244 -0.010957398 -0.051565703 0.28109866 -0.090660915
0.09251879 -0.014573729 -0.19146734 0.09073274 -0.1917364 -0.19968662 0.2887112 -0.29031447
00000000: 055b 90be 8241 3e3d ad3f d33d 6e53 c7bd
00000010: ec1b a23e 3307 aebe 4072 203d a436 443e
00000020: 0ea0 64bc 5be1 7fbd e94e 283e 3458 e03d
00000030: 50c3 c4be 5382 7fbd e62f 64be be19 85be
00000040: 101f 1fbe 7251 89be 721c 773e 9b05 883d
00000050: 2c60 5ebe 273f 9abd 7217 553e 1ec4 2c3d
00000060: c445 c3bd c9cf 4b3e a60a a53e 57e8 b03e
00000070: c65e 683d 0a2f 813e f74f 61be 0e75 b1be
00000080: c95d 82bc d3a5 d23d d737 8a3b 2478 a43e
00000090: a9b0 8a3e b9b8 4e3e f8e6 363d d9e6 9e3b
000000a0: 62f4 a23e 2188 8e3e 1e38 fe3a da5f ce3e
000000b0: a312 02be 9030 643e 6077 573e ea68 2f3d
000000c0: 623d a9be 5f05 053e 3a2e b2ba 7f08 bdbe
000000d0: d2cf 51be a3cd d9be 2588 a7bd c64c bd3d
000000e0: 4028 8dbe f603 a7be 90c6 c0be c79e a63e
000000f0: 44e5 e53d 27af 4ebe 8a38 bfbd a748 a2bd
00000100: 1aad b0bd 1456 423e 846e 90bd e8c5 1cbe
00000110: 5c20 1abe 7251 9dbd b756 7e3e 5787 4b3c
00000120: cde2 2ebe f162 89bc 1caf 133e b565 acbe
00000130: abd7 4a3e d625 383d 033e a23d b7be 1bbe
00000140: 233c 943e 96f4 ddbd 7a81 8d3e 66a7 9ebe
00000150: 7a51 1abd f381 9a3e f245 2fbe e024 4bbe
00000160: 7715 b03e c851 b13d 8e2d a2bd e48a 76be
00000170: 8cfc a53e 37a7 c23e dd18 6ebd bafe 533e
00000180: 148f babe 937a a23e 4c27 023e 8dfd b7bc
00000190: 2b86 f33d ca2a b33e 3320 563e b62d 86bd
000001a0: 3179 013e a322 f9bd dabc 41be 9efc 953e
000001b0: 466c 843e d28a 91be 2fe7 19be 30bf 943e
000001c0: 842d 903e c103 403e 4735 ad3e d2ae adbe
000001d0: a986 33bc 8f36 53bd 2aec 8f3e 6eac b9bd
000001e0: 7e7a bd3d a6c6 6ebc 0410 44be 16d2 b93d
000001f0: 8c56 44be a67a 4cbe f4d1 933e 19a4 94be

fc2.weight f4 [128, 128]
0.21193874 -0.02383891 -0.0021160562 -0.04192674 -0.03546701 -0.0507785 -0.07250786 -0.03452649
-0.004849598 0.046412587 -0.037263386 0.22691996 -0.030139424 0.12894185 0.032266356 0.09443107
0.021106174 0.15870035 0.04694266 -0.025867501 0.032200836 0.014399945 0.017234245 -0.12359207
-0.1705801 -0.10244407 0.057774212 0.09131631 0.11000295 -0.13489597 0.051567953 -0.006857798
-0.08921511 -0.07114243 -0.053312145 -0.06461964 0.067756996 0.029146904 0.18192673 -0.035987325
0.14855704 0.007943974 0.07001145 0.18618888 0.018518806 0.0020829267 -0.042778034 -0.0134356795
0.005702869 -0.06434345 -0.08806908 -0.0382364 0.08091889 -0.08115031 0.06343723 -0.019213803
0.0015172759 -0.04597353 0.045161318 -0.00075060007 0.14415994 -0.2568902 -0.011639575 0.10605422
-0.20448276 -0.027806489 0.024065398 0.13414419 -0.08626096 0.118777685 -0.0056337803 -0.081473164
0.016893126 0.032283016 -0.13363339 0.23735346 -0.014716641 0.17702161 0.12399259 -0.048107635
-0.014262719 -0.2383753 -0.02007765 0.034845497 0.19878227 -0.027370667 0.033079986 0.10312304
0.14015077 0.1748922 0.038506 0.010398713 0.056448966 -0.02460046 -0.049235083 0.009995176
0.048433747 -0.060836267 -0.011287832 -0.008217871 -0.09579071 -0.06438965 0.22681084 -0.037291124
-0.10409204 -0.05275291 0.12512362 -0.04208285 0.2009875 0.12048108 0.1427238 -0.028761636
-0.08795183 0.021101298 0.22742406 -0.14958689 -0.027709397 0.06771885 0.07555851 -0.07002599
-0.111697584 0.08094412 0.17759953 0.06509333 -0.18538871 -0.08856102 0.13648318 0.050396007
-0.121958405 0.057122078 0.04401094 0.09526003 -0.1085351 -0.08399237 -0.08820226 -0.036410574
-0.044621877 0.0883572 0.087512344 -0.056018107 -0.08625961 0.059985097 -0.14903615 0.0886476
0.07468743 -0.052638903 0.0673529 0.06473647 0.05707611 -0.017779522 -0.15084758 -0.005684501
-0.021197125 -0.055667244 0.028193131 0.0400922 -0.04631142 0.1638675 -0.016743952 -0.025041107
-0.08900134 -0.010921332 -0.16649562 0.11739147 -0.0048540737 0.24431904 -0.19183168 -0.035448104
0.1842612 0.114490226 0.024407621 -0.10081519 0.08715511 0.07962694 -0.0026421985 -0.0458831
-0.04913721 -0.08160074 -0.1604967 0.08257179 0.08247603 0.076964155 0.0041677314 0.16728431
-0.06483781 0.08777608 0.083293974 0.09181356 0.004870964 0.27713713 0.14706661 0.089744374
0.18818548 0.022777615 -0.08092632 0.114329234 0.048862897 0.1567318 0.12100011 -0.1333385
0.08588141 0.46410748 0.021632012 -0.12122991 0.056207232 -0.078093484 -0.09910244 -0.006029665
-0.063679226 0.2591556 -0.058950398 -0.0019872633 -0.23749684 0.05871977 -0.05342784 -0.10658409
-0.02901457 0.052520446 0.022145038 -0.072362565 0.106180616 0.0137297055 -0.073507294 0.0350462
-0.0066747754 0.07880886 0.07828182 -0.016690657 -0.10223782 -0.020560255 -0.0041433163 0.19764714
0.23466688 -0.04228983 0.08475294 0.061886787 0.08670152 -0.30645826 0.031804103 -0.15596537
0.07460002 -0.07719656 0.0058054333 -0.06363379 -0.00959406 -0.043401875 0.059140116 0.046739567
-0.0344548 0.04664753 -0.10850093 0.02799048 -0.1343559 0.042980254 0.034434803 -0.0560758
00000000: 7806 593e d149 c3bc 88ad 0abb 60bb 2bbd
00000010: db45 11bd 1efd 4fbd 007f 94bd a66b 0dbd
00000020: 60e9 9ebb 201b 3e3d 7ea1 18bd b55d 683e
00000030: f4e6 f6bc 5509 043e ba29 043d 1465 c13d
00000040: dbe6 ac3c 5882 223e f246 403d 15e8 d3bc
00000050: 06e5 033d bfed 6b3c d52e 8d3c d71d fdbd
00000060: 8dac 2ebe 32ce d1bd a7a4 6c3d 0c04 bb3d
00000070: 3a49 e13d 2b22 0abe eb38 533d 61b7 e0bb
00000080: 69b6 b6bd 1fb3 91bd d65d 5abd 4d57 84bd
00000090: 2ec4 8a3d 7dc5 ee3c 004b 3a3e 7267 13bd
000000a0: 561f 183e 7127 023c 2a62 8f3d 4ca8 3e3e
000000b0: c0b4 973c b681 083b 0538 2fbd 5321 5cbc
000000c0: 22df ba3b 80c6 83bd 905d b4bd c59d 1cbd
000000d0: ceb8 a53d 2232 a6bd 61eb 813d 4466 9dbc
000000e0: 55df c63a bd4e 3cbd 13fb 383d ebc3 44ba
000000f0: aa9e 133e 1d87 83be eab3 3ebc f432 d93d
00000100: ee63 51be 6fca e3bc cc24 c53c 185d 093e
00000110: 96a9 b0bd b741 f33d 939b b8bb 67db a6bd
00000120: 7463 8a3c 323b 043d 31d7 08be c90c 733e
00000130: 111e 71bc 2745 353e d4ef fd3d 830c 45bd
00000140: 2eae 69bc a818 74be e279 a4bc 27ba 0e3d
00000150: 948d 4b3e 7338 e0bc e17e 073d 2c32 d33d
00000160: af83 0f3e f116 333e 78b8 1d3d 5d5f 2a3c
00000170: 0837 673d e786 c9bc baaa 49bd cfc2 233c
00000180: 7762 463d 732f 79bd 99f0 38bc 40a4 06bc
00000190: eb2d c4bd b9de 83bd 1a41 683e 94be 18bd
000001a0: 352e d5bd 6f13 58bd 6820 003e 115f 2cbd
000001b0: abcf 4d3e c9be f63d 3026 123e 869d ebbc
000001c0: 1720 b4bd a1dc ac3c dae1 683e 4e2d 19be
000001d0: d1fe e2bc 2eb0 8a3d 6cbe 9a3d c969 8fbd
000001e0: b4c1 e4bd 08c6 a53d a7dc 353e a74f 853d
000001f0: 8ad6 3dbe 7b5f b5bd 3fc2 0b3e 0b6c 4e3d
00000200: 54c5 f9bd d7f8 693d d144 343d b117 c33d
00000210: a747 debd 3104 acbd 63a3 b4bd 4123 15bd
00000220: 6ec5 36bd 9ff4 b43d ac39 b33d 3e73 65bd
00000230: e1a8 b0bd efb2 753d ef9c 18be df8c b53d
00000240: b9f5 983d e49b 57bd 51f0 893d 8e94 843d
00000250: a4c8 693d 5ca6 91bc ca77 1abe 0d45 babb
00000260: 98a5 adbc 5603 64bd 48f5 e63c b837 243d
00000270: 0bb1 3dbd e2cc 273e 9d2a 89bc 0223 cdbc
00000280: 5646 b6bd 63ef 32bc d47d 2abe f06a f03d
00000290: ec0e 9fbb c52e 7a3e 866f 44be 0832 11bd
000002a0: f8ae 3c3e da79 ea3d 7ef2 c73c 3278 cebd
000002b0: 617e b23d 7313 a33d bc28 2dbb ebef 3bbd
000002c0: 1944 49bd 4a1e a7bd 3f59 24be 661b a93d
000002d0: 31e9 a83d 629f 9d3d 7791 883b 944c 2b3e
000002e0: b0c9 84bd f2c3 b33d 0896 aa3d bf08 bc3d
000002f0: 9c9c 9f3b ebe4 8d3e a198 163e e6cb b73d
00000300: b2b3 403e 1f98 ba3c b3bc a5bd 7225 ea3d
00000310: 7624 483d 4d7e 203e e8ce f73d e389 08be
00000320: 98e2 af3d 7f9f ed3e 9e35 b13c 6347 f8bd
00000330: 8e39 663d 7aef 9fbd 38f6 cabd 7f94 c5bb
00000340: 416a 82bd 0bb0 843e f975 71bd bf3c 02bb
00000350: 5f32 73be 2484 703d 27d7 5abd c248 dabd
00000360: f7af edbc ae1f 573d 8369 b53c d332 94bd
00000370: 3975 d93d 8ff2 603c fe8a 96bd 9b8c 0f3d
00000380: 13b8 dabb 8a66 a13d 3852 a03d d8ba 88bc
00000390: 1062 d1bd fb6d a8bc a8c4 87bb 0364 4a3e
000003a0: 844c 703e 1a38 2dbd f392 ad3d 007d 7d3d
000003b0: 9190 b13d 19e8 9cbe 0545 023d 63b5 1fbe
000003c0: e5c7 983d 3b19 9ebd 813b be3b 6f52 82bd
000003d0: 6730 1dbc 2ac6 31bd e83c 723d fd71 3f3d
000003e0: 7a20 0dbd 7b11 3f3d bc35 debd 4b4c e53c
000003f0: 9894 09be 100c 303d 820b 0d3d bdaf 65bd
